…
I0629 05:14:24.314734  2606 net.cpp:294] The NetState phase (1) differed from the phase (0) specified by a rule in layer input
I0629 05:14:24.316159  2606 net.cpp:51] Initializing net from parameters: 
name: "ResNet-50"
state {
  phase: TEST
  level: 0
  stage: ""
}
layer {
  name: "input"
  type: "Data"
  top: "data"
  top: "label"
  include {
    phase: TEST
  }
  transform_param {
    mirror: true
    mean_file: "../../../data_subsets/subtrain2_mean.binaryproto"
  }
  data_param {
    source: "../../../data_subsets/subtrain2_lmdb"
    batch_size: 8
    backend: LMDB
  }
}
layer {
  name: "conv1"
  type: "Convolution"
  bottom: "data"
  top: "conv1"
  param {
    lr_mult: 1
    decay_mult: 1
  }
  param {
    lr_mult: 2
    decay_mult: 0
  }
  convolution_param {
    num_output: 64
    pad: 3
    kernel_size: 7
    stride: 2
  }
}
layer {
  name: "bn_conv1"
  type: "BatchNorm"
  bottom: "conv1"
  top: "conv1"
  batch_norm_param {
    use_global_stats: true
  }
}
layer {
  name: "scale_conv1"
  type: "Scale"
  bottom: "conv1"
  top: "conv1"
  scale_param {
    bias_term: true
  }
}
layer {
  name: "conv1_relu"
  type: "ReLU"
  bottom: "conv1"
  top: "conv1"
}
layer {
  name: "pool1"
  type: "Pooling"
  bottom: "conv1"
  top: "pool1"
  pooling_param {
    pool: MAX
    kernel_size: 3
    stride: 2
  }
}
layer {
  name: "res2a_branch1"
  type: "Convolution"
  bottom: "pool1"
  top: "res2a_branch1"
  param {
    lr_mult: 1
    decay_mult: 1
  }
  convolution_param {
    num_output: 256
    bias_term: false
    pad: 0
    kernel_size: 1
    stride: 1
  }
}
layer {
  name: "bn2a_branch1"
  type: "BatchNorm"
  bottom: "res2a_branch1"
  top: "res2a_branch1"
  batch_norm_param {
    use_global_stats: true
  }
}
layer {
  name: "scale2a_branch1"
  type: "Scale"
  bottom: "res2a_branch1"
  top: "res2a_branch1"
  scale_param {
    bias_term: true
  }
}
layer {
  name: "res2a_branch2a"
  type: "Convolution"
  bottom: "pool1"
  top: "res2a_branch2a"
  param {
    lr_mult: 1
    decay_mult: 1
  }
  convolution_param {
    num_output: 64
    bias_term: false
    pad: 0
    kernel_size: 1
    stride: 1
  }
}
layer {
  name: "bn2a_branch2a"
  type: "BatchNorm"
  bottom: "res2a_branch2a"
  top: "res2a_branch2a"
  batch_norm_param {
    use_global_stats: true
  }
}
layer {
  name: "scale2a_branch2a"
  type: "Scale"
  bottom: "res2a_branch2a"
  top: "res2a_branch2a"
  scale_param {
    bias_term: true
  }
}
layer {
  name: "res2a_branch2a_relu"
  type: "ReLU"
  bottom: "res2a_branch2a"
  top: "res2a_branch2a"
}
layer {
  name: "res2a_branch2b"
  type: "Convolution"
  bottom: "res2a_branch2a"
  top: "res2a_branch2b"
  param {
    lr_mult: 1
    decay_mult: 1
  }
  convolution_param {
    num_output: 64
    bias_term: false
    pad: 1
    kernel_size: 3
    stride: 1
  }
}
layer {
  name: "bn2a_branch2b"
  type: "BatchNorm"
  bottom: "res2a_branch2b"
  top: "res2a_branch2b"
  batch_norm_param {
    use_global_stats: true
  }
}
layer {
  name: "scale2a_branch2b"
  type: "Scale"
  bottom: "res2a_branch2b"
  top: "res2a_branch2b"
  scale_param {
    bias_term: true
  }
}
layer {
  name: "res2a_branch2b_relu"
  type: "ReLU"
  bottom: "res2a_branch2b"
  top: "res2a_branch2b"
}
layer {
  name: "res2a_branch2c"
  type: "Convolution"
  bottom: "res2a_branch2b"
  top: "res2a_branch2c"
  param {
    lr_mult: 1
    decay_mult: 1
  }
  convolution_param {
    num_output: 256
    bias_term: false
    pad: 0
    kernel_size: 1
    stride: 1
  }
}
layer {
  name: "bn2a_branch2c"
  type: "BatchNorm"
  bottom: "res2a_branch2c"
  top: "res2a_branch2c"
  batch_norm_param {
    use_global_stats: true
  }
}
layer {
  name: "scale2a_branch2c"
  type: "Scale"
  bottom: "res2a_branch2c"
  top: "res2a_branch2c"
  scale_param {
    bias_term: true
  }
}
layer {
  name: "res2a"
  type: "Eltwise"
  bottom: "res2a_branch1"
  bottom: "res2a_branch2c"
  top: "res2a"
}
layer {
  name: "res2a_relu"
  type: "ReLU"
  bottom: "res2a"
  top: "res2a"
}
layer {
  name: "res2b_branch2a"
  type: "Convolution"
  bottom: "res2a"
  top: "res2b_branch2a"
  param {
    lr_mult: 1
    decay_mult: 1
  }
  convolution_param {
    num_output: 64
    bias_term: false
    pad: 0
    kernel_size: 1
    stride: 1
  }
}
layer {
  name: "bn2b_branch2a"
  type: "BatchNorm"
  bottom: "res2b_branch2a"
  top: "res2b_branch2a"
  batch_norm_param {
    use_global_stats: true
  }
}
layer {
  name: "scale2b_branch2a"
  type: "Scale"
  bottom: "res2b_branch2a"
  top: "res2b_branch2a"
  scale_param {
    bias_term: true
  }
}
layer {
  name: "res2b_branch2a_relu"
  type: "ReLU"
  bottom: "res2b_branch2a"
  top: "res2b_branch2a"
}
layer {
  name: "res2b_branch2b"
  type: "Convolution"
  bottom: "res2b_branch2a"
  top: "res2b_branch2b"
  param {
    lr_mult: 1
    decay_mult: 1
  }
  convolution_param {
    num_output: 64
    bias_term: false
    pad: 1
    kernel_size: 3
    stride: 1
  }
}
layer {
  name: "bn2b_branch2b"
  type: "BatchNorm"
  bottom: "res2b_branch2b"
  top: "res2b_branch2b"
  batch_norm_param {
    use_global_stats: true
  }
}
layer {
  name: "scale2b_branch2b"
  type: "Scale"
  bottom: "res2b_branch2b"
  top: "res2b_branch2b"
  scale_param {
    bias_term: true
  }
}
layer {
  name: "res2b_branch2b_relu"
  type: "ReLU"
  bottom: "res2b_branch2b"
  top: "res2b_branch2b"
}
layer {
  name: "res2b_branch2c"
  type: "Convolution"
  bottom: "res2b_branch2b"
  top: "res2b_branch2c"
  param {
    lr_mult: 1
    decay_mult: 1
  }
  convolution_param {
    num_output: 256
    bias_term: false
    pad: 0
    kernel_size: 1
    stride: 1
  }
}
layer {
  name: "bn2b_branch2c"
  type: "BatchNorm"
  bottom: "res2b_branch2c"
  top: "res2b_branch2c"
  batch_norm_param {
    use_global_stats: true
  }
}
layer {
  name: "scale2b_branch2c"
  type: "Scale"
  bottom: "res2b_branch2c"
  top: "res2b_branch2c"
  scale_param {
    bias_term: true
  }
}
layer {
  name: "res2b"
  type: "Eltwise"
  bottom: "res2a"
  bottom: "res2b_branch2c"
  top: "res2b"
}
layer {
  name: "res2b_relu"
  type: "ReLU"
  bottom: "res2b"
  top: "res2b"
}
layer {
  name: "res2c_branch2a"
  type: "Convolution"
  bottom: "res2b"
  top: "res2c_branch2a"
  param {
    lr_mult: 1
    decay_mult: 1
  }
  convolution_param {
    num_output: 64
    bias_term: false
    pad: 0
    kernel_size: 1
    stride: 1
  }
}
layer {
  name: "bn2c_branch2a"
  type: "BatchNorm"
  bottom: "res2c_branch2a"
  top: "res2c_branch2a"
  batch_norm_param {
    use_global_stats: true
  }
}
layer {
  name: "scale2c_branch2a"
  type: "Scale"
  bottom: "res2c_branch2a"
  top: "res2c_branch2a"
  scale_param {
    bias_term: true
  }
}
layer {
  name: "res2c_branch2a_relu"
  type: "ReLU"
  bottom: "res2c_branch2a"
  top: "res2c_branch2a"
}
layer {
  name: "res2c_branch2b"
  type: "Convolution"
  bottom: "res2c_branch2a"
  top: "res2c_branch2b"
  param {
    lr_mult: 1
    decay_mult: 1
  }
  convolution_param {
    num_output: 64
    bias_term: false
    pad: 1
    kernel_size: 3
    stride: 1
  }
}
layer {
  name: "bn2c_branch2b"
  type: "BatchNorm"
  bottom: "res2c_branch2b"
  top: "res2c_branch2b"
  batch_norm_param {
    use_global_stats: true
  }
}
layer {
  name: "scale2c_branch2b"
  type: "Scale"
  bottom: "res2c_branch2b"
  top: "res2c_branch2b"
  scale_param {
    bias_term: true
  }
}
layer {
  name: "res2c_branch2b_relu"
  type: "ReLU"
  bottom: "res2c_branch2b"
  top: "res2c_branch2b"
}
layer {
  name: "res2c_branch2c"
  type: "Convolution"
  bottom: "res2c_branch2b"
  top: "res2c_branch2c"
  param {
    lr_mult: 1
    decay_mult: 1
  }
  convolution_param {
    num_output: 256
    bias_term: false
    pad: 0
    kernel_size: 1
    stride: 1
  }
}
layer {
  name: "bn2c_branch2c"
  type: "BatchNorm"
  bottom: "res2c_branch2c"
  top: "res2c_branch2c"
  batch_norm_param {
    use_global_stats: true
  }
}
layer {
  name: "scale2c_branch2c"
  type: "Scale"
  bottom: "res2c_branch2c"
  top: "res2c_branch2c"
  scale_param {
    bias_term: true
  }
}
layer {
  name: "res2c"
  type: "Eltwise"
  bottom: "res2b"
  bottom: "res2c_branch2c"
  top: "res2c"
}
layer {
  name: "res2c_relu"
  type: "ReLU"
  bottom: "res2c"
  top: "res2c"
}
layer {
  name: "res3a_branch1"
  type: "Convolution"
  bottom: "res2c"
  top: "res3a_branch1"
  param {
    lr_mult: 1
    decay_mult: 1
  }
  convolution_param {
    num_output: 512
    bias_term: false
    pad: 0
    kernel_size: 1
    stride: 2
  }
}
layer {
  name: "bn3a_branch1"
  type: "BatchNorm"
  bottom: "res3a_branch1"
  top: "res3a_branch1"
  batch_norm_param {
    use_global_stats: true
  }
}
layer {
  name: "scale3a_branch1"
  type: "Scale"
  bottom: "res3a_branch1"
  top: "res3a_branch1"
  scale_param {
    bias_term: true
  }
}
layer {
  name: "res3a_branch2a"
  type: "Convolution"
  bottom: "res2c"
  top: "res3a_branch2a"
  param {
    lr_mult: 1
    decay_mult: 1
  }
  convolution_param {
    num_output: 128
    bias_term: false
    pad: 0
    kernel_size: 1
    stride: 2
  }
}
layer {
  name: "bn3a_branch2a"
  type: "BatchNorm"
  bottom: "res3a_branch2a"
  top: "res3a_branch2a"
  batch_norm_param {
    use_global_stats: true
  }
}
layer {
  name: "scale3a_branch2a"
  type: "Scale"
  bottom: "res3a_branch2a"
  top: "res3a_branch2a"
  scale_param {
    bias_term: true
  }
}
layer {
  name: "res3a_branch2a_relu"
  type: "ReLU"
  bottom: "res3a_branch2a"
  top: "res3a_branch2a"
}
layer {
  name: "res3a_branch2b"
  type: "Convolution"
  bottom: "res3a_branch2a"
  top: "res3a_branch2b"
  param {
    lr_mult: 1
    decay_mult: 1
  }
  convolution_param {
    num_output: 128
    bias_term: false
    pad: 1
    kernel_size: 3
    stride: 1
  }
}
layer {
  name: "bn3a_branch2b"
  type: "BatchNorm"
  bottom: "res3a_branch2b"
  top: "res3a_branch2b"
  batch_norm_param {
    use_global_stats: true
  }
}
layer {
  name: "scale3a_branch2b"
  type: "Scale"
  bottom: "res3a_branch2b"
  top: "res3a_branch2b"
  scale_param {
    bias_term: true
  }
}
layer {
  name: "res3a_branch2b_relu"
  type: "ReLU"
  bottom: "res3a_branch2b"
  top: "res3a_branch2b"
}
layer {
  name: "res3a_branch2c"
  type: "Convolution"
  bottom: "res3a_branch2b"
  top: "res3a_branch2c"
  param {
    lr_mult: 1
    decay_mult: 1
  }
  convolution_param {
    num_output: 512
    bias_term: false
    pad: 0
    kernel_size: 1
    stride: 1
  }
}
layer {
  name: "bn3a_branch2c"
  type: "BatchNorm"
  bottom: "res3a_branch2c"
  top: "res3a_branch2c"
  batch_norm_param {
    use_global_stats: true
  }
}
layer {
  name: "scale3a_branch2c"
  type: "Scale"
  bottom: "res3a_branch2c"
  top: "res3a_branch2c"
  scale_param {
    bias_term: true
  }
}
layer {
  name: "res3a"
  type: "Eltwise"
  bottom: "res3a_branch1"
  bottom: "res3a_branch2c"
  top: "res3a"
}
layer {
  name: "res3a_relu"
  type: "ReLU"
  bottom: "res3a"
  top: "res3a"
}
layer {
  name: "res3b_branch2a"
  type: "Convolution"
  bottom: "res3a"
  top: "res3b_branch2a"
  param {
    lr_mult: 1
    decay_mult: 1
  }
  convolution_param {
    num_output: 128
    bias_term: false
    pad: 0
    kernel_size: 1
    stride: 1
  }
}
layer {
  name: "bn3b_branch2a"
  type: "BatchNorm"
  bottom: "res3b_branch2a"
  top: "res3b_branch2a"
  batch_norm_param {
    use_global_stats: true
  }
}
layer {
  name: "scale3b_branch2a"
  type: "Scale"
  bottom: "res3b_branch2a"
  top: "res3b_branch2a"
  scale_param {
    bias_term: true
  }
}
layer {
  name: "res3b_branch2a_relu"
  type: "ReLU"
  bottom: "res3b_branch2a"
  top: "res3b_branch2a"
}
layer {
  name: "res3b_branch2b"
  type: "Convolution"
  bottom: "res3b_branch2a"
  top: "res3b_branch2b"
  param {
    lr_mult: 1
    decay_mult: 1
  }
  convolution_param {
    num_output: 128
    bias_term: false
    pad: 1
    kernel_size: 3
    stride: 1
  }
}
layer {
  name: "bn3b_branch2b"
  type: "BatchNorm"
  bottom: "res3b_branch2b"
  top: "res3b_branch2b"
  batch_norm_param {
    use_global_stats: true
  }
}
layer {
  name: "scale3b_branch2b"
  type: "Scale"
  bottom: "res3b_branch2b"
  top: "res3b_branch2b"
  scale_param {
    bias_term: true
  }
}
layer {
  name: "res3b_branch2b_relu"
  type: "ReLU"
  bottom: "res3b_branch2b"
  top: "res3b_branch2b"
}
layer {
  name: "res3b_branch2c"
  type: "Convolution"
  bottom: "res3b_branch2b"
  top: "res3b_branch2c"
  param {
    lr_mult: 1
    decay_mult: 1
  }
  convolution_param {
    num_output: 512
    bias_term: false
    pad: 0
    kernel_size: 1
    stride: 1
  }
}
layer {
  name: "bn3b_branch2c"
  type: "BatchNorm"
  bottom: "res3b_branch2c"
  top: "res3b_branch2c"
  batch_norm_param {
    use_global_stats: true
  }
}
layer {
  name: "scale3b_branch2c"
  type: "Scale"
  bottom: "res3b_branch2c"
  top: "res3b_branch2c"
  scale_param {
    bias_term: true
  }
}
layer {
  name: "res3b"
  type: "Eltwise"
  bottom: "res3a"
  bottom: "res3b_branch2c"
  top: "res3b"
}
layer {
  name: "res3b_relu"
  type: "ReLU"
  bottom: "res3b"
  top: "res3b"
}
layer {
  name: "res3c_branch2a"
  type: "Convolution"
  bottom: "res3b"
  top: "res3c_branch2a"
  param {
    lr_mult: 1
    decay_mult: 1
  }
  convolution_param {
    num_output: 128
    bias_term: false
    pad: 0
    kernel_size: 1
    stride: 1
  }
}
layer {
  name: "bn3c_branch2a"
  type: "BatchNorm"
  bottom: "res3c_branch2a"
  top: "res3c_branch2a"
  batch_norm_param {
    use_global_stats: true
  }
}
layer {
  name: "scale3c_branch2a"
  type: "Scale"
  bottom: "res3c_branch2a"
  top: "res3c_branch2a"
  scale_param {
    bias_term: true
  }
}
layer {
  name: "res3c_branch2a_relu"
  type: "ReLU"
  bottom: "res3c_branch2a"
  top: "res3c_branch2a"
}
layer {
  name: "res3c_branch2b"
  type: "Convolution"
  bottom: "res3c_branch2a"
  top: "res3c_branch2b"
  param {
    lr_mult: 1
    decay_mult: 1
  }
  convolution_param {
    num_output: 128
    bias_term: false
    pad: 1
    kernel_size: 3
    stride: 1
  }
}
layer {
  name: "bn3c_branch2b"
  type: "BatchNorm"
  bottom: "res3c_branch2b"
  top: "res3c_branch2b"
  batch_norm_param {
    use_global_stats: true
  }
}
layer {
  name: "scale3c_branch2b"
  type: "Scale"
  bottom: "res3c_branch2b"
  top: "res3c_branch2b"
  scale_param {
    bias_term: true
  }
}
layer {
  name: "res3c_branch2b_relu"
  type: "ReLU"
  bottom: "res3c_branch2b"
  top: "res3c_branch2b"
}
layer {
  name: "res3c_branch2c"
  type: "Convolution"
  bottom: "res3c_branch2b"
  top: "res3c_branch2c"
  param {
    lr_mult: 1
    decay_mult: 1
  }
  convolution_param {
    num_output: 512
    bias_term: false
    pad: 0
    kernel_size: 1
    stride: 1
  }
}
layer {
  name: "bn3c_branch2c"
  type: "BatchNorm"
  bottom: "res3c_branch2c"
  top: "res3c_branch2c"
  batch_norm_param {
    use_global_stats: true
  }
}
layer {
  name: "scale3c_branch2c"
  type: "Scale"
  bottom: "res3c_branch2c"
  top: "res3c_branch2c"
  scale_param {
    bias_term: true
  }
}
layer {
  name: "res3c"
  type: "Eltwise"
  bottom: "res3b"
  bottom: "res3c_branch2c"
  top: "res3c"
}
layer {
  name: "res3c_relu"
  type: "ReLU"
  bottom: "res3c"
  top: "res3c"
}
layer {
  name: "res3d_branch2a"
  type: "Convolution"
  bottom: "res3c"
  top: "res3d_branch2a"
  param {
    lr_mult: 1
    decay_mult: 1
  }
  convolution_param {
    num_output: 128
    bias_term: false
    pad: 0
    kernel_size: 1
    stride: 1
  }
}
layer {
  name: "bn3d_branch2a"
  type: "BatchNorm"
  bottom: "res3d_branch2a"
  top: "res3d_branch2a"
  batch_norm_param {
    use_global_stats: true
  }
}
layer {
  name: "scale3d_branch2a"
  type: "Scale"
  bottom: "res3d_branch2a"
  top: "res3d_branch2a"
  scale_param {
    bias_term: true
  }
}
layer {
  name: "res3d_branch2a_relu"
  type: "ReLU"
  bottom: "res3d_branch2a"
  top: "res3d_branch2a"
}
layer {
  name: "res3d_branch2b"
  type: "Convolution"
  bottom: "res3d_branch2a"
  top: "res3d_branch2b"
  param {
    lr_mult: 1
    decay_mult: 1
  }
  convolution_param {
    num_output: 128
    bias_term: false
    pad: 1
    kernel_size: 3
    stride: 1
  }
}
layer {
  name: "bn3d_branch2b"
  type: "BatchNorm"
  bottom: "res3d_branch2b"
  top: "res3d_branch2b"
  batch_norm_param {
    use_global_stats: true
  }
}
layer {
  name: "scale3d_branch2b"
  type: "Scale"
  bottom: "res3d_branch2b"
  top: "res3d_branch2b"
  scale_param {
    bias_term: true
  }
}
layer {
  name: "res3d_branch2b_relu"
  type: "ReLU"
  bottom: "res3d_branch2b"
  top: "res3d_branch2b"
}
layer {
  name: "res3d_branch2c"
  type: "Convolution"
  bottom: "res3d_branch2b"
  top: "res3d_branch2c"
  param {
    lr_mult: 1
    decay_mult: 1
  }
  convolution_param {
    num_output: 512
    bias_term: false
    pad: 0
    kernel_size: 1
    stride: 1
  }
}
layer {
  name: "bn3d_branch2c"
  type: "BatchNorm"
  bottom: "res3d_branch2c"
  top: "res3d_branch2c"
  batch_norm_param {
    use_global_stats: true
  }
}
layer {
  name: "scale3d_branch2c"
  type: "Scale"
  bottom: "res3d_branch2c"
  top: "res3d_branch2c"
  scale_param {
    bias_term: true
  }
}
layer {
  name: "res3d"
  type: "Eltwise"
  bottom: "res3c"
  bottom: "res3d_branch2c"
  top: "res3d"
}
layer {
  name: "res3d_relu"
  type: "ReLU"
  bottom: "res3d"
  top: "res3d"
}
layer {
  name: "res4a_branch1"
  type: "Convolution"
  bottom: "res3d"
  top: "res4a_branch1"
  param {
    lr_mult: 1
    decay_mult: 1
  }
  convolution_param {
    num_output: 1024
    bias_term: false
    pad: 0
    kernel_size: 1
    stride: 2
  }
}
layer {
  name: "bn4a_branch1"
  type: "BatchNorm"
  bottom: "res4a_branch1"
  top: "res4a_branch1"
  batch_norm_param {
    use_global_stats: true
  }
}
layer {
  name: "scale4a_branch1"
  type: "Scale"
  bottom: "res4a_branch1"
  top: "res4a_branch1"
  scale_param {
    bias_term: true
  }
}
layer {
  name: "res4a_branch2a"
  type: "Convolution"
  bottom: "res3d"
  top: "res4a_branch2a"
  param {
    lr_mult: 1
    decay_mult: 1
  }
  convolution_param {
    num_output: 256
    bias_term: false
    pad: 0
    kernel_size: 1
    stride: 2
  }
}
layer {
  name: "bn4a_branch2a"
  type: "BatchNorm"
  bottom: "res4a_branch2a"
  top: "res4a_branch2a"
  batch_norm_param {
    use_global_stats: true
  }
}
layer {
  name: "scale4a_branch2a"
  type: "Scale"
  bottom: "res4a_branch2a"
  top: "res4a_branch2a"
  scale_param {
    bias_term: true
  }
}
layer {
  name: "res4a_branch2a_relu"
  type: "ReLU"
  bottom: "res4a_branch2a"
  top: "res4a_branch2a"
}
layer {
  name: "res4a_branch2b"
  type: "Convolution"
  bottom: "res4a_branch2a"
  top: "res4a_branch2b"
  param {
    lr_mult: 1
    decay_mult: 1
  }
  convolution_param {
    num_output: 256
    bias_term: false
    pad: 1
    kernel_size: 3
    stride: 1
  }
}
layer {
  name: "bn4a_branch2b"
  type: "BatchNorm"
  bottom: "res4a_branch2b"
  top: "res4a_branch2b"
  batch_norm_param {
    use_global_stats: true
  }
}
layer {
  name: "scale4a_branch2b"
  type: "Scale"
  bottom: "res4a_branch2b"
  top: "res4a_branch2b"
  scale_param {
    bias_term: true
  }
}
layer {
  name: "res4a_branch2b_relu"
  type: "ReLU"
  bottom: "res4a_branch2b"
  top: "res4a_branch2b"
}
layer {
  name: "res4a_branch2c"
  type: "Convolution"
  bottom: "res4a_branch2b"
  top: "res4a_branch2c"
  param {
    lr_mult: 1
    decay_mult: 1
  }
  convolution_param {
    num_output: 1024
    bias_term: false
    pad: 0
    kernel_size: 1
    stride: 1
  }
}
layer {
  name: "bn4a_branch2c"
  type: "BatchNorm"
  bottom: "res4a_branch2c"
  top: "res4a_branch2c"
  batch_norm_param {
    use_global_stats: true
  }
}
layer {
  name: "scale4a_branch2c"
  type: "Scale"
  bottom: "res4a_branch2c"
  top: "res4a_branch2c"
  scale_param {
    bias_term: true
  }
}
layer {
  name: "res4a"
  type: "Eltwise"
  bottom: "res4a_branch1"
  bottom: "res4a_branch2c"
  top: "res4a"
}
layer {
  name: "res4a_relu"
  type: "ReLU"
  bottom: "res4a"
  top: "res4a"
}
layer {
  name: "res4b_branch2a"
  type: "Convolution"
  bottom: "res4a"
  top: "res4b_branch2a"
  param {
    lr_mult: 1
    decay_mult: 1
  }
  convolution_param {
    num_output: 256
    bias_term: false
    pad: 0
    kernel_size: 1
    stride: 1
  }
}
layer {
  name: "bn4b_branch2a"
  type: "BatchNorm"
  bottom: "res4b_branch2a"
  top: "res4b_branch2a"
  batch_norm_param {
    use_global_stats: true
  }
}
layer {
  name: "scale4b_branch2a"
  type: "Scale"
  bottom: "res4b_branch2a"
  top: "res4b_branch2a"
  scale_param {
    bias_term: true
  }
}
layer {
  name: "res4b_branch2a_relu"
  type: "ReLU"
  bottom: "res4b_branch2a"
  top: "res4b_branch2a"
}
layer {
  name: "res4b_branch2b"
  type: "Convolution"
  bottom: "res4b_branch2a"
  top: "res4b_branch2b"
  param {
    lr_mult: 1
    decay_mult: 1
  }
  convolution_param {
    num_output: 256
    bias_term: false
    pad: 1
    kernel_size: 3
    stride: 1
  }
}
layer {
  name: "bn4b_branch2b"
  type: "BatchNorm"
  bottom: "res4b_branch2b"
  top: "res4b_branch2b"
  batch_norm_param {
    use_global_stats: true
  }
}
layer {
  name: "scale4b_branch2b"
  type: "Scale"
  bottom: "res4b_branch2b"
  top: "res4b_branch2b"
  scale_param {
    bias_term: true
  }
}
layer {
  name: "res4b_branch2b_relu"
  type: "ReLU"
  bottom: "res4b_branch2b"
  top: "res4b_branch2b"
}
layer {
  name: "res4b_branch2c"
  type: "Convolution"
  bottom: "res4b_branch2b"
  top: "res4b_branch2c"
  param {
    lr_mult: 1
    decay_mult: 1
  }
  convolution_param {
    num_output: 1024
    bias_term: false
    pad: 0
    kernel_size: 1
    stride: 1
  }
}
layer {
  name: "bn4b_branch2c"
  type: "BatchNorm"
  bottom: "res4b_branch2c"
  top: "res4b_branch2c"
  batch_norm_param {
    use_global_stats: true
  }
}
layer {
  name: "scale4b_branch2c"
  type: "Scale"
  bottom: "res4b_branch2c"
  top: "res4b_branch2c"
  scale_param {
    bias_term: true
  }
}
layer {
  name: "res4b"
  type: "Eltwise"
  bottom: "res4a"
  bottom: "res4b_branch2c"
  top: "res4b"
}
layer {
  name: "res4b_relu"
  type: "ReLU"
  bottom: "res4b"
  top: "res4b"
}
layer {
  name: "res4c_branch2a"
  type: "Convolution"
  bottom: "res4b"
  top: "res4c_branch2a"
  param {
    lr_mult: 1
    decay_mult: 1
  }
  convolution_param {
    num_output: 256
    bias_term: false
    pad: 0
    kernel_size: 1
    stride: 1
  }
}
layer {
  name: "bn4c_branch2a"
  type: "BatchNorm"
  bottom: "res4c_branch2a"
  top: "res4c_branch2a"
  batch_norm_param {
    use_global_stats: true
  }
}
layer {
  name: "scale4c_branch2a"
  type: "Scale"
  bottom: "res4c_branch2a"
  top: "res4c_branch2a"
  scale_param {
    bias_term: true
  }
}
layer {
  name: "res4c_branch2a_relu"
  type: "ReLU"
  bottom: "res4c_branch2a"
  top: "res4c_branch2a"
}
layer {
  name: "res4c_branch2b"
  type: "Convolution"
  bottom: "res4c_branch2a"
  top: "res4c_branch2b"
  param {
    lr_mult: 1
    decay_mult: 1
  }
  convolution_param {
    num_output: 256
    bias_term: false
    pad: 1
    kernel_size: 3
    stride: 1
  }
}
layer {
  name: "bn4c_branch2b"
  type: "BatchNorm"
  bottom: "res4c_branch2b"
  top: "res4c_branch2b"
  batch_norm_param {
    use_global_stats: true
  }
}
layer {
  name: "scale4c_branch2b"
  type: "Scale"
  bottom: "res4c_branch2b"
  top: "res4c_branch2b"
  scale_param {
    bias_term: true
  }
}
layer {
  name: "res4c_branch2b_relu"
  type: "ReLU"
  bottom: "res4c_branch2b"
  top: "res4c_branch2b"
}
layer {
  name: "res4c_branch2c"
  type: "Convolution"
  bottom: "res4c_branch2b"
  top: "res4c_branch2c"
  param {
    lr_mult: 1
    decay_mult: 1
  }
  convolution_param {
    num_output: 1024
    bias_term: false
    pad: 0
    kernel_size: 1
    stride: 1
  }
}
layer {
  name: "bn4c_branch2c"
  type: "BatchNorm"
  bottom: "res4c_branch2c"
  top: "res4c_branch2c"
  batch_norm_param {
    use_global_stats: true
  }
}
layer {
  name: "scale4c_branch2c"
  type: "Scale"
  bottom: "res4c_branch2c"
  top: "res4c_branch2c"
  scale_param {
    bias_term: true
  }
}
layer {
  name: "res4c"
  type: "Eltwise"
  bottom: "res4b"
  bottom: "res4c_branch2c"
  top: "res4c"
}
layer {
  name: "res4c_relu"
  type: "ReLU"
  bottom: "res4c"
  top: "res4c"
}
layer {
  name: "res4d_branch2a"
  type: "Convolution"
  bottom: "res4c"
  top: "res4d_branch2a"
  param {
    lr_mult: 1
    decay_mult: 1
  }
  convolution_param {
    num_output: 256
    bias_term: false
    pad: 0
    kernel_size: 1
    stride: 1
  }
}
layer {
  name: "bn4d_branch2a"
  type: "BatchNorm"
  bottom: "res4d_branch2a"
  top: "res4d_branch2a"
  batch_norm_param {
    use_global_stats: true
  }
}
layer {
  name: "scale4d_branch2a"
  type: "Scale"
  bottom: "res4d_branch2a"
  top: "res4d_branch2a"
  scale_param {
    bias_term: true
  }
}
layer {
  name: "res4d_branch2a_relu"
  type: "ReLU"
  bottom: "res4d_branch2a"
  top: "res4d_branch2a"
}
layer {
  name: "res4d_branch2b"
  type: "Convolution"
  bottom: "res4d_branch2a"
  top: "res4d_branch2b"
  param {
    lr_mult: 1
    decay_mult: 1
  }
  convolution_param {
    num_output: 256
    bias_term: false
    pad: 1
    kernel_size: 3
    stride: 1
  }
}
layer {
  name: "bn4d_branch2b"
  type: "BatchNorm"
  bottom: "res4d_branch2b"
  top: "res4d_branch2b"
  batch_norm_param {
    use_global_stats: true
  }
}
layer {
  name: "scale4d_branch2b"
  type: "Scale"
  bottom: "res4d_branch2b"
  top: "res4d_branch2b"
  scale_param {
    bias_term: true
  }
}
layer {
  name: "res4d_branch2b_relu"
  type: "ReLU"
  bottom: "res4d_branch2b"
  top: "res4d_branch2b"
}
layer {
  name: "res4d_branch2c"
  type: "Convolution"
  bottom: "res4d_branch2b"
  top: "res4d_branch2c"
  param {
    lr_mult: 1
    decay_mult: 1
  }
  convolution_param {
    num_output: 1024
    bias_term: false
    pad: 0
    kernel_size: 1
    stride: 1
  }
}
layer {
  name: "bn4d_branch2c"
  type: "BatchNorm"
  bottom: "res4d_branch2c"
  top: "res4d_branch2c"
  batch_norm_param {
    use_global_stats: true
  }
}
layer {
  name: "scale4d_branch2c"
  type: "Scale"
  bottom: "res4d_branch2c"
  top: "res4d_branch2c"
  scale_param {
    bias_term: true
  }
}
layer {
  name: "res4d"
  type: "Eltwise"
  bottom: "res4c"
  bottom: "res4d_branch2c"
  top: "res4d"
}
layer {
  name: "res4d_relu"
  type: "ReLU"
  bottom: "res4d"
  top: "res4d"
}
layer {
  name: "res4e_branch2a"
  type: "Convolution"
  bottom: "res4d"
  top: "res4e_branch2a"
  param {
    lr_mult: 1
    decay_mult: 1
  }
  convolution_param {
    num_output: 256
    bias_term: false
    pad: 0
    kernel_size: 1
    stride: 1
  }
}
layer {
  name: "bn4e_branch2a"
  type: "BatchNorm"
  bottom: "res4e_branch2a"
  top: "res4e_branch2a"
  batch_norm_param {
    use_global_stats: true
  }
}
layer {
  name: "scale4e_branch2a"
  type: "Scale"
  bottom: "res4e_branch2a"
  top: "res4e_branch2a"
  scale_param {
    bias_term: true
  }
}
layer {
  name: "res4e_branch2a_relu"
  type: "ReLU"
  bottom: "res4e_branch2a"
  top: "res4e_branch2a"
}
layer {
  name: "res4e_branch2b"
  type: "Convolution"
  bottom: "res4e_branch2a"
  top: "res4e_branch2b"
  param {
    lr_mult: 1
    decay_mult: 1
  }
  convolution_param {
    num_output: 256
    bias_term: false
    pad: 1
    kernel_size: 3
    stride: 1
  }
}
layer {
  name: "bn4e_branch2b"
  type: "BatchNorm"
  bottom: "res4e_branch2b"
  top: "res4e_branch2b"
  batch_norm_param {
    use_global_stats: true
  }
}
layer {
  name: "scale4e_branch2b"
  type: "Scale"
  bottom: "res4e_branch2b"
  top: "res4e_branch2b"
  scale_param {
    bias_term: true
  }
}
layer {
  name: "res4e_branch2b_relu"
  type: "ReLU"
  bottom: "res4e_branch2b"
  top: "res4e_branch2b"
}
layer {
  name: "res4e_branch2c"
  type: "Convolution"
  bottom: "res4e_branch2b"
  top: "res4e_branch2c"
  param {
    lr_mult: 1
    decay_mult: 1
  }
  convolution_param {
    num_output: 1024
    bias_term: false
    pad: 0
    kernel_size: 1
    stride: 1
  }
}
layer {
  name: "bn4e_branch2c"
  type: "BatchNorm"
  bottom: "res4e_branch2c"
  top: "res4e_branch2c"
  batch_norm_param {
    use_global_stats: true
  }
}
layer {
  name: "scale4e_branch2c"
  type: "Scale"
  bottom: "res4e_branch2c"
  top: "res4e_branch2c"
  scale_param {
    bias_term: true
  }
}
layer {
  name: "res4e"
  type: "Eltwise"
  bottom: "res4d"
  bottom: "res4e_branch2c"
  top: "res4e"
}
layer {
  name: "res4e_relu"
  type: "ReLU"
  bottom: "res4e"
  top: "res4e"
}
layer {
  name: "res4f_branch2a"
  type: "Convolution"
  bottom: "res4e"
  top: "res4f_branch2a"
  param {
    lr_mult: 1
    decay_mult: 1
  }
  convolution_param {
    num_output: 256
    bias_term: false
    pad: 0
    kernel_size: 1
    stride: 1
  }
}
layer {
  name: "bn4f_branch2a"
  type: "BatchNorm"
  bottom: "res4f_branch2a"
  top: "res4f_branch2a"
  batch_norm_param {
    use_global_stats: true
  }
}
layer {
  name: "scale4f_branch2a"
  type: "Scale"
  bottom: "res4f_branch2a"
  top: "res4f_branch2a"
  scale_param {
    bias_term: true
  }
}
layer {
  name: "res4f_branch2a_relu"
  type: "ReLU"
  bottom: "res4f_branch2a"
  top: "res4f_branch2a"
}
layer {
  name: "res4f_branch2b"
  type: "Convolution"
  bottom: "res4f_branch2a"
  top: "res4f_branch2b"
  param {
    lr_mult: 1
    decay_mult: 1
  }
  convolution_param {
    num_output: 256
    bias_term: false
    pad: 1
    kernel_size: 3
    stride: 1
  }
}
layer {
  name: "bn4f_branch2b"
  type: "BatchNorm"
  bottom: "res4f_branch2b"
  top: "res4f_branch2b"
  batch_norm_param {
    use_global_stats: true
  }
}
layer {
  name: "scale4f_branch2b"
  type: "Scale"
  bottom: "res4f_branch2b"
  top: "res4f_branch2b"
  scale_param {
    bias_term: true
  }
}
layer {
  name: "res4f_branch2b_relu"
  type: "ReLU"
  bottom: "res4f_branch2b"
  top: "res4f_branch2b"
}
layer {
  name: "res4f_branch2c"
  type: "Convolution"
  bottom: "res4f_branch2b"
  top: "res4f_branch2c"
  param {
    lr_mult: 1
    decay_mult: 1
  }
  convolution_param {
    num_output: 1024
    bias_term: false
    pad: 0
    kernel_size: 1
    stride: 1
  }
}
layer {
  name: "bn4f_branch2c"
  type: "BatchNorm"
  bottom: "res4f_branch2c"
  top: "res4f_branch2c"
  batch_norm_param {
    use_global_stats: true
  }
}
layer {
  name: "scale4f_branch2c"
  type: "Scale"
  bottom: "res4f_branch2c"
  top: "res4f_branch2c"
  scale_param {
    bias_term: true
  }
}
layer {
  name: "res4f"
  type: "Eltwise"
  bottom: "res4e"
  bottom: "res4f_branch2c"
  top: "res4f"
}
layer {
  name: "res4f_relu"
  type: "ReLU"
  bottom: "res4f"
  top: "res
I0629 05:14:24.317080  2606 layer_factory.hpp:77] Creating layer input
I0629 05:14:24.317186  2606 db_lmdb.cpp:35] Opened lmdb ../../../data_subsets/subtrain2_lmdb
I0629 05:14:24.317224  2606 net.cpp:84] Creating Layer input
I0629 05:14:24.317239  2606 net.cpp:380] input -> data
I0629 05:14:24.317266  2606 net.cpp:380] input -> label
I0629 05:14:24.317283  2606 data_transformer.cpp:25] Loading mean file from: ../../../data_subsets/subtrain2_mean.binaryproto
I0629 05:14:24.330189  2606 data_layer.cpp:45] output data size: 8,3,224,224
I0629 05:14:24.341398  2606 net.cpp:122] Setting up input
I0629 05:14:24.341437  2606 net.cpp:129] Top shape: 8 3 224 224 (1204224)
I0629 05:14:24.341445  2606 net.cpp:129] Top shape: 8 (8)
I0629 05:14:24.341449  2606 net.cpp:137] Memory required for data: 4816928
I0629 05:14:24.341459  2606 layer_factory.hpp:77] Creating layer label_input_1_split
I0629 05:14:24.341475  2606 net.cpp:84] Creating Layer label_input_1_split
I0629 05:14:24.341491  2606 net.cpp:406] label_input_1_split <- label
I0629 05:14:24.341509  2606 net.cpp:380] label_input_1_split -> label_input_1_split_0
I0629 05:14:24.341527  2606 net.cpp:380] label_input_1_split -> label_input_1_split_1
I0629 05:14:24.341536  2606 net.cpp:380] label_input_1_split -> label_input_1_split_2
I0629 05:14:24.341543  2606 net.cpp:380] label_input_1_split -> label_input_1_split_3
I0629 05:14:24.341604  2606 net.cpp:122] Setting up label_input_1_split
I0629 05:14:24.341619  2606 net.cpp:129] Top shape: 8 (8)
I0629 05:14:24.341624  2606 net.cpp:129] Top shape: 8 (8)
I0629 05:14:24.341629  2606 net.cpp:129] Top shape: 8 (8)
I0629 05:14:24.341634  2606 net.cpp:129] Top shape: 8 (8)
I0629 05:14:24.341636  2606 net.cpp:137] Memory required for data: 4817056
I0629 05:14:24.341640  2606 layer_factory.hpp:77] Creating layer conv1
I0629 05:14:24.341660  2606 net.cpp:84] Creating Layer conv1
I0629 05:14:24.341670  2606 net.cpp:406] conv1 <- data
I0629 05:14:24.341680  2606 net.cpp:380] conv1 -> conv1
I0629 05:14:24.511013  2606 net.cpp:122] Setting up conv1
I0629 05:14:24.511059  2606 net.cpp:129] Top shape: 8 64 112 112 (6422528)
I0629 05:14:24.511065  2606 net.cpp:137] Memory required for data: 30507168
I0629 05:14:24.511086  2606 layer_factory.hpp:77] Creating layer bn_conv1
I0629 05:14:24.511104  2606 net.cpp:84] Creating Layer bn_conv1
I0629 05:14:24.511109  2606 net.cpp:406] bn_conv1 <- conv1
I0629 05:14:24.511118  2606 net.cpp:367] bn_conv1 -> conv1 (in-place)
I0629 05:14:24.511378  2606 net.cpp:122] Setting up bn_conv1
I0629 05:14:24.511397  2606 net.cpp:129] Top shape: 8 64 112 112 (6422528)
I0629 05:14:24.511427  2606 net.cpp:137] Memory required for data: 56197280
I0629 05:14:24.511441  2606 layer_factory.hpp:77] Creating layer scale_conv1
I0629 05:14:24.511458  2606 net.cpp:84] Creating Layer scale_conv1
I0629 05:14:24.511463  2606 net.cpp:406] scale_conv1 <- conv1
I0629 05:14:24.511469  2606 net.cpp:367] scale_conv1 -> conv1 (in-place)
I0629 05:14:24.511528  2606 layer_factory.hpp:77] Creating layer scale_conv1
I0629 05:14:24.511667  2606 net.cpp:122] Setting up scale_conv1
I0629 05:14:24.511684  2606 net.cpp:129] Top shape: 8 64 112 112 (6422528)
I0629 05:14:24.511688  2606 net.cpp:137] Memory required for data: 81887392
I0629 05:14:24.511695  2606 layer_factory.hpp:77] Creating layer conv1_relu
I0629 05:14:24.511703  2606 net.cpp:84] Creating Layer conv1_relu
I0629 05:14:24.511708  2606 net.cpp:406] conv1_relu <- conv1
I0629 05:14:24.511713  2606 net.cpp:367] conv1_relu -> conv1 (in-place)
I0629 05:14:24.511859  2606 net.cpp:122] Setting up conv1_relu
I0629 05:14:24.511875  2606 net.cpp:129] Top shape: 8 64 112 112 (6422528)
I0629 05:14:24.511880  2606 net.cpp:137] Memory required for data: 107577504
I0629 05:14:24.511884  2606 layer_factory.hpp:77] Creating layer pool1
I0629 05:14:24.511906  2606 net.cpp:84] Creating Layer pool1
I0629 05:14:24.511917  2606 net.cpp:406] pool1 <- conv1
I0629 05:14:24.511924  2606 net.cpp:380] pool1 -> pool1
I0629 05:14:24.511979  2606 net.cpp:122] Setting up pool1
I0629 05:14:24.511993  2606 net.cpp:129] Top shape: 8 64 56 56 (1605632)
I0629 05:14:24.511997  2606 net.cpp:137] Memory required for data: 114000032
I0629 05:14:24.512001  2606 layer_factory.hpp:77] Creating layer pool1_pool1_0_split
I0629 05:14:24.512008  2606 net.cpp:84] Creating Layer pool1_pool1_0_split
I0629 05:14:24.512012  2606 net.cpp:406] pool1_pool1_0_split <- pool1
I0629 05:14:24.512017  2606 net.cpp:380] pool1_pool1_0_split -> pool1_pool1_0_split_0
I0629 05:14:24.512025  2606 net.cpp:380] pool1_pool1_0_split -> pool1_pool1_0_split_1
I0629 05:14:24.512059  2606 net.cpp:122] Setting up pool1_pool1_0_split
I0629 05:14:24.512073  2606 net.cpp:129] Top shape: 8 64 56 56 (1605632)
I0629 05:14:24.512079  2606 net.cpp:129] Top shape: 8 64 56 56 (1605632)
I0629 05:14:24.512081  2606 net.cpp:137] Memory required for data: 126845088
I0629 05:14:24.512085  2606 layer_factory.hpp:77] Creating layer res2a_branch1
I0629 05:14:24.512097  2606 net.cpp:84] Creating Layer res2a_branch1
I0629 05:14:24.512102  2606 net.cpp:406] res2a_branch1 <- pool1_pool1_0_split_0
I0629 05:14:24.512109  2606 net.cpp:380] res2a_branch1 -> res2a_branch1
I0629 05:14:24.512975  2606 net.cpp:122] Setting up res2a_branch1
I0629 05:14:24.512996  2606 net.cpp:129] Top shape: 8 256 56 56 (6422528)
I0629 05:14:24.513001  2606 net.cpp:137] Memory required for data: 152535200
I0629 05:14:24.513007  2606 layer_factory.hpp:77] Creating layer bn2a_branch1
I0629 05:14:24.513015  2606 net.cpp:84] Creating Layer bn2a_branch1
I0629 05:14:24.513020  2606 net.cpp:406] bn2a_branch1 <- res2a_branch1
I0629 05:14:24.513025  2606 net.cpp:367] bn2a_branch1 -> res2a_branch1 (in-place)
I0629 05:14:24.513715  2606 net.cpp:122] Setting up bn2a_branch1
I0629 05:14:24.513733  2606 net.cpp:129] Top shape: 8 256 56 56 (6422528)
I0629 05:14:24.513737  2606 net.cpp:137] Memory required for data: 178225312
I0629 05:14:24.513749  2606 layer_factory.hpp:77] Creating layer scale2a_branch1
I0629 05:14:24.513757  2606 net.cpp:84] Creating Layer scale2a_branch1
I0629 05:14:24.513761  2606 net.cpp:406] scale2a_branch1 <- res2a_branch1
I0629 05:14:24.513767  2606 net.cpp:367] scale2a_branch1 -> res2a_branch1 (in-place)
I0629 05:14:24.513810  2606 layer_factory.hpp:77] Creating layer scale2a_branch1
I0629 05:14:24.513916  2606 net.cpp:122] Setting up scale2a_branch1
I0629 05:14:24.513931  2606 net.cpp:129] Top shape: 8 256 56 56 (6422528)
I0629 05:14:24.513936  2606 net.cpp:137] Memory required for data: 203915424
I0629 05:14:24.513942  2606 layer_factory.hpp:77] Creating layer res2a_branch2a
I0629 05:14:24.513952  2606 net.cpp:84] Creating Layer res2a_branch2a
I0629 05:14:24.513977  2606 net.cpp:406] res2a_branch2a <- pool1_pool1_0_split_1
I0629 05:14:24.513984  2606 net.cpp:380] res2a_branch2a -> res2a_branch2a
I0629 05:14:24.514734  2606 net.cpp:122] Setting up res2a_branch2a
I0629 05:14:24.514756  2606 net.cpp:129] Top shape: 8 64 56 56 (1605632)
I0629 05:14:24.514760  2606 net.cpp:137] Memory required for data: 210337952
I0629 05:14:24.514767  2606 layer_factory.hpp:77] Creating layer bn2a_branch2a
I0629 05:14:24.514775  2606 net.cpp:84] Creating Layer bn2a_branch2a
I0629 05:14:24.514780  2606 net.cpp:406] bn2a_branch2a <- res2a_branch2a
I0629 05:14:24.514786  2606 net.cpp:367] bn2a_branch2a -> res2a_branch2a (in-place)
I0629 05:14:24.514952  2606 net.cpp:122] Setting up bn2a_branch2a
I0629 05:14:24.514968  2606 net.cpp:129] Top shape: 8 64 56 56 (1605632)
I0629 05:14:24.514972  2606 net.cpp:137] Memory required for data: 216760480
I0629 05:14:24.514984  2606 layer_factory.hpp:77] Creating layer scale2a_branch2a
I0629 05:14:24.514991  2606 net.cpp:84] Creating Layer scale2a_branch2a
I0629 05:14:24.514995  2606 net.cpp:406] scale2a_branch2a <- res2a_branch2a
I0629 05:14:24.515002  2606 net.cpp:367] scale2a_branch2a -> res2a_branch2a (in-place)
I0629 05:14:24.515043  2606 layer_factory.hpp:77] Creating layer scale2a_branch2a
I0629 05:14:24.515179  2606 net.cpp:122] Setting up scale2a_branch2a
I0629 05:14:24.515197  2606 net.cpp:129] Top shape: 8 64 56 56 (1605632)
I0629 05:14:24.515200  2606 net.cpp:137] Memory required for data: 223183008
I0629 05:14:24.515208  2606 layer_factory.hpp:77] Creating layer res2a_branch2a_relu
I0629 05:14:24.515214  2606 net.cpp:84] Creating Layer res2a_branch2a_relu
I0629 05:14:24.515218  2606 net.cpp:406] res2a_branch2a_relu <- res2a_branch2a
I0629 05:14:24.515224  2606 net.cpp:367] res2a_branch2a_relu -> res2a_branch2a (in-place)
I0629 05:14:24.515453  2606 net.cpp:122] Setting up res2a_branch2a_relu
I0629 05:14:24.515472  2606 net.cpp:129] Top shape: 8 64 56 56 (1605632)
I0629 05:14:24.515476  2606 net.cpp:137] Memory required for data: 229605536
I0629 05:14:24.515480  2606 layer_factory.hpp:77] Creating layer res2a_branch2b
I0629 05:14:24.515491  2606 net.cpp:84] Creating Layer res2a_branch2b
I0629 05:14:24.515494  2606 net.cpp:406] res2a_branch2b <- res2a_branch2a
I0629 05:14:24.515501  2606 net.cpp:380] res2a_branch2b -> res2a_branch2b
I0629 05:14:24.516806  2606 net.cpp:122] Setting up res2a_branch2b
I0629 05:14:24.516826  2606 net.cpp:129] Top shape: 8 64 56 56 (1605632)
I0629 05:14:24.516831  2606 net.cpp:137] Memory required for data: 236028064
I0629 05:14:24.516839  2606 layer_factory.hpp:77] Creating layer bn2a_branch2b
I0629 05:14:24.516847  2606 net.cpp:84] Creating Layer bn2a_branch2b
I0629 05:14:24.516852  2606 net.cpp:406] bn2a_branch2b <- res2a_branch2b
I0629 05:14:24.516861  2606 net.cpp:367] bn2a_branch2b -> res2a_branch2b (in-place)
I0629 05:14:24.517040  2606 net.cpp:122] Setting up bn2a_branch2b
I0629 05:14:24.517055  2606 net.cpp:129] Top shape: 8 64 56 56 (1605632)
I0629 05:14:24.517060  2606 net.cpp:137] Memory required for data: 242450592
I0629 05:14:24.517067  2606 layer_factory.hpp:77] Creating layer scale2a_branch2b
I0629 05:14:24.517074  2606 net.cpp:84] Creating Layer scale2a_branch2b
I0629 05:14:24.517078  2606 net.cpp:406] scale2a_branch2b <- res2a_branch2b
I0629 05:14:24.517084  2606 net.cpp:367] scale2a_branch2b -> res2a_branch2b (in-place)
I0629 05:14:24.517127  2606 layer_factory.hpp:77] Creating layer scale2a_branch2b
I0629 05:14:24.517241  2606 net.cpp:122] Setting up scale2a_branch2b
I0629 05:14:24.517257  2606 net.cpp:129] Top shape: 8 64 56 56 (1605632)
I0629 05:14:24.517261  2606 net.cpp:137] Memory required for data: 248873120
I0629 05:14:24.517268  2606 layer_factory.hpp:77] Creating layer res2a_branch2b_relu
I0629 05:14:24.517274  2606 net.cpp:84] Creating Layer res2a_branch2b_relu
I0629 05:14:24.517278  2606 net.cpp:406] res2a_branch2b_relu <- res2a_branch2b
I0629 05:14:24.517284  2606 net.cpp:367] res2a_branch2b_relu -> res2a_branch2b (in-place)
I0629 05:14:24.517523  2606 net.cpp:122] Setting up res2a_branch2b_relu
I0629 05:14:24.517554  2606 net.cpp:129] Top shape: 8 64 56 56 (1605632)
I0629 05:14:24.517558  2606 net.cpp:137] Memory required for data: 255295648
I0629 05:14:24.517563  2606 layer_factory.hpp:77] Creating layer res2a_branch2c
I0629 05:14:24.517572  2606 net.cpp:84] Creating Layer res2a_branch2c
I0629 05:14:24.517576  2606 net.cpp:406] res2a_branch2c <- res2a_branch2b
I0629 05:14:24.517583  2606 net.cpp:380] res2a_branch2c -> res2a_branch2c
I0629 05:14:24.518537  2606 net.cpp:122] Setting up res2a_branch2c
I0629 05:14:24.518556  2606 net.cpp:129] Top shape: 8 256 56 56 (6422528)
I0629 05:14:24.518561  2606 net.cpp:137] Memory required for data: 280985760
I0629 05:14:24.518568  2606 layer_factory.hpp:77] Creating layer bn2a_branch2c
I0629 05:14:24.518577  2606 net.cpp:84] Creating Layer bn2a_branch2c
I0629 05:14:24.518581  2606 net.cpp:406] bn2a_branch2c <- res2a_branch2c
I0629 05:14:24.518587  2606 net.cpp:367] bn2a_branch2c -> res2a_branch2c (in-place)
I0629 05:14:24.518786  2606 net.cpp:122] Setting up bn2a_branch2c
I0629 05:14:24.518801  2606 net.cpp:129] Top shape: 8 256 56 56 (6422528)
I0629 05:14:24.518805  2606 net.cpp:137] Memory required for data: 306675872
I0629 05:14:24.518815  2606 layer_factory.hpp:77] Creating layer scale2a_branch2c
I0629 05:14:24.518821  2606 net.cpp:84] Creating Layer scale2a_branch2c
I0629 05:14:24.518826  2606 net.cpp:406] scale2a_branch2c <- res2a_branch2c
I0629 05:14:24.518831  2606 net.cpp:367] scale2a_branch2c -> res2a_branch2c (in-place)
I0629 05:14:24.518877  2606 layer_factory.hpp:77] Creating layer scale2a_branch2c
I0629 05:14:24.519002  2606 net.cpp:122] Setting up scale2a_branch2c
I0629 05:14:24.519017  2606 net.cpp:129] Top shape: 8 256 56 56 (6422528)
I0629 05:14:24.519021  2606 net.cpp:137] Memory required for data: 332365984
I0629 05:14:24.519028  2606 layer_factory.hpp:77] Creating layer res2a
I0629 05:14:24.519040  2606 net.cpp:84] Creating Layer res2a
I0629 05:14:24.519045  2606 net.cpp:406] res2a <- res2a_branch1
I0629 05:14:24.519050  2606 net.cpp:406] res2a <- res2a_branch2c
I0629 05:14:24.519055  2606 net.cpp:380] res2a -> res2a
I0629 05:14:24.519089  2606 net.cpp:122] Setting up res2a
I0629 05:14:24.519104  2606 net.cpp:129] Top shape: 8 256 56 56 (6422528)
I0629 05:14:24.519109  2606 net.cpp:137] Memory required for data: 358056096
I0629 05:14:24.519111  2606 layer_factory.hpp:77] Creating layer res2a_relu
I0629 05:14:24.519119  2606 net.cpp:84] Creating Layer res2a_relu
I0629 05:14:24.519121  2606 net.cpp:406] res2a_relu <- res2a
I0629 05:14:24.519130  2606 net.cpp:367] res2a_relu -> res2a (in-place)
I0629 05:14:24.519284  2606 net.cpp:122] Setting up res2a_relu
I0629 05:14:24.519301  2606 net.cpp:129] Top shape: 8 256 56 56 (6422528)
I0629 05:14:24.519305  2606 net.cpp:137] Memory required for data: 383746208
I0629 05:14:24.519309  2606 layer_factory.hpp:77] Creating layer res2a_res2a_relu_0_split
I0629 05:14:24.519317  2606 net.cpp:84] Creating Layer res2a_res2a_relu_0_split
I0629 05:14:24.519321  2606 net.cpp:406] res2a_res2a_relu_0_split <- res2a
I0629 05:14:24.519327  2606 net.cpp:380] res2a_res2a_relu_0_split -> res2a_res2a_relu_0_split_0
I0629 05:14:24.519335  2606 net.cpp:380] res2a_res2a_relu_0_split -> res2a_res2a_relu_0_split_1
I0629 05:14:24.519381  2606 net.cpp:122] Setting up res2a_res2a_relu_0_split
I0629 05:14:24.519394  2606 net.cpp:129] Top shape: 8 256 56 56 (6422528)
I0629 05:14:24.519400  2606 net.cpp:129] Top shape: 8 256 56 56 (6422528)
I0629 05:14:24.519403  2606 net.cpp:137] Memory required for data: 435126432
I0629 05:14:24.519407  2606 layer_factory.hpp:77] Creating layer res2b_branch2a
I0629 05:14:24.519418  2606 net.cpp:84] Creating Layer res2b_branch2a
I0629 05:14:24.519423  2606 net.cpp:406] res2b_branch2a <- res2a_res2a_relu_0_split_0
I0629 05:14:24.519430  2606 net.cpp:380] res2b_branch2a -> res2b_branch2a
I0629 05:14:24.520301  2606 net.cpp:122] Setting up res2b_branch2a
I0629 05:14:24.520320  2606 net.cpp:129] Top shape: 8 64 56 56 (1605632)
I0629 05:14:24.520325  2606 net.cpp:137] Memory required for data: 441548960
I0629 05:14:24.520344  2606 layer_factory.hpp:77] Creating layer bn2b_branch2a
I0629 05:14:24.520354  2606 net.cpp:84] Creating Layer bn2b_branch2a
I0629 05:14:24.520359  2606 net.cpp:406] bn2b_branch2a <- res2b_branch2a
I0629 05:14:24.520364  2606 net.cpp:367] bn2b_branch2a -> res2b_branch2a (in-place)
I0629 05:14:24.520560  2606 net.cpp:122] Setting up bn2b_branch2a
I0629 05:14:24.520576  2606 net.cpp:129] Top shape: 8 64 56 56 (1605632)
I0629 05:14:24.520579  2606 net.cpp:137] Memory required for data: 447971488
I0629 05:14:24.520592  2606 layer_factory.hpp:77] Creating layer scale2b_branch2a
I0629 05:14:24.520599  2606 net.cpp:84] Creating Layer scale2b_branch2a
I0629 05:14:24.520603  2606 net.cpp:406] scale2b_branch2a <- res2b_branch2a
I0629 05:14:24.520612  2606 net.cpp:367] scale2b_branch2a -> res2b_branch2a (in-place)
I0629 05:14:24.520658  2606 layer_factory.hpp:77] Creating layer scale2b_branch2a
I0629 05:14:24.520787  2606 net.cpp:122] Setting up scale2b_branch2a
I0629 05:14:24.520802  2606 net.cpp:129] Top shape: 8 64 56 56 (1605632)
I0629 05:14:24.520807  2606 net.cpp:137] Memory required for data: 454394016
I0629 05:14:24.520815  2606 layer_factory.hpp:77] Creating layer res2b_branch2a_relu
I0629 05:14:24.520822  2606 net.cpp:84] Creating Layer res2b_branch2a_relu
I0629 05:14:24.520825  2606 net.cpp:406] res2b_branch2a_relu <- res2b_branch2a
I0629 05:14:24.520833  2606 net.cpp:367] res2b_branch2a_relu -> res2b_branch2a (in-place)
I0629 05:14:24.521085  2606 net.cpp:122] Setting up res2b_branch2a_relu
I0629 05:14:24.521107  2606 net.cpp:129] Top shape: 8 64 56 56 (1605632)
I0629 05:14:24.521112  2606 net.cpp:137] Memory required for data: 460816544
I0629 05:14:24.521116  2606 layer_factory.hpp:77] Creating layer res2b_branch2b
I0629 05:14:24.521124  2606 net.cpp:84] Creating Layer res2b_branch2b
I0629 05:14:24.521129  2606 net.cpp:406] res2b_branch2b <- res2b_branch2a
I0629 05:14:24.521137  2606 net.cpp:380] res2b_branch2b -> res2b_branch2b
I0629 05:14:24.521908  2606 net.cpp:122] Setting up res2b_branch2b
I0629 05:14:24.521926  2606 net.cpp:129] Top shape: 8 64 56 56 (1605632)
I0629 05:14:24.521930  2606 net.cpp:137] Memory required for data: 467239072
I0629 05:14:24.521939  2606 layer_factory.hpp:77] Creating layer bn2b_branch2b
I0629 05:14:24.521948  2606 net.cpp:84] Creating Layer bn2b_branch2b
I0629 05:14:24.521953  2606 net.cpp:406] bn2b_branch2b <- res2b_branch2b
I0629 05:14:24.521960  2606 net.cpp:367] bn2b_branch2b -> res2b_branch2b (in-place)
I0629 05:14:24.522156  2606 net.cpp:122] Setting up bn2b_branch2b
I0629 05:14:24.522171  2606 net.cpp:129] Top shape: 8 64 56 56 (1605632)
I0629 05:14:24.522174  2606 net.cpp:137] Memory required for data: 473661600
I0629 05:14:24.522186  2606 layer_factory.hpp:77] Creating layer scale2b_branch2b
I0629 05:14:24.522192  2606 net.cpp:84] Creating Layer scale2b_branch2b
I0629 05:14:24.522197  2606 net.cpp:406] scale2b_branch2b <- res2b_branch2b
I0629 05:14:24.522202  2606 net.cpp:367] scale2b_branch2b -> res2b_branch2b (in-place)
I0629 05:14:24.522248  2606 layer_factory.hpp:77] Creating layer scale2b_branch2b
I0629 05:14:24.522375  2606 net.cpp:122] Setting up scale2b_branch2b
I0629 05:14:24.522390  2606 net.cpp:129] Top shape: 8 64 56 56 (1605632)
I0629 05:14:24.522394  2606 net.cpp:137] Memory required for data: 480084128
I0629 05:14:24.522402  2606 layer_factory.hpp:77] Creating layer res2b_branch2b_relu
I0629 05:14:24.522413  2606 net.cpp:84] Creating Layer res2b_branch2b_relu
I0629 05:14:24.522416  2606 net.cpp:406] res2b_branch2b_relu <- res2b_branch2b
I0629 05:14:24.522423  2606 net.cpp:367] res2b_branch2b_relu -> res2b_branch2b (in-place)
I0629 05:14:24.522666  2606 net.cpp:122] Setting up res2b_branch2b_relu
I0629 05:14:24.522685  2606 net.cpp:129] Top shape: 8 64 56 56 (1605632)
I0629 05:14:24.522689  2606 net.cpp:137] Memory required for data: 486506656
I0629 05:14:24.522693  2606 layer_factory.hpp:77] Creating layer res2b_branch2c
I0629 05:14:24.522706  2606 net.cpp:84] Creating Layer res2b_branch2c
I0629 05:14:24.522711  2606 net.cpp:406] res2b_branch2c <- res2b_branch2b
I0629 05:14:24.522732  2606 net.cpp:380] res2b_branch2c -> res2b_branch2c
I0629 05:14:24.523737  2606 net.cpp:122] Setting up res2b_branch2c
I0629 05:14:24.523757  2606 net.cpp:129] Top shape: 8 256 56 56 (6422528)
I0629 05:14:24.523761  2606 net.cpp:137] Memory required for data: 512196768
I0629 05:14:24.523767  2606 layer_factory.hpp:77] Creating layer bn2b_branch2c
I0629 05:14:24.523777  2606 net.cpp:84] Creating Layer bn2b_branch2c
I0629 05:14:24.523782  2606 net.cpp:406] bn2b_branch2c <- res2b_branch2c
I0629 05:14:24.523788  2606 net.cpp:367] bn2b_branch2c -> res2b_branch2c (in-place)
I0629 05:14:24.524009  2606 net.cpp:122] Setting up bn2b_branch2c
I0629 05:14:24.524025  2606 net.cpp:129] Top shape: 8 256 56 56 (6422528)
I0629 05:14:24.524029  2606 net.cpp:137] Memory required for data: 537886880
I0629 05:14:24.524040  2606 layer_factory.hpp:77] Creating layer scale2b_branch2c
I0629 05:14:24.524047  2606 net.cpp:84] Creating Layer scale2b_branch2c
I0629 05:14:24.524052  2606 net.cpp:406] scale2b_branch2c <- res2b_branch2c
I0629 05:14:24.524057  2606 net.cpp:367] scale2b_branch2c -> res2b_branch2c (in-place)
I0629 05:14:24.524106  2606 layer_factory.hpp:77] Creating layer scale2b_branch2c
I0629 05:14:24.524232  2606 net.cpp:122] Setting up scale2b_branch2c
I0629 05:14:24.524247  2606 net.cpp:129] Top shape: 8 256 56 56 (6422528)
I0629 05:14:24.524251  2606 net.cpp:137] Memory required for data: 563576992
I0629 05:14:24.524258  2606 layer_factory.hpp:77] Creating layer res2b
I0629 05:14:24.524267  2606 net.cpp:84] Creating Layer res2b
I0629 05:14:24.524271  2606 net.cpp:406] res2b <- res2a_res2a_relu_0_split_1
I0629 05:14:24.524276  2606 net.cpp:406] res2b <- res2b_branch2c
I0629 05:14:24.524281  2606 net.cpp:380] res2b -> res2b
I0629 05:14:24.524312  2606 net.cpp:122] Setting up res2b
I0629 05:14:24.524325  2606 net.cpp:129] Top shape: 8 256 56 56 (6422528)
I0629 05:14:24.524329  2606 net.cpp:137] Memory required for data: 589267104
I0629 05:14:24.524333  2606 layer_factory.hpp:77] Creating layer res2b_relu
I0629 05:14:24.524339  2606 net.cpp:84] Creating Layer res2b_relu
I0629 05:14:24.524343  2606 net.cpp:406] res2b_relu <- res2b
I0629 05:14:24.524350  2606 net.cpp:367] res2b_relu -> res2b (in-place)
I0629 05:14:24.524590  2606 net.cpp:122] Setting up res2b_relu
I0629 05:14:24.524607  2606 net.cpp:129] Top shape: 8 256 56 56 (6422528)
I0629 05:14:24.524611  2606 net.cpp:137] Memory required for data: 614957216
I0629 05:14:24.524616  2606 layer_factory.hpp:77] Creating layer res2b_res2b_relu_0_split
I0629 05:14:24.524626  2606 net.cpp:84] Creating Layer res2b_res2b_relu_0_split
I0629 05:14:24.524631  2606 net.cpp:406] res2b_res2b_relu_0_split <- res2b
I0629 05:14:24.524636  2606 net.cpp:380] res2b_res2b_relu_0_split -> res2b_res2b_relu_0_split_0
I0629 05:14:24.524643  2606 net.cpp:380] res2b_res2b_relu_0_split -> res2b_res2b_relu_0_split_1
I0629 05:14:24.524690  2606 net.cpp:122] Setting up res2b_res2b_relu_0_split
I0629 05:14:24.524704  2606 net.cpp:129] Top shape: 8 256 56 56 (6422528)
I0629 05:14:24.524709  2606 net.cpp:129] Top shape: 8 256 56 56 (6422528)
I0629 05:14:24.524713  2606 net.cpp:137] Memory required for data: 666337440
I0629 05:14:24.524716  2606 layer_factory.hpp:77] Creating layer res2c_branch2a
I0629 05:14:24.524727  2606 net.cpp:84] Creating Layer res2c_branch2a
I0629 05:14:24.524731  2606 net.cpp:406] res2c_branch2a <- res2b_res2b_relu_0_split_0
I0629 05:14:24.524737  2606 net.cpp:380] res2c_branch2a -> res2c_branch2a
I0629 05:14:24.525630  2606 net.cpp:122] Setting up res2c_branch2a
I0629 05:14:24.525650  2606 net.cpp:129] Top shape: 8 64 56 56 (1605632)
I0629 05:14:24.525655  2606 net.cpp:137] Memory required for data: 672759968
I0629 05:14:24.525660  2606 layer_factory.hpp:77] Creating layer bn2c_branch2a
I0629 05:14:24.525671  2606 net.cpp:84] Creating Layer bn2c_branch2a
I0629 05:14:24.525676  2606 net.cpp:406] bn2c_branch2a <- res2c_branch2a
I0629 05:14:24.525681  2606 net.cpp:367] bn2c_branch2a -> res2c_branch2a (in-place)
I0629 05:14:24.525885  2606 net.cpp:122] Setting up bn2c_branch2a
I0629 05:14:24.525914  2606 net.cpp:129] Top shape: 8 64 56 56 (1605632)
I0629 05:14:24.525918  2606 net.cpp:137] Memory required for data: 679182496
I0629 05:14:24.525928  2606 layer_factory.hpp:77] Creating layer scale2c_branch2a
I0629 05:14:24.525934  2606 net.cpp:84] Creating Layer scale2c_branch2a
I0629 05:14:24.525938  2606 net.cpp:406] scale2c_branch2a <- res2c_branch2a
I0629 05:14:24.525944  2606 net.cpp:367] scale2c_branch2a -> res2c_branch2a (in-place)
I0629 05:14:24.525995  2606 layer_factory.hpp:77] Creating layer scale2c_branch2a
I0629 05:14:24.526134  2606 net.cpp:122] Setting up scale2c_branch2a
I0629 05:14:24.526151  2606 net.cpp:129] Top shape: 8 64 56 56 (1605632)
I0629 05:14:24.526155  2606 net.cpp:137] Memory required for data: 685605024
I0629 05:14:24.526161  2606 layer_factory.hpp:77] Creating layer res2c_branch2a_relu
I0629 05:14:24.526170  2606 net.cpp:84] Creating Layer res2c_branch2a_relu
I0629 05:14:24.526175  2606 net.cpp:406] res2c_branch2a_relu <- res2c_branch2a
I0629 05:14:24.526180  2606 net.cpp:367] res2c_branch2a_relu -> res2c_branch2a (in-place)
I0629 05:14:24.526433  2606 net.cpp:122] Setting up res2c_branch2a_relu
I0629 05:14:24.526454  2606 net.cpp:129] Top shape: 8 64 56 56 (1605632)
I0629 05:14:24.526458  2606 net.cpp:137] Memory required for data: 692027552
I0629 05:14:24.526463  2606 layer_factory.hpp:77] Creating layer res2c_branch2b
I0629 05:14:24.526473  2606 net.cpp:84] Creating Layer res2c_branch2b
I0629 05:14:24.526479  2606 net.cpp:406] res2c_branch2b <- res2c_branch2a
I0629 05:14:24.526484  2606 net.cpp:380] res2c_branch2b -> res2c_branch2b
I0629 05:14:24.527276  2606 net.cpp:122] Setting up res2c_branch2b
I0629 05:14:24.527295  2606 net.cpp:129] Top shape: 8 64 56 56 (1605632)
I0629 05:14:24.527299  2606 net.cpp:137] Memory required for data: 698450080
I0629 05:14:24.527305  2606 layer_factory.hpp:77] Creating layer bn2c_branch2b
I0629 05:14:24.527313  2606 net.cpp:84] Creating Layer bn2c_branch2b
I0629 05:14:24.527318  2606 net.cpp:406] bn2c_branch2b <- res2c_branch2b
I0629 05:14:24.527325  2606 net.cpp:367] bn2c_branch2b -> res2c_branch2b (in-place)
I0629 05:14:24.527540  2606 net.cpp:122] Setting up bn2c_branch2b
I0629 05:14:24.527556  2606 net.cpp:129] Top shape: 8 64 56 56 (1605632)
I0629 05:14:24.527560  2606 net.cpp:137] Memory required for data: 704872608
I0629 05:14:24.527570  2606 layer_factory.hpp:77] Creating layer scale2c_branch2b
I0629 05:14:24.527576  2606 net.cpp:84] Creating Layer scale2c_branch2b
I0629 05:14:24.527580  2606 net.cpp:406] scale2c_branch2b <- res2c_branch2b
I0629 05:14:24.527588  2606 net.cpp:367] scale2c_branch2b -> res2c_branch2b (in-place)
I0629 05:14:24.527634  2606 layer_factory.hpp:77] Creating layer scale2c_branch2b
I0629 05:14:24.527771  2606 net.cpp:122] Setting up scale2c_branch2b
I0629 05:14:24.527787  2606 net.cpp:129] Top shape: 8 64 56 56 (1605632)
I0629 05:14:24.527791  2606 net.cpp:137] Memory required for data: 711295136
I0629 05:14:24.527797  2606 layer_factory.hpp:77] Creating layer res2c_branch2b_relu
I0629 05:14:24.527804  2606 net.cpp:84] Creating Layer res2c_branch2b_relu
I0629 05:14:24.527807  2606 net.cpp:406] res2c_branch2b_relu <- res2c_branch2b
I0629 05:14:24.527815  2606 net.cpp:367] res2c_branch2b_relu -> res2c_branch2b (in-place)
I0629 05:14:24.528080  2606 net.cpp:122] Setting up res2c_branch2b_relu
I0629 05:14:24.528101  2606 net.cpp:129] Top shape: 8 64 56 56 (1605632)
I0629 05:14:24.528105  2606 net.cpp:137] Memory required for data: 717717664
I0629 05:14:24.528110  2606 layer_factory.hpp:77] Creating layer res2c_branch2c
I0629 05:14:24.528118  2606 net.cpp:84] Creating Layer res2c_branch2c
I0629 05:14:24.528123  2606 net.cpp:406] res2c_branch2c <- res2c_branch2b
I0629 05:14:24.528131  2606 net.cpp:380] res2c_branch2c -> res2c_branch2c
I0629 05:14:24.529112  2606 net.cpp:122] Setting up res2c_branch2c
I0629 05:14:24.529132  2606 net.cpp:129] Top shape: 8 256 56 56 (6422528)
I0629 05:14:24.529136  2606 net.cpp:137] Memory required for data: 743407776
I0629 05:14:24.529155  2606 layer_factory.hpp:77] Creating layer bn2c_branch2c
I0629 05:14:24.529165  2606 net.cpp:84] Creating Layer bn2c_branch2c
I0629 05:14:24.529170  2606 net.cpp:406] bn2c_branch2c <- res2c_branch2c
I0629 05:14:24.529177  2606 net.cpp:367] bn2c_branch2c -> res2c_branch2c (in-place)
I0629 05:14:24.529392  2606 net.cpp:122] Setting up bn2c_branch2c
I0629 05:14:24.529412  2606 net.cpp:129] Top shape: 8 256 56 56 (6422528)
I0629 05:14:24.529415  2606 net.cpp:137] Memory required for data: 769097888
I0629 05:14:24.529433  2606 layer_factory.hpp:77] Creating layer scale2c_branch2c
I0629 05:14:24.529440  2606 net.cpp:84] Creating Layer scale2c_branch2c
I0629 05:14:24.529444  2606 net.cpp:406] scale2c_branch2c <- res2c_branch2c
I0629 05:14:24.529453  2606 net.cpp:367] scale2c_branch2c -> res2c_branch2c (in-place)
I0629 05:14:24.529510  2606 layer_factory.hpp:77] Creating layer scale2c_branch2c
I0629 05:14:24.529644  2606 net.cpp:122] Setting up scale2c_branch2c
I0629 05:14:24.529659  2606 net.cpp:129] Top shape: 8 256 56 56 (6422528)
I0629 05:14:24.529664  2606 net.cpp:137] Memory required for data: 794788000
I0629 05:14:24.529670  2606 layer_factory.hpp:77] Creating layer res2c
I0629 05:14:24.529680  2606 net.cpp:84] Creating Layer res2c
I0629 05:14:24.529685  2606 net.cpp:406] res2c <- res2b_res2b_relu_0_split_1
I0629 05:14:24.529688  2606 net.cpp:406] res2c <- res2c_branch2c
I0629 05:14:24.529695  2606 net.cpp:380] res2c -> res2c
I0629 05:14:24.529726  2606 net.cpp:122] Setting up res2c
I0629 05:14:24.529741  2606 net.cpp:129] Top shape: 8 256 56 56 (6422528)
I0629 05:14:24.529744  2606 net.cpp:137] Memory required for data: 820478112
I0629 05:14:24.529748  2606 layer_factory.hpp:77] Creating layer res2c_relu
I0629 05:14:24.529754  2606 net.cpp:84] Creating Layer res2c_relu
I0629 05:14:24.529758  2606 net.cpp:406] res2c_relu <- res2c
I0629 05:14:24.529763  2606 net.cpp:367] res2c_relu -> res2c (in-place)
I0629 05:14:24.529922  2606 net.cpp:122] Setting up res2c_relu
I0629 05:14:24.529938  2606 net.cpp:129] Top shape: 8 256 56 56 (6422528)
I0629 05:14:24.529942  2606 net.cpp:137] Memory required for data: 846168224
I0629 05:14:24.529947  2606 layer_factory.hpp:77] Creating layer res2c_res2c_relu_0_split
I0629 05:14:24.529954  2606 net.cpp:84] Creating Layer res2c_res2c_relu_0_split
I0629 05:14:24.529958  2606 net.cpp:406] res2c_res2c_relu_0_split <- res2c
I0629 05:14:24.529964  2606 net.cpp:380] res2c_res2c_relu_0_split -> res2c_res2c_relu_0_split_0
I0629 05:14:24.529971  2606 net.cpp:380] res2c_res2c_relu_0_split -> res2c_res2c_relu_0_split_1
I0629 05:14:24.530019  2606 net.cpp:122] Setting up res2c_res2c_relu_0_split
I0629 05:14:24.530032  2606 net.cpp:129] Top shape: 8 256 56 56 (6422528)
I0629 05:14:24.530038  2606 net.cpp:129] Top shape: 8 256 56 56 (6422528)
I0629 05:14:24.530041  2606 net.cpp:137] Memory required for data: 897548448
I0629 05:14:24.530045  2606 layer_factory.hpp:77] Creating layer res3a_branch1
I0629 05:14:24.530056  2606 net.cpp:84] Creating Layer res3a_branch1
I0629 05:14:24.530061  2606 net.cpp:406] res3a_branch1 <- res2c_res2c_relu_0_split_0
I0629 05:14:24.530067  2606 net.cpp:380] res3a_branch1 -> res3a_branch1
I0629 05:14:24.531822  2606 net.cpp:122] Setting up res3a_branch1
I0629 05:14:24.531842  2606 net.cpp:129] Top shape: 8 512 28 28 (3211264)
I0629 05:14:24.531850  2606 net.cpp:137] Memory required for data: 910393504
I0629 05:14:24.531857  2606 layer_factory.hpp:77] Creating layer bn3a_branch1
I0629 05:14:24.531864  2606 net.cpp:84] Creating Layer bn3a_branch1
I0629 05:14:24.531869  2606 net.cpp:406] bn3a_branch1 <- res3a_branch1
I0629 05:14:24.531875  2606 net.cpp:367] bn3a_branch1 -> res3a_branch1 (in-place)
I0629 05:14:24.532596  2606 net.cpp:122] Setting up bn3a_branch1
I0629 05:14:24.532615  2606 net.cpp:129] Top shape: 8 512 28 28 (3211264)
I0629 05:14:24.532619  2606 net.cpp:137] Memory required for data: 923238560
I0629 05:14:24.532631  2606 layer_factory.hpp:77] Creating layer scale3a_branch1
I0629 05:14:24.532639  2606 net.cpp:84] Creating Layer scale3a_branch1
I0629 05:14:24.532660  2606 net.cpp:406] scale3a_branch1 <- res3a_branch1
I0629 05:14:24.532668  2606 net.cpp:367] scale3a_branch1 -> res3a_branch1 (in-place)
I0629 05:14:24.532721  2606 layer_factory.hpp:77] Creating layer scale3a_branch1
I0629 05:14:24.532848  2606 net.cpp:122] Setting up scale3a_branch1
I0629 05:14:24.532863  2606 net.cpp:129] Top shape: 8 512 28 28 (3211264)
I0629 05:14:24.532867  2606 net.cpp:137] Memory required for data: 936083616
I0629 05:14:24.532873  2606 layer_factory.hpp:77] Creating layer res3a_branch2a
I0629 05:14:24.532886  2606 net.cpp:84] Creating Layer res3a_branch2a
I0629 05:14:24.532889  2606 net.cpp:406] res3a_branch2a <- res2c_res2c_relu_0_split_1
I0629 05:14:24.532897  2606 net.cpp:380] res3a_branch2a -> res3a_branch2a
I0629 05:14:24.533808  2606 net.cpp:122] Setting up res3a_branch2a
I0629 05:14:24.533828  2606 net.cpp:129] Top shape: 8 128 28 28 (802816)
I0629 05:14:24.533833  2606 net.cpp:137] Memory required for data: 939294880
I0629 05:14:24.533838  2606 layer_factory.hpp:77] Creating layer bn3a_branch2a
I0629 05:14:24.533849  2606 net.cpp:84] Creating Layer bn3a_branch2a
I0629 05:14:24.533854  2606 net.cpp:406] bn3a_branch2a <- res3a_branch2a
I0629 05:14:24.533859  2606 net.cpp:367] bn3a_branch2a -> res3a_branch2a (in-place)
I0629 05:14:24.534072  2606 net.cpp:122] Setting up bn3a_branch2a
I0629 05:14:24.534087  2606 net.cpp:129] Top shape: 8 128 28 28 (802816)
I0629 05:14:24.534091  2606 net.cpp:137] Memory required for data: 942506144
I0629 05:14:24.534102  2606 layer_factory.hpp:77] Creating layer scale3a_branch2a
I0629 05:14:24.534109  2606 net.cpp:84] Creating Layer scale3a_branch2a
I0629 05:14:24.534113  2606 net.cpp:406] scale3a_branch2a <- res3a_branch2a
I0629 05:14:24.534119  2606 net.cpp:367] scale3a_branch2a -> res3a_branch2a (in-place)
I0629 05:14:24.534168  2606 layer_factory.hpp:77] Creating layer scale3a_branch2a
I0629 05:14:24.534302  2606 net.cpp:122] Setting up scale3a_branch2a
I0629 05:14:24.534317  2606 net.cpp:129] Top shape: 8 128 28 28 (802816)
I0629 05:14:24.534322  2606 net.cpp:137] Memory required for data: 945717408
I0629 05:14:24.534327  2606 layer_factory.hpp:77] Creating layer res3a_branch2a_relu
I0629 05:14:24.534337  2606 net.cpp:84] Creating Layer res3a_branch2a_relu
I0629 05:14:24.534343  2606 net.cpp:406] res3a_branch2a_relu <- res3a_branch2a
I0629 05:14:24.534348  2606 net.cpp:367] res3a_branch2a_relu -> res3a_branch2a (in-place)
I0629 05:14:24.534505  2606 net.cpp:122] Setting up res3a_branch2a_relu
I0629 05:14:24.534521  2606 net.cpp:129] Top shape: 8 128 28 28 (802816)
I0629 05:14:24.534525  2606 net.cpp:137] Memory required for data: 948928672
I0629 05:14:24.534529  2606 layer_factory.hpp:77] Creating layer res3a_branch2b
I0629 05:14:24.534540  2606 net.cpp:84] Creating Layer res3a_branch2b
I0629 05:14:24.534545  2606 net.cpp:406] res3a_branch2b <- res3a_branch2a
I0629 05:14:24.534554  2606 net.cpp:380] res3a_branch2b -> res3a_branch2b
I0629 05:14:24.536059  2606 net.cpp:122] Setting up res3a_branch2b
I0629 05:14:24.536079  2606 net.cpp:129] Top shape: 8 128 28 28 (802816)
I0629 05:14:24.536084  2606 net.cpp:137] Memory required for data: 952139936
I0629 05:14:24.536090  2606 layer_factory.hpp:77] Creating layer bn3a_branch2b
I0629 05:14:24.536098  2606 net.cpp:84] Creating Layer bn3a_branch2b
I0629 05:14:24.536103  2606 net.cpp:406] bn3a_branch2b <- res3a_branch2b
I0629 05:14:24.536110  2606 net.cpp:367] bn3a_branch2b -> res3a_branch2b (in-place)
I0629 05:14:24.536324  2606 net.cpp:122] Setting up bn3a_branch2b
I0629 05:14:24.536340  2606 net.cpp:129] Top shape: 8 128 28 28 (802816)
I0629 05:14:24.536345  2606 net.cpp:137] Memory required for data: 955351200
I0629 05:14:24.536352  2606 layer_factory.hpp:77] Creating layer scale3a_branch2b
I0629 05:14:24.536360  2606 net.cpp:84] Creating Layer scale3a_branch2b
I0629 05:14:24.536365  2606 net.cpp:406] scale3a_branch2b <- res3a_branch2b
I0629 05:14:24.536370  2606 net.cpp:367] scale3a_branch2b -> res3a_branch2b (in-place)
I0629 05:14:24.536419  2606 layer_factory.hpp:77] Creating layer scale3a_branch2b
I0629 05:14:24.536571  2606 net.cpp:122] Setting up scale3a_branch2b
I0629 05:14:24.536589  2606 net.cpp:129] Top shape: 8 128 28 28 (802816)
I0629 05:14:24.536593  2606 net.cpp:137] Memory required for data: 958562464
I0629 05:14:24.536600  2606 layer_factory.hpp:77] Creating layer res3a_branch2b_relu
I0629 05:14:24.536607  2606 net.cpp:84] Creating Layer res3a_branch2b_relu
I0629 05:14:24.536610  2606 net.cpp:406] res3a_branch2b_relu <- res3a_branch2b
I0629 05:14:24.536618  2606 net.cpp:367] res3a_branch2b_relu -> res3a_branch2b (in-place)
I0629 05:14:24.536881  2606 net.cpp:122] Setting up res3a_branch2b_relu
I0629 05:14:24.536900  2606 net.cpp:129] Top shape: 8 128 28 28 (802816)
I0629 05:14:24.536903  2606 net.cpp:137] Memory required for data: 961773728
I0629 05:14:24.536907  2606 layer_factory.hpp:77] Creating layer res3a_branch2c
I0629 05:14:24.536926  2606 net.cpp:84] Creating Layer res3a_branch2c
I0629 05:14:24.536936  2606 net.cpp:406] res3a_branch2c <- res3a_branch2b
I0629 05:14:24.536944  2606 net.cpp:380] res3a_branch2c -> res3a_branch2c
I0629 05:14:24.537775  2606 net.cpp:122] Setting up res3a_branch2c
I0629 05:14:24.537796  2606 net.cpp:129] Top shape: 8 512 28 28 (3211264)
I0629 05:14:24.537799  2606 net.cpp:137] Memory required for data: 974618784
I0629 05:14:24.537806  2606 layer_factory.hpp:77] Creating layer bn3a_branch2c
I0629 05:14:24.537816  2606 net.cpp:84] Creating Layer bn3a_branch2c
I0629 05:14:24.537819  2606 net.cpp:406] bn3a_branch2c <- res3a_branch2c
I0629 05:14:24.537827  2606 net.cpp:367] bn3a_branch2c -> res3a_branch2c (in-place)
I0629 05:14:24.538043  2606 net.cpp:122] Setting up bn3a_branch2c
I0629 05:14:24.538058  2606 net.cpp:129] Top shape: 8 512 28 28 (3211264)
I0629 05:14:24.538063  2606 net.cpp:137] Memory required for data: 987463840
I0629 05:14:24.538071  2606 layer_factory.hpp:77] Creating layer scale3a_branch2c
I0629 05:14:24.538079  2606 net.cpp:84] Creating Layer scale3a_branch2c
I0629 05:14:24.538082  2606 net.cpp:406] scale3a_branch2c <- res3a_branch2c
I0629 05:14:24.538090  2606 net.cpp:367] scale3a_branch2c -> res3a_branch2c (in-place)
I0629 05:14:24.538138  2606 layer_factory.hpp:77] Creating layer scale3a_branch2c
I0629 05:14:24.538369  2606 net.cpp:122] Setting up scale3a_branch2c
I0629 05:14:24.538388  2606 net.cpp:129] Top shape: 8 512 28 28 (3211264)
I0629 05:14:24.538391  2606 net.cpp:137] Memory required for data: 1000308896
I0629 05:14:24.538398  2606 layer_factory.hpp:77] Creating layer res3a
I0629 05:14:24.538405  2606 net.cpp:84] Creating Layer res3a
I0629 05:14:24.538409  2606 net.cpp:406] res3a <- res3a_branch1
I0629 05:14:24.538414  2606 net.cpp:406] res3a <- res3a_branch2c
I0629 05:14:24.538419  2606 net.cpp:380] res3a -> res3a
I0629 05:14:24.538453  2606 net.cpp:122] Setting up res3a
I0629 05:14:24.538467  2606 net.cpp:129] Top shape: 8 512 28 28 (3211264)
I0629 05:14:24.538471  2606 net.cpp:137] Memory required for data: 1013153952
I0629 05:14:24.538475  2606 layer_factory.hpp:77] Creating layer res3a_relu
I0629 05:14:24.538481  2606 net.cpp:84] Creating Layer res3a_relu
I0629 05:14:24.538488  2606 net.cpp:406] res3a_relu <- res3a
I0629 05:14:24.538493  2606 net.cpp:367] res3a_relu -> res3a (in-place)
I0629 05:14:24.538769  2606 net.cpp:122] Setting up res3a_relu
I0629 05:14:24.538785  2606 net.cpp:129] Top shape: 8 512 28 28 (3211264)
I0629 05:14:24.538789  2606 net.cpp:137] Memory required for data: 1025999008
I0629 05:14:24.538794  2606 layer_factory.hpp:77] Creating layer res3a_res3a_relu_0_split
I0629 05:14:24.538803  2606 net.cpp:84] Creating Layer res3a_res3a_relu_0_split
I0629 05:14:24.538807  2606 net.cpp:406] res3a_res3a_relu_0_split <- res3a
I0629 05:14:24.538815  2606 net.cpp:380] res3a_res3a_relu_0_split -> res3a_res3a_relu_0_split_0
I0629 05:14:24.538823  2606 net.cpp:380] res3a_res3a_relu_0_split -> res3a_res3a_relu_0_split_1
I0629 05:14:24.538871  2606 net.cpp:122] Setting up res3a_res3a_relu_0_split
I0629 05:14:24.538885  2606 net.cpp:129] Top shape: 8 512 28 28 (3211264)
I0629 05:14:24.538890  2606 net.cpp:129] Top shape: 8 512 28 28 (3211264)
I0629 05:14:24.538905  2606 net.cpp:137] Memory required for data: 1051689120
I0629 05:14:24.538910  2606 layer_factory.hpp:77] Creating layer res3b_branch2a
I0629 05:14:24.538921  2606 net.cpp:84] Creating Layer res3b_branch2a
I0629 05:14:24.538925  2606 net.cpp:406] res3b_branch2a <- res3a_res3a_relu_0_split_0
I0629 05:14:24.538934  2606 net.cpp:380] res3b_branch2a -> res3b_branch2a
I0629 05:14:24.540403  2606 net.cpp:122] Setting up res3b_branch2a
I0629 05:14:24.540423  2606 net.cpp:129] Top shape: 8 128 28 28 (802816)
I0629 05:14:24.540428  2606 net.cpp:137] Memory required for data: 1054900384
I0629 05:14:24.540434  2606 layer_factory.hpp:77] Creating layer bn3b_branch2a
I0629 05:14:24.540444  2606 net.cpp:84] Creating Layer bn3b_branch2a
I0629 05:14:24.540448  2606 net.cpp:406] bn3b_branch2a <- res3b_branch2a
I0629 05:14:24.540454  2606 net.cpp:367] bn3b_branch2a -> res3b_branch2a (in-place)
I0629 05:14:24.540673  2606 net.cpp:122] Setting up bn3b_branch2a
I0629 05:14:24.540688  2606 net.cpp:129] Top shape: 8 128 28 28 (802816)
I0629 05:14:24.540693  2606 net.cpp:137] Memory required for data: 1058111648
I0629 05:14:24.540700  2606 layer_factory.hpp:77] Creating layer scale3b_branch2a
I0629 05:14:24.540707  2606 net.cpp:84] Creating Layer scale3b_branch2a
I0629 05:14:24.540712  2606 net.cpp:406] scale3b_branch2a <- res3b_branch2a
I0629 05:14:24.540720  2606 net.cpp:367] scale3b_branch2a -> res3b_branch2a (in-place)
I0629 05:14:24.540768  2606 layer_factory.hpp:77] Creating layer scale3b_branch2a
I0629 05:14:24.540911  2606 net.cpp:122] Setting up scale3b_branch2a
I0629 05:14:24.540926  2606 net.cpp:129] Top shape: 8 128 28 28 (802816)
I0629 05:14:24.540930  2606 net.cpp:137] Memory required for data: 1061322912
I0629 05:14:24.540936  2606 layer_factory.hpp:77] Creating layer res3b_branch2a_relu
I0629 05:14:24.540946  2606 net.cpp:84] Creating Layer res3b_branch2a_relu
I0629 05:14:24.540951  2606 net.cpp:406] res3b_branch2a_relu <- res3b_branch2a
I0629 05:14:24.540956  2606 net.cpp:367] res3b_branch2a_relu -> res3b_branch2a (in-place)
I0629 05:14:24.541113  2606 net.cpp:122] Setting up res3b_branch2a_relu
I0629 05:14:24.541129  2606 net.cpp:129] Top shape: 8 128 28 28 (802816)
I0629 05:14:24.541136  2606 net.cpp:137] Memory required for data: 1064534176
I0629 05:14:24.541141  2606 layer_factory.hpp:77] Creating layer res3b_branch2b
I0629 05:14:24.541148  2606 net.cpp:84] Creating Layer res3b_branch2b
I0629 05:14:24.541152  2606 net.cpp:406] res3b_branch2b <- res3b_branch2a
I0629 05:14:24.541162  2606 net.cpp:380] res3b_branch2b -> res3b_branch2b
I0629 05:14:24.542706  2606 net.cpp:122] Setting up res3b_branch2b
I0629 05:14:24.542726  2606 net.cpp:129] Top shape: 8 128 28 28 (802816)
I0629 05:14:24.542729  2606 net.cpp:137] Memory required for data: 1067745440
I0629 05:14:24.542735  2606 layer_factory.hpp:77] Creating layer bn3b_branch2b
I0629 05:14:24.542745  2606 net.cpp:84] Creating Layer bn3b_branch2b
I0629 05:14:24.542750  2606 net.cpp:406] bn3b_branch2b <- res3b_branch2b
I0629 05:14:24.542757  2606 net.cpp:367] bn3b_branch2b -> res3b_branch2b (in-place)
I0629 05:14:24.542981  2606 net.cpp:122] Setting up bn3b_branch2b
I0629 05:14:24.542997  2606 net.cpp:129] Top shape: 8 128 28 28 (802816)
I0629 05:14:24.543001  2606 net.cpp:137] Memory required for data: 1070956704
I0629 05:14:24.543012  2606 layer_factory.hpp:77] Creating layer scale3b_branch2b
I0629 05:14:24.543020  2606 net.cpp:84] Creating Layer scale3b_branch2b
I0629 05:14:24.543025  2606 net.cpp:406] scale3b_branch2b <- res3b_branch2b
I0629 05:14:24.543030  2606 net.cpp:367] scale3b_branch2b -> res3b_branch2b (in-place)
I0629 05:14:24.543081  2606 layer_factory.hpp:77] Creating layer scale3b_branch2b
I0629 05:14:24.543220  2606 net.cpp:122] Setting up scale3b_branch2b
I0629 05:14:24.543236  2606 net.cpp:129] Top shape: 8 128 28 28 (802816)
I0629 05:14:24.543239  2606 net.cpp:137] Memory required for data: 1074167968
I0629 05:14:24.543246  2606 layer_factory.hpp:77] Creating layer res3b_branch2b_relu
I0629 05:14:24.543253  2606 net.cpp:84] Creating Layer res3b_branch2b_relu
I0629 05:14:24.543273  2606 net.cpp:406] res3b_branch2b_relu <- res3b_branch2b
I0629 05:14:24.543283  2606 net.cpp:367] res3b_branch2b_relu -> res3b_branch2b (in-place)
I0629 05:14:24.543551  2606 net.cpp:122] Setting up res3b_branch2b_relu
I0629 05:14:24.543570  2606 net.cpp:129] Top shape: 8 128 28 28 (802816)
I0629 05:14:24.543575  2606 net.cpp:137] Memory required for data: 1077379232
I0629 05:14:24.543578  2606 layer_factory.hpp:77] Creating layer res3b_branch2c
I0629 05:14:24.543589  2606 net.cpp:84] Creating Layer res3b_branch2c
I0629 05:14:24.543594  2606 net.cpp:406] res3b_branch2c <- res3b_branch2b
I0629 05:14:24.543601  2606 net.cpp:380] res3b_branch2c -> res3b_branch2c
I0629 05:14:24.544446  2606 net.cpp:122] Setting up res3b_branch2c
I0629 05:14:24.544466  2606 net.cpp:129] Top shape: 8 512 28 28 (3211264)
I0629 05:14:24.544471  2606 net.cpp:137] Memory required for data: 1090224288
I0629 05:14:24.544476  2606 layer_factory.hpp:77] Creating layer bn3b_branch2c
I0629 05:14:24.544486  2606 net.cpp:84] Creating Layer bn3b_branch2c
I0629 05:14:24.544492  2606 net.cpp:406] bn3b_branch2c <- res3b_branch2c
I0629 05:14:24.544499  2606 net.cpp:367] bn3b_branch2c -> res3b_branch2c (in-place)
I0629 05:14:24.544710  2606 net.cpp:122] Setting up bn3b_branch2c
I0629 05:14:24.544726  2606 net.cpp:129] Top shape: 8 512 28 28 (3211264)
I0629 05:14:24.544729  2606 net.cpp:137] Memory required for data: 1103069344
I0629 05:14:24.544739  2606 layer_factory.hpp:77] Creating layer scale3b_branch2c
I0629 05:14:24.544747  2606 net.cpp:84] Creating Layer scale3b_branch2c
I0629 05:14:24.544751  2606 net.cpp:406] scale3b_branch2c <- res3b_branch2c
I0629 05:14:24.544757  2606 net.cpp:367] scale3b_branch2c -> res3b_branch2c (in-place)
I0629 05:14:24.544807  2606 layer_factory.hpp:77] Creating layer scale3b_branch2c
I0629 05:14:24.544942  2606 net.cpp:122] Setting up scale3b_branch2c
I0629 05:14:24.544957  2606 net.cpp:129] Top shape: 8 512 28 28 (3211264)
I0629 05:14:24.544961  2606 net.cpp:137] Memory required for data: 1115914400
I0629 05:14:24.544968  2606 layer_factory.hpp:77] Creating layer res3b
I0629 05:14:24.544975  2606 net.cpp:84] Creating Layer res3b
I0629 05:14:24.544980  2606 net.cpp:406] res3b <- res3a_res3a_relu_0_split_1
I0629 05:14:24.544984  2606 net.cpp:406] res3b <- res3b_branch2c
I0629 05:14:24.544989  2606 net.cpp:380] res3b -> res3b
I0629 05:14:24.545025  2606 net.cpp:122] Setting up res3b
I0629 05:14:24.545045  2606 net.cpp:129] Top shape: 8 512 28 28 (3211264)
I0629 05:14:24.545049  2606 net.cpp:137] Memory required for data: 1128759456
I0629 05:14:24.545053  2606 layer_factory.hpp:77] Creating layer res3b_relu
I0629 05:14:24.545063  2606 net.cpp:84] Creating Layer res3b_relu
I0629 05:14:24.545068  2606 net.cpp:406] res3b_relu <- res3b
I0629 05:14:24.545073  2606 net.cpp:367] res3b_relu -> res3b (in-place)
I0629 05:14:24.545328  2606 net.cpp:122] Setting up res3b_relu
I0629 05:14:24.545348  2606 net.cpp:129] Top shape: 8 512 28 28 (3211264)
I0629 05:14:24.545352  2606 net.cpp:137] Memory required for data: 1141604512
I0629 05:14:24.545356  2606 layer_factory.hpp:77] Creating layer res3b_res3b_relu_0_split
I0629 05:14:24.545363  2606 net.cpp:84] Creating Layer res3b_res3b_relu_0_split
I0629 05:14:24.545367  2606 net.cpp:406] res3b_res3b_relu_0_split <- res3b
I0629 05:14:24.545374  2606 net.cpp:380] res3b_res3b_relu_0_split -> res3b_res3b_relu_0_split_0
I0629 05:14:24.545382  2606 net.cpp:380] res3b_res3b_relu_0_split -> res3b_res3b_relu_0_split_1
I0629 05:14:24.545433  2606 net.cpp:122] Setting up res3b_res3b_relu_0_split
I0629 05:14:24.545450  2606 net.cpp:129] Top shape: 8 512 28 28 (3211264)
I0629 05:14:24.545459  2606 net.cpp:129] Top shape: 8 512 28 28 (3211264)
I0629 05:14:24.545466  2606 net.cpp:137] Memory required for data: 1167294624
I0629 05:14:24.545472  2606 layer_factory.hpp:77] Creating layer res3c_branch2a
I0629 05:14:24.545490  2606 net.cpp:84] Creating Layer res3c_branch2a
I0629 05:14:24.545502  2606 net.cpp:406] res3c_branch2a <- res3b_res3b_relu_0_split_0
I0629 05:14:24.545526  2606 net.cpp:380] res3c_branch2a -> res3c_branch2a
I0629 05:14:24.546473  2606 net.cpp:122] Setting up res3c_branch2a
I0629 05:14:24.546492  2606 net.cpp:129] Top shape: 8 128 28 28 (802816)
I0629 05:14:24.546496  2606 net.cpp:137] Memory required for data: 1170505888
I0629 05:14:24.546502  2606 layer_factory.hpp:77] Creating layer bn3c_branch2a
I0629 05:14:24.546512  2606 net.cpp:84] Creating Layer bn3c_branch2a
I0629 05:14:24.546517  2606 net.cpp:406] bn3c_branch2a <- res3c_branch2a
I0629 05:14:24.546524  2606 net.cpp:367] bn3c_branch2a -> res3c_branch2a (in-place)
I0629 05:14:24.546744  2606 net.cpp:122] Setting up bn3c_branch2a
I0629 05:14:24.546759  2606 net.cpp:129] Top shape: 8 128 28 28 (802816)
I0629 05:14:24.546763  2606 net.cpp:137] Memory required for data: 1173717152
I0629 05:14:24.546774  2606 layer_factory.hpp:77] Creating layer scale3c_branch2a
I0629 05:14:24.546782  2606 net.cpp:84] Creating Layer scale3c_branch2a
I0629 05:14:24.546785  2606 net.cpp:406] scale3c_branch2a <- res3c_branch2a
I0629 05:14:24.546792  2606 net.cpp:367] scale3c_branch2a -> res3c_branch2a (in-place)
I0629 05:14:24.546844  2606 layer_factory.hpp:77] Creating layer scale3c_branch2a
I0629 05:14:24.546983  2606 net.cpp:122] Setting up scale3c_branch2a
I0629 05:14:24.546998  2606 net.cpp:129] Top shape: 8 128 28 28 (802816)
I0629 05:14:24.547003  2606 net.cpp:137] Memory required for data: 1176928416
I0629 05:14:24.547009  2606 layer_factory.hpp:77] Creating layer res3c_branch2a_relu
I0629 05:14:24.547019  2606 net.cpp:84] Creating Layer res3c_branch2a_relu
I0629 05:14:24.547022  2606 net.cpp:406] res3c_branch2a_relu <- res3c_branch2a
I0629 05:14:24.547027  2606 net.cpp:367] res3c_branch2a_relu -> res3c_branch2a (in-place)
I0629 05:14:24.547186  2606 net.cpp:122] Setting up res3c_branch2a_relu
I0629 05:14:24.547204  2606 net.cpp:129] Top shape: 8 128 28 28 (802816)
I0629 05:14:24.547209  2606 net.cpp:137] Memory required for data: 1180139680
I0629 05:14:24.547214  2606 layer_factory.hpp:77] Creating layer res3c_branch2b
I0629 05:14:24.547224  2606 net.cpp:84] Creating Layer res3c_branch2b
I0629 05:14:24.547228  2606 net.cpp:406] res3c_branch2b <- res3c_branch2a
I0629 05:14:24.547235  2606 net.cpp:380] res3c_branch2b -> res3c_branch2b
I0629 05:14:24.548738  2606 net.cpp:122] Setting up res3c_branch2b
I0629 05:14:24.548760  2606 net.cpp:129] Top shape: 8 128 28 28 (802816)
I0629 05:14:24.548764  2606 net.cpp:137] Memory required for data: 1183350944
I0629 05:14:24.548770  2606 layer_factory.hpp:77] Creating layer bn3c_branch2b
I0629 05:14:24.548779  2606 net.cpp:84] Creating Layer bn3c_branch2b
I0629 05:14:24.548782  2606 net.cpp:406] bn3c_branch2b <- res3c_branch2b
I0629 05:14:24.548789  2606 net.cpp:367] bn3c_branch2b -> res3c_branch2b (in-place)
I0629 05:14:24.549015  2606 net.cpp:122] Setting up bn3c_branch2b
I0629 05:14:24.549031  2606 net.cpp:129] Top shape: 8 128 28 28 (802816)
I0629 05:14:24.549034  2606 net.cpp:137] Memory required for data: 1186562208
I0629 05:14:24.549042  2606 layer_factory.hpp:77] Creating layer scale3c_branch2b
I0629 05:14:24.549049  2606 net.cpp:84] Creating Layer scale3c_branch2b
I0629 05:14:24.549053  2606 net.cpp:406] scale3c_branch2b <- res3c_branch2b
I0629 05:14:24.549059  2606 net.cpp:367] scale3c_branch2b -> res3c_branch2b (in-place)
I0629 05:14:24.549113  2606 layer_factory.hpp:77] Creating layer scale3c_branch2b
I0629 05:14:24.549270  2606 net.cpp:122] Setting up scale3c_branch2b
I0629 05:14:24.549285  2606 net.cpp:129] Top shape: 8 128 28 28 (802816)
I0629 05:14:24.549289  2606 net.cpp:137] Memory required for data: 1189773472
I0629 05:14:24.549296  2606 layer_factory.hpp:77] Creating layer res3c_branch2b_relu
I0629 05:14:24.549305  2606 net.cpp:84] Creating Layer res3c_branch2b_relu
I0629 05:14:24.549309  2606 net.cpp:406] res3c_branch2b_relu <- res3c_branch2b
I0629 05:14:24.549314  2606 net.cpp:367] res3c_branch2b_relu -> res3c_branch2b (in-place)
I0629 05:14:24.549576  2606 net.cpp:122] Setting up res3c_branch2b_relu
I0629 05:14:24.549594  2606 net.cpp:129] Top shape: 8 128 28 28 (802816)
I0629 05:14:24.549623  2606 net.cpp:137] Memory required for data: 1192984736
I0629 05:14:24.549628  2606 layer_factory.hpp:77] Creating layer res3c_branch2c
I0629 05:14:24.549640  2606 net.cpp:84] Creating Layer res3c_branch2c
I0629 05:14:24.549645  2606 net.cpp:406] res3c_branch2c <- res3c_branch2b
I0629 05:14:24.549654  2606 net.cpp:380] res3c_branch2c -> res3c_branch2c
I0629 05:14:24.550493  2606 net.cpp:122] Setting up res3c_branch2c
I0629 05:14:24.550513  2606 net.cpp:129] Top shape: 8 512 28 28 (3211264)
I0629 05:14:24.550518  2606 net.cpp:137] Memory required for data: 1205829792
I0629 05:14:24.550523  2606 layer_factory.hpp:77] Creating layer bn3c_branch2c
I0629 05:14:24.550534  2606 net.cpp:84] Creating Layer bn3c_branch2c
I0629 05:14:24.550539  2606 net.cpp:406] bn3c_branch2c <- res3c_branch2c
I0629 05:14:24.550545  2606 net.cpp:367] bn3c_branch2c -> res3c_branch2c (in-place)
I0629 05:14:24.550766  2606 net.cpp:122] Setting up bn3c_branch2c
I0629 05:14:24.550782  2606 net.cpp:129] Top shape: 8 512 28 28 (3211264)
I0629 05:14:24.550786  2606 net.cpp:137] Memory required for data: 1218674848
I0629 05:14:24.550794  2606 layer_factory.hpp:77] Creating layer scale3c_branch2c
I0629 05:14:24.550813  2606 net.cpp:84] Creating Layer scale3c_branch2c
I0629 05:14:24.550823  2606 net.cpp:406] scale3c_branch2c <- res3c_branch2c
I0629 05:14:24.550829  2606 net.cpp:367] scale3c_branch2c -> res3c_branch2c (in-place)
I0629 05:14:24.550882  2606 layer_factory.hpp:77] Creating layer scale3c_branch2c
I0629 05:14:24.551020  2606 net.cpp:122] Setting up scale3c_branch2c
I0629 05:14:24.551035  2606 net.cpp:129] Top shape: 8 512 28 28 (3211264)
I0629 05:14:24.551040  2606 net.cpp:137] Memory required for data: 1231519904
I0629 05:14:24.551046  2606 layer_factory.hpp:77] Creating layer res3c
I0629 05:14:24.551054  2606 net.cpp:84] Creating Layer res3c
I0629 05:14:24.551057  2606 net.cpp:406] res3c <- res3b_res3b_relu_0_split_1
I0629 05:14:24.551061  2606 net.cpp:406] res3c <- res3c_branch2c
I0629 05:14:24.551067  2606 net.cpp:380] res3c -> res3c
I0629 05:14:24.551100  2606 net.cpp:122] Setting up res3c
I0629 05:14:24.551115  2606 net.cpp:129] Top shape: 8 512 28 28 (3211264)
I0629 05:14:24.551118  2606 net.cpp:137] Memory required for data: 1244364960
I0629 05:14:24.551122  2606 layer_factory.hpp:77] Creating layer res3c_relu
I0629 05:14:24.551131  2606 net.cpp:84] Creating Layer res3c_relu
I0629 05:14:24.551134  2606 net.cpp:406] res3c_relu <- res3c
I0629 05:14:24.551139  2606 net.cpp:367] res3c_relu -> res3c (in-place)
I0629 05:14:24.551404  2606 net.cpp:122] Setting up res3c_relu
I0629 05:14:24.551424  2606 net.cpp:129] Top shape: 8 512 28 28 (3211264)
I0629 05:14:24.551429  2606 net.cpp:137] Memory required for data: 1257210016
I0629 05:14:24.551432  2606 layer_factory.hpp:77] Creating layer res3c_res3c_relu_0_split
I0629 05:14:24.551439  2606 net.cpp:84] Creating Layer res3c_res3c_relu_0_split
I0629 05:14:24.551442  2606 net.cpp:406] res3c_res3c_relu_0_split <- res3c
I0629 05:14:24.551450  2606 net.cpp:380] res3c_res3c_relu_0_split -> res3c_res3c_relu_0_split_0
I0629 05:14:24.551458  2606 net.cpp:380] res3c_res3c_relu_0_split -> res3c_res3c_relu_0_split_1
I0629 05:14:24.551507  2606 net.cpp:122] Setting up res3c_res3c_relu_0_split
I0629 05:14:24.551522  2606 net.cpp:129] Top shape: 8 512 28 28 (3211264)
I0629 05:14:24.551527  2606 net.cpp:129] Top shape: 8 512 28 28 (3211264)
I0629 05:14:24.551530  2606 net.cpp:137] Memory required for data: 1282900128
I0629 05:14:24.551534  2606 layer_factory.hpp:77] Creating layer res3d_branch2a
I0629 05:14:24.551544  2606 net.cpp:84] Creating Layer res3d_branch2a
I0629 05:14:24.551549  2606 net.cpp:406] res3d_branch2a <- res3c_res3c_relu_0_split_0
I0629 05:14:24.551559  2606 net.cpp:380] res3d_branch2a -> res3d_branch2a
I0629 05:14:24.553016  2606 net.cpp:122] Setting up res3d_branch2a
I0629 05:14:24.553035  2606 net.cpp:129] Top shape: 8 128 28 28 (802816)
I0629 05:14:24.553040  2606 net.cpp:137] Memory required for data: 1286111392
I0629 05:14:24.553046  2606 layer_factory.hpp:77] Creating layer bn3d_branch2a
I0629 05:14:24.553068  2606 net.cpp:84] Creating Layer bn3d_branch2a
I0629 05:14:24.553076  2606 net.cpp:406] bn3d_branch2a <- res3d_branch2a
I0629 05:14:24.553082  2606 net.cpp:367] bn3d_branch2a -> res3d_branch2a (in-place)
I0629 05:14:24.553311  2606 net.cpp:122] Setting up bn3d_branch2a
I0629 05:14:24.553328  2606 net.cpp:129] Top shape: 8 128 28 28 (802816)
I0629 05:14:24.553331  2606 net.cpp:137] Memory required for data: 1289322656
I0629 05:14:24.553355  2606 layer_factory.hpp:77] Creating layer scale3d_branch2a
I0629 05:14:24.553369  2606 net.cpp:84] Creating Layer scale3d_branch2a
I0629 05:14:24.553375  2606 net.cpp:406] scale3d_branch2a <- res3d_branch2a
I0629 05:14:24.553383  2606 net.cpp:367] scale3d_branch2a -> res3d_branch2a (in-place)
I0629 05:14:24.553442  2606 layer_factory.hpp:77] Creating layer scale3d_branch2a
I0629 05:14:24.553588  2606 net.cpp:122] Setting up scale3d_branch2a
I0629 05:14:24.553604  2606 net.cpp:129] Top shape: 8 128 28 28 (802816)
I0629 05:14:24.553608  2606 net.cpp:137] Memory required for data: 1292533920
I0629 05:14:24.553614  2606 layer_factory.hpp:77] Creating layer res3d_branch2a_relu
I0629 05:14:24.553623  2606 net.cpp:84] Creating Layer res3d_branch2a_relu
I0629 05:14:24.553627  2606 net.cpp:406] res3d_branch2a_relu <- res3d_branch2a
I0629 05:14:24.553633  2606 net.cpp:367] res3d_branch2a_relu -> res3d_branch2a (in-place)
I0629 05:14:24.553800  2606 net.cpp:122] Setting up res3d_branch2a_relu
I0629 05:14:24.553817  2606 net.cpp:129] Top shape: 8 128 28 28 (802816)
I0629 05:14:24.553820  2606 net.cpp:137] Memory required for data: 1295745184
I0629 05:14:24.553824  2606 layer_factory.hpp:77] Creating layer res3d_branch2b
I0629 05:14:24.553835  2606 net.cpp:84] Creating Layer res3d_branch2b
I0629 05:14:24.553840  2606 net.cpp:406] res3d_branch2b <- res3d_branch2a
I0629 05:14:24.553848  2606 net.cpp:380] res3d_branch2b -> res3d_branch2b
I0629 05:14:24.555337  2606 net.cpp:122] Setting up res3d_branch2b
I0629 05:14:24.555357  2606 net.cpp:129] Top shape: 8 128 28 28 (802816)
I0629 05:14:24.555361  2606 net.cpp:137] Memory required for data: 1298956448
I0629 05:14:24.555367  2606 layer_factory.hpp:77] Creating layer bn3d_branch2b
I0629 05:14:24.555377  2606 net.cpp:84] Creating Layer bn3d_branch2b
I0629 05:14:24.555382  2606 net.cpp:406] bn3d_branch2b <- res3d_branch2b
I0629 05:14:24.555387  2606 net.cpp:367] bn3d_branch2b -> res3d_branch2b (in-place)
I0629 05:14:24.555649  2606 net.cpp:122] Setting up bn3d_branch2b
I0629 05:14:24.555666  2606 net.cpp:129] Top shape: 8 128 28 28 (802816)
I0629 05:14:24.555670  2606 net.cpp:137] Memory required for data: 1302167712
I0629 05:14:24.555678  2606 layer_factory.hpp:77] Creating layer scale3d_branch2b
I0629 05:14:24.555685  2606 net.cpp:84] Creating Layer scale3d_branch2b
I0629 05:14:24.555691  2606 net.cpp:406] scale3d_branch2b <- res3d_branch2b
I0629 05:14:24.555698  2606 net.cpp:367] scale3d_branch2b -> res3d_branch2b (in-place)
I0629 05:14:24.555749  2606 layer_factory.hpp:77] Creating layer scale3d_branch2b
I0629 05:14:24.555912  2606 net.cpp:122] Setting up scale3d_branch2b
I0629 05:14:24.555927  2606 net.cpp:129] Top shape: 8 128 28 28 (802816)
I0629 05:14:24.555930  2606 net.cpp:137] Memory required for data: 1305378976
I0629 05:14:24.555938  2606 layer_factory.hpp:77] Creating layer res3d_branch2b_relu
I0629 05:14:24.555946  2606 net.cpp:84] Creating Layer res3d_branch2b_relu
I0629 05:14:24.555950  2606 net.cpp:406] res3d_branch2b_relu <- res3d_branch2b
I0629 05:14:24.555956  2606 net.cpp:367] res3d_branch2b_relu -> res3d_branch2b (in-place)
I0629 05:14:24.556219  2606 net.cpp:122] Setting up res3d_branch2b_relu
I0629 05:14:24.556237  2606 net.cpp:129] Top shape: 8 128 28 28 (802816)
I0629 05:14:24.556242  2606 net.cpp:137] Memory required for data: 1308590240
I0629 05:14:24.556246  2606 layer_factory.hpp:77] Creating layer res3d_branch2c
I0629 05:14:24.556259  2606 net.cpp:84] Creating Layer res3d_branch2c
I0629 05:14:24.556264  2606 net.cpp:406] res3d_branch2c <- res3d_branch2b
I0629 05:14:24.556290  2606 net.cpp:380] res3d_branch2c -> res3d_branch2c
I0629 05:14:24.557166  2606 net.cpp:122] Setting up res3d_branch2c
I0629 05:14:24.557188  2606 net.cpp:129] Top shape: 8 512 28 28 (3211264)
I0629 05:14:24.557193  2606 net.cpp:137] Memory required for data: 1321435296
I0629 05:14:24.557199  2606 layer_factory.hpp:77] Creating layer bn3d_branch2c
I0629 05:14:24.557205  2606 net.cpp:84] Creating Layer bn3d_branch2c
I0629 05:14:24.557210  2606 net.cpp:406] bn3d_branch2c <- res3d_branch2c
I0629 05:14:24.557219  2606 net.cpp:367] bn3d_branch2c -> res3d_branch2c (in-place)
I0629 05:14:24.557446  2606 net.cpp:122] Setting up bn3d_branch2c
I0629 05:14:24.557461  2606 net.cpp:129] Top shape: 8 512 28 28 (3211264)
I0629 05:14:24.557466  2606 net.cpp:137] Memory required for data: 1334280352
I0629 05:14:24.557473  2606 layer_factory.hpp:77] Creating layer scale3d_branch2c
I0629 05:14:24.557481  2606 net.cpp:84] Creating Layer scale3d_branch2c
I0629 05:14:24.557485  2606 net.cpp:406] scale3d_branch2c <- res3d_branch2c
I0629 05:14:24.557490  2606 net.cpp:367] scale3d_branch2c -> res3d_branch2c (in-place)
I0629 05:14:24.557543  2606 layer_factory.hpp:77] Creating layer scale3d_branch2c
I0629 05:14:24.557693  2606 net.cpp:122] Setting up scale3d_branch2c
I0629 05:14:24.557708  2606 net.cpp:129] Top shape: 8 512 28 28 (3211264)
I0629 05:14:24.557713  2606 net.cpp:137] Memory required for data: 1347125408
I0629 05:14:24.557718  2606 layer_factory.hpp:77] Creating layer res3d
I0629 05:14:24.557727  2606 net.cpp:84] Creating Layer res3d
I0629 05:14:24.557731  2606 net.cpp:406] res3d <- res3c_res3c_relu_0_split_1
I0629 05:14:24.557736  2606 net.cpp:406] res3d <- res3d_branch2c
I0629 05:14:24.557744  2606 net.cpp:380] res3d -> res3d
I0629 05:14:24.557775  2606 net.cpp:122] Setting up res3d
I0629 05:14:24.557790  2606 net.cpp:129] Top shape: 8 512 28 28 (3211264)
I0629 05:14:24.557795  2606 net.cpp:137] Memory required for data: 1359970464
I0629 05:14:24.557798  2606 layer_factory.hpp:77] Creating layer res3d_relu
I0629 05:14:24.557806  2606 net.cpp:84] Creating Layer res3d_relu
I0629 05:14:24.557811  2606 net.cpp:406] res3d_relu <- res3d
I0629 05:14:24.557816  2606 net.cpp:367] res3d_relu -> res3d (in-place)
I0629 05:14:24.558069  2606 net.cpp:122] Setting up res3d_relu
I0629 05:14:24.558089  2606 net.cpp:129] Top shape: 8 512 28 28 (3211264)
I0629 05:14:24.558094  2606 net.cpp:137] Memory required for data: 1372815520
I0629 05:14:24.558099  2606 layer_factory.hpp:77] Creating layer res3d_res3d_relu_0_split
I0629 05:14:24.558104  2606 net.cpp:84] Creating Layer res3d_res3d_relu_0_split
I0629 05:14:24.558109  2606 net.cpp:406] res3d_res3d_relu_0_split <- res3d
I0629 05:14:24.558115  2606 net.cpp:380] res3d_res3d_relu_0_split -> res3d_res3d_relu_0_split_0
I0629 05:14:24.558121  2606 net.cpp:380] res3d_res3d_relu_0_split -> res3d_res3d_relu_0_split_1
I0629 05:14:24.558173  2606 net.cpp:122] Setting up res3d_res3d_relu_0_split
I0629 05:14:24.558187  2606 net.cpp:129] Top shape: 8 512 28 28 (3211264)
I0629 05:14:24.558193  2606 net.cpp:129] Top shape: 8 512 28 28 (3211264)
I0629 05:14:24.558197  2606 net.cpp:137] Memory required for data: 1398505632
I0629 05:14:24.558200  2606 layer_factory.hpp:77] Creating layer res4a_branch1
I0629 05:14:24.558210  2606 net.cpp:84] Creating Layer res4a_branch1
I0629 05:14:24.558214  2606 net.cpp:406] res4a_branch1 <- res3d_res3d_relu_0_split_0
I0629 05:14:24.558223  2606 net.cpp:380] res4a_branch1 -> res4a_branch1
I0629 05:14:24.560425  2606 net.cpp:122] Setting up res4a_branch1
I0629 05:14:24.560446  2606 net.cpp:129] Top shape: 8 1024 14 14 (1605632)
I0629 05:14:24.560449  2606 net.cpp:137] Memory required for data: 1404928160
I0629 05:14:24.560456  2606 layer_factory.hpp:77] Creating layer bn4a_branch1
I0629 05:14:24.560462  2606 net.cpp:84] Creating Layer bn4a_branch1
I0629 05:14:24.560467  2606 net.cpp:406] bn4a_branch1 <- res4a_branch1
I0629 05:14:24.560479  2606 net.cpp:367] bn4a_branch1 -> res4a_branch1 (in-place)
I0629 05:14:24.560734  2606 net.cpp:122] Setting up bn4a_branch1
I0629 05:14:24.560762  2606 net.cpp:129] Top shape: 8 1024 14 14 (1605632)
I0629 05:14:24.560766  2606 net.cpp:137] Memory required for data: 1411350688
I0629 05:14:24.560778  2606 layer_factory.hpp:77] Creating layer scale4a_branch1
I0629 05:14:24.560786  2606 net.cpp:84] Creating Layer scale4a_branch1
I0629 05:14:24.560791  2606 net.cpp:406] scale4a_branch1 <- res4a_branch1
I0629 05:14:24.560796  2606 net.cpp:367] scale4a_branch1 -> res4a_branch1 (in-place)
I0629 05:14:24.560850  2606 layer_factory.hpp:77] Creating layer scale4a_branch1
I0629 05:14:24.560998  2606 net.cpp:122] Setting up scale4a_branch1
I0629 05:14:24.561013  2606 net.cpp:129] Top shape: 8 1024 14 14 (1605632)
I0629 05:14:24.561017  2606 net.cpp:137] Memory required for data: 1417773216
I0629 05:14:24.561027  2606 layer_factory.hpp:77] Creating layer res4a_branch2a
I0629 05:14:24.561038  2606 net.cpp:84] Creating Layer res4a_branch2a
I0629 05:14:24.561043  2606 net.cpp:406] res4a_branch2a <- res3d_res3d_relu_0_split_1
I0629 05:14:24.561051  2606 net.cpp:380] res4a_branch2a -> res4a_branch2a
I0629 05:14:24.562047  2606 net.cpp:122] Setting up res4a_branch2a
I0629 05:14:24.562067  2606 net.cpp:129] Top shape: 8 256 14 14 (401408)
I0629 05:14:24.562072  2606 net.cpp:137] Memory required for data: 1419378848
I0629 05:14:24.562078  2606 layer_factory.hpp:77] Creating layer bn4a_branch2a
I0629 05:14:24.562088  2606 net.cpp:84] Creating Layer bn4a_branch2a
I0629 05:14:24.562093  2606 net.cpp:406] bn4a_branch2a <- res4a_branch2a
I0629 05:14:24.562100  2606 net.cpp:367] bn4a_branch2a -> res4a_branch2a (in-place)
I0629 05:14:24.562330  2606 net.cpp:122] Setting up bn4a_branch2a
I0629 05:14:24.562346  2606 net.cpp:129] Top shape: 8 256 14 14 (401408)
I0629 05:14:24.562350  2606 net.cpp:137] Memory required for data: 1420984480
I0629 05:14:24.562358  2606 layer_factory.hpp:77] Creating layer scale4a_branch2a
I0629 05:14:24.562367  2606 net.cpp:84] Creating Layer scale4a_branch2a
I0629 05:14:24.562372  2606 net.cpp:406] scale4a_branch2a <- res4a_branch2a
I0629 05:14:24.562377  2606 net.cpp:367] scale4a_branch2a -> res4a_branch2a (in-place)
I0629 05:14:24.562432  2606 layer_factory.hpp:77] Creating layer scale4a_branch2a
I0629 05:14:24.562574  2606 net.cpp:122] Setting up scale4a_branch2a
I0629 05:14:24.562589  2606 net.cpp:129] Top shape: 8 256 14 14 (401408)
I0629 05:14:24.562593  2606 net.cpp:137] Memory required for data: 1422590112
I0629 05:14:24.562599  2606 layer_factory.hpp:77] Creating layer res4a_branch2a_relu
I0629 05:14:24.562607  2606 net.cpp:84] Creating Layer res4a_branch2a_relu
I0629 05:14:24.562610  2606 net.cpp:406] res4a_branch2a_relu <- res4a_branch2a
I0629 05:14:24.562615  2606 net.cpp:367] res4a_branch2a_relu -> res4a_branch2a (in-place)
I0629 05:14:24.562772  2606 net.cpp:122] Setting up res4a_branch2a_relu
I0629 05:14:24.562789  2606 net.cpp:129] Top shape: 8 256 14 14 (401408)
I0629 05:14:24.562793  2606 net.cpp:137] Memory required for data: 1424195744
I0629 05:14:24.562798  2606 layer_factory.hpp:77] Creating layer res4a_branch2b
I0629 05:14:24.562808  2606 net.cpp:84] Creating Layer res4a_branch2b
I0629 05:14:24.562813  2606 net.cpp:406] res4a_branch2b <- res4a_branch2a
I0629 05:14:24.562821  2606 net.cpp:380] res4a_branch2b -> res4a_branch2b
I0629 05:14:24.565376  2606 net.cpp:122] Setting up res4a_branch2b
I0629 05:14:24.565398  2606 net.cpp:129] Top shape: 8 256 14 14 (401408)
I0629 05:14:24.565402  2606 net.cpp:137] Memory required for data: 1425801376
I0629 05:14:24.565408  2606 layer_factory.hpp:77] Creating layer bn4a_branch2b
I0629 05:14:24.565418  2606 net.cpp:84] Creating Layer bn4a_branch2b
I0629 05:14:24.565423  2606 net.cpp:406] bn4a_branch2b <- res4a_branch2b
I0629 05:14:24.565431  2606 net.cpp:367] bn4a_branch2b -> res4a_branch2b (in-place)
I0629 05:14:24.565666  2606 net.cpp:122] Setting up bn4a_branch2b
I0629 05:14:24.565682  2606 net.cpp:129] Top shape: 8 256 14 14 (401408)
I0629 05:14:24.565686  2606 net.cpp:137] Memory required for data: 1427407008
I0629 05:14:24.565698  2606 layer_factory.hpp:77] Creating layer scale4a_branch2b
I0629 05:14:24.565735  2606 net.cpp:84] Creating Layer scale4a_branch2b
I0629 05:14:24.565743  2606 net.cpp:406] scale4a_branch2b <- res4a_branch2b
I0629 05:14:24.565752  2606 net.cpp:367] scale4a_branch2b -> res4a_branch2b (in-place)
I0629 05:14:24.565807  2606 layer_factory.hpp:77] Creating layer scale4a_branch2b
I0629 05:14:24.565974  2606 net.cpp:122] Setting up scale4a_branch2b
I0629 05:14:24.565990  2606 net.cpp:129] Top shape: 8 256 14 14 (401408)
I0629 05:14:24.565997  2606 net.cpp:137] Memory required for data: 1429012640
I0629 05:14:24.566004  2606 layer_factory.hpp:77] Creating layer res4a_branch2b_relu
I0629 05:14:24.566011  2606 net.cpp:84] Creating Layer res4a_branch2b_relu
I0629 05:14:24.566015  2606 net.cpp:406] res4a_branch2b_relu <- res4a_branch2b
I0629 05:14:24.566020  2606 net.cpp:367] res4a_branch2b_relu -> res4a_branch2b (in-place)
I0629 05:14:24.566184  2606 net.cpp:122] Setting up res4a_branch2b_relu
I0629 05:14:24.566201  2606 net.cpp:129] Top shape: 8 256 14 14 (401408)
I0629 05:14:24.566205  2606 net.cpp:137] Memory required for data: 1430618272
I0629 05:14:24.566210  2606 layer_factory.hpp:77] Creating layer res4a_branch2c
I0629 05:14:24.566220  2606 net.cpp:84] Creating Layer res4a_branch2c
I0629 05:14:24.566224  2606 net.cpp:406] res4a_branch2c <- res4a_branch2b
I0629 05:14:24.566233  2606 net.cpp:380] res4a_branch2c -> res4a_branch2c
I0629 05:14:24.567785  2606 net.cpp:122] Setting up res4a_branch2c
I0629 05:14:24.567804  2606 net.cpp:129] Top shape: 8 1024 14 14 (1605632)
I0629 05:14:24.567809  2606 net.cpp:137] Memory required for data: 1437040800
I0629 05:14:24.567814  2606 layer_factory.hpp:77] Creating layer bn4a_branch2c
I0629 05:14:24.567824  2606 net.cpp:84] Creating Layer bn4a_branch2c
I0629 05:14:24.567831  2606 net.cpp:406] bn4a_branch2c <- res4a_branch2c
I0629 05:14:24.567838  2606 net.cpp:367] bn4a_branch2c -> res4a_branch2c (in-place)
I0629 05:14:24.568091  2606 net.cpp:122] Setting up bn4a_branch2c
I0629 05:14:24.568110  2606 net.cpp:129] Top shape: 8 1024 14 14 (1605632)
I0629 05:14:24.568114  2606 net.cpp:137] Memory required for data: 1443463328
I0629 05:14:24.568123  2606 layer_factory.hpp:77] Creating layer scale4a_branch2c
I0629 05:14:24.568130  2606 net.cpp:84] Creating Layer scale4a_branch2c
I0629 05:14:24.568135  2606 net.cpp:406] scale4a_branch2c <- res4a_branch2c
I0629 05:14:24.568142  2606 net.cpp:367] scale4a_branch2c -> res4a_branch2c (in-place)
I0629 05:14:24.568192  2606 layer_factory.hpp:77] Creating layer scale4a_branch2c
I0629 05:14:24.568346  2606 net.cpp:122] Setting up scale4a_branch2c
I0629 05:14:24.568363  2606 net.cpp:129] Top shape: 8 1024 14 14 (1605632)
I0629 05:14:24.568367  2606 net.cpp:137] Memory required for data: 1449885856
I0629 05:14:24.568374  2606 layer_factory.hpp:77] Creating layer res4a
I0629 05:14:24.568382  2606 net.cpp:84] Creating Layer res4a
I0629 05:14:24.568387  2606 net.cpp:406] res4a <- res4a_branch1
I0629 05:14:24.568392  2606 net.cpp:406] res4a <- res4a_branch2c
I0629 05:14:24.568397  2606 net.cpp:380] res4a -> res4a
I0629 05:14:24.568433  2606 net.cpp:122] Setting up res4a
I0629 05:14:24.568447  2606 net.cpp:129] Top shape: 8 1024 14 14 (1605632)
I0629 05:14:24.568451  2606 net.cpp:137] Memory required for data: 1456308384
I0629 05:14:24.568455  2606 layer_factory.hpp:77] Creating layer res4a_relu
I0629 05:14:24.568461  2606 net.cpp:84] Creating Layer res4a_relu
I0629 05:14:24.568469  2606 net.cpp:406] res4a_relu <- res4a
I0629 05:14:24.568473  2606 net.cpp:367] res4a_relu -> res4a (in-place)
I0629 05:14:24.568748  2606 net.cpp:122] Setting up res4a_relu
I0629 05:14:24.568768  2606 net.cpp:129] Top shape: 8 1024 14 14 (1605632)
I0629 05:14:24.568770  2606 net.cpp:137] Memory required for data: 1462730912
I0629 05:14:24.568775  2606 layer_factory.hpp:77] Creating layer res4a_res4a_relu_0_split
I0629 05:14:24.568799  2606 net.cpp:84] Creating Layer res4a_res4a_relu_0_split
I0629 05:14:24.568809  2606 net.cpp:406] res4a_res4a_relu_0_split <- res4a
I0629 05:14:24.568819  2606 net.cpp:380] res4a_res4a_relu_0_split -> res4a_res4a_relu_0_split_0
I0629 05:14:24.568842  2606 net.cpp:380] res4a_res4a_relu_0_split -> res4a_res4a_relu_0_split_1
I0629 05:14:24.568897  2606 net.cpp:122] Setting up res4a_res4a_relu_0_split
I0629 05:14:24.568912  2606 net.cpp:129] Top shape: 8 1024 14 14 (1605632)
I0629 05:14:24.568917  2606 net.cpp:129] Top shape: 8 1024 14 14 (1605632)
I0629 05:14:24.568920  2606 net.cpp:137] Memory required for data: 1475575968
I0629 05:14:24.568924  2606 layer_factory.hpp:77] Creating layer res4b_branch2a
I0629 05:14:24.568938  2606 net.cpp:84] Creating Layer res4b_branch2a
I0629 05:14:24.568941  2606 net.cpp:406] res4b_branch2a <- res4a_res4a_relu_0_split_0
I0629 05:14:24.568948  2606 net.cpp:380] res4b_branch2a -> res4b_branch2a
I0629 05:14:24.570626  2606 net.cpp:122] Setting up res4b_branch2a
I0629 05:14:24.570647  2606 net.cpp:129] Top shape: 8 256 14 14 (401408)
I0629 05:14:24.570652  2606 net.cpp:137] Memory required for data: 1477181600
I0629 05:14:24.570657  2606 layer_factory.hpp:77] Creating layer bn4b_branch2a
I0629 05:14:24.570667  2606 net.cpp:84] Creating Layer bn4b_branch2a
I0629 05:14:24.570672  2606 net.cpp:406] bn4b_branch2a <- res4b_branch2a
I0629 05:14:24.570678  2606 net.cpp:367] bn4b_branch2a -> res4b_branch2a (in-place)
I0629 05:14:24.570914  2606 net.cpp:122] Setting up bn4b_branch2a
I0629 05:14:24.570930  2606 net.cpp:129] Top shape: 8 256 14 14 (401408)
I0629 05:14:24.570933  2606 net.cpp:137] Memory required for data: 1478787232
I0629 05:14:24.570945  2606 layer_factory.hpp:77] Creating layer scale4b_branch2a
I0629 05:14:24.570953  2606 net.cpp:84] Creating Layer scale4b_branch2a
I0629 05:14:24.570957  2606 net.cpp:406] scale4b_branch2a <- res4b_branch2a
I0629 05:14:24.570962  2606 net.cpp:367] scale4b_branch2a -> res4b_branch2a (in-place)
I0629 05:14:24.571019  2606 layer_factory.hpp:77] Creating layer scale4b_branch2a
I0629 05:14:24.571168  2606 net.cpp:122] Setting up scale4b_branch2a
I0629 05:14:24.571183  2606 net.cpp:129] Top shape: 8 256 14 14 (401408)
I0629 05:14:24.571187  2606 net.cpp:137] Memory required for data: 1480392864
I0629 05:14:24.571194  2606 layer_factory.hpp:77] Creating layer res4b_branch2a_relu
I0629 05:14:24.571203  2606 net.cpp:84] Creating Layer res4b_branch2a_relu
I0629 05:14:24.571208  2606 net.cpp:406] res4b_branch2a_relu <- res4b_branch2a
I0629 05:14:24.571213  2606 net.cpp:367] res4b_branch2a_relu -> res4b_branch2a (in-place)
I0629 05:14:24.571378  2606 net.cpp:122] Setting up res4b_branch2a_relu
I0629 05:14:24.571394  2606 net.cpp:129] Top shape: 8 256 14 14 (401408)
I0629 05:14:24.571399  2606 net.cpp:137] Memory required for data: 1481998496
I0629 05:14:24.571403  2606 layer_factory.hpp:77] Creating layer res4b_branch2b
I0629 05:14:24.571414  2606 net.cpp:84] Creating Layer res4b_branch2b
I0629 05:14:24.571419  2606 net.cpp:406] res4b_branch2b <- res4b_branch2a
I0629 05:14:24.571425  2606 net.cpp:380] res4b_branch2b -> res4b_branch2b
I0629 05:14:24.573649  2606 net.cpp:122] Setting up res4b_branch2b
I0629 05:14:24.573670  2606 net.cpp:129] Top shape: 8 256 14 14 (401408)
I0629 05:14:24.573674  2606 net.cpp:137] Memory required for data: 1483604128
I0629 05:14:24.573681  2606 layer_factory.hpp:77] Creating layer bn4b_branch2b
I0629 05:14:24.573688  2606 net.cpp:84] Creating Layer bn4b_branch2b
I0629 05:14:24.573693  2606 net.cpp:406] bn4b_branch2b <- res4b_branch2b
I0629 05:14:24.573698  2606 net.cpp:367] bn4b_branch2b -> res4b_branch2b (in-place)
I0629 05:14:24.573936  2606 net.cpp:122] Setting up bn4b_branch2b
I0629 05:14:24.573952  2606 net.cpp:129] Top shape: 8 256 14 14 (401408)
I0629 05:14:24.573956  2606 net.cpp:137] Memory required for data: 1485209760
I0629 05:14:24.573964  2606 layer_factory.hpp:77] Creating layer scale4b_branch2b
I0629 05:14:24.573974  2606 net.cpp:84] Creating Layer scale4b_branch2b
I0629 05:14:24.573978  2606 net.cpp:406] scale4b_branch2b <- res4b_branch2b
I0629 05:14:24.573984  2606 net.cpp:367] scale4b_branch2b -> res4b_branch2b (in-place)
I0629 05:14:24.574043  2606 layer_factory.hpp:77] Creating layer scale4b_branch2b
I0629 05:14:24.574188  2606 net.cpp:122] Setting up scale4b_branch2b
I0629 05:14:24.574216  2606 net.cpp:129] Top shape: 8 256 14 14 (401408)
I0629 05:14:24.574220  2606 net.cpp:137] Memory required for data: 1486815392
I0629 05:14:24.574229  2606 layer_factory.hpp:77] Creating layer res4b_branch2b_relu
I0629 05:14:24.574236  2606 net.cpp:84] Creating Layer res4b_branch2b_relu
I0629 05:14:24.574240  2606 net.cpp:406] res4b_branch2b_relu <- res4b_branch2b
I0629 05:14:24.574247  2606 net.cpp:367] res4b_branch2b_relu -> res4b_branch2b (in-place)
I0629 05:14:24.574415  2606 net.cpp:122] Setting up res4b_branch2b_relu
I0629 05:14:24.574431  2606 net.cpp:129] Top shape: 8 256 14 14 (401408)
I0629 05:14:24.574435  2606 net.cpp:137] Memory required for data: 1488421024
I0629 05:14:24.574440  2606 layer_factory.hpp:77] Creating layer res4b_branch2c
I0629 05:14:24.574450  2606 net.cpp:84] Creating Layer res4b_branch2c
I0629 05:14:24.574455  2606 net.cpp:406] res4b_branch2c <- res4b_branch2b
I0629 05:14:24.574465  2606 net.cpp:380] res4b_branch2c -> res4b_branch2c
I0629 05:14:24.576068  2606 net.cpp:122] Setting up res4b_branch2c
I0629 05:14:24.576088  2606 net.cpp:129] Top shape: 8 1024 14 14 (1605632)
I0629 05:14:24.576093  2606 net.cpp:137] Memory required for data: 1494843552
I0629 05:14:24.576099  2606 layer_factory.hpp:77] Creating layer bn4b_branch2c
I0629 05:14:24.576109  2606 net.cpp:84] Creating Layer bn4b_branch2c
I0629 05:14:24.576114  2606 net.cpp:406] bn4b_branch2c <- res4b_branch2c
I0629 05:14:24.576120  2606 net.cpp:367] bn4b_branch2c -> res4b_branch2c (in-place)
I0629 05:14:24.576370  2606 net.cpp:122] Setting up bn4b_branch2c
I0629 05:14:24.576385  2606 net.cpp:129] Top shape: 8 1024 14 14 (1605632)
I0629 05:14:24.576390  2606 net.cpp:137] Memory required for data: 1501266080
I0629 05:14:24.576398  2606 layer_factory.hpp:77] Creating layer scale4b_branch2c
I0629 05:14:24.576408  2606 net.cpp:84] Creating Layer scale4b_branch2c
I0629 05:14:24.576412  2606 net.cpp:406] scale4b_branch2c <- res4b_branch2c
I0629 05:14:24.576417  2606 net.cpp:367] scale4b_branch2c -> res4b_branch2c (in-place)
I0629 05:14:24.576470  2606 layer_factory.hpp:77] Creating layer scale4b_branch2c
I0629 05:14:24.576633  2606 net.cpp:122] Setting up scale4b_branch2c
I0629 05:14:24.576649  2606 net.cpp:129] Top shape: 8 1024 14 14 (1605632)
I0629 05:14:24.576653  2606 net.cpp:137] Memory required for data: 1507688608
I0629 05:14:24.576659  2606 layer_factory.hpp:77] Creating layer res4b
I0629 05:14:24.576666  2606 net.cpp:84] Creating Layer res4b
I0629 05:14:24.576670  2606 net.cpp:406] res4b <- res4a_res4a_relu_0_split_1
I0629 05:14:24.576675  2606 net.cpp:406] res4b <- res4b_branch2c
I0629 05:14:24.576683  2606 net.cpp:380] res4b -> res4b
I0629 05:14:24.576727  2606 net.cpp:122] Setting up res4b
I0629 05:14:24.576742  2606 net.cpp:129] Top shape: 8 1024 14 14 (1605632)
I0629 05:14:24.576746  2606 net.cpp:137] Memory required for data: 1514111136
I0629 05:14:24.576750  2606 layer_factory.hpp:77] Creating layer res4b_relu
I0629 05:14:24.576759  2606 net.cpp:84] Creating Layer res4b_relu
I0629 05:14:24.576763  2606 net.cpp:406] res4b_relu <- res4b
I0629 05:14:24.576769  2606 net.cpp:367] res4b_relu -> res4b (in-place)
I0629 05:14:24.577044  2606 net.cpp:122] Setting up res4b_relu
I0629 05:14:24.577062  2606 net.cpp:129] Top shape: 8 1024 14 14 (1605632)
I0629 05:14:24.577066  2606 net.cpp:137] Memory required for data: 1520533664
I0629 05:14:24.577071  2606 layer_factory.hpp:77] Creating layer res4b_res4b_relu_0_split
I0629 05:14:24.577077  2606 net.cpp:84] Creating Layer res4b_res4b_relu_0_split
I0629 05:14:24.577081  2606 net.cpp:406] res4b_res4b_relu_0_split <- res4b
I0629 05:14:24.577092  2606 net.cpp:380] res4b_res4b_relu_0_split -> res4b_res4b_relu_0_split_0
I0629 05:14:24.577100  2606 net.cpp:380] res4b_res4b_relu_0_split -> res4b_res4b_relu_0_split_1
I0629 05:14:24.577153  2606 net.cpp:122] Setting up res4b_res4b_relu_0_split
I0629 05:14:24.577168  2606 net.cpp:129] Top shape: 8 1024 14 14 (1605632)
I0629 05:14:24.577173  2606 net.cpp:129] Top shape: 8 1024 14 14 (1605632)
I0629 05:14:24.577189  2606 net.cpp:137] Memory required for data: 1533378720
I0629 05:14:24.577194  2606 layer_factory.hpp:77] Creating layer res4c_branch2a
I0629 05:14:24.577208  2606 net.cpp:84] Creating Layer res4c_branch2a
I0629 05:14:24.577213  2606 net.cpp:406] res4c_branch2a <- res4b_res4b_relu_0_split_0
I0629 05:14:24.577219  2606 net.cpp:380] res4c_branch2a -> res4c_branch2a
I0629 05:14:24.578814  2606 net.cpp:122] Setting up res4c_branch2a
I0629 05:14:24.578835  2606 net.cpp:129] Top shape: 8 256 14 14 (401408)
I0629 05:14:24.578838  2606 net.cpp:137] Memory required for data: 1534984352
I0629 05:14:24.578845  2606 layer_factory.hpp:77] Creating layer bn4c_branch2a
I0629 05:14:24.578855  2606 net.cpp:84] Creating Layer bn4c_branch2a
I0629 05:14:24.578860  2606 net.cpp:406] bn4c_branch2a <- res4c_branch2a
I0629 05:14:24.578866  2606 net.cpp:367] bn4c_branch2a -> res4c_branch2a (in-place)
I0629 05:14:24.579113  2606 net.cpp:122] Setting up bn4c_branch2a
I0629 05:14:24.579128  2606 net.cpp:129] Top shape: 8 256 14 14 (401408)
I0629 05:14:24.579131  2606 net.cpp:137] Memory required for data: 1536589984
I0629 05:14:24.579141  2606 layer_factory.hpp:77] Creating layer scale4c_branch2a
I0629 05:14:24.579149  2606 net.cpp:84] Creating Layer scale4c_branch2a
I0629 05:14:24.579154  2606 net.cpp:406] scale4c_branch2a <- res4c_branch2a
I0629 05:14:24.579159  2606 net.cpp:367] scale4c_branch2a -> res4c_branch2a (in-place)
I0629 05:14:24.579216  2606 layer_factory.hpp:77] Creating layer scale4c_branch2a
I0629 05:14:24.579368  2606 net.cpp:122] Setting up scale4c_branch2a
I0629 05:14:24.579383  2606 net.cpp:129] Top shape: 8 256 14 14 (401408)
I0629 05:14:24.579387  2606 net.cpp:137] Memory required for data: 1538195616
I0629 05:14:24.579394  2606 layer_factory.hpp:77] Creating layer res4c_branch2a_relu
I0629 05:14:24.579412  2606 net.cpp:84] Creating Layer res4c_branch2a_relu
I0629 05:14:24.579418  2606 net.cpp:406] res4c_branch2a_relu <- res4c_branch2a
I0629 05:14:24.579424  2606 net.cpp:367] res4c_branch2a_relu -> res4c_branch2a (in-place)
I0629 05:14:24.579591  2606 net.cpp:122] Setting up res4c_branch2a_relu
I0629 05:14:24.579610  2606 net.cpp:129] Top shape: 8 256 14 14 (401408)
I0629 05:14:24.579614  2606 net.cpp:137] Memory required for data: 1539801248
I0629 05:14:24.579618  2606 layer_factory.hpp:77] Creating layer res4c_branch2b
I0629 05:14:24.579629  2606 net.cpp:84] Creating Layer res4c_branch2b
I0629 05:14:24.579634  2606 net.cpp:406] res4c_branch2b <- res4c_branch2a
I0629 05:14:24.579640  2606 net.cpp:380] res4c_branch2b -> res4c_branch2b
I0629 05:14:24.581946  2606 net.cpp:122] Setting up res4c_branch2b
I0629 05:14:24.581969  2606 net.cpp:129] Top shape: 8 256 14 14 (401408)
I0629 05:14:24.581974  2606 net.cpp:137] Memory required for data: 1541406880
I0629 05:14:24.581979  2606 layer_factory.hpp:77] Creating layer bn4c_branch2b
I0629 05:14:24.581987  2606 net.cpp:84] Creating Layer bn4c_branch2b
I0629 05:14:24.581991  2606 net.cpp:406] bn4c_branch2b <- res4c_branch2b
I0629 05:14:24.581997  2606 net.cpp:367] bn4c_branch2b -> res4c_branch2b (in-place)
I0629 05:14:24.582253  2606 net.cpp:122] Setting up bn4c_branch2b
I0629 05:14:24.582268  2606 net.cpp:129] Top shape: 8 256 14 14 (401408)
I0629 05:14:24.582273  2606 net.cpp:137] Memory required for data: 1543012512
I0629 05:14:24.582280  2606 layer_factory.hpp:77] Creating layer scale4c_branch2b
I0629 05:14:24.582288  2606 net.cpp:84] Creating Layer scale4c_branch2b
I0629 05:14:24.582293  2606 net.cpp:406] scale4c_branch2b <- res4c_branch2b
I0629 05:14:24.582298  2606 net.cpp:367] scale4c_branch2b -> res4c_branch2b (in-place)
I0629 05:14:24.582356  2606 layer_factory.hpp:77] Creating layer scale4c_branch2b
I0629 05:14:24.582521  2606 net.cpp:122] Setting up scale4c_branch2b
I0629 05:14:24.582536  2606 net.cpp:129] Top shape: 8 256 14 14 (401408)
I0629 05:14:24.582540  2606 net.cpp:137] Memory required for data: 1544618144
I0629 05:14:24.582547  2606 layer_factory.hpp:77] Creating layer res4c_branch2b_relu
I0629 05:14:24.582557  2606 net.cpp:84] Creating Layer res4c_branch2b_relu
I0629 05:14:24.582576  2606 net.cpp:406] res4c_branch2b_relu <- res4c_branch2b
I0629 05:14:24.582583  2606 net.cpp:367] res4c_branch2b_relu -> res4c_branch2b (in-place)
I0629 05:14:24.582747  2606 net.cpp:122] Setting up res4c_branch2b_relu
I0629 05:14:24.582763  2606 net.cpp:129] Top shape: 8 256 14 14 (401408)
I0629 05:14:24.582767  2606 net.cpp:137] Memory required for data: 1546223776
I0629 05:14:24.582772  2606 layer_factory.hpp:77] Creating layer res4c_branch2c
I0629 05:14:24.582782  2606 net.cpp:84] Creating Layer res4c_branch2c
I0629 05:14:24.582787  2606 net.cpp:406] res4c_branch2c <- res4c_branch2b
I0629 05:14:24.582793  2606 net.cpp:380] res4c_branch2c -> res4c_branch2c
I0629 05:14:24.584406  2606 net.cpp:122] Setting up res4c_branch2c
I0629 05:14:24.584427  2606 net.cpp:129] Top shape: 8 1024 14 14 (1605632)
I0629 05:14:24.584431  2606 net.cpp:137] Memory required for data: 1552646304
I0629 05:14:24.584437  2606 layer_factory.hpp:77] Creating layer bn4c_branch2c
I0629 05:14:24.584445  2606 net.cpp:84] Creating Layer bn4c_branch2c
I0629 05:14:24.584450  2606 net.cpp:406] bn4c_branch2c <- res4c_branch2c
I0629 05:14:24.584458  2606 net.cpp:367] bn4c_branch2c -> res4c_branch2c (in-place)
I0629 05:14:24.584720  2606 net.cpp:122] Setting up bn4c_branch2c
I0629 05:14:24.584736  2606 net.cpp:129] Top shape: 8 1024 14 14 (1605632)
I0629 05:14:24.584740  2606 net.cpp:137] Memory required for data: 1559068832
I0629 05:14:24.584748  2606 layer_factory.hpp:77] Creating layer scale4c_branch2c
I0629 05:14:24.584756  2606 net.cpp:84] Creating Layer scale4c_branch2c
I0629 05:14:24.584760  2606 net.cpp:406] scale4c_branch2c <- res4c_branch2c
I0629 05:14:24.584765  2606 net.cpp:367] scale4c_branch2c -> res4c_branch2c (in-place)
I0629 05:14:24.584821  2606 layer_factory.hpp:77] Creating layer scale4c_branch2c
I0629 05:14:24.584987  2606 net.cpp:122] Setting up scale4c_branch2c
I0629 05:14:24.585003  2606 net.cpp:129] Top shape: 8 1024 14 14 (1605632)
I0629 05:14:24.585006  2606 net.cpp:137] Memory required for data: 1565491360
I0629 05:14:24.585013  2606 layer_factory.hpp:77] Creating layer res4c
I0629 05:14:24.585021  2606 net.cpp:84] Creating Layer res4c
I0629 05:14:24.585026  2606 net.cpp:406] res4c <- res4b_res4b_relu_0_split_1
I0629 05:14:24.585031  2606 net.cpp:406] res4c <- res4c_branch2c
I0629 05:14:24.585039  2606 net.cpp:380] res4c -> res4c
I0629 05:14:24.585074  2606 net.cpp:122] Setting up res4c
I0629 05:14:24.585088  2606 net.cpp:129] Top shape: 8 1024 14 14 (1605632)
I0629 05:14:24.585093  2606 net.cpp:137] Memory required for data: 1571913888
I0629 05:14:24.585096  2606 layer_factory.hpp:77] Creating layer res4c_relu
I0629 05:14:24.585104  2606 net.cpp:84] Creating Layer res4c_relu
I0629 05:14:24.585109  2606 net.cpp:406] res4c_relu <- res4c
I0629 05:14:24.585114  2606 net.cpp:367] res4c_relu -> res4c (in-place)
I0629 05:14:24.585389  2606 net.cpp:122] Setting up res4c_relu
I0629 05:14:24.585407  2606 net.cpp:129] Top shape: 8 1024 14 14 (1605632)
I0629 05:14:24.585412  2606 net.cpp:137] Memory required for data: 1578336416
I0629 05:14:24.585415  2606 layer_factory.hpp:77] Creating layer res4c_res4c_relu_0_split
I0629 05:14:24.585422  2606 net.cpp:84] Creating Layer res4c_res4c_relu_0_split
I0629 05:14:24.585427  2606 net.cpp:406] res4c_res4c_relu_0_split <- res4c
I0629 05:14:24.585433  2606 net.cpp:380] res4c_res4c_relu_0_split -> res4c_res4c_relu_0_split_0
I0629 05:14:24.585441  2606 net.cpp:380] res4c_res4c_relu_0_split -> res4c_res4c_relu_0_split_1
I0629 05:14:24.585496  2606 net.cpp:122] Setting up res4c_res4c_relu_0_split
I0629 05:14:24.585511  2606 net.cpp:129] Top shape: 8 1024 14 14 (1605632)
I0629 05:14:24.585516  2606 net.cpp:129] Top shape: 8 1024 14 14 (1605632)
I0629 05:14:24.585520  2606 net.cpp:137] Memory required for data: 1591181472
I0629 05:14:24.585523  2606 layer_factory.hpp:77] Creating layer res4d_branch2a
I0629 05:14:24.585536  2606 net.cpp:84] Creating Layer res4d_branch2a
I0629 05:14:24.585539  2606 net.cpp:406] res4d_branch2a <- res4c_res4c_relu_0_split_0
I0629 05:14:24.585561  2606 net.cpp:380] res4d_branch2a -> res4d_branch2a
I0629 05:14:24.587175  2606 net.cpp:122] Setting up res4d_branch2a
I0629 05:14:24.587195  2606 net.cpp:129] Top shape: 8 256 14 14 (401408)
I0629 05:14:24.587200  2606 net.cpp:137] Memory required for data: 1592787104
I0629 05:14:24.587206  2606 layer_factory.hpp:77] Creating layer bn4d_branch2a
I0629 05:14:24.587216  2606 net.cpp:84] Creating Layer bn4d_branch2a
I0629 05:14:24.587221  2606 net.cpp:406] bn4d_branch2a <- res4d_branch2a
I0629 05:14:24.587226  2606 net.cpp:367] bn4d_branch2a -> res4d_branch2a (in-place)
I0629 05:14:24.587487  2606 net.cpp:122] Setting up bn4d_branch2a
I0629 05:14:24.587503  2606 net.cpp:129] Top shape: 8 256 14 14 (401408)
I0629 05:14:24.587507  2606 net.cpp:137] Memory required for data: 1594392736
I0629 05:14:24.587515  2606 layer_factory.hpp:77] Creating layer scale4d_branch2a
I0629 05:14:24.587525  2606 net.cpp:84] Creating Layer scale4d_branch2a
I0629 05:14:24.587529  2606 net.cpp:406] scale4d_branch2a <- res4d_branch2a
I0629 05:14:24.587534  2606 net.cpp:367] scale4d_branch2a -> res4d_branch2a (in-place)
I0629 05:14:24.587594  2606 layer_factory.hpp:77] Creating layer scale4d_branch2a
I0629 05:14:24.587752  2606 net.cpp:122] Setting up scale4d_branch2a
I0629 05:14:24.587767  2606 net.cpp:129] Top shape: 8 256 14 14 (401408)
I0629 05:14:24.587771  2606 net.cpp:137] Memory required for data: 1595998368
I0629 05:14:24.587777  2606 layer_factory.hpp:77] Creating layer res4d_branch2a_relu
I0629 05:14:24.587785  2606 net.cpp:84] Creating Layer res4d_branch2a_relu
I0629 05:14:24.587788  2606 net.cpp:406] res4d_branch2a_relu <- res4d_branch2a
I0629 05:14:24.587795  2606 net.cpp:367] res4d_branch2a_relu -> res4d_branch2a (in-place)
I0629 05:14:24.587971  2606 net.cpp:122] Setting up res4d_branch2a_relu
I0629 05:14:24.587988  2606 net.cpp:129] Top shape: 8 256 14 14 (401408)
I0629 05:14:24.587992  2606 net.cpp:137] Memory required for data: 1597604000
I0629 05:14:24.587996  2606 layer_factory.hpp:77] Creating layer res4d_branch2b
I0629 05:14:24.588008  2606 net.cpp:84] Creating Layer res4d_branch2b
I0629 05:14:24.588013  2606 net.cpp:406] res4d_branch2b <- res4d_branch2a
I0629 05:14:24.588019  2606 net.cpp:380] res4d_branch2b -> res4d_branch2b
I0629 05:14:24.590275  2606 net.cpp:122] Setting up res4d_branch2b
I0629 05:14:24.590296  2606 net.cpp:129] Top shape: 8 256 14 14 (401408)
I0629 05:14:24.590301  2606 net.cpp:137] Memory required for data: 1599209632
I0629 05:14:24.590306  2606 layer_factory.hpp:77] Creating layer bn4d_branch2b
I0629 05:14:24.590317  2606 net.cpp:84] Creating Layer bn4d_branch2b
I0629 05:14:24.590322  2606 net.cpp:406] bn4d_branch2b <- res4d_branch2b
I0629 05:14:24.590329  2606 net.cpp:367] bn4d_branch2b -> res4d_branch2b (in-place)
I0629 05:14:24.590585  2606 net.cpp:122] Setting up bn4d_branch2b
I0629 05:14:24.590601  2606 net.cpp:129] Top shape: 8 256 14 14 (401408)
I0629 05:14:24.590605  2606 net.cpp:137] Memory required for data: 1600815264
I0629 05:14:24.590613  2606 layer_factory.hpp:77] Creating layer scale4d_branch2b
I0629 05:14:24.590623  2606 net.cpp:84] Creating Layer scale4d_branch2b
I0629 05:14:24.590627  2606 net.cpp:406] scale4d_branch2b <- res4d_branch2b
I0629 05:14:24.590633  2606 net.cpp:367] scale4d_branch2b -> res4d_branch2b (in-place)
I0629 05:14:24.590690  2606 layer_factory.hpp:77] Creating layer scale4d_branch2b
I0629 05:14:24.590850  2606 net.cpp:122] Setting up scale4d_branch2b
I0629 05:14:24.590865  2606 net.cpp:129] Top shape: 8 256 14 14 (401408)
I0629 05:14:24.590869  2606 net.cpp:137] Memory required for data: 1602420896
I0629 05:14:24.590876  2606 layer_factory.hpp:77] Creating layer res4d_branch2b_relu
I0629 05:14:24.590883  2606 net.cpp:84] Creating Layer res4d_branch2b_relu
I0629 05:14:24.590886  2606 net.cpp:406] res4d_branch2b_relu <- res4d_branch2b
I0629 05:14:24.590891  2606 net.cpp:367] res4d_branch2b_relu -> res4d_branch2b (in-place)
I0629 05:14:24.591058  2606 net.cpp:122] Setting up res4d_branch2b_relu
I0629 05:14:24.591074  2606 net.cpp:129] Top shape: 8 256 14 14 (401408)
I0629 05:14:24.591092  2606 net.cpp:137] Memory required for data: 1604026528
I0629 05:14:24.591097  2606 layer_factory.hpp:77] Creating layer res4d_branch2c
I0629 05:14:24.591109  2606 net.cpp:84] Creating Layer res4d_branch2c
I0629 05:14:24.591112  2606 net.cpp:406] res4d_branch2c <- res4d_branch2b
I0629 05:14:24.591121  2606 net.cpp:380] res4d_branch2c -> res4d_branch2c
I0629 05:14:24.592733  2606 net.cpp:122] Setting up res4d_branch2c
I0629 05:14:24.592756  2606 net.cpp:129] Top shape: 8 1024 14 14 (1605632)
I0629 05:14:24.592761  2606 net.cpp:137] Memory required for data: 1610449056
I0629 05:14:24.592767  2606 layer_factory.hpp:77] Creating layer bn4d_branch2c
I0629 05:14:24.592774  2606 net.cpp:84] Creating Layer bn4d_branch2c
I0629 05:14:24.592782  2606 net.cpp:406] bn4d_branch2c <- res4d_branch2c
I0629 05:14:24.592787  2606 net.cpp:367] bn4d_branch2c -> res4d_branch2c (in-place)
I0629 05:14:24.593049  2606 net.cpp:122] Setting up bn4d_branch2c
I0629 05:14:24.593065  2606 net.cpp:129] Top shape: 8 1024 14 14 (1605632)
I0629 05:14:24.593068  2606 net.cpp:137] Memory required for data: 1616871584
I0629 05:14:24.593076  2606 layer_factory.hpp:77] Creating layer scale4d_branch2c
I0629 05:14:24.593086  2606 net.cpp:84] Creating Layer scale4d_branch2c
I0629 05:14:24.593091  2606 net.cpp:406] scale4d_branch2c <- res4d_branch2c
I0629 05:14:24.593096  2606 net.cpp:367] scale4d_branch2c -> res4d_branch2c (in-place)
I0629 05:14:24.593147  2606 layer_factory.hpp:77] Creating layer scale4d_branch2c
I0629 05:14:24.593315  2606 net.cpp:122] Setting up scale4d_branch2c
I0629 05:14:24.593330  2606 net.cpp:129] Top shape: 8 1024 14 14 (1605632)
I0629 05:14:24.593334  2606 net.cpp:137] Memory required for data: 1623294112
I0629 05:14:24.593344  2606 layer_factory.hpp:77] Creating layer res4d
I0629 05:14:24.593351  2606 net.cpp:84] Creating Layer res4d
I0629 05:14:24.593355  2606 net.cpp:406] res4d <- res4c_res4c_relu_0_split_1
I0629 05:14:24.593360  2606 net.cpp:406] res4d <- res4d_branch2c
I0629 05:14:24.593369  2606 net.cpp:380] res4d -> res4d
I0629 05:14:24.593403  2606 net.cpp:122] Setting up res4d
I0629 05:14:24.593420  2606 net.cpp:129] Top shape: 8 1024 14 14 (1605632)
I0629 05:14:24.593425  2606 net.cpp:137] Memory required for data: 1629716640
I0629 05:14:24.593428  2606 layer_factory.hpp:77] Creating layer res4d_relu
I0629 05:14:24.593436  2606 net.cpp:84] Creating Layer res4d_relu
I0629 05:14:24.593441  2606 net.cpp:406] res4d_relu <- res4d
I0629 05:14:24.593446  2606 net.cpp:367] res4d_relu -> res4d (in-place)
I0629 05:14:24.593726  2606 net.cpp:122] Setting up res4d_relu
I0629 05:14:24.593745  2606 net.cpp:129] Top shape: 8 1024 14 14 (1605632)
I0629 05:14:24.593750  2606 net.cpp:137] Memory required for data: 1636139168
I0629 05:14:24.593753  2606 layer_factory.hpp:77] Creating layer res4d_res4d_relu_0_split
I0629 05:14:24.593760  2606 net.cpp:84] Creating Layer res4d_res4d_relu_0_split
I0629 05:14:24.593765  2606 net.cpp:406] res4d_res4d_relu_0_split <- res4d
I0629 05:14:24.593772  2606 net.cpp:380] res4d_res4d_relu_0_split -> res4d_res4d_relu_0_split_0
I0629 05:14:24.593780  2606 net.cpp:380] res4d_res4d_relu_0_split -> res4d_res4d_relu_0_split_1
I0629 05:14:24.593835  2606 net.cpp:122] Setting up res4d_res4d_relu_0_split
I0629 05:14:24.593855  2606 net.cpp:129] Top shape: 8 1024 14 14 (1605632)
I0629 05:14:24.593860  2606 net.cpp:129] Top shape: 8 1024 14 14 (1605632)
I0629 05:14:24.593863  2606 net.cpp:137] Memory required for data: 1648984224
I0629 05:14:24.593868  2606 layer_factory.hpp:77] Creating layer res4e_branch2a
I0629 05:14:24.593875  2606 net.cpp:84] Creating Layer res4e_branch2a
I0629 05:14:24.593880  2606 net.cpp:406] res4e_branch2a <- res4d_res4d_relu_0_split_0
I0629 05:14:24.593888  2606 net.cpp:380] res4e_branch2a -> res4e_branch2a
I0629 05:14:24.595489  2606 net.cpp:122] Setting up res4e_branch2a
I0629 05:14:24.595508  2606 net.cpp:129] Top shape: 8 256 14 14 (401408)
I0629 05:14:24.595513  2606 net.cpp:137] Memory required for data: 1650589856
I0629 05:14:24.595520  2606 layer_factory.hpp:77] Creating layer bn4e_branch2a
I0629 05:14:24.595541  2606 net.cpp:84] Creating Layer bn4e_branch2a
I0629 05:14:24.595547  2606 net.cpp:406] bn4e_branch2a <- res4e_branch2a
I0629 05:14:24.595556  2606 net.cpp:367] bn4e_branch2a -> res4e_branch2a (in-place)
I0629 05:14:24.595824  2606 net.cpp:122] Setting up bn4e_branch2a
I0629 05:14:24.595839  2606 net.cpp:129] Top shape: 8 256 14 14 (401408)
I0629 05:14:24.595844  2606 net.cpp:137] Memory required for data: 1652195488
I0629 05:14:24.595851  2606 layer_factory.hpp:77] Creating layer scale4e_branch2a
I0629 05:14:24.595860  2606 net.cpp:84] Creating Layer scale4e_branch2a
I0629 05:14:24.595863  2606 net.cpp:406] scale4e_branch2a <- res4e_branch2a
I0629 05:14:24.595868  2606 net.cpp:367] scale4e_branch2a -> res4e_branch2a (in-place)
I0629 05:14:24.595944  2606 layer_factory.hpp:77] Creating layer scale4e_branch2a
I0629 05:14:24.596138  2606 net.cpp:122] Setting up scale4e_branch2a
I0629 05:14:24.596155  2606 net.cpp:129] Top shape: 8 256 14 14 (401408)
I0629 05:14:24.596159  2606 net.cpp:137] Memory required for data: 1653801120
I0629 05:14:24.596166  2606 layer_factory.hpp:77] Creating layer res4e_branch2a_relu
I0629 05:14:24.596173  2606 net.cpp:84] Creating Layer res4e_branch2a_relu
I0629 05:14:24.596176  2606 net.cpp:406] res4e_branch2a_relu <- res4e_branch2a
I0629 05:14:24.596184  2606 net.cpp:367] res4e_branch2a_relu -> res4e_branch2a (in-place)
I0629 05:14:24.596352  2606 net.cpp:122] Setting up res4e_branch2a_relu
I0629 05:14:24.596369  2606 net.cpp:129] Top shape: 8 256 14 14 (401408)
I0629 05:14:24.596372  2606 net.cpp:137] Memory required for data: 1655406752
I0629 05:14:24.596376  2606 layer_factory.hpp:77] Creating layer res4e_branch2b
I0629 05:14:24.596387  2606 net.cpp:84] Creating Layer res4e_branch2b
I0629 05:14:24.596392  2606 net.cpp:406] res4e_branch2b <- res4e_branch2a
I0629 05:14:24.596400  2606 net.cpp:380] res4e_branch2b -> res4e_branch2b
I0629 05:14:24.598642  2606 net.cpp:122] Setting up res4e_branch2b
I0629 05:14:24.598662  2606 net.cpp:129] Top shape: 8 256 14 14 (401408)
I0629 05:14:24.598667  2606 net.cpp:137] Memory required for data: 1657012384
I0629 05:14:24.598672  2606 layer_factory.hpp:77] Creating layer bn4e_branch2b
I0629 05:14:24.598680  2606 net.cpp:84] Creating Layer bn4e_branch2b
I0629 05:14:24.598685  2606 net.cpp:406] bn4e_branch2b <- res4e_branch2b
I0629 05:14:24.598695  2606 net.cpp:367] bn4e_branch2b -> res4e_branch2b (in-place)
I0629 05:14:24.598965  2606 net.cpp:122] Setting up bn4e_branch2b
I0629 05:14:24.598981  2606 net.cpp:129] Top shape: 8 256 14 14 (401408)
I0629 05:14:24.598984  2606 net.cpp:137] Memory required for data: 1658618016
I0629 05:14:24.598994  2606 layer_factory.hpp:77] Creating layer scale4e_branch2b
I0629 05:14:24.599000  2606 net.cpp:84] Creating Layer scale4e_branch2b
I0629 05:14:24.599005  2606 net.cpp:406] scale4e_branch2b <- res4e_branch2b
I0629 05:14:24.599010  2606 net.cpp:367] scale4e_branch2b -> res4e_branch2b (in-place)
I0629 05:14:24.599069  2606 layer_factory.hpp:77] Creating layer scale4e_branch2b
I0629 05:14:24.599278  2606 net.cpp:122] Setting up scale4e_branch2b
I0629 05:14:24.599297  2606 net.cpp:129] Top shape: 8 256 14 14 (401408)
I0629 05:14:24.599300  2606 net.cpp:137] Memory required for data: 1660223648
I0629 05:14:24.599308  2606 layer_factory.hpp:77] Creating layer res4e_branch2b_relu
I0629 05:14:24.599314  2606 net.cpp:84] Creating Layer res4e_branch2b_relu
I0629 05:14:24.599318  2606 net.cpp:406] res4e_branch2b_relu <- res4e_branch2b
I0629 05:14:24.599326  2606 net.cpp:367] res4e_branch2b_relu -> res4e_branch2b (in-place)
I0629 05:14:24.599495  2606 net.cpp:122] Setting up res4e_branch2b_relu
I0629 05:14:24.599512  2606 net.cpp:129] Top shape: 8 256 14 14 (401408)
I0629 05:14:24.599516  2606 net.cpp:137] Memory required for data: 1661829280
I0629 05:14:24.599520  2606 layer_factory.hpp:77] Creating layer res4e_branch2c
I0629 05:14:24.599531  2606 net.cpp:84] Creating Layer res4e_branch2c
I0629 05:14:24.599536  2606 net.cpp:406] res4e_branch2c <- res4e_branch2b
I0629 05:14:24.599558  2606 net.cpp:380] res4e_branch2c -> res4e_branch2c
I0629 05:14:24.601204  2606 net.cpp:122] Setting up res4e_branch2c
I0629 05:14:24.601225  2606 net.cpp:129] Top shape: 8 1024 14 14 (1605632)
I0629 05:14:24.601229  2606 net.cpp:137] Memory required for data: 1668251808
I0629 05:14:24.601235  2606 layer_factory.hpp:77] Creating layer bn4e_branch2c
I0629 05:14:24.601243  2606 net.cpp:84] Creating Layer bn4e_branch2c
I0629 05:14:24.601248  2606 net.cpp:406] bn4e_branch2c <- res4e_branch2c
I0629 05:14:24.601255  2606 net.cpp:367] bn4e_branch2c -> res4e_branch2c (in-place)
I0629 05:14:24.601529  2606 net.cpp:122] Setting up bn4e_branch2c
I0629 05:14:24.601544  2606 net.cpp:129] Top shape: 8 1024 14 14 (1605632)
I0629 05:14:24.601548  2606 net.cpp:137] Memory required for data: 1674674336
I0629 05:14:24.601557  2606 layer_factory.hpp:77] Creating layer scale4e_branch2c
I0629 05:14:24.601564  2606 net.cpp:84] Creating Layer scale4e_branch2c
I0629 05:14:24.601568  2606 net.cpp:406] scale4e_branch2c <- res4e_branch2c
I0629 05:14:24.601574  2606 net.cpp:367] scale4e_branch2c -> res4e_branch2c (in-place)
I0629 05:14:24.601630  2606 layer_factory.hpp:77] Creating layer scale4e_branch2c
I0629 05:14:24.601804  2606 net.cpp:122] Setting up scale4e_branch2c
I0629 05:14:24.601819  2606 net.cpp:129] Top shape: 8 1024 14 14 (1605632)
I0629 05:14:24.601824  2606 net.cpp:137] Memory required for data: 1681096864
I0629 05:14:24.601830  2606 layer_factory.hpp:77] Creating layer res4e
I0629 05:14:24.601837  2606 net.cpp:84] Creating Layer res4e
I0629 05:14:24.601841  2606 net.cpp:406] res4e <- res4d_res4d_relu_0_split_1
I0629 05:14:24.601848  2606 net.cpp:406] res4e <- res4e_branch2c
I0629 05:14:24.601856  2606 net.cpp:380] res4e -> res4e
I0629 05:14:24.601892  2606 net.cpp:122] Setting up res4e
I0629 05:14:24.601907  2606 net.cpp:129] Top shape: 8 1024 14 14 (1605632)
I0629 05:14:24.601910  2606 net.cpp:137] Memory required for data: 1687519392
I0629 05:14:24.601914  2606 layer_factory.hpp:77] Creating layer res4e_relu
I0629 05:14:24.601923  2606 net.cpp:84] Creating Layer res4e_relu
I0629 05:14:24.601928  2606 net.cpp:406] res4e_relu <- res4e
I0629 05:14:24.601933  2606 net.cpp:367] res4e_relu -> res4e (in-place)
I0629 05:14:24.602216  2606 net.cpp:122] Setting up res4e_relu
I0629 05:14:24.602236  2606 net.cpp:129] Top shape: 8 1024 14 14 (1605632)
I0629 05:14:24.602239  2606 net.cpp:137] Memory required for data: 1693941920
I0629 05:14:24.602243  2606 layer_factory.hpp:77] Creating layer res4e_res4e_relu_0_split
I0629 05:14:24.602250  2606 net.cpp:84] Creating Layer res4e_res4e_relu_0_split
I0629 05:14:24.602254  2606 net.cpp:406] res4e_res4e_relu_0_split <- res4e
I0629 05:14:24.602263  2606 net.cpp:380] res4e_res4e_relu_0_split -> res4e_res4e_relu_0_split_0
I0629 05:14:24.602272  2606 net.cpp:380] res4e_res4e_relu_0_split -> res4e_res4e_relu_0_split_1
I0629 05:14:24.602329  2606 net.cpp:122] Setting up res4e_res4e_relu_0_split
I0629 05:14:24.602344  2606 net.cpp:129] Top shape: 8 1024 14 14 (1605632)
I0629 05:14:24.602349  2606 net.cpp:129] Top shape: 8 1024 14 14 (1605632)
I0629 05:14:24.602352  2606 net.cpp:137] Memory required for data: 1706786976
I0629 05:14:24.602355  2606 layer_factory.hpp:77] Creating layer res4f_branch2a
I0629 05:14:24.602370  2606 net.cpp:84] Creating Layer res4f_branch2a
I0629 05:14:24.602373  2606 net.cpp:406] res4f_branch2a <- res4e_res4e_relu_0_split_0
I0629 05:14:24.602380  2606 net.cpp:380] res4f_branch2a -> res4f_branch2a
I0629 05:14:24.604117  2606 net.cpp:122] Setting up res4f_branch2a
I0629 05:14:24.604137  2606 net.cpp:129] Top shape: 8 256 14 14 (401408)
I0629 05:14:24.604141  2606 net.cpp:137] Memory required for data: 1708392608
I0629 05:14:24.604148  2606 layer_factory.hpp:77] Creating layer bn4f_branch2a
I0629 05:14:24.604156  2606 net.cpp:84] Creating Layer bn4f_branch2a
I0629 05:14:24.604161  2606 net.cpp:406] bn4f_branch2a <- res4f_branch2a
I0629 05:14:24.604168  2606 net.cpp:367] bn4f_branch2a -> res4f_branch2a (in-place)
I0629 05:14:24.604437  2606 net.cpp:122] Setting up bn4f_branch2a
I0629 05:14:24.604466  2606 net.cpp:129] Top shape: 8 256 14 14 (401408)
I0629 05:14:24.604470  2606 net.cpp:137] Memory required for data: 1709998240
I0629 05:14:24.604480  2606 layer_factory.hpp:77] Creating layer scale4f_branch2a
I0629 05:14:24.604486  2606 net.cpp:84] Creating Layer scale4f_branch2a
I0629 05:14:24.604491  2606 net.cpp:406] scale4f_branch2a <- res4f_branch2a
I0629 05:14:24.604496  2606 net.cpp:367] scale4f_branch2a -> res4f_branch2a (in-place)
I0629 05:14:24.604558  2606 layer_factory.hpp:77] Creating layer scale4f_branch2a
I0629 05:14:24.604729  2606 net.cpp:122] Setting up scale4f_branch2a
I0629 05:14:24.604745  2606 net.cpp:129] Top shape: 8 256 14 14 (401408)
I0629 05:14:24.604749  2606 net.cpp:137] Memory required for data: 1711603872
I0629 05:14:24.604755  2606 layer_factory.hpp:77] Creating layer res4f_branch2a_relu
I0629 05:14:24.604763  2606 net.cpp:84] Creating Layer res4f_branch2a_relu
I0629 05:14:24.604766  2606 net.cpp:406] res4f_branch2a_relu <- res4f_branch2a
I0629 05:14:24.604774  2606 net.cpp:367] res4f_branch2a_relu -> res4f_branch2a (in-place)
I0629 05:14:24.604948  2606 net.cpp:122] Setting up res4f_branch2a_relu
I0629 05:14:24.604964  2606 net.cpp:129] Top shape: 8 256 14 14 (401408)
I0629 05:14:24.604967  2606 net.cpp:137] Memory required for data: 1713209504
I0629 05:14:24.604971  2606 layer_factory.hpp:77] Creating layer res4f_branch2b
I0629 05:14:24.604984  2606 net.cpp:84] Creating Layer res4f_branch2b
I0629 05:14:24.604987  2606 net.cpp:406] res4f_branch2b <- res4f_branch2a
I0629 05:14:24.604995  2606 net.cpp:380] res4f_branch2b -> res4f_branch2b
I0629 05:14:24.607280  2606 net.cpp:122] Setting up res4f_branch2b
I0629 05:14:24.607301  2606 net.cpp:129] Top shape: 8 256 14 14 (401408)
I0629 05:14:24.607306  2606 net.cpp:137] Memory required for data: 1714815136
I0629 05:14:24.607312  2606 layer_factory.hpp:77] Creating layer bn4f_branch2b
I0629 05:14:24.607319  2606 net.cpp:84] Creating Layer bn4f_branch2b
I0629 05:14:24.607324  2606 net.cpp:406] bn4f_branch2b <- res4f_branch2b
I0629 05:14:24.607331  2606 net.cpp:367] bn4f_branch2b -> res4f_branch2b (in-place)
I0629 05:14:24.607616  2606 net.cpp:122] Setting up bn4f_branch2b
I0629 05:14:24.607632  2606 net.cpp:129] Top shape: 8 256 14 14 (401408)
I0629 05:14:24.607636  2606 net.cpp:137] Memory required for data: 1716420768
I0629 05:14:24.607645  2606 layer_factory.hpp:77] Creating layer scale4f_branch2b
I0629 05:14:24.607659  2606 net.cpp:84] Creating Layer scale4f_branch2b
I0629 05:14:24.607666  2606 net.cpp:406] scale4f_branch2b <- res4f_branch2b
I0629 05:14:24.607672  2606 net.cpp:367] scale4f_branch2b -> res4f_branch2b (in-place)
I0629 05:14:24.607735  2606 layer_factory.hpp:77] Creating layer scale4f_branch2b
I0629 05:14:24.607918  2606 net.cpp:122] Setting up scale4f_branch2b
I0629 05:14:24.607933  2606 net.cpp:129] Top shape: 8 256 14 14 (401408)
I0629 05:14:24.607938  2606 net.cpp:137] Memory required for data: 1718026400
I0629 05:14:24.607944  2606 layer_factory.hpp:77] Creating layer res4f_branch2b_relu
I0629 05:14:24.607954  2606 net.cpp:84] Creating Layer res4f_branch2b_relu
I0629 05:14:24.607957  2606 net.cpp:406] res4f_branch2b_relu <- res4f_branch2b
I0629 05:14:24.607962  2606 net.cpp:367] res4f_branch2b_relu -> res4f_branch2b (in-place)
I0629 05:14:24.608130  2606 net.cpp:122] Setting up res4f_branch2b_relu
I0629 05:14:24.608147  2606 net.cpp:129] Top shape: 8 256 14 14 (401408)
I0629 05:14:24.608152  2606 net.cpp:137] Memory required for data: 1719632032
I0629 05:14:24.608157  2606 layer_factory.hpp:77] Creating layer res4f_branch2c
I0629 05:14:24.608168  2606 net.cpp:84] Creating Layer res4f_branch2c
I0629 05:14:24.608173  2606 net.cpp:406] res4f_branch2c <- res4f_branch2b
I0629 05:14:24.608180  2606 net.cpp:380] res4f_branch2c -> res4f_branch2c
I0629 05:14:24.609805  2606 net.cpp:122] Setting up res4f_branch2c
I0629 05:14:24.609827  2606 net.cpp:129] Top shape: 8 1024 14 14 (1605632)
I0629 05:14:24.609830  2606 net.cpp:137] Memory required for data: 1726054560
I0629 05:14:24.609836  2606 layer_factory.hpp:77] Creating layer bn4f_branch2c
I0629 05:14:24.609858  2606 net.cpp:84] Creating Layer bn4f_branch2c
I0629 05:14:24.609863  2606 net.cpp:406] bn4f_branch2c <- res4f_branch2c
I0629 05:14:24.609870  2606 net.cpp:367] bn4f_branch2c -> res4f_branch2c (in-place)
I0629 05:14:24.610147  2606 net.cpp:122] Setting up bn4f_branch2c
I0629 05:14:24.610167  2606 net.cpp:129] Top shape: 8 1024 14 14 (1605632)
I0629 05:14:24.610172  2606 net.cpp:137] Memory required for data: 1732477088
I0629 05:14:24.610229  2606 layer_factory.hpp:77] Creating layer scale4f_branch2c
I0629 05:14:24.610245  2606 net.cpp:84] Creating Layer scale4f_branch2c
I0629 05:14:24.610250  2606 net.cpp:406] scale4f_branch2c <- res4f_branch2c
I0629 05:14:24.610258  2606 net.cpp:367] scale4f_branch2c -> res4f_branch2c (in-place)
I0629 05:14:24.610316  2606 layer_factory.hpp:77] Creating layer scale4f_branch2c
I0629 05:14:24.610492  2606 net.cpp:122] Setting up scale4f_branch2c
I0629 05:14:24.610508  2606 net.cpp:129] Top shape: 8 1024 14 14 (1605632)
I0629 05:14:24.610512  2606 net.cpp:137] Memory required for data: 1738899616
I0629 05:14:24.610519  2606 layer_factory.hpp:77] Creating layer res4f
I0629 05:14:24.610527  2606 net.cpp:84] Creating Layer res4f
I0629 05:14:24.610530  2606 net.cpp:406] res4f <- res4e_res4e_relu_0_split_1
I0629 05:14:24.610535  2606 net.cpp:406] res4f <- res4f_branch2c
I0629 05:14:24.610543  2606 net.cpp:380] res4f -> res4f
I0629 05:14:24.610579  2606 net.cpp:122] Setting up res4f
I0629 05:14:24.610596  2606 net.cpp:129] Top shape: 8 1024 14 14 (1605632)
I0629 05:14:24.610600  2606 net.cpp:137] Memory required for data: 1745322144
I0629 05:14:24.610605  2606 layer_factory.hpp:77] Creating layer res4f_relu
I0629 05:14:24.610610  2606 net.cpp:84] Creating Layer res4f_relu
I0629 05:14:24.610615  2606 net.cpp:406] res4f_relu <- res4f
I0629 05:14:24.610620  2606 net.cpp:367] res4f_relu -> res4f (in-place)
I0629 05:14:24.610904  2606 net.cpp:122] Setting up res4f_relu
I0629 05:14:24.610924  2606 net.cpp:129] Top shape: 8 1024 14 14 (1605632)
I0629 05:14:24.610927  2606 net.cpp:137] Memory required for data: 1751744672
I0629 05:14:24.610931  2606 layer_factory.hpp:77] Creating layer res4f_res4f_relu_0_split
I0629 05:14:24.610937  2606 net.cpp:84] Creating Layer res4f_res4f_relu_0_split
I0629 05:14:24.610942  2606 net.cpp:406] res4f_res4f_relu_0_split <- res4f
I0629 05:14:24.610950  2606 net.cpp:380] res4f_res4f_relu_0_split -> res4f_res4f_relu_0_split_0
I0629 05:14:24.610958  2606 net.cpp:380] res4f_res4f_relu_0_split -> res4f_res4f_relu_0_split_1
I0629 05:14:24.611016  2606 net.cpp:122] Setting up res4f_res4f_relu_0_split
I0629 05:14:24.611030  2606 net.cpp:129] Top shape: 8 1024 14 14 (1605632)
I0629 05:14:24.611038  2606 net.cpp:129] Top shape: 8 1024 14 14 (1605632)
I0629 05:14:24.611042  2606 net.cpp:137] Memory required for data: 1764589728
I0629 05:14:24.611045  2606 layer_factory.hpp:77] Creating layer res5a_branch1
I0629 05:14:24.611053  2606 net.cpp:84] Creating Layer res5a_branch1
I0629 05:14:24.611058  2606 net.cpp:406] res5a_branch1 <- res4f_res4f_relu_0_split_0
I0629 05:14:24.611066  2606 net.cpp:380] res5a_branch1 -> res5a_branch1
I0629 05:14:24.616325  2606 net.cpp:122] Setting up res5a_branch1
I0629 05:14:24.616353  2606 net.cpp:129] Top shape: 8 2048 7 7 (802816)
I0629 05:14:24.616360  2606 net.cpp:137] Memory required for data: 1767800992
I0629 05:14:24.616367  2606 layer_factory.hpp:77] Creating layer bn5a_branch1
I0629 05:14:24.616374  2606 net.cpp:84] Creating Layer bn5a_branch1
I0629 05:14:24.616379  2606 net.cpp:406] bn5a_branch1 <- res5a_branch1
I0629 05:14:24.616387  2606 net.cpp:367] bn5a_branch1 -> res5a_branch1 (in-place)
I0629 05:14:24.616701  2606 net.cpp:122] Setting up bn5a_branch1
I0629 05:14:24.616719  2606 net.cpp:129] Top shape: 8 2048 7 7 (802816)
I0629 05:14:24.616724  2606 net.cpp:137] Memory required for data: 1771012256
I0629 05:14:24.616732  2606 layer_factory.hpp:77] Creating layer scale5a_branch1
I0629 05:14:24.616739  2606 net.cpp:84] Creating Layer scale5a_branch1
I0629 05:14:24.616744  2606 net.cpp:406] scale5a_branch1 <- res5a_branch1
I0629 05:14:24.616763  2606 net.cpp:367] scale5a_branch1 -> res5a_branch1 (in-place)
I0629 05:14:24.616825  2606 layer_factory.hpp:77] Creating layer scale5a_branch1
I0629 05:14:24.617007  2606 net.cpp:122] Setting up scale5a_branch1
I0629 05:14:24.617023  2606 net.cpp:129] Top shape: 8 2048 7 7 (802816)
I0629 05:14:24.617027  2606 net.cpp:137] Memory required for data: 1774223520
I0629 05:14:24.617034  2606 layer_factory.hpp:77] Creating layer res5a_branch2a
I0629 05:14:24.617046  2606 net.cpp:84] Creating Layer res5a_branch2a
I0629 05:14:24.617051  2606 net.cpp:406] res5a_branch2a <- res4f_res4f_relu_0_split_1
I0629 05:14:24.617059  2606 net.cpp:380] res5a_branch2a -> res5a_branch2a
I0629 05:14:24.619110  2606 net.cpp:122] Setting up res5a_branch2a
I0629 05:14:24.619132  2606 net.cpp:129] Top shape: 8 512 7 7 (200704)
I0629 05:14:24.619135  2606 net.cpp:137] Memory required for data: 1775026336
I0629 05:14:24.619141  2606 layer_factory.hpp:77] Creating layer bn5a_branch2a
I0629 05:14:24.619151  2606 net.cpp:84] Creating Layer bn5a_branch2a
I0629 05:14:24.619156  2606 net.cpp:406] bn5a_branch2a <- res5a_branch2a
I0629 05:14:24.619163  2606 net.cpp:367] bn5a_branch2a -> res5a_branch2a (in-place)
I0629 05:14:24.619446  2606 net.cpp:122] Setting up bn5a_branch2a
I0629 05:14:24.619472  2606 net.cpp:129] Top shape: 8 512 7 7 (200704)
I0629 05:14:24.619477  2606 net.cpp:137] Memory required for data: 1775829152
I0629 05:14:24.619484  2606 layer_factory.hpp:77] Creating layer scale5a_branch2a
I0629 05:14:24.619494  2606 net.cpp:84] Creating Layer scale5a_branch2a
I0629 05:14:24.619498  2606 net.cpp:406] scale5a_branch2a <- res5a_branch2a
I0629 05:14:24.619504  2606 net.cpp:367] scale5a_branch2a -> res5a_branch2a (in-place)
I0629 05:14:24.619562  2606 layer_factory.hpp:77] Creating layer scale5a_branch2a
I0629 05:14:24.619753  2606 net.cpp:122] Setting up scale5a_branch2a
I0629 05:14:24.619768  2606 net.cpp:129] Top shape: 8 512 7 7 (200704)
I0629 05:14:24.619772  2606 net.cpp:137] Memory required for data: 1776631968
I0629 05:14:24.619779  2606 layer_factory.hpp:77] Creating layer res5a_branch2a_relu
I0629 05:14:24.619786  2606 net.cpp:84] Creating Layer res5a_branch2a_relu
I0629 05:14:24.619789  2606 net.cpp:406] res5a_branch2a_relu <- res5a_branch2a
I0629 05:14:24.619797  2606 net.cpp:367] res5a_branch2a_relu -> res5a_branch2a (in-place)
I0629 05:14:24.620092  2606 net.cpp:122] Setting up res5a_branch2a_relu
I0629 05:14:24.620111  2606 net.cpp:129] Top shape: 8 512 7 7 (200704)
I0629 05:14:24.620118  2606 net.cpp:137] Memory required for data: 1777434784
I0629 05:14:24.620122  2606 layer_factory.hpp:77] Creating layer res5a_branch2b
I0629 05:14:24.620131  2606 net.cpp:84] Creating Layer res5a_branch2b
I0629 05:14:24.620136  2606 net.cpp:406] res5a_branch2b <- res5a_branch2a
I0629 05:14:24.620146  2606 net.cpp:380] res5a_branch2b -> res5a_branch2b
I0629 05:14:24.626066  2606 net.cpp:122] Setting up res5a_branch2b
I0629 05:14:24.626091  2606 net.cpp:129] Top shape: 8 512 7 7 (200704)
I0629 05:14:24.626096  2606 net.cpp:137] Memory required for data: 1778237600
I0629 05:14:24.626102  2606 layer_factory.hpp:77] Creating layer bn5a_branch2b
I0629 05:14:24.626111  2606 net.cpp:84] Creating Layer bn5a_branch2b
I0629 05:14:24.626116  2606 net.cpp:406] bn5a_branch2b <- res5a_branch2b
I0629 05:14:24.626124  2606 net.cpp:367] bn5a_branch2b -> res5a_branch2b (in-place)
I0629 05:14:24.626421  2606 net.cpp:122] Setting up bn5a_branch2b
I0629 05:14:24.626440  2606 net.cpp:129] Top shape: 8 512 7 7 (200704)
I0629 05:14:24.626447  2606 net.cpp:137] Memory required for data: 1779040416
I0629 05:14:24.626462  2606 layer_factory.hpp:77] Creating layer scale5a_branch2b
I0629 05:14:24.626474  2606 net.cpp:84] Creating Layer scale5a_branch2b
I0629 05:14:24.626485  2606 net.cpp:406] scale5a_branch2b <- res5a_branch2b
I0629 05:14:24.626492  2606 net.cpp:367] scale5a_branch2b -> res5a_branch2b (in-place)
I0629 05:14:24.626555  2606 layer_factory.hpp:77] Creating layer scale5a_branch2b
I0629 05:14:24.626739  2606 net.cpp:122] Setting up scale5a_branch2b
I0629 05:14:24.626768  2606 net.cpp:129] Top shape: 8 512 7 7 (200704)
I0629 05:14:24.626772  2606 net.cpp:137] Memory required for data: 1779843232
I0629 05:14:24.626780  2606 layer_factory.hpp:77] Creating layer res5a_branch2b_relu
I0629 05:14:24.626786  2606 net.cpp:84] Creating Layer res5a_branch2b_relu
I0629 05:14:24.626791  2606 net.cpp:406] res5a_branch2b_relu <- res5a_branch2b
I0629 05:14:24.626798  2606 net.cpp:367] res5a_branch2b_relu -> res5a_branch2b (in-place)
I0629 05:14:24.626971  2606 net.cpp:122] Setting up res5a_branch2b_relu
I0629 05:14:24.626988  2606 net.cpp:129] Top shape: 8 512 7 7 (200704)
I0629 05:14:24.626993  2606 net.cpp:137] Memory required for data: 1780646048
I0629 05:14:24.626997  2606 layer_factory.hpp:77] Creating layer res5a_branch2c
I0629 05:14:24.627009  2606 net.cpp:84] Creating Layer res5a_branch2c
I0629 05:14:24.627013  2606 net.cpp:406] res5a_branch2c <- res5a_branch2b
I0629 05:14:24.627022  2606 net.cpp:380] res5a_branch2c -> res5a_branch2c
I0629 05:14:24.630265  2606 net.cpp:122] Setting up res5a_branch2c
I0629 05:14:24.630285  2606 net.cpp:129] Top shape: 8 2048 7 7 (802816)
I0629 05:14:24.630290  2606 net.cpp:137] Memory required for data: 1783857312
I0629 05:14:24.630296  2606 layer_factory.hpp:77] Creating layer bn5a_branch2c
I0629 05:14:24.630306  2606 net.cpp:84] Creating Layer bn5a_branch2c
I0629 05:14:24.630311  2606 net.cpp:406] bn5a_branch2c <- res5a_branch2c
I0629 05:14:24.630317  2606 net.cpp:367] bn5a_branch2c -> res5a_branch2c (in-place)
I0629 05:14:24.630622  2606 net.cpp:122] Setting up bn5a_branch2c
I0629 05:14:24.630640  2606 net.cpp:129] Top shape: 8 2048 7 7 (802816)
I0629 05:14:24.630643  2606 net.cpp:137] Memory required for data: 1787068576
I0629 05:14:24.630651  2606 layer_factory.hpp:77] Creating layer scale5a_branch2c
I0629 05:14:24.630659  2606 net.cpp:84] Creating Layer scale5a_branch2c
I0629 05:14:24.630663  2606 net.cpp:406] scale5a_branch2c <- res5a_branch2c
I0629 05:14:24.630668  2606 net.cpp:367] scale5a_branch2c -> res5a_branch2c (in-place)
I0629 05:14:24.630733  2606 layer_factory.hpp:77] Creating layer scale5a_branch2c
I0629 05:14:24.630921  2606 net.cpp:122] Setting up scale5a_branch2c
I0629 05:14:24.630937  2606 net.cpp:129] Top shape: 8 2048 7 7 (802816)
I0629 05:14:24.630940  2606 net.cpp:137] Memory required for data: 1790279840
I0629 05:14:24.630947  2606 layer_factory.hpp:77] Creating layer res5a
I0629 05:14:24.630959  2606 net.cpp:84] Creating Layer res5a
I0629 05:14:24.630964  2606 net.cpp:406] res5a <- res5a_branch1
I0629 05:14:24.630970  2606 net.cpp:406] res5a <- res5a_branch2c
I0629 05:14:24.630975  2606 net.cpp:380] res5a -> res5a
I0629 05:14:24.631014  2606 net.cpp:122] Setting up res5a
I0629 05:14:24.631029  2606 net.cpp:129] Top shape: 8 2048 7 7 (802816)
I0629 05:14:24.631033  2606 net.cpp:137] Memory required for data: 1793491104
I0629 05:14:24.631037  2606 layer_factory.hpp:77] Creating layer res5a_relu
I0629 05:14:24.631047  2606 net.cpp:84] Creating Layer res5a_relu
I0629 05:14:24.631050  2606 net.cpp:406] res5a_relu <- res5a
I0629 05:14:24.631057  2606 net.cpp:367] res5a_relu -> res5a (in-place)
I0629 05:14:24.631352  2606 net.cpp:122] Setting up res5a_relu
I0629 05:14:24.631371  2606 net.cpp:129] Top shape: 8 2048 7 7 (802816)
I0629 05:14:24.631374  2606 net.cpp:137] Memory required for data: 1796702368
I0629 05:14:24.631379  2606 layer_factory.hpp:77] Creating layer res5a_res5a_relu_0_split
I0629 05:14:24.631386  2606 net.cpp:84] Creating Layer res5a_res5a_relu_0_split
I0629 05:14:24.631391  2606 net.cpp:406] res5a_res5a_relu_0_split <- res5a
I0629 05:14:24.631398  2606 net.cpp:380] res5a_res5a_relu_0_split -> res5a_res5a_relu_0_split_0
I0629 05:14:24.631407  2606 net.cpp:380] res5a_res5a_relu_0_split -> res5a_res5a_relu_0_split_1
I0629 05:14:24.631472  2606 net.cpp:122] Setting up res5a_res5a_relu_0_split
I0629 05:14:24.631487  2606 net.cpp:129] Top shape: 8 2048 7 7 (802816)
I0629 05:14:24.631492  2606 net.cpp:129] Top shape: 8 2048 7 7 (802816)
I0629 05:14:24.631495  2606 net.cpp:137] Memory required for data: 1803124896
I0629 05:14:24.631512  2606 layer_factory.hpp:77] Creating layer my_res5b_branch2a
I0629 05:14:24.631526  2606 net.cpp:84] Creating Layer my_res5b_branch2a
I0629 05:14:24.631531  2606 net.cpp:406] my_res5b_branch2a <- res5a_res5a_relu_0_split_0
I0629 05:14:24.631538  2606 net.cpp:380] my_res5b_branch2a -> my_res5b_branch2a
I0629 05:14:24.634737  2606 net.cpp:122] Setting up my_res5b_branch2a
I0629 05:14:24.634758  2606 net.cpp:129] Top shape: 8 512 7 7 (200704)
I0629 05:14:24.634766  2606 net.cpp:137] Memory required for data: 1803927712
I0629 05:14:24.634773  2606 layer_factory.hpp:77] Creating layer my_bn5b_branch2a
I0629 05:14:24.634780  2606 net.cpp:84] Creating Layer my_bn5b_branch2a
I0629 05:14:24.634784  2606 net.cpp:406] my_bn5b_branch2a <- my_res5b_branch2a
I0629 05:14:24.634790  2606 net.cpp:367] my_bn5b_branch2a -> my_res5b_branch2a (in-place)
I0629 05:14:24.635089  2606 net.cpp:122] Setting up my_bn5b_branch2a
I0629 05:14:24.635105  2606 net.cpp:129] Top shape: 8 512 7 7 (200704)
I0629 05:14:24.635109  2606 net.cpp:137] Memory required for data: 1804730528
I0629 05:14:24.635118  2606 layer_factory.hpp:77] Creating layer my_scale5b_branch2a
I0629 05:14:24.635125  2606 net.cpp:84] Creating Layer my_scale5b_branch2a
I0629 05:14:24.635129  2606 net.cpp:406] my_scale5b_branch2a <- my_res5b_branch2a
I0629 05:14:24.635135  2606 net.cpp:367] my_scale5b_branch2a -> my_res5b_branch2a (in-place)
I0629 05:14:24.635195  2606 layer_factory.hpp:77] Creating layer my_scale5b_branch2a
I0629 05:14:24.635385  2606 net.cpp:122] Setting up my_scale5b_branch2a
I0629 05:14:24.635399  2606 net.cpp:129] Top shape: 8 512 7 7 (200704)
I0629 05:14:24.635406  2606 net.cpp:137] Memory required for data: 1805533344
I0629 05:14:24.635412  2606 layer_factory.hpp:77] Creating layer my_res5b_branch2a_relu
I0629 05:14:24.635421  2606 net.cpp:84] Creating Layer my_res5b_branch2a_relu
I0629 05:14:24.635426  2606 net.cpp:406] my_res5b_branch2a_relu <- my_res5b_branch2a
I0629 05:14:24.635432  2606 net.cpp:367] my_res5b_branch2a_relu -> my_res5b_branch2a (in-place)
I0629 05:14:24.635725  2606 net.cpp:122] Setting up my_res5b_branch2a_relu
I0629 05:14:24.635742  2606 net.cpp:129] Top shape: 8 512 7 7 (200704)
I0629 05:14:24.635746  2606 net.cpp:137] Memory required for data: 1806336160
I0629 05:14:24.635751  2606 layer_factory.hpp:77] Creating layer my_res5b_branch2b
I0629 05:14:24.635771  2606 net.cpp:84] Creating Layer my_res5b_branch2b
I0629 05:14:24.635776  2606 net.cpp:406] my_res5b_branch2b <- my_res5b_branch2a
I0629 05:14:24.635783  2606 net.cpp:380] my_res5b_branch2b -> my_res5b_branch2b
I0629 05:14:24.641681  2606 net.cpp:122] Setting up my_res5b_branch2b
I0629 05:14:24.641705  2606 net.cpp:129] Top shape: 8 512 7 7 (200704)
I0629 05:14:24.641711  2606 net.cpp:137] Memory required for data: 1807138976
I0629 05:14:24.641718  2606 layer_factory.hpp:77] Creating layer my_bn5b_branch2b
I0629 05:14:24.641729  2606 net.cpp:84] Creating Layer my_bn5b_branch2b
I0629 05:14:24.641733  2606 net.cpp:406] my_bn5b_branch2b <- my_res5b_branch2b
I0629 05:14:24.641739  2606 net.cpp:367] my_bn5b_branch2b -> my_res5b_branch2b (in-place)
I0629 05:14:24.642047  2606 net.cpp:122] Setting up my_bn5b_branch2b
I0629 05:14:24.642065  2606 net.cpp:129] Top shape: 8 512 7 7 (200704)
I0629 05:14:24.642067  2606 net.cpp:137] Memory required for data: 1807941792
I0629 05:14:24.642077  2606 layer_factory.hpp:77] Creating layer my_scale5b_branch2b
I0629 05:14:24.642084  2606 net.cpp:84] Creating Layer my_scale5b_branch2b
I0629 05:14:24.642088  2606 net.cpp:406] my_scale5b_branch2b <- my_res5b_branch2b
I0629 05:14:24.642096  2606 net.cpp:367] my_scale5b_branch2b -> my_res5b_branch2b (in-place)
I0629 05:14:24.642155  2606 layer_factory.hpp:77] Creating layer my_scale5b_branch2b
I0629 05:14:24.642341  2606 net.cpp:122] Setting up my_scale5b_branch2b
I0629 05:14:24.642361  2606 net.cpp:129] Top shape: 8 512 7 7 (200704)
I0629 05:14:24.642365  2606 net.cpp:137] Memory required for data: 1808744608
I0629 05:14:24.642372  2606 layer_factory.hpp:77] Creating layer my_res5b_branch2b_relu
I0629 05:14:24.642396  2606 net.cpp:84] Creating Layer my_res5b_branch2b_relu
I0629 05:14:24.642401  2606 net.cpp:406] my_res5b_branch2b_relu <- my_res5b_branch2b
I0629 05:14:24.642407  2606 net.cpp:367] my_res5b_branch2b_relu -> my_res5b_branch2b (in-place)
I0629 05:14:24.642588  2606 net.cpp:122] Setting up my_res5b_branch2b_relu
I0629 05:14:24.642606  2606 net.cpp:129] Top shape: 8 512 7 7 (200704)
I0629 05:14:24.642609  2606 net.cpp:137] Memory required for data: 1809547424
I0629 05:14:24.642613  2606 layer_factory.hpp:77] Creating layer my_res5b_branch2c
I0629 05:14:24.642624  2606 net.cpp:84] Creating Layer my_res5b_branch2c
I0629 05:14:24.642629  2606 net.cpp:406] my_res5b_branch2c <- my_res5b_branch2b
I0629 05:14:24.642635  2606 net.cpp:380] my_res5b_branch2c -> my_res5b_branch2c
I0629 05:14:24.646000  2606 net.cpp:122] Setting up my_res5b_branch2c
I0629 05:14:24.646023  2606 net.cpp:129] Top shape: 8 2048 7 7 (802816)
I0629 05:14:24.646026  2606 net.cpp:137] Memory required for data: 1812758688
I0629 05:14:24.646036  2606 layer_factory.hpp:77] Creating layer my_bn5b_branch2c
I0629 05:14:24.646046  2606 net.cpp:84] Creating Layer my_bn5b_branch2c
I0629 05:14:24.646051  2606 net.cpp:406] my_bn5b_branch2c <- my_res5b_branch2c
I0629 05:14:24.646059  2606 net.cpp:367] my_bn5b_branch2c -> my_res5b_branch2c (in-place)
I0629 05:14:24.646378  2606 net.cpp:122] Setting up my_bn5b_branch2c
I0629 05:14:24.646394  2606 net.cpp:129] Top shape: 8 2048 7 7 (802816)
I0629 05:14:24.646397  2606 net.cpp:137] Memory required for data: 1815969952
I0629 05:14:24.646406  2606 layer_factory.hpp:77] Creating layer my_scale5b_branch2c
I0629 05:14:24.646414  2606 net.cpp:84] Creating Layer my_scale5b_branch2c
I0629 05:14:24.646417  2606 net.cpp:406] my_scale5b_branch2c <- my_res5b_branch2c
I0629 05:14:24.646425  2606 net.cpp:367] my_scale5b_branch2c -> my_res5b_branch2c (in-place)
I0629 05:14:24.646486  2606 layer_factory.hpp:77] Creating layer my_scale5b_branch2c
I0629 05:14:24.646678  2606 net.cpp:122] Setting up my_scale5b_branch2c
I0629 05:14:24.646697  2606 net.cpp:129] Top shape: 8 2048 7 7 (802816)
I0629 05:14:24.646704  2606 net.cpp:137] Memory required for data: 1819181216
I0629 05:14:24.646716  2606 layer_factory.hpp:77] Creating layer my_res5b
I0629 05:14:24.646728  2606 net.cpp:84] Creating Layer my_res5b
I0629 05:14:24.646740  2606 net.cpp:406] my_res5b <- res5a_res5a_relu_0_split_1
I0629 05:14:24.646746  2606 net.cpp:406] my_res5b <- my_res5b_branch2c
I0629 05:14:24.646752  2606 net.cpp:380] my_res5b -> my_res5b
I0629 05:14:24.646803  2606 net.cpp:122] Setting up my_res5b
I0629 05:14:24.646818  2606 net.cpp:129] Top shape: 8 2048 7 7 (802816)
I0629 05:14:24.646822  2606 net.cpp:137] Memory required for data: 1822392480
I0629 05:14:24.646827  2606 layer_factory.hpp:77] Creating layer my_res5b_relu
I0629 05:14:24.646836  2606 net.cpp:84] Creating Layer my_res5b_relu
I0629 05:14:24.646839  2606 net.cpp:406] my_res5b_relu <- my_res5b
I0629 05:14:24.646845  2606 net.cpp:367] my_res5b_relu -> my_res5b (in-place)
I0629 05:14:24.647136  2606 net.cpp:122] Setting up my_res5b_relu
I0629 05:14:24.647155  2606 net.cpp:129] Top shape: 8 2048 7 7 (802816)
I0629 05:14:24.647159  2606 net.cpp:137] Memory required for data: 1825603744
I0629 05:14:24.647163  2606 layer_factory.hpp:77] Creating layer my_res5b_my_res5b_relu_0_split
I0629 05:14:24.647173  2606 net.cpp:84] Creating Layer my_res5b_my_res5b_relu_0_split
I0629 05:14:24.647177  2606 net.cpp:406] my_res5b_my_res5b_relu_0_split <- my_res5b
I0629 05:14:24.647183  2606 net.cpp:380] my_res5b_my_res5b_relu_0_split -> my_res5b_my_res5b_relu_0_split_0
I0629 05:14:24.647193  2606 net.cpp:380] my_res5b_my_res5b_relu_0_split -> my_res5b_my_res5b_relu_0_split_1
I0629 05:14:24.647258  2606 net.cpp:122] Setting up my_res5b_my_res5b_relu_0_split
I0629 05:14:24.647272  2606 net.cpp:129] Top shape: 8 2048 7 7 (802816)
I0629 05:14:24.647279  2606 net.cpp:129] Top shape: 8 2048 7 7 (802816)
I0629 05:14:24.647281  2606 net.cpp:137] Memory required for data: 1832026272
I0629 05:14:24.647299  2606 layer_factory.hpp:77] Creating layer my_res5c_branch2a
I0629 05:14:24.647310  2606 net.cpp:84] Creating Layer my_res5c_branch2a
I0629 05:14:24.647316  2606 net.cpp:406] my_res5c_branch2a <- my_res5b_my_res5b_relu_0_split_0
I0629 05:14:24.647326  2606 net.cpp:380] my_res5c_branch2a -> my_res5c_branch2a
I0629 05:14:24.650431  2606 net.cpp:122] Setting up my_res5c_branch2a
I0629 05:14:24.650452  2606 net.cpp:129] Top shape: 8 512 7 7 (200704)
I0629 05:14:24.650456  2606 net.cpp:137] Memory required for data: 1832829088
I0629 05:14:24.650463  2606 layer_factory.hpp:77] Creating layer my_bn5c_branch2a
I0629 05:14:24.650473  2606 net.cpp:84] Creating Layer my_bn5c_branch2a
I0629 05:14:24.650480  2606 net.cpp:406] my_bn5c_branch2a <- my_res5c_branch2a
I0629 05:14:24.650485  2606 net.cpp:367] my_bn5c_branch2a -> my_res5c_branch2a (in-place)
I0629 05:14:24.650786  2606 net.cpp:122] Setting up my_bn5c_branch2a
I0629 05:14:24.650802  2606 net.cpp:129] Top shape: 8 512 7 7 (200704)
I0629 05:14:24.650806  2606 net.cpp:137] Memory required for data: 1833631904
I0629 05:14:24.650815  2606 layer_factory.hpp:77] Creating layer my_scale5c_branch2a
I0629 05:14:24.650825  2606 net.cpp:84] Creating Layer my_scale5c_branch2a
I0629 05:14:24.650828  2606 net.cpp:406] my_scale5c_branch2a <- my_res5c_branch2a
I0629 05:14:24.650835  2606 net.cpp:367] my_scale5c_branch2a -> my_res5c_branch2a (in-place)
I0629 05:14:24.650895  2606 layer_factory.hpp:77] Creating layer my_scale5c_branch2a
I0629 05:14:24.651087  2606 net.cpp:122] Setting up my_scale5c_branch2a
I0629 05:14:24.651103  2606 net.cpp:129] Top shape: 8 512 7 7 (200704)
I0629 05:14:24.651106  2606 net.cpp:137] Memory required for data: 1834434720
I0629 05:14:24.651113  2606 layer_factory.hpp:77] Creating layer my_res5c_branch2a_relu
I0629 05:14:24.651120  2606 net.cpp:84] Creating Layer my_res5c_branch2a_relu
I0629 05:14:24.651124  2606 net.cpp:406] my_res5c_branch2a_relu <- my_res5c_branch2a
I0629 05:14:24.651132  2606 net.cpp:367] my_res5c_branch2a_relu -> my_res5c_branch2a (in-place)
I0629 05:14:24.651455  2606 net.cpp:122] Setting up my_res5c_branch2a_relu
I0629 05:14:24.651475  2606 net.cpp:129] Top shape: 8 512 7 7 (200704)
I0629 05:14:24.651480  2606 net.cpp:137] Memory required for data: 1835237536
I0629 05:14:24.651484  2606 layer_factory.hpp:77] Creating layer my_res5c_branch2b
I0629 05:14:24.651494  2606 net.cpp:84] Creating Layer my_res5c_branch2b
I0629 05:14:24.651499  2606 net.cpp:406] my_res5c_branch2b <- my_res5c_branch2a
I0629 05:14:24.651507  2606 net.cpp:380] my_res5c_branch2b -> my_res5c_branch2b
I0629 05:14:24.657672  2606 net.cpp:122] Setting up my_res5c_branch2b
I0629 05:14:24.657696  2606 net.cpp:129] Top shape: 8 512 7 7 (200704)
I0629 05:14:24.657701  2606 net.cpp:137] Memory required for data: 1836040352
I0629 05:14:24.657707  2606 layer_factory.hpp:77] Creating layer my_bn5c_branch2b
I0629 05:14:24.657716  2606 net.cpp:84] Creating Layer my_bn5c_branch2b
I0629 05:14:24.657722  2606 net.cpp:406] my_bn5c_branch2b <- my_res5c_branch2b
I0629 05:14:24.657730  2606 net.cpp:367] my_bn5c_branch2b -> my_res5c_branch2b (in-place)
I0629 05:14:24.658041  2606 net.cpp:122] Setting up my_bn5c_branch2b
I0629 05:14:24.658057  2606 net.cpp:129] Top shape: 8 512 7 7 (200704)
I0629 05:14:24.658061  2606 net.cpp:137] Memory required for data: 1836843168
I0629 05:14:24.658069  2606 layer_factory.hpp:77] Creating layer my_scale5c_branch2b
I0629 05:14:24.658077  2606 net.cpp:84] Creating Layer my_scale5c_branch2b
I0629 05:14:24.658082  2606 net.cpp:406] my_scale5c_branch2b <- my_res5c_branch2b
I0629 05:14:24.658087  2606 net.cpp:367] my_scale5c_branch2b -> my_res5c_branch2b (in-place)
I0629 05:14:24.658150  2606 layer_factory.hpp:77] Creating layer my_scale5c_branch2b
I0629 05:14:24.658350  2606 net.cpp:122] Setting up my_scale5c_branch2b
I0629 05:14:24.658366  2606 net.cpp:129] Top shape: 8 512 7 7 (200704)
I0629 05:14:24.658370  2606 net.cpp:137] Memory required for data: 1837645984
I0629 05:14:24.658382  2606 layer_factory.hpp:77] Creating layer my_res5c_branch2b_relu
I0629 05:14:24.658404  2606 net.cpp:84] Creating Layer my_res5c_branch2b_relu
I0629 05:14:24.658409  2606 net.cpp:406] my_res5c_branch2b_relu <- my_res5c_branch2b
I0629 05:14:24.658419  2606 net.cpp:367] my_res5c_branch2b_relu -> my_res5c_branch2b (in-place)
I0629 05:14:24.658601  2606 net.cpp:122] Setting up my_res5c_branch2b_relu
I0629 05:14:24.658618  2606 net.cpp:129] Top shape: 8 512 7 7 (200704)
I0629 05:14:24.658622  2606 net.cpp:137] Memory required for data: 1838448800
I0629 05:14:24.658627  2606 layer_factory.hpp:77] Creating layer my_res5c_branch2c
I0629 05:14:24.658638  2606 net.cpp:84] Creating Layer my_res5c_branch2c
I0629 05:14:24.658643  2606 net.cpp:406] my_res5c_branch2c <- my_res5c_branch2b
I0629 05:14:24.658651  2606 net.cpp:380] my_res5c_branch2c -> my_res5c_branch2c
I0629 05:14:24.661870  2606 net.cpp:122] Setting up my_res5c_branch2c
I0629 05:14:24.661891  2606 net.cpp:129] Top shape: 8 2048 7 7 (802816)
I0629 05:14:24.661895  2606 net.cpp:137] Memory required for data: 1841660064
I0629 05:14:24.661901  2606 layer_factory.hpp:77] Creating layer my_bn5c_branch2c
I0629 05:14:24.661911  2606 net.cpp:84] Creating Layer my_bn5c_branch2c
I0629 05:14:24.661916  2606 net.cpp:406] my_bn5c_branch2c <- my_res5c_branch2c
I0629 05:14:24.661926  2606 net.cpp:367] my_bn5c_branch2c -> my_res5c_branch2c (in-place)
I0629 05:14:24.662243  2606 net.cpp:122] Setting up my_bn5c_branch2c
I0629 05:14:24.662259  2606 net.cpp:129] Top shape: 8 2048 7 7 (802816)
I0629 05:14:24.662263  2606 net.cpp:137] Memory required for data: 1844871328
I0629 05:14:24.662271  2606 layer_factory.hpp:77] Creating layer my_scale5c_branch2c
I0629 05:14:24.662279  2606 net.cpp:84] Creating Layer my_scale5c_branch2c
I0629 05:14:24.662283  2606 net.cpp:406] my_scale5c_branch2c <- my_res5c_branch2c
I0629 05:14:24.662288  2606 net.cpp:367] my_scale5c_branch2c -> my_res5c_branch2c (in-place)
I0629 05:14:24.662354  2606 layer_factory.hpp:77] Creating layer my_scale5c_branch2c
I0629 05:14:24.662557  2606 net.cpp:122] Setting up my_scale5c_branch2c
I0629 05:14:24.662573  2606 net.cpp:129] Top shape: 8 2048 7 7 (802816)
I0629 05:14:24.662576  2606 net.cpp:137] Memory required for data: 1848082592
I0629 05:14:24.662583  2606 layer_factory.hpp:77] Creating layer my_res5c
I0629 05:14:24.662592  2606 net.cpp:84] Creating Layer my_res5c
I0629 05:14:24.662597  2606 net.cpp:406] my_res5c <- my_res5b_my_res5b_relu_0_split_1
I0629 05:14:24.662602  2606 net.cpp:406] my_res5c <- my_res5c_branch2c
I0629 05:14:24.662607  2606 net.cpp:380] my_res5c -> my_res5c
I0629 05:14:24.662650  2606 net.cpp:122] Setting up my_res5c
I0629 05:14:24.662665  2606 net.cpp:129] Top shape: 8 2048 7 7 (802816)
I0629 05:14:24.662669  2606 net.cpp:137] Memory required for data: 1851293856
I0629 05:14:24.662673  2606 layer_factory.hpp:77] Creating layer my_res5c_relu
I0629 05:14:24.662683  2606 net.cpp:84] Creating Layer my_res5c_relu
I0629 05:14:24.662686  2606 net.cpp:406] my_res5c_relu <- my_res5c
I0629 05:14:24.662693  2606 net.cpp:367] my_res5c_relu -> my_res5c (in-place)
I0629 05:14:24.662994  2606 net.cpp:122] Setting up my_res5c_relu
I0629 05:14:24.663012  2606 net.cpp:129] Top shape: 8 2048 7 7 (802816)
I0629 05:14:24.663017  2606 net.cpp:137] Memory required for data: 1854505120
I0629 05:14:24.663020  2606 layer_factory.hpp:77] Creating layer my_pool5
I0629 05:14:24.663028  2606 net.cpp:84] Creating Layer my_pool5
I0629 05:14:24.663033  2606 net.cpp:406] my_pool5 <- my_res5c
I0629 05:14:24.663041  2606 net.cpp:380] my_pool5 -> my_pool5
I0629 05:14:24.663753  2606 net.cpp:122] Setting up my_pool5
I0629 05:14:24.663772  2606 net.cpp:129] Top shape: 8 2048 1 1 (16384)
I0629 05:14:24.663776  2606 net.cpp:137] Memory required for data: 1854570656
I0629 05:14:24.663780  2606 layer_factory.hpp:77] Creating layer my_fc1000
I0629 05:14:24.663791  2606 net.cpp:84] Creating Layer my_fc1000
I0629 05:14:24.663800  2606 net.cpp:406] my_fc1000 <- my_pool5
I0629 05:14:24.663810  2606 net.cpp:380] my_fc1000 -> my_fc1000
I0629 05:14:24.664026  2606 net.cpp:122] Setting up my_fc1000
I0629 05:14:24.664057  2606 net.cpp:129] Top shape: 8 50 (400)
I0629 05:14:24.664062  2606 net.cpp:137] Memory required for data: 1854572256
I0629 05:14:24.664068  2606 layer_factory.hpp:77] Creating layer my_fc1000_my_fc1000_0_split
I0629 05:14:24.664075  2606 net.cpp:84] Creating Layer my_fc1000_my_fc1000_0_split
I0629 05:14:24.664079  2606 net.cpp:406] my_fc1000_my_fc1000_0_split <- my_fc1000
I0629 05:14:24.664088  2606 net.cpp:380] my_fc1000_my_fc1000_0_split -> my_fc1000_my_fc1000_0_split_0
I0629 05:14:24.664095  2606 net.cpp:380] my_fc1000_my_fc1000_0_split -> my_fc1000_my_fc1000_0_split_1
I0629 05:14:24.664104  2606 net.cpp:380] my_fc1000_my_fc1000_0_split -> my_fc1000_my_fc1000_0_split_2
I0629 05:14:24.664111  2606 net.cpp:380] my_fc1000_my_fc1000_0_split -> my_fc1000_my_fc1000_0_split_3
I0629 05:14:24.664175  2606 net.cpp:122] Setting up my_fc1000_my_fc1000_0_split
I0629 05:14:24.664188  2606 net.cpp:129] Top shape: 8 50 (400)
I0629 05:14:24.664196  2606 net.cpp:129] Top shape: 8 50 (400)
I0629 05:14:24.664201  2606 net.cpp:129] Top shape: 8 50 (400)
I0629 05:14:24.664204  2606 net.cpp:129] Top shape: 8 50 (400)
I0629 05:14:24.664207  2606 net.cpp:137] Memory required for data: 1854578656
I0629 05:14:24.664211  2606 layer_factory.hpp:77] Creating layer loss
I0629 05:14:24.664219  2606 net.cpp:84] Creating Layer loss
I0629 05:14:24.664223  2606 net.cpp:406] loss <- my_fc1000_my_fc1000_0_split_0
I0629 05:14:24.664229  2606 net.cpp:406] loss <- label_input_1_split_0
I0629 05:14:24.664234  2606 net.cpp:380] loss -> loss
…
