…
I0630 04:25:03.255349  1464 net.cpp:294] The NetState phase (1) differed from the phase (0) specified by a rule in layer input
I0630 04:25:03.256785  1464 net.cpp:51] Initializing net from parameters: 
name: "ResNet-50"
state {
  phase: TEST
  level: 0
  stage: ""
}
layer {
  name: "input"
  type: "Data"
  top: "data"
  top: "label"
  include {
    phase: TEST
  }
  transform_param {
    mirror: true
    mean_file: "../../../data_subsets/subtrain2_mean.binaryproto"
  }
  data_param {
    source: "../../../data_subsets/subtrain2_lmdb"
    batch_size: 8
    backend: LMDB
  }
}
layer {
  name: "conv1"
  type: "Convolution"
  bottom: "data"
  top: "conv1"
  param {
    lr_mult: 1
    decay_mult: 1
  }
  param {
    lr_mult: 2
    decay_mult: 0
  }
  convolution_param {
    num_output: 64
    pad: 3
    kernel_size: 7
    stride: 2
  }
}
layer {
  name: "bn_conv1"
  type: "BatchNorm"
  bottom: "conv1"
  top: "conv1"
  batch_norm_param {
    use_global_stats: true
  }
}
layer {
  name: "scale_conv1"
  type: "Scale"
  bottom: "conv1"
  top: "conv1"
  scale_param {
    bias_term: true
  }
}
layer {
  name: "conv1_relu"
  type: "ReLU"
  bottom: "conv1"
  top: "conv1"
}
layer {
  name: "pool1"
  type: "Pooling"
  bottom: "conv1"
  top: "pool1"
  pooling_param {
    pool: MAX
    kernel_size: 3
    stride: 2
  }
}
layer {
  name: "res2a_branch1"
  type: "Convolution"
  bottom: "pool1"
  top: "res2a_branch1"
  param {
    lr_mult: 1
    decay_mult: 1
  }
  convolution_param {
    num_output: 256
    bias_term: false
    pad: 0
    kernel_size: 1
    stride: 1
  }
}
layer {
  name: "bn2a_branch1"
  type: "BatchNorm"
  bottom: "res2a_branch1"
  top: "res2a_branch1"
  batch_norm_param {
    use_global_stats: true
  }
}
layer {
  name: "scale2a_branch1"
  type: "Scale"
  bottom: "res2a_branch1"
  top: "res2a_branch1"
  scale_param {
    bias_term: true
  }
}
layer {
  name: "res2a_branch2a"
  type: "Convolution"
  bottom: "pool1"
  top: "res2a_branch2a"
  param {
    lr_mult: 1
    decay_mult: 1
  }
  convolution_param {
    num_output: 64
    bias_term: false
    pad: 0
    kernel_size: 1
    stride: 1
  }
}
layer {
  name: "bn2a_branch2a"
  type: "BatchNorm"
  bottom: "res2a_branch2a"
  top: "res2a_branch2a"
  batch_norm_param {
    use_global_stats: true
  }
}
layer {
  name: "scale2a_branch2a"
  type: "Scale"
  bottom: "res2a_branch2a"
  top: "res2a_branch2a"
  scale_param {
    bias_term: true
  }
}
layer {
  name: "res2a_branch2a_relu"
  type: "ReLU"
  bottom: "res2a_branch2a"
  top: "res2a_branch2a"
}
layer {
  name: "res2a_branch2b"
  type: "Convolution"
  bottom: "res2a_branch2a"
  top: "res2a_branch2b"
  param {
    lr_mult: 1
    decay_mult: 1
  }
  convolution_param {
    num_output: 64
    bias_term: false
    pad: 1
    kernel_size: 3
    stride: 1
  }
}
layer {
  name: "bn2a_branch2b"
  type: "BatchNorm"
  bottom: "res2a_branch2b"
  top: "res2a_branch2b"
  batch_norm_param {
    use_global_stats: true
  }
}
layer {
  name: "scale2a_branch2b"
  type: "Scale"
  bottom: "res2a_branch2b"
  top: "res2a_branch2b"
  scale_param {
    bias_term: true
  }
}
layer {
  name: "res2a_branch2b_relu"
  type: "ReLU"
  bottom: "res2a_branch2b"
  top: "res2a_branch2b"
}
layer {
  name: "res2a_branch2c"
  type: "Convolution"
  bottom: "res2a_branch2b"
  top: "res2a_branch2c"
  param {
    lr_mult: 1
    decay_mult: 1
  }
  convolution_param {
    num_output: 256
    bias_term: false
    pad: 0
    kernel_size: 1
    stride: 1
  }
}
layer {
  name: "bn2a_branch2c"
  type: "BatchNorm"
  bottom: "res2a_branch2c"
  top: "res2a_branch2c"
  batch_norm_param {
    use_global_stats: true
  }
}
layer {
  name: "scale2a_branch2c"
  type: "Scale"
  bottom: "res2a_branch2c"
  top: "res2a_branch2c"
  scale_param {
    bias_term: true
  }
}
layer {
  name: "res2a"
  type: "Eltwise"
  bottom: "res2a_branch1"
  bottom: "res2a_branch2c"
  top: "res2a"
}
layer {
  name: "res2a_relu"
  type: "ReLU"
  bottom: "res2a"
  top: "res2a"
}
layer {
  name: "res2b_branch2a"
  type: "Convolution"
  bottom: "res2a"
  top: "res2b_branch2a"
  param {
    lr_mult: 1
    decay_mult: 1
  }
  convolution_param {
    num_output: 64
    bias_term: false
    pad: 0
    kernel_size: 1
    stride: 1
  }
}
layer {
  name: "bn2b_branch2a"
  type: "BatchNorm"
  bottom: "res2b_branch2a"
  top: "res2b_branch2a"
  batch_norm_param {
    use_global_stats: true
  }
}
layer {
  name: "scale2b_branch2a"
  type: "Scale"
  bottom: "res2b_branch2a"
  top: "res2b_branch2a"
  scale_param {
    bias_term: true
  }
}
layer {
  name: "res2b_branch2a_relu"
  type: "ReLU"
  bottom: "res2b_branch2a"
  top: "res2b_branch2a"
}
layer {
  name: "res2b_branch2b"
  type: "Convolution"
  bottom: "res2b_branch2a"
  top: "res2b_branch2b"
  param {
    lr_mult: 1
    decay_mult: 1
  }
  convolution_param {
    num_output: 64
    bias_term: false
    pad: 1
    kernel_size: 3
    stride: 1
  }
}
layer {
  name: "bn2b_branch2b"
  type: "BatchNorm"
  bottom: "res2b_branch2b"
  top: "res2b_branch2b"
  batch_norm_param {
    use_global_stats: true
  }
}
layer {
  name: "scale2b_branch2b"
  type: "Scale"
  bottom: "res2b_branch2b"
  top: "res2b_branch2b"
  scale_param {
    bias_term: true
  }
}
layer {
  name: "res2b_branch2b_relu"
  type: "ReLU"
  bottom: "res2b_branch2b"
  top: "res2b_branch2b"
}
layer {
  name: "res2b_branch2c"
  type: "Convolution"
  bottom: "res2b_branch2b"
  top: "res2b_branch2c"
  param {
    lr_mult: 1
    decay_mult: 1
  }
  convolution_param {
    num_output: 256
    bias_term: false
    pad: 0
    kernel_size: 1
    stride: 1
  }
}
layer {
  name: "bn2b_branch2c"
  type: "BatchNorm"
  bottom: "res2b_branch2c"
  top: "res2b_branch2c"
  batch_norm_param {
    use_global_stats: true
  }
}
layer {
  name: "scale2b_branch2c"
  type: "Scale"
  bottom: "res2b_branch2c"
  top: "res2b_branch2c"
  scale_param {
    bias_term: true
  }
}
layer {
  name: "res2b"
  type: "Eltwise"
  bottom: "res2a"
  bottom: "res2b_branch2c"
  top: "res2b"
}
layer {
  name: "res2b_relu"
  type: "ReLU"
  bottom: "res2b"
  top: "res2b"
}
layer {
  name: "res2c_branch2a"
  type: "Convolution"
  bottom: "res2b"
  top: "res2c_branch2a"
  param {
    lr_mult: 1
    decay_mult: 1
  }
  convolution_param {
    num_output: 64
    bias_term: false
    pad: 0
    kernel_size: 1
    stride: 1
  }
}
layer {
  name: "bn2c_branch2a"
  type: "BatchNorm"
  bottom: "res2c_branch2a"
  top: "res2c_branch2a"
  batch_norm_param {
    use_global_stats: true
  }
}
layer {
  name: "scale2c_branch2a"
  type: "Scale"
  bottom: "res2c_branch2a"
  top: "res2c_branch2a"
  scale_param {
    bias_term: true
  }
}
layer {
  name: "res2c_branch2a_relu"
  type: "ReLU"
  bottom: "res2c_branch2a"
  top: "res2c_branch2a"
}
layer {
  name: "res2c_branch2b"
  type: "Convolution"
  bottom: "res2c_branch2a"
  top: "res2c_branch2b"
  param {
    lr_mult: 1
    decay_mult: 1
  }
  convolution_param {
    num_output: 64
    bias_term: false
    pad: 1
    kernel_size: 3
    stride: 1
  }
}
layer {
  name: "bn2c_branch2b"
  type: "BatchNorm"
  bottom: "res2c_branch2b"
  top: "res2c_branch2b"
  batch_norm_param {
    use_global_stats: true
  }
}
layer {
  name: "scale2c_branch2b"
  type: "Scale"
  bottom: "res2c_branch2b"
  top: "res2c_branch2b"
  scale_param {
    bias_term: true
  }
}
layer {
  name: "res2c_branch2b_relu"
  type: "ReLU"
  bottom: "res2c_branch2b"
  top: "res2c_branch2b"
}
layer {
  name: "res2c_branch2c"
  type: "Convolution"
  bottom: "res2c_branch2b"
  top: "res2c_branch2c"
  param {
    lr_mult: 1
    decay_mult: 1
  }
  convolution_param {
    num_output: 256
    bias_term: false
    pad: 0
    kernel_size: 1
    stride: 1
  }
}
layer {
  name: "bn2c_branch2c"
  type: "BatchNorm"
  bottom: "res2c_branch2c"
  top: "res2c_branch2c"
  batch_norm_param {
    use_global_stats: true
  }
}
layer {
  name: "scale2c_branch2c"
  type: "Scale"
  bottom: "res2c_branch2c"
  top: "res2c_branch2c"
  scale_param {
    bias_term: true
  }
}
layer {
  name: "res2c"
  type: "Eltwise"
  bottom: "res2b"
  bottom: "res2c_branch2c"
  top: "res2c"
}
layer {
  name: "res2c_relu"
  type: "ReLU"
  bottom: "res2c"
  top: "res2c"
}
layer {
  name: "res3a_branch1"
  type: "Convolution"
  bottom: "res2c"
  top: "res3a_branch1"
  param {
    lr_mult: 1
    decay_mult: 1
  }
  convolution_param {
    num_output: 512
    bias_term: false
    pad: 0
    kernel_size: 1
    stride: 2
  }
}
layer {
  name: "bn3a_branch1"
  type: "BatchNorm"
  bottom: "res3a_branch1"
  top: "res3a_branch1"
  batch_norm_param {
    use_global_stats: true
  }
}
layer {
  name: "scale3a_branch1"
  type: "Scale"
  bottom: "res3a_branch1"
  top: "res3a_branch1"
  scale_param {
    bias_term: true
  }
}
layer {
  name: "res3a_branch2a"
  type: "Convolution"
  bottom: "res2c"
  top: "res3a_branch2a"
  param {
    lr_mult: 1
    decay_mult: 1
  }
  convolution_param {
    num_output: 128
    bias_term: false
    pad: 0
    kernel_size: 1
    stride: 2
  }
}
layer {
  name: "bn3a_branch2a"
  type: "BatchNorm"
  bottom: "res3a_branch2a"
  top: "res3a_branch2a"
  batch_norm_param {
    use_global_stats: true
  }
}
layer {
  name: "scale3a_branch2a"
  type: "Scale"
  bottom: "res3a_branch2a"
  top: "res3a_branch2a"
  scale_param {
    bias_term: true
  }
}
layer {
  name: "res3a_branch2a_relu"
  type: "ReLU"
  bottom: "res3a_branch2a"
  top: "res3a_branch2a"
}
layer {
  name: "res3a_branch2b"
  type: "Convolution"
  bottom: "res3a_branch2a"
  top: "res3a_branch2b"
  param {
    lr_mult: 1
    decay_mult: 1
  }
  convolution_param {
    num_output: 128
    bias_term: false
    pad: 1
    kernel_size: 3
    stride: 1
  }
}
layer {
  name: "bn3a_branch2b"
  type: "BatchNorm"
  bottom: "res3a_branch2b"
  top: "res3a_branch2b"
  batch_norm_param {
    use_global_stats: true
  }
}
layer {
  name: "scale3a_branch2b"
  type: "Scale"
  bottom: "res3a_branch2b"
  top: "res3a_branch2b"
  scale_param {
    bias_term: true
  }
}
layer {
  name: "res3a_branch2b_relu"
  type: "ReLU"
  bottom: "res3a_branch2b"
  top: "res3a_branch2b"
}
layer {
  name: "res3a_branch2c"
  type: "Convolution"
  bottom: "res3a_branch2b"
  top: "res3a_branch2c"
  param {
    lr_mult: 1
    decay_mult: 1
  }
  convolution_param {
    num_output: 512
    bias_term: false
    pad: 0
    kernel_size: 1
    stride: 1
  }
}
layer {
  name: "bn3a_branch2c"
  type: "BatchNorm"
  bottom: "res3a_branch2c"
  top: "res3a_branch2c"
  batch_norm_param {
    use_global_stats: true
  }
}
layer {
  name: "scale3a_branch2c"
  type: "Scale"
  bottom: "res3a_branch2c"
  top: "res3a_branch2c"
  scale_param {
    bias_term: true
  }
}
layer {
  name: "res3a"
  type: "Eltwise"
  bottom: "res3a_branch1"
  bottom: "res3a_branch2c"
  top: "res3a"
}
layer {
  name: "res3a_relu"
  type: "ReLU"
  bottom: "res3a"
  top: "res3a"
}
layer {
  name: "res3b_branch2a"
  type: "Convolution"
  bottom: "res3a"
  top: "res3b_branch2a"
  param {
    lr_mult: 1
    decay_mult: 1
  }
  convolution_param {
    num_output: 128
    bias_term: false
    pad: 0
    kernel_size: 1
    stride: 1
  }
}
layer {
  name: "bn3b_branch2a"
  type: "BatchNorm"
  bottom: "res3b_branch2a"
  top: "res3b_branch2a"
  batch_norm_param {
    use_global_stats: true
  }
}
layer {
  name: "scale3b_branch2a"
  type: "Scale"
  bottom: "res3b_branch2a"
  top: "res3b_branch2a"
  scale_param {
    bias_term: true
  }
}
layer {
  name: "res3b_branch2a_relu"
  type: "ReLU"
  bottom: "res3b_branch2a"
  top: "res3b_branch2a"
}
layer {
  name: "res3b_branch2b"
  type: "Convolution"
  bottom: "res3b_branch2a"
  top: "res3b_branch2b"
  param {
    lr_mult: 1
    decay_mult: 1
  }
  convolution_param {
    num_output: 128
    bias_term: false
    pad: 1
    kernel_size: 3
    stride: 1
  }
}
layer {
  name: "bn3b_branch2b"
  type: "BatchNorm"
  bottom: "res3b_branch2b"
  top: "res3b_branch2b"
  batch_norm_param {
    use_global_stats: true
  }
}
layer {
  name: "scale3b_branch2b"
  type: "Scale"
  bottom: "res3b_branch2b"
  top: "res3b_branch2b"
  scale_param {
    bias_term: true
  }
}
layer {
  name: "res3b_branch2b_relu"
  type: "ReLU"
  bottom: "res3b_branch2b"
  top: "res3b_branch2b"
}
layer {
  name: "res3b_branch2c"
  type: "Convolution"
  bottom: "res3b_branch2b"
  top: "res3b_branch2c"
  param {
    lr_mult: 1
    decay_mult: 1
  }
  convolution_param {
    num_output: 512
    bias_term: false
    pad: 0
    kernel_size: 1
    stride: 1
  }
}
layer {
  name: "bn3b_branch2c"
  type: "BatchNorm"
  bottom: "res3b_branch2c"
  top: "res3b_branch2c"
  batch_norm_param {
    use_global_stats: true
  }
}
layer {
  name: "scale3b_branch2c"
  type: "Scale"
  bottom: "res3b_branch2c"
  top: "res3b_branch2c"
  scale_param {
    bias_term: true
  }
}
layer {
  name: "res3b"
  type: "Eltwise"
  bottom: "res3a"
  bottom: "res3b_branch2c"
  top: "res3b"
}
layer {
  name: "res3b_relu"
  type: "ReLU"
  bottom: "res3b"
  top: "res3b"
}
layer {
  name: "res3c_branch2a"
  type: "Convolution"
  bottom: "res3b"
  top: "res3c_branch2a"
  param {
    lr_mult: 1
    decay_mult: 1
  }
  convolution_param {
    num_output: 128
    bias_term: false
    pad: 0
    kernel_size: 1
    stride: 1
  }
}
layer {
  name: "bn3c_branch2a"
  type: "BatchNorm"
  bottom: "res3c_branch2a"
  top: "res3c_branch2a"
  batch_norm_param {
    use_global_stats: true
  }
}
layer {
  name: "scale3c_branch2a"
  type: "Scale"
  bottom: "res3c_branch2a"
  top: "res3c_branch2a"
  scale_param {
    bias_term: true
  }
}
layer {
  name: "res3c_branch2a_relu"
  type: "ReLU"
  bottom: "res3c_branch2a"
  top: "res3c_branch2a"
}
layer {
  name: "res3c_branch2b"
  type: "Convolution"
  bottom: "res3c_branch2a"
  top: "res3c_branch2b"
  param {
    lr_mult: 1
    decay_mult: 1
  }
  convolution_param {
    num_output: 128
    bias_term: false
    pad: 1
    kernel_size: 3
    stride: 1
  }
}
layer {
  name: "bn3c_branch2b"
  type: "BatchNorm"
  bottom: "res3c_branch2b"
  top: "res3c_branch2b"
  batch_norm_param {
    use_global_stats: true
  }
}
layer {
  name: "scale3c_branch2b"
  type: "Scale"
  bottom: "res3c_branch2b"
  top: "res3c_branch2b"
  scale_param {
    bias_term: true
  }
}
layer {
  name: "res3c_branch2b_relu"
  type: "ReLU"
  bottom: "res3c_branch2b"
  top: "res3c_branch2b"
}
layer {
  name: "res3c_branch2c"
  type: "Convolution"
  bottom: "res3c_branch2b"
  top: "res3c_branch2c"
  param {
    lr_mult: 1
    decay_mult: 1
  }
  convolution_param {
    num_output: 512
    bias_term: false
    pad: 0
    kernel_size: 1
    stride: 1
  }
}
layer {
  name: "bn3c_branch2c"
  type: "BatchNorm"
  bottom: "res3c_branch2c"
  top: "res3c_branch2c"
  batch_norm_param {
    use_global_stats: true
  }
}
layer {
  name: "scale3c_branch2c"
  type: "Scale"
  bottom: "res3c_branch2c"
  top: "res3c_branch2c"
  scale_param {
    bias_term: true
  }
}
layer {
  name: "res3c"
  type: "Eltwise"
  bottom: "res3b"
  bottom: "res3c_branch2c"
  top: "res3c"
}
layer {
  name: "res3c_relu"
  type: "ReLU"
  bottom: "res3c"
  top: "res3c"
}
layer {
  name: "res3d_branch2a"
  type: "Convolution"
  bottom: "res3c"
  top: "res3d_branch2a"
  param {
    lr_mult: 1
    decay_mult: 1
  }
  convolution_param {
    num_output: 128
    bias_term: false
    pad: 0
    kernel_size: 1
    stride: 1
  }
}
layer {
  name: "bn3d_branch2a"
  type: "BatchNorm"
  bottom: "res3d_branch2a"
  top: "res3d_branch2a"
  batch_norm_param {
    use_global_stats: true
  }
}
layer {
  name: "scale3d_branch2a"
  type: "Scale"
  bottom: "res3d_branch2a"
  top: "res3d_branch2a"
  scale_param {
    bias_term: true
  }
}
layer {
  name: "res3d_branch2a_relu"
  type: "ReLU"
  bottom: "res3d_branch2a"
  top: "res3d_branch2a"
}
layer {
  name: "res3d_branch2b"
  type: "Convolution"
  bottom: "res3d_branch2a"
  top: "res3d_branch2b"
  param {
    lr_mult: 1
    decay_mult: 1
  }
  convolution_param {
    num_output: 128
    bias_term: false
    pad: 1
    kernel_size: 3
    stride: 1
  }
}
layer {
  name: "bn3d_branch2b"
  type: "BatchNorm"
  bottom: "res3d_branch2b"
  top: "res3d_branch2b"
  batch_norm_param {
    use_global_stats: true
  }
}
layer {
  name: "scale3d_branch2b"
  type: "Scale"
  bottom: "res3d_branch2b"
  top: "res3d_branch2b"
  scale_param {
    bias_term: true
  }
}
layer {
  name: "res3d_branch2b_relu"
  type: "ReLU"
  bottom: "res3d_branch2b"
  top: "res3d_branch2b"
}
layer {
  name: "res3d_branch2c"
  type: "Convolution"
  bottom: "res3d_branch2b"
  top: "res3d_branch2c"
  param {
    lr_mult: 1
    decay_mult: 1
  }
  convolution_param {
    num_output: 512
    bias_term: false
    pad: 0
    kernel_size: 1
    stride: 1
  }
}
layer {
  name: "bn3d_branch2c"
  type: "BatchNorm"
  bottom: "res3d_branch2c"
  top: "res3d_branch2c"
  batch_norm_param {
    use_global_stats: true
  }
}
layer {
  name: "scale3d_branch2c"
  type: "Scale"
  bottom: "res3d_branch2c"
  top: "res3d_branch2c"
  scale_param {
    bias_term: true
  }
}
layer {
  name: "res3d"
  type: "Eltwise"
  bottom: "res3c"
  bottom: "res3d_branch2c"
  top: "res3d"
}
layer {
  name: "res3d_relu"
  type: "ReLU"
  bottom: "res3d"
  top: "res3d"
}
layer {
  name: "res4a_branch1"
  type: "Convolution"
  bottom: "res3d"
  top: "res4a_branch1"
  param {
    lr_mult: 1
    decay_mult: 1
  }
  convolution_param {
    num_output: 1024
    bias_term: false
    pad: 0
    kernel_size: 1
    stride: 2
  }
}
layer {
  name: "bn4a_branch1"
  type: "BatchNorm"
  bottom: "res4a_branch1"
  top: "res4a_branch1"
  batch_norm_param {
    use_global_stats: true
  }
}
layer {
  name: "scale4a_branch1"
  type: "Scale"
  bottom: "res4a_branch1"
  top: "res4a_branch1"
  scale_param {
    bias_term: true
  }
}
layer {
  name: "res4a_branch2a"
  type: "Convolution"
  bottom: "res3d"
  top: "res4a_branch2a"
  param {
    lr_mult: 1
    decay_mult: 1
  }
  convolution_param {
    num_output: 256
    bias_term: false
    pad: 0
    kernel_size: 1
    stride: 2
  }
}
layer {
  name: "bn4a_branch2a"
  type: "BatchNorm"
  bottom: "res4a_branch2a"
  top: "res4a_branch2a"
  batch_norm_param {
    use_global_stats: true
  }
}
layer {
  name: "scale4a_branch2a"
  type: "Scale"
  bottom: "res4a_branch2a"
  top: "res4a_branch2a"
  scale_param {
    bias_term: true
  }
}
layer {
  name: "res4a_branch2a_relu"
  type: "ReLU"
  bottom: "res4a_branch2a"
  top: "res4a_branch2a"
}
layer {
  name: "res4a_branch2b"
  type: "Convolution"
  bottom: "res4a_branch2a"
  top: "res4a_branch2b"
  param {
    lr_mult: 1
    decay_mult: 1
  }
  convolution_param {
    num_output: 256
    bias_term: false
    pad: 1
    kernel_size: 3
    stride: 1
  }
}
layer {
  name: "bn4a_branch2b"
  type: "BatchNorm"
  bottom: "res4a_branch2b"
  top: "res4a_branch2b"
  batch_norm_param {
    use_global_stats: true
  }
}
layer {
  name: "scale4a_branch2b"
  type: "Scale"
  bottom: "res4a_branch2b"
  top: "res4a_branch2b"
  scale_param {
    bias_term: true
  }
}
layer {
  name: "res4a_branch2b_relu"
  type: "ReLU"
  bottom: "res4a_branch2b"
  top: "res4a_branch2b"
}
layer {
  name: "res4a_branch2c"
  type: "Convolution"
  bottom: "res4a_branch2b"
  top: "res4a_branch2c"
  param {
    lr_mult: 1
    decay_mult: 1
  }
  convolution_param {
    num_output: 1024
    bias_term: false
    pad: 0
    kernel_size: 1
    stride: 1
  }
}
layer {
  name: "bn4a_branch2c"
  type: "BatchNorm"
  bottom: "res4a_branch2c"
  top: "res4a_branch2c"
  batch_norm_param {
    use_global_stats: true
  }
}
layer {
  name: "scale4a_branch2c"
  type: "Scale"
  bottom: "res4a_branch2c"
  top: "res4a_branch2c"
  scale_param {
    bias_term: true
  }
}
layer {
  name: "res4a"
  type: "Eltwise"
  bottom: "res4a_branch1"
  bottom: "res4a_branch2c"
  top: "res4a"
}
layer {
  name: "res4a_relu"
  type: "ReLU"
  bottom: "res4a"
  top: "res4a"
}
layer {
  name: "res4b_branch2a"
  type: "Convolution"
  bottom: "res4a"
  top: "res4b_branch2a"
  param {
    lr_mult: 1
    decay_mult: 1
  }
  convolution_param {
    num_output: 256
    bias_term: false
    pad: 0
    kernel_size: 1
    stride: 1
  }
}
layer {
  name: "bn4b_branch2a"
  type: "BatchNorm"
  bottom: "res4b_branch2a"
  top: "res4b_branch2a"
  batch_norm_param {
    use_global_stats: true
  }
}
layer {
  name: "scale4b_branch2a"
  type: "Scale"
  bottom: "res4b_branch2a"
  top: "res4b_branch2a"
  scale_param {
    bias_term: true
  }
}
layer {
  name: "res4b_branch2a_relu"
  type: "ReLU"
  bottom: "res4b_branch2a"
  top: "res4b_branch2a"
}
layer {
  name: "res4b_branch2b"
  type: "Convolution"
  bottom: "res4b_branch2a"
  top: "res4b_branch2b"
  param {
    lr_mult: 1
    decay_mult: 1
  }
  convolution_param {
    num_output: 256
    bias_term: false
    pad: 1
    kernel_size: 3
    stride: 1
  }
}
layer {
  name: "bn4b_branch2b"
  type: "BatchNorm"
  bottom: "res4b_branch2b"
  top: "res4b_branch2b"
  batch_norm_param {
    use_global_stats: true
  }
}
layer {
  name: "scale4b_branch2b"
  type: "Scale"
  bottom: "res4b_branch2b"
  top: "res4b_branch2b"
  scale_param {
    bias_term: true
  }
}
layer {
  name: "res4b_branch2b_relu"
  type: "ReLU"
  bottom: "res4b_branch2b"
  top: "res4b_branch2b"
}
layer {
  name: "res4b_branch2c"
  type: "Convolution"
  bottom: "res4b_branch2b"
  top: "res4b_branch2c"
  param {
    lr_mult: 1
    decay_mult: 1
  }
  convolution_param {
    num_output: 1024
    bias_term: false
    pad: 0
    kernel_size: 1
    stride: 1
  }
}
layer {
  name: "bn4b_branch2c"
  type: "BatchNorm"
  bottom: "res4b_branch2c"
  top: "res4b_branch2c"
  batch_norm_param {
    use_global_stats: true
  }
}
layer {
  name: "scale4b_branch2c"
  type: "Scale"
  bottom: "res4b_branch2c"
  top: "res4b_branch2c"
  scale_param {
    bias_term: true
  }
}
layer {
  name: "res4b"
  type: "Eltwise"
  bottom: "res4a"
  bottom: "res4b_branch2c"
  top: "res4b"
}
layer {
  name: "res4b_relu"
  type: "ReLU"
  bottom: "res4b"
  top: "res4b"
}
layer {
  name: "res4c_branch2a"
  type: "Convolution"
  bottom: "res4b"
  top: "res4c_branch2a"
  param {
    lr_mult: 1
    decay_mult: 1
  }
  convolution_param {
    num_output: 256
    bias_term: false
    pad: 0
    kernel_size: 1
    stride: 1
  }
}
layer {
  name: "bn4c_branch2a"
  type: "BatchNorm"
  bottom: "res4c_branch2a"
  top: "res4c_branch2a"
  batch_norm_param {
    use_global_stats: true
  }
}
layer {
  name: "scale4c_branch2a"
  type: "Scale"
  bottom: "res4c_branch2a"
  top: "res4c_branch2a"
  scale_param {
    bias_term: true
  }
}
layer {
  name: "res4c_branch2a_relu"
  type: "ReLU"
  bottom: "res4c_branch2a"
  top: "res4c_branch2a"
}
layer {
  name: "res4c_branch2b"
  type: "Convolution"
  bottom: "res4c_branch2a"
  top: "res4c_branch2b"
  param {
    lr_mult: 1
    decay_mult: 1
  }
  convolution_param {
    num_output: 256
    bias_term: false
    pad: 1
    kernel_size: 3
    stride: 1
  }
}
layer {
  name: "bn4c_branch2b"
  type: "BatchNorm"
  bottom: "res4c_branch2b"
  top: "res4c_branch2b"
  batch_norm_param {
    use_global_stats: true
  }
}
layer {
  name: "scale4c_branch2b"
  type: "Scale"
  bottom: "res4c_branch2b"
  top: "res4c_branch2b"
  scale_param {
    bias_term: true
  }
}
layer {
  name: "res4c_branch2b_relu"
  type: "ReLU"
  bottom: "res4c_branch2b"
  top: "res4c_branch2b"
}
layer {
  name: "res4c_branch2c"
  type: "Convolution"
  bottom: "res4c_branch2b"
  top: "res4c_branch2c"
  param {
    lr_mult: 1
    decay_mult: 1
  }
  convolution_param {
    num_output: 1024
    bias_term: false
    pad: 0
    kernel_size: 1
    stride: 1
  }
}
layer {
  name: "bn4c_branch2c"
  type: "BatchNorm"
  bottom: "res4c_branch2c"
  top: "res4c_branch2c"
  batch_norm_param {
    use_global_stats: true
  }
}
layer {
  name: "scale4c_branch2c"
  type: "Scale"
  bottom: "res4c_branch2c"
  top: "res4c_branch2c"
  scale_param {
    bias_term: true
  }
}
layer {
  name: "res4c"
  type: "Eltwise"
  bottom: "res4b"
  bottom: "res4c_branch2c"
  top: "res4c"
}
layer {
  name: "res4c_relu"
  type: "ReLU"
  bottom: "res4c"
  top: "res4c"
}
layer {
  name: "res4d_branch2a"
  type: "Convolution"
  bottom: "res4c"
  top: "res4d_branch2a"
  param {
    lr_mult: 1
    decay_mult: 1
  }
  convolution_param {
    num_output: 256
    bias_term: false
    pad: 0
    kernel_size: 1
    stride: 1
  }
}
layer {
  name: "bn4d_branch2a"
  type: "BatchNorm"
  bottom: "res4d_branch2a"
  top: "res4d_branch2a"
  batch_norm_param {
    use_global_stats: true
  }
}
layer {
  name: "scale4d_branch2a"
  type: "Scale"
  bottom: "res4d_branch2a"
  top: "res4d_branch2a"
  scale_param {
    bias_term: true
  }
}
layer {
  name: "res4d_branch2a_relu"
  type: "ReLU"
  bottom: "res4d_branch2a"
  top: "res4d_branch2a"
}
layer {
  name: "res4d_branch2b"
  type: "Convolution"
  bottom: "res4d_branch2a"
  top: "res4d_branch2b"
  param {
    lr_mult: 1
    decay_mult: 1
  }
  convolution_param {
    num_output: 256
    bias_term: false
    pad: 1
    kernel_size: 3
    stride: 1
  }
}
layer {
  name: "bn4d_branch2b"
  type: "BatchNorm"
  bottom: "res4d_branch2b"
  top: "res4d_branch2b"
  batch_norm_param {
    use_global_stats: true
  }
}
layer {
  name: "scale4d_branch2b"
  type: "Scale"
  bottom: "res4d_branch2b"
  top: "res4d_branch2b"
  scale_param {
    bias_term: true
  }
}
layer {
  name: "res4d_branch2b_relu"
  type: "ReLU"
  bottom: "res4d_branch2b"
  top: "res4d_branch2b"
}
layer {
  name: "res4d_branch2c"
  type: "Convolution"
  bottom: "res4d_branch2b"
  top: "res4d_branch2c"
  param {
    lr_mult: 1
    decay_mult: 1
  }
  convolution_param {
    num_output: 1024
    bias_term: false
    pad: 0
    kernel_size: 1
    stride: 1
  }
}
layer {
  name: "bn4d_branch2c"
  type: "BatchNorm"
  bottom: "res4d_branch2c"
  top: "res4d_branch2c"
  batch_norm_param {
    use_global_stats: true
  }
}
layer {
  name: "scale4d_branch2c"
  type: "Scale"
  bottom: "res4d_branch2c"
  top: "res4d_branch2c"
  scale_param {
    bias_term: true
  }
}
layer {
  name: "res4d"
  type: "Eltwise"
  bottom: "res4c"
  bottom: "res4d_branch2c"
  top: "res4d"
}
layer {
  name: "res4d_relu"
  type: "ReLU"
  bottom: "res4d"
  top: "res4d"
}
layer {
  name: "res4e_branch2a"
  type: "Convolution"
  bottom: "res4d"
  top: "res4e_branch2a"
  param {
    lr_mult: 1
    decay_mult: 1
  }
  convolution_param {
    num_output: 256
    bias_term: false
    pad: 0
    kernel_size: 1
    stride: 1
  }
}
layer {
  name: "bn4e_branch2a"
  type: "BatchNorm"
  bottom: "res4e_branch2a"
  top: "res4e_branch2a"
  batch_norm_param {
    use_global_stats: true
  }
}
layer {
  name: "scale4e_branch2a"
  type: "Scale"
  bottom: "res4e_branch2a"
  top: "res4e_branch2a"
  scale_param {
    bias_term: true
  }
}
layer {
  name: "res4e_branch2a_relu"
  type: "ReLU"
  bottom: "res4e_branch2a"
  top: "res4e_branch2a"
}
layer {
  name: "res4e_branch2b"
  type: "Convolution"
  bottom: "res4e_branch2a"
  top: "res4e_branch2b"
  param {
    lr_mult: 1
    decay_mult: 1
  }
  convolution_param {
    num_output: 256
    bias_term: false
    pad: 1
    kernel_size: 3
    stride: 1
  }
}
layer {
  name: "bn4e_branch2b"
  type: "BatchNorm"
  bottom: "res4e_branch2b"
  top: "res4e_branch2b"
  batch_norm_param {
    use_global_stats: true
  }
}
layer {
  name: "scale4e_branch2b"
  type: "Scale"
  bottom: "res4e_branch2b"
  top: "res4e_branch2b"
  scale_param {
    bias_term: true
  }
}
layer {
  name: "res4e_branch2b_relu"
  type: "ReLU"
  bottom: "res4e_branch2b"
  top: "res4e_branch2b"
}
layer {
  name: "res4e_branch2c"
  type: "Convolution"
  bottom: "res4e_branch2b"
  top: "res4e_branch2c"
  param {
    lr_mult: 1
    decay_mult: 1
  }
  convolution_param {
    num_output: 1024
    bias_term: false
    pad: 0
    kernel_size: 1
    stride: 1
  }
}
layer {
  name: "bn4e_branch2c"
  type: "BatchNorm"
  bottom: "res4e_branch2c"
  top: "res4e_branch2c"
  batch_norm_param {
    use_global_stats: true
  }
}
layer {
  name: "scale4e_branch2c"
  type: "Scale"
  bottom: "res4e_branch2c"
  top: "res4e_branch2c"
  scale_param {
    bias_term: true
  }
}
layer {
  name: "res4e"
  type: "Eltwise"
  bottom: "res4d"
  bottom: "res4e_branch2c"
  top: "res4e"
}
layer {
  name: "res4e_relu"
  type: "ReLU"
  bottom: "res4e"
  top: "res4e"
}
layer {
  name: "res4f_branch2a"
  type: "Convolution"
  bottom: "res4e"
  top: "res4f_branch2a"
  param {
    lr_mult: 1
    decay_mult: 1
  }
  convolution_param {
    num_output: 256
    bias_term: false
    pad: 0
    kernel_size: 1
    stride: 1
  }
}
layer {
  name: "bn4f_branch2a"
  type: "BatchNorm"
  bottom: "res4f_branch2a"
  top: "res4f_branch2a"
  batch_norm_param {
    use_global_stats: true
  }
}
layer {
  name: "scale4f_branch2a"
  type: "Scale"
  bottom: "res4f_branch2a"
  top: "res4f_branch2a"
  scale_param {
    bias_term: true
  }
}
layer {
  name: "res4f_branch2a_relu"
  type: "ReLU"
  bottom: "res4f_branch2a"
  top: "res4f_branch2a"
}
layer {
  name: "res4f_branch2b"
  type: "Convolution"
  bottom: "res4f_branch2a"
  top: "res4f_branch2b"
  param {
    lr_mult: 1
    decay_mult: 1
  }
  convolution_param {
    num_output: 256
    bias_term: false
    pad: 1
    kernel_size: 3
    stride: 1
  }
}
layer {
  name: "bn4f_branch2b"
  type: "BatchNorm"
  bottom: "res4f_branch2b"
  top: "res4f_branch2b"
  batch_norm_param {
    use_global_stats: true
  }
}
layer {
  name: "scale4f_branch2b"
  type: "Scale"
  bottom: "res4f_branch2b"
  top: "res4f_branch2b"
  scale_param {
    bias_term: true
  }
}
layer {
  name: "res4f_branch2b_relu"
  type: "ReLU"
  bottom: "res4f_branch2b"
  top: "res4f_branch2b"
}
layer {
  name: "res4f_branch2c"
  type: "Convolution"
  bottom: "res4f_branch2b"
  top: "res4f_branch2c"
  param {
    lr_mult: 1
    decay_mult: 1
  }
  convolution_param {
    num_output: 1024
    bias_term: false
    pad: 0
    kernel_size: 1
    stride: 1
  }
}
layer {
  name: "bn4f_branch2c"
  type: "BatchNorm"
  bottom: "res4f_branch2c"
  top: "res4f_branch2c"
  batch_norm_param {
    use_global_stats: true
  }
}
layer {
  name: "scale4f_branch2c"
  type: "Scale"
  bottom: "res4f_branch2c"
  top: "res4f_branch2c"
  scale_param {
    bias_term: true
  }
}
layer {
  name: "res4f"
  type: "Eltwise"
  bottom: "res4e"
  bottom: "res4f_branch2c"
  top: "res4f"
}
layer {
  name: "res4f_relu"
  type: "ReLU"
  bottom: "res4f"
  top: "res
I0630 04:25:03.258251  1464 layer_factory.hpp:77] Creating layer input
I0630 04:25:03.258411  1464 db_lmdb.cpp:35] Opened lmdb ../../../data_subsets/subtrain2_lmdb
I0630 04:25:03.258467  1464 net.cpp:84] Creating Layer input
I0630 04:25:03.258493  1464 net.cpp:380] input -> data
I0630 04:25:03.258545  1464 net.cpp:380] input -> label
I0630 04:25:03.258575  1464 data_transformer.cpp:25] Loading mean file from: ../../../data_subsets/subtrain2_mean.binaryproto
I0630 04:25:03.273439  1464 data_layer.cpp:45] output data size: 8,3,224,224
I0630 04:25:03.286648  1464 net.cpp:122] Setting up input
I0630 04:25:03.286700  1464 net.cpp:129] Top shape: 8 3 224 224 (1204224)
I0630 04:25:03.286710  1464 net.cpp:129] Top shape: 8 (8)
I0630 04:25:03.286717  1464 net.cpp:137] Memory required for data: 4816928
I0630 04:25:03.286738  1464 layer_factory.hpp:77] Creating layer label_input_1_split
I0630 04:25:03.286774  1464 net.cpp:84] Creating Layer label_input_1_split
I0630 04:25:03.286798  1464 net.cpp:406] label_input_1_split <- label
I0630 04:25:03.286833  1464 net.cpp:380] label_input_1_split -> label_input_1_split_0
I0630 04:25:03.286866  1464 net.cpp:380] label_input_1_split -> label_input_1_split_1
I0630 04:25:03.286891  1464 net.cpp:380] label_input_1_split -> label_input_1_split_2
I0630 04:25:03.286912  1464 net.cpp:380] label_input_1_split -> label_input_1_split_3
I0630 04:25:03.287003  1464 net.cpp:122] Setting up label_input_1_split
I0630 04:25:03.287020  1464 net.cpp:129] Top shape: 8 (8)
I0630 04:25:03.287025  1464 net.cpp:129] Top shape: 8 (8)
I0630 04:25:03.287034  1464 net.cpp:129] Top shape: 8 (8)
I0630 04:25:03.287044  1464 net.cpp:129] Top shape: 8 (8)
I0630 04:25:03.287050  1464 net.cpp:137] Memory required for data: 4817056
I0630 04:25:03.287067  1464 layer_factory.hpp:77] Creating layer conv1
I0630 04:25:03.287111  1464 net.cpp:84] Creating Layer conv1
I0630 04:25:03.287135  1464 net.cpp:406] conv1 <- data
I0630 04:25:03.287151  1464 net.cpp:380] conv1 -> conv1
I0630 04:25:03.476781  1464 net.cpp:122] Setting up conv1
I0630 04:25:03.476846  1464 net.cpp:129] Top shape: 8 64 112 112 (6422528)
I0630 04:25:03.476852  1464 net.cpp:137] Memory required for data: 30507168
I0630 04:25:03.476886  1464 layer_factory.hpp:77] Creating layer bn_conv1
I0630 04:25:03.476917  1464 net.cpp:84] Creating Layer bn_conv1
I0630 04:25:03.476938  1464 net.cpp:406] bn_conv1 <- conv1
I0630 04:25:03.476953  1464 net.cpp:367] bn_conv1 -> conv1 (in-place)
I0630 04:25:03.477211  1464 net.cpp:122] Setting up bn_conv1
I0630 04:25:03.477231  1464 net.cpp:129] Top shape: 8 64 112 112 (6422528)
I0630 04:25:03.477273  1464 net.cpp:137] Memory required for data: 56197280
I0630 04:25:03.477301  1464 layer_factory.hpp:77] Creating layer scale_conv1
I0630 04:25:03.477334  1464 net.cpp:84] Creating Layer scale_conv1
I0630 04:25:03.477350  1464 net.cpp:406] scale_conv1 <- conv1
I0630 04:25:03.477365  1464 net.cpp:367] scale_conv1 -> conv1 (in-place)
I0630 04:25:03.477459  1464 layer_factory.hpp:77] Creating layer scale_conv1
I0630 04:25:03.477629  1464 net.cpp:122] Setting up scale_conv1
I0630 04:25:03.477648  1464 net.cpp:129] Top shape: 8 64 112 112 (6422528)
I0630 04:25:03.477655  1464 net.cpp:137] Memory required for data: 81887392
I0630 04:25:03.477669  1464 layer_factory.hpp:77] Creating layer conv1_relu
I0630 04:25:03.477697  1464 net.cpp:84] Creating Layer conv1_relu
I0630 04:25:03.477715  1464 net.cpp:406] conv1_relu <- conv1
I0630 04:25:03.477728  1464 net.cpp:367] conv1_relu -> conv1 (in-place)
I0630 04:25:03.477901  1464 net.cpp:122] Setting up conv1_relu
I0630 04:25:03.477931  1464 net.cpp:129] Top shape: 8 64 112 112 (6422528)
I0630 04:25:03.477936  1464 net.cpp:137] Memory required for data: 107577504
I0630 04:25:03.477941  1464 layer_factory.hpp:77] Creating layer pool1
I0630 04:25:03.477965  1464 net.cpp:84] Creating Layer pool1
I0630 04:25:03.477984  1464 net.cpp:406] pool1 <- conv1
I0630 04:25:03.477999  1464 net.cpp:380] pool1 -> pool1
I0630 04:25:03.478080  1464 net.cpp:122] Setting up pool1
I0630 04:25:03.478096  1464 net.cpp:129] Top shape: 8 64 56 56 (1605632)
I0630 04:25:03.478101  1464 net.cpp:137] Memory required for data: 114000032
I0630 04:25:03.478106  1464 layer_factory.hpp:77] Creating layer pool1_pool1_0_split
I0630 04:25:03.478118  1464 net.cpp:84] Creating Layer pool1_pool1_0_split
I0630 04:25:03.478127  1464 net.cpp:406] pool1_pool1_0_split <- pool1
I0630 04:25:03.478142  1464 net.cpp:380] pool1_pool1_0_split -> pool1_pool1_0_split_0
I0630 04:25:03.478168  1464 net.cpp:380] pool1_pool1_0_split -> pool1_pool1_0_split_1
I0630 04:25:03.478232  1464 net.cpp:122] Setting up pool1_pool1_0_split
I0630 04:25:03.478250  1464 net.cpp:129] Top shape: 8 64 56 56 (1605632)
I0630 04:25:03.478255  1464 net.cpp:129] Top shape: 8 64 56 56 (1605632)
I0630 04:25:03.478260  1464 net.cpp:137] Memory required for data: 126845088
I0630 04:25:03.478268  1464 layer_factory.hpp:77] Creating layer res2a_branch1
I0630 04:25:03.478301  1464 net.cpp:84] Creating Layer res2a_branch1
I0630 04:25:03.478318  1464 net.cpp:406] res2a_branch1 <- pool1_pool1_0_split_0
I0630 04:25:03.478328  1464 net.cpp:380] res2a_branch1 -> res2a_branch1
I0630 04:25:03.479338  1464 net.cpp:122] Setting up res2a_branch1
I0630 04:25:03.479362  1464 net.cpp:129] Top shape: 8 256 56 56 (6422528)
I0630 04:25:03.479365  1464 net.cpp:137] Memory required for data: 152535200
I0630 04:25:03.479375  1464 layer_factory.hpp:77] Creating layer bn2a_branch1
I0630 04:25:03.479389  1464 net.cpp:84] Creating Layer bn2a_branch1
I0630 04:25:03.479406  1464 net.cpp:406] bn2a_branch1 <- res2a_branch1
I0630 04:25:03.479423  1464 net.cpp:367] bn2a_branch1 -> res2a_branch1 (in-place)
I0630 04:25:03.480295  1464 net.cpp:122] Setting up bn2a_branch1
I0630 04:25:03.480314  1464 net.cpp:129] Top shape: 8 256 56 56 (6422528)
I0630 04:25:03.480319  1464 net.cpp:137] Memory required for data: 178225312
I0630 04:25:03.480336  1464 layer_factory.hpp:77] Creating layer scale2a_branch1
I0630 04:25:03.480363  1464 net.cpp:84] Creating Layer scale2a_branch1
I0630 04:25:03.480381  1464 net.cpp:406] scale2a_branch1 <- res2a_branch1
I0630 04:25:03.480394  1464 net.cpp:367] scale2a_branch1 -> res2a_branch1 (in-place)
I0630 04:25:03.480466  1464 layer_factory.hpp:77] Creating layer scale2a_branch1
I0630 04:25:03.480618  1464 net.cpp:122] Setting up scale2a_branch1
I0630 04:25:03.480634  1464 net.cpp:129] Top shape: 8 256 56 56 (6422528)
I0630 04:25:03.480638  1464 net.cpp:137] Memory required for data: 203915424
I0630 04:25:03.480649  1464 layer_factory.hpp:77] Creating layer res2a_branch2a
I0630 04:25:03.480672  1464 net.cpp:84] Creating Layer res2a_branch2a
I0630 04:25:03.480707  1464 net.cpp:406] res2a_branch2a <- pool1_pool1_0_split_1
I0630 04:25:03.480720  1464 net.cpp:380] res2a_branch2a -> res2a_branch2a
I0630 04:25:03.481595  1464 net.cpp:122] Setting up res2a_branch2a
I0630 04:25:03.481617  1464 net.cpp:129] Top shape: 8 64 56 56 (1605632)
I0630 04:25:03.481623  1464 net.cpp:137] Memory required for data: 210337952
I0630 04:25:03.481634  1464 layer_factory.hpp:77] Creating layer bn2a_branch2a
I0630 04:25:03.481647  1464 net.cpp:84] Creating Layer bn2a_branch2a
I0630 04:25:03.481664  1464 net.cpp:406] bn2a_branch2a <- res2a_branch2a
I0630 04:25:03.481678  1464 net.cpp:367] bn2a_branch2a -> res2a_branch2a (in-place)
I0630 04:25:03.481935  1464 net.cpp:122] Setting up bn2a_branch2a
I0630 04:25:03.481951  1464 net.cpp:129] Top shape: 8 64 56 56 (1605632)
I0630 04:25:03.481956  1464 net.cpp:137] Memory required for data: 216760480
I0630 04:25:03.481973  1464 layer_factory.hpp:77] Creating layer scale2a_branch2a
I0630 04:25:03.481995  1464 net.cpp:84] Creating Layer scale2a_branch2a
I0630 04:25:03.482013  1464 net.cpp:406] scale2a_branch2a <- res2a_branch2a
I0630 04:25:03.482030  1464 net.cpp:367] scale2a_branch2a -> res2a_branch2a (in-place)
I0630 04:25:03.482106  1464 layer_factory.hpp:77] Creating layer scale2a_branch2a
I0630 04:25:03.482266  1464 net.cpp:122] Setting up scale2a_branch2a
I0630 04:25:03.482283  1464 net.cpp:129] Top shape: 8 64 56 56 (1605632)
I0630 04:25:03.482287  1464 net.cpp:137] Memory required for data: 223183008
I0630 04:25:03.482298  1464 layer_factory.hpp:77] Creating layer res2a_branch2a_relu
I0630 04:25:03.482311  1464 net.cpp:84] Creating Layer res2a_branch2a_relu
I0630 04:25:03.482327  1464 net.cpp:406] res2a_branch2a_relu <- res2a_branch2a
I0630 04:25:03.482344  1464 net.cpp:367] res2a_branch2a_relu -> res2a_branch2a (in-place)
I0630 04:25:03.482627  1464 net.cpp:122] Setting up res2a_branch2a_relu
I0630 04:25:03.482646  1464 net.cpp:129] Top shape: 8 64 56 56 (1605632)
I0630 04:25:03.482651  1464 net.cpp:137] Memory required for data: 229605536
I0630 04:25:03.482657  1464 layer_factory.hpp:77] Creating layer res2a_branch2b
I0630 04:25:03.482676  1464 net.cpp:84] Creating Layer res2a_branch2b
I0630 04:25:03.482694  1464 net.cpp:406] res2a_branch2b <- res2a_branch2a
I0630 04:25:03.482713  1464 net.cpp:380] res2a_branch2b -> res2a_branch2b
I0630 04:25:03.484271  1464 net.cpp:122] Setting up res2a_branch2b
I0630 04:25:03.484292  1464 net.cpp:129] Top shape: 8 64 56 56 (1605632)
I0630 04:25:03.484295  1464 net.cpp:137] Memory required for data: 236028064
I0630 04:25:03.484307  1464 layer_factory.hpp:77] Creating layer bn2a_branch2b
I0630 04:25:03.484326  1464 net.cpp:84] Creating Layer bn2a_branch2b
I0630 04:25:03.484345  1464 net.cpp:406] bn2a_branch2b <- res2a_branch2b
I0630 04:25:03.484359  1464 net.cpp:367] bn2a_branch2b -> res2a_branch2b (in-place)
I0630 04:25:03.484587  1464 net.cpp:122] Setting up bn2a_branch2b
I0630 04:25:03.484607  1464 net.cpp:129] Top shape: 8 64 56 56 (1605632)
I0630 04:25:03.484612  1464 net.cpp:137] Memory required for data: 242450592
I0630 04:25:03.484628  1464 layer_factory.hpp:77] Creating layer scale2a_branch2b
I0630 04:25:03.484655  1464 net.cpp:84] Creating Layer scale2a_branch2b
I0630 04:25:03.484673  1464 net.cpp:406] scale2a_branch2b <- res2a_branch2b
I0630 04:25:03.484686  1464 net.cpp:367] scale2a_branch2b -> res2a_branch2b (in-place)
I0630 04:25:03.484755  1464 layer_factory.hpp:77] Creating layer scale2a_branch2b
I0630 04:25:03.484916  1464 net.cpp:122] Setting up scale2a_branch2b
I0630 04:25:03.484935  1464 net.cpp:129] Top shape: 8 64 56 56 (1605632)
I0630 04:25:03.484938  1464 net.cpp:137] Memory required for data: 248873120
I0630 04:25:03.484949  1464 layer_factory.hpp:77] Creating layer res2a_branch2b_relu
I0630 04:25:03.484966  1464 net.cpp:84] Creating Layer res2a_branch2b_relu
I0630 04:25:03.484984  1464 net.cpp:406] res2a_branch2b_relu <- res2a_branch2b
I0630 04:25:03.484997  1464 net.cpp:367] res2a_branch2b_relu -> res2a_branch2b (in-place)
I0630 04:25:03.485273  1464 net.cpp:122] Setting up res2a_branch2b_relu
I0630 04:25:03.485306  1464 net.cpp:129] Top shape: 8 64 56 56 (1605632)
I0630 04:25:03.485311  1464 net.cpp:137] Memory required for data: 255295648
I0630 04:25:03.485316  1464 layer_factory.hpp:77] Creating layer res2a_branch2c
I0630 04:25:03.485338  1464 net.cpp:84] Creating Layer res2a_branch2c
I0630 04:25:03.485357  1464 net.cpp:406] res2a_branch2c <- res2a_branch2b
I0630 04:25:03.485376  1464 net.cpp:380] res2a_branch2c -> res2a_branch2c
I0630 04:25:03.486485  1464 net.cpp:122] Setting up res2a_branch2c
I0630 04:25:03.486506  1464 net.cpp:129] Top shape: 8 256 56 56 (6422528)
I0630 04:25:03.486511  1464 net.cpp:137] Memory required for data: 280985760
I0630 04:25:03.486521  1464 layer_factory.hpp:77] Creating layer bn2a_branch2c
I0630 04:25:03.486546  1464 net.cpp:84] Creating Layer bn2a_branch2c
I0630 04:25:03.486564  1464 net.cpp:406] bn2a_branch2c <- res2a_branch2c
I0630 04:25:03.486578  1464 net.cpp:367] bn2a_branch2c -> res2a_branch2c (in-place)
I0630 04:25:03.486789  1464 net.cpp:122] Setting up bn2a_branch2c
I0630 04:25:03.486807  1464 net.cpp:129] Top shape: 8 256 56 56 (6422528)
I0630 04:25:03.486811  1464 net.cpp:137] Memory required for data: 306675872
I0630 04:25:03.486825  1464 layer_factory.hpp:77] Creating layer scale2a_branch2c
I0630 04:25:03.486845  1464 net.cpp:84] Creating Layer scale2a_branch2c
I0630 04:25:03.486863  1464 net.cpp:406] scale2a_branch2c <- res2a_branch2c
I0630 04:25:03.486886  1464 net.cpp:367] scale2a_branch2c -> res2a_branch2c (in-place)
I0630 04:25:03.486956  1464 layer_factory.hpp:77] Creating layer scale2a_branch2c
I0630 04:25:03.487121  1464 net.cpp:122] Setting up scale2a_branch2c
I0630 04:25:03.487138  1464 net.cpp:129] Top shape: 8 256 56 56 (6422528)
I0630 04:25:03.487143  1464 net.cpp:137] Memory required for data: 332365984
I0630 04:25:03.487154  1464 layer_factory.hpp:77] Creating layer res2a
I0630 04:25:03.487172  1464 net.cpp:84] Creating Layer res2a
I0630 04:25:03.487191  1464 net.cpp:406] res2a <- res2a_branch1
I0630 04:25:03.487202  1464 net.cpp:406] res2a <- res2a_branch2c
I0630 04:25:03.487217  1464 net.cpp:380] res2a -> res2a
I0630 04:25:03.487278  1464 net.cpp:122] Setting up res2a
I0630 04:25:03.487300  1464 net.cpp:129] Top shape: 8 256 56 56 (6422528)
I0630 04:25:03.487308  1464 net.cpp:137] Memory required for data: 358056096
I0630 04:25:03.487314  1464 layer_factory.hpp:77] Creating layer res2a_relu
I0630 04:25:03.487325  1464 net.cpp:84] Creating Layer res2a_relu
I0630 04:25:03.487342  1464 net.cpp:406] res2a_relu <- res2a
I0630 04:25:03.487355  1464 net.cpp:367] res2a_relu -> res2a (in-place)
I0630 04:25:03.487529  1464 net.cpp:122] Setting up res2a_relu
I0630 04:25:03.487547  1464 net.cpp:129] Top shape: 8 256 56 56 (6422528)
I0630 04:25:03.487551  1464 net.cpp:137] Memory required for data: 383746208
I0630 04:25:03.487557  1464 layer_factory.hpp:77] Creating layer res2a_res2a_relu_0_split
I0630 04:25:03.487568  1464 net.cpp:84] Creating Layer res2a_res2a_relu_0_split
I0630 04:25:03.487576  1464 net.cpp:406] res2a_res2a_relu_0_split <- res2a
I0630 04:25:03.487591  1464 net.cpp:380] res2a_res2a_relu_0_split -> res2a_res2a_relu_0_split_0
I0630 04:25:03.487615  1464 net.cpp:380] res2a_res2a_relu_0_split -> res2a_res2a_relu_0_split_1
I0630 04:25:03.487682  1464 net.cpp:122] Setting up res2a_res2a_relu_0_split
I0630 04:25:03.487699  1464 net.cpp:129] Top shape: 8 256 56 56 (6422528)
I0630 04:25:03.487710  1464 net.cpp:129] Top shape: 8 256 56 56 (6422528)
I0630 04:25:03.487718  1464 net.cpp:137] Memory required for data: 435126432
I0630 04:25:03.487725  1464 layer_factory.hpp:77] Creating layer res2b_branch2a
I0630 04:25:03.487746  1464 net.cpp:84] Creating Layer res2b_branch2a
I0630 04:25:03.487766  1464 net.cpp:406] res2b_branch2a <- res2a_res2a_relu_0_split_0
I0630 04:25:03.487779  1464 net.cpp:380] res2b_branch2a -> res2b_branch2a
I0630 04:25:03.488665  1464 net.cpp:122] Setting up res2b_branch2a
I0630 04:25:03.488685  1464 net.cpp:129] Top shape: 8 64 56 56 (1605632)
I0630 04:25:03.488689  1464 net.cpp:137] Memory required for data: 441548960
I0630 04:25:03.488723  1464 layer_factory.hpp:77] Creating layer bn2b_branch2a
I0630 04:25:03.488746  1464 net.cpp:84] Creating Layer bn2b_branch2a
I0630 04:25:03.488759  1464 net.cpp:406] bn2b_branch2a <- res2b_branch2a
I0630 04:25:03.488776  1464 net.cpp:367] bn2b_branch2a -> res2b_branch2a (in-place)
I0630 04:25:03.489015  1464 net.cpp:122] Setting up bn2b_branch2a
I0630 04:25:03.489032  1464 net.cpp:129] Top shape: 8 64 56 56 (1605632)
I0630 04:25:03.489037  1464 net.cpp:137] Memory required for data: 447971488
I0630 04:25:03.489063  1464 layer_factory.hpp:77] Creating layer scale2b_branch2a
I0630 04:25:03.489085  1464 net.cpp:84] Creating Layer scale2b_branch2a
I0630 04:25:03.489096  1464 net.cpp:406] scale2b_branch2a <- res2b_branch2a
I0630 04:25:03.489107  1464 net.cpp:367] scale2b_branch2a -> res2b_branch2a (in-place)
I0630 04:25:03.489192  1464 layer_factory.hpp:77] Creating layer scale2b_branch2a
I0630 04:25:03.489356  1464 net.cpp:122] Setting up scale2b_branch2a
I0630 04:25:03.489373  1464 net.cpp:129] Top shape: 8 64 56 56 (1605632)
I0630 04:25:03.489378  1464 net.cpp:137] Memory required for data: 454394016
I0630 04:25:03.489389  1464 layer_factory.hpp:77] Creating layer res2b_branch2a_relu
I0630 04:25:03.489403  1464 net.cpp:84] Creating Layer res2b_branch2a_relu
I0630 04:25:03.489418  1464 net.cpp:406] res2b_branch2a_relu <- res2b_branch2a
I0630 04:25:03.489436  1464 net.cpp:367] res2b_branch2a_relu -> res2b_branch2a (in-place)
I0630 04:25:03.489718  1464 net.cpp:122] Setting up res2b_branch2a_relu
I0630 04:25:03.489737  1464 net.cpp:129] Top shape: 8 64 56 56 (1605632)
I0630 04:25:03.489742  1464 net.cpp:137] Memory required for data: 460816544
I0630 04:25:03.489748  1464 layer_factory.hpp:77] Creating layer res2b_branch2b
I0630 04:25:03.489768  1464 net.cpp:84] Creating Layer res2b_branch2b
I0630 04:25:03.489785  1464 net.cpp:406] res2b_branch2b <- res2b_branch2a
I0630 04:25:03.489805  1464 net.cpp:380] res2b_branch2b -> res2b_branch2b
I0630 04:25:03.490634  1464 net.cpp:122] Setting up res2b_branch2b
I0630 04:25:03.490658  1464 net.cpp:129] Top shape: 8 64 56 56 (1605632)
I0630 04:25:03.490664  1464 net.cpp:137] Memory required for data: 467239072
I0630 04:25:03.490674  1464 layer_factory.hpp:77] Creating layer bn2b_branch2b
I0630 04:25:03.490691  1464 net.cpp:84] Creating Layer bn2b_branch2b
I0630 04:25:03.490710  1464 net.cpp:406] bn2b_branch2b <- res2b_branch2b
I0630 04:25:03.490722  1464 net.cpp:367] bn2b_branch2b -> res2b_branch2b (in-place)
I0630 04:25:03.490970  1464 net.cpp:122] Setting up bn2b_branch2b
I0630 04:25:03.490988  1464 net.cpp:129] Top shape: 8 64 56 56 (1605632)
I0630 04:25:03.490993  1464 net.cpp:137] Memory required for data: 473661600
I0630 04:25:03.491006  1464 layer_factory.hpp:77] Creating layer scale2b_branch2b
I0630 04:25:03.491022  1464 net.cpp:84] Creating Layer scale2b_branch2b
I0630 04:25:03.491040  1464 net.cpp:406] scale2b_branch2b <- res2b_branch2b
I0630 04:25:03.491053  1464 net.cpp:367] scale2b_branch2b -> res2b_branch2b (in-place)
I0630 04:25:03.491127  1464 layer_factory.hpp:77] Creating layer scale2b_branch2b
I0630 04:25:03.491288  1464 net.cpp:122] Setting up scale2b_branch2b
I0630 04:25:03.491307  1464 net.cpp:129] Top shape: 8 64 56 56 (1605632)
I0630 04:25:03.491310  1464 net.cpp:137] Memory required for data: 480084128
I0630 04:25:03.491322  1464 layer_factory.hpp:77] Creating layer res2b_branch2b_relu
I0630 04:25:03.491343  1464 net.cpp:84] Creating Layer res2b_branch2b_relu
I0630 04:25:03.491361  1464 net.cpp:406] res2b_branch2b_relu <- res2b_branch2b
I0630 04:25:03.491384  1464 net.cpp:367] res2b_branch2b_relu -> res2b_branch2b (in-place)
I0630 04:25:03.491670  1464 net.cpp:122] Setting up res2b_branch2b_relu
I0630 04:25:03.491693  1464 net.cpp:129] Top shape: 8 64 56 56 (1605632)
I0630 04:25:03.491698  1464 net.cpp:137] Memory required for data: 486506656
I0630 04:25:03.491705  1464 layer_factory.hpp:77] Creating layer res2b_branch2c
I0630 04:25:03.491721  1464 net.cpp:84] Creating Layer res2b_branch2c
I0630 04:25:03.491739  1464 net.cpp:406] res2b_branch2c <- res2b_branch2b
I0630 04:25:03.491786  1464 net.cpp:380] res2b_branch2c -> res2b_branch2c
I0630 04:25:03.492846  1464 net.cpp:122] Setting up res2b_branch2c
I0630 04:25:03.492866  1464 net.cpp:129] Top shape: 8 256 56 56 (6422528)
I0630 04:25:03.492871  1464 net.cpp:137] Memory required for data: 512196768
I0630 04:25:03.492880  1464 layer_factory.hpp:77] Creating layer bn2b_branch2c
I0630 04:25:03.492902  1464 net.cpp:84] Creating Layer bn2b_branch2c
I0630 04:25:03.492920  1464 net.cpp:406] bn2b_branch2c <- res2b_branch2c
I0630 04:25:03.492934  1464 net.cpp:367] bn2b_branch2c -> res2b_branch2c (in-place)
I0630 04:25:03.493173  1464 net.cpp:122] Setting up bn2b_branch2c
I0630 04:25:03.493191  1464 net.cpp:129] Top shape: 8 256 56 56 (6422528)
I0630 04:25:03.493196  1464 net.cpp:137] Memory required for data: 537886880
I0630 04:25:03.493209  1464 layer_factory.hpp:77] Creating layer scale2b_branch2c
I0630 04:25:03.493226  1464 net.cpp:84] Creating Layer scale2b_branch2c
I0630 04:25:03.493242  1464 net.cpp:406] scale2b_branch2c <- res2b_branch2c
I0630 04:25:03.493255  1464 net.cpp:367] scale2b_branch2c -> res2b_branch2c (in-place)
I0630 04:25:03.493326  1464 layer_factory.hpp:77] Creating layer scale2b_branch2c
I0630 04:25:03.493489  1464 net.cpp:122] Setting up scale2b_branch2c
I0630 04:25:03.493506  1464 net.cpp:129] Top shape: 8 256 56 56 (6422528)
I0630 04:25:03.493510  1464 net.cpp:137] Memory required for data: 563576992
I0630 04:25:03.493520  1464 layer_factory.hpp:77] Creating layer res2b
I0630 04:25:03.493537  1464 net.cpp:84] Creating Layer res2b
I0630 04:25:03.493556  1464 net.cpp:406] res2b <- res2a_res2a_relu_0_split_1
I0630 04:25:03.493567  1464 net.cpp:406] res2b <- res2b_branch2c
I0630 04:25:03.493579  1464 net.cpp:380] res2b -> res2b
I0630 04:25:03.493635  1464 net.cpp:122] Setting up res2b
I0630 04:25:03.493657  1464 net.cpp:129] Top shape: 8 256 56 56 (6422528)
I0630 04:25:03.493662  1464 net.cpp:137] Memory required for data: 589267104
I0630 04:25:03.493669  1464 layer_factory.hpp:77] Creating layer res2b_relu
I0630 04:25:03.493680  1464 net.cpp:84] Creating Layer res2b_relu
I0630 04:25:03.493691  1464 net.cpp:406] res2b_relu <- res2b
I0630 04:25:03.493705  1464 net.cpp:367] res2b_relu -> res2b (in-place)
I0630 04:25:03.494019  1464 net.cpp:122] Setting up res2b_relu
I0630 04:25:03.494037  1464 net.cpp:129] Top shape: 8 256 56 56 (6422528)
I0630 04:25:03.494041  1464 net.cpp:137] Memory required for data: 614957216
I0630 04:25:03.494048  1464 layer_factory.hpp:77] Creating layer res2b_res2b_relu_0_split
I0630 04:25:03.494060  1464 net.cpp:84] Creating Layer res2b_res2b_relu_0_split
I0630 04:25:03.494067  1464 net.cpp:406] res2b_res2b_relu_0_split <- res2b
I0630 04:25:03.494096  1464 net.cpp:380] res2b_res2b_relu_0_split -> res2b_res2b_relu_0_split_0
I0630 04:25:03.494120  1464 net.cpp:380] res2b_res2b_relu_0_split -> res2b_res2b_relu_0_split_1
I0630 04:25:03.494190  1464 net.cpp:122] Setting up res2b_res2b_relu_0_split
I0630 04:25:03.494207  1464 net.cpp:129] Top shape: 8 256 56 56 (6422528)
I0630 04:25:03.494212  1464 net.cpp:129] Top shape: 8 256 56 56 (6422528)
I0630 04:25:03.494218  1464 net.cpp:137] Memory required for data: 666337440
I0630 04:25:03.494225  1464 layer_factory.hpp:77] Creating layer res2c_branch2a
I0630 04:25:03.494249  1464 net.cpp:84] Creating Layer res2c_branch2a
I0630 04:25:03.494277  1464 net.cpp:406] res2c_branch2a <- res2b_res2b_relu_0_split_0
I0630 04:25:03.494292  1464 net.cpp:380] res2c_branch2a -> res2c_branch2a
I0630 04:25:03.495201  1464 net.cpp:122] Setting up res2c_branch2a
I0630 04:25:03.495221  1464 net.cpp:129] Top shape: 8 64 56 56 (1605632)
I0630 04:25:03.495225  1464 net.cpp:137] Memory required for data: 672759968
I0630 04:25:03.495235  1464 layer_factory.hpp:77] Creating layer bn2c_branch2a
I0630 04:25:03.495249  1464 net.cpp:84] Creating Layer bn2c_branch2a
I0630 04:25:03.495265  1464 net.cpp:406] bn2c_branch2a <- res2c_branch2a
I0630 04:25:03.495280  1464 net.cpp:367] bn2c_branch2a -> res2c_branch2a (in-place)
I0630 04:25:03.495527  1464 net.cpp:122] Setting up bn2c_branch2a
I0630 04:25:03.495561  1464 net.cpp:129] Top shape: 8 64 56 56 (1605632)
I0630 04:25:03.495566  1464 net.cpp:137] Memory required for data: 679182496
I0630 04:25:03.495580  1464 layer_factory.hpp:77] Creating layer scale2c_branch2a
I0630 04:25:03.495600  1464 net.cpp:84] Creating Layer scale2c_branch2a
I0630 04:25:03.495618  1464 net.cpp:406] scale2c_branch2a <- res2c_branch2a
I0630 04:25:03.495636  1464 net.cpp:367] scale2c_branch2a -> res2c_branch2a (in-place)
I0630 04:25:03.495721  1464 layer_factory.hpp:77] Creating layer scale2c_branch2a
I0630 04:25:03.495892  1464 net.cpp:122] Setting up scale2c_branch2a
I0630 04:25:03.495908  1464 net.cpp:129] Top shape: 8 64 56 56 (1605632)
I0630 04:25:03.495913  1464 net.cpp:137] Memory required for data: 685605024
I0630 04:25:03.495923  1464 layer_factory.hpp:77] Creating layer res2c_branch2a_relu
I0630 04:25:03.495936  1464 net.cpp:84] Creating Layer res2c_branch2a_relu
I0630 04:25:03.495954  1464 net.cpp:406] res2c_branch2a_relu <- res2c_branch2a
I0630 04:25:03.495970  1464 net.cpp:367] res2c_branch2a_relu -> res2c_branch2a (in-place)
I0630 04:25:03.496256  1464 net.cpp:122] Setting up res2c_branch2a_relu
I0630 04:25:03.496279  1464 net.cpp:129] Top shape: 8 64 56 56 (1605632)
I0630 04:25:03.496284  1464 net.cpp:137] Memory required for data: 692027552
I0630 04:25:03.496292  1464 layer_factory.hpp:77] Creating layer res2c_branch2b
I0630 04:25:03.496307  1464 net.cpp:84] Creating Layer res2c_branch2b
I0630 04:25:03.496325  1464 net.cpp:406] res2c_branch2b <- res2c_branch2a
I0630 04:25:03.496345  1464 net.cpp:380] res2c_branch2b -> res2c_branch2b
I0630 04:25:03.497192  1464 net.cpp:122] Setting up res2c_branch2b
I0630 04:25:03.497212  1464 net.cpp:129] Top shape: 8 64 56 56 (1605632)
I0630 04:25:03.497217  1464 net.cpp:137] Memory required for data: 698450080
I0630 04:25:03.497236  1464 layer_factory.hpp:77] Creating layer bn2c_branch2b
I0630 04:25:03.497261  1464 net.cpp:84] Creating Layer bn2c_branch2b
I0630 04:25:03.497278  1464 net.cpp:406] bn2c_branch2b <- res2c_branch2b
I0630 04:25:03.497298  1464 net.cpp:367] bn2c_branch2b -> res2c_branch2b (in-place)
I0630 04:25:03.497540  1464 net.cpp:122] Setting up bn2c_branch2b
I0630 04:25:03.497558  1464 net.cpp:129] Top shape: 8 64 56 56 (1605632)
I0630 04:25:03.497562  1464 net.cpp:137] Memory required for data: 704872608
I0630 04:25:03.497581  1464 layer_factory.hpp:77] Creating layer scale2c_branch2b
I0630 04:25:03.497602  1464 net.cpp:84] Creating Layer scale2c_branch2b
I0630 04:25:03.497614  1464 net.cpp:406] scale2c_branch2b <- res2c_branch2b
I0630 04:25:03.497627  1464 net.cpp:367] scale2c_branch2b -> res2c_branch2b (in-place)
I0630 04:25:03.497710  1464 layer_factory.hpp:77] Creating layer scale2c_branch2b
I0630 04:25:03.497879  1464 net.cpp:122] Setting up scale2c_branch2b
I0630 04:25:03.497896  1464 net.cpp:129] Top shape: 8 64 56 56 (1605632)
I0630 04:25:03.497900  1464 net.cpp:137] Memory required for data: 711295136
I0630 04:25:03.497926  1464 layer_factory.hpp:77] Creating layer res2c_branch2b_relu
I0630 04:25:03.497949  1464 net.cpp:84] Creating Layer res2c_branch2b_relu
I0630 04:25:03.497959  1464 net.cpp:406] res2c_branch2b_relu <- res2c_branch2b
I0630 04:25:03.497974  1464 net.cpp:367] res2c_branch2b_relu -> res2c_branch2b (in-place)
I0630 04:25:03.498263  1464 net.cpp:122] Setting up res2c_branch2b_relu
I0630 04:25:03.498284  1464 net.cpp:129] Top shape: 8 64 56 56 (1605632)
I0630 04:25:03.498291  1464 net.cpp:137] Memory required for data: 717717664
I0630 04:25:03.498298  1464 layer_factory.hpp:77] Creating layer res2c_branch2c
I0630 04:25:03.498317  1464 net.cpp:84] Creating Layer res2c_branch2c
I0630 04:25:03.498337  1464 net.cpp:406] res2c_branch2c <- res2c_branch2b
I0630 04:25:03.498356  1464 net.cpp:380] res2c_branch2c -> res2c_branch2c
I0630 04:25:03.499395  1464 net.cpp:122] Setting up res2c_branch2c
I0630 04:25:03.499415  1464 net.cpp:129] Top shape: 8 256 56 56 (6422528)
I0630 04:25:03.499420  1464 net.cpp:137] Memory required for data: 743407776
I0630 04:25:03.499456  1464 layer_factory.hpp:77] Creating layer bn2c_branch2c
I0630 04:25:03.499476  1464 net.cpp:84] Creating Layer bn2c_branch2c
I0630 04:25:03.499493  1464 net.cpp:406] bn2c_branch2c <- res2c_branch2c
I0630 04:25:03.499505  1464 net.cpp:367] bn2c_branch2c -> res2c_branch2c (in-place)
I0630 04:25:03.499733  1464 net.cpp:122] Setting up bn2c_branch2c
I0630 04:25:03.499752  1464 net.cpp:129] Top shape: 8 256 56 56 (6422528)
I0630 04:25:03.499758  1464 net.cpp:137] Memory required for data: 769097888
I0630 04:25:03.499784  1464 layer_factory.hpp:77] Creating layer scale2c_branch2c
I0630 04:25:03.499812  1464 net.cpp:84] Creating Layer scale2c_branch2c
I0630 04:25:03.499830  1464 net.cpp:406] scale2c_branch2c <- res2c_branch2c
I0630 04:25:03.499845  1464 net.cpp:367] scale2c_branch2c -> res2c_branch2c (in-place)
I0630 04:25:03.499927  1464 layer_factory.hpp:77] Creating layer scale2c_branch2c
I0630 04:25:03.500090  1464 net.cpp:122] Setting up scale2c_branch2c
I0630 04:25:03.500108  1464 net.cpp:129] Top shape: 8 256 56 56 (6422528)
I0630 04:25:03.500113  1464 net.cpp:137] Memory required for data: 794788000
I0630 04:25:03.500123  1464 layer_factory.hpp:77] Creating layer res2c
I0630 04:25:03.500135  1464 net.cpp:84] Creating Layer res2c
I0630 04:25:03.500151  1464 net.cpp:406] res2c <- res2b_res2b_relu_0_split_1
I0630 04:25:03.500162  1464 net.cpp:406] res2c <- res2c_branch2c
I0630 04:25:03.500178  1464 net.cpp:380] res2c -> res2c
I0630 04:25:03.500232  1464 net.cpp:122] Setting up res2c
I0630 04:25:03.500253  1464 net.cpp:129] Top shape: 8 256 56 56 (6422528)
I0630 04:25:03.500259  1464 net.cpp:137] Memory required for data: 820478112
I0630 04:25:03.500267  1464 layer_factory.hpp:77] Creating layer res2c_relu
I0630 04:25:03.500278  1464 net.cpp:84] Creating Layer res2c_relu
I0630 04:25:03.500296  1464 net.cpp:406] res2c_relu <- res2c
I0630 04:25:03.500308  1464 net.cpp:367] res2c_relu -> res2c (in-place)
I0630 04:25:03.500495  1464 net.cpp:122] Setting up res2c_relu
I0630 04:25:03.500514  1464 net.cpp:129] Top shape: 8 256 56 56 (6422528)
I0630 04:25:03.500517  1464 net.cpp:137] Memory required for data: 846168224
I0630 04:25:03.500524  1464 layer_factory.hpp:77] Creating layer res2c_res2c_relu_0_split
I0630 04:25:03.500535  1464 net.cpp:84] Creating Layer res2c_res2c_relu_0_split
I0630 04:25:03.500543  1464 net.cpp:406] res2c_res2c_relu_0_split <- res2c
I0630 04:25:03.500560  1464 net.cpp:380] res2c_res2c_relu_0_split -> res2c_res2c_relu_0_split_0
I0630 04:25:03.500583  1464 net.cpp:380] res2c_res2c_relu_0_split -> res2c_res2c_relu_0_split_1
I0630 04:25:03.500653  1464 net.cpp:122] Setting up res2c_res2c_relu_0_split
I0630 04:25:03.500670  1464 net.cpp:129] Top shape: 8 256 56 56 (6422528)
I0630 04:25:03.500675  1464 net.cpp:129] Top shape: 8 256 56 56 (6422528)
I0630 04:25:03.500680  1464 net.cpp:137] Memory required for data: 897548448
I0630 04:25:03.500687  1464 layer_factory.hpp:77] Creating layer res3a_branch1
I0630 04:25:03.500710  1464 net.cpp:84] Creating Layer res3a_branch1
I0630 04:25:03.500728  1464 net.cpp:406] res3a_branch1 <- res2c_res2c_relu_0_split_0
I0630 04:25:03.500746  1464 net.cpp:380] res3a_branch1 -> res3a_branch1
I0630 04:25:03.502398  1464 net.cpp:122] Setting up res3a_branch1
I0630 04:25:03.502418  1464 net.cpp:129] Top shape: 8 512 28 28 (3211264)
I0630 04:25:03.502424  1464 net.cpp:137] Memory required for data: 910393504
I0630 04:25:03.502434  1464 layer_factory.hpp:77] Creating layer bn3a_branch1
I0630 04:25:03.502450  1464 net.cpp:84] Creating Layer bn3a_branch1
I0630 04:25:03.502470  1464 net.cpp:406] bn3a_branch1 <- res3a_branch1
I0630 04:25:03.502486  1464 net.cpp:367] bn3a_branch1 -> res3a_branch1 (in-place)
I0630 04:25:03.503213  1464 net.cpp:122] Setting up bn3a_branch1
I0630 04:25:03.503233  1464 net.cpp:129] Top shape: 8 512 28 28 (3211264)
I0630 04:25:03.503237  1464 net.cpp:137] Memory required for data: 923238560
I0630 04:25:03.503252  1464 layer_factory.hpp:77] Creating layer scale3a_branch1
I0630 04:25:03.503276  1464 net.cpp:84] Creating Layer scale3a_branch1
I0630 04:25:03.503310  1464 net.cpp:406] scale3a_branch1 <- res3a_branch1
I0630 04:25:03.503322  1464 net.cpp:367] scale3a_branch1 -> res3a_branch1 (in-place)
I0630 04:25:03.503392  1464 layer_factory.hpp:77] Creating layer scale3a_branch1
I0630 04:25:03.503554  1464 net.cpp:122] Setting up scale3a_branch1
I0630 04:25:03.503571  1464 net.cpp:129] Top shape: 8 512 28 28 (3211264)
I0630 04:25:03.503576  1464 net.cpp:137] Memory required for data: 936083616
I0630 04:25:03.503587  1464 layer_factory.hpp:77] Creating layer res3a_branch2a
I0630 04:25:03.503607  1464 net.cpp:84] Creating Layer res3a_branch2a
I0630 04:25:03.503626  1464 net.cpp:406] res3a_branch2a <- res2c_res2c_relu_0_split_1
I0630 04:25:03.503644  1464 net.cpp:380] res3a_branch2a -> res3a_branch2a
I0630 04:25:03.504559  1464 net.cpp:122] Setting up res3a_branch2a
I0630 04:25:03.504580  1464 net.cpp:129] Top shape: 8 128 28 28 (802816)
I0630 04:25:03.504585  1464 net.cpp:137] Memory required for data: 939294880
I0630 04:25:03.504598  1464 layer_factory.hpp:77] Creating layer bn3a_branch2a
I0630 04:25:03.504622  1464 net.cpp:84] Creating Layer bn3a_branch2a
I0630 04:25:03.504642  1464 net.cpp:406] bn3a_branch2a <- res3a_branch2a
I0630 04:25:03.504655  1464 net.cpp:367] bn3a_branch2a -> res3a_branch2a (in-place)
I0630 04:25:03.504878  1464 net.cpp:122] Setting up bn3a_branch2a
I0630 04:25:03.504895  1464 net.cpp:129] Top shape: 8 128 28 28 (802816)
I0630 04:25:03.504899  1464 net.cpp:137] Memory required for data: 942506144
I0630 04:25:03.504914  1464 layer_factory.hpp:77] Creating layer scale3a_branch2a
I0630 04:25:03.504938  1464 net.cpp:84] Creating Layer scale3a_branch2a
I0630 04:25:03.504956  1464 net.cpp:406] scale3a_branch2a <- res3a_branch2a
I0630 04:25:03.504969  1464 net.cpp:367] scale3a_branch2a -> res3a_branch2a (in-place)
I0630 04:25:03.505045  1464 layer_factory.hpp:77] Creating layer scale3a_branch2a
I0630 04:25:03.505211  1464 net.cpp:122] Setting up scale3a_branch2a
I0630 04:25:03.505229  1464 net.cpp:129] Top shape: 8 128 28 28 (802816)
I0630 04:25:03.505234  1464 net.cpp:137] Memory required for data: 945717408
I0630 04:25:03.505244  1464 layer_factory.hpp:77] Creating layer res3a_branch2a_relu
I0630 04:25:03.505259  1464 net.cpp:84] Creating Layer res3a_branch2a_relu
I0630 04:25:03.505277  1464 net.cpp:406] res3a_branch2a_relu <- res3a_branch2a
I0630 04:25:03.505290  1464 net.cpp:367] res3a_branch2a_relu -> res3a_branch2a (in-place)
I0630 04:25:03.505478  1464 net.cpp:122] Setting up res3a_branch2a_relu
I0630 04:25:03.505499  1464 net.cpp:129] Top shape: 8 128 28 28 (802816)
I0630 04:25:03.505504  1464 net.cpp:137] Memory required for data: 948928672
I0630 04:25:03.505511  1464 layer_factory.hpp:77] Creating layer res3a_branch2b
I0630 04:25:03.505527  1464 net.cpp:84] Creating Layer res3a_branch2b
I0630 04:25:03.505544  1464 net.cpp:406] res3a_branch2b <- res3a_branch2a
I0630 04:25:03.505564  1464 net.cpp:380] res3a_branch2b -> res3a_branch2b
I0630 04:25:03.507066  1464 net.cpp:122] Setting up res3a_branch2b
I0630 04:25:03.507086  1464 net.cpp:129] Top shape: 8 128 28 28 (802816)
I0630 04:25:03.507091  1464 net.cpp:137] Memory required for data: 952139936
I0630 04:25:03.507102  1464 layer_factory.hpp:77] Creating layer bn3a_branch2b
I0630 04:25:03.507122  1464 net.cpp:84] Creating Layer bn3a_branch2b
I0630 04:25:03.507140  1464 net.cpp:406] bn3a_branch2b <- res3a_branch2b
I0630 04:25:03.507158  1464 net.cpp:367] bn3a_branch2b -> res3a_branch2b (in-place)
I0630 04:25:03.507398  1464 net.cpp:122] Setting up bn3a_branch2b
I0630 04:25:03.507416  1464 net.cpp:129] Top shape: 8 128 28 28 (802816)
I0630 04:25:03.507421  1464 net.cpp:137] Memory required for data: 955351200
I0630 04:25:03.507433  1464 layer_factory.hpp:77] Creating layer scale3a_branch2b
I0630 04:25:03.507447  1464 net.cpp:84] Creating Layer scale3a_branch2b
I0630 04:25:03.507463  1464 net.cpp:406] scale3a_branch2b <- res3a_branch2b
I0630 04:25:03.507480  1464 net.cpp:367] scale3a_branch2b -> res3a_branch2b (in-place)
I0630 04:25:03.507560  1464 layer_factory.hpp:77] Creating layer scale3a_branch2b
I0630 04:25:03.507738  1464 net.cpp:122] Setting up scale3a_branch2b
I0630 04:25:03.507758  1464 net.cpp:129] Top shape: 8 128 28 28 (802816)
I0630 04:25:03.507762  1464 net.cpp:137] Memory required for data: 958562464
I0630 04:25:03.507773  1464 layer_factory.hpp:77] Creating layer res3a_branch2b_relu
I0630 04:25:03.507786  1464 net.cpp:84] Creating Layer res3a_branch2b_relu
I0630 04:25:03.507802  1464 net.cpp:406] res3a_branch2b_relu <- res3a_branch2b
I0630 04:25:03.507813  1464 net.cpp:367] res3a_branch2b_relu -> res3a_branch2b (in-place)
I0630 04:25:03.508092  1464 net.cpp:122] Setting up res3a_branch2b_relu
I0630 04:25:03.508111  1464 net.cpp:129] Top shape: 8 128 28 28 (802816)
I0630 04:25:03.508116  1464 net.cpp:137] Memory required for data: 961773728
I0630 04:25:03.508122  1464 layer_factory.hpp:77] Creating layer res3a_branch2c
I0630 04:25:03.508149  1464 net.cpp:84] Creating Layer res3a_branch2c
I0630 04:25:03.508172  1464 net.cpp:406] res3a_branch2c <- res3a_branch2b
I0630 04:25:03.508188  1464 net.cpp:380] res3a_branch2c -> res3a_branch2c
I0630 04:25:03.509024  1464 net.cpp:122] Setting up res3a_branch2c
I0630 04:25:03.509044  1464 net.cpp:129] Top shape: 8 512 28 28 (3211264)
I0630 04:25:03.509048  1464 net.cpp:137] Memory required for data: 974618784
I0630 04:25:03.509058  1464 layer_factory.hpp:77] Creating layer bn3a_branch2c
I0630 04:25:03.509075  1464 net.cpp:84] Creating Layer bn3a_branch2c
I0630 04:25:03.509093  1464 net.cpp:406] bn3a_branch2c <- res3a_branch2c
I0630 04:25:03.509107  1464 net.cpp:367] bn3a_branch2c -> res3a_branch2c (in-place)
I0630 04:25:03.509346  1464 net.cpp:122] Setting up bn3a_branch2c
I0630 04:25:03.509362  1464 net.cpp:129] Top shape: 8 512 28 28 (3211264)
I0630 04:25:03.509367  1464 net.cpp:137] Memory required for data: 987463840
I0630 04:25:03.509384  1464 layer_factory.hpp:77] Creating layer scale3a_branch2c
I0630 04:25:03.509407  1464 net.cpp:84] Creating Layer scale3a_branch2c
I0630 04:25:03.509418  1464 net.cpp:406] scale3a_branch2c <- res3a_branch2c
I0630 04:25:03.509430  1464 net.cpp:367] scale3a_branch2c -> res3a_branch2c (in-place)
I0630 04:25:03.509512  1464 layer_factory.hpp:77] Creating layer scale3a_branch2c
I0630 04:25:03.509672  1464 net.cpp:122] Setting up scale3a_branch2c
I0630 04:25:03.509690  1464 net.cpp:129] Top shape: 8 512 28 28 (3211264)
I0630 04:25:03.509693  1464 net.cpp:137] Memory required for data: 1000308896
I0630 04:25:03.509703  1464 layer_factory.hpp:77] Creating layer res3a
I0630 04:25:03.509719  1464 net.cpp:84] Creating Layer res3a
I0630 04:25:03.509737  1464 net.cpp:406] res3a <- res3a_branch1
I0630 04:25:03.509748  1464 net.cpp:406] res3a <- res3a_branch2c
I0630 04:25:03.509759  1464 net.cpp:380] res3a -> res3a
I0630 04:25:03.509817  1464 net.cpp:122] Setting up res3a
I0630 04:25:03.509835  1464 net.cpp:129] Top shape: 8 512 28 28 (3211264)
I0630 04:25:03.509838  1464 net.cpp:137] Memory required for data: 1013153952
I0630 04:25:03.509843  1464 layer_factory.hpp:77] Creating layer res3a_relu
I0630 04:25:03.509857  1464 net.cpp:84] Creating Layer res3a_relu
I0630 04:25:03.509866  1464 net.cpp:406] res3a_relu <- res3a
I0630 04:25:03.509881  1464 net.cpp:367] res3a_relu -> res3a (in-place)
I0630 04:25:03.510190  1464 net.cpp:122] Setting up res3a_relu
I0630 04:25:03.510210  1464 net.cpp:129] Top shape: 8 512 28 28 (3211264)
I0630 04:25:03.510215  1464 net.cpp:137] Memory required for data: 1025999008
I0630 04:25:03.510221  1464 layer_factory.hpp:77] Creating layer res3a_res3a_relu_0_split
I0630 04:25:03.510237  1464 net.cpp:84] Creating Layer res3a_res3a_relu_0_split
I0630 04:25:03.510255  1464 net.cpp:406] res3a_res3a_relu_0_split <- res3a
I0630 04:25:03.510272  1464 net.cpp:380] res3a_res3a_relu_0_split -> res3a_res3a_relu_0_split_0
I0630 04:25:03.510294  1464 net.cpp:380] res3a_res3a_relu_0_split -> res3a_res3a_relu_0_split_1
I0630 04:25:03.510371  1464 net.cpp:122] Setting up res3a_res3a_relu_0_split
I0630 04:25:03.510388  1464 net.cpp:129] Top shape: 8 512 28 28 (3211264)
I0630 04:25:03.510393  1464 net.cpp:129] Top shape: 8 512 28 28 (3211264)
I0630 04:25:03.510421  1464 net.cpp:137] Memory required for data: 1051689120
I0630 04:25:03.510429  1464 layer_factory.hpp:77] Creating layer res3b_branch2a
I0630 04:25:03.510450  1464 net.cpp:84] Creating Layer res3b_branch2a
I0630 04:25:03.510469  1464 net.cpp:406] res3b_branch2a <- res3a_res3a_relu_0_split_0
I0630 04:25:03.510483  1464 net.cpp:380] res3b_branch2a -> res3b_branch2a
I0630 04:25:03.512132  1464 net.cpp:122] Setting up res3b_branch2a
I0630 04:25:03.512154  1464 net.cpp:129] Top shape: 8 128 28 28 (802816)
I0630 04:25:03.512158  1464 net.cpp:137] Memory required for data: 1054900384
I0630 04:25:03.512168  1464 layer_factory.hpp:77] Creating layer bn3b_branch2a
I0630 04:25:03.512186  1464 net.cpp:84] Creating Layer bn3b_branch2a
I0630 04:25:03.512204  1464 net.cpp:406] bn3b_branch2a <- res3b_branch2a
I0630 04:25:03.512217  1464 net.cpp:367] bn3b_branch2a -> res3b_branch2a (in-place)
I0630 04:25:03.512480  1464 net.cpp:122] Setting up bn3b_branch2a
I0630 04:25:03.512496  1464 net.cpp:129] Top shape: 8 128 28 28 (802816)
I0630 04:25:03.512501  1464 net.cpp:137] Memory required for data: 1058111648
I0630 04:25:03.512523  1464 layer_factory.hpp:77] Creating layer scale3b_branch2a
I0630 04:25:03.512548  1464 net.cpp:84] Creating Layer scale3b_branch2a
I0630 04:25:03.512567  1464 net.cpp:406] scale3b_branch2a <- res3b_branch2a
I0630 04:25:03.512580  1464 net.cpp:367] scale3b_branch2a -> res3b_branch2a (in-place)
I0630 04:25:03.512653  1464 layer_factory.hpp:77] Creating layer scale3b_branch2a
I0630 04:25:03.512827  1464 net.cpp:122] Setting up scale3b_branch2a
I0630 04:25:03.512845  1464 net.cpp:129] Top shape: 8 128 28 28 (802816)
I0630 04:25:03.512848  1464 net.cpp:137] Memory required for data: 1061322912
I0630 04:25:03.512861  1464 layer_factory.hpp:77] Creating layer res3b_branch2a_relu
I0630 04:25:03.512872  1464 net.cpp:84] Creating Layer res3b_branch2a_relu
I0630 04:25:03.512890  1464 net.cpp:406] res3b_branch2a_relu <- res3b_branch2a
I0630 04:25:03.512907  1464 net.cpp:367] res3b_branch2a_relu -> res3b_branch2a (in-place)
I0630 04:25:03.513098  1464 net.cpp:122] Setting up res3b_branch2a_relu
I0630 04:25:03.513116  1464 net.cpp:129] Top shape: 8 128 28 28 (802816)
I0630 04:25:03.513120  1464 net.cpp:137] Memory required for data: 1064534176
I0630 04:25:03.513126  1464 layer_factory.hpp:77] Creating layer res3b_branch2b
I0630 04:25:03.513145  1464 net.cpp:84] Creating Layer res3b_branch2b
I0630 04:25:03.513164  1464 net.cpp:406] res3b_branch2b <- res3b_branch2a
I0630 04:25:03.513182  1464 net.cpp:380] res3b_branch2b -> res3b_branch2b
I0630 04:25:03.514935  1464 net.cpp:122] Setting up res3b_branch2b
I0630 04:25:03.514956  1464 net.cpp:129] Top shape: 8 128 28 28 (802816)
I0630 04:25:03.514961  1464 net.cpp:137] Memory required for data: 1067745440
I0630 04:25:03.514971  1464 layer_factory.hpp:77] Creating layer bn3b_branch2b
I0630 04:25:03.514993  1464 net.cpp:84] Creating Layer bn3b_branch2b
I0630 04:25:03.515012  1464 net.cpp:406] bn3b_branch2b <- res3b_branch2b
I0630 04:25:03.515029  1464 net.cpp:367] bn3b_branch2b -> res3b_branch2b (in-place)
I0630 04:25:03.515281  1464 net.cpp:122] Setting up bn3b_branch2b
I0630 04:25:03.515300  1464 net.cpp:129] Top shape: 8 128 28 28 (802816)
I0630 04:25:03.515303  1464 net.cpp:137] Memory required for data: 1070956704
I0630 04:25:03.515317  1464 layer_factory.hpp:77] Creating layer scale3b_branch2b
I0630 04:25:03.515349  1464 net.cpp:84] Creating Layer scale3b_branch2b
I0630 04:25:03.515367  1464 net.cpp:406] scale3b_branch2b <- res3b_branch2b
I0630 04:25:03.515380  1464 net.cpp:367] scale3b_branch2b -> res3b_branch2b (in-place)
I0630 04:25:03.515473  1464 layer_factory.hpp:77] Creating layer scale3b_branch2b
I0630 04:25:03.515642  1464 net.cpp:122] Setting up scale3b_branch2b
I0630 04:25:03.515660  1464 net.cpp:129] Top shape: 8 128 28 28 (802816)
I0630 04:25:03.515664  1464 net.cpp:137] Memory required for data: 1074167968
I0630 04:25:03.515676  1464 layer_factory.hpp:77] Creating layer res3b_branch2b_relu
I0630 04:25:03.515697  1464 net.cpp:84] Creating Layer res3b_branch2b_relu
I0630 04:25:03.515732  1464 net.cpp:406] res3b_branch2b_relu <- res3b_branch2b
I0630 04:25:03.515748  1464 net.cpp:367] res3b_branch2b_relu -> res3b_branch2b (in-place)
I0630 04:25:03.516039  1464 net.cpp:122] Setting up res3b_branch2b_relu
I0630 04:25:03.516058  1464 net.cpp:129] Top shape: 8 128 28 28 (802816)
I0630 04:25:03.516063  1464 net.cpp:137] Memory required for data: 1077379232
I0630 04:25:03.516068  1464 layer_factory.hpp:77] Creating layer res3b_branch2c
I0630 04:25:03.516088  1464 net.cpp:84] Creating Layer res3b_branch2c
I0630 04:25:03.516106  1464 net.cpp:406] res3b_branch2c <- res3b_branch2b
I0630 04:25:03.516126  1464 net.cpp:380] res3b_branch2c -> res3b_branch2c
I0630 04:25:03.517068  1464 net.cpp:122] Setting up res3b_branch2c
I0630 04:25:03.517088  1464 net.cpp:129] Top shape: 8 512 28 28 (3211264)
I0630 04:25:03.517092  1464 net.cpp:137] Memory required for data: 1090224288
I0630 04:25:03.517102  1464 layer_factory.hpp:77] Creating layer bn3b_branch2c
I0630 04:25:03.517119  1464 net.cpp:84] Creating Layer bn3b_branch2c
I0630 04:25:03.517138  1464 net.cpp:406] bn3b_branch2c <- res3b_branch2c
I0630 04:25:03.517151  1464 net.cpp:367] bn3b_branch2c -> res3b_branch2c (in-place)
I0630 04:25:03.517405  1464 net.cpp:122] Setting up bn3b_branch2c
I0630 04:25:03.517423  1464 net.cpp:129] Top shape: 8 512 28 28 (3211264)
I0630 04:25:03.517427  1464 net.cpp:137] Memory required for data: 1103069344
I0630 04:25:03.517441  1464 layer_factory.hpp:77] Creating layer scale3b_branch2c
I0630 04:25:03.517457  1464 net.cpp:84] Creating Layer scale3b_branch2c
I0630 04:25:03.517474  1464 net.cpp:406] scale3b_branch2c <- res3b_branch2c
I0630 04:25:03.517488  1464 net.cpp:367] scale3b_branch2c -> res3b_branch2c (in-place)
I0630 04:25:03.517566  1464 layer_factory.hpp:77] Creating layer scale3b_branch2c
I0630 04:25:03.517740  1464 net.cpp:122] Setting up scale3b_branch2c
I0630 04:25:03.517757  1464 net.cpp:129] Top shape: 8 512 28 28 (3211264)
I0630 04:25:03.517761  1464 net.cpp:137] Memory required for data: 1115914400
I0630 04:25:03.517772  1464 layer_factory.hpp:77] Creating layer res3b
I0630 04:25:03.517789  1464 net.cpp:84] Creating Layer res3b
I0630 04:25:03.517808  1464 net.cpp:406] res3b <- res3a_res3a_relu_0_split_1
I0630 04:25:03.517819  1464 net.cpp:406] res3b <- res3b_branch2c
I0630 04:25:03.517830  1464 net.cpp:380] res3b -> res3b
I0630 04:25:03.517884  1464 net.cpp:122] Setting up res3b
I0630 04:25:03.517899  1464 net.cpp:129] Top shape: 8 512 28 28 (3211264)
I0630 04:25:03.517921  1464 net.cpp:137] Memory required for data: 1128759456
I0630 04:25:03.517938  1464 layer_factory.hpp:77] Creating layer res3b_relu
I0630 04:25:03.517951  1464 net.cpp:84] Creating Layer res3b_relu
I0630 04:25:03.517961  1464 net.cpp:406] res3b_relu <- res3b
I0630 04:25:03.517985  1464 net.cpp:367] res3b_relu -> res3b (in-place)
I0630 04:25:03.518268  1464 net.cpp:122] Setting up res3b_relu
I0630 04:25:03.518290  1464 net.cpp:129] Top shape: 8 512 28 28 (3211264)
I0630 04:25:03.518296  1464 net.cpp:137] Memory required for data: 1141604512
I0630 04:25:03.518303  1464 layer_factory.hpp:77] Creating layer res3b_res3b_relu_0_split
I0630 04:25:03.518314  1464 net.cpp:84] Creating Layer res3b_res3b_relu_0_split
I0630 04:25:03.518326  1464 net.cpp:406] res3b_res3b_relu_0_split <- res3b
I0630 04:25:03.518337  1464 net.cpp:380] res3b_res3b_relu_0_split -> res3b_res3b_relu_0_split_0
I0630 04:25:03.518360  1464 net.cpp:380] res3b_res3b_relu_0_split -> res3b_res3b_relu_0_split_1
I0630 04:25:03.518432  1464 net.cpp:122] Setting up res3b_res3b_relu_0_split
I0630 04:25:03.518450  1464 net.cpp:129] Top shape: 8 512 28 28 (3211264)
I0630 04:25:03.518455  1464 net.cpp:129] Top shape: 8 512 28 28 (3211264)
I0630 04:25:03.518460  1464 net.cpp:137] Memory required for data: 1167294624
I0630 04:25:03.518467  1464 layer_factory.hpp:77] Creating layer res3c_branch2a
I0630 04:25:03.518488  1464 net.cpp:84] Creating Layer res3c_branch2a
I0630 04:25:03.518507  1464 net.cpp:406] res3c_branch2a <- res3b_res3b_relu_0_split_0
I0630 04:25:03.518554  1464 net.cpp:380] res3c_branch2a -> res3c_branch2a
I0630 04:25:03.519537  1464 net.cpp:122] Setting up res3c_branch2a
I0630 04:25:03.519557  1464 net.cpp:129] Top shape: 8 128 28 28 (802816)
I0630 04:25:03.519562  1464 net.cpp:137] Memory required for data: 1170505888
I0630 04:25:03.519572  1464 layer_factory.hpp:77] Creating layer bn3c_branch2a
I0630 04:25:03.519589  1464 net.cpp:84] Creating Layer bn3c_branch2a
I0630 04:25:03.519608  1464 net.cpp:406] bn3c_branch2a <- res3c_branch2a
I0630 04:25:03.519620  1464 net.cpp:367] bn3c_branch2a -> res3c_branch2a (in-place)
I0630 04:25:03.519868  1464 net.cpp:122] Setting up bn3c_branch2a
I0630 04:25:03.519886  1464 net.cpp:129] Top shape: 8 128 28 28 (802816)
I0630 04:25:03.519891  1464 net.cpp:137] Memory required for data: 1173717152
I0630 04:25:03.519903  1464 layer_factory.hpp:77] Creating layer scale3c_branch2a
I0630 04:25:03.519919  1464 net.cpp:84] Creating Layer scale3c_branch2a
I0630 04:25:03.519937  1464 net.cpp:406] scale3c_branch2a <- res3c_branch2a
I0630 04:25:03.519950  1464 net.cpp:367] scale3c_branch2a -> res3c_branch2a (in-place)
I0630 04:25:03.520040  1464 layer_factory.hpp:77] Creating layer scale3c_branch2a
I0630 04:25:03.520213  1464 net.cpp:122] Setting up scale3c_branch2a
I0630 04:25:03.520231  1464 net.cpp:129] Top shape: 8 128 28 28 (802816)
I0630 04:25:03.520234  1464 net.cpp:137] Memory required for data: 1176928416
I0630 04:25:03.520246  1464 layer_factory.hpp:77] Creating layer res3c_branch2a_relu
I0630 04:25:03.520257  1464 net.cpp:84] Creating Layer res3c_branch2a_relu
I0630 04:25:03.520279  1464 net.cpp:406] res3c_branch2a_relu <- res3c_branch2a
I0630 04:25:03.520292  1464 net.cpp:367] res3c_branch2a_relu -> res3c_branch2a (in-place)
I0630 04:25:03.520474  1464 net.cpp:122] Setting up res3c_branch2a_relu
I0630 04:25:03.520495  1464 net.cpp:129] Top shape: 8 128 28 28 (802816)
I0630 04:25:03.520500  1464 net.cpp:137] Memory required for data: 1180139680
I0630 04:25:03.520509  1464 layer_factory.hpp:77] Creating layer res3c_branch2b
I0630 04:25:03.520524  1464 net.cpp:84] Creating Layer res3c_branch2b
I0630 04:25:03.520542  1464 net.cpp:406] res3c_branch2b <- res3c_branch2a
I0630 04:25:03.520566  1464 net.cpp:380] res3c_branch2b -> res3c_branch2b
I0630 04:25:03.522276  1464 net.cpp:122] Setting up res3c_branch2b
I0630 04:25:03.522296  1464 net.cpp:129] Top shape: 8 128 28 28 (802816)
I0630 04:25:03.522301  1464 net.cpp:137] Memory required for data: 1183350944
I0630 04:25:03.522311  1464 layer_factory.hpp:77] Creating layer bn3c_branch2b
I0630 04:25:03.522330  1464 net.cpp:84] Creating Layer bn3c_branch2b
I0630 04:25:03.522348  1464 net.cpp:406] bn3c_branch2b <- res3c_branch2b
I0630 04:25:03.522361  1464 net.cpp:367] bn3c_branch2b -> res3c_branch2b (in-place)
I0630 04:25:03.522639  1464 net.cpp:122] Setting up bn3c_branch2b
I0630 04:25:03.522656  1464 net.cpp:129] Top shape: 8 128 28 28 (802816)
I0630 04:25:03.522660  1464 net.cpp:137] Memory required for data: 1186562208
I0630 04:25:03.522675  1464 layer_factory.hpp:77] Creating layer scale3c_branch2b
I0630 04:25:03.522699  1464 net.cpp:84] Creating Layer scale3c_branch2b
I0630 04:25:03.522717  1464 net.cpp:406] scale3c_branch2b <- res3c_branch2b
I0630 04:25:03.522735  1464 net.cpp:367] scale3c_branch2b -> res3c_branch2b (in-place)
I0630 04:25:03.522824  1464 layer_factory.hpp:77] Creating layer scale3c_branch2b
I0630 04:25:03.523001  1464 net.cpp:122] Setting up scale3c_branch2b
I0630 04:25:03.523020  1464 net.cpp:129] Top shape: 8 128 28 28 (802816)
I0630 04:25:03.523023  1464 net.cpp:137] Memory required for data: 1189773472
I0630 04:25:03.523035  1464 layer_factory.hpp:77] Creating layer res3c_branch2b_relu
I0630 04:25:03.523051  1464 net.cpp:84] Creating Layer res3c_branch2b_relu
I0630 04:25:03.523071  1464 net.cpp:406] res3c_branch2b_relu <- res3c_branch2b
I0630 04:25:03.523082  1464 net.cpp:367] res3c_branch2b_relu -> res3c_branch2b (in-place)
I0630 04:25:03.523370  1464 net.cpp:122] Setting up res3c_branch2b_relu
I0630 04:25:03.523392  1464 net.cpp:129] Top shape: 8 128 28 28 (802816)
I0630 04:25:03.523425  1464 net.cpp:137] Memory required for data: 1192984736
I0630 04:25:03.523435  1464 layer_factory.hpp:77] Creating layer res3c_branch2c
I0630 04:25:03.523455  1464 net.cpp:84] Creating Layer res3c_branch2c
I0630 04:25:03.523473  1464 net.cpp:406] res3c_branch2c <- res3c_branch2b
I0630 04:25:03.523488  1464 net.cpp:380] res3c_branch2c -> res3c_branch2c
I0630 04:25:03.524353  1464 net.cpp:122] Setting up res3c_branch2c
I0630 04:25:03.524374  1464 net.cpp:129] Top shape: 8 512 28 28 (3211264)
I0630 04:25:03.524379  1464 net.cpp:137] Memory required for data: 1205829792
I0630 04:25:03.524389  1464 layer_factory.hpp:77] Creating layer bn3c_branch2c
I0630 04:25:03.524406  1464 net.cpp:84] Creating Layer bn3c_branch2c
I0630 04:25:03.524425  1464 net.cpp:406] bn3c_branch2c <- res3c_branch2c
I0630 04:25:03.524438  1464 net.cpp:367] bn3c_branch2c -> res3c_branch2c (in-place)
I0630 04:25:03.524703  1464 net.cpp:122] Setting up bn3c_branch2c
I0630 04:25:03.524720  1464 net.cpp:129] Top shape: 8 512 28 28 (3211264)
I0630 04:25:03.524724  1464 net.cpp:137] Memory required for data: 1218674848
I0630 04:25:03.524739  1464 layer_factory.hpp:77] Creating layer scale3c_branch2c
I0630 04:25:03.524755  1464 net.cpp:84] Creating Layer scale3c_branch2c
I0630 04:25:03.524772  1464 net.cpp:406] scale3c_branch2c <- res3c_branch2c
I0630 04:25:03.524785  1464 net.cpp:367] scale3c_branch2c -> res3c_branch2c (in-place)
I0630 04:25:03.524859  1464 layer_factory.hpp:77] Creating layer scale3c_branch2c
I0630 04:25:03.525037  1464 net.cpp:122] Setting up scale3c_branch2c
I0630 04:25:03.525053  1464 net.cpp:129] Top shape: 8 512 28 28 (3211264)
I0630 04:25:03.525058  1464 net.cpp:137] Memory required for data: 1231519904
I0630 04:25:03.525068  1464 layer_factory.hpp:77] Creating layer res3c
I0630 04:25:03.525084  1464 net.cpp:84] Creating Layer res3c
I0630 04:25:03.525102  1464 net.cpp:406] res3c <- res3b_res3b_relu_0_split_1
I0630 04:25:03.525113  1464 net.cpp:406] res3c <- res3c_branch2c
I0630 04:25:03.525125  1464 net.cpp:380] res3c -> res3c
I0630 04:25:03.525187  1464 net.cpp:122] Setting up res3c
I0630 04:25:03.525202  1464 net.cpp:129] Top shape: 8 512 28 28 (3211264)
I0630 04:25:03.525207  1464 net.cpp:137] Memory required for data: 1244364960
I0630 04:25:03.525212  1464 layer_factory.hpp:77] Creating layer res3c_relu
I0630 04:25:03.525223  1464 net.cpp:84] Creating Layer res3c_relu
I0630 04:25:03.525231  1464 net.cpp:406] res3c_relu <- res3c
I0630 04:25:03.525245  1464 net.cpp:367] res3c_relu -> res3c (in-place)
I0630 04:25:03.525534  1464 net.cpp:122] Setting up res3c_relu
I0630 04:25:03.525557  1464 net.cpp:129] Top shape: 8 512 28 28 (3211264)
I0630 04:25:03.525563  1464 net.cpp:137] Memory required for data: 1257210016
I0630 04:25:03.525569  1464 layer_factory.hpp:77] Creating layer res3c_res3c_relu_0_split
I0630 04:25:03.525580  1464 net.cpp:84] Creating Layer res3c_res3c_relu_0_split
I0630 04:25:03.525591  1464 net.cpp:406] res3c_res3c_relu_0_split <- res3c
I0630 04:25:03.525604  1464 net.cpp:380] res3c_res3c_relu_0_split -> res3c_res3c_relu_0_split_0
I0630 04:25:03.525626  1464 net.cpp:380] res3c_res3c_relu_0_split -> res3c_res3c_relu_0_split_1
I0630 04:25:03.525718  1464 net.cpp:122] Setting up res3c_res3c_relu_0_split
I0630 04:25:03.525735  1464 net.cpp:129] Top shape: 8 512 28 28 (3211264)
I0630 04:25:03.525740  1464 net.cpp:129] Top shape: 8 512 28 28 (3211264)
I0630 04:25:03.525745  1464 net.cpp:137] Memory required for data: 1282900128
I0630 04:25:03.525753  1464 layer_factory.hpp:77] Creating layer res3d_branch2a
I0630 04:25:03.525773  1464 net.cpp:84] Creating Layer res3d_branch2a
I0630 04:25:03.525791  1464 net.cpp:406] res3d_branch2a <- res3c_res3c_relu_0_split_0
I0630 04:25:03.525810  1464 net.cpp:380] res3d_branch2a -> res3d_branch2a
I0630 04:25:03.527465  1464 net.cpp:122] Setting up res3d_branch2a
I0630 04:25:03.527488  1464 net.cpp:129] Top shape: 8 128 28 28 (802816)
I0630 04:25:03.527494  1464 net.cpp:137] Memory required for data: 1286111392
I0630 04:25:03.527508  1464 layer_factory.hpp:77] Creating layer bn3d_branch2a
I0630 04:25:03.527551  1464 net.cpp:84] Creating Layer bn3d_branch2a
I0630 04:25:03.527568  1464 net.cpp:406] bn3d_branch2a <- res3d_branch2a
I0630 04:25:03.527580  1464 net.cpp:367] bn3d_branch2a -> res3d_branch2a (in-place)
I0630 04:25:03.527853  1464 net.cpp:122] Setting up bn3d_branch2a
I0630 04:25:03.527871  1464 net.cpp:129] Top shape: 8 128 28 28 (802816)
I0630 04:25:03.527875  1464 net.cpp:137] Memory required for data: 1289322656
I0630 04:25:03.527922  1464 layer_factory.hpp:77] Creating layer scale3d_branch2a
I0630 04:25:03.527948  1464 net.cpp:84] Creating Layer scale3d_branch2a
I0630 04:25:03.527959  1464 net.cpp:406] scale3d_branch2a <- res3d_branch2a
I0630 04:25:03.527990  1464 net.cpp:367] scale3d_branch2a -> res3d_branch2a (in-place)
I0630 04:25:03.528085  1464 layer_factory.hpp:77] Creating layer scale3d_branch2a
I0630 04:25:03.528264  1464 net.cpp:122] Setting up scale3d_branch2a
I0630 04:25:03.528281  1464 net.cpp:129] Top shape: 8 128 28 28 (802816)
I0630 04:25:03.528285  1464 net.cpp:137] Memory required for data: 1292533920
I0630 04:25:03.528296  1464 layer_factory.hpp:77] Creating layer res3d_branch2a_relu
I0630 04:25:03.528309  1464 net.cpp:84] Creating Layer res3d_branch2a_relu
I0630 04:25:03.528326  1464 net.cpp:406] res3d_branch2a_relu <- res3d_branch2a
I0630 04:25:03.528337  1464 net.cpp:367] res3d_branch2a_relu -> res3d_branch2a (in-place)
I0630 04:25:03.528523  1464 net.cpp:122] Setting up res3d_branch2a_relu
I0630 04:25:03.528542  1464 net.cpp:129] Top shape: 8 128 28 28 (802816)
I0630 04:25:03.528545  1464 net.cpp:137] Memory required for data: 1295745184
I0630 04:25:03.528551  1464 layer_factory.hpp:77] Creating layer res3d_branch2b
I0630 04:25:03.528570  1464 net.cpp:84] Creating Layer res3d_branch2b
I0630 04:25:03.528589  1464 net.cpp:406] res3d_branch2b <- res3d_branch2a
I0630 04:25:03.528604  1464 net.cpp:380] res3d_branch2b -> res3d_branch2b
I0630 04:25:03.530295  1464 net.cpp:122] Setting up res3d_branch2b
I0630 04:25:03.530315  1464 net.cpp:129] Top shape: 8 128 28 28 (802816)
I0630 04:25:03.530319  1464 net.cpp:137] Memory required for data: 1298956448
I0630 04:25:03.530329  1464 layer_factory.hpp:77] Creating layer bn3d_branch2b
I0630 04:25:03.530347  1464 net.cpp:84] Creating Layer bn3d_branch2b
I0630 04:25:03.530365  1464 net.cpp:406] bn3d_branch2b <- res3d_branch2b
I0630 04:25:03.530378  1464 net.cpp:367] bn3d_branch2b -> res3d_branch2b (in-place)
I0630 04:25:03.530640  1464 net.cpp:122] Setting up bn3d_branch2b
I0630 04:25:03.530658  1464 net.cpp:129] Top shape: 8 128 28 28 (802816)
I0630 04:25:03.530663  1464 net.cpp:137] Memory required for data: 1302167712
I0630 04:25:03.530675  1464 layer_factory.hpp:77] Creating layer scale3d_branch2b
I0630 04:25:03.530696  1464 net.cpp:84] Creating Layer scale3d_branch2b
I0630 04:25:03.530714  1464 net.cpp:406] scale3d_branch2b <- res3d_branch2b
I0630 04:25:03.530727  1464 net.cpp:367] scale3d_branch2b -> res3d_branch2b (in-place)
I0630 04:25:03.530814  1464 layer_factory.hpp:77] Creating layer scale3d_branch2b
I0630 04:25:03.530994  1464 net.cpp:122] Setting up scale3d_branch2b
I0630 04:25:03.531013  1464 net.cpp:129] Top shape: 8 128 28 28 (802816)
I0630 04:25:03.531016  1464 net.cpp:137] Memory required for data: 1305378976
I0630 04:25:03.531028  1464 layer_factory.hpp:77] Creating layer res3d_branch2b_relu
I0630 04:25:03.531040  1464 net.cpp:84] Creating Layer res3d_branch2b_relu
I0630 04:25:03.531056  1464 net.cpp:406] res3d_branch2b_relu <- res3d_branch2b
I0630 04:25:03.531074  1464 net.cpp:367] res3d_branch2b_relu -> res3d_branch2b (in-place)
I0630 04:25:03.531386  1464 net.cpp:122] Setting up res3d_branch2b_relu
I0630 04:25:03.531405  1464 net.cpp:129] Top shape: 8 128 28 28 (802816)
I0630 04:25:03.531414  1464 net.cpp:137] Memory required for data: 1308590240
I0630 04:25:03.531422  1464 layer_factory.hpp:77] Creating layer res3d_branch2c
I0630 04:25:03.531438  1464 net.cpp:84] Creating Layer res3d_branch2c
I0630 04:25:03.531456  1464 net.cpp:406] res3d_branch2c <- res3d_branch2b
I0630 04:25:03.531502  1464 net.cpp:380] res3d_branch2c -> res3d_branch2c
I0630 04:25:03.532403  1464 net.cpp:122] Setting up res3d_branch2c
I0630 04:25:03.532423  1464 net.cpp:129] Top shape: 8 512 28 28 (3211264)
I0630 04:25:03.532428  1464 net.cpp:137] Memory required for data: 1321435296
I0630 04:25:03.532438  1464 layer_factory.hpp:77] Creating layer bn3d_branch2c
I0630 04:25:03.532454  1464 net.cpp:84] Creating Layer bn3d_branch2c
I0630 04:25:03.532472  1464 net.cpp:406] bn3d_branch2c <- res3d_branch2c
I0630 04:25:03.532486  1464 net.cpp:367] bn3d_branch2c -> res3d_branch2c (in-place)
I0630 04:25:03.532748  1464 net.cpp:122] Setting up bn3d_branch2c
I0630 04:25:03.532765  1464 net.cpp:129] Top shape: 8 512 28 28 (3211264)
I0630 04:25:03.532770  1464 net.cpp:137] Memory required for data: 1334280352
I0630 04:25:03.532783  1464 layer_factory.hpp:77] Creating layer scale3d_branch2c
I0630 04:25:03.532799  1464 net.cpp:84] Creating Layer scale3d_branch2c
I0630 04:25:03.532816  1464 net.cpp:406] scale3d_branch2c <- res3d_branch2c
I0630 04:25:03.532832  1464 net.cpp:367] scale3d_branch2c -> res3d_branch2c (in-place)
I0630 04:25:03.532920  1464 layer_factory.hpp:77] Creating layer scale3d_branch2c
I0630 04:25:03.533097  1464 net.cpp:122] Setting up scale3d_branch2c
I0630 04:25:03.533119  1464 net.cpp:129] Top shape: 8 512 28 28 (3211264)
I0630 04:25:03.533123  1464 net.cpp:137] Memory required for data: 1347125408
I0630 04:25:03.533135  1464 layer_factory.hpp:77] Creating layer res3d
I0630 04:25:03.533155  1464 net.cpp:84] Creating Layer res3d
I0630 04:25:03.533165  1464 net.cpp:406] res3d <- res3c_res3c_relu_0_split_1
I0630 04:25:03.533177  1464 net.cpp:406] res3d <- res3d_branch2c
I0630 04:25:03.533190  1464 net.cpp:380] res3d -> res3d
I0630 04:25:03.533246  1464 net.cpp:122] Setting up res3d
I0630 04:25:03.533263  1464 net.cpp:129] Top shape: 8 512 28 28 (3211264)
I0630 04:25:03.533267  1464 net.cpp:137] Memory required for data: 1359970464
I0630 04:25:03.533272  1464 layer_factory.hpp:77] Creating layer res3d_relu
I0630 04:25:03.533283  1464 net.cpp:84] Creating Layer res3d_relu
I0630 04:25:03.533293  1464 net.cpp:406] res3d_relu <- res3d
I0630 04:25:03.533308  1464 net.cpp:367] res3d_relu -> res3d (in-place)
I0630 04:25:03.533603  1464 net.cpp:122] Setting up res3d_relu
I0630 04:25:03.533622  1464 net.cpp:129] Top shape: 8 512 28 28 (3211264)
I0630 04:25:03.533627  1464 net.cpp:137] Memory required for data: 1372815520
I0630 04:25:03.533632  1464 layer_factory.hpp:77] Creating layer res3d_res3d_relu_0_split
I0630 04:25:03.533644  1464 net.cpp:84] Creating Layer res3d_res3d_relu_0_split
I0630 04:25:03.533653  1464 net.cpp:406] res3d_res3d_relu_0_split <- res3d
I0630 04:25:03.533668  1464 net.cpp:380] res3d_res3d_relu_0_split -> res3d_res3d_relu_0_split_0
I0630 04:25:03.533699  1464 net.cpp:380] res3d_res3d_relu_0_split -> res3d_res3d_relu_0_split_1
I0630 04:25:03.533783  1464 net.cpp:122] Setting up res3d_res3d_relu_0_split
I0630 04:25:03.533809  1464 net.cpp:129] Top shape: 8 512 28 28 (3211264)
I0630 04:25:03.533815  1464 net.cpp:129] Top shape: 8 512 28 28 (3211264)
I0630 04:25:03.533819  1464 net.cpp:137] Memory required for data: 1398505632
I0630 04:25:03.533826  1464 layer_factory.hpp:77] Creating layer res4a_branch1
I0630 04:25:03.533849  1464 net.cpp:84] Creating Layer res4a_branch1
I0630 04:25:03.533869  1464 net.cpp:406] res4a_branch1 <- res3d_res3d_relu_0_split_0
I0630 04:25:03.533884  1464 net.cpp:380] res4a_branch1 -> res4a_branch1
I0630 04:25:03.536393  1464 net.cpp:122] Setting up res4a_branch1
I0630 04:25:03.536414  1464 net.cpp:129] Top shape: 8 1024 14 14 (1605632)
I0630 04:25:03.536418  1464 net.cpp:137] Memory required for data: 1404928160
I0630 04:25:03.536429  1464 layer_factory.hpp:77] Creating layer bn4a_branch1
I0630 04:25:03.536447  1464 net.cpp:84] Creating Layer bn4a_branch1
I0630 04:25:03.536464  1464 net.cpp:406] bn4a_branch1 <- res4a_branch1
I0630 04:25:03.536483  1464 net.cpp:367] bn4a_branch1 -> res4a_branch1 (in-place)
I0630 04:25:03.536763  1464 net.cpp:122] Setting up bn4a_branch1
I0630 04:25:03.536795  1464 net.cpp:129] Top shape: 8 1024 14 14 (1605632)
I0630 04:25:03.536799  1464 net.cpp:137] Memory required for data: 1411350688
I0630 04:25:03.536815  1464 layer_factory.hpp:77] Creating layer scale4a_branch1
I0630 04:25:03.536841  1464 net.cpp:84] Creating Layer scale4a_branch1
I0630 04:25:03.536859  1464 net.cpp:406] scale4a_branch1 <- res4a_branch1
I0630 04:25:03.536872  1464 net.cpp:367] scale4a_branch1 -> res4a_branch1 (in-place)
I0630 04:25:03.536939  1464 layer_factory.hpp:77] Creating layer scale4a_branch1
I0630 04:25:03.537122  1464 net.cpp:122] Setting up scale4a_branch1
I0630 04:25:03.537139  1464 net.cpp:129] Top shape: 8 1024 14 14 (1605632)
I0630 04:25:03.537143  1464 net.cpp:137] Memory required for data: 1417773216
I0630 04:25:03.537154  1464 layer_factory.hpp:77] Creating layer res4a_branch2a
I0630 04:25:03.537174  1464 net.cpp:84] Creating Layer res4a_branch2a
I0630 04:25:03.537196  1464 net.cpp:406] res4a_branch2a <- res3d_res3d_relu_0_split_1
I0630 04:25:03.537211  1464 net.cpp:380] res4a_branch2a -> res4a_branch2a
I0630 04:25:03.538292  1464 net.cpp:122] Setting up res4a_branch2a
I0630 04:25:03.538312  1464 net.cpp:129] Top shape: 8 256 14 14 (401408)
I0630 04:25:03.538321  1464 net.cpp:137] Memory required for data: 1419378848
I0630 04:25:03.538333  1464 layer_factory.hpp:77] Creating layer bn4a_branch2a
I0630 04:25:03.538349  1464 net.cpp:84] Creating Layer bn4a_branch2a
I0630 04:25:03.538367  1464 net.cpp:406] bn4a_branch2a <- res4a_branch2a
I0630 04:25:03.538388  1464 net.cpp:367] bn4a_branch2a -> res4a_branch2a (in-place)
I0630 04:25:03.538668  1464 net.cpp:122] Setting up bn4a_branch2a
I0630 04:25:03.538688  1464 net.cpp:129] Top shape: 8 256 14 14 (401408)
I0630 04:25:03.538692  1464 net.cpp:137] Memory required for data: 1420984480
I0630 04:25:03.538707  1464 layer_factory.hpp:77] Creating layer scale4a_branch2a
I0630 04:25:03.538722  1464 net.cpp:84] Creating Layer scale4a_branch2a
I0630 04:25:03.538740  1464 net.cpp:406] scale4a_branch2a <- res4a_branch2a
I0630 04:25:03.538753  1464 net.cpp:367] scale4a_branch2a -> res4a_branch2a (in-place)
I0630 04:25:03.538835  1464 layer_factory.hpp:77] Creating layer scale4a_branch2a
I0630 04:25:03.539012  1464 net.cpp:122] Setting up scale4a_branch2a
I0630 04:25:03.539029  1464 net.cpp:129] Top shape: 8 256 14 14 (401408)
I0630 04:25:03.539033  1464 net.cpp:137] Memory required for data: 1422590112
I0630 04:25:03.539046  1464 layer_factory.hpp:77] Creating layer res4a_branch2a_relu
I0630 04:25:03.539062  1464 net.cpp:84] Creating Layer res4a_branch2a_relu
I0630 04:25:03.539080  1464 net.cpp:406] res4a_branch2a_relu <- res4a_branch2a
I0630 04:25:03.539093  1464 net.cpp:367] res4a_branch2a_relu -> res4a_branch2a (in-place)
I0630 04:25:03.539280  1464 net.cpp:122] Setting up res4a_branch2a_relu
I0630 04:25:03.539301  1464 net.cpp:129] Top shape: 8 256 14 14 (401408)
I0630 04:25:03.539306  1464 net.cpp:137] Memory required for data: 1424195744
I0630 04:25:03.539314  1464 layer_factory.hpp:77] Creating layer res4a_branch2b
I0630 04:25:03.539335  1464 net.cpp:84] Creating Layer res4a_branch2b
I0630 04:25:03.539353  1464 net.cpp:406] res4a_branch2b <- res4a_branch2a
I0630 04:25:03.539367  1464 net.cpp:380] res4a_branch2b -> res4a_branch2b
I0630 04:25:03.541887  1464 net.cpp:122] Setting up res4a_branch2b
I0630 04:25:03.541921  1464 net.cpp:129] Top shape: 8 256 14 14 (401408)
I0630 04:25:03.541937  1464 net.cpp:137] Memory required for data: 1425801376
I0630 04:25:03.541950  1464 layer_factory.hpp:77] Creating layer bn4a_branch2b
I0630 04:25:03.541970  1464 net.cpp:84] Creating Layer bn4a_branch2b
I0630 04:25:03.541990  1464 net.cpp:406] bn4a_branch2b <- res4a_branch2b
I0630 04:25:03.542001  1464 net.cpp:367] bn4a_branch2b -> res4a_branch2b (in-place)
I0630 04:25:03.542258  1464 net.cpp:122] Setting up bn4a_branch2b
I0630 04:25:03.542275  1464 net.cpp:129] Top shape: 8 256 14 14 (401408)
I0630 04:25:03.542280  1464 net.cpp:137] Memory required for data: 1427407008
I0630 04:25:03.542299  1464 layer_factory.hpp:77] Creating layer scale4a_branch2b
I0630 04:25:03.542338  1464 net.cpp:84] Creating Layer scale4a_branch2b
I0630 04:25:03.542351  1464 net.cpp:406] scale4a_branch2b <- res4a_branch2b
I0630 04:25:03.542361  1464 net.cpp:367] scale4a_branch2b -> res4a_branch2b (in-place)
I0630 04:25:03.542443  1464 layer_factory.hpp:77] Creating layer scale4a_branch2b
I0630 04:25:03.542624  1464 net.cpp:122] Setting up scale4a_branch2b
I0630 04:25:03.542641  1464 net.cpp:129] Top shape: 8 256 14 14 (401408)
I0630 04:25:03.542645  1464 net.cpp:137] Memory required for data: 1429012640
I0630 04:25:03.542656  1464 layer_factory.hpp:77] Creating layer res4a_branch2b_relu
I0630 04:25:03.542673  1464 net.cpp:84] Creating Layer res4a_branch2b_relu
I0630 04:25:03.542692  1464 net.cpp:406] res4a_branch2b_relu <- res4a_branch2b
I0630 04:25:03.542704  1464 net.cpp:367] res4a_branch2b_relu -> res4a_branch2b (in-place)
I0630 04:25:03.542889  1464 net.cpp:122] Setting up res4a_branch2b_relu
I0630 04:25:03.542907  1464 net.cpp:129] Top shape: 8 256 14 14 (401408)
I0630 04:25:03.542912  1464 net.cpp:137] Memory required for data: 1430618272
I0630 04:25:03.542917  1464 layer_factory.hpp:77] Creating layer res4a_branch2c
I0630 04:25:03.542939  1464 net.cpp:84] Creating Layer res4a_branch2c
I0630 04:25:03.542958  1464 net.cpp:406] res4a_branch2c <- res4a_branch2b
I0630 04:25:03.542973  1464 net.cpp:380] res4a_branch2c -> res4a_branch2c
I0630 04:25:03.544714  1464 net.cpp:122] Setting up res4a_branch2c
I0630 04:25:03.544735  1464 net.cpp:129] Top shape: 8 1024 14 14 (1605632)
I0630 04:25:03.544739  1464 net.cpp:137] Memory required for data: 1437040800
I0630 04:25:03.544749  1464 layer_factory.hpp:77] Creating layer bn4a_branch2c
I0630 04:25:03.544766  1464 net.cpp:84] Creating Layer bn4a_branch2c
I0630 04:25:03.544785  1464 net.cpp:406] bn4a_branch2c <- res4a_branch2c
I0630 04:25:03.544798  1464 net.cpp:367] bn4a_branch2c -> res4a_branch2c (in-place)
I0630 04:25:03.545078  1464 net.cpp:122] Setting up bn4a_branch2c
I0630 04:25:03.545095  1464 net.cpp:129] Top shape: 8 1024 14 14 (1605632)
I0630 04:25:03.545099  1464 net.cpp:137] Memory required for data: 1443463328
I0630 04:25:03.545114  1464 layer_factory.hpp:77] Creating layer scale4a_branch2c
I0630 04:25:03.545133  1464 net.cpp:84] Creating Layer scale4a_branch2c
I0630 04:25:03.545151  1464 net.cpp:406] scale4a_branch2c <- res4a_branch2c
I0630 04:25:03.545164  1464 net.cpp:367] scale4a_branch2c -> res4a_branch2c (in-place)
I0630 04:25:03.545249  1464 layer_factory.hpp:77] Creating layer scale4a_branch2c
I0630 04:25:03.545433  1464 net.cpp:122] Setting up scale4a_branch2c
I0630 04:25:03.545450  1464 net.cpp:129] Top shape: 8 1024 14 14 (1605632)
I0630 04:25:03.545454  1464 net.cpp:137] Memory required for data: 1449885856
I0630 04:25:03.545465  1464 layer_factory.hpp:77] Creating layer res4a
I0630 04:25:03.545476  1464 net.cpp:84] Creating Layer res4a
I0630 04:25:03.545493  1464 net.cpp:406] res4a <- res4a_branch1
I0630 04:25:03.545507  1464 net.cpp:406] res4a <- res4a_branch2c
I0630 04:25:03.545528  1464 net.cpp:380] res4a -> res4a
I0630 04:25:03.545583  1464 net.cpp:122] Setting up res4a
I0630 04:25:03.545599  1464 net.cpp:129] Top shape: 8 1024 14 14 (1605632)
I0630 04:25:03.545603  1464 net.cpp:137] Memory required for data: 1456308384
I0630 04:25:03.545611  1464 layer_factory.hpp:77] Creating layer res4a_relu
I0630 04:25:03.545624  1464 net.cpp:84] Creating Layer res4a_relu
I0630 04:25:03.545631  1464 net.cpp:406] res4a_relu <- res4a
I0630 04:25:03.545650  1464 net.cpp:367] res4a_relu -> res4a (in-place)
I0630 04:25:03.545966  1464 net.cpp:122] Setting up res4a_relu
I0630 04:25:03.545985  1464 net.cpp:129] Top shape: 8 1024 14 14 (1605632)
I0630 04:25:03.545989  1464 net.cpp:137] Memory required for data: 1462730912
I0630 04:25:03.545995  1464 layer_factory.hpp:77] Creating layer res4a_res4a_relu_0_split
I0630 04:25:03.546038  1464 net.cpp:84] Creating Layer res4a_res4a_relu_0_split
I0630 04:25:03.546056  1464 net.cpp:406] res4a_res4a_relu_0_split <- res4a
I0630 04:25:03.546066  1464 net.cpp:380] res4a_res4a_relu_0_split -> res4a_res4a_relu_0_split_0
I0630 04:25:03.546108  1464 net.cpp:380] res4a_res4a_relu_0_split -> res4a_res4a_relu_0_split_1
I0630 04:25:03.546197  1464 net.cpp:122] Setting up res4a_res4a_relu_0_split
I0630 04:25:03.546214  1464 net.cpp:129] Top shape: 8 1024 14 14 (1605632)
I0630 04:25:03.546219  1464 net.cpp:129] Top shape: 8 1024 14 14 (1605632)
I0630 04:25:03.546226  1464 net.cpp:137] Memory required for data: 1475575968
I0630 04:25:03.546233  1464 layer_factory.hpp:77] Creating layer res4b_branch2a
I0630 04:25:03.546252  1464 net.cpp:84] Creating Layer res4b_branch2a
I0630 04:25:03.546272  1464 net.cpp:406] res4b_branch2a <- res4a_res4a_relu_0_split_0
I0630 04:25:03.546289  1464 net.cpp:380] res4b_branch2a -> res4b_branch2a
I0630 04:25:03.547894  1464 net.cpp:122] Setting up res4b_branch2a
I0630 04:25:03.547914  1464 net.cpp:129] Top shape: 8 256 14 14 (401408)
I0630 04:25:03.547919  1464 net.cpp:137] Memory required for data: 1477181600
I0630 04:25:03.547929  1464 layer_factory.hpp:77] Creating layer bn4b_branch2a
I0630 04:25:03.547945  1464 net.cpp:84] Creating Layer bn4b_branch2a
I0630 04:25:03.547963  1464 net.cpp:406] bn4b_branch2a <- res4b_branch2a
I0630 04:25:03.547976  1464 net.cpp:367] bn4b_branch2a -> res4b_branch2a (in-place)
I0630 04:25:03.548241  1464 net.cpp:122] Setting up bn4b_branch2a
I0630 04:25:03.548259  1464 net.cpp:129] Top shape: 8 256 14 14 (401408)
I0630 04:25:03.548262  1464 net.cpp:137] Memory required for data: 1478787232
I0630 04:25:03.548275  1464 layer_factory.hpp:77] Creating layer scale4b_branch2a
I0630 04:25:03.548290  1464 net.cpp:84] Creating Layer scale4b_branch2a
I0630 04:25:03.548307  1464 net.cpp:406] scale4b_branch2a <- res4b_branch2a
I0630 04:25:03.548324  1464 net.cpp:367] scale4b_branch2a -> res4b_branch2a (in-place)
I0630 04:25:03.548420  1464 layer_factory.hpp:77] Creating layer scale4b_branch2a
I0630 04:25:03.548614  1464 net.cpp:122] Setting up scale4b_branch2a
I0630 04:25:03.548632  1464 net.cpp:129] Top shape: 8 256 14 14 (401408)
I0630 04:25:03.548636  1464 net.cpp:137] Memory required for data: 1480392864
I0630 04:25:03.548647  1464 layer_factory.hpp:77] Creating layer res4b_branch2a_relu
I0630 04:25:03.548660  1464 net.cpp:84] Creating Layer res4b_branch2a_relu
I0630 04:25:03.548681  1464 net.cpp:406] res4b_branch2a_relu <- res4b_branch2a
I0630 04:25:03.548694  1464 net.cpp:367] res4b_branch2a_relu -> res4b_branch2a (in-place)
I0630 04:25:03.548893  1464 net.cpp:122] Setting up res4b_branch2a_relu
I0630 04:25:03.548913  1464 net.cpp:129] Top shape: 8 256 14 14 (401408)
I0630 04:25:03.548918  1464 net.cpp:137] Memory required for data: 1481998496
I0630 04:25:03.548925  1464 layer_factory.hpp:77] Creating layer res4b_branch2b
I0630 04:25:03.548941  1464 net.cpp:84] Creating Layer res4b_branch2b
I0630 04:25:03.548959  1464 net.cpp:406] res4b_branch2b <- res4b_branch2a
I0630 04:25:03.548977  1464 net.cpp:380] res4b_branch2b -> res4b_branch2b
I0630 04:25:03.551261  1464 net.cpp:122] Setting up res4b_branch2b
I0630 04:25:03.551283  1464 net.cpp:129] Top shape: 8 256 14 14 (401408)
I0630 04:25:03.551287  1464 net.cpp:137] Memory required for data: 1483604128
I0630 04:25:03.551301  1464 layer_factory.hpp:77] Creating layer bn4b_branch2b
I0630 04:25:03.551323  1464 net.cpp:84] Creating Layer bn4b_branch2b
I0630 04:25:03.551342  1464 net.cpp:406] bn4b_branch2b <- res4b_branch2b
I0630 04:25:03.551357  1464 net.cpp:367] bn4b_branch2b -> res4b_branch2b (in-place)
I0630 04:25:03.551637  1464 net.cpp:122] Setting up bn4b_branch2b
I0630 04:25:03.551654  1464 net.cpp:129] Top shape: 8 256 14 14 (401408)
I0630 04:25:03.551658  1464 net.cpp:137] Memory required for data: 1485209760
I0630 04:25:03.551673  1464 layer_factory.hpp:77] Creating layer scale4b_branch2b
I0630 04:25:03.551698  1464 net.cpp:84] Creating Layer scale4b_branch2b
I0630 04:25:03.551717  1464 net.cpp:406] scale4b_branch2b <- res4b_branch2b
I0630 04:25:03.551729  1464 net.cpp:367] scale4b_branch2b -> res4b_branch2b (in-place)
I0630 04:25:03.551818  1464 layer_factory.hpp:77] Creating layer scale4b_branch2b
I0630 04:25:03.552004  1464 net.cpp:122] Setting up scale4b_branch2b
I0630 04:25:03.552037  1464 net.cpp:129] Top shape: 8 256 14 14 (401408)
I0630 04:25:03.552040  1464 net.cpp:137] Memory required for data: 1486815392
I0630 04:25:03.552052  1464 layer_factory.hpp:77] Creating layer res4b_branch2b_relu
I0630 04:25:03.552069  1464 net.cpp:84] Creating Layer res4b_branch2b_relu
I0630 04:25:03.552088  1464 net.cpp:406] res4b_branch2b_relu <- res4b_branch2b
I0630 04:25:03.552099  1464 net.cpp:367] res4b_branch2b_relu -> res4b_branch2b (in-place)
I0630 04:25:03.552287  1464 net.cpp:122] Setting up res4b_branch2b_relu
I0630 04:25:03.552305  1464 net.cpp:129] Top shape: 8 256 14 14 (401408)
I0630 04:25:03.552310  1464 net.cpp:137] Memory required for data: 1488421024
I0630 04:25:03.552315  1464 layer_factory.hpp:77] Creating layer res4b_branch2c
I0630 04:25:03.552335  1464 net.cpp:84] Creating Layer res4b_branch2c
I0630 04:25:03.552356  1464 net.cpp:406] res4b_branch2c <- res4b_branch2b
I0630 04:25:03.552371  1464 net.cpp:380] res4b_branch2c -> res4b_branch2c
I0630 04:25:03.554157  1464 net.cpp:122] Setting up res4b_branch2c
I0630 04:25:03.554177  1464 net.cpp:129] Top shape: 8 1024 14 14 (1605632)
I0630 04:25:03.554181  1464 net.cpp:137] Memory required for data: 1494843552
I0630 04:25:03.554191  1464 layer_factory.hpp:77] Creating layer bn4b_branch2c
I0630 04:25:03.554204  1464 net.cpp:84] Creating Layer bn4b_branch2c
I0630 04:25:03.554221  1464 net.cpp:406] bn4b_branch2c <- res4b_branch2c
I0630 04:25:03.554239  1464 net.cpp:367] bn4b_branch2c -> res4b_branch2c (in-place)
I0630 04:25:03.554532  1464 net.cpp:122] Setting up bn4b_branch2c
I0630 04:25:03.554549  1464 net.cpp:129] Top shape: 8 1024 14 14 (1605632)
I0630 04:25:03.554553  1464 net.cpp:137] Memory required for data: 1501266080
I0630 04:25:03.554566  1464 layer_factory.hpp:77] Creating layer scale4b_branch2c
I0630 04:25:03.554582  1464 net.cpp:84] Creating Layer scale4b_branch2c
I0630 04:25:03.554600  1464 net.cpp:406] scale4b_branch2c <- res4b_branch2c
I0630 04:25:03.554613  1464 net.cpp:367] scale4b_branch2c -> res4b_branch2c (in-place)
I0630 04:25:03.554690  1464 layer_factory.hpp:77] Creating layer scale4b_branch2c
I0630 04:25:03.554884  1464 net.cpp:122] Setting up scale4b_branch2c
I0630 04:25:03.554901  1464 net.cpp:129] Top shape: 8 1024 14 14 (1605632)
I0630 04:25:03.554905  1464 net.cpp:137] Memory required for data: 1507688608
I0630 04:25:03.554918  1464 layer_factory.hpp:77] Creating layer res4b
I0630 04:25:03.554929  1464 net.cpp:84] Creating Layer res4b
I0630 04:25:03.554946  1464 net.cpp:406] res4b <- res4a_res4a_relu_0_split_1
I0630 04:25:03.554958  1464 net.cpp:406] res4b <- res4b_branch2c
I0630 04:25:03.554975  1464 net.cpp:380] res4b -> res4b
I0630 04:25:03.555048  1464 net.cpp:122] Setting up res4b
I0630 04:25:03.555068  1464 net.cpp:129] Top shape: 8 1024 14 14 (1605632)
I0630 04:25:03.555076  1464 net.cpp:137] Memory required for data: 1514111136
I0630 04:25:03.555084  1464 layer_factory.hpp:77] Creating layer res4b_relu
I0630 04:25:03.555095  1464 net.cpp:84] Creating Layer res4b_relu
I0630 04:25:03.555112  1464 net.cpp:406] res4b_relu <- res4b
I0630 04:25:03.555133  1464 net.cpp:367] res4b_relu -> res4b (in-place)
I0630 04:25:03.555445  1464 net.cpp:122] Setting up res4b_relu
I0630 04:25:03.555464  1464 net.cpp:129] Top shape: 8 1024 14 14 (1605632)
I0630 04:25:03.555469  1464 net.cpp:137] Memory required for data: 1520533664
I0630 04:25:03.555474  1464 layer_factory.hpp:77] Creating layer res4b_res4b_relu_0_split
I0630 04:25:03.555490  1464 net.cpp:84] Creating Layer res4b_res4b_relu_0_split
I0630 04:25:03.555510  1464 net.cpp:406] res4b_res4b_relu_0_split <- res4b
I0630 04:25:03.555527  1464 net.cpp:380] res4b_res4b_relu_0_split -> res4b_res4b_relu_0_split_0
I0630 04:25:03.555550  1464 net.cpp:380] res4b_res4b_relu_0_split -> res4b_res4b_relu_0_split_1
I0630 04:25:03.555629  1464 net.cpp:122] Setting up res4b_res4b_relu_0_split
I0630 04:25:03.555646  1464 net.cpp:129] Top shape: 8 1024 14 14 (1605632)
I0630 04:25:03.555651  1464 net.cpp:129] Top shape: 8 1024 14 14 (1605632)
I0630 04:25:03.555678  1464 net.cpp:137] Memory required for data: 1533378720
I0630 04:25:03.555691  1464 layer_factory.hpp:77] Creating layer res4c_branch2a
I0630 04:25:03.555711  1464 net.cpp:84] Creating Layer res4c_branch2a
I0630 04:25:03.555729  1464 net.cpp:406] res4c_branch2a <- res4b_res4b_relu_0_split_0
I0630 04:25:03.555747  1464 net.cpp:380] res4c_branch2a -> res4c_branch2a
I0630 04:25:03.557505  1464 net.cpp:122] Setting up res4c_branch2a
I0630 04:25:03.557526  1464 net.cpp:129] Top shape: 8 256 14 14 (401408)
I0630 04:25:03.557530  1464 net.cpp:137] Memory required for data: 1534984352
I0630 04:25:03.557540  1464 layer_factory.hpp:77] Creating layer bn4c_branch2a
I0630 04:25:03.557559  1464 net.cpp:84] Creating Layer bn4c_branch2a
I0630 04:25:03.557577  1464 net.cpp:406] bn4c_branch2a <- res4c_branch2a
I0630 04:25:03.557590  1464 net.cpp:367] bn4c_branch2a -> res4c_branch2a (in-place)
I0630 04:25:03.557873  1464 net.cpp:122] Setting up bn4c_branch2a
I0630 04:25:03.557891  1464 net.cpp:129] Top shape: 8 256 14 14 (401408)
I0630 04:25:03.557895  1464 net.cpp:137] Memory required for data: 1536589984
I0630 04:25:03.557924  1464 layer_factory.hpp:77] Creating layer scale4c_branch2a
I0630 04:25:03.557947  1464 net.cpp:84] Creating Layer scale4c_branch2a
I0630 04:25:03.557957  1464 net.cpp:406] scale4c_branch2a <- res4c_branch2a
I0630 04:25:03.557977  1464 net.cpp:367] scale4c_branch2a -> res4c_branch2a (in-place)
I0630 04:25:03.558056  1464 layer_factory.hpp:77] Creating layer scale4c_branch2a
I0630 04:25:03.558245  1464 net.cpp:122] Setting up scale4c_branch2a
I0630 04:25:03.558262  1464 net.cpp:129] Top shape: 8 256 14 14 (401408)
I0630 04:25:03.558266  1464 net.cpp:137] Memory required for data: 1538195616
I0630 04:25:03.558279  1464 layer_factory.hpp:77] Creating layer res4c_branch2a_relu
I0630 04:25:03.558290  1464 net.cpp:84] Creating Layer res4c_branch2a_relu
I0630 04:25:03.558308  1464 net.cpp:406] res4c_branch2a_relu <- res4c_branch2a
I0630 04:25:03.558324  1464 net.cpp:367] res4c_branch2a_relu -> res4c_branch2a (in-place)
I0630 04:25:03.558531  1464 net.cpp:122] Setting up res4c_branch2a_relu
I0630 04:25:03.558552  1464 net.cpp:129] Top shape: 8 256 14 14 (401408)
I0630 04:25:03.558557  1464 net.cpp:137] Memory required for data: 1539801248
I0630 04:25:03.558573  1464 layer_factory.hpp:77] Creating layer res4c_branch2b
I0630 04:25:03.558595  1464 net.cpp:84] Creating Layer res4c_branch2b
I0630 04:25:03.558614  1464 net.cpp:406] res4c_branch2b <- res4c_branch2a
I0630 04:25:03.558643  1464 net.cpp:380] res4c_branch2b -> res4c_branch2b
I0630 04:25:03.561302  1464 net.cpp:122] Setting up res4c_branch2b
I0630 04:25:03.561322  1464 net.cpp:129] Top shape: 8 256 14 14 (401408)
I0630 04:25:03.561327  1464 net.cpp:137] Memory required for data: 1541406880
I0630 04:25:03.561337  1464 layer_factory.hpp:77] Creating layer bn4c_branch2b
I0630 04:25:03.561355  1464 net.cpp:84] Creating Layer bn4c_branch2b
I0630 04:25:03.561374  1464 net.cpp:406] bn4c_branch2b <- res4c_branch2b
I0630 04:25:03.561391  1464 net.cpp:367] bn4c_branch2b -> res4c_branch2b (in-place)
I0630 04:25:03.561691  1464 net.cpp:122] Setting up bn4c_branch2b
I0630 04:25:03.561708  1464 net.cpp:129] Top shape: 8 256 14 14 (401408)
I0630 04:25:03.561712  1464 net.cpp:137] Memory required for data: 1543012512
I0630 04:25:03.561727  1464 layer_factory.hpp:77] Creating layer scale4c_branch2b
I0630 04:25:03.561743  1464 net.cpp:84] Creating Layer scale4c_branch2b
I0630 04:25:03.561760  1464 net.cpp:406] scale4c_branch2b <- res4c_branch2b
I0630 04:25:03.561779  1464 net.cpp:367] scale4c_branch2b -> res4c_branch2b (in-place)
I0630 04:25:03.561869  1464 layer_factory.hpp:77] Creating layer scale4c_branch2b
I0630 04:25:03.562065  1464 net.cpp:122] Setting up scale4c_branch2b
I0630 04:25:03.562083  1464 net.cpp:129] Top shape: 8 256 14 14 (401408)
I0630 04:25:03.562088  1464 net.cpp:137] Memory required for data: 1544618144
I0630 04:25:03.562098  1464 layer_factory.hpp:77] Creating layer res4c_branch2b_relu
I0630 04:25:03.562115  1464 net.cpp:84] Creating Layer res4c_branch2b_relu
I0630 04:25:03.562150  1464 net.cpp:406] res4c_branch2b_relu <- res4c_branch2b
I0630 04:25:03.562161  1464 net.cpp:367] res4c_branch2b_relu -> res4c_branch2b (in-place)
I0630 04:25:03.562351  1464 net.cpp:122] Setting up res4c_branch2b_relu
I0630 04:25:03.562369  1464 net.cpp:129] Top shape: 8 256 14 14 (401408)
I0630 04:25:03.562373  1464 net.cpp:137] Memory required for data: 1546223776
I0630 04:25:03.562379  1464 layer_factory.hpp:77] Creating layer res4c_branch2c
I0630 04:25:03.562398  1464 net.cpp:84] Creating Layer res4c_branch2c
I0630 04:25:03.562417  1464 net.cpp:406] res4c_branch2c <- res4c_branch2b
I0630 04:25:03.562432  1464 net.cpp:380] res4c_branch2c -> res4c_branch2c
I0630 04:25:03.564226  1464 net.cpp:122] Setting up res4c_branch2c
I0630 04:25:03.564247  1464 net.cpp:129] Top shape: 8 1024 14 14 (1605632)
I0630 04:25:03.564251  1464 net.cpp:137] Memory required for data: 1552646304
I0630 04:25:03.564261  1464 layer_factory.hpp:77] Creating layer bn4c_branch2c
I0630 04:25:03.564278  1464 net.cpp:84] Creating Layer bn4c_branch2c
I0630 04:25:03.564297  1464 net.cpp:406] bn4c_branch2c <- res4c_branch2c
I0630 04:25:03.564314  1464 net.cpp:367] bn4c_branch2c -> res4c_branch2c (in-place)
I0630 04:25:03.564605  1464 net.cpp:122] Setting up bn4c_branch2c
I0630 04:25:03.564622  1464 net.cpp:129] Top shape: 8 1024 14 14 (1605632)
I0630 04:25:03.564627  1464 net.cpp:137] Memory required for data: 1559068832
I0630 04:25:03.564640  1464 layer_factory.hpp:77] Creating layer scale4c_branch2c
I0630 04:25:03.564657  1464 net.cpp:84] Creating Layer scale4c_branch2c
I0630 04:25:03.564674  1464 net.cpp:406] scale4c_branch2c <- res4c_branch2c
I0630 04:25:03.564692  1464 net.cpp:367] scale4c_branch2c -> res4c_branch2c (in-place)
I0630 04:25:03.564774  1464 layer_factory.hpp:77] Creating layer scale4c_branch2c
I0630 04:25:03.564966  1464 net.cpp:122] Setting up scale4c_branch2c
I0630 04:25:03.564990  1464 net.cpp:129] Top shape: 8 1024 14 14 (1605632)
I0630 04:25:03.564993  1464 net.cpp:137] Memory required for data: 1565491360
I0630 04:25:03.565007  1464 layer_factory.hpp:77] Creating layer res4c
I0630 04:25:03.565027  1464 net.cpp:84] Creating Layer res4c
I0630 04:25:03.565039  1464 net.cpp:406] res4c <- res4b_res4b_relu_0_split_1
I0630 04:25:03.565049  1464 net.cpp:406] res4c <- res4c_branch2c
I0630 04:25:03.565068  1464 net.cpp:380] res4c -> res4c
I0630 04:25:03.565126  1464 net.cpp:122] Setting up res4c
I0630 04:25:03.565143  1464 net.cpp:129] Top shape: 8 1024 14 14 (1605632)
I0630 04:25:03.565147  1464 net.cpp:137] Memory required for data: 1571913888
I0630 04:25:03.565152  1464 layer_factory.hpp:77] Creating layer res4c_relu
I0630 04:25:03.565165  1464 net.cpp:84] Creating Layer res4c_relu
I0630 04:25:03.565186  1464 net.cpp:406] res4c_relu <- res4c
I0630 04:25:03.565198  1464 net.cpp:367] res4c_relu -> res4c (in-place)
I0630 04:25:03.565510  1464 net.cpp:122] Setting up res4c_relu
I0630 04:25:03.565528  1464 net.cpp:129] Top shape: 8 1024 14 14 (1605632)
I0630 04:25:03.565532  1464 net.cpp:137] Memory required for data: 1578336416
I0630 04:25:03.565538  1464 layer_factory.hpp:77] Creating layer res4c_res4c_relu_0_split
I0630 04:25:03.565553  1464 net.cpp:84] Creating Layer res4c_res4c_relu_0_split
I0630 04:25:03.565565  1464 net.cpp:406] res4c_res4c_relu_0_split <- res4c
I0630 04:25:03.565577  1464 net.cpp:380] res4c_res4c_relu_0_split -> res4c_res4c_relu_0_split_0
I0630 04:25:03.565609  1464 net.cpp:380] res4c_res4c_relu_0_split -> res4c_res4c_relu_0_split_1
I0630 04:25:03.565703  1464 net.cpp:122] Setting up res4c_res4c_relu_0_split
I0630 04:25:03.565721  1464 net.cpp:129] Top shape: 8 1024 14 14 (1605632)
I0630 04:25:03.565726  1464 net.cpp:129] Top shape: 8 1024 14 14 (1605632)
I0630 04:25:03.565731  1464 net.cpp:137] Memory required for data: 1591181472
I0630 04:25:03.565738  1464 layer_factory.hpp:77] Creating layer res4d_branch2a
I0630 04:25:03.565759  1464 net.cpp:84] Creating Layer res4d_branch2a
I0630 04:25:03.565778  1464 net.cpp:406] res4d_branch2a <- res4c_res4c_relu_0_split_0
I0630 04:25:03.565822  1464 net.cpp:380] res4d_branch2a -> res4d_branch2a
I0630 04:25:03.567617  1464 net.cpp:122] Setting up res4d_branch2a
I0630 04:25:03.567639  1464 net.cpp:129] Top shape: 8 256 14 14 (401408)
I0630 04:25:03.567643  1464 net.cpp:137] Memory required for data: 1592787104
I0630 04:25:03.567653  1464 layer_factory.hpp:77] Creating layer bn4d_branch2a
I0630 04:25:03.567665  1464 net.cpp:84] Creating Layer bn4d_branch2a
I0630 04:25:03.567683  1464 net.cpp:406] bn4d_branch2a <- res4d_branch2a
I0630 04:25:03.567705  1464 net.cpp:367] bn4d_branch2a -> res4d_branch2a (in-place)
I0630 04:25:03.567996  1464 net.cpp:122] Setting up bn4d_branch2a
I0630 04:25:03.568013  1464 net.cpp:129] Top shape: 8 256 14 14 (401408)
I0630 04:25:03.568018  1464 net.cpp:137] Memory required for data: 1594392736
I0630 04:25:03.568032  1464 layer_factory.hpp:77] Creating layer scale4d_branch2a
I0630 04:25:03.568054  1464 net.cpp:84] Creating Layer scale4d_branch2a
I0630 04:25:03.568064  1464 net.cpp:406] scale4d_branch2a <- res4d_branch2a
I0630 04:25:03.568078  1464 net.cpp:367] scale4d_branch2a -> res4d_branch2a (in-place)
I0630 04:25:03.568158  1464 layer_factory.hpp:77] Creating layer scale4d_branch2a
I0630 04:25:03.568322  1464 net.cpp:122] Setting up scale4d_branch2a
I0630 04:25:03.568338  1464 net.cpp:129] Top shape: 8 256 14 14 (401408)
I0630 04:25:03.568342  1464 net.cpp:137] Memory required for data: 1595998368
I0630 04:25:03.568349  1464 layer_factory.hpp:77] Creating layer res4d_branch2a_relu
I0630 04:25:03.568356  1464 net.cpp:84] Creating Layer res4d_branch2a_relu
I0630 04:25:03.568361  1464 net.cpp:406] res4d_branch2a_relu <- res4d_branch2a
I0630 04:25:03.568369  1464 net.cpp:367] res4d_branch2a_relu -> res4d_branch2a (in-place)
I0630 04:25:03.568532  1464 net.cpp:122] Setting up res4d_branch2a_relu
I0630 04:25:03.568549  1464 net.cpp:129] Top shape: 8 256 14 14 (401408)
I0630 04:25:03.568553  1464 net.cpp:137] Memory required for data: 1597604000
I0630 04:25:03.568558  1464 layer_factory.hpp:77] Creating layer res4d_branch2b
I0630 04:25:03.568570  1464 net.cpp:84] Creating Layer res4d_branch2b
I0630 04:25:03.568575  1464 net.cpp:406] res4d_branch2b <- res4d_branch2a
I0630 04:25:03.568584  1464 net.cpp:380] res4d_branch2b -> res4d_branch2b
I0630 04:25:03.571285  1464 net.cpp:122] Setting up res4d_branch2b
I0630 04:25:03.571305  1464 net.cpp:129] Top shape: 8 256 14 14 (401408)
I0630 04:25:03.571310  1464 net.cpp:137] Memory required for data: 1599209632
I0630 04:25:03.571316  1464 layer_factory.hpp:77] Creating layer bn4d_branch2b
I0630 04:25:03.571327  1464 net.cpp:84] Creating Layer bn4d_branch2b
I0630 04:25:03.571334  1464 net.cpp:406] bn4d_branch2b <- res4d_branch2b
I0630 04:25:03.571341  1464 net.cpp:367] bn4d_branch2b -> res4d_branch2b (in-place)
I0630 04:25:03.571600  1464 net.cpp:122] Setting up bn4d_branch2b
I0630 04:25:03.571615  1464 net.cpp:129] Top shape: 8 256 14 14 (401408)
I0630 04:25:03.571619  1464 net.cpp:137] Memory required for data: 1600815264
I0630 04:25:03.571631  1464 layer_factory.hpp:77] Creating layer scale4d_branch2b
I0630 04:25:03.571641  1464 net.cpp:84] Creating Layer scale4d_branch2b
I0630 04:25:03.571646  1464 net.cpp:406] scale4d_branch2b <- res4d_branch2b
I0630 04:25:03.571652  1464 net.cpp:367] scale4d_branch2b -> res4d_branch2b (in-place)
I0630 04:25:03.571710  1464 layer_factory.hpp:77] Creating layer scale4d_branch2b
I0630 04:25:03.571871  1464 net.cpp:122] Setting up scale4d_branch2b
I0630 04:25:03.571885  1464 net.cpp:129] Top shape: 8 256 14 14 (401408)
I0630 04:25:03.571889  1464 net.cpp:137] Memory required for data: 1602420896
I0630 04:25:03.571897  1464 layer_factory.hpp:77] Creating layer res4d_branch2b_relu
I0630 04:25:03.571909  1464 net.cpp:84] Creating Layer res4d_branch2b_relu
I0630 04:25:03.571919  1464 net.cpp:406] res4d_branch2b_relu <- res4d_branch2b
I0630 04:25:03.571925  1464 net.cpp:367] res4d_branch2b_relu -> res4d_branch2b (in-place)
I0630 04:25:03.572093  1464 net.cpp:122] Setting up res4d_branch2b_relu
I0630 04:25:03.572109  1464 net.cpp:129] Top shape: 8 256 14 14 (401408)
I0630 04:25:03.572129  1464 net.cpp:137] Memory required for data: 1604026528
I0630 04:25:03.572134  1464 layer_factory.hpp:77] Creating layer res4d_branch2c
I0630 04:25:03.572147  1464 net.cpp:84] Creating Layer res4d_branch2c
I0630 04:25:03.572154  1464 net.cpp:406] res4d_branch2c <- res4d_branch2b
I0630 04:25:03.572160  1464 net.cpp:380] res4d_branch2c -> res4d_branch2c
I0630 04:25:03.574024  1464 net.cpp:122] Setting up res4d_branch2c
I0630 04:25:03.574048  1464 net.cpp:129] Top shape: 8 1024 14 14 (1605632)
I0630 04:25:03.574053  1464 net.cpp:137] Memory required for data: 1610449056
I0630 04:25:03.574059  1464 layer_factory.hpp:77] Creating layer bn4d_branch2c
I0630 04:25:03.574066  1464 net.cpp:84] Creating Layer bn4d_branch2c
I0630 04:25:03.574071  1464 net.cpp:406] bn4d_branch2c <- res4d_branch2c
I0630 04:25:03.574077  1464 net.cpp:367] bn4d_branch2c -> res4d_branch2c (in-place)
I0630 04:25:03.574338  1464 net.cpp:122] Setting up bn4d_branch2c
I0630 04:25:03.574354  1464 net.cpp:129] Top shape: 8 1024 14 14 (1605632)
I0630 04:25:03.574358  1464 net.cpp:137] Memory required for data: 1616871584
I0630 04:25:03.574368  1464 layer_factory.hpp:77] Creating layer scale4d_branch2c
I0630 04:25:03.574375  1464 net.cpp:84] Creating Layer scale4d_branch2c
I0630 04:25:03.574379  1464 net.cpp:406] scale4d_branch2c <- res4d_branch2c
I0630 04:25:03.574384  1464 net.cpp:367] scale4d_branch2c -> res4d_branch2c (in-place)
I0630 04:25:03.574442  1464 layer_factory.hpp:77] Creating layer scale4d_branch2c
I0630 04:25:03.574614  1464 net.cpp:122] Setting up scale4d_branch2c
I0630 04:25:03.574630  1464 net.cpp:129] Top shape: 8 1024 14 14 (1605632)
I0630 04:25:03.574633  1464 net.cpp:137] Memory required for data: 1623294112
I0630 04:25:03.574640  1464 layer_factory.hpp:77] Creating layer res4d
I0630 04:25:03.574651  1464 net.cpp:84] Creating Layer res4d
I0630 04:25:03.574657  1464 net.cpp:406] res4d <- res4c_res4c_relu_0_split_1
I0630 04:25:03.574662  1464 net.cpp:406] res4d <- res4d_branch2c
I0630 04:25:03.574668  1464 net.cpp:380] res4d -> res4d
I0630 04:25:03.574704  1464 net.cpp:122] Setting up res4d
I0630 04:25:03.574719  1464 net.cpp:129] Top shape: 8 1024 14 14 (1605632)
I0630 04:25:03.574723  1464 net.cpp:137] Memory required for data: 1629716640
I0630 04:25:03.574728  1464 layer_factory.hpp:77] Creating layer res4d_relu
I0630 04:25:03.574734  1464 net.cpp:84] Creating Layer res4d_relu
I0630 04:25:03.574738  1464 net.cpp:406] res4d_relu <- res4d
I0630 04:25:03.574748  1464 net.cpp:367] res4d_relu -> res4d (in-place)
I0630 04:25:03.575023  1464 net.cpp:122] Setting up res4d_relu
I0630 04:25:03.575044  1464 net.cpp:129] Top shape: 8 1024 14 14 (1605632)
I0630 04:25:03.575048  1464 net.cpp:137] Memory required for data: 1636139168
I0630 04:25:03.575053  1464 layer_factory.hpp:77] Creating layer res4d_res4d_relu_0_split
I0630 04:25:03.575060  1464 net.cpp:84] Creating Layer res4d_res4d_relu_0_split
I0630 04:25:03.575067  1464 net.cpp:406] res4d_res4d_relu_0_split <- res4d
I0630 04:25:03.575073  1464 net.cpp:380] res4d_res4d_relu_0_split -> res4d_res4d_relu_0_split_0
I0630 04:25:03.575080  1464 net.cpp:380] res4d_res4d_relu_0_split -> res4d_res4d_relu_0_split_1
I0630 04:25:03.575139  1464 net.cpp:122] Setting up res4d_res4d_relu_0_split
I0630 04:25:03.575155  1464 net.cpp:129] Top shape: 8 1024 14 14 (1605632)
I0630 04:25:03.575160  1464 net.cpp:129] Top shape: 8 1024 14 14 (1605632)
I0630 04:25:03.575162  1464 net.cpp:137] Memory required for data: 1648984224
I0630 04:25:03.575166  1464 layer_factory.hpp:77] Creating layer res4e_branch2a
I0630 04:25:03.575179  1464 net.cpp:84] Creating Layer res4e_branch2a
I0630 04:25:03.575186  1464 net.cpp:406] res4e_branch2a <- res4d_res4d_relu_0_split_0
I0630 04:25:03.575196  1464 net.cpp:380] res4e_branch2a -> res4e_branch2a
I0630 04:25:03.576956  1464 net.cpp:122] Setting up res4e_branch2a
I0630 04:25:03.576977  1464 net.cpp:129] Top shape: 8 256 14 14 (401408)
I0630 04:25:03.576982  1464 net.cpp:137] Memory required for data: 1650589856
I0630 04:25:03.576987  1464 layer_factory.hpp:77] Creating layer bn4e_branch2a
I0630 04:25:03.577016  1464 net.cpp:84] Creating Layer bn4e_branch2a
I0630 04:25:03.577023  1464 net.cpp:406] bn4e_branch2a <- res4e_branch2a
I0630 04:25:03.577031  1464 net.cpp:367] bn4e_branch2a -> res4e_branch2a (in-place)
I0630 04:25:03.577294  1464 net.cpp:122] Setting up bn4e_branch2a
I0630 04:25:03.577311  1464 net.cpp:129] Top shape: 8 256 14 14 (401408)
I0630 04:25:03.577314  1464 net.cpp:137] Memory required for data: 1652195488
I0630 04:25:03.577323  1464 layer_factory.hpp:77] Creating layer scale4e_branch2a
I0630 04:25:03.577333  1464 net.cpp:84] Creating Layer scale4e_branch2a
I0630 04:25:03.577339  1464 net.cpp:406] scale4e_branch2a <- res4e_branch2a
I0630 04:25:03.577345  1464 net.cpp:367] scale4e_branch2a -> res4e_branch2a (in-place)
I0630 04:25:03.577404  1464 layer_factory.hpp:77] Creating layer scale4e_branch2a
I0630 04:25:03.577564  1464 net.cpp:122] Setting up scale4e_branch2a
I0630 04:25:03.577579  1464 net.cpp:129] Top shape: 8 256 14 14 (401408)
I0630 04:25:03.577582  1464 net.cpp:137] Memory required for data: 1653801120
I0630 04:25:03.577589  1464 layer_factory.hpp:77] Creating layer res4e_branch2a_relu
I0630 04:25:03.577608  1464 net.cpp:84] Creating Layer res4e_branch2a_relu
I0630 04:25:03.577613  1464 net.cpp:406] res4e_branch2a_relu <- res4e_branch2a
I0630 04:25:03.577618  1464 net.cpp:367] res4e_branch2a_relu -> res4e_branch2a (in-place)
I0630 04:25:03.577785  1464 net.cpp:122] Setting up res4e_branch2a_relu
I0630 04:25:03.577802  1464 net.cpp:129] Top shape: 8 256 14 14 (401408)
I0630 04:25:03.577806  1464 net.cpp:137] Memory required for data: 1655406752
I0630 04:25:03.577811  1464 layer_factory.hpp:77] Creating layer res4e_branch2b
I0630 04:25:03.577823  1464 net.cpp:84] Creating Layer res4e_branch2b
I0630 04:25:03.577828  1464 net.cpp:406] res4e_branch2b <- res4e_branch2a
I0630 04:25:03.577836  1464 net.cpp:380] res4e_branch2b -> res4e_branch2b
I0630 04:25:03.580077  1464 net.cpp:122] Setting up res4e_branch2b
I0630 04:25:03.580098  1464 net.cpp:129] Top shape: 8 256 14 14 (401408)
I0630 04:25:03.580103  1464 net.cpp:137] Memory required for data: 1657012384
I0630 04:25:03.580109  1464 layer_factory.hpp:77] Creating layer bn4e_branch2b
I0630 04:25:03.580119  1464 net.cpp:84] Creating Layer bn4e_branch2b
I0630 04:25:03.580126  1464 net.cpp:406] bn4e_branch2b <- res4e_branch2b
I0630 04:25:03.580130  1464 net.cpp:367] bn4e_branch2b -> res4e_branch2b (in-place)
I0630 04:25:03.580396  1464 net.cpp:122] Setting up bn4e_branch2b
I0630 04:25:03.580412  1464 net.cpp:129] Top shape: 8 256 14 14 (401408)
I0630 04:25:03.580416  1464 net.cpp:137] Memory required for data: 1658618016
I0630 04:25:03.580425  1464 layer_factory.hpp:77] Creating layer scale4e_branch2b
I0630 04:25:03.580433  1464 net.cpp:84] Creating Layer scale4e_branch2b
I0630 04:25:03.580437  1464 net.cpp:406] scale4e_branch2b <- res4e_branch2b
I0630 04:25:03.580446  1464 net.cpp:367] scale4e_branch2b -> res4e_branch2b (in-place)
I0630 04:25:03.580502  1464 layer_factory.hpp:77] Creating layer scale4e_branch2b
I0630 04:25:03.580659  1464 net.cpp:122] Setting up scale4e_branch2b
I0630 04:25:03.580677  1464 net.cpp:129] Top shape: 8 256 14 14 (401408)
I0630 04:25:03.580682  1464 net.cpp:137] Memory required for data: 1660223648
I0630 04:25:03.580688  1464 layer_factory.hpp:77] Creating layer res4e_branch2b_relu
I0630 04:25:03.580695  1464 net.cpp:84] Creating Layer res4e_branch2b_relu
I0630 04:25:03.580700  1464 net.cpp:406] res4e_branch2b_relu <- res4e_branch2b
I0630 04:25:03.580704  1464 net.cpp:367] res4e_branch2b_relu -> res4e_branch2b (in-place)
I0630 04:25:03.580880  1464 net.cpp:122] Setting up res4e_branch2b_relu
I0630 04:25:03.580898  1464 net.cpp:129] Top shape: 8 256 14 14 (401408)
I0630 04:25:03.580902  1464 net.cpp:137] Memory required for data: 1661829280
I0630 04:25:03.580906  1464 layer_factory.hpp:77] Creating layer res4e_branch2c
I0630 04:25:03.580919  1464 net.cpp:84] Creating Layer res4e_branch2c
I0630 04:25:03.580924  1464 net.cpp:406] res4e_branch2c <- res4e_branch2b
I0630 04:25:03.580950  1464 net.cpp:380] res4e_branch2c -> res4e_branch2c
I0630 04:25:03.582564  1464 net.cpp:122] Setting up res4e_branch2c
I0630 04:25:03.582586  1464 net.cpp:129] Top shape: 8 1024 14 14 (1605632)
I0630 04:25:03.582589  1464 net.cpp:137] Memory required for data: 1668251808
I0630 04:25:03.582595  1464 layer_factory.hpp:77] Creating layer bn4e_branch2c
I0630 04:25:03.582607  1464 net.cpp:84] Creating Layer bn4e_branch2c
I0630 04:25:03.582612  1464 net.cpp:406] bn4e_branch2c <- res4e_branch2c
I0630 04:25:03.582619  1464 net.cpp:367] bn4e_branch2c -> res4e_branch2c (in-place)
I0630 04:25:03.582882  1464 net.cpp:122] Setting up bn4e_branch2c
I0630 04:25:03.582898  1464 net.cpp:129] Top shape: 8 1024 14 14 (1605632)
I0630 04:25:03.582902  1464 net.cpp:137] Memory required for data: 1674674336
I0630 04:25:03.582911  1464 layer_factory.hpp:77] Creating layer scale4e_branch2c
I0630 04:25:03.582921  1464 net.cpp:84] Creating Layer scale4e_branch2c
I0630 04:25:03.582927  1464 net.cpp:406] scale4e_branch2c <- res4e_branch2c
I0630 04:25:03.582933  1464 net.cpp:367] scale4e_branch2c -> res4e_branch2c (in-place)
I0630 04:25:03.582985  1464 layer_factory.hpp:77] Creating layer scale4e_branch2c
I0630 04:25:03.583160  1464 net.cpp:122] Setting up scale4e_branch2c
I0630 04:25:03.583178  1464 net.cpp:129] Top shape: 8 1024 14 14 (1605632)
I0630 04:25:03.583180  1464 net.cpp:137] Memory required for data: 1681096864
I0630 04:25:03.583187  1464 layer_factory.hpp:77] Creating layer res4e
I0630 04:25:03.583194  1464 net.cpp:84] Creating Layer res4e
I0630 04:25:03.583199  1464 net.cpp:406] res4e <- res4d_res4d_relu_0_split_1
I0630 04:25:03.583204  1464 net.cpp:406] res4e <- res4e_branch2c
I0630 04:25:03.583209  1464 net.cpp:380] res4e -> res4e
I0630 04:25:03.583247  1464 net.cpp:122] Setting up res4e
I0630 04:25:03.583261  1464 net.cpp:129] Top shape: 8 1024 14 14 (1605632)
I0630 04:25:03.583266  1464 net.cpp:137] Memory required for data: 1687519392
I0630 04:25:03.583269  1464 layer_factory.hpp:77] Creating layer res4e_relu
I0630 04:25:03.583279  1464 net.cpp:84] Creating Layer res4e_relu
I0630 04:25:03.583283  1464 net.cpp:406] res4e_relu <- res4e
I0630 04:25:03.583288  1464 net.cpp:367] res4e_relu -> res4e (in-place)
I0630 04:25:03.583575  1464 net.cpp:122] Setting up res4e_relu
I0630 04:25:03.583595  1464 net.cpp:129] Top shape: 8 1024 14 14 (1605632)
I0630 04:25:03.583598  1464 net.cpp:137] Memory required for data: 1693941920
I0630 04:25:03.583603  1464 layer_factory.hpp:77] Creating layer res4e_res4e_relu_0_split
I0630 04:25:03.583613  1464 net.cpp:84] Creating Layer res4e_res4e_relu_0_split
I0630 04:25:03.583617  1464 net.cpp:406] res4e_res4e_relu_0_split <- res4e
I0630 04:25:03.583626  1464 net.cpp:380] res4e_res4e_relu_0_split -> res4e_res4e_relu_0_split_0
I0630 04:25:03.583633  1464 net.cpp:380] res4e_res4e_relu_0_split -> res4e_res4e_relu_0_split_1
I0630 04:25:03.583693  1464 net.cpp:122] Setting up res4e_res4e_relu_0_split
I0630 04:25:03.583706  1464 net.cpp:129] Top shape: 8 1024 14 14 (1605632)
I0630 04:25:03.583712  1464 net.cpp:129] Top shape: 8 1024 14 14 (1605632)
I0630 04:25:03.583715  1464 net.cpp:137] Memory required for data: 1706786976
I0630 04:25:03.583719  1464 layer_factory.hpp:77] Creating layer res4f_branch2a
I0630 04:25:03.583732  1464 net.cpp:84] Creating Layer res4f_branch2a
I0630 04:25:03.583739  1464 net.cpp:406] res4f_branch2a <- res4e_res4e_relu_0_split_0
I0630 04:25:03.583748  1464 net.cpp:380] res4f_branch2a -> res4f_branch2a
I0630 04:25:03.585638  1464 net.cpp:122] Setting up res4f_branch2a
I0630 04:25:03.585659  1464 net.cpp:129] Top shape: 8 256 14 14 (401408)
I0630 04:25:03.585664  1464 net.cpp:137] Memory required for data: 1708392608
I0630 04:25:03.585669  1464 layer_factory.hpp:77] Creating layer bn4f_branch2a
I0630 04:25:03.585681  1464 net.cpp:84] Creating Layer bn4f_branch2a
I0630 04:25:03.585687  1464 net.cpp:406] bn4f_branch2a <- res4f_branch2a
I0630 04:25:03.585696  1464 net.cpp:367] bn4f_branch2a -> res4f_branch2a (in-place)
I0630 04:25:03.585983  1464 net.cpp:122] Setting up bn4f_branch2a
I0630 04:25:03.586011  1464 net.cpp:129] Top shape: 8 256 14 14 (401408)
I0630 04:25:03.586019  1464 net.cpp:137] Memory required for data: 1709998240
I0630 04:25:03.586027  1464 layer_factory.hpp:77] Creating layer scale4f_branch2a
I0630 04:25:03.586036  1464 net.cpp:84] Creating Layer scale4f_branch2a
I0630 04:25:03.586042  1464 net.cpp:406] scale4f_branch2a <- res4f_branch2a
I0630 04:25:03.586051  1464 net.cpp:367] scale4f_branch2a -> res4f_branch2a (in-place)
I0630 04:25:03.586109  1464 layer_factory.hpp:77] Creating layer scale4f_branch2a
I0630 04:25:03.586274  1464 net.cpp:122] Setting up scale4f_branch2a
I0630 04:25:03.586292  1464 net.cpp:129] Top shape: 8 256 14 14 (401408)
I0630 04:25:03.586297  1464 net.cpp:137] Memory required for data: 1711603872
I0630 04:25:03.586303  1464 layer_factory.hpp:77] Creating layer res4f_branch2a_relu
I0630 04:25:03.586311  1464 net.cpp:84] Creating Layer res4f_branch2a_relu
I0630 04:25:03.586315  1464 net.cpp:406] res4f_branch2a_relu <- res4f_branch2a
I0630 04:25:03.586320  1464 net.cpp:367] res4f_branch2a_relu -> res4f_branch2a (in-place)
I0630 04:25:03.586493  1464 net.cpp:122] Setting up res4f_branch2a_relu
I0630 04:25:03.586509  1464 net.cpp:129] Top shape: 8 256 14 14 (401408)
I0630 04:25:03.586513  1464 net.cpp:137] Memory required for data: 1713209504
I0630 04:25:03.586518  1464 layer_factory.hpp:77] Creating layer res4f_branch2b
I0630 04:25:03.586530  1464 net.cpp:84] Creating Layer res4f_branch2b
I0630 04:25:03.586536  1464 net.cpp:406] res4f_branch2b <- res4f_branch2a
I0630 04:25:03.586544  1464 net.cpp:380] res4f_branch2b -> res4f_branch2b
I0630 04:25:03.589133  1464 net.cpp:122] Setting up res4f_branch2b
I0630 04:25:03.589154  1464 net.cpp:129] Top shape: 8 256 14 14 (401408)
I0630 04:25:03.589159  1464 net.cpp:137] Memory required for data: 1714815136
I0630 04:25:03.589164  1464 layer_factory.hpp:77] Creating layer bn4f_branch2b
I0630 04:25:03.589179  1464 net.cpp:84] Creating Layer bn4f_branch2b
I0630 04:25:03.589185  1464 net.cpp:406] bn4f_branch2b <- res4f_branch2b
I0630 04:25:03.589192  1464 net.cpp:367] bn4f_branch2b -> res4f_branch2b (in-place)
I0630 04:25:03.589471  1464 net.cpp:122] Setting up bn4f_branch2b
I0630 04:25:03.589494  1464 net.cpp:129] Top shape: 8 256 14 14 (401408)
I0630 04:25:03.589498  1464 net.cpp:137] Memory required for data: 1716420768
I0630 04:25:03.589507  1464 layer_factory.hpp:77] Creating layer scale4f_branch2b
I0630 04:25:03.589515  1464 net.cpp:84] Creating Layer scale4f_branch2b
I0630 04:25:03.589519  1464 net.cpp:406] scale4f_branch2b <- res4f_branch2b
I0630 04:25:03.589527  1464 net.cpp:367] scale4f_branch2b -> res4f_branch2b (in-place)
I0630 04:25:03.589586  1464 layer_factory.hpp:77] Creating layer scale4f_branch2b
I0630 04:25:03.589751  1464 net.cpp:122] Setting up scale4f_branch2b
I0630 04:25:03.589767  1464 net.cpp:129] Top shape: 8 256 14 14 (401408)
I0630 04:25:03.589771  1464 net.cpp:137] Memory required for data: 1718026400
I0630 04:25:03.589778  1464 layer_factory.hpp:77] Creating layer res4f_branch2b_relu
I0630 04:25:03.589792  1464 net.cpp:84] Creating Layer res4f_branch2b_relu
I0630 04:25:03.589802  1464 net.cpp:406] res4f_branch2b_relu <- res4f_branch2b
I0630 04:25:03.589807  1464 net.cpp:367] res4f_branch2b_relu -> res4f_branch2b (in-place)
I0630 04:25:03.590000  1464 net.cpp:122] Setting up res4f_branch2b_relu
I0630 04:25:03.590018  1464 net.cpp:129] Top shape: 8 256 14 14 (401408)
I0630 04:25:03.590023  1464 net.cpp:137] Memory required for data: 1719632032
I0630 04:25:03.590026  1464 layer_factory.hpp:77] Creating layer res4f_branch2c
I0630 04:25:03.590039  1464 net.cpp:84] Creating Layer res4f_branch2c
I0630 04:25:03.590045  1464 net.cpp:406] res4f_branch2c <- res4f_branch2b
I0630 04:25:03.590051  1464 net.cpp:380] res4f_branch2c -> res4f_branch2c
I0630 04:25:03.591820  1464 net.cpp:122] Setting up res4f_branch2c
I0630 04:25:03.591840  1464 net.cpp:129] Top shape: 8 1024 14 14 (1605632)
I0630 04:25:03.591845  1464 net.cpp:137] Memory required for data: 1726054560
I0630 04:25:03.591850  1464 layer_factory.hpp:77] Creating layer bn4f_branch2c
I0630 04:25:03.591881  1464 net.cpp:84] Creating Layer bn4f_branch2c
I0630 04:25:03.591887  1464 net.cpp:406] bn4f_branch2c <- res4f_branch2c
I0630 04:25:03.591905  1464 net.cpp:367] bn4f_branch2c -> res4f_branch2c (in-place)
I0630 04:25:03.592183  1464 net.cpp:122] Setting up bn4f_branch2c
I0630 04:25:03.592200  1464 net.cpp:129] Top shape: 8 1024 14 14 (1605632)
I0630 04:25:03.592203  1464 net.cpp:137] Memory required for data: 1732477088
I0630 04:25:03.592269  1464 layer_factory.hpp:77] Creating layer scale4f_branch2c
I0630 04:25:03.592285  1464 net.cpp:84] Creating Layer scale4f_branch2c
I0630 04:25:03.592291  1464 net.cpp:406] scale4f_branch2c <- res4f_branch2c
I0630 04:25:03.592296  1464 net.cpp:367] scale4f_branch2c -> res4f_branch2c (in-place)
I0630 04:25:03.592360  1464 layer_factory.hpp:77] Creating layer scale4f_branch2c
I0630 04:25:03.592532  1464 net.cpp:122] Setting up scale4f_branch2c
I0630 04:25:03.592548  1464 net.cpp:129] Top shape: 8 1024 14 14 (1605632)
I0630 04:25:03.592552  1464 net.cpp:137] Memory required for data: 1738899616
I0630 04:25:03.592559  1464 layer_factory.hpp:77] Creating layer res4f
I0630 04:25:03.592569  1464 net.cpp:84] Creating Layer res4f
I0630 04:25:03.592573  1464 net.cpp:406] res4f <- res4e_res4e_relu_0_split_1
I0630 04:25:03.592578  1464 net.cpp:406] res4f <- res4f_branch2c
I0630 04:25:03.592584  1464 net.cpp:380] res4f -> res4f
I0630 04:25:03.592622  1464 net.cpp:122] Setting up res4f
I0630 04:25:03.592638  1464 net.cpp:129] Top shape: 8 1024 14 14 (1605632)
I0630 04:25:03.592641  1464 net.cpp:137] Memory required for data: 1745322144
I0630 04:25:03.592645  1464 layer_factory.hpp:77] Creating layer res4f_relu
I0630 04:25:03.592653  1464 net.cpp:84] Creating Layer res4f_relu
I0630 04:25:03.592656  1464 net.cpp:406] res4f_relu <- res4f
I0630 04:25:03.592667  1464 net.cpp:367] res4f_relu -> res4f (in-place)
I0630 04:25:03.592954  1464 net.cpp:122] Setting up res4f_relu
I0630 04:25:03.592975  1464 net.cpp:129] Top shape: 8 1024 14 14 (1605632)
I0630 04:25:03.592979  1464 net.cpp:137] Memory required for data: 1751744672
I0630 04:25:03.592983  1464 layer_factory.hpp:77] Creating layer res4f_res4f_relu_0_split
I0630 04:25:03.592990  1464 net.cpp:84] Creating Layer res4f_res4f_relu_0_split
I0630 04:25:03.592995  1464 net.cpp:406] res4f_res4f_relu_0_split <- res4f
I0630 04:25:03.593001  1464 net.cpp:380] res4f_res4f_relu_0_split -> res4f_res4f_relu_0_split_0
I0630 04:25:03.593008  1464 net.cpp:380] res4f_res4f_relu_0_split -> res4f_res4f_relu_0_split_1
I0630 04:25:03.593070  1464 net.cpp:122] Setting up res4f_res4f_relu_0_split
I0630 04:25:03.593085  1464 net.cpp:129] Top shape: 8 1024 14 14 (1605632)
I0630 04:25:03.593089  1464 net.cpp:129] Top shape: 8 1024 14 14 (1605632)
I0630 04:25:03.593092  1464 net.cpp:137] Memory required for data: 1764589728
I0630 04:25:03.593096  1464 layer_factory.hpp:77] Creating layer res5a_branch1
I0630 04:25:03.593109  1464 net.cpp:84] Creating Layer res5a_branch1
I0630 04:25:03.593116  1464 net.cpp:406] res5a_branch1 <- res4f_res4f_relu_0_split_0
I0630 04:25:03.593125  1464 net.cpp:380] res5a_branch1 -> res5a_branch1
I0630 04:25:03.599411  1464 net.cpp:122] Setting up res5a_branch1
I0630 04:25:03.599433  1464 net.cpp:129] Top shape: 8 2048 7 7 (802816)
I0630 04:25:03.599437  1464 net.cpp:137] Memory required for data: 1767800992
I0630 04:25:03.599444  1464 layer_factory.hpp:77] Creating layer bn5a_branch1
I0630 04:25:03.599455  1464 net.cpp:84] Creating Layer bn5a_branch1
I0630 04:25:03.599460  1464 net.cpp:406] bn5a_branch1 <- res5a_branch1
I0630 04:25:03.599468  1464 net.cpp:367] bn5a_branch1 -> res5a_branch1 (in-place)
I0630 04:25:03.599795  1464 net.cpp:122] Setting up bn5a_branch1
I0630 04:25:03.599815  1464 net.cpp:129] Top shape: 8 2048 7 7 (802816)
I0630 04:25:03.599819  1464 net.cpp:137] Memory required for data: 1771012256
I0630 04:25:03.599828  1464 layer_factory.hpp:77] Creating layer scale5a_branch1
I0630 04:25:03.599838  1464 net.cpp:84] Creating Layer scale5a_branch1
I0630 04:25:03.599846  1464 net.cpp:406] scale5a_branch1 <- res5a_branch1
I0630 04:25:03.599869  1464 net.cpp:367] scale5a_branch1 -> res5a_branch1 (in-place)
I0630 04:25:03.599927  1464 layer_factory.hpp:77] Creating layer scale5a_branch1
I0630 04:25:03.600106  1464 net.cpp:122] Setting up scale5a_branch1
I0630 04:25:03.600122  1464 net.cpp:129] Top shape: 8 2048 7 7 (802816)
I0630 04:25:03.600126  1464 net.cpp:137] Memory required for data: 1774223520
I0630 04:25:03.600133  1464 layer_factory.hpp:77] Creating layer res5a_branch2a
I0630 04:25:03.600147  1464 net.cpp:84] Creating Layer res5a_branch2a
I0630 04:25:03.600153  1464 net.cpp:406] res5a_branch2a <- res4f_res4f_relu_0_split_1
I0630 04:25:03.600159  1464 net.cpp:380] res5a_branch2a -> res5a_branch2a
I0630 04:25:03.602205  1464 net.cpp:122] Setting up res5a_branch2a
I0630 04:25:03.602227  1464 net.cpp:129] Top shape: 8 512 7 7 (200704)
I0630 04:25:03.602232  1464 net.cpp:137] Memory required for data: 1775026336
I0630 04:25:03.602238  1464 layer_factory.hpp:77] Creating layer bn5a_branch2a
I0630 04:25:03.602247  1464 net.cpp:84] Creating Layer bn5a_branch2a
I0630 04:25:03.602252  1464 net.cpp:406] bn5a_branch2a <- res5a_branch2a
I0630 04:25:03.602259  1464 net.cpp:367] bn5a_branch2a -> res5a_branch2a (in-place)
I0630 04:25:03.602545  1464 net.cpp:122] Setting up bn5a_branch2a
I0630 04:25:03.602560  1464 net.cpp:129] Top shape: 8 512 7 7 (200704)
I0630 04:25:03.602565  1464 net.cpp:137] Memory required for data: 1775829152
I0630 04:25:03.602573  1464 layer_factory.hpp:77] Creating layer scale5a_branch2a
I0630 04:25:03.602581  1464 net.cpp:84] Creating Layer scale5a_branch2a
I0630 04:25:03.602586  1464 net.cpp:406] scale5a_branch2a <- res5a_branch2a
I0630 04:25:03.602591  1464 net.cpp:367] scale5a_branch2a -> res5a_branch2a (in-place)
I0630 04:25:03.602648  1464 layer_factory.hpp:77] Creating layer scale5a_branch2a
I0630 04:25:03.602823  1464 net.cpp:122] Setting up scale5a_branch2a
I0630 04:25:03.602839  1464 net.cpp:129] Top shape: 8 512 7 7 (200704)
I0630 04:25:03.602843  1464 net.cpp:137] Memory required for data: 1776631968
I0630 04:25:03.602852  1464 layer_factory.hpp:77] Creating layer res5a_branch2a_relu
I0630 04:25:03.602862  1464 net.cpp:84] Creating Layer res5a_branch2a_relu
I0630 04:25:03.602869  1464 net.cpp:406] res5a_branch2a_relu <- res5a_branch2a
I0630 04:25:03.602874  1464 net.cpp:367] res5a_branch2a_relu -> res5a_branch2a (in-place)
I0630 04:25:03.603157  1464 net.cpp:122] Setting up res5a_branch2a_relu
I0630 04:25:03.603175  1464 net.cpp:129] Top shape: 8 512 7 7 (200704)
I0630 04:25:03.603180  1464 net.cpp:137] Memory required for data: 1777434784
I0630 04:25:03.603184  1464 layer_factory.hpp:77] Creating layer res5a_branch2b
I0630 04:25:03.603199  1464 net.cpp:84] Creating Layer res5a_branch2b
I0630 04:25:03.603204  1464 net.cpp:406] res5a_branch2b <- res5a_branch2a
I0630 04:25:03.603214  1464 net.cpp:380] res5a_branch2b -> res5a_branch2b
I0630 04:25:03.610407  1464 net.cpp:122] Setting up res5a_branch2b
I0630 04:25:03.610435  1464 net.cpp:129] Top shape: 8 512 7 7 (200704)
I0630 04:25:03.610438  1464 net.cpp:137] Memory required for data: 1778237600
I0630 04:25:03.610445  1464 layer_factory.hpp:77] Creating layer bn5a_branch2b
I0630 04:25:03.610460  1464 net.cpp:84] Creating Layer bn5a_branch2b
I0630 04:25:03.610466  1464 net.cpp:406] bn5a_branch2b <- res5a_branch2b
I0630 04:25:03.610476  1464 net.cpp:367] bn5a_branch2b -> res5a_branch2b (in-place)
I0630 04:25:03.610764  1464 net.cpp:122] Setting up bn5a_branch2b
I0630 04:25:03.610780  1464 net.cpp:129] Top shape: 8 512 7 7 (200704)
I0630 04:25:03.610783  1464 net.cpp:137] Memory required for data: 1779040416
I0630 04:25:03.610792  1464 layer_factory.hpp:77] Creating layer scale5a_branch2b
I0630 04:25:03.610800  1464 net.cpp:84] Creating Layer scale5a_branch2b
I0630 04:25:03.610805  1464 net.cpp:406] scale5a_branch2b <- res5a_branch2b
I0630 04:25:03.610813  1464 net.cpp:367] scale5a_branch2b -> res5a_branch2b (in-place)
I0630 04:25:03.610882  1464 layer_factory.hpp:77] Creating layer scale5a_branch2b
I0630 04:25:03.611073  1464 net.cpp:122] Setting up scale5a_branch2b
I0630 04:25:03.611104  1464 net.cpp:129] Top shape: 8 512 7 7 (200704)
I0630 04:25:03.611107  1464 net.cpp:137] Memory required for data: 1779843232
I0630 04:25:03.611115  1464 layer_factory.hpp:77] Creating layer res5a_branch2b_relu
I0630 04:25:03.611122  1464 net.cpp:84] Creating Layer res5a_branch2b_relu
I0630 04:25:03.611127  1464 net.cpp:406] res5a_branch2b_relu <- res5a_branch2b
I0630 04:25:03.611132  1464 net.cpp:367] res5a_branch2b_relu -> res5a_branch2b (in-place)
I0630 04:25:03.611317  1464 net.cpp:122] Setting up res5a_branch2b_relu
I0630 04:25:03.611335  1464 net.cpp:129] Top shape: 8 512 7 7 (200704)
I0630 04:25:03.611338  1464 net.cpp:137] Memory required for data: 1780646048
I0630 04:25:03.611342  1464 layer_factory.hpp:77] Creating layer res5a_branch2c
I0630 04:25:03.611356  1464 net.cpp:84] Creating Layer res5a_branch2c
I0630 04:25:03.611361  1464 net.cpp:406] res5a_branch2c <- res5a_branch2b
I0630 04:25:03.611371  1464 net.cpp:380] res5a_branch2c -> res5a_branch2c
I0630 04:25:03.615085  1464 net.cpp:122] Setting up res5a_branch2c
I0630 04:25:03.615106  1464 net.cpp:129] Top shape: 8 2048 7 7 (802816)
I0630 04:25:03.615110  1464 net.cpp:137] Memory required for data: 1783857312
I0630 04:25:03.615118  1464 layer_factory.hpp:77] Creating layer bn5a_branch2c
I0630 04:25:03.615135  1464 net.cpp:84] Creating Layer bn5a_branch2c
I0630 04:25:03.615149  1464 net.cpp:406] bn5a_branch2c <- res5a_branch2c
I0630 04:25:03.615157  1464 net.cpp:367] bn5a_branch2c -> res5a_branch2c (in-place)
I0630 04:25:03.615445  1464 net.cpp:122] Setting up bn5a_branch2c
I0630 04:25:03.615461  1464 net.cpp:129] Top shape: 8 2048 7 7 (802816)
I0630 04:25:03.615468  1464 net.cpp:137] Memory required for data: 1787068576
I0630 04:25:03.615478  1464 layer_factory.hpp:77] Creating layer scale5a_branch2c
I0630 04:25:03.615487  1464 net.cpp:84] Creating Layer scale5a_branch2c
I0630 04:25:03.615497  1464 net.cpp:406] scale5a_branch2c <- res5a_branch2c
I0630 04:25:03.615504  1464 net.cpp:367] scale5a_branch2c -> res5a_branch2c (in-place)
I0630 04:25:03.615563  1464 layer_factory.hpp:77] Creating layer scale5a_branch2c
I0630 04:25:03.615749  1464 net.cpp:122] Setting up scale5a_branch2c
I0630 04:25:03.615766  1464 net.cpp:129] Top shape: 8 2048 7 7 (802816)
I0630 04:25:03.615769  1464 net.cpp:137] Memory required for data: 1790279840
I0630 04:25:03.615777  1464 layer_factory.hpp:77] Creating layer res5a
I0630 04:25:03.615784  1464 net.cpp:84] Creating Layer res5a
I0630 04:25:03.615789  1464 net.cpp:406] res5a <- res5a_branch1
I0630 04:25:03.615794  1464 net.cpp:406] res5a <- res5a_branch2c
I0630 04:25:03.615802  1464 net.cpp:380] res5a -> res5a
I0630 04:25:03.615840  1464 net.cpp:122] Setting up res5a
I0630 04:25:03.615859  1464 net.cpp:129] Top shape: 8 2048 7 7 (802816)
I0630 04:25:03.615862  1464 net.cpp:137] Memory required for data: 1793491104
I0630 04:25:03.615866  1464 layer_factory.hpp:77] Creating layer res5a_relu
I0630 04:25:03.615873  1464 net.cpp:84] Creating Layer res5a_relu
I0630 04:25:03.615878  1464 net.cpp:406] res5a_relu <- res5a
I0630 04:25:03.615883  1464 net.cpp:367] res5a_relu -> res5a (in-place)
I0630 04:25:03.616179  1464 net.cpp:122] Setting up res5a_relu
I0630 04:25:03.616197  1464 net.cpp:129] Top shape: 8 2048 7 7 (802816)
I0630 04:25:03.616201  1464 net.cpp:137] Memory required for data: 1796702368
I0630 04:25:03.616206  1464 layer_factory.hpp:77] Creating layer res5a_res5a_relu_0_split
I0630 04:25:03.616214  1464 net.cpp:84] Creating Layer res5a_res5a_relu_0_split
I0630 04:25:03.616219  1464 net.cpp:406] res5a_res5a_relu_0_split <- res5a
I0630 04:25:03.616227  1464 net.cpp:380] res5a_res5a_relu_0_split -> res5a_res5a_relu_0_split_0
I0630 04:25:03.616235  1464 net.cpp:380] res5a_res5a_relu_0_split -> res5a_res5a_relu_0_split_1
I0630 04:25:03.616294  1464 net.cpp:122] Setting up res5a_res5a_relu_0_split
I0630 04:25:03.616310  1464 net.cpp:129] Top shape: 8 2048 7 7 (802816)
I0630 04:25:03.616319  1464 net.cpp:129] Top shape: 8 2048 7 7 (802816)
I0630 04:25:03.616322  1464 net.cpp:137] Memory required for data: 1803124896
I0630 04:25:03.616339  1464 layer_factory.hpp:77] Creating layer my_res5b_branch2a
I0630 04:25:03.616350  1464 net.cpp:84] Creating Layer my_res5b_branch2a
I0630 04:25:03.616361  1464 net.cpp:406] my_res5b_branch2a <- res5a_res5a_relu_0_split_0
I0630 04:25:03.616374  1464 net.cpp:380] my_res5b_branch2a -> my_res5b_branch2a
I0630 04:25:03.619663  1464 net.cpp:122] Setting up my_res5b_branch2a
I0630 04:25:03.619685  1464 net.cpp:129] Top shape: 8 512 7 7 (200704)
I0630 04:25:03.619690  1464 net.cpp:137] Memory required for data: 1803927712
I0630 04:25:03.619698  1464 layer_factory.hpp:77] Creating layer my_bn5b_branch2a
I0630 04:25:03.619709  1464 net.cpp:84] Creating Layer my_bn5b_branch2a
I0630 04:25:03.619724  1464 net.cpp:406] my_bn5b_branch2a <- my_res5b_branch2a
I0630 04:25:03.619731  1464 net.cpp:367] my_bn5b_branch2a -> my_res5b_branch2a (in-place)
I0630 04:25:03.620023  1464 net.cpp:122] Setting up my_bn5b_branch2a
I0630 04:25:03.620038  1464 net.cpp:129] Top shape: 8 512 7 7 (200704)
I0630 04:25:03.620043  1464 net.cpp:137] Memory required for data: 1804730528
I0630 04:25:03.620051  1464 layer_factory.hpp:77] Creating layer my_scale5b_branch2a
I0630 04:25:03.620059  1464 net.cpp:84] Creating Layer my_scale5b_branch2a
I0630 04:25:03.620064  1464 net.cpp:406] my_scale5b_branch2a <- my_res5b_branch2a
I0630 04:25:03.620069  1464 net.cpp:367] my_scale5b_branch2a -> my_res5b_branch2a (in-place)
I0630 04:25:03.620129  1464 layer_factory.hpp:77] Creating layer my_scale5b_branch2a
I0630 04:25:03.620326  1464 net.cpp:122] Setting up my_scale5b_branch2a
I0630 04:25:03.620342  1464 net.cpp:129] Top shape: 8 512 7 7 (200704)
I0630 04:25:03.620345  1464 net.cpp:137] Memory required for data: 1805533344
I0630 04:25:03.620352  1464 layer_factory.hpp:77] Creating layer my_res5b_branch2a_relu
I0630 04:25:03.620362  1464 net.cpp:84] Creating Layer my_res5b_branch2a_relu
I0630 04:25:03.620367  1464 net.cpp:406] my_res5b_branch2a_relu <- my_res5b_branch2a
I0630 04:25:03.620371  1464 net.cpp:367] my_res5b_branch2a_relu -> my_res5b_branch2a (in-place)
I0630 04:25:03.620663  1464 net.cpp:122] Setting up my_res5b_branch2a_relu
I0630 04:25:03.620682  1464 net.cpp:129] Top shape: 8 512 7 7 (200704)
I0630 04:25:03.620687  1464 net.cpp:137] Memory required for data: 1806336160
I0630 04:25:03.620690  1464 layer_factory.hpp:77] Creating layer my_res5b_branch2b
I0630 04:25:03.620705  1464 net.cpp:84] Creating Layer my_res5b_branch2b
I0630 04:25:03.620717  1464 net.cpp:406] my_res5b_branch2b <- my_res5b_branch2a
I0630 04:25:03.620728  1464 net.cpp:380] my_res5b_branch2b -> my_res5b_branch2b
I0630 04:25:03.627835  1464 net.cpp:122] Setting up my_res5b_branch2b
I0630 04:25:03.627856  1464 net.cpp:129] Top shape: 8 512 7 7 (200704)
I0630 04:25:03.627861  1464 net.cpp:137] Memory required for data: 1807138976
I0630 04:25:03.627867  1464 layer_factory.hpp:77] Creating layer my_bn5b_branch2b
I0630 04:25:03.627878  1464 net.cpp:84] Creating Layer my_bn5b_branch2b
I0630 04:25:03.627883  1464 net.cpp:406] my_bn5b_branch2b <- my_res5b_branch2b
I0630 04:25:03.627889  1464 net.cpp:367] my_bn5b_branch2b -> my_res5b_branch2b (in-place)
I0630 04:25:03.628193  1464 net.cpp:122] Setting up my_bn5b_branch2b
I0630 04:25:03.628209  1464 net.cpp:129] Top shape: 8 512 7 7 (200704)
I0630 04:25:03.628213  1464 net.cpp:137] Memory required for data: 1807941792
I0630 04:25:03.628222  1464 layer_factory.hpp:77] Creating layer my_scale5b_branch2b
I0630 04:25:03.628233  1464 net.cpp:84] Creating Layer my_scale5b_branch2b
I0630 04:25:03.628240  1464 net.cpp:406] my_scale5b_branch2b <- my_res5b_branch2b
I0630 04:25:03.628247  1464 net.cpp:367] my_scale5b_branch2b -> my_res5b_branch2b (in-place)
I0630 04:25:03.628309  1464 layer_factory.hpp:77] Creating layer my_scale5b_branch2b
I0630 04:25:03.628495  1464 net.cpp:122] Setting up my_scale5b_branch2b
I0630 04:25:03.628511  1464 net.cpp:129] Top shape: 8 512 7 7 (200704)
I0630 04:25:03.628515  1464 net.cpp:137] Memory required for data: 1808744608
I0630 04:25:03.628522  1464 layer_factory.hpp:77] Creating layer my_res5b_branch2b_relu
I0630 04:25:03.628548  1464 net.cpp:84] Creating Layer my_res5b_branch2b_relu
I0630 04:25:03.628553  1464 net.cpp:406] my_res5b_branch2b_relu <- my_res5b_branch2b
I0630 04:25:03.628561  1464 net.cpp:367] my_res5b_branch2b_relu -> my_res5b_branch2b (in-place)
I0630 04:25:03.628742  1464 net.cpp:122] Setting up my_res5b_branch2b_relu
I0630 04:25:03.628759  1464 net.cpp:129] Top shape: 8 512 7 7 (200704)
I0630 04:25:03.628763  1464 net.cpp:137] Memory required for data: 1809547424
I0630 04:25:03.628767  1464 layer_factory.hpp:77] Creating layer my_res5b_branch2c
I0630 04:25:03.628783  1464 net.cpp:84] Creating Layer my_res5b_branch2c
I0630 04:25:03.628790  1464 net.cpp:406] my_res5b_branch2c <- my_res5b_branch2b
I0630 04:25:03.628798  1464 net.cpp:380] my_res5b_branch2c -> my_res5b_branch2c
I0630 04:25:03.632318  1464 net.cpp:122] Setting up my_res5b_branch2c
I0630 04:25:03.632339  1464 net.cpp:129] Top shape: 8 2048 7 7 (802816)
I0630 04:25:03.632344  1464 net.cpp:137] Memory required for data: 1812758688
I0630 04:25:03.632350  1464 layer_factory.hpp:77] Creating layer my_bn5b_branch2c
I0630 04:25:03.632361  1464 net.cpp:84] Creating Layer my_bn5b_branch2c
I0630 04:25:03.632366  1464 net.cpp:406] my_bn5b_branch2c <- my_res5b_branch2c
I0630 04:25:03.632372  1464 net.cpp:367] my_bn5b_branch2c -> my_res5b_branch2c (in-place)
I0630 04:25:03.632685  1464 net.cpp:122] Setting up my_bn5b_branch2c
I0630 04:25:03.632702  1464 net.cpp:129] Top shape: 8 2048 7 7 (802816)
I0630 04:25:03.632706  1464 net.cpp:137] Memory required for data: 1815969952
I0630 04:25:03.632717  1464 layer_factory.hpp:77] Creating layer my_scale5b_branch2c
I0630 04:25:03.632726  1464 net.cpp:84] Creating Layer my_scale5b_branch2c
I0630 04:25:03.632732  1464 net.cpp:406] my_scale5b_branch2c <- my_res5b_branch2c
I0630 04:25:03.632738  1464 net.cpp:367] my_scale5b_branch2c -> my_res5b_branch2c (in-place)
I0630 04:25:03.632802  1464 layer_factory.hpp:77] Creating layer my_scale5b_branch2c
I0630 04:25:03.632992  1464 net.cpp:122] Setting up my_scale5b_branch2c
I0630 04:25:03.633008  1464 net.cpp:129] Top shape: 8 2048 7 7 (802816)
I0630 04:25:03.633013  1464 net.cpp:137] Memory required for data: 1819181216
I0630 04:25:03.633019  1464 layer_factory.hpp:77] Creating layer my_res5b
I0630 04:25:03.633030  1464 net.cpp:84] Creating Layer my_res5b
I0630 04:25:03.633036  1464 net.cpp:406] my_res5b <- res5a_res5a_relu_0_split_1
I0630 04:25:03.633043  1464 net.cpp:406] my_res5b <- my_res5b_branch2c
I0630 04:25:03.633047  1464 net.cpp:380] my_res5b -> my_res5b
I0630 04:25:03.633090  1464 net.cpp:122] Setting up my_res5b
I0630 04:25:03.633105  1464 net.cpp:129] Top shape: 8 2048 7 7 (802816)
I0630 04:25:03.633110  1464 net.cpp:137] Memory required for data: 1822392480
I0630 04:25:03.633113  1464 layer_factory.hpp:77] Creating layer my_res5b_relu
I0630 04:25:03.633121  1464 net.cpp:84] Creating Layer my_res5b_relu
I0630 04:25:03.633124  1464 net.cpp:406] my_res5b_relu <- my_res5b
I0630 04:25:03.633132  1464 net.cpp:367] my_res5b_relu -> my_res5b (in-place)
I0630 04:25:03.633420  1464 net.cpp:122] Setting up my_res5b_relu
I0630 04:25:03.633438  1464 net.cpp:129] Top shape: 8 2048 7 7 (802816)
I0630 04:25:03.633442  1464 net.cpp:137] Memory required for data: 1825603744
I0630 04:25:03.633447  1464 layer_factory.hpp:77] Creating layer my_res5b_my_res5b_relu_0_split
I0630 04:25:03.633457  1464 net.cpp:84] Creating Layer my_res5b_my_res5b_relu_0_split
I0630 04:25:03.633462  1464 net.cpp:406] my_res5b_my_res5b_relu_0_split <- my_res5b
I0630 04:25:03.633468  1464 net.cpp:380] my_res5b_my_res5b_relu_0_split -> my_res5b_my_res5b_relu_0_split_0
I0630 04:25:03.633476  1464 net.cpp:380] my_res5b_my_res5b_relu_0_split -> my_res5b_my_res5b_relu_0_split_1
I0630 04:25:03.633543  1464 net.cpp:122] Setting up my_res5b_my_res5b_relu_0_split
I0630 04:25:03.633558  1464 net.cpp:129] Top shape: 8 2048 7 7 (802816)
I0630 04:25:03.633563  1464 net.cpp:129] Top shape: 8 2048 7 7 (802816)
I0630 04:25:03.633568  1464 net.cpp:137] Memory required for data: 1832026272
I0630 04:25:03.633584  1464 layer_factory.hpp:77] Creating layer my_res5c_branch2a
I0630 04:25:03.633597  1464 net.cpp:84] Creating Layer my_res5c_branch2a
I0630 04:25:03.633608  1464 net.cpp:406] my_res5c_branch2a <- my_res5b_my_res5b_relu_0_split_0
I0630 04:25:03.633618  1464 net.cpp:380] my_res5c_branch2a -> my_res5c_branch2a
I0630 04:25:03.637068  1464 net.cpp:122] Setting up my_res5c_branch2a
I0630 04:25:03.637094  1464 net.cpp:129] Top shape: 8 512 7 7 (200704)
I0630 04:25:03.637099  1464 net.cpp:137] Memory required for data: 1832829088
I0630 04:25:03.637104  1464 layer_factory.hpp:77] Creating layer my_bn5c_branch2a
I0630 04:25:03.637112  1464 net.cpp:84] Creating Layer my_bn5c_branch2a
I0630 04:25:03.637117  1464 net.cpp:406] my_bn5c_branch2a <- my_res5c_branch2a
I0630 04:25:03.637126  1464 net.cpp:367] my_bn5c_branch2a -> my_res5c_branch2a (in-place)
I0630 04:25:03.637429  1464 net.cpp:122] Setting up my_bn5c_branch2a
I0630 04:25:03.637446  1464 net.cpp:129] Top shape: 8 512 7 7 (200704)
I0630 04:25:03.637450  1464 net.cpp:137] Memory required for data: 1833631904
I0630 04:25:03.637459  1464 layer_factory.hpp:77] Creating layer my_scale5c_branch2a
I0630 04:25:03.637466  1464 net.cpp:84] Creating Layer my_scale5c_branch2a
I0630 04:25:03.637470  1464 net.cpp:406] my_scale5c_branch2a <- my_res5c_branch2a
I0630 04:25:03.637476  1464 net.cpp:367] my_scale5c_branch2a -> my_res5c_branch2a (in-place)
I0630 04:25:03.637537  1464 layer_factory.hpp:77] Creating layer my_scale5c_branch2a
I0630 04:25:03.637734  1464 net.cpp:122] Setting up my_scale5c_branch2a
I0630 04:25:03.637750  1464 net.cpp:129] Top shape: 8 512 7 7 (200704)
I0630 04:25:03.637754  1464 net.cpp:137] Memory required for data: 1834434720
I0630 04:25:03.637760  1464 layer_factory.hpp:77] Creating layer my_res5c_branch2a_relu
I0630 04:25:03.637771  1464 net.cpp:84] Creating Layer my_res5c_branch2a_relu
I0630 04:25:03.637776  1464 net.cpp:406] my_res5c_branch2a_relu <- my_res5c_branch2a
I0630 04:25:03.637784  1464 net.cpp:367] my_res5c_branch2a_relu -> my_res5c_branch2a (in-place)
I0630 04:25:03.638128  1464 net.cpp:122] Setting up my_res5c_branch2a_relu
I0630 04:25:03.638145  1464 net.cpp:129] Top shape: 8 512 7 7 (200704)
I0630 04:25:03.638150  1464 net.cpp:137] Memory required for data: 1835237536
I0630 04:25:03.638154  1464 layer_factory.hpp:77] Creating layer my_res5c_branch2b
I0630 04:25:03.638169  1464 net.cpp:84] Creating Layer my_res5c_branch2b
I0630 04:25:03.638175  1464 net.cpp:406] my_res5c_branch2b <- my_res5c_branch2a
I0630 04:25:03.638185  1464 net.cpp:380] my_res5c_branch2b -> my_res5c_branch2b
I0630 04:25:03.645298  1464 net.cpp:122] Setting up my_res5c_branch2b
I0630 04:25:03.645319  1464 net.cpp:129] Top shape: 8 512 7 7 (200704)
I0630 04:25:03.645323  1464 net.cpp:137] Memory required for data: 1836040352
I0630 04:25:03.645336  1464 layer_factory.hpp:77] Creating layer my_bn5c_branch2b
I0630 04:25:03.645346  1464 net.cpp:84] Creating Layer my_bn5c_branch2b
I0630 04:25:03.645351  1464 net.cpp:406] my_bn5c_branch2b <- my_res5c_branch2b
I0630 04:25:03.645359  1464 net.cpp:367] my_bn5c_branch2b -> my_res5c_branch2b (in-place)
I0630 04:25:03.645664  1464 net.cpp:122] Setting up my_bn5c_branch2b
I0630 04:25:03.645680  1464 net.cpp:129] Top shape: 8 512 7 7 (200704)
I0630 04:25:03.645684  1464 net.cpp:137] Memory required for data: 1836843168
I0630 04:25:03.645694  1464 layer_factory.hpp:77] Creating layer my_scale5c_branch2b
I0630 04:25:03.645701  1464 net.cpp:84] Creating Layer my_scale5c_branch2b
I0630 04:25:03.645705  1464 net.cpp:406] my_scale5c_branch2b <- my_res5c_branch2b
I0630 04:25:03.645714  1464 net.cpp:367] my_scale5c_branch2b -> my_res5c_branch2b (in-place)
I0630 04:25:03.645776  1464 layer_factory.hpp:77] Creating layer my_scale5c_branch2b
I0630 04:25:03.646016  1464 net.cpp:122] Setting up my_scale5c_branch2b
I0630 04:25:03.646034  1464 net.cpp:129] Top shape: 8 512 7 7 (200704)
I0630 04:25:03.646037  1464 net.cpp:137] Memory required for data: 1837645984
I0630 04:25:03.646044  1464 layer_factory.hpp:77] Creating layer my_res5c_branch2b_relu
I0630 04:25:03.646069  1464 net.cpp:84] Creating Layer my_res5c_branch2b_relu
I0630 04:25:03.646073  1464 net.cpp:406] my_res5c_branch2b_relu <- my_res5c_branch2b
I0630 04:25:03.646078  1464 net.cpp:367] my_res5c_branch2b_relu -> my_res5c_branch2b (in-place)
I0630 04:25:03.646262  1464 net.cpp:122] Setting up my_res5c_branch2b_relu
I0630 04:25:03.646280  1464 net.cpp:129] Top shape: 8 512 7 7 (200704)
I0630 04:25:03.646283  1464 net.cpp:137] Memory required for data: 1838448800
I0630 04:25:03.646287  1464 layer_factory.hpp:77] Creating layer my_res5c_branch2c
I0630 04:25:03.646301  1464 net.cpp:84] Creating Layer my_res5c_branch2c
I0630 04:25:03.646306  1464 net.cpp:406] my_res5c_branch2c <- my_res5c_branch2b
I0630 04:25:03.646314  1464 net.cpp:380] my_res5c_branch2c -> my_res5c_branch2c
I0630 04:25:03.649565  1464 net.cpp:122] Setting up my_res5c_branch2c
I0630 04:25:03.649586  1464 net.cpp:129] Top shape: 8 2048 7 7 (802816)
I0630 04:25:03.649591  1464 net.cpp:137] Memory required for data: 1841660064
I0630 04:25:03.649597  1464 layer_factory.hpp:77] Creating layer my_bn5c_branch2c
I0630 04:25:03.649608  1464 net.cpp:84] Creating Layer my_bn5c_branch2c
I0630 04:25:03.649613  1464 net.cpp:406] my_bn5c_branch2c <- my_res5c_branch2c
I0630 04:25:03.649621  1464 net.cpp:367] my_bn5c_branch2c -> my_res5c_branch2c (in-place)
I0630 04:25:03.649950  1464 net.cpp:122] Setting up my_bn5c_branch2c
I0630 04:25:03.649967  1464 net.cpp:129] Top shape: 8 2048 7 7 (802816)
I0630 04:25:03.649971  1464 net.cpp:137] Memory required for data: 1844871328
I0630 04:25:03.649981  1464 layer_factory.hpp:77] Creating layer my_scale5c_branch2c
I0630 04:25:03.649991  1464 net.cpp:84] Creating Layer my_scale5c_branch2c
I0630 04:25:03.649996  1464 net.cpp:406] my_scale5c_branch2c <- my_res5c_branch2c
I0630 04:25:03.650002  1464 net.cpp:367] my_scale5c_branch2c -> my_res5c_branch2c (in-place)
I0630 04:25:03.650063  1464 layer_factory.hpp:77] Creating layer my_scale5c_branch2c
I0630 04:25:03.650270  1464 net.cpp:122] Setting up my_scale5c_branch2c
I0630 04:25:03.650286  1464 net.cpp:129] Top shape: 8 2048 7 7 (802816)
I0630 04:25:03.650290  1464 net.cpp:137] Memory required for data: 1848082592
I0630 04:25:03.650297  1464 layer_factory.hpp:77] Creating layer my_res5c
I0630 04:25:03.650305  1464 net.cpp:84] Creating Layer my_res5c
I0630 04:25:03.650310  1464 net.cpp:406] my_res5c <- my_res5b_my_res5b_relu_0_split_1
I0630 04:25:03.650315  1464 net.cpp:406] my_res5c <- my_res5c_branch2c
I0630 04:25:03.650322  1464 net.cpp:380] my_res5c -> my_res5c
I0630 04:25:03.650365  1464 net.cpp:122] Setting up my_res5c
I0630 04:25:03.650380  1464 net.cpp:129] Top shape: 8 2048 7 7 (802816)
I0630 04:25:03.650388  1464 net.cpp:137] Memory required for data: 1851293856
I0630 04:25:03.650391  1464 layer_factory.hpp:77] Creating layer my_res5c_relu
I0630 04:25:03.650398  1464 net.cpp:84] Creating Layer my_res5c_relu
I0630 04:25:03.650403  1464 net.cpp:406] my_res5c_relu <- my_res5c
I0630 04:25:03.650408  1464 net.cpp:367] my_res5c_relu -> my_res5c (in-place)
I0630 04:25:03.650703  1464 net.cpp:122] Setting up my_res5c_relu
I0630 04:25:03.650723  1464 net.cpp:129] Top shape: 8 2048 7 7 (802816)
I0630 04:25:03.650728  1464 net.cpp:137] Memory required for data: 1854505120
I0630 04:25:03.650732  1464 layer_factory.hpp:77] Creating layer my_pool5
I0630 04:25:03.650743  1464 net.cpp:84] Creating Layer my_pool5
I0630 04:25:03.650746  1464 net.cpp:406] my_pool5 <- my_res5c
I0630 04:25:03.650755  1464 net.cpp:380] my_pool5 -> my_pool5
I0630 04:25:03.651633  1464 net.cpp:122] Setting up my_pool5
I0630 04:25:03.651650  1464 net.cpp:129] Top shape: 8 2048 1 1 (16384)
I0630 04:25:03.651655  1464 net.cpp:137] Memory required for data: 1854570656
I0630 04:25:03.651659  1464 layer_factory.hpp:77] Creating layer my_fc1000
I0630 04:25:03.651672  1464 net.cpp:84] Creating Layer my_fc1000
I0630 04:25:03.651680  1464 net.cpp:406] my_fc1000 <- my_pool5
I0630 04:25:03.651690  1464 net.cpp:380] my_fc1000 -> my_fc1000
I0630 04:25:03.651917  1464 net.cpp:122] Setting up my_fc1000
I0630 04:25:03.651950  1464 net.cpp:129] Top shape: 8 50 (400)
I0630 04:25:03.651954  1464 net.cpp:137] Memory required for data: 1854572256
I0630 04:25:03.651962  1464 layer_factory.hpp:77] Creating layer my_fc1000_my_fc1000_0_split
I0630 04:25:03.651970  1464 net.cpp:84] Creating Layer my_fc1000_my_fc1000_0_split
I0630 04:25:03.651974  1464 net.cpp:406] my_fc1000_my_fc1000_0_split <- my_fc1000
I0630 04:25:03.651980  1464 net.cpp:380] my_fc1000_my_fc1000_0_split -> my_fc1000_my_fc1000_0_split_0
I0630 04:25:03.651988  1464 net.cpp:380] my_fc1000_my_fc1000_0_split -> my_fc1000_my_fc1000_0_split_1
I0630 04:25:03.651994  1464 net.cpp:380] my_fc1000_my_fc1000_0_split -> my_fc1000_my_fc1000_0_split_2
I0630 04:25:03.652004  1464 net.cpp:380] my_fc1000_my_fc1000_0_split -> my_fc1000_my_fc1000_0_split_3
I0630 04:25:03.652076  1464 net.cpp:122] Setting up my_fc1000_my_fc1000_0_split
I0630 04:25:03.652091  1464 net.cpp:129] Top shape: 8 50 (400)
I0630 04:25:03.652096  1464 net.cpp:129] Top shape: 8 50 (400)
I0630 04:25:03.652101  1464 net.cpp:129] Top shape: 8 50 (400)
I0630 04:25:03.652104  1464 net.cpp:129] Top shape: 8 50 (400)
I0630 04:25:03.652107  1464 net.cpp:137] Memory required for data: 1854578656
I0630 04:25:03.652112  1464 layer_factory.hpp:77] Creating layer loss
I0630 04:25:03.652120  1464 net.cpp:84] Creating Layer loss
I0630 04:25:03.652124  1464 net.cpp:406] loss <- my_fc1000_my_fc1000_0_split_0
I0630 04:25:03.652132  1464 net.cpp:406] loss <- label_input_1_split_0
I0630 04:25:03.652139  1464 net.cpp:380] loss -> loss
…
