…
I0628 16:44:43.922502  1442 net.cpp:294] The NetState phase (1) differed from the phase (0) specified by a rule in layer input
I0628 16:44:43.923957  1442 net.cpp:51] Initializing net from parameters: 
name: "ResNet-50"
state {
  phase: TEST
  level: 0
  stage: ""
}
layer {
  name: "input"
  type: "Data"
  top: "data"
  top: "label"
  include {
    phase: TEST
  }
  transform_param {
    mirror: true
    mean_file: "../../../data_subsets/subtrain2_mean.binaryproto"
  }
  data_param {
    source: "../../../data_subsets/subtrain2_lmdb"
    batch_size: 8
    backend: LMDB
  }
}
layer {
  name: "conv1"
  type: "Convolution"
  bottom: "data"
  top: "conv1"
  param {
    lr_mult: 1
    decay_mult: 1
  }
  param {
    lr_mult: 2
    decay_mult: 0
  }
  convolution_param {
    num_output: 64
    pad: 3
    kernel_size: 7
    stride: 2
  }
}
layer {
  name: "bn_conv1"
  type: "BatchNorm"
  bottom: "conv1"
  top: "conv1"
  batch_norm_param {
    use_global_stats: true
  }
}
layer {
  name: "scale_conv1"
  type: "Scale"
  bottom: "conv1"
  top: "conv1"
  scale_param {
    bias_term: true
  }
}
layer {
  name: "conv1_relu"
  type: "ReLU"
  bottom: "conv1"
  top: "conv1"
}
layer {
  name: "pool1"
  type: "Pooling"
  bottom: "conv1"
  top: "pool1"
  pooling_param {
    pool: MAX
    kernel_size: 3
    stride: 2
  }
}
layer {
  name: "res2a_branch1"
  type: "Convolution"
  bottom: "pool1"
  top: "res2a_branch1"
  param {
    lr_mult: 1
    decay_mult: 1
  }
  convolution_param {
    num_output: 256
    bias_term: false
    pad: 0
    kernel_size: 1
    stride: 1
  }
}
layer {
  name: "bn2a_branch1"
  type: "BatchNorm"
  bottom: "res2a_branch1"
  top: "res2a_branch1"
  batch_norm_param {
    use_global_stats: true
  }
}
layer {
  name: "scale2a_branch1"
  type: "Scale"
  bottom: "res2a_branch1"
  top: "res2a_branch1"
  scale_param {
    bias_term: true
  }
}
layer {
  name: "res2a_branch2a"
  type: "Convolution"
  bottom: "pool1"
  top: "res2a_branch2a"
  param {
    lr_mult: 1
    decay_mult: 1
  }
  convolution_param {
    num_output: 64
    bias_term: false
    pad: 0
    kernel_size: 1
    stride: 1
  }
}
layer {
  name: "bn2a_branch2a"
  type: "BatchNorm"
  bottom: "res2a_branch2a"
  top: "res2a_branch2a"
  batch_norm_param {
    use_global_stats: true
  }
}
layer {
  name: "scale2a_branch2a"
  type: "Scale"
  bottom: "res2a_branch2a"
  top: "res2a_branch2a"
  scale_param {
    bias_term: true
  }
}
layer {
  name: "res2a_branch2a_relu"
  type: "ReLU"
  bottom: "res2a_branch2a"
  top: "res2a_branch2a"
}
layer {
  name: "res2a_branch2b"
  type: "Convolution"
  bottom: "res2a_branch2a"
  top: "res2a_branch2b"
  param {
    lr_mult: 1
    decay_mult: 1
  }
  convolution_param {
    num_output: 64
    bias_term: false
    pad: 1
    kernel_size: 3
    stride: 1
  }
}
layer {
  name: "bn2a_branch2b"
  type: "BatchNorm"
  bottom: "res2a_branch2b"
  top: "res2a_branch2b"
  batch_norm_param {
    use_global_stats: true
  }
}
layer {
  name: "scale2a_branch2b"
  type: "Scale"
  bottom: "res2a_branch2b"
  top: "res2a_branch2b"
  scale_param {
    bias_term: true
  }
}
layer {
  name: "res2a_branch2b_relu"
  type: "ReLU"
  bottom: "res2a_branch2b"
  top: "res2a_branch2b"
}
layer {
  name: "res2a_branch2c"
  type: "Convolution"
  bottom: "res2a_branch2b"
  top: "res2a_branch2c"
  param {
    lr_mult: 1
    decay_mult: 1
  }
  convolution_param {
    num_output: 256
    bias_term: false
    pad: 0
    kernel_size: 1
    stride: 1
  }
}
layer {
  name: "bn2a_branch2c"
  type: "BatchNorm"
  bottom: "res2a_branch2c"
  top: "res2a_branch2c"
  batch_norm_param {
    use_global_stats: true
  }
}
layer {
  name: "scale2a_branch2c"
  type: "Scale"
  bottom: "res2a_branch2c"
  top: "res2a_branch2c"
  scale_param {
    bias_term: true
  }
}
layer {
  name: "res2a"
  type: "Eltwise"
  bottom: "res2a_branch1"
  bottom: "res2a_branch2c"
  top: "res2a"
}
layer {
  name: "res2a_relu"
  type: "ReLU"
  bottom: "res2a"
  top: "res2a"
}
layer {
  name: "res2b_branch2a"
  type: "Convolution"
  bottom: "res2a"
  top: "res2b_branch2a"
  param {
    lr_mult: 1
    decay_mult: 1
  }
  convolution_param {
    num_output: 64
    bias_term: false
    pad: 0
    kernel_size: 1
    stride: 1
  }
}
layer {
  name: "bn2b_branch2a"
  type: "BatchNorm"
  bottom: "res2b_branch2a"
  top: "res2b_branch2a"
  batch_norm_param {
    use_global_stats: true
  }
}
layer {
  name: "scale2b_branch2a"
  type: "Scale"
  bottom: "res2b_branch2a"
  top: "res2b_branch2a"
  scale_param {
    bias_term: true
  }
}
layer {
  name: "res2b_branch2a_relu"
  type: "ReLU"
  bottom: "res2b_branch2a"
  top: "res2b_branch2a"
}
layer {
  name: "res2b_branch2b"
  type: "Convolution"
  bottom: "res2b_branch2a"
  top: "res2b_branch2b"
  param {
    lr_mult: 1
    decay_mult: 1
  }
  convolution_param {
    num_output: 64
    bias_term: false
    pad: 1
    kernel_size: 3
    stride: 1
  }
}
layer {
  name: "bn2b_branch2b"
  type: "BatchNorm"
  bottom: "res2b_branch2b"
  top: "res2b_branch2b"
  batch_norm_param {
    use_global_stats: true
  }
}
layer {
  name: "scale2b_branch2b"
  type: "Scale"
  bottom: "res2b_branch2b"
  top: "res2b_branch2b"
  scale_param {
    bias_term: true
  }
}
layer {
  name: "res2b_branch2b_relu"
  type: "ReLU"
  bottom: "res2b_branch2b"
  top: "res2b_branch2b"
}
layer {
  name: "res2b_branch2c"
  type: "Convolution"
  bottom: "res2b_branch2b"
  top: "res2b_branch2c"
  param {
    lr_mult: 1
    decay_mult: 1
  }
  convolution_param {
    num_output: 256
    bias_term: false
    pad: 0
    kernel_size: 1
    stride: 1
  }
}
layer {
  name: "bn2b_branch2c"
  type: "BatchNorm"
  bottom: "res2b_branch2c"
  top: "res2b_branch2c"
  batch_norm_param {
    use_global_stats: true
  }
}
layer {
  name: "scale2b_branch2c"
  type: "Scale"
  bottom: "res2b_branch2c"
  top: "res2b_branch2c"
  scale_param {
    bias_term: true
  }
}
layer {
  name: "res2b"
  type: "Eltwise"
  bottom: "res2a"
  bottom: "res2b_branch2c"
  top: "res2b"
}
layer {
  name: "res2b_relu"
  type: "ReLU"
  bottom: "res2b"
  top: "res2b"
}
layer {
  name: "res2c_branch2a"
  type: "Convolution"
  bottom: "res2b"
  top: "res2c_branch2a"
  param {
    lr_mult: 1
    decay_mult: 1
  }
  convolution_param {
    num_output: 64
    bias_term: false
    pad: 0
    kernel_size: 1
    stride: 1
  }
}
layer {
  name: "bn2c_branch2a"
  type: "BatchNorm"
  bottom: "res2c_branch2a"
  top: "res2c_branch2a"
  batch_norm_param {
    use_global_stats: true
  }
}
layer {
  name: "scale2c_branch2a"
  type: "Scale"
  bottom: "res2c_branch2a"
  top: "res2c_branch2a"
  scale_param {
    bias_term: true
  }
}
layer {
  name: "res2c_branch2a_relu"
  type: "ReLU"
  bottom: "res2c_branch2a"
  top: "res2c_branch2a"
}
layer {
  name: "res2c_branch2b"
  type: "Convolution"
  bottom: "res2c_branch2a"
  top: "res2c_branch2b"
  param {
    lr_mult: 1
    decay_mult: 1
  }
  convolution_param {
    num_output: 64
    bias_term: false
    pad: 1
    kernel_size: 3
    stride: 1
  }
}
layer {
  name: "bn2c_branch2b"
  type: "BatchNorm"
  bottom: "res2c_branch2b"
  top: "res2c_branch2b"
  batch_norm_param {
    use_global_stats: true
  }
}
layer {
  name: "scale2c_branch2b"
  type: "Scale"
  bottom: "res2c_branch2b"
  top: "res2c_branch2b"
  scale_param {
    bias_term: true
  }
}
layer {
  name: "res2c_branch2b_relu"
  type: "ReLU"
  bottom: "res2c_branch2b"
  top: "res2c_branch2b"
}
layer {
  name: "res2c_branch2c"
  type: "Convolution"
  bottom: "res2c_branch2b"
  top: "res2c_branch2c"
  param {
    lr_mult: 1
    decay_mult: 1
  }
  convolution_param {
    num_output: 256
    bias_term: false
    pad: 0
    kernel_size: 1
    stride: 1
  }
}
layer {
  name: "bn2c_branch2c"
  type: "BatchNorm"
  bottom: "res2c_branch2c"
  top: "res2c_branch2c"
  batch_norm_param {
    use_global_stats: true
  }
}
layer {
  name: "scale2c_branch2c"
  type: "Scale"
  bottom: "res2c_branch2c"
  top: "res2c_branch2c"
  scale_param {
    bias_term: true
  }
}
layer {
  name: "res2c"
  type: "Eltwise"
  bottom: "res2b"
  bottom: "res2c_branch2c"
  top: "res2c"
}
layer {
  name: "res2c_relu"
  type: "ReLU"
  bottom: "res2c"
  top: "res2c"
}
layer {
  name: "res3a_branch1"
  type: "Convolution"
  bottom: "res2c"
  top: "res3a_branch1"
  param {
    lr_mult: 1
    decay_mult: 1
  }
  convolution_param {
    num_output: 512
    bias_term: false
    pad: 0
    kernel_size: 1
    stride: 2
  }
}
layer {
  name: "bn3a_branch1"
  type: "BatchNorm"
  bottom: "res3a_branch1"
  top: "res3a_branch1"
  batch_norm_param {
    use_global_stats: true
  }
}
layer {
  name: "scale3a_branch1"
  type: "Scale"
  bottom: "res3a_branch1"
  top: "res3a_branch1"
  scale_param {
    bias_term: true
  }
}
layer {
  name: "res3a_branch2a"
  type: "Convolution"
  bottom: "res2c"
  top: "res3a_branch2a"
  param {
    lr_mult: 1
    decay_mult: 1
  }
  convolution_param {
    num_output: 128
    bias_term: false
    pad: 0
    kernel_size: 1
    stride: 2
  }
}
layer {
  name: "bn3a_branch2a"
  type: "BatchNorm"
  bottom: "res3a_branch2a"
  top: "res3a_branch2a"
  batch_norm_param {
    use_global_stats: true
  }
}
layer {
  name: "scale3a_branch2a"
  type: "Scale"
  bottom: "res3a_branch2a"
  top: "res3a_branch2a"
  scale_param {
    bias_term: true
  }
}
layer {
  name: "res3a_branch2a_relu"
  type: "ReLU"
  bottom: "res3a_branch2a"
  top: "res3a_branch2a"
}
layer {
  name: "res3a_branch2b"
  type: "Convolution"
  bottom: "res3a_branch2a"
  top: "res3a_branch2b"
  param {
    lr_mult: 1
    decay_mult: 1
  }
  convolution_param {
    num_output: 128
    bias_term: false
    pad: 1
    kernel_size: 3
    stride: 1
  }
}
layer {
  name: "bn3a_branch2b"
  type: "BatchNorm"
  bottom: "res3a_branch2b"
  top: "res3a_branch2b"
  batch_norm_param {
    use_global_stats: true
  }
}
layer {
  name: "scale3a_branch2b"
  type: "Scale"
  bottom: "res3a_branch2b"
  top: "res3a_branch2b"
  scale_param {
    bias_term: true
  }
}
layer {
  name: "res3a_branch2b_relu"
  type: "ReLU"
  bottom: "res3a_branch2b"
  top: "res3a_branch2b"
}
layer {
  name: "res3a_branch2c"
  type: "Convolution"
  bottom: "res3a_branch2b"
  top: "res3a_branch2c"
  param {
    lr_mult: 1
    decay_mult: 1
  }
  convolution_param {
    num_output: 512
    bias_term: false
    pad: 0
    kernel_size: 1
    stride: 1
  }
}
layer {
  name: "bn3a_branch2c"
  type: "BatchNorm"
  bottom: "res3a_branch2c"
  top: "res3a_branch2c"
  batch_norm_param {
    use_global_stats: true
  }
}
layer {
  name: "scale3a_branch2c"
  type: "Scale"
  bottom: "res3a_branch2c"
  top: "res3a_branch2c"
  scale_param {
    bias_term: true
  }
}
layer {
  name: "res3a"
  type: "Eltwise"
  bottom: "res3a_branch1"
  bottom: "res3a_branch2c"
  top: "res3a"
}
layer {
  name: "res3a_relu"
  type: "ReLU"
  bottom: "res3a"
  top: "res3a"
}
layer {
  name: "res3b_branch2a"
  type: "Convolution"
  bottom: "res3a"
  top: "res3b_branch2a"
  param {
    lr_mult: 1
    decay_mult: 1
  }
  convolution_param {
    num_output: 128
    bias_term: false
    pad: 0
    kernel_size: 1
    stride: 1
  }
}
layer {
  name: "bn3b_branch2a"
  type: "BatchNorm"
  bottom: "res3b_branch2a"
  top: "res3b_branch2a"
  batch_norm_param {
    use_global_stats: true
  }
}
layer {
  name: "scale3b_branch2a"
  type: "Scale"
  bottom: "res3b_branch2a"
  top: "res3b_branch2a"
  scale_param {
    bias_term: true
  }
}
layer {
  name: "res3b_branch2a_relu"
  type: "ReLU"
  bottom: "res3b_branch2a"
  top: "res3b_branch2a"
}
layer {
  name: "res3b_branch2b"
  type: "Convolution"
  bottom: "res3b_branch2a"
  top: "res3b_branch2b"
  param {
    lr_mult: 1
    decay_mult: 1
  }
  convolution_param {
    num_output: 128
    bias_term: false
    pad: 1
    kernel_size: 3
    stride: 1
  }
}
layer {
  name: "bn3b_branch2b"
  type: "BatchNorm"
  bottom: "res3b_branch2b"
  top: "res3b_branch2b"
  batch_norm_param {
    use_global_stats: true
  }
}
layer {
  name: "scale3b_branch2b"
  type: "Scale"
  bottom: "res3b_branch2b"
  top: "res3b_branch2b"
  scale_param {
    bias_term: true
  }
}
layer {
  name: "res3b_branch2b_relu"
  type: "ReLU"
  bottom: "res3b_branch2b"
  top: "res3b_branch2b"
}
layer {
  name: "res3b_branch2c"
  type: "Convolution"
  bottom: "res3b_branch2b"
  top: "res3b_branch2c"
  param {
    lr_mult: 1
    decay_mult: 1
  }
  convolution_param {
    num_output: 512
    bias_term: false
    pad: 0
    kernel_size: 1
    stride: 1
  }
}
layer {
  name: "bn3b_branch2c"
  type: "BatchNorm"
  bottom: "res3b_branch2c"
  top: "res3b_branch2c"
  batch_norm_param {
    use_global_stats: true
  }
}
layer {
  name: "scale3b_branch2c"
  type: "Scale"
  bottom: "res3b_branch2c"
  top: "res3b_branch2c"
  scale_param {
    bias_term: true
  }
}
layer {
  name: "res3b"
  type: "Eltwise"
  bottom: "res3a"
  bottom: "res3b_branch2c"
  top: "res3b"
}
layer {
  name: "res3b_relu"
  type: "ReLU"
  bottom: "res3b"
  top: "res3b"
}
layer {
  name: "res3c_branch2a"
  type: "Convolution"
  bottom: "res3b"
  top: "res3c_branch2a"
  param {
    lr_mult: 1
    decay_mult: 1
  }
  convolution_param {
    num_output: 128
    bias_term: false
    pad: 0
    kernel_size: 1
    stride: 1
  }
}
layer {
  name: "bn3c_branch2a"
  type: "BatchNorm"
  bottom: "res3c_branch2a"
  top: "res3c_branch2a"
  batch_norm_param {
    use_global_stats: true
  }
}
layer {
  name: "scale3c_branch2a"
  type: "Scale"
  bottom: "res3c_branch2a"
  top: "res3c_branch2a"
  scale_param {
    bias_term: true
  }
}
layer {
  name: "res3c_branch2a_relu"
  type: "ReLU"
  bottom: "res3c_branch2a"
  top: "res3c_branch2a"
}
layer {
  name: "res3c_branch2b"
  type: "Convolution"
  bottom: "res3c_branch2a"
  top: "res3c_branch2b"
  param {
    lr_mult: 1
    decay_mult: 1
  }
  convolution_param {
    num_output: 128
    bias_term: false
    pad: 1
    kernel_size: 3
    stride: 1
  }
}
layer {
  name: "bn3c_branch2b"
  type: "BatchNorm"
  bottom: "res3c_branch2b"
  top: "res3c_branch2b"
  batch_norm_param {
    use_global_stats: true
  }
}
layer {
  name: "scale3c_branch2b"
  type: "Scale"
  bottom: "res3c_branch2b"
  top: "res3c_branch2b"
  scale_param {
    bias_term: true
  }
}
layer {
  name: "res3c_branch2b_relu"
  type: "ReLU"
  bottom: "res3c_branch2b"
  top: "res3c_branch2b"
}
layer {
  name: "res3c_branch2c"
  type: "Convolution"
  bottom: "res3c_branch2b"
  top: "res3c_branch2c"
  param {
    lr_mult: 1
    decay_mult: 1
  }
  convolution_param {
    num_output: 512
    bias_term: false
    pad: 0
    kernel_size: 1
    stride: 1
  }
}
layer {
  name: "bn3c_branch2c"
  type: "BatchNorm"
  bottom: "res3c_branch2c"
  top: "res3c_branch2c"
  batch_norm_param {
    use_global_stats: true
  }
}
layer {
  name: "scale3c_branch2c"
  type: "Scale"
  bottom: "res3c_branch2c"
  top: "res3c_branch2c"
  scale_param {
    bias_term: true
  }
}
layer {
  name: "res3c"
  type: "Eltwise"
  bottom: "res3b"
  bottom: "res3c_branch2c"
  top: "res3c"
}
layer {
  name: "res3c_relu"
  type: "ReLU"
  bottom: "res3c"
  top: "res3c"
}
layer {
  name: "res3d_branch2a"
  type: "Convolution"
  bottom: "res3c"
  top: "res3d_branch2a"
  param {
    lr_mult: 1
    decay_mult: 1
  }
  convolution_param {
    num_output: 128
    bias_term: false
    pad: 0
    kernel_size: 1
    stride: 1
  }
}
layer {
  name: "bn3d_branch2a"
  type: "BatchNorm"
  bottom: "res3d_branch2a"
  top: "res3d_branch2a"
  batch_norm_param {
    use_global_stats: true
  }
}
layer {
  name: "scale3d_branch2a"
  type: "Scale"
  bottom: "res3d_branch2a"
  top: "res3d_branch2a"
  scale_param {
    bias_term: true
  }
}
layer {
  name: "res3d_branch2a_relu"
  type: "ReLU"
  bottom: "res3d_branch2a"
  top: "res3d_branch2a"
}
layer {
  name: "res3d_branch2b"
  type: "Convolution"
  bottom: "res3d_branch2a"
  top: "res3d_branch2b"
  param {
    lr_mult: 1
    decay_mult: 1
  }
  convolution_param {
    num_output: 128
    bias_term: false
    pad: 1
    kernel_size: 3
    stride: 1
  }
}
layer {
  name: "bn3d_branch2b"
  type: "BatchNorm"
  bottom: "res3d_branch2b"
  top: "res3d_branch2b"
  batch_norm_param {
    use_global_stats: true
  }
}
layer {
  name: "scale3d_branch2b"
  type: "Scale"
  bottom: "res3d_branch2b"
  top: "res3d_branch2b"
  scale_param {
    bias_term: true
  }
}
layer {
  name: "res3d_branch2b_relu"
  type: "ReLU"
  bottom: "res3d_branch2b"
  top: "res3d_branch2b"
}
layer {
  name: "res3d_branch2c"
  type: "Convolution"
  bottom: "res3d_branch2b"
  top: "res3d_branch2c"
  param {
    lr_mult: 1
    decay_mult: 1
  }
  convolution_param {
    num_output: 512
    bias_term: false
    pad: 0
    kernel_size: 1
    stride: 1
  }
}
layer {
  name: "bn3d_branch2c"
  type: "BatchNorm"
  bottom: "res3d_branch2c"
  top: "res3d_branch2c"
  batch_norm_param {
    use_global_stats: true
  }
}
layer {
  name: "scale3d_branch2c"
  type: "Scale"
  bottom: "res3d_branch2c"
  top: "res3d_branch2c"
  scale_param {
    bias_term: true
  }
}
layer {
  name: "res3d"
  type: "Eltwise"
  bottom: "res3c"
  bottom: "res3d_branch2c"
  top: "res3d"
}
layer {
  name: "res3d_relu"
  type: "ReLU"
  bottom: "res3d"
  top: "res3d"
}
layer {
  name: "res4a_branch1"
  type: "Convolution"
  bottom: "res3d"
  top: "res4a_branch1"
  param {
    lr_mult: 1
    decay_mult: 1
  }
  convolution_param {
    num_output: 1024
    bias_term: false
    pad: 0
    kernel_size: 1
    stride: 2
  }
}
layer {
  name: "bn4a_branch1"
  type: "BatchNorm"
  bottom: "res4a_branch1"
  top: "res4a_branch1"
  batch_norm_param {
    use_global_stats: true
  }
}
layer {
  name: "scale4a_branch1"
  type: "Scale"
  bottom: "res4a_branch1"
  top: "res4a_branch1"
  scale_param {
    bias_term: true
  }
}
layer {
  name: "res4a_branch2a"
  type: "Convolution"
  bottom: "res3d"
  top: "res4a_branch2a"
  param {
    lr_mult: 1
    decay_mult: 1
  }
  convolution_param {
    num_output: 256
    bias_term: false
    pad: 0
    kernel_size: 1
    stride: 2
  }
}
layer {
  name: "bn4a_branch2a"
  type: "BatchNorm"
  bottom: "res4a_branch2a"
  top: "res4a_branch2a"
  batch_norm_param {
    use_global_stats: true
  }
}
layer {
  name: "scale4a_branch2a"
  type: "Scale"
  bottom: "res4a_branch2a"
  top: "res4a_branch2a"
  scale_param {
    bias_term: true
  }
}
layer {
  name: "res4a_branch2a_relu"
  type: "ReLU"
  bottom: "res4a_branch2a"
  top: "res4a_branch2a"
}
layer {
  name: "res4a_branch2b"
  type: "Convolution"
  bottom: "res4a_branch2a"
  top: "res4a_branch2b"
  param {
    lr_mult: 1
    decay_mult: 1
  }
  convolution_param {
    num_output: 256
    bias_term: false
    pad: 1
    kernel_size: 3
    stride: 1
  }
}
layer {
  name: "bn4a_branch2b"
  type: "BatchNorm"
  bottom: "res4a_branch2b"
  top: "res4a_branch2b"
  batch_norm_param {
    use_global_stats: true
  }
}
layer {
  name: "scale4a_branch2b"
  type: "Scale"
  bottom: "res4a_branch2b"
  top: "res4a_branch2b"
  scale_param {
    bias_term: true
  }
}
layer {
  name: "res4a_branch2b_relu"
  type: "ReLU"
  bottom: "res4a_branch2b"
  top: "res4a_branch2b"
}
layer {
  name: "res4a_branch2c"
  type: "Convolution"
  bottom: "res4a_branch2b"
  top: "res4a_branch2c"
  param {
    lr_mult: 1
    decay_mult: 1
  }
  convolution_param {
    num_output: 1024
    bias_term: false
    pad: 0
    kernel_size: 1
    stride: 1
  }
}
layer {
  name: "bn4a_branch2c"
  type: "BatchNorm"
  bottom: "res4a_branch2c"
  top: "res4a_branch2c"
  batch_norm_param {
    use_global_stats: true
  }
}
layer {
  name: "scale4a_branch2c"
  type: "Scale"
  bottom: "res4a_branch2c"
  top: "res4a_branch2c"
  scale_param {
    bias_term: true
  }
}
layer {
  name: "res4a"
  type: "Eltwise"
  bottom: "res4a_branch1"
  bottom: "res4a_branch2c"
  top: "res4a"
}
layer {
  name: "res4a_relu"
  type: "ReLU"
  bottom: "res4a"
  top: "res4a"
}
layer {
  name: "res4b_branch2a"
  type: "Convolution"
  bottom: "res4a"
  top: "res4b_branch2a"
  param {
    lr_mult: 1
    decay_mult: 1
  }
  convolution_param {
    num_output: 256
    bias_term: false
    pad: 0
    kernel_size: 1
    stride: 1
  }
}
layer {
  name: "bn4b_branch2a"
  type: "BatchNorm"
  bottom: "res4b_branch2a"
  top: "res4b_branch2a"
  batch_norm_param {
    use_global_stats: true
  }
}
layer {
  name: "scale4b_branch2a"
  type: "Scale"
  bottom: "res4b_branch2a"
  top: "res4b_branch2a"
  scale_param {
    bias_term: true
  }
}
layer {
  name: "res4b_branch2a_relu"
  type: "ReLU"
  bottom: "res4b_branch2a"
  top: "res4b_branch2a"
}
layer {
  name: "res4b_branch2b"
  type: "Convolution"
  bottom: "res4b_branch2a"
  top: "res4b_branch2b"
  param {
    lr_mult: 1
    decay_mult: 1
  }
  convolution_param {
    num_output: 256
    bias_term: false
    pad: 1
    kernel_size: 3
    stride: 1
  }
}
layer {
  name: "bn4b_branch2b"
  type: "BatchNorm"
  bottom: "res4b_branch2b"
  top: "res4b_branch2b"
  batch_norm_param {
    use_global_stats: true
  }
}
layer {
  name: "scale4b_branch2b"
  type: "Scale"
  bottom: "res4b_branch2b"
  top: "res4b_branch2b"
  scale_param {
    bias_term: true
  }
}
layer {
  name: "res4b_branch2b_relu"
  type: "ReLU"
  bottom: "res4b_branch2b"
  top: "res4b_branch2b"
}
layer {
  name: "res4b_branch2c"
  type: "Convolution"
  bottom: "res4b_branch2b"
  top: "res4b_branch2c"
  param {
    lr_mult: 1
    decay_mult: 1
  }
  convolution_param {
    num_output: 1024
    bias_term: false
    pad: 0
    kernel_size: 1
    stride: 1
  }
}
layer {
  name: "bn4b_branch2c"
  type: "BatchNorm"
  bottom: "res4b_branch2c"
  top: "res4b_branch2c"
  batch_norm_param {
    use_global_stats: true
  }
}
layer {
  name: "scale4b_branch2c"
  type: "Scale"
  bottom: "res4b_branch2c"
  top: "res4b_branch2c"
  scale_param {
    bias_term: true
  }
}
layer {
  name: "res4b"
  type: "Eltwise"
  bottom: "res4a"
  bottom: "res4b_branch2c"
  top: "res4b"
}
layer {
  name: "res4b_relu"
  type: "ReLU"
  bottom: "res4b"
  top: "res4b"
}
layer {
  name: "res4c_branch2a"
  type: "Convolution"
  bottom: "res4b"
  top: "res4c_branch2a"
  param {
    lr_mult: 1
    decay_mult: 1
  }
  convolution_param {
    num_output: 256
    bias_term: false
    pad: 0
    kernel_size: 1
    stride: 1
  }
}
layer {
  name: "bn4c_branch2a"
  type: "BatchNorm"
  bottom: "res4c_branch2a"
  top: "res4c_branch2a"
  batch_norm_param {
    use_global_stats: true
  }
}
layer {
  name: "scale4c_branch2a"
  type: "Scale"
  bottom: "res4c_branch2a"
  top: "res4c_branch2a"
  scale_param {
    bias_term: true
  }
}
layer {
  name: "res4c_branch2a_relu"
  type: "ReLU"
  bottom: "res4c_branch2a"
  top: "res4c_branch2a"
}
layer {
  name: "res4c_branch2b"
  type: "Convolution"
  bottom: "res4c_branch2a"
  top: "res4c_branch2b"
  param {
    lr_mult: 1
    decay_mult: 1
  }
  convolution_param {
    num_output: 256
    bias_term: false
    pad: 1
    kernel_size: 3
    stride: 1
  }
}
layer {
  name: "bn4c_branch2b"
  type: "BatchNorm"
  bottom: "res4c_branch2b"
  top: "res4c_branch2b"
  batch_norm_param {
    use_global_stats: true
  }
}
layer {
  name: "scale4c_branch2b"
  type: "Scale"
  bottom: "res4c_branch2b"
  top: "res4c_branch2b"
  scale_param {
    bias_term: true
  }
}
layer {
  name: "res4c_branch2b_relu"
  type: "ReLU"
  bottom: "res4c_branch2b"
  top: "res4c_branch2b"
}
layer {
  name: "res4c_branch2c"
  type: "Convolution"
  bottom: "res4c_branch2b"
  top: "res4c_branch2c"
  param {
    lr_mult: 1
    decay_mult: 1
  }
  convolution_param {
    num_output: 1024
    bias_term: false
    pad: 0
    kernel_size: 1
    stride: 1
  }
}
layer {
  name: "bn4c_branch2c"
  type: "BatchNorm"
  bottom: "res4c_branch2c"
  top: "res4c_branch2c"
  batch_norm_param {
    use_global_stats: true
  }
}
layer {
  name: "scale4c_branch2c"
  type: "Scale"
  bottom: "res4c_branch2c"
  top: "res4c_branch2c"
  scale_param {
    bias_term: true
  }
}
layer {
  name: "res4c"
  type: "Eltwise"
  bottom: "res4b"
  bottom: "res4c_branch2c"
  top: "res4c"
}
layer {
  name: "res4c_relu"
  type: "ReLU"
  bottom: "res4c"
  top: "res4c"
}
layer {
  name: "res4d_branch2a"
  type: "Convolution"
  bottom: "res4c"
  top: "res4d_branch2a"
  param {
    lr_mult: 1
    decay_mult: 1
  }
  convolution_param {
    num_output: 256
    bias_term: false
    pad: 0
    kernel_size: 1
    stride: 1
  }
}
layer {
  name: "bn4d_branch2a"
  type: "BatchNorm"
  bottom: "res4d_branch2a"
  top: "res4d_branch2a"
  batch_norm_param {
    use_global_stats: true
  }
}
layer {
  name: "scale4d_branch2a"
  type: "Scale"
  bottom: "res4d_branch2a"
  top: "res4d_branch2a"
  scale_param {
    bias_term: true
  }
}
layer {
  name: "res4d_branch2a_relu"
  type: "ReLU"
  bottom: "res4d_branch2a"
  top: "res4d_branch2a"
}
layer {
  name: "res4d_branch2b"
  type: "Convolution"
  bottom: "res4d_branch2a"
  top: "res4d_branch2b"
  param {
    lr_mult: 1
    decay_mult: 1
  }
  convolution_param {
    num_output: 256
    bias_term: false
    pad: 1
    kernel_size: 3
    stride: 1
  }
}
layer {
  name: "bn4d_branch2b"
  type: "BatchNorm"
  bottom: "res4d_branch2b"
  top: "res4d_branch2b"
  batch_norm_param {
    use_global_stats: true
  }
}
layer {
  name: "scale4d_branch2b"
  type: "Scale"
  bottom: "res4d_branch2b"
  top: "res4d_branch2b"
  scale_param {
    bias_term: true
  }
}
layer {
  name: "res4d_branch2b_relu"
  type: "ReLU"
  bottom: "res4d_branch2b"
  top: "res4d_branch2b"
}
layer {
  name: "res4d_branch2c"
  type: "Convolution"
  bottom: "res4d_branch2b"
  top: "res4d_branch2c"
  param {
    lr_mult: 1
    decay_mult: 1
  }
  convolution_param {
    num_output: 1024
    bias_term: false
    pad: 0
    kernel_size: 1
    stride: 1
  }
}
layer {
  name: "bn4d_branch2c"
  type: "BatchNorm"
  bottom: "res4d_branch2c"
  top: "res4d_branch2c"
  batch_norm_param {
    use_global_stats: true
  }
}
layer {
  name: "scale4d_branch2c"
  type: "Scale"
  bottom: "res4d_branch2c"
  top: "res4d_branch2c"
  scale_param {
    bias_term: true
  }
}
layer {
  name: "res4d"
  type: "Eltwise"
  bottom: "res4c"
  bottom: "res4d_branch2c"
  top: "res4d"
}
layer {
  name: "res4d_relu"
  type: "ReLU"
  bottom: "res4d"
  top: "res4d"
}
layer {
  name: "res4e_branch2a"
  type: "Convolution"
  bottom: "res4d"
  top: "res4e_branch2a"
  param {
    lr_mult: 1
    decay_mult: 1
  }
  convolution_param {
    num_output: 256
    bias_term: false
    pad: 0
    kernel_size: 1
    stride: 1
  }
}
layer {
  name: "bn4e_branch2a"
  type: "BatchNorm"
  bottom: "res4e_branch2a"
  top: "res4e_branch2a"
  batch_norm_param {
    use_global_stats: true
  }
}
layer {
  name: "scale4e_branch2a"
  type: "Scale"
  bottom: "res4e_branch2a"
  top: "res4e_branch2a"
  scale_param {
    bias_term: true
  }
}
layer {
  name: "res4e_branch2a_relu"
  type: "ReLU"
  bottom: "res4e_branch2a"
  top: "res4e_branch2a"
}
layer {
  name: "res4e_branch2b"
  type: "Convolution"
  bottom: "res4e_branch2a"
  top: "res4e_branch2b"
  param {
    lr_mult: 1
    decay_mult: 1
  }
  convolution_param {
    num_output: 256
    bias_term: false
    pad: 1
    kernel_size: 3
    stride: 1
  }
}
layer {
  name: "bn4e_branch2b"
  type: "BatchNorm"
  bottom: "res4e_branch2b"
  top: "res4e_branch2b"
  batch_norm_param {
    use_global_stats: true
  }
}
layer {
  name: "scale4e_branch2b"
  type: "Scale"
  bottom: "res4e_branch2b"
  top: "res4e_branch2b"
  scale_param {
    bias_term: true
  }
}
layer {
  name: "res4e_branch2b_relu"
  type: "ReLU"
  bottom: "res4e_branch2b"
  top: "res4e_branch2b"
}
layer {
  name: "res4e_branch2c"
  type: "Convolution"
  bottom: "res4e_branch2b"
  top: "res4e_branch2c"
  param {
    lr_mult: 1
    decay_mult: 1
  }
  convolution_param {
    num_output: 1024
    bias_term: false
    pad: 0
    kernel_size: 1
    stride: 1
  }
}
layer {
  name: "bn4e_branch2c"
  type: "BatchNorm"
  bottom: "res4e_branch2c"
  top: "res4e_branch2c"
  batch_norm_param {
    use_global_stats: true
  }
}
layer {
  name: "scale4e_branch2c"
  type: "Scale"
  bottom: "res4e_branch2c"
  top: "res4e_branch2c"
  scale_param {
    bias_term: true
  }
}
layer {
  name: "res4e"
  type: "Eltwise"
  bottom: "res4d"
  bottom: "res4e_branch2c"
  top: "res4e"
}
layer {
  name: "res4e_relu"
  type: "ReLU"
  bottom: "res4e"
  top: "res4e"
}
layer {
  name: "res4f_branch2a"
  type: "Convolution"
  bottom: "res4e"
  top: "res4f_branch2a"
  param {
    lr_mult: 1
    decay_mult: 1
  }
  convolution_param {
    num_output: 256
    bias_term: false
    pad: 0
    kernel_size: 1
    stride: 1
  }
}
layer {
  name: "bn4f_branch2a"
  type: "BatchNorm"
  bottom: "res4f_branch2a"
  top: "res4f_branch2a"
  batch_norm_param {
    use_global_stats: true
  }
}
layer {
  name: "scale4f_branch2a"
  type: "Scale"
  bottom: "res4f_branch2a"
  top: "res4f_branch2a"
  scale_param {
    bias_term: true
  }
}
layer {
  name: "res4f_branch2a_relu"
  type: "ReLU"
  bottom: "res4f_branch2a"
  top: "res4f_branch2a"
}
layer {
  name: "res4f_branch2b"
  type: "Convolution"
  bottom: "res4f_branch2a"
  top: "res4f_branch2b"
  param {
    lr_mult: 1
    decay_mult: 1
  }
  convolution_param {
    num_output: 256
    bias_term: false
    pad: 1
    kernel_size: 3
    stride: 1
  }
}
layer {
  name: "bn4f_branch2b"
  type: "BatchNorm"
  bottom: "res4f_branch2b"
  top: "res4f_branch2b"
  batch_norm_param {
    use_global_stats: true
  }
}
layer {
  name: "scale4f_branch2b"
  type: "Scale"
  bottom: "res4f_branch2b"
  top: "res4f_branch2b"
  scale_param {
    bias_term: true
  }
}
layer {
  name: "res4f_branch2b_relu"
  type: "ReLU"
  bottom: "res4f_branch2b"
  top: "res4f_branch2b"
}
layer {
  name: "res4f_branch2c"
  type: "Convolution"
  bottom: "res4f_branch2b"
  top: "res4f_branch2c"
  param {
    lr_mult: 1
    decay_mult: 1
  }
  convolution_param {
    num_output: 1024
    bias_term: false
    pad: 0
    kernel_size: 1
    stride: 1
  }
}
layer {
  name: "bn4f_branch2c"
  type: "BatchNorm"
  bottom: "res4f_branch2c"
  top: "res4f_branch2c"
  batch_norm_param {
    use_global_stats: true
  }
}
layer {
  name: "scale4f_branch2c"
  type: "Scale"
  bottom: "res4f_branch2c"
  top: "res4f_branch2c"
  scale_param {
    bias_term: true
  }
}
layer {
  name: "res4f"
  type: "Eltwise"
  bottom: "res4e"
  bottom: "res4f_branch2c"
  top: "res4f"
}
layer {
  name: "res4f_relu"
  type: "ReLU"
  bottom: "res4f"
  top: "res
I0628 16:44:43.924914  1442 layer_factory.hpp:77] Creating layer input
I0628 16:44:43.925024  1442 db_lmdb.cpp:35] Opened lmdb ../../../data_subsets/subtrain2_lmdb
I0628 16:44:43.925055  1442 net.cpp:84] Creating Layer input
I0628 16:44:43.925067  1442 net.cpp:380] input -> data
I0628 16:44:43.925096  1442 net.cpp:380] input -> label
I0628 16:44:43.925112  1442 data_transformer.cpp:25] Loading mean file from: ../../../data_subsets/subtrain2_mean.binaryproto
I0628 16:44:43.938114  1442 data_layer.cpp:45] output data size: 8,3,224,224
I0628 16:44:43.949537  1442 net.cpp:122] Setting up input
I0628 16:44:43.949586  1442 net.cpp:129] Top shape: 8 3 224 224 (1204224)
I0628 16:44:43.949594  1442 net.cpp:129] Top shape: 8 (8)
I0628 16:44:43.949597  1442 net.cpp:137] Memory required for data: 4816928
I0628 16:44:43.949609  1442 layer_factory.hpp:77] Creating layer label_input_1_split
I0628 16:44:43.949626  1442 net.cpp:84] Creating Layer label_input_1_split
I0628 16:44:43.949635  1442 net.cpp:406] label_input_1_split <- label
I0628 16:44:43.949651  1442 net.cpp:380] label_input_1_split -> label_input_1_split_0
I0628 16:44:43.949671  1442 net.cpp:380] label_input_1_split -> label_input_1_split_1
I0628 16:44:43.949681  1442 net.cpp:380] label_input_1_split -> label_input_1_split_2
I0628 16:44:43.949687  1442 net.cpp:380] label_input_1_split -> label_input_1_split_3
I0628 16:44:43.949753  1442 net.cpp:122] Setting up label_input_1_split
I0628 16:44:43.949769  1442 net.cpp:129] Top shape: 8 (8)
I0628 16:44:43.949774  1442 net.cpp:129] Top shape: 8 (8)
I0628 16:44:43.949779  1442 net.cpp:129] Top shape: 8 (8)
I0628 16:44:43.949782  1442 net.cpp:129] Top shape: 8 (8)
I0628 16:44:43.949786  1442 net.cpp:137] Memory required for data: 4817056
I0628 16:44:43.949790  1442 layer_factory.hpp:77] Creating layer conv1
I0628 16:44:43.949810  1442 net.cpp:84] Creating Layer conv1
I0628 16:44:43.949816  1442 net.cpp:406] conv1 <- data
I0628 16:44:43.949825  1442 net.cpp:380] conv1 -> conv1
I0628 16:44:44.119712  1442 net.cpp:122] Setting up conv1
I0628 16:44:44.119762  1442 net.cpp:129] Top shape: 8 64 112 112 (6422528)
I0628 16:44:44.119768  1442 net.cpp:137] Memory required for data: 30507168
I0628 16:44:44.119791  1442 layer_factory.hpp:77] Creating layer bn_conv1
I0628 16:44:44.119808  1442 net.cpp:84] Creating Layer bn_conv1
I0628 16:44:44.119814  1442 net.cpp:406] bn_conv1 <- conv1
I0628 16:44:44.119822  1442 net.cpp:367] bn_conv1 -> conv1 (in-place)
I0628 16:44:44.120002  1442 net.cpp:122] Setting up bn_conv1
I0628 16:44:44.120018  1442 net.cpp:129] Top shape: 8 64 112 112 (6422528)
I0628 16:44:44.120043  1442 net.cpp:137] Memory required for data: 56197280
I0628 16:44:44.120056  1442 layer_factory.hpp:77] Creating layer scale_conv1
I0628 16:44:44.120072  1442 net.cpp:84] Creating Layer scale_conv1
I0628 16:44:44.120079  1442 net.cpp:406] scale_conv1 <- conv1
I0628 16:44:44.120085  1442 net.cpp:367] scale_conv1 -> conv1 (in-place)
I0628 16:44:44.120141  1442 layer_factory.hpp:77] Creating layer scale_conv1
I0628 16:44:44.120271  1442 net.cpp:122] Setting up scale_conv1
I0628 16:44:44.120288  1442 net.cpp:129] Top shape: 8 64 112 112 (6422528)
I0628 16:44:44.120292  1442 net.cpp:137] Memory required for data: 81887392
I0628 16:44:44.120301  1442 layer_factory.hpp:77] Creating layer conv1_relu
I0628 16:44:44.120307  1442 net.cpp:84] Creating Layer conv1_relu
I0628 16:44:44.120311  1442 net.cpp:406] conv1_relu <- conv1
I0628 16:44:44.120323  1442 net.cpp:367] conv1_relu -> conv1 (in-place)
I0628 16:44:44.120474  1442 net.cpp:122] Setting up conv1_relu
I0628 16:44:44.120491  1442 net.cpp:129] Top shape: 8 64 112 112 (6422528)
I0628 16:44:44.120496  1442 net.cpp:137] Memory required for data: 107577504
I0628 16:44:44.120501  1442 layer_factory.hpp:77] Creating layer pool1
I0628 16:44:44.120510  1442 net.cpp:84] Creating Layer pool1
I0628 16:44:44.120515  1442 net.cpp:406] pool1 <- conv1
I0628 16:44:44.120522  1442 net.cpp:380] pool1 -> pool1
I0628 16:44:44.120575  1442 net.cpp:122] Setting up pool1
I0628 16:44:44.120590  1442 net.cpp:129] Top shape: 8 64 56 56 (1605632)
I0628 16:44:44.120594  1442 net.cpp:137] Memory required for data: 114000032
I0628 16:44:44.120599  1442 layer_factory.hpp:77] Creating layer pool1_pool1_0_split
I0628 16:44:44.120605  1442 net.cpp:84] Creating Layer pool1_pool1_0_split
I0628 16:44:44.120609  1442 net.cpp:406] pool1_pool1_0_split <- pool1
I0628 16:44:44.120615  1442 net.cpp:380] pool1_pool1_0_split -> pool1_pool1_0_split_0
I0628 16:44:44.120623  1442 net.cpp:380] pool1_pool1_0_split -> pool1_pool1_0_split_1
I0628 16:44:44.120656  1442 net.cpp:122] Setting up pool1_pool1_0_split
I0628 16:44:44.120669  1442 net.cpp:129] Top shape: 8 64 56 56 (1605632)
I0628 16:44:44.120674  1442 net.cpp:129] Top shape: 8 64 56 56 (1605632)
I0628 16:44:44.120678  1442 net.cpp:137] Memory required for data: 126845088
I0628 16:44:44.120682  1442 layer_factory.hpp:77] Creating layer res2a_branch1
I0628 16:44:44.120694  1442 net.cpp:84] Creating Layer res2a_branch1
I0628 16:44:44.120699  1442 net.cpp:406] res2a_branch1 <- pool1_pool1_0_split_0
I0628 16:44:44.120708  1442 net.cpp:380] res2a_branch1 -> res2a_branch1
I0628 16:44:44.121645  1442 net.cpp:122] Setting up res2a_branch1
I0628 16:44:44.121665  1442 net.cpp:129] Top shape: 8 256 56 56 (6422528)
I0628 16:44:44.121670  1442 net.cpp:137] Memory required for data: 152535200
I0628 16:44:44.121676  1442 layer_factory.hpp:77] Creating layer bn2a_branch1
I0628 16:44:44.121686  1442 net.cpp:84] Creating Layer bn2a_branch1
I0628 16:44:44.121690  1442 net.cpp:406] bn2a_branch1 <- res2a_branch1
I0628 16:44:44.121698  1442 net.cpp:367] bn2a_branch1 -> res2a_branch1 (in-place)
I0628 16:44:44.122390  1442 net.cpp:122] Setting up bn2a_branch1
I0628 16:44:44.122412  1442 net.cpp:129] Top shape: 8 256 56 56 (6422528)
I0628 16:44:44.122416  1442 net.cpp:137] Memory required for data: 178225312
I0628 16:44:44.122431  1442 layer_factory.hpp:77] Creating layer scale2a_branch1
I0628 16:44:44.122438  1442 net.cpp:84] Creating Layer scale2a_branch1
I0628 16:44:44.122442  1442 net.cpp:406] scale2a_branch1 <- res2a_branch1
I0628 16:44:44.122447  1442 net.cpp:367] scale2a_branch1 -> res2a_branch1 (in-place)
I0628 16:44:44.122494  1442 layer_factory.hpp:77] Creating layer scale2a_branch1
I0628 16:44:44.122613  1442 net.cpp:122] Setting up scale2a_branch1
I0628 16:44:44.122628  1442 net.cpp:129] Top shape: 8 256 56 56 (6422528)
I0628 16:44:44.122632  1442 net.cpp:137] Memory required for data: 203915424
I0628 16:44:44.122638  1442 layer_factory.hpp:77] Creating layer res2a_branch2a
I0628 16:44:44.122653  1442 net.cpp:84] Creating Layer res2a_branch2a
I0628 16:44:44.122678  1442 net.cpp:406] res2a_branch2a <- pool1_pool1_0_split_1
I0628 16:44:44.122685  1442 net.cpp:380] res2a_branch2a -> res2a_branch2a
I0628 16:44:44.123538  1442 net.cpp:122] Setting up res2a_branch2a
I0628 16:44:44.123559  1442 net.cpp:129] Top shape: 8 64 56 56 (1605632)
I0628 16:44:44.123564  1442 net.cpp:137] Memory required for data: 210337952
I0628 16:44:44.123569  1442 layer_factory.hpp:77] Creating layer bn2a_branch2a
I0628 16:44:44.123582  1442 net.cpp:84] Creating Layer bn2a_branch2a
I0628 16:44:44.123587  1442 net.cpp:406] bn2a_branch2a <- res2a_branch2a
I0628 16:44:44.123594  1442 net.cpp:367] bn2a_branch2a -> res2a_branch2a (in-place)
I0628 16:44:44.123778  1442 net.cpp:122] Setting up bn2a_branch2a
I0628 16:44:44.123795  1442 net.cpp:129] Top shape: 8 64 56 56 (1605632)
I0628 16:44:44.123798  1442 net.cpp:137] Memory required for data: 216760480
I0628 16:44:44.123809  1442 layer_factory.hpp:77] Creating layer scale2a_branch2a
I0628 16:44:44.123818  1442 net.cpp:84] Creating Layer scale2a_branch2a
I0628 16:44:44.123823  1442 net.cpp:406] scale2a_branch2a <- res2a_branch2a
I0628 16:44:44.123828  1442 net.cpp:367] scale2a_branch2a -> res2a_branch2a (in-place)
I0628 16:44:44.123872  1442 layer_factory.hpp:77] Creating layer scale2a_branch2a
I0628 16:44:44.123996  1442 net.cpp:122] Setting up scale2a_branch2a
I0628 16:44:44.124011  1442 net.cpp:129] Top shape: 8 64 56 56 (1605632)
I0628 16:44:44.124016  1442 net.cpp:137] Memory required for data: 223183008
I0628 16:44:44.124022  1442 layer_factory.hpp:77] Creating layer res2a_branch2a_relu
I0628 16:44:44.124030  1442 net.cpp:84] Creating Layer res2a_branch2a_relu
I0628 16:44:44.124034  1442 net.cpp:406] res2a_branch2a_relu <- res2a_branch2a
I0628 16:44:44.124039  1442 net.cpp:367] res2a_branch2a_relu -> res2a_branch2a (in-place)
I0628 16:44:44.124282  1442 net.cpp:122] Setting up res2a_branch2a_relu
I0628 16:44:44.124300  1442 net.cpp:129] Top shape: 8 64 56 56 (1605632)
I0628 16:44:44.124305  1442 net.cpp:137] Memory required for data: 229605536
I0628 16:44:44.124310  1442 layer_factory.hpp:77] Creating layer res2a_branch2b
I0628 16:44:44.124328  1442 net.cpp:84] Creating Layer res2a_branch2b
I0628 16:44:44.124339  1442 net.cpp:406] res2a_branch2b <- res2a_branch2a
I0628 16:44:44.124348  1442 net.cpp:380] res2a_branch2b -> res2a_branch2b
I0628 16:44:44.125700  1442 net.cpp:122] Setting up res2a_branch2b
I0628 16:44:44.125720  1442 net.cpp:129] Top shape: 8 64 56 56 (1605632)
I0628 16:44:44.125725  1442 net.cpp:137] Memory required for data: 236028064
I0628 16:44:44.125731  1442 layer_factory.hpp:77] Creating layer bn2a_branch2b
I0628 16:44:44.125742  1442 net.cpp:84] Creating Layer bn2a_branch2b
I0628 16:44:44.125747  1442 net.cpp:406] bn2a_branch2b <- res2a_branch2b
I0628 16:44:44.125753  1442 net.cpp:367] bn2a_branch2b -> res2a_branch2b (in-place)
I0628 16:44:44.125946  1442 net.cpp:122] Setting up bn2a_branch2b
I0628 16:44:44.125962  1442 net.cpp:129] Top shape: 8 64 56 56 (1605632)
I0628 16:44:44.125967  1442 net.cpp:137] Memory required for data: 242450592
I0628 16:44:44.125975  1442 layer_factory.hpp:77] Creating layer scale2a_branch2b
I0628 16:44:44.125982  1442 net.cpp:84] Creating Layer scale2a_branch2b
I0628 16:44:44.125986  1442 net.cpp:406] scale2a_branch2b <- res2a_branch2b
I0628 16:44:44.125993  1442 net.cpp:367] scale2a_branch2b -> res2a_branch2b (in-place)
I0628 16:44:44.126039  1442 layer_factory.hpp:77] Creating layer scale2a_branch2b
I0628 16:44:44.126163  1442 net.cpp:122] Setting up scale2a_branch2b
I0628 16:44:44.126178  1442 net.cpp:129] Top shape: 8 64 56 56 (1605632)
I0628 16:44:44.126181  1442 net.cpp:137] Memory required for data: 248873120
I0628 16:44:44.126188  1442 layer_factory.hpp:77] Creating layer res2a_branch2b_relu
I0628 16:44:44.126197  1442 net.cpp:84] Creating Layer res2a_branch2b_relu
I0628 16:44:44.126201  1442 net.cpp:406] res2a_branch2b_relu <- res2a_branch2b
I0628 16:44:44.126207  1442 net.cpp:367] res2a_branch2b_relu -> res2a_branch2b (in-place)
I0628 16:44:44.126457  1442 net.cpp:122] Setting up res2a_branch2b_relu
I0628 16:44:44.126488  1442 net.cpp:129] Top shape: 8 64 56 56 (1605632)
I0628 16:44:44.126493  1442 net.cpp:137] Memory required for data: 255295648
I0628 16:44:44.126497  1442 layer_factory.hpp:77] Creating layer res2a_branch2c
I0628 16:44:44.126512  1442 net.cpp:84] Creating Layer res2a_branch2c
I0628 16:44:44.126516  1442 net.cpp:406] res2a_branch2c <- res2a_branch2b
I0628 16:44:44.126523  1442 net.cpp:380] res2a_branch2c -> res2a_branch2c
I0628 16:44:44.127477  1442 net.cpp:122] Setting up res2a_branch2c
I0628 16:44:44.127499  1442 net.cpp:129] Top shape: 8 256 56 56 (6422528)
I0628 16:44:44.127503  1442 net.cpp:137] Memory required for data: 280985760
I0628 16:44:44.127509  1442 layer_factory.hpp:77] Creating layer bn2a_branch2c
I0628 16:44:44.127517  1442 net.cpp:84] Creating Layer bn2a_branch2c
I0628 16:44:44.127522  1442 net.cpp:406] bn2a_branch2c <- res2a_branch2c
I0628 16:44:44.127529  1442 net.cpp:367] bn2a_branch2c -> res2a_branch2c (in-place)
I0628 16:44:44.127718  1442 net.cpp:122] Setting up bn2a_branch2c
I0628 16:44:44.127733  1442 net.cpp:129] Top shape: 8 256 56 56 (6422528)
I0628 16:44:44.127737  1442 net.cpp:137] Memory required for data: 306675872
I0628 16:44:44.127746  1442 layer_factory.hpp:77] Creating layer scale2a_branch2c
I0628 16:44:44.127753  1442 net.cpp:84] Creating Layer scale2a_branch2c
I0628 16:44:44.127758  1442 net.cpp:406] scale2a_branch2c <- res2a_branch2c
I0628 16:44:44.127763  1442 net.cpp:367] scale2a_branch2c -> res2a_branch2c (in-place)
I0628 16:44:44.127811  1442 layer_factory.hpp:77] Creating layer scale2a_branch2c
I0628 16:44:44.127941  1442 net.cpp:122] Setting up scale2a_branch2c
I0628 16:44:44.127956  1442 net.cpp:129] Top shape: 8 256 56 56 (6422528)
I0628 16:44:44.127960  1442 net.cpp:137] Memory required for data: 332365984
I0628 16:44:44.127966  1442 layer_factory.hpp:77] Creating layer res2a
I0628 16:44:44.127979  1442 net.cpp:84] Creating Layer res2a
I0628 16:44:44.127984  1442 net.cpp:406] res2a <- res2a_branch1
I0628 16:44:44.127988  1442 net.cpp:406] res2a <- res2a_branch2c
I0628 16:44:44.127996  1442 net.cpp:380] res2a -> res2a
I0628 16:44:44.128026  1442 net.cpp:122] Setting up res2a
I0628 16:44:44.128041  1442 net.cpp:129] Top shape: 8 256 56 56 (6422528)
I0628 16:44:44.128044  1442 net.cpp:137] Memory required for data: 358056096
I0628 16:44:44.128048  1442 layer_factory.hpp:77] Creating layer res2a_relu
I0628 16:44:44.128057  1442 net.cpp:84] Creating Layer res2a_relu
I0628 16:44:44.128062  1442 net.cpp:406] res2a_relu <- res2a
I0628 16:44:44.128067  1442 net.cpp:367] res2a_relu -> res2a (in-place)
I0628 16:44:44.128244  1442 net.cpp:122] Setting up res2a_relu
I0628 16:44:44.128262  1442 net.cpp:129] Top shape: 8 256 56 56 (6422528)
I0628 16:44:44.128267  1442 net.cpp:137] Memory required for data: 383746208
I0628 16:44:44.128270  1442 layer_factory.hpp:77] Creating layer res2a_res2a_relu_0_split
I0628 16:44:44.128279  1442 net.cpp:84] Creating Layer res2a_res2a_relu_0_split
I0628 16:44:44.128283  1442 net.cpp:406] res2a_res2a_relu_0_split <- res2a
I0628 16:44:44.128291  1442 net.cpp:380] res2a_res2a_relu_0_split -> res2a_res2a_relu_0_split_0
I0628 16:44:44.128298  1442 net.cpp:380] res2a_res2a_relu_0_split -> res2a_res2a_relu_0_split_1
I0628 16:44:44.128341  1442 net.cpp:122] Setting up res2a_res2a_relu_0_split
I0628 16:44:44.128357  1442 net.cpp:129] Top shape: 8 256 56 56 (6422528)
I0628 16:44:44.128363  1442 net.cpp:129] Top shape: 8 256 56 56 (6422528)
I0628 16:44:44.128366  1442 net.cpp:137] Memory required for data: 435126432
I0628 16:44:44.128370  1442 layer_factory.hpp:77] Creating layer res2b_branch2a
I0628 16:44:44.128378  1442 net.cpp:84] Creating Layer res2b_branch2a
I0628 16:44:44.128382  1442 net.cpp:406] res2b_branch2a <- res2a_res2a_relu_0_split_0
I0628 16:44:44.128391  1442 net.cpp:380] res2b_branch2a -> res2b_branch2a
I0628 16:44:44.129228  1442 net.cpp:122] Setting up res2b_branch2a
I0628 16:44:44.129248  1442 net.cpp:129] Top shape: 8 64 56 56 (1605632)
I0628 16:44:44.129252  1442 net.cpp:137] Memory required for data: 441548960
I0628 16:44:44.129271  1442 layer_factory.hpp:77] Creating layer bn2b_branch2a
I0628 16:44:44.129282  1442 net.cpp:84] Creating Layer bn2b_branch2a
I0628 16:44:44.129287  1442 net.cpp:406] bn2b_branch2a <- res2b_branch2a
I0628 16:44:44.129294  1442 net.cpp:367] bn2b_branch2a -> res2b_branch2a (in-place)
I0628 16:44:44.129492  1442 net.cpp:122] Setting up bn2b_branch2a
I0628 16:44:44.129506  1442 net.cpp:129] Top shape: 8 64 56 56 (1605632)
I0628 16:44:44.129510  1442 net.cpp:137] Memory required for data: 447971488
I0628 16:44:44.129526  1442 layer_factory.hpp:77] Creating layer scale2b_branch2a
I0628 16:44:44.129534  1442 net.cpp:84] Creating Layer scale2b_branch2a
I0628 16:44:44.129539  1442 net.cpp:406] scale2b_branch2a <- res2b_branch2a
I0628 16:44:44.129544  1442 net.cpp:367] scale2b_branch2a -> res2b_branch2a (in-place)
I0628 16:44:44.129591  1442 layer_factory.hpp:77] Creating layer scale2b_branch2a
I0628 16:44:44.129719  1442 net.cpp:122] Setting up scale2b_branch2a
I0628 16:44:44.129734  1442 net.cpp:129] Top shape: 8 64 56 56 (1605632)
I0628 16:44:44.129739  1442 net.cpp:137] Memory required for data: 454394016
I0628 16:44:44.129745  1442 layer_factory.hpp:77] Creating layer res2b_branch2a_relu
I0628 16:44:44.129752  1442 net.cpp:84] Creating Layer res2b_branch2a_relu
I0628 16:44:44.129756  1442 net.cpp:406] res2b_branch2a_relu <- res2b_branch2a
I0628 16:44:44.129761  1442 net.cpp:367] res2b_branch2a_relu -> res2b_branch2a (in-place)
I0628 16:44:44.130014  1442 net.cpp:122] Setting up res2b_branch2a_relu
I0628 16:44:44.130033  1442 net.cpp:129] Top shape: 8 64 56 56 (1605632)
I0628 16:44:44.130036  1442 net.cpp:137] Memory required for data: 460816544
I0628 16:44:44.130040  1442 layer_factory.hpp:77] Creating layer res2b_branch2b
I0628 16:44:44.130051  1442 net.cpp:84] Creating Layer res2b_branch2b
I0628 16:44:44.130056  1442 net.cpp:406] res2b_branch2b <- res2b_branch2a
I0628 16:44:44.130065  1442 net.cpp:380] res2b_branch2b -> res2b_branch2b
I0628 16:44:44.130816  1442 net.cpp:122] Setting up res2b_branch2b
I0628 16:44:44.130836  1442 net.cpp:129] Top shape: 8 64 56 56 (1605632)
I0628 16:44:44.130841  1442 net.cpp:137] Memory required for data: 467239072
I0628 16:44:44.130849  1442 layer_factory.hpp:77] Creating layer bn2b_branch2b
I0628 16:44:44.130861  1442 net.cpp:84] Creating Layer bn2b_branch2b
I0628 16:44:44.130867  1442 net.cpp:406] bn2b_branch2b <- res2b_branch2b
I0628 16:44:44.130872  1442 net.cpp:367] bn2b_branch2b -> res2b_branch2b (in-place)
I0628 16:44:44.131084  1442 net.cpp:122] Setting up bn2b_branch2b
I0628 16:44:44.131100  1442 net.cpp:129] Top shape: 8 64 56 56 (1605632)
I0628 16:44:44.131104  1442 net.cpp:137] Memory required for data: 473661600
I0628 16:44:44.131112  1442 layer_factory.hpp:77] Creating layer scale2b_branch2b
I0628 16:44:44.131122  1442 net.cpp:84] Creating Layer scale2b_branch2b
I0628 16:44:44.131126  1442 net.cpp:406] scale2b_branch2b <- res2b_branch2b
I0628 16:44:44.131132  1442 net.cpp:367] scale2b_branch2b -> res2b_branch2b (in-place)
I0628 16:44:44.131177  1442 layer_factory.hpp:77] Creating layer scale2b_branch2b
I0628 16:44:44.131304  1442 net.cpp:122] Setting up scale2b_branch2b
I0628 16:44:44.131325  1442 net.cpp:129] Top shape: 8 64 56 56 (1605632)
I0628 16:44:44.131328  1442 net.cpp:137] Memory required for data: 480084128
I0628 16:44:44.131335  1442 layer_factory.hpp:77] Creating layer res2b_branch2b_relu
I0628 16:44:44.131346  1442 net.cpp:84] Creating Layer res2b_branch2b_relu
I0628 16:44:44.131351  1442 net.cpp:406] res2b_branch2b_relu <- res2b_branch2b
I0628 16:44:44.131358  1442 net.cpp:367] res2b_branch2b_relu -> res2b_branch2b (in-place)
I0628 16:44:44.131602  1442 net.cpp:122] Setting up res2b_branch2b_relu
I0628 16:44:44.131620  1442 net.cpp:129] Top shape: 8 64 56 56 (1605632)
I0628 16:44:44.131624  1442 net.cpp:137] Memory required for data: 486506656
I0628 16:44:44.131628  1442 layer_factory.hpp:77] Creating layer res2b_branch2c
I0628 16:44:44.131639  1442 net.cpp:84] Creating Layer res2b_branch2c
I0628 16:44:44.131644  1442 net.cpp:406] res2b_branch2c <- res2b_branch2b
I0628 16:44:44.131667  1442 net.cpp:380] res2b_branch2c -> res2b_branch2c
I0628 16:44:44.132666  1442 net.cpp:122] Setting up res2b_branch2c
I0628 16:44:44.132686  1442 net.cpp:129] Top shape: 8 256 56 56 (6422528)
I0628 16:44:44.132690  1442 net.cpp:137] Memory required for data: 512196768
I0628 16:44:44.132696  1442 layer_factory.hpp:77] Creating layer bn2b_branch2c
I0628 16:44:44.132707  1442 net.cpp:84] Creating Layer bn2b_branch2c
I0628 16:44:44.132711  1442 net.cpp:406] bn2b_branch2c <- res2b_branch2c
I0628 16:44:44.132717  1442 net.cpp:367] bn2b_branch2c -> res2b_branch2c (in-place)
I0628 16:44:44.132905  1442 net.cpp:122] Setting up bn2b_branch2c
I0628 16:44:44.132920  1442 net.cpp:129] Top shape: 8 256 56 56 (6422528)
I0628 16:44:44.132925  1442 net.cpp:137] Memory required for data: 537886880
I0628 16:44:44.132932  1442 layer_factory.hpp:77] Creating layer scale2b_branch2c
I0628 16:44:44.132941  1442 net.cpp:84] Creating Layer scale2b_branch2c
I0628 16:44:44.132948  1442 net.cpp:406] scale2b_branch2c <- res2b_branch2c
I0628 16:44:44.132954  1442 net.cpp:367] scale2b_branch2c -> res2b_branch2c (in-place)
I0628 16:44:44.133002  1442 layer_factory.hpp:77] Creating layer scale2b_branch2c
I0628 16:44:44.133131  1442 net.cpp:122] Setting up scale2b_branch2c
I0628 16:44:44.133147  1442 net.cpp:129] Top shape: 8 256 56 56 (6422528)
I0628 16:44:44.133150  1442 net.cpp:137] Memory required for data: 563576992
I0628 16:44:44.133159  1442 layer_factory.hpp:77] Creating layer res2b
I0628 16:44:44.133167  1442 net.cpp:84] Creating Layer res2b
I0628 16:44:44.133170  1442 net.cpp:406] res2b <- res2a_res2a_relu_0_split_1
I0628 16:44:44.133175  1442 net.cpp:406] res2b <- res2b_branch2c
I0628 16:44:44.133183  1442 net.cpp:380] res2b -> res2b
I0628 16:44:44.133213  1442 net.cpp:122] Setting up res2b
I0628 16:44:44.133231  1442 net.cpp:129] Top shape: 8 256 56 56 (6422528)
I0628 16:44:44.133239  1442 net.cpp:137] Memory required for data: 589267104
I0628 16:44:44.133245  1442 layer_factory.hpp:77] Creating layer res2b_relu
I0628 16:44:44.133256  1442 net.cpp:84] Creating Layer res2b_relu
I0628 16:44:44.133261  1442 net.cpp:406] res2b_relu <- res2b
I0628 16:44:44.133267  1442 net.cpp:367] res2b_relu -> res2b (in-place)
I0628 16:44:44.133510  1442 net.cpp:122] Setting up res2b_relu
I0628 16:44:44.133529  1442 net.cpp:129] Top shape: 8 256 56 56 (6422528)
I0628 16:44:44.133533  1442 net.cpp:137] Memory required for data: 614957216
I0628 16:44:44.133538  1442 layer_factory.hpp:77] Creating layer res2b_res2b_relu_0_split
I0628 16:44:44.133544  1442 net.cpp:84] Creating Layer res2b_res2b_relu_0_split
I0628 16:44:44.133548  1442 net.cpp:406] res2b_res2b_relu_0_split <- res2b
I0628 16:44:44.133556  1442 net.cpp:380] res2b_res2b_relu_0_split -> res2b_res2b_relu_0_split_0
I0628 16:44:44.133563  1442 net.cpp:380] res2b_res2b_relu_0_split -> res2b_res2b_relu_0_split_1
I0628 16:44:44.133608  1442 net.cpp:122] Setting up res2b_res2b_relu_0_split
I0628 16:44:44.133622  1442 net.cpp:129] Top shape: 8 256 56 56 (6422528)
I0628 16:44:44.133630  1442 net.cpp:129] Top shape: 8 256 56 56 (6422528)
I0628 16:44:44.133632  1442 net.cpp:137] Memory required for data: 666337440
I0628 16:44:44.133636  1442 layer_factory.hpp:77] Creating layer res2c_branch2a
I0628 16:44:44.133644  1442 net.cpp:84] Creating Layer res2c_branch2a
I0628 16:44:44.133649  1442 net.cpp:406] res2c_branch2a <- res2b_res2b_relu_0_split_0
I0628 16:44:44.133656  1442 net.cpp:380] res2c_branch2a -> res2c_branch2a
I0628 16:44:44.134516  1442 net.cpp:122] Setting up res2c_branch2a
I0628 16:44:44.134534  1442 net.cpp:129] Top shape: 8 64 56 56 (1605632)
I0628 16:44:44.134539  1442 net.cpp:137] Memory required for data: 672759968
I0628 16:44:44.134546  1442 layer_factory.hpp:77] Creating layer bn2c_branch2a
I0628 16:44:44.134554  1442 net.cpp:84] Creating Layer bn2c_branch2a
I0628 16:44:44.134559  1442 net.cpp:406] bn2c_branch2a <- res2c_branch2a
I0628 16:44:44.134567  1442 net.cpp:367] bn2c_branch2a -> res2c_branch2a (in-place)
I0628 16:44:44.134763  1442 net.cpp:122] Setting up bn2c_branch2a
I0628 16:44:44.134790  1442 net.cpp:129] Top shape: 8 64 56 56 (1605632)
I0628 16:44:44.134794  1442 net.cpp:137] Memory required for data: 679182496
I0628 16:44:44.134806  1442 layer_factory.hpp:77] Creating layer scale2c_branch2a
I0628 16:44:44.134814  1442 net.cpp:84] Creating Layer scale2c_branch2a
I0628 16:44:44.134819  1442 net.cpp:406] scale2c_branch2a <- res2c_branch2a
I0628 16:44:44.134824  1442 net.cpp:367] scale2c_branch2a -> res2c_branch2a (in-place)
I0628 16:44:44.134871  1442 layer_factory.hpp:77] Creating layer scale2c_branch2a
I0628 16:44:44.135025  1442 net.cpp:122] Setting up scale2c_branch2a
I0628 16:44:44.135040  1442 net.cpp:129] Top shape: 8 64 56 56 (1605632)
I0628 16:44:44.135044  1442 net.cpp:137] Memory required for data: 685605024
I0628 16:44:44.135053  1442 layer_factory.hpp:77] Creating layer res2c_branch2a_relu
I0628 16:44:44.135059  1442 net.cpp:84] Creating Layer res2c_branch2a_relu
I0628 16:44:44.135063  1442 net.cpp:406] res2c_branch2a_relu <- res2c_branch2a
I0628 16:44:44.135071  1442 net.cpp:367] res2c_branch2a_relu -> res2c_branch2a (in-place)
I0628 16:44:44.135332  1442 net.cpp:122] Setting up res2c_branch2a_relu
I0628 16:44:44.135351  1442 net.cpp:129] Top shape: 8 64 56 56 (1605632)
I0628 16:44:44.135355  1442 net.cpp:137] Memory required for data: 692027552
I0628 16:44:44.135360  1442 layer_factory.hpp:77] Creating layer res2c_branch2b
I0628 16:44:44.135372  1442 net.cpp:84] Creating Layer res2c_branch2b
I0628 16:44:44.135377  1442 net.cpp:406] res2c_branch2b <- res2c_branch2a
I0628 16:44:44.135386  1442 net.cpp:380] res2c_branch2b -> res2c_branch2b
I0628 16:44:44.136143  1442 net.cpp:122] Setting up res2c_branch2b
I0628 16:44:44.136162  1442 net.cpp:129] Top shape: 8 64 56 56 (1605632)
I0628 16:44:44.136169  1442 net.cpp:137] Memory required for data: 698450080
I0628 16:44:44.136175  1442 layer_factory.hpp:77] Creating layer bn2c_branch2b
I0628 16:44:44.136183  1442 net.cpp:84] Creating Layer bn2c_branch2b
I0628 16:44:44.136188  1442 net.cpp:406] bn2c_branch2b <- res2c_branch2b
I0628 16:44:44.136193  1442 net.cpp:367] bn2c_branch2b -> res2c_branch2b (in-place)
I0628 16:44:44.136409  1442 net.cpp:122] Setting up bn2c_branch2b
I0628 16:44:44.136435  1442 net.cpp:129] Top shape: 8 64 56 56 (1605632)
I0628 16:44:44.136438  1442 net.cpp:137] Memory required for data: 704872608
I0628 16:44:44.136446  1442 layer_factory.hpp:77] Creating layer scale2c_branch2b
I0628 16:44:44.136453  1442 net.cpp:84] Creating Layer scale2c_branch2b
I0628 16:44:44.136458  1442 net.cpp:406] scale2c_branch2b <- res2c_branch2b
I0628 16:44:44.136463  1442 net.cpp:367] scale2c_branch2b -> res2c_branch2b (in-place)
I0628 16:44:44.136513  1442 layer_factory.hpp:77] Creating layer scale2c_branch2b
I0628 16:44:44.136649  1442 net.cpp:122] Setting up scale2c_branch2b
I0628 16:44:44.136664  1442 net.cpp:129] Top shape: 8 64 56 56 (1605632)
I0628 16:44:44.136669  1442 net.cpp:137] Memory required for data: 711295136
I0628 16:44:44.136675  1442 layer_factory.hpp:77] Creating layer res2c_branch2b_relu
I0628 16:44:44.136682  1442 net.cpp:84] Creating Layer res2c_branch2b_relu
I0628 16:44:44.136687  1442 net.cpp:406] res2c_branch2b_relu <- res2c_branch2b
I0628 16:44:44.136692  1442 net.cpp:367] res2c_branch2b_relu -> res2c_branch2b (in-place)
I0628 16:44:44.136940  1442 net.cpp:122] Setting up res2c_branch2b_relu
I0628 16:44:44.136960  1442 net.cpp:129] Top shape: 8 64 56 56 (1605632)
I0628 16:44:44.136963  1442 net.cpp:137] Memory required for data: 717717664
I0628 16:44:44.136967  1442 layer_factory.hpp:77] Creating layer res2c_branch2c
I0628 16:44:44.136978  1442 net.cpp:84] Creating Layer res2c_branch2c
I0628 16:44:44.136983  1442 net.cpp:406] res2c_branch2c <- res2c_branch2b
I0628 16:44:44.136989  1442 net.cpp:380] res2c_branch2c -> res2c_branch2c
I0628 16:44:44.137958  1442 net.cpp:122] Setting up res2c_branch2c
I0628 16:44:44.137976  1442 net.cpp:129] Top shape: 8 256 56 56 (6422528)
I0628 16:44:44.137981  1442 net.cpp:137] Memory required for data: 743407776
I0628 16:44:44.138000  1442 layer_factory.hpp:77] Creating layer bn2c_branch2c
I0628 16:44:44.138007  1442 net.cpp:84] Creating Layer bn2c_branch2c
I0628 16:44:44.138011  1442 net.cpp:406] bn2c_branch2c <- res2c_branch2c
I0628 16:44:44.138020  1442 net.cpp:367] bn2c_branch2c -> res2c_branch2c (in-place)
I0628 16:44:44.138224  1442 net.cpp:122] Setting up bn2c_branch2c
I0628 16:44:44.138240  1442 net.cpp:129] Top shape: 8 256 56 56 (6422528)
I0628 16:44:44.138245  1442 net.cpp:137] Memory required for data: 769097888
I0628 16:44:44.138262  1442 layer_factory.hpp:77] Creating layer scale2c_branch2c
I0628 16:44:44.138269  1442 net.cpp:84] Creating Layer scale2c_branch2c
I0628 16:44:44.138274  1442 net.cpp:406] scale2c_branch2c <- res2c_branch2c
I0628 16:44:44.138279  1442 net.cpp:367] scale2c_branch2c -> res2c_branch2c (in-place)
I0628 16:44:44.138335  1442 layer_factory.hpp:77] Creating layer scale2c_branch2c
I0628 16:44:44.138496  1442 net.cpp:122] Setting up scale2c_branch2c
I0628 16:44:44.138514  1442 net.cpp:129] Top shape: 8 256 56 56 (6422528)
I0628 16:44:44.138517  1442 net.cpp:137] Memory required for data: 794788000
I0628 16:44:44.138525  1442 layer_factory.hpp:77] Creating layer res2c
I0628 16:44:44.138530  1442 net.cpp:84] Creating Layer res2c
I0628 16:44:44.138535  1442 net.cpp:406] res2c <- res2b_res2b_relu_0_split_1
I0628 16:44:44.138540  1442 net.cpp:406] res2c <- res2c_branch2c
I0628 16:44:44.138556  1442 net.cpp:380] res2c -> res2c
I0628 16:44:44.138584  1442 net.cpp:122] Setting up res2c
I0628 16:44:44.138598  1442 net.cpp:129] Top shape: 8 256 56 56 (6422528)
I0628 16:44:44.138602  1442 net.cpp:137] Memory required for data: 820478112
I0628 16:44:44.138607  1442 layer_factory.hpp:77] Creating layer res2c_relu
I0628 16:44:44.138617  1442 net.cpp:84] Creating Layer res2c_relu
I0628 16:44:44.138620  1442 net.cpp:406] res2c_relu <- res2c
I0628 16:44:44.138626  1442 net.cpp:367] res2c_relu -> res2c (in-place)
I0628 16:44:44.138783  1442 net.cpp:122] Setting up res2c_relu
I0628 16:44:44.138800  1442 net.cpp:129] Top shape: 8 256 56 56 (6422528)
I0628 16:44:44.138804  1442 net.cpp:137] Memory required for data: 846168224
I0628 16:44:44.138808  1442 layer_factory.hpp:77] Creating layer res2c_res2c_relu_0_split
I0628 16:44:44.138814  1442 net.cpp:84] Creating Layer res2c_res2c_relu_0_split
I0628 16:44:44.138818  1442 net.cpp:406] res2c_res2c_relu_0_split <- res2c
I0628 16:44:44.138826  1442 net.cpp:380] res2c_res2c_relu_0_split -> res2c_res2c_relu_0_split_0
I0628 16:44:44.138833  1442 net.cpp:380] res2c_res2c_relu_0_split -> res2c_res2c_relu_0_split_1
I0628 16:44:44.138877  1442 net.cpp:122] Setting up res2c_res2c_relu_0_split
I0628 16:44:44.138891  1442 net.cpp:129] Top shape: 8 256 56 56 (6422528)
I0628 16:44:44.138900  1442 net.cpp:129] Top shape: 8 256 56 56 (6422528)
I0628 16:44:44.138902  1442 net.cpp:137] Memory required for data: 897548448
I0628 16:44:44.138906  1442 layer_factory.hpp:77] Creating layer res3a_branch1
I0628 16:44:44.138914  1442 net.cpp:84] Creating Layer res3a_branch1
I0628 16:44:44.138918  1442 net.cpp:406] res3a_branch1 <- res2c_res2c_relu_0_split_0
I0628 16:44:44.138927  1442 net.cpp:380] res3a_branch1 -> res3a_branch1
I0628 16:44:44.140478  1442 net.cpp:122] Setting up res3a_branch1
I0628 16:44:44.140499  1442 net.cpp:129] Top shape: 8 512 28 28 (3211264)
I0628 16:44:44.140503  1442 net.cpp:137] Memory required for data: 910393504
I0628 16:44:44.140511  1442 layer_factory.hpp:77] Creating layer bn3a_branch1
I0628 16:44:44.140522  1442 net.cpp:84] Creating Layer bn3a_branch1
I0628 16:44:44.140527  1442 net.cpp:406] bn3a_branch1 <- res3a_branch1
I0628 16:44:44.140534  1442 net.cpp:367] bn3a_branch1 -> res3a_branch1 (in-place)
I0628 16:44:44.141224  1442 net.cpp:122] Setting up bn3a_branch1
I0628 16:44:44.141243  1442 net.cpp:129] Top shape: 8 512 28 28 (3211264)
I0628 16:44:44.141247  1442 net.cpp:137] Memory required for data: 923238560
I0628 16:44:44.141255  1442 layer_factory.hpp:77] Creating layer scale3a_branch1
I0628 16:44:44.141263  1442 net.cpp:84] Creating Layer scale3a_branch1
I0628 16:44:44.141281  1442 net.cpp:406] scale3a_branch1 <- res3a_branch1
I0628 16:44:44.141288  1442 net.cpp:367] scale3a_branch1 -> res3a_branch1 (in-place)
I0628 16:44:44.141340  1442 layer_factory.hpp:77] Creating layer scale3a_branch1
I0628 16:44:44.141474  1442 net.cpp:122] Setting up scale3a_branch1
I0628 16:44:44.141489  1442 net.cpp:129] Top shape: 8 512 28 28 (3211264)
I0628 16:44:44.141494  1442 net.cpp:137] Memory required for data: 936083616
I0628 16:44:44.141500  1442 layer_factory.hpp:77] Creating layer res3a_branch2a
I0628 16:44:44.141512  1442 net.cpp:84] Creating Layer res3a_branch2a
I0628 16:44:44.141516  1442 net.cpp:406] res3a_branch2a <- res2c_res2c_relu_0_split_1
I0628 16:44:44.141523  1442 net.cpp:380] res3a_branch2a -> res3a_branch2a
I0628 16:44:44.142428  1442 net.cpp:122] Setting up res3a_branch2a
I0628 16:44:44.142447  1442 net.cpp:129] Top shape: 8 128 28 28 (802816)
I0628 16:44:44.142452  1442 net.cpp:137] Memory required for data: 939294880
I0628 16:44:44.142458  1442 layer_factory.hpp:77] Creating layer bn3a_branch2a
I0628 16:44:44.142468  1442 net.cpp:84] Creating Layer bn3a_branch2a
I0628 16:44:44.142473  1442 net.cpp:406] bn3a_branch2a <- res3a_branch2a
I0628 16:44:44.142478  1442 net.cpp:367] bn3a_branch2a -> res3a_branch2a (in-place)
I0628 16:44:44.142684  1442 net.cpp:122] Setting up bn3a_branch2a
I0628 16:44:44.142699  1442 net.cpp:129] Top shape: 8 128 28 28 (802816)
I0628 16:44:44.142704  1442 net.cpp:137] Memory required for data: 942506144
I0628 16:44:44.142711  1442 layer_factory.hpp:77] Creating layer scale3a_branch2a
I0628 16:44:44.142721  1442 net.cpp:84] Creating Layer scale3a_branch2a
I0628 16:44:44.142725  1442 net.cpp:406] scale3a_branch2a <- res3a_branch2a
I0628 16:44:44.142731  1442 net.cpp:367] scale3a_branch2a -> res3a_branch2a (in-place)
I0628 16:44:44.142781  1442 layer_factory.hpp:77] Creating layer scale3a_branch2a
I0628 16:44:44.142907  1442 net.cpp:122] Setting up scale3a_branch2a
I0628 16:44:44.142922  1442 net.cpp:129] Top shape: 8 128 28 28 (802816)
I0628 16:44:44.142926  1442 net.cpp:137] Memory required for data: 945717408
I0628 16:44:44.142933  1442 layer_factory.hpp:77] Creating layer res3a_branch2a_relu
I0628 16:44:44.142940  1442 net.cpp:84] Creating Layer res3a_branch2a_relu
I0628 16:44:44.142943  1442 net.cpp:406] res3a_branch2a_relu <- res3a_branch2a
I0628 16:44:44.142951  1442 net.cpp:367] res3a_branch2a_relu -> res3a_branch2a (in-place)
I0628 16:44:44.143113  1442 net.cpp:122] Setting up res3a_branch2a_relu
I0628 16:44:44.143131  1442 net.cpp:129] Top shape: 8 128 28 28 (802816)
I0628 16:44:44.143134  1442 net.cpp:137] Memory required for data: 948928672
I0628 16:44:44.143138  1442 layer_factory.hpp:77] Creating layer res3a_branch2b
I0628 16:44:44.143152  1442 net.cpp:84] Creating Layer res3a_branch2b
I0628 16:44:44.143157  1442 net.cpp:406] res3a_branch2b <- res3a_branch2a
I0628 16:44:44.143165  1442 net.cpp:380] res3a_branch2b -> res3a_branch2b
I0628 16:44:44.144639  1442 net.cpp:122] Setting up res3a_branch2b
I0628 16:44:44.144659  1442 net.cpp:129] Top shape: 8 128 28 28 (802816)
I0628 16:44:44.144665  1442 net.cpp:137] Memory required for data: 952139936
I0628 16:44:44.144670  1442 layer_factory.hpp:77] Creating layer bn3a_branch2b
I0628 16:44:44.144680  1442 net.cpp:84] Creating Layer bn3a_branch2b
I0628 16:44:44.144685  1442 net.cpp:406] bn3a_branch2b <- res3a_branch2b
I0628 16:44:44.144690  1442 net.cpp:367] bn3a_branch2b -> res3a_branch2b (in-place)
I0628 16:44:44.144912  1442 net.cpp:122] Setting up bn3a_branch2b
I0628 16:44:44.144927  1442 net.cpp:129] Top shape: 8 128 28 28 (802816)
I0628 16:44:44.144932  1442 net.cpp:137] Memory required for data: 955351200
I0628 16:44:44.144942  1442 layer_factory.hpp:77] Creating layer scale3a_branch2b
I0628 16:44:44.144949  1442 net.cpp:84] Creating Layer scale3a_branch2b
I0628 16:44:44.144954  1442 net.cpp:406] scale3a_branch2b <- res3a_branch2b
I0628 16:44:44.144959  1442 net.cpp:367] scale3a_branch2b -> res3a_branch2b (in-place)
I0628 16:44:44.145009  1442 layer_factory.hpp:77] Creating layer scale3a_branch2b
I0628 16:44:44.145154  1442 net.cpp:122] Setting up scale3a_branch2b
I0628 16:44:44.145169  1442 net.cpp:129] Top shape: 8 128 28 28 (802816)
I0628 16:44:44.145174  1442 net.cpp:137] Memory required for data: 958562464
I0628 16:44:44.145180  1442 layer_factory.hpp:77] Creating layer res3a_branch2b_relu
I0628 16:44:44.145190  1442 net.cpp:84] Creating Layer res3a_branch2b_relu
I0628 16:44:44.145193  1442 net.cpp:406] res3a_branch2b_relu <- res3a_branch2b
I0628 16:44:44.145198  1442 net.cpp:367] res3a_branch2b_relu -> res3a_branch2b (in-place)
I0628 16:44:44.145460  1442 net.cpp:122] Setting up res3a_branch2b_relu
I0628 16:44:44.145479  1442 net.cpp:129] Top shape: 8 128 28 28 (802816)
I0628 16:44:44.145483  1442 net.cpp:137] Memory required for data: 961773728
I0628 16:44:44.145488  1442 layer_factory.hpp:77] Creating layer res3a_branch2c
I0628 16:44:44.145509  1442 net.cpp:84] Creating Layer res3a_branch2c
I0628 16:44:44.145520  1442 net.cpp:406] res3a_branch2c <- res3a_branch2b
I0628 16:44:44.145527  1442 net.cpp:380] res3a_branch2c -> res3a_branch2c
I0628 16:44:44.146351  1442 net.cpp:122] Setting up res3a_branch2c
I0628 16:44:44.146371  1442 net.cpp:129] Top shape: 8 512 28 28 (3211264)
I0628 16:44:44.146375  1442 net.cpp:137] Memory required for data: 974618784
I0628 16:44:44.146383  1442 layer_factory.hpp:77] Creating layer bn3a_branch2c
I0628 16:44:44.146389  1442 net.cpp:84] Creating Layer bn3a_branch2c
I0628 16:44:44.146394  1442 net.cpp:406] bn3a_branch2c <- res3a_branch2c
I0628 16:44:44.146409  1442 net.cpp:367] bn3a_branch2c -> res3a_branch2c (in-place)
I0628 16:44:44.146611  1442 net.cpp:122] Setting up bn3a_branch2c
I0628 16:44:44.146630  1442 net.cpp:129] Top shape: 8 512 28 28 (3211264)
I0628 16:44:44.146633  1442 net.cpp:137] Memory required for data: 987463840
I0628 16:44:44.146642  1442 layer_factory.hpp:77] Creating layer scale3a_branch2c
I0628 16:44:44.146649  1442 net.cpp:84] Creating Layer scale3a_branch2c
I0628 16:44:44.146653  1442 net.cpp:406] scale3a_branch2c <- res3a_branch2c
I0628 16:44:44.146658  1442 net.cpp:367] scale3a_branch2c -> res3a_branch2c (in-place)
I0628 16:44:44.146708  1442 layer_factory.hpp:77] Creating layer scale3a_branch2c
I0628 16:44:44.146839  1442 net.cpp:122] Setting up scale3a_branch2c
I0628 16:44:44.146854  1442 net.cpp:129] Top shape: 8 512 28 28 (3211264)
I0628 16:44:44.146858  1442 net.cpp:137] Memory required for data: 1000308896
I0628 16:44:44.146865  1442 layer_factory.hpp:77] Creating layer res3a
I0628 16:44:44.146872  1442 net.cpp:84] Creating Layer res3a
I0628 16:44:44.146878  1442 net.cpp:406] res3a <- res3a_branch1
I0628 16:44:44.146883  1442 net.cpp:406] res3a <- res3a_branch2c
I0628 16:44:44.146888  1442 net.cpp:380] res3a -> res3a
I0628 16:44:44.146917  1442 net.cpp:122] Setting up res3a
I0628 16:44:44.146931  1442 net.cpp:129] Top shape: 8 512 28 28 (3211264)
I0628 16:44:44.146935  1442 net.cpp:137] Memory required for data: 1013153952
I0628 16:44:44.146939  1442 layer_factory.hpp:77] Creating layer res3a_relu
I0628 16:44:44.146950  1442 net.cpp:84] Creating Layer res3a_relu
I0628 16:44:44.146955  1442 net.cpp:406] res3a_relu <- res3a
I0628 16:44:44.146960  1442 net.cpp:367] res3a_relu -> res3a (in-place)
I0628 16:44:44.147245  1442 net.cpp:122] Setting up res3a_relu
I0628 16:44:44.147264  1442 net.cpp:129] Top shape: 8 512 28 28 (3211264)
I0628 16:44:44.147267  1442 net.cpp:137] Memory required for data: 1025999008
I0628 16:44:44.147271  1442 layer_factory.hpp:77] Creating layer res3a_res3a_relu_0_split
I0628 16:44:44.147279  1442 net.cpp:84] Creating Layer res3a_res3a_relu_0_split
I0628 16:44:44.147282  1442 net.cpp:406] res3a_res3a_relu_0_split <- res3a
I0628 16:44:44.147291  1442 net.cpp:380] res3a_res3a_relu_0_split -> res3a_res3a_relu_0_split_0
I0628 16:44:44.147299  1442 net.cpp:380] res3a_res3a_relu_0_split -> res3a_res3a_relu_0_split_1
I0628 16:44:44.147346  1442 net.cpp:122] Setting up res3a_res3a_relu_0_split
I0628 16:44:44.147359  1442 net.cpp:129] Top shape: 8 512 28 28 (3211264)
I0628 16:44:44.147366  1442 net.cpp:129] Top shape: 8 512 28 28 (3211264)
I0628 16:44:44.147382  1442 net.cpp:137] Memory required for data: 1051689120
I0628 16:44:44.147385  1442 layer_factory.hpp:77] Creating layer res3b_branch2a
I0628 16:44:44.147408  1442 net.cpp:84] Creating Layer res3b_branch2a
I0628 16:44:44.147418  1442 net.cpp:406] res3b_branch2a <- res3a_res3a_relu_0_split_0
I0628 16:44:44.147425  1442 net.cpp:380] res3b_branch2a -> res3b_branch2a
I0628 16:44:44.148881  1442 net.cpp:122] Setting up res3b_branch2a
I0628 16:44:44.148902  1442 net.cpp:129] Top shape: 8 128 28 28 (802816)
I0628 16:44:44.148906  1442 net.cpp:137] Memory required for data: 1054900384
I0628 16:44:44.148912  1442 layer_factory.hpp:77] Creating layer bn3b_branch2a
I0628 16:44:44.148921  1442 net.cpp:84] Creating Layer bn3b_branch2a
I0628 16:44:44.148926  1442 net.cpp:406] bn3b_branch2a <- res3b_branch2a
I0628 16:44:44.148936  1442 net.cpp:367] bn3b_branch2a -> res3b_branch2a (in-place)
I0628 16:44:44.149153  1442 net.cpp:122] Setting up bn3b_branch2a
I0628 16:44:44.149169  1442 net.cpp:129] Top shape: 8 128 28 28 (802816)
I0628 16:44:44.149173  1442 net.cpp:137] Memory required for data: 1058111648
I0628 16:44:44.149181  1442 layer_factory.hpp:77] Creating layer scale3b_branch2a
I0628 16:44:44.149189  1442 net.cpp:84] Creating Layer scale3b_branch2a
I0628 16:44:44.149194  1442 net.cpp:406] scale3b_branch2a <- res3b_branch2a
I0628 16:44:44.149199  1442 net.cpp:367] scale3b_branch2a -> res3b_branch2a (in-place)
I0628 16:44:44.149247  1442 layer_factory.hpp:77] Creating layer scale3b_branch2a
I0628 16:44:44.149381  1442 net.cpp:122] Setting up scale3b_branch2a
I0628 16:44:44.149396  1442 net.cpp:129] Top shape: 8 128 28 28 (802816)
I0628 16:44:44.149400  1442 net.cpp:137] Memory required for data: 1061322912
I0628 16:44:44.149406  1442 layer_factory.hpp:77] Creating layer res3b_branch2a_relu
I0628 16:44:44.149413  1442 net.cpp:84] Creating Layer res3b_branch2a_relu
I0628 16:44:44.149417  1442 net.cpp:406] res3b_branch2a_relu <- res3b_branch2a
I0628 16:44:44.149425  1442 net.cpp:367] res3b_branch2a_relu -> res3b_branch2a (in-place)
I0628 16:44:44.149575  1442 net.cpp:122] Setting up res3b_branch2a_relu
I0628 16:44:44.149592  1442 net.cpp:129] Top shape: 8 128 28 28 (802816)
I0628 16:44:44.149596  1442 net.cpp:137] Memory required for data: 1064534176
I0628 16:44:44.149600  1442 layer_factory.hpp:77] Creating layer res3b_branch2b
I0628 16:44:44.149611  1442 net.cpp:84] Creating Layer res3b_branch2b
I0628 16:44:44.149616  1442 net.cpp:406] res3b_branch2b <- res3b_branch2a
I0628 16:44:44.149622  1442 net.cpp:380] res3b_branch2b -> res3b_branch2b
I0628 16:44:44.151190  1442 net.cpp:122] Setting up res3b_branch2b
I0628 16:44:44.151211  1442 net.cpp:129] Top shape: 8 128 28 28 (802816)
I0628 16:44:44.151216  1442 net.cpp:137] Memory required for data: 1067745440
I0628 16:44:44.151221  1442 layer_factory.hpp:77] Creating layer bn3b_branch2b
I0628 16:44:44.151232  1442 net.cpp:84] Creating Layer bn3b_branch2b
I0628 16:44:44.151235  1442 net.cpp:406] bn3b_branch2b <- res3b_branch2b
I0628 16:44:44.151243  1442 net.cpp:367] bn3b_branch2b -> res3b_branch2b (in-place)
I0628 16:44:44.151454  1442 net.cpp:122] Setting up bn3b_branch2b
I0628 16:44:44.151470  1442 net.cpp:129] Top shape: 8 128 28 28 (802816)
I0628 16:44:44.151474  1442 net.cpp:137] Memory required for data: 1070956704
I0628 16:44:44.151482  1442 layer_factory.hpp:77] Creating layer scale3b_branch2b
I0628 16:44:44.151492  1442 net.cpp:84] Creating Layer scale3b_branch2b
I0628 16:44:44.151496  1442 net.cpp:406] scale3b_branch2b <- res3b_branch2b
I0628 16:44:44.151502  1442 net.cpp:367] scale3b_branch2b -> res3b_branch2b (in-place)
I0628 16:44:44.151552  1442 layer_factory.hpp:77] Creating layer scale3b_branch2b
I0628 16:44:44.151685  1442 net.cpp:122] Setting up scale3b_branch2b
I0628 16:44:44.151700  1442 net.cpp:129] Top shape: 8 128 28 28 (802816)
I0628 16:44:44.151705  1442 net.cpp:137] Memory required for data: 1074167968
I0628 16:44:44.151711  1442 layer_factory.hpp:77] Creating layer res3b_branch2b_relu
I0628 16:44:44.151718  1442 net.cpp:84] Creating Layer res3b_branch2b_relu
I0628 16:44:44.151736  1442 net.cpp:406] res3b_branch2b_relu <- res3b_branch2b
I0628 16:44:44.151741  1442 net.cpp:367] res3b_branch2b_relu -> res3b_branch2b (in-place)
I0628 16:44:44.152000  1442 net.cpp:122] Setting up res3b_branch2b_relu
I0628 16:44:44.152019  1442 net.cpp:129] Top shape: 8 128 28 28 (802816)
I0628 16:44:44.152024  1442 net.cpp:137] Memory required for data: 1077379232
I0628 16:44:44.152027  1442 layer_factory.hpp:77] Creating layer res3b_branch2c
I0628 16:44:44.152039  1442 net.cpp:84] Creating Layer res3b_branch2c
I0628 16:44:44.152043  1442 net.cpp:406] res3b_branch2c <- res3b_branch2b
I0628 16:44:44.152055  1442 net.cpp:380] res3b_branch2c -> res3b_branch2c
I0628 16:44:44.152869  1442 net.cpp:122] Setting up res3b_branch2c
I0628 16:44:44.152889  1442 net.cpp:129] Top shape: 8 512 28 28 (3211264)
I0628 16:44:44.152892  1442 net.cpp:137] Memory required for data: 1090224288
I0628 16:44:44.152899  1442 layer_factory.hpp:77] Creating layer bn3b_branch2c
I0628 16:44:44.152909  1442 net.cpp:84] Creating Layer bn3b_branch2c
I0628 16:44:44.152914  1442 net.cpp:406] bn3b_branch2c <- res3b_branch2c
I0628 16:44:44.152920  1442 net.cpp:367] bn3b_branch2c -> res3b_branch2c (in-place)
I0628 16:44:44.153133  1442 net.cpp:122] Setting up bn3b_branch2c
I0628 16:44:44.153151  1442 net.cpp:129] Top shape: 8 512 28 28 (3211264)
I0628 16:44:44.153154  1442 net.cpp:137] Memory required for data: 1103069344
I0628 16:44:44.153162  1442 layer_factory.hpp:77] Creating layer scale3b_branch2c
I0628 16:44:44.153169  1442 net.cpp:84] Creating Layer scale3b_branch2c
I0628 16:44:44.153173  1442 net.cpp:406] scale3b_branch2c <- res3b_branch2c
I0628 16:44:44.153182  1442 net.cpp:367] scale3b_branch2c -> res3b_branch2c (in-place)
I0628 16:44:44.153229  1442 layer_factory.hpp:77] Creating layer scale3b_branch2c
I0628 16:44:44.153364  1442 net.cpp:122] Setting up scale3b_branch2c
I0628 16:44:44.153379  1442 net.cpp:129] Top shape: 8 512 28 28 (3211264)
I0628 16:44:44.153383  1442 net.cpp:137] Memory required for data: 1115914400
I0628 16:44:44.153389  1442 layer_factory.hpp:77] Creating layer res3b
I0628 16:44:44.153404  1442 net.cpp:84] Creating Layer res3b
I0628 16:44:44.153410  1442 net.cpp:406] res3b <- res3a_res3a_relu_0_split_1
I0628 16:44:44.153415  1442 net.cpp:406] res3b <- res3b_branch2c
I0628 16:44:44.153421  1442 net.cpp:380] res3b -> res3b
I0628 16:44:44.153455  1442 net.cpp:122] Setting up res3b
I0628 16:44:44.153470  1442 net.cpp:129] Top shape: 8 512 28 28 (3211264)
I0628 16:44:44.153475  1442 net.cpp:137] Memory required for data: 1128759456
I0628 16:44:44.153478  1442 layer_factory.hpp:77] Creating layer res3b_relu
I0628 16:44:44.153484  1442 net.cpp:84] Creating Layer res3b_relu
I0628 16:44:44.153488  1442 net.cpp:406] res3b_relu <- res3b
I0628 16:44:44.153496  1442 net.cpp:367] res3b_relu -> res3b (in-place)
I0628 16:44:44.153753  1442 net.cpp:122] Setting up res3b_relu
I0628 16:44:44.153776  1442 net.cpp:129] Top shape: 8 512 28 28 (3211264)
I0628 16:44:44.153781  1442 net.cpp:137] Memory required for data: 1141604512
I0628 16:44:44.153785  1442 layer_factory.hpp:77] Creating layer res3b_res3b_relu_0_split
I0628 16:44:44.153792  1442 net.cpp:84] Creating Layer res3b_res3b_relu_0_split
I0628 16:44:44.153797  1442 net.cpp:406] res3b_res3b_relu_0_split <- res3b
I0628 16:44:44.153805  1442 net.cpp:380] res3b_res3b_relu_0_split -> res3b_res3b_relu_0_split_0
I0628 16:44:44.153813  1442 net.cpp:380] res3b_res3b_relu_0_split -> res3b_res3b_relu_0_split_1
I0628 16:44:44.153864  1442 net.cpp:122] Setting up res3b_res3b_relu_0_split
I0628 16:44:44.153879  1442 net.cpp:129] Top shape: 8 512 28 28 (3211264)
I0628 16:44:44.153885  1442 net.cpp:129] Top shape: 8 512 28 28 (3211264)
I0628 16:44:44.153888  1442 net.cpp:137] Memory required for data: 1167294624
I0628 16:44:44.153892  1442 layer_factory.hpp:77] Creating layer res3c_branch2a
I0628 16:44:44.153903  1442 net.cpp:84] Creating Layer res3c_branch2a
I0628 16:44:44.153908  1442 net.cpp:406] res3c_branch2a <- res3b_res3b_relu_0_split_0
I0628 16:44:44.153934  1442 net.cpp:380] res3c_branch2a -> res3c_branch2a
I0628 16:44:44.154863  1442 net.cpp:122] Setting up res3c_branch2a
I0628 16:44:44.154886  1442 net.cpp:129] Top shape: 8 128 28 28 (802816)
I0628 16:44:44.154891  1442 net.cpp:137] Memory required for data: 1170505888
I0628 16:44:44.154896  1442 layer_factory.hpp:77] Creating layer bn3c_branch2a
I0628 16:44:44.154903  1442 net.cpp:84] Creating Layer bn3c_branch2a
I0628 16:44:44.154911  1442 net.cpp:406] bn3c_branch2a <- res3c_branch2a
I0628 16:44:44.154917  1442 net.cpp:367] bn3c_branch2a -> res3c_branch2a (in-place)
I0628 16:44:44.155164  1442 net.cpp:122] Setting up bn3c_branch2a
I0628 16:44:44.155180  1442 net.cpp:129] Top shape: 8 128 28 28 (802816)
I0628 16:44:44.155184  1442 net.cpp:137] Memory required for data: 1173717152
I0628 16:44:44.155192  1442 layer_factory.hpp:77] Creating layer scale3c_branch2a
I0628 16:44:44.155202  1442 net.cpp:84] Creating Layer scale3c_branch2a
I0628 16:44:44.155206  1442 net.cpp:406] scale3c_branch2a <- res3c_branch2a
I0628 16:44:44.155212  1442 net.cpp:367] scale3c_branch2a -> res3c_branch2a (in-place)
I0628 16:44:44.155269  1442 layer_factory.hpp:77] Creating layer scale3c_branch2a
I0628 16:44:44.155418  1442 net.cpp:122] Setting up scale3c_branch2a
I0628 16:44:44.155434  1442 net.cpp:129] Top shape: 8 128 28 28 (802816)
I0628 16:44:44.155438  1442 net.cpp:137] Memory required for data: 1176928416
I0628 16:44:44.155445  1442 layer_factory.hpp:77] Creating layer res3c_branch2a_relu
I0628 16:44:44.155452  1442 net.cpp:84] Creating Layer res3c_branch2a_relu
I0628 16:44:44.155457  1442 net.cpp:406] res3c_branch2a_relu <- res3c_branch2a
I0628 16:44:44.155463  1442 net.cpp:367] res3c_branch2a_relu -> res3c_branch2a (in-place)
I0628 16:44:44.155613  1442 net.cpp:122] Setting up res3c_branch2a_relu
I0628 16:44:44.155630  1442 net.cpp:129] Top shape: 8 128 28 28 (802816)
I0628 16:44:44.155634  1442 net.cpp:137] Memory required for data: 1180139680
I0628 16:44:44.155638  1442 layer_factory.hpp:77] Creating layer res3c_branch2b
I0628 16:44:44.155649  1442 net.cpp:84] Creating Layer res3c_branch2b
I0628 16:44:44.155653  1442 net.cpp:406] res3c_branch2b <- res3c_branch2a
I0628 16:44:44.155661  1442 net.cpp:380] res3c_branch2b -> res3c_branch2b
I0628 16:44:44.157124  1442 net.cpp:122] Setting up res3c_branch2b
I0628 16:44:44.157145  1442 net.cpp:129] Top shape: 8 128 28 28 (802816)
I0628 16:44:44.157150  1442 net.cpp:137] Memory required for data: 1183350944
I0628 16:44:44.157157  1442 layer_factory.hpp:77] Creating layer bn3c_branch2b
I0628 16:44:44.157168  1442 net.cpp:84] Creating Layer bn3c_branch2b
I0628 16:44:44.157172  1442 net.cpp:406] bn3c_branch2b <- res3c_branch2b
I0628 16:44:44.157178  1442 net.cpp:367] bn3c_branch2b -> res3c_branch2b (in-place)
I0628 16:44:44.157408  1442 net.cpp:122] Setting up bn3c_branch2b
I0628 16:44:44.157424  1442 net.cpp:129] Top shape: 8 128 28 28 (802816)
I0628 16:44:44.157428  1442 net.cpp:137] Memory required for data: 1186562208
I0628 16:44:44.157438  1442 layer_factory.hpp:77] Creating layer scale3c_branch2b
I0628 16:44:44.157446  1442 net.cpp:84] Creating Layer scale3c_branch2b
I0628 16:44:44.157451  1442 net.cpp:406] scale3c_branch2b <- res3c_branch2b
I0628 16:44:44.157456  1442 net.cpp:367] scale3c_branch2b -> res3c_branch2b (in-place)
I0628 16:44:44.157507  1442 layer_factory.hpp:77] Creating layer scale3c_branch2b
I0628 16:44:44.157644  1442 net.cpp:122] Setting up scale3c_branch2b
I0628 16:44:44.157660  1442 net.cpp:129] Top shape: 8 128 28 28 (802816)
I0628 16:44:44.157663  1442 net.cpp:137] Memory required for data: 1189773472
I0628 16:44:44.157670  1442 layer_factory.hpp:77] Creating layer res3c_branch2b_relu
I0628 16:44:44.157677  1442 net.cpp:84] Creating Layer res3c_branch2b_relu
I0628 16:44:44.157681  1442 net.cpp:406] res3c_branch2b_relu <- res3c_branch2b
I0628 16:44:44.157688  1442 net.cpp:367] res3c_branch2b_relu -> res3c_branch2b (in-place)
I0628 16:44:44.157944  1442 net.cpp:122] Setting up res3c_branch2b_relu
I0628 16:44:44.157964  1442 net.cpp:129] Top shape: 8 128 28 28 (802816)
I0628 16:44:44.157981  1442 net.cpp:137] Memory required for data: 1192984736
I0628 16:44:44.157985  1442 layer_factory.hpp:77] Creating layer res3c_branch2c
I0628 16:44:44.157994  1442 net.cpp:84] Creating Layer res3c_branch2c
I0628 16:44:44.157999  1442 net.cpp:406] res3c_branch2c <- res3c_branch2b
I0628 16:44:44.158008  1442 net.cpp:380] res3c_branch2c -> res3c_branch2c
I0628 16:44:44.158862  1442 net.cpp:122] Setting up res3c_branch2c
I0628 16:44:44.158890  1442 net.cpp:129] Top shape: 8 512 28 28 (3211264)
I0628 16:44:44.158897  1442 net.cpp:137] Memory required for data: 1205829792
I0628 16:44:44.158903  1442 layer_factory.hpp:77] Creating layer bn3c_branch2c
I0628 16:44:44.158913  1442 net.cpp:84] Creating Layer bn3c_branch2c
I0628 16:44:44.158921  1442 net.cpp:406] bn3c_branch2c <- res3c_branch2c
I0628 16:44:44.158926  1442 net.cpp:367] bn3c_branch2c -> res3c_branch2c (in-place)
I0628 16:44:44.159164  1442 net.cpp:122] Setting up bn3c_branch2c
I0628 16:44:44.159180  1442 net.cpp:129] Top shape: 8 512 28 28 (3211264)
I0628 16:44:44.159184  1442 net.cpp:137] Memory required for data: 1218674848
I0628 16:44:44.159193  1442 layer_factory.hpp:77] Creating layer scale3c_branch2c
I0628 16:44:44.159200  1442 net.cpp:84] Creating Layer scale3c_branch2c
I0628 16:44:44.159204  1442 net.cpp:406] scale3c_branch2c <- res3c_branch2c
I0628 16:44:44.159212  1442 net.cpp:367] scale3c_branch2c -> res3c_branch2c (in-place)
I0628 16:44:44.159263  1442 layer_factory.hpp:77] Creating layer scale3c_branch2c
I0628 16:44:44.159409  1442 net.cpp:122] Setting up scale3c_branch2c
I0628 16:44:44.159425  1442 net.cpp:129] Top shape: 8 512 28 28 (3211264)
I0628 16:44:44.159430  1442 net.cpp:137] Memory required for data: 1231519904
I0628 16:44:44.159435  1442 layer_factory.hpp:77] Creating layer res3c
I0628 16:44:44.159446  1442 net.cpp:84] Creating Layer res3c
I0628 16:44:44.159451  1442 net.cpp:406] res3c <- res3b_res3b_relu_0_split_1
I0628 16:44:44.159458  1442 net.cpp:406] res3c <- res3c_branch2c
I0628 16:44:44.159464  1442 net.cpp:380] res3c -> res3c
I0628 16:44:44.159497  1442 net.cpp:122] Setting up res3c
I0628 16:44:44.159512  1442 net.cpp:129] Top shape: 8 512 28 28 (3211264)
I0628 16:44:44.159515  1442 net.cpp:137] Memory required for data: 1244364960
I0628 16:44:44.159519  1442 layer_factory.hpp:77] Creating layer res3c_relu
I0628 16:44:44.159524  1442 net.cpp:84] Creating Layer res3c_relu
I0628 16:44:44.159529  1442 net.cpp:406] res3c_relu <- res3c
I0628 16:44:44.159536  1442 net.cpp:367] res3c_relu -> res3c (in-place)
I0628 16:44:44.159792  1442 net.cpp:122] Setting up res3c_relu
I0628 16:44:44.159811  1442 net.cpp:129] Top shape: 8 512 28 28 (3211264)
I0628 16:44:44.159816  1442 net.cpp:137] Memory required for data: 1257210016
I0628 16:44:44.159819  1442 layer_factory.hpp:77] Creating layer res3c_res3c_relu_0_split
I0628 16:44:44.159826  1442 net.cpp:84] Creating Layer res3c_res3c_relu_0_split
I0628 16:44:44.159831  1442 net.cpp:406] res3c_res3c_relu_0_split <- res3c
I0628 16:44:44.159838  1442 net.cpp:380] res3c_res3c_relu_0_split -> res3c_res3c_relu_0_split_0
I0628 16:44:44.159845  1442 net.cpp:380] res3c_res3c_relu_0_split -> res3c_res3c_relu_0_split_1
I0628 16:44:44.159895  1442 net.cpp:122] Setting up res3c_res3c_relu_0_split
I0628 16:44:44.159909  1442 net.cpp:129] Top shape: 8 512 28 28 (3211264)
I0628 16:44:44.159915  1442 net.cpp:129] Top shape: 8 512 28 28 (3211264)
I0628 16:44:44.159919  1442 net.cpp:137] Memory required for data: 1282900128
I0628 16:44:44.159922  1442 layer_factory.hpp:77] Creating layer res3d_branch2a
I0628 16:44:44.159932  1442 net.cpp:84] Creating Layer res3d_branch2a
I0628 16:44:44.159937  1442 net.cpp:406] res3d_branch2a <- res3c_res3c_relu_0_split_0
I0628 16:44:44.159943  1442 net.cpp:380] res3d_branch2a -> res3d_branch2a
I0628 16:44:44.161388  1442 net.cpp:122] Setting up res3d_branch2a
I0628 16:44:44.161411  1442 net.cpp:129] Top shape: 8 128 28 28 (802816)
I0628 16:44:44.161414  1442 net.cpp:137] Memory required for data: 1286111392
I0628 16:44:44.161420  1442 layer_factory.hpp:77] Creating layer bn3d_branch2a
I0628 16:44:44.161459  1442 net.cpp:84] Creating Layer bn3d_branch2a
I0628 16:44:44.161465  1442 net.cpp:406] bn3d_branch2a <- res3d_branch2a
I0628 16:44:44.161473  1442 net.cpp:367] bn3d_branch2a -> res3d_branch2a (in-place)
I0628 16:44:44.161698  1442 net.cpp:122] Setting up bn3d_branch2a
I0628 16:44:44.161713  1442 net.cpp:129] Top shape: 8 128 28 28 (802816)
I0628 16:44:44.161718  1442 net.cpp:137] Memory required for data: 1289322656
I0628 16:44:44.161748  1442 layer_factory.hpp:77] Creating layer scale3d_branch2a
I0628 16:44:44.161762  1442 net.cpp:84] Creating Layer scale3d_branch2a
I0628 16:44:44.161767  1442 net.cpp:406] scale3d_branch2a <- res3d_branch2a
I0628 16:44:44.161772  1442 net.cpp:367] scale3d_branch2a -> res3d_branch2a (in-place)
I0628 16:44:44.161828  1442 layer_factory.hpp:77] Creating layer scale3d_branch2a
I0628 16:44:44.161967  1442 net.cpp:122] Setting up scale3d_branch2a
I0628 16:44:44.161983  1442 net.cpp:129] Top shape: 8 128 28 28 (802816)
I0628 16:44:44.161986  1442 net.cpp:137] Memory required for data: 1292533920
I0628 16:44:44.161993  1442 layer_factory.hpp:77] Creating layer res3d_branch2a_relu
I0628 16:44:44.161999  1442 net.cpp:84] Creating Layer res3d_branch2a_relu
I0628 16:44:44.162003  1442 net.cpp:406] res3d_branch2a_relu <- res3d_branch2a
I0628 16:44:44.162011  1442 net.cpp:367] res3d_branch2a_relu -> res3d_branch2a (in-place)
I0628 16:44:44.162164  1442 net.cpp:122] Setting up res3d_branch2a_relu
I0628 16:44:44.162180  1442 net.cpp:129] Top shape: 8 128 28 28 (802816)
I0628 16:44:44.162184  1442 net.cpp:137] Memory required for data: 1295745184
I0628 16:44:44.162189  1442 layer_factory.hpp:77] Creating layer res3d_branch2b
I0628 16:44:44.162201  1442 net.cpp:84] Creating Layer res3d_branch2b
I0628 16:44:44.162206  1442 net.cpp:406] res3d_branch2b <- res3d_branch2a
I0628 16:44:44.162212  1442 net.cpp:380] res3d_branch2b -> res3d_branch2b
I0628 16:44:44.163712  1442 net.cpp:122] Setting up res3d_branch2b
I0628 16:44:44.163733  1442 net.cpp:129] Top shape: 8 128 28 28 (802816)
I0628 16:44:44.163738  1442 net.cpp:137] Memory required for data: 1298956448
I0628 16:44:44.163743  1442 layer_factory.hpp:77] Creating layer bn3d_branch2b
I0628 16:44:44.163750  1442 net.cpp:84] Creating Layer bn3d_branch2b
I0628 16:44:44.163755  1442 net.cpp:406] bn3d_branch2b <- res3d_branch2b
I0628 16:44:44.163763  1442 net.cpp:367] bn3d_branch2b -> res3d_branch2b (in-place)
I0628 16:44:44.163991  1442 net.cpp:122] Setting up bn3d_branch2b
I0628 16:44:44.164016  1442 net.cpp:129] Top shape: 8 128 28 28 (802816)
I0628 16:44:44.164021  1442 net.cpp:137] Memory required for data: 1302167712
I0628 16:44:44.164031  1442 layer_factory.hpp:77] Creating layer scale3d_branch2b
I0628 16:44:44.164037  1442 net.cpp:84] Creating Layer scale3d_branch2b
I0628 16:44:44.164041  1442 net.cpp:406] scale3d_branch2b <- res3d_branch2b
I0628 16:44:44.164047  1442 net.cpp:367] scale3d_branch2b -> res3d_branch2b (in-place)
I0628 16:44:44.164103  1442 layer_factory.hpp:77] Creating layer scale3d_branch2b
I0628 16:44:44.164247  1442 net.cpp:122] Setting up scale3d_branch2b
I0628 16:44:44.164263  1442 net.cpp:129] Top shape: 8 128 28 28 (802816)
I0628 16:44:44.164266  1442 net.cpp:137] Memory required for data: 1305378976
I0628 16:44:44.164273  1442 layer_factory.hpp:77] Creating layer res3d_branch2b_relu
I0628 16:44:44.164279  1442 net.cpp:84] Creating Layer res3d_branch2b_relu
I0628 16:44:44.164283  1442 net.cpp:406] res3d_branch2b_relu <- res3d_branch2b
I0628 16:44:44.164291  1442 net.cpp:367] res3d_branch2b_relu -> res3d_branch2b (in-place)
I0628 16:44:44.164562  1442 net.cpp:122] Setting up res3d_branch2b_relu
I0628 16:44:44.164580  1442 net.cpp:129] Top shape: 8 128 28 28 (802816)
I0628 16:44:44.164587  1442 net.cpp:137] Memory required for data: 1308590240
I0628 16:44:44.164592  1442 layer_factory.hpp:77] Creating layer res3d_branch2c
I0628 16:44:44.164603  1442 net.cpp:84] Creating Layer res3d_branch2c
I0628 16:44:44.164608  1442 net.cpp:406] res3d_branch2c <- res3d_branch2b
I0628 16:44:44.164636  1442 net.cpp:380] res3d_branch2c -> res3d_branch2c
I0628 16:44:44.165484  1442 net.cpp:122] Setting up res3d_branch2c
I0628 16:44:44.165504  1442 net.cpp:129] Top shape: 8 512 28 28 (3211264)
I0628 16:44:44.165508  1442 net.cpp:137] Memory required for data: 1321435296
I0628 16:44:44.165514  1442 layer_factory.hpp:77] Creating layer bn3d_branch2c
I0628 16:44:44.165524  1442 net.cpp:84] Creating Layer bn3d_branch2c
I0628 16:44:44.165529  1442 net.cpp:406] bn3d_branch2c <- res3d_branch2c
I0628 16:44:44.165535  1442 net.cpp:367] bn3d_branch2c -> res3d_branch2c (in-place)
I0628 16:44:44.165766  1442 net.cpp:122] Setting up bn3d_branch2c
I0628 16:44:44.165781  1442 net.cpp:129] Top shape: 8 512 28 28 (3211264)
I0628 16:44:44.165786  1442 net.cpp:137] Memory required for data: 1334280352
I0628 16:44:44.165794  1442 layer_factory.hpp:77] Creating layer scale3d_branch2c
I0628 16:44:44.165803  1442 net.cpp:84] Creating Layer scale3d_branch2c
I0628 16:44:44.165808  1442 net.cpp:406] scale3d_branch2c <- res3d_branch2c
I0628 16:44:44.165814  1442 net.cpp:367] scale3d_branch2c -> res3d_branch2c (in-place)
I0628 16:44:44.165865  1442 layer_factory.hpp:77] Creating layer scale3d_branch2c
I0628 16:44:44.166004  1442 net.cpp:122] Setting up scale3d_branch2c
I0628 16:44:44.166020  1442 net.cpp:129] Top shape: 8 512 28 28 (3211264)
I0628 16:44:44.166023  1442 net.cpp:137] Memory required for data: 1347125408
I0628 16:44:44.166030  1442 layer_factory.hpp:77] Creating layer res3d
I0628 16:44:44.166038  1442 net.cpp:84] Creating Layer res3d
I0628 16:44:44.166041  1442 net.cpp:406] res3d <- res3c_res3c_relu_0_split_1
I0628 16:44:44.166049  1442 net.cpp:406] res3d <- res3d_branch2c
I0628 16:44:44.166054  1442 net.cpp:380] res3d -> res3d
I0628 16:44:44.166087  1442 net.cpp:122] Setting up res3d
I0628 16:44:44.166101  1442 net.cpp:129] Top shape: 8 512 28 28 (3211264)
I0628 16:44:44.166105  1442 net.cpp:137] Memory required for data: 1359970464
I0628 16:44:44.166110  1442 layer_factory.hpp:77] Creating layer res3d_relu
I0628 16:44:44.166115  1442 net.cpp:84] Creating Layer res3d_relu
I0628 16:44:44.166119  1442 net.cpp:406] res3d_relu <- res3d
I0628 16:44:44.166124  1442 net.cpp:367] res3d_relu -> res3d (in-place)
I0628 16:44:44.166378  1442 net.cpp:122] Setting up res3d_relu
I0628 16:44:44.166396  1442 net.cpp:129] Top shape: 8 512 28 28 (3211264)
I0628 16:44:44.166400  1442 net.cpp:137] Memory required for data: 1372815520
I0628 16:44:44.166404  1442 layer_factory.hpp:77] Creating layer res3d_res3d_relu_0_split
I0628 16:44:44.166410  1442 net.cpp:84] Creating Layer res3d_res3d_relu_0_split
I0628 16:44:44.166414  1442 net.cpp:406] res3d_res3d_relu_0_split <- res3d
I0628 16:44:44.166434  1442 net.cpp:380] res3d_res3d_relu_0_split -> res3d_res3d_relu_0_split_0
I0628 16:44:44.166442  1442 net.cpp:380] res3d_res3d_relu_0_split -> res3d_res3d_relu_0_split_1
I0628 16:44:44.166491  1442 net.cpp:122] Setting up res3d_res3d_relu_0_split
I0628 16:44:44.166507  1442 net.cpp:129] Top shape: 8 512 28 28 (3211264)
I0628 16:44:44.166512  1442 net.cpp:129] Top shape: 8 512 28 28 (3211264)
I0628 16:44:44.166515  1442 net.cpp:137] Memory required for data: 1398505632
I0628 16:44:44.166519  1442 layer_factory.hpp:77] Creating layer res4a_branch1
I0628 16:44:44.166527  1442 net.cpp:84] Creating Layer res4a_branch1
I0628 16:44:44.166532  1442 net.cpp:406] res4a_branch1 <- res3d_res3d_relu_0_split_0
I0628 16:44:44.166540  1442 net.cpp:380] res4a_branch1 -> res4a_branch1
I0628 16:44:44.168725  1442 net.cpp:122] Setting up res4a_branch1
I0628 16:44:44.168747  1442 net.cpp:129] Top shape: 8 1024 14 14 (1605632)
I0628 16:44:44.168752  1442 net.cpp:137] Memory required for data: 1404928160
I0628 16:44:44.168758  1442 layer_factory.hpp:77] Creating layer bn4a_branch1
I0628 16:44:44.168768  1442 net.cpp:84] Creating Layer bn4a_branch1
I0628 16:44:44.168773  1442 net.cpp:406] bn4a_branch1 <- res4a_branch1
I0628 16:44:44.168779  1442 net.cpp:367] bn4a_branch1 -> res4a_branch1 (in-place)
I0628 16:44:44.169033  1442 net.cpp:122] Setting up bn4a_branch1
I0628 16:44:44.169060  1442 net.cpp:129] Top shape: 8 1024 14 14 (1605632)
I0628 16:44:44.169064  1442 net.cpp:137] Memory required for data: 1411350688
I0628 16:44:44.169073  1442 layer_factory.hpp:77] Creating layer scale4a_branch1
I0628 16:44:44.169080  1442 net.cpp:84] Creating Layer scale4a_branch1
I0628 16:44:44.169085  1442 net.cpp:406] scale4a_branch1 <- res4a_branch1
I0628 16:44:44.169090  1442 net.cpp:367] scale4a_branch1 -> res4a_branch1 (in-place)
I0628 16:44:44.169158  1442 layer_factory.hpp:77] Creating layer scale4a_branch1
I0628 16:44:44.169311  1442 net.cpp:122] Setting up scale4a_branch1
I0628 16:44:44.169327  1442 net.cpp:129] Top shape: 8 1024 14 14 (1605632)
I0628 16:44:44.169330  1442 net.cpp:137] Memory required for data: 1417773216
I0628 16:44:44.169337  1442 layer_factory.hpp:77] Creating layer res4a_branch2a
I0628 16:44:44.169350  1442 net.cpp:84] Creating Layer res4a_branch2a
I0628 16:44:44.169355  1442 net.cpp:406] res4a_branch2a <- res3d_res3d_relu_0_split_1
I0628 16:44:44.169361  1442 net.cpp:380] res4a_branch2a -> res4a_branch2a
I0628 16:44:44.170366  1442 net.cpp:122] Setting up res4a_branch2a
I0628 16:44:44.170387  1442 net.cpp:129] Top shape: 8 256 14 14 (401408)
I0628 16:44:44.170390  1442 net.cpp:137] Memory required for data: 1419378848
I0628 16:44:44.170400  1442 layer_factory.hpp:77] Creating layer bn4a_branch2a
I0628 16:44:44.170410  1442 net.cpp:84] Creating Layer bn4a_branch2a
I0628 16:44:44.170415  1442 net.cpp:406] bn4a_branch2a <- res4a_branch2a
I0628 16:44:44.170420  1442 net.cpp:367] bn4a_branch2a -> res4a_branch2a (in-place)
I0628 16:44:44.170646  1442 net.cpp:122] Setting up bn4a_branch2a
I0628 16:44:44.170661  1442 net.cpp:129] Top shape: 8 256 14 14 (401408)
I0628 16:44:44.170665  1442 net.cpp:137] Memory required for data: 1420984480
I0628 16:44:44.170680  1442 layer_factory.hpp:77] Creating layer scale4a_branch2a
I0628 16:44:44.170687  1442 net.cpp:84] Creating Layer scale4a_branch2a
I0628 16:44:44.170691  1442 net.cpp:406] scale4a_branch2a <- res4a_branch2a
I0628 16:44:44.170699  1442 net.cpp:367] scale4a_branch2a -> res4a_branch2a (in-place)
I0628 16:44:44.170750  1442 layer_factory.hpp:77] Creating layer scale4a_branch2a
I0628 16:44:44.170894  1442 net.cpp:122] Setting up scale4a_branch2a
I0628 16:44:44.170909  1442 net.cpp:129] Top shape: 8 256 14 14 (401408)
I0628 16:44:44.170913  1442 net.cpp:137] Memory required for data: 1422590112
I0628 16:44:44.170920  1442 layer_factory.hpp:77] Creating layer res4a_branch2a_relu
I0628 16:44:44.170930  1442 net.cpp:84] Creating Layer res4a_branch2a_relu
I0628 16:44:44.170934  1442 net.cpp:406] res4a_branch2a_relu <- res4a_branch2a
I0628 16:44:44.170939  1442 net.cpp:367] res4a_branch2a_relu -> res4a_branch2a (in-place)
I0628 16:44:44.171114  1442 net.cpp:122] Setting up res4a_branch2a_relu
I0628 16:44:44.171131  1442 net.cpp:129] Top shape: 8 256 14 14 (401408)
I0628 16:44:44.171135  1442 net.cpp:137] Memory required for data: 1424195744
I0628 16:44:44.171139  1442 layer_factory.hpp:77] Creating layer res4a_branch2b
I0628 16:44:44.171150  1442 net.cpp:84] Creating Layer res4a_branch2b
I0628 16:44:44.171155  1442 net.cpp:406] res4a_branch2b <- res4a_branch2a
I0628 16:44:44.171161  1442 net.cpp:380] res4a_branch2b -> res4a_branch2b
I0628 16:44:44.173336  1442 net.cpp:122] Setting up res4a_branch2b
I0628 16:44:44.173357  1442 net.cpp:129] Top shape: 8 256 14 14 (401408)
I0628 16:44:44.173362  1442 net.cpp:137] Memory required for data: 1425801376
I0628 16:44:44.173367  1442 layer_factory.hpp:77] Creating layer bn4a_branch2b
I0628 16:44:44.173377  1442 net.cpp:84] Creating Layer bn4a_branch2b
I0628 16:44:44.173382  1442 net.cpp:406] bn4a_branch2b <- res4a_branch2b
I0628 16:44:44.173388  1442 net.cpp:367] bn4a_branch2b -> res4a_branch2b (in-place)
I0628 16:44:44.173617  1442 net.cpp:122] Setting up bn4a_branch2b
I0628 16:44:44.173633  1442 net.cpp:129] Top shape: 8 256 14 14 (401408)
I0628 16:44:44.173638  1442 net.cpp:137] Memory required for data: 1427407008
I0628 16:44:44.173646  1442 layer_factory.hpp:77] Creating layer scale4a_branch2b
I0628 16:44:44.173668  1442 net.cpp:84] Creating Layer scale4a_branch2b
I0628 16:44:44.173673  1442 net.cpp:406] scale4a_branch2b <- res4a_branch2b
I0628 16:44:44.173679  1442 net.cpp:367] scale4a_branch2b -> res4a_branch2b (in-place)
I0628 16:44:44.173734  1442 layer_factory.hpp:77] Creating layer scale4a_branch2b
I0628 16:44:44.173877  1442 net.cpp:122] Setting up scale4a_branch2b
I0628 16:44:44.173892  1442 net.cpp:129] Top shape: 8 256 14 14 (401408)
I0628 16:44:44.173897  1442 net.cpp:137] Memory required for data: 1429012640
I0628 16:44:44.173903  1442 layer_factory.hpp:77] Creating layer res4a_branch2b_relu
I0628 16:44:44.173909  1442 net.cpp:84] Creating Layer res4a_branch2b_relu
I0628 16:44:44.173916  1442 net.cpp:406] res4a_branch2b_relu <- res4a_branch2b
I0628 16:44:44.173921  1442 net.cpp:367] res4a_branch2b_relu -> res4a_branch2b (in-place)
I0628 16:44:44.174104  1442 net.cpp:122] Setting up res4a_branch2b_relu
I0628 16:44:44.174124  1442 net.cpp:129] Top shape: 8 256 14 14 (401408)
I0628 16:44:44.174129  1442 net.cpp:137] Memory required for data: 1430618272
I0628 16:44:44.174134  1442 layer_factory.hpp:77] Creating layer res4a_branch2c
I0628 16:44:44.174142  1442 net.cpp:84] Creating Layer res4a_branch2c
I0628 16:44:44.174146  1442 net.cpp:406] res4a_branch2c <- res4a_branch2b
I0628 16:44:44.174155  1442 net.cpp:380] res4a_branch2c -> res4a_branch2c
I0628 16:44:44.175742  1442 net.cpp:122] Setting up res4a_branch2c
I0628 16:44:44.175763  1442 net.cpp:129] Top shape: 8 1024 14 14 (1605632)
I0628 16:44:44.175768  1442 net.cpp:137] Memory required for data: 1437040800
I0628 16:44:44.175775  1442 layer_factory.hpp:77] Creating layer bn4a_branch2c
I0628 16:44:44.175781  1442 net.cpp:84] Creating Layer bn4a_branch2c
I0628 16:44:44.175786  1442 net.cpp:406] bn4a_branch2c <- res4a_branch2c
I0628 16:44:44.175794  1442 net.cpp:367] bn4a_branch2c -> res4a_branch2c (in-place)
I0628 16:44:44.176026  1442 net.cpp:122] Setting up bn4a_branch2c
I0628 16:44:44.176043  1442 net.cpp:129] Top shape: 8 1024 14 14 (1605632)
I0628 16:44:44.176046  1442 net.cpp:137] Memory required for data: 1443463328
I0628 16:44:44.176054  1442 layer_factory.hpp:77] Creating layer scale4a_branch2c
I0628 16:44:44.176062  1442 net.cpp:84] Creating Layer scale4a_branch2c
I0628 16:44:44.176066  1442 net.cpp:406] scale4a_branch2c <- res4a_branch2c
I0628 16:44:44.176071  1442 net.cpp:367] scale4a_branch2c -> res4a_branch2c (in-place)
I0628 16:44:44.176128  1442 layer_factory.hpp:77] Creating layer scale4a_branch2c
I0628 16:44:44.176280  1442 net.cpp:122] Setting up scale4a_branch2c
I0628 16:44:44.176295  1442 net.cpp:129] Top shape: 8 1024 14 14 (1605632)
I0628 16:44:44.176300  1442 net.cpp:137] Memory required for data: 1449885856
I0628 16:44:44.176306  1442 layer_factory.hpp:77] Creating layer res4a
I0628 16:44:44.176313  1442 net.cpp:84] Creating Layer res4a
I0628 16:44:44.176317  1442 net.cpp:406] res4a <- res4a_branch1
I0628 16:44:44.176322  1442 net.cpp:406] res4a <- res4a_branch2c
I0628 16:44:44.176331  1442 net.cpp:380] res4a -> res4a
I0628 16:44:44.176362  1442 net.cpp:122] Setting up res4a
I0628 16:44:44.176376  1442 net.cpp:129] Top shape: 8 1024 14 14 (1605632)
I0628 16:44:44.176380  1442 net.cpp:137] Memory required for data: 1456308384
I0628 16:44:44.176384  1442 layer_factory.hpp:77] Creating layer res4a_relu
I0628 16:44:44.176393  1442 net.cpp:84] Creating Layer res4a_relu
I0628 16:44:44.176398  1442 net.cpp:406] res4a_relu <- res4a
I0628 16:44:44.176403  1442 net.cpp:367] res4a_relu -> res4a (in-place)
I0628 16:44:44.176673  1442 net.cpp:122] Setting up res4a_relu
I0628 16:44:44.176692  1442 net.cpp:129] Top shape: 8 1024 14 14 (1605632)
I0628 16:44:44.176695  1442 net.cpp:137] Memory required for data: 1462730912
I0628 16:44:44.176699  1442 layer_factory.hpp:77] Creating layer res4a_res4a_relu_0_split
I0628 16:44:44.176728  1442 net.cpp:84] Creating Layer res4a_res4a_relu_0_split
I0628 16:44:44.176738  1442 net.cpp:406] res4a_res4a_relu_0_split <- res4a
I0628 16:44:44.176745  1442 net.cpp:380] res4a_res4a_relu_0_split -> res4a_res4a_relu_0_split_0
I0628 16:44:44.176779  1442 net.cpp:380] res4a_res4a_relu_0_split -> res4a_res4a_relu_0_split_1
I0628 16:44:44.176836  1442 net.cpp:122] Setting up res4a_res4a_relu_0_split
I0628 16:44:44.176851  1442 net.cpp:129] Top shape: 8 1024 14 14 (1605632)
I0628 16:44:44.176856  1442 net.cpp:129] Top shape: 8 1024 14 14 (1605632)
I0628 16:44:44.176859  1442 net.cpp:137] Memory required for data: 1475575968
I0628 16:44:44.176863  1442 layer_factory.hpp:77] Creating layer res4b_branch2a
I0628 16:44:44.176874  1442 net.cpp:84] Creating Layer res4b_branch2a
I0628 16:44:44.176879  1442 net.cpp:406] res4b_branch2a <- res4a_res4a_relu_0_split_0
I0628 16:44:44.176887  1442 net.cpp:380] res4b_branch2a -> res4b_branch2a
I0628 16:44:44.178478  1442 net.cpp:122] Setting up res4b_branch2a
I0628 16:44:44.178498  1442 net.cpp:129] Top shape: 8 256 14 14 (401408)
I0628 16:44:44.178503  1442 net.cpp:137] Memory required for data: 1477181600
I0628 16:44:44.178508  1442 layer_factory.hpp:77] Creating layer bn4b_branch2a
I0628 16:44:44.178519  1442 net.cpp:84] Creating Layer bn4b_branch2a
I0628 16:44:44.178524  1442 net.cpp:406] bn4b_branch2a <- res4b_branch2a
I0628 16:44:44.178529  1442 net.cpp:367] bn4b_branch2a -> res4b_branch2a (in-place)
I0628 16:44:44.178759  1442 net.cpp:122] Setting up bn4b_branch2a
I0628 16:44:44.178774  1442 net.cpp:129] Top shape: 8 256 14 14 (401408)
I0628 16:44:44.178779  1442 net.cpp:137] Memory required for data: 1478787232
I0628 16:44:44.178787  1442 layer_factory.hpp:77] Creating layer scale4b_branch2a
I0628 16:44:44.178797  1442 net.cpp:84] Creating Layer scale4b_branch2a
I0628 16:44:44.178802  1442 net.cpp:406] scale4b_branch2a <- res4b_branch2a
I0628 16:44:44.178807  1442 net.cpp:367] scale4b_branch2a -> res4b_branch2a (in-place)
I0628 16:44:44.178861  1442 layer_factory.hpp:77] Creating layer scale4b_branch2a
I0628 16:44:44.179030  1442 net.cpp:122] Setting up scale4b_branch2a
I0628 16:44:44.179046  1442 net.cpp:129] Top shape: 8 256 14 14 (401408)
I0628 16:44:44.179050  1442 net.cpp:137] Memory required for data: 1480392864
I0628 16:44:44.179061  1442 layer_factory.hpp:77] Creating layer res4b_branch2a_relu
I0628 16:44:44.179067  1442 net.cpp:84] Creating Layer res4b_branch2a_relu
I0628 16:44:44.179072  1442 net.cpp:406] res4b_branch2a_relu <- res4b_branch2a
I0628 16:44:44.179080  1442 net.cpp:367] res4b_branch2a_relu -> res4b_branch2a (in-place)
I0628 16:44:44.179256  1442 net.cpp:122] Setting up res4b_branch2a_relu
I0628 16:44:44.179277  1442 net.cpp:129] Top shape: 8 256 14 14 (401408)
I0628 16:44:44.179281  1442 net.cpp:137] Memory required for data: 1481998496
I0628 16:44:44.179286  1442 layer_factory.hpp:77] Creating layer res4b_branch2b
I0628 16:44:44.179297  1442 net.cpp:84] Creating Layer res4b_branch2b
I0628 16:44:44.179302  1442 net.cpp:406] res4b_branch2b <- res4b_branch2a
I0628 16:44:44.179311  1442 net.cpp:380] res4b_branch2b -> res4b_branch2b
I0628 16:44:44.181589  1442 net.cpp:122] Setting up res4b_branch2b
I0628 16:44:44.181610  1442 net.cpp:129] Top shape: 8 256 14 14 (401408)
I0628 16:44:44.181614  1442 net.cpp:137] Memory required for data: 1483604128
I0628 16:44:44.181622  1442 layer_factory.hpp:77] Creating layer bn4b_branch2b
I0628 16:44:44.181628  1442 net.cpp:84] Creating Layer bn4b_branch2b
I0628 16:44:44.181633  1442 net.cpp:406] bn4b_branch2b <- res4b_branch2b
I0628 16:44:44.181639  1442 net.cpp:367] bn4b_branch2b -> res4b_branch2b (in-place)
I0628 16:44:44.181874  1442 net.cpp:122] Setting up bn4b_branch2b
I0628 16:44:44.181890  1442 net.cpp:129] Top shape: 8 256 14 14 (401408)
I0628 16:44:44.181895  1442 net.cpp:137] Memory required for data: 1485209760
I0628 16:44:44.181902  1442 layer_factory.hpp:77] Creating layer scale4b_branch2b
I0628 16:44:44.181910  1442 net.cpp:84] Creating Layer scale4b_branch2b
I0628 16:44:44.181915  1442 net.cpp:406] scale4b_branch2b <- res4b_branch2b
I0628 16:44:44.181922  1442 net.cpp:367] scale4b_branch2b -> res4b_branch2b (in-place)
I0628 16:44:44.181978  1442 layer_factory.hpp:77] Creating layer scale4b_branch2b
I0628 16:44:44.182124  1442 net.cpp:122] Setting up scale4b_branch2b
I0628 16:44:44.182155  1442 net.cpp:129] Top shape: 8 256 14 14 (401408)
I0628 16:44:44.182159  1442 net.cpp:137] Memory required for data: 1486815392
I0628 16:44:44.182166  1442 layer_factory.hpp:77] Creating layer res4b_branch2b_relu
I0628 16:44:44.182173  1442 net.cpp:84] Creating Layer res4b_branch2b_relu
I0628 16:44:44.182178  1442 net.cpp:406] res4b_branch2b_relu <- res4b_branch2b
I0628 16:44:44.182183  1442 net.cpp:367] res4b_branch2b_relu -> res4b_branch2b (in-place)
I0628 16:44:44.182348  1442 net.cpp:122] Setting up res4b_branch2b_relu
I0628 16:44:44.182364  1442 net.cpp:129] Top shape: 8 256 14 14 (401408)
I0628 16:44:44.182368  1442 net.cpp:137] Memory required for data: 1488421024
I0628 16:44:44.182373  1442 layer_factory.hpp:77] Creating layer res4b_branch2c
I0628 16:44:44.182384  1442 net.cpp:84] Creating Layer res4b_branch2c
I0628 16:44:44.182389  1442 net.cpp:406] res4b_branch2c <- res4b_branch2b
I0628 16:44:44.182394  1442 net.cpp:380] res4b_branch2c -> res4b_branch2c
I0628 16:44:44.183977  1442 net.cpp:122] Setting up res4b_branch2c
I0628 16:44:44.183997  1442 net.cpp:129] Top shape: 8 1024 14 14 (1605632)
I0628 16:44:44.184002  1442 net.cpp:137] Memory required for data: 1494843552
I0628 16:44:44.184008  1442 layer_factory.hpp:77] Creating layer bn4b_branch2c
I0628 16:44:44.184018  1442 net.cpp:84] Creating Layer bn4b_branch2c
I0628 16:44:44.184023  1442 net.cpp:406] bn4b_branch2c <- res4b_branch2c
I0628 16:44:44.184031  1442 net.cpp:367] bn4b_branch2c -> res4b_branch2c (in-place)
I0628 16:44:44.184272  1442 net.cpp:122] Setting up bn4b_branch2c
I0628 16:44:44.184286  1442 net.cpp:129] Top shape: 8 1024 14 14 (1605632)
I0628 16:44:44.184290  1442 net.cpp:137] Memory required for data: 1501266080
I0628 16:44:44.184299  1442 layer_factory.hpp:77] Creating layer scale4b_branch2c
I0628 16:44:44.184310  1442 net.cpp:84] Creating Layer scale4b_branch2c
I0628 16:44:44.184335  1442 net.cpp:406] scale4b_branch2c <- res4b_branch2c
I0628 16:44:44.184351  1442 net.cpp:367] scale4b_branch2c -> res4b_branch2c (in-place)
I0628 16:44:44.184417  1442 layer_factory.hpp:77] Creating layer scale4b_branch2c
I0628 16:44:44.184604  1442 net.cpp:122] Setting up scale4b_branch2c
I0628 16:44:44.184622  1442 net.cpp:129] Top shape: 8 1024 14 14 (1605632)
I0628 16:44:44.184625  1442 net.cpp:137] Memory required for data: 1507688608
I0628 16:44:44.184633  1442 layer_factory.hpp:77] Creating layer res4b
I0628 16:44:44.184639  1442 net.cpp:84] Creating Layer res4b
I0628 16:44:44.184644  1442 net.cpp:406] res4b <- res4a_res4a_relu_0_split_1
I0628 16:44:44.184648  1442 net.cpp:406] res4b <- res4b_branch2c
I0628 16:44:44.184654  1442 net.cpp:380] res4b -> res4b
I0628 16:44:44.184705  1442 net.cpp:122] Setting up res4b
I0628 16:44:44.184720  1442 net.cpp:129] Top shape: 8 1024 14 14 (1605632)
I0628 16:44:44.184725  1442 net.cpp:137] Memory required for data: 1514111136
I0628 16:44:44.184728  1442 layer_factory.hpp:77] Creating layer res4b_relu
I0628 16:44:44.184734  1442 net.cpp:84] Creating Layer res4b_relu
I0628 16:44:44.184738  1442 net.cpp:406] res4b_relu <- res4b
I0628 16:44:44.184746  1442 net.cpp:367] res4b_relu -> res4b (in-place)
I0628 16:44:44.185024  1442 net.cpp:122] Setting up res4b_relu
I0628 16:44:44.185045  1442 net.cpp:129] Top shape: 8 1024 14 14 (1605632)
I0628 16:44:44.185048  1442 net.cpp:137] Memory required for data: 1520533664
I0628 16:44:44.185052  1442 layer_factory.hpp:77] Creating layer res4b_res4b_relu_0_split
I0628 16:44:44.185058  1442 net.cpp:84] Creating Layer res4b_res4b_relu_0_split
I0628 16:44:44.185062  1442 net.cpp:406] res4b_res4b_relu_0_split <- res4b
I0628 16:44:44.185068  1442 net.cpp:380] res4b_res4b_relu_0_split -> res4b_res4b_relu_0_split_0
I0628 16:44:44.185075  1442 net.cpp:380] res4b_res4b_relu_0_split -> res4b_res4b_relu_0_split_1
I0628 16:44:44.185130  1442 net.cpp:122] Setting up res4b_res4b_relu_0_split
I0628 16:44:44.185145  1442 net.cpp:129] Top shape: 8 1024 14 14 (1605632)
I0628 16:44:44.185150  1442 net.cpp:129] Top shape: 8 1024 14 14 (1605632)
I0628 16:44:44.185168  1442 net.cpp:137] Memory required for data: 1533378720
I0628 16:44:44.185173  1442 layer_factory.hpp:77] Creating layer res4c_branch2a
I0628 16:44:44.185184  1442 net.cpp:84] Creating Layer res4c_branch2a
I0628 16:44:44.185190  1442 net.cpp:406] res4c_branch2a <- res4b_res4b_relu_0_split_0
I0628 16:44:44.185199  1442 net.cpp:380] res4c_branch2a -> res4c_branch2a
I0628 16:44:44.187000  1442 net.cpp:122] Setting up res4c_branch2a
I0628 16:44:44.187021  1442 net.cpp:129] Top shape: 8 256 14 14 (401408)
I0628 16:44:44.187026  1442 net.cpp:137] Memory required for data: 1534984352
I0628 16:44:44.187032  1442 layer_factory.hpp:77] Creating layer bn4c_branch2a
I0628 16:44:44.187041  1442 net.cpp:84] Creating Layer bn4c_branch2a
I0628 16:44:44.187049  1442 net.cpp:406] bn4c_branch2a <- res4c_branch2a
I0628 16:44:44.187055  1442 net.cpp:367] bn4c_branch2a -> res4c_branch2a (in-place)
I0628 16:44:44.187294  1442 net.cpp:122] Setting up bn4c_branch2a
I0628 16:44:44.187309  1442 net.cpp:129] Top shape: 8 256 14 14 (401408)
I0628 16:44:44.187314  1442 net.cpp:137] Memory required for data: 1536589984
I0628 16:44:44.187326  1442 layer_factory.hpp:77] Creating layer scale4c_branch2a
I0628 16:44:44.187336  1442 net.cpp:84] Creating Layer scale4c_branch2a
I0628 16:44:44.187340  1442 net.cpp:406] scale4c_branch2a <- res4c_branch2a
I0628 16:44:44.187346  1442 net.cpp:367] scale4c_branch2a -> res4c_branch2a (in-place)
I0628 16:44:44.187408  1442 layer_factory.hpp:77] Creating layer scale4c_branch2a
I0628 16:44:44.187558  1442 net.cpp:122] Setting up scale4c_branch2a
I0628 16:44:44.187573  1442 net.cpp:129] Top shape: 8 256 14 14 (401408)
I0628 16:44:44.187577  1442 net.cpp:137] Memory required for data: 1538195616
I0628 16:44:44.187584  1442 layer_factory.hpp:77] Creating layer res4c_branch2a_relu
I0628 16:44:44.187592  1442 net.cpp:84] Creating Layer res4c_branch2a_relu
I0628 16:44:44.187595  1442 net.cpp:406] res4c_branch2a_relu <- res4c_branch2a
I0628 16:44:44.187602  1442 net.cpp:367] res4c_branch2a_relu -> res4c_branch2a (in-place)
I0628 16:44:44.187768  1442 net.cpp:122] Setting up res4c_branch2a_relu
I0628 16:44:44.187785  1442 net.cpp:129] Top shape: 8 256 14 14 (401408)
I0628 16:44:44.187789  1442 net.cpp:137] Memory required for data: 1539801248
I0628 16:44:44.187793  1442 layer_factory.hpp:77] Creating layer res4c_branch2b
I0628 16:44:44.187804  1442 net.cpp:84] Creating Layer res4c_branch2b
I0628 16:44:44.187809  1442 net.cpp:406] res4c_branch2b <- res4c_branch2a
I0628 16:44:44.187818  1442 net.cpp:380] res4c_branch2b -> res4c_branch2b
I0628 16:44:44.190202  1442 net.cpp:122] Setting up res4c_branch2b
I0628 16:44:44.190223  1442 net.cpp:129] Top shape: 8 256 14 14 (401408)
I0628 16:44:44.190227  1442 net.cpp:137] Memory required for data: 1541406880
I0628 16:44:44.190234  1442 layer_factory.hpp:77] Creating layer bn4c_branch2b
I0628 16:44:44.190244  1442 net.cpp:84] Creating Layer bn4c_branch2b
I0628 16:44:44.190253  1442 net.cpp:406] bn4c_branch2b <- res4c_branch2b
I0628 16:44:44.190258  1442 net.cpp:367] bn4c_branch2b -> res4c_branch2b (in-place)
I0628 16:44:44.190515  1442 net.cpp:122] Setting up bn4c_branch2b
I0628 16:44:44.190529  1442 net.cpp:129] Top shape: 8 256 14 14 (401408)
I0628 16:44:44.190534  1442 net.cpp:137] Memory required for data: 1543012512
I0628 16:44:44.190542  1442 layer_factory.hpp:77] Creating layer scale4c_branch2b
I0628 16:44:44.190552  1442 net.cpp:84] Creating Layer scale4c_branch2b
I0628 16:44:44.190557  1442 net.cpp:406] scale4c_branch2b <- res4c_branch2b
I0628 16:44:44.190562  1442 net.cpp:367] scale4c_branch2b -> res4c_branch2b (in-place)
I0628 16:44:44.190618  1442 layer_factory.hpp:77] Creating layer scale4c_branch2b
I0628 16:44:44.190773  1442 net.cpp:122] Setting up scale4c_branch2b
I0628 16:44:44.190789  1442 net.cpp:129] Top shape: 8 256 14 14 (401408)
I0628 16:44:44.190793  1442 net.cpp:137] Memory required for data: 1544618144
I0628 16:44:44.190800  1442 layer_factory.hpp:77] Creating layer res4c_branch2b_relu
I0628 16:44:44.190807  1442 net.cpp:84] Creating Layer res4c_branch2b_relu
I0628 16:44:44.190830  1442 net.cpp:406] res4c_branch2b_relu <- res4c_branch2b
I0628 16:44:44.190840  1442 net.cpp:367] res4c_branch2b_relu -> res4c_branch2b (in-place)
I0628 16:44:44.191025  1442 net.cpp:122] Setting up res4c_branch2b_relu
I0628 16:44:44.191041  1442 net.cpp:129] Top shape: 8 256 14 14 (401408)
I0628 16:44:44.191045  1442 net.cpp:137] Memory required for data: 1546223776
I0628 16:44:44.191049  1442 layer_factory.hpp:77] Creating layer res4c_branch2c
I0628 16:44:44.191062  1442 net.cpp:84] Creating Layer res4c_branch2c
I0628 16:44:44.191067  1442 net.cpp:406] res4c_branch2c <- res4c_branch2b
I0628 16:44:44.191073  1442 net.cpp:380] res4c_branch2c -> res4c_branch2c
I0628 16:44:44.192664  1442 net.cpp:122] Setting up res4c_branch2c
I0628 16:44:44.192685  1442 net.cpp:129] Top shape: 8 1024 14 14 (1605632)
I0628 16:44:44.192690  1442 net.cpp:137] Memory required for data: 1552646304
I0628 16:44:44.192697  1442 layer_factory.hpp:77] Creating layer bn4c_branch2c
I0628 16:44:44.192706  1442 net.cpp:84] Creating Layer bn4c_branch2c
I0628 16:44:44.192711  1442 net.cpp:406] bn4c_branch2c <- res4c_branch2c
I0628 16:44:44.192718  1442 net.cpp:367] bn4c_branch2c -> res4c_branch2c (in-place)
I0628 16:44:44.192968  1442 net.cpp:122] Setting up bn4c_branch2c
I0628 16:44:44.192984  1442 net.cpp:129] Top shape: 8 1024 14 14 (1605632)
I0628 16:44:44.192988  1442 net.cpp:137] Memory required for data: 1559068832
I0628 16:44:44.192999  1442 layer_factory.hpp:77] Creating layer scale4c_branch2c
I0628 16:44:44.193006  1442 net.cpp:84] Creating Layer scale4c_branch2c
I0628 16:44:44.193013  1442 net.cpp:406] scale4c_branch2c <- res4c_branch2c
I0628 16:44:44.193018  1442 net.cpp:367] scale4c_branch2c -> res4c_branch2c (in-place)
I0628 16:44:44.193075  1442 layer_factory.hpp:77] Creating layer scale4c_branch2c
I0628 16:44:44.193234  1442 net.cpp:122] Setting up scale4c_branch2c
I0628 16:44:44.193249  1442 net.cpp:129] Top shape: 8 1024 14 14 (1605632)
I0628 16:44:44.193253  1442 net.cpp:137] Memory required for data: 1565491360
I0628 16:44:44.193260  1442 layer_factory.hpp:77] Creating layer res4c
I0628 16:44:44.193269  1442 net.cpp:84] Creating Layer res4c
I0628 16:44:44.193274  1442 net.cpp:406] res4c <- res4b_res4b_relu_0_split_1
I0628 16:44:44.193279  1442 net.cpp:406] res4c <- res4c_branch2c
I0628 16:44:44.193284  1442 net.cpp:380] res4c -> res4c
I0628 16:44:44.193320  1442 net.cpp:122] Setting up res4c
I0628 16:44:44.193334  1442 net.cpp:129] Top shape: 8 1024 14 14 (1605632)
I0628 16:44:44.193337  1442 net.cpp:137] Memory required for data: 1571913888
I0628 16:44:44.193341  1442 layer_factory.hpp:77] Creating layer res4c_relu
I0628 16:44:44.193347  1442 net.cpp:84] Creating Layer res4c_relu
I0628 16:44:44.193351  1442 net.cpp:406] res4c_relu <- res4c
I0628 16:44:44.193359  1442 net.cpp:367] res4c_relu -> res4c (in-place)
I0628 16:44:44.193626  1442 net.cpp:122] Setting up res4c_relu
I0628 16:44:44.193645  1442 net.cpp:129] Top shape: 8 1024 14 14 (1605632)
I0628 16:44:44.193648  1442 net.cpp:137] Memory required for data: 1578336416
I0628 16:44:44.193652  1442 layer_factory.hpp:77] Creating layer res4c_res4c_relu_0_split
I0628 16:44:44.193661  1442 net.cpp:84] Creating Layer res4c_res4c_relu_0_split
I0628 16:44:44.193665  1442 net.cpp:406] res4c_res4c_relu_0_split <- res4c
I0628 16:44:44.193671  1442 net.cpp:380] res4c_res4c_relu_0_split -> res4c_res4c_relu_0_split_0
I0628 16:44:44.193678  1442 net.cpp:380] res4c_res4c_relu_0_split -> res4c_res4c_relu_0_split_1
I0628 16:44:44.193733  1442 net.cpp:122] Setting up res4c_res4c_relu_0_split
I0628 16:44:44.193748  1442 net.cpp:129] Top shape: 8 1024 14 14 (1605632)
I0628 16:44:44.193753  1442 net.cpp:129] Top shape: 8 1024 14 14 (1605632)
I0628 16:44:44.193756  1442 net.cpp:137] Memory required for data: 1591181472
I0628 16:44:44.193760  1442 layer_factory.hpp:77] Creating layer res4d_branch2a
I0628 16:44:44.193773  1442 net.cpp:84] Creating Layer res4d_branch2a
I0628 16:44:44.193778  1442 net.cpp:406] res4d_branch2a <- res4c_res4c_relu_0_split_0
I0628 16:44:44.193804  1442 net.cpp:380] res4d_branch2a -> res4d_branch2a
I0628 16:44:44.195454  1442 net.cpp:122] Setting up res4d_branch2a
I0628 16:44:44.195475  1442 net.cpp:129] Top shape: 8 256 14 14 (401408)
I0628 16:44:44.195480  1442 net.cpp:137] Memory required for data: 1592787104
I0628 16:44:44.195487  1442 layer_factory.hpp:77] Creating layer bn4d_branch2a
I0628 16:44:44.195497  1442 net.cpp:84] Creating Layer bn4d_branch2a
I0628 16:44:44.195508  1442 net.cpp:406] bn4d_branch2a <- res4d_branch2a
I0628 16:44:44.195516  1442 net.cpp:367] bn4d_branch2a -> res4d_branch2a (in-place)
I0628 16:44:44.195767  1442 net.cpp:122] Setting up bn4d_branch2a
I0628 16:44:44.195782  1442 net.cpp:129] Top shape: 8 256 14 14 (401408)
I0628 16:44:44.195786  1442 net.cpp:137] Memory required for data: 1594392736
I0628 16:44:44.195796  1442 layer_factory.hpp:77] Creating layer scale4d_branch2a
I0628 16:44:44.195806  1442 net.cpp:84] Creating Layer scale4d_branch2a
I0628 16:44:44.195814  1442 net.cpp:406] scale4d_branch2a <- res4d_branch2a
I0628 16:44:44.195822  1442 net.cpp:367] scale4d_branch2a -> res4d_branch2a (in-place)
I0628 16:44:44.195880  1442 layer_factory.hpp:77] Creating layer scale4d_branch2a
I0628 16:44:44.196038  1442 net.cpp:122] Setting up scale4d_branch2a
I0628 16:44:44.196054  1442 net.cpp:129] Top shape: 8 256 14 14 (401408)
I0628 16:44:44.196058  1442 net.cpp:137] Memory required for data: 1595998368
I0628 16:44:44.196064  1442 layer_factory.hpp:77] Creating layer res4d_branch2a_relu
I0628 16:44:44.196071  1442 net.cpp:84] Creating Layer res4d_branch2a_relu
I0628 16:44:44.196075  1442 net.cpp:406] res4d_branch2a_relu <- res4d_branch2a
I0628 16:44:44.196080  1442 net.cpp:367] res4d_branch2a_relu -> res4d_branch2a (in-place)
I0628 16:44:44.196251  1442 net.cpp:122] Setting up res4d_branch2a_relu
I0628 16:44:44.196269  1442 net.cpp:129] Top shape: 8 256 14 14 (401408)
I0628 16:44:44.196272  1442 net.cpp:137] Memory required for data: 1597604000
I0628 16:44:44.196276  1442 layer_factory.hpp:77] Creating layer res4d_branch2b
I0628 16:44:44.196287  1442 net.cpp:84] Creating Layer res4d_branch2b
I0628 16:44:44.196292  1442 net.cpp:406] res4d_branch2b <- res4d_branch2a
I0628 16:44:44.196301  1442 net.cpp:380] res4d_branch2b -> res4d_branch2b
I0628 16:44:44.198521  1442 net.cpp:122] Setting up res4d_branch2b
I0628 16:44:44.198542  1442 net.cpp:129] Top shape: 8 256 14 14 (401408)
I0628 16:44:44.198546  1442 net.cpp:137] Memory required for data: 1599209632
I0628 16:44:44.198552  1442 layer_factory.hpp:77] Creating layer bn4d_branch2b
I0628 16:44:44.198562  1442 net.cpp:84] Creating Layer bn4d_branch2b
I0628 16:44:44.198573  1442 net.cpp:406] bn4d_branch2b <- res4d_branch2b
I0628 16:44:44.198580  1442 net.cpp:367] bn4d_branch2b -> res4d_branch2b (in-place)
I0628 16:44:44.198832  1442 net.cpp:122] Setting up bn4d_branch2b
I0628 16:44:44.198848  1442 net.cpp:129] Top shape: 8 256 14 14 (401408)
I0628 16:44:44.198851  1442 net.cpp:137] Memory required for data: 1600815264
I0628 16:44:44.198860  1442 layer_factory.hpp:77] Creating layer scale4d_branch2b
I0628 16:44:44.198868  1442 net.cpp:84] Creating Layer scale4d_branch2b
I0628 16:44:44.198873  1442 net.cpp:406] scale4d_branch2b <- res4d_branch2b
I0628 16:44:44.198878  1442 net.cpp:367] scale4d_branch2b -> res4d_branch2b (in-place)
I0628 16:44:44.198935  1442 layer_factory.hpp:77] Creating layer scale4d_branch2b
I0628 16:44:44.199112  1442 net.cpp:122] Setting up scale4d_branch2b
I0628 16:44:44.199128  1442 net.cpp:129] Top shape: 8 256 14 14 (401408)
I0628 16:44:44.199132  1442 net.cpp:137] Memory required for data: 1602420896
I0628 16:44:44.199139  1442 layer_factory.hpp:77] Creating layer res4d_branch2b_relu
I0628 16:44:44.199148  1442 net.cpp:84] Creating Layer res4d_branch2b_relu
I0628 16:44:44.199152  1442 net.cpp:406] res4d_branch2b_relu <- res4d_branch2b
I0628 16:44:44.199157  1442 net.cpp:367] res4d_branch2b_relu -> res4d_branch2b (in-place)
I0628 16:44:44.199328  1442 net.cpp:122] Setting up res4d_branch2b_relu
I0628 16:44:44.199347  1442 net.cpp:129] Top shape: 8 256 14 14 (401408)
I0628 16:44:44.199365  1442 net.cpp:137] Memory required for data: 1604026528
I0628 16:44:44.199370  1442 layer_factory.hpp:77] Creating layer res4d_branch2c
I0628 16:44:44.199390  1442 net.cpp:84] Creating Layer res4d_branch2c
I0628 16:44:44.199398  1442 net.cpp:406] res4d_branch2c <- res4d_branch2b
I0628 16:44:44.199406  1442 net.cpp:380] res4d_branch2c -> res4d_branch2c
I0628 16:44:44.201022  1442 net.cpp:122] Setting up res4d_branch2c
I0628 16:44:44.201042  1442 net.cpp:129] Top shape: 8 1024 14 14 (1605632)
I0628 16:44:44.201046  1442 net.cpp:137] Memory required for data: 1610449056
I0628 16:44:44.201053  1442 layer_factory.hpp:77] Creating layer bn4d_branch2c
I0628 16:44:44.201063  1442 net.cpp:84] Creating Layer bn4d_branch2c
I0628 16:44:44.201068  1442 net.cpp:406] bn4d_branch2c <- res4d_branch2c
I0628 16:44:44.201074  1442 net.cpp:367] bn4d_branch2c -> res4d_branch2c (in-place)
I0628 16:44:44.201333  1442 net.cpp:122] Setting up bn4d_branch2c
I0628 16:44:44.201349  1442 net.cpp:129] Top shape: 8 1024 14 14 (1605632)
I0628 16:44:44.201351  1442 net.cpp:137] Memory required for data: 1616871584
I0628 16:44:44.201360  1442 layer_factory.hpp:77] Creating layer scale4d_branch2c
I0628 16:44:44.201380  1442 net.cpp:84] Creating Layer scale4d_branch2c
I0628 16:44:44.201385  1442 net.cpp:406] scale4d_branch2c <- res4d_branch2c
I0628 16:44:44.201393  1442 net.cpp:367] scale4d_branch2c -> res4d_branch2c (in-place)
I0628 16:44:44.201447  1442 layer_factory.hpp:77] Creating layer scale4d_branch2c
I0628 16:44:44.201614  1442 net.cpp:122] Setting up scale4d_branch2c
I0628 16:44:44.201632  1442 net.cpp:129] Top shape: 8 1024 14 14 (1605632)
I0628 16:44:44.201635  1442 net.cpp:137] Memory required for data: 1623294112
I0628 16:44:44.201642  1442 layer_factory.hpp:77] Creating layer res4d
I0628 16:44:44.201649  1442 net.cpp:84] Creating Layer res4d
I0628 16:44:44.201653  1442 net.cpp:406] res4d <- res4c_res4c_relu_0_split_1
I0628 16:44:44.201658  1442 net.cpp:406] res4d <- res4d_branch2c
I0628 16:44:44.201663  1442 net.cpp:380] res4d -> res4d
I0628 16:44:44.201700  1442 net.cpp:122] Setting up res4d
I0628 16:44:44.201715  1442 net.cpp:129] Top shape: 8 1024 14 14 (1605632)
I0628 16:44:44.201719  1442 net.cpp:137] Memory required for data: 1629716640
I0628 16:44:44.201723  1442 layer_factory.hpp:77] Creating layer res4d_relu
I0628 16:44:44.201730  1442 net.cpp:84] Creating Layer res4d_relu
I0628 16:44:44.201733  1442 net.cpp:406] res4d_relu <- res4d
I0628 16:44:44.201741  1442 net.cpp:367] res4d_relu -> res4d (in-place)
I0628 16:44:44.202015  1442 net.cpp:122] Setting up res4d_relu
I0628 16:44:44.202034  1442 net.cpp:129] Top shape: 8 1024 14 14 (1605632)
I0628 16:44:44.202039  1442 net.cpp:137] Memory required for data: 1636139168
I0628 16:44:44.202042  1442 layer_factory.hpp:77] Creating layer res4d_res4d_relu_0_split
I0628 16:44:44.202050  1442 net.cpp:84] Creating Layer res4d_res4d_relu_0_split
I0628 16:44:44.202055  1442 net.cpp:406] res4d_res4d_relu_0_split <- res4d
I0628 16:44:44.202061  1442 net.cpp:380] res4d_res4d_relu_0_split -> res4d_res4d_relu_0_split_0
I0628 16:44:44.202069  1442 net.cpp:380] res4d_res4d_relu_0_split -> res4d_res4d_relu_0_split_1
I0628 16:44:44.202127  1442 net.cpp:122] Setting up res4d_res4d_relu_0_split
I0628 16:44:44.202142  1442 net.cpp:129] Top shape: 8 1024 14 14 (1605632)
I0628 16:44:44.202147  1442 net.cpp:129] Top shape: 8 1024 14 14 (1605632)
I0628 16:44:44.202150  1442 net.cpp:137] Memory required for data: 1648984224
I0628 16:44:44.202154  1442 layer_factory.hpp:77] Creating layer res4e_branch2a
I0628 16:44:44.202167  1442 net.cpp:84] Creating Layer res4e_branch2a
I0628 16:44:44.202170  1442 net.cpp:406] res4e_branch2a <- res4d_res4d_relu_0_split_0
I0628 16:44:44.202178  1442 net.cpp:380] res4e_branch2a -> res4e_branch2a
I0628 16:44:44.203799  1442 net.cpp:122] Setting up res4e_branch2a
I0628 16:44:44.203819  1442 net.cpp:129] Top shape: 8 256 14 14 (401408)
I0628 16:44:44.203824  1442 net.cpp:137] Memory required for data: 1650589856
I0628 16:44:44.203830  1442 layer_factory.hpp:77] Creating layer bn4e_branch2a
I0628 16:44:44.203860  1442 net.cpp:84] Creating Layer bn4e_branch2a
I0628 16:44:44.203866  1442 net.cpp:406] bn4e_branch2a <- res4e_branch2a
I0628 16:44:44.203871  1442 net.cpp:367] bn4e_branch2a -> res4e_branch2a (in-place)
I0628 16:44:44.204130  1442 net.cpp:122] Setting up bn4e_branch2a
I0628 16:44:44.204146  1442 net.cpp:129] Top shape: 8 256 14 14 (401408)
I0628 16:44:44.204150  1442 net.cpp:137] Memory required for data: 1652195488
I0628 16:44:44.204159  1442 layer_factory.hpp:77] Creating layer scale4e_branch2a
I0628 16:44:44.204166  1442 net.cpp:84] Creating Layer scale4e_branch2a
I0628 16:44:44.204170  1442 net.cpp:406] scale4e_branch2a <- res4e_branch2a
I0628 16:44:44.204175  1442 net.cpp:367] scale4e_branch2a -> res4e_branch2a (in-place)
I0628 16:44:44.204236  1442 layer_factory.hpp:77] Creating layer scale4e_branch2a
I0628 16:44:44.204397  1442 net.cpp:122] Setting up scale4e_branch2a
I0628 16:44:44.204413  1442 net.cpp:129] Top shape: 8 256 14 14 (401408)
I0628 16:44:44.204417  1442 net.cpp:137] Memory required for data: 1653801120
I0628 16:44:44.204424  1442 layer_factory.hpp:77] Creating layer res4e_branch2a_relu
I0628 16:44:44.204432  1442 net.cpp:84] Creating Layer res4e_branch2a_relu
I0628 16:44:44.204437  1442 net.cpp:406] res4e_branch2a_relu <- res4e_branch2a
I0628 16:44:44.204442  1442 net.cpp:367] res4e_branch2a_relu -> res4e_branch2a (in-place)
I0628 16:44:44.204615  1442 net.cpp:122] Setting up res4e_branch2a_relu
I0628 16:44:44.204632  1442 net.cpp:129] Top shape: 8 256 14 14 (401408)
I0628 16:44:44.204635  1442 net.cpp:137] Memory required for data: 1655406752
I0628 16:44:44.204639  1442 layer_factory.hpp:77] Creating layer res4e_branch2b
I0628 16:44:44.204653  1442 net.cpp:84] Creating Layer res4e_branch2b
I0628 16:44:44.204659  1442 net.cpp:406] res4e_branch2b <- res4e_branch2a
I0628 16:44:44.204666  1442 net.cpp:380] res4e_branch2b -> res4e_branch2b
I0628 16:44:44.206938  1442 net.cpp:122] Setting up res4e_branch2b
I0628 16:44:44.206960  1442 net.cpp:129] Top shape: 8 256 14 14 (401408)
I0628 16:44:44.206982  1442 net.cpp:137] Memory required for data: 1657012384
I0628 16:44:44.206990  1442 layer_factory.hpp:77] Creating layer bn4e_branch2b
I0628 16:44:44.207000  1442 net.cpp:84] Creating Layer bn4e_branch2b
I0628 16:44:44.207006  1442 net.cpp:406] bn4e_branch2b <- res4e_branch2b
I0628 16:44:44.207011  1442 net.cpp:367] bn4e_branch2b -> res4e_branch2b (in-place)
I0628 16:44:44.207276  1442 net.cpp:122] Setting up bn4e_branch2b
I0628 16:44:44.207293  1442 net.cpp:129] Top shape: 8 256 14 14 (401408)
I0628 16:44:44.207296  1442 net.cpp:137] Memory required for data: 1658618016
I0628 16:44:44.207307  1442 layer_factory.hpp:77] Creating layer scale4e_branch2b
I0628 16:44:44.207314  1442 net.cpp:84] Creating Layer scale4e_branch2b
I0628 16:44:44.207321  1442 net.cpp:406] scale4e_branch2b <- res4e_branch2b
I0628 16:44:44.207326  1442 net.cpp:367] scale4e_branch2b -> res4e_branch2b (in-place)
I0628 16:44:44.207387  1442 layer_factory.hpp:77] Creating layer scale4e_branch2b
I0628 16:44:44.207552  1442 net.cpp:122] Setting up scale4e_branch2b
I0628 16:44:44.207568  1442 net.cpp:129] Top shape: 8 256 14 14 (401408)
I0628 16:44:44.207572  1442 net.cpp:137] Memory required for data: 1660223648
I0628 16:44:44.207578  1442 layer_factory.hpp:77] Creating layer res4e_branch2b_relu
I0628 16:44:44.207586  1442 net.cpp:84] Creating Layer res4e_branch2b_relu
I0628 16:44:44.207589  1442 net.cpp:406] res4e_branch2b_relu <- res4e_branch2b
I0628 16:44:44.207597  1442 net.cpp:367] res4e_branch2b_relu -> res4e_branch2b (in-place)
I0628 16:44:44.207767  1442 net.cpp:122] Setting up res4e_branch2b_relu
I0628 16:44:44.207783  1442 net.cpp:129] Top shape: 8 256 14 14 (401408)
I0628 16:44:44.207787  1442 net.cpp:137] Memory required for data: 1661829280
I0628 16:44:44.207792  1442 layer_factory.hpp:77] Creating layer res4e_branch2c
I0628 16:44:44.207806  1442 net.cpp:84] Creating Layer res4e_branch2c
I0628 16:44:44.207813  1442 net.cpp:406] res4e_branch2c <- res4e_branch2b
I0628 16:44:44.207839  1442 net.cpp:380] res4e_branch2c -> res4e_branch2c
I0628 16:44:44.209458  1442 net.cpp:122] Setting up res4e_branch2c
I0628 16:44:44.209478  1442 net.cpp:129] Top shape: 8 1024 14 14 (1605632)
I0628 16:44:44.209482  1442 net.cpp:137] Memory required for data: 1668251808
I0628 16:44:44.209488  1442 layer_factory.hpp:77] Creating layer bn4e_branch2c
I0628 16:44:44.209498  1442 net.cpp:84] Creating Layer bn4e_branch2c
I0628 16:44:44.209503  1442 net.cpp:406] bn4e_branch2c <- res4e_branch2c
I0628 16:44:44.209509  1442 net.cpp:367] bn4e_branch2c -> res4e_branch2c (in-place)
I0628 16:44:44.209776  1442 net.cpp:122] Setting up bn4e_branch2c
I0628 16:44:44.209796  1442 net.cpp:129] Top shape: 8 1024 14 14 (1605632)
I0628 16:44:44.209800  1442 net.cpp:137] Memory required for data: 1674674336
I0628 16:44:44.209808  1442 layer_factory.hpp:77] Creating layer scale4e_branch2c
I0628 16:44:44.209816  1442 net.cpp:84] Creating Layer scale4e_branch2c
I0628 16:44:44.209820  1442 net.cpp:406] scale4e_branch2c <- res4e_branch2c
I0628 16:44:44.209826  1442 net.cpp:367] scale4e_branch2c -> res4e_branch2c (in-place)
I0628 16:44:44.209882  1442 layer_factory.hpp:77] Creating layer scale4e_branch2c
I0628 16:44:44.210083  1442 net.cpp:122] Setting up scale4e_branch2c
I0628 16:44:44.210104  1442 net.cpp:129] Top shape: 8 1024 14 14 (1605632)
I0628 16:44:44.210111  1442 net.cpp:137] Memory required for data: 1681096864
I0628 16:44:44.210124  1442 layer_factory.hpp:77] Creating layer res4e
I0628 16:44:44.210144  1442 net.cpp:84] Creating Layer res4e
I0628 16:44:44.210150  1442 net.cpp:406] res4e <- res4d_res4d_relu_0_split_1
I0628 16:44:44.210155  1442 net.cpp:406] res4e <- res4e_branch2c
I0628 16:44:44.210160  1442 net.cpp:380] res4e -> res4e
I0628 16:44:44.210201  1442 net.cpp:122] Setting up res4e
I0628 16:44:44.210216  1442 net.cpp:129] Top shape: 8 1024 14 14 (1605632)
I0628 16:44:44.210220  1442 net.cpp:137] Memory required for data: 1687519392
I0628 16:44:44.210224  1442 layer_factory.hpp:77] Creating layer res4e_relu
I0628 16:44:44.210232  1442 net.cpp:84] Creating Layer res4e_relu
I0628 16:44:44.210235  1442 net.cpp:406] res4e_relu <- res4e
I0628 16:44:44.210243  1442 net.cpp:367] res4e_relu -> res4e (in-place)
I0628 16:44:44.210521  1442 net.cpp:122] Setting up res4e_relu
I0628 16:44:44.210542  1442 net.cpp:129] Top shape: 8 1024 14 14 (1605632)
I0628 16:44:44.210546  1442 net.cpp:137] Memory required for data: 1693941920
I0628 16:44:44.210551  1442 layer_factory.hpp:77] Creating layer res4e_res4e_relu_0_split
I0628 16:44:44.210557  1442 net.cpp:84] Creating Layer res4e_res4e_relu_0_split
I0628 16:44:44.210561  1442 net.cpp:406] res4e_res4e_relu_0_split <- res4e
I0628 16:44:44.210567  1442 net.cpp:380] res4e_res4e_relu_0_split -> res4e_res4e_relu_0_split_0
I0628 16:44:44.210574  1442 net.cpp:380] res4e_res4e_relu_0_split -> res4e_res4e_relu_0_split_1
I0628 16:44:44.210633  1442 net.cpp:122] Setting up res4e_res4e_relu_0_split
I0628 16:44:44.210649  1442 net.cpp:129] Top shape: 8 1024 14 14 (1605632)
I0628 16:44:44.210654  1442 net.cpp:129] Top shape: 8 1024 14 14 (1605632)
I0628 16:44:44.210657  1442 net.cpp:137] Memory required for data: 1706786976
I0628 16:44:44.210661  1442 layer_factory.hpp:77] Creating layer res4f_branch2a
I0628 16:44:44.210671  1442 net.cpp:84] Creating Layer res4f_branch2a
I0628 16:44:44.210676  1442 net.cpp:406] res4f_branch2a <- res4e_res4e_relu_0_split_0
I0628 16:44:44.210685  1442 net.cpp:380] res4f_branch2a -> res4f_branch2a
I0628 16:44:44.212424  1442 net.cpp:122] Setting up res4f_branch2a
I0628 16:44:44.212445  1442 net.cpp:129] Top shape: 8 256 14 14 (401408)
I0628 16:44:44.212448  1442 net.cpp:137] Memory required for data: 1708392608
I0628 16:44:44.212455  1442 layer_factory.hpp:77] Creating layer bn4f_branch2a
I0628 16:44:44.212474  1442 net.cpp:84] Creating Layer bn4f_branch2a
I0628 16:44:44.212484  1442 net.cpp:406] bn4f_branch2a <- res4f_branch2a
I0628 16:44:44.212491  1442 net.cpp:367] bn4f_branch2a -> res4f_branch2a (in-place)
I0628 16:44:44.212759  1442 net.cpp:122] Setting up bn4f_branch2a
I0628 16:44:44.212788  1442 net.cpp:129] Top shape: 8 256 14 14 (401408)
I0628 16:44:44.212792  1442 net.cpp:137] Memory required for data: 1709998240
I0628 16:44:44.212803  1442 layer_factory.hpp:77] Creating layer scale4f_branch2a
I0628 16:44:44.212813  1442 net.cpp:84] Creating Layer scale4f_branch2a
I0628 16:44:44.212818  1442 net.cpp:406] scale4f_branch2a <- res4f_branch2a
I0628 16:44:44.212823  1442 net.cpp:367] scale4f_branch2a -> res4f_branch2a (in-place)
I0628 16:44:44.212887  1442 layer_factory.hpp:77] Creating layer scale4f_branch2a
I0628 16:44:44.213063  1442 net.cpp:122] Setting up scale4f_branch2a
I0628 16:44:44.213078  1442 net.cpp:129] Top shape: 8 256 14 14 (401408)
I0628 16:44:44.213083  1442 net.cpp:137] Memory required for data: 1711603872
I0628 16:44:44.213089  1442 layer_factory.hpp:77] Creating layer res4f_branch2a_relu
I0628 16:44:44.213099  1442 net.cpp:84] Creating Layer res4f_branch2a_relu
I0628 16:44:44.213104  1442 net.cpp:406] res4f_branch2a_relu <- res4f_branch2a
I0628 16:44:44.213109  1442 net.cpp:367] res4f_branch2a_relu -> res4f_branch2a (in-place)
I0628 16:44:44.213274  1442 net.cpp:122] Setting up res4f_branch2a_relu
I0628 16:44:44.213290  1442 net.cpp:129] Top shape: 8 256 14 14 (401408)
I0628 16:44:44.213294  1442 net.cpp:137] Memory required for data: 1713209504
I0628 16:44:44.213299  1442 layer_factory.hpp:77] Creating layer res4f_branch2b
I0628 16:44:44.213311  1442 net.cpp:84] Creating Layer res4f_branch2b
I0628 16:44:44.213316  1442 net.cpp:406] res4f_branch2b <- res4f_branch2a
I0628 16:44:44.213322  1442 net.cpp:380] res4f_branch2b -> res4f_branch2b
I0628 16:44:44.215643  1442 net.cpp:122] Setting up res4f_branch2b
I0628 16:44:44.215664  1442 net.cpp:129] Top shape: 8 256 14 14 (401408)
I0628 16:44:44.215668  1442 net.cpp:137] Memory required for data: 1714815136
I0628 16:44:44.215675  1442 layer_factory.hpp:77] Creating layer bn4f_branch2b
I0628 16:44:44.215685  1442 net.cpp:84] Creating Layer bn4f_branch2b
I0628 16:44:44.215690  1442 net.cpp:406] bn4f_branch2b <- res4f_branch2b
I0628 16:44:44.215697  1442 net.cpp:367] bn4f_branch2b -> res4f_branch2b (in-place)
I0628 16:44:44.215966  1442 net.cpp:122] Setting up bn4f_branch2b
I0628 16:44:44.215982  1442 net.cpp:129] Top shape: 8 256 14 14 (401408)
I0628 16:44:44.215986  1442 net.cpp:137] Memory required for data: 1716420768
I0628 16:44:44.215996  1442 layer_factory.hpp:77] Creating layer scale4f_branch2b
I0628 16:44:44.216004  1442 net.cpp:84] Creating Layer scale4f_branch2b
I0628 16:44:44.216012  1442 net.cpp:406] scale4f_branch2b <- res4f_branch2b
I0628 16:44:44.216017  1442 net.cpp:367] scale4f_branch2b -> res4f_branch2b (in-place)
I0628 16:44:44.216078  1442 layer_factory.hpp:77] Creating layer scale4f_branch2b
I0628 16:44:44.216255  1442 net.cpp:122] Setting up scale4f_branch2b
I0628 16:44:44.216271  1442 net.cpp:129] Top shape: 8 256 14 14 (401408)
I0628 16:44:44.216274  1442 net.cpp:137] Memory required for data: 1718026400
I0628 16:44:44.216281  1442 layer_factory.hpp:77] Creating layer res4f_branch2b_relu
I0628 16:44:44.216289  1442 net.cpp:84] Creating Layer res4f_branch2b_relu
I0628 16:44:44.216292  1442 net.cpp:406] res4f_branch2b_relu <- res4f_branch2b
I0628 16:44:44.216300  1442 net.cpp:367] res4f_branch2b_relu -> res4f_branch2b (in-place)
I0628 16:44:44.216480  1442 net.cpp:122] Setting up res4f_branch2b_relu
I0628 16:44:44.216496  1442 net.cpp:129] Top shape: 8 256 14 14 (401408)
I0628 16:44:44.216500  1442 net.cpp:137] Memory required for data: 1719632032
I0628 16:44:44.216505  1442 layer_factory.hpp:77] Creating layer res4f_branch2c
I0628 16:44:44.216517  1442 net.cpp:84] Creating Layer res4f_branch2c
I0628 16:44:44.216522  1442 net.cpp:406] res4f_branch2c <- res4f_branch2b
I0628 16:44:44.216528  1442 net.cpp:380] res4f_branch2c -> res4f_branch2c
I0628 16:44:44.218150  1442 net.cpp:122] Setting up res4f_branch2c
I0628 16:44:44.218170  1442 net.cpp:129] Top shape: 8 1024 14 14 (1605632)
I0628 16:44:44.218174  1442 net.cpp:137] Memory required for data: 1726054560
I0628 16:44:44.218180  1442 layer_factory.hpp:77] Creating layer bn4f_branch2c
I0628 16:44:44.218214  1442 net.cpp:84] Creating Layer bn4f_branch2c
I0628 16:44:44.218219  1442 net.cpp:406] bn4f_branch2c <- res4f_branch2c
I0628 16:44:44.218225  1442 net.cpp:367] bn4f_branch2c -> res4f_branch2c (in-place)
I0628 16:44:44.218514  1442 net.cpp:122] Setting up bn4f_branch2c
I0628 16:44:44.218530  1442 net.cpp:129] Top shape: 8 1024 14 14 (1605632)
I0628 16:44:44.218534  1442 net.cpp:137] Memory required for data: 1732477088
I0628 16:44:44.218588  1442 layer_factory.hpp:77] Creating layer scale4f_branch2c
I0628 16:44:44.218606  1442 net.cpp:84] Creating Layer scale4f_branch2c
I0628 16:44:44.218611  1442 net.cpp:406] scale4f_branch2c <- res4f_branch2c
I0628 16:44:44.218617  1442 net.cpp:367] scale4f_branch2c -> res4f_branch2c (in-place)
I0628 16:44:44.218674  1442 layer_factory.hpp:77] Creating layer scale4f_branch2c
I0628 16:44:44.218844  1442 net.cpp:122] Setting up scale4f_branch2c
I0628 16:44:44.218859  1442 net.cpp:129] Top shape: 8 1024 14 14 (1605632)
I0628 16:44:44.218863  1442 net.cpp:137] Memory required for data: 1738899616
I0628 16:44:44.218870  1442 layer_factory.hpp:77] Creating layer res4f
I0628 16:44:44.218879  1442 net.cpp:84] Creating Layer res4f
I0628 16:44:44.218884  1442 net.cpp:406] res4f <- res4e_res4e_relu_0_split_1
I0628 16:44:44.218888  1442 net.cpp:406] res4f <- res4f_branch2c
I0628 16:44:44.218894  1442 net.cpp:380] res4f -> res4f
I0628 16:44:44.218933  1442 net.cpp:122] Setting up res4f
I0628 16:44:44.218947  1442 net.cpp:129] Top shape: 8 1024 14 14 (1605632)
I0628 16:44:44.218952  1442 net.cpp:137] Memory required for data: 1745322144
I0628 16:44:44.218956  1442 layer_factory.hpp:77] Creating layer res4f_relu
I0628 16:44:44.218974  1442 net.cpp:84] Creating Layer res4f_relu
I0628 16:44:44.218984  1442 net.cpp:406] res4f_relu <- res4f
I0628 16:44:44.219002  1442 net.cpp:367] res4f_relu -> res4f (in-place)
I0628 16:44:44.219290  1442 net.cpp:122] Setting up res4f_relu
I0628 16:44:44.219308  1442 net.cpp:129] Top shape: 8 1024 14 14 (1605632)
I0628 16:44:44.219312  1442 net.cpp:137] Memory required for data: 1751744672
I0628 16:44:44.219322  1442 layer_factory.hpp:77] Creating layer res4f_res4f_relu_0_split
I0628 16:44:44.219331  1442 net.cpp:84] Creating Layer res4f_res4f_relu_0_split
I0628 16:44:44.219336  1442 net.cpp:406] res4f_res4f_relu_0_split <- res4f
I0628 16:44:44.219342  1442 net.cpp:380] res4f_res4f_relu_0_split -> res4f_res4f_relu_0_split_0
I0628 16:44:44.219349  1442 net.cpp:380] res4f_res4f_relu_0_split -> res4f_res4f_relu_0_split_1
I0628 16:44:44.219413  1442 net.cpp:122] Setting up res4f_res4f_relu_0_split
I0628 16:44:44.219429  1442 net.cpp:129] Top shape: 8 1024 14 14 (1605632)
I0628 16:44:44.219434  1442 net.cpp:129] Top shape: 8 1024 14 14 (1605632)
I0628 16:44:44.219437  1442 net.cpp:137] Memory required for data: 1764589728
I0628 16:44:44.219440  1442 layer_factory.hpp:77] Creating layer res5a_branch1
I0628 16:44:44.219452  1442 net.cpp:84] Creating Layer res5a_branch1
I0628 16:44:44.219456  1442 net.cpp:406] res5a_branch1 <- res4f_res4f_relu_0_split_0
I0628 16:44:44.219463  1442 net.cpp:380] res5a_branch1 -> res5a_branch1
I0628 16:44:44.224761  1442 net.cpp:122] Setting up res5a_branch1
I0628 16:44:44.224786  1442 net.cpp:129] Top shape: 8 2048 7 7 (802816)
I0628 16:44:44.224789  1442 net.cpp:137] Memory required for data: 1767800992
I0628 16:44:44.224797  1442 layer_factory.hpp:77] Creating layer bn5a_branch1
I0628 16:44:44.224807  1442 net.cpp:84] Creating Layer bn5a_branch1
I0628 16:44:44.224812  1442 net.cpp:406] bn5a_branch1 <- res5a_branch1
I0628 16:44:44.224817  1442 net.cpp:367] bn5a_branch1 -> res5a_branch1 (in-place)
I0628 16:44:44.225116  1442 net.cpp:122] Setting up bn5a_branch1
I0628 16:44:44.225131  1442 net.cpp:129] Top shape: 8 2048 7 7 (802816)
I0628 16:44:44.225136  1442 net.cpp:137] Memory required for data: 1771012256
I0628 16:44:44.225144  1442 layer_factory.hpp:77] Creating layer scale5a_branch1
I0628 16:44:44.225152  1442 net.cpp:84] Creating Layer scale5a_branch1
I0628 16:44:44.225155  1442 net.cpp:406] scale5a_branch1 <- res5a_branch1
I0628 16:44:44.225177  1442 net.cpp:367] scale5a_branch1 -> res5a_branch1 (in-place)
I0628 16:44:44.225239  1442 layer_factory.hpp:77] Creating layer scale5a_branch1
I0628 16:44:44.225453  1442 net.cpp:122] Setting up scale5a_branch1
I0628 16:44:44.225476  1442 net.cpp:129] Top shape: 8 2048 7 7 (802816)
I0628 16:44:44.225483  1442 net.cpp:137] Memory required for data: 1774223520
I0628 16:44:44.225495  1442 layer_factory.hpp:77] Creating layer res5a_branch2a
I0628 16:44:44.225517  1442 net.cpp:84] Creating Layer res5a_branch2a
I0628 16:44:44.225523  1442 net.cpp:406] res5a_branch2a <- res4f_res4f_relu_0_split_1
I0628 16:44:44.225530  1442 net.cpp:380] res5a_branch2a -> res5a_branch2a
I0628 16:44:44.227581  1442 net.cpp:122] Setting up res5a_branch2a
I0628 16:44:44.227601  1442 net.cpp:129] Top shape: 8 512 7 7 (200704)
I0628 16:44:44.227605  1442 net.cpp:137] Memory required for data: 1775026336
I0628 16:44:44.227612  1442 layer_factory.hpp:77] Creating layer bn5a_branch2a
I0628 16:44:44.227622  1442 net.cpp:84] Creating Layer bn5a_branch2a
I0628 16:44:44.227627  1442 net.cpp:406] bn5a_branch2a <- res5a_branch2a
I0628 16:44:44.227632  1442 net.cpp:367] bn5a_branch2a -> res5a_branch2a (in-place)
I0628 16:44:44.227929  1442 net.cpp:122] Setting up bn5a_branch2a
I0628 16:44:44.227944  1442 net.cpp:129] Top shape: 8 512 7 7 (200704)
I0628 16:44:44.227948  1442 net.cpp:137] Memory required for data: 1775829152
I0628 16:44:44.227957  1442 layer_factory.hpp:77] Creating layer scale5a_branch2a
I0628 16:44:44.227964  1442 net.cpp:84] Creating Layer scale5a_branch2a
I0628 16:44:44.227968  1442 net.cpp:406] scale5a_branch2a <- res5a_branch2a
I0628 16:44:44.227977  1442 net.cpp:367] scale5a_branch2a -> res5a_branch2a (in-place)
I0628 16:44:44.228032  1442 layer_factory.hpp:77] Creating layer scale5a_branch2a
I0628 16:44:44.228209  1442 net.cpp:122] Setting up scale5a_branch2a
I0628 16:44:44.228226  1442 net.cpp:129] Top shape: 8 512 7 7 (200704)
I0628 16:44:44.228230  1442 net.cpp:137] Memory required for data: 1776631968
I0628 16:44:44.228237  1442 layer_factory.hpp:77] Creating layer res5a_branch2a_relu
I0628 16:44:44.228245  1442 net.cpp:84] Creating Layer res5a_branch2a_relu
I0628 16:44:44.228248  1442 net.cpp:406] res5a_branch2a_relu <- res5a_branch2a
I0628 16:44:44.228253  1442 net.cpp:367] res5a_branch2a_relu -> res5a_branch2a (in-place)
I0628 16:44:44.228546  1442 net.cpp:122] Setting up res5a_branch2a_relu
I0628 16:44:44.228565  1442 net.cpp:129] Top shape: 8 512 7 7 (200704)
I0628 16:44:44.228569  1442 net.cpp:137] Memory required for data: 1777434784
I0628 16:44:44.228574  1442 layer_factory.hpp:77] Creating layer res5a_branch2b
I0628 16:44:44.228585  1442 net.cpp:84] Creating Layer res5a_branch2b
I0628 16:44:44.228590  1442 net.cpp:406] res5a_branch2b <- res5a_branch2a
I0628 16:44:44.228597  1442 net.cpp:380] res5a_branch2b -> res5a_branch2b
I0628 16:44:44.234458  1442 net.cpp:122] Setting up res5a_branch2b
I0628 16:44:44.234484  1442 net.cpp:129] Top shape: 8 512 7 7 (200704)
I0628 16:44:44.234489  1442 net.cpp:137] Memory required for data: 1778237600
I0628 16:44:44.234496  1442 layer_factory.hpp:77] Creating layer bn5a_branch2b
I0628 16:44:44.234508  1442 net.cpp:84] Creating Layer bn5a_branch2b
I0628 16:44:44.234513  1442 net.cpp:406] bn5a_branch2b <- res5a_branch2b
I0628 16:44:44.234519  1442 net.cpp:367] bn5a_branch2b -> res5a_branch2b (in-place)
I0628 16:44:44.234799  1442 net.cpp:122] Setting up bn5a_branch2b
I0628 16:44:44.234815  1442 net.cpp:129] Top shape: 8 512 7 7 (200704)
I0628 16:44:44.234819  1442 net.cpp:137] Memory required for data: 1779040416
I0628 16:44:44.234830  1442 layer_factory.hpp:77] Creating layer scale5a_branch2b
I0628 16:44:44.234838  1442 net.cpp:84] Creating Layer scale5a_branch2b
I0628 16:44:44.234853  1442 net.cpp:406] scale5a_branch2b <- res5a_branch2b
I0628 16:44:44.234859  1442 net.cpp:367] scale5a_branch2b -> res5a_branch2b (in-place)
I0628 16:44:44.234920  1442 layer_factory.hpp:77] Creating layer scale5a_branch2b
I0628 16:44:44.235116  1442 net.cpp:122] Setting up scale5a_branch2b
I0628 16:44:44.235147  1442 net.cpp:129] Top shape: 8 512 7 7 (200704)
I0628 16:44:44.235152  1442 net.cpp:137] Memory required for data: 1779843232
I0628 16:44:44.235158  1442 layer_factory.hpp:77] Creating layer res5a_branch2b_relu
I0628 16:44:44.235168  1442 net.cpp:84] Creating Layer res5a_branch2b_relu
I0628 16:44:44.235174  1442 net.cpp:406] res5a_branch2b_relu <- res5a_branch2b
I0628 16:44:44.235180  1442 net.cpp:367] res5a_branch2b_relu -> res5a_branch2b (in-place)
I0628 16:44:44.235352  1442 net.cpp:122] Setting up res5a_branch2b_relu
I0628 16:44:44.235369  1442 net.cpp:129] Top shape: 8 512 7 7 (200704)
I0628 16:44:44.235373  1442 net.cpp:137] Memory required for data: 1780646048
I0628 16:44:44.235378  1442 layer_factory.hpp:77] Creating layer res5a_branch2c
I0628 16:44:44.235388  1442 net.cpp:84] Creating Layer res5a_branch2c
I0628 16:44:44.235394  1442 net.cpp:406] res5a_branch2c <- res5a_branch2b
I0628 16:44:44.235400  1442 net.cpp:380] res5a_branch2c -> res5a_branch2c
I0628 16:44:44.238621  1442 net.cpp:122] Setting up res5a_branch2c
I0628 16:44:44.238646  1442 net.cpp:129] Top shape: 8 2048 7 7 (802816)
I0628 16:44:44.238651  1442 net.cpp:137] Memory required for data: 1783857312
I0628 16:44:44.238657  1442 layer_factory.hpp:77] Creating layer bn5a_branch2c
I0628 16:44:44.238664  1442 net.cpp:84] Creating Layer bn5a_branch2c
I0628 16:44:44.238669  1442 net.cpp:406] bn5a_branch2c <- res5a_branch2c
I0628 16:44:44.238675  1442 net.cpp:367] bn5a_branch2c -> res5a_branch2c (in-place)
I0628 16:44:44.238988  1442 net.cpp:122] Setting up bn5a_branch2c
I0628 16:44:44.239004  1442 net.cpp:129] Top shape: 8 2048 7 7 (802816)
I0628 16:44:44.239008  1442 net.cpp:137] Memory required for data: 1787068576
I0628 16:44:44.239017  1442 layer_factory.hpp:77] Creating layer scale5a_branch2c
I0628 16:44:44.239024  1442 net.cpp:84] Creating Layer scale5a_branch2c
I0628 16:44:44.239029  1442 net.cpp:406] scale5a_branch2c <- res5a_branch2c
I0628 16:44:44.239035  1442 net.cpp:367] scale5a_branch2c -> res5a_branch2c (in-place)
I0628 16:44:44.239111  1442 layer_factory.hpp:77] Creating layer scale5a_branch2c
I0628 16:44:44.239301  1442 net.cpp:122] Setting up scale5a_branch2c
I0628 16:44:44.239317  1442 net.cpp:129] Top shape: 8 2048 7 7 (802816)
I0628 16:44:44.239321  1442 net.cpp:137] Memory required for data: 1790279840
I0628 16:44:44.239328  1442 layer_factory.hpp:77] Creating layer res5a
I0628 16:44:44.239338  1442 net.cpp:84] Creating Layer res5a
I0628 16:44:44.239343  1442 net.cpp:406] res5a <- res5a_branch1
I0628 16:44:44.239351  1442 net.cpp:406] res5a <- res5a_branch2c
I0628 16:44:44.239356  1442 net.cpp:380] res5a -> res5a
I0628 16:44:44.239409  1442 net.cpp:122] Setting up res5a
I0628 16:44:44.239424  1442 net.cpp:129] Top shape: 8 2048 7 7 (802816)
I0628 16:44:44.239428  1442 net.cpp:137] Memory required for data: 1793491104
I0628 16:44:44.239433  1442 layer_factory.hpp:77] Creating layer res5a_relu
I0628 16:44:44.239439  1442 net.cpp:84] Creating Layer res5a_relu
I0628 16:44:44.239444  1442 net.cpp:406] res5a_relu <- res5a
I0628 16:44:44.239450  1442 net.cpp:367] res5a_relu -> res5a (in-place)
I0628 16:44:44.239733  1442 net.cpp:122] Setting up res5a_relu
I0628 16:44:44.239751  1442 net.cpp:129] Top shape: 8 2048 7 7 (802816)
I0628 16:44:44.239755  1442 net.cpp:137] Memory required for data: 1796702368
I0628 16:44:44.239759  1442 layer_factory.hpp:77] Creating layer res5a_res5a_relu_0_split
I0628 16:44:44.239766  1442 net.cpp:84] Creating Layer res5a_res5a_relu_0_split
I0628 16:44:44.239770  1442 net.cpp:406] res5a_res5a_relu_0_split <- res5a
I0628 16:44:44.239776  1442 net.cpp:380] res5a_res5a_relu_0_split -> res5a_res5a_relu_0_split_0
I0628 16:44:44.239784  1442 net.cpp:380] res5a_res5a_relu_0_split -> res5a_res5a_relu_0_split_1
I0628 16:44:44.239846  1442 net.cpp:122] Setting up res5a_res5a_relu_0_split
I0628 16:44:44.239861  1442 net.cpp:129] Top shape: 8 2048 7 7 (802816)
I0628 16:44:44.239866  1442 net.cpp:129] Top shape: 8 2048 7 7 (802816)
I0628 16:44:44.239871  1442 net.cpp:137] Memory required for data: 1803124896
I0628 16:44:44.239886  1442 layer_factory.hpp:77] Creating layer my_res5b_branch2a
I0628 16:44:44.239899  1442 net.cpp:84] Creating Layer my_res5b_branch2a
I0628 16:44:44.239909  1442 net.cpp:406] my_res5b_branch2a <- res5a_res5a_relu_0_split_0
I0628 16:44:44.239919  1442 net.cpp:380] my_res5b_branch2a -> my_res5b_branch2a
I0628 16:44:44.243193  1442 net.cpp:122] Setting up my_res5b_branch2a
I0628 16:44:44.243218  1442 net.cpp:129] Top shape: 8 512 7 7 (200704)
I0628 16:44:44.243222  1442 net.cpp:137] Memory required for data: 1803927712
I0628 16:44:44.243229  1442 layer_factory.hpp:77] Creating layer my_bn5b_branch2a
I0628 16:44:44.243240  1442 net.cpp:84] Creating Layer my_bn5b_branch2a
I0628 16:44:44.243245  1442 net.cpp:406] my_bn5b_branch2a <- my_res5b_branch2a
I0628 16:44:44.243252  1442 net.cpp:367] my_bn5b_branch2a -> my_res5b_branch2a (in-place)
I0628 16:44:44.243543  1442 net.cpp:122] Setting up my_bn5b_branch2a
I0628 16:44:44.243559  1442 net.cpp:129] Top shape: 8 512 7 7 (200704)
I0628 16:44:44.243566  1442 net.cpp:137] Memory required for data: 1804730528
I0628 16:44:44.243574  1442 layer_factory.hpp:77] Creating layer my_scale5b_branch2a
I0628 16:44:44.243584  1442 net.cpp:84] Creating Layer my_scale5b_branch2a
I0628 16:44:44.243590  1442 net.cpp:406] my_scale5b_branch2a <- my_res5b_branch2a
I0628 16:44:44.243597  1442 net.cpp:367] my_scale5b_branch2a -> my_res5b_branch2a (in-place)
I0628 16:44:44.243659  1442 layer_factory.hpp:77] Creating layer my_scale5b_branch2a
I0628 16:44:44.243844  1442 net.cpp:122] Setting up my_scale5b_branch2a
I0628 16:44:44.243860  1442 net.cpp:129] Top shape: 8 512 7 7 (200704)
I0628 16:44:44.243865  1442 net.cpp:137] Memory required for data: 1805533344
I0628 16:44:44.243870  1442 layer_factory.hpp:77] Creating layer my_res5b_branch2a_relu
I0628 16:44:44.243877  1442 net.cpp:84] Creating Layer my_res5b_branch2a_relu
I0628 16:44:44.243881  1442 net.cpp:406] my_res5b_branch2a_relu <- my_res5b_branch2a
I0628 16:44:44.243890  1442 net.cpp:367] my_res5b_branch2a_relu -> my_res5b_branch2a (in-place)
I0628 16:44:44.244174  1442 net.cpp:122] Setting up my_res5b_branch2a_relu
I0628 16:44:44.244194  1442 net.cpp:129] Top shape: 8 512 7 7 (200704)
I0628 16:44:44.244199  1442 net.cpp:137] Memory required for data: 1806336160
I0628 16:44:44.244204  1442 layer_factory.hpp:77] Creating layer my_res5b_branch2b
I0628 16:44:44.244212  1442 net.cpp:84] Creating Layer my_res5b_branch2b
I0628 16:44:44.244216  1442 net.cpp:406] my_res5b_branch2b <- my_res5b_branch2a
I0628 16:44:44.244225  1442 net.cpp:380] my_res5b_branch2b -> my_res5b_branch2b
I0628 16:44:44.250303  1442 net.cpp:122] Setting up my_res5b_branch2b
I0628 16:44:44.250347  1442 net.cpp:129] Top shape: 8 512 7 7 (200704)
I0628 16:44:44.250351  1442 net.cpp:137] Memory required for data: 1807138976
I0628 16:44:44.250360  1442 layer_factory.hpp:77] Creating layer my_bn5b_branch2b
I0628 16:44:44.250370  1442 net.cpp:84] Creating Layer my_bn5b_branch2b
I0628 16:44:44.250375  1442 net.cpp:406] my_bn5b_branch2b <- my_res5b_branch2b
I0628 16:44:44.250385  1442 net.cpp:367] my_bn5b_branch2b -> my_res5b_branch2b (in-place)
I0628 16:44:44.250690  1442 net.cpp:122] Setting up my_bn5b_branch2b
I0628 16:44:44.250706  1442 net.cpp:129] Top shape: 8 512 7 7 (200704)
I0628 16:44:44.250710  1442 net.cpp:137] Memory required for data: 1807941792
I0628 16:44:44.250720  1442 layer_factory.hpp:77] Creating layer my_scale5b_branch2b
I0628 16:44:44.250727  1442 net.cpp:84] Creating Layer my_scale5b_branch2b
I0628 16:44:44.250731  1442 net.cpp:406] my_scale5b_branch2b <- my_res5b_branch2b
I0628 16:44:44.250737  1442 net.cpp:367] my_scale5b_branch2b -> my_res5b_branch2b (in-place)
I0628 16:44:44.250804  1442 layer_factory.hpp:77] Creating layer my_scale5b_branch2b
I0628 16:44:44.251031  1442 net.cpp:122] Setting up my_scale5b_branch2b
I0628 16:44:44.251049  1442 net.cpp:129] Top shape: 8 512 7 7 (200704)
I0628 16:44:44.251054  1442 net.cpp:137] Memory required for data: 1808744608
I0628 16:44:44.251060  1442 layer_factory.hpp:77] Creating layer my_res5b_branch2b_relu
I0628 16:44:44.251098  1442 net.cpp:84] Creating Layer my_res5b_branch2b_relu
I0628 16:44:44.251112  1442 net.cpp:406] my_res5b_branch2b_relu <- my_res5b_branch2b
I0628 16:44:44.251122  1442 net.cpp:367] my_res5b_branch2b_relu -> my_res5b_branch2b (in-place)
I0628 16:44:44.251304  1442 net.cpp:122] Setting up my_res5b_branch2b_relu
I0628 16:44:44.251332  1442 net.cpp:129] Top shape: 8 512 7 7 (200704)
I0628 16:44:44.251335  1442 net.cpp:137] Memory required for data: 1809547424
I0628 16:44:44.251339  1442 layer_factory.hpp:77] Creating layer my_res5b_branch2c
I0628 16:44:44.251353  1442 net.cpp:84] Creating Layer my_res5b_branch2c
I0628 16:44:44.251356  1442 net.cpp:406] my_res5b_branch2c <- my_res5b_branch2b
I0628 16:44:44.251364  1442 net.cpp:380] my_res5b_branch2c -> my_res5b_branch2c
I0628 16:44:44.254603  1442 net.cpp:122] Setting up my_res5b_branch2c
I0628 16:44:44.254624  1442 net.cpp:129] Top shape: 8 2048 7 7 (802816)
I0628 16:44:44.254628  1442 net.cpp:137] Memory required for data: 1812758688
I0628 16:44:44.254636  1442 layer_factory.hpp:77] Creating layer my_bn5b_branch2c
I0628 16:44:44.254647  1442 net.cpp:84] Creating Layer my_bn5b_branch2c
I0628 16:44:44.254654  1442 net.cpp:406] my_bn5b_branch2c <- my_res5b_branch2c
I0628 16:44:44.254660  1442 net.cpp:367] my_bn5b_branch2c -> my_res5b_branch2c (in-place)
I0628 16:44:44.254987  1442 net.cpp:122] Setting up my_bn5b_branch2c
I0628 16:44:44.255003  1442 net.cpp:129] Top shape: 8 2048 7 7 (802816)
I0628 16:44:44.255007  1442 net.cpp:137] Memory required for data: 1815969952
I0628 16:44:44.255017  1442 layer_factory.hpp:77] Creating layer my_scale5b_branch2c
I0628 16:44:44.255023  1442 net.cpp:84] Creating Layer my_scale5b_branch2c
I0628 16:44:44.255028  1442 net.cpp:406] my_scale5b_branch2c <- my_res5b_branch2c
I0628 16:44:44.255033  1442 net.cpp:367] my_scale5b_branch2c -> my_res5b_branch2c (in-place)
I0628 16:44:44.255096  1442 layer_factory.hpp:77] Creating layer my_scale5b_branch2c
I0628 16:44:44.255287  1442 net.cpp:122] Setting up my_scale5b_branch2c
I0628 16:44:44.255303  1442 net.cpp:129] Top shape: 8 2048 7 7 (802816)
I0628 16:44:44.255307  1442 net.cpp:137] Memory required for data: 1819181216
I0628 16:44:44.255314  1442 layer_factory.hpp:77] Creating layer my_res5b
I0628 16:44:44.255329  1442 net.cpp:84] Creating Layer my_res5b
I0628 16:44:44.255339  1442 net.cpp:406] my_res5b <- res5a_res5a_relu_0_split_1
I0628 16:44:44.255345  1442 net.cpp:406] my_res5b <- my_res5b_branch2c
I0628 16:44:44.255350  1442 net.cpp:380] my_res5b -> my_res5b
I0628 16:44:44.255390  1442 net.cpp:122] Setting up my_res5b
I0628 16:44:44.255419  1442 net.cpp:129] Top shape: 8 2048 7 7 (802816)
I0628 16:44:44.255422  1442 net.cpp:137] Memory required for data: 1822392480
I0628 16:44:44.255426  1442 layer_factory.hpp:77] Creating layer my_res5b_relu
I0628 16:44:44.255432  1442 net.cpp:84] Creating Layer my_res5b_relu
I0628 16:44:44.255436  1442 net.cpp:406] my_res5b_relu <- my_res5b
I0628 16:44:44.255444  1442 net.cpp:367] my_res5b_relu -> my_res5b (in-place)
I0628 16:44:44.255731  1442 net.cpp:122] Setting up my_res5b_relu
I0628 16:44:44.255749  1442 net.cpp:129] Top shape: 8 2048 7 7 (802816)
I0628 16:44:44.255753  1442 net.cpp:137] Memory required for data: 1825603744
I0628 16:44:44.255758  1442 layer_factory.hpp:77] Creating layer my_res5b_my_res5b_relu_0_split
I0628 16:44:44.255764  1442 net.cpp:84] Creating Layer my_res5b_my_res5b_relu_0_split
I0628 16:44:44.255769  1442 net.cpp:406] my_res5b_my_res5b_relu_0_split <- my_res5b
I0628 16:44:44.255777  1442 net.cpp:380] my_res5b_my_res5b_relu_0_split -> my_res5b_my_res5b_relu_0_split_0
I0628 16:44:44.255784  1442 net.cpp:380] my_res5b_my_res5b_relu_0_split -> my_res5b_my_res5b_relu_0_split_1
I0628 16:44:44.255847  1442 net.cpp:122] Setting up my_res5b_my_res5b_relu_0_split
I0628 16:44:44.255862  1442 net.cpp:129] Top shape: 8 2048 7 7 (802816)
I0628 16:44:44.255867  1442 net.cpp:129] Top shape: 8 2048 7 7 (802816)
I0628 16:44:44.255872  1442 net.cpp:137] Memory required for data: 1832026272
I0628 16:44:44.255889  1442 layer_factory.hpp:77] Creating layer my_res5c_branch2a
I0628 16:44:44.255906  1442 net.cpp:84] Creating Layer my_res5c_branch2a
I0628 16:44:44.255918  1442 net.cpp:406] my_res5c_branch2a <- my_res5b_my_res5b_relu_0_split_0
I0628 16:44:44.255924  1442 net.cpp:380] my_res5c_branch2a -> my_res5c_branch2a
I0628 16:44:44.259091  1442 net.cpp:122] Setting up my_res5c_branch2a
I0628 16:44:44.259112  1442 net.cpp:129] Top shape: 8 512 7 7 (200704)
I0628 16:44:44.259117  1442 net.cpp:137] Memory required for data: 1832829088
I0628 16:44:44.259124  1442 layer_factory.hpp:77] Creating layer my_bn5c_branch2a
I0628 16:44:44.259135  1442 net.cpp:84] Creating Layer my_bn5c_branch2a
I0628 16:44:44.259140  1442 net.cpp:406] my_bn5c_branch2a <- my_res5c_branch2a
I0628 16:44:44.259147  1442 net.cpp:367] my_bn5c_branch2a -> my_res5c_branch2a (in-place)
I0628 16:44:44.259464  1442 net.cpp:122] Setting up my_bn5c_branch2a
I0628 16:44:44.259479  1442 net.cpp:129] Top shape: 8 512 7 7 (200704)
I0628 16:44:44.259483  1442 net.cpp:137] Memory required for data: 1833631904
I0628 16:44:44.259492  1442 layer_factory.hpp:77] Creating layer my_scale5c_branch2a
I0628 16:44:44.259500  1442 net.cpp:84] Creating Layer my_scale5c_branch2a
I0628 16:44:44.259503  1442 net.cpp:406] my_scale5c_branch2a <- my_res5c_branch2a
I0628 16:44:44.259511  1442 net.cpp:367] my_scale5c_branch2a -> my_res5c_branch2a (in-place)
I0628 16:44:44.259570  1442 layer_factory.hpp:77] Creating layer my_scale5c_branch2a
I0628 16:44:44.259760  1442 net.cpp:122] Setting up my_scale5c_branch2a
I0628 16:44:44.259778  1442 net.cpp:129] Top shape: 8 512 7 7 (200704)
I0628 16:44:44.259783  1442 net.cpp:137] Memory required for data: 1834434720
I0628 16:44:44.259789  1442 layer_factory.hpp:77] Creating layer my_res5c_branch2a_relu
I0628 16:44:44.259795  1442 net.cpp:84] Creating Layer my_res5c_branch2a_relu
I0628 16:44:44.259799  1442 net.cpp:406] my_res5c_branch2a_relu <- my_res5c_branch2a
I0628 16:44:44.259804  1442 net.cpp:367] my_res5c_branch2a_relu -> my_res5c_branch2a (in-place)
I0628 16:44:44.260133  1442 net.cpp:122] Setting up my_res5c_branch2a_relu
I0628 16:44:44.260152  1442 net.cpp:129] Top shape: 8 512 7 7 (200704)
I0628 16:44:44.260156  1442 net.cpp:137] Memory required for data: 1835237536
I0628 16:44:44.260160  1442 layer_factory.hpp:77] Creating layer my_res5c_branch2b
I0628 16:44:44.260171  1442 net.cpp:84] Creating Layer my_res5c_branch2b
I0628 16:44:44.260176  1442 net.cpp:406] my_res5c_branch2b <- my_res5c_branch2a
I0628 16:44:44.260184  1442 net.cpp:380] my_res5c_branch2b -> my_res5c_branch2b
I0628 16:44:44.266134  1442 net.cpp:122] Setting up my_res5c_branch2b
I0628 16:44:44.266160  1442 net.cpp:129] Top shape: 8 512 7 7 (200704)
I0628 16:44:44.266163  1442 net.cpp:137] Memory required for data: 1836040352
I0628 16:44:44.266170  1442 layer_factory.hpp:77] Creating layer my_bn5c_branch2b
I0628 16:44:44.266181  1442 net.cpp:84] Creating Layer my_bn5c_branch2b
I0628 16:44:44.266186  1442 net.cpp:406] my_bn5c_branch2b <- my_res5c_branch2b
I0628 16:44:44.266192  1442 net.cpp:367] my_bn5c_branch2b -> my_res5c_branch2b (in-place)
I0628 16:44:44.266567  1442 net.cpp:122] Setting up my_bn5c_branch2b
I0628 16:44:44.266587  1442 net.cpp:129] Top shape: 8 512 7 7 (200704)
I0628 16:44:44.266592  1442 net.cpp:137] Memory required for data: 1836843168
I0628 16:44:44.266600  1442 layer_factory.hpp:77] Creating layer my_scale5c_branch2b
I0628 16:44:44.266608  1442 net.cpp:84] Creating Layer my_scale5c_branch2b
I0628 16:44:44.266615  1442 net.cpp:406] my_scale5c_branch2b <- my_res5c_branch2b
I0628 16:44:44.266621  1442 net.cpp:367] my_scale5c_branch2b -> my_res5c_branch2b (in-place)
I0628 16:44:44.266691  1442 layer_factory.hpp:77] Creating layer my_scale5c_branch2b
I0628 16:44:44.266885  1442 net.cpp:122] Setting up my_scale5c_branch2b
I0628 16:44:44.266901  1442 net.cpp:129] Top shape: 8 512 7 7 (200704)
I0628 16:44:44.266904  1442 net.cpp:137] Memory required for data: 1837645984
I0628 16:44:44.266911  1442 layer_factory.hpp:77] Creating layer my_res5c_branch2b_relu
I0628 16:44:44.266938  1442 net.cpp:84] Creating Layer my_res5c_branch2b_relu
I0628 16:44:44.266947  1442 net.cpp:406] my_res5c_branch2b_relu <- my_res5c_branch2b
I0628 16:44:44.266953  1442 net.cpp:367] my_res5c_branch2b_relu -> my_res5c_branch2b (in-place)
I0628 16:44:44.267141  1442 net.cpp:122] Setting up my_res5c_branch2b_relu
I0628 16:44:44.267158  1442 net.cpp:129] Top shape: 8 512 7 7 (200704)
I0628 16:44:44.267163  1442 net.cpp:137] Memory required for data: 1838448800
I0628 16:44:44.267166  1442 layer_factory.hpp:77] Creating layer my_res5c_branch2c
I0628 16:44:44.267179  1442 net.cpp:84] Creating Layer my_res5c_branch2c
I0628 16:44:44.267184  1442 net.cpp:406] my_res5c_branch2c <- my_res5c_branch2b
I0628 16:44:44.267189  1442 net.cpp:380] my_res5c_branch2c -> my_res5c_branch2c
I0628 16:44:44.270431  1442 net.cpp:122] Setting up my_res5c_branch2c
I0628 16:44:44.270453  1442 net.cpp:129] Top shape: 8 2048 7 7 (802816)
I0628 16:44:44.270457  1442 net.cpp:137] Memory required for data: 1841660064
I0628 16:44:44.270464  1442 layer_factory.hpp:77] Creating layer my_bn5c_branch2c
I0628 16:44:44.270473  1442 net.cpp:84] Creating Layer my_bn5c_branch2c
I0628 16:44:44.270476  1442 net.cpp:406] my_bn5c_branch2c <- my_res5c_branch2c
I0628 16:44:44.270483  1442 net.cpp:367] my_bn5c_branch2c -> my_res5c_branch2c (in-place)
I0628 16:44:44.270802  1442 net.cpp:122] Setting up my_bn5c_branch2c
I0628 16:44:44.270818  1442 net.cpp:129] Top shape: 8 2048 7 7 (802816)
I0628 16:44:44.270823  1442 net.cpp:137] Memory required for data: 1844871328
I0628 16:44:44.270830  1442 layer_factory.hpp:77] Creating layer my_scale5c_branch2c
I0628 16:44:44.270838  1442 net.cpp:84] Creating Layer my_scale5c_branch2c
I0628 16:44:44.270843  1442 net.cpp:406] my_scale5c_branch2c <- my_res5c_branch2c
I0628 16:44:44.270848  1442 net.cpp:367] my_scale5c_branch2c -> my_res5c_branch2c (in-place)
I0628 16:44:44.270915  1442 layer_factory.hpp:77] Creating layer my_scale5c_branch2c
I0628 16:44:44.271134  1442 net.cpp:122] Setting up my_scale5c_branch2c
I0628 16:44:44.271152  1442 net.cpp:129] Top shape: 8 2048 7 7 (802816)
I0628 16:44:44.271155  1442 net.cpp:137] Memory required for data: 1848082592
I0628 16:44:44.271162  1442 layer_factory.hpp:77] Creating layer my_res5c
I0628 16:44:44.271172  1442 net.cpp:84] Creating Layer my_res5c
I0628 16:44:44.271176  1442 net.cpp:406] my_res5c <- my_res5b_my_res5b_relu_0_split_1
I0628 16:44:44.271181  1442 net.cpp:406] my_res5c <- my_res5c_branch2c
I0628 16:44:44.271186  1442 net.cpp:380] my_res5c -> my_res5c
I0628 16:44:44.271230  1442 net.cpp:122] Setting up my_res5c
I0628 16:44:44.271239  1442 net.cpp:129] Top shape: 8 2048 7 7 (802816)
I0628 16:44:44.271242  1442 net.cpp:137] Memory required for data: 1851293856
I0628 16:44:44.271246  1442 layer_factory.hpp:77] Creating layer my_res5c_relu
I0628 16:44:44.271251  1442 net.cpp:84] Creating Layer my_res5c_relu
I0628 16:44:44.271256  1442 net.cpp:406] my_res5c_relu <- my_res5c
I0628 16:44:44.271263  1442 net.cpp:367] my_res5c_relu -> my_res5c (in-place)
I0628 16:44:44.271764  1442 net.cpp:122] Setting up my_res5c_relu
I0628 16:44:44.271781  1442 net.cpp:129] Top shape: 8 2048 7 7 (802816)
I0628 16:44:44.271785  1442 net.cpp:137] Memory required for data: 1854505120
I0628 16:44:44.271790  1442 layer_factory.hpp:77] Creating layer my_pool5
I0628 16:44:44.271797  1442 net.cpp:84] Creating Layer my_pool5
I0628 16:44:44.271801  1442 net.cpp:406] my_pool5 <- my_res5c
I0628 16:44:44.271807  1442 net.cpp:380] my_pool5 -> my_pool5
I0628 16:44:44.272541  1442 net.cpp:122] Setting up my_pool5
I0628 16:44:44.272552  1442 net.cpp:129] Top shape: 8 2048 1 1 (16384)
I0628 16:44:44.272555  1442 net.cpp:137] Memory required for data: 1854570656
I0628 16:44:44.272559  1442 layer_factory.hpp:77] Creating layer my_fc1000
I0628 16:44:44.272570  1442 net.cpp:84] Creating Layer my_fc1000
I0628 16:44:44.272574  1442 net.cpp:406] my_fc1000 <- my_pool5
I0628 16:44:44.272580  1442 net.cpp:380] my_fc1000 -> my_fc1000
I0628 16:44:44.272785  1442 net.cpp:122] Setting up my_fc1000
I0628 16:44:44.272807  1442 net.cpp:129] Top shape: 8 50 (400)
I0628 16:44:44.272811  1442 net.cpp:137] Memory required for data: 1854572256
I0628 16:44:44.272821  1442 layer_factory.hpp:77] Creating layer my_fc1000_my_fc1000_0_split
I0628 16:44:44.272831  1442 net.cpp:84] Creating Layer my_fc1000_my_fc1000_0_split
I0628 16:44:44.272835  1442 net.cpp:406] my_fc1000_my_fc1000_0_split <- my_fc1000
I0628 16:44:44.272841  1442 net.cpp:380] my_fc1000_my_fc1000_0_split -> my_fc1000_my_fc1000_0_split_0
I0628 16:44:44.272850  1442 net.cpp:380] my_fc1000_my_fc1000_0_split -> my_fc1000_my_fc1000_0_split_1
I0628 16:44:44.272856  1442 net.cpp:380] my_fc1000_my_fc1000_0_split -> my_fc1000_my_fc1000_0_split_2
I0628 16:44:44.272864  1442 net.cpp:380] my_fc1000_my_fc1000_0_split -> my_fc1000_my_fc1000_0_split_3
I0628 16:44:44.272929  1442 net.cpp:122] Setting up my_fc1000_my_fc1000_0_split
I0628 16:44:44.272936  1442 net.cpp:129] Top shape: 8 50 (400)
I0628 16:44:44.272941  1442 net.cpp:129] Top shape: 8 50 (400)
I0628 16:44:44.272945  1442 net.cpp:129] Top shape: 8 50 (400)
I0628 16:44:44.272949  1442 net.cpp:129] Top shape: 8 50 (400)
I0628 16:44:44.272953  1442 net.cpp:137] Memory required for data: 1854578656
I0628 16:44:44.272956  1442 layer_factory.hpp:77] Creating layer loss
I0628 16:44:44.272964  1442 net.cpp:84] Creating Layer loss
I0628 16:44:44.272969  1442 net.cpp:406] loss <- my_fc1000_my_fc1000_0_split_0
I0628 16:44:44.272974  1442 net.cpp:406] loss <- label_input_1_split_0
I0628 16:44:44.272981  1442 net.cpp:380] loss -> loss
…
