…
I0628 16:25:47.539264  1411 net.cpp:294] The NetState phase (1) differed from the phase (0) specified by a rule in layer input
I0628 16:25:47.540602  1411 net.cpp:51] Initializing net from parameters: 
name: "ResNet-50"
state {
  phase: TEST
  level: 0
  stage: ""
}
layer {
  name: "input"
  type: "Data"
  top: "data"
  top: "label"
  include {
    phase: TEST
  }
  transform_param {
    mirror: true
    mean_file: "../../../data_subsets/subtrain2_mean.binaryproto"
  }
  data_param {
    source: "../../../data_subsets/subtrain2_lmdb"
    batch_size: 8
    backend: LMDB
  }
}
layer {
  name: "conv1"
  type: "Convolution"
  bottom: "data"
  top: "conv1"
  param {
    lr_mult: 1
    decay_mult: 1
  }
  param {
    lr_mult: 2
    decay_mult: 0
  }
  convolution_param {
    num_output: 64
    pad: 3
    kernel_size: 7
    stride: 2
  }
}
layer {
  name: "bn_conv1"
  type: "BatchNorm"
  bottom: "conv1"
  top: "conv1"
  batch_norm_param {
    use_global_stats: true
  }
}
layer {
  name: "scale_conv1"
  type: "Scale"
  bottom: "conv1"
  top: "conv1"
  scale_param {
    bias_term: true
  }
}
layer {
  name: "conv1_relu"
  type: "ReLU"
  bottom: "conv1"
  top: "conv1"
}
layer {
  name: "pool1"
  type: "Pooling"
  bottom: "conv1"
  top: "pool1"
  pooling_param {
    pool: MAX
    kernel_size: 3
    stride: 2
  }
}
layer {
  name: "res2a_branch1"
  type: "Convolution"
  bottom: "pool1"
  top: "res2a_branch1"
  param {
    lr_mult: 1
    decay_mult: 1
  }
  convolution_param {
    num_output: 256
    bias_term: false
    pad: 0
    kernel_size: 1
    stride: 1
  }
}
layer {
  name: "bn2a_branch1"
  type: "BatchNorm"
  bottom: "res2a_branch1"
  top: "res2a_branch1"
  batch_norm_param {
    use_global_stats: true
  }
}
layer {
  name: "scale2a_branch1"
  type: "Scale"
  bottom: "res2a_branch1"
  top: "res2a_branch1"
  scale_param {
    bias_term: true
  }
}
layer {
  name: "res2a_branch2a"
  type: "Convolution"
  bottom: "pool1"
  top: "res2a_branch2a"
  param {
    lr_mult: 1
    decay_mult: 1
  }
  convolution_param {
    num_output: 64
    bias_term: false
    pad: 0
    kernel_size: 1
    stride: 1
  }
}
layer {
  name: "bn2a_branch2a"
  type: "BatchNorm"
  bottom: "res2a_branch2a"
  top: "res2a_branch2a"
  batch_norm_param {
    use_global_stats: true
  }
}
layer {
  name: "scale2a_branch2a"
  type: "Scale"
  bottom: "res2a_branch2a"
  top: "res2a_branch2a"
  scale_param {
    bias_term: true
  }
}
layer {
  name: "res2a_branch2a_relu"
  type: "ReLU"
  bottom: "res2a_branch2a"
  top: "res2a_branch2a"
}
layer {
  name: "res2a_branch2b"
  type: "Convolution"
  bottom: "res2a_branch2a"
  top: "res2a_branch2b"
  param {
    lr_mult: 1
    decay_mult: 1
  }
  convolution_param {
    num_output: 64
    bias_term: false
    pad: 1
    kernel_size: 3
    stride: 1
  }
}
layer {
  name: "bn2a_branch2b"
  type: "BatchNorm"
  bottom: "res2a_branch2b"
  top: "res2a_branch2b"
  batch_norm_param {
    use_global_stats: true
  }
}
layer {
  name: "scale2a_branch2b"
  type: "Scale"
  bottom: "res2a_branch2b"
  top: "res2a_branch2b"
  scale_param {
    bias_term: true
  }
}
layer {
  name: "res2a_branch2b_relu"
  type: "ReLU"
  bottom: "res2a_branch2b"
  top: "res2a_branch2b"
}
layer {
  name: "res2a_branch2c"
  type: "Convolution"
  bottom: "res2a_branch2b"
  top: "res2a_branch2c"
  param {
    lr_mult: 1
    decay_mult: 1
  }
  convolution_param {
    num_output: 256
    bias_term: false
    pad: 0
    kernel_size: 1
    stride: 1
  }
}
layer {
  name: "bn2a_branch2c"
  type: "BatchNorm"
  bottom: "res2a_branch2c"
  top: "res2a_branch2c"
  batch_norm_param {
    use_global_stats: true
  }
}
layer {
  name: "scale2a_branch2c"
  type: "Scale"
  bottom: "res2a_branch2c"
  top: "res2a_branch2c"
  scale_param {
    bias_term: true
  }
}
layer {
  name: "res2a"
  type: "Eltwise"
  bottom: "res2a_branch1"
  bottom: "res2a_branch2c"
  top: "res2a"
}
layer {
  name: "res2a_relu"
  type: "ReLU"
  bottom: "res2a"
  top: "res2a"
}
layer {
  name: "res2b_branch2a"
  type: "Convolution"
  bottom: "res2a"
  top: "res2b_branch2a"
  param {
    lr_mult: 1
    decay_mult: 1
  }
  convolution_param {
    num_output: 64
    bias_term: false
    pad: 0
    kernel_size: 1
    stride: 1
  }
}
layer {
  name: "bn2b_branch2a"
  type: "BatchNorm"
  bottom: "res2b_branch2a"
  top: "res2b_branch2a"
  batch_norm_param {
    use_global_stats: true
  }
}
layer {
  name: "scale2b_branch2a"
  type: "Scale"
  bottom: "res2b_branch2a"
  top: "res2b_branch2a"
  scale_param {
    bias_term: true
  }
}
layer {
  name: "res2b_branch2a_relu"
  type: "ReLU"
  bottom: "res2b_branch2a"
  top: "res2b_branch2a"
}
layer {
  name: "res2b_branch2b"
  type: "Convolution"
  bottom: "res2b_branch2a"
  top: "res2b_branch2b"
  param {
    lr_mult: 1
    decay_mult: 1
  }
  convolution_param {
    num_output: 64
    bias_term: false
    pad: 1
    kernel_size: 3
    stride: 1
  }
}
layer {
  name: "bn2b_branch2b"
  type: "BatchNorm"
  bottom: "res2b_branch2b"
  top: "res2b_branch2b"
  batch_norm_param {
    use_global_stats: true
  }
}
layer {
  name: "scale2b_branch2b"
  type: "Scale"
  bottom: "res2b_branch2b"
  top: "res2b_branch2b"
  scale_param {
    bias_term: true
  }
}
layer {
  name: "res2b_branch2b_relu"
  type: "ReLU"
  bottom: "res2b_branch2b"
  top: "res2b_branch2b"
}
layer {
  name: "res2b_branch2c"
  type: "Convolution"
  bottom: "res2b_branch2b"
  top: "res2b_branch2c"
  param {
    lr_mult: 1
    decay_mult: 1
  }
  convolution_param {
    num_output: 256
    bias_term: false
    pad: 0
    kernel_size: 1
    stride: 1
  }
}
layer {
  name: "bn2b_branch2c"
  type: "BatchNorm"
  bottom: "res2b_branch2c"
  top: "res2b_branch2c"
  batch_norm_param {
    use_global_stats: true
  }
}
layer {
  name: "scale2b_branch2c"
  type: "Scale"
  bottom: "res2b_branch2c"
  top: "res2b_branch2c"
  scale_param {
    bias_term: true
  }
}
layer {
  name: "res2b"
  type: "Eltwise"
  bottom: "res2a"
  bottom: "res2b_branch2c"
  top: "res2b"
}
layer {
  name: "res2b_relu"
  type: "ReLU"
  bottom: "res2b"
  top: "res2b"
}
layer {
  name: "res2c_branch2a"
  type: "Convolution"
  bottom: "res2b"
  top: "res2c_branch2a"
  param {
    lr_mult: 1
    decay_mult: 1
  }
  convolution_param {
    num_output: 64
    bias_term: false
    pad: 0
    kernel_size: 1
    stride: 1
  }
}
layer {
  name: "bn2c_branch2a"
  type: "BatchNorm"
  bottom: "res2c_branch2a"
  top: "res2c_branch2a"
  batch_norm_param {
    use_global_stats: true
  }
}
layer {
  name: "scale2c_branch2a"
  type: "Scale"
  bottom: "res2c_branch2a"
  top: "res2c_branch2a"
  scale_param {
    bias_term: true
  }
}
layer {
  name: "res2c_branch2a_relu"
  type: "ReLU"
  bottom: "res2c_branch2a"
  top: "res2c_branch2a"
}
layer {
  name: "res2c_branch2b"
  type: "Convolution"
  bottom: "res2c_branch2a"
  top: "res2c_branch2b"
  param {
    lr_mult: 1
    decay_mult: 1
  }
  convolution_param {
    num_output: 64
    bias_term: false
    pad: 1
    kernel_size: 3
    stride: 1
  }
}
layer {
  name: "bn2c_branch2b"
  type: "BatchNorm"
  bottom: "res2c_branch2b"
  top: "res2c_branch2b"
  batch_norm_param {
    use_global_stats: true
  }
}
layer {
  name: "scale2c_branch2b"
  type: "Scale"
  bottom: "res2c_branch2b"
  top: "res2c_branch2b"
  scale_param {
    bias_term: true
  }
}
layer {
  name: "res2c_branch2b_relu"
  type: "ReLU"
  bottom: "res2c_branch2b"
  top: "res2c_branch2b"
}
layer {
  name: "res2c_branch2c"
  type: "Convolution"
  bottom: "res2c_branch2b"
  top: "res2c_branch2c"
  param {
    lr_mult: 1
    decay_mult: 1
  }
  convolution_param {
    num_output: 256
    bias_term: false
    pad: 0
    kernel_size: 1
    stride: 1
  }
}
layer {
  name: "bn2c_branch2c"
  type: "BatchNorm"
  bottom: "res2c_branch2c"
  top: "res2c_branch2c"
  batch_norm_param {
    use_global_stats: true
  }
}
layer {
  name: "scale2c_branch2c"
  type: "Scale"
  bottom: "res2c_branch2c"
  top: "res2c_branch2c"
  scale_param {
    bias_term: true
  }
}
layer {
  name: "res2c"
  type: "Eltwise"
  bottom: "res2b"
  bottom: "res2c_branch2c"
  top: "res2c"
}
layer {
  name: "res2c_relu"
  type: "ReLU"
  bottom: "res2c"
  top: "res2c"
}
layer {
  name: "res3a_branch1"
  type: "Convolution"
  bottom: "res2c"
  top: "res3a_branch1"
  param {
    lr_mult: 1
    decay_mult: 1
  }
  convolution_param {
    num_output: 512
    bias_term: false
    pad: 0
    kernel_size: 1
    stride: 2
  }
}
layer {
  name: "bn3a_branch1"
  type: "BatchNorm"
  bottom: "res3a_branch1"
  top: "res3a_branch1"
  batch_norm_param {
    use_global_stats: true
  }
}
layer {
  name: "scale3a_branch1"
  type: "Scale"
  bottom: "res3a_branch1"
  top: "res3a_branch1"
  scale_param {
    bias_term: true
  }
}
layer {
  name: "res3a_branch2a"
  type: "Convolution"
  bottom: "res2c"
  top: "res3a_branch2a"
  param {
    lr_mult: 1
    decay_mult: 1
  }
  convolution_param {
    num_output: 128
    bias_term: false
    pad: 0
    kernel_size: 1
    stride: 2
  }
}
layer {
  name: "bn3a_branch2a"
  type: "BatchNorm"
  bottom: "res3a_branch2a"
  top: "res3a_branch2a"
  batch_norm_param {
    use_global_stats: true
  }
}
layer {
  name: "scale3a_branch2a"
  type: "Scale"
  bottom: "res3a_branch2a"
  top: "res3a_branch2a"
  scale_param {
    bias_term: true
  }
}
layer {
  name: "res3a_branch2a_relu"
  type: "ReLU"
  bottom: "res3a_branch2a"
  top: "res3a_branch2a"
}
layer {
  name: "res3a_branch2b"
  type: "Convolution"
  bottom: "res3a_branch2a"
  top: "res3a_branch2b"
  param {
    lr_mult: 1
    decay_mult: 1
  }
  convolution_param {
    num_output: 128
    bias_term: false
    pad: 1
    kernel_size: 3
    stride: 1
  }
}
layer {
  name: "bn3a_branch2b"
  type: "BatchNorm"
  bottom: "res3a_branch2b"
  top: "res3a_branch2b"
  batch_norm_param {
    use_global_stats: true
  }
}
layer {
  name: "scale3a_branch2b"
  type: "Scale"
  bottom: "res3a_branch2b"
  top: "res3a_branch2b"
  scale_param {
    bias_term: true
  }
}
layer {
  name: "res3a_branch2b_relu"
  type: "ReLU"
  bottom: "res3a_branch2b"
  top: "res3a_branch2b"
}
layer {
  name: "res3a_branch2c"
  type: "Convolution"
  bottom: "res3a_branch2b"
  top: "res3a_branch2c"
  param {
    lr_mult: 1
    decay_mult: 1
  }
  convolution_param {
    num_output: 512
    bias_term: false
    pad: 0
    kernel_size: 1
    stride: 1
  }
}
layer {
  name: "bn3a_branch2c"
  type: "BatchNorm"
  bottom: "res3a_branch2c"
  top: "res3a_branch2c"
  batch_norm_param {
    use_global_stats: true
  }
}
layer {
  name: "scale3a_branch2c"
  type: "Scale"
  bottom: "res3a_branch2c"
  top: "res3a_branch2c"
  scale_param {
    bias_term: true
  }
}
layer {
  name: "res3a"
  type: "Eltwise"
  bottom: "res3a_branch1"
  bottom: "res3a_branch2c"
  top: "res3a"
}
layer {
  name: "res3a_relu"
  type: "ReLU"
  bottom: "res3a"
  top: "res3a"
}
layer {
  name: "res3b_branch2a"
  type: "Convolution"
  bottom: "res3a"
  top: "res3b_branch2a"
  param {
    lr_mult: 1
    decay_mult: 1
  }
  convolution_param {
    num_output: 128
    bias_term: false
    pad: 0
    kernel_size: 1
    stride: 1
  }
}
layer {
  name: "bn3b_branch2a"
  type: "BatchNorm"
  bottom: "res3b_branch2a"
  top: "res3b_branch2a"
  batch_norm_param {
    use_global_stats: true
  }
}
layer {
  name: "scale3b_branch2a"
  type: "Scale"
  bottom: "res3b_branch2a"
  top: "res3b_branch2a"
  scale_param {
    bias_term: true
  }
}
layer {
  name: "res3b_branch2a_relu"
  type: "ReLU"
  bottom: "res3b_branch2a"
  top: "res3b_branch2a"
}
layer {
  name: "res3b_branch2b"
  type: "Convolution"
  bottom: "res3b_branch2a"
  top: "res3b_branch2b"
  param {
    lr_mult: 1
    decay_mult: 1
  }
  convolution_param {
    num_output: 128
    bias_term: false
    pad: 1
    kernel_size: 3
    stride: 1
  }
}
layer {
  name: "bn3b_branch2b"
  type: "BatchNorm"
  bottom: "res3b_branch2b"
  top: "res3b_branch2b"
  batch_norm_param {
    use_global_stats: true
  }
}
layer {
  name: "scale3b_branch2b"
  type: "Scale"
  bottom: "res3b_branch2b"
  top: "res3b_branch2b"
  scale_param {
    bias_term: true
  }
}
layer {
  name: "res3b_branch2b_relu"
  type: "ReLU"
  bottom: "res3b_branch2b"
  top: "res3b_branch2b"
}
layer {
  name: "res3b_branch2c"
  type: "Convolution"
  bottom: "res3b_branch2b"
  top: "res3b_branch2c"
  param {
    lr_mult: 1
    decay_mult: 1
  }
  convolution_param {
    num_output: 512
    bias_term: false
    pad: 0
    kernel_size: 1
    stride: 1
  }
}
layer {
  name: "bn3b_branch2c"
  type: "BatchNorm"
  bottom: "res3b_branch2c"
  top: "res3b_branch2c"
  batch_norm_param {
    use_global_stats: true
  }
}
layer {
  name: "scale3b_branch2c"
  type: "Scale"
  bottom: "res3b_branch2c"
  top: "res3b_branch2c"
  scale_param {
    bias_term: true
  }
}
layer {
  name: "res3b"
  type: "Eltwise"
  bottom: "res3a"
  bottom: "res3b_branch2c"
  top: "res3b"
}
layer {
  name: "res3b_relu"
  type: "ReLU"
  bottom: "res3b"
  top: "res3b"
}
layer {
  name: "res3c_branch2a"
  type: "Convolution"
  bottom: "res3b"
  top: "res3c_branch2a"
  param {
    lr_mult: 1
    decay_mult: 1
  }
  convolution_param {
    num_output: 128
    bias_term: false
    pad: 0
    kernel_size: 1
    stride: 1
  }
}
layer {
  name: "bn3c_branch2a"
  type: "BatchNorm"
  bottom: "res3c_branch2a"
  top: "res3c_branch2a"
  batch_norm_param {
    use_global_stats: true
  }
}
layer {
  name: "scale3c_branch2a"
  type: "Scale"
  bottom: "res3c_branch2a"
  top: "res3c_branch2a"
  scale_param {
    bias_term: true
  }
}
layer {
  name: "res3c_branch2a_relu"
  type: "ReLU"
  bottom: "res3c_branch2a"
  top: "res3c_branch2a"
}
layer {
  name: "res3c_branch2b"
  type: "Convolution"
  bottom: "res3c_branch2a"
  top: "res3c_branch2b"
  param {
    lr_mult: 1
    decay_mult: 1
  }
  convolution_param {
    num_output: 128
    bias_term: false
    pad: 1
    kernel_size: 3
    stride: 1
  }
}
layer {
  name: "bn3c_branch2b"
  type: "BatchNorm"
  bottom: "res3c_branch2b"
  top: "res3c_branch2b"
  batch_norm_param {
    use_global_stats: true
  }
}
layer {
  name: "scale3c_branch2b"
  type: "Scale"
  bottom: "res3c_branch2b"
  top: "res3c_branch2b"
  scale_param {
    bias_term: true
  }
}
layer {
  name: "res3c_branch2b_relu"
  type: "ReLU"
  bottom: "res3c_branch2b"
  top: "res3c_branch2b"
}
layer {
  name: "res3c_branch2c"
  type: "Convolution"
  bottom: "res3c_branch2b"
  top: "res3c_branch2c"
  param {
    lr_mult: 1
    decay_mult: 1
  }
  convolution_param {
    num_output: 512
    bias_term: false
    pad: 0
    kernel_size: 1
    stride: 1
  }
}
layer {
  name: "bn3c_branch2c"
  type: "BatchNorm"
  bottom: "res3c_branch2c"
  top: "res3c_branch2c"
  batch_norm_param {
    use_global_stats: true
  }
}
layer {
  name: "scale3c_branch2c"
  type: "Scale"
  bottom: "res3c_branch2c"
  top: "res3c_branch2c"
  scale_param {
    bias_term: true
  }
}
layer {
  name: "res3c"
  type: "Eltwise"
  bottom: "res3b"
  bottom: "res3c_branch2c"
  top: "res3c"
}
layer {
  name: "res3c_relu"
  type: "ReLU"
  bottom: "res3c"
  top: "res3c"
}
layer {
  name: "res3d_branch2a"
  type: "Convolution"
  bottom: "res3c"
  top: "res3d_branch2a"
  param {
    lr_mult: 1
    decay_mult: 1
  }
  convolution_param {
    num_output: 128
    bias_term: false
    pad: 0
    kernel_size: 1
    stride: 1
  }
}
layer {
  name: "bn3d_branch2a"
  type: "BatchNorm"
  bottom: "res3d_branch2a"
  top: "res3d_branch2a"
  batch_norm_param {
    use_global_stats: true
  }
}
layer {
  name: "scale3d_branch2a"
  type: "Scale"
  bottom: "res3d_branch2a"
  top: "res3d_branch2a"
  scale_param {
    bias_term: true
  }
}
layer {
  name: "res3d_branch2a_relu"
  type: "ReLU"
  bottom: "res3d_branch2a"
  top: "res3d_branch2a"
}
layer {
  name: "res3d_branch2b"
  type: "Convolution"
  bottom: "res3d_branch2a"
  top: "res3d_branch2b"
  param {
    lr_mult: 1
    decay_mult: 1
  }
  convolution_param {
    num_output: 128
    bias_term: false
    pad: 1
    kernel_size: 3
    stride: 1
  }
}
layer {
  name: "bn3d_branch2b"
  type: "BatchNorm"
  bottom: "res3d_branch2b"
  top: "res3d_branch2b"
  batch_norm_param {
    use_global_stats: true
  }
}
layer {
  name: "scale3d_branch2b"
  type: "Scale"
  bottom: "res3d_branch2b"
  top: "res3d_branch2b"
  scale_param {
    bias_term: true
  }
}
layer {
  name: "res3d_branch2b_relu"
  type: "ReLU"
  bottom: "res3d_branch2b"
  top: "res3d_branch2b"
}
layer {
  name: "res3d_branch2c"
  type: "Convolution"
  bottom: "res3d_branch2b"
  top: "res3d_branch2c"
  param {
    lr_mult: 1
    decay_mult: 1
  }
  convolution_param {
    num_output: 512
    bias_term: false
    pad: 0
    kernel_size: 1
    stride: 1
  }
}
layer {
  name: "bn3d_branch2c"
  type: "BatchNorm"
  bottom: "res3d_branch2c"
  top: "res3d_branch2c"
  batch_norm_param {
    use_global_stats: true
  }
}
layer {
  name: "scale3d_branch2c"
  type: "Scale"
  bottom: "res3d_branch2c"
  top: "res3d_branch2c"
  scale_param {
    bias_term: true
  }
}
layer {
  name: "res3d"
  type: "Eltwise"
  bottom: "res3c"
  bottom: "res3d_branch2c"
  top: "res3d"
}
layer {
  name: "res3d_relu"
  type: "ReLU"
  bottom: "res3d"
  top: "res3d"
}
layer {
  name: "res4a_branch1"
  type: "Convolution"
  bottom: "res3d"
  top: "res4a_branch1"
  param {
    lr_mult: 1
    decay_mult: 1
  }
  convolution_param {
    num_output: 1024
    bias_term: false
    pad: 0
    kernel_size: 1
    stride: 2
  }
}
layer {
  name: "bn4a_branch1"
  type: "BatchNorm"
  bottom: "res4a_branch1"
  top: "res4a_branch1"
  batch_norm_param {
    use_global_stats: true
  }
}
layer {
  name: "scale4a_branch1"
  type: "Scale"
  bottom: "res4a_branch1"
  top: "res4a_branch1"
  scale_param {
    bias_term: true
  }
}
layer {
  name: "res4a_branch2a"
  type: "Convolution"
  bottom: "res3d"
  top: "res4a_branch2a"
  param {
    lr_mult: 1
    decay_mult: 1
  }
  convolution_param {
    num_output: 256
    bias_term: false
    pad: 0
    kernel_size: 1
    stride: 2
  }
}
layer {
  name: "bn4a_branch2a"
  type: "BatchNorm"
  bottom: "res4a_branch2a"
  top: "res4a_branch2a"
  batch_norm_param {
    use_global_stats: true
  }
}
layer {
  name: "scale4a_branch2a"
  type: "Scale"
  bottom: "res4a_branch2a"
  top: "res4a_branch2a"
  scale_param {
    bias_term: true
  }
}
layer {
  name: "res4a_branch2a_relu"
  type: "ReLU"
  bottom: "res4a_branch2a"
  top: "res4a_branch2a"
}
layer {
  name: "res4a_branch2b"
  type: "Convolution"
  bottom: "res4a_branch2a"
  top: "res4a_branch2b"
  param {
    lr_mult: 1
    decay_mult: 1
  }
  convolution_param {
    num_output: 256
    bias_term: false
    pad: 1
    kernel_size: 3
    stride: 1
  }
}
layer {
  name: "bn4a_branch2b"
  type: "BatchNorm"
  bottom: "res4a_branch2b"
  top: "res4a_branch2b"
  batch_norm_param {
    use_global_stats: true
  }
}
layer {
  name: "scale4a_branch2b"
  type: "Scale"
  bottom: "res4a_branch2b"
  top: "res4a_branch2b"
  scale_param {
    bias_term: true
  }
}
layer {
  name: "res4a_branch2b_relu"
  type: "ReLU"
  bottom: "res4a_branch2b"
  top: "res4a_branch2b"
}
layer {
  name: "res4a_branch2c"
  type: "Convolution"
  bottom: "res4a_branch2b"
  top: "res4a_branch2c"
  param {
    lr_mult: 1
    decay_mult: 1
  }
  convolution_param {
    num_output: 1024
    bias_term: false
    pad: 0
    kernel_size: 1
    stride: 1
  }
}
layer {
  name: "bn4a_branch2c"
  type: "BatchNorm"
  bottom: "res4a_branch2c"
  top: "res4a_branch2c"
  batch_norm_param {
    use_global_stats: true
  }
}
layer {
  name: "scale4a_branch2c"
  type: "Scale"
  bottom: "res4a_branch2c"
  top: "res4a_branch2c"
  scale_param {
    bias_term: true
  }
}
layer {
  name: "res4a"
  type: "Eltwise"
  bottom: "res4a_branch1"
  bottom: "res4a_branch2c"
  top: "res4a"
}
layer {
  name: "res4a_relu"
  type: "ReLU"
  bottom: "res4a"
  top: "res4a"
}
layer {
  name: "res4b_branch2a"
  type: "Convolution"
  bottom: "res4a"
  top: "res4b_branch2a"
  param {
    lr_mult: 1
    decay_mult: 1
  }
  convolution_param {
    num_output: 256
    bias_term: false
    pad: 0
    kernel_size: 1
    stride: 1
  }
}
layer {
  name: "bn4b_branch2a"
  type: "BatchNorm"
  bottom: "res4b_branch2a"
  top: "res4b_branch2a"
  batch_norm_param {
    use_global_stats: true
  }
}
layer {
  name: "scale4b_branch2a"
  type: "Scale"
  bottom: "res4b_branch2a"
  top: "res4b_branch2a"
  scale_param {
    bias_term: true
  }
}
layer {
  name: "res4b_branch2a_relu"
  type: "ReLU"
  bottom: "res4b_branch2a"
  top: "res4b_branch2a"
}
layer {
  name: "res4b_branch2b"
  type: "Convolution"
  bottom: "res4b_branch2a"
  top: "res4b_branch2b"
  param {
    lr_mult: 1
    decay_mult: 1
  }
  convolution_param {
    num_output: 256
    bias_term: false
    pad: 1
    kernel_size: 3
    stride: 1
  }
}
layer {
  name: "bn4b_branch2b"
  type: "BatchNorm"
  bottom: "res4b_branch2b"
  top: "res4b_branch2b"
  batch_norm_param {
    use_global_stats: true
  }
}
layer {
  name: "scale4b_branch2b"
  type: "Scale"
  bottom: "res4b_branch2b"
  top: "res4b_branch2b"
  scale_param {
    bias_term: true
  }
}
layer {
  name: "res4b_branch2b_relu"
  type: "ReLU"
  bottom: "res4b_branch2b"
  top: "res4b_branch2b"
}
layer {
  name: "res4b_branch2c"
  type: "Convolution"
  bottom: "res4b_branch2b"
  top: "res4b_branch2c"
  param {
    lr_mult: 1
    decay_mult: 1
  }
  convolution_param {
    num_output: 1024
    bias_term: false
    pad: 0
    kernel_size: 1
    stride: 1
  }
}
layer {
  name: "bn4b_branch2c"
  type: "BatchNorm"
  bottom: "res4b_branch2c"
  top: "res4b_branch2c"
  batch_norm_param {
    use_global_stats: true
  }
}
layer {
  name: "scale4b_branch2c"
  type: "Scale"
  bottom: "res4b_branch2c"
  top: "res4b_branch2c"
  scale_param {
    bias_term: true
  }
}
layer {
  name: "res4b"
  type: "Eltwise"
  bottom: "res4a"
  bottom: "res4b_branch2c"
  top: "res4b"
}
layer {
  name: "res4b_relu"
  type: "ReLU"
  bottom: "res4b"
  top: "res4b"
}
layer {
  name: "res4c_branch2a"
  type: "Convolution"
  bottom: "res4b"
  top: "res4c_branch2a"
  param {
    lr_mult: 1
    decay_mult: 1
  }
  convolution_param {
    num_output: 256
    bias_term: false
    pad: 0
    kernel_size: 1
    stride: 1
  }
}
layer {
  name: "bn4c_branch2a"
  type: "BatchNorm"
  bottom: "res4c_branch2a"
  top: "res4c_branch2a"
  batch_norm_param {
    use_global_stats: true
  }
}
layer {
  name: "scale4c_branch2a"
  type: "Scale"
  bottom: "res4c_branch2a"
  top: "res4c_branch2a"
  scale_param {
    bias_term: true
  }
}
layer {
  name: "res4c_branch2a_relu"
  type: "ReLU"
  bottom: "res4c_branch2a"
  top: "res4c_branch2a"
}
layer {
  name: "res4c_branch2b"
  type: "Convolution"
  bottom: "res4c_branch2a"
  top: "res4c_branch2b"
  param {
    lr_mult: 1
    decay_mult: 1
  }
  convolution_param {
    num_output: 256
    bias_term: false
    pad: 1
    kernel_size: 3
    stride: 1
  }
}
layer {
  name: "bn4c_branch2b"
  type: "BatchNorm"
  bottom: "res4c_branch2b"
  top: "res4c_branch2b"
  batch_norm_param {
    use_global_stats: true
  }
}
layer {
  name: "scale4c_branch2b"
  type: "Scale"
  bottom: "res4c_branch2b"
  top: "res4c_branch2b"
  scale_param {
    bias_term: true
  }
}
layer {
  name: "res4c_branch2b_relu"
  type: "ReLU"
  bottom: "res4c_branch2b"
  top: "res4c_branch2b"
}
layer {
  name: "res4c_branch2c"
  type: "Convolution"
  bottom: "res4c_branch2b"
  top: "res4c_branch2c"
  param {
    lr_mult: 1
    decay_mult: 1
  }
  convolution_param {
    num_output: 1024
    bias_term: false
    pad: 0
    kernel_size: 1
    stride: 1
  }
}
layer {
  name: "bn4c_branch2c"
  type: "BatchNorm"
  bottom: "res4c_branch2c"
  top: "res4c_branch2c"
  batch_norm_param {
    use_global_stats: true
  }
}
layer {
  name: "scale4c_branch2c"
  type: "Scale"
  bottom: "res4c_branch2c"
  top: "res4c_branch2c"
  scale_param {
    bias_term: true
  }
}
layer {
  name: "res4c"
  type: "Eltwise"
  bottom: "res4b"
  bottom: "res4c_branch2c"
  top: "res4c"
}
layer {
  name: "res4c_relu"
  type: "ReLU"
  bottom: "res4c"
  top: "res4c"
}
layer {
  name: "res4d_branch2a"
  type: "Convolution"
  bottom: "res4c"
  top: "res4d_branch2a"
  param {
    lr_mult: 1
    decay_mult: 1
  }
  convolution_param {
    num_output: 256
    bias_term: false
    pad: 0
    kernel_size: 1
    stride: 1
  }
}
layer {
  name: "bn4d_branch2a"
  type: "BatchNorm"
  bottom: "res4d_branch2a"
  top: "res4d_branch2a"
  batch_norm_param {
    use_global_stats: true
  }
}
layer {
  name: "scale4d_branch2a"
  type: "Scale"
  bottom: "res4d_branch2a"
  top: "res4d_branch2a"
  scale_param {
    bias_term: true
  }
}
layer {
  name: "res4d_branch2a_relu"
  type: "ReLU"
  bottom: "res4d_branch2a"
  top: "res4d_branch2a"
}
layer {
  name: "res4d_branch2b"
  type: "Convolution"
  bottom: "res4d_branch2a"
  top: "res4d_branch2b"
  param {
    lr_mult: 1
    decay_mult: 1
  }
  convolution_param {
    num_output: 256
    bias_term: false
    pad: 1
    kernel_size: 3
    stride: 1
  }
}
layer {
  name: "bn4d_branch2b"
  type: "BatchNorm"
  bottom: "res4d_branch2b"
  top: "res4d_branch2b"
  batch_norm_param {
    use_global_stats: true
  }
}
layer {
  name: "scale4d_branch2b"
  type: "Scale"
  bottom: "res4d_branch2b"
  top: "res4d_branch2b"
  scale_param {
    bias_term: true
  }
}
layer {
  name: "res4d_branch2b_relu"
  type: "ReLU"
  bottom: "res4d_branch2b"
  top: "res4d_branch2b"
}
layer {
  name: "res4d_branch2c"
  type: "Convolution"
  bottom: "res4d_branch2b"
  top: "res4d_branch2c"
  param {
    lr_mult: 1
    decay_mult: 1
  }
  convolution_param {
    num_output: 1024
    bias_term: false
    pad: 0
    kernel_size: 1
    stride: 1
  }
}
layer {
  name: "bn4d_branch2c"
  type: "BatchNorm"
  bottom: "res4d_branch2c"
  top: "res4d_branch2c"
  batch_norm_param {
    use_global_stats: true
  }
}
layer {
  name: "scale4d_branch2c"
  type: "Scale"
  bottom: "res4d_branch2c"
  top: "res4d_branch2c"
  scale_param {
    bias_term: true
  }
}
layer {
  name: "res4d"
  type: "Eltwise"
  bottom: "res4c"
  bottom: "res4d_branch2c"
  top: "res4d"
}
layer {
  name: "res4d_relu"
  type: "ReLU"
  bottom: "res4d"
  top: "res4d"
}
layer {
  name: "res4e_branch2a"
  type: "Convolution"
  bottom: "res4d"
  top: "res4e_branch2a"
  param {
    lr_mult: 1
    decay_mult: 1
  }
  convolution_param {
    num_output: 256
    bias_term: false
    pad: 0
    kernel_size: 1
    stride: 1
  }
}
layer {
  name: "bn4e_branch2a"
  type: "BatchNorm"
  bottom: "res4e_branch2a"
  top: "res4e_branch2a"
  batch_norm_param {
    use_global_stats: true
  }
}
layer {
  name: "scale4e_branch2a"
  type: "Scale"
  bottom: "res4e_branch2a"
  top: "res4e_branch2a"
  scale_param {
    bias_term: true
  }
}
layer {
  name: "res4e_branch2a_relu"
  type: "ReLU"
  bottom: "res4e_branch2a"
  top: "res4e_branch2a"
}
layer {
  name: "res4e_branch2b"
  type: "Convolution"
  bottom: "res4e_branch2a"
  top: "res4e_branch2b"
  param {
    lr_mult: 1
    decay_mult: 1
  }
  convolution_param {
    num_output: 256
    bias_term: false
    pad: 1
    kernel_size: 3
    stride: 1
  }
}
layer {
  name: "bn4e_branch2b"
  type: "BatchNorm"
  bottom: "res4e_branch2b"
  top: "res4e_branch2b"
  batch_norm_param {
    use_global_stats: true
  }
}
layer {
  name: "scale4e_branch2b"
  type: "Scale"
  bottom: "res4e_branch2b"
  top: "res4e_branch2b"
  scale_param {
    bias_term: true
  }
}
layer {
  name: "res4e_branch2b_relu"
  type: "ReLU"
  bottom: "res4e_branch2b"
  top: "res4e_branch2b"
}
layer {
  name: "res4e_branch2c"
  type: "Convolution"
  bottom: "res4e_branch2b"
  top: "res4e_branch2c"
  param {
    lr_mult: 1
    decay_mult: 1
  }
  convolution_param {
    num_output: 1024
    bias_term: false
    pad: 0
    kernel_size: 1
    stride: 1
  }
}
layer {
  name: "bn4e_branch2c"
  type: "BatchNorm"
  bottom: "res4e_branch2c"
  top: "res4e_branch2c"
  batch_norm_param {
    use_global_stats: true
  }
}
layer {
  name: "scale4e_branch2c"
  type: "Scale"
  bottom: "res4e_branch2c"
  top: "res4e_branch2c"
  scale_param {
    bias_term: true
  }
}
layer {
  name: "res4e"
  type: "Eltwise"
  bottom: "res4d"
  bottom: "res4e_branch2c"
  top: "res4e"
}
layer {
  name: "res4e_relu"
  type: "ReLU"
  bottom: "res4e"
  top: "res4e"
}
layer {
  name: "res4f_branch2a"
  type: "Convolution"
  bottom: "res4e"
  top: "res4f_branch2a"
  param {
    lr_mult: 1
    decay_mult: 1
  }
  convolution_param {
    num_output: 256
    bias_term: false
    pad: 0
    kernel_size: 1
    stride: 1
  }
}
layer {
  name: "bn4f_branch2a"
  type: "BatchNorm"
  bottom: "res4f_branch2a"
  top: "res4f_branch2a"
  batch_norm_param {
    use_global_stats: true
  }
}
layer {
  name: "scale4f_branch2a"
  type: "Scale"
  bottom: "res4f_branch2a"
  top: "res4f_branch2a"
  scale_param {
    bias_term: true
  }
}
layer {
  name: "res4f_branch2a_relu"
  type: "ReLU"
  bottom: "res4f_branch2a"
  top: "res4f_branch2a"
}
layer {
  name: "res4f_branch2b"
  type: "Convolution"
  bottom: "res4f_branch2a"
  top: "res4f_branch2b"
  param {
    lr_mult: 1
    decay_mult: 1
  }
  convolution_param {
    num_output: 256
    bias_term: false
    pad: 1
    kernel_size: 3
    stride: 1
  }
}
layer {
  name: "bn4f_branch2b"
  type: "BatchNorm"
  bottom: "res4f_branch2b"
  top: "res4f_branch2b"
  batch_norm_param {
    use_global_stats: true
  }
}
layer {
  name: "scale4f_branch2b"
  type: "Scale"
  bottom: "res4f_branch2b"
  top: "res4f_branch2b"
  scale_param {
    bias_term: true
  }
}
layer {
  name: "res4f_branch2b_relu"
  type: "ReLU"
  bottom: "res4f_branch2b"
  top: "res4f_branch2b"
}
layer {
  name: "res4f_branch2c"
  type: "Convolution"
  bottom: "res4f_branch2b"
  top: "res4f_branch2c"
  param {
    lr_mult: 1
    decay_mult: 1
  }
  convolution_param {
    num_output: 1024
    bias_term: false
    pad: 0
    kernel_size: 1
    stride: 1
  }
}
layer {
  name: "bn4f_branch2c"
  type: "BatchNorm"
  bottom: "res4f_branch2c"
  top: "res4f_branch2c"
  batch_norm_param {
    use_global_stats: true
  }
}
layer {
  name: "scale4f_branch2c"
  type: "Scale"
  bottom: "res4f_branch2c"
  top: "res4f_branch2c"
  scale_param {
    bias_term: true
  }
}
layer {
  name: "res4f"
  type: "Eltwise"
  bottom: "res4e"
  bottom: "res4f_branch2c"
  top: "res4f"
}
layer {
  name: "res4f_relu"
  type: "ReLU"
  bottom: "res4f"
  top: "res
I0628 16:25:47.541429  1411 layer_factory.hpp:77] Creating layer input
I0628 16:25:47.541535  1411 db_lmdb.cpp:35] Opened lmdb ../../../data_subsets/subtrain2_lmdb
I0628 16:25:47.541566  1411 net.cpp:84] Creating Layer input
I0628 16:25:47.541579  1411 net.cpp:380] input -> data
I0628 16:25:47.541607  1411 net.cpp:380] input -> label
I0628 16:25:47.541625  1411 data_transformer.cpp:25] Loading mean file from: ../../../data_subsets/subtrain2_mean.binaryproto
I0628 16:25:47.554836  1411 data_layer.cpp:45] output data size: 8,3,224,224
I0628 16:25:47.566159  1411 net.cpp:122] Setting up input
I0628 16:25:47.566205  1411 net.cpp:129] Top shape: 8 3 224 224 (1204224)
I0628 16:25:47.566211  1411 net.cpp:129] Top shape: 8 (8)
I0628 16:25:47.566216  1411 net.cpp:137] Memory required for data: 4816928
I0628 16:25:47.566227  1411 layer_factory.hpp:77] Creating layer label_input_1_split
I0628 16:25:47.566246  1411 net.cpp:84] Creating Layer label_input_1_split
I0628 16:25:47.566253  1411 net.cpp:406] label_input_1_split <- label
I0628 16:25:47.566270  1411 net.cpp:380] label_input_1_split -> label_input_1_split_0
I0628 16:25:47.566282  1411 net.cpp:380] label_input_1_split -> label_input_1_split_1
I0628 16:25:47.566290  1411 net.cpp:380] label_input_1_split -> label_input_1_split_2
I0628 16:25:47.566298  1411 net.cpp:380] label_input_1_split -> label_input_1_split_3
I0628 16:25:47.566376  1411 net.cpp:122] Setting up label_input_1_split
I0628 16:25:47.566390  1411 net.cpp:129] Top shape: 8 (8)
I0628 16:25:47.566395  1411 net.cpp:129] Top shape: 8 (8)
I0628 16:25:47.566401  1411 net.cpp:129] Top shape: 8 (8)
I0628 16:25:47.566404  1411 net.cpp:129] Top shape: 8 (8)
I0628 16:25:47.566408  1411 net.cpp:137] Memory required for data: 4817056
I0628 16:25:47.566412  1411 layer_factory.hpp:77] Creating layer conv1
I0628 16:25:47.566433  1411 net.cpp:84] Creating Layer conv1
I0628 16:25:47.566438  1411 net.cpp:406] conv1 <- data
I0628 16:25:47.566445  1411 net.cpp:380] conv1 -> conv1
I0628 16:25:47.735880  1411 net.cpp:122] Setting up conv1
I0628 16:25:47.735921  1411 net.cpp:129] Top shape: 8 64 112 112 (6422528)
I0628 16:25:47.735926  1411 net.cpp:137] Memory required for data: 30507168
I0628 16:25:47.735947  1411 layer_factory.hpp:77] Creating layer bn_conv1
I0628 16:25:47.735966  1411 net.cpp:84] Creating Layer bn_conv1
I0628 16:25:47.735972  1411 net.cpp:406] bn_conv1 <- conv1
I0628 16:25:47.735980  1411 net.cpp:367] bn_conv1 -> conv1 (in-place)
I0628 16:25:47.736187  1411 net.cpp:122] Setting up bn_conv1
I0628 16:25:47.736203  1411 net.cpp:129] Top shape: 8 64 112 112 (6422528)
I0628 16:25:47.736248  1411 net.cpp:137] Memory required for data: 56197280
I0628 16:25:47.736261  1411 layer_factory.hpp:77] Creating layer scale_conv1
I0628 16:25:47.736274  1411 net.cpp:84] Creating Layer scale_conv1
I0628 16:25:47.736281  1411 net.cpp:406] scale_conv1 <- conv1
I0628 16:25:47.736287  1411 net.cpp:367] scale_conv1 -> conv1 (in-place)
I0628 16:25:47.736347  1411 layer_factory.hpp:77] Creating layer scale_conv1
I0628 16:25:47.736492  1411 net.cpp:122] Setting up scale_conv1
I0628 16:25:47.736507  1411 net.cpp:129] Top shape: 8 64 112 112 (6422528)
I0628 16:25:47.736511  1411 net.cpp:137] Memory required for data: 81887392
I0628 16:25:47.736518  1411 layer_factory.hpp:77] Creating layer conv1_relu
I0628 16:25:47.736528  1411 net.cpp:84] Creating Layer conv1_relu
I0628 16:25:47.736532  1411 net.cpp:406] conv1_relu <- conv1
I0628 16:25:47.736538  1411 net.cpp:367] conv1_relu -> conv1 (in-place)
I0628 16:25:47.736691  1411 net.cpp:122] Setting up conv1_relu
I0628 16:25:47.736708  1411 net.cpp:129] Top shape: 8 64 112 112 (6422528)
I0628 16:25:47.736712  1411 net.cpp:137] Memory required for data: 107577504
I0628 16:25:47.736716  1411 layer_factory.hpp:77] Creating layer pool1
I0628 16:25:47.736729  1411 net.cpp:84] Creating Layer pool1
I0628 16:25:47.736733  1411 net.cpp:406] pool1 <- conv1
I0628 16:25:47.736739  1411 net.cpp:380] pool1 -> pool1
I0628 16:25:47.736795  1411 net.cpp:122] Setting up pool1
I0628 16:25:47.736810  1411 net.cpp:129] Top shape: 8 64 56 56 (1605632)
I0628 16:25:47.736814  1411 net.cpp:137] Memory required for data: 114000032
I0628 16:25:47.736819  1411 layer_factory.hpp:77] Creating layer pool1_pool1_0_split
I0628 16:25:47.736825  1411 net.cpp:84] Creating Layer pool1_pool1_0_split
I0628 16:25:47.736829  1411 net.cpp:406] pool1_pool1_0_split <- pool1
I0628 16:25:47.736835  1411 net.cpp:380] pool1_pool1_0_split -> pool1_pool1_0_split_0
I0628 16:25:47.736845  1411 net.cpp:380] pool1_pool1_0_split -> pool1_pool1_0_split_1
I0628 16:25:47.736882  1411 net.cpp:122] Setting up pool1_pool1_0_split
I0628 16:25:47.736897  1411 net.cpp:129] Top shape: 8 64 56 56 (1605632)
I0628 16:25:47.736902  1411 net.cpp:129] Top shape: 8 64 56 56 (1605632)
I0628 16:25:47.736905  1411 net.cpp:137] Memory required for data: 126845088
I0628 16:25:47.736909  1411 layer_factory.hpp:77] Creating layer res2a_branch1
I0628 16:25:47.736924  1411 net.cpp:84] Creating Layer res2a_branch1
I0628 16:25:47.736930  1411 net.cpp:406] res2a_branch1 <- pool1_pool1_0_split_0
I0628 16:25:47.736937  1411 net.cpp:380] res2a_branch1 -> res2a_branch1
I0628 16:25:47.737876  1411 net.cpp:122] Setting up res2a_branch1
I0628 16:25:47.737896  1411 net.cpp:129] Top shape: 8 256 56 56 (6422528)
I0628 16:25:47.737900  1411 net.cpp:137] Memory required for data: 152535200
I0628 16:25:47.737907  1411 layer_factory.hpp:77] Creating layer bn2a_branch1
I0628 16:25:47.737916  1411 net.cpp:84] Creating Layer bn2a_branch1
I0628 16:25:47.737921  1411 net.cpp:406] bn2a_branch1 <- res2a_branch1
I0628 16:25:47.737927  1411 net.cpp:367] bn2a_branch1 -> res2a_branch1 (in-place)
I0628 16:25:47.738638  1411 net.cpp:122] Setting up bn2a_branch1
I0628 16:25:47.738656  1411 net.cpp:129] Top shape: 8 256 56 56 (6422528)
I0628 16:25:47.738661  1411 net.cpp:137] Memory required for data: 178225312
I0628 16:25:47.738683  1411 layer_factory.hpp:77] Creating layer scale2a_branch1
I0628 16:25:47.738692  1411 net.cpp:84] Creating Layer scale2a_branch1
I0628 16:25:47.738695  1411 net.cpp:406] scale2a_branch1 <- res2a_branch1
I0628 16:25:47.738700  1411 net.cpp:367] scale2a_branch1 -> res2a_branch1 (in-place)
I0628 16:25:47.738746  1411 layer_factory.hpp:77] Creating layer scale2a_branch1
I0628 16:25:47.738864  1411 net.cpp:122] Setting up scale2a_branch1
I0628 16:25:47.738879  1411 net.cpp:129] Top shape: 8 256 56 56 (6422528)
I0628 16:25:47.738883  1411 net.cpp:137] Memory required for data: 203915424
I0628 16:25:47.738890  1411 layer_factory.hpp:77] Creating layer res2a_branch2a
I0628 16:25:47.738903  1411 net.cpp:84] Creating Layer res2a_branch2a
I0628 16:25:47.738926  1411 net.cpp:406] res2a_branch2a <- pool1_pool1_0_split_1
I0628 16:25:47.738935  1411 net.cpp:380] res2a_branch2a -> res2a_branch2a
I0628 16:25:47.739789  1411 net.cpp:122] Setting up res2a_branch2a
I0628 16:25:47.739807  1411 net.cpp:129] Top shape: 8 64 56 56 (1605632)
I0628 16:25:47.739811  1411 net.cpp:137] Memory required for data: 210337952
I0628 16:25:47.739817  1411 layer_factory.hpp:77] Creating layer bn2a_branch2a
I0628 16:25:47.739827  1411 net.cpp:84] Creating Layer bn2a_branch2a
I0628 16:25:47.739832  1411 net.cpp:406] bn2a_branch2a <- res2a_branch2a
I0628 16:25:47.739838  1411 net.cpp:367] bn2a_branch2a -> res2a_branch2a (in-place)
I0628 16:25:47.740018  1411 net.cpp:122] Setting up bn2a_branch2a
I0628 16:25:47.740033  1411 net.cpp:129] Top shape: 8 64 56 56 (1605632)
I0628 16:25:47.740037  1411 net.cpp:137] Memory required for data: 216760480
I0628 16:25:47.740048  1411 layer_factory.hpp:77] Creating layer scale2a_branch2a
I0628 16:25:47.740058  1411 net.cpp:84] Creating Layer scale2a_branch2a
I0628 16:25:47.740063  1411 net.cpp:406] scale2a_branch2a <- res2a_branch2a
I0628 16:25:47.740068  1411 net.cpp:367] scale2a_branch2a -> res2a_branch2a (in-place)
I0628 16:25:47.740113  1411 layer_factory.hpp:77] Creating layer scale2a_branch2a
I0628 16:25:47.740236  1411 net.cpp:122] Setting up scale2a_branch2a
I0628 16:25:47.740250  1411 net.cpp:129] Top shape: 8 64 56 56 (1605632)
I0628 16:25:47.740254  1411 net.cpp:137] Memory required for data: 223183008
I0628 16:25:47.740262  1411 layer_factory.hpp:77] Creating layer res2a_branch2a_relu
I0628 16:25:47.740270  1411 net.cpp:84] Creating Layer res2a_branch2a_relu
I0628 16:25:47.740274  1411 net.cpp:406] res2a_branch2a_relu <- res2a_branch2a
I0628 16:25:47.740279  1411 net.cpp:367] res2a_branch2a_relu -> res2a_branch2a (in-place)
I0628 16:25:47.740521  1411 net.cpp:122] Setting up res2a_branch2a_relu
I0628 16:25:47.740540  1411 net.cpp:129] Top shape: 8 64 56 56 (1605632)
I0628 16:25:47.740543  1411 net.cpp:137] Memory required for data: 229605536
I0628 16:25:47.740547  1411 layer_factory.hpp:77] Creating layer res2a_branch2b
I0628 16:25:47.740559  1411 net.cpp:84] Creating Layer res2a_branch2b
I0628 16:25:47.740563  1411 net.cpp:406] res2a_branch2b <- res2a_branch2a
I0628 16:25:47.740571  1411 net.cpp:380] res2a_branch2b -> res2a_branch2b
I0628 16:25:47.741900  1411 net.cpp:122] Setting up res2a_branch2b
I0628 16:25:47.741920  1411 net.cpp:129] Top shape: 8 64 56 56 (1605632)
I0628 16:25:47.741925  1411 net.cpp:137] Memory required for data: 236028064
I0628 16:25:47.741933  1411 layer_factory.hpp:77] Creating layer bn2a_branch2b
I0628 16:25:47.741945  1411 net.cpp:84] Creating Layer bn2a_branch2b
I0628 16:25:47.741950  1411 net.cpp:406] bn2a_branch2b <- res2a_branch2b
I0628 16:25:47.741955  1411 net.cpp:367] bn2a_branch2b -> res2a_branch2b (in-place)
I0628 16:25:47.742148  1411 net.cpp:122] Setting up bn2a_branch2b
I0628 16:25:47.742164  1411 net.cpp:129] Top shape: 8 64 56 56 (1605632)
I0628 16:25:47.742168  1411 net.cpp:137] Memory required for data: 242450592
I0628 16:25:47.742177  1411 layer_factory.hpp:77] Creating layer scale2a_branch2b
I0628 16:25:47.742183  1411 net.cpp:84] Creating Layer scale2a_branch2b
I0628 16:25:47.742187  1411 net.cpp:406] scale2a_branch2b <- res2a_branch2b
I0628 16:25:47.742193  1411 net.cpp:367] scale2a_branch2b -> res2a_branch2b (in-place)
I0628 16:25:47.742238  1411 layer_factory.hpp:77] Creating layer scale2a_branch2b
I0628 16:25:47.742367  1411 net.cpp:122] Setting up scale2a_branch2b
I0628 16:25:47.742383  1411 net.cpp:129] Top shape: 8 64 56 56 (1605632)
I0628 16:25:47.742388  1411 net.cpp:137] Memory required for data: 248873120
I0628 16:25:47.742393  1411 layer_factory.hpp:77] Creating layer res2a_branch2b_relu
I0628 16:25:47.742400  1411 net.cpp:84] Creating Layer res2a_branch2b_relu
I0628 16:25:47.742404  1411 net.cpp:406] res2a_branch2b_relu <- res2a_branch2b
I0628 16:25:47.742413  1411 net.cpp:367] res2a_branch2b_relu -> res2a_branch2b (in-place)
I0628 16:25:47.742656  1411 net.cpp:122] Setting up res2a_branch2b_relu
I0628 16:25:47.742687  1411 net.cpp:129] Top shape: 8 64 56 56 (1605632)
I0628 16:25:47.742691  1411 net.cpp:137] Memory required for data: 255295648
I0628 16:25:47.742696  1411 layer_factory.hpp:77] Creating layer res2a_branch2c
I0628 16:25:47.742709  1411 net.cpp:84] Creating Layer res2a_branch2c
I0628 16:25:47.742714  1411 net.cpp:406] res2a_branch2c <- res2a_branch2b
I0628 16:25:47.742722  1411 net.cpp:380] res2a_branch2c -> res2a_branch2c
I0628 16:25:47.743664  1411 net.cpp:122] Setting up res2a_branch2c
I0628 16:25:47.743683  1411 net.cpp:129] Top shape: 8 256 56 56 (6422528)
I0628 16:25:47.743690  1411 net.cpp:137] Memory required for data: 280985760
I0628 16:25:47.743697  1411 layer_factory.hpp:77] Creating layer bn2a_branch2c
I0628 16:25:47.743705  1411 net.cpp:84] Creating Layer bn2a_branch2c
I0628 16:25:47.743710  1411 net.cpp:406] bn2a_branch2c <- res2a_branch2c
I0628 16:25:47.743716  1411 net.cpp:367] bn2a_branch2c -> res2a_branch2c (in-place)
I0628 16:25:47.743903  1411 net.cpp:122] Setting up bn2a_branch2c
I0628 16:25:47.743918  1411 net.cpp:129] Top shape: 8 256 56 56 (6422528)
I0628 16:25:47.743923  1411 net.cpp:137] Memory required for data: 306675872
I0628 16:25:47.743932  1411 layer_factory.hpp:77] Creating layer scale2a_branch2c
I0628 16:25:47.743938  1411 net.cpp:84] Creating Layer scale2a_branch2c
I0628 16:25:47.743942  1411 net.cpp:406] scale2a_branch2c <- res2a_branch2c
I0628 16:25:47.743947  1411 net.cpp:367] scale2a_branch2c -> res2a_branch2c (in-place)
I0628 16:25:47.743993  1411 layer_factory.hpp:77] Creating layer scale2a_branch2c
I0628 16:25:47.744114  1411 net.cpp:122] Setting up scale2a_branch2c
I0628 16:25:47.744129  1411 net.cpp:129] Top shape: 8 256 56 56 (6422528)
I0628 16:25:47.744133  1411 net.cpp:137] Memory required for data: 332365984
I0628 16:25:47.744140  1411 layer_factory.hpp:77] Creating layer res2a
I0628 16:25:47.744153  1411 net.cpp:84] Creating Layer res2a
I0628 16:25:47.744156  1411 net.cpp:406] res2a <- res2a_branch1
I0628 16:25:47.744161  1411 net.cpp:406] res2a <- res2a_branch2c
I0628 16:25:47.744168  1411 net.cpp:380] res2a -> res2a
I0628 16:25:47.744210  1411 net.cpp:122] Setting up res2a
I0628 16:25:47.744225  1411 net.cpp:129] Top shape: 8 256 56 56 (6422528)
I0628 16:25:47.744227  1411 net.cpp:137] Memory required for data: 358056096
I0628 16:25:47.744231  1411 layer_factory.hpp:77] Creating layer res2a_relu
I0628 16:25:47.744237  1411 net.cpp:84] Creating Layer res2a_relu
I0628 16:25:47.744241  1411 net.cpp:406] res2a_relu <- res2a
I0628 16:25:47.744248  1411 net.cpp:367] res2a_relu -> res2a (in-place)
I0628 16:25:47.744396  1411 net.cpp:122] Setting up res2a_relu
I0628 16:25:47.744412  1411 net.cpp:129] Top shape: 8 256 56 56 (6422528)
I0628 16:25:47.744417  1411 net.cpp:137] Memory required for data: 383746208
I0628 16:25:47.744421  1411 layer_factory.hpp:77] Creating layer res2a_res2a_relu_0_split
I0628 16:25:47.744431  1411 net.cpp:84] Creating Layer res2a_res2a_relu_0_split
I0628 16:25:47.744436  1411 net.cpp:406] res2a_res2a_relu_0_split <- res2a
I0628 16:25:47.744441  1411 net.cpp:380] res2a_res2a_relu_0_split -> res2a_res2a_relu_0_split_0
I0628 16:25:47.744448  1411 net.cpp:380] res2a_res2a_relu_0_split -> res2a_res2a_relu_0_split_1
I0628 16:25:47.744493  1411 net.cpp:122] Setting up res2a_res2a_relu_0_split
I0628 16:25:47.744508  1411 net.cpp:129] Top shape: 8 256 56 56 (6422528)
I0628 16:25:47.744516  1411 net.cpp:129] Top shape: 8 256 56 56 (6422528)
I0628 16:25:47.744519  1411 net.cpp:137] Memory required for data: 435126432
I0628 16:25:47.744524  1411 layer_factory.hpp:77] Creating layer res2b_branch2a
I0628 16:25:47.744531  1411 net.cpp:84] Creating Layer res2b_branch2a
I0628 16:25:47.744536  1411 net.cpp:406] res2b_branch2a <- res2a_res2a_relu_0_split_0
I0628 16:25:47.744544  1411 net.cpp:380] res2b_branch2a -> res2b_branch2a
I0628 16:25:47.745374  1411 net.cpp:122] Setting up res2b_branch2a
I0628 16:25:47.745393  1411 net.cpp:129] Top shape: 8 64 56 56 (1605632)
I0628 16:25:47.745398  1411 net.cpp:137] Memory required for data: 441548960
I0628 16:25:47.745416  1411 layer_factory.hpp:77] Creating layer bn2b_branch2a
I0628 16:25:47.745426  1411 net.cpp:84] Creating Layer bn2b_branch2a
I0628 16:25:47.745431  1411 net.cpp:406] bn2b_branch2a <- res2b_branch2a
I0628 16:25:47.745437  1411 net.cpp:367] bn2b_branch2a -> res2b_branch2a (in-place)
I0628 16:25:47.745631  1411 net.cpp:122] Setting up bn2b_branch2a
I0628 16:25:47.745647  1411 net.cpp:129] Top shape: 8 64 56 56 (1605632)
I0628 16:25:47.745651  1411 net.cpp:137] Memory required for data: 447971488
I0628 16:25:47.745669  1411 layer_factory.hpp:77] Creating layer scale2b_branch2a
I0628 16:25:47.745678  1411 net.cpp:84] Creating Layer scale2b_branch2a
I0628 16:25:47.745692  1411 net.cpp:406] scale2b_branch2a <- res2b_branch2a
I0628 16:25:47.745698  1411 net.cpp:367] scale2b_branch2a -> res2b_branch2a (in-place)
I0628 16:25:47.745746  1411 layer_factory.hpp:77] Creating layer scale2b_branch2a
I0628 16:25:47.745872  1411 net.cpp:122] Setting up scale2b_branch2a
I0628 16:25:47.745890  1411 net.cpp:129] Top shape: 8 64 56 56 (1605632)
I0628 16:25:47.745893  1411 net.cpp:137] Memory required for data: 454394016
I0628 16:25:47.745900  1411 layer_factory.hpp:77] Creating layer res2b_branch2a_relu
I0628 16:25:47.745908  1411 net.cpp:84] Creating Layer res2b_branch2a_relu
I0628 16:25:47.745911  1411 net.cpp:406] res2b_branch2a_relu <- res2b_branch2a
I0628 16:25:47.745916  1411 net.cpp:367] res2b_branch2a_relu -> res2b_branch2a (in-place)
I0628 16:25:47.746158  1411 net.cpp:122] Setting up res2b_branch2a_relu
I0628 16:25:47.746176  1411 net.cpp:129] Top shape: 8 64 56 56 (1605632)
I0628 16:25:47.746181  1411 net.cpp:137] Memory required for data: 460816544
I0628 16:25:47.746184  1411 layer_factory.hpp:77] Creating layer res2b_branch2b
I0628 16:25:47.746197  1411 net.cpp:84] Creating Layer res2b_branch2b
I0628 16:25:47.746201  1411 net.cpp:406] res2b_branch2b <- res2b_branch2a
I0628 16:25:47.746208  1411 net.cpp:380] res2b_branch2b -> res2b_branch2b
I0628 16:25:47.746979  1411 net.cpp:122] Setting up res2b_branch2b
I0628 16:25:47.746997  1411 net.cpp:129] Top shape: 8 64 56 56 (1605632)
I0628 16:25:47.747001  1411 net.cpp:137] Memory required for data: 467239072
I0628 16:25:47.747007  1411 layer_factory.hpp:77] Creating layer bn2b_branch2b
I0628 16:25:47.747017  1411 net.cpp:84] Creating Layer bn2b_branch2b
I0628 16:25:47.747022  1411 net.cpp:406] bn2b_branch2b <- res2b_branch2b
I0628 16:25:47.747028  1411 net.cpp:367] bn2b_branch2b -> res2b_branch2b (in-place)
I0628 16:25:47.747229  1411 net.cpp:122] Setting up bn2b_branch2b
I0628 16:25:47.747244  1411 net.cpp:129] Top shape: 8 64 56 56 (1605632)
I0628 16:25:47.747248  1411 net.cpp:137] Memory required for data: 473661600
I0628 16:25:47.747256  1411 layer_factory.hpp:77] Creating layer scale2b_branch2b
I0628 16:25:47.747267  1411 net.cpp:84] Creating Layer scale2b_branch2b
I0628 16:25:47.747270  1411 net.cpp:406] scale2b_branch2b <- res2b_branch2b
I0628 16:25:47.747277  1411 net.cpp:367] scale2b_branch2b -> res2b_branch2b (in-place)
I0628 16:25:47.747321  1411 layer_factory.hpp:77] Creating layer scale2b_branch2b
I0628 16:25:47.747450  1411 net.cpp:122] Setting up scale2b_branch2b
I0628 16:25:47.747465  1411 net.cpp:129] Top shape: 8 64 56 56 (1605632)
I0628 16:25:47.747469  1411 net.cpp:137] Memory required for data: 480084128
I0628 16:25:47.747476  1411 layer_factory.hpp:77] Creating layer res2b_branch2b_relu
I0628 16:25:47.747488  1411 net.cpp:84] Creating Layer res2b_branch2b_relu
I0628 16:25:47.747493  1411 net.cpp:406] res2b_branch2b_relu <- res2b_branch2b
I0628 16:25:47.747498  1411 net.cpp:367] res2b_branch2b_relu -> res2b_branch2b (in-place)
I0628 16:25:47.747752  1411 net.cpp:122] Setting up res2b_branch2b_relu
I0628 16:25:47.747771  1411 net.cpp:129] Top shape: 8 64 56 56 (1605632)
I0628 16:25:47.747774  1411 net.cpp:137] Memory required for data: 486506656
I0628 16:25:47.747778  1411 layer_factory.hpp:77] Creating layer res2b_branch2c
I0628 16:25:47.747793  1411 net.cpp:84] Creating Layer res2b_branch2c
I0628 16:25:47.747798  1411 net.cpp:406] res2b_branch2c <- res2b_branch2b
I0628 16:25:47.747828  1411 net.cpp:380] res2b_branch2c -> res2b_branch2c
I0628 16:25:47.748831  1411 net.cpp:122] Setting up res2b_branch2c
I0628 16:25:47.748853  1411 net.cpp:129] Top shape: 8 256 56 56 (6422528)
I0628 16:25:47.748858  1411 net.cpp:137] Memory required for data: 512196768
I0628 16:25:47.748867  1411 layer_factory.hpp:77] Creating layer bn2b_branch2c
I0628 16:25:47.748874  1411 net.cpp:84] Creating Layer bn2b_branch2c
I0628 16:25:47.748879  1411 net.cpp:406] bn2b_branch2c <- res2b_branch2c
I0628 16:25:47.748888  1411 net.cpp:367] bn2b_branch2c -> res2b_branch2c (in-place)
I0628 16:25:47.749079  1411 net.cpp:122] Setting up bn2b_branch2c
I0628 16:25:47.749095  1411 net.cpp:129] Top shape: 8 256 56 56 (6422528)
I0628 16:25:47.749099  1411 net.cpp:137] Memory required for data: 537886880
I0628 16:25:47.749112  1411 layer_factory.hpp:77] Creating layer scale2b_branch2c
I0628 16:25:47.749122  1411 net.cpp:84] Creating Layer scale2b_branch2c
I0628 16:25:47.749126  1411 net.cpp:406] scale2b_branch2c <- res2b_branch2c
I0628 16:25:47.749132  1411 net.cpp:367] scale2b_branch2c -> res2b_branch2c (in-place)
I0628 16:25:47.749177  1411 layer_factory.hpp:77] Creating layer scale2b_branch2c
I0628 16:25:47.749303  1411 net.cpp:122] Setting up scale2b_branch2c
I0628 16:25:47.749318  1411 net.cpp:129] Top shape: 8 256 56 56 (6422528)
I0628 16:25:47.749322  1411 net.cpp:137] Memory required for data: 563576992
I0628 16:25:47.749330  1411 layer_factory.hpp:77] Creating layer res2b
I0628 16:25:47.749336  1411 net.cpp:84] Creating Layer res2b
I0628 16:25:47.749341  1411 net.cpp:406] res2b <- res2a_res2a_relu_0_split_1
I0628 16:25:47.749346  1411 net.cpp:406] res2b <- res2b_branch2c
I0628 16:25:47.749353  1411 net.cpp:380] res2b -> res2b
I0628 16:25:47.749380  1411 net.cpp:122] Setting up res2b
I0628 16:25:47.749395  1411 net.cpp:129] Top shape: 8 256 56 56 (6422528)
I0628 16:25:47.749399  1411 net.cpp:137] Memory required for data: 589267104
I0628 16:25:47.749403  1411 layer_factory.hpp:77] Creating layer res2b_relu
I0628 16:25:47.749409  1411 net.cpp:84] Creating Layer res2b_relu
I0628 16:25:47.749413  1411 net.cpp:406] res2b_relu <- res2b
I0628 16:25:47.749418  1411 net.cpp:367] res2b_relu -> res2b (in-place)
I0628 16:25:47.749658  1411 net.cpp:122] Setting up res2b_relu
I0628 16:25:47.749676  1411 net.cpp:129] Top shape: 8 256 56 56 (6422528)
I0628 16:25:47.749680  1411 net.cpp:137] Memory required for data: 614957216
I0628 16:25:47.749685  1411 layer_factory.hpp:77] Creating layer res2b_res2b_relu_0_split
I0628 16:25:47.749694  1411 net.cpp:84] Creating Layer res2b_res2b_relu_0_split
I0628 16:25:47.749699  1411 net.cpp:406] res2b_res2b_relu_0_split <- res2b
I0628 16:25:47.749706  1411 net.cpp:380] res2b_res2b_relu_0_split -> res2b_res2b_relu_0_split_0
I0628 16:25:47.749714  1411 net.cpp:380] res2b_res2b_relu_0_split -> res2b_res2b_relu_0_split_1
I0628 16:25:47.749759  1411 net.cpp:122] Setting up res2b_res2b_relu_0_split
I0628 16:25:47.749773  1411 net.cpp:129] Top shape: 8 256 56 56 (6422528)
I0628 16:25:47.749779  1411 net.cpp:129] Top shape: 8 256 56 56 (6422528)
I0628 16:25:47.749783  1411 net.cpp:137] Memory required for data: 666337440
I0628 16:25:47.749786  1411 layer_factory.hpp:77] Creating layer res2c_branch2a
I0628 16:25:47.749797  1411 net.cpp:84] Creating Layer res2c_branch2a
I0628 16:25:47.749802  1411 net.cpp:406] res2c_branch2a <- res2b_res2b_relu_0_split_0
I0628 16:25:47.749809  1411 net.cpp:380] res2c_branch2a -> res2c_branch2a
I0628 16:25:47.750656  1411 net.cpp:122] Setting up res2c_branch2a
I0628 16:25:47.750675  1411 net.cpp:129] Top shape: 8 64 56 56 (1605632)
I0628 16:25:47.750679  1411 net.cpp:137] Memory required for data: 672759968
I0628 16:25:47.750685  1411 layer_factory.hpp:77] Creating layer bn2c_branch2a
I0628 16:25:47.750695  1411 net.cpp:84] Creating Layer bn2c_branch2a
I0628 16:25:47.750699  1411 net.cpp:406] bn2c_branch2a <- res2c_branch2a
I0628 16:25:47.750707  1411 net.cpp:367] bn2c_branch2a -> res2c_branch2a (in-place)
I0628 16:25:47.750905  1411 net.cpp:122] Setting up bn2c_branch2a
I0628 16:25:47.750932  1411 net.cpp:129] Top shape: 8 64 56 56 (1605632)
I0628 16:25:47.750936  1411 net.cpp:137] Memory required for data: 679182496
I0628 16:25:47.750959  1411 layer_factory.hpp:77] Creating layer scale2c_branch2a
I0628 16:25:47.750977  1411 net.cpp:84] Creating Layer scale2c_branch2a
I0628 16:25:47.750982  1411 net.cpp:406] scale2c_branch2a <- res2c_branch2a
I0628 16:25:47.750988  1411 net.cpp:367] scale2c_branch2a -> res2c_branch2a (in-place)
I0628 16:25:47.751035  1411 layer_factory.hpp:77] Creating layer scale2c_branch2a
I0628 16:25:47.751173  1411 net.cpp:122] Setting up scale2c_branch2a
I0628 16:25:47.751188  1411 net.cpp:129] Top shape: 8 64 56 56 (1605632)
I0628 16:25:47.751191  1411 net.cpp:137] Memory required for data: 685605024
I0628 16:25:47.751199  1411 layer_factory.hpp:77] Creating layer res2c_branch2a_relu
I0628 16:25:47.751207  1411 net.cpp:84] Creating Layer res2c_branch2a_relu
I0628 16:25:47.751211  1411 net.cpp:406] res2c_branch2a_relu <- res2c_branch2a
I0628 16:25:47.751217  1411 net.cpp:367] res2c_branch2a_relu -> res2c_branch2a (in-place)
I0628 16:25:47.751461  1411 net.cpp:122] Setting up res2c_branch2a_relu
I0628 16:25:47.751478  1411 net.cpp:129] Top shape: 8 64 56 56 (1605632)
I0628 16:25:47.751482  1411 net.cpp:137] Memory required for data: 692027552
I0628 16:25:47.751487  1411 layer_factory.hpp:77] Creating layer res2c_branch2b
I0628 16:25:47.751498  1411 net.cpp:84] Creating Layer res2c_branch2b
I0628 16:25:47.751503  1411 net.cpp:406] res2c_branch2b <- res2c_branch2a
I0628 16:25:47.751513  1411 net.cpp:380] res2c_branch2b -> res2c_branch2b
I0628 16:25:47.752293  1411 net.cpp:122] Setting up res2c_branch2b
I0628 16:25:47.752312  1411 net.cpp:129] Top shape: 8 64 56 56 (1605632)
I0628 16:25:47.752316  1411 net.cpp:137] Memory required for data: 698450080
I0628 16:25:47.752322  1411 layer_factory.hpp:77] Creating layer bn2c_branch2b
I0628 16:25:47.752332  1411 net.cpp:84] Creating Layer bn2c_branch2b
I0628 16:25:47.752336  1411 net.cpp:406] bn2c_branch2b <- res2c_branch2b
I0628 16:25:47.752342  1411 net.cpp:367] bn2c_branch2b -> res2c_branch2b (in-place)
I0628 16:25:47.752544  1411 net.cpp:122] Setting up bn2c_branch2b
I0628 16:25:47.752559  1411 net.cpp:129] Top shape: 8 64 56 56 (1605632)
I0628 16:25:47.752564  1411 net.cpp:137] Memory required for data: 704872608
I0628 16:25:47.752573  1411 layer_factory.hpp:77] Creating layer scale2c_branch2b
I0628 16:25:47.752579  1411 net.cpp:84] Creating Layer scale2c_branch2b
I0628 16:25:47.752583  1411 net.cpp:406] scale2c_branch2b <- res2c_branch2b
I0628 16:25:47.752588  1411 net.cpp:367] scale2c_branch2b -> res2c_branch2b (in-place)
I0628 16:25:47.752637  1411 layer_factory.hpp:77] Creating layer scale2c_branch2b
I0628 16:25:47.752771  1411 net.cpp:122] Setting up scale2c_branch2b
I0628 16:25:47.752789  1411 net.cpp:129] Top shape: 8 64 56 56 (1605632)
I0628 16:25:47.752792  1411 net.cpp:137] Memory required for data: 711295136
I0628 16:25:47.752799  1411 layer_factory.hpp:77] Creating layer res2c_branch2b_relu
I0628 16:25:47.752805  1411 net.cpp:84] Creating Layer res2c_branch2b_relu
I0628 16:25:47.752810  1411 net.cpp:406] res2c_branch2b_relu <- res2c_branch2b
I0628 16:25:47.752815  1411 net.cpp:367] res2c_branch2b_relu -> res2c_branch2b (in-place)
I0628 16:25:47.753067  1411 net.cpp:122] Setting up res2c_branch2b_relu
I0628 16:25:47.753085  1411 net.cpp:129] Top shape: 8 64 56 56 (1605632)
I0628 16:25:47.753089  1411 net.cpp:137] Memory required for data: 717717664
I0628 16:25:47.753093  1411 layer_factory.hpp:77] Creating layer res2c_branch2c
I0628 16:25:47.753110  1411 net.cpp:84] Creating Layer res2c_branch2c
I0628 16:25:47.753116  1411 net.cpp:406] res2c_branch2c <- res2c_branch2b
I0628 16:25:47.753123  1411 net.cpp:380] res2c_branch2c -> res2c_branch2c
I0628 16:25:47.754073  1411 net.cpp:122] Setting up res2c_branch2c
I0628 16:25:47.754092  1411 net.cpp:129] Top shape: 8 256 56 56 (6422528)
I0628 16:25:47.754096  1411 net.cpp:137] Memory required for data: 743407776
I0628 16:25:47.754137  1411 layer_factory.hpp:77] Creating layer bn2c_branch2c
I0628 16:25:47.754144  1411 net.cpp:84] Creating Layer bn2c_branch2c
I0628 16:25:47.754149  1411 net.cpp:406] bn2c_branch2c <- res2c_branch2c
I0628 16:25:47.754158  1411 net.cpp:367] bn2c_branch2c -> res2c_branch2c (in-place)
I0628 16:25:47.754359  1411 net.cpp:122] Setting up bn2c_branch2c
I0628 16:25:47.754375  1411 net.cpp:129] Top shape: 8 256 56 56 (6422528)
I0628 16:25:47.754379  1411 net.cpp:137] Memory required for data: 769097888
I0628 16:25:47.754397  1411 layer_factory.hpp:77] Creating layer scale2c_branch2c
I0628 16:25:47.754405  1411 net.cpp:84] Creating Layer scale2c_branch2c
I0628 16:25:47.754410  1411 net.cpp:406] scale2c_branch2c <- res2c_branch2c
I0628 16:25:47.754415  1411 net.cpp:367] scale2c_branch2c -> res2c_branch2c (in-place)
I0628 16:25:47.754467  1411 layer_factory.hpp:77] Creating layer scale2c_branch2c
I0628 16:25:47.754595  1411 net.cpp:122] Setting up scale2c_branch2c
I0628 16:25:47.754611  1411 net.cpp:129] Top shape: 8 256 56 56 (6422528)
I0628 16:25:47.754616  1411 net.cpp:137] Memory required for data: 794788000
I0628 16:25:47.754621  1411 layer_factory.hpp:77] Creating layer res2c
I0628 16:25:47.754631  1411 net.cpp:84] Creating Layer res2c
I0628 16:25:47.754636  1411 net.cpp:406] res2c <- res2b_res2b_relu_0_split_1
I0628 16:25:47.754639  1411 net.cpp:406] res2c <- res2c_branch2c
I0628 16:25:47.754647  1411 net.cpp:380] res2c -> res2c
I0628 16:25:47.754675  1411 net.cpp:122] Setting up res2c
I0628 16:25:47.754688  1411 net.cpp:129] Top shape: 8 256 56 56 (6422528)
I0628 16:25:47.754693  1411 net.cpp:137] Memory required for data: 820478112
I0628 16:25:47.754698  1411 layer_factory.hpp:77] Creating layer res2c_relu
I0628 16:25:47.754703  1411 net.cpp:84] Creating Layer res2c_relu
I0628 16:25:47.754706  1411 net.cpp:406] res2c_relu <- res2c
I0628 16:25:47.754714  1411 net.cpp:367] res2c_relu -> res2c (in-place)
I0628 16:25:47.754870  1411 net.cpp:122] Setting up res2c_relu
I0628 16:25:47.754886  1411 net.cpp:129] Top shape: 8 256 56 56 (6422528)
I0628 16:25:47.754890  1411 net.cpp:137] Memory required for data: 846168224
I0628 16:25:47.754894  1411 layer_factory.hpp:77] Creating layer res2c_res2c_relu_0_split
I0628 16:25:47.754904  1411 net.cpp:84] Creating Layer res2c_res2c_relu_0_split
I0628 16:25:47.754907  1411 net.cpp:406] res2c_res2c_relu_0_split <- res2c
I0628 16:25:47.754914  1411 net.cpp:380] res2c_res2c_relu_0_split -> res2c_res2c_relu_0_split_0
I0628 16:25:47.754922  1411 net.cpp:380] res2c_res2c_relu_0_split -> res2c_res2c_relu_0_split_1
I0628 16:25:47.754982  1411 net.cpp:122] Setting up res2c_res2c_relu_0_split
I0628 16:25:47.754997  1411 net.cpp:129] Top shape: 8 256 56 56 (6422528)
I0628 16:25:47.755002  1411 net.cpp:129] Top shape: 8 256 56 56 (6422528)
I0628 16:25:47.755005  1411 net.cpp:137] Memory required for data: 897548448
I0628 16:25:47.755009  1411 layer_factory.hpp:77] Creating layer res3a_branch1
I0628 16:25:47.755020  1411 net.cpp:84] Creating Layer res3a_branch1
I0628 16:25:47.755024  1411 net.cpp:406] res3a_branch1 <- res2c_res2c_relu_0_split_0
I0628 16:25:47.755033  1411 net.cpp:380] res3a_branch1 -> res3a_branch1
I0628 16:25:47.756590  1411 net.cpp:122] Setting up res3a_branch1
I0628 16:25:47.756610  1411 net.cpp:129] Top shape: 8 512 28 28 (3211264)
I0628 16:25:47.756615  1411 net.cpp:137] Memory required for data: 910393504
I0628 16:25:47.756623  1411 layer_factory.hpp:77] Creating layer bn3a_branch1
I0628 16:25:47.756631  1411 net.cpp:84] Creating Layer bn3a_branch1
I0628 16:25:47.756636  1411 net.cpp:406] bn3a_branch1 <- res3a_branch1
I0628 16:25:47.756645  1411 net.cpp:367] bn3a_branch1 -> res3a_branch1 (in-place)
I0628 16:25:47.757364  1411 net.cpp:122] Setting up bn3a_branch1
I0628 16:25:47.757382  1411 net.cpp:129] Top shape: 8 512 28 28 (3211264)
I0628 16:25:47.757386  1411 net.cpp:137] Memory required for data: 923238560
I0628 16:25:47.757395  1411 layer_factory.hpp:77] Creating layer scale3a_branch1
I0628 16:25:47.757403  1411 net.cpp:84] Creating Layer scale3a_branch1
I0628 16:25:47.757424  1411 net.cpp:406] scale3a_branch1 <- res3a_branch1
I0628 16:25:47.757431  1411 net.cpp:367] scale3a_branch1 -> res3a_branch1 (in-place)
I0628 16:25:47.757483  1411 layer_factory.hpp:77] Creating layer scale3a_branch1
I0628 16:25:47.757606  1411 net.cpp:122] Setting up scale3a_branch1
I0628 16:25:47.757621  1411 net.cpp:129] Top shape: 8 512 28 28 (3211264)
I0628 16:25:47.757624  1411 net.cpp:137] Memory required for data: 936083616
I0628 16:25:47.757632  1411 layer_factory.hpp:77] Creating layer res3a_branch2a
I0628 16:25:47.757644  1411 net.cpp:84] Creating Layer res3a_branch2a
I0628 16:25:47.757649  1411 net.cpp:406] res3a_branch2a <- res2c_res2c_relu_0_split_1
I0628 16:25:47.757657  1411 net.cpp:380] res3a_branch2a -> res3a_branch2a
I0628 16:25:47.758551  1411 net.cpp:122] Setting up res3a_branch2a
I0628 16:25:47.758571  1411 net.cpp:129] Top shape: 8 128 28 28 (802816)
I0628 16:25:47.758575  1411 net.cpp:137] Memory required for data: 939294880
I0628 16:25:47.758581  1411 layer_factory.hpp:77] Creating layer bn3a_branch2a
I0628 16:25:47.758591  1411 net.cpp:84] Creating Layer bn3a_branch2a
I0628 16:25:47.758596  1411 net.cpp:406] bn3a_branch2a <- res3a_branch2a
I0628 16:25:47.758605  1411 net.cpp:367] bn3a_branch2a -> res3a_branch2a (in-place)
I0628 16:25:47.758805  1411 net.cpp:122] Setting up bn3a_branch2a
I0628 16:25:47.758821  1411 net.cpp:129] Top shape: 8 128 28 28 (802816)
I0628 16:25:47.758824  1411 net.cpp:137] Memory required for data: 942506144
I0628 16:25:47.758833  1411 layer_factory.hpp:77] Creating layer scale3a_branch2a
I0628 16:25:47.758842  1411 net.cpp:84] Creating Layer scale3a_branch2a
I0628 16:25:47.758847  1411 net.cpp:406] scale3a_branch2a <- res3a_branch2a
I0628 16:25:47.758852  1411 net.cpp:367] scale3a_branch2a -> res3a_branch2a (in-place)
I0628 16:25:47.758901  1411 layer_factory.hpp:77] Creating layer scale3a_branch2a
I0628 16:25:47.759045  1411 net.cpp:122] Setting up scale3a_branch2a
I0628 16:25:47.759061  1411 net.cpp:129] Top shape: 8 128 28 28 (802816)
I0628 16:25:47.759065  1411 net.cpp:137] Memory required for data: 945717408
I0628 16:25:47.759073  1411 layer_factory.hpp:77] Creating layer res3a_branch2a_relu
I0628 16:25:47.759078  1411 net.cpp:84] Creating Layer res3a_branch2a_relu
I0628 16:25:47.759083  1411 net.cpp:406] res3a_branch2a_relu <- res3a_branch2a
I0628 16:25:47.759088  1411 net.cpp:367] res3a_branch2a_relu -> res3a_branch2a (in-place)
I0628 16:25:47.759246  1411 net.cpp:122] Setting up res3a_branch2a_relu
I0628 16:25:47.759263  1411 net.cpp:129] Top shape: 8 128 28 28 (802816)
I0628 16:25:47.759266  1411 net.cpp:137] Memory required for data: 948928672
I0628 16:25:47.759270  1411 layer_factory.hpp:77] Creating layer res3a_branch2b
I0628 16:25:47.759281  1411 net.cpp:84] Creating Layer res3a_branch2b
I0628 16:25:47.759286  1411 net.cpp:406] res3a_branch2b <- res3a_branch2a
I0628 16:25:47.759294  1411 net.cpp:380] res3a_branch2b -> res3a_branch2b
I0628 16:25:47.760761  1411 net.cpp:122] Setting up res3a_branch2b
I0628 16:25:47.760781  1411 net.cpp:129] Top shape: 8 128 28 28 (802816)
I0628 16:25:47.760784  1411 net.cpp:137] Memory required for data: 952139936
I0628 16:25:47.760790  1411 layer_factory.hpp:77] Creating layer bn3a_branch2b
I0628 16:25:47.760800  1411 net.cpp:84] Creating Layer bn3a_branch2b
I0628 16:25:47.760805  1411 net.cpp:406] bn3a_branch2b <- res3a_branch2b
I0628 16:25:47.760812  1411 net.cpp:367] bn3a_branch2b -> res3a_branch2b (in-place)
I0628 16:25:47.761015  1411 net.cpp:122] Setting up bn3a_branch2b
I0628 16:25:47.761031  1411 net.cpp:129] Top shape: 8 128 28 28 (802816)
I0628 16:25:47.761035  1411 net.cpp:137] Memory required for data: 955351200
I0628 16:25:47.761044  1411 layer_factory.hpp:77] Creating layer scale3a_branch2b
I0628 16:25:47.761054  1411 net.cpp:84] Creating Layer scale3a_branch2b
I0628 16:25:47.761057  1411 net.cpp:406] scale3a_branch2b <- res3a_branch2b
I0628 16:25:47.761062  1411 net.cpp:367] scale3a_branch2b -> res3a_branch2b (in-place)
I0628 16:25:47.761113  1411 layer_factory.hpp:77] Creating layer scale3a_branch2b
I0628 16:25:47.761261  1411 net.cpp:122] Setting up scale3a_branch2b
I0628 16:25:47.761277  1411 net.cpp:129] Top shape: 8 128 28 28 (802816)
I0628 16:25:47.761281  1411 net.cpp:137] Memory required for data: 958562464
I0628 16:25:47.761287  1411 layer_factory.hpp:77] Creating layer res3a_branch2b_relu
I0628 16:25:47.761294  1411 net.cpp:84] Creating Layer res3a_branch2b_relu
I0628 16:25:47.761298  1411 net.cpp:406] res3a_branch2b_relu <- res3a_branch2b
I0628 16:25:47.761307  1411 net.cpp:367] res3a_branch2b_relu -> res3a_branch2b (in-place)
I0628 16:25:47.761562  1411 net.cpp:122] Setting up res3a_branch2b_relu
I0628 16:25:47.761580  1411 net.cpp:129] Top shape: 8 128 28 28 (802816)
I0628 16:25:47.761584  1411 net.cpp:137] Memory required for data: 961773728
I0628 16:25:47.761589  1411 layer_factory.hpp:77] Creating layer res3a_branch2c
I0628 16:25:47.761610  1411 net.cpp:84] Creating Layer res3a_branch2c
I0628 16:25:47.761620  1411 net.cpp:406] res3a_branch2c <- res3a_branch2b
I0628 16:25:47.761627  1411 net.cpp:380] res3a_branch2c -> res3a_branch2c
I0628 16:25:47.762454  1411 net.cpp:122] Setting up res3a_branch2c
I0628 16:25:47.762473  1411 net.cpp:129] Top shape: 8 512 28 28 (3211264)
I0628 16:25:47.762477  1411 net.cpp:137] Memory required for data: 974618784
I0628 16:25:47.762483  1411 layer_factory.hpp:77] Creating layer bn3a_branch2c
I0628 16:25:47.762491  1411 net.cpp:84] Creating Layer bn3a_branch2c
I0628 16:25:47.762495  1411 net.cpp:406] bn3a_branch2c <- res3a_branch2c
I0628 16:25:47.762504  1411 net.cpp:367] bn3a_branch2c -> res3a_branch2c (in-place)
I0628 16:25:47.762709  1411 net.cpp:122] Setting up bn3a_branch2c
I0628 16:25:47.762725  1411 net.cpp:129] Top shape: 8 512 28 28 (3211264)
I0628 16:25:47.762729  1411 net.cpp:137] Memory required for data: 987463840
I0628 16:25:47.762738  1411 layer_factory.hpp:77] Creating layer scale3a_branch2c
I0628 16:25:47.762745  1411 net.cpp:84] Creating Layer scale3a_branch2c
I0628 16:25:47.762749  1411 net.cpp:406] scale3a_branch2c <- res3a_branch2c
I0628 16:25:47.762754  1411 net.cpp:367] scale3a_branch2c -> res3a_branch2c (in-place)
I0628 16:25:47.762802  1411 layer_factory.hpp:77] Creating layer scale3a_branch2c
I0628 16:25:47.762929  1411 net.cpp:122] Setting up scale3a_branch2c
I0628 16:25:47.762944  1411 net.cpp:129] Top shape: 8 512 28 28 (3211264)
I0628 16:25:47.762948  1411 net.cpp:137] Memory required for data: 1000308896
I0628 16:25:47.762955  1411 layer_factory.hpp:77] Creating layer res3a
I0628 16:25:47.762961  1411 net.cpp:84] Creating Layer res3a
I0628 16:25:47.762979  1411 net.cpp:406] res3a <- res3a_branch1
I0628 16:25:47.762984  1411 net.cpp:406] res3a <- res3a_branch2c
I0628 16:25:47.762994  1411 net.cpp:380] res3a -> res3a
I0628 16:25:47.763023  1411 net.cpp:122] Setting up res3a
I0628 16:25:47.763036  1411 net.cpp:129] Top shape: 8 512 28 28 (3211264)
I0628 16:25:47.763041  1411 net.cpp:137] Memory required for data: 1013153952
I0628 16:25:47.763044  1411 layer_factory.hpp:77] Creating layer res3a_relu
I0628 16:25:47.763053  1411 net.cpp:84] Creating Layer res3a_relu
I0628 16:25:47.763057  1411 net.cpp:406] res3a_relu <- res3a
I0628 16:25:47.763063  1411 net.cpp:367] res3a_relu -> res3a (in-place)
I0628 16:25:47.763329  1411 net.cpp:122] Setting up res3a_relu
I0628 16:25:47.763347  1411 net.cpp:129] Top shape: 8 512 28 28 (3211264)
I0628 16:25:47.763351  1411 net.cpp:137] Memory required for data: 1025999008
I0628 16:25:47.763355  1411 layer_factory.hpp:77] Creating layer res3a_res3a_relu_0_split
I0628 16:25:47.763361  1411 net.cpp:84] Creating Layer res3a_res3a_relu_0_split
I0628 16:25:47.763366  1411 net.cpp:406] res3a_res3a_relu_0_split <- res3a
I0628 16:25:47.763375  1411 net.cpp:380] res3a_res3a_relu_0_split -> res3a_res3a_relu_0_split_0
I0628 16:25:47.763381  1411 net.cpp:380] res3a_res3a_relu_0_split -> res3a_res3a_relu_0_split_1
I0628 16:25:47.763428  1411 net.cpp:122] Setting up res3a_res3a_relu_0_split
I0628 16:25:47.763442  1411 net.cpp:129] Top shape: 8 512 28 28 (3211264)
I0628 16:25:47.763448  1411 net.cpp:129] Top shape: 8 512 28 28 (3211264)
I0628 16:25:47.763463  1411 net.cpp:137] Memory required for data: 1051689120
I0628 16:25:47.763468  1411 layer_factory.hpp:77] Creating layer res3b_branch2a
I0628 16:25:47.763479  1411 net.cpp:84] Creating Layer res3b_branch2a
I0628 16:25:47.763486  1411 net.cpp:406] res3b_branch2a <- res3a_res3a_relu_0_split_0
I0628 16:25:47.763492  1411 net.cpp:380] res3b_branch2a -> res3b_branch2a
I0628 16:25:47.764933  1411 net.cpp:122] Setting up res3b_branch2a
I0628 16:25:47.764955  1411 net.cpp:129] Top shape: 8 128 28 28 (802816)
I0628 16:25:47.764960  1411 net.cpp:137] Memory required for data: 1054900384
I0628 16:25:47.764966  1411 layer_factory.hpp:77] Creating layer bn3b_branch2a
I0628 16:25:47.764973  1411 net.cpp:84] Creating Layer bn3b_branch2a
I0628 16:25:47.764978  1411 net.cpp:406] bn3b_branch2a <- res3b_branch2a
I0628 16:25:47.764984  1411 net.cpp:367] bn3b_branch2a -> res3b_branch2a (in-place)
I0628 16:25:47.765198  1411 net.cpp:122] Setting up bn3b_branch2a
I0628 16:25:47.765214  1411 net.cpp:129] Top shape: 8 128 28 28 (802816)
I0628 16:25:47.765218  1411 net.cpp:137] Memory required for data: 1058111648
I0628 16:25:47.765226  1411 layer_factory.hpp:77] Creating layer scale3b_branch2a
I0628 16:25:47.765233  1411 net.cpp:84] Creating Layer scale3b_branch2a
I0628 16:25:47.765238  1411 net.cpp:406] scale3b_branch2a <- res3b_branch2a
I0628 16:25:47.765242  1411 net.cpp:367] scale3b_branch2a -> res3b_branch2a (in-place)
I0628 16:25:47.765293  1411 layer_factory.hpp:77] Creating layer scale3b_branch2a
I0628 16:25:47.765422  1411 net.cpp:122] Setting up scale3b_branch2a
I0628 16:25:47.765437  1411 net.cpp:129] Top shape: 8 128 28 28 (802816)
I0628 16:25:47.765441  1411 net.cpp:137] Memory required for data: 1061322912
I0628 16:25:47.765447  1411 layer_factory.hpp:77] Creating layer res3b_branch2a_relu
I0628 16:25:47.765456  1411 net.cpp:84] Creating Layer res3b_branch2a_relu
I0628 16:25:47.765460  1411 net.cpp:406] res3b_branch2a_relu <- res3b_branch2a
I0628 16:25:47.765466  1411 net.cpp:367] res3b_branch2a_relu -> res3b_branch2a (in-place)
I0628 16:25:47.765614  1411 net.cpp:122] Setting up res3b_branch2a_relu
I0628 16:25:47.765630  1411 net.cpp:129] Top shape: 8 128 28 28 (802816)
I0628 16:25:47.765635  1411 net.cpp:137] Memory required for data: 1064534176
I0628 16:25:47.765638  1411 layer_factory.hpp:77] Creating layer res3b_branch2b
I0628 16:25:47.765651  1411 net.cpp:84] Creating Layer res3b_branch2b
I0628 16:25:47.765656  1411 net.cpp:406] res3b_branch2b <- res3b_branch2a
I0628 16:25:47.765662  1411 net.cpp:380] res3b_branch2b -> res3b_branch2b
I0628 16:25:47.767226  1411 net.cpp:122] Setting up res3b_branch2b
I0628 16:25:47.767247  1411 net.cpp:129] Top shape: 8 128 28 28 (802816)
I0628 16:25:47.767251  1411 net.cpp:137] Memory required for data: 1067745440
I0628 16:25:47.767258  1411 layer_factory.hpp:77] Creating layer bn3b_branch2b
I0628 16:25:47.767267  1411 net.cpp:84] Creating Layer bn3b_branch2b
I0628 16:25:47.767272  1411 net.cpp:406] bn3b_branch2b <- res3b_branch2b
I0628 16:25:47.767280  1411 net.cpp:367] bn3b_branch2b -> res3b_branch2b (in-place)
I0628 16:25:47.767489  1411 net.cpp:122] Setting up bn3b_branch2b
I0628 16:25:47.767505  1411 net.cpp:129] Top shape: 8 128 28 28 (802816)
I0628 16:25:47.767509  1411 net.cpp:137] Memory required for data: 1070956704
I0628 16:25:47.767518  1411 layer_factory.hpp:77] Creating layer scale3b_branch2b
I0628 16:25:47.767524  1411 net.cpp:84] Creating Layer scale3b_branch2b
I0628 16:25:47.767529  1411 net.cpp:406] scale3b_branch2b <- res3b_branch2b
I0628 16:25:47.767536  1411 net.cpp:367] scale3b_branch2b -> res3b_branch2b (in-place)
I0628 16:25:47.767583  1411 layer_factory.hpp:77] Creating layer scale3b_branch2b
I0628 16:25:47.767715  1411 net.cpp:122] Setting up scale3b_branch2b
I0628 16:25:47.767731  1411 net.cpp:129] Top shape: 8 128 28 28 (802816)
I0628 16:25:47.767735  1411 net.cpp:137] Memory required for data: 1074167968
I0628 16:25:47.767741  1411 layer_factory.hpp:77] Creating layer res3b_branch2b_relu
I0628 16:25:47.767748  1411 net.cpp:84] Creating Layer res3b_branch2b_relu
I0628 16:25:47.767765  1411 net.cpp:406] res3b_branch2b_relu <- res3b_branch2b
I0628 16:25:47.767771  1411 net.cpp:367] res3b_branch2b_relu -> res3b_branch2b (in-place)
I0628 16:25:47.768033  1411 net.cpp:122] Setting up res3b_branch2b_relu
I0628 16:25:47.768050  1411 net.cpp:129] Top shape: 8 128 28 28 (802816)
I0628 16:25:47.768054  1411 net.cpp:137] Memory required for data: 1077379232
I0628 16:25:47.768059  1411 layer_factory.hpp:77] Creating layer res3b_branch2c
I0628 16:25:47.768069  1411 net.cpp:84] Creating Layer res3b_branch2c
I0628 16:25:47.768074  1411 net.cpp:406] res3b_branch2c <- res3b_branch2b
I0628 16:25:47.768081  1411 net.cpp:380] res3b_branch2c -> res3b_branch2c
I0628 16:25:47.768898  1411 net.cpp:122] Setting up res3b_branch2c
I0628 16:25:47.768918  1411 net.cpp:129] Top shape: 8 512 28 28 (3211264)
I0628 16:25:47.768921  1411 net.cpp:137] Memory required for data: 1090224288
I0628 16:25:47.768928  1411 layer_factory.hpp:77] Creating layer bn3b_branch2c
I0628 16:25:47.768936  1411 net.cpp:84] Creating Layer bn3b_branch2c
I0628 16:25:47.768941  1411 net.cpp:406] bn3b_branch2c <- res3b_branch2c
I0628 16:25:47.768950  1411 net.cpp:367] bn3b_branch2c -> res3b_branch2c (in-place)
I0628 16:25:47.769165  1411 net.cpp:122] Setting up bn3b_branch2c
I0628 16:25:47.769181  1411 net.cpp:129] Top shape: 8 512 28 28 (3211264)
I0628 16:25:47.769186  1411 net.cpp:137] Memory required for data: 1103069344
I0628 16:25:47.769193  1411 layer_factory.hpp:77] Creating layer scale3b_branch2c
I0628 16:25:47.769201  1411 net.cpp:84] Creating Layer scale3b_branch2c
I0628 16:25:47.769204  1411 net.cpp:406] scale3b_branch2c <- res3b_branch2c
I0628 16:25:47.769210  1411 net.cpp:367] scale3b_branch2c -> res3b_branch2c (in-place)
I0628 16:25:47.769259  1411 layer_factory.hpp:77] Creating layer scale3b_branch2c
I0628 16:25:47.769387  1411 net.cpp:122] Setting up scale3b_branch2c
I0628 16:25:47.769402  1411 net.cpp:129] Top shape: 8 512 28 28 (3211264)
I0628 16:25:47.769405  1411 net.cpp:137] Memory required for data: 1115914400
I0628 16:25:47.769412  1411 layer_factory.hpp:77] Creating layer res3b
I0628 16:25:47.769419  1411 net.cpp:84] Creating Layer res3b
I0628 16:25:47.769425  1411 net.cpp:406] res3b <- res3a_res3a_relu_0_split_1
I0628 16:25:47.769430  1411 net.cpp:406] res3b <- res3b_branch2c
I0628 16:25:47.769436  1411 net.cpp:380] res3b -> res3b
I0628 16:25:47.769466  1411 net.cpp:122] Setting up res3b
I0628 16:25:47.769480  1411 net.cpp:129] Top shape: 8 512 28 28 (3211264)
I0628 16:25:47.769484  1411 net.cpp:137] Memory required for data: 1128759456
I0628 16:25:47.769489  1411 layer_factory.hpp:77] Creating layer res3b_relu
I0628 16:25:47.769497  1411 net.cpp:84] Creating Layer res3b_relu
I0628 16:25:47.769501  1411 net.cpp:406] res3b_relu <- res3b
I0628 16:25:47.769507  1411 net.cpp:367] res3b_relu -> res3b (in-place)
I0628 16:25:47.769763  1411 net.cpp:122] Setting up res3b_relu
I0628 16:25:47.769781  1411 net.cpp:129] Top shape: 8 512 28 28 (3211264)
I0628 16:25:47.769785  1411 net.cpp:137] Memory required for data: 1141604512
I0628 16:25:47.769789  1411 layer_factory.hpp:77] Creating layer res3b_res3b_relu_0_split
I0628 16:25:47.769795  1411 net.cpp:84] Creating Layer res3b_res3b_relu_0_split
I0628 16:25:47.769799  1411 net.cpp:406] res3b_res3b_relu_0_split <- res3b
I0628 16:25:47.769809  1411 net.cpp:380] res3b_res3b_relu_0_split -> res3b_res3b_relu_0_split_0
I0628 16:25:47.769815  1411 net.cpp:380] res3b_res3b_relu_0_split -> res3b_res3b_relu_0_split_1
I0628 16:25:47.769865  1411 net.cpp:122] Setting up res3b_res3b_relu_0_split
I0628 16:25:47.769878  1411 net.cpp:129] Top shape: 8 512 28 28 (3211264)
I0628 16:25:47.769883  1411 net.cpp:129] Top shape: 8 512 28 28 (3211264)
I0628 16:25:47.769891  1411 net.cpp:137] Memory required for data: 1167294624
I0628 16:25:47.769894  1411 layer_factory.hpp:77] Creating layer res3c_branch2a
I0628 16:25:47.769907  1411 net.cpp:84] Creating Layer res3c_branch2a
I0628 16:25:47.769917  1411 net.cpp:406] res3c_branch2a <- res3b_res3b_relu_0_split_0
I0628 16:25:47.769938  1411 net.cpp:380] res3c_branch2a -> res3c_branch2a
I0628 16:25:47.770850  1411 net.cpp:122] Setting up res3c_branch2a
I0628 16:25:47.770869  1411 net.cpp:129] Top shape: 8 128 28 28 (802816)
I0628 16:25:47.770874  1411 net.cpp:137] Memory required for data: 1170505888
I0628 16:25:47.770880  1411 layer_factory.hpp:77] Creating layer bn3c_branch2a
I0628 16:25:47.770889  1411 net.cpp:84] Creating Layer bn3c_branch2a
I0628 16:25:47.770895  1411 net.cpp:406] bn3c_branch2a <- res3c_branch2a
I0628 16:25:47.770902  1411 net.cpp:367] bn3c_branch2a -> res3c_branch2a (in-place)
I0628 16:25:47.771131  1411 net.cpp:122] Setting up bn3c_branch2a
I0628 16:25:47.771147  1411 net.cpp:129] Top shape: 8 128 28 28 (802816)
I0628 16:25:47.771152  1411 net.cpp:137] Memory required for data: 1173717152
I0628 16:25:47.771159  1411 layer_factory.hpp:77] Creating layer scale3c_branch2a
I0628 16:25:47.771169  1411 net.cpp:84] Creating Layer scale3c_branch2a
I0628 16:25:47.771173  1411 net.cpp:406] scale3c_branch2a <- res3c_branch2a
I0628 16:25:47.771179  1411 net.cpp:367] scale3c_branch2a -> res3c_branch2a (in-place)
I0628 16:25:47.771229  1411 layer_factory.hpp:77] Creating layer scale3c_branch2a
I0628 16:25:47.771369  1411 net.cpp:122] Setting up scale3c_branch2a
I0628 16:25:47.771384  1411 net.cpp:129] Top shape: 8 128 28 28 (802816)
I0628 16:25:47.771389  1411 net.cpp:137] Memory required for data: 1176928416
I0628 16:25:47.771395  1411 layer_factory.hpp:77] Creating layer res3c_branch2a_relu
I0628 16:25:47.771401  1411 net.cpp:84] Creating Layer res3c_branch2a_relu
I0628 16:25:47.771406  1411 net.cpp:406] res3c_branch2a_relu <- res3c_branch2a
I0628 16:25:47.771411  1411 net.cpp:367] res3c_branch2a_relu -> res3c_branch2a (in-place)
I0628 16:25:47.771571  1411 net.cpp:122] Setting up res3c_branch2a_relu
I0628 16:25:47.771589  1411 net.cpp:129] Top shape: 8 128 28 28 (802816)
I0628 16:25:47.771592  1411 net.cpp:137] Memory required for data: 1180139680
I0628 16:25:47.771596  1411 layer_factory.hpp:77] Creating layer res3c_branch2b
I0628 16:25:47.771607  1411 net.cpp:84] Creating Layer res3c_branch2b
I0628 16:25:47.771612  1411 net.cpp:406] res3c_branch2b <- res3c_branch2a
I0628 16:25:47.771625  1411 net.cpp:380] res3c_branch2b -> res3c_branch2b
I0628 16:25:47.773114  1411 net.cpp:122] Setting up res3c_branch2b
I0628 16:25:47.773134  1411 net.cpp:129] Top shape: 8 128 28 28 (802816)
I0628 16:25:47.773138  1411 net.cpp:137] Memory required for data: 1183350944
I0628 16:25:47.773144  1411 layer_factory.hpp:77] Creating layer bn3c_branch2b
I0628 16:25:47.773154  1411 net.cpp:84] Creating Layer bn3c_branch2b
I0628 16:25:47.773159  1411 net.cpp:406] bn3c_branch2b <- res3c_branch2b
I0628 16:25:47.773165  1411 net.cpp:367] bn3c_branch2b -> res3c_branch2b (in-place)
I0628 16:25:47.773375  1411 net.cpp:122] Setting up bn3c_branch2b
I0628 16:25:47.773391  1411 net.cpp:129] Top shape: 8 128 28 28 (802816)
I0628 16:25:47.773394  1411 net.cpp:137] Memory required for data: 1186562208
I0628 16:25:47.773403  1411 layer_factory.hpp:77] Creating layer scale3c_branch2b
I0628 16:25:47.773412  1411 net.cpp:84] Creating Layer scale3c_branch2b
I0628 16:25:47.773417  1411 net.cpp:406] scale3c_branch2b <- res3c_branch2b
I0628 16:25:47.773422  1411 net.cpp:367] scale3c_branch2b -> res3c_branch2b (in-place)
I0628 16:25:47.773473  1411 layer_factory.hpp:77] Creating layer scale3c_branch2b
I0628 16:25:47.773612  1411 net.cpp:122] Setting up scale3c_branch2b
I0628 16:25:47.773627  1411 net.cpp:129] Top shape: 8 128 28 28 (802816)
I0628 16:25:47.773630  1411 net.cpp:137] Memory required for data: 1189773472
I0628 16:25:47.773636  1411 layer_factory.hpp:77] Creating layer res3c_branch2b_relu
I0628 16:25:47.773643  1411 net.cpp:84] Creating Layer res3c_branch2b_relu
I0628 16:25:47.773648  1411 net.cpp:406] res3c_branch2b_relu <- res3c_branch2b
I0628 16:25:47.773655  1411 net.cpp:367] res3c_branch2b_relu -> res3c_branch2b (in-place)
I0628 16:25:47.773910  1411 net.cpp:122] Setting up res3c_branch2b_relu
I0628 16:25:47.773928  1411 net.cpp:129] Top shape: 8 128 28 28 (802816)
I0628 16:25:47.773952  1411 net.cpp:137] Memory required for data: 1192984736
I0628 16:25:47.773957  1411 layer_factory.hpp:77] Creating layer res3c_branch2c
I0628 16:25:47.773967  1411 net.cpp:84] Creating Layer res3c_branch2c
I0628 16:25:47.773972  1411 net.cpp:406] res3c_branch2c <- res3c_branch2b
I0628 16:25:47.773980  1411 net.cpp:380] res3c_branch2c -> res3c_branch2c
I0628 16:25:47.774806  1411 net.cpp:122] Setting up res3c_branch2c
I0628 16:25:47.774824  1411 net.cpp:129] Top shape: 8 512 28 28 (3211264)
I0628 16:25:47.774829  1411 net.cpp:137] Memory required for data: 1205829792
I0628 16:25:47.774835  1411 layer_factory.hpp:77] Creating layer bn3c_branch2c
I0628 16:25:47.774842  1411 net.cpp:84] Creating Layer bn3c_branch2c
I0628 16:25:47.774847  1411 net.cpp:406] bn3c_branch2c <- res3c_branch2c
I0628 16:25:47.774855  1411 net.cpp:367] bn3c_branch2c -> res3c_branch2c (in-place)
I0628 16:25:47.775087  1411 net.cpp:122] Setting up bn3c_branch2c
I0628 16:25:47.775104  1411 net.cpp:129] Top shape: 8 512 28 28 (3211264)
I0628 16:25:47.775107  1411 net.cpp:137] Memory required for data: 1218674848
I0628 16:25:47.775115  1411 layer_factory.hpp:77] Creating layer scale3c_branch2c
I0628 16:25:47.775123  1411 net.cpp:84] Creating Layer scale3c_branch2c
I0628 16:25:47.775127  1411 net.cpp:406] scale3c_branch2c <- res3c_branch2c
I0628 16:25:47.775133  1411 net.cpp:367] scale3c_branch2c -> res3c_branch2c (in-place)
I0628 16:25:47.775193  1411 layer_factory.hpp:77] Creating layer scale3c_branch2c
I0628 16:25:47.775324  1411 net.cpp:122] Setting up scale3c_branch2c
I0628 16:25:47.775341  1411 net.cpp:129] Top shape: 8 512 28 28 (3211264)
I0628 16:25:47.775343  1411 net.cpp:137] Memory required for data: 1231519904
I0628 16:25:47.775351  1411 layer_factory.hpp:77] Creating layer res3c
I0628 16:25:47.775357  1411 net.cpp:84] Creating Layer res3c
I0628 16:25:47.775364  1411 net.cpp:406] res3c <- res3b_res3b_relu_0_split_1
I0628 16:25:47.775369  1411 net.cpp:406] res3c <- res3c_branch2c
I0628 16:25:47.775374  1411 net.cpp:380] res3c -> res3c
I0628 16:25:47.775404  1411 net.cpp:122] Setting up res3c
I0628 16:25:47.775418  1411 net.cpp:129] Top shape: 8 512 28 28 (3211264)
I0628 16:25:47.775423  1411 net.cpp:137] Memory required for data: 1244364960
I0628 16:25:47.775426  1411 layer_factory.hpp:77] Creating layer res3c_relu
I0628 16:25:47.775435  1411 net.cpp:84] Creating Layer res3c_relu
I0628 16:25:47.775440  1411 net.cpp:406] res3c_relu <- res3c
I0628 16:25:47.775445  1411 net.cpp:367] res3c_relu -> res3c (in-place)
I0628 16:25:47.775701  1411 net.cpp:122] Setting up res3c_relu
I0628 16:25:47.775718  1411 net.cpp:129] Top shape: 8 512 28 28 (3211264)
I0628 16:25:47.775722  1411 net.cpp:137] Memory required for data: 1257210016
I0628 16:25:47.775727  1411 layer_factory.hpp:77] Creating layer res3c_res3c_relu_0_split
I0628 16:25:47.775732  1411 net.cpp:84] Creating Layer res3c_res3c_relu_0_split
I0628 16:25:47.775738  1411 net.cpp:406] res3c_res3c_relu_0_split <- res3c
I0628 16:25:47.775745  1411 net.cpp:380] res3c_res3c_relu_0_split -> res3c_res3c_relu_0_split_0
I0628 16:25:47.775753  1411 net.cpp:380] res3c_res3c_relu_0_split -> res3c_res3c_relu_0_split_1
I0628 16:25:47.775800  1411 net.cpp:122] Setting up res3c_res3c_relu_0_split
I0628 16:25:47.775815  1411 net.cpp:129] Top shape: 8 512 28 28 (3211264)
I0628 16:25:47.775820  1411 net.cpp:129] Top shape: 8 512 28 28 (3211264)
I0628 16:25:47.775823  1411 net.cpp:137] Memory required for data: 1282900128
I0628 16:25:47.775827  1411 layer_factory.hpp:77] Creating layer res3d_branch2a
I0628 16:25:47.775840  1411 net.cpp:84] Creating Layer res3d_branch2a
I0628 16:25:47.775845  1411 net.cpp:406] res3d_branch2a <- res3c_res3c_relu_0_split_0
I0628 16:25:47.775851  1411 net.cpp:380] res3d_branch2a -> res3d_branch2a
I0628 16:25:47.777297  1411 net.cpp:122] Setting up res3d_branch2a
I0628 16:25:47.777318  1411 net.cpp:129] Top shape: 8 128 28 28 (802816)
I0628 16:25:47.777324  1411 net.cpp:137] Memory required for data: 1286111392
I0628 16:25:47.777330  1411 layer_factory.hpp:77] Creating layer bn3d_branch2a
I0628 16:25:47.777355  1411 net.cpp:84] Creating Layer bn3d_branch2a
I0628 16:25:47.777361  1411 net.cpp:406] bn3d_branch2a <- res3d_branch2a
I0628 16:25:47.777367  1411 net.cpp:367] bn3d_branch2a -> res3d_branch2a (in-place)
I0628 16:25:47.777587  1411 net.cpp:122] Setting up bn3d_branch2a
I0628 16:25:47.777602  1411 net.cpp:129] Top shape: 8 128 28 28 (802816)
I0628 16:25:47.777606  1411 net.cpp:137] Memory required for data: 1289322656
I0628 16:25:47.777640  1411 layer_factory.hpp:77] Creating layer scale3d_branch2a
I0628 16:25:47.777653  1411 net.cpp:84] Creating Layer scale3d_branch2a
I0628 16:25:47.777658  1411 net.cpp:406] scale3d_branch2a <- res3d_branch2a
I0628 16:25:47.777664  1411 net.cpp:367] scale3d_branch2a -> res3d_branch2a (in-place)
I0628 16:25:47.777717  1411 layer_factory.hpp:77] Creating layer scale3d_branch2a
I0628 16:25:47.777856  1411 net.cpp:122] Setting up scale3d_branch2a
I0628 16:25:47.777871  1411 net.cpp:129] Top shape: 8 128 28 28 (802816)
I0628 16:25:47.777875  1411 net.cpp:137] Memory required for data: 1292533920
I0628 16:25:47.777881  1411 layer_factory.hpp:77] Creating layer res3d_branch2a_relu
I0628 16:25:47.777889  1411 net.cpp:84] Creating Layer res3d_branch2a_relu
I0628 16:25:47.777892  1411 net.cpp:406] res3d_branch2a_relu <- res3d_branch2a
I0628 16:25:47.777899  1411 net.cpp:367] res3d_branch2a_relu -> res3d_branch2a (in-place)
I0628 16:25:47.778057  1411 net.cpp:122] Setting up res3d_branch2a_relu
I0628 16:25:47.778074  1411 net.cpp:129] Top shape: 8 128 28 28 (802816)
I0628 16:25:47.778079  1411 net.cpp:137] Memory required for data: 1295745184
I0628 16:25:47.778082  1411 layer_factory.hpp:77] Creating layer res3d_branch2b
I0628 16:25:47.778093  1411 net.cpp:84] Creating Layer res3d_branch2b
I0628 16:25:47.778097  1411 net.cpp:406] res3d_branch2b <- res3d_branch2a
I0628 16:25:47.778115  1411 net.cpp:380] res3d_branch2b -> res3d_branch2b
I0628 16:25:47.779619  1411 net.cpp:122] Setting up res3d_branch2b
I0628 16:25:47.779642  1411 net.cpp:129] Top shape: 8 128 28 28 (802816)
I0628 16:25:47.779646  1411 net.cpp:137] Memory required for data: 1298956448
I0628 16:25:47.779652  1411 layer_factory.hpp:77] Creating layer bn3d_branch2b
I0628 16:25:47.779660  1411 net.cpp:84] Creating Layer bn3d_branch2b
I0628 16:25:47.779664  1411 net.cpp:406] bn3d_branch2b <- res3d_branch2b
I0628 16:25:47.779670  1411 net.cpp:367] bn3d_branch2b -> res3d_branch2b (in-place)
I0628 16:25:47.779891  1411 net.cpp:122] Setting up bn3d_branch2b
I0628 16:25:47.779906  1411 net.cpp:129] Top shape: 8 128 28 28 (802816)
I0628 16:25:47.779911  1411 net.cpp:137] Memory required for data: 1302167712
I0628 16:25:47.779919  1411 layer_factory.hpp:77] Creating layer scale3d_branch2b
I0628 16:25:47.779927  1411 net.cpp:84] Creating Layer scale3d_branch2b
I0628 16:25:47.779930  1411 net.cpp:406] scale3d_branch2b <- res3d_branch2b
I0628 16:25:47.779937  1411 net.cpp:367] scale3d_branch2b -> res3d_branch2b (in-place)
I0628 16:25:47.779989  1411 layer_factory.hpp:77] Creating layer scale3d_branch2b
I0628 16:25:47.780133  1411 net.cpp:122] Setting up scale3d_branch2b
I0628 16:25:47.780148  1411 net.cpp:129] Top shape: 8 128 28 28 (802816)
I0628 16:25:47.780153  1411 net.cpp:137] Memory required for data: 1305378976
I0628 16:25:47.780159  1411 layer_factory.hpp:77] Creating layer res3d_branch2b_relu
I0628 16:25:47.780167  1411 net.cpp:84] Creating Layer res3d_branch2b_relu
I0628 16:25:47.780172  1411 net.cpp:406] res3d_branch2b_relu <- res3d_branch2b
I0628 16:25:47.780177  1411 net.cpp:367] res3d_branch2b_relu -> res3d_branch2b (in-place)
I0628 16:25:47.780447  1411 net.cpp:122] Setting up res3d_branch2b_relu
I0628 16:25:47.780464  1411 net.cpp:129] Top shape: 8 128 28 28 (802816)
I0628 16:25:47.780468  1411 net.cpp:137] Memory required for data: 1308590240
I0628 16:25:47.780473  1411 layer_factory.hpp:77] Creating layer res3d_branch2c
I0628 16:25:47.780484  1411 net.cpp:84] Creating Layer res3d_branch2c
I0628 16:25:47.780489  1411 net.cpp:406] res3d_branch2c <- res3d_branch2b
I0628 16:25:47.780517  1411 net.cpp:380] res3d_branch2c -> res3d_branch2c
I0628 16:25:47.781366  1411 net.cpp:122] Setting up res3d_branch2c
I0628 16:25:47.781386  1411 net.cpp:129] Top shape: 8 512 28 28 (3211264)
I0628 16:25:47.781390  1411 net.cpp:137] Memory required for data: 1321435296
I0628 16:25:47.781396  1411 layer_factory.hpp:77] Creating layer bn3d_branch2c
I0628 16:25:47.781405  1411 net.cpp:84] Creating Layer bn3d_branch2c
I0628 16:25:47.781410  1411 net.cpp:406] bn3d_branch2c <- res3d_branch2c
I0628 16:25:47.781416  1411 net.cpp:367] bn3d_branch2c -> res3d_branch2c (in-place)
I0628 16:25:47.781637  1411 net.cpp:122] Setting up bn3d_branch2c
I0628 16:25:47.781653  1411 net.cpp:129] Top shape: 8 512 28 28 (3211264)
I0628 16:25:47.781657  1411 net.cpp:137] Memory required for data: 1334280352
I0628 16:25:47.781666  1411 layer_factory.hpp:77] Creating layer scale3d_branch2c
I0628 16:25:47.781674  1411 net.cpp:84] Creating Layer scale3d_branch2c
I0628 16:25:47.781679  1411 net.cpp:406] scale3d_branch2c <- res3d_branch2c
I0628 16:25:47.781684  1411 net.cpp:367] scale3d_branch2c -> res3d_branch2c (in-place)
I0628 16:25:47.781735  1411 layer_factory.hpp:77] Creating layer scale3d_branch2c
I0628 16:25:47.781870  1411 net.cpp:122] Setting up scale3d_branch2c
I0628 16:25:47.781886  1411 net.cpp:129] Top shape: 8 512 28 28 (3211264)
I0628 16:25:47.781889  1411 net.cpp:137] Memory required for data: 1347125408
I0628 16:25:47.781896  1411 layer_factory.hpp:77] Creating layer res3d
I0628 16:25:47.781903  1411 net.cpp:84] Creating Layer res3d
I0628 16:25:47.781908  1411 net.cpp:406] res3d <- res3c_res3c_relu_0_split_1
I0628 16:25:47.781913  1411 net.cpp:406] res3d <- res3d_branch2c
I0628 16:25:47.781921  1411 net.cpp:380] res3d -> res3d
I0628 16:25:47.781955  1411 net.cpp:122] Setting up res3d
I0628 16:25:47.781968  1411 net.cpp:129] Top shape: 8 512 28 28 (3211264)
I0628 16:25:47.781972  1411 net.cpp:137] Memory required for data: 1359970464
I0628 16:25:47.781976  1411 layer_factory.hpp:77] Creating layer res3d_relu
I0628 16:25:47.781982  1411 net.cpp:84] Creating Layer res3d_relu
I0628 16:25:47.781986  1411 net.cpp:406] res3d_relu <- res3d
I0628 16:25:47.781992  1411 net.cpp:367] res3d_relu -> res3d (in-place)
I0628 16:25:47.782241  1411 net.cpp:122] Setting up res3d_relu
I0628 16:25:47.782261  1411 net.cpp:129] Top shape: 8 512 28 28 (3211264)
I0628 16:25:47.782265  1411 net.cpp:137] Memory required for data: 1372815520
I0628 16:25:47.782269  1411 layer_factory.hpp:77] Creating layer res3d_res3d_relu_0_split
I0628 16:25:47.782276  1411 net.cpp:84] Creating Layer res3d_res3d_relu_0_split
I0628 16:25:47.782280  1411 net.cpp:406] res3d_res3d_relu_0_split <- res3d
I0628 16:25:47.782289  1411 net.cpp:380] res3d_res3d_relu_0_split -> res3d_res3d_relu_0_split_0
I0628 16:25:47.782297  1411 net.cpp:380] res3d_res3d_relu_0_split -> res3d_res3d_relu_0_split_1
I0628 16:25:47.782346  1411 net.cpp:122] Setting up res3d_res3d_relu_0_split
I0628 16:25:47.782361  1411 net.cpp:129] Top shape: 8 512 28 28 (3211264)
I0628 16:25:47.782366  1411 net.cpp:129] Top shape: 8 512 28 28 (3211264)
I0628 16:25:47.782369  1411 net.cpp:137] Memory required for data: 1398505632
I0628 16:25:47.782372  1411 layer_factory.hpp:77] Creating layer res4a_branch1
I0628 16:25:47.782383  1411 net.cpp:84] Creating Layer res4a_branch1
I0628 16:25:47.782388  1411 net.cpp:406] res4a_branch1 <- res3d_res3d_relu_0_split_0
I0628 16:25:47.782397  1411 net.cpp:380] res4a_branch1 -> res4a_branch1
I0628 16:25:47.784559  1411 net.cpp:122] Setting up res4a_branch1
I0628 16:25:47.784579  1411 net.cpp:129] Top shape: 8 1024 14 14 (1605632)
I0628 16:25:47.784585  1411 net.cpp:137] Memory required for data: 1404928160
I0628 16:25:47.784591  1411 layer_factory.hpp:77] Creating layer bn4a_branch1
I0628 16:25:47.784601  1411 net.cpp:84] Creating Layer bn4a_branch1
I0628 16:25:47.784606  1411 net.cpp:406] bn4a_branch1 <- res4a_branch1
I0628 16:25:47.784612  1411 net.cpp:367] bn4a_branch1 -> res4a_branch1 (in-place)
I0628 16:25:47.784852  1411 net.cpp:122] Setting up bn4a_branch1
I0628 16:25:47.784880  1411 net.cpp:129] Top shape: 8 1024 14 14 (1605632)
I0628 16:25:47.784885  1411 net.cpp:137] Memory required for data: 1411350688
I0628 16:25:47.784896  1411 layer_factory.hpp:77] Creating layer scale4a_branch1
I0628 16:25:47.784904  1411 net.cpp:84] Creating Layer scale4a_branch1
I0628 16:25:47.784909  1411 net.cpp:406] scale4a_branch1 <- res4a_branch1
I0628 16:25:47.784915  1411 net.cpp:367] scale4a_branch1 -> res4a_branch1 (in-place)
I0628 16:25:47.784965  1411 layer_factory.hpp:77] Creating layer scale4a_branch1
I0628 16:25:47.785121  1411 net.cpp:122] Setting up scale4a_branch1
I0628 16:25:47.785136  1411 net.cpp:129] Top shape: 8 1024 14 14 (1605632)
I0628 16:25:47.785140  1411 net.cpp:137] Memory required for data: 1417773216
I0628 16:25:47.785147  1411 layer_factory.hpp:77] Creating layer res4a_branch2a
I0628 16:25:47.785158  1411 net.cpp:84] Creating Layer res4a_branch2a
I0628 16:25:47.785163  1411 net.cpp:406] res4a_branch2a <- res3d_res3d_relu_0_split_1
I0628 16:25:47.785171  1411 net.cpp:380] res4a_branch2a -> res4a_branch2a
I0628 16:25:47.786171  1411 net.cpp:122] Setting up res4a_branch2a
I0628 16:25:47.786198  1411 net.cpp:129] Top shape: 8 256 14 14 (401408)
I0628 16:25:47.786202  1411 net.cpp:137] Memory required for data: 1419378848
I0628 16:25:47.786208  1411 layer_factory.hpp:77] Creating layer bn4a_branch2a
I0628 16:25:47.786218  1411 net.cpp:84] Creating Layer bn4a_branch2a
I0628 16:25:47.786223  1411 net.cpp:406] bn4a_branch2a <- res4a_branch2a
I0628 16:25:47.786229  1411 net.cpp:367] bn4a_branch2a -> res4a_branch2a (in-place)
I0628 16:25:47.786453  1411 net.cpp:122] Setting up bn4a_branch2a
I0628 16:25:47.786468  1411 net.cpp:129] Top shape: 8 256 14 14 (401408)
I0628 16:25:47.786473  1411 net.cpp:137] Memory required for data: 1420984480
I0628 16:25:47.786480  1411 layer_factory.hpp:77] Creating layer scale4a_branch2a
I0628 16:25:47.786487  1411 net.cpp:84] Creating Layer scale4a_branch2a
I0628 16:25:47.786491  1411 net.cpp:406] scale4a_branch2a <- res4a_branch2a
I0628 16:25:47.786497  1411 net.cpp:367] scale4a_branch2a -> res4a_branch2a (in-place)
I0628 16:25:47.786550  1411 layer_factory.hpp:77] Creating layer scale4a_branch2a
I0628 16:25:47.786694  1411 net.cpp:122] Setting up scale4a_branch2a
I0628 16:25:47.786708  1411 net.cpp:129] Top shape: 8 256 14 14 (401408)
I0628 16:25:47.786712  1411 net.cpp:137] Memory required for data: 1422590112
I0628 16:25:47.786723  1411 layer_factory.hpp:77] Creating layer res4a_branch2a_relu
I0628 16:25:47.786731  1411 net.cpp:84] Creating Layer res4a_branch2a_relu
I0628 16:25:47.786739  1411 net.cpp:406] res4a_branch2a_relu <- res4a_branch2a
I0628 16:25:47.786744  1411 net.cpp:367] res4a_branch2a_relu -> res4a_branch2a (in-place)
I0628 16:25:47.786906  1411 net.cpp:122] Setting up res4a_branch2a_relu
I0628 16:25:47.786926  1411 net.cpp:129] Top shape: 8 256 14 14 (401408)
I0628 16:25:47.786929  1411 net.cpp:137] Memory required for data: 1424195744
I0628 16:25:47.786933  1411 layer_factory.hpp:77] Creating layer res4a_branch2b
I0628 16:25:47.786942  1411 net.cpp:84] Creating Layer res4a_branch2b
I0628 16:25:47.786947  1411 net.cpp:406] res4a_branch2b <- res4a_branch2a
I0628 16:25:47.786955  1411 net.cpp:380] res4a_branch2b -> res4a_branch2b
I0628 16:25:47.789162  1411 net.cpp:122] Setting up res4a_branch2b
I0628 16:25:47.789182  1411 net.cpp:129] Top shape: 8 256 14 14 (401408)
I0628 16:25:47.789186  1411 net.cpp:137] Memory required for data: 1425801376
I0628 16:25:47.789201  1411 layer_factory.hpp:77] Creating layer bn4a_branch2b
I0628 16:25:47.789208  1411 net.cpp:84] Creating Layer bn4a_branch2b
I0628 16:25:47.789212  1411 net.cpp:406] bn4a_branch2b <- res4a_branch2b
I0628 16:25:47.789222  1411 net.cpp:367] bn4a_branch2b -> res4a_branch2b (in-place)
I0628 16:25:47.789449  1411 net.cpp:122] Setting up bn4a_branch2b
I0628 16:25:47.789465  1411 net.cpp:129] Top shape: 8 256 14 14 (401408)
I0628 16:25:47.789469  1411 net.cpp:137] Memory required for data: 1427407008
I0628 16:25:47.789477  1411 layer_factory.hpp:77] Creating layer scale4a_branch2b
I0628 16:25:47.789504  1411 net.cpp:84] Creating Layer scale4a_branch2b
I0628 16:25:47.789508  1411 net.cpp:406] scale4a_branch2b <- res4a_branch2b
I0628 16:25:47.789515  1411 net.cpp:367] scale4a_branch2b -> res4a_branch2b (in-place)
I0628 16:25:47.789569  1411 layer_factory.hpp:77] Creating layer scale4a_branch2b
I0628 16:25:47.789711  1411 net.cpp:122] Setting up scale4a_branch2b
I0628 16:25:47.789726  1411 net.cpp:129] Top shape: 8 256 14 14 (401408)
I0628 16:25:47.789731  1411 net.cpp:137] Memory required for data: 1429012640
I0628 16:25:47.789737  1411 layer_factory.hpp:77] Creating layer res4a_branch2b_relu
I0628 16:25:47.789743  1411 net.cpp:84] Creating Layer res4a_branch2b_relu
I0628 16:25:47.789747  1411 net.cpp:406] res4a_branch2b_relu <- res4a_branch2b
I0628 16:25:47.789755  1411 net.cpp:367] res4a_branch2b_relu -> res4a_branch2b (in-place)
I0628 16:25:47.789916  1411 net.cpp:122] Setting up res4a_branch2b_relu
I0628 16:25:47.789933  1411 net.cpp:129] Top shape: 8 256 14 14 (401408)
I0628 16:25:47.789937  1411 net.cpp:137] Memory required for data: 1430618272
I0628 16:25:47.789942  1411 layer_factory.hpp:77] Creating layer res4a_branch2c
I0628 16:25:47.789952  1411 net.cpp:84] Creating Layer res4a_branch2c
I0628 16:25:47.789958  1411 net.cpp:406] res4a_branch2c <- res4a_branch2b
I0628 16:25:47.789965  1411 net.cpp:380] res4a_branch2c -> res4a_branch2c
I0628 16:25:47.791518  1411 net.cpp:122] Setting up res4a_branch2c
I0628 16:25:47.791538  1411 net.cpp:129] Top shape: 8 1024 14 14 (1605632)
I0628 16:25:47.791543  1411 net.cpp:137] Memory required for data: 1437040800
I0628 16:25:47.791549  1411 layer_factory.hpp:77] Creating layer bn4a_branch2c
I0628 16:25:47.791556  1411 net.cpp:84] Creating Layer bn4a_branch2c
I0628 16:25:47.791561  1411 net.cpp:406] bn4a_branch2c <- res4a_branch2c
I0628 16:25:47.791569  1411 net.cpp:367] bn4a_branch2c -> res4a_branch2c (in-place)
I0628 16:25:47.791801  1411 net.cpp:122] Setting up bn4a_branch2c
I0628 16:25:47.791817  1411 net.cpp:129] Top shape: 8 1024 14 14 (1605632)
I0628 16:25:47.791821  1411 net.cpp:137] Memory required for data: 1443463328
I0628 16:25:47.791829  1411 layer_factory.hpp:77] Creating layer scale4a_branch2c
I0628 16:25:47.791836  1411 net.cpp:84] Creating Layer scale4a_branch2c
I0628 16:25:47.791841  1411 net.cpp:406] scale4a_branch2c <- res4a_branch2c
I0628 16:25:47.791846  1411 net.cpp:367] scale4a_branch2c -> res4a_branch2c (in-place)
I0628 16:25:47.791896  1411 layer_factory.hpp:77] Creating layer scale4a_branch2c
I0628 16:25:47.792052  1411 net.cpp:122] Setting up scale4a_branch2c
I0628 16:25:47.792067  1411 net.cpp:129] Top shape: 8 1024 14 14 (1605632)
I0628 16:25:47.792070  1411 net.cpp:137] Memory required for data: 1449885856
I0628 16:25:47.792078  1411 layer_factory.hpp:77] Creating layer res4a
I0628 16:25:47.792083  1411 net.cpp:84] Creating Layer res4a
I0628 16:25:47.792088  1411 net.cpp:406] res4a <- res4a_branch1
I0628 16:25:47.792093  1411 net.cpp:406] res4a <- res4a_branch2c
I0628 16:25:47.792100  1411 net.cpp:380] res4a -> res4a
I0628 16:25:47.792134  1411 net.cpp:122] Setting up res4a
I0628 16:25:47.792147  1411 net.cpp:129] Top shape: 8 1024 14 14 (1605632)
I0628 16:25:47.792151  1411 net.cpp:137] Memory required for data: 1456308384
I0628 16:25:47.792155  1411 layer_factory.hpp:77] Creating layer res4a_relu
I0628 16:25:47.792163  1411 net.cpp:84] Creating Layer res4a_relu
I0628 16:25:47.792168  1411 net.cpp:406] res4a_relu <- res4a
I0628 16:25:47.792173  1411 net.cpp:367] res4a_relu -> res4a (in-place)
I0628 16:25:47.792438  1411 net.cpp:122] Setting up res4a_relu
I0628 16:25:47.792457  1411 net.cpp:129] Top shape: 8 1024 14 14 (1605632)
I0628 16:25:47.792460  1411 net.cpp:137] Memory required for data: 1462730912
I0628 16:25:47.792464  1411 layer_factory.hpp:77] Creating layer res4a_res4a_relu_0_split
I0628 16:25:47.792492  1411 net.cpp:84] Creating Layer res4a_res4a_relu_0_split
I0628 16:25:47.792502  1411 net.cpp:406] res4a_res4a_relu_0_split <- res4a
I0628 16:25:47.792510  1411 net.cpp:380] res4a_res4a_relu_0_split -> res4a_res4a_relu_0_split_0
I0628 16:25:47.792539  1411 net.cpp:380] res4a_res4a_relu_0_split -> res4a_res4a_relu_0_split_1
I0628 16:25:47.792594  1411 net.cpp:122] Setting up res4a_res4a_relu_0_split
I0628 16:25:47.792608  1411 net.cpp:129] Top shape: 8 1024 14 14 (1605632)
I0628 16:25:47.792613  1411 net.cpp:129] Top shape: 8 1024 14 14 (1605632)
I0628 16:25:47.792618  1411 net.cpp:137] Memory required for data: 1475575968
I0628 16:25:47.792621  1411 layer_factory.hpp:77] Creating layer res4b_branch2a
I0628 16:25:47.792632  1411 net.cpp:84] Creating Layer res4b_branch2a
I0628 16:25:47.792636  1411 net.cpp:406] res4b_branch2a <- res4a_res4a_relu_0_split_0
I0628 16:25:47.792644  1411 net.cpp:380] res4b_branch2a -> res4b_branch2a
I0628 16:25:47.794196  1411 net.cpp:122] Setting up res4b_branch2a
I0628 16:25:47.794216  1411 net.cpp:129] Top shape: 8 256 14 14 (401408)
I0628 16:25:47.794221  1411 net.cpp:137] Memory required for data: 1477181600
I0628 16:25:47.794227  1411 layer_factory.hpp:77] Creating layer bn4b_branch2a
I0628 16:25:47.794237  1411 net.cpp:84] Creating Layer bn4b_branch2a
I0628 16:25:47.794242  1411 net.cpp:406] bn4b_branch2a <- res4b_branch2a
I0628 16:25:47.794260  1411 net.cpp:367] bn4b_branch2a -> res4b_branch2a (in-place)
I0628 16:25:47.794507  1411 net.cpp:122] Setting up bn4b_branch2a
I0628 16:25:47.794523  1411 net.cpp:129] Top shape: 8 256 14 14 (401408)
I0628 16:25:47.794528  1411 net.cpp:137] Memory required for data: 1478787232
I0628 16:25:47.794535  1411 layer_factory.hpp:77] Creating layer scale4b_branch2a
I0628 16:25:47.794544  1411 net.cpp:84] Creating Layer scale4b_branch2a
I0628 16:25:47.794549  1411 net.cpp:406] scale4b_branch2a <- res4b_branch2a
I0628 16:25:47.794554  1411 net.cpp:367] scale4b_branch2a -> res4b_branch2a (in-place)
I0628 16:25:47.794607  1411 layer_factory.hpp:77] Creating layer scale4b_branch2a
I0628 16:25:47.794754  1411 net.cpp:122] Setting up scale4b_branch2a
I0628 16:25:47.794770  1411 net.cpp:129] Top shape: 8 256 14 14 (401408)
I0628 16:25:47.794773  1411 net.cpp:137] Memory required for data: 1480392864
I0628 16:25:47.794780  1411 layer_factory.hpp:77] Creating layer res4b_branch2a_relu
I0628 16:25:47.794786  1411 net.cpp:84] Creating Layer res4b_branch2a_relu
I0628 16:25:47.794791  1411 net.cpp:406] res4b_branch2a_relu <- res4b_branch2a
I0628 16:25:47.794796  1411 net.cpp:367] res4b_branch2a_relu -> res4b_branch2a (in-place)
I0628 16:25:47.794980  1411 net.cpp:122] Setting up res4b_branch2a_relu
I0628 16:25:47.794996  1411 net.cpp:129] Top shape: 8 256 14 14 (401408)
I0628 16:25:47.794999  1411 net.cpp:137] Memory required for data: 1481998496
I0628 16:25:47.795003  1411 layer_factory.hpp:77] Creating layer res4b_branch2b
I0628 16:25:47.795017  1411 net.cpp:84] Creating Layer res4b_branch2b
I0628 16:25:47.795022  1411 net.cpp:406] res4b_branch2b <- res4b_branch2a
I0628 16:25:47.795030  1411 net.cpp:380] res4b_branch2b -> res4b_branch2b
I0628 16:25:47.797237  1411 net.cpp:122] Setting up res4b_branch2b
I0628 16:25:47.797262  1411 net.cpp:129] Top shape: 8 256 14 14 (401408)
I0628 16:25:47.797266  1411 net.cpp:137] Memory required for data: 1483604128
I0628 16:25:47.797273  1411 layer_factory.hpp:77] Creating layer bn4b_branch2b
I0628 16:25:47.797281  1411 net.cpp:84] Creating Layer bn4b_branch2b
I0628 16:25:47.797286  1411 net.cpp:406] bn4b_branch2b <- res4b_branch2b
I0628 16:25:47.797291  1411 net.cpp:367] bn4b_branch2b -> res4b_branch2b (in-place)
I0628 16:25:47.797519  1411 net.cpp:122] Setting up bn4b_branch2b
I0628 16:25:47.797536  1411 net.cpp:129] Top shape: 8 256 14 14 (401408)
I0628 16:25:47.797540  1411 net.cpp:137] Memory required for data: 1485209760
I0628 16:25:47.797549  1411 layer_factory.hpp:77] Creating layer scale4b_branch2b
I0628 16:25:47.797556  1411 net.cpp:84] Creating Layer scale4b_branch2b
I0628 16:25:47.797560  1411 net.cpp:406] scale4b_branch2b <- res4b_branch2b
I0628 16:25:47.797565  1411 net.cpp:367] scale4b_branch2b -> res4b_branch2b (in-place)
I0628 16:25:47.797621  1411 layer_factory.hpp:77] Creating layer scale4b_branch2b
I0628 16:25:47.797765  1411 net.cpp:122] Setting up scale4b_branch2b
I0628 16:25:47.797792  1411 net.cpp:129] Top shape: 8 256 14 14 (401408)
I0628 16:25:47.797796  1411 net.cpp:137] Memory required for data: 1486815392
I0628 16:25:47.797803  1411 layer_factory.hpp:77] Creating layer res4b_branch2b_relu
I0628 16:25:47.797812  1411 net.cpp:84] Creating Layer res4b_branch2b_relu
I0628 16:25:47.797816  1411 net.cpp:406] res4b_branch2b_relu <- res4b_branch2b
I0628 16:25:47.797821  1411 net.cpp:367] res4b_branch2b_relu -> res4b_branch2b (in-place)
I0628 16:25:47.797981  1411 net.cpp:122] Setting up res4b_branch2b_relu
I0628 16:25:47.797999  1411 net.cpp:129] Top shape: 8 256 14 14 (401408)
I0628 16:25:47.798003  1411 net.cpp:137] Memory required for data: 1488421024
I0628 16:25:47.798007  1411 layer_factory.hpp:77] Creating layer res4b_branch2c
I0628 16:25:47.798017  1411 net.cpp:84] Creating Layer res4b_branch2c
I0628 16:25:47.798020  1411 net.cpp:406] res4b_branch2c <- res4b_branch2b
I0628 16:25:47.798029  1411 net.cpp:380] res4b_branch2c -> res4b_branch2c
I0628 16:25:47.799603  1411 net.cpp:122] Setting up res4b_branch2c
I0628 16:25:47.799623  1411 net.cpp:129] Top shape: 8 1024 14 14 (1605632)
I0628 16:25:47.799628  1411 net.cpp:137] Memory required for data: 1494843552
I0628 16:25:47.799634  1411 layer_factory.hpp:77] Creating layer bn4b_branch2c
I0628 16:25:47.799643  1411 net.cpp:84] Creating Layer bn4b_branch2c
I0628 16:25:47.799649  1411 net.cpp:406] bn4b_branch2c <- res4b_branch2c
I0628 16:25:47.799654  1411 net.cpp:367] bn4b_branch2c -> res4b_branch2c (in-place)
I0628 16:25:47.799903  1411 net.cpp:122] Setting up bn4b_branch2c
I0628 16:25:47.799918  1411 net.cpp:129] Top shape: 8 1024 14 14 (1605632)
I0628 16:25:47.799922  1411 net.cpp:137] Memory required for data: 1501266080
I0628 16:25:47.799932  1411 layer_factory.hpp:77] Creating layer scale4b_branch2c
I0628 16:25:47.799938  1411 net.cpp:84] Creating Layer scale4b_branch2c
I0628 16:25:47.799942  1411 net.cpp:406] scale4b_branch2c <- res4b_branch2c
I0628 16:25:47.799950  1411 net.cpp:367] scale4b_branch2c -> res4b_branch2c (in-place)
I0628 16:25:47.799999  1411 layer_factory.hpp:77] Creating layer scale4b_branch2c
I0628 16:25:47.800153  1411 net.cpp:122] Setting up scale4b_branch2c
I0628 16:25:47.800170  1411 net.cpp:129] Top shape: 8 1024 14 14 (1605632)
I0628 16:25:47.800174  1411 net.cpp:137] Memory required for data: 1507688608
I0628 16:25:47.800181  1411 layer_factory.hpp:77] Creating layer res4b
I0628 16:25:47.800194  1411 net.cpp:84] Creating Layer res4b
I0628 16:25:47.800199  1411 net.cpp:406] res4b <- res4a_res4a_relu_0_split_1
I0628 16:25:47.800204  1411 net.cpp:406] res4b <- res4b_branch2c
I0628 16:25:47.800209  1411 net.cpp:380] res4b -> res4b
I0628 16:25:47.800256  1411 net.cpp:122] Setting up res4b
I0628 16:25:47.800271  1411 net.cpp:129] Top shape: 8 1024 14 14 (1605632)
I0628 16:25:47.800276  1411 net.cpp:137] Memory required for data: 1514111136
I0628 16:25:47.800279  1411 layer_factory.hpp:77] Creating layer res4b_relu
I0628 16:25:47.800285  1411 net.cpp:84] Creating Layer res4b_relu
I0628 16:25:47.800289  1411 net.cpp:406] res4b_relu <- res4b
I0628 16:25:47.800297  1411 net.cpp:367] res4b_relu -> res4b (in-place)
I0628 16:25:47.800565  1411 net.cpp:122] Setting up res4b_relu
I0628 16:25:47.800583  1411 net.cpp:129] Top shape: 8 1024 14 14 (1605632)
I0628 16:25:47.800588  1411 net.cpp:137] Memory required for data: 1520533664
I0628 16:25:47.800592  1411 layer_factory.hpp:77] Creating layer res4b_res4b_relu_0_split
I0628 16:25:47.800601  1411 net.cpp:84] Creating Layer res4b_res4b_relu_0_split
I0628 16:25:47.800606  1411 net.cpp:406] res4b_res4b_relu_0_split <- res4b
I0628 16:25:47.800611  1411 net.cpp:380] res4b_res4b_relu_0_split -> res4b_res4b_relu_0_split_0
I0628 16:25:47.800619  1411 net.cpp:380] res4b_res4b_relu_0_split -> res4b_res4b_relu_0_split_1
I0628 16:25:47.800673  1411 net.cpp:122] Setting up res4b_res4b_relu_0_split
I0628 16:25:47.800688  1411 net.cpp:129] Top shape: 8 1024 14 14 (1605632)
I0628 16:25:47.800693  1411 net.cpp:129] Top shape: 8 1024 14 14 (1605632)
I0628 16:25:47.800709  1411 net.cpp:137] Memory required for data: 1533378720
I0628 16:25:47.800714  1411 layer_factory.hpp:77] Creating layer res4c_branch2a
I0628 16:25:47.800724  1411 net.cpp:84] Creating Layer res4c_branch2a
I0628 16:25:47.800729  1411 net.cpp:406] res4c_branch2a <- res4b_res4b_relu_0_split_0
I0628 16:25:47.800735  1411 net.cpp:380] res4c_branch2a -> res4c_branch2a
I0628 16:25:47.802325  1411 net.cpp:122] Setting up res4c_branch2a
I0628 16:25:47.802345  1411 net.cpp:129] Top shape: 8 256 14 14 (401408)
I0628 16:25:47.802350  1411 net.cpp:137] Memory required for data: 1534984352
I0628 16:25:47.802356  1411 layer_factory.hpp:77] Creating layer bn4c_branch2a
I0628 16:25:47.802366  1411 net.cpp:84] Creating Layer bn4c_branch2a
I0628 16:25:47.802371  1411 net.cpp:406] bn4c_branch2a <- res4c_branch2a
I0628 16:25:47.802378  1411 net.cpp:367] bn4c_branch2a -> res4c_branch2a (in-place)
I0628 16:25:47.802618  1411 net.cpp:122] Setting up bn4c_branch2a
I0628 16:25:47.802634  1411 net.cpp:129] Top shape: 8 256 14 14 (401408)
I0628 16:25:47.802639  1411 net.cpp:137] Memory required for data: 1536589984
I0628 16:25:47.802646  1411 layer_factory.hpp:77] Creating layer scale4c_branch2a
I0628 16:25:47.802656  1411 net.cpp:84] Creating Layer scale4c_branch2a
I0628 16:25:47.802660  1411 net.cpp:406] scale4c_branch2a <- res4c_branch2a
I0628 16:25:47.802666  1411 net.cpp:367] scale4c_branch2a -> res4c_branch2a (in-place)
I0628 16:25:47.802721  1411 layer_factory.hpp:77] Creating layer scale4c_branch2a
I0628 16:25:47.802881  1411 net.cpp:122] Setting up scale4c_branch2a
I0628 16:25:47.802896  1411 net.cpp:129] Top shape: 8 256 14 14 (401408)
I0628 16:25:47.802901  1411 net.cpp:137] Memory required for data: 1538195616
I0628 16:25:47.802907  1411 layer_factory.hpp:77] Creating layer res4c_branch2a_relu
I0628 16:25:47.802913  1411 net.cpp:84] Creating Layer res4c_branch2a_relu
I0628 16:25:47.802918  1411 net.cpp:406] res4c_branch2a_relu <- res4c_branch2a
I0628 16:25:47.802923  1411 net.cpp:367] res4c_branch2a_relu -> res4c_branch2a (in-place)
I0628 16:25:47.803108  1411 net.cpp:122] Setting up res4c_branch2a_relu
I0628 16:25:47.803125  1411 net.cpp:129] Top shape: 8 256 14 14 (401408)
I0628 16:25:47.803129  1411 net.cpp:137] Memory required for data: 1539801248
I0628 16:25:47.803133  1411 layer_factory.hpp:77] Creating layer res4c_branch2b
I0628 16:25:47.803145  1411 net.cpp:84] Creating Layer res4c_branch2b
I0628 16:25:47.803149  1411 net.cpp:406] res4c_branch2b <- res4c_branch2a
I0628 16:25:47.803158  1411 net.cpp:380] res4c_branch2b -> res4c_branch2b
I0628 16:25:47.805490  1411 net.cpp:122] Setting up res4c_branch2b
I0628 16:25:47.805512  1411 net.cpp:129] Top shape: 8 256 14 14 (401408)
I0628 16:25:47.805517  1411 net.cpp:137] Memory required for data: 1541406880
I0628 16:25:47.805523  1411 layer_factory.hpp:77] Creating layer bn4c_branch2b
I0628 16:25:47.805531  1411 net.cpp:84] Creating Layer bn4c_branch2b
I0628 16:25:47.805538  1411 net.cpp:406] bn4c_branch2b <- res4c_branch2b
I0628 16:25:47.805544  1411 net.cpp:367] bn4c_branch2b -> res4c_branch2b (in-place)
I0628 16:25:47.805789  1411 net.cpp:122] Setting up bn4c_branch2b
I0628 16:25:47.805804  1411 net.cpp:129] Top shape: 8 256 14 14 (401408)
I0628 16:25:47.805809  1411 net.cpp:137] Memory required for data: 1543012512
I0628 16:25:47.805817  1411 layer_factory.hpp:77] Creating layer scale4c_branch2b
I0628 16:25:47.805826  1411 net.cpp:84] Creating Layer scale4c_branch2b
I0628 16:25:47.805831  1411 net.cpp:406] scale4c_branch2b <- res4c_branch2b
I0628 16:25:47.805836  1411 net.cpp:367] scale4c_branch2b -> res4c_branch2b (in-place)
I0628 16:25:47.805892  1411 layer_factory.hpp:77] Creating layer scale4c_branch2b
I0628 16:25:47.806043  1411 net.cpp:122] Setting up scale4c_branch2b
I0628 16:25:47.806058  1411 net.cpp:129] Top shape: 8 256 14 14 (401408)
I0628 16:25:47.806063  1411 net.cpp:137] Memory required for data: 1544618144
I0628 16:25:47.806069  1411 layer_factory.hpp:77] Creating layer res4c_branch2b_relu
I0628 16:25:47.806082  1411 net.cpp:84] Creating Layer res4c_branch2b_relu
I0628 16:25:47.806102  1411 net.cpp:406] res4c_branch2b_relu <- res4c_branch2b
I0628 16:25:47.806112  1411 net.cpp:367] res4c_branch2b_relu -> res4c_branch2b (in-place)
I0628 16:25:47.806269  1411 net.cpp:122] Setting up res4c_branch2b_relu
I0628 16:25:47.806287  1411 net.cpp:129] Top shape: 8 256 14 14 (401408)
I0628 16:25:47.806291  1411 net.cpp:137] Memory required for data: 1546223776
I0628 16:25:47.806294  1411 layer_factory.hpp:77] Creating layer res4c_branch2c
I0628 16:25:47.806306  1411 net.cpp:84] Creating Layer res4c_branch2c
I0628 16:25:47.806310  1411 net.cpp:406] res4c_branch2c <- res4c_branch2b
I0628 16:25:47.806318  1411 net.cpp:380] res4c_branch2c -> res4c_branch2c
I0628 16:25:47.807878  1411 net.cpp:122] Setting up res4c_branch2c
I0628 16:25:47.807898  1411 net.cpp:129] Top shape: 8 1024 14 14 (1605632)
I0628 16:25:47.807903  1411 net.cpp:137] Memory required for data: 1552646304
I0628 16:25:47.807909  1411 layer_factory.hpp:77] Creating layer bn4c_branch2c
I0628 16:25:47.807919  1411 net.cpp:84] Creating Layer bn4c_branch2c
I0628 16:25:47.807924  1411 net.cpp:406] bn4c_branch2c <- res4c_branch2c
I0628 16:25:47.807930  1411 net.cpp:367] bn4c_branch2c -> res4c_branch2c (in-place)
I0628 16:25:47.808176  1411 net.cpp:122] Setting up bn4c_branch2c
I0628 16:25:47.808192  1411 net.cpp:129] Top shape: 8 1024 14 14 (1605632)
I0628 16:25:47.808195  1411 net.cpp:137] Memory required for data: 1559068832
I0628 16:25:47.808203  1411 layer_factory.hpp:77] Creating layer scale4c_branch2c
I0628 16:25:47.808212  1411 net.cpp:84] Creating Layer scale4c_branch2c
I0628 16:25:47.808218  1411 net.cpp:406] scale4c_branch2c <- res4c_branch2c
I0628 16:25:47.808223  1411 net.cpp:367] scale4c_branch2c -> res4c_branch2c (in-place)
I0628 16:25:47.808275  1411 layer_factory.hpp:77] Creating layer scale4c_branch2c
I0628 16:25:47.808432  1411 net.cpp:122] Setting up scale4c_branch2c
I0628 16:25:47.808447  1411 net.cpp:129] Top shape: 8 1024 14 14 (1605632)
I0628 16:25:47.808451  1411 net.cpp:137] Memory required for data: 1565491360
I0628 16:25:47.808459  1411 layer_factory.hpp:77] Creating layer res4c
I0628 16:25:47.808465  1411 net.cpp:84] Creating Layer res4c
I0628 16:25:47.808470  1411 net.cpp:406] res4c <- res4b_res4b_relu_0_split_1
I0628 16:25:47.808473  1411 net.cpp:406] res4c <- res4c_branch2c
I0628 16:25:47.808483  1411 net.cpp:380] res4c -> res4c
I0628 16:25:47.808519  1411 net.cpp:122] Setting up res4c
I0628 16:25:47.808533  1411 net.cpp:129] Top shape: 8 1024 14 14 (1605632)
I0628 16:25:47.808537  1411 net.cpp:137] Memory required for data: 1571913888
I0628 16:25:47.808542  1411 layer_factory.hpp:77] Creating layer res4c_relu
I0628 16:25:47.808547  1411 net.cpp:84] Creating Layer res4c_relu
I0628 16:25:47.808552  1411 net.cpp:406] res4c_relu <- res4c
I0628 16:25:47.808557  1411 net.cpp:367] res4c_relu -> res4c (in-place)
I0628 16:25:47.808830  1411 net.cpp:122] Setting up res4c_relu
I0628 16:25:47.808846  1411 net.cpp:129] Top shape: 8 1024 14 14 (1605632)
I0628 16:25:47.808851  1411 net.cpp:137] Memory required for data: 1578336416
I0628 16:25:47.808854  1411 layer_factory.hpp:77] Creating layer res4c_res4c_relu_0_split
I0628 16:25:47.808862  1411 net.cpp:84] Creating Layer res4c_res4c_relu_0_split
I0628 16:25:47.808867  1411 net.cpp:406] res4c_res4c_relu_0_split <- res4c
I0628 16:25:47.808873  1411 net.cpp:380] res4c_res4c_relu_0_split -> res4c_res4c_relu_0_split_0
I0628 16:25:47.808881  1411 net.cpp:380] res4c_res4c_relu_0_split -> res4c_res4c_relu_0_split_1
I0628 16:25:47.808934  1411 net.cpp:122] Setting up res4c_res4c_relu_0_split
I0628 16:25:47.808949  1411 net.cpp:129] Top shape: 8 1024 14 14 (1605632)
I0628 16:25:47.808954  1411 net.cpp:129] Top shape: 8 1024 14 14 (1605632)
I0628 16:25:47.808957  1411 net.cpp:137] Memory required for data: 1591181472
I0628 16:25:47.808961  1411 layer_factory.hpp:77] Creating layer res4d_branch2a
I0628 16:25:47.808972  1411 net.cpp:84] Creating Layer res4d_branch2a
I0628 16:25:47.808977  1411 net.cpp:406] res4d_branch2a <- res4c_res4c_relu_0_split_0
I0628 16:25:47.809003  1411 net.cpp:380] res4d_branch2a -> res4d_branch2a
I0628 16:25:47.810557  1411 net.cpp:122] Setting up res4d_branch2a
I0628 16:25:47.810577  1411 net.cpp:129] Top shape: 8 256 14 14 (401408)
I0628 16:25:47.810582  1411 net.cpp:137] Memory required for data: 1592787104
I0628 16:25:47.810588  1411 layer_factory.hpp:77] Creating layer bn4d_branch2a
I0628 16:25:47.810598  1411 net.cpp:84] Creating Layer bn4d_branch2a
I0628 16:25:47.810603  1411 net.cpp:406] bn4d_branch2a <- res4d_branch2a
I0628 16:25:47.810611  1411 net.cpp:367] bn4d_branch2a -> res4d_branch2a (in-place)
I0628 16:25:47.810853  1411 net.cpp:122] Setting up bn4d_branch2a
I0628 16:25:47.810868  1411 net.cpp:129] Top shape: 8 256 14 14 (401408)
I0628 16:25:47.810871  1411 net.cpp:137] Memory required for data: 1594392736
I0628 16:25:47.810880  1411 layer_factory.hpp:77] Creating layer scale4d_branch2a
I0628 16:25:47.810887  1411 net.cpp:84] Creating Layer scale4d_branch2a
I0628 16:25:47.810891  1411 net.cpp:406] scale4d_branch2a <- res4d_branch2a
I0628 16:25:47.810899  1411 net.cpp:367] scale4d_branch2a -> res4d_branch2a (in-place)
I0628 16:25:47.810972  1411 layer_factory.hpp:77] Creating layer scale4d_branch2a
I0628 16:25:47.811130  1411 net.cpp:122] Setting up scale4d_branch2a
I0628 16:25:47.811147  1411 net.cpp:129] Top shape: 8 256 14 14 (401408)
I0628 16:25:47.811151  1411 net.cpp:137] Memory required for data: 1595998368
I0628 16:25:47.811157  1411 layer_factory.hpp:77] Creating layer res4d_branch2a_relu
I0628 16:25:47.811164  1411 net.cpp:84] Creating Layer res4d_branch2a_relu
I0628 16:25:47.811168  1411 net.cpp:406] res4d_branch2a_relu <- res4d_branch2a
I0628 16:25:47.811173  1411 net.cpp:367] res4d_branch2a_relu -> res4d_branch2a (in-place)
I0628 16:25:47.811338  1411 net.cpp:122] Setting up res4d_branch2a_relu
I0628 16:25:47.811354  1411 net.cpp:129] Top shape: 8 256 14 14 (401408)
I0628 16:25:47.811358  1411 net.cpp:137] Memory required for data: 1597604000
I0628 16:25:47.811362  1411 layer_factory.hpp:77] Creating layer res4d_branch2b
I0628 16:25:47.811373  1411 net.cpp:84] Creating Layer res4d_branch2b
I0628 16:25:47.811378  1411 net.cpp:406] res4d_branch2b <- res4d_branch2a
I0628 16:25:47.811384  1411 net.cpp:380] res4d_branch2b -> res4d_branch2b
I0628 16:25:47.813568  1411 net.cpp:122] Setting up res4d_branch2b
I0628 16:25:47.813590  1411 net.cpp:129] Top shape: 8 256 14 14 (401408)
I0628 16:25:47.813593  1411 net.cpp:137] Memory required for data: 1599209632
I0628 16:25:47.813599  1411 layer_factory.hpp:77] Creating layer bn4d_branch2b
I0628 16:25:47.813607  1411 net.cpp:84] Creating Layer bn4d_branch2b
I0628 16:25:47.813612  1411 net.cpp:406] bn4d_branch2b <- res4d_branch2b
I0628 16:25:47.813621  1411 net.cpp:367] bn4d_branch2b -> res4d_branch2b (in-place)
I0628 16:25:47.813872  1411 net.cpp:122] Setting up bn4d_branch2b
I0628 16:25:47.813889  1411 net.cpp:129] Top shape: 8 256 14 14 (401408)
I0628 16:25:47.813891  1411 net.cpp:137] Memory required for data: 1600815264
I0628 16:25:47.813900  1411 layer_factory.hpp:77] Creating layer scale4d_branch2b
I0628 16:25:47.813907  1411 net.cpp:84] Creating Layer scale4d_branch2b
I0628 16:25:47.813911  1411 net.cpp:406] scale4d_branch2b <- res4d_branch2b
I0628 16:25:47.813916  1411 net.cpp:367] scale4d_branch2b -> res4d_branch2b (in-place)
I0628 16:25:47.813974  1411 layer_factory.hpp:77] Creating layer scale4d_branch2b
I0628 16:25:47.814141  1411 net.cpp:122] Setting up scale4d_branch2b
I0628 16:25:47.814157  1411 net.cpp:129] Top shape: 8 256 14 14 (401408)
I0628 16:25:47.814160  1411 net.cpp:137] Memory required for data: 1602420896
I0628 16:25:47.814167  1411 layer_factory.hpp:77] Creating layer res4d_branch2b_relu
I0628 16:25:47.814173  1411 net.cpp:84] Creating Layer res4d_branch2b_relu
I0628 16:25:47.814177  1411 net.cpp:406] res4d_branch2b_relu <- res4d_branch2b
I0628 16:25:47.814185  1411 net.cpp:367] res4d_branch2b_relu -> res4d_branch2b (in-place)
I0628 16:25:47.814347  1411 net.cpp:122] Setting up res4d_branch2b_relu
I0628 16:25:47.814363  1411 net.cpp:129] Top shape: 8 256 14 14 (401408)
I0628 16:25:47.814383  1411 net.cpp:137] Memory required for data: 1604026528
I0628 16:25:47.814388  1411 layer_factory.hpp:77] Creating layer res4d_branch2c
I0628 16:25:47.814398  1411 net.cpp:84] Creating Layer res4d_branch2c
I0628 16:25:47.814401  1411 net.cpp:406] res4d_branch2c <- res4d_branch2b
I0628 16:25:47.814410  1411 net.cpp:380] res4d_branch2c -> res4d_branch2c
I0628 16:25:47.816004  1411 net.cpp:122] Setting up res4d_branch2c
I0628 16:25:47.816025  1411 net.cpp:129] Top shape: 8 1024 14 14 (1605632)
I0628 16:25:47.816028  1411 net.cpp:137] Memory required for data: 1610449056
I0628 16:25:47.816035  1411 layer_factory.hpp:77] Creating layer bn4d_branch2c
I0628 16:25:47.816045  1411 net.cpp:84] Creating Layer bn4d_branch2c
I0628 16:25:47.816049  1411 net.cpp:406] bn4d_branch2c <- res4d_branch2c
I0628 16:25:47.816056  1411 net.cpp:367] bn4d_branch2c -> res4d_branch2c (in-place)
I0628 16:25:47.816313  1411 net.cpp:122] Setting up bn4d_branch2c
I0628 16:25:47.816329  1411 net.cpp:129] Top shape: 8 1024 14 14 (1605632)
I0628 16:25:47.816334  1411 net.cpp:137] Memory required for data: 1616871584
I0628 16:25:47.816342  1411 layer_factory.hpp:77] Creating layer scale4d_branch2c
I0628 16:25:47.816349  1411 net.cpp:84] Creating Layer scale4d_branch2c
I0628 16:25:47.816354  1411 net.cpp:406] scale4d_branch2c <- res4d_branch2c
I0628 16:25:47.816359  1411 net.cpp:367] scale4d_branch2c -> res4d_branch2c (in-place)
I0628 16:25:47.816413  1411 layer_factory.hpp:77] Creating layer scale4d_branch2c
I0628 16:25:47.816576  1411 net.cpp:122] Setting up scale4d_branch2c
I0628 16:25:47.816591  1411 net.cpp:129] Top shape: 8 1024 14 14 (1605632)
I0628 16:25:47.816596  1411 net.cpp:137] Memory required for data: 1623294112
I0628 16:25:47.816602  1411 layer_factory.hpp:77] Creating layer res4d
I0628 16:25:47.816612  1411 net.cpp:84] Creating Layer res4d
I0628 16:25:47.816617  1411 net.cpp:406] res4d <- res4c_res4c_relu_0_split_1
I0628 16:25:47.816622  1411 net.cpp:406] res4d <- res4d_branch2c
I0628 16:25:47.816627  1411 net.cpp:380] res4d -> res4d
I0628 16:25:47.816663  1411 net.cpp:122] Setting up res4d
I0628 16:25:47.816679  1411 net.cpp:129] Top shape: 8 1024 14 14 (1605632)
I0628 16:25:47.816682  1411 net.cpp:137] Memory required for data: 1629716640
I0628 16:25:47.816686  1411 layer_factory.hpp:77] Creating layer res4d_relu
I0628 16:25:47.816692  1411 net.cpp:84] Creating Layer res4d_relu
I0628 16:25:47.816696  1411 net.cpp:406] res4d_relu <- res4d
I0628 16:25:47.816704  1411 net.cpp:367] res4d_relu -> res4d (in-place)
I0628 16:25:47.816977  1411 net.cpp:122] Setting up res4d_relu
I0628 16:25:47.816994  1411 net.cpp:129] Top shape: 8 1024 14 14 (1605632)
I0628 16:25:47.816998  1411 net.cpp:137] Memory required for data: 1636139168
I0628 16:25:47.817003  1411 layer_factory.hpp:77] Creating layer res4d_res4d_relu_0_split
I0628 16:25:47.817009  1411 net.cpp:84] Creating Layer res4d_res4d_relu_0_split
I0628 16:25:47.817013  1411 net.cpp:406] res4d_res4d_relu_0_split <- res4d
I0628 16:25:47.817024  1411 net.cpp:380] res4d_res4d_relu_0_split -> res4d_res4d_relu_0_split_0
I0628 16:25:47.817032  1411 net.cpp:380] res4d_res4d_relu_0_split -> res4d_res4d_relu_0_split_1
I0628 16:25:47.817088  1411 net.cpp:122] Setting up res4d_res4d_relu_0_split
I0628 16:25:47.817106  1411 net.cpp:129] Top shape: 8 1024 14 14 (1605632)
I0628 16:25:47.817111  1411 net.cpp:129] Top shape: 8 1024 14 14 (1605632)
I0628 16:25:47.817114  1411 net.cpp:137] Memory required for data: 1648984224
I0628 16:25:47.817118  1411 layer_factory.hpp:77] Creating layer res4e_branch2a
I0628 16:25:47.817129  1411 net.cpp:84] Creating Layer res4e_branch2a
I0628 16:25:47.817134  1411 net.cpp:406] res4e_branch2a <- res4d_res4d_relu_0_split_0
I0628 16:25:47.817140  1411 net.cpp:380] res4e_branch2a -> res4e_branch2a
I0628 16:25:47.818720  1411 net.cpp:122] Setting up res4e_branch2a
I0628 16:25:47.818740  1411 net.cpp:129] Top shape: 8 256 14 14 (401408)
I0628 16:25:47.818744  1411 net.cpp:137] Memory required for data: 1650589856
I0628 16:25:47.818752  1411 layer_factory.hpp:77] Creating layer bn4e_branch2a
I0628 16:25:47.818773  1411 net.cpp:84] Creating Layer bn4e_branch2a
I0628 16:25:47.818779  1411 net.cpp:406] bn4e_branch2a <- res4e_branch2a
I0628 16:25:47.818785  1411 net.cpp:367] bn4e_branch2a -> res4e_branch2a (in-place)
I0628 16:25:47.819062  1411 net.cpp:122] Setting up bn4e_branch2a
I0628 16:25:47.819083  1411 net.cpp:129] Top shape: 8 256 14 14 (401408)
I0628 16:25:47.819087  1411 net.cpp:137] Memory required for data: 1652195488
I0628 16:25:47.819098  1411 layer_factory.hpp:77] Creating layer scale4e_branch2a
I0628 16:25:47.819105  1411 net.cpp:84] Creating Layer scale4e_branch2a
I0628 16:25:47.819110  1411 net.cpp:406] scale4e_branch2a <- res4e_branch2a
I0628 16:25:47.819115  1411 net.cpp:367] scale4e_branch2a -> res4e_branch2a (in-place)
I0628 16:25:47.819175  1411 layer_factory.hpp:77] Creating layer scale4e_branch2a
I0628 16:25:47.819334  1411 net.cpp:122] Setting up scale4e_branch2a
I0628 16:25:47.819353  1411 net.cpp:129] Top shape: 8 256 14 14 (401408)
I0628 16:25:47.819357  1411 net.cpp:137] Memory required for data: 1653801120
I0628 16:25:47.819365  1411 layer_factory.hpp:77] Creating layer res4e_branch2a_relu
I0628 16:25:47.819370  1411 net.cpp:84] Creating Layer res4e_branch2a_relu
I0628 16:25:47.819375  1411 net.cpp:406] res4e_branch2a_relu <- res4e_branch2a
I0628 16:25:47.819382  1411 net.cpp:367] res4e_branch2a_relu -> res4e_branch2a (in-place)
I0628 16:25:47.819545  1411 net.cpp:122] Setting up res4e_branch2a_relu
I0628 16:25:47.819561  1411 net.cpp:129] Top shape: 8 256 14 14 (401408)
I0628 16:25:47.819564  1411 net.cpp:137] Memory required for data: 1655406752
I0628 16:25:47.819568  1411 layer_factory.hpp:77] Creating layer res4e_branch2b
I0628 16:25:47.819581  1411 net.cpp:84] Creating Layer res4e_branch2b
I0628 16:25:47.819586  1411 net.cpp:406] res4e_branch2b <- res4e_branch2a
I0628 16:25:47.819592  1411 net.cpp:380] res4e_branch2b -> res4e_branch2b
I0628 16:25:47.821800  1411 net.cpp:122] Setting up res4e_branch2b
I0628 16:25:47.821820  1411 net.cpp:129] Top shape: 8 256 14 14 (401408)
I0628 16:25:47.821825  1411 net.cpp:137] Memory required for data: 1657012384
I0628 16:25:47.821830  1411 layer_factory.hpp:77] Creating layer bn4e_branch2b
I0628 16:25:47.821841  1411 net.cpp:84] Creating Layer bn4e_branch2b
I0628 16:25:47.821846  1411 net.cpp:406] bn4e_branch2b <- res4e_branch2b
I0628 16:25:47.821851  1411 net.cpp:367] bn4e_branch2b -> res4e_branch2b (in-place)
I0628 16:25:47.822118  1411 net.cpp:122] Setting up bn4e_branch2b
I0628 16:25:47.822134  1411 net.cpp:129] Top shape: 8 256 14 14 (401408)
I0628 16:25:47.822137  1411 net.cpp:137] Memory required for data: 1658618016
I0628 16:25:47.822145  1411 layer_factory.hpp:77] Creating layer scale4e_branch2b
I0628 16:25:47.822161  1411 net.cpp:84] Creating Layer scale4e_branch2b
I0628 16:25:47.822166  1411 net.cpp:406] scale4e_branch2b <- res4e_branch2b
I0628 16:25:47.822172  1411 net.cpp:367] scale4e_branch2b -> res4e_branch2b (in-place)
I0628 16:25:47.822230  1411 layer_factory.hpp:77] Creating layer scale4e_branch2b
I0628 16:25:47.822392  1411 net.cpp:122] Setting up scale4e_branch2b
I0628 16:25:47.822407  1411 net.cpp:129] Top shape: 8 256 14 14 (401408)
I0628 16:25:47.822412  1411 net.cpp:137] Memory required for data: 1660223648
I0628 16:25:47.822418  1411 layer_factory.hpp:77] Creating layer res4e_branch2b_relu
I0628 16:25:47.822424  1411 net.cpp:84] Creating Layer res4e_branch2b_relu
I0628 16:25:47.822428  1411 net.cpp:406] res4e_branch2b_relu <- res4e_branch2b
I0628 16:25:47.822437  1411 net.cpp:367] res4e_branch2b_relu -> res4e_branch2b (in-place)
I0628 16:25:47.822607  1411 net.cpp:122] Setting up res4e_branch2b_relu
I0628 16:25:47.822624  1411 net.cpp:129] Top shape: 8 256 14 14 (401408)
I0628 16:25:47.822628  1411 net.cpp:137] Memory required for data: 1661829280
I0628 16:25:47.822633  1411 layer_factory.hpp:77] Creating layer res4e_branch2c
I0628 16:25:47.822643  1411 net.cpp:84] Creating Layer res4e_branch2c
I0628 16:25:47.822649  1411 net.cpp:406] res4e_branch2c <- res4e_branch2b
I0628 16:25:47.822669  1411 net.cpp:380] res4e_branch2c -> res4e_branch2c
I0628 16:25:47.824272  1411 net.cpp:122] Setting up res4e_branch2c
I0628 16:25:47.824291  1411 net.cpp:129] Top shape: 8 1024 14 14 (1605632)
I0628 16:25:47.824296  1411 net.cpp:137] Memory required for data: 1668251808
I0628 16:25:47.824302  1411 layer_factory.hpp:77] Creating layer bn4e_branch2c
I0628 16:25:47.824312  1411 net.cpp:84] Creating Layer bn4e_branch2c
I0628 16:25:47.824317  1411 net.cpp:406] bn4e_branch2c <- res4e_branch2c
I0628 16:25:47.824323  1411 net.cpp:367] bn4e_branch2c -> res4e_branch2c (in-place)
I0628 16:25:47.824582  1411 net.cpp:122] Setting up bn4e_branch2c
I0628 16:25:47.824600  1411 net.cpp:129] Top shape: 8 1024 14 14 (1605632)
I0628 16:25:47.824605  1411 net.cpp:137] Memory required for data: 1674674336
I0628 16:25:47.824616  1411 layer_factory.hpp:77] Creating layer scale4e_branch2c
I0628 16:25:47.824625  1411 net.cpp:84] Creating Layer scale4e_branch2c
I0628 16:25:47.824630  1411 net.cpp:406] scale4e_branch2c <- res4e_branch2c
I0628 16:25:47.824636  1411 net.cpp:367] scale4e_branch2c -> res4e_branch2c (in-place)
I0628 16:25:47.824692  1411 layer_factory.hpp:77] Creating layer scale4e_branch2c
I0628 16:25:47.824858  1411 net.cpp:122] Setting up scale4e_branch2c
I0628 16:25:47.824873  1411 net.cpp:129] Top shape: 8 1024 14 14 (1605632)
I0628 16:25:47.824877  1411 net.cpp:137] Memory required for data: 1681096864
I0628 16:25:47.824883  1411 layer_factory.hpp:77] Creating layer res4e
I0628 16:25:47.824892  1411 net.cpp:84] Creating Layer res4e
I0628 16:25:47.824898  1411 net.cpp:406] res4e <- res4d_res4d_relu_0_split_1
I0628 16:25:47.824903  1411 net.cpp:406] res4e <- res4e_branch2c
I0628 16:25:47.824908  1411 net.cpp:380] res4e -> res4e
I0628 16:25:47.824945  1411 net.cpp:122] Setting up res4e
I0628 16:25:47.824960  1411 net.cpp:129] Top shape: 8 1024 14 14 (1605632)
I0628 16:25:47.824965  1411 net.cpp:137] Memory required for data: 1687519392
I0628 16:25:47.824968  1411 layer_factory.hpp:77] Creating layer res4e_relu
I0628 16:25:47.824975  1411 net.cpp:84] Creating Layer res4e_relu
I0628 16:25:47.824978  1411 net.cpp:406] res4e_relu <- res4e
I0628 16:25:47.824988  1411 net.cpp:367] res4e_relu -> res4e (in-place)
I0628 16:25:47.825266  1411 net.cpp:122] Setting up res4e_relu
I0628 16:25:47.825284  1411 net.cpp:129] Top shape: 8 1024 14 14 (1605632)
I0628 16:25:47.825289  1411 net.cpp:137] Memory required for data: 1693941920
I0628 16:25:47.825292  1411 layer_factory.hpp:77] Creating layer res4e_res4e_relu_0_split
I0628 16:25:47.825301  1411 net.cpp:84] Creating Layer res4e_res4e_relu_0_split
I0628 16:25:47.825306  1411 net.cpp:406] res4e_res4e_relu_0_split <- res4e
I0628 16:25:47.825312  1411 net.cpp:380] res4e_res4e_relu_0_split -> res4e_res4e_relu_0_split_0
I0628 16:25:47.825320  1411 net.cpp:380] res4e_res4e_relu_0_split -> res4e_res4e_relu_0_split_1
I0628 16:25:47.825377  1411 net.cpp:122] Setting up res4e_res4e_relu_0_split
I0628 16:25:47.825392  1411 net.cpp:129] Top shape: 8 1024 14 14 (1605632)
I0628 16:25:47.825397  1411 net.cpp:129] Top shape: 8 1024 14 14 (1605632)
I0628 16:25:47.825400  1411 net.cpp:137] Memory required for data: 1706786976
I0628 16:25:47.825404  1411 layer_factory.hpp:77] Creating layer res4f_branch2a
I0628 16:25:47.825415  1411 net.cpp:84] Creating Layer res4f_branch2a
I0628 16:25:47.825419  1411 net.cpp:406] res4f_branch2a <- res4e_res4e_relu_0_split_0
I0628 16:25:47.825426  1411 net.cpp:380] res4f_branch2a -> res4f_branch2a
I0628 16:25:47.827136  1411 net.cpp:122] Setting up res4f_branch2a
I0628 16:25:47.827155  1411 net.cpp:129] Top shape: 8 256 14 14 (401408)
I0628 16:25:47.827159  1411 net.cpp:137] Memory required for data: 1708392608
I0628 16:25:47.827167  1411 layer_factory.hpp:77] Creating layer bn4f_branch2a
I0628 16:25:47.827177  1411 net.cpp:84] Creating Layer bn4f_branch2a
I0628 16:25:47.827181  1411 net.cpp:406] bn4f_branch2a <- res4f_branch2a
I0628 16:25:47.827186  1411 net.cpp:367] bn4f_branch2a -> res4f_branch2a (in-place)
I0628 16:25:47.827450  1411 net.cpp:122] Setting up bn4f_branch2a
I0628 16:25:47.827478  1411 net.cpp:129] Top shape: 8 256 14 14 (401408)
I0628 16:25:47.827482  1411 net.cpp:137] Memory required for data: 1709998240
I0628 16:25:47.827491  1411 layer_factory.hpp:77] Creating layer scale4f_branch2a
I0628 16:25:47.827500  1411 net.cpp:84] Creating Layer scale4f_branch2a
I0628 16:25:47.827507  1411 net.cpp:406] scale4f_branch2a <- res4f_branch2a
I0628 16:25:47.827512  1411 net.cpp:367] scale4f_branch2a -> res4f_branch2a (in-place)
I0628 16:25:47.827572  1411 layer_factory.hpp:77] Creating layer scale4f_branch2a
I0628 16:25:47.827739  1411 net.cpp:122] Setting up scale4f_branch2a
I0628 16:25:47.827759  1411 net.cpp:129] Top shape: 8 256 14 14 (401408)
I0628 16:25:47.827762  1411 net.cpp:137] Memory required for data: 1711603872
I0628 16:25:47.827769  1411 layer_factory.hpp:77] Creating layer res4f_branch2a_relu
I0628 16:25:47.827776  1411 net.cpp:84] Creating Layer res4f_branch2a_relu
I0628 16:25:47.827780  1411 net.cpp:406] res4f_branch2a_relu <- res4f_branch2a
I0628 16:25:47.827788  1411 net.cpp:367] res4f_branch2a_relu -> res4f_branch2a (in-place)
I0628 16:25:47.827950  1411 net.cpp:122] Setting up res4f_branch2a_relu
I0628 16:25:47.827966  1411 net.cpp:129] Top shape: 8 256 14 14 (401408)
I0628 16:25:47.827970  1411 net.cpp:137] Memory required for data: 1713209504
I0628 16:25:47.827975  1411 layer_factory.hpp:77] Creating layer res4f_branch2b
I0628 16:25:47.827987  1411 net.cpp:84] Creating Layer res4f_branch2b
I0628 16:25:47.827991  1411 net.cpp:406] res4f_branch2b <- res4f_branch2a
I0628 16:25:47.827998  1411 net.cpp:380] res4f_branch2b -> res4f_branch2b
I0628 16:25:47.830229  1411 net.cpp:122] Setting up res4f_branch2b
I0628 16:25:47.830250  1411 net.cpp:129] Top shape: 8 256 14 14 (401408)
I0628 16:25:47.830255  1411 net.cpp:137] Memory required for data: 1714815136
I0628 16:25:47.830260  1411 layer_factory.hpp:77] Creating layer bn4f_branch2b
I0628 16:25:47.830268  1411 net.cpp:84] Creating Layer bn4f_branch2b
I0628 16:25:47.830276  1411 net.cpp:406] bn4f_branch2b <- res4f_branch2b
I0628 16:25:47.830281  1411 net.cpp:367] bn4f_branch2b -> res4f_branch2b (in-place)
I0628 16:25:47.830545  1411 net.cpp:122] Setting up bn4f_branch2b
I0628 16:25:47.830560  1411 net.cpp:129] Top shape: 8 256 14 14 (401408)
I0628 16:25:47.830564  1411 net.cpp:137] Memory required for data: 1716420768
I0628 16:25:47.830574  1411 layer_factory.hpp:77] Creating layer scale4f_branch2b
I0628 16:25:47.830582  1411 net.cpp:84] Creating Layer scale4f_branch2b
I0628 16:25:47.830587  1411 net.cpp:406] scale4f_branch2b <- res4f_branch2b
I0628 16:25:47.830592  1411 net.cpp:367] scale4f_branch2b -> res4f_branch2b (in-place)
I0628 16:25:47.830651  1411 layer_factory.hpp:77] Creating layer scale4f_branch2b
I0628 16:25:47.830816  1411 net.cpp:122] Setting up scale4f_branch2b
I0628 16:25:47.830832  1411 net.cpp:129] Top shape: 8 256 14 14 (401408)
I0628 16:25:47.830835  1411 net.cpp:137] Memory required for data: 1718026400
I0628 16:25:47.830842  1411 layer_factory.hpp:77] Creating layer res4f_branch2b_relu
I0628 16:25:47.830849  1411 net.cpp:84] Creating Layer res4f_branch2b_relu
I0628 16:25:47.830853  1411 net.cpp:406] res4f_branch2b_relu <- res4f_branch2b
I0628 16:25:47.830862  1411 net.cpp:367] res4f_branch2b_relu -> res4f_branch2b (in-place)
I0628 16:25:47.831042  1411 net.cpp:122] Setting up res4f_branch2b_relu
I0628 16:25:47.831059  1411 net.cpp:129] Top shape: 8 256 14 14 (401408)
I0628 16:25:47.831063  1411 net.cpp:137] Memory required for data: 1719632032
I0628 16:25:47.831075  1411 layer_factory.hpp:77] Creating layer res4f_branch2c
I0628 16:25:47.831086  1411 net.cpp:84] Creating Layer res4f_branch2c
I0628 16:25:47.831094  1411 net.cpp:406] res4f_branch2c <- res4f_branch2b
I0628 16:25:47.831102  1411 net.cpp:380] res4f_branch2c -> res4f_branch2c
I0628 16:25:47.832679  1411 net.cpp:122] Setting up res4f_branch2c
I0628 16:25:47.832698  1411 net.cpp:129] Top shape: 8 1024 14 14 (1605632)
I0628 16:25:47.832703  1411 net.cpp:137] Memory required for data: 1726054560
I0628 16:25:47.832710  1411 layer_factory.hpp:77] Creating layer bn4f_branch2c
I0628 16:25:47.832733  1411 net.cpp:84] Creating Layer bn4f_branch2c
I0628 16:25:47.832741  1411 net.cpp:406] bn4f_branch2c <- res4f_branch2c
I0628 16:25:47.832747  1411 net.cpp:367] bn4f_branch2c -> res4f_branch2c (in-place)
I0628 16:25:47.833020  1411 net.cpp:122] Setting up bn4f_branch2c
I0628 16:25:47.833036  1411 net.cpp:129] Top shape: 8 1024 14 14 (1605632)
I0628 16:25:47.833040  1411 net.cpp:137] Memory required for data: 1732477088
I0628 16:25:47.833102  1411 layer_factory.hpp:77] Creating layer scale4f_branch2c
I0628 16:25:47.833119  1411 net.cpp:84] Creating Layer scale4f_branch2c
I0628 16:25:47.833124  1411 net.cpp:406] scale4f_branch2c <- res4f_branch2c
I0628 16:25:47.833130  1411 net.cpp:367] scale4f_branch2c -> res4f_branch2c (in-place)
I0628 16:25:47.833199  1411 layer_factory.hpp:77] Creating layer scale4f_branch2c
I0628 16:25:47.833364  1411 net.cpp:122] Setting up scale4f_branch2c
I0628 16:25:47.833379  1411 net.cpp:129] Top shape: 8 1024 14 14 (1605632)
I0628 16:25:47.833384  1411 net.cpp:137] Memory required for data: 1738899616
I0628 16:25:47.833390  1411 layer_factory.hpp:77] Creating layer res4f
I0628 16:25:47.833400  1411 net.cpp:84] Creating Layer res4f
I0628 16:25:47.833403  1411 net.cpp:406] res4f <- res4e_res4e_relu_0_split_1
I0628 16:25:47.833408  1411 net.cpp:406] res4f <- res4f_branch2c
I0628 16:25:47.833415  1411 net.cpp:380] res4f -> res4f
I0628 16:25:47.833449  1411 net.cpp:122] Setting up res4f
I0628 16:25:47.833464  1411 net.cpp:129] Top shape: 8 1024 14 14 (1605632)
I0628 16:25:47.833468  1411 net.cpp:137] Memory required for data: 1745322144
I0628 16:25:47.833472  1411 layer_factory.hpp:77] Creating layer res4f_relu
I0628 16:25:47.833482  1411 net.cpp:84] Creating Layer res4f_relu
I0628 16:25:47.833485  1411 net.cpp:406] res4f_relu <- res4f
I0628 16:25:47.833492  1411 net.cpp:367] res4f_relu -> res4f (in-place)
I0628 16:25:47.833773  1411 net.cpp:122] Setting up res4f_relu
I0628 16:25:47.833792  1411 net.cpp:129] Top shape: 8 1024 14 14 (1605632)
I0628 16:25:47.833796  1411 net.cpp:137] Memory required for data: 1751744672
I0628 16:25:47.833801  1411 layer_factory.hpp:77] Creating layer res4f_res4f_relu_0_split
I0628 16:25:47.833806  1411 net.cpp:84] Creating Layer res4f_res4f_relu_0_split
I0628 16:25:47.833811  1411 net.cpp:406] res4f_res4f_relu_0_split <- res4f
I0628 16:25:47.833819  1411 net.cpp:380] res4f_res4f_relu_0_split -> res4f_res4f_relu_0_split_0
I0628 16:25:47.833827  1411 net.cpp:380] res4f_res4f_relu_0_split -> res4f_res4f_relu_0_split_1
I0628 16:25:47.833884  1411 net.cpp:122] Setting up res4f_res4f_relu_0_split
I0628 16:25:47.833899  1411 net.cpp:129] Top shape: 8 1024 14 14 (1605632)
I0628 16:25:47.833904  1411 net.cpp:129] Top shape: 8 1024 14 14 (1605632)
I0628 16:25:47.833909  1411 net.cpp:137] Memory required for data: 1764589728
I0628 16:25:47.833912  1411 layer_factory.hpp:77] Creating layer res5a_branch1
I0628 16:25:47.833925  1411 net.cpp:84] Creating Layer res5a_branch1
I0628 16:25:47.833931  1411 net.cpp:406] res5a_branch1 <- res4f_res4f_relu_0_split_0
I0628 16:25:47.833937  1411 net.cpp:380] res5a_branch1 -> res5a_branch1
I0628 16:25:47.839270  1411 net.cpp:122] Setting up res5a_branch1
I0628 16:25:47.839295  1411 net.cpp:129] Top shape: 8 2048 7 7 (802816)
I0628 16:25:47.839299  1411 net.cpp:137] Memory required for data: 1767800992
I0628 16:25:47.839306  1411 layer_factory.hpp:77] Creating layer bn5a_branch1
I0628 16:25:47.839316  1411 net.cpp:84] Creating Layer bn5a_branch1
I0628 16:25:47.839323  1411 net.cpp:406] bn5a_branch1 <- res5a_branch1
I0628 16:25:47.839331  1411 net.cpp:367] bn5a_branch1 -> res5a_branch1 (in-place)
I0628 16:25:47.839627  1411 net.cpp:122] Setting up bn5a_branch1
I0628 16:25:47.839643  1411 net.cpp:129] Top shape: 8 2048 7 7 (802816)
I0628 16:25:47.839648  1411 net.cpp:137] Memory required for data: 1771012256
I0628 16:25:47.839656  1411 layer_factory.hpp:77] Creating layer scale5a_branch1
I0628 16:25:47.839663  1411 net.cpp:84] Creating Layer scale5a_branch1
I0628 16:25:47.839668  1411 net.cpp:406] scale5a_branch1 <- res5a_branch1
I0628 16:25:47.839690  1411 net.cpp:367] scale5a_branch1 -> res5a_branch1 (in-place)
I0628 16:25:47.839752  1411 layer_factory.hpp:77] Creating layer scale5a_branch1
I0628 16:25:47.839933  1411 net.cpp:122] Setting up scale5a_branch1
I0628 16:25:47.839949  1411 net.cpp:129] Top shape: 8 2048 7 7 (802816)
I0628 16:25:47.839953  1411 net.cpp:137] Memory required for data: 1774223520
I0628 16:25:47.839960  1411 layer_factory.hpp:77] Creating layer res5a_branch2a
I0628 16:25:47.839975  1411 net.cpp:84] Creating Layer res5a_branch2a
I0628 16:25:47.839987  1411 net.cpp:406] res5a_branch2a <- res4f_res4f_relu_0_split_1
I0628 16:25:47.839993  1411 net.cpp:380] res5a_branch2a -> res5a_branch2a
I0628 16:25:47.842025  1411 net.cpp:122] Setting up res5a_branch2a
I0628 16:25:47.842046  1411 net.cpp:129] Top shape: 8 512 7 7 (200704)
I0628 16:25:47.842051  1411 net.cpp:137] Memory required for data: 1775026336
I0628 16:25:47.842057  1411 layer_factory.hpp:77] Creating layer bn5a_branch2a
I0628 16:25:47.842079  1411 net.cpp:84] Creating Layer bn5a_branch2a
I0628 16:25:47.842090  1411 net.cpp:406] bn5a_branch2a <- res5a_branch2a
I0628 16:25:47.842097  1411 net.cpp:367] bn5a_branch2a -> res5a_branch2a (in-place)
I0628 16:25:47.842378  1411 net.cpp:122] Setting up bn5a_branch2a
I0628 16:25:47.842393  1411 net.cpp:129] Top shape: 8 512 7 7 (200704)
I0628 16:25:47.842397  1411 net.cpp:137] Memory required for data: 1775829152
I0628 16:25:47.842406  1411 layer_factory.hpp:77] Creating layer scale5a_branch2a
I0628 16:25:47.842412  1411 net.cpp:84] Creating Layer scale5a_branch2a
I0628 16:25:47.842417  1411 net.cpp:406] scale5a_branch2a <- res5a_branch2a
I0628 16:25:47.842424  1411 net.cpp:367] scale5a_branch2a -> res5a_branch2a (in-place)
I0628 16:25:47.842484  1411 layer_factory.hpp:77] Creating layer scale5a_branch2a
I0628 16:25:47.842658  1411 net.cpp:122] Setting up scale5a_branch2a
I0628 16:25:47.842674  1411 net.cpp:129] Top shape: 8 512 7 7 (200704)
I0628 16:25:47.842677  1411 net.cpp:137] Memory required for data: 1776631968
I0628 16:25:47.842684  1411 layer_factory.hpp:77] Creating layer res5a_branch2a_relu
I0628 16:25:47.842694  1411 net.cpp:84] Creating Layer res5a_branch2a_relu
I0628 16:25:47.842699  1411 net.cpp:406] res5a_branch2a_relu <- res5a_branch2a
I0628 16:25:47.842703  1411 net.cpp:367] res5a_branch2a_relu -> res5a_branch2a (in-place)
I0628 16:25:47.842999  1411 net.cpp:122] Setting up res5a_branch2a_relu
I0628 16:25:47.843017  1411 net.cpp:129] Top shape: 8 512 7 7 (200704)
I0628 16:25:47.843021  1411 net.cpp:137] Memory required for data: 1777434784
I0628 16:25:47.843025  1411 layer_factory.hpp:77] Creating layer res5a_branch2b
I0628 16:25:47.843039  1411 net.cpp:84] Creating Layer res5a_branch2b
I0628 16:25:47.843044  1411 net.cpp:406] res5a_branch2b <- res5a_branch2a
I0628 16:25:47.843051  1411 net.cpp:380] res5a_branch2b -> res5a_branch2b
I0628 16:25:47.849216  1411 net.cpp:122] Setting up res5a_branch2b
I0628 16:25:47.849256  1411 net.cpp:129] Top shape: 8 512 7 7 (200704)
I0628 16:25:47.849261  1411 net.cpp:137] Memory required for data: 1778237600
I0628 16:25:47.849269  1411 layer_factory.hpp:77] Creating layer bn5a_branch2b
I0628 16:25:47.849283  1411 net.cpp:84] Creating Layer bn5a_branch2b
I0628 16:25:47.849289  1411 net.cpp:406] bn5a_branch2b <- res5a_branch2b
I0628 16:25:47.849298  1411 net.cpp:367] bn5a_branch2b -> res5a_branch2b (in-place)
I0628 16:25:47.849589  1411 net.cpp:122] Setting up bn5a_branch2b
I0628 16:25:47.849606  1411 net.cpp:129] Top shape: 8 512 7 7 (200704)
I0628 16:25:47.849609  1411 net.cpp:137] Memory required for data: 1779040416
I0628 16:25:47.849618  1411 layer_factory.hpp:77] Creating layer scale5a_branch2b
I0628 16:25:47.849628  1411 net.cpp:84] Creating Layer scale5a_branch2b
I0628 16:25:47.849633  1411 net.cpp:406] scale5a_branch2b <- res5a_branch2b
I0628 16:25:47.849638  1411 net.cpp:367] scale5a_branch2b -> res5a_branch2b (in-place)
I0628 16:25:47.849701  1411 layer_factory.hpp:77] Creating layer scale5a_branch2b
I0628 16:25:47.849885  1411 net.cpp:122] Setting up scale5a_branch2b
I0628 16:25:47.849916  1411 net.cpp:129] Top shape: 8 512 7 7 (200704)
I0628 16:25:47.849921  1411 net.cpp:137] Memory required for data: 1779843232
I0628 16:25:47.849928  1411 layer_factory.hpp:77] Creating layer res5a_branch2b_relu
I0628 16:25:47.849936  1411 net.cpp:84] Creating Layer res5a_branch2b_relu
I0628 16:25:47.849941  1411 net.cpp:406] res5a_branch2b_relu <- res5a_branch2b
I0628 16:25:47.849951  1411 net.cpp:367] res5a_branch2b_relu -> res5a_branch2b (in-place)
I0628 16:25:47.850137  1411 net.cpp:122] Setting up res5a_branch2b_relu
I0628 16:25:47.850164  1411 net.cpp:129] Top shape: 8 512 7 7 (200704)
I0628 16:25:47.850168  1411 net.cpp:137] Memory required for data: 1780646048
I0628 16:25:47.850172  1411 layer_factory.hpp:77] Creating layer res5a_branch2c
I0628 16:25:47.850188  1411 net.cpp:84] Creating Layer res5a_branch2c
I0628 16:25:47.850195  1411 net.cpp:406] res5a_branch2c <- res5a_branch2b
I0628 16:25:47.850203  1411 net.cpp:380] res5a_branch2c -> res5a_branch2c
I0628 16:25:47.853448  1411 net.cpp:122] Setting up res5a_branch2c
I0628 16:25:47.853471  1411 net.cpp:129] Top shape: 8 2048 7 7 (802816)
I0628 16:25:47.853474  1411 net.cpp:137] Memory required for data: 1783857312
I0628 16:25:47.853482  1411 layer_factory.hpp:77] Creating layer bn5a_branch2c
I0628 16:25:47.853492  1411 net.cpp:84] Creating Layer bn5a_branch2c
I0628 16:25:47.853497  1411 net.cpp:406] bn5a_branch2c <- res5a_branch2c
I0628 16:25:47.853502  1411 net.cpp:367] bn5a_branch2c -> res5a_branch2c (in-place)
I0628 16:25:47.853790  1411 net.cpp:122] Setting up bn5a_branch2c
I0628 16:25:47.853806  1411 net.cpp:129] Top shape: 8 2048 7 7 (802816)
I0628 16:25:47.853811  1411 net.cpp:137] Memory required for data: 1787068576
I0628 16:25:47.853821  1411 layer_factory.hpp:77] Creating layer scale5a_branch2c
I0628 16:25:47.853829  1411 net.cpp:84] Creating Layer scale5a_branch2c
I0628 16:25:47.853837  1411 net.cpp:406] scale5a_branch2c <- res5a_branch2c
I0628 16:25:47.853843  1411 net.cpp:367] scale5a_branch2c -> res5a_branch2c (in-place)
I0628 16:25:47.853905  1411 layer_factory.hpp:77] Creating layer scale5a_branch2c
I0628 16:25:47.854096  1411 net.cpp:122] Setting up scale5a_branch2c
I0628 16:25:47.854111  1411 net.cpp:129] Top shape: 8 2048 7 7 (802816)
I0628 16:25:47.854120  1411 net.cpp:137] Memory required for data: 1790279840
I0628 16:25:47.854127  1411 layer_factory.hpp:77] Creating layer res5a
I0628 16:25:47.854137  1411 net.cpp:84] Creating Layer res5a
I0628 16:25:47.854148  1411 net.cpp:406] res5a <- res5a_branch1
I0628 16:25:47.854154  1411 net.cpp:406] res5a <- res5a_branch2c
I0628 16:25:47.854159  1411 net.cpp:380] res5a -> res5a
I0628 16:25:47.854202  1411 net.cpp:122] Setting up res5a
I0628 16:25:47.854218  1411 net.cpp:129] Top shape: 8 2048 7 7 (802816)
I0628 16:25:47.854221  1411 net.cpp:137] Memory required for data: 1793491104
I0628 16:25:47.854225  1411 layer_factory.hpp:77] Creating layer res5a_relu
I0628 16:25:47.854231  1411 net.cpp:84] Creating Layer res5a_relu
I0628 16:25:47.854235  1411 net.cpp:406] res5a_relu <- res5a
I0628 16:25:47.854243  1411 net.cpp:367] res5a_relu -> res5a (in-place)
I0628 16:25:47.854521  1411 net.cpp:122] Setting up res5a_relu
I0628 16:25:47.854542  1411 net.cpp:129] Top shape: 8 2048 7 7 (802816)
I0628 16:25:47.854545  1411 net.cpp:137] Memory required for data: 1796702368
I0628 16:25:47.854549  1411 layer_factory.hpp:77] Creating layer res5a_res5a_relu_0_split
I0628 16:25:47.854557  1411 net.cpp:84] Creating Layer res5a_res5a_relu_0_split
I0628 16:25:47.854560  1411 net.cpp:406] res5a_res5a_relu_0_split <- res5a
I0628 16:25:47.854567  1411 net.cpp:380] res5a_res5a_relu_0_split -> res5a_res5a_relu_0_split_0
I0628 16:25:47.854574  1411 net.cpp:380] res5a_res5a_relu_0_split -> res5a_res5a_relu_0_split_1
I0628 16:25:47.854638  1411 net.cpp:122] Setting up res5a_res5a_relu_0_split
I0628 16:25:47.854653  1411 net.cpp:129] Top shape: 8 2048 7 7 (802816)
I0628 16:25:47.854658  1411 net.cpp:129] Top shape: 8 2048 7 7 (802816)
I0628 16:25:47.854661  1411 net.cpp:137] Memory required for data: 1803124896
I0628 16:25:47.854678  1411 layer_factory.hpp:77] Creating layer my_res5b_branch2a
I0628 16:25:47.854691  1411 net.cpp:84] Creating Layer my_res5b_branch2a
I0628 16:25:47.854697  1411 net.cpp:406] my_res5b_branch2a <- res5a_res5a_relu_0_split_0
I0628 16:25:47.854707  1411 net.cpp:380] my_res5b_branch2a -> my_res5b_branch2a
I0628 16:25:47.857906  1411 net.cpp:122] Setting up my_res5b_branch2a
I0628 16:25:47.857928  1411 net.cpp:129] Top shape: 8 512 7 7 (200704)
I0628 16:25:47.857933  1411 net.cpp:137] Memory required for data: 1803927712
I0628 16:25:47.857939  1411 layer_factory.hpp:77] Creating layer my_bn5b_branch2a
I0628 16:25:47.857949  1411 net.cpp:84] Creating Layer my_bn5b_branch2a
I0628 16:25:47.857954  1411 net.cpp:406] my_bn5b_branch2a <- my_res5b_branch2a
I0628 16:25:47.857961  1411 net.cpp:367] my_bn5b_branch2a -> my_res5b_branch2a (in-place)
I0628 16:25:47.858253  1411 net.cpp:122] Setting up my_bn5b_branch2a
I0628 16:25:47.858270  1411 net.cpp:129] Top shape: 8 512 7 7 (200704)
I0628 16:25:47.858274  1411 net.cpp:137] Memory required for data: 1804730528
I0628 16:25:47.858283  1411 layer_factory.hpp:77] Creating layer my_scale5b_branch2a
I0628 16:25:47.858294  1411 net.cpp:84] Creating Layer my_scale5b_branch2a
I0628 16:25:47.858297  1411 net.cpp:406] my_scale5b_branch2a <- my_res5b_branch2a
I0628 16:25:47.858304  1411 net.cpp:367] my_scale5b_branch2a -> my_res5b_branch2a (in-place)
I0628 16:25:47.858363  1411 layer_factory.hpp:77] Creating layer my_scale5b_branch2a
I0628 16:25:47.858544  1411 net.cpp:122] Setting up my_scale5b_branch2a
I0628 16:25:47.858559  1411 net.cpp:129] Top shape: 8 512 7 7 (200704)
I0628 16:25:47.858563  1411 net.cpp:137] Memory required for data: 1805533344
I0628 16:25:47.858570  1411 layer_factory.hpp:77] Creating layer my_res5b_branch2a_relu
I0628 16:25:47.858577  1411 net.cpp:84] Creating Layer my_res5b_branch2a_relu
I0628 16:25:47.858580  1411 net.cpp:406] my_res5b_branch2a_relu <- my_res5b_branch2a
I0628 16:25:47.858585  1411 net.cpp:367] my_res5b_branch2a_relu -> my_res5b_branch2a (in-place)
I0628 16:25:47.858866  1411 net.cpp:122] Setting up my_res5b_branch2a_relu
I0628 16:25:47.858885  1411 net.cpp:129] Top shape: 8 512 7 7 (200704)
I0628 16:25:47.858888  1411 net.cpp:137] Memory required for data: 1806336160
I0628 16:25:47.858892  1411 layer_factory.hpp:77] Creating layer my_res5b_branch2b
I0628 16:25:47.858904  1411 net.cpp:84] Creating Layer my_res5b_branch2b
I0628 16:25:47.858908  1411 net.cpp:406] my_res5b_branch2b <- my_res5b_branch2a
I0628 16:25:47.858917  1411 net.cpp:380] my_res5b_branch2b -> my_res5b_branch2b
I0628 16:25:47.864758  1411 net.cpp:122] Setting up my_res5b_branch2b
I0628 16:25:47.864785  1411 net.cpp:129] Top shape: 8 512 7 7 (200704)
I0628 16:25:47.864790  1411 net.cpp:137] Memory required for data: 1807138976
I0628 16:25:47.864797  1411 layer_factory.hpp:77] Creating layer my_bn5b_branch2b
I0628 16:25:47.864805  1411 net.cpp:84] Creating Layer my_bn5b_branch2b
I0628 16:25:47.864810  1411 net.cpp:406] my_bn5b_branch2b <- my_res5b_branch2b
I0628 16:25:47.864820  1411 net.cpp:367] my_bn5b_branch2b -> my_res5b_branch2b (in-place)
I0628 16:25:47.865114  1411 net.cpp:122] Setting up my_bn5b_branch2b
I0628 16:25:47.865129  1411 net.cpp:129] Top shape: 8 512 7 7 (200704)
I0628 16:25:47.865134  1411 net.cpp:137] Memory required for data: 1807941792
I0628 16:25:47.865142  1411 layer_factory.hpp:77] Creating layer my_scale5b_branch2b
I0628 16:25:47.865149  1411 net.cpp:84] Creating Layer my_scale5b_branch2b
I0628 16:25:47.865154  1411 net.cpp:406] my_scale5b_branch2b <- my_res5b_branch2b
I0628 16:25:47.865159  1411 net.cpp:367] my_scale5b_branch2b -> my_res5b_branch2b (in-place)
I0628 16:25:47.865221  1411 layer_factory.hpp:77] Creating layer my_scale5b_branch2b
I0628 16:25:47.865402  1411 net.cpp:122] Setting up my_scale5b_branch2b
I0628 16:25:47.865417  1411 net.cpp:129] Top shape: 8 512 7 7 (200704)
I0628 16:25:47.865422  1411 net.cpp:137] Memory required for data: 1808744608
I0628 16:25:47.865429  1411 layer_factory.hpp:77] Creating layer my_res5b_branch2b_relu
I0628 16:25:47.865458  1411 net.cpp:84] Creating Layer my_res5b_branch2b_relu
I0628 16:25:47.865463  1411 net.cpp:406] my_res5b_branch2b_relu <- my_res5b_branch2b
I0628 16:25:47.865470  1411 net.cpp:367] my_res5b_branch2b_relu -> my_res5b_branch2b (in-place)
I0628 16:25:47.865646  1411 net.cpp:122] Setting up my_res5b_branch2b_relu
I0628 16:25:47.865662  1411 net.cpp:129] Top shape: 8 512 7 7 (200704)
I0628 16:25:47.865667  1411 net.cpp:137] Memory required for data: 1809547424
I0628 16:25:47.865671  1411 layer_factory.hpp:77] Creating layer my_res5b_branch2c
I0628 16:25:47.865684  1411 net.cpp:84] Creating Layer my_res5b_branch2c
I0628 16:25:47.865689  1411 net.cpp:406] my_res5b_branch2c <- my_res5b_branch2b
I0628 16:25:47.865697  1411 net.cpp:380] my_res5b_branch2c -> my_res5b_branch2c
I0628 16:25:47.868926  1411 net.cpp:122] Setting up my_res5b_branch2c
I0628 16:25:47.868947  1411 net.cpp:129] Top shape: 8 2048 7 7 (802816)
I0628 16:25:47.868950  1411 net.cpp:137] Memory required for data: 1812758688
I0628 16:25:47.868957  1411 layer_factory.hpp:77] Creating layer my_bn5b_branch2c
I0628 16:25:47.868964  1411 net.cpp:84] Creating Layer my_bn5b_branch2c
I0628 16:25:47.868969  1411 net.cpp:406] my_bn5b_branch2c <- my_res5b_branch2c
I0628 16:25:47.868978  1411 net.cpp:367] my_bn5b_branch2c -> my_res5b_branch2c (in-place)
I0628 16:25:47.869292  1411 net.cpp:122] Setting up my_bn5b_branch2c
I0628 16:25:47.869307  1411 net.cpp:129] Top shape: 8 2048 7 7 (802816)
I0628 16:25:47.869312  1411 net.cpp:137] Memory required for data: 1815969952
I0628 16:25:47.869320  1411 layer_factory.hpp:77] Creating layer my_scale5b_branch2c
I0628 16:25:47.869328  1411 net.cpp:84] Creating Layer my_scale5b_branch2c
I0628 16:25:47.869331  1411 net.cpp:406] my_scale5b_branch2c <- my_res5b_branch2c
I0628 16:25:47.869338  1411 net.cpp:367] my_scale5b_branch2c -> my_res5b_branch2c (in-place)
I0628 16:25:47.869398  1411 layer_factory.hpp:77] Creating layer my_scale5b_branch2c
I0628 16:25:47.869583  1411 net.cpp:122] Setting up my_scale5b_branch2c
I0628 16:25:47.869599  1411 net.cpp:129] Top shape: 8 2048 7 7 (802816)
I0628 16:25:47.869603  1411 net.cpp:137] Memory required for data: 1819181216
I0628 16:25:47.869611  1411 layer_factory.hpp:77] Creating layer my_res5b
I0628 16:25:47.869617  1411 net.cpp:84] Creating Layer my_res5b
I0628 16:25:47.869622  1411 net.cpp:406] my_res5b <- res5a_res5a_relu_0_split_1
I0628 16:25:47.869627  1411 net.cpp:406] my_res5b <- my_res5b_branch2c
I0628 16:25:47.869635  1411 net.cpp:380] my_res5b -> my_res5b
I0628 16:25:47.869674  1411 net.cpp:122] Setting up my_res5b
I0628 16:25:47.869689  1411 net.cpp:129] Top shape: 8 2048 7 7 (802816)
I0628 16:25:47.869693  1411 net.cpp:137] Memory required for data: 1822392480
I0628 16:25:47.869698  1411 layer_factory.hpp:77] Creating layer my_res5b_relu
I0628 16:25:47.869706  1411 net.cpp:84] Creating Layer my_res5b_relu
I0628 16:25:47.869710  1411 net.cpp:406] my_res5b_relu <- my_res5b
I0628 16:25:47.869715  1411 net.cpp:367] my_res5b_relu -> my_res5b (in-place)
I0628 16:25:47.870010  1411 net.cpp:122] Setting up my_res5b_relu
I0628 16:25:47.870028  1411 net.cpp:129] Top shape: 8 2048 7 7 (802816)
I0628 16:25:47.870033  1411 net.cpp:137] Memory required for data: 1825603744
I0628 16:25:47.870036  1411 layer_factory.hpp:77] Creating layer my_res5b_my_res5b_relu_0_split
I0628 16:25:47.870043  1411 net.cpp:84] Creating Layer my_res5b_my_res5b_relu_0_split
I0628 16:25:47.870048  1411 net.cpp:406] my_res5b_my_res5b_relu_0_split <- my_res5b
I0628 16:25:47.870055  1411 net.cpp:380] my_res5b_my_res5b_relu_0_split -> my_res5b_my_res5b_relu_0_split_0
I0628 16:25:47.870064  1411 net.cpp:380] my_res5b_my_res5b_relu_0_split -> my_res5b_my_res5b_relu_0_split_1
I0628 16:25:47.870126  1411 net.cpp:122] Setting up my_res5b_my_res5b_relu_0_split
I0628 16:25:47.870139  1411 net.cpp:129] Top shape: 8 2048 7 7 (802816)
I0628 16:25:47.870144  1411 net.cpp:129] Top shape: 8 2048 7 7 (802816)
I0628 16:25:47.870148  1411 net.cpp:137] Memory required for data: 1832026272
I0628 16:25:47.870173  1411 layer_factory.hpp:77] Creating layer my_res5c_branch2a
I0628 16:25:47.870187  1411 net.cpp:84] Creating Layer my_res5c_branch2a
I0628 16:25:47.870192  1411 net.cpp:406] my_res5c_branch2a <- my_res5b_my_res5b_relu_0_split_0
I0628 16:25:47.870198  1411 net.cpp:380] my_res5c_branch2a -> my_res5c_branch2a
I0628 16:25:47.873304  1411 net.cpp:122] Setting up my_res5c_branch2a
I0628 16:25:47.873325  1411 net.cpp:129] Top shape: 8 512 7 7 (200704)
I0628 16:25:47.873330  1411 net.cpp:137] Memory required for data: 1832829088
I0628 16:25:47.873337  1411 layer_factory.hpp:77] Creating layer my_bn5c_branch2a
I0628 16:25:47.873347  1411 net.cpp:84] Creating Layer my_bn5c_branch2a
I0628 16:25:47.873353  1411 net.cpp:406] my_bn5c_branch2a <- my_res5c_branch2a
I0628 16:25:47.873358  1411 net.cpp:367] my_bn5c_branch2a -> my_res5c_branch2a (in-place)
I0628 16:25:47.873651  1411 net.cpp:122] Setting up my_bn5c_branch2a
I0628 16:25:47.873667  1411 net.cpp:129] Top shape: 8 512 7 7 (200704)
I0628 16:25:47.873670  1411 net.cpp:137] Memory required for data: 1833631904
I0628 16:25:47.873679  1411 layer_factory.hpp:77] Creating layer my_scale5c_branch2a
I0628 16:25:47.873687  1411 net.cpp:84] Creating Layer my_scale5c_branch2a
I0628 16:25:47.873690  1411 net.cpp:406] my_scale5c_branch2a <- my_res5c_branch2a
I0628 16:25:47.873698  1411 net.cpp:367] my_scale5c_branch2a -> my_res5c_branch2a (in-place)
I0628 16:25:47.873756  1411 layer_factory.hpp:77] Creating layer my_scale5c_branch2a
I0628 16:25:47.873942  1411 net.cpp:122] Setting up my_scale5c_branch2a
I0628 16:25:47.873958  1411 net.cpp:129] Top shape: 8 512 7 7 (200704)
I0628 16:25:47.873962  1411 net.cpp:137] Memory required for data: 1834434720
I0628 16:25:47.873970  1411 layer_factory.hpp:77] Creating layer my_res5c_branch2a_relu
I0628 16:25:47.873978  1411 net.cpp:84] Creating Layer my_res5c_branch2a_relu
I0628 16:25:47.873982  1411 net.cpp:406] my_res5c_branch2a_relu <- my_res5c_branch2a
I0628 16:25:47.873988  1411 net.cpp:367] my_res5c_branch2a_relu -> my_res5c_branch2a (in-place)
I0628 16:25:47.874311  1411 net.cpp:122] Setting up my_res5c_branch2a_relu
I0628 16:25:47.874330  1411 net.cpp:129] Top shape: 8 512 7 7 (200704)
I0628 16:25:47.874333  1411 net.cpp:137] Memory required for data: 1835237536
I0628 16:25:47.874337  1411 layer_factory.hpp:77] Creating layer my_res5c_branch2b
I0628 16:25:47.874351  1411 net.cpp:84] Creating Layer my_res5c_branch2b
I0628 16:25:47.874356  1411 net.cpp:406] my_res5c_branch2b <- my_res5c_branch2a
I0628 16:25:47.874363  1411 net.cpp:380] my_res5c_branch2b -> my_res5c_branch2b
I0628 16:25:47.880630  1411 net.cpp:122] Setting up my_res5c_branch2b
I0628 16:25:47.880668  1411 net.cpp:129] Top shape: 8 512 7 7 (200704)
I0628 16:25:47.880673  1411 net.cpp:137] Memory required for data: 1836040352
I0628 16:25:47.880682  1411 layer_factory.hpp:77] Creating layer my_bn5c_branch2b
I0628 16:25:47.880697  1411 net.cpp:84] Creating Layer my_bn5c_branch2b
I0628 16:25:47.880704  1411 net.cpp:406] my_bn5c_branch2b <- my_res5c_branch2b
I0628 16:25:47.880712  1411 net.cpp:367] my_bn5c_branch2b -> my_res5c_branch2b (in-place)
I0628 16:25:47.881021  1411 net.cpp:122] Setting up my_bn5c_branch2b
I0628 16:25:47.881036  1411 net.cpp:129] Top shape: 8 512 7 7 (200704)
I0628 16:25:47.881042  1411 net.cpp:137] Memory required for data: 1836843168
I0628 16:25:47.881049  1411 layer_factory.hpp:77] Creating layer my_scale5c_branch2b
I0628 16:25:47.881062  1411 net.cpp:84] Creating Layer my_scale5c_branch2b
I0628 16:25:47.881067  1411 net.cpp:406] my_scale5c_branch2b <- my_res5c_branch2b
I0628 16:25:47.881073  1411 net.cpp:367] my_scale5c_branch2b -> my_res5c_branch2b (in-place)
I0628 16:25:47.881141  1411 layer_factory.hpp:77] Creating layer my_scale5c_branch2b
I0628 16:25:47.881330  1411 net.cpp:122] Setting up my_scale5c_branch2b
I0628 16:25:47.881345  1411 net.cpp:129] Top shape: 8 512 7 7 (200704)
I0628 16:25:47.881350  1411 net.cpp:137] Memory required for data: 1837645984
I0628 16:25:47.881356  1411 layer_factory.hpp:77] Creating layer my_res5c_branch2b_relu
I0628 16:25:47.881383  1411 net.cpp:84] Creating Layer my_res5c_branch2b_relu
I0628 16:25:47.881388  1411 net.cpp:406] my_res5c_branch2b_relu <- my_res5c_branch2b
I0628 16:25:47.881397  1411 net.cpp:367] my_res5c_branch2b_relu -> my_res5c_branch2b (in-place)
I0628 16:25:47.881575  1411 net.cpp:122] Setting up my_res5c_branch2b_relu
I0628 16:25:47.881592  1411 net.cpp:129] Top shape: 8 512 7 7 (200704)
I0628 16:25:47.881597  1411 net.cpp:137] Memory required for data: 1838448800
I0628 16:25:47.881600  1411 layer_factory.hpp:77] Creating layer my_res5c_branch2c
I0628 16:25:47.881618  1411 net.cpp:84] Creating Layer my_res5c_branch2c
I0628 16:25:47.881624  1411 net.cpp:406] my_res5c_branch2c <- my_res5c_branch2b
I0628 16:25:47.881630  1411 net.cpp:380] my_res5c_branch2c -> my_res5c_branch2c
I0628 16:25:47.884917  1411 net.cpp:122] Setting up my_res5c_branch2c
I0628 16:25:47.884939  1411 net.cpp:129] Top shape: 8 2048 7 7 (802816)
I0628 16:25:47.884943  1411 net.cpp:137] Memory required for data: 1841660064
I0628 16:25:47.884950  1411 layer_factory.hpp:77] Creating layer my_bn5c_branch2c
I0628 16:25:47.884960  1411 net.cpp:84] Creating Layer my_bn5c_branch2c
I0628 16:25:47.884965  1411 net.cpp:406] my_bn5c_branch2c <- my_res5c_branch2c
I0628 16:25:47.884971  1411 net.cpp:367] my_bn5c_branch2c -> my_res5c_branch2c (in-place)
I0628 16:25:47.885285  1411 net.cpp:122] Setting up my_bn5c_branch2c
I0628 16:25:47.885301  1411 net.cpp:129] Top shape: 8 2048 7 7 (802816)
I0628 16:25:47.885305  1411 net.cpp:137] Memory required for data: 1844871328
I0628 16:25:47.885316  1411 layer_factory.hpp:77] Creating layer my_scale5c_branch2c
I0628 16:25:47.885324  1411 net.cpp:84] Creating Layer my_scale5c_branch2c
I0628 16:25:47.885329  1411 net.cpp:406] my_scale5c_branch2c <- my_res5c_branch2c
I0628 16:25:47.885334  1411 net.cpp:367] my_scale5c_branch2c -> my_res5c_branch2c (in-place)
I0628 16:25:47.885406  1411 layer_factory.hpp:77] Creating layer my_scale5c_branch2c
I0628 16:25:47.885601  1411 net.cpp:122] Setting up my_scale5c_branch2c
I0628 16:25:47.885619  1411 net.cpp:129] Top shape: 8 2048 7 7 (802816)
I0628 16:25:47.885623  1411 net.cpp:137] Memory required for data: 1848082592
I0628 16:25:47.885630  1411 layer_factory.hpp:77] Creating layer my_res5c
I0628 16:25:47.885640  1411 net.cpp:84] Creating Layer my_res5c
I0628 16:25:47.885645  1411 net.cpp:406] my_res5c <- my_res5b_my_res5b_relu_0_split_1
I0628 16:25:47.885650  1411 net.cpp:406] my_res5c <- my_res5c_branch2c
I0628 16:25:47.885655  1411 net.cpp:380] my_res5c -> my_res5c
I0628 16:25:47.885704  1411 net.cpp:122] Setting up my_res5c
I0628 16:25:47.885718  1411 net.cpp:129] Top shape: 8 2048 7 7 (802816)
I0628 16:25:47.885722  1411 net.cpp:137] Memory required for data: 1851293856
I0628 16:25:47.885726  1411 layer_factory.hpp:77] Creating layer my_res5c_relu
I0628 16:25:47.885732  1411 net.cpp:84] Creating Layer my_res5c_relu
I0628 16:25:47.885737  1411 net.cpp:406] my_res5c_relu <- my_res5c
I0628 16:25:47.885745  1411 net.cpp:367] my_res5c_relu -> my_res5c (in-place)
I0628 16:25:47.886025  1411 net.cpp:122] Setting up my_res5c_relu
I0628 16:25:47.886044  1411 net.cpp:129] Top shape: 8 2048 7 7 (802816)
I0628 16:25:47.886047  1411 net.cpp:137] Memory required for data: 1854505120
I0628 16:25:47.886051  1411 layer_factory.hpp:77] Creating layer my_pool5
I0628 16:25:47.886062  1411 net.cpp:84] Creating Layer my_pool5
I0628 16:25:47.886066  1411 net.cpp:406] my_pool5 <- my_res5c
I0628 16:25:47.886073  1411 net.cpp:380] my_pool5 -> my_pool5
I0628 16:25:47.886796  1411 net.cpp:122] Setting up my_pool5
I0628 16:25:47.886817  1411 net.cpp:129] Top shape: 8 2048 1 1 (16384)
I0628 16:25:47.886821  1411 net.cpp:137] Memory required for data: 1854570656
I0628 16:25:47.886826  1411 layer_factory.hpp:77] Creating layer my_fc1000
I0628 16:25:47.886835  1411 net.cpp:84] Creating Layer my_fc1000
I0628 16:25:47.886840  1411 net.cpp:406] my_fc1000 <- my_pool5
I0628 16:25:47.886847  1411 net.cpp:380] my_fc1000 -> my_fc1000
I0628 16:25:47.887056  1411 net.cpp:122] Setting up my_fc1000
I0628 16:25:47.887095  1411 net.cpp:129] Top shape: 8 50 (400)
I0628 16:25:47.887100  1411 net.cpp:137] Memory required for data: 1854572256
I0628 16:25:47.887107  1411 layer_factory.hpp:77] Creating layer my_fc1000_my_fc1000_0_split
I0628 16:25:47.887115  1411 net.cpp:84] Creating Layer my_fc1000_my_fc1000_0_split
I0628 16:25:47.887120  1411 net.cpp:406] my_fc1000_my_fc1000_0_split <- my_fc1000
I0628 16:25:47.887127  1411 net.cpp:380] my_fc1000_my_fc1000_0_split -> my_fc1000_my_fc1000_0_split_0
I0628 16:25:47.887135  1411 net.cpp:380] my_fc1000_my_fc1000_0_split -> my_fc1000_my_fc1000_0_split_1
I0628 16:25:47.887145  1411 net.cpp:380] my_fc1000_my_fc1000_0_split -> my_fc1000_my_fc1000_0_split_2
I0628 16:25:47.887151  1411 net.cpp:380] my_fc1000_my_fc1000_0_split -> my_fc1000_my_fc1000_0_split_3
I0628 16:25:47.887214  1411 net.cpp:122] Setting up my_fc1000_my_fc1000_0_split
I0628 16:25:47.887228  1411 net.cpp:129] Top shape: 8 50 (400)
I0628 16:25:47.887233  1411 net.cpp:129] Top shape: 8 50 (400)
I0628 16:25:47.887238  1411 net.cpp:129] Top shape: 8 50 (400)
I0628 16:25:47.887241  1411 net.cpp:129] Top shape: 8 50 (400)
I0628 16:25:47.887244  1411 net.cpp:137] Memory required for data: 1854578656
I0628 16:25:47.887248  1411 layer_factory.hpp:77] Creating layer loss
I0628 16:25:47.887259  1411 net.cpp:84] Creating Layer loss
I0628 16:25:47.887264  1411 net.cpp:406] loss <- my_fc1000_my_fc1000_0_split_0
I0628 16:25:47.887269  1411 net.cpp:406] loss <- label_input_1_split_0
I0628 16:25:47.887276  1411 net.cpp:380] loss -> loss
…
