…
I0629 02:12:53.082383  1380 net.cpp:294] The NetState phase (1) differed from the phase (0) specified by a rule in layer input
I0629 02:12:53.083859  1380 net.cpp:51] Initializing net from parameters: 
name: "ResNet-50"
state {
  phase: TEST
  level: 0
  stage: ""
}
layer {
  name: "input"
  type: "Data"
  top: "data"
  top: "label"
  include {
    phase: TEST
  }
  transform_param {
    mirror: true
    mean_file: "../../../data_subsets/subtrain2_mean.binaryproto"
  }
  data_param {
    source: "../../../data_subsets/subtrain2_lmdb"
    batch_size: 8
    backend: LMDB
  }
}
layer {
  name: "conv1"
  type: "Convolution"
  bottom: "data"
  top: "conv1"
  param {
    lr_mult: 1
    decay_mult: 1
  }
  param {
    lr_mult: 2
    decay_mult: 0
  }
  convolution_param {
    num_output: 64
    pad: 3
    kernel_size: 7
    stride: 2
  }
}
layer {
  name: "bn_conv1"
  type: "BatchNorm"
  bottom: "conv1"
  top: "conv1"
  batch_norm_param {
    use_global_stats: true
  }
}
layer {
  name: "scale_conv1"
  type: "Scale"
  bottom: "conv1"
  top: "conv1"
  scale_param {
    bias_term: true
  }
}
layer {
  name: "conv1_relu"
  type: "ReLU"
  bottom: "conv1"
  top: "conv1"
}
layer {
  name: "pool1"
  type: "Pooling"
  bottom: "conv1"
  top: "pool1"
  pooling_param {
    pool: MAX
    kernel_size: 3
    stride: 2
  }
}
layer {
  name: "res2a_branch1"
  type: "Convolution"
  bottom: "pool1"
  top: "res2a_branch1"
  param {
    lr_mult: 1
    decay_mult: 1
  }
  convolution_param {
    num_output: 256
    bias_term: false
    pad: 0
    kernel_size: 1
    stride: 1
  }
}
layer {
  name: "bn2a_branch1"
  type: "BatchNorm"
  bottom: "res2a_branch1"
  top: "res2a_branch1"
  batch_norm_param {
    use_global_stats: true
  }
}
layer {
  name: "scale2a_branch1"
  type: "Scale"
  bottom: "res2a_branch1"
  top: "res2a_branch1"
  scale_param {
    bias_term: true
  }
}
layer {
  name: "res2a_branch2a"
  type: "Convolution"
  bottom: "pool1"
  top: "res2a_branch2a"
  param {
    lr_mult: 1
    decay_mult: 1
  }
  convolution_param {
    num_output: 64
    bias_term: false
    pad: 0
    kernel_size: 1
    stride: 1
  }
}
layer {
  name: "bn2a_branch2a"
  type: "BatchNorm"
  bottom: "res2a_branch2a"
  top: "res2a_branch2a"
  batch_norm_param {
    use_global_stats: true
  }
}
layer {
  name: "scale2a_branch2a"
  type: "Scale"
  bottom: "res2a_branch2a"
  top: "res2a_branch2a"
  scale_param {
    bias_term: true
  }
}
layer {
  name: "res2a_branch2a_relu"
  type: "ReLU"
  bottom: "res2a_branch2a"
  top: "res2a_branch2a"
}
layer {
  name: "res2a_branch2b"
  type: "Convolution"
  bottom: "res2a_branch2a"
  top: "res2a_branch2b"
  param {
    lr_mult: 1
    decay_mult: 1
  }
  convolution_param {
    num_output: 64
    bias_term: false
    pad: 1
    kernel_size: 3
    stride: 1
  }
}
layer {
  name: "bn2a_branch2b"
  type: "BatchNorm"
  bottom: "res2a_branch2b"
  top: "res2a_branch2b"
  batch_norm_param {
    use_global_stats: true
  }
}
layer {
  name: "scale2a_branch2b"
  type: "Scale"
  bottom: "res2a_branch2b"
  top: "res2a_branch2b"
  scale_param {
    bias_term: true
  }
}
layer {
  name: "res2a_branch2b_relu"
  type: "ReLU"
  bottom: "res2a_branch2b"
  top: "res2a_branch2b"
}
layer {
  name: "res2a_branch2c"
  type: "Convolution"
  bottom: "res2a_branch2b"
  top: "res2a_branch2c"
  param {
    lr_mult: 1
    decay_mult: 1
  }
  convolution_param {
    num_output: 256
    bias_term: false
    pad: 0
    kernel_size: 1
    stride: 1
  }
}
layer {
  name: "bn2a_branch2c"
  type: "BatchNorm"
  bottom: "res2a_branch2c"
  top: "res2a_branch2c"
  batch_norm_param {
    use_global_stats: true
  }
}
layer {
  name: "scale2a_branch2c"
  type: "Scale"
  bottom: "res2a_branch2c"
  top: "res2a_branch2c"
  scale_param {
    bias_term: true
  }
}
layer {
  name: "res2a"
  type: "Eltwise"
  bottom: "res2a_branch1"
  bottom: "res2a_branch2c"
  top: "res2a"
}
layer {
  name: "res2a_relu"
  type: "ReLU"
  bottom: "res2a"
  top: "res2a"
}
layer {
  name: "res2b_branch2a"
  type: "Convolution"
  bottom: "res2a"
  top: "res2b_branch2a"
  param {
    lr_mult: 1
    decay_mult: 1
  }
  convolution_param {
    num_output: 64
    bias_term: false
    pad: 0
    kernel_size: 1
    stride: 1
  }
}
layer {
  name: "bn2b_branch2a"
  type: "BatchNorm"
  bottom: "res2b_branch2a"
  top: "res2b_branch2a"
  batch_norm_param {
    use_global_stats: true
  }
}
layer {
  name: "scale2b_branch2a"
  type: "Scale"
  bottom: "res2b_branch2a"
  top: "res2b_branch2a"
  scale_param {
    bias_term: true
  }
}
layer {
  name: "res2b_branch2a_relu"
  type: "ReLU"
  bottom: "res2b_branch2a"
  top: "res2b_branch2a"
}
layer {
  name: "res2b_branch2b"
  type: "Convolution"
  bottom: "res2b_branch2a"
  top: "res2b_branch2b"
  param {
    lr_mult: 1
    decay_mult: 1
  }
  convolution_param {
    num_output: 64
    bias_term: false
    pad: 1
    kernel_size: 3
    stride: 1
  }
}
layer {
  name: "bn2b_branch2b"
  type: "BatchNorm"
  bottom: "res2b_branch2b"
  top: "res2b_branch2b"
  batch_norm_param {
    use_global_stats: true
  }
}
layer {
  name: "scale2b_branch2b"
  type: "Scale"
  bottom: "res2b_branch2b"
  top: "res2b_branch2b"
  scale_param {
    bias_term: true
  }
}
layer {
  name: "res2b_branch2b_relu"
  type: "ReLU"
  bottom: "res2b_branch2b"
  top: "res2b_branch2b"
}
layer {
  name: "res2b_branch2c"
  type: "Convolution"
  bottom: "res2b_branch2b"
  top: "res2b_branch2c"
  param {
    lr_mult: 1
    decay_mult: 1
  }
  convolution_param {
    num_output: 256
    bias_term: false
    pad: 0
    kernel_size: 1
    stride: 1
  }
}
layer {
  name: "bn2b_branch2c"
  type: "BatchNorm"
  bottom: "res2b_branch2c"
  top: "res2b_branch2c"
  batch_norm_param {
    use_global_stats: true
  }
}
layer {
  name: "scale2b_branch2c"
  type: "Scale"
  bottom: "res2b_branch2c"
  top: "res2b_branch2c"
  scale_param {
    bias_term: true
  }
}
layer {
  name: "res2b"
  type: "Eltwise"
  bottom: "res2a"
  bottom: "res2b_branch2c"
  top: "res2b"
}
layer {
  name: "res2b_relu"
  type: "ReLU"
  bottom: "res2b"
  top: "res2b"
}
layer {
  name: "res2c_branch2a"
  type: "Convolution"
  bottom: "res2b"
  top: "res2c_branch2a"
  param {
    lr_mult: 1
    decay_mult: 1
  }
  convolution_param {
    num_output: 64
    bias_term: false
    pad: 0
    kernel_size: 1
    stride: 1
  }
}
layer {
  name: "bn2c_branch2a"
  type: "BatchNorm"
  bottom: "res2c_branch2a"
  top: "res2c_branch2a"
  batch_norm_param {
    use_global_stats: true
  }
}
layer {
  name: "scale2c_branch2a"
  type: "Scale"
  bottom: "res2c_branch2a"
  top: "res2c_branch2a"
  scale_param {
    bias_term: true
  }
}
layer {
  name: "res2c_branch2a_relu"
  type: "ReLU"
  bottom: "res2c_branch2a"
  top: "res2c_branch2a"
}
layer {
  name: "res2c_branch2b"
  type: "Convolution"
  bottom: "res2c_branch2a"
  top: "res2c_branch2b"
  param {
    lr_mult: 1
    decay_mult: 1
  }
  convolution_param {
    num_output: 64
    bias_term: false
    pad: 1
    kernel_size: 3
    stride: 1
  }
}
layer {
  name: "bn2c_branch2b"
  type: "BatchNorm"
  bottom: "res2c_branch2b"
  top: "res2c_branch2b"
  batch_norm_param {
    use_global_stats: true
  }
}
layer {
  name: "scale2c_branch2b"
  type: "Scale"
  bottom: "res2c_branch2b"
  top: "res2c_branch2b"
  scale_param {
    bias_term: true
  }
}
layer {
  name: "res2c_branch2b_relu"
  type: "ReLU"
  bottom: "res2c_branch2b"
  top: "res2c_branch2b"
}
layer {
  name: "res2c_branch2c"
  type: "Convolution"
  bottom: "res2c_branch2b"
  top: "res2c_branch2c"
  param {
    lr_mult: 1
    decay_mult: 1
  }
  convolution_param {
    num_output: 256
    bias_term: false
    pad: 0
    kernel_size: 1
    stride: 1
  }
}
layer {
  name: "bn2c_branch2c"
  type: "BatchNorm"
  bottom: "res2c_branch2c"
  top: "res2c_branch2c"
  batch_norm_param {
    use_global_stats: true
  }
}
layer {
  name: "scale2c_branch2c"
  type: "Scale"
  bottom: "res2c_branch2c"
  top: "res2c_branch2c"
  scale_param {
    bias_term: true
  }
}
layer {
  name: "res2c"
  type: "Eltwise"
  bottom: "res2b"
  bottom: "res2c_branch2c"
  top: "res2c"
}
layer {
  name: "res2c_relu"
  type: "ReLU"
  bottom: "res2c"
  top: "res2c"
}
layer {
  name: "res3a_branch1"
  type: "Convolution"
  bottom: "res2c"
  top: "res3a_branch1"
  param {
    lr_mult: 1
    decay_mult: 1
  }
  convolution_param {
    num_output: 512
    bias_term: false
    pad: 0
    kernel_size: 1
    stride: 2
  }
}
layer {
  name: "bn3a_branch1"
  type: "BatchNorm"
  bottom: "res3a_branch1"
  top: "res3a_branch1"
  batch_norm_param {
    use_global_stats: true
  }
}
layer {
  name: "scale3a_branch1"
  type: "Scale"
  bottom: "res3a_branch1"
  top: "res3a_branch1"
  scale_param {
    bias_term: true
  }
}
layer {
  name: "res3a_branch2a"
  type: "Convolution"
  bottom: "res2c"
  top: "res3a_branch2a"
  param {
    lr_mult: 1
    decay_mult: 1
  }
  convolution_param {
    num_output: 128
    bias_term: false
    pad: 0
    kernel_size: 1
    stride: 2
  }
}
layer {
  name: "bn3a_branch2a"
  type: "BatchNorm"
  bottom: "res3a_branch2a"
  top: "res3a_branch2a"
  batch_norm_param {
    use_global_stats: true
  }
}
layer {
  name: "scale3a_branch2a"
  type: "Scale"
  bottom: "res3a_branch2a"
  top: "res3a_branch2a"
  scale_param {
    bias_term: true
  }
}
layer {
  name: "res3a_branch2a_relu"
  type: "ReLU"
  bottom: "res3a_branch2a"
  top: "res3a_branch2a"
}
layer {
  name: "res3a_branch2b"
  type: "Convolution"
  bottom: "res3a_branch2a"
  top: "res3a_branch2b"
  param {
    lr_mult: 1
    decay_mult: 1
  }
  convolution_param {
    num_output: 128
    bias_term: false
    pad: 1
    kernel_size: 3
    stride: 1
  }
}
layer {
  name: "bn3a_branch2b"
  type: "BatchNorm"
  bottom: "res3a_branch2b"
  top: "res3a_branch2b"
  batch_norm_param {
    use_global_stats: true
  }
}
layer {
  name: "scale3a_branch2b"
  type: "Scale"
  bottom: "res3a_branch2b"
  top: "res3a_branch2b"
  scale_param {
    bias_term: true
  }
}
layer {
  name: "res3a_branch2b_relu"
  type: "ReLU"
  bottom: "res3a_branch2b"
  top: "res3a_branch2b"
}
layer {
  name: "res3a_branch2c"
  type: "Convolution"
  bottom: "res3a_branch2b"
  top: "res3a_branch2c"
  param {
    lr_mult: 1
    decay_mult: 1
  }
  convolution_param {
    num_output: 512
    bias_term: false
    pad: 0
    kernel_size: 1
    stride: 1
  }
}
layer {
  name: "bn3a_branch2c"
  type: "BatchNorm"
  bottom: "res3a_branch2c"
  top: "res3a_branch2c"
  batch_norm_param {
    use_global_stats: true
  }
}
layer {
  name: "scale3a_branch2c"
  type: "Scale"
  bottom: "res3a_branch2c"
  top: "res3a_branch2c"
  scale_param {
    bias_term: true
  }
}
layer {
  name: "res3a"
  type: "Eltwise"
  bottom: "res3a_branch1"
  bottom: "res3a_branch2c"
  top: "res3a"
}
layer {
  name: "res3a_relu"
  type: "ReLU"
  bottom: "res3a"
  top: "res3a"
}
layer {
  name: "res3b_branch2a"
  type: "Convolution"
  bottom: "res3a"
  top: "res3b_branch2a"
  param {
    lr_mult: 1
    decay_mult: 1
  }
  convolution_param {
    num_output: 128
    bias_term: false
    pad: 0
    kernel_size: 1
    stride: 1
  }
}
layer {
  name: "bn3b_branch2a"
  type: "BatchNorm"
  bottom: "res3b_branch2a"
  top: "res3b_branch2a"
  batch_norm_param {
    use_global_stats: true
  }
}
layer {
  name: "scale3b_branch2a"
  type: "Scale"
  bottom: "res3b_branch2a"
  top: "res3b_branch2a"
  scale_param {
    bias_term: true
  }
}
layer {
  name: "res3b_branch2a_relu"
  type: "ReLU"
  bottom: "res3b_branch2a"
  top: "res3b_branch2a"
}
layer {
  name: "res3b_branch2b"
  type: "Convolution"
  bottom: "res3b_branch2a"
  top: "res3b_branch2b"
  param {
    lr_mult: 1
    decay_mult: 1
  }
  convolution_param {
    num_output: 128
    bias_term: false
    pad: 1
    kernel_size: 3
    stride: 1
  }
}
layer {
  name: "bn3b_branch2b"
  type: "BatchNorm"
  bottom: "res3b_branch2b"
  top: "res3b_branch2b"
  batch_norm_param {
    use_global_stats: true
  }
}
layer {
  name: "scale3b_branch2b"
  type: "Scale"
  bottom: "res3b_branch2b"
  top: "res3b_branch2b"
  scale_param {
    bias_term: true
  }
}
layer {
  name: "res3b_branch2b_relu"
  type: "ReLU"
  bottom: "res3b_branch2b"
  top: "res3b_branch2b"
}
layer {
  name: "res3b_branch2c"
  type: "Convolution"
  bottom: "res3b_branch2b"
  top: "res3b_branch2c"
  param {
    lr_mult: 1
    decay_mult: 1
  }
  convolution_param {
    num_output: 512
    bias_term: false
    pad: 0
    kernel_size: 1
    stride: 1
  }
}
layer {
  name: "bn3b_branch2c"
  type: "BatchNorm"
  bottom: "res3b_branch2c"
  top: "res3b_branch2c"
  batch_norm_param {
    use_global_stats: true
  }
}
layer {
  name: "scale3b_branch2c"
  type: "Scale"
  bottom: "res3b_branch2c"
  top: "res3b_branch2c"
  scale_param {
    bias_term: true
  }
}
layer {
  name: "res3b"
  type: "Eltwise"
  bottom: "res3a"
  bottom: "res3b_branch2c"
  top: "res3b"
}
layer {
  name: "res3b_relu"
  type: "ReLU"
  bottom: "res3b"
  top: "res3b"
}
layer {
  name: "res3c_branch2a"
  type: "Convolution"
  bottom: "res3b"
  top: "res3c_branch2a"
  param {
    lr_mult: 1
    decay_mult: 1
  }
  convolution_param {
    num_output: 128
    bias_term: false
    pad: 0
    kernel_size: 1
    stride: 1
  }
}
layer {
  name: "bn3c_branch2a"
  type: "BatchNorm"
  bottom: "res3c_branch2a"
  top: "res3c_branch2a"
  batch_norm_param {
    use_global_stats: true
  }
}
layer {
  name: "scale3c_branch2a"
  type: "Scale"
  bottom: "res3c_branch2a"
  top: "res3c_branch2a"
  scale_param {
    bias_term: true
  }
}
layer {
  name: "res3c_branch2a_relu"
  type: "ReLU"
  bottom: "res3c_branch2a"
  top: "res3c_branch2a"
}
layer {
  name: "res3c_branch2b"
  type: "Convolution"
  bottom: "res3c_branch2a"
  top: "res3c_branch2b"
  param {
    lr_mult: 1
    decay_mult: 1
  }
  convolution_param {
    num_output: 128
    bias_term: false
    pad: 1
    kernel_size: 3
    stride: 1
  }
}
layer {
  name: "bn3c_branch2b"
  type: "BatchNorm"
  bottom: "res3c_branch2b"
  top: "res3c_branch2b"
  batch_norm_param {
    use_global_stats: true
  }
}
layer {
  name: "scale3c_branch2b"
  type: "Scale"
  bottom: "res3c_branch2b"
  top: "res3c_branch2b"
  scale_param {
    bias_term: true
  }
}
layer {
  name: "res3c_branch2b_relu"
  type: "ReLU"
  bottom: "res3c_branch2b"
  top: "res3c_branch2b"
}
layer {
  name: "res3c_branch2c"
  type: "Convolution"
  bottom: "res3c_branch2b"
  top: "res3c_branch2c"
  param {
    lr_mult: 1
    decay_mult: 1
  }
  convolution_param {
    num_output: 512
    bias_term: false
    pad: 0
    kernel_size: 1
    stride: 1
  }
}
layer {
  name: "bn3c_branch2c"
  type: "BatchNorm"
  bottom: "res3c_branch2c"
  top: "res3c_branch2c"
  batch_norm_param {
    use_global_stats: true
  }
}
layer {
  name: "scale3c_branch2c"
  type: "Scale"
  bottom: "res3c_branch2c"
  top: "res3c_branch2c"
  scale_param {
    bias_term: true
  }
}
layer {
  name: "res3c"
  type: "Eltwise"
  bottom: "res3b"
  bottom: "res3c_branch2c"
  top: "res3c"
}
layer {
  name: "res3c_relu"
  type: "ReLU"
  bottom: "res3c"
  top: "res3c"
}
layer {
  name: "res3d_branch2a"
  type: "Convolution"
  bottom: "res3c"
  top: "res3d_branch2a"
  param {
    lr_mult: 1
    decay_mult: 1
  }
  convolution_param {
    num_output: 128
    bias_term: false
    pad: 0
    kernel_size: 1
    stride: 1
  }
}
layer {
  name: "bn3d_branch2a"
  type: "BatchNorm"
  bottom: "res3d_branch2a"
  top: "res3d_branch2a"
  batch_norm_param {
    use_global_stats: true
  }
}
layer {
  name: "scale3d_branch2a"
  type: "Scale"
  bottom: "res3d_branch2a"
  top: "res3d_branch2a"
  scale_param {
    bias_term: true
  }
}
layer {
  name: "res3d_branch2a_relu"
  type: "ReLU"
  bottom: "res3d_branch2a"
  top: "res3d_branch2a"
}
layer {
  name: "res3d_branch2b"
  type: "Convolution"
  bottom: "res3d_branch2a"
  top: "res3d_branch2b"
  param {
    lr_mult: 1
    decay_mult: 1
  }
  convolution_param {
    num_output: 128
    bias_term: false
    pad: 1
    kernel_size: 3
    stride: 1
  }
}
layer {
  name: "bn3d_branch2b"
  type: "BatchNorm"
  bottom: "res3d_branch2b"
  top: "res3d_branch2b"
  batch_norm_param {
    use_global_stats: true
  }
}
layer {
  name: "scale3d_branch2b"
  type: "Scale"
  bottom: "res3d_branch2b"
  top: "res3d_branch2b"
  scale_param {
    bias_term: true
  }
}
layer {
  name: "res3d_branch2b_relu"
  type: "ReLU"
  bottom: "res3d_branch2b"
  top: "res3d_branch2b"
}
layer {
  name: "res3d_branch2c"
  type: "Convolution"
  bottom: "res3d_branch2b"
  top: "res3d_branch2c"
  param {
    lr_mult: 1
    decay_mult: 1
  }
  convolution_param {
    num_output: 512
    bias_term: false
    pad: 0
    kernel_size: 1
    stride: 1
  }
}
layer {
  name: "bn3d_branch2c"
  type: "BatchNorm"
  bottom: "res3d_branch2c"
  top: "res3d_branch2c"
  batch_norm_param {
    use_global_stats: true
  }
}
layer {
  name: "scale3d_branch2c"
  type: "Scale"
  bottom: "res3d_branch2c"
  top: "res3d_branch2c"
  scale_param {
    bias_term: true
  }
}
layer {
  name: "res3d"
  type: "Eltwise"
  bottom: "res3c"
  bottom: "res3d_branch2c"
  top: "res3d"
}
layer {
  name: "res3d_relu"
  type: "ReLU"
  bottom: "res3d"
  top: "res3d"
}
layer {
  name: "res4a_branch1"
  type: "Convolution"
  bottom: "res3d"
  top: "res4a_branch1"
  param {
    lr_mult: 1
    decay_mult: 1
  }
  convolution_param {
    num_output: 1024
    bias_term: false
    pad: 0
    kernel_size: 1
    stride: 2
  }
}
layer {
  name: "bn4a_branch1"
  type: "BatchNorm"
  bottom: "res4a_branch1"
  top: "res4a_branch1"
  batch_norm_param {
    use_global_stats: true
  }
}
layer {
  name: "scale4a_branch1"
  type: "Scale"
  bottom: "res4a_branch1"
  top: "res4a_branch1"
  scale_param {
    bias_term: true
  }
}
layer {
  name: "res4a_branch2a"
  type: "Convolution"
  bottom: "res3d"
  top: "res4a_branch2a"
  param {
    lr_mult: 1
    decay_mult: 1
  }
  convolution_param {
    num_output: 256
    bias_term: false
    pad: 0
    kernel_size: 1
    stride: 2
  }
}
layer {
  name: "bn4a_branch2a"
  type: "BatchNorm"
  bottom: "res4a_branch2a"
  top: "res4a_branch2a"
  batch_norm_param {
    use_global_stats: true
  }
}
layer {
  name: "scale4a_branch2a"
  type: "Scale"
  bottom: "res4a_branch2a"
  top: "res4a_branch2a"
  scale_param {
    bias_term: true
  }
}
layer {
  name: "res4a_branch2a_relu"
  type: "ReLU"
  bottom: "res4a_branch2a"
  top: "res4a_branch2a"
}
layer {
  name: "res4a_branch2b"
  type: "Convolution"
  bottom: "res4a_branch2a"
  top: "res4a_branch2b"
  param {
    lr_mult: 1
    decay_mult: 1
  }
  convolution_param {
    num_output: 256
    bias_term: false
    pad: 1
    kernel_size: 3
    stride: 1
  }
}
layer {
  name: "bn4a_branch2b"
  type: "BatchNorm"
  bottom: "res4a_branch2b"
  top: "res4a_branch2b"
  batch_norm_param {
    use_global_stats: true
  }
}
layer {
  name: "scale4a_branch2b"
  type: "Scale"
  bottom: "res4a_branch2b"
  top: "res4a_branch2b"
  scale_param {
    bias_term: true
  }
}
layer {
  name: "res4a_branch2b_relu"
  type: "ReLU"
  bottom: "res4a_branch2b"
  top: "res4a_branch2b"
}
layer {
  name: "res4a_branch2c"
  type: "Convolution"
  bottom: "res4a_branch2b"
  top: "res4a_branch2c"
  param {
    lr_mult: 1
    decay_mult: 1
  }
  convolution_param {
    num_output: 1024
    bias_term: false
    pad: 0
    kernel_size: 1
    stride: 1
  }
}
layer {
  name: "bn4a_branch2c"
  type: "BatchNorm"
  bottom: "res4a_branch2c"
  top: "res4a_branch2c"
  batch_norm_param {
    use_global_stats: true
  }
}
layer {
  name: "scale4a_branch2c"
  type: "Scale"
  bottom: "res4a_branch2c"
  top: "res4a_branch2c"
  scale_param {
    bias_term: true
  }
}
layer {
  name: "res4a"
  type: "Eltwise"
  bottom: "res4a_branch1"
  bottom: "res4a_branch2c"
  top: "res4a"
}
layer {
  name: "res4a_relu"
  type: "ReLU"
  bottom: "res4a"
  top: "res4a"
}
layer {
  name: "res4b_branch2a"
  type: "Convolution"
  bottom: "res4a"
  top: "res4b_branch2a"
  param {
    lr_mult: 1
    decay_mult: 1
  }
  convolution_param {
    num_output: 256
    bias_term: false
    pad: 0
    kernel_size: 1
    stride: 1
  }
}
layer {
  name: "bn4b_branch2a"
  type: "BatchNorm"
  bottom: "res4b_branch2a"
  top: "res4b_branch2a"
  batch_norm_param {
    use_global_stats: true
  }
}
layer {
  name: "scale4b_branch2a"
  type: "Scale"
  bottom: "res4b_branch2a"
  top: "res4b_branch2a"
  scale_param {
    bias_term: true
  }
}
layer {
  name: "res4b_branch2a_relu"
  type: "ReLU"
  bottom: "res4b_branch2a"
  top: "res4b_branch2a"
}
layer {
  name: "res4b_branch2b"
  type: "Convolution"
  bottom: "res4b_branch2a"
  top: "res4b_branch2b"
  param {
    lr_mult: 1
    decay_mult: 1
  }
  convolution_param {
    num_output: 256
    bias_term: false
    pad: 1
    kernel_size: 3
    stride: 1
  }
}
layer {
  name: "bn4b_branch2b"
  type: "BatchNorm"
  bottom: "res4b_branch2b"
  top: "res4b_branch2b"
  batch_norm_param {
    use_global_stats: true
  }
}
layer {
  name: "scale4b_branch2b"
  type: "Scale"
  bottom: "res4b_branch2b"
  top: "res4b_branch2b"
  scale_param {
    bias_term: true
  }
}
layer {
  name: "res4b_branch2b_relu"
  type: "ReLU"
  bottom: "res4b_branch2b"
  top: "res4b_branch2b"
}
layer {
  name: "res4b_branch2c"
  type: "Convolution"
  bottom: "res4b_branch2b"
  top: "res4b_branch2c"
  param {
    lr_mult: 1
    decay_mult: 1
  }
  convolution_param {
    num_output: 1024
    bias_term: false
    pad: 0
    kernel_size: 1
    stride: 1
  }
}
layer {
  name: "bn4b_branch2c"
  type: "BatchNorm"
  bottom: "res4b_branch2c"
  top: "res4b_branch2c"
  batch_norm_param {
    use_global_stats: true
  }
}
layer {
  name: "scale4b_branch2c"
  type: "Scale"
  bottom: "res4b_branch2c"
  top: "res4b_branch2c"
  scale_param {
    bias_term: true
  }
}
layer {
  name: "res4b"
  type: "Eltwise"
  bottom: "res4a"
  bottom: "res4b_branch2c"
  top: "res4b"
}
layer {
  name: "res4b_relu"
  type: "ReLU"
  bottom: "res4b"
  top: "res4b"
}
layer {
  name: "res4c_branch2a"
  type: "Convolution"
  bottom: "res4b"
  top: "res4c_branch2a"
  param {
    lr_mult: 1
    decay_mult: 1
  }
  convolution_param {
    num_output: 256
    bias_term: false
    pad: 0
    kernel_size: 1
    stride: 1
  }
}
layer {
  name: "bn4c_branch2a"
  type: "BatchNorm"
  bottom: "res4c_branch2a"
  top: "res4c_branch2a"
  batch_norm_param {
    use_global_stats: true
  }
}
layer {
  name: "scale4c_branch2a"
  type: "Scale"
  bottom: "res4c_branch2a"
  top: "res4c_branch2a"
  scale_param {
    bias_term: true
  }
}
layer {
  name: "res4c_branch2a_relu"
  type: "ReLU"
  bottom: "res4c_branch2a"
  top: "res4c_branch2a"
}
layer {
  name: "res4c_branch2b"
  type: "Convolution"
  bottom: "res4c_branch2a"
  top: "res4c_branch2b"
  param {
    lr_mult: 1
    decay_mult: 1
  }
  convolution_param {
    num_output: 256
    bias_term: false
    pad: 1
    kernel_size: 3
    stride: 1
  }
}
layer {
  name: "bn4c_branch2b"
  type: "BatchNorm"
  bottom: "res4c_branch2b"
  top: "res4c_branch2b"
  batch_norm_param {
    use_global_stats: true
  }
}
layer {
  name: "scale4c_branch2b"
  type: "Scale"
  bottom: "res4c_branch2b"
  top: "res4c_branch2b"
  scale_param {
    bias_term: true
  }
}
layer {
  name: "res4c_branch2b_relu"
  type: "ReLU"
  bottom: "res4c_branch2b"
  top: "res4c_branch2b"
}
layer {
  name: "res4c_branch2c"
  type: "Convolution"
  bottom: "res4c_branch2b"
  top: "res4c_branch2c"
  param {
    lr_mult: 1
    decay_mult: 1
  }
  convolution_param {
    num_output: 1024
    bias_term: false
    pad: 0
    kernel_size: 1
    stride: 1
  }
}
layer {
  name: "bn4c_branch2c"
  type: "BatchNorm"
  bottom: "res4c_branch2c"
  top: "res4c_branch2c"
  batch_norm_param {
    use_global_stats: true
  }
}
layer {
  name: "scale4c_branch2c"
  type: "Scale"
  bottom: "res4c_branch2c"
  top: "res4c_branch2c"
  scale_param {
    bias_term: true
  }
}
layer {
  name: "res4c"
  type: "Eltwise"
  bottom: "res4b"
  bottom: "res4c_branch2c"
  top: "res4c"
}
layer {
  name: "res4c_relu"
  type: "ReLU"
  bottom: "res4c"
  top: "res4c"
}
layer {
  name: "res4d_branch2a"
  type: "Convolution"
  bottom: "res4c"
  top: "res4d_branch2a"
  param {
    lr_mult: 1
    decay_mult: 1
  }
  convolution_param {
    num_output: 256
    bias_term: false
    pad: 0
    kernel_size: 1
    stride: 1
  }
}
layer {
  name: "bn4d_branch2a"
  type: "BatchNorm"
  bottom: "res4d_branch2a"
  top: "res4d_branch2a"
  batch_norm_param {
    use_global_stats: true
  }
}
layer {
  name: "scale4d_branch2a"
  type: "Scale"
  bottom: "res4d_branch2a"
  top: "res4d_branch2a"
  scale_param {
    bias_term: true
  }
}
layer {
  name: "res4d_branch2a_relu"
  type: "ReLU"
  bottom: "res4d_branch2a"
  top: "res4d_branch2a"
}
layer {
  name: "res4d_branch2b"
  type: "Convolution"
  bottom: "res4d_branch2a"
  top: "res4d_branch2b"
  param {
    lr_mult: 1
    decay_mult: 1
  }
  convolution_param {
    num_output: 256
    bias_term: false
    pad: 1
    kernel_size: 3
    stride: 1
  }
}
layer {
  name: "bn4d_branch2b"
  type: "BatchNorm"
  bottom: "res4d_branch2b"
  top: "res4d_branch2b"
  batch_norm_param {
    use_global_stats: true
  }
}
layer {
  name: "scale4d_branch2b"
  type: "Scale"
  bottom: "res4d_branch2b"
  top: "res4d_branch2b"
  scale_param {
    bias_term: true
  }
}
layer {
  name: "res4d_branch2b_relu"
  type: "ReLU"
  bottom: "res4d_branch2b"
  top: "res4d_branch2b"
}
layer {
  name: "res4d_branch2c"
  type: "Convolution"
  bottom: "res4d_branch2b"
  top: "res4d_branch2c"
  param {
    lr_mult: 1
    decay_mult: 1
  }
  convolution_param {
    num_output: 1024
    bias_term: false
    pad: 0
    kernel_size: 1
    stride: 1
  }
}
layer {
  name: "bn4d_branch2c"
  type: "BatchNorm"
  bottom: "res4d_branch2c"
  top: "res4d_branch2c"
  batch_norm_param {
    use_global_stats: true
  }
}
layer {
  name: "scale4d_branch2c"
  type: "Scale"
  bottom: "res4d_branch2c"
  top: "res4d_branch2c"
  scale_param {
    bias_term: true
  }
}
layer {
  name: "res4d"
  type: "Eltwise"
  bottom: "res4c"
  bottom: "res4d_branch2c"
  top: "res4d"
}
layer {
  name: "res4d_relu"
  type: "ReLU"
  bottom: "res4d"
  top: "res4d"
}
layer {
  name: "res4e_branch2a"
  type: "Convolution"
  bottom: "res4d"
  top: "res4e_branch2a"
  param {
    lr_mult: 1
    decay_mult: 1
  }
  convolution_param {
    num_output: 256
    bias_term: false
    pad: 0
    kernel_size: 1
    stride: 1
  }
}
layer {
  name: "bn4e_branch2a"
  type: "BatchNorm"
  bottom: "res4e_branch2a"
  top: "res4e_branch2a"
  batch_norm_param {
    use_global_stats: true
  }
}
layer {
  name: "scale4e_branch2a"
  type: "Scale"
  bottom: "res4e_branch2a"
  top: "res4e_branch2a"
  scale_param {
    bias_term: true
  }
}
layer {
  name: "res4e_branch2a_relu"
  type: "ReLU"
  bottom: "res4e_branch2a"
  top: "res4e_branch2a"
}
layer {
  name: "res4e_branch2b"
  type: "Convolution"
  bottom: "res4e_branch2a"
  top: "res4e_branch2b"
  param {
    lr_mult: 1
    decay_mult: 1
  }
  convolution_param {
    num_output: 256
    bias_term: false
    pad: 1
    kernel_size: 3
    stride: 1
  }
}
layer {
  name: "bn4e_branch2b"
  type: "BatchNorm"
  bottom: "res4e_branch2b"
  top: "res4e_branch2b"
  batch_norm_param {
    use_global_stats: true
  }
}
layer {
  name: "scale4e_branch2b"
  type: "Scale"
  bottom: "res4e_branch2b"
  top: "res4e_branch2b"
  scale_param {
    bias_term: true
  }
}
layer {
  name: "res4e_branch2b_relu"
  type: "ReLU"
  bottom: "res4e_branch2b"
  top: "res4e_branch2b"
}
layer {
  name: "res4e_branch2c"
  type: "Convolution"
  bottom: "res4e_branch2b"
  top: "res4e_branch2c"
  param {
    lr_mult: 1
    decay_mult: 1
  }
  convolution_param {
    num_output: 1024
    bias_term: false
    pad: 0
    kernel_size: 1
    stride: 1
  }
}
layer {
  name: "bn4e_branch2c"
  type: "BatchNorm"
  bottom: "res4e_branch2c"
  top: "res4e_branch2c"
  batch_norm_param {
    use_global_stats: true
  }
}
layer {
  name: "scale4e_branch2c"
  type: "Scale"
  bottom: "res4e_branch2c"
  top: "res4e_branch2c"
  scale_param {
    bias_term: true
  }
}
layer {
  name: "res4e"
  type: "Eltwise"
  bottom: "res4d"
  bottom: "res4e_branch2c"
  top: "res4e"
}
layer {
  name: "res4e_relu"
  type: "ReLU"
  bottom: "res4e"
  top: "res4e"
}
layer {
  name: "res4f_branch2a"
  type: "Convolution"
  bottom: "res4e"
  top: "res4f_branch2a"
  param {
    lr_mult: 1
    decay_mult: 1
  }
  convolution_param {
    num_output: 256
    bias_term: false
    pad: 0
    kernel_size: 1
    stride: 1
  }
}
layer {
  name: "bn4f_branch2a"
  type: "BatchNorm"
  bottom: "res4f_branch2a"
  top: "res4f_branch2a"
  batch_norm_param {
    use_global_stats: true
  }
}
layer {
  name: "scale4f_branch2a"
  type: "Scale"
  bottom: "res4f_branch2a"
  top: "res4f_branch2a"
  scale_param {
    bias_term: true
  }
}
layer {
  name: "res4f_branch2a_relu"
  type: "ReLU"
  bottom: "res4f_branch2a"
  top: "res4f_branch2a"
}
layer {
  name: "res4f_branch2b"
  type: "Convolution"
  bottom: "res4f_branch2a"
  top: "res4f_branch2b"
  param {
    lr_mult: 1
    decay_mult: 1
  }
  convolution_param {
    num_output: 256
    bias_term: false
    pad: 1
    kernel_size: 3
    stride: 1
  }
}
layer {
  name: "bn4f_branch2b"
  type: "BatchNorm"
  bottom: "res4f_branch2b"
  top: "res4f_branch2b"
  batch_norm_param {
    use_global_stats: true
  }
}
layer {
  name: "scale4f_branch2b"
  type: "Scale"
  bottom: "res4f_branch2b"
  top: "res4f_branch2b"
  scale_param {
    bias_term: true
  }
}
layer {
  name: "res4f_branch2b_relu"
  type: "ReLU"
  bottom: "res4f_branch2b"
  top: "res4f_branch2b"
}
layer {
  name: "res4f_branch2c"
  type: "Convolution"
  bottom: "res4f_branch2b"
  top: "res4f_branch2c"
  param {
    lr_mult: 1
    decay_mult: 1
  }
  convolution_param {
    num_output: 1024
    bias_term: false
    pad: 0
    kernel_size: 1
    stride: 1
  }
}
layer {
  name: "bn4f_branch2c"
  type: "BatchNorm"
  bottom: "res4f_branch2c"
  top: "res4f_branch2c"
  batch_norm_param {
    use_global_stats: true
  }
}
layer {
  name: "scale4f_branch2c"
  type: "Scale"
  bottom: "res4f_branch2c"
  top: "res4f_branch2c"
  scale_param {
    bias_term: true
  }
}
layer {
  name: "res4f"
  type: "Eltwise"
  bottom: "res4e"
  bottom: "res4f_branch2c"
  top: "res4f"
}
layer {
  name: "res4f_relu"
  type: "ReLU"
  bottom: "res4f"
  top: "res
I0629 02:12:53.084733  1380 layer_factory.hpp:77] Creating layer input
I0629 02:12:53.091258  1380 db_lmdb.cpp:35] Opened lmdb ../../../data_subsets/subtrain2_lmdb
I0629 02:12:53.094425  1380 net.cpp:84] Creating Layer input
I0629 02:12:53.094450  1380 net.cpp:380] input -> data
I0629 02:12:53.094483  1380 net.cpp:380] input -> label
I0629 02:12:53.094507  1380 data_transformer.cpp:25] Loading mean file from: ../../../data_subsets/subtrain2_mean.binaryproto
I0629 02:12:53.127243  1380 data_layer.cpp:45] output data size: 8,3,224,224
I0629 02:12:53.139763  1380 net.cpp:122] Setting up input
I0629 02:12:53.139816  1380 net.cpp:129] Top shape: 8 3 224 224 (1204224)
I0629 02:12:53.139824  1380 net.cpp:129] Top shape: 8 (8)
I0629 02:12:53.139828  1380 net.cpp:137] Memory required for data: 4816928
I0629 02:12:53.139850  1380 layer_factory.hpp:77] Creating layer label_input_1_split
I0629 02:12:53.139874  1380 net.cpp:84] Creating Layer label_input_1_split
I0629 02:12:53.139884  1380 net.cpp:406] label_input_1_split <- label
I0629 02:12:53.139901  1380 net.cpp:380] label_input_1_split -> label_input_1_split_0
I0629 02:12:53.139919  1380 net.cpp:380] label_input_1_split -> label_input_1_split_1
I0629 02:12:53.139927  1380 net.cpp:380] label_input_1_split -> label_input_1_split_2
I0629 02:12:53.139935  1380 net.cpp:380] label_input_1_split -> label_input_1_split_3
I0629 02:12:53.139997  1380 net.cpp:122] Setting up label_input_1_split
I0629 02:12:53.140012  1380 net.cpp:129] Top shape: 8 (8)
I0629 02:12:53.140017  1380 net.cpp:129] Top shape: 8 (8)
I0629 02:12:53.140022  1380 net.cpp:129] Top shape: 8 (8)
I0629 02:12:53.140027  1380 net.cpp:129] Top shape: 8 (8)
I0629 02:12:53.140030  1380 net.cpp:137] Memory required for data: 4817056
I0629 02:12:53.140034  1380 layer_factory.hpp:77] Creating layer conv1
I0629 02:12:53.140066  1380 net.cpp:84] Creating Layer conv1
I0629 02:12:53.140077  1380 net.cpp:406] conv1 <- data
I0629 02:12:53.140085  1380 net.cpp:380] conv1 -> conv1
I0629 02:12:53.878021  1380 net.cpp:122] Setting up conv1
I0629 02:12:53.878070  1380 net.cpp:129] Top shape: 8 64 112 112 (6422528)
I0629 02:12:53.878077  1380 net.cpp:137] Memory required for data: 30507168
I0629 02:12:53.878103  1380 layer_factory.hpp:77] Creating layer bn_conv1
I0629 02:12:53.880028  1380 net.cpp:84] Creating Layer bn_conv1
I0629 02:12:53.880045  1380 net.cpp:406] bn_conv1 <- conv1
I0629 02:12:53.880059  1380 net.cpp:367] bn_conv1 -> conv1 (in-place)
I0629 02:12:53.880301  1380 net.cpp:122] Setting up bn_conv1
I0629 02:12:53.880319  1380 net.cpp:129] Top shape: 8 64 112 112 (6422528)
I0629 02:12:53.880347  1380 net.cpp:137] Memory required for data: 56197280
I0629 02:12:53.880362  1380 layer_factory.hpp:77] Creating layer scale_conv1
I0629 02:12:53.880388  1380 net.cpp:84] Creating Layer scale_conv1
I0629 02:12:53.880399  1380 net.cpp:406] scale_conv1 <- conv1
I0629 02:12:53.880409  1380 net.cpp:367] scale_conv1 -> conv1 (in-place)
I0629 02:12:53.881868  1380 layer_factory.hpp:77] Creating layer scale_conv1
I0629 02:12:53.882028  1380 net.cpp:122] Setting up scale_conv1
I0629 02:12:53.882046  1380 net.cpp:129] Top shape: 8 64 112 112 (6422528)
I0629 02:12:53.882050  1380 net.cpp:137] Memory required for data: 81887392
I0629 02:12:53.882057  1380 layer_factory.hpp:77] Creating layer conv1_relu
I0629 02:12:53.882069  1380 net.cpp:84] Creating Layer conv1_relu
I0629 02:12:53.882073  1380 net.cpp:406] conv1_relu <- conv1
I0629 02:12:53.882079  1380 net.cpp:367] conv1_relu -> conv1 (in-place)
I0629 02:12:53.882244  1380 net.cpp:122] Setting up conv1_relu
I0629 02:12:53.882261  1380 net.cpp:129] Top shape: 8 64 112 112 (6422528)
I0629 02:12:53.882266  1380 net.cpp:137] Memory required for data: 107577504
I0629 02:12:53.882270  1380 layer_factory.hpp:77] Creating layer pool1
I0629 02:12:53.882282  1380 net.cpp:84] Creating Layer pool1
I0629 02:12:53.882287  1380 net.cpp:406] pool1 <- conv1
I0629 02:12:53.882295  1380 net.cpp:380] pool1 -> pool1
I0629 02:12:53.882354  1380 net.cpp:122] Setting up pool1
I0629 02:12:53.882369  1380 net.cpp:129] Top shape: 8 64 56 56 (1605632)
I0629 02:12:53.882374  1380 net.cpp:137] Memory required for data: 114000032
I0629 02:12:53.882377  1380 layer_factory.hpp:77] Creating layer pool1_pool1_0_split
I0629 02:12:53.882388  1380 net.cpp:84] Creating Layer pool1_pool1_0_split
I0629 02:12:53.882392  1380 net.cpp:406] pool1_pool1_0_split <- pool1
I0629 02:12:53.882397  1380 net.cpp:380] pool1_pool1_0_split -> pool1_pool1_0_split_0
I0629 02:12:53.882406  1380 net.cpp:380] pool1_pool1_0_split -> pool1_pool1_0_split_1
I0629 02:12:53.882446  1380 net.cpp:122] Setting up pool1_pool1_0_split
I0629 02:12:53.882459  1380 net.cpp:129] Top shape: 8 64 56 56 (1605632)
I0629 02:12:53.882465  1380 net.cpp:129] Top shape: 8 64 56 56 (1605632)
I0629 02:12:53.882468  1380 net.cpp:137] Memory required for data: 126845088
I0629 02:12:53.882472  1380 layer_factory.hpp:77] Creating layer res2a_branch1
I0629 02:12:53.882493  1380 net.cpp:84] Creating Layer res2a_branch1
I0629 02:12:53.882498  1380 net.cpp:406] res2a_branch1 <- pool1_pool1_0_split_0
I0629 02:12:53.882508  1380 net.cpp:380] res2a_branch1 -> res2a_branch1
I0629 02:12:53.886822  1380 net.cpp:122] Setting up res2a_branch1
I0629 02:12:53.886855  1380 net.cpp:129] Top shape: 8 256 56 56 (6422528)
I0629 02:12:53.886859  1380 net.cpp:137] Memory required for data: 152535200
I0629 02:12:53.886867  1380 layer_factory.hpp:77] Creating layer bn2a_branch1
I0629 02:12:53.886878  1380 net.cpp:84] Creating Layer bn2a_branch1
I0629 02:12:53.886883  1380 net.cpp:406] bn2a_branch1 <- res2a_branch1
I0629 02:12:53.886888  1380 net.cpp:367] bn2a_branch1 -> res2a_branch1 (in-place)
I0629 02:12:53.887634  1380 net.cpp:122] Setting up bn2a_branch1
I0629 02:12:53.887652  1380 net.cpp:129] Top shape: 8 256 56 56 (6422528)
I0629 02:12:53.887657  1380 net.cpp:137] Memory required for data: 178225312
I0629 02:12:53.887670  1380 layer_factory.hpp:77] Creating layer scale2a_branch1
I0629 02:12:53.887677  1380 net.cpp:84] Creating Layer scale2a_branch1
I0629 02:12:53.887682  1380 net.cpp:406] scale2a_branch1 <- res2a_branch1
I0629 02:12:53.887687  1380 net.cpp:367] scale2a_branch1 -> res2a_branch1 (in-place)
I0629 02:12:53.887742  1380 layer_factory.hpp:77] Creating layer scale2a_branch1
I0629 02:12:53.887862  1380 net.cpp:122] Setting up scale2a_branch1
I0629 02:12:53.887878  1380 net.cpp:129] Top shape: 8 256 56 56 (6422528)
I0629 02:12:53.887882  1380 net.cpp:137] Memory required for data: 203915424
I0629 02:12:53.887889  1380 layer_factory.hpp:77] Creating layer res2a_branch2a
I0629 02:12:53.887902  1380 net.cpp:84] Creating Layer res2a_branch2a
I0629 02:12:53.887922  1380 net.cpp:406] res2a_branch2a <- pool1_pool1_0_split_1
I0629 02:12:53.887933  1380 net.cpp:380] res2a_branch2a -> res2a_branch2a
I0629 02:12:53.890151  1380 net.cpp:122] Setting up res2a_branch2a
I0629 02:12:53.890172  1380 net.cpp:129] Top shape: 8 64 56 56 (1605632)
I0629 02:12:53.890177  1380 net.cpp:137] Memory required for data: 210337952
I0629 02:12:53.890183  1380 layer_factory.hpp:77] Creating layer bn2a_branch2a
I0629 02:12:53.890192  1380 net.cpp:84] Creating Layer bn2a_branch2a
I0629 02:12:53.890198  1380 net.cpp:406] bn2a_branch2a <- res2a_branch2a
I0629 02:12:53.890204  1380 net.cpp:367] bn2a_branch2a -> res2a_branch2a (in-place)
I0629 02:12:53.890405  1380 net.cpp:122] Setting up bn2a_branch2a
I0629 02:12:53.890422  1380 net.cpp:129] Top shape: 8 64 56 56 (1605632)
I0629 02:12:53.890426  1380 net.cpp:137] Memory required for data: 216760480
I0629 02:12:53.890441  1380 layer_factory.hpp:77] Creating layer scale2a_branch2a
I0629 02:12:53.890450  1380 net.cpp:84] Creating Layer scale2a_branch2a
I0629 02:12:53.890453  1380 net.cpp:406] scale2a_branch2a <- res2a_branch2a
I0629 02:12:53.890458  1380 net.cpp:367] scale2a_branch2a -> res2a_branch2a (in-place)
I0629 02:12:53.890504  1380 layer_factory.hpp:77] Creating layer scale2a_branch2a
I0629 02:12:53.890640  1380 net.cpp:122] Setting up scale2a_branch2a
I0629 02:12:53.890656  1380 net.cpp:129] Top shape: 8 64 56 56 (1605632)
I0629 02:12:53.890661  1380 net.cpp:137] Memory required for data: 223183008
I0629 02:12:53.890667  1380 layer_factory.hpp:77] Creating layer res2a_branch2a_relu
I0629 02:12:53.890677  1380 net.cpp:84] Creating Layer res2a_branch2a_relu
I0629 02:12:53.890681  1380 net.cpp:406] res2a_branch2a_relu <- res2a_branch2a
I0629 02:12:53.890686  1380 net.cpp:367] res2a_branch2a_relu -> res2a_branch2a (in-place)
I0629 02:12:53.890947  1380 net.cpp:122] Setting up res2a_branch2a_relu
I0629 02:12:53.890966  1380 net.cpp:129] Top shape: 8 64 56 56 (1605632)
I0629 02:12:53.890970  1380 net.cpp:137] Memory required for data: 229605536
I0629 02:12:53.890974  1380 layer_factory.hpp:77] Creating layer res2a_branch2b
I0629 02:12:53.890990  1380 net.cpp:84] Creating Layer res2a_branch2b
I0629 02:12:53.890993  1380 net.cpp:406] res2a_branch2b <- res2a_branch2a
I0629 02:12:53.891000  1380 net.cpp:380] res2a_branch2b -> res2a_branch2b
I0629 02:12:53.892412  1380 net.cpp:122] Setting up res2a_branch2b
I0629 02:12:53.892433  1380 net.cpp:129] Top shape: 8 64 56 56 (1605632)
I0629 02:12:53.892438  1380 net.cpp:137] Memory required for data: 236028064
I0629 02:12:53.892444  1380 layer_factory.hpp:77] Creating layer bn2a_branch2b
I0629 02:12:53.892458  1380 net.cpp:84] Creating Layer bn2a_branch2b
I0629 02:12:53.892462  1380 net.cpp:406] bn2a_branch2b <- res2a_branch2b
I0629 02:12:53.892468  1380 net.cpp:367] bn2a_branch2b -> res2a_branch2b (in-place)
I0629 02:12:53.892666  1380 net.cpp:122] Setting up bn2a_branch2b
I0629 02:12:53.892683  1380 net.cpp:129] Top shape: 8 64 56 56 (1605632)
I0629 02:12:53.892686  1380 net.cpp:137] Memory required for data: 242450592
I0629 02:12:53.892695  1380 layer_factory.hpp:77] Creating layer scale2a_branch2b
I0629 02:12:53.892704  1380 net.cpp:84] Creating Layer scale2a_branch2b
I0629 02:12:53.892707  1380 net.cpp:406] scale2a_branch2b <- res2a_branch2b
I0629 02:12:53.892714  1380 net.cpp:367] scale2a_branch2b -> res2a_branch2b (in-place)
I0629 02:12:53.892761  1380 layer_factory.hpp:77] Creating layer scale2a_branch2b
I0629 02:12:53.892890  1380 net.cpp:122] Setting up scale2a_branch2b
I0629 02:12:53.892906  1380 net.cpp:129] Top shape: 8 64 56 56 (1605632)
I0629 02:12:53.892910  1380 net.cpp:137] Memory required for data: 248873120
I0629 02:12:53.892917  1380 layer_factory.hpp:77] Creating layer res2a_branch2b_relu
I0629 02:12:53.892925  1380 net.cpp:84] Creating Layer res2a_branch2b_relu
I0629 02:12:53.892928  1380 net.cpp:406] res2a_branch2b_relu <- res2a_branch2b
I0629 02:12:53.892933  1380 net.cpp:367] res2a_branch2b_relu -> res2a_branch2b (in-place)
I0629 02:12:53.893183  1380 net.cpp:122] Setting up res2a_branch2b_relu
I0629 02:12:53.893218  1380 net.cpp:129] Top shape: 8 64 56 56 (1605632)
I0629 02:12:53.893223  1380 net.cpp:137] Memory required for data: 255295648
I0629 02:12:53.893227  1380 layer_factory.hpp:77] Creating layer res2a_branch2c
I0629 02:12:53.893240  1380 net.cpp:84] Creating Layer res2a_branch2c
I0629 02:12:53.893244  1380 net.cpp:406] res2a_branch2c <- res2a_branch2b
I0629 02:12:53.893255  1380 net.cpp:380] res2a_branch2c -> res2a_branch2c
I0629 02:12:53.894212  1380 net.cpp:122] Setting up res2a_branch2c
I0629 02:12:53.894233  1380 net.cpp:129] Top shape: 8 256 56 56 (6422528)
I0629 02:12:53.894237  1380 net.cpp:137] Memory required for data: 280985760
I0629 02:12:53.894244  1380 layer_factory.hpp:77] Creating layer bn2a_branch2c
I0629 02:12:53.894258  1380 net.cpp:84] Creating Layer bn2a_branch2c
I0629 02:12:53.894263  1380 net.cpp:406] bn2a_branch2c <- res2a_branch2c
I0629 02:12:53.894268  1380 net.cpp:367] bn2a_branch2c -> res2a_branch2c (in-place)
I0629 02:12:53.894464  1380 net.cpp:122] Setting up bn2a_branch2c
I0629 02:12:53.894480  1380 net.cpp:129] Top shape: 8 256 56 56 (6422528)
I0629 02:12:53.894485  1380 net.cpp:137] Memory required for data: 306675872
I0629 02:12:53.894495  1380 layer_factory.hpp:77] Creating layer scale2a_branch2c
I0629 02:12:53.894501  1380 net.cpp:84] Creating Layer scale2a_branch2c
I0629 02:12:53.894505  1380 net.cpp:406] scale2a_branch2c <- res2a_branch2c
I0629 02:12:53.894511  1380 net.cpp:367] scale2a_branch2c -> res2a_branch2c (in-place)
I0629 02:12:53.894556  1380 layer_factory.hpp:77] Creating layer scale2a_branch2c
I0629 02:12:53.894680  1380 net.cpp:122] Setting up scale2a_branch2c
I0629 02:12:53.894695  1380 net.cpp:129] Top shape: 8 256 56 56 (6422528)
I0629 02:12:53.894700  1380 net.cpp:137] Memory required for data: 332365984
I0629 02:12:53.894706  1380 layer_factory.hpp:77] Creating layer res2a
I0629 02:12:53.894719  1380 net.cpp:84] Creating Layer res2a
I0629 02:12:53.894724  1380 net.cpp:406] res2a <- res2a_branch1
I0629 02:12:53.894729  1380 net.cpp:406] res2a <- res2a_branch2c
I0629 02:12:53.894735  1380 net.cpp:380] res2a -> res2a
I0629 02:12:53.894788  1380 net.cpp:122] Setting up res2a
I0629 02:12:53.894803  1380 net.cpp:129] Top shape: 8 256 56 56 (6422528)
I0629 02:12:53.894807  1380 net.cpp:137] Memory required for data: 358056096
I0629 02:12:53.894811  1380 layer_factory.hpp:77] Creating layer res2a_relu
I0629 02:12:53.894819  1380 net.cpp:84] Creating Layer res2a_relu
I0629 02:12:53.894821  1380 net.cpp:406] res2a_relu <- res2a
I0629 02:12:53.894829  1380 net.cpp:367] res2a_relu -> res2a (in-place)
I0629 02:12:53.894984  1380 net.cpp:122] Setting up res2a_relu
I0629 02:12:53.895000  1380 net.cpp:129] Top shape: 8 256 56 56 (6422528)
I0629 02:12:53.895004  1380 net.cpp:137] Memory required for data: 383746208
I0629 02:12:53.895009  1380 layer_factory.hpp:77] Creating layer res2a_res2a_relu_0_split
I0629 02:12:53.895018  1380 net.cpp:84] Creating Layer res2a_res2a_relu_0_split
I0629 02:12:53.895022  1380 net.cpp:406] res2a_res2a_relu_0_split <- res2a
I0629 02:12:53.895028  1380 net.cpp:380] res2a_res2a_relu_0_split -> res2a_res2a_relu_0_split_0
I0629 02:12:53.895035  1380 net.cpp:380] res2a_res2a_relu_0_split -> res2a_res2a_relu_0_split_1
I0629 02:12:53.895081  1380 net.cpp:122] Setting up res2a_res2a_relu_0_split
I0629 02:12:53.895094  1380 net.cpp:129] Top shape: 8 256 56 56 (6422528)
I0629 02:12:53.895100  1380 net.cpp:129] Top shape: 8 256 56 56 (6422528)
I0629 02:12:53.895103  1380 net.cpp:137] Memory required for data: 435126432
I0629 02:12:53.895107  1380 layer_factory.hpp:77] Creating layer res2b_branch2a
I0629 02:12:53.895119  1380 net.cpp:84] Creating Layer res2b_branch2a
I0629 02:12:53.895124  1380 net.cpp:406] res2b_branch2a <- res2a_res2a_relu_0_split_0
I0629 02:12:53.895133  1380 net.cpp:380] res2b_branch2a -> res2b_branch2a
I0629 02:12:53.896044  1380 net.cpp:122] Setting up res2b_branch2a
I0629 02:12:53.896064  1380 net.cpp:129] Top shape: 8 64 56 56 (1605632)
I0629 02:12:53.896067  1380 net.cpp:137] Memory required for data: 441548960
I0629 02:12:53.896087  1380 layer_factory.hpp:77] Creating layer bn2b_branch2a
I0629 02:12:53.896100  1380 net.cpp:84] Creating Layer bn2b_branch2a
I0629 02:12:53.896103  1380 net.cpp:406] bn2b_branch2a <- res2b_branch2a
I0629 02:12:53.896109  1380 net.cpp:367] bn2b_branch2a -> res2b_branch2a (in-place)
I0629 02:12:53.896306  1380 net.cpp:122] Setting up bn2b_branch2a
I0629 02:12:53.896322  1380 net.cpp:129] Top shape: 8 64 56 56 (1605632)
I0629 02:12:53.896327  1380 net.cpp:137] Memory required for data: 447971488
I0629 02:12:53.896340  1380 layer_factory.hpp:77] Creating layer scale2b_branch2a
I0629 02:12:53.896347  1380 net.cpp:84] Creating Layer scale2b_branch2a
I0629 02:12:53.896351  1380 net.cpp:406] scale2b_branch2a <- res2b_branch2a
I0629 02:12:53.896363  1380 net.cpp:367] scale2b_branch2a -> res2b_branch2a (in-place)
I0629 02:12:53.896411  1380 layer_factory.hpp:77] Creating layer scale2b_branch2a
I0629 02:12:53.896546  1380 net.cpp:122] Setting up scale2b_branch2a
I0629 02:12:53.896562  1380 net.cpp:129] Top shape: 8 64 56 56 (1605632)
I0629 02:12:53.896566  1380 net.cpp:137] Memory required for data: 454394016
I0629 02:12:53.896574  1380 layer_factory.hpp:77] Creating layer res2b_branch2a_relu
I0629 02:12:53.896580  1380 net.cpp:84] Creating Layer res2b_branch2a_relu
I0629 02:12:53.896584  1380 net.cpp:406] res2b_branch2a_relu <- res2b_branch2a
I0629 02:12:53.896592  1380 net.cpp:367] res2b_branch2a_relu -> res2b_branch2a (in-place)
I0629 02:12:53.896845  1380 net.cpp:122] Setting up res2b_branch2a_relu
I0629 02:12:53.896867  1380 net.cpp:129] Top shape: 8 64 56 56 (1605632)
I0629 02:12:53.896870  1380 net.cpp:137] Memory required for data: 460816544
I0629 02:12:53.896875  1380 layer_factory.hpp:77] Creating layer res2b_branch2b
I0629 02:12:53.896884  1380 net.cpp:84] Creating Layer res2b_branch2b
I0629 02:12:53.896889  1380 net.cpp:406] res2b_branch2b <- res2b_branch2a
I0629 02:12:53.896898  1380 net.cpp:380] res2b_branch2b -> res2b_branch2b
I0629 02:12:53.897681  1380 net.cpp:122] Setting up res2b_branch2b
I0629 02:12:53.897701  1380 net.cpp:129] Top shape: 8 64 56 56 (1605632)
I0629 02:12:53.897706  1380 net.cpp:137] Memory required for data: 467239072
I0629 02:12:53.897712  1380 layer_factory.hpp:77] Creating layer bn2b_branch2b
I0629 02:12:53.897722  1380 net.cpp:84] Creating Layer bn2b_branch2b
I0629 02:12:53.897727  1380 net.cpp:406] bn2b_branch2b <- res2b_branch2b
I0629 02:12:53.897735  1380 net.cpp:367] bn2b_branch2b -> res2b_branch2b (in-place)
I0629 02:12:53.897933  1380 net.cpp:122] Setting up bn2b_branch2b
I0629 02:12:53.897948  1380 net.cpp:129] Top shape: 8 64 56 56 (1605632)
I0629 02:12:53.897953  1380 net.cpp:137] Memory required for data: 473661600
I0629 02:12:53.897964  1380 layer_factory.hpp:77] Creating layer scale2b_branch2b
I0629 02:12:53.897970  1380 net.cpp:84] Creating Layer scale2b_branch2b
I0629 02:12:53.897974  1380 net.cpp:406] scale2b_branch2b <- res2b_branch2b
I0629 02:12:53.897980  1380 net.cpp:367] scale2b_branch2b -> res2b_branch2b (in-place)
I0629 02:12:53.898025  1380 layer_factory.hpp:77] Creating layer scale2b_branch2b
I0629 02:12:53.898159  1380 net.cpp:122] Setting up scale2b_branch2b
I0629 02:12:53.898175  1380 net.cpp:129] Top shape: 8 64 56 56 (1605632)
I0629 02:12:53.898178  1380 net.cpp:137] Memory required for data: 480084128
I0629 02:12:53.898185  1380 layer_factory.hpp:77] Creating layer res2b_branch2b_relu
I0629 02:12:53.898197  1380 net.cpp:84] Creating Layer res2b_branch2b_relu
I0629 02:12:53.898201  1380 net.cpp:406] res2b_branch2b_relu <- res2b_branch2b
I0629 02:12:53.898207  1380 net.cpp:367] res2b_branch2b_relu -> res2b_branch2b (in-place)
I0629 02:12:53.898464  1380 net.cpp:122] Setting up res2b_branch2b_relu
I0629 02:12:53.898483  1380 net.cpp:129] Top shape: 8 64 56 56 (1605632)
I0629 02:12:53.898486  1380 net.cpp:137] Memory required for data: 486506656
I0629 02:12:53.898490  1380 layer_factory.hpp:77] Creating layer res2b_branch2c
I0629 02:12:53.898504  1380 net.cpp:84] Creating Layer res2b_branch2c
I0629 02:12:53.898509  1380 net.cpp:406] res2b_branch2c <- res2b_branch2b
I0629 02:12:53.898538  1380 net.cpp:380] res2b_branch2c -> res2b_branch2c
I0629 02:12:53.899564  1380 net.cpp:122] Setting up res2b_branch2c
I0629 02:12:53.899585  1380 net.cpp:129] Top shape: 8 256 56 56 (6422528)
I0629 02:12:53.899590  1380 net.cpp:137] Memory required for data: 512196768
I0629 02:12:53.899596  1380 layer_factory.hpp:77] Creating layer bn2b_branch2c
I0629 02:12:53.899607  1380 net.cpp:84] Creating Layer bn2b_branch2c
I0629 02:12:53.899612  1380 net.cpp:406] bn2b_branch2c <- res2b_branch2c
I0629 02:12:53.899618  1380 net.cpp:367] bn2b_branch2c -> res2b_branch2c (in-place)
I0629 02:12:53.899833  1380 net.cpp:122] Setting up bn2b_branch2c
I0629 02:12:53.899849  1380 net.cpp:129] Top shape: 8 256 56 56 (6422528)
I0629 02:12:53.899853  1380 net.cpp:137] Memory required for data: 537886880
I0629 02:12:53.899863  1380 layer_factory.hpp:77] Creating layer scale2b_branch2c
I0629 02:12:53.899870  1380 net.cpp:84] Creating Layer scale2b_branch2c
I0629 02:12:53.899875  1380 net.cpp:406] scale2b_branch2c <- res2b_branch2c
I0629 02:12:53.899880  1380 net.cpp:367] scale2b_branch2c -> res2b_branch2c (in-place)
I0629 02:12:53.899927  1380 layer_factory.hpp:77] Creating layer scale2b_branch2c
I0629 02:12:53.900056  1380 net.cpp:122] Setting up scale2b_branch2c
I0629 02:12:53.900071  1380 net.cpp:129] Top shape: 8 256 56 56 (6422528)
I0629 02:12:53.900075  1380 net.cpp:137] Memory required for data: 563576992
I0629 02:12:53.900084  1380 layer_factory.hpp:77] Creating layer res2b
I0629 02:12:53.900092  1380 net.cpp:84] Creating Layer res2b
I0629 02:12:53.900096  1380 net.cpp:406] res2b <- res2a_res2a_relu_0_split_1
I0629 02:12:53.900101  1380 net.cpp:406] res2b <- res2b_branch2c
I0629 02:12:53.900107  1380 net.cpp:380] res2b -> res2b
I0629 02:12:53.900137  1380 net.cpp:122] Setting up res2b
I0629 02:12:53.900151  1380 net.cpp:129] Top shape: 8 256 56 56 (6422528)
I0629 02:12:53.900154  1380 net.cpp:137] Memory required for data: 589267104
I0629 02:12:53.900158  1380 layer_factory.hpp:77] Creating layer res2b_relu
I0629 02:12:53.900166  1380 net.cpp:84] Creating Layer res2b_relu
I0629 02:12:53.900169  1380 net.cpp:406] res2b_relu <- res2b
I0629 02:12:53.900177  1380 net.cpp:367] res2b_relu -> res2b (in-place)
I0629 02:12:53.900419  1380 net.cpp:122] Setting up res2b_relu
I0629 02:12:53.900439  1380 net.cpp:129] Top shape: 8 256 56 56 (6422528)
I0629 02:12:53.900442  1380 net.cpp:137] Memory required for data: 614957216
I0629 02:12:53.900447  1380 layer_factory.hpp:77] Creating layer res2b_res2b_relu_0_split
I0629 02:12:53.900455  1380 net.cpp:84] Creating Layer res2b_res2b_relu_0_split
I0629 02:12:53.900460  1380 net.cpp:406] res2b_res2b_relu_0_split <- res2b
I0629 02:12:53.900466  1380 net.cpp:380] res2b_res2b_relu_0_split -> res2b_res2b_relu_0_split_0
I0629 02:12:53.900473  1380 net.cpp:380] res2b_res2b_relu_0_split -> res2b_res2b_relu_0_split_1
I0629 02:12:53.900518  1380 net.cpp:122] Setting up res2b_res2b_relu_0_split
I0629 02:12:53.900532  1380 net.cpp:129] Top shape: 8 256 56 56 (6422528)
I0629 02:12:53.900537  1380 net.cpp:129] Top shape: 8 256 56 56 (6422528)
I0629 02:12:53.900542  1380 net.cpp:137] Memory required for data: 666337440
I0629 02:12:53.900545  1380 layer_factory.hpp:77] Creating layer res2c_branch2a
I0629 02:12:53.900557  1380 net.cpp:84] Creating Layer res2c_branch2a
I0629 02:12:53.900562  1380 net.cpp:406] res2c_branch2a <- res2b_res2b_relu_0_split_0
I0629 02:12:53.900576  1380 net.cpp:380] res2c_branch2a -> res2c_branch2a
I0629 02:12:53.901468  1380 net.cpp:122] Setting up res2c_branch2a
I0629 02:12:53.901489  1380 net.cpp:129] Top shape: 8 64 56 56 (1605632)
I0629 02:12:53.901494  1380 net.cpp:137] Memory required for data: 672759968
I0629 02:12:53.901499  1380 layer_factory.hpp:77] Creating layer bn2c_branch2a
I0629 02:12:53.901510  1380 net.cpp:84] Creating Layer bn2c_branch2a
I0629 02:12:53.901515  1380 net.cpp:406] bn2c_branch2a <- res2c_branch2a
I0629 02:12:53.901520  1380 net.cpp:367] bn2c_branch2a -> res2c_branch2a (in-place)
I0629 02:12:53.901734  1380 net.cpp:122] Setting up bn2c_branch2a
I0629 02:12:53.901763  1380 net.cpp:129] Top shape: 8 64 56 56 (1605632)
I0629 02:12:53.901767  1380 net.cpp:137] Memory required for data: 679182496
I0629 02:12:53.901777  1380 layer_factory.hpp:77] Creating layer scale2c_branch2a
I0629 02:12:53.901784  1380 net.cpp:84] Creating Layer scale2c_branch2a
I0629 02:12:53.901788  1380 net.cpp:406] scale2c_branch2a <- res2c_branch2a
I0629 02:12:53.901794  1380 net.cpp:367] scale2c_branch2a -> res2c_branch2a (in-place)
I0629 02:12:53.901846  1380 layer_factory.hpp:77] Creating layer scale2c_branch2a
I0629 02:12:53.901983  1380 net.cpp:122] Setting up scale2c_branch2a
I0629 02:12:53.901998  1380 net.cpp:129] Top shape: 8 64 56 56 (1605632)
I0629 02:12:53.902003  1380 net.cpp:137] Memory required for data: 685605024
I0629 02:12:53.902009  1380 layer_factory.hpp:77] Creating layer res2c_branch2a_relu
I0629 02:12:53.902019  1380 net.cpp:84] Creating Layer res2c_branch2a_relu
I0629 02:12:53.902022  1380 net.cpp:406] res2c_branch2a_relu <- res2c_branch2a
I0629 02:12:53.902027  1380 net.cpp:367] res2c_branch2a_relu -> res2c_branch2a (in-place)
I0629 02:12:53.902283  1380 net.cpp:122] Setting up res2c_branch2a_relu
I0629 02:12:53.902302  1380 net.cpp:129] Top shape: 8 64 56 56 (1605632)
I0629 02:12:53.902307  1380 net.cpp:137] Memory required for data: 692027552
I0629 02:12:53.902310  1380 layer_factory.hpp:77] Creating layer res2c_branch2b
I0629 02:12:53.902326  1380 net.cpp:84] Creating Layer res2c_branch2b
I0629 02:12:53.902331  1380 net.cpp:406] res2c_branch2b <- res2c_branch2a
I0629 02:12:53.902338  1380 net.cpp:380] res2c_branch2b -> res2c_branch2b
I0629 02:12:53.903148  1380 net.cpp:122] Setting up res2c_branch2b
I0629 02:12:53.903168  1380 net.cpp:129] Top shape: 8 64 56 56 (1605632)
I0629 02:12:53.903173  1380 net.cpp:137] Memory required for data: 698450080
I0629 02:12:53.903179  1380 layer_factory.hpp:77] Creating layer bn2c_branch2b
I0629 02:12:53.903187  1380 net.cpp:84] Creating Layer bn2c_branch2b
I0629 02:12:53.903192  1380 net.cpp:406] bn2c_branch2b <- res2c_branch2b
I0629 02:12:53.903199  1380 net.cpp:367] bn2c_branch2b -> res2c_branch2b (in-place)
I0629 02:12:53.903417  1380 net.cpp:122] Setting up bn2c_branch2b
I0629 02:12:53.903434  1380 net.cpp:129] Top shape: 8 64 56 56 (1605632)
I0629 02:12:53.903439  1380 net.cpp:137] Memory required for data: 704872608
I0629 02:12:53.903446  1380 layer_factory.hpp:77] Creating layer scale2c_branch2b
I0629 02:12:53.903455  1380 net.cpp:84] Creating Layer scale2c_branch2b
I0629 02:12:53.903458  1380 net.cpp:406] scale2c_branch2b <- res2c_branch2b
I0629 02:12:53.903466  1380 net.cpp:367] scale2c_branch2b -> res2c_branch2b (in-place)
I0629 02:12:53.903512  1380 layer_factory.hpp:77] Creating layer scale2c_branch2b
I0629 02:12:53.903651  1380 net.cpp:122] Setting up scale2c_branch2b
I0629 02:12:53.903666  1380 net.cpp:129] Top shape: 8 64 56 56 (1605632)
I0629 02:12:53.903671  1380 net.cpp:137] Memory required for data: 711295136
I0629 02:12:53.903677  1380 layer_factory.hpp:77] Creating layer res2c_branch2b_relu
I0629 02:12:53.903684  1380 net.cpp:84] Creating Layer res2c_branch2b_relu
I0629 02:12:53.903688  1380 net.cpp:406] res2c_branch2b_relu <- res2c_branch2b
I0629 02:12:53.903697  1380 net.cpp:367] res2c_branch2b_relu -> res2c_branch2b (in-place)
I0629 02:12:53.903964  1380 net.cpp:122] Setting up res2c_branch2b_relu
I0629 02:12:53.903983  1380 net.cpp:129] Top shape: 8 64 56 56 (1605632)
I0629 02:12:53.903988  1380 net.cpp:137] Memory required for data: 717717664
I0629 02:12:53.903992  1380 layer_factory.hpp:77] Creating layer res2c_branch2c
I0629 02:12:53.904002  1380 net.cpp:84] Creating Layer res2c_branch2c
I0629 02:12:53.904006  1380 net.cpp:406] res2c_branch2c <- res2c_branch2b
I0629 02:12:53.904016  1380 net.cpp:380] res2c_branch2c -> res2c_branch2c
I0629 02:12:53.905012  1380 net.cpp:122] Setting up res2c_branch2c
I0629 02:12:53.905032  1380 net.cpp:129] Top shape: 8 256 56 56 (6422528)
I0629 02:12:53.905036  1380 net.cpp:137] Memory required for data: 743407776
I0629 02:12:53.905056  1380 layer_factory.hpp:77] Creating layer bn2c_branch2c
I0629 02:12:53.905067  1380 net.cpp:84] Creating Layer bn2c_branch2c
I0629 02:12:53.905072  1380 net.cpp:406] bn2c_branch2c <- res2c_branch2c
I0629 02:12:53.905081  1380 net.cpp:367] bn2c_branch2c -> res2c_branch2c (in-place)
I0629 02:12:53.905290  1380 net.cpp:122] Setting up bn2c_branch2c
I0629 02:12:53.905306  1380 net.cpp:129] Top shape: 8 256 56 56 (6422528)
I0629 02:12:53.905311  1380 net.cpp:137] Memory required for data: 769097888
I0629 02:12:53.905329  1380 layer_factory.hpp:77] Creating layer scale2c_branch2c
I0629 02:12:53.905338  1380 net.cpp:84] Creating Layer scale2c_branch2c
I0629 02:12:53.905344  1380 net.cpp:406] scale2c_branch2c <- res2c_branch2c
I0629 02:12:53.905352  1380 net.cpp:367] scale2c_branch2c -> res2c_branch2c (in-place)
I0629 02:12:53.905403  1380 layer_factory.hpp:77] Creating layer scale2c_branch2c
I0629 02:12:53.905539  1380 net.cpp:122] Setting up scale2c_branch2c
I0629 02:12:53.905555  1380 net.cpp:129] Top shape: 8 256 56 56 (6422528)
I0629 02:12:53.905560  1380 net.cpp:137] Memory required for data: 794788000
I0629 02:12:53.905566  1380 layer_factory.hpp:77] Creating layer res2c
I0629 02:12:53.905575  1380 net.cpp:84] Creating Layer res2c
I0629 02:12:53.905580  1380 net.cpp:406] res2c <- res2b_res2b_relu_0_split_1
I0629 02:12:53.905585  1380 net.cpp:406] res2c <- res2c_branch2c
I0629 02:12:53.905591  1380 net.cpp:380] res2c -> res2c
I0629 02:12:53.905622  1380 net.cpp:122] Setting up res2c
I0629 02:12:53.905635  1380 net.cpp:129] Top shape: 8 256 56 56 (6422528)
I0629 02:12:53.905638  1380 net.cpp:137] Memory required for data: 820478112
I0629 02:12:53.905642  1380 layer_factory.hpp:77] Creating layer res2c_relu
I0629 02:12:53.905649  1380 net.cpp:84] Creating Layer res2c_relu
I0629 02:12:53.905653  1380 net.cpp:406] res2c_relu <- res2c
I0629 02:12:53.905658  1380 net.cpp:367] res2c_relu -> res2c (in-place)
I0629 02:12:53.905820  1380 net.cpp:122] Setting up res2c_relu
I0629 02:12:53.905839  1380 net.cpp:129] Top shape: 8 256 56 56 (6422528)
I0629 02:12:53.905843  1380 net.cpp:137] Memory required for data: 846168224
I0629 02:12:53.905848  1380 layer_factory.hpp:77] Creating layer res2c_res2c_relu_0_split
I0629 02:12:53.905856  1380 net.cpp:84] Creating Layer res2c_res2c_relu_0_split
I0629 02:12:53.905860  1380 net.cpp:406] res2c_res2c_relu_0_split <- res2c
I0629 02:12:53.905866  1380 net.cpp:380] res2c_res2c_relu_0_split -> res2c_res2c_relu_0_split_0
I0629 02:12:53.905874  1380 net.cpp:380] res2c_res2c_relu_0_split -> res2c_res2c_relu_0_split_1
I0629 02:12:53.905923  1380 net.cpp:122] Setting up res2c_res2c_relu_0_split
I0629 02:12:53.905938  1380 net.cpp:129] Top shape: 8 256 56 56 (6422528)
I0629 02:12:53.905943  1380 net.cpp:129] Top shape: 8 256 56 56 (6422528)
I0629 02:12:53.905946  1380 net.cpp:137] Memory required for data: 897548448
I0629 02:12:53.905951  1380 layer_factory.hpp:77] Creating layer res3a_branch1
I0629 02:12:53.905962  1380 net.cpp:84] Creating Layer res3a_branch1
I0629 02:12:53.905966  1380 net.cpp:406] res3a_branch1 <- res2c_res2c_relu_0_split_0
I0629 02:12:53.905972  1380 net.cpp:380] res3a_branch1 -> res3a_branch1
I0629 02:12:53.907562  1380 net.cpp:122] Setting up res3a_branch1
I0629 02:12:53.907583  1380 net.cpp:129] Top shape: 8 512 28 28 (3211264)
I0629 02:12:53.907588  1380 net.cpp:137] Memory required for data: 910393504
I0629 02:12:53.907594  1380 layer_factory.hpp:77] Creating layer bn3a_branch1
I0629 02:12:53.907605  1380 net.cpp:84] Creating Layer bn3a_branch1
I0629 02:12:53.907610  1380 net.cpp:406] bn3a_branch1 <- res3a_branch1
I0629 02:12:53.907616  1380 net.cpp:367] bn3a_branch1 -> res3a_branch1 (in-place)
I0629 02:12:53.908381  1380 net.cpp:122] Setting up bn3a_branch1
I0629 02:12:53.908401  1380 net.cpp:129] Top shape: 8 512 28 28 (3211264)
I0629 02:12:53.908406  1380 net.cpp:137] Memory required for data: 923238560
I0629 02:12:53.908414  1380 layer_factory.hpp:77] Creating layer scale3a_branch1
I0629 02:12:53.908422  1380 net.cpp:84] Creating Layer scale3a_branch1
I0629 02:12:53.908440  1380 net.cpp:406] scale3a_branch1 <- res3a_branch1
I0629 02:12:53.908449  1380 net.cpp:367] scale3a_branch1 -> res3a_branch1 (in-place)
I0629 02:12:53.908500  1380 layer_factory.hpp:77] Creating layer scale3a_branch1
I0629 02:12:53.908632  1380 net.cpp:122] Setting up scale3a_branch1
I0629 02:12:53.908648  1380 net.cpp:129] Top shape: 8 512 28 28 (3211264)
I0629 02:12:53.908650  1380 net.cpp:137] Memory required for data: 936083616
I0629 02:12:53.908658  1380 layer_factory.hpp:77] Creating layer res3a_branch2a
I0629 02:12:53.908669  1380 net.cpp:84] Creating Layer res3a_branch2a
I0629 02:12:53.908674  1380 net.cpp:406] res3a_branch2a <- res2c_res2c_relu_0_split_1
I0629 02:12:53.908682  1380 net.cpp:380] res3a_branch2a -> res3a_branch2a
I0629 02:12:53.909596  1380 net.cpp:122] Setting up res3a_branch2a
I0629 02:12:53.909617  1380 net.cpp:129] Top shape: 8 128 28 28 (802816)
I0629 02:12:53.909621  1380 net.cpp:137] Memory required for data: 939294880
I0629 02:12:53.909628  1380 layer_factory.hpp:77] Creating layer bn3a_branch2a
I0629 02:12:53.909638  1380 net.cpp:84] Creating Layer bn3a_branch2a
I0629 02:12:53.909643  1380 net.cpp:406] bn3a_branch2a <- res3a_branch2a
I0629 02:12:53.909648  1380 net.cpp:367] bn3a_branch2a -> res3a_branch2a (in-place)
I0629 02:12:53.909855  1380 net.cpp:122] Setting up bn3a_branch2a
I0629 02:12:53.909873  1380 net.cpp:129] Top shape: 8 128 28 28 (802816)
I0629 02:12:53.909876  1380 net.cpp:137] Memory required for data: 942506144
I0629 02:12:53.909888  1380 layer_factory.hpp:77] Creating layer scale3a_branch2a
I0629 02:12:53.909895  1380 net.cpp:84] Creating Layer scale3a_branch2a
I0629 02:12:53.909899  1380 net.cpp:406] scale3a_branch2a <- res3a_branch2a
I0629 02:12:53.909905  1380 net.cpp:367] scale3a_branch2a -> res3a_branch2a (in-place)
I0629 02:12:53.909953  1380 layer_factory.hpp:77] Creating layer scale3a_branch2a
I0629 02:12:53.910099  1380 net.cpp:122] Setting up scale3a_branch2a
I0629 02:12:53.910115  1380 net.cpp:129] Top shape: 8 128 28 28 (802816)
I0629 02:12:53.910118  1380 net.cpp:137] Memory required for data: 945717408
I0629 02:12:53.910125  1380 layer_factory.hpp:77] Creating layer res3a_branch2a_relu
I0629 02:12:53.910135  1380 net.cpp:84] Creating Layer res3a_branch2a_relu
I0629 02:12:53.910138  1380 net.cpp:406] res3a_branch2a_relu <- res3a_branch2a
I0629 02:12:53.910145  1380 net.cpp:367] res3a_branch2a_relu -> res3a_branch2a (in-place)
I0629 02:12:53.910300  1380 net.cpp:122] Setting up res3a_branch2a_relu
I0629 02:12:53.910316  1380 net.cpp:129] Top shape: 8 128 28 28 (802816)
I0629 02:12:53.910320  1380 net.cpp:137] Memory required for data: 948928672
I0629 02:12:53.910325  1380 layer_factory.hpp:77] Creating layer res3a_branch2b
I0629 02:12:53.910336  1380 net.cpp:84] Creating Layer res3a_branch2b
I0629 02:12:53.910341  1380 net.cpp:406] res3a_branch2b <- res3a_branch2a
I0629 02:12:53.910347  1380 net.cpp:380] res3a_branch2b -> res3a_branch2b
I0629 02:12:53.911844  1380 net.cpp:122] Setting up res3a_branch2b
I0629 02:12:53.911865  1380 net.cpp:129] Top shape: 8 128 28 28 (802816)
I0629 02:12:53.911870  1380 net.cpp:137] Memory required for data: 952139936
I0629 02:12:53.911877  1380 layer_factory.hpp:77] Creating layer bn3a_branch2b
I0629 02:12:53.911885  1380 net.cpp:84] Creating Layer bn3a_branch2b
I0629 02:12:53.911890  1380 net.cpp:406] bn3a_branch2b <- res3a_branch2b
I0629 02:12:53.911897  1380 net.cpp:367] bn3a_branch2b -> res3a_branch2b (in-place)
I0629 02:12:53.912107  1380 net.cpp:122] Setting up bn3a_branch2b
I0629 02:12:53.912123  1380 net.cpp:129] Top shape: 8 128 28 28 (802816)
I0629 02:12:53.912127  1380 net.cpp:137] Memory required for data: 955351200
I0629 02:12:53.912137  1380 layer_factory.hpp:77] Creating layer scale3a_branch2b
I0629 02:12:53.912147  1380 net.cpp:84] Creating Layer scale3a_branch2b
I0629 02:12:53.912158  1380 net.cpp:406] scale3a_branch2b <- res3a_branch2b
I0629 02:12:53.912163  1380 net.cpp:367] scale3a_branch2b -> res3a_branch2b (in-place)
I0629 02:12:53.912212  1380 layer_factory.hpp:77] Creating layer scale3a_branch2b
I0629 02:12:53.912361  1380 net.cpp:122] Setting up scale3a_branch2b
I0629 02:12:53.912386  1380 net.cpp:129] Top shape: 8 128 28 28 (802816)
I0629 02:12:53.912391  1380 net.cpp:137] Memory required for data: 958562464
I0629 02:12:53.912398  1380 layer_factory.hpp:77] Creating layer res3a_branch2b_relu
I0629 02:12:53.912405  1380 net.cpp:84] Creating Layer res3a_branch2b_relu
I0629 02:12:53.912410  1380 net.cpp:406] res3a_branch2b_relu <- res3a_branch2b
I0629 02:12:53.912418  1380 net.cpp:367] res3a_branch2b_relu -> res3a_branch2b (in-place)
I0629 02:12:53.912677  1380 net.cpp:122] Setting up res3a_branch2b_relu
I0629 02:12:53.912695  1380 net.cpp:129] Top shape: 8 128 28 28 (802816)
I0629 02:12:53.912699  1380 net.cpp:137] Memory required for data: 961773728
I0629 02:12:53.912703  1380 layer_factory.hpp:77] Creating layer res3a_branch2c
I0629 02:12:53.912722  1380 net.cpp:84] Creating Layer res3a_branch2c
I0629 02:12:53.912729  1380 net.cpp:406] res3a_branch2c <- res3a_branch2b
I0629 02:12:53.912736  1380 net.cpp:380] res3a_branch2c -> res3a_branch2c
I0629 02:12:53.913558  1380 net.cpp:122] Setting up res3a_branch2c
I0629 02:12:53.913579  1380 net.cpp:129] Top shape: 8 512 28 28 (3211264)
I0629 02:12:53.913583  1380 net.cpp:137] Memory required for data: 974618784
I0629 02:12:53.913590  1380 layer_factory.hpp:77] Creating layer bn3a_branch2c
I0629 02:12:53.913599  1380 net.cpp:84] Creating Layer bn3a_branch2c
I0629 02:12:53.913604  1380 net.cpp:406] bn3a_branch2c <- res3a_branch2c
I0629 02:12:53.913611  1380 net.cpp:367] bn3a_branch2c -> res3a_branch2c (in-place)
I0629 02:12:53.913820  1380 net.cpp:122] Setting up bn3a_branch2c
I0629 02:12:53.913837  1380 net.cpp:129] Top shape: 8 512 28 28 (3211264)
I0629 02:12:53.913841  1380 net.cpp:137] Memory required for data: 987463840
I0629 02:12:53.913849  1380 layer_factory.hpp:77] Creating layer scale3a_branch2c
I0629 02:12:53.913857  1380 net.cpp:84] Creating Layer scale3a_branch2c
I0629 02:12:53.913861  1380 net.cpp:406] scale3a_branch2c <- res3a_branch2c
I0629 02:12:53.913869  1380 net.cpp:367] scale3a_branch2c -> res3a_branch2c (in-place)
I0629 02:12:53.913916  1380 layer_factory.hpp:77] Creating layer scale3a_branch2c
I0629 02:12:53.914046  1380 net.cpp:122] Setting up scale3a_branch2c
I0629 02:12:53.914063  1380 net.cpp:129] Top shape: 8 512 28 28 (3211264)
I0629 02:12:53.914067  1380 net.cpp:137] Memory required for data: 1000308896
I0629 02:12:53.914074  1380 layer_factory.hpp:77] Creating layer res3a
I0629 02:12:53.914082  1380 net.cpp:84] Creating Layer res3a
I0629 02:12:53.914085  1380 net.cpp:406] res3a <- res3a_branch1
I0629 02:12:53.914090  1380 net.cpp:406] res3a <- res3a_branch2c
I0629 02:12:53.914095  1380 net.cpp:380] res3a -> res3a
I0629 02:12:53.914127  1380 net.cpp:122] Setting up res3a
I0629 02:12:53.914141  1380 net.cpp:129] Top shape: 8 512 28 28 (3211264)
I0629 02:12:53.914145  1380 net.cpp:137] Memory required for data: 1013153952
I0629 02:12:53.914149  1380 layer_factory.hpp:77] Creating layer res3a_relu
I0629 02:12:53.914156  1380 net.cpp:84] Creating Layer res3a_relu
I0629 02:12:53.914162  1380 net.cpp:406] res3a_relu <- res3a
I0629 02:12:53.914168  1380 net.cpp:367] res3a_relu -> res3a (in-place)
I0629 02:12:53.914440  1380 net.cpp:122] Setting up res3a_relu
I0629 02:12:53.914458  1380 net.cpp:129] Top shape: 8 512 28 28 (3211264)
I0629 02:12:53.914463  1380 net.cpp:137] Memory required for data: 1025999008
I0629 02:12:53.914468  1380 layer_factory.hpp:77] Creating layer res3a_res3a_relu_0_split
I0629 02:12:53.914477  1380 net.cpp:84] Creating Layer res3a_res3a_relu_0_split
I0629 02:12:53.914481  1380 net.cpp:406] res3a_res3a_relu_0_split <- res3a
I0629 02:12:53.914487  1380 net.cpp:380] res3a_res3a_relu_0_split -> res3a_res3a_relu_0_split_0
I0629 02:12:53.914496  1380 net.cpp:380] res3a_res3a_relu_0_split -> res3a_res3a_relu_0_split_1
I0629 02:12:53.914543  1380 net.cpp:122] Setting up res3a_res3a_relu_0_split
I0629 02:12:53.914557  1380 net.cpp:129] Top shape: 8 512 28 28 (3211264)
I0629 02:12:53.914562  1380 net.cpp:129] Top shape: 8 512 28 28 (3211264)
I0629 02:12:53.914580  1380 net.cpp:137] Memory required for data: 1051689120
I0629 02:12:53.914585  1380 layer_factory.hpp:77] Creating layer res3b_branch2a
I0629 02:12:53.914597  1380 net.cpp:84] Creating Layer res3b_branch2a
I0629 02:12:53.914602  1380 net.cpp:406] res3b_branch2a <- res3a_res3a_relu_0_split_0
I0629 02:12:53.914610  1380 net.cpp:380] res3b_branch2a -> res3b_branch2a
I0629 02:12:53.916568  1380 net.cpp:122] Setting up res3b_branch2a
I0629 02:12:53.916587  1380 net.cpp:129] Top shape: 8 128 28 28 (802816)
I0629 02:12:53.916592  1380 net.cpp:137] Memory required for data: 1054900384
I0629 02:12:53.916599  1380 layer_factory.hpp:77] Creating layer bn3b_branch2a
I0629 02:12:53.916609  1380 net.cpp:84] Creating Layer bn3b_branch2a
I0629 02:12:53.916613  1380 net.cpp:406] bn3b_branch2a <- res3b_branch2a
I0629 02:12:53.916620  1380 net.cpp:367] bn3b_branch2a -> res3b_branch2a (in-place)
I0629 02:12:53.916836  1380 net.cpp:122] Setting up bn3b_branch2a
I0629 02:12:53.916851  1380 net.cpp:129] Top shape: 8 128 28 28 (802816)
I0629 02:12:53.916857  1380 net.cpp:137] Memory required for data: 1058111648
I0629 02:12:53.916864  1380 layer_factory.hpp:77] Creating layer scale3b_branch2a
I0629 02:12:53.916872  1380 net.cpp:84] Creating Layer scale3b_branch2a
I0629 02:12:53.916877  1380 net.cpp:406] scale3b_branch2a <- res3b_branch2a
I0629 02:12:53.916884  1380 net.cpp:367] scale3b_branch2a -> res3b_branch2a (in-place)
I0629 02:12:53.916932  1380 layer_factory.hpp:77] Creating layer scale3b_branch2a
I0629 02:12:53.917065  1380 net.cpp:122] Setting up scale3b_branch2a
I0629 02:12:53.917081  1380 net.cpp:129] Top shape: 8 128 28 28 (802816)
I0629 02:12:53.917085  1380 net.cpp:137] Memory required for data: 1061322912
I0629 02:12:53.917093  1380 layer_factory.hpp:77] Creating layer res3b_branch2a_relu
I0629 02:12:53.917104  1380 net.cpp:84] Creating Layer res3b_branch2a_relu
I0629 02:12:53.917109  1380 net.cpp:406] res3b_branch2a_relu <- res3b_branch2a
I0629 02:12:53.917114  1380 net.cpp:367] res3b_branch2a_relu -> res3b_branch2a (in-place)
I0629 02:12:53.917269  1380 net.cpp:122] Setting up res3b_branch2a_relu
I0629 02:12:53.917287  1380 net.cpp:129] Top shape: 8 128 28 28 (802816)
I0629 02:12:53.917294  1380 net.cpp:137] Memory required for data: 1064534176
I0629 02:12:53.917297  1380 layer_factory.hpp:77] Creating layer res3b_branch2b
I0629 02:12:53.917307  1380 net.cpp:84] Creating Layer res3b_branch2b
I0629 02:12:53.917311  1380 net.cpp:406] res3b_branch2b <- res3b_branch2a
I0629 02:12:53.917320  1380 net.cpp:380] res3b_branch2b -> res3b_branch2b
I0629 02:12:53.918918  1380 net.cpp:122] Setting up res3b_branch2b
I0629 02:12:53.918939  1380 net.cpp:129] Top shape: 8 128 28 28 (802816)
I0629 02:12:53.918943  1380 net.cpp:137] Memory required for data: 1067745440
I0629 02:12:53.918951  1380 layer_factory.hpp:77] Creating layer bn3b_branch2b
I0629 02:12:53.918962  1380 net.cpp:84] Creating Layer bn3b_branch2b
I0629 02:12:53.918968  1380 net.cpp:406] bn3b_branch2b <- res3b_branch2b
I0629 02:12:53.918974  1380 net.cpp:367] bn3b_branch2b -> res3b_branch2b (in-place)
I0629 02:12:53.919221  1380 net.cpp:122] Setting up bn3b_branch2b
I0629 02:12:53.919245  1380 net.cpp:129] Top shape: 8 128 28 28 (802816)
I0629 02:12:53.919253  1380 net.cpp:137] Memory required for data: 1070956704
I0629 02:12:53.919270  1380 layer_factory.hpp:77] Creating layer scale3b_branch2b
I0629 02:12:53.919286  1380 net.cpp:84] Creating Layer scale3b_branch2b
I0629 02:12:53.919291  1380 net.cpp:406] scale3b_branch2b <- res3b_branch2b
I0629 02:12:53.919301  1380 net.cpp:367] scale3b_branch2b -> res3b_branch2b (in-place)
I0629 02:12:53.919356  1380 layer_factory.hpp:77] Creating layer scale3b_branch2b
I0629 02:12:53.919502  1380 net.cpp:122] Setting up scale3b_branch2b
I0629 02:12:53.919518  1380 net.cpp:129] Top shape: 8 128 28 28 (802816)
I0629 02:12:53.919523  1380 net.cpp:137] Memory required for data: 1074167968
I0629 02:12:53.919529  1380 layer_factory.hpp:77] Creating layer res3b_branch2b_relu
I0629 02:12:53.919536  1380 net.cpp:84] Creating Layer res3b_branch2b_relu
I0629 02:12:53.919569  1380 net.cpp:406] res3b_branch2b_relu <- res3b_branch2b
I0629 02:12:53.919579  1380 net.cpp:367] res3b_branch2b_relu -> res3b_branch2b (in-place)
I0629 02:12:53.919849  1380 net.cpp:122] Setting up res3b_branch2b_relu
I0629 02:12:53.919867  1380 net.cpp:129] Top shape: 8 128 28 28 (802816)
I0629 02:12:53.919872  1380 net.cpp:137] Memory required for data: 1077379232
I0629 02:12:53.919876  1380 layer_factory.hpp:77] Creating layer res3b_branch2c
I0629 02:12:53.919888  1380 net.cpp:84] Creating Layer res3b_branch2c
I0629 02:12:53.919893  1380 net.cpp:406] res3b_branch2c <- res3b_branch2b
I0629 02:12:53.919899  1380 net.cpp:380] res3b_branch2c -> res3b_branch2c
I0629 02:12:53.920796  1380 net.cpp:122] Setting up res3b_branch2c
I0629 02:12:53.920816  1380 net.cpp:129] Top shape: 8 512 28 28 (3211264)
I0629 02:12:53.920820  1380 net.cpp:137] Memory required for data: 1090224288
I0629 02:12:53.920827  1380 layer_factory.hpp:77] Creating layer bn3b_branch2c
I0629 02:12:53.920837  1380 net.cpp:84] Creating Layer bn3b_branch2c
I0629 02:12:53.920842  1380 net.cpp:406] bn3b_branch2c <- res3b_branch2c
I0629 02:12:53.920850  1380 net.cpp:367] bn3b_branch2c -> res3b_branch2c (in-place)
I0629 02:12:53.921072  1380 net.cpp:122] Setting up bn3b_branch2c
I0629 02:12:53.921087  1380 net.cpp:129] Top shape: 8 512 28 28 (3211264)
I0629 02:12:53.921092  1380 net.cpp:137] Memory required for data: 1103069344
I0629 02:12:53.921106  1380 layer_factory.hpp:77] Creating layer scale3b_branch2c
I0629 02:12:53.921116  1380 net.cpp:84] Creating Layer scale3b_branch2c
I0629 02:12:53.921120  1380 net.cpp:406] scale3b_branch2c <- res3b_branch2c
I0629 02:12:53.921126  1380 net.cpp:367] scale3b_branch2c -> res3b_branch2c (in-place)
I0629 02:12:53.921177  1380 layer_factory.hpp:77] Creating layer scale3b_branch2c
I0629 02:12:53.921316  1380 net.cpp:122] Setting up scale3b_branch2c
I0629 02:12:53.921331  1380 net.cpp:129] Top shape: 8 512 28 28 (3211264)
I0629 02:12:53.921335  1380 net.cpp:137] Memory required for data: 1115914400
I0629 02:12:53.921342  1380 layer_factory.hpp:77] Creating layer res3b
I0629 02:12:53.921350  1380 net.cpp:84] Creating Layer res3b
I0629 02:12:53.921353  1380 net.cpp:406] res3b <- res3a_res3a_relu_0_split_1
I0629 02:12:53.921358  1380 net.cpp:406] res3b <- res3b_branch2c
I0629 02:12:53.921365  1380 net.cpp:380] res3b -> res3b
I0629 02:12:53.921397  1380 net.cpp:122] Setting up res3b
I0629 02:12:53.921411  1380 net.cpp:129] Top shape: 8 512 28 28 (3211264)
I0629 02:12:53.921416  1380 net.cpp:137] Memory required for data: 1128759456
I0629 02:12:53.921419  1380 layer_factory.hpp:77] Creating layer res3b_relu
I0629 02:12:53.921428  1380 net.cpp:84] Creating Layer res3b_relu
I0629 02:12:53.921432  1380 net.cpp:406] res3b_relu <- res3b
I0629 02:12:53.921437  1380 net.cpp:367] res3b_relu -> res3b (in-place)
I0629 02:12:53.921694  1380 net.cpp:122] Setting up res3b_relu
I0629 02:12:53.921713  1380 net.cpp:129] Top shape: 8 512 28 28 (3211264)
I0629 02:12:53.921717  1380 net.cpp:137] Memory required for data: 1141604512
I0629 02:12:53.921721  1380 layer_factory.hpp:77] Creating layer res3b_res3b_relu_0_split
I0629 02:12:53.921730  1380 net.cpp:84] Creating Layer res3b_res3b_relu_0_split
I0629 02:12:53.921736  1380 net.cpp:406] res3b_res3b_relu_0_split <- res3b
I0629 02:12:53.921743  1380 net.cpp:380] res3b_res3b_relu_0_split -> res3b_res3b_relu_0_split_0
I0629 02:12:53.921751  1380 net.cpp:380] res3b_res3b_relu_0_split -> res3b_res3b_relu_0_split_1
I0629 02:12:53.921805  1380 net.cpp:122] Setting up res3b_res3b_relu_0_split
I0629 02:12:53.921820  1380 net.cpp:129] Top shape: 8 512 28 28 (3211264)
I0629 02:12:53.921825  1380 net.cpp:129] Top shape: 8 512 28 28 (3211264)
I0629 02:12:53.921828  1380 net.cpp:137] Memory required for data: 1167294624
I0629 02:12:53.921833  1380 layer_factory.hpp:77] Creating layer res3c_branch2a
I0629 02:12:53.921844  1380 net.cpp:84] Creating Layer res3c_branch2a
I0629 02:12:53.921849  1380 net.cpp:406] res3c_branch2a <- res3b_res3b_relu_0_split_0
I0629 02:12:53.921877  1380 net.cpp:380] res3c_branch2a -> res3c_branch2a
I0629 02:12:53.922861  1380 net.cpp:122] Setting up res3c_branch2a
I0629 02:12:53.922881  1380 net.cpp:129] Top shape: 8 128 28 28 (802816)
I0629 02:12:53.922886  1380 net.cpp:137] Memory required for data: 1170505888
I0629 02:12:53.922893  1380 layer_factory.hpp:77] Creating layer bn3c_branch2a
I0629 02:12:53.922904  1380 net.cpp:84] Creating Layer bn3c_branch2a
I0629 02:12:53.922909  1380 net.cpp:406] bn3c_branch2a <- res3c_branch2a
I0629 02:12:53.922914  1380 net.cpp:367] bn3c_branch2a -> res3c_branch2a (in-place)
I0629 02:12:53.923138  1380 net.cpp:122] Setting up bn3c_branch2a
I0629 02:12:53.923156  1380 net.cpp:129] Top shape: 8 128 28 28 (802816)
I0629 02:12:53.923159  1380 net.cpp:137] Memory required for data: 1173717152
I0629 02:12:53.923171  1380 layer_factory.hpp:77] Creating layer scale3c_branch2a
I0629 02:12:53.923177  1380 net.cpp:84] Creating Layer scale3c_branch2a
I0629 02:12:53.923184  1380 net.cpp:406] scale3c_branch2a <- res3c_branch2a
I0629 02:12:53.923190  1380 net.cpp:367] scale3c_branch2a -> res3c_branch2a (in-place)
I0629 02:12:53.923243  1380 layer_factory.hpp:77] Creating layer scale3c_branch2a
I0629 02:12:53.923384  1380 net.cpp:122] Setting up scale3c_branch2a
I0629 02:12:53.923400  1380 net.cpp:129] Top shape: 8 128 28 28 (802816)
I0629 02:12:53.923404  1380 net.cpp:137] Memory required for data: 1176928416
I0629 02:12:53.923413  1380 layer_factory.hpp:77] Creating layer res3c_branch2a_relu
I0629 02:12:53.923424  1380 net.cpp:84] Creating Layer res3c_branch2a_relu
I0629 02:12:53.923430  1380 net.cpp:406] res3c_branch2a_relu <- res3c_branch2a
I0629 02:12:53.923435  1380 net.cpp:367] res3c_branch2a_relu -> res3c_branch2a (in-place)
I0629 02:12:53.923589  1380 net.cpp:122] Setting up res3c_branch2a_relu
I0629 02:12:53.923609  1380 net.cpp:129] Top shape: 8 128 28 28 (802816)
I0629 02:12:53.923614  1380 net.cpp:137] Memory required for data: 1180139680
I0629 02:12:53.923617  1380 layer_factory.hpp:77] Creating layer res3c_branch2b
I0629 02:12:53.923629  1380 net.cpp:84] Creating Layer res3c_branch2b
I0629 02:12:53.923633  1380 net.cpp:406] res3c_branch2b <- res3c_branch2a
I0629 02:12:53.923640  1380 net.cpp:380] res3c_branch2b -> res3c_branch2b
I0629 02:12:53.925189  1380 net.cpp:122] Setting up res3c_branch2b
I0629 02:12:53.925212  1380 net.cpp:129] Top shape: 8 128 28 28 (802816)
I0629 02:12:53.925217  1380 net.cpp:137] Memory required for data: 1183350944
I0629 02:12:53.925223  1380 layer_factory.hpp:77] Creating layer bn3c_branch2b
I0629 02:12:53.925231  1380 net.cpp:84] Creating Layer bn3c_branch2b
I0629 02:12:53.925236  1380 net.cpp:406] bn3c_branch2b <- res3c_branch2b
I0629 02:12:53.925242  1380 net.cpp:367] bn3c_branch2b -> res3c_branch2b (in-place)
I0629 02:12:53.925475  1380 net.cpp:122] Setting up bn3c_branch2b
I0629 02:12:53.925494  1380 net.cpp:129] Top shape: 8 128 28 28 (802816)
I0629 02:12:53.925498  1380 net.cpp:137] Memory required for data: 1186562208
I0629 02:12:53.925508  1380 layer_factory.hpp:77] Creating layer scale3c_branch2b
I0629 02:12:53.925518  1380 net.cpp:84] Creating Layer scale3c_branch2b
I0629 02:12:53.925523  1380 net.cpp:406] scale3c_branch2b <- res3c_branch2b
I0629 02:12:53.925529  1380 net.cpp:367] scale3c_branch2b -> res3c_branch2b (in-place)
I0629 02:12:53.925583  1380 layer_factory.hpp:77] Creating layer scale3c_branch2b
I0629 02:12:53.925722  1380 net.cpp:122] Setting up scale3c_branch2b
I0629 02:12:53.925739  1380 net.cpp:129] Top shape: 8 128 28 28 (802816)
I0629 02:12:53.925742  1380 net.cpp:137] Memory required for data: 1189773472
I0629 02:12:53.925750  1380 layer_factory.hpp:77] Creating layer res3c_branch2b_relu
I0629 02:12:53.925761  1380 net.cpp:84] Creating Layer res3c_branch2b_relu
I0629 02:12:53.925765  1380 net.cpp:406] res3c_branch2b_relu <- res3c_branch2b
I0629 02:12:53.925771  1380 net.cpp:367] res3c_branch2b_relu -> res3c_branch2b (in-place)
I0629 02:12:53.926043  1380 net.cpp:122] Setting up res3c_branch2b_relu
I0629 02:12:53.926060  1380 net.cpp:129] Top shape: 8 128 28 28 (802816)
I0629 02:12:53.926079  1380 net.cpp:137] Memory required for data: 1192984736
I0629 02:12:53.926085  1380 layer_factory.hpp:77] Creating layer res3c_branch2c
I0629 02:12:53.926097  1380 net.cpp:84] Creating Layer res3c_branch2c
I0629 02:12:53.926103  1380 net.cpp:406] res3c_branch2c <- res3c_branch2b
I0629 02:12:53.926115  1380 net.cpp:380] res3c_branch2c -> res3c_branch2c
I0629 02:12:53.926982  1380 net.cpp:122] Setting up res3c_branch2c
I0629 02:12:53.927002  1380 net.cpp:129] Top shape: 8 512 28 28 (3211264)
I0629 02:12:53.927007  1380 net.cpp:137] Memory required for data: 1205829792
I0629 02:12:53.927013  1380 layer_factory.hpp:77] Creating layer bn3c_branch2c
I0629 02:12:53.927024  1380 net.cpp:84] Creating Layer bn3c_branch2c
I0629 02:12:53.927028  1380 net.cpp:406] bn3c_branch2c <- res3c_branch2c
I0629 02:12:53.927039  1380 net.cpp:367] bn3c_branch2c -> res3c_branch2c (in-place)
I0629 02:12:53.927266  1380 net.cpp:122] Setting up bn3c_branch2c
I0629 02:12:53.927281  1380 net.cpp:129] Top shape: 8 512 28 28 (3211264)
I0629 02:12:53.927285  1380 net.cpp:137] Memory required for data: 1218674848
I0629 02:12:53.927294  1380 layer_factory.hpp:77] Creating layer scale3c_branch2c
I0629 02:12:53.927304  1380 net.cpp:84] Creating Layer scale3c_branch2c
I0629 02:12:53.927309  1380 net.cpp:406] scale3c_branch2c <- res3c_branch2c
I0629 02:12:53.927314  1380 net.cpp:367] scale3c_branch2c -> res3c_branch2c (in-place)
I0629 02:12:53.927366  1380 layer_factory.hpp:77] Creating layer scale3c_branch2c
I0629 02:12:53.927505  1380 net.cpp:122] Setting up scale3c_branch2c
I0629 02:12:53.927521  1380 net.cpp:129] Top shape: 8 512 28 28 (3211264)
I0629 02:12:53.927525  1380 net.cpp:137] Memory required for data: 1231519904
I0629 02:12:53.927532  1380 layer_factory.hpp:77] Creating layer res3c
I0629 02:12:53.927539  1380 net.cpp:84] Creating Layer res3c
I0629 02:12:53.927543  1380 net.cpp:406] res3c <- res3b_res3b_relu_0_split_1
I0629 02:12:53.927548  1380 net.cpp:406] res3c <- res3c_branch2c
I0629 02:12:53.927553  1380 net.cpp:380] res3c -> res3c
I0629 02:12:53.927587  1380 net.cpp:122] Setting up res3c
I0629 02:12:53.927601  1380 net.cpp:129] Top shape: 8 512 28 28 (3211264)
I0629 02:12:53.927606  1380 net.cpp:137] Memory required for data: 1244364960
I0629 02:12:53.927609  1380 layer_factory.hpp:77] Creating layer res3c_relu
I0629 02:12:53.927620  1380 net.cpp:84] Creating Layer res3c_relu
I0629 02:12:53.927624  1380 net.cpp:406] res3c_relu <- res3c
I0629 02:12:53.927630  1380 net.cpp:367] res3c_relu -> res3c (in-place)
I0629 02:12:53.927893  1380 net.cpp:122] Setting up res3c_relu
I0629 02:12:53.927912  1380 net.cpp:129] Top shape: 8 512 28 28 (3211264)
I0629 02:12:53.927917  1380 net.cpp:137] Memory required for data: 1257210016
I0629 02:12:53.927920  1380 layer_factory.hpp:77] Creating layer res3c_res3c_relu_0_split
I0629 02:12:53.927929  1380 net.cpp:84] Creating Layer res3c_res3c_relu_0_split
I0629 02:12:53.927933  1380 net.cpp:406] res3c_res3c_relu_0_split <- res3c
I0629 02:12:53.927942  1380 net.cpp:380] res3c_res3c_relu_0_split -> res3c_res3c_relu_0_split_0
I0629 02:12:53.927948  1380 net.cpp:380] res3c_res3c_relu_0_split -> res3c_res3c_relu_0_split_1
I0629 02:12:53.927999  1380 net.cpp:122] Setting up res3c_res3c_relu_0_split
I0629 02:12:53.928014  1380 net.cpp:129] Top shape: 8 512 28 28 (3211264)
I0629 02:12:53.928020  1380 net.cpp:129] Top shape: 8 512 28 28 (3211264)
I0629 02:12:53.928022  1380 net.cpp:137] Memory required for data: 1282900128
I0629 02:12:53.928026  1380 layer_factory.hpp:77] Creating layer res3d_branch2a
I0629 02:12:53.928037  1380 net.cpp:84] Creating Layer res3d_branch2a
I0629 02:12:53.928041  1380 net.cpp:406] res3d_branch2a <- res3c_res3c_relu_0_split_0
I0629 02:12:53.928050  1380 net.cpp:380] res3d_branch2a -> res3d_branch2a
I0629 02:12:53.929548  1380 net.cpp:122] Setting up res3d_branch2a
I0629 02:12:53.929569  1380 net.cpp:129] Top shape: 8 128 28 28 (802816)
I0629 02:12:53.929574  1380 net.cpp:137] Memory required for data: 1286111392
I0629 02:12:53.929580  1380 layer_factory.hpp:77] Creating layer bn3d_branch2a
I0629 02:12:53.929610  1380 net.cpp:84] Creating Layer bn3d_branch2a
I0629 02:12:53.929616  1380 net.cpp:406] bn3d_branch2a <- res3d_branch2a
I0629 02:12:53.929622  1380 net.cpp:367] bn3d_branch2a -> res3d_branch2a (in-place)
I0629 02:12:53.929855  1380 net.cpp:122] Setting up bn3d_branch2a
I0629 02:12:53.929872  1380 net.cpp:129] Top shape: 8 128 28 28 (802816)
I0629 02:12:53.929875  1380 net.cpp:137] Memory required for data: 1289322656
I0629 02:12:53.929901  1380 layer_factory.hpp:77] Creating layer scale3d_branch2a
I0629 02:12:53.929916  1380 net.cpp:84] Creating Layer scale3d_branch2a
I0629 02:12:53.929920  1380 net.cpp:406] scale3d_branch2a <- res3d_branch2a
I0629 02:12:53.929929  1380 net.cpp:367] scale3d_branch2a -> res3d_branch2a (in-place)
I0629 02:12:53.929986  1380 layer_factory.hpp:77] Creating layer scale3d_branch2a
I0629 02:12:53.930133  1380 net.cpp:122] Setting up scale3d_branch2a
I0629 02:12:53.930150  1380 net.cpp:129] Top shape: 8 128 28 28 (802816)
I0629 02:12:53.930153  1380 net.cpp:137] Memory required for data: 1292533920
I0629 02:12:53.930160  1380 layer_factory.hpp:77] Creating layer res3d_branch2a_relu
I0629 02:12:53.930171  1380 net.cpp:84] Creating Layer res3d_branch2a_relu
I0629 02:12:53.930174  1380 net.cpp:406] res3d_branch2a_relu <- res3d_branch2a
I0629 02:12:53.930179  1380 net.cpp:367] res3d_branch2a_relu -> res3d_branch2a (in-place)
I0629 02:12:53.930343  1380 net.cpp:122] Setting up res3d_branch2a_relu
I0629 02:12:53.930361  1380 net.cpp:129] Top shape: 8 128 28 28 (802816)
I0629 02:12:53.930363  1380 net.cpp:137] Memory required for data: 1295745184
I0629 02:12:53.930368  1380 layer_factory.hpp:77] Creating layer res3d_branch2b
I0629 02:12:53.930380  1380 net.cpp:84] Creating Layer res3d_branch2b
I0629 02:12:53.930384  1380 net.cpp:406] res3d_branch2b <- res3d_branch2a
I0629 02:12:53.930392  1380 net.cpp:380] res3d_branch2b -> res3d_branch2b
I0629 02:12:53.931958  1380 net.cpp:122] Setting up res3d_branch2b
I0629 02:12:53.931979  1380 net.cpp:129] Top shape: 8 128 28 28 (802816)
I0629 02:12:53.931984  1380 net.cpp:137] Memory required for data: 1298956448
I0629 02:12:53.931990  1380 layer_factory.hpp:77] Creating layer bn3d_branch2b
I0629 02:12:53.932001  1380 net.cpp:84] Creating Layer bn3d_branch2b
I0629 02:12:53.932006  1380 net.cpp:406] bn3d_branch2b <- res3d_branch2b
I0629 02:12:53.932011  1380 net.cpp:367] bn3d_branch2b -> res3d_branch2b (in-place)
I0629 02:12:53.932240  1380 net.cpp:122] Setting up bn3d_branch2b
I0629 02:12:53.932255  1380 net.cpp:129] Top shape: 8 128 28 28 (802816)
I0629 02:12:53.932260  1380 net.cpp:137] Memory required for data: 1302167712
I0629 02:12:53.932268  1380 layer_factory.hpp:77] Creating layer scale3d_branch2b
I0629 02:12:53.932276  1380 net.cpp:84] Creating Layer scale3d_branch2b
I0629 02:12:53.932281  1380 net.cpp:406] scale3d_branch2b <- res3d_branch2b
I0629 02:12:53.932288  1380 net.cpp:367] scale3d_branch2b -> res3d_branch2b (in-place)
I0629 02:12:53.932341  1380 layer_factory.hpp:77] Creating layer scale3d_branch2b
I0629 02:12:53.932488  1380 net.cpp:122] Setting up scale3d_branch2b
I0629 02:12:53.932504  1380 net.cpp:129] Top shape: 8 128 28 28 (802816)
I0629 02:12:53.932508  1380 net.cpp:137] Memory required for data: 1305378976
I0629 02:12:53.932515  1380 layer_factory.hpp:77] Creating layer res3d_branch2b_relu
I0629 02:12:53.932524  1380 net.cpp:84] Creating Layer res3d_branch2b_relu
I0629 02:12:53.932529  1380 net.cpp:406] res3d_branch2b_relu <- res3d_branch2b
I0629 02:12:53.932534  1380 net.cpp:367] res3d_branch2b_relu -> res3d_branch2b (in-place)
I0629 02:12:53.932809  1380 net.cpp:122] Setting up res3d_branch2b_relu
I0629 02:12:53.932828  1380 net.cpp:129] Top shape: 8 128 28 28 (802816)
I0629 02:12:53.932832  1380 net.cpp:137] Memory required for data: 1308590240
I0629 02:12:53.932837  1380 layer_factory.hpp:77] Creating layer res3d_branch2c
I0629 02:12:53.932852  1380 net.cpp:84] Creating Layer res3d_branch2c
I0629 02:12:53.932858  1380 net.cpp:406] res3d_branch2c <- res3d_branch2b
I0629 02:12:53.932888  1380 net.cpp:380] res3d_branch2c -> res3d_branch2c
I0629 02:12:53.933753  1380 net.cpp:122] Setting up res3d_branch2c
I0629 02:12:53.933775  1380 net.cpp:129] Top shape: 8 512 28 28 (3211264)
I0629 02:12:53.933780  1380 net.cpp:137] Memory required for data: 1321435296
I0629 02:12:53.933786  1380 layer_factory.hpp:77] Creating layer bn3d_branch2c
I0629 02:12:53.933794  1380 net.cpp:84] Creating Layer bn3d_branch2c
I0629 02:12:53.933799  1380 net.cpp:406] bn3d_branch2c <- res3d_branch2c
I0629 02:12:53.933807  1380 net.cpp:367] bn3d_branch2c -> res3d_branch2c (in-place)
I0629 02:12:53.934037  1380 net.cpp:122] Setting up bn3d_branch2c
I0629 02:12:53.934053  1380 net.cpp:129] Top shape: 8 512 28 28 (3211264)
I0629 02:12:53.934057  1380 net.cpp:137] Memory required for data: 1334280352
I0629 02:12:53.934067  1380 layer_factory.hpp:77] Creating layer scale3d_branch2c
I0629 02:12:53.934074  1380 net.cpp:84] Creating Layer scale3d_branch2c
I0629 02:12:53.934077  1380 net.cpp:406] scale3d_branch2c <- res3d_branch2c
I0629 02:12:53.934083  1380 net.cpp:367] scale3d_branch2c -> res3d_branch2c (in-place)
I0629 02:12:53.934136  1380 layer_factory.hpp:77] Creating layer scale3d_branch2c
I0629 02:12:53.934276  1380 net.cpp:122] Setting up scale3d_branch2c
I0629 02:12:53.934293  1380 net.cpp:129] Top shape: 8 512 28 28 (3211264)
I0629 02:12:53.934296  1380 net.cpp:137] Memory required for data: 1347125408
I0629 02:12:53.934303  1380 layer_factory.hpp:77] Creating layer res3d
I0629 02:12:53.934314  1380 net.cpp:84] Creating Layer res3d
I0629 02:12:53.934317  1380 net.cpp:406] res3d <- res3c_res3c_relu_0_split_1
I0629 02:12:53.934322  1380 net.cpp:406] res3d <- res3d_branch2c
I0629 02:12:53.934330  1380 net.cpp:380] res3d -> res3d
I0629 02:12:53.934361  1380 net.cpp:122] Setting up res3d
I0629 02:12:53.934376  1380 net.cpp:129] Top shape: 8 512 28 28 (3211264)
I0629 02:12:53.934379  1380 net.cpp:137] Memory required for data: 1359970464
I0629 02:12:53.934383  1380 layer_factory.hpp:77] Creating layer res3d_relu
I0629 02:12:53.934391  1380 net.cpp:84] Creating Layer res3d_relu
I0629 02:12:53.934396  1380 net.cpp:406] res3d_relu <- res3d
I0629 02:12:53.934406  1380 net.cpp:367] res3d_relu -> res3d (in-place)
I0629 02:12:53.934659  1380 net.cpp:122] Setting up res3d_relu
I0629 02:12:53.934689  1380 net.cpp:129] Top shape: 8 512 28 28 (3211264)
I0629 02:12:53.934692  1380 net.cpp:137] Memory required for data: 1372815520
I0629 02:12:53.934697  1380 layer_factory.hpp:77] Creating layer res3d_res3d_relu_0_split
I0629 02:12:53.934703  1380 net.cpp:84] Creating Layer res3d_res3d_relu_0_split
I0629 02:12:53.934707  1380 net.cpp:406] res3d_res3d_relu_0_split <- res3d
I0629 02:12:53.934713  1380 net.cpp:380] res3d_res3d_relu_0_split -> res3d_res3d_relu_0_split_0
I0629 02:12:53.934720  1380 net.cpp:380] res3d_res3d_relu_0_split -> res3d_res3d_relu_0_split_1
I0629 02:12:53.934787  1380 net.cpp:122] Setting up res3d_res3d_relu_0_split
I0629 02:12:53.934803  1380 net.cpp:129] Top shape: 8 512 28 28 (3211264)
I0629 02:12:53.934808  1380 net.cpp:129] Top shape: 8 512 28 28 (3211264)
I0629 02:12:53.934811  1380 net.cpp:137] Memory required for data: 1398505632
I0629 02:12:53.934815  1380 layer_factory.hpp:77] Creating layer res4a_branch1
I0629 02:12:53.934828  1380 net.cpp:84] Creating Layer res4a_branch1
I0629 02:12:53.934831  1380 net.cpp:406] res4a_branch1 <- res3d_res3d_relu_0_split_0
I0629 02:12:53.934839  1380 net.cpp:380] res4a_branch1 -> res4a_branch1
I0629 02:12:53.937134  1380 net.cpp:122] Setting up res4a_branch1
I0629 02:12:53.937155  1380 net.cpp:129] Top shape: 8 1024 14 14 (1605632)
I0629 02:12:53.937160  1380 net.cpp:137] Memory required for data: 1404928160
I0629 02:12:53.937165  1380 layer_factory.hpp:77] Creating layer bn4a_branch1
I0629 02:12:53.937173  1380 net.cpp:84] Creating Layer bn4a_branch1
I0629 02:12:53.937178  1380 net.cpp:406] bn4a_branch1 <- res4a_branch1
I0629 02:12:53.937189  1380 net.cpp:367] bn4a_branch1 -> res4a_branch1 (in-place)
I0629 02:12:53.937451  1380 net.cpp:122] Setting up bn4a_branch1
I0629 02:12:53.937481  1380 net.cpp:129] Top shape: 8 1024 14 14 (1605632)
I0629 02:12:53.937485  1380 net.cpp:137] Memory required for data: 1411350688
I0629 02:12:53.937494  1380 layer_factory.hpp:77] Creating layer scale4a_branch1
I0629 02:12:53.937502  1380 net.cpp:84] Creating Layer scale4a_branch1
I0629 02:12:53.937507  1380 net.cpp:406] scale4a_branch1 <- res4a_branch1
I0629 02:12:53.937512  1380 net.cpp:367] scale4a_branch1 -> res4a_branch1 (in-place)
I0629 02:12:53.937566  1380 layer_factory.hpp:77] Creating layer scale4a_branch1
I0629 02:12:53.937716  1380 net.cpp:122] Setting up scale4a_branch1
I0629 02:12:53.937731  1380 net.cpp:129] Top shape: 8 1024 14 14 (1605632)
I0629 02:12:53.937734  1380 net.cpp:137] Memory required for data: 1417773216
I0629 02:12:53.937742  1380 layer_factory.hpp:77] Creating layer res4a_branch2a
I0629 02:12:53.937754  1380 net.cpp:84] Creating Layer res4a_branch2a
I0629 02:12:53.937760  1380 net.cpp:406] res4a_branch2a <- res3d_res3d_relu_0_split_1
I0629 02:12:53.937770  1380 net.cpp:380] res4a_branch2a -> res4a_branch2a
I0629 02:12:53.938812  1380 net.cpp:122] Setting up res4a_branch2a
I0629 02:12:53.938832  1380 net.cpp:129] Top shape: 8 256 14 14 (401408)
I0629 02:12:53.938836  1380 net.cpp:137] Memory required for data: 1419378848
I0629 02:12:53.938843  1380 layer_factory.hpp:77] Creating layer bn4a_branch2a
I0629 02:12:53.938853  1380 net.cpp:84] Creating Layer bn4a_branch2a
I0629 02:12:53.938858  1380 net.cpp:406] bn4a_branch2a <- res4a_branch2a
I0629 02:12:53.938868  1380 net.cpp:367] bn4a_branch2a -> res4a_branch2a (in-place)
I0629 02:12:53.939102  1380 net.cpp:122] Setting up bn4a_branch2a
I0629 02:12:53.939118  1380 net.cpp:129] Top shape: 8 256 14 14 (401408)
I0629 02:12:53.939122  1380 net.cpp:137] Memory required for data: 1420984480
I0629 02:12:53.939131  1380 layer_factory.hpp:77] Creating layer scale4a_branch2a
I0629 02:12:53.939141  1380 net.cpp:84] Creating Layer scale4a_branch2a
I0629 02:12:53.939147  1380 net.cpp:406] scale4a_branch2a <- res4a_branch2a
I0629 02:12:53.939154  1380 net.cpp:367] scale4a_branch2a -> res4a_branch2a (in-place)
I0629 02:12:53.939210  1380 layer_factory.hpp:77] Creating layer scale4a_branch2a
I0629 02:12:53.939355  1380 net.cpp:122] Setting up scale4a_branch2a
I0629 02:12:53.939371  1380 net.cpp:129] Top shape: 8 256 14 14 (401408)
I0629 02:12:53.939375  1380 net.cpp:137] Memory required for data: 1422590112
I0629 02:12:53.939383  1380 layer_factory.hpp:77] Creating layer res4a_branch2a_relu
I0629 02:12:53.939389  1380 net.cpp:84] Creating Layer res4a_branch2a_relu
I0629 02:12:53.939393  1380 net.cpp:406] res4a_branch2a_relu <- res4a_branch2a
I0629 02:12:53.939399  1380 net.cpp:367] res4a_branch2a_relu -> res4a_branch2a (in-place)
I0629 02:12:53.939563  1380 net.cpp:122] Setting up res4a_branch2a_relu
I0629 02:12:53.939579  1380 net.cpp:129] Top shape: 8 256 14 14 (401408)
I0629 02:12:53.939584  1380 net.cpp:137] Memory required for data: 1424195744
I0629 02:12:53.939587  1380 layer_factory.hpp:77] Creating layer res4a_branch2b
I0629 02:12:53.939599  1380 net.cpp:84] Creating Layer res4a_branch2b
I0629 02:12:53.939604  1380 net.cpp:406] res4a_branch2b <- res4a_branch2a
I0629 02:12:53.939613  1380 net.cpp:380] res4a_branch2b -> res4a_branch2b
I0629 02:12:53.941920  1380 net.cpp:122] Setting up res4a_branch2b
I0629 02:12:53.941941  1380 net.cpp:129] Top shape: 8 256 14 14 (401408)
I0629 02:12:53.941946  1380 net.cpp:137] Memory required for data: 1425801376
I0629 02:12:53.941951  1380 layer_factory.hpp:77] Creating layer bn4a_branch2b
I0629 02:12:53.941962  1380 net.cpp:84] Creating Layer bn4a_branch2b
I0629 02:12:53.941969  1380 net.cpp:406] bn4a_branch2b <- res4a_branch2b
I0629 02:12:53.941978  1380 net.cpp:367] bn4a_branch2b -> res4a_branch2b (in-place)
I0629 02:12:53.942212  1380 net.cpp:122] Setting up bn4a_branch2b
I0629 02:12:53.942229  1380 net.cpp:129] Top shape: 8 256 14 14 (401408)
I0629 02:12:53.942232  1380 net.cpp:137] Memory required for data: 1427407008
I0629 02:12:53.942241  1380 layer_factory.hpp:77] Creating layer scale4a_branch2b
I0629 02:12:53.942268  1380 net.cpp:84] Creating Layer scale4a_branch2b
I0629 02:12:53.942275  1380 net.cpp:406] scale4a_branch2b <- res4a_branch2b
I0629 02:12:53.942282  1380 net.cpp:367] scale4a_branch2b -> res4a_branch2b (in-place)
I0629 02:12:53.942340  1380 layer_factory.hpp:77] Creating layer scale4a_branch2b
I0629 02:12:53.942489  1380 net.cpp:122] Setting up scale4a_branch2b
I0629 02:12:53.942504  1380 net.cpp:129] Top shape: 8 256 14 14 (401408)
I0629 02:12:53.942508  1380 net.cpp:137] Memory required for data: 1429012640
I0629 02:12:53.942515  1380 layer_factory.hpp:77] Creating layer res4a_branch2b_relu
I0629 02:12:53.942523  1380 net.cpp:84] Creating Layer res4a_branch2b_relu
I0629 02:12:53.942526  1380 net.cpp:406] res4a_branch2b_relu <- res4a_branch2b
I0629 02:12:53.942531  1380 net.cpp:367] res4a_branch2b_relu -> res4a_branch2b (in-place)
I0629 02:12:53.942697  1380 net.cpp:122] Setting up res4a_branch2b_relu
I0629 02:12:53.942713  1380 net.cpp:129] Top shape: 8 256 14 14 (401408)
I0629 02:12:53.942718  1380 net.cpp:137] Memory required for data: 1430618272
I0629 02:12:53.942723  1380 layer_factory.hpp:77] Creating layer res4a_branch2c
I0629 02:12:53.942734  1380 net.cpp:84] Creating Layer res4a_branch2c
I0629 02:12:53.942739  1380 net.cpp:406] res4a_branch2c <- res4a_branch2b
I0629 02:12:53.942747  1380 net.cpp:380] res4a_branch2c -> res4a_branch2c
I0629 02:12:53.944393  1380 net.cpp:122] Setting up res4a_branch2c
I0629 02:12:53.944416  1380 net.cpp:129] Top shape: 8 1024 14 14 (1605632)
I0629 02:12:53.944419  1380 net.cpp:137] Memory required for data: 1437040800
I0629 02:12:53.944425  1380 layer_factory.hpp:77] Creating layer bn4a_branch2c
I0629 02:12:53.944439  1380 net.cpp:84] Creating Layer bn4a_branch2c
I0629 02:12:53.944449  1380 net.cpp:406] bn4a_branch2c <- res4a_branch2c
I0629 02:12:53.944456  1380 net.cpp:367] bn4a_branch2c -> res4a_branch2c (in-place)
I0629 02:12:53.944695  1380 net.cpp:122] Setting up bn4a_branch2c
I0629 02:12:53.944711  1380 net.cpp:129] Top shape: 8 1024 14 14 (1605632)
I0629 02:12:53.944715  1380 net.cpp:137] Memory required for data: 1443463328
I0629 02:12:53.944725  1380 layer_factory.hpp:77] Creating layer scale4a_branch2c
I0629 02:12:53.944731  1380 net.cpp:84] Creating Layer scale4a_branch2c
I0629 02:12:53.944736  1380 net.cpp:406] scale4a_branch2c <- res4a_branch2c
I0629 02:12:53.944744  1380 net.cpp:367] scale4a_branch2c -> res4a_branch2c (in-place)
I0629 02:12:53.944793  1380 layer_factory.hpp:77] Creating layer scale4a_branch2c
I0629 02:12:53.944952  1380 net.cpp:122] Setting up scale4a_branch2c
I0629 02:12:53.944969  1380 net.cpp:129] Top shape: 8 1024 14 14 (1605632)
I0629 02:12:53.944973  1380 net.cpp:137] Memory required for data: 1449885856
I0629 02:12:53.944980  1380 layer_factory.hpp:77] Creating layer res4a
I0629 02:12:53.944988  1380 net.cpp:84] Creating Layer res4a
I0629 02:12:53.944991  1380 net.cpp:406] res4a <- res4a_branch1
I0629 02:12:53.944996  1380 net.cpp:406] res4a <- res4a_branch2c
I0629 02:12:53.945003  1380 net.cpp:380] res4a -> res4a
I0629 02:12:53.945037  1380 net.cpp:122] Setting up res4a
I0629 02:12:53.945052  1380 net.cpp:129] Top shape: 8 1024 14 14 (1605632)
I0629 02:12:53.945056  1380 net.cpp:137] Memory required for data: 1456308384
I0629 02:12:53.945060  1380 layer_factory.hpp:77] Creating layer res4a_relu
I0629 02:12:53.945066  1380 net.cpp:84] Creating Layer res4a_relu
I0629 02:12:53.945070  1380 net.cpp:406] res4a_relu <- res4a
I0629 02:12:53.945078  1380 net.cpp:367] res4a_relu -> res4a (in-place)
I0629 02:12:53.945353  1380 net.cpp:122] Setting up res4a_relu
I0629 02:12:53.945374  1380 net.cpp:129] Top shape: 8 1024 14 14 (1605632)
I0629 02:12:53.945377  1380 net.cpp:137] Memory required for data: 1462730912
I0629 02:12:53.945381  1380 layer_factory.hpp:77] Creating layer res4a_res4a_relu_0_split
I0629 02:12:53.945410  1380 net.cpp:84] Creating Layer res4a_res4a_relu_0_split
I0629 02:12:53.945420  1380 net.cpp:406] res4a_res4a_relu_0_split <- res4a
I0629 02:12:53.945430  1380 net.cpp:380] res4a_res4a_relu_0_split -> res4a_res4a_relu_0_split_0
I0629 02:12:53.945458  1380 net.cpp:380] res4a_res4a_relu_0_split -> res4a_res4a_relu_0_split_1
I0629 02:12:53.945518  1380 net.cpp:122] Setting up res4a_res4a_relu_0_split
I0629 02:12:53.945533  1380 net.cpp:129] Top shape: 8 1024 14 14 (1605632)
I0629 02:12:53.945538  1380 net.cpp:129] Top shape: 8 1024 14 14 (1605632)
I0629 02:12:53.945540  1380 net.cpp:137] Memory required for data: 1475575968
I0629 02:12:53.945545  1380 layer_factory.hpp:77] Creating layer res4b_branch2a
I0629 02:12:53.945559  1380 net.cpp:84] Creating Layer res4b_branch2a
I0629 02:12:53.945564  1380 net.cpp:406] res4b_branch2a <- res4a_res4a_relu_0_split_0
I0629 02:12:53.945571  1380 net.cpp:380] res4b_branch2a -> res4b_branch2a
I0629 02:12:53.947206  1380 net.cpp:122] Setting up res4b_branch2a
I0629 02:12:53.947227  1380 net.cpp:129] Top shape: 8 256 14 14 (401408)
I0629 02:12:53.947232  1380 net.cpp:137] Memory required for data: 1477181600
I0629 02:12:53.947237  1380 layer_factory.hpp:77] Creating layer bn4b_branch2a
I0629 02:12:53.947248  1380 net.cpp:84] Creating Layer bn4b_branch2a
I0629 02:12:53.947253  1380 net.cpp:406] bn4b_branch2a <- res4b_branch2a
I0629 02:12:53.947259  1380 net.cpp:367] bn4b_branch2a -> res4b_branch2a (in-place)
I0629 02:12:53.947495  1380 net.cpp:122] Setting up bn4b_branch2a
I0629 02:12:53.947511  1380 net.cpp:129] Top shape: 8 256 14 14 (401408)
I0629 02:12:53.947515  1380 net.cpp:137] Memory required for data: 1478787232
I0629 02:12:53.947527  1380 layer_factory.hpp:77] Creating layer scale4b_branch2a
I0629 02:12:53.947535  1380 net.cpp:84] Creating Layer scale4b_branch2a
I0629 02:12:53.947540  1380 net.cpp:406] scale4b_branch2a <- res4b_branch2a
I0629 02:12:53.947546  1380 net.cpp:367] scale4b_branch2a -> res4b_branch2a (in-place)
I0629 02:12:53.947602  1380 layer_factory.hpp:77] Creating layer scale4b_branch2a
I0629 02:12:53.947751  1380 net.cpp:122] Setting up scale4b_branch2a
I0629 02:12:53.947767  1380 net.cpp:129] Top shape: 8 256 14 14 (401408)
I0629 02:12:53.947772  1380 net.cpp:137] Memory required for data: 1480392864
I0629 02:12:53.947778  1380 layer_factory.hpp:77] Creating layer res4b_branch2a_relu
I0629 02:12:53.947788  1380 net.cpp:84] Creating Layer res4b_branch2a_relu
I0629 02:12:53.947791  1380 net.cpp:406] res4b_branch2a_relu <- res4b_branch2a
I0629 02:12:53.947796  1380 net.cpp:367] res4b_branch2a_relu -> res4b_branch2a (in-place)
I0629 02:12:53.947960  1380 net.cpp:122] Setting up res4b_branch2a_relu
I0629 02:12:53.947978  1380 net.cpp:129] Top shape: 8 256 14 14 (401408)
I0629 02:12:53.947981  1380 net.cpp:137] Memory required for data: 1481998496
I0629 02:12:53.947985  1380 layer_factory.hpp:77] Creating layer res4b_branch2b
I0629 02:12:53.947998  1380 net.cpp:84] Creating Layer res4b_branch2b
I0629 02:12:53.948002  1380 net.cpp:406] res4b_branch2b <- res4b_branch2a
I0629 02:12:53.948009  1380 net.cpp:380] res4b_branch2b -> res4b_branch2b
I0629 02:12:53.950207  1380 net.cpp:122] Setting up res4b_branch2b
I0629 02:12:53.950228  1380 net.cpp:129] Top shape: 8 256 14 14 (401408)
I0629 02:12:53.950233  1380 net.cpp:137] Memory required for data: 1483604128
I0629 02:12:53.950239  1380 layer_factory.hpp:77] Creating layer bn4b_branch2b
I0629 02:12:53.950248  1380 net.cpp:84] Creating Layer bn4b_branch2b
I0629 02:12:53.950253  1380 net.cpp:406] bn4b_branch2b <- res4b_branch2b
I0629 02:12:53.950258  1380 net.cpp:367] bn4b_branch2b -> res4b_branch2b (in-place)
I0629 02:12:53.950495  1380 net.cpp:122] Setting up bn4b_branch2b
I0629 02:12:53.950511  1380 net.cpp:129] Top shape: 8 256 14 14 (401408)
I0629 02:12:53.950515  1380 net.cpp:137] Memory required for data: 1485209760
I0629 02:12:53.950525  1380 layer_factory.hpp:77] Creating layer scale4b_branch2b
I0629 02:12:53.950534  1380 net.cpp:84] Creating Layer scale4b_branch2b
I0629 02:12:53.950539  1380 net.cpp:406] scale4b_branch2b <- res4b_branch2b
I0629 02:12:53.950544  1380 net.cpp:367] scale4b_branch2b -> res4b_branch2b (in-place)
I0629 02:12:53.950604  1380 layer_factory.hpp:77] Creating layer scale4b_branch2b
I0629 02:12:53.950767  1380 net.cpp:122] Setting up scale4b_branch2b
I0629 02:12:53.950794  1380 net.cpp:129] Top shape: 8 256 14 14 (401408)
I0629 02:12:53.950799  1380 net.cpp:137] Memory required for data: 1486815392
I0629 02:12:53.950808  1380 layer_factory.hpp:77] Creating layer res4b_branch2b_relu
I0629 02:12:53.950814  1380 net.cpp:84] Creating Layer res4b_branch2b_relu
I0629 02:12:53.950819  1380 net.cpp:406] res4b_branch2b_relu <- res4b_branch2b
I0629 02:12:53.950826  1380 net.cpp:367] res4b_branch2b_relu -> res4b_branch2b (in-place)
I0629 02:12:53.950990  1380 net.cpp:122] Setting up res4b_branch2b_relu
I0629 02:12:53.951009  1380 net.cpp:129] Top shape: 8 256 14 14 (401408)
I0629 02:12:53.951011  1380 net.cpp:137] Memory required for data: 1488421024
I0629 02:12:53.951016  1380 layer_factory.hpp:77] Creating layer res4b_branch2c
I0629 02:12:53.951028  1380 net.cpp:84] Creating Layer res4b_branch2c
I0629 02:12:53.951033  1380 net.cpp:406] res4b_branch2c <- res4b_branch2b
I0629 02:12:53.951041  1380 net.cpp:380] res4b_branch2c -> res4b_branch2c
I0629 02:12:53.952595  1380 net.cpp:122] Setting up res4b_branch2c
I0629 02:12:53.952616  1380 net.cpp:129] Top shape: 8 1024 14 14 (1605632)
I0629 02:12:53.952621  1380 net.cpp:137] Memory required for data: 1494843552
I0629 02:12:53.952627  1380 layer_factory.hpp:77] Creating layer bn4b_branch2c
I0629 02:12:53.952638  1380 net.cpp:84] Creating Layer bn4b_branch2c
I0629 02:12:53.952643  1380 net.cpp:406] bn4b_branch2c <- res4b_branch2c
I0629 02:12:53.952648  1380 net.cpp:367] bn4b_branch2c -> res4b_branch2c (in-place)
I0629 02:12:53.952895  1380 net.cpp:122] Setting up bn4b_branch2c
I0629 02:12:53.952911  1380 net.cpp:129] Top shape: 8 1024 14 14 (1605632)
I0629 02:12:53.952916  1380 net.cpp:137] Memory required for data: 1501266080
I0629 02:12:53.952925  1380 layer_factory.hpp:77] Creating layer scale4b_branch2c
I0629 02:12:53.952935  1380 net.cpp:84] Creating Layer scale4b_branch2c
I0629 02:12:53.952942  1380 net.cpp:406] scale4b_branch2c <- res4b_branch2c
I0629 02:12:53.952949  1380 net.cpp:367] scale4b_branch2c -> res4b_branch2c (in-place)
I0629 02:12:53.953001  1380 layer_factory.hpp:77] Creating layer scale4b_branch2c
I0629 02:12:53.953161  1380 net.cpp:122] Setting up scale4b_branch2c
I0629 02:12:53.953177  1380 net.cpp:129] Top shape: 8 1024 14 14 (1605632)
I0629 02:12:53.953181  1380 net.cpp:137] Memory required for data: 1507688608
I0629 02:12:53.953188  1380 layer_factory.hpp:77] Creating layer res4b
I0629 02:12:53.953196  1380 net.cpp:84] Creating Layer res4b
I0629 02:12:53.953199  1380 net.cpp:406] res4b <- res4a_res4a_relu_0_split_1
I0629 02:12:53.953204  1380 net.cpp:406] res4b <- res4b_branch2c
I0629 02:12:53.953212  1380 net.cpp:380] res4b -> res4b
I0629 02:12:53.953255  1380 net.cpp:122] Setting up res4b
I0629 02:12:53.953271  1380 net.cpp:129] Top shape: 8 1024 14 14 (1605632)
I0629 02:12:53.953275  1380 net.cpp:137] Memory required for data: 1514111136
I0629 02:12:53.953279  1380 layer_factory.hpp:77] Creating layer res4b_relu
I0629 02:12:53.953289  1380 net.cpp:84] Creating Layer res4b_relu
I0629 02:12:53.953294  1380 net.cpp:406] res4b_relu <- res4b
I0629 02:12:53.953299  1380 net.cpp:367] res4b_relu -> res4b (in-place)
I0629 02:12:53.953573  1380 net.cpp:122] Setting up res4b_relu
I0629 02:12:53.953593  1380 net.cpp:129] Top shape: 8 1024 14 14 (1605632)
I0629 02:12:53.953596  1380 net.cpp:137] Memory required for data: 1520533664
I0629 02:12:53.953600  1380 layer_factory.hpp:77] Creating layer res4b_res4b_relu_0_split
I0629 02:12:53.953608  1380 net.cpp:84] Creating Layer res4b_res4b_relu_0_split
I0629 02:12:53.953611  1380 net.cpp:406] res4b_res4b_relu_0_split <- res4b
I0629 02:12:53.953620  1380 net.cpp:380] res4b_res4b_relu_0_split -> res4b_res4b_relu_0_split_0
I0629 02:12:53.953627  1380 net.cpp:380] res4b_res4b_relu_0_split -> res4b_res4b_relu_0_split_1
I0629 02:12:53.953681  1380 net.cpp:122] Setting up res4b_res4b_relu_0_split
I0629 02:12:53.953696  1380 net.cpp:129] Top shape: 8 1024 14 14 (1605632)
I0629 02:12:53.953701  1380 net.cpp:129] Top shape: 8 1024 14 14 (1605632)
I0629 02:12:53.953717  1380 net.cpp:137] Memory required for data: 1533378720
I0629 02:12:53.953722  1380 layer_factory.hpp:77] Creating layer res4c_branch2a
I0629 02:12:53.953737  1380 net.cpp:84] Creating Layer res4c_branch2a
I0629 02:12:53.953743  1380 net.cpp:406] res4c_branch2a <- res4b_res4b_relu_0_split_0
I0629 02:12:53.953749  1380 net.cpp:380] res4c_branch2a -> res4c_branch2a
I0629 02:12:53.955435  1380 net.cpp:122] Setting up res4c_branch2a
I0629 02:12:53.955456  1380 net.cpp:129] Top shape: 8 256 14 14 (401408)
I0629 02:12:53.955461  1380 net.cpp:137] Memory required for data: 1534984352
I0629 02:12:53.955466  1380 layer_factory.hpp:77] Creating layer bn4c_branch2a
I0629 02:12:53.955485  1380 net.cpp:84] Creating Layer bn4c_branch2a
I0629 02:12:53.955490  1380 net.cpp:406] bn4c_branch2a <- res4c_branch2a
I0629 02:12:53.955497  1380 net.cpp:367] bn4c_branch2a -> res4c_branch2a (in-place)
I0629 02:12:53.955747  1380 net.cpp:122] Setting up bn4c_branch2a
I0629 02:12:53.955763  1380 net.cpp:129] Top shape: 8 256 14 14 (401408)
I0629 02:12:53.955767  1380 net.cpp:137] Memory required for data: 1536589984
I0629 02:12:53.955780  1380 layer_factory.hpp:77] Creating layer scale4c_branch2a
I0629 02:12:53.955787  1380 net.cpp:84] Creating Layer scale4c_branch2a
I0629 02:12:53.955793  1380 net.cpp:406] scale4c_branch2a <- res4c_branch2a
I0629 02:12:53.955798  1380 net.cpp:367] scale4c_branch2a -> res4c_branch2a (in-place)
I0629 02:12:53.955855  1380 layer_factory.hpp:77] Creating layer scale4c_branch2a
I0629 02:12:53.956013  1380 net.cpp:122] Setting up scale4c_branch2a
I0629 02:12:53.956029  1380 net.cpp:129] Top shape: 8 256 14 14 (401408)
I0629 02:12:53.956032  1380 net.cpp:137] Memory required for data: 1538195616
I0629 02:12:53.956039  1380 layer_factory.hpp:77] Creating layer res4c_branch2a_relu
I0629 02:12:53.956049  1380 net.cpp:84] Creating Layer res4c_branch2a_relu
I0629 02:12:53.956053  1380 net.cpp:406] res4c_branch2a_relu <- res4c_branch2a
I0629 02:12:53.956058  1380 net.cpp:367] res4c_branch2a_relu -> res4c_branch2a (in-place)
I0629 02:12:53.956223  1380 net.cpp:122] Setting up res4c_branch2a_relu
I0629 02:12:53.956243  1380 net.cpp:129] Top shape: 8 256 14 14 (401408)
I0629 02:12:53.956246  1380 net.cpp:137] Memory required for data: 1539801248
I0629 02:12:53.956251  1380 layer_factory.hpp:77] Creating layer res4c_branch2b
I0629 02:12:53.956264  1380 net.cpp:84] Creating Layer res4c_branch2b
I0629 02:12:53.956270  1380 net.cpp:406] res4c_branch2b <- res4c_branch2a
I0629 02:12:53.956277  1380 net.cpp:380] res4c_branch2b -> res4c_branch2b
I0629 02:12:53.958715  1380 net.cpp:122] Setting up res4c_branch2b
I0629 02:12:53.958739  1380 net.cpp:129] Top shape: 8 256 14 14 (401408)
I0629 02:12:53.958744  1380 net.cpp:137] Memory required for data: 1541406880
I0629 02:12:53.958750  1380 layer_factory.hpp:77] Creating layer bn4c_branch2b
I0629 02:12:53.958770  1380 net.cpp:84] Creating Layer bn4c_branch2b
I0629 02:12:53.958781  1380 net.cpp:406] bn4c_branch2b <- res4c_branch2b
I0629 02:12:53.958788  1380 net.cpp:367] bn4c_branch2b -> res4c_branch2b (in-place)
I0629 02:12:53.959041  1380 net.cpp:122] Setting up bn4c_branch2b
I0629 02:12:53.959056  1380 net.cpp:129] Top shape: 8 256 14 14 (401408)
I0629 02:12:53.959060  1380 net.cpp:137] Memory required for data: 1543012512
I0629 02:12:53.959069  1380 layer_factory.hpp:77] Creating layer scale4c_branch2b
I0629 02:12:53.959076  1380 net.cpp:84] Creating Layer scale4c_branch2b
I0629 02:12:53.959080  1380 net.cpp:406] scale4c_branch2b <- res4c_branch2b
I0629 02:12:53.959086  1380 net.cpp:367] scale4c_branch2b -> res4c_branch2b (in-place)
I0629 02:12:53.959146  1380 layer_factory.hpp:77] Creating layer scale4c_branch2b
I0629 02:12:53.959305  1380 net.cpp:122] Setting up scale4c_branch2b
I0629 02:12:53.959321  1380 net.cpp:129] Top shape: 8 256 14 14 (401408)
I0629 02:12:53.959324  1380 net.cpp:137] Memory required for data: 1544618144
I0629 02:12:53.959331  1380 layer_factory.hpp:77] Creating layer res4c_branch2b_relu
I0629 02:12:53.959343  1380 net.cpp:84] Creating Layer res4c_branch2b_relu
I0629 02:12:53.959368  1380 net.cpp:406] res4c_branch2b_relu <- res4c_branch2b
I0629 02:12:53.959375  1380 net.cpp:367] res4c_branch2b_relu -> res4c_branch2b (in-place)
I0629 02:12:53.959542  1380 net.cpp:122] Setting up res4c_branch2b_relu
I0629 02:12:53.959558  1380 net.cpp:129] Top shape: 8 256 14 14 (401408)
I0629 02:12:53.959563  1380 net.cpp:137] Memory required for data: 1546223776
I0629 02:12:53.959566  1380 layer_factory.hpp:77] Creating layer res4c_branch2c
I0629 02:12:53.959578  1380 net.cpp:84] Creating Layer res4c_branch2c
I0629 02:12:53.959583  1380 net.cpp:406] res4c_branch2c <- res4c_branch2b
I0629 02:12:53.959589  1380 net.cpp:380] res4c_branch2c -> res4c_branch2c
I0629 02:12:53.961227  1380 net.cpp:122] Setting up res4c_branch2c
I0629 02:12:53.961247  1380 net.cpp:129] Top shape: 8 1024 14 14 (1605632)
I0629 02:12:53.961252  1380 net.cpp:137] Memory required for data: 1552646304
I0629 02:12:53.961261  1380 layer_factory.hpp:77] Creating layer bn4c_branch2c
I0629 02:12:53.961269  1380 net.cpp:84] Creating Layer bn4c_branch2c
I0629 02:12:53.961273  1380 net.cpp:406] bn4c_branch2c <- res4c_branch2c
I0629 02:12:53.961282  1380 net.cpp:367] bn4c_branch2c -> res4c_branch2c (in-place)
I0629 02:12:53.961539  1380 net.cpp:122] Setting up bn4c_branch2c
I0629 02:12:53.961555  1380 net.cpp:129] Top shape: 8 1024 14 14 (1605632)
I0629 02:12:53.961560  1380 net.cpp:137] Memory required for data: 1559068832
I0629 02:12:53.961568  1380 layer_factory.hpp:77] Creating layer scale4c_branch2c
I0629 02:12:53.961576  1380 net.cpp:84] Creating Layer scale4c_branch2c
I0629 02:12:53.961580  1380 net.cpp:406] scale4c_branch2c <- res4c_branch2c
I0629 02:12:53.961586  1380 net.cpp:367] scale4c_branch2c -> res4c_branch2c (in-place)
I0629 02:12:53.961640  1380 layer_factory.hpp:77] Creating layer scale4c_branch2c
I0629 02:12:53.961810  1380 net.cpp:122] Setting up scale4c_branch2c
I0629 02:12:53.961827  1380 net.cpp:129] Top shape: 8 1024 14 14 (1605632)
I0629 02:12:53.961830  1380 net.cpp:137] Memory required for data: 1565491360
I0629 02:12:53.961838  1380 layer_factory.hpp:77] Creating layer res4c
I0629 02:12:53.961844  1380 net.cpp:84] Creating Layer res4c
I0629 02:12:53.961849  1380 net.cpp:406] res4c <- res4b_res4b_relu_0_split_1
I0629 02:12:53.961854  1380 net.cpp:406] res4c <- res4c_branch2c
I0629 02:12:53.961861  1380 net.cpp:380] res4c -> res4c
I0629 02:12:53.961896  1380 net.cpp:122] Setting up res4c
I0629 02:12:53.961910  1380 net.cpp:129] Top shape: 8 1024 14 14 (1605632)
I0629 02:12:53.961915  1380 net.cpp:137] Memory required for data: 1571913888
I0629 02:12:53.961918  1380 layer_factory.hpp:77] Creating layer res4c_relu
I0629 02:12:53.961927  1380 net.cpp:84] Creating Layer res4c_relu
I0629 02:12:53.961932  1380 net.cpp:406] res4c_relu <- res4c
I0629 02:12:53.961937  1380 net.cpp:367] res4c_relu -> res4c (in-place)
I0629 02:12:53.962213  1380 net.cpp:122] Setting up res4c_relu
I0629 02:12:53.962231  1380 net.cpp:129] Top shape: 8 1024 14 14 (1605632)
I0629 02:12:53.962236  1380 net.cpp:137] Memory required for data: 1578336416
I0629 02:12:53.962240  1380 layer_factory.hpp:77] Creating layer res4c_res4c_relu_0_split
I0629 02:12:53.962247  1380 net.cpp:84] Creating Layer res4c_res4c_relu_0_split
I0629 02:12:53.962251  1380 net.cpp:406] res4c_res4c_relu_0_split <- res4c
I0629 02:12:53.962257  1380 net.cpp:380] res4c_res4c_relu_0_split -> res4c_res4c_relu_0_split_0
I0629 02:12:53.962267  1380 net.cpp:380] res4c_res4c_relu_0_split -> res4c_res4c_relu_0_split_1
I0629 02:12:53.962327  1380 net.cpp:122] Setting up res4c_res4c_relu_0_split
I0629 02:12:53.962342  1380 net.cpp:129] Top shape: 8 1024 14 14 (1605632)
I0629 02:12:53.962347  1380 net.cpp:129] Top shape: 8 1024 14 14 (1605632)
I0629 02:12:53.962350  1380 net.cpp:137] Memory required for data: 1591181472
I0629 02:12:53.962363  1380 layer_factory.hpp:77] Creating layer res4d_branch2a
I0629 02:12:53.962375  1380 net.cpp:84] Creating Layer res4d_branch2a
I0629 02:12:53.962381  1380 net.cpp:406] res4d_branch2a <- res4c_res4c_relu_0_split_0
I0629 02:12:53.962407  1380 net.cpp:380] res4d_branch2a -> res4d_branch2a
I0629 02:12:53.964066  1380 net.cpp:122] Setting up res4d_branch2a
I0629 02:12:53.964087  1380 net.cpp:129] Top shape: 8 256 14 14 (401408)
I0629 02:12:53.964092  1380 net.cpp:137] Memory required for data: 1592787104
I0629 02:12:53.964098  1380 layer_factory.hpp:77] Creating layer bn4d_branch2a
I0629 02:12:53.964109  1380 net.cpp:84] Creating Layer bn4d_branch2a
I0629 02:12:53.964113  1380 net.cpp:406] bn4d_branch2a <- res4d_branch2a
I0629 02:12:53.964120  1380 net.cpp:367] bn4d_branch2a -> res4d_branch2a (in-place)
I0629 02:12:53.964377  1380 net.cpp:122] Setting up bn4d_branch2a
I0629 02:12:53.964395  1380 net.cpp:129] Top shape: 8 256 14 14 (401408)
I0629 02:12:53.964397  1380 net.cpp:137] Memory required for data: 1594392736
I0629 02:12:53.964406  1380 layer_factory.hpp:77] Creating layer scale4d_branch2a
I0629 02:12:53.964421  1380 net.cpp:84] Creating Layer scale4d_branch2a
I0629 02:12:53.964432  1380 net.cpp:406] scale4d_branch2a <- res4d_branch2a
I0629 02:12:53.964438  1380 net.cpp:367] scale4d_branch2a -> res4d_branch2a (in-place)
I0629 02:12:53.964519  1380 layer_factory.hpp:77] Creating layer scale4d_branch2a
I0629 02:12:53.964685  1380 net.cpp:122] Setting up scale4d_branch2a
I0629 02:12:53.964701  1380 net.cpp:129] Top shape: 8 256 14 14 (401408)
I0629 02:12:53.964705  1380 net.cpp:137] Memory required for data: 1595998368
I0629 02:12:53.964712  1380 layer_factory.hpp:77] Creating layer res4d_branch2a_relu
I0629 02:12:53.964720  1380 net.cpp:84] Creating Layer res4d_branch2a_relu
I0629 02:12:53.964723  1380 net.cpp:406] res4d_branch2a_relu <- res4d_branch2a
I0629 02:12:53.964731  1380 net.cpp:367] res4d_branch2a_relu -> res4d_branch2a (in-place)
I0629 02:12:53.964900  1380 net.cpp:122] Setting up res4d_branch2a_relu
I0629 02:12:53.964918  1380 net.cpp:129] Top shape: 8 256 14 14 (401408)
I0629 02:12:53.964922  1380 net.cpp:137] Memory required for data: 1597604000
I0629 02:12:53.964926  1380 layer_factory.hpp:77] Creating layer res4d_branch2b
I0629 02:12:53.964939  1380 net.cpp:84] Creating Layer res4d_branch2b
I0629 02:12:53.964944  1380 net.cpp:406] res4d_branch2b <- res4d_branch2a
I0629 02:12:53.964951  1380 net.cpp:380] res4d_branch2b -> res4d_branch2b
I0629 02:12:53.967356  1380 net.cpp:122] Setting up res4d_branch2b
I0629 02:12:53.967378  1380 net.cpp:129] Top shape: 8 256 14 14 (401408)
I0629 02:12:53.967382  1380 net.cpp:137] Memory required for data: 1599209632
I0629 02:12:53.967389  1380 layer_factory.hpp:77] Creating layer bn4d_branch2b
I0629 02:12:53.967399  1380 net.cpp:84] Creating Layer bn4d_branch2b
I0629 02:12:53.967404  1380 net.cpp:406] bn4d_branch2b <- res4d_branch2b
I0629 02:12:53.967412  1380 net.cpp:367] bn4d_branch2b -> res4d_branch2b (in-place)
I0629 02:12:53.967679  1380 net.cpp:122] Setting up bn4d_branch2b
I0629 02:12:53.967695  1380 net.cpp:129] Top shape: 8 256 14 14 (401408)
I0629 02:12:53.967700  1380 net.cpp:137] Memory required for data: 1600815264
I0629 02:12:53.967708  1380 layer_factory.hpp:77] Creating layer scale4d_branch2b
I0629 02:12:53.967718  1380 net.cpp:84] Creating Layer scale4d_branch2b
I0629 02:12:53.967723  1380 net.cpp:406] scale4d_branch2b <- res4d_branch2b
I0629 02:12:53.967728  1380 net.cpp:367] scale4d_branch2b -> res4d_branch2b (in-place)
I0629 02:12:53.967788  1380 layer_factory.hpp:77] Creating layer scale4d_branch2b
I0629 02:12:53.967949  1380 net.cpp:122] Setting up scale4d_branch2b
I0629 02:12:53.967965  1380 net.cpp:129] Top shape: 8 256 14 14 (401408)
I0629 02:12:53.967969  1380 net.cpp:137] Memory required for data: 1602420896
I0629 02:12:53.967977  1380 layer_factory.hpp:77] Creating layer res4d_branch2b_relu
I0629 02:12:53.967983  1380 net.cpp:84] Creating Layer res4d_branch2b_relu
I0629 02:12:53.967988  1380 net.cpp:406] res4d_branch2b_relu <- res4d_branch2b
I0629 02:12:53.967993  1380 net.cpp:367] res4d_branch2b_relu -> res4d_branch2b (in-place)
I0629 02:12:53.968164  1380 net.cpp:122] Setting up res4d_branch2b_relu
I0629 02:12:53.968181  1380 net.cpp:129] Top shape: 8 256 14 14 (401408)
I0629 02:12:53.968201  1380 net.cpp:137] Memory required for data: 1604026528
I0629 02:12:53.968206  1380 layer_factory.hpp:77] Creating layer res4d_branch2c
I0629 02:12:53.968219  1380 net.cpp:84] Creating Layer res4d_branch2c
I0629 02:12:53.968225  1380 net.cpp:406] res4d_branch2c <- res4d_branch2b
I0629 02:12:53.968235  1380 net.cpp:380] res4d_branch2c -> res4d_branch2c
I0629 02:12:53.969882  1380 net.cpp:122] Setting up res4d_branch2c
I0629 02:12:53.969902  1380 net.cpp:129] Top shape: 8 1024 14 14 (1605632)
I0629 02:12:53.969907  1380 net.cpp:137] Memory required for data: 1610449056
I0629 02:12:53.969913  1380 layer_factory.hpp:77] Creating layer bn4d_branch2c
I0629 02:12:53.969923  1380 net.cpp:84] Creating Layer bn4d_branch2c
I0629 02:12:53.969933  1380 net.cpp:406] bn4d_branch2c <- res4d_branch2c
I0629 02:12:53.969938  1380 net.cpp:367] bn4d_branch2c -> res4d_branch2c (in-place)
I0629 02:12:53.970207  1380 net.cpp:122] Setting up bn4d_branch2c
I0629 02:12:53.970223  1380 net.cpp:129] Top shape: 8 1024 14 14 (1605632)
I0629 02:12:53.970227  1380 net.cpp:137] Memory required for data: 1616871584
I0629 02:12:53.970237  1380 layer_factory.hpp:77] Creating layer scale4d_branch2c
I0629 02:12:53.970247  1380 net.cpp:84] Creating Layer scale4d_branch2c
I0629 02:12:53.970252  1380 net.cpp:406] scale4d_branch2c <- res4d_branch2c
I0629 02:12:53.970257  1380 net.cpp:367] scale4d_branch2c -> res4d_branch2c (in-place)
I0629 02:12:53.970310  1380 layer_factory.hpp:77] Creating layer scale4d_branch2c
I0629 02:12:53.970480  1380 net.cpp:122] Setting up scale4d_branch2c
I0629 02:12:53.970496  1380 net.cpp:129] Top shape: 8 1024 14 14 (1605632)
I0629 02:12:53.970500  1380 net.cpp:137] Memory required for data: 1623294112
I0629 02:12:53.970507  1380 layer_factory.hpp:77] Creating layer res4d
I0629 02:12:53.970515  1380 net.cpp:84] Creating Layer res4d
I0629 02:12:53.970520  1380 net.cpp:406] res4d <- res4c_res4c_relu_0_split_1
I0629 02:12:53.970525  1380 net.cpp:406] res4d <- res4d_branch2c
I0629 02:12:53.970532  1380 net.cpp:380] res4d -> res4d
I0629 02:12:53.970567  1380 net.cpp:122] Setting up res4d
I0629 02:12:53.970585  1380 net.cpp:129] Top shape: 8 1024 14 14 (1605632)
I0629 02:12:53.970589  1380 net.cpp:137] Memory required for data: 1629716640
I0629 02:12:53.970593  1380 layer_factory.hpp:77] Creating layer res4d_relu
I0629 02:12:53.970599  1380 net.cpp:84] Creating Layer res4d_relu
I0629 02:12:53.970604  1380 net.cpp:406] res4d_relu <- res4d
I0629 02:12:53.970609  1380 net.cpp:367] res4d_relu -> res4d (in-place)
I0629 02:12:53.970907  1380 net.cpp:122] Setting up res4d_relu
I0629 02:12:53.970927  1380 net.cpp:129] Top shape: 8 1024 14 14 (1605632)
I0629 02:12:53.970932  1380 net.cpp:137] Memory required for data: 1636139168
I0629 02:12:53.970935  1380 layer_factory.hpp:77] Creating layer res4d_res4d_relu_0_split
I0629 02:12:53.970942  1380 net.cpp:84] Creating Layer res4d_res4d_relu_0_split
I0629 02:12:53.970947  1380 net.cpp:406] res4d_res4d_relu_0_split <- res4d
I0629 02:12:53.970955  1380 net.cpp:380] res4d_res4d_relu_0_split -> res4d_res4d_relu_0_split_0
I0629 02:12:53.970963  1380 net.cpp:380] res4d_res4d_relu_0_split -> res4d_res4d_relu_0_split_1
I0629 02:12:53.971019  1380 net.cpp:122] Setting up res4d_res4d_relu_0_split
I0629 02:12:53.971036  1380 net.cpp:129] Top shape: 8 1024 14 14 (1605632)
I0629 02:12:53.971042  1380 net.cpp:129] Top shape: 8 1024 14 14 (1605632)
I0629 02:12:53.971045  1380 net.cpp:137] Memory required for data: 1648984224
I0629 02:12:53.971050  1380 layer_factory.hpp:77] Creating layer res4e_branch2a
I0629 02:12:53.971060  1380 net.cpp:84] Creating Layer res4e_branch2a
I0629 02:12:53.971063  1380 net.cpp:406] res4e_branch2a <- res4d_res4d_relu_0_split_0
I0629 02:12:53.971071  1380 net.cpp:380] res4e_branch2a -> res4e_branch2a
I0629 02:12:53.972743  1380 net.cpp:122] Setting up res4e_branch2a
I0629 02:12:53.972764  1380 net.cpp:129] Top shape: 8 256 14 14 (401408)
I0629 02:12:53.972769  1380 net.cpp:137] Memory required for data: 1650589856
I0629 02:12:53.972774  1380 layer_factory.hpp:77] Creating layer bn4e_branch2a
I0629 02:12:53.972802  1380 net.cpp:84] Creating Layer bn4e_branch2a
I0629 02:12:53.972808  1380 net.cpp:406] bn4e_branch2a <- res4e_branch2a
I0629 02:12:53.972817  1380 net.cpp:367] bn4e_branch2a -> res4e_branch2a (in-place)
I0629 02:12:53.973086  1380 net.cpp:122] Setting up bn4e_branch2a
I0629 02:12:53.973103  1380 net.cpp:129] Top shape: 8 256 14 14 (401408)
I0629 02:12:53.973106  1380 net.cpp:137] Memory required for data: 1652195488
I0629 02:12:53.973115  1380 layer_factory.hpp:77] Creating layer scale4e_branch2a
I0629 02:12:53.973122  1380 net.cpp:84] Creating Layer scale4e_branch2a
I0629 02:12:53.973127  1380 net.cpp:406] scale4e_branch2a <- res4e_branch2a
I0629 02:12:53.973132  1380 net.cpp:367] scale4e_branch2a -> res4e_branch2a (in-place)
I0629 02:12:53.973192  1380 layer_factory.hpp:77] Creating layer scale4e_branch2a
I0629 02:12:53.973366  1380 net.cpp:122] Setting up scale4e_branch2a
I0629 02:12:53.973381  1380 net.cpp:129] Top shape: 8 256 14 14 (401408)
I0629 02:12:53.973386  1380 net.cpp:137] Memory required for data: 1653801120
I0629 02:12:53.973392  1380 layer_factory.hpp:77] Creating layer res4e_branch2a_relu
I0629 02:12:53.973399  1380 net.cpp:84] Creating Layer res4e_branch2a_relu
I0629 02:12:53.973403  1380 net.cpp:406] res4e_branch2a_relu <- res4e_branch2a
I0629 02:12:53.973412  1380 net.cpp:367] res4e_branch2a_relu -> res4e_branch2a (in-place)
I0629 02:12:53.973580  1380 net.cpp:122] Setting up res4e_branch2a_relu
I0629 02:12:53.973598  1380 net.cpp:129] Top shape: 8 256 14 14 (401408)
I0629 02:12:53.973601  1380 net.cpp:137] Memory required for data: 1655406752
I0629 02:12:53.973605  1380 layer_factory.hpp:77] Creating layer res4e_branch2b
I0629 02:12:53.973618  1380 net.cpp:84] Creating Layer res4e_branch2b
I0629 02:12:53.973623  1380 net.cpp:406] res4e_branch2b <- res4e_branch2a
I0629 02:12:53.973630  1380 net.cpp:380] res4e_branch2b -> res4e_branch2b
I0629 02:12:53.976028  1380 net.cpp:122] Setting up res4e_branch2b
I0629 02:12:53.976042  1380 net.cpp:129] Top shape: 8 256 14 14 (401408)
I0629 02:12:53.976047  1380 net.cpp:137] Memory required for data: 1657012384
I0629 02:12:53.976052  1380 layer_factory.hpp:77] Creating layer bn4e_branch2b
I0629 02:12:53.976060  1380 net.cpp:84] Creating Layer bn4e_branch2b
I0629 02:12:53.976065  1380 net.cpp:406] bn4e_branch2b <- res4e_branch2b
I0629 02:12:53.976073  1380 net.cpp:367] bn4e_branch2b -> res4e_branch2b (in-place)
I0629 02:12:53.976341  1380 net.cpp:122] Setting up bn4e_branch2b
I0629 02:12:53.976349  1380 net.cpp:129] Top shape: 8 256 14 14 (401408)
I0629 02:12:53.976352  1380 net.cpp:137] Memory required for data: 1658618016
I0629 02:12:53.976361  1380 layer_factory.hpp:77] Creating layer scale4e_branch2b
I0629 02:12:53.976369  1380 net.cpp:84] Creating Layer scale4e_branch2b
I0629 02:12:53.976373  1380 net.cpp:406] scale4e_branch2b <- res4e_branch2b
I0629 02:12:53.976378  1380 net.cpp:367] scale4e_branch2b -> res4e_branch2b (in-place)
I0629 02:12:53.976440  1380 layer_factory.hpp:77] Creating layer scale4e_branch2b
I0629 02:12:53.976608  1380 net.cpp:122] Setting up scale4e_branch2b
I0629 02:12:53.976616  1380 net.cpp:129] Top shape: 8 256 14 14 (401408)
I0629 02:12:53.976619  1380 net.cpp:137] Memory required for data: 1660223648
I0629 02:12:53.976626  1380 layer_factory.hpp:77] Creating layer res4e_branch2b_relu
I0629 02:12:53.976634  1380 net.cpp:84] Creating Layer res4e_branch2b_relu
I0629 02:12:53.976637  1380 net.cpp:406] res4e_branch2b_relu <- res4e_branch2b
I0629 02:12:53.976644  1380 net.cpp:367] res4e_branch2b_relu -> res4e_branch2b (in-place)
I0629 02:12:53.976809  1380 net.cpp:122] Setting up res4e_branch2b_relu
I0629 02:12:53.976819  1380 net.cpp:129] Top shape: 8 256 14 14 (401408)
I0629 02:12:53.976822  1380 net.cpp:137] Memory required for data: 1661829280
I0629 02:12:53.976826  1380 layer_factory.hpp:77] Creating layer res4e_branch2c
I0629 02:12:53.976838  1380 net.cpp:84] Creating Layer res4e_branch2c
I0629 02:12:53.976843  1380 net.cpp:406] res4e_branch2c <- res4e_branch2b
I0629 02:12:53.976866  1380 net.cpp:380] res4e_branch2c -> res4e_branch2c
I0629 02:12:53.978487  1380 net.cpp:122] Setting up res4e_branch2c
I0629 02:12:53.978499  1380 net.cpp:129] Top shape: 8 1024 14 14 (1605632)
I0629 02:12:53.978503  1380 net.cpp:137] Memory required for data: 1668251808
I0629 02:12:53.978510  1380 layer_factory.hpp:77] Creating layer bn4e_branch2c
I0629 02:12:53.978518  1380 net.cpp:84] Creating Layer bn4e_branch2c
I0629 02:12:53.978523  1380 net.cpp:406] bn4e_branch2c <- res4e_branch2c
I0629 02:12:53.978533  1380 net.cpp:367] bn4e_branch2c -> res4e_branch2c (in-place)
I0629 02:12:53.978826  1380 net.cpp:122] Setting up bn4e_branch2c
I0629 02:12:53.978835  1380 net.cpp:129] Top shape: 8 1024 14 14 (1605632)
I0629 02:12:53.978839  1380 net.cpp:137] Memory required for data: 1674674336
I0629 02:12:53.978848  1380 layer_factory.hpp:77] Creating layer scale4e_branch2c
I0629 02:12:53.978857  1380 net.cpp:84] Creating Layer scale4e_branch2c
I0629 02:12:53.978860  1380 net.cpp:406] scale4e_branch2c <- res4e_branch2c
I0629 02:12:53.978866  1380 net.cpp:367] scale4e_branch2c -> res4e_branch2c (in-place)
I0629 02:12:53.978922  1380 layer_factory.hpp:77] Creating layer scale4e_branch2c
I0629 02:12:53.979084  1380 net.cpp:122] Setting up scale4e_branch2c
I0629 02:12:53.979094  1380 net.cpp:129] Top shape: 8 1024 14 14 (1605632)
I0629 02:12:53.979097  1380 net.cpp:137] Memory required for data: 1681096864
I0629 02:12:53.979104  1380 layer_factory.hpp:77] Creating layer res4e
I0629 02:12:53.979111  1380 net.cpp:84] Creating Layer res4e
I0629 02:12:53.979115  1380 net.cpp:406] res4e <- res4d_res4d_relu_0_split_1
I0629 02:12:53.979120  1380 net.cpp:406] res4e <- res4e_branch2c
I0629 02:12:53.979128  1380 net.cpp:380] res4e -> res4e
I0629 02:12:53.979166  1380 net.cpp:122] Setting up res4e
I0629 02:12:53.979174  1380 net.cpp:129] Top shape: 8 1024 14 14 (1605632)
I0629 02:12:53.979178  1380 net.cpp:137] Memory required for data: 1687519392
I0629 02:12:53.979182  1380 layer_factory.hpp:77] Creating layer res4e_relu
I0629 02:12:53.979192  1380 net.cpp:84] Creating Layer res4e_relu
I0629 02:12:53.979197  1380 net.cpp:406] res4e_relu <- res4e
I0629 02:12:53.979202  1380 net.cpp:367] res4e_relu -> res4e (in-place)
I0629 02:12:53.979482  1380 net.cpp:122] Setting up res4e_relu
I0629 02:12:53.979493  1380 net.cpp:129] Top shape: 8 1024 14 14 (1605632)
I0629 02:12:53.979497  1380 net.cpp:137] Memory required for data: 1693941920
I0629 02:12:53.979501  1380 layer_factory.hpp:77] Creating layer res4e_res4e_relu_0_split
I0629 02:12:53.979508  1380 net.cpp:84] Creating Layer res4e_res4e_relu_0_split
I0629 02:12:53.979512  1380 net.cpp:406] res4e_res4e_relu_0_split <- res4e
I0629 02:12:53.979521  1380 net.cpp:380] res4e_res4e_relu_0_split -> res4e_res4e_relu_0_split_0
I0629 02:12:53.979528  1380 net.cpp:380] res4e_res4e_relu_0_split -> res4e_res4e_relu_0_split_1
I0629 02:12:53.979588  1380 net.cpp:122] Setting up res4e_res4e_relu_0_split
I0629 02:12:53.979595  1380 net.cpp:129] Top shape: 8 1024 14 14 (1605632)
I0629 02:12:53.979600  1380 net.cpp:129] Top shape: 8 1024 14 14 (1605632)
I0629 02:12:53.979604  1380 net.cpp:137] Memory required for data: 1706786976
I0629 02:12:53.979607  1380 layer_factory.hpp:77] Creating layer res4f_branch2a
I0629 02:12:53.979621  1380 net.cpp:84] Creating Layer res4f_branch2a
I0629 02:12:53.979626  1380 net.cpp:406] res4f_branch2a <- res4e_res4e_relu_0_split_0
I0629 02:12:53.979634  1380 net.cpp:380] res4f_branch2a -> res4f_branch2a
I0629 02:12:53.981348  1380 net.cpp:122] Setting up res4f_branch2a
I0629 02:12:53.981360  1380 net.cpp:129] Top shape: 8 256 14 14 (401408)
I0629 02:12:53.981364  1380 net.cpp:137] Memory required for data: 1708392608
I0629 02:12:53.981371  1380 layer_factory.hpp:77] Creating layer bn4f_branch2a
I0629 02:12:53.981379  1380 net.cpp:84] Creating Layer bn4f_branch2a
I0629 02:12:53.981384  1380 net.cpp:406] bn4f_branch2a <- res4f_branch2a
I0629 02:12:53.981391  1380 net.cpp:367] bn4f_branch2a -> res4f_branch2a (in-place)
I0629 02:12:53.981673  1380 net.cpp:122] Setting up bn4f_branch2a
I0629 02:12:53.981699  1380 net.cpp:129] Top shape: 8 256 14 14 (401408)
I0629 02:12:53.981703  1380 net.cpp:137] Memory required for data: 1709998240
I0629 02:12:53.981712  1380 layer_factory.hpp:77] Creating layer scale4f_branch2a
I0629 02:12:53.981721  1380 net.cpp:84] Creating Layer scale4f_branch2a
I0629 02:12:53.981725  1380 net.cpp:406] scale4f_branch2a <- res4f_branch2a
I0629 02:12:53.981731  1380 net.cpp:367] scale4f_branch2a -> res4f_branch2a (in-place)
I0629 02:12:53.981793  1380 layer_factory.hpp:77] Creating layer scale4f_branch2a
I0629 02:12:53.981952  1380 net.cpp:122] Setting up scale4f_branch2a
I0629 02:12:53.981961  1380 net.cpp:129] Top shape: 8 256 14 14 (401408)
I0629 02:12:53.981964  1380 net.cpp:137] Memory required for data: 1711603872
I0629 02:12:53.981971  1380 layer_factory.hpp:77] Creating layer res4f_branch2a_relu
I0629 02:12:53.981978  1380 net.cpp:84] Creating Layer res4f_branch2a_relu
I0629 02:12:53.981982  1380 net.cpp:406] res4f_branch2a_relu <- res4f_branch2a
I0629 02:12:53.981989  1380 net.cpp:367] res4f_branch2a_relu -> res4f_branch2a (in-place)
I0629 02:12:53.982158  1380 net.cpp:122] Setting up res4f_branch2a_relu
I0629 02:12:53.982168  1380 net.cpp:129] Top shape: 8 256 14 14 (401408)
I0629 02:12:53.982172  1380 net.cpp:137] Memory required for data: 1713209504
I0629 02:12:53.982177  1380 layer_factory.hpp:77] Creating layer res4f_branch2b
I0629 02:12:53.982188  1380 net.cpp:84] Creating Layer res4f_branch2b
I0629 02:12:53.982193  1380 net.cpp:406] res4f_branch2b <- res4f_branch2a
I0629 02:12:53.982201  1380 net.cpp:380] res4f_branch2b -> res4f_branch2b
I0629 02:12:53.984596  1380 net.cpp:122] Setting up res4f_branch2b
I0629 02:12:53.984611  1380 net.cpp:129] Top shape: 8 256 14 14 (401408)
I0629 02:12:53.984614  1380 net.cpp:137] Memory required for data: 1714815136
I0629 02:12:53.984622  1380 layer_factory.hpp:77] Creating layer bn4f_branch2b
I0629 02:12:53.984629  1380 net.cpp:84] Creating Layer bn4f_branch2b
I0629 02:12:53.984634  1380 net.cpp:406] bn4f_branch2b <- res4f_branch2b
I0629 02:12:53.984640  1380 net.cpp:367] bn4f_branch2b -> res4f_branch2b (in-place)
I0629 02:12:53.984957  1380 net.cpp:122] Setting up bn4f_branch2b
I0629 02:12:53.984968  1380 net.cpp:129] Top shape: 8 256 14 14 (401408)
I0629 02:12:53.984972  1380 net.cpp:137] Memory required for data: 1716420768
I0629 02:12:53.984982  1380 layer_factory.hpp:77] Creating layer scale4f_branch2b
I0629 02:12:53.984989  1380 net.cpp:84] Creating Layer scale4f_branch2b
I0629 02:12:53.984993  1380 net.cpp:406] scale4f_branch2b <- res4f_branch2b
I0629 02:12:53.984999  1380 net.cpp:367] scale4f_branch2b -> res4f_branch2b (in-place)
I0629 02:12:53.985062  1380 layer_factory.hpp:77] Creating layer scale4f_branch2b
I0629 02:12:53.985224  1380 net.cpp:122] Setting up scale4f_branch2b
I0629 02:12:53.985231  1380 net.cpp:129] Top shape: 8 256 14 14 (401408)
I0629 02:12:53.985235  1380 net.cpp:137] Memory required for data: 1718026400
I0629 02:12:53.985242  1380 layer_factory.hpp:77] Creating layer res4f_branch2b_relu
I0629 02:12:53.985251  1380 net.cpp:84] Creating Layer res4f_branch2b_relu
I0629 02:12:53.985255  1380 net.cpp:406] res4f_branch2b_relu <- res4f_branch2b
I0629 02:12:53.985261  1380 net.cpp:367] res4f_branch2b_relu -> res4f_branch2b (in-place)
I0629 02:12:53.985430  1380 net.cpp:122] Setting up res4f_branch2b_relu
I0629 02:12:53.985440  1380 net.cpp:129] Top shape: 8 256 14 14 (401408)
I0629 02:12:53.985442  1380 net.cpp:137] Memory required for data: 1719632032
I0629 02:12:53.985447  1380 layer_factory.hpp:77] Creating layer res4f_branch2c
I0629 02:12:53.985463  1380 net.cpp:84] Creating Layer res4f_branch2c
I0629 02:12:53.985468  1380 net.cpp:406] res4f_branch2c <- res4f_branch2b
I0629 02:12:53.985482  1380 net.cpp:380] res4f_branch2c -> res4f_branch2c
I0629 02:12:53.987167  1380 net.cpp:122] Setting up res4f_branch2c
I0629 02:12:53.987180  1380 net.cpp:129] Top shape: 8 1024 14 14 (1605632)
I0629 02:12:53.987185  1380 net.cpp:137] Memory required for data: 1726054560
I0629 02:12:53.987190  1380 layer_factory.hpp:77] Creating layer bn4f_branch2c
I0629 02:12:53.987211  1380 net.cpp:84] Creating Layer bn4f_branch2c
I0629 02:12:53.987217  1380 net.cpp:406] bn4f_branch2c <- res4f_branch2c
I0629 02:12:53.987226  1380 net.cpp:367] bn4f_branch2c -> res4f_branch2c (in-place)
I0629 02:12:53.987505  1380 net.cpp:122] Setting up bn4f_branch2c
I0629 02:12:53.987514  1380 net.cpp:129] Top shape: 8 1024 14 14 (1605632)
I0629 02:12:53.987519  1380 net.cpp:137] Memory required for data: 1732477088
I0629 02:12:53.987589  1380 layer_factory.hpp:77] Creating layer scale4f_branch2c
I0629 02:12:53.987601  1380 net.cpp:84] Creating Layer scale4f_branch2c
I0629 02:12:53.987607  1380 net.cpp:406] scale4f_branch2c <- res4f_branch2c
I0629 02:12:53.987612  1380 net.cpp:367] scale4f_branch2c -> res4f_branch2c (in-place)
I0629 02:12:53.987676  1380 layer_factory.hpp:77] Creating layer scale4f_branch2c
I0629 02:12:53.987841  1380 net.cpp:122] Setting up scale4f_branch2c
I0629 02:12:53.987850  1380 net.cpp:129] Top shape: 8 1024 14 14 (1605632)
I0629 02:12:53.987854  1380 net.cpp:137] Memory required for data: 1738899616
I0629 02:12:53.987861  1380 layer_factory.hpp:77] Creating layer res4f
I0629 02:12:53.987869  1380 net.cpp:84] Creating Layer res4f
I0629 02:12:53.987872  1380 net.cpp:406] res4f <- res4e_res4e_relu_0_split_1
I0629 02:12:53.987877  1380 net.cpp:406] res4f <- res4f_branch2c
I0629 02:12:53.987884  1380 net.cpp:380] res4f -> res4f
I0629 02:12:53.987921  1380 net.cpp:122] Setting up res4f
I0629 02:12:53.987931  1380 net.cpp:129] Top shape: 8 1024 14 14 (1605632)
I0629 02:12:53.987936  1380 net.cpp:137] Memory required for data: 1745322144
I0629 02:12:53.987939  1380 layer_factory.hpp:77] Creating layer res4f_relu
I0629 02:12:53.987946  1380 net.cpp:84] Creating Layer res4f_relu
I0629 02:12:53.987951  1380 net.cpp:406] res4f_relu <- res4f
I0629 02:12:53.987956  1380 net.cpp:367] res4f_relu -> res4f (in-place)
I0629 02:12:53.988250  1380 net.cpp:122] Setting up res4f_relu
I0629 02:12:53.988261  1380 net.cpp:129] Top shape: 8 1024 14 14 (1605632)
I0629 02:12:53.988265  1380 net.cpp:137] Memory required for data: 1751744672
I0629 02:12:53.988270  1380 layer_factory.hpp:77] Creating layer res4f_res4f_relu_0_split
I0629 02:12:53.988276  1380 net.cpp:84] Creating Layer res4f_res4f_relu_0_split
I0629 02:12:53.988281  1380 net.cpp:406] res4f_res4f_relu_0_split <- res4f
I0629 02:12:53.988289  1380 net.cpp:380] res4f_res4f_relu_0_split -> res4f_res4f_relu_0_split_0
I0629 02:12:53.988296  1380 net.cpp:380] res4f_res4f_relu_0_split -> res4f_res4f_relu_0_split_1
I0629 02:12:53.988353  1380 net.cpp:122] Setting up res4f_res4f_relu_0_split
I0629 02:12:53.988361  1380 net.cpp:129] Top shape: 8 1024 14 14 (1605632)
I0629 02:12:53.988368  1380 net.cpp:129] Top shape: 8 1024 14 14 (1605632)
I0629 02:12:53.988371  1380 net.cpp:137] Memory required for data: 1764589728
I0629 02:12:53.988375  1380 layer_factory.hpp:77] Creating layer res5a_branch1
I0629 02:12:53.988384  1380 net.cpp:84] Creating Layer res5a_branch1
I0629 02:12:53.988389  1380 net.cpp:406] res5a_branch1 <- res4f_res4f_relu_0_split_0
I0629 02:12:53.988397  1380 net.cpp:380] res5a_branch1 -> res5a_branch1
I0629 02:12:53.994055  1380 net.cpp:122] Setting up res5a_branch1
I0629 02:12:53.994072  1380 net.cpp:129] Top shape: 8 2048 7 7 (802816)
I0629 02:12:53.994077  1380 net.cpp:137] Memory required for data: 1767800992
I0629 02:12:53.994086  1380 layer_factory.hpp:77] Creating layer bn5a_branch1
I0629 02:12:53.994096  1380 net.cpp:84] Creating Layer bn5a_branch1
I0629 02:12:53.994102  1380 net.cpp:406] bn5a_branch1 <- res5a_branch1
I0629 02:12:53.994110  1380 net.cpp:367] bn5a_branch1 -> res5a_branch1 (in-place)
I0629 02:12:53.994426  1380 net.cpp:122] Setting up bn5a_branch1
I0629 02:12:53.994436  1380 net.cpp:129] Top shape: 8 2048 7 7 (802816)
I0629 02:12:53.994439  1380 net.cpp:137] Memory required for data: 1771012256
I0629 02:12:53.994448  1380 layer_factory.hpp:77] Creating layer scale5a_branch1
I0629 02:12:53.994457  1380 net.cpp:84] Creating Layer scale5a_branch1
I0629 02:12:53.994460  1380 net.cpp:406] scale5a_branch1 <- res5a_branch1
I0629 02:12:53.994482  1380 net.cpp:367] scale5a_branch1 -> res5a_branch1 (in-place)
I0629 02:12:53.994546  1380 layer_factory.hpp:77] Creating layer scale5a_branch1
I0629 02:12:53.994720  1380 net.cpp:122] Setting up scale5a_branch1
I0629 02:12:53.994729  1380 net.cpp:129] Top shape: 8 2048 7 7 (802816)
I0629 02:12:53.994734  1380 net.cpp:137] Memory required for data: 1774223520
I0629 02:12:53.994740  1380 layer_factory.hpp:77] Creating layer res5a_branch2a
I0629 02:12:53.994752  1380 net.cpp:84] Creating Layer res5a_branch2a
I0629 02:12:53.994772  1380 net.cpp:406] res5a_branch2a <- res4f_res4f_relu_0_split_1
I0629 02:12:53.994782  1380 net.cpp:380] res5a_branch2a -> res5a_branch2a
I0629 02:12:53.996896  1380 net.cpp:122] Setting up res5a_branch2a
I0629 02:12:53.996909  1380 net.cpp:129] Top shape: 8 512 7 7 (200704)
I0629 02:12:53.996913  1380 net.cpp:137] Memory required for data: 1775026336
I0629 02:12:53.996919  1380 layer_factory.hpp:77] Creating layer bn5a_branch2a
I0629 02:12:53.996930  1380 net.cpp:84] Creating Layer bn5a_branch2a
I0629 02:12:53.996935  1380 net.cpp:406] bn5a_branch2a <- res5a_branch2a
I0629 02:12:53.996942  1380 net.cpp:367] bn5a_branch2a -> res5a_branch2a (in-place)
I0629 02:12:53.997234  1380 net.cpp:122] Setting up bn5a_branch2a
I0629 02:12:53.997244  1380 net.cpp:129] Top shape: 8 512 7 7 (200704)
I0629 02:12:53.997248  1380 net.cpp:137] Memory required for data: 1775829152
I0629 02:12:53.997256  1380 layer_factory.hpp:77] Creating layer scale5a_branch2a
I0629 02:12:53.997265  1380 net.cpp:84] Creating Layer scale5a_branch2a
I0629 02:12:53.997270  1380 net.cpp:406] scale5a_branch2a <- res5a_branch2a
I0629 02:12:53.997277  1380 net.cpp:367] scale5a_branch2a -> res5a_branch2a (in-place)
I0629 02:12:53.997335  1380 layer_factory.hpp:77] Creating layer scale5a_branch2a
I0629 02:12:53.997511  1380 net.cpp:122] Setting up scale5a_branch2a
I0629 02:12:53.997520  1380 net.cpp:129] Top shape: 8 512 7 7 (200704)
I0629 02:12:53.997524  1380 net.cpp:137] Memory required for data: 1776631968
I0629 02:12:53.997531  1380 layer_factory.hpp:77] Creating layer res5a_branch2a_relu
I0629 02:12:53.997539  1380 net.cpp:84] Creating Layer res5a_branch2a_relu
I0629 02:12:53.997544  1380 net.cpp:406] res5a_branch2a_relu <- res5a_branch2a
I0629 02:12:53.997550  1380 net.cpp:367] res5a_branch2a_relu -> res5a_branch2a (in-place)
I0629 02:12:53.997843  1380 net.cpp:122] Setting up res5a_branch2a_relu
I0629 02:12:53.997854  1380 net.cpp:129] Top shape: 8 512 7 7 (200704)
I0629 02:12:53.997867  1380 net.cpp:137] Memory required for data: 1777434784
I0629 02:12:53.997871  1380 layer_factory.hpp:77] Creating layer res5a_branch2b
I0629 02:12:53.997881  1380 net.cpp:84] Creating Layer res5a_branch2b
I0629 02:12:53.997886  1380 net.cpp:406] res5a_branch2b <- res5a_branch2a
I0629 02:12:53.997895  1380 net.cpp:380] res5a_branch2b -> res5a_branch2b
I0629 02:12:54.004132  1380 net.cpp:122] Setting up res5a_branch2b
I0629 02:12:54.004153  1380 net.cpp:129] Top shape: 8 512 7 7 (200704)
I0629 02:12:54.004158  1380 net.cpp:137] Memory required for data: 1778237600
I0629 02:12:54.004165  1380 layer_factory.hpp:77] Creating layer bn5a_branch2b
I0629 02:12:54.004175  1380 net.cpp:84] Creating Layer bn5a_branch2b
I0629 02:12:54.004180  1380 net.cpp:406] bn5a_branch2b <- res5a_branch2b
I0629 02:12:54.004190  1380 net.cpp:367] bn5a_branch2b -> res5a_branch2b (in-place)
I0629 02:12:54.004488  1380 net.cpp:122] Setting up bn5a_branch2b
I0629 02:12:54.004498  1380 net.cpp:129] Top shape: 8 512 7 7 (200704)
I0629 02:12:54.004501  1380 net.cpp:137] Memory required for data: 1779040416
I0629 02:12:54.004510  1380 layer_factory.hpp:77] Creating layer scale5a_branch2b
I0629 02:12:54.004519  1380 net.cpp:84] Creating Layer scale5a_branch2b
I0629 02:12:54.004524  1380 net.cpp:406] scale5a_branch2b <- res5a_branch2b
I0629 02:12:54.004529  1380 net.cpp:367] scale5a_branch2b -> res5a_branch2b (in-place)
I0629 02:12:54.004591  1380 layer_factory.hpp:77] Creating layer scale5a_branch2b
I0629 02:12:54.004765  1380 net.cpp:122] Setting up scale5a_branch2b
I0629 02:12:54.004794  1380 net.cpp:129] Top shape: 8 512 7 7 (200704)
I0629 02:12:54.004799  1380 net.cpp:137] Memory required for data: 1779843232
I0629 02:12:54.004806  1380 layer_factory.hpp:77] Creating layer res5a_branch2b_relu
I0629 02:12:54.004813  1380 net.cpp:84] Creating Layer res5a_branch2b_relu
I0629 02:12:54.004818  1380 net.cpp:406] res5a_branch2b_relu <- res5a_branch2b
I0629 02:12:54.004829  1380 net.cpp:367] res5a_branch2b_relu -> res5a_branch2b (in-place)
I0629 02:12:54.005024  1380 net.cpp:122] Setting up res5a_branch2b_relu
I0629 02:12:54.005035  1380 net.cpp:129] Top shape: 8 512 7 7 (200704)
I0629 02:12:54.005039  1380 net.cpp:137] Memory required for data: 1780646048
I0629 02:12:54.005043  1380 layer_factory.hpp:77] Creating layer res5a_branch2c
I0629 02:12:54.005056  1380 net.cpp:84] Creating Layer res5a_branch2c
I0629 02:12:54.005061  1380 net.cpp:406] res5a_branch2c <- res5a_branch2b
I0629 02:12:54.005069  1380 net.cpp:380] res5a_branch2c -> res5a_branch2c
I0629 02:12:54.008502  1380 net.cpp:122] Setting up res5a_branch2c
I0629 02:12:54.008515  1380 net.cpp:129] Top shape: 8 2048 7 7 (802816)
I0629 02:12:54.008520  1380 net.cpp:137] Memory required for data: 1783857312
I0629 02:12:54.008527  1380 layer_factory.hpp:77] Creating layer bn5a_branch2c
I0629 02:12:54.008536  1380 net.cpp:84] Creating Layer bn5a_branch2c
I0629 02:12:54.008541  1380 net.cpp:406] bn5a_branch2c <- res5a_branch2c
I0629 02:12:54.008555  1380 net.cpp:367] bn5a_branch2c -> res5a_branch2c (in-place)
I0629 02:12:54.008859  1380 net.cpp:122] Setting up bn5a_branch2c
I0629 02:12:54.008869  1380 net.cpp:129] Top shape: 8 2048 7 7 (802816)
I0629 02:12:54.008872  1380 net.cpp:137] Memory required for data: 1787068576
I0629 02:12:54.008882  1380 layer_factory.hpp:77] Creating layer scale5a_branch2c
I0629 02:12:54.008890  1380 net.cpp:84] Creating Layer scale5a_branch2c
I0629 02:12:54.008894  1380 net.cpp:406] scale5a_branch2c <- res5a_branch2c
I0629 02:12:54.008899  1380 net.cpp:367] scale5a_branch2c -> res5a_branch2c (in-place)
I0629 02:12:54.008961  1380 layer_factory.hpp:77] Creating layer scale5a_branch2c
I0629 02:12:54.009145  1380 net.cpp:122] Setting up scale5a_branch2c
I0629 02:12:54.009153  1380 net.cpp:129] Top shape: 8 2048 7 7 (802816)
I0629 02:12:54.009157  1380 net.cpp:137] Memory required for data: 1790279840
I0629 02:12:54.009165  1380 layer_factory.hpp:77] Creating layer res5a
I0629 02:12:54.009174  1380 net.cpp:84] Creating Layer res5a
I0629 02:12:54.009179  1380 net.cpp:406] res5a <- res5a_branch1
I0629 02:12:54.009184  1380 net.cpp:406] res5a <- res5a_branch2c
I0629 02:12:54.009191  1380 net.cpp:380] res5a -> res5a
I0629 02:12:54.009228  1380 net.cpp:122] Setting up res5a
I0629 02:12:54.009237  1380 net.cpp:129] Top shape: 8 2048 7 7 (802816)
I0629 02:12:54.009240  1380 net.cpp:137] Memory required for data: 1793491104
I0629 02:12:54.009244  1380 layer_factory.hpp:77] Creating layer res5a_relu
I0629 02:12:54.009253  1380 net.cpp:84] Creating Layer res5a_relu
I0629 02:12:54.009258  1380 net.cpp:406] res5a_relu <- res5a
I0629 02:12:54.009263  1380 net.cpp:367] res5a_relu -> res5a (in-place)
I0629 02:12:54.009551  1380 net.cpp:122] Setting up res5a_relu
I0629 02:12:54.009562  1380 net.cpp:129] Top shape: 8 2048 7 7 (802816)
I0629 02:12:54.009565  1380 net.cpp:137] Memory required for data: 1796702368
I0629 02:12:54.009569  1380 layer_factory.hpp:77] Creating layer res5a_res5a_relu_0_split
I0629 02:12:54.009577  1380 net.cpp:84] Creating Layer res5a_res5a_relu_0_split
I0629 02:12:54.009582  1380 net.cpp:406] res5a_res5a_relu_0_split <- res5a
I0629 02:12:54.009591  1380 net.cpp:380] res5a_res5a_relu_0_split -> res5a_res5a_relu_0_split_0
I0629 02:12:54.009599  1380 net.cpp:380] res5a_res5a_relu_0_split -> res5a_res5a_relu_0_split_1
I0629 02:12:54.009663  1380 net.cpp:122] Setting up res5a_res5a_relu_0_split
I0629 02:12:54.009672  1380 net.cpp:129] Top shape: 8 2048 7 7 (802816)
I0629 02:12:54.009677  1380 net.cpp:129] Top shape: 8 2048 7 7 (802816)
I0629 02:12:54.009680  1380 net.cpp:137] Memory required for data: 1803124896
I0629 02:12:54.009698  1380 layer_factory.hpp:77] Creating layer my_res5b_branch2a
I0629 02:12:54.009713  1380 net.cpp:84] Creating Layer my_res5b_branch2a
I0629 02:12:54.009718  1380 net.cpp:406] my_res5b_branch2a <- res5a_res5a_relu_0_split_0
I0629 02:12:54.009727  1380 net.cpp:380] my_res5b_branch2a -> my_res5b_branch2a
I0629 02:12:54.012948  1380 net.cpp:122] Setting up my_res5b_branch2a
I0629 02:12:54.012962  1380 net.cpp:129] Top shape: 8 512 7 7 (200704)
I0629 02:12:54.012966  1380 net.cpp:137] Memory required for data: 1803927712
I0629 02:12:54.012972  1380 layer_factory.hpp:77] Creating layer my_bn5b_branch2a
I0629 02:12:54.012984  1380 net.cpp:84] Creating Layer my_bn5b_branch2a
I0629 02:12:54.012989  1380 net.cpp:406] my_bn5b_branch2a <- my_res5b_branch2a
I0629 02:12:54.012995  1380 net.cpp:367] my_bn5b_branch2a -> my_res5b_branch2a (in-place)
I0629 02:12:54.013305  1380 net.cpp:122] Setting up my_bn5b_branch2a
I0629 02:12:54.013314  1380 net.cpp:129] Top shape: 8 512 7 7 (200704)
I0629 02:12:54.013319  1380 net.cpp:137] Memory required for data: 1804730528
I0629 02:12:54.013327  1380 layer_factory.hpp:77] Creating layer my_scale5b_branch2a
I0629 02:12:54.013335  1380 net.cpp:84] Creating Layer my_scale5b_branch2a
I0629 02:12:54.013339  1380 net.cpp:406] my_scale5b_branch2a <- my_res5b_branch2a
I0629 02:12:54.013345  1380 net.cpp:367] my_scale5b_branch2a -> my_res5b_branch2a (in-place)
I0629 02:12:54.013404  1380 layer_factory.hpp:77] Creating layer my_scale5b_branch2a
I0629 02:12:54.013581  1380 net.cpp:122] Setting up my_scale5b_branch2a
I0629 02:12:54.013591  1380 net.cpp:129] Top shape: 8 512 7 7 (200704)
I0629 02:12:54.013593  1380 net.cpp:137] Memory required for data: 1805533344
I0629 02:12:54.013600  1380 layer_factory.hpp:77] Creating layer my_res5b_branch2a_relu
I0629 02:12:54.013618  1380 net.cpp:84] Creating Layer my_res5b_branch2a_relu
I0629 02:12:54.013622  1380 net.cpp:406] my_res5b_branch2a_relu <- my_res5b_branch2a
I0629 02:12:54.013628  1380 net.cpp:367] my_res5b_branch2a_relu -> my_res5b_branch2a (in-place)
I0629 02:12:54.013929  1380 net.cpp:122] Setting up my_res5b_branch2a_relu
I0629 02:12:54.013941  1380 net.cpp:129] Top shape: 8 512 7 7 (200704)
I0629 02:12:54.013944  1380 net.cpp:137] Memory required for data: 1806336160
I0629 02:12:54.013948  1380 layer_factory.hpp:77] Creating layer my_res5b_branch2b
I0629 02:12:54.013960  1380 net.cpp:84] Creating Layer my_res5b_branch2b
I0629 02:12:54.013965  1380 net.cpp:406] my_res5b_branch2b <- my_res5b_branch2a
I0629 02:12:54.013972  1380 net.cpp:380] my_res5b_branch2b -> my_res5b_branch2b
I0629 02:12:54.020308  1380 net.cpp:122] Setting up my_res5b_branch2b
I0629 02:12:54.020323  1380 net.cpp:129] Top shape: 8 512 7 7 (200704)
I0629 02:12:54.020326  1380 net.cpp:137] Memory required for data: 1807138976
I0629 02:12:54.020334  1380 layer_factory.hpp:77] Creating layer my_bn5b_branch2b
I0629 02:12:54.020344  1380 net.cpp:84] Creating Layer my_bn5b_branch2b
I0629 02:12:54.020349  1380 net.cpp:406] my_bn5b_branch2b <- my_res5b_branch2b
I0629 02:12:54.020356  1380 net.cpp:367] my_bn5b_branch2b -> my_res5b_branch2b (in-place)
I0629 02:12:54.020663  1380 net.cpp:122] Setting up my_bn5b_branch2b
I0629 02:12:54.020673  1380 net.cpp:129] Top shape: 8 512 7 7 (200704)
I0629 02:12:54.020678  1380 net.cpp:137] Memory required for data: 1807941792
I0629 02:12:54.020686  1380 layer_factory.hpp:77] Creating layer my_scale5b_branch2b
I0629 02:12:54.020694  1380 net.cpp:84] Creating Layer my_scale5b_branch2b
I0629 02:12:54.020699  1380 net.cpp:406] my_scale5b_branch2b <- my_res5b_branch2b
I0629 02:12:54.020706  1380 net.cpp:367] my_scale5b_branch2b -> my_res5b_branch2b (in-place)
I0629 02:12:54.020764  1380 layer_factory.hpp:77] Creating layer my_scale5b_branch2b
I0629 02:12:54.020944  1380 net.cpp:122] Setting up my_scale5b_branch2b
I0629 02:12:54.020956  1380 net.cpp:129] Top shape: 8 512 7 7 (200704)
I0629 02:12:54.020959  1380 net.cpp:137] Memory required for data: 1808744608
I0629 02:12:54.020967  1380 layer_factory.hpp:77] Creating layer my_res5b_branch2b_relu
I0629 02:12:54.021000  1380 net.cpp:84] Creating Layer my_res5b_branch2b_relu
I0629 02:12:54.021005  1380 net.cpp:406] my_res5b_branch2b_relu <- my_res5b_branch2b
I0629 02:12:54.021010  1380 net.cpp:367] my_res5b_branch2b_relu -> my_res5b_branch2b (in-place)
I0629 02:12:54.021191  1380 net.cpp:122] Setting up my_res5b_branch2b_relu
I0629 02:12:54.021201  1380 net.cpp:129] Top shape: 8 512 7 7 (200704)
I0629 02:12:54.021205  1380 net.cpp:137] Memory required for data: 1809547424
I0629 02:12:54.021209  1380 layer_factory.hpp:77] Creating layer my_res5b_branch2c
I0629 02:12:54.021224  1380 net.cpp:84] Creating Layer my_res5b_branch2c
I0629 02:12:54.021229  1380 net.cpp:406] my_res5b_branch2c <- my_res5b_branch2b
I0629 02:12:54.021235  1380 net.cpp:380] my_res5b_branch2c -> my_res5b_branch2c
I0629 02:12:54.024624  1380 net.cpp:122] Setting up my_res5b_branch2c
I0629 02:12:54.024637  1380 net.cpp:129] Top shape: 8 2048 7 7 (802816)
I0629 02:12:54.024641  1380 net.cpp:137] Memory required for data: 1812758688
I0629 02:12:54.024657  1380 layer_factory.hpp:77] Creating layer my_bn5b_branch2c
I0629 02:12:54.024667  1380 net.cpp:84] Creating Layer my_bn5b_branch2c
I0629 02:12:54.024672  1380 net.cpp:406] my_bn5b_branch2c <- my_res5b_branch2c
I0629 02:12:54.024679  1380 net.cpp:367] my_bn5b_branch2c -> my_res5b_branch2c (in-place)
I0629 02:12:54.024992  1380 net.cpp:122] Setting up my_bn5b_branch2c
I0629 02:12:54.025002  1380 net.cpp:129] Top shape: 8 2048 7 7 (802816)
I0629 02:12:54.025004  1380 net.cpp:137] Memory required for data: 1815969952
I0629 02:12:54.025013  1380 layer_factory.hpp:77] Creating layer my_scale5b_branch2c
I0629 02:12:54.025022  1380 net.cpp:84] Creating Layer my_scale5b_branch2c
I0629 02:12:54.025027  1380 net.cpp:406] my_scale5b_branch2c <- my_res5b_branch2c
I0629 02:12:54.025034  1380 net.cpp:367] my_scale5b_branch2c -> my_res5b_branch2c (in-place)
I0629 02:12:54.025094  1380 layer_factory.hpp:77] Creating layer my_scale5b_branch2c
I0629 02:12:54.025310  1380 net.cpp:122] Setting up my_scale5b_branch2c
I0629 02:12:54.025321  1380 net.cpp:129] Top shape: 8 2048 7 7 (802816)
I0629 02:12:54.025323  1380 net.cpp:137] Memory required for data: 1819181216
I0629 02:12:54.025331  1380 layer_factory.hpp:77] Creating layer my_res5b
I0629 02:12:54.025339  1380 net.cpp:84] Creating Layer my_res5b
I0629 02:12:54.025344  1380 net.cpp:406] my_res5b <- res5a_res5a_relu_0_split_1
I0629 02:12:54.025351  1380 net.cpp:406] my_res5b <- my_res5b_branch2c
I0629 02:12:54.025355  1380 net.cpp:380] my_res5b -> my_res5b
I0629 02:12:54.025400  1380 net.cpp:122] Setting up my_res5b
I0629 02:12:54.025408  1380 net.cpp:129] Top shape: 8 2048 7 7 (802816)
I0629 02:12:54.025420  1380 net.cpp:137] Memory required for data: 1822392480
I0629 02:12:54.025424  1380 layer_factory.hpp:77] Creating layer my_res5b_relu
I0629 02:12:54.025434  1380 net.cpp:84] Creating Layer my_res5b_relu
I0629 02:12:54.025437  1380 net.cpp:406] my_res5b_relu <- my_res5b
I0629 02:12:54.025444  1380 net.cpp:367] my_res5b_relu -> my_res5b (in-place)
I0629 02:12:54.025730  1380 net.cpp:122] Setting up my_res5b_relu
I0629 02:12:54.025741  1380 net.cpp:129] Top shape: 8 2048 7 7 (802816)
I0629 02:12:54.025744  1380 net.cpp:137] Memory required for data: 1825603744
I0629 02:12:54.025749  1380 layer_factory.hpp:77] Creating layer my_res5b_my_res5b_relu_0_split
I0629 02:12:54.025758  1380 net.cpp:84] Creating Layer my_res5b_my_res5b_relu_0_split
I0629 02:12:54.025763  1380 net.cpp:406] my_res5b_my_res5b_relu_0_split <- my_res5b
I0629 02:12:54.025769  1380 net.cpp:380] my_res5b_my_res5b_relu_0_split -> my_res5b_my_res5b_relu_0_split_0
I0629 02:12:54.025779  1380 net.cpp:380] my_res5b_my_res5b_relu_0_split -> my_res5b_my_res5b_relu_0_split_1
I0629 02:12:54.025841  1380 net.cpp:122] Setting up my_res5b_my_res5b_relu_0_split
I0629 02:12:54.025849  1380 net.cpp:129] Top shape: 8 2048 7 7 (802816)
I0629 02:12:54.025854  1380 net.cpp:129] Top shape: 8 2048 7 7 (802816)
I0629 02:12:54.025861  1380 net.cpp:137] Memory required for data: 1832026272
I0629 02:12:54.025878  1380 layer_factory.hpp:77] Creating layer my_res5c_branch2a
I0629 02:12:54.025892  1380 net.cpp:84] Creating Layer my_res5c_branch2a
I0629 02:12:54.025897  1380 net.cpp:406] my_res5c_branch2a <- my_res5b_my_res5b_relu_0_split_0
I0629 02:12:54.025907  1380 net.cpp:380] my_res5c_branch2a -> my_res5c_branch2a
I0629 02:12:54.029026  1380 net.cpp:122] Setting up my_res5c_branch2a
I0629 02:12:54.029048  1380 net.cpp:129] Top shape: 8 512 7 7 (200704)
I0629 02:12:54.029052  1380 net.cpp:137] Memory required for data: 1832829088
I0629 02:12:54.029059  1380 layer_factory.hpp:77] Creating layer my_bn5c_branch2a
I0629 02:12:54.029070  1380 net.cpp:84] Creating Layer my_bn5c_branch2a
I0629 02:12:54.029076  1380 net.cpp:406] my_bn5c_branch2a <- my_res5c_branch2a
I0629 02:12:54.029083  1380 net.cpp:367] my_bn5c_branch2a -> my_res5c_branch2a (in-place)
I0629 02:12:54.029386  1380 net.cpp:122] Setting up my_bn5c_branch2a
I0629 02:12:54.029394  1380 net.cpp:129] Top shape: 8 512 7 7 (200704)
I0629 02:12:54.029397  1380 net.cpp:137] Memory required for data: 1833631904
I0629 02:12:54.029407  1380 layer_factory.hpp:77] Creating layer my_scale5c_branch2a
I0629 02:12:54.029417  1380 net.cpp:84] Creating Layer my_scale5c_branch2a
I0629 02:12:54.029422  1380 net.cpp:406] my_scale5c_branch2a <- my_res5c_branch2a
I0629 02:12:54.029428  1380 net.cpp:367] my_scale5c_branch2a -> my_res5c_branch2a (in-place)
I0629 02:12:54.029490  1380 layer_factory.hpp:77] Creating layer my_scale5c_branch2a
I0629 02:12:54.029676  1380 net.cpp:122] Setting up my_scale5c_branch2a
I0629 02:12:54.029686  1380 net.cpp:129] Top shape: 8 512 7 7 (200704)
I0629 02:12:54.029690  1380 net.cpp:137] Memory required for data: 1834434720
I0629 02:12:54.029697  1380 layer_factory.hpp:77] Creating layer my_res5c_branch2a_relu
I0629 02:12:54.029705  1380 net.cpp:84] Creating Layer my_res5c_branch2a_relu
I0629 02:12:54.029708  1380 net.cpp:406] my_res5c_branch2a_relu <- my_res5c_branch2a
I0629 02:12:54.029716  1380 net.cpp:367] my_res5c_branch2a_relu -> my_res5c_branch2a (in-place)
I0629 02:12:54.030028  1380 net.cpp:122] Setting up my_res5c_branch2a_relu
I0629 02:12:54.030040  1380 net.cpp:129] Top shape: 8 512 7 7 (200704)
I0629 02:12:54.030046  1380 net.cpp:137] Memory required for data: 1835237536
I0629 02:12:54.030050  1380 layer_factory.hpp:77] Creating layer my_res5c_branch2b
I0629 02:12:54.030061  1380 net.cpp:84] Creating Layer my_res5c_branch2b
I0629 02:12:54.030069  1380 net.cpp:406] my_res5c_branch2b <- my_res5c_branch2a
I0629 02:12:54.030078  1380 net.cpp:380] my_res5c_branch2b -> my_res5c_branch2b
I0629 02:12:54.036394  1380 net.cpp:122] Setting up my_res5c_branch2b
I0629 02:12:54.036408  1380 net.cpp:129] Top shape: 8 512 7 7 (200704)
I0629 02:12:54.036412  1380 net.cpp:137] Memory required for data: 1836040352
I0629 02:12:54.036419  1380 layer_factory.hpp:77] Creating layer my_bn5c_branch2b
I0629 02:12:54.036427  1380 net.cpp:84] Creating Layer my_bn5c_branch2b
I0629 02:12:54.036432  1380 net.cpp:406] my_bn5c_branch2b <- my_res5c_branch2b
I0629 02:12:54.036442  1380 net.cpp:367] my_bn5c_branch2b -> my_res5c_branch2b (in-place)
I0629 02:12:54.036752  1380 net.cpp:122] Setting up my_bn5c_branch2b
I0629 02:12:54.036761  1380 net.cpp:129] Top shape: 8 512 7 7 (200704)
I0629 02:12:54.036765  1380 net.cpp:137] Memory required for data: 1836843168
I0629 02:12:54.036775  1380 layer_factory.hpp:77] Creating layer my_scale5c_branch2b
I0629 02:12:54.036783  1380 net.cpp:84] Creating Layer my_scale5c_branch2b
I0629 02:12:54.036787  1380 net.cpp:406] my_scale5c_branch2b <- my_res5c_branch2b
I0629 02:12:54.036793  1380 net.cpp:367] my_scale5c_branch2b -> my_res5c_branch2b (in-place)
I0629 02:12:54.036855  1380 layer_factory.hpp:77] Creating layer my_scale5c_branch2b
I0629 02:12:54.037045  1380 net.cpp:122] Setting up my_scale5c_branch2b
I0629 02:12:54.037053  1380 net.cpp:129] Top shape: 8 512 7 7 (200704)
I0629 02:12:54.037057  1380 net.cpp:137] Memory required for data: 1837645984
I0629 02:12:54.037065  1380 layer_factory.hpp:77] Creating layer my_res5c_branch2b_relu
I0629 02:12:54.037089  1380 net.cpp:84] Creating Layer my_res5c_branch2b_relu
I0629 02:12:54.037094  1380 net.cpp:406] my_res5c_branch2b_relu <- my_res5c_branch2b
I0629 02:12:54.037102  1380 net.cpp:367] my_res5c_branch2b_relu -> my_res5c_branch2b (in-place)
I0629 02:12:54.037276  1380 net.cpp:122] Setting up my_res5c_branch2b_relu
I0629 02:12:54.037286  1380 net.cpp:129] Top shape: 8 512 7 7 (200704)
I0629 02:12:54.037291  1380 net.cpp:137] Memory required for data: 1838448800
I0629 02:12:54.037294  1380 layer_factory.hpp:77] Creating layer my_res5c_branch2c
I0629 02:12:54.037307  1380 net.cpp:84] Creating Layer my_res5c_branch2c
I0629 02:12:54.037310  1380 net.cpp:406] my_res5c_branch2c <- my_res5c_branch2b
I0629 02:12:54.037319  1380 net.cpp:380] my_res5c_branch2c -> my_res5c_branch2c
I0629 02:12:54.040671  1380 net.cpp:122] Setting up my_res5c_branch2c
I0629 02:12:54.040684  1380 net.cpp:129] Top shape: 8 2048 7 7 (802816)
I0629 02:12:54.040688  1380 net.cpp:137] Memory required for data: 1841660064
I0629 02:12:54.040695  1380 layer_factory.hpp:77] Creating layer my_bn5c_branch2c
I0629 02:12:54.040705  1380 net.cpp:84] Creating Layer my_bn5c_branch2c
I0629 02:12:54.040710  1380 net.cpp:406] my_bn5c_branch2c <- my_res5c_branch2c
I0629 02:12:54.040716  1380 net.cpp:367] my_bn5c_branch2c -> my_res5c_branch2c (in-place)
I0629 02:12:54.041038  1380 net.cpp:122] Setting up my_bn5c_branch2c
I0629 02:12:54.041046  1380 net.cpp:129] Top shape: 8 2048 7 7 (802816)
I0629 02:12:54.041050  1380 net.cpp:137] Memory required for data: 1844871328
I0629 02:12:54.041059  1380 layer_factory.hpp:77] Creating layer my_scale5c_branch2c
I0629 02:12:54.041067  1380 net.cpp:84] Creating Layer my_scale5c_branch2c
I0629 02:12:54.041071  1380 net.cpp:406] my_scale5c_branch2c <- my_res5c_branch2c
I0629 02:12:54.041077  1380 net.cpp:367] my_scale5c_branch2c -> my_res5c_branch2c (in-place)
I0629 02:12:54.041141  1380 layer_factory.hpp:77] Creating layer my_scale5c_branch2c
I0629 02:12:54.041340  1380 net.cpp:122] Setting up my_scale5c_branch2c
I0629 02:12:54.041349  1380 net.cpp:129] Top shape: 8 2048 7 7 (802816)
I0629 02:12:54.041353  1380 net.cpp:137] Memory required for data: 1848082592
I0629 02:12:54.041360  1380 layer_factory.hpp:77] Creating layer my_res5c
I0629 02:12:54.041369  1380 net.cpp:84] Creating Layer my_res5c
I0629 02:12:54.041383  1380 net.cpp:406] my_res5c <- my_res5b_my_res5b_relu_0_split_1
I0629 02:12:54.041388  1380 net.cpp:406] my_res5c <- my_res5c_branch2c
I0629 02:12:54.041393  1380 net.cpp:380] my_res5c -> my_res5c
I0629 02:12:54.041435  1380 net.cpp:122] Setting up my_res5c
I0629 02:12:54.041450  1380 net.cpp:129] Top shape: 8 2048 7 7 (802816)
I0629 02:12:54.041453  1380 net.cpp:137] Memory required for data: 1851293856
I0629 02:12:54.041456  1380 layer_factory.hpp:77] Creating layer my_res5c_relu
I0629 02:12:54.041465  1380 net.cpp:84] Creating Layer my_res5c_relu
I0629 02:12:54.041471  1380 net.cpp:406] my_res5c_relu <- my_res5c
I0629 02:12:54.041476  1380 net.cpp:367] my_res5c_relu -> my_res5c (in-place)
I0629 02:12:54.041780  1380 net.cpp:122] Setting up my_res5c_relu
I0629 02:12:54.041791  1380 net.cpp:129] Top shape: 8 2048 7 7 (802816)
I0629 02:12:54.041795  1380 net.cpp:137] Memory required for data: 1854505120
I0629 02:12:54.041800  1380 layer_factory.hpp:77] Creating layer my_pool5
I0629 02:12:54.041808  1380 net.cpp:84] Creating Layer my_pool5
I0629 02:12:54.041812  1380 net.cpp:406] my_pool5 <- my_res5c
I0629 02:12:54.041821  1380 net.cpp:380] my_pool5 -> my_pool5
I0629 02:12:54.042531  1380 net.cpp:122] Setting up my_pool5
I0629 02:12:54.042541  1380 net.cpp:129] Top shape: 8 2048 1 1 (16384)
I0629 02:12:54.042546  1380 net.cpp:137] Memory required for data: 1854570656
I0629 02:12:54.042549  1380 layer_factory.hpp:77] Creating layer my_fc1000
I0629 02:12:54.042562  1380 net.cpp:84] Creating Layer my_fc1000
I0629 02:12:54.042565  1380 net.cpp:406] my_fc1000 <- my_pool5
I0629 02:12:54.042573  1380 net.cpp:380] my_fc1000 -> my_fc1000
I0629 02:12:54.042824  1380 net.cpp:122] Setting up my_fc1000
I0629 02:12:54.042846  1380 net.cpp:129] Top shape: 8 50 (400)
I0629 02:12:54.042851  1380 net.cpp:137] Memory required for data: 1854572256
I0629 02:12:54.042858  1380 layer_factory.hpp:77] Creating layer my_fc1000_my_fc1000_0_split
I0629 02:12:54.042866  1380 net.cpp:84] Creating Layer my_fc1000_my_fc1000_0_split
I0629 02:12:54.042871  1380 net.cpp:406] my_fc1000_my_fc1000_0_split <- my_fc1000
I0629 02:12:54.042879  1380 net.cpp:380] my_fc1000_my_fc1000_0_split -> my_fc1000_my_fc1000_0_split_0
I0629 02:12:54.042887  1380 net.cpp:380] my_fc1000_my_fc1000_0_split -> my_fc1000_my_fc1000_0_split_1
I0629 02:12:54.042894  1380 net.cpp:380] my_fc1000_my_fc1000_0_split -> my_fc1000_my_fc1000_0_split_2
I0629 02:12:54.042901  1380 net.cpp:380] my_fc1000_my_fc1000_0_split -> my_fc1000_my_fc1000_0_split_3
I0629 02:12:54.042964  1380 net.cpp:122] Setting up my_fc1000_my_fc1000_0_split
I0629 02:12:54.042971  1380 net.cpp:129] Top shape: 8 50 (400)
I0629 02:12:54.042976  1380 net.cpp:129] Top shape: 8 50 (400)
I0629 02:12:54.042980  1380 net.cpp:129] Top shape: 8 50 (400)
I0629 02:12:54.042984  1380 net.cpp:129] Top shape: 8 50 (400)
I0629 02:12:54.042989  1380 net.cpp:137] Memory required for data: 1854578656
I0629 02:12:54.042992  1380 layer_factory.hpp:77] Creating layer loss
I0629 02:12:54.043002  1380 net.cpp:84] Creating Layer loss
I0629 02:12:54.043007  1380 net.cpp:406] loss <- my_fc1000_my_fc1000_0_split_0
I0629 02:12:54.043012  1380 net.cpp:406] loss <- label_input_1_split_0
I0629 02:12:54.043018  1380 net.cpp:380] loss -> loss
…
