…
I0629 03:28:24.937203  2085 net.cpp:294] The NetState phase (1) differed from the phase (0) specified by a rule in layer input
I0629 03:28:24.938527  2085 net.cpp:51] Initializing net from parameters: 
name: "ResNet-50"
state {
  phase: TEST
  level: 0
  stage: ""
}
layer {
  name: "input"
  type: "Data"
  top: "data"
  top: "label"
  include {
    phase: TEST
  }
  transform_param {
    mirror: true
    mean_file: "../../../data_subsets/subtrain2_mean.binaryproto"
  }
  data_param {
    source: "../../../data_subsets/subtrain2_lmdb"
    batch_size: 8
    backend: LMDB
  }
}
layer {
  name: "conv1"
  type: "Convolution"
  bottom: "data"
  top: "conv1"
  param {
    lr_mult: 1
    decay_mult: 1
  }
  param {
    lr_mult: 2
    decay_mult: 0
  }
  convolution_param {
    num_output: 64
    pad: 3
    kernel_size: 7
    stride: 2
  }
}
layer {
  name: "bn_conv1"
  type: "BatchNorm"
  bottom: "conv1"
  top: "conv1"
  batch_norm_param {
    use_global_stats: true
  }
}
layer {
  name: "scale_conv1"
  type: "Scale"
  bottom: "conv1"
  top: "conv1"
  scale_param {
    bias_term: true
  }
}
layer {
  name: "conv1_relu"
  type: "ReLU"
  bottom: "conv1"
  top: "conv1"
}
layer {
  name: "pool1"
  type: "Pooling"
  bottom: "conv1"
  top: "pool1"
  pooling_param {
    pool: MAX
    kernel_size: 3
    stride: 2
  }
}
layer {
  name: "res2a_branch1"
  type: "Convolution"
  bottom: "pool1"
  top: "res2a_branch1"
  param {
    lr_mult: 1
    decay_mult: 1
  }
  convolution_param {
    num_output: 256
    bias_term: false
    pad: 0
    kernel_size: 1
    stride: 1
  }
}
layer {
  name: "bn2a_branch1"
  type: "BatchNorm"
  bottom: "res2a_branch1"
  top: "res2a_branch1"
  batch_norm_param {
    use_global_stats: true
  }
}
layer {
  name: "scale2a_branch1"
  type: "Scale"
  bottom: "res2a_branch1"
  top: "res2a_branch1"
  scale_param {
    bias_term: true
  }
}
layer {
  name: "res2a_branch2a"
  type: "Convolution"
  bottom: "pool1"
  top: "res2a_branch2a"
  param {
    lr_mult: 1
    decay_mult: 1
  }
  convolution_param {
    num_output: 64
    bias_term: false
    pad: 0
    kernel_size: 1
    stride: 1
  }
}
layer {
  name: "bn2a_branch2a"
  type: "BatchNorm"
  bottom: "res2a_branch2a"
  top: "res2a_branch2a"
  batch_norm_param {
    use_global_stats: true
  }
}
layer {
  name: "scale2a_branch2a"
  type: "Scale"
  bottom: "res2a_branch2a"
  top: "res2a_branch2a"
  scale_param {
    bias_term: true
  }
}
layer {
  name: "res2a_branch2a_relu"
  type: "ReLU"
  bottom: "res2a_branch2a"
  top: "res2a_branch2a"
}
layer {
  name: "res2a_branch2b"
  type: "Convolution"
  bottom: "res2a_branch2a"
  top: "res2a_branch2b"
  param {
    lr_mult: 1
    decay_mult: 1
  }
  convolution_param {
    num_output: 64
    bias_term: false
    pad: 1
    kernel_size: 3
    stride: 1
  }
}
layer {
  name: "bn2a_branch2b"
  type: "BatchNorm"
  bottom: "res2a_branch2b"
  top: "res2a_branch2b"
  batch_norm_param {
    use_global_stats: true
  }
}
layer {
  name: "scale2a_branch2b"
  type: "Scale"
  bottom: "res2a_branch2b"
  top: "res2a_branch2b"
  scale_param {
    bias_term: true
  }
}
layer {
  name: "res2a_branch2b_relu"
  type: "ReLU"
  bottom: "res2a_branch2b"
  top: "res2a_branch2b"
}
layer {
  name: "res2a_branch2c"
  type: "Convolution"
  bottom: "res2a_branch2b"
  top: "res2a_branch2c"
  param {
    lr_mult: 1
    decay_mult: 1
  }
  convolution_param {
    num_output: 256
    bias_term: false
    pad: 0
    kernel_size: 1
    stride: 1
  }
}
layer {
  name: "bn2a_branch2c"
  type: "BatchNorm"
  bottom: "res2a_branch2c"
  top: "res2a_branch2c"
  batch_norm_param {
    use_global_stats: true
  }
}
layer {
  name: "scale2a_branch2c"
  type: "Scale"
  bottom: "res2a_branch2c"
  top: "res2a_branch2c"
  scale_param {
    bias_term: true
  }
}
layer {
  name: "res2a"
  type: "Eltwise"
  bottom: "res2a_branch1"
  bottom: "res2a_branch2c"
  top: "res2a"
}
layer {
  name: "res2a_relu"
  type: "ReLU"
  bottom: "res2a"
  top: "res2a"
}
layer {
  name: "res2b_branch2a"
  type: "Convolution"
  bottom: "res2a"
  top: "res2b_branch2a"
  param {
    lr_mult: 1
    decay_mult: 1
  }
  convolution_param {
    num_output: 64
    bias_term: false
    pad: 0
    kernel_size: 1
    stride: 1
  }
}
layer {
  name: "bn2b_branch2a"
  type: "BatchNorm"
  bottom: "res2b_branch2a"
  top: "res2b_branch2a"
  batch_norm_param {
    use_global_stats: true
  }
}
layer {
  name: "scale2b_branch2a"
  type: "Scale"
  bottom: "res2b_branch2a"
  top: "res2b_branch2a"
  scale_param {
    bias_term: true
  }
}
layer {
  name: "res2b_branch2a_relu"
  type: "ReLU"
  bottom: "res2b_branch2a"
  top: "res2b_branch2a"
}
layer {
  name: "res2b_branch2b"
  type: "Convolution"
  bottom: "res2b_branch2a"
  top: "res2b_branch2b"
  param {
    lr_mult: 1
    decay_mult: 1
  }
  convolution_param {
    num_output: 64
    bias_term: false
    pad: 1
    kernel_size: 3
    stride: 1
  }
}
layer {
  name: "bn2b_branch2b"
  type: "BatchNorm"
  bottom: "res2b_branch2b"
  top: "res2b_branch2b"
  batch_norm_param {
    use_global_stats: true
  }
}
layer {
  name: "scale2b_branch2b"
  type: "Scale"
  bottom: "res2b_branch2b"
  top: "res2b_branch2b"
  scale_param {
    bias_term: true
  }
}
layer {
  name: "res2b_branch2b_relu"
  type: "ReLU"
  bottom: "res2b_branch2b"
  top: "res2b_branch2b"
}
layer {
  name: "res2b_branch2c"
  type: "Convolution"
  bottom: "res2b_branch2b"
  top: "res2b_branch2c"
  param {
    lr_mult: 1
    decay_mult: 1
  }
  convolution_param {
    num_output: 256
    bias_term: false
    pad: 0
    kernel_size: 1
    stride: 1
  }
}
layer {
  name: "bn2b_branch2c"
  type: "BatchNorm"
  bottom: "res2b_branch2c"
  top: "res2b_branch2c"
  batch_norm_param {
    use_global_stats: true
  }
}
layer {
  name: "scale2b_branch2c"
  type: "Scale"
  bottom: "res2b_branch2c"
  top: "res2b_branch2c"
  scale_param {
    bias_term: true
  }
}
layer {
  name: "res2b"
  type: "Eltwise"
  bottom: "res2a"
  bottom: "res2b_branch2c"
  top: "res2b"
}
layer {
  name: "res2b_relu"
  type: "ReLU"
  bottom: "res2b"
  top: "res2b"
}
layer {
  name: "res2c_branch2a"
  type: "Convolution"
  bottom: "res2b"
  top: "res2c_branch2a"
  param {
    lr_mult: 1
    decay_mult: 1
  }
  convolution_param {
    num_output: 64
    bias_term: false
    pad: 0
    kernel_size: 1
    stride: 1
  }
}
layer {
  name: "bn2c_branch2a"
  type: "BatchNorm"
  bottom: "res2c_branch2a"
  top: "res2c_branch2a"
  batch_norm_param {
    use_global_stats: true
  }
}
layer {
  name: "scale2c_branch2a"
  type: "Scale"
  bottom: "res2c_branch2a"
  top: "res2c_branch2a"
  scale_param {
    bias_term: true
  }
}
layer {
  name: "res2c_branch2a_relu"
  type: "ReLU"
  bottom: "res2c_branch2a"
  top: "res2c_branch2a"
}
layer {
  name: "res2c_branch2b"
  type: "Convolution"
  bottom: "res2c_branch2a"
  top: "res2c_branch2b"
  param {
    lr_mult: 1
    decay_mult: 1
  }
  convolution_param {
    num_output: 64
    bias_term: false
    pad: 1
    kernel_size: 3
    stride: 1
  }
}
layer {
  name: "bn2c_branch2b"
  type: "BatchNorm"
  bottom: "res2c_branch2b"
  top: "res2c_branch2b"
  batch_norm_param {
    use_global_stats: true
  }
}
layer {
  name: "scale2c_branch2b"
  type: "Scale"
  bottom: "res2c_branch2b"
  top: "res2c_branch2b"
  scale_param {
    bias_term: true
  }
}
layer {
  name: "res2c_branch2b_relu"
  type: "ReLU"
  bottom: "res2c_branch2b"
  top: "res2c_branch2b"
}
layer {
  name: "res2c_branch2c"
  type: "Convolution"
  bottom: "res2c_branch2b"
  top: "res2c_branch2c"
  param {
    lr_mult: 1
    decay_mult: 1
  }
  convolution_param {
    num_output: 256
    bias_term: false
    pad: 0
    kernel_size: 1
    stride: 1
  }
}
layer {
  name: "bn2c_branch2c"
  type: "BatchNorm"
  bottom: "res2c_branch2c"
  top: "res2c_branch2c"
  batch_norm_param {
    use_global_stats: true
  }
}
layer {
  name: "scale2c_branch2c"
  type: "Scale"
  bottom: "res2c_branch2c"
  top: "res2c_branch2c"
  scale_param {
    bias_term: true
  }
}
layer {
  name: "res2c"
  type: "Eltwise"
  bottom: "res2b"
  bottom: "res2c_branch2c"
  top: "res2c"
}
layer {
  name: "res2c_relu"
  type: "ReLU"
  bottom: "res2c"
  top: "res2c"
}
layer {
  name: "res3a_branch1"
  type: "Convolution"
  bottom: "res2c"
  top: "res3a_branch1"
  param {
    lr_mult: 1
    decay_mult: 1
  }
  convolution_param {
    num_output: 512
    bias_term: false
    pad: 0
    kernel_size: 1
    stride: 2
  }
}
layer {
  name: "bn3a_branch1"
  type: "BatchNorm"
  bottom: "res3a_branch1"
  top: "res3a_branch1"
  batch_norm_param {
    use_global_stats: true
  }
}
layer {
  name: "scale3a_branch1"
  type: "Scale"
  bottom: "res3a_branch1"
  top: "res3a_branch1"
  scale_param {
    bias_term: true
  }
}
layer {
  name: "res3a_branch2a"
  type: "Convolution"
  bottom: "res2c"
  top: "res3a_branch2a"
  param {
    lr_mult: 1
    decay_mult: 1
  }
  convolution_param {
    num_output: 128
    bias_term: false
    pad: 0
    kernel_size: 1
    stride: 2
  }
}
layer {
  name: "bn3a_branch2a"
  type: "BatchNorm"
  bottom: "res3a_branch2a"
  top: "res3a_branch2a"
  batch_norm_param {
    use_global_stats: true
  }
}
layer {
  name: "scale3a_branch2a"
  type: "Scale"
  bottom: "res3a_branch2a"
  top: "res3a_branch2a"
  scale_param {
    bias_term: true
  }
}
layer {
  name: "res3a_branch2a_relu"
  type: "ReLU"
  bottom: "res3a_branch2a"
  top: "res3a_branch2a"
}
layer {
  name: "res3a_branch2b"
  type: "Convolution"
  bottom: "res3a_branch2a"
  top: "res3a_branch2b"
  param {
    lr_mult: 1
    decay_mult: 1
  }
  convolution_param {
    num_output: 128
    bias_term: false
    pad: 1
    kernel_size: 3
    stride: 1
  }
}
layer {
  name: "bn3a_branch2b"
  type: "BatchNorm"
  bottom: "res3a_branch2b"
  top: "res3a_branch2b"
  batch_norm_param {
    use_global_stats: true
  }
}
layer {
  name: "scale3a_branch2b"
  type: "Scale"
  bottom: "res3a_branch2b"
  top: "res3a_branch2b"
  scale_param {
    bias_term: true
  }
}
layer {
  name: "res3a_branch2b_relu"
  type: "ReLU"
  bottom: "res3a_branch2b"
  top: "res3a_branch2b"
}
layer {
  name: "res3a_branch2c"
  type: "Convolution"
  bottom: "res3a_branch2b"
  top: "res3a_branch2c"
  param {
    lr_mult: 1
    decay_mult: 1
  }
  convolution_param {
    num_output: 512
    bias_term: false
    pad: 0
    kernel_size: 1
    stride: 1
  }
}
layer {
  name: "bn3a_branch2c"
  type: "BatchNorm"
  bottom: "res3a_branch2c"
  top: "res3a_branch2c"
  batch_norm_param {
    use_global_stats: true
  }
}
layer {
  name: "scale3a_branch2c"
  type: "Scale"
  bottom: "res3a_branch2c"
  top: "res3a_branch2c"
  scale_param {
    bias_term: true
  }
}
layer {
  name: "res3a"
  type: "Eltwise"
  bottom: "res3a_branch1"
  bottom: "res3a_branch2c"
  top: "res3a"
}
layer {
  name: "res3a_relu"
  type: "ReLU"
  bottom: "res3a"
  top: "res3a"
}
layer {
  name: "res3b_branch2a"
  type: "Convolution"
  bottom: "res3a"
  top: "res3b_branch2a"
  param {
    lr_mult: 1
    decay_mult: 1
  }
  convolution_param {
    num_output: 128
    bias_term: false
    pad: 0
    kernel_size: 1
    stride: 1
  }
}
layer {
  name: "bn3b_branch2a"
  type: "BatchNorm"
  bottom: "res3b_branch2a"
  top: "res3b_branch2a"
  batch_norm_param {
    use_global_stats: true
  }
}
layer {
  name: "scale3b_branch2a"
  type: "Scale"
  bottom: "res3b_branch2a"
  top: "res3b_branch2a"
  scale_param {
    bias_term: true
  }
}
layer {
  name: "res3b_branch2a_relu"
  type: "ReLU"
  bottom: "res3b_branch2a"
  top: "res3b_branch2a"
}
layer {
  name: "res3b_branch2b"
  type: "Convolution"
  bottom: "res3b_branch2a"
  top: "res3b_branch2b"
  param {
    lr_mult: 1
    decay_mult: 1
  }
  convolution_param {
    num_output: 128
    bias_term: false
    pad: 1
    kernel_size: 3
    stride: 1
  }
}
layer {
  name: "bn3b_branch2b"
  type: "BatchNorm"
  bottom: "res3b_branch2b"
  top: "res3b_branch2b"
  batch_norm_param {
    use_global_stats: true
  }
}
layer {
  name: "scale3b_branch2b"
  type: "Scale"
  bottom: "res3b_branch2b"
  top: "res3b_branch2b"
  scale_param {
    bias_term: true
  }
}
layer {
  name: "res3b_branch2b_relu"
  type: "ReLU"
  bottom: "res3b_branch2b"
  top: "res3b_branch2b"
}
layer {
  name: "res3b_branch2c"
  type: "Convolution"
  bottom: "res3b_branch2b"
  top: "res3b_branch2c"
  param {
    lr_mult: 1
    decay_mult: 1
  }
  convolution_param {
    num_output: 512
    bias_term: false
    pad: 0
    kernel_size: 1
    stride: 1
  }
}
layer {
  name: "bn3b_branch2c"
  type: "BatchNorm"
  bottom: "res3b_branch2c"
  top: "res3b_branch2c"
  batch_norm_param {
    use_global_stats: true
  }
}
layer {
  name: "scale3b_branch2c"
  type: "Scale"
  bottom: "res3b_branch2c"
  top: "res3b_branch2c"
  scale_param {
    bias_term: true
  }
}
layer {
  name: "res3b"
  type: "Eltwise"
  bottom: "res3a"
  bottom: "res3b_branch2c"
  top: "res3b"
}
layer {
  name: "res3b_relu"
  type: "ReLU"
  bottom: "res3b"
  top: "res3b"
}
layer {
  name: "res3c_branch2a"
  type: "Convolution"
  bottom: "res3b"
  top: "res3c_branch2a"
  param {
    lr_mult: 1
    decay_mult: 1
  }
  convolution_param {
    num_output: 128
    bias_term: false
    pad: 0
    kernel_size: 1
    stride: 1
  }
}
layer {
  name: "bn3c_branch2a"
  type: "BatchNorm"
  bottom: "res3c_branch2a"
  top: "res3c_branch2a"
  batch_norm_param {
    use_global_stats: true
  }
}
layer {
  name: "scale3c_branch2a"
  type: "Scale"
  bottom: "res3c_branch2a"
  top: "res3c_branch2a"
  scale_param {
    bias_term: true
  }
}
layer {
  name: "res3c_branch2a_relu"
  type: "ReLU"
  bottom: "res3c_branch2a"
  top: "res3c_branch2a"
}
layer {
  name: "res3c_branch2b"
  type: "Convolution"
  bottom: "res3c_branch2a"
  top: "res3c_branch2b"
  param {
    lr_mult: 1
    decay_mult: 1
  }
  convolution_param {
    num_output: 128
    bias_term: false
    pad: 1
    kernel_size: 3
    stride: 1
  }
}
layer {
  name: "bn3c_branch2b"
  type: "BatchNorm"
  bottom: "res3c_branch2b"
  top: "res3c_branch2b"
  batch_norm_param {
    use_global_stats: true
  }
}
layer {
  name: "scale3c_branch2b"
  type: "Scale"
  bottom: "res3c_branch2b"
  top: "res3c_branch2b"
  scale_param {
    bias_term: true
  }
}
layer {
  name: "res3c_branch2b_relu"
  type: "ReLU"
  bottom: "res3c_branch2b"
  top: "res3c_branch2b"
}
layer {
  name: "res3c_branch2c"
  type: "Convolution"
  bottom: "res3c_branch2b"
  top: "res3c_branch2c"
  param {
    lr_mult: 1
    decay_mult: 1
  }
  convolution_param {
    num_output: 512
    bias_term: false
    pad: 0
    kernel_size: 1
    stride: 1
  }
}
layer {
  name: "bn3c_branch2c"
  type: "BatchNorm"
  bottom: "res3c_branch2c"
  top: "res3c_branch2c"
  batch_norm_param {
    use_global_stats: true
  }
}
layer {
  name: "scale3c_branch2c"
  type: "Scale"
  bottom: "res3c_branch2c"
  top: "res3c_branch2c"
  scale_param {
    bias_term: true
  }
}
layer {
  name: "res3c"
  type: "Eltwise"
  bottom: "res3b"
  bottom: "res3c_branch2c"
  top: "res3c"
}
layer {
  name: "res3c_relu"
  type: "ReLU"
  bottom: "res3c"
  top: "res3c"
}
layer {
  name: "res3d_branch2a"
  type: "Convolution"
  bottom: "res3c"
  top: "res3d_branch2a"
  param {
    lr_mult: 1
    decay_mult: 1
  }
  convolution_param {
    num_output: 128
    bias_term: false
    pad: 0
    kernel_size: 1
    stride: 1
  }
}
layer {
  name: "bn3d_branch2a"
  type: "BatchNorm"
  bottom: "res3d_branch2a"
  top: "res3d_branch2a"
  batch_norm_param {
    use_global_stats: true
  }
}
layer {
  name: "scale3d_branch2a"
  type: "Scale"
  bottom: "res3d_branch2a"
  top: "res3d_branch2a"
  scale_param {
    bias_term: true
  }
}
layer {
  name: "res3d_branch2a_relu"
  type: "ReLU"
  bottom: "res3d_branch2a"
  top: "res3d_branch2a"
}
layer {
  name: "res3d_branch2b"
  type: "Convolution"
  bottom: "res3d_branch2a"
  top: "res3d_branch2b"
  param {
    lr_mult: 1
    decay_mult: 1
  }
  convolution_param {
    num_output: 128
    bias_term: false
    pad: 1
    kernel_size: 3
    stride: 1
  }
}
layer {
  name: "bn3d_branch2b"
  type: "BatchNorm"
  bottom: "res3d_branch2b"
  top: "res3d_branch2b"
  batch_norm_param {
    use_global_stats: true
  }
}
layer {
  name: "scale3d_branch2b"
  type: "Scale"
  bottom: "res3d_branch2b"
  top: "res3d_branch2b"
  scale_param {
    bias_term: true
  }
}
layer {
  name: "res3d_branch2b_relu"
  type: "ReLU"
  bottom: "res3d_branch2b"
  top: "res3d_branch2b"
}
layer {
  name: "res3d_branch2c"
  type: "Convolution"
  bottom: "res3d_branch2b"
  top: "res3d_branch2c"
  param {
    lr_mult: 1
    decay_mult: 1
  }
  convolution_param {
    num_output: 512
    bias_term: false
    pad: 0
    kernel_size: 1
    stride: 1
  }
}
layer {
  name: "bn3d_branch2c"
  type: "BatchNorm"
  bottom: "res3d_branch2c"
  top: "res3d_branch2c"
  batch_norm_param {
    use_global_stats: true
  }
}
layer {
  name: "scale3d_branch2c"
  type: "Scale"
  bottom: "res3d_branch2c"
  top: "res3d_branch2c"
  scale_param {
    bias_term: true
  }
}
layer {
  name: "res3d"
  type: "Eltwise"
  bottom: "res3c"
  bottom: "res3d_branch2c"
  top: "res3d"
}
layer {
  name: "res3d_relu"
  type: "ReLU"
  bottom: "res3d"
  top: "res3d"
}
layer {
  name: "res4a_branch1"
  type: "Convolution"
  bottom: "res3d"
  top: "res4a_branch1"
  param {
    lr_mult: 1
    decay_mult: 1
  }
  convolution_param {
    num_output: 1024
    bias_term: false
    pad: 0
    kernel_size: 1
    stride: 2
  }
}
layer {
  name: "bn4a_branch1"
  type: "BatchNorm"
  bottom: "res4a_branch1"
  top: "res4a_branch1"
  batch_norm_param {
    use_global_stats: true
  }
}
layer {
  name: "scale4a_branch1"
  type: "Scale"
  bottom: "res4a_branch1"
  top: "res4a_branch1"
  scale_param {
    bias_term: true
  }
}
layer {
  name: "res4a_branch2a"
  type: "Convolution"
  bottom: "res3d"
  top: "res4a_branch2a"
  param {
    lr_mult: 1
    decay_mult: 1
  }
  convolution_param {
    num_output: 256
    bias_term: false
    pad: 0
    kernel_size: 1
    stride: 2
  }
}
layer {
  name: "bn4a_branch2a"
  type: "BatchNorm"
  bottom: "res4a_branch2a"
  top: "res4a_branch2a"
  batch_norm_param {
    use_global_stats: true
  }
}
layer {
  name: "scale4a_branch2a"
  type: "Scale"
  bottom: "res4a_branch2a"
  top: "res4a_branch2a"
  scale_param {
    bias_term: true
  }
}
layer {
  name: "res4a_branch2a_relu"
  type: "ReLU"
  bottom: "res4a_branch2a"
  top: "res4a_branch2a"
}
layer {
  name: "res4a_branch2b"
  type: "Convolution"
  bottom: "res4a_branch2a"
  top: "res4a_branch2b"
  param {
    lr_mult: 1
    decay_mult: 1
  }
  convolution_param {
    num_output: 256
    bias_term: false
    pad: 1
    kernel_size: 3
    stride: 1
  }
}
layer {
  name: "bn4a_branch2b"
  type: "BatchNorm"
  bottom: "res4a_branch2b"
  top: "res4a_branch2b"
  batch_norm_param {
    use_global_stats: true
  }
}
layer {
  name: "scale4a_branch2b"
  type: "Scale"
  bottom: "res4a_branch2b"
  top: "res4a_branch2b"
  scale_param {
    bias_term: true
  }
}
layer {
  name: "res4a_branch2b_relu"
  type: "ReLU"
  bottom: "res4a_branch2b"
  top: "res4a_branch2b"
}
layer {
  name: "res4a_branch2c"
  type: "Convolution"
  bottom: "res4a_branch2b"
  top: "res4a_branch2c"
  param {
    lr_mult: 1
    decay_mult: 1
  }
  convolution_param {
    num_output: 1024
    bias_term: false
    pad: 0
    kernel_size: 1
    stride: 1
  }
}
layer {
  name: "bn4a_branch2c"
  type: "BatchNorm"
  bottom: "res4a_branch2c"
  top: "res4a_branch2c"
  batch_norm_param {
    use_global_stats: true
  }
}
layer {
  name: "scale4a_branch2c"
  type: "Scale"
  bottom: "res4a_branch2c"
  top: "res4a_branch2c"
  scale_param {
    bias_term: true
  }
}
layer {
  name: "res4a"
  type: "Eltwise"
  bottom: "res4a_branch1"
  bottom: "res4a_branch2c"
  top: "res4a"
}
layer {
  name: "res4a_relu"
  type: "ReLU"
  bottom: "res4a"
  top: "res4a"
}
layer {
  name: "res4b_branch2a"
  type: "Convolution"
  bottom: "res4a"
  top: "res4b_branch2a"
  param {
    lr_mult: 1
    decay_mult: 1
  }
  convolution_param {
    num_output: 256
    bias_term: false
    pad: 0
    kernel_size: 1
    stride: 1
  }
}
layer {
  name: "bn4b_branch2a"
  type: "BatchNorm"
  bottom: "res4b_branch2a"
  top: "res4b_branch2a"
  batch_norm_param {
    use_global_stats: true
  }
}
layer {
  name: "scale4b_branch2a"
  type: "Scale"
  bottom: "res4b_branch2a"
  top: "res4b_branch2a"
  scale_param {
    bias_term: true
  }
}
layer {
  name: "res4b_branch2a_relu"
  type: "ReLU"
  bottom: "res4b_branch2a"
  top: "res4b_branch2a"
}
layer {
  name: "res4b_branch2b"
  type: "Convolution"
  bottom: "res4b_branch2a"
  top: "res4b_branch2b"
  param {
    lr_mult: 1
    decay_mult: 1
  }
  convolution_param {
    num_output: 256
    bias_term: false
    pad: 1
    kernel_size: 3
    stride: 1
  }
}
layer {
  name: "bn4b_branch2b"
  type: "BatchNorm"
  bottom: "res4b_branch2b"
  top: "res4b_branch2b"
  batch_norm_param {
    use_global_stats: true
  }
}
layer {
  name: "scale4b_branch2b"
  type: "Scale"
  bottom: "res4b_branch2b"
  top: "res4b_branch2b"
  scale_param {
    bias_term: true
  }
}
layer {
  name: "res4b_branch2b_relu"
  type: "ReLU"
  bottom: "res4b_branch2b"
  top: "res4b_branch2b"
}
layer {
  name: "res4b_branch2c"
  type: "Convolution"
  bottom: "res4b_branch2b"
  top: "res4b_branch2c"
  param {
    lr_mult: 1
    decay_mult: 1
  }
  convolution_param {
    num_output: 1024
    bias_term: false
    pad: 0
    kernel_size: 1
    stride: 1
  }
}
layer {
  name: "bn4b_branch2c"
  type: "BatchNorm"
  bottom: "res4b_branch2c"
  top: "res4b_branch2c"
  batch_norm_param {
    use_global_stats: true
  }
}
layer {
  name: "scale4b_branch2c"
  type: "Scale"
  bottom: "res4b_branch2c"
  top: "res4b_branch2c"
  scale_param {
    bias_term: true
  }
}
layer {
  name: "res4b"
  type: "Eltwise"
  bottom: "res4a"
  bottom: "res4b_branch2c"
  top: "res4b"
}
layer {
  name: "res4b_relu"
  type: "ReLU"
  bottom: "res4b"
  top: "res4b"
}
layer {
  name: "res4c_branch2a"
  type: "Convolution"
  bottom: "res4b"
  top: "res4c_branch2a"
  param {
    lr_mult: 1
    decay_mult: 1
  }
  convolution_param {
    num_output: 256
    bias_term: false
    pad: 0
    kernel_size: 1
    stride: 1
  }
}
layer {
  name: "bn4c_branch2a"
  type: "BatchNorm"
  bottom: "res4c_branch2a"
  top: "res4c_branch2a"
  batch_norm_param {
    use_global_stats: true
  }
}
layer {
  name: "scale4c_branch2a"
  type: "Scale"
  bottom: "res4c_branch2a"
  top: "res4c_branch2a"
  scale_param {
    bias_term: true
  }
}
layer {
  name: "res4c_branch2a_relu"
  type: "ReLU"
  bottom: "res4c_branch2a"
  top: "res4c_branch2a"
}
layer {
  name: "res4c_branch2b"
  type: "Convolution"
  bottom: "res4c_branch2a"
  top: "res4c_branch2b"
  param {
    lr_mult: 1
    decay_mult: 1
  }
  convolution_param {
    num_output: 256
    bias_term: false
    pad: 1
    kernel_size: 3
    stride: 1
  }
}
layer {
  name: "bn4c_branch2b"
  type: "BatchNorm"
  bottom: "res4c_branch2b"
  top: "res4c_branch2b"
  batch_norm_param {
    use_global_stats: true
  }
}
layer {
  name: "scale4c_branch2b"
  type: "Scale"
  bottom: "res4c_branch2b"
  top: "res4c_branch2b"
  scale_param {
    bias_term: true
  }
}
layer {
  name: "res4c_branch2b_relu"
  type: "ReLU"
  bottom: "res4c_branch2b"
  top: "res4c_branch2b"
}
layer {
  name: "res4c_branch2c"
  type: "Convolution"
  bottom: "res4c_branch2b"
  top: "res4c_branch2c"
  param {
    lr_mult: 1
    decay_mult: 1
  }
  convolution_param {
    num_output: 1024
    bias_term: false
    pad: 0
    kernel_size: 1
    stride: 1
  }
}
layer {
  name: "bn4c_branch2c"
  type: "BatchNorm"
  bottom: "res4c_branch2c"
  top: "res4c_branch2c"
  batch_norm_param {
    use_global_stats: true
  }
}
layer {
  name: "scale4c_branch2c"
  type: "Scale"
  bottom: "res4c_branch2c"
  top: "res4c_branch2c"
  scale_param {
    bias_term: true
  }
}
layer {
  name: "res4c"
  type: "Eltwise"
  bottom: "res4b"
  bottom: "res4c_branch2c"
  top: "res4c"
}
layer {
  name: "res4c_relu"
  type: "ReLU"
  bottom: "res4c"
  top: "res4c"
}
layer {
  name: "res4d_branch2a"
  type: "Convolution"
  bottom: "res4c"
  top: "res4d_branch2a"
  param {
    lr_mult: 1
    decay_mult: 1
  }
  convolution_param {
    num_output: 256
    bias_term: false
    pad: 0
    kernel_size: 1
    stride: 1
  }
}
layer {
  name: "bn4d_branch2a"
  type: "BatchNorm"
  bottom: "res4d_branch2a"
  top: "res4d_branch2a"
  batch_norm_param {
    use_global_stats: true
  }
}
layer {
  name: "scale4d_branch2a"
  type: "Scale"
  bottom: "res4d_branch2a"
  top: "res4d_branch2a"
  scale_param {
    bias_term: true
  }
}
layer {
  name: "res4d_branch2a_relu"
  type: "ReLU"
  bottom: "res4d_branch2a"
  top: "res4d_branch2a"
}
layer {
  name: "res4d_branch2b"
  type: "Convolution"
  bottom: "res4d_branch2a"
  top: "res4d_branch2b"
  param {
    lr_mult: 1
    decay_mult: 1
  }
  convolution_param {
    num_output: 256
    bias_term: false
    pad: 1
    kernel_size: 3
    stride: 1
  }
}
layer {
  name: "bn4d_branch2b"
  type: "BatchNorm"
  bottom: "res4d_branch2b"
  top: "res4d_branch2b"
  batch_norm_param {
    use_global_stats: true
  }
}
layer {
  name: "scale4d_branch2b"
  type: "Scale"
  bottom: "res4d_branch2b"
  top: "res4d_branch2b"
  scale_param {
    bias_term: true
  }
}
layer {
  name: "res4d_branch2b_relu"
  type: "ReLU"
  bottom: "res4d_branch2b"
  top: "res4d_branch2b"
}
layer {
  name: "res4d_branch2c"
  type: "Convolution"
  bottom: "res4d_branch2b"
  top: "res4d_branch2c"
  param {
    lr_mult: 1
    decay_mult: 1
  }
  convolution_param {
    num_output: 1024
    bias_term: false
    pad: 0
    kernel_size: 1
    stride: 1
  }
}
layer {
  name: "bn4d_branch2c"
  type: "BatchNorm"
  bottom: "res4d_branch2c"
  top: "res4d_branch2c"
  batch_norm_param {
    use_global_stats: true
  }
}
layer {
  name: "scale4d_branch2c"
  type: "Scale"
  bottom: "res4d_branch2c"
  top: "res4d_branch2c"
  scale_param {
    bias_term: true
  }
}
layer {
  name: "res4d"
  type: "Eltwise"
  bottom: "res4c"
  bottom: "res4d_branch2c"
  top: "res4d"
}
layer {
  name: "res4d_relu"
  type: "ReLU"
  bottom: "res4d"
  top: "res4d"
}
layer {
  name: "res4e_branch2a"
  type: "Convolution"
  bottom: "res4d"
  top: "res4e_branch2a"
  param {
    lr_mult: 1
    decay_mult: 1
  }
  convolution_param {
    num_output: 256
    bias_term: false
    pad: 0
    kernel_size: 1
    stride: 1
  }
}
layer {
  name: "bn4e_branch2a"
  type: "BatchNorm"
  bottom: "res4e_branch2a"
  top: "res4e_branch2a"
  batch_norm_param {
    use_global_stats: true
  }
}
layer {
  name: "scale4e_branch2a"
  type: "Scale"
  bottom: "res4e_branch2a"
  top: "res4e_branch2a"
  scale_param {
    bias_term: true
  }
}
layer {
  name: "res4e_branch2a_relu"
  type: "ReLU"
  bottom: "res4e_branch2a"
  top: "res4e_branch2a"
}
layer {
  name: "res4e_branch2b"
  type: "Convolution"
  bottom: "res4e_branch2a"
  top: "res4e_branch2b"
  param {
    lr_mult: 1
    decay_mult: 1
  }
  convolution_param {
    num_output: 256
    bias_term: false
    pad: 1
    kernel_size: 3
    stride: 1
  }
}
layer {
  name: "bn4e_branch2b"
  type: "BatchNorm"
  bottom: "res4e_branch2b"
  top: "res4e_branch2b"
  batch_norm_param {
    use_global_stats: true
  }
}
layer {
  name: "scale4e_branch2b"
  type: "Scale"
  bottom: "res4e_branch2b"
  top: "res4e_branch2b"
  scale_param {
    bias_term: true
  }
}
layer {
  name: "res4e_branch2b_relu"
  type: "ReLU"
  bottom: "res4e_branch2b"
  top: "res4e_branch2b"
}
layer {
  name: "res4e_branch2c"
  type: "Convolution"
  bottom: "res4e_branch2b"
  top: "res4e_branch2c"
  param {
    lr_mult: 1
    decay_mult: 1
  }
  convolution_param {
    num_output: 1024
    bias_term: false
    pad: 0
    kernel_size: 1
    stride: 1
  }
}
layer {
  name: "bn4e_branch2c"
  type: "BatchNorm"
  bottom: "res4e_branch2c"
  top: "res4e_branch2c"
  batch_norm_param {
    use_global_stats: true
  }
}
layer {
  name: "scale4e_branch2c"
  type: "Scale"
  bottom: "res4e_branch2c"
  top: "res4e_branch2c"
  scale_param {
    bias_term: true
  }
}
layer {
  name: "res4e"
  type: "Eltwise"
  bottom: "res4d"
  bottom: "res4e_branch2c"
  top: "res4e"
}
layer {
  name: "res4e_relu"
  type: "ReLU"
  bottom: "res4e"
  top: "res4e"
}
layer {
  name: "res4f_branch2a"
  type: "Convolution"
  bottom: "res4e"
  top: "res4f_branch2a"
  param {
    lr_mult: 1
    decay_mult: 1
  }
  convolution_param {
    num_output: 256
    bias_term: false
    pad: 0
    kernel_size: 1
    stride: 1
  }
}
layer {
  name: "bn4f_branch2a"
  type: "BatchNorm"
  bottom: "res4f_branch2a"
  top: "res4f_branch2a"
  batch_norm_param {
    use_global_stats: true
  }
}
layer {
  name: "scale4f_branch2a"
  type: "Scale"
  bottom: "res4f_branch2a"
  top: "res4f_branch2a"
  scale_param {
    bias_term: true
  }
}
layer {
  name: "res4f_branch2a_relu"
  type: "ReLU"
  bottom: "res4f_branch2a"
  top: "res4f_branch2a"
}
layer {
  name: "res4f_branch2b"
  type: "Convolution"
  bottom: "res4f_branch2a"
  top: "res4f_branch2b"
  param {
    lr_mult: 1
    decay_mult: 1
  }
  convolution_param {
    num_output: 256
    bias_term: false
    pad: 1
    kernel_size: 3
    stride: 1
  }
}
layer {
  name: "bn4f_branch2b"
  type: "BatchNorm"
  bottom: "res4f_branch2b"
  top: "res4f_branch2b"
  batch_norm_param {
    use_global_stats: true
  }
}
layer {
  name: "scale4f_branch2b"
  type: "Scale"
  bottom: "res4f_branch2b"
  top: "res4f_branch2b"
  scale_param {
    bias_term: true
  }
}
layer {
  name: "res4f_branch2b_relu"
  type: "ReLU"
  bottom: "res4f_branch2b"
  top: "res4f_branch2b"
}
layer {
  name: "res4f_branch2c"
  type: "Convolution"
  bottom: "res4f_branch2b"
  top: "res4f_branch2c"
  param {
    lr_mult: 1
    decay_mult: 1
  }
  convolution_param {
    num_output: 1024
    bias_term: false
    pad: 0
    kernel_size: 1
    stride: 1
  }
}
layer {
  name: "bn4f_branch2c"
  type: "BatchNorm"
  bottom: "res4f_branch2c"
  top: "res4f_branch2c"
  batch_norm_param {
    use_global_stats: true
  }
}
layer {
  name: "scale4f_branch2c"
  type: "Scale"
  bottom: "res4f_branch2c"
  top: "res4f_branch2c"
  scale_param {
    bias_term: true
  }
}
layer {
  name: "res4f"
  type: "Eltwise"
  bottom: "res4e"
  bottom: "res4f_branch2c"
  top: "res4f"
}
layer {
  name: "res4f_relu"
  type: "ReLU"
  bottom: "res4f"
  top: "res
I0629 03:28:24.939333  2085 layer_factory.hpp:77] Creating layer input
I0629 03:28:24.941750  2085 db_lmdb.cpp:35] Opened lmdb ../../../data_subsets/subtrain2_lmdb
I0629 03:28:24.944963  2085 net.cpp:84] Creating Layer input
I0629 03:28:24.944990  2085 net.cpp:380] input -> data
I0629 03:28:24.945019  2085 net.cpp:380] input -> label
I0629 03:28:24.945042  2085 data_transformer.cpp:25] Loading mean file from: ../../../data_subsets/subtrain2_mean.binaryproto
I0629 03:28:24.965926  2085 data_layer.cpp:45] output data size: 8,3,224,224
I0629 03:28:24.977186  2085 net.cpp:122] Setting up input
I0629 03:28:24.977231  2085 net.cpp:129] Top shape: 8 3 224 224 (1204224)
I0629 03:28:24.977239  2085 net.cpp:129] Top shape: 8 (8)
I0629 03:28:24.977243  2085 net.cpp:137] Memory required for data: 4816928
I0629 03:28:24.977253  2085 layer_factory.hpp:77] Creating layer label_input_1_split
I0629 03:28:24.977270  2085 net.cpp:84] Creating Layer label_input_1_split
I0629 03:28:24.977280  2085 net.cpp:406] label_input_1_split <- label
I0629 03:28:24.977296  2085 net.cpp:380] label_input_1_split -> label_input_1_split_0
I0629 03:28:24.977315  2085 net.cpp:380] label_input_1_split -> label_input_1_split_1
I0629 03:28:24.977324  2085 net.cpp:380] label_input_1_split -> label_input_1_split_2
I0629 03:28:24.977330  2085 net.cpp:380] label_input_1_split -> label_input_1_split_3
I0629 03:28:24.977393  2085 net.cpp:122] Setting up label_input_1_split
I0629 03:28:24.977407  2085 net.cpp:129] Top shape: 8 (8)
I0629 03:28:24.977413  2085 net.cpp:129] Top shape: 8 (8)
I0629 03:28:24.977417  2085 net.cpp:129] Top shape: 8 (8)
I0629 03:28:24.977422  2085 net.cpp:129] Top shape: 8 (8)
I0629 03:28:24.977425  2085 net.cpp:137] Memory required for data: 4817056
I0629 03:28:24.977430  2085 layer_factory.hpp:77] Creating layer conv1
I0629 03:28:24.977452  2085 net.cpp:84] Creating Layer conv1
I0629 03:28:24.977461  2085 net.cpp:406] conv1 <- data
I0629 03:28:24.977469  2085 net.cpp:380] conv1 -> conv1
I0629 03:28:25.146136  2085 net.cpp:122] Setting up conv1
I0629 03:28:25.146193  2085 net.cpp:129] Top shape: 8 64 112 112 (6422528)
I0629 03:28:25.146198  2085 net.cpp:137] Memory required for data: 30507168
I0629 03:28:25.146220  2085 layer_factory.hpp:77] Creating layer bn_conv1
I0629 03:28:25.146239  2085 net.cpp:84] Creating Layer bn_conv1
I0629 03:28:25.146245  2085 net.cpp:406] bn_conv1 <- conv1
I0629 03:28:25.146252  2085 net.cpp:367] bn_conv1 -> conv1 (in-place)
I0629 03:28:25.146450  2085 net.cpp:122] Setting up bn_conv1
I0629 03:28:25.146466  2085 net.cpp:129] Top shape: 8 64 112 112 (6422528)
I0629 03:28:25.146495  2085 net.cpp:137] Memory required for data: 56197280
I0629 03:28:25.146512  2085 layer_factory.hpp:77] Creating layer scale_conv1
I0629 03:28:25.146525  2085 net.cpp:84] Creating Layer scale_conv1
I0629 03:28:25.146536  2085 net.cpp:406] scale_conv1 <- conv1
I0629 03:28:25.146543  2085 net.cpp:367] scale_conv1 -> conv1 (in-place)
I0629 03:28:25.146605  2085 layer_factory.hpp:77] Creating layer scale_conv1
I0629 03:28:25.146754  2085 net.cpp:122] Setting up scale_conv1
I0629 03:28:25.146770  2085 net.cpp:129] Top shape: 8 64 112 112 (6422528)
I0629 03:28:25.146773  2085 net.cpp:137] Memory required for data: 81887392
I0629 03:28:25.146780  2085 layer_factory.hpp:77] Creating layer conv1_relu
I0629 03:28:25.146790  2085 net.cpp:84] Creating Layer conv1_relu
I0629 03:28:25.146795  2085 net.cpp:406] conv1_relu <- conv1
I0629 03:28:25.146800  2085 net.cpp:367] conv1_relu -> conv1 (in-place)
I0629 03:28:25.146953  2085 net.cpp:122] Setting up conv1_relu
I0629 03:28:25.146970  2085 net.cpp:129] Top shape: 8 64 112 112 (6422528)
I0629 03:28:25.146975  2085 net.cpp:137] Memory required for data: 107577504
I0629 03:28:25.146978  2085 layer_factory.hpp:77] Creating layer pool1
I0629 03:28:25.146989  2085 net.cpp:84] Creating Layer pool1
I0629 03:28:25.146996  2085 net.cpp:406] pool1 <- conv1
I0629 03:28:25.147002  2085 net.cpp:380] pool1 -> pool1
I0629 03:28:25.147060  2085 net.cpp:122] Setting up pool1
I0629 03:28:25.147080  2085 net.cpp:129] Top shape: 8 64 56 56 (1605632)
I0629 03:28:25.147084  2085 net.cpp:137] Memory required for data: 114000032
I0629 03:28:25.147089  2085 layer_factory.hpp:77] Creating layer pool1_pool1_0_split
I0629 03:28:25.147095  2085 net.cpp:84] Creating Layer pool1_pool1_0_split
I0629 03:28:25.147099  2085 net.cpp:406] pool1_pool1_0_split <- pool1
I0629 03:28:25.147104  2085 net.cpp:380] pool1_pool1_0_split -> pool1_pool1_0_split_0
I0629 03:28:25.147112  2085 net.cpp:380] pool1_pool1_0_split -> pool1_pool1_0_split_1
I0629 03:28:25.147150  2085 net.cpp:122] Setting up pool1_pool1_0_split
I0629 03:28:25.147164  2085 net.cpp:129] Top shape: 8 64 56 56 (1605632)
I0629 03:28:25.147169  2085 net.cpp:129] Top shape: 8 64 56 56 (1605632)
I0629 03:28:25.147173  2085 net.cpp:137] Memory required for data: 126845088
I0629 03:28:25.147176  2085 layer_factory.hpp:77] Creating layer res2a_branch1
I0629 03:28:25.147193  2085 net.cpp:84] Creating Layer res2a_branch1
I0629 03:28:25.147198  2085 net.cpp:406] res2a_branch1 <- pool1_pool1_0_split_0
I0629 03:28:25.147207  2085 net.cpp:380] res2a_branch1 -> res2a_branch1
I0629 03:28:25.148169  2085 net.cpp:122] Setting up res2a_branch1
I0629 03:28:25.148190  2085 net.cpp:129] Top shape: 8 256 56 56 (6422528)
I0629 03:28:25.148195  2085 net.cpp:137] Memory required for data: 152535200
I0629 03:28:25.148201  2085 layer_factory.hpp:77] Creating layer bn2a_branch1
I0629 03:28:25.148211  2085 net.cpp:84] Creating Layer bn2a_branch1
I0629 03:28:25.148216  2085 net.cpp:406] bn2a_branch1 <- res2a_branch1
I0629 03:28:25.148221  2085 net.cpp:367] bn2a_branch1 -> res2a_branch1 (in-place)
I0629 03:28:25.148927  2085 net.cpp:122] Setting up bn2a_branch1
I0629 03:28:25.148947  2085 net.cpp:129] Top shape: 8 256 56 56 (6422528)
I0629 03:28:25.148950  2085 net.cpp:137] Memory required for data: 178225312
I0629 03:28:25.148964  2085 layer_factory.hpp:77] Creating layer scale2a_branch1
I0629 03:28:25.148972  2085 net.cpp:84] Creating Layer scale2a_branch1
I0629 03:28:25.148977  2085 net.cpp:406] scale2a_branch1 <- res2a_branch1
I0629 03:28:25.148982  2085 net.cpp:367] scale2a_branch1 -> res2a_branch1 (in-place)
I0629 03:28:25.149025  2085 layer_factory.hpp:77] Creating layer scale2a_branch1
I0629 03:28:25.149143  2085 net.cpp:122] Setting up scale2a_branch1
I0629 03:28:25.149160  2085 net.cpp:129] Top shape: 8 256 56 56 (6422528)
I0629 03:28:25.149164  2085 net.cpp:137] Memory required for data: 203915424
I0629 03:28:25.149171  2085 layer_factory.hpp:77] Creating layer res2a_branch2a
I0629 03:28:25.149183  2085 net.cpp:84] Creating Layer res2a_branch2a
I0629 03:28:25.149202  2085 net.cpp:406] res2a_branch2a <- pool1_pool1_0_split_1
I0629 03:28:25.149212  2085 net.cpp:380] res2a_branch2a -> res2a_branch2a
I0629 03:28:25.150022  2085 net.cpp:122] Setting up res2a_branch2a
I0629 03:28:25.150041  2085 net.cpp:129] Top shape: 8 64 56 56 (1605632)
I0629 03:28:25.150046  2085 net.cpp:137] Memory required for data: 210337952
I0629 03:28:25.150053  2085 layer_factory.hpp:77] Creating layer bn2a_branch2a
I0629 03:28:25.150063  2085 net.cpp:84] Creating Layer bn2a_branch2a
I0629 03:28:25.150068  2085 net.cpp:406] bn2a_branch2a <- res2a_branch2a
I0629 03:28:25.150072  2085 net.cpp:367] bn2a_branch2a -> res2a_branch2a (in-place)
I0629 03:28:25.150254  2085 net.cpp:122] Setting up bn2a_branch2a
I0629 03:28:25.150269  2085 net.cpp:129] Top shape: 8 64 56 56 (1605632)
I0629 03:28:25.150274  2085 net.cpp:137] Memory required for data: 216760480
I0629 03:28:25.150285  2085 layer_factory.hpp:77] Creating layer scale2a_branch2a
I0629 03:28:25.150295  2085 net.cpp:84] Creating Layer scale2a_branch2a
I0629 03:28:25.150298  2085 net.cpp:406] scale2a_branch2a <- res2a_branch2a
I0629 03:28:25.150305  2085 net.cpp:367] scale2a_branch2a -> res2a_branch2a (in-place)
I0629 03:28:25.150346  2085 layer_factory.hpp:77] Creating layer scale2a_branch2a
I0629 03:28:25.150468  2085 net.cpp:122] Setting up scale2a_branch2a
I0629 03:28:25.150483  2085 net.cpp:129] Top shape: 8 64 56 56 (1605632)
I0629 03:28:25.150487  2085 net.cpp:137] Memory required for data: 223183008
I0629 03:28:25.150493  2085 layer_factory.hpp:77] Creating layer res2a_branch2a_relu
I0629 03:28:25.150502  2085 net.cpp:84] Creating Layer res2a_branch2a_relu
I0629 03:28:25.150506  2085 net.cpp:406] res2a_branch2a_relu <- res2a_branch2a
I0629 03:28:25.150512  2085 net.cpp:367] res2a_branch2a_relu -> res2a_branch2a (in-place)
I0629 03:28:25.150750  2085 net.cpp:122] Setting up res2a_branch2a_relu
I0629 03:28:25.150768  2085 net.cpp:129] Top shape: 8 64 56 56 (1605632)
I0629 03:28:25.150774  2085 net.cpp:137] Memory required for data: 229605536
I0629 03:28:25.150777  2085 layer_factory.hpp:77] Creating layer res2a_branch2b
I0629 03:28:25.150789  2085 net.cpp:84] Creating Layer res2a_branch2b
I0629 03:28:25.150794  2085 net.cpp:406] res2a_branch2b <- res2a_branch2a
I0629 03:28:25.150800  2085 net.cpp:380] res2a_branch2b -> res2a_branch2b
I0629 03:28:25.152174  2085 net.cpp:122] Setting up res2a_branch2b
I0629 03:28:25.152195  2085 net.cpp:129] Top shape: 8 64 56 56 (1605632)
I0629 03:28:25.152199  2085 net.cpp:137] Memory required for data: 236028064
I0629 03:28:25.152206  2085 layer_factory.hpp:77] Creating layer bn2a_branch2b
I0629 03:28:25.152218  2085 net.cpp:84] Creating Layer bn2a_branch2b
I0629 03:28:25.152225  2085 net.cpp:406] bn2a_branch2b <- res2a_branch2b
I0629 03:28:25.152230  2085 net.cpp:367] bn2a_branch2b -> res2a_branch2b (in-place)
I0629 03:28:25.152420  2085 net.cpp:122] Setting up bn2a_branch2b
I0629 03:28:25.152439  2085 net.cpp:129] Top shape: 8 64 56 56 (1605632)
I0629 03:28:25.152443  2085 net.cpp:137] Memory required for data: 242450592
I0629 03:28:25.152452  2085 layer_factory.hpp:77] Creating layer scale2a_branch2b
I0629 03:28:25.152459  2085 net.cpp:84] Creating Layer scale2a_branch2b
I0629 03:28:25.152463  2085 net.cpp:406] scale2a_branch2b <- res2a_branch2b
I0629 03:28:25.152468  2085 net.cpp:367] scale2a_branch2b -> res2a_branch2b (in-place)
I0629 03:28:25.152513  2085 layer_factory.hpp:77] Creating layer scale2a_branch2b
I0629 03:28:25.152638  2085 net.cpp:122] Setting up scale2a_branch2b
I0629 03:28:25.152653  2085 net.cpp:129] Top shape: 8 64 56 56 (1605632)
I0629 03:28:25.152657  2085 net.cpp:137] Memory required for data: 248873120
I0629 03:28:25.152664  2085 layer_factory.hpp:77] Creating layer res2a_branch2b_relu
I0629 03:28:25.152670  2085 net.cpp:84] Creating Layer res2a_branch2b_relu
I0629 03:28:25.152674  2085 net.cpp:406] res2a_branch2b_relu <- res2a_branch2b
I0629 03:28:25.152683  2085 net.cpp:367] res2a_branch2b_relu -> res2a_branch2b (in-place)
I0629 03:28:25.152935  2085 net.cpp:122] Setting up res2a_branch2b_relu
I0629 03:28:25.152967  2085 net.cpp:129] Top shape: 8 64 56 56 (1605632)
I0629 03:28:25.152972  2085 net.cpp:137] Memory required for data: 255295648
I0629 03:28:25.152976  2085 layer_factory.hpp:77] Creating layer res2a_branch2c
I0629 03:28:25.152989  2085 net.cpp:84] Creating Layer res2a_branch2c
I0629 03:28:25.152994  2085 net.cpp:406] res2a_branch2c <- res2a_branch2b
I0629 03:28:25.153007  2085 net.cpp:380] res2a_branch2c -> res2a_branch2c
I0629 03:28:25.153934  2085 net.cpp:122] Setting up res2a_branch2c
I0629 03:28:25.153954  2085 net.cpp:129] Top shape: 8 256 56 56 (6422528)
I0629 03:28:25.153959  2085 net.cpp:137] Memory required for data: 280985760
I0629 03:28:25.153964  2085 layer_factory.hpp:77] Creating layer bn2a_branch2c
I0629 03:28:25.153975  2085 net.cpp:84] Creating Layer bn2a_branch2c
I0629 03:28:25.153980  2085 net.cpp:406] bn2a_branch2c <- res2a_branch2c
I0629 03:28:25.153985  2085 net.cpp:367] bn2a_branch2c -> res2a_branch2c (in-place)
I0629 03:28:25.154171  2085 net.cpp:122] Setting up bn2a_branch2c
I0629 03:28:25.154198  2085 net.cpp:129] Top shape: 8 256 56 56 (6422528)
I0629 03:28:25.154203  2085 net.cpp:137] Memory required for data: 306675872
I0629 03:28:25.154211  2085 layer_factory.hpp:77] Creating layer scale2a_branch2c
I0629 03:28:25.154218  2085 net.cpp:84] Creating Layer scale2a_branch2c
I0629 03:28:25.154222  2085 net.cpp:406] scale2a_branch2c <- res2a_branch2c
I0629 03:28:25.154228  2085 net.cpp:367] scale2a_branch2c -> res2a_branch2c (in-place)
I0629 03:28:25.154276  2085 layer_factory.hpp:77] Creating layer scale2a_branch2c
I0629 03:28:25.154400  2085 net.cpp:122] Setting up scale2a_branch2c
I0629 03:28:25.154417  2085 net.cpp:129] Top shape: 8 256 56 56 (6422528)
I0629 03:28:25.154422  2085 net.cpp:137] Memory required for data: 332365984
I0629 03:28:25.154428  2085 layer_factory.hpp:77] Creating layer res2a
I0629 03:28:25.154441  2085 net.cpp:84] Creating Layer res2a
I0629 03:28:25.154446  2085 net.cpp:406] res2a <- res2a_branch1
I0629 03:28:25.154453  2085 net.cpp:406] res2a <- res2a_branch2c
I0629 03:28:25.154458  2085 net.cpp:380] res2a -> res2a
I0629 03:28:25.154490  2085 net.cpp:122] Setting up res2a
I0629 03:28:25.154505  2085 net.cpp:129] Top shape: 8 256 56 56 (6422528)
I0629 03:28:25.154508  2085 net.cpp:137] Memory required for data: 358056096
I0629 03:28:25.154512  2085 layer_factory.hpp:77] Creating layer res2a_relu
I0629 03:28:25.154518  2085 net.cpp:84] Creating Layer res2a_relu
I0629 03:28:25.154522  2085 net.cpp:406] res2a_relu <- res2a
I0629 03:28:25.154531  2085 net.cpp:367] res2a_relu -> res2a (in-place)
I0629 03:28:25.154677  2085 net.cpp:122] Setting up res2a_relu
I0629 03:28:25.154695  2085 net.cpp:129] Top shape: 8 256 56 56 (6422528)
I0629 03:28:25.154698  2085 net.cpp:137] Memory required for data: 383746208
I0629 03:28:25.154702  2085 layer_factory.hpp:77] Creating layer res2a_res2a_relu_0_split
I0629 03:28:25.154711  2085 net.cpp:84] Creating Layer res2a_res2a_relu_0_split
I0629 03:28:25.154716  2085 net.cpp:406] res2a_res2a_relu_0_split <- res2a
I0629 03:28:25.154721  2085 net.cpp:380] res2a_res2a_relu_0_split -> res2a_res2a_relu_0_split_0
I0629 03:28:25.154728  2085 net.cpp:380] res2a_res2a_relu_0_split -> res2a_res2a_relu_0_split_1
I0629 03:28:25.154772  2085 net.cpp:122] Setting up res2a_res2a_relu_0_split
I0629 03:28:25.154786  2085 net.cpp:129] Top shape: 8 256 56 56 (6422528)
I0629 03:28:25.154794  2085 net.cpp:129] Top shape: 8 256 56 56 (6422528)
I0629 03:28:25.154798  2085 net.cpp:137] Memory required for data: 435126432
I0629 03:28:25.154803  2085 layer_factory.hpp:77] Creating layer res2b_branch2a
I0629 03:28:25.154811  2085 net.cpp:84] Creating Layer res2b_branch2a
I0629 03:28:25.154815  2085 net.cpp:406] res2b_branch2a <- res2a_res2a_relu_0_split_0
I0629 03:28:25.154824  2085 net.cpp:380] res2b_branch2a -> res2b_branch2a
I0629 03:28:25.155650  2085 net.cpp:122] Setting up res2b_branch2a
I0629 03:28:25.155669  2085 net.cpp:129] Top shape: 8 64 56 56 (1605632)
I0629 03:28:25.155673  2085 net.cpp:137] Memory required for data: 441548960
I0629 03:28:25.155694  2085 layer_factory.hpp:77] Creating layer bn2b_branch2a
I0629 03:28:25.155704  2085 net.cpp:84] Creating Layer bn2b_branch2a
I0629 03:28:25.155709  2085 net.cpp:406] bn2b_branch2a <- res2b_branch2a
I0629 03:28:25.155715  2085 net.cpp:367] bn2b_branch2a -> res2b_branch2a (in-place)
I0629 03:28:25.155918  2085 net.cpp:122] Setting up bn2b_branch2a
I0629 03:28:25.155935  2085 net.cpp:129] Top shape: 8 64 56 56 (1605632)
I0629 03:28:25.155938  2085 net.cpp:137] Memory required for data: 447971488
I0629 03:28:25.155954  2085 layer_factory.hpp:77] Creating layer scale2b_branch2a
I0629 03:28:25.155962  2085 net.cpp:84] Creating Layer scale2b_branch2a
I0629 03:28:25.155966  2085 net.cpp:406] scale2b_branch2a <- res2b_branch2a
I0629 03:28:25.155972  2085 net.cpp:367] scale2b_branch2a -> res2b_branch2a (in-place)
I0629 03:28:25.156020  2085 layer_factory.hpp:77] Creating layer scale2b_branch2a
I0629 03:28:25.156152  2085 net.cpp:122] Setting up scale2b_branch2a
I0629 03:28:25.156170  2085 net.cpp:129] Top shape: 8 64 56 56 (1605632)
I0629 03:28:25.156174  2085 net.cpp:137] Memory required for data: 454394016
I0629 03:28:25.156182  2085 layer_factory.hpp:77] Creating layer res2b_branch2a_relu
I0629 03:28:25.156190  2085 net.cpp:84] Creating Layer res2b_branch2a_relu
I0629 03:28:25.156194  2085 net.cpp:406] res2b_branch2a_relu <- res2b_branch2a
I0629 03:28:25.156200  2085 net.cpp:367] res2b_branch2a_relu -> res2b_branch2a (in-place)
I0629 03:28:25.156452  2085 net.cpp:122] Setting up res2b_branch2a_relu
I0629 03:28:25.156471  2085 net.cpp:129] Top shape: 8 64 56 56 (1605632)
I0629 03:28:25.156476  2085 net.cpp:137] Memory required for data: 460816544
I0629 03:28:25.156479  2085 layer_factory.hpp:77] Creating layer res2b_branch2b
I0629 03:28:25.156491  2085 net.cpp:84] Creating Layer res2b_branch2b
I0629 03:28:25.156498  2085 net.cpp:406] res2b_branch2b <- res2b_branch2a
I0629 03:28:25.156504  2085 net.cpp:380] res2b_branch2b -> res2b_branch2b
I0629 03:28:25.157253  2085 net.cpp:122] Setting up res2b_branch2b
I0629 03:28:25.157270  2085 net.cpp:129] Top shape: 8 64 56 56 (1605632)
I0629 03:28:25.157275  2085 net.cpp:137] Memory required for data: 467239072
I0629 03:28:25.157281  2085 layer_factory.hpp:77] Creating layer bn2b_branch2b
I0629 03:28:25.157289  2085 net.cpp:84] Creating Layer bn2b_branch2b
I0629 03:28:25.157294  2085 net.cpp:406] bn2b_branch2b <- res2b_branch2b
I0629 03:28:25.157304  2085 net.cpp:367] bn2b_branch2b -> res2b_branch2b (in-place)
I0629 03:28:25.157496  2085 net.cpp:122] Setting up bn2b_branch2b
I0629 03:28:25.157512  2085 net.cpp:129] Top shape: 8 64 56 56 (1605632)
I0629 03:28:25.157516  2085 net.cpp:137] Memory required for data: 473661600
I0629 03:28:25.157524  2085 layer_factory.hpp:77] Creating layer scale2b_branch2b
I0629 03:28:25.157531  2085 net.cpp:84] Creating Layer scale2b_branch2b
I0629 03:28:25.157536  2085 net.cpp:406] scale2b_branch2b <- res2b_branch2b
I0629 03:28:25.157543  2085 net.cpp:367] scale2b_branch2b -> res2b_branch2b (in-place)
I0629 03:28:25.157588  2085 layer_factory.hpp:77] Creating layer scale2b_branch2b
I0629 03:28:25.157714  2085 net.cpp:122] Setting up scale2b_branch2b
I0629 03:28:25.157729  2085 net.cpp:129] Top shape: 8 64 56 56 (1605632)
I0629 03:28:25.157733  2085 net.cpp:137] Memory required for data: 480084128
I0629 03:28:25.157740  2085 layer_factory.hpp:77] Creating layer res2b_branch2b_relu
I0629 03:28:25.157752  2085 net.cpp:84] Creating Layer res2b_branch2b_relu
I0629 03:28:25.157757  2085 net.cpp:406] res2b_branch2b_relu <- res2b_branch2b
I0629 03:28:25.157763  2085 net.cpp:367] res2b_branch2b_relu -> res2b_branch2b (in-place)
I0629 03:28:25.158020  2085 net.cpp:122] Setting up res2b_branch2b_relu
I0629 03:28:25.158038  2085 net.cpp:129] Top shape: 8 64 56 56 (1605632)
I0629 03:28:25.158042  2085 net.cpp:137] Memory required for data: 486506656
I0629 03:28:25.158046  2085 layer_factory.hpp:77] Creating layer res2b_branch2c
I0629 03:28:25.158057  2085 net.cpp:84] Creating Layer res2b_branch2c
I0629 03:28:25.158062  2085 net.cpp:406] res2b_branch2c <- res2b_branch2b
I0629 03:28:25.158092  2085 net.cpp:380] res2b_branch2c -> res2b_branch2c
I0629 03:28:25.159065  2085 net.cpp:122] Setting up res2b_branch2c
I0629 03:28:25.159085  2085 net.cpp:129] Top shape: 8 256 56 56 (6422528)
I0629 03:28:25.159090  2085 net.cpp:137] Memory required for data: 512196768
I0629 03:28:25.159096  2085 layer_factory.hpp:77] Creating layer bn2b_branch2c
I0629 03:28:25.159106  2085 net.cpp:84] Creating Layer bn2b_branch2c
I0629 03:28:25.159111  2085 net.cpp:406] bn2b_branch2c <- res2b_branch2c
I0629 03:28:25.159121  2085 net.cpp:367] bn2b_branch2c -> res2b_branch2c (in-place)
I0629 03:28:25.159322  2085 net.cpp:122] Setting up bn2b_branch2c
I0629 03:28:25.159337  2085 net.cpp:129] Top shape: 8 256 56 56 (6422528)
I0629 03:28:25.159342  2085 net.cpp:137] Memory required for data: 537886880
I0629 03:28:25.159349  2085 layer_factory.hpp:77] Creating layer scale2b_branch2c
I0629 03:28:25.159359  2085 net.cpp:84] Creating Layer scale2b_branch2c
I0629 03:28:25.159363  2085 net.cpp:406] scale2b_branch2c <- res2b_branch2c
I0629 03:28:25.159368  2085 net.cpp:367] scale2b_branch2c -> res2b_branch2c (in-place)
I0629 03:28:25.159415  2085 layer_factory.hpp:77] Creating layer scale2b_branch2c
I0629 03:28:25.159543  2085 net.cpp:122] Setting up scale2b_branch2c
I0629 03:28:25.159559  2085 net.cpp:129] Top shape: 8 256 56 56 (6422528)
I0629 03:28:25.159561  2085 net.cpp:137] Memory required for data: 563576992
I0629 03:28:25.159569  2085 layer_factory.hpp:77] Creating layer res2b
I0629 03:28:25.159575  2085 net.cpp:84] Creating Layer res2b
I0629 03:28:25.159579  2085 net.cpp:406] res2b <- res2a_res2a_relu_0_split_1
I0629 03:28:25.159584  2085 net.cpp:406] res2b <- res2b_branch2c
I0629 03:28:25.159590  2085 net.cpp:380] res2b -> res2b
I0629 03:28:25.159620  2085 net.cpp:122] Setting up res2b
I0629 03:28:25.159632  2085 net.cpp:129] Top shape: 8 256 56 56 (6422528)
I0629 03:28:25.159636  2085 net.cpp:137] Memory required for data: 589267104
I0629 03:28:25.159641  2085 layer_factory.hpp:77] Creating layer res2b_relu
I0629 03:28:25.159648  2085 net.cpp:84] Creating Layer res2b_relu
I0629 03:28:25.159652  2085 net.cpp:406] res2b_relu <- res2b
I0629 03:28:25.159657  2085 net.cpp:367] res2b_relu -> res2b (in-place)
I0629 03:28:25.159915  2085 net.cpp:122] Setting up res2b_relu
I0629 03:28:25.159932  2085 net.cpp:129] Top shape: 8 256 56 56 (6422528)
I0629 03:28:25.159936  2085 net.cpp:137] Memory required for data: 614957216
I0629 03:28:25.159940  2085 layer_factory.hpp:77] Creating layer res2b_res2b_relu_0_split
I0629 03:28:25.159950  2085 net.cpp:84] Creating Layer res2b_res2b_relu_0_split
I0629 03:28:25.159953  2085 net.cpp:406] res2b_res2b_relu_0_split <- res2b
I0629 03:28:25.159960  2085 net.cpp:380] res2b_res2b_relu_0_split -> res2b_res2b_relu_0_split_0
I0629 03:28:25.159968  2085 net.cpp:380] res2b_res2b_relu_0_split -> res2b_res2b_relu_0_split_1
I0629 03:28:25.160014  2085 net.cpp:122] Setting up res2b_res2b_relu_0_split
I0629 03:28:25.160028  2085 net.cpp:129] Top shape: 8 256 56 56 (6422528)
I0629 03:28:25.160033  2085 net.cpp:129] Top shape: 8 256 56 56 (6422528)
I0629 03:28:25.160037  2085 net.cpp:137] Memory required for data: 666337440
I0629 03:28:25.160042  2085 layer_factory.hpp:77] Creating layer res2c_branch2a
I0629 03:28:25.160053  2085 net.cpp:84] Creating Layer res2c_branch2a
I0629 03:28:25.160056  2085 net.cpp:406] res2c_branch2a <- res2b_res2b_relu_0_split_0
I0629 03:28:25.160064  2085 net.cpp:380] res2c_branch2a -> res2c_branch2a
I0629 03:28:25.160912  2085 net.cpp:122] Setting up res2c_branch2a
I0629 03:28:25.160931  2085 net.cpp:129] Top shape: 8 64 56 56 (1605632)
I0629 03:28:25.160936  2085 net.cpp:137] Memory required for data: 672759968
I0629 03:28:25.160943  2085 layer_factory.hpp:77] Creating layer bn2c_branch2a
I0629 03:28:25.160953  2085 net.cpp:84] Creating Layer bn2c_branch2a
I0629 03:28:25.160956  2085 net.cpp:406] bn2c_branch2a <- res2c_branch2a
I0629 03:28:25.160962  2085 net.cpp:367] bn2c_branch2a -> res2c_branch2a (in-place)
I0629 03:28:25.161161  2085 net.cpp:122] Setting up bn2c_branch2a
I0629 03:28:25.161190  2085 net.cpp:129] Top shape: 8 64 56 56 (1605632)
I0629 03:28:25.161195  2085 net.cpp:137] Memory required for data: 679182496
I0629 03:28:25.161203  2085 layer_factory.hpp:77] Creating layer scale2c_branch2a
I0629 03:28:25.161213  2085 net.cpp:84] Creating Layer scale2c_branch2a
I0629 03:28:25.161221  2085 net.cpp:406] scale2c_branch2a <- res2c_branch2a
I0629 03:28:25.161226  2085 net.cpp:367] scale2c_branch2a -> res2c_branch2a (in-place)
I0629 03:28:25.161274  2085 layer_factory.hpp:77] Creating layer scale2c_branch2a
I0629 03:28:25.161408  2085 net.cpp:122] Setting up scale2c_branch2a
I0629 03:28:25.161427  2085 net.cpp:129] Top shape: 8 64 56 56 (1605632)
I0629 03:28:25.161429  2085 net.cpp:137] Memory required for data: 685605024
I0629 03:28:25.161437  2085 layer_factory.hpp:77] Creating layer res2c_branch2a_relu
I0629 03:28:25.161445  2085 net.cpp:84] Creating Layer res2c_branch2a_relu
I0629 03:28:25.161449  2085 net.cpp:406] res2c_branch2a_relu <- res2c_branch2a
I0629 03:28:25.161455  2085 net.cpp:367] res2c_branch2a_relu -> res2c_branch2a (in-place)
I0629 03:28:25.161701  2085 net.cpp:122] Setting up res2c_branch2a_relu
I0629 03:28:25.161720  2085 net.cpp:129] Top shape: 8 64 56 56 (1605632)
I0629 03:28:25.161723  2085 net.cpp:137] Memory required for data: 692027552
I0629 03:28:25.161728  2085 layer_factory.hpp:77] Creating layer res2c_branch2b
I0629 03:28:25.161741  2085 net.cpp:84] Creating Layer res2c_branch2b
I0629 03:28:25.161748  2085 net.cpp:406] res2c_branch2b <- res2c_branch2a
I0629 03:28:25.161758  2085 net.cpp:380] res2c_branch2b -> res2c_branch2b
I0629 03:28:25.162525  2085 net.cpp:122] Setting up res2c_branch2b
I0629 03:28:25.162544  2085 net.cpp:129] Top shape: 8 64 56 56 (1605632)
I0629 03:28:25.162549  2085 net.cpp:137] Memory required for data: 698450080
I0629 03:28:25.162554  2085 layer_factory.hpp:77] Creating layer bn2c_branch2b
I0629 03:28:25.162564  2085 net.cpp:84] Creating Layer bn2c_branch2b
I0629 03:28:25.162571  2085 net.cpp:406] bn2c_branch2b <- res2c_branch2b
I0629 03:28:25.162576  2085 net.cpp:367] bn2c_branch2b -> res2c_branch2b (in-place)
I0629 03:28:25.162778  2085 net.cpp:122] Setting up bn2c_branch2b
I0629 03:28:25.162793  2085 net.cpp:129] Top shape: 8 64 56 56 (1605632)
I0629 03:28:25.162797  2085 net.cpp:137] Memory required for data: 704872608
I0629 03:28:25.162806  2085 layer_factory.hpp:77] Creating layer scale2c_branch2b
I0629 03:28:25.162813  2085 net.cpp:84] Creating Layer scale2c_branch2b
I0629 03:28:25.162817  2085 net.cpp:406] scale2c_branch2b <- res2c_branch2b
I0629 03:28:25.162822  2085 net.cpp:367] scale2c_branch2b -> res2c_branch2b (in-place)
I0629 03:28:25.162876  2085 layer_factory.hpp:77] Creating layer scale2c_branch2b
I0629 03:28:25.163008  2085 net.cpp:122] Setting up scale2c_branch2b
I0629 03:28:25.163024  2085 net.cpp:129] Top shape: 8 64 56 56 (1605632)
I0629 03:28:25.163028  2085 net.cpp:137] Memory required for data: 711295136
I0629 03:28:25.163034  2085 layer_factory.hpp:77] Creating layer res2c_branch2b_relu
I0629 03:28:25.163043  2085 net.cpp:84] Creating Layer res2c_branch2b_relu
I0629 03:28:25.163048  2085 net.cpp:406] res2c_branch2b_relu <- res2c_branch2b
I0629 03:28:25.163053  2085 net.cpp:367] res2c_branch2b_relu -> res2c_branch2b (in-place)
I0629 03:28:25.163310  2085 net.cpp:122] Setting up res2c_branch2b_relu
I0629 03:28:25.163327  2085 net.cpp:129] Top shape: 8 64 56 56 (1605632)
I0629 03:28:25.163331  2085 net.cpp:137] Memory required for data: 717717664
I0629 03:28:25.163336  2085 layer_factory.hpp:77] Creating layer res2c_branch2c
I0629 03:28:25.163347  2085 net.cpp:84] Creating Layer res2c_branch2c
I0629 03:28:25.163352  2085 net.cpp:406] res2c_branch2c <- res2c_branch2b
I0629 03:28:25.163358  2085 net.cpp:380] res2c_branch2c -> res2c_branch2c
I0629 03:28:25.164330  2085 net.cpp:122] Setting up res2c_branch2c
I0629 03:28:25.164350  2085 net.cpp:129] Top shape: 8 256 56 56 (6422528)
I0629 03:28:25.164355  2085 net.cpp:137] Memory required for data: 743407776
I0629 03:28:25.164376  2085 layer_factory.hpp:77] Creating layer bn2c_branch2c
I0629 03:28:25.164384  2085 net.cpp:84] Creating Layer bn2c_branch2c
I0629 03:28:25.164388  2085 net.cpp:406] bn2c_branch2c <- res2c_branch2c
I0629 03:28:25.164397  2085 net.cpp:367] bn2c_branch2c -> res2c_branch2c (in-place)
I0629 03:28:25.164604  2085 net.cpp:122] Setting up bn2c_branch2c
I0629 03:28:25.164619  2085 net.cpp:129] Top shape: 8 256 56 56 (6422528)
I0629 03:28:25.164623  2085 net.cpp:137] Memory required for data: 769097888
I0629 03:28:25.164640  2085 layer_factory.hpp:77] Creating layer scale2c_branch2c
I0629 03:28:25.164654  2085 net.cpp:84] Creating Layer scale2c_branch2c
I0629 03:28:25.164659  2085 net.cpp:406] scale2c_branch2c <- res2c_branch2c
I0629 03:28:25.164664  2085 net.cpp:367] scale2c_branch2c -> res2c_branch2c (in-place)
I0629 03:28:25.164714  2085 layer_factory.hpp:77] Creating layer scale2c_branch2c
I0629 03:28:25.164844  2085 net.cpp:122] Setting up scale2c_branch2c
I0629 03:28:25.164860  2085 net.cpp:129] Top shape: 8 256 56 56 (6422528)
I0629 03:28:25.164863  2085 net.cpp:137] Memory required for data: 794788000
I0629 03:28:25.164870  2085 layer_factory.hpp:77] Creating layer res2c
I0629 03:28:25.164878  2085 net.cpp:84] Creating Layer res2c
I0629 03:28:25.164882  2085 net.cpp:406] res2c <- res2b_res2b_relu_0_split_1
I0629 03:28:25.164887  2085 net.cpp:406] res2c <- res2c_branch2c
I0629 03:28:25.164893  2085 net.cpp:380] res2c -> res2c
I0629 03:28:25.164923  2085 net.cpp:122] Setting up res2c
I0629 03:28:25.164939  2085 net.cpp:129] Top shape: 8 256 56 56 (6422528)
I0629 03:28:25.164943  2085 net.cpp:137] Memory required for data: 820478112
I0629 03:28:25.164947  2085 layer_factory.hpp:77] Creating layer res2c_relu
I0629 03:28:25.164953  2085 net.cpp:84] Creating Layer res2c_relu
I0629 03:28:25.164958  2085 net.cpp:406] res2c_relu <- res2c
I0629 03:28:25.164964  2085 net.cpp:367] res2c_relu -> res2c (in-place)
I0629 03:28:25.165122  2085 net.cpp:122] Setting up res2c_relu
I0629 03:28:25.165138  2085 net.cpp:129] Top shape: 8 256 56 56 (6422528)
I0629 03:28:25.165143  2085 net.cpp:137] Memory required for data: 846168224
I0629 03:28:25.165146  2085 layer_factory.hpp:77] Creating layer res2c_res2c_relu_0_split
I0629 03:28:25.165158  2085 net.cpp:84] Creating Layer res2c_res2c_relu_0_split
I0629 03:28:25.165161  2085 net.cpp:406] res2c_res2c_relu_0_split <- res2c
I0629 03:28:25.165168  2085 net.cpp:380] res2c_res2c_relu_0_split -> res2c_res2c_relu_0_split_0
I0629 03:28:25.165176  2085 net.cpp:380] res2c_res2c_relu_0_split -> res2c_res2c_relu_0_split_1
I0629 03:28:25.165222  2085 net.cpp:122] Setting up res2c_res2c_relu_0_split
I0629 03:28:25.165236  2085 net.cpp:129] Top shape: 8 256 56 56 (6422528)
I0629 03:28:25.165241  2085 net.cpp:129] Top shape: 8 256 56 56 (6422528)
I0629 03:28:25.165244  2085 net.cpp:137] Memory required for data: 897548448
I0629 03:28:25.165248  2085 layer_factory.hpp:77] Creating layer res3a_branch1
I0629 03:28:25.165259  2085 net.cpp:84] Creating Layer res3a_branch1
I0629 03:28:25.165264  2085 net.cpp:406] res3a_branch1 <- res2c_res2c_relu_0_split_0
I0629 03:28:25.165273  2085 net.cpp:380] res3a_branch1 -> res3a_branch1
I0629 03:28:25.166780  2085 net.cpp:122] Setting up res3a_branch1
I0629 03:28:25.166800  2085 net.cpp:129] Top shape: 8 512 28 28 (3211264)
I0629 03:28:25.166805  2085 net.cpp:137] Memory required for data: 910393504
I0629 03:28:25.166813  2085 layer_factory.hpp:77] Creating layer bn3a_branch1
I0629 03:28:25.166821  2085 net.cpp:84] Creating Layer bn3a_branch1
I0629 03:28:25.166826  2085 net.cpp:406] bn3a_branch1 <- res3a_branch1
I0629 03:28:25.166833  2085 net.cpp:367] bn3a_branch1 -> res3a_branch1 (in-place)
I0629 03:28:25.167534  2085 net.cpp:122] Setting up bn3a_branch1
I0629 03:28:25.167552  2085 net.cpp:129] Top shape: 8 512 28 28 (3211264)
I0629 03:28:25.167557  2085 net.cpp:137] Memory required for data: 923238560
I0629 03:28:25.167565  2085 layer_factory.hpp:77] Creating layer scale3a_branch1
I0629 03:28:25.167573  2085 net.cpp:84] Creating Layer scale3a_branch1
I0629 03:28:25.167592  2085 net.cpp:406] scale3a_branch1 <- res3a_branch1
I0629 03:28:25.167598  2085 net.cpp:367] scale3a_branch1 -> res3a_branch1 (in-place)
I0629 03:28:25.167651  2085 layer_factory.hpp:77] Creating layer scale3a_branch1
I0629 03:28:25.167778  2085 net.cpp:122] Setting up scale3a_branch1
I0629 03:28:25.167793  2085 net.cpp:129] Top shape: 8 512 28 28 (3211264)
I0629 03:28:25.167798  2085 net.cpp:137] Memory required for data: 936083616
I0629 03:28:25.167804  2085 layer_factory.hpp:77] Creating layer res3a_branch2a
I0629 03:28:25.167817  2085 net.cpp:84] Creating Layer res3a_branch2a
I0629 03:28:25.167827  2085 net.cpp:406] res3a_branch2a <- res2c_res2c_relu_0_split_1
I0629 03:28:25.167834  2085 net.cpp:380] res3a_branch2a -> res3a_branch2a
I0629 03:28:25.168730  2085 net.cpp:122] Setting up res3a_branch2a
I0629 03:28:25.168751  2085 net.cpp:129] Top shape: 8 128 28 28 (802816)
I0629 03:28:25.168754  2085 net.cpp:137] Memory required for data: 939294880
I0629 03:28:25.168761  2085 layer_factory.hpp:77] Creating layer bn3a_branch2a
I0629 03:28:25.168771  2085 net.cpp:84] Creating Layer bn3a_branch2a
I0629 03:28:25.168778  2085 net.cpp:406] bn3a_branch2a <- res3a_branch2a
I0629 03:28:25.168787  2085 net.cpp:367] bn3a_branch2a -> res3a_branch2a (in-place)
I0629 03:28:25.168983  2085 net.cpp:122] Setting up bn3a_branch2a
I0629 03:28:25.168999  2085 net.cpp:129] Top shape: 8 128 28 28 (802816)
I0629 03:28:25.169003  2085 net.cpp:137] Memory required for data: 942506144
I0629 03:28:25.169011  2085 layer_factory.hpp:77] Creating layer scale3a_branch2a
I0629 03:28:25.169020  2085 net.cpp:84] Creating Layer scale3a_branch2a
I0629 03:28:25.169025  2085 net.cpp:406] scale3a_branch2a <- res3a_branch2a
I0629 03:28:25.169031  2085 net.cpp:367] scale3a_branch2a -> res3a_branch2a (in-place)
I0629 03:28:25.169080  2085 layer_factory.hpp:77] Creating layer scale3a_branch2a
I0629 03:28:25.169210  2085 net.cpp:122] Setting up scale3a_branch2a
I0629 03:28:25.169225  2085 net.cpp:129] Top shape: 8 128 28 28 (802816)
I0629 03:28:25.169229  2085 net.cpp:137] Memory required for data: 945717408
I0629 03:28:25.169236  2085 layer_factory.hpp:77] Creating layer res3a_branch2a_relu
I0629 03:28:25.169242  2085 net.cpp:84] Creating Layer res3a_branch2a_relu
I0629 03:28:25.169246  2085 net.cpp:406] res3a_branch2a_relu <- res3a_branch2a
I0629 03:28:25.169251  2085 net.cpp:367] res3a_branch2a_relu -> res3a_branch2a (in-place)
I0629 03:28:25.169406  2085 net.cpp:122] Setting up res3a_branch2a_relu
I0629 03:28:25.169423  2085 net.cpp:129] Top shape: 8 128 28 28 (802816)
I0629 03:28:25.169427  2085 net.cpp:137] Memory required for data: 948928672
I0629 03:28:25.169431  2085 layer_factory.hpp:77] Creating layer res3a_branch2b
I0629 03:28:25.169445  2085 net.cpp:84] Creating Layer res3a_branch2b
I0629 03:28:25.169451  2085 net.cpp:406] res3a_branch2b <- res3a_branch2a
I0629 03:28:25.169459  2085 net.cpp:380] res3a_branch2b -> res3a_branch2b
I0629 03:28:25.170858  2085 net.cpp:122] Setting up res3a_branch2b
I0629 03:28:25.170881  2085 net.cpp:129] Top shape: 8 128 28 28 (802816)
I0629 03:28:25.170886  2085 net.cpp:137] Memory required for data: 952139936
I0629 03:28:25.170893  2085 layer_factory.hpp:77] Creating layer bn3a_branch2b
I0629 03:28:25.170902  2085 net.cpp:84] Creating Layer bn3a_branch2b
I0629 03:28:25.170909  2085 net.cpp:406] bn3a_branch2b <- res3a_branch2b
I0629 03:28:25.170915  2085 net.cpp:367] bn3a_branch2b -> res3a_branch2b (in-place)
I0629 03:28:25.171118  2085 net.cpp:122] Setting up bn3a_branch2b
I0629 03:28:25.171133  2085 net.cpp:129] Top shape: 8 128 28 28 (802816)
I0629 03:28:25.171138  2085 net.cpp:137] Memory required for data: 955351200
I0629 03:28:25.171145  2085 layer_factory.hpp:77] Creating layer scale3a_branch2b
I0629 03:28:25.171155  2085 net.cpp:84] Creating Layer scale3a_branch2b
I0629 03:28:25.171159  2085 net.cpp:406] scale3a_branch2b <- res3a_branch2b
I0629 03:28:25.171165  2085 net.cpp:367] scale3a_branch2b -> res3a_branch2b (in-place)
I0629 03:28:25.171213  2085 layer_factory.hpp:77] Creating layer scale3a_branch2b
I0629 03:28:25.171360  2085 net.cpp:122] Setting up scale3a_branch2b
I0629 03:28:25.171375  2085 net.cpp:129] Top shape: 8 128 28 28 (802816)
I0629 03:28:25.171380  2085 net.cpp:137] Memory required for data: 958562464
I0629 03:28:25.171386  2085 layer_factory.hpp:77] Creating layer res3a_branch2b_relu
I0629 03:28:25.171392  2085 net.cpp:84] Creating Layer res3a_branch2b_relu
I0629 03:28:25.171396  2085 net.cpp:406] res3a_branch2b_relu <- res3a_branch2b
I0629 03:28:25.171404  2085 net.cpp:367] res3a_branch2b_relu -> res3a_branch2b (in-place)
I0629 03:28:25.171654  2085 net.cpp:122] Setting up res3a_branch2b_relu
I0629 03:28:25.171675  2085 net.cpp:129] Top shape: 8 128 28 28 (802816)
I0629 03:28:25.171679  2085 net.cpp:137] Memory required for data: 961773728
I0629 03:28:25.171684  2085 layer_factory.hpp:77] Creating layer res3a_branch2c
I0629 03:28:25.171700  2085 net.cpp:84] Creating Layer res3a_branch2c
I0629 03:28:25.171712  2085 net.cpp:406] res3a_branch2c <- res3a_branch2b
I0629 03:28:25.171720  2085 net.cpp:380] res3a_branch2c -> res3a_branch2c
I0629 03:28:25.172526  2085 net.cpp:122] Setting up res3a_branch2c
I0629 03:28:25.172547  2085 net.cpp:129] Top shape: 8 512 28 28 (3211264)
I0629 03:28:25.172552  2085 net.cpp:137] Memory required for data: 974618784
I0629 03:28:25.172559  2085 layer_factory.hpp:77] Creating layer bn3a_branch2c
I0629 03:28:25.172565  2085 net.cpp:84] Creating Layer bn3a_branch2c
I0629 03:28:25.172570  2085 net.cpp:406] bn3a_branch2c <- res3a_branch2c
I0629 03:28:25.172577  2085 net.cpp:367] bn3a_branch2c -> res3a_branch2c (in-place)
I0629 03:28:25.172778  2085 net.cpp:122] Setting up bn3a_branch2c
I0629 03:28:25.172794  2085 net.cpp:129] Top shape: 8 512 28 28 (3211264)
I0629 03:28:25.172798  2085 net.cpp:137] Memory required for data: 987463840
I0629 03:28:25.172806  2085 layer_factory.hpp:77] Creating layer scale3a_branch2c
I0629 03:28:25.172813  2085 net.cpp:84] Creating Layer scale3a_branch2c
I0629 03:28:25.172817  2085 net.cpp:406] scale3a_branch2c <- res3a_branch2c
I0629 03:28:25.172822  2085 net.cpp:367] scale3a_branch2c -> res3a_branch2c (in-place)
I0629 03:28:25.172871  2085 layer_factory.hpp:77] Creating layer scale3a_branch2c
I0629 03:28:25.173002  2085 net.cpp:122] Setting up scale3a_branch2c
I0629 03:28:25.173017  2085 net.cpp:129] Top shape: 8 512 28 28 (3211264)
I0629 03:28:25.173022  2085 net.cpp:137] Memory required for data: 1000308896
I0629 03:28:25.173028  2085 layer_factory.hpp:77] Creating layer res3a
I0629 03:28:25.173034  2085 net.cpp:84] Creating Layer res3a
I0629 03:28:25.173038  2085 net.cpp:406] res3a <- res3a_branch1
I0629 03:28:25.173043  2085 net.cpp:406] res3a <- res3a_branch2c
I0629 03:28:25.173051  2085 net.cpp:380] res3a -> res3a
I0629 03:28:25.173079  2085 net.cpp:122] Setting up res3a
I0629 03:28:25.173094  2085 net.cpp:129] Top shape: 8 512 28 28 (3211264)
I0629 03:28:25.173097  2085 net.cpp:137] Memory required for data: 1013153952
I0629 03:28:25.173101  2085 layer_factory.hpp:77] Creating layer res3a_relu
I0629 03:28:25.173112  2085 net.cpp:84] Creating Layer res3a_relu
I0629 03:28:25.173116  2085 net.cpp:406] res3a_relu <- res3a
I0629 03:28:25.173122  2085 net.cpp:367] res3a_relu -> res3a (in-place)
I0629 03:28:25.173390  2085 net.cpp:122] Setting up res3a_relu
I0629 03:28:25.173408  2085 net.cpp:129] Top shape: 8 512 28 28 (3211264)
I0629 03:28:25.173413  2085 net.cpp:137] Memory required for data: 1025999008
I0629 03:28:25.173416  2085 layer_factory.hpp:77] Creating layer res3a_res3a_relu_0_split
I0629 03:28:25.173424  2085 net.cpp:84] Creating Layer res3a_res3a_relu_0_split
I0629 03:28:25.173427  2085 net.cpp:406] res3a_res3a_relu_0_split <- res3a
I0629 03:28:25.173434  2085 net.cpp:380] res3a_res3a_relu_0_split -> res3a_res3a_relu_0_split_0
I0629 03:28:25.173442  2085 net.cpp:380] res3a_res3a_relu_0_split -> res3a_res3a_relu_0_split_1
I0629 03:28:25.173488  2085 net.cpp:122] Setting up res3a_res3a_relu_0_split
I0629 03:28:25.173502  2085 net.cpp:129] Top shape: 8 512 28 28 (3211264)
I0629 03:28:25.173507  2085 net.cpp:129] Top shape: 8 512 28 28 (3211264)
I0629 03:28:25.173526  2085 net.cpp:137] Memory required for data: 1051689120
I0629 03:28:25.173529  2085 layer_factory.hpp:77] Creating layer res3b_branch2a
I0629 03:28:25.173540  2085 net.cpp:84] Creating Layer res3b_branch2a
I0629 03:28:25.173545  2085 net.cpp:406] res3b_branch2a <- res3a_res3a_relu_0_split_0
I0629 03:28:25.173553  2085 net.cpp:380] res3b_branch2a -> res3b_branch2a
I0629 03:28:25.174922  2085 net.cpp:122] Setting up res3b_branch2a
I0629 03:28:25.174943  2085 net.cpp:129] Top shape: 8 128 28 28 (802816)
I0629 03:28:25.174949  2085 net.cpp:137] Memory required for data: 1054900384
I0629 03:28:25.174957  2085 layer_factory.hpp:77] Creating layer bn3b_branch2a
I0629 03:28:25.174963  2085 net.cpp:84] Creating Layer bn3b_branch2a
I0629 03:28:25.174968  2085 net.cpp:406] bn3b_branch2a <- res3b_branch2a
I0629 03:28:25.174973  2085 net.cpp:367] bn3b_branch2a -> res3b_branch2a (in-place)
I0629 03:28:25.175184  2085 net.cpp:122] Setting up bn3b_branch2a
I0629 03:28:25.175200  2085 net.cpp:129] Top shape: 8 128 28 28 (802816)
I0629 03:28:25.175204  2085 net.cpp:137] Memory required for data: 1058111648
I0629 03:28:25.175213  2085 layer_factory.hpp:77] Creating layer scale3b_branch2a
I0629 03:28:25.175220  2085 net.cpp:84] Creating Layer scale3b_branch2a
I0629 03:28:25.175225  2085 net.cpp:406] scale3b_branch2a <- res3b_branch2a
I0629 03:28:25.175230  2085 net.cpp:367] scale3b_branch2a -> res3b_branch2a (in-place)
I0629 03:28:25.175281  2085 layer_factory.hpp:77] Creating layer scale3b_branch2a
I0629 03:28:25.175410  2085 net.cpp:122] Setting up scale3b_branch2a
I0629 03:28:25.175426  2085 net.cpp:129] Top shape: 8 128 28 28 (802816)
I0629 03:28:25.175429  2085 net.cpp:137] Memory required for data: 1061322912
I0629 03:28:25.175436  2085 layer_factory.hpp:77] Creating layer res3b_branch2a_relu
I0629 03:28:25.175447  2085 net.cpp:84] Creating Layer res3b_branch2a_relu
I0629 03:28:25.175453  2085 net.cpp:406] res3b_branch2a_relu <- res3b_branch2a
I0629 03:28:25.175458  2085 net.cpp:367] res3b_branch2a_relu -> res3b_branch2a (in-place)
I0629 03:28:25.175609  2085 net.cpp:122] Setting up res3b_branch2a_relu
I0629 03:28:25.175626  2085 net.cpp:129] Top shape: 8 128 28 28 (802816)
I0629 03:28:25.175629  2085 net.cpp:137] Memory required for data: 1064534176
I0629 03:28:25.175634  2085 layer_factory.hpp:77] Creating layer res3b_branch2b
I0629 03:28:25.175647  2085 net.cpp:84] Creating Layer res3b_branch2b
I0629 03:28:25.175652  2085 net.cpp:406] res3b_branch2b <- res3b_branch2a
I0629 03:28:25.175659  2085 net.cpp:380] res3b_branch2b -> res3b_branch2b
I0629 03:28:25.177191  2085 net.cpp:122] Setting up res3b_branch2b
I0629 03:28:25.177211  2085 net.cpp:129] Top shape: 8 128 28 28 (802816)
I0629 03:28:25.177215  2085 net.cpp:137] Memory required for data: 1067745440
I0629 03:28:25.177222  2085 layer_factory.hpp:77] Creating layer bn3b_branch2b
I0629 03:28:25.177232  2085 net.cpp:84] Creating Layer bn3b_branch2b
I0629 03:28:25.177237  2085 net.cpp:406] bn3b_branch2b <- res3b_branch2b
I0629 03:28:25.177244  2085 net.cpp:367] bn3b_branch2b -> res3b_branch2b (in-place)
I0629 03:28:25.177449  2085 net.cpp:122] Setting up bn3b_branch2b
I0629 03:28:25.177465  2085 net.cpp:129] Top shape: 8 128 28 28 (802816)
I0629 03:28:25.177469  2085 net.cpp:137] Memory required for data: 1070956704
I0629 03:28:25.177477  2085 layer_factory.hpp:77] Creating layer scale3b_branch2b
I0629 03:28:25.177484  2085 net.cpp:84] Creating Layer scale3b_branch2b
I0629 03:28:25.177489  2085 net.cpp:406] scale3b_branch2b <- res3b_branch2b
I0629 03:28:25.177496  2085 net.cpp:367] scale3b_branch2b -> res3b_branch2b (in-place)
I0629 03:28:25.177542  2085 layer_factory.hpp:77] Creating layer scale3b_branch2b
I0629 03:28:25.177676  2085 net.cpp:122] Setting up scale3b_branch2b
I0629 03:28:25.177693  2085 net.cpp:129] Top shape: 8 128 28 28 (802816)
I0629 03:28:25.177697  2085 net.cpp:137] Memory required for data: 1074167968
I0629 03:28:25.177705  2085 layer_factory.hpp:77] Creating layer res3b_branch2b_relu
I0629 03:28:25.177711  2085 net.cpp:84] Creating Layer res3b_branch2b_relu
I0629 03:28:25.177733  2085 net.cpp:406] res3b_branch2b_relu <- res3b_branch2b
I0629 03:28:25.177741  2085 net.cpp:367] res3b_branch2b_relu -> res3b_branch2b (in-place)
I0629 03:28:25.177996  2085 net.cpp:122] Setting up res3b_branch2b_relu
I0629 03:28:25.178014  2085 net.cpp:129] Top shape: 8 128 28 28 (802816)
I0629 03:28:25.178020  2085 net.cpp:137] Memory required for data: 1077379232
I0629 03:28:25.178023  2085 layer_factory.hpp:77] Creating layer res3b_branch2c
I0629 03:28:25.178035  2085 net.cpp:84] Creating Layer res3b_branch2c
I0629 03:28:25.178041  2085 net.cpp:406] res3b_branch2c <- res3b_branch2b
I0629 03:28:25.178047  2085 net.cpp:380] res3b_branch2c -> res3b_branch2c
I0629 03:28:25.178861  2085 net.cpp:122] Setting up res3b_branch2c
I0629 03:28:25.178880  2085 net.cpp:129] Top shape: 8 512 28 28 (3211264)
I0629 03:28:25.178885  2085 net.cpp:137] Memory required for data: 1090224288
I0629 03:28:25.178891  2085 layer_factory.hpp:77] Creating layer bn3b_branch2c
I0629 03:28:25.178899  2085 net.cpp:84] Creating Layer bn3b_branch2c
I0629 03:28:25.178902  2085 net.cpp:406] bn3b_branch2c <- res3b_branch2c
I0629 03:28:25.178911  2085 net.cpp:367] bn3b_branch2c -> res3b_branch2c (in-place)
I0629 03:28:25.179116  2085 net.cpp:122] Setting up bn3b_branch2c
I0629 03:28:25.179132  2085 net.cpp:129] Top shape: 8 512 28 28 (3211264)
I0629 03:28:25.179136  2085 net.cpp:137] Memory required for data: 1103069344
I0629 03:28:25.179144  2085 layer_factory.hpp:77] Creating layer scale3b_branch2c
I0629 03:28:25.179152  2085 net.cpp:84] Creating Layer scale3b_branch2c
I0629 03:28:25.179155  2085 net.cpp:406] scale3b_branch2c <- res3b_branch2c
I0629 03:28:25.179160  2085 net.cpp:367] scale3b_branch2c -> res3b_branch2c (in-place)
I0629 03:28:25.179209  2085 layer_factory.hpp:77] Creating layer scale3b_branch2c
I0629 03:28:25.179342  2085 net.cpp:122] Setting up scale3b_branch2c
I0629 03:28:25.179356  2085 net.cpp:129] Top shape: 8 512 28 28 (3211264)
I0629 03:28:25.179360  2085 net.cpp:137] Memory required for data: 1115914400
I0629 03:28:25.179368  2085 layer_factory.hpp:77] Creating layer res3b
I0629 03:28:25.179373  2085 net.cpp:84] Creating Layer res3b
I0629 03:28:25.179378  2085 net.cpp:406] res3b <- res3a_res3a_relu_0_split_1
I0629 03:28:25.179383  2085 net.cpp:406] res3b <- res3b_branch2c
I0629 03:28:25.179390  2085 net.cpp:380] res3b -> res3b
I0629 03:28:25.179420  2085 net.cpp:122] Setting up res3b
I0629 03:28:25.179435  2085 net.cpp:129] Top shape: 8 512 28 28 (3211264)
I0629 03:28:25.179438  2085 net.cpp:137] Memory required for data: 1128759456
I0629 03:28:25.179442  2085 layer_factory.hpp:77] Creating layer res3b_relu
I0629 03:28:25.179452  2085 net.cpp:84] Creating Layer res3b_relu
I0629 03:28:25.179457  2085 net.cpp:406] res3b_relu <- res3b
I0629 03:28:25.179462  2085 net.cpp:367] res3b_relu -> res3b (in-place)
I0629 03:28:25.179718  2085 net.cpp:122] Setting up res3b_relu
I0629 03:28:25.179736  2085 net.cpp:129] Top shape: 8 512 28 28 (3211264)
I0629 03:28:25.179740  2085 net.cpp:137] Memory required for data: 1141604512
I0629 03:28:25.179745  2085 layer_factory.hpp:77] Creating layer res3b_res3b_relu_0_split
I0629 03:28:25.179751  2085 net.cpp:84] Creating Layer res3b_res3b_relu_0_split
I0629 03:28:25.179755  2085 net.cpp:406] res3b_res3b_relu_0_split <- res3b
I0629 03:28:25.179764  2085 net.cpp:380] res3b_res3b_relu_0_split -> res3b_res3b_relu_0_split_0
I0629 03:28:25.179770  2085 net.cpp:380] res3b_res3b_relu_0_split -> res3b_res3b_relu_0_split_1
I0629 03:28:25.179818  2085 net.cpp:122] Setting up res3b_res3b_relu_0_split
I0629 03:28:25.179832  2085 net.cpp:129] Top shape: 8 512 28 28 (3211264)
I0629 03:28:25.179837  2085 net.cpp:129] Top shape: 8 512 28 28 (3211264)
I0629 03:28:25.179841  2085 net.cpp:137] Memory required for data: 1167294624
I0629 03:28:25.179844  2085 layer_factory.hpp:77] Creating layer res3c_branch2a
I0629 03:28:25.179857  2085 net.cpp:84] Creating Layer res3c_branch2a
I0629 03:28:25.179863  2085 net.cpp:406] res3c_branch2a <- res3b_res3b_relu_0_split_0
I0629 03:28:25.179885  2085 net.cpp:380] res3c_branch2a -> res3c_branch2a
I0629 03:28:25.180817  2085 net.cpp:122] Setting up res3c_branch2a
I0629 03:28:25.180836  2085 net.cpp:129] Top shape: 8 128 28 28 (802816)
I0629 03:28:25.180841  2085 net.cpp:137] Memory required for data: 1170505888
I0629 03:28:25.180847  2085 layer_factory.hpp:77] Creating layer bn3c_branch2a
I0629 03:28:25.180857  2085 net.cpp:84] Creating Layer bn3c_branch2a
I0629 03:28:25.180861  2085 net.cpp:406] bn3c_branch2a <- res3c_branch2a
I0629 03:28:25.180869  2085 net.cpp:367] bn3c_branch2a -> res3c_branch2a (in-place)
I0629 03:28:25.181085  2085 net.cpp:122] Setting up bn3c_branch2a
I0629 03:28:25.181100  2085 net.cpp:129] Top shape: 8 128 28 28 (802816)
I0629 03:28:25.181104  2085 net.cpp:137] Memory required for data: 1173717152
I0629 03:28:25.181120  2085 layer_factory.hpp:77] Creating layer scale3c_branch2a
I0629 03:28:25.181128  2085 net.cpp:84] Creating Layer scale3c_branch2a
I0629 03:28:25.181131  2085 net.cpp:406] scale3c_branch2a <- res3c_branch2a
I0629 03:28:25.181140  2085 net.cpp:367] scale3c_branch2a -> res3c_branch2a (in-place)
I0629 03:28:25.181188  2085 layer_factory.hpp:77] Creating layer scale3c_branch2a
I0629 03:28:25.181334  2085 net.cpp:122] Setting up scale3c_branch2a
I0629 03:28:25.181350  2085 net.cpp:129] Top shape: 8 128 28 28 (802816)
I0629 03:28:25.181354  2085 net.cpp:137] Memory required for data: 1176928416
I0629 03:28:25.181363  2085 layer_factory.hpp:77] Creating layer res3c_branch2a_relu
I0629 03:28:25.181370  2085 net.cpp:84] Creating Layer res3c_branch2a_relu
I0629 03:28:25.181375  2085 net.cpp:406] res3c_branch2a_relu <- res3c_branch2a
I0629 03:28:25.181380  2085 net.cpp:367] res3c_branch2a_relu -> res3c_branch2a (in-place)
I0629 03:28:25.181537  2085 net.cpp:122] Setting up res3c_branch2a_relu
I0629 03:28:25.181555  2085 net.cpp:129] Top shape: 8 128 28 28 (802816)
I0629 03:28:25.181558  2085 net.cpp:137] Memory required for data: 1180139680
I0629 03:28:25.181563  2085 layer_factory.hpp:77] Creating layer res3c_branch2b
I0629 03:28:25.181573  2085 net.cpp:84] Creating Layer res3c_branch2b
I0629 03:28:25.181578  2085 net.cpp:406] res3c_branch2b <- res3c_branch2a
I0629 03:28:25.181586  2085 net.cpp:380] res3c_branch2b -> res3c_branch2b
I0629 03:28:25.183056  2085 net.cpp:122] Setting up res3c_branch2b
I0629 03:28:25.183078  2085 net.cpp:129] Top shape: 8 128 28 28 (802816)
I0629 03:28:25.183081  2085 net.cpp:137] Memory required for data: 1183350944
I0629 03:28:25.183087  2085 layer_factory.hpp:77] Creating layer bn3c_branch2b
I0629 03:28:25.183097  2085 net.cpp:84] Creating Layer bn3c_branch2b
I0629 03:28:25.183102  2085 net.cpp:406] bn3c_branch2b <- res3c_branch2b
I0629 03:28:25.183110  2085 net.cpp:367] bn3c_branch2b -> res3c_branch2b (in-place)
I0629 03:28:25.183323  2085 net.cpp:122] Setting up bn3c_branch2b
I0629 03:28:25.183338  2085 net.cpp:129] Top shape: 8 128 28 28 (802816)
I0629 03:28:25.183342  2085 net.cpp:137] Memory required for data: 1186562208
I0629 03:28:25.183351  2085 layer_factory.hpp:77] Creating layer scale3c_branch2b
I0629 03:28:25.183360  2085 net.cpp:84] Creating Layer scale3c_branch2b
I0629 03:28:25.183364  2085 net.cpp:406] scale3c_branch2b <- res3c_branch2b
I0629 03:28:25.183370  2085 net.cpp:367] scale3c_branch2b -> res3c_branch2b (in-place)
I0629 03:28:25.183424  2085 layer_factory.hpp:77] Creating layer scale3c_branch2b
I0629 03:28:25.183565  2085 net.cpp:122] Setting up scale3c_branch2b
I0629 03:28:25.183580  2085 net.cpp:129] Top shape: 8 128 28 28 (802816)
I0629 03:28:25.183584  2085 net.cpp:137] Memory required for data: 1189773472
I0629 03:28:25.183591  2085 layer_factory.hpp:77] Creating layer res3c_branch2b_relu
I0629 03:28:25.183598  2085 net.cpp:84] Creating Layer res3c_branch2b_relu
I0629 03:28:25.183603  2085 net.cpp:406] res3c_branch2b_relu <- res3c_branch2b
I0629 03:28:25.183607  2085 net.cpp:367] res3c_branch2b_relu -> res3c_branch2b (in-place)
I0629 03:28:25.183887  2085 net.cpp:122] Setting up res3c_branch2b_relu
I0629 03:28:25.183904  2085 net.cpp:129] Top shape: 8 128 28 28 (802816)
I0629 03:28:25.183921  2085 net.cpp:137] Memory required for data: 1192984736
I0629 03:28:25.183926  2085 layer_factory.hpp:77] Creating layer res3c_branch2c
I0629 03:28:25.183938  2085 net.cpp:84] Creating Layer res3c_branch2c
I0629 03:28:25.183944  2085 net.cpp:406] res3c_branch2c <- res3c_branch2b
I0629 03:28:25.183954  2085 net.cpp:380] res3c_branch2c -> res3c_branch2c
I0629 03:28:25.184809  2085 net.cpp:122] Setting up res3c_branch2c
I0629 03:28:25.184829  2085 net.cpp:129] Top shape: 8 512 28 28 (3211264)
I0629 03:28:25.184834  2085 net.cpp:137] Memory required for data: 1205829792
I0629 03:28:25.184839  2085 layer_factory.hpp:77] Creating layer bn3c_branch2c
I0629 03:28:25.184847  2085 net.cpp:84] Creating Layer bn3c_branch2c
I0629 03:28:25.184851  2085 net.cpp:406] bn3c_branch2c <- res3c_branch2c
I0629 03:28:25.184859  2085 net.cpp:367] bn3c_branch2c -> res3c_branch2c (in-place)
I0629 03:28:25.185076  2085 net.cpp:122] Setting up bn3c_branch2c
I0629 03:28:25.185092  2085 net.cpp:129] Top shape: 8 512 28 28 (3211264)
I0629 03:28:25.185096  2085 net.cpp:137] Memory required for data: 1218674848
I0629 03:28:25.185104  2085 layer_factory.hpp:77] Creating layer scale3c_branch2c
I0629 03:28:25.185111  2085 net.cpp:84] Creating Layer scale3c_branch2c
I0629 03:28:25.185115  2085 net.cpp:406] scale3c_branch2c <- res3c_branch2c
I0629 03:28:25.185122  2085 net.cpp:367] scale3c_branch2c -> res3c_branch2c (in-place)
I0629 03:28:25.185173  2085 layer_factory.hpp:77] Creating layer scale3c_branch2c
I0629 03:28:25.185304  2085 net.cpp:122] Setting up scale3c_branch2c
I0629 03:28:25.185319  2085 net.cpp:129] Top shape: 8 512 28 28 (3211264)
I0629 03:28:25.185323  2085 net.cpp:137] Memory required for data: 1231519904
I0629 03:28:25.185330  2085 layer_factory.hpp:77] Creating layer res3c
I0629 03:28:25.185336  2085 net.cpp:84] Creating Layer res3c
I0629 03:28:25.185340  2085 net.cpp:406] res3c <- res3b_res3b_relu_0_split_1
I0629 03:28:25.185345  2085 net.cpp:406] res3c <- res3c_branch2c
I0629 03:28:25.185353  2085 net.cpp:380] res3c -> res3c
I0629 03:28:25.185384  2085 net.cpp:122] Setting up res3c
I0629 03:28:25.185397  2085 net.cpp:129] Top shape: 8 512 28 28 (3211264)
I0629 03:28:25.185401  2085 net.cpp:137] Memory required for data: 1244364960
I0629 03:28:25.185405  2085 layer_factory.hpp:77] Creating layer res3c_relu
I0629 03:28:25.185413  2085 net.cpp:84] Creating Layer res3c_relu
I0629 03:28:25.185417  2085 net.cpp:406] res3c_relu <- res3c
I0629 03:28:25.185422  2085 net.cpp:367] res3c_relu -> res3c (in-place)
I0629 03:28:25.185685  2085 net.cpp:122] Setting up res3c_relu
I0629 03:28:25.185703  2085 net.cpp:129] Top shape: 8 512 28 28 (3211264)
I0629 03:28:25.185708  2085 net.cpp:137] Memory required for data: 1257210016
I0629 03:28:25.185712  2085 layer_factory.hpp:77] Creating layer res3c_res3c_relu_0_split
I0629 03:28:25.185719  2085 net.cpp:84] Creating Layer res3c_res3c_relu_0_split
I0629 03:28:25.185722  2085 net.cpp:406] res3c_res3c_relu_0_split <- res3c
I0629 03:28:25.185730  2085 net.cpp:380] res3c_res3c_relu_0_split -> res3c_res3c_relu_0_split_0
I0629 03:28:25.185739  2085 net.cpp:380] res3c_res3c_relu_0_split -> res3c_res3c_relu_0_split_1
I0629 03:28:25.185788  2085 net.cpp:122] Setting up res3c_res3c_relu_0_split
I0629 03:28:25.185802  2085 net.cpp:129] Top shape: 8 512 28 28 (3211264)
I0629 03:28:25.185807  2085 net.cpp:129] Top shape: 8 512 28 28 (3211264)
I0629 03:28:25.185811  2085 net.cpp:137] Memory required for data: 1282900128
I0629 03:28:25.185814  2085 layer_factory.hpp:77] Creating layer res3d_branch2a
I0629 03:28:25.185827  2085 net.cpp:84] Creating Layer res3d_branch2a
I0629 03:28:25.185832  2085 net.cpp:406] res3d_branch2a <- res3c_res3c_relu_0_split_0
I0629 03:28:25.185837  2085 net.cpp:380] res3d_branch2a -> res3d_branch2a
I0629 03:28:25.187232  2085 net.cpp:122] Setting up res3d_branch2a
I0629 03:28:25.187252  2085 net.cpp:129] Top shape: 8 128 28 28 (802816)
I0629 03:28:25.187255  2085 net.cpp:137] Memory required for data: 1286111392
I0629 03:28:25.187263  2085 layer_factory.hpp:77] Creating layer bn3d_branch2a
I0629 03:28:25.187285  2085 net.cpp:84] Creating Layer bn3d_branch2a
I0629 03:28:25.187291  2085 net.cpp:406] bn3d_branch2a <- res3d_branch2a
I0629 03:28:25.187297  2085 net.cpp:367] bn3d_branch2a -> res3d_branch2a (in-place)
I0629 03:28:25.187515  2085 net.cpp:122] Setting up bn3d_branch2a
I0629 03:28:25.187530  2085 net.cpp:129] Top shape: 8 128 28 28 (802816)
I0629 03:28:25.187535  2085 net.cpp:137] Memory required for data: 1289322656
I0629 03:28:25.187562  2085 layer_factory.hpp:77] Creating layer scale3d_branch2a
I0629 03:28:25.187575  2085 net.cpp:84] Creating Layer scale3d_branch2a
I0629 03:28:25.187580  2085 net.cpp:406] scale3d_branch2a <- res3d_branch2a
I0629 03:28:25.187587  2085 net.cpp:367] scale3d_branch2a -> res3d_branch2a (in-place)
I0629 03:28:25.187640  2085 layer_factory.hpp:77] Creating layer scale3d_branch2a
I0629 03:28:25.187782  2085 net.cpp:122] Setting up scale3d_branch2a
I0629 03:28:25.187798  2085 net.cpp:129] Top shape: 8 128 28 28 (802816)
I0629 03:28:25.187801  2085 net.cpp:137] Memory required for data: 1292533920
I0629 03:28:25.187808  2085 layer_factory.hpp:77] Creating layer res3d_branch2a_relu
I0629 03:28:25.187814  2085 net.cpp:84] Creating Layer res3d_branch2a_relu
I0629 03:28:25.187819  2085 net.cpp:406] res3d_branch2a_relu <- res3d_branch2a
I0629 03:28:25.187825  2085 net.cpp:367] res3d_branch2a_relu -> res3d_branch2a (in-place)
I0629 03:28:25.187997  2085 net.cpp:122] Setting up res3d_branch2a_relu
I0629 03:28:25.188014  2085 net.cpp:129] Top shape: 8 128 28 28 (802816)
I0629 03:28:25.188019  2085 net.cpp:137] Memory required for data: 1295745184
I0629 03:28:25.188022  2085 layer_factory.hpp:77] Creating layer res3d_branch2b
I0629 03:28:25.188033  2085 net.cpp:84] Creating Layer res3d_branch2b
I0629 03:28:25.188038  2085 net.cpp:406] res3d_branch2b <- res3d_branch2a
I0629 03:28:25.188047  2085 net.cpp:380] res3d_branch2b -> res3d_branch2b
I0629 03:28:25.189553  2085 net.cpp:122] Setting up res3d_branch2b
I0629 03:28:25.189573  2085 net.cpp:129] Top shape: 8 128 28 28 (802816)
I0629 03:28:25.189576  2085 net.cpp:137] Memory required for data: 1298956448
I0629 03:28:25.189584  2085 layer_factory.hpp:77] Creating layer bn3d_branch2b
I0629 03:28:25.189594  2085 net.cpp:84] Creating Layer bn3d_branch2b
I0629 03:28:25.189599  2085 net.cpp:406] bn3d_branch2b <- res3d_branch2b
I0629 03:28:25.189604  2085 net.cpp:367] bn3d_branch2b -> res3d_branch2b (in-place)
I0629 03:28:25.189831  2085 net.cpp:122] Setting up bn3d_branch2b
I0629 03:28:25.189846  2085 net.cpp:129] Top shape: 8 128 28 28 (802816)
I0629 03:28:25.189849  2085 net.cpp:137] Memory required for data: 1302167712
I0629 03:28:25.189857  2085 layer_factory.hpp:77] Creating layer scale3d_branch2b
I0629 03:28:25.189865  2085 net.cpp:84] Creating Layer scale3d_branch2b
I0629 03:28:25.189869  2085 net.cpp:406] scale3d_branch2b <- res3d_branch2b
I0629 03:28:25.189874  2085 net.cpp:367] scale3d_branch2b -> res3d_branch2b (in-place)
I0629 03:28:25.189926  2085 layer_factory.hpp:77] Creating layer scale3d_branch2b
I0629 03:28:25.190079  2085 net.cpp:122] Setting up scale3d_branch2b
I0629 03:28:25.190095  2085 net.cpp:129] Top shape: 8 128 28 28 (802816)
I0629 03:28:25.190099  2085 net.cpp:137] Memory required for data: 1305378976
I0629 03:28:25.190106  2085 layer_factory.hpp:77] Creating layer res3d_branch2b_relu
I0629 03:28:25.190115  2085 net.cpp:84] Creating Layer res3d_branch2b_relu
I0629 03:28:25.190122  2085 net.cpp:406] res3d_branch2b_relu <- res3d_branch2b
I0629 03:28:25.190127  2085 net.cpp:367] res3d_branch2b_relu -> res3d_branch2b (in-place)
I0629 03:28:25.190392  2085 net.cpp:122] Setting up res3d_branch2b_relu
I0629 03:28:25.190409  2085 net.cpp:129] Top shape: 8 128 28 28 (802816)
I0629 03:28:25.190414  2085 net.cpp:137] Memory required for data: 1308590240
I0629 03:28:25.190418  2085 layer_factory.hpp:77] Creating layer res3d_branch2c
I0629 03:28:25.190429  2085 net.cpp:84] Creating Layer res3d_branch2c
I0629 03:28:25.190434  2085 net.cpp:406] res3d_branch2c <- res3d_branch2b
I0629 03:28:25.190459  2085 net.cpp:380] res3d_branch2c -> res3d_branch2c
I0629 03:28:25.191306  2085 net.cpp:122] Setting up res3d_branch2c
I0629 03:28:25.191325  2085 net.cpp:129] Top shape: 8 512 28 28 (3211264)
I0629 03:28:25.191330  2085 net.cpp:137] Memory required for data: 1321435296
I0629 03:28:25.191336  2085 layer_factory.hpp:77] Creating layer bn3d_branch2c
I0629 03:28:25.191346  2085 net.cpp:84] Creating Layer bn3d_branch2c
I0629 03:28:25.191351  2085 net.cpp:406] bn3d_branch2c <- res3d_branch2c
I0629 03:28:25.191357  2085 net.cpp:367] bn3d_branch2c -> res3d_branch2c (in-place)
I0629 03:28:25.191573  2085 net.cpp:122] Setting up bn3d_branch2c
I0629 03:28:25.191588  2085 net.cpp:129] Top shape: 8 512 28 28 (3211264)
I0629 03:28:25.191592  2085 net.cpp:137] Memory required for data: 1334280352
I0629 03:28:25.191601  2085 layer_factory.hpp:77] Creating layer scale3d_branch2c
I0629 03:28:25.191610  2085 net.cpp:84] Creating Layer scale3d_branch2c
I0629 03:28:25.191614  2085 net.cpp:406] scale3d_branch2c <- res3d_branch2c
I0629 03:28:25.191620  2085 net.cpp:367] scale3d_branch2c -> res3d_branch2c (in-place)
I0629 03:28:25.191673  2085 layer_factory.hpp:77] Creating layer scale3d_branch2c
I0629 03:28:25.191809  2085 net.cpp:122] Setting up scale3d_branch2c
I0629 03:28:25.191824  2085 net.cpp:129] Top shape: 8 512 28 28 (3211264)
I0629 03:28:25.191828  2085 net.cpp:137] Memory required for data: 1347125408
I0629 03:28:25.191834  2085 layer_factory.hpp:77] Creating layer res3d
I0629 03:28:25.191841  2085 net.cpp:84] Creating Layer res3d
I0629 03:28:25.191845  2085 net.cpp:406] res3d <- res3c_res3c_relu_0_split_1
I0629 03:28:25.191850  2085 net.cpp:406] res3d <- res3d_branch2c
I0629 03:28:25.191857  2085 net.cpp:380] res3d -> res3d
I0629 03:28:25.191905  2085 net.cpp:122] Setting up res3d
I0629 03:28:25.191923  2085 net.cpp:129] Top shape: 8 512 28 28 (3211264)
I0629 03:28:25.191927  2085 net.cpp:137] Memory required for data: 1359970464
I0629 03:28:25.191931  2085 layer_factory.hpp:77] Creating layer res3d_relu
I0629 03:28:25.191938  2085 net.cpp:84] Creating Layer res3d_relu
I0629 03:28:25.191942  2085 net.cpp:406] res3d_relu <- res3d
I0629 03:28:25.191947  2085 net.cpp:367] res3d_relu -> res3d (in-place)
I0629 03:28:25.192206  2085 net.cpp:122] Setting up res3d_relu
I0629 03:28:25.192225  2085 net.cpp:129] Top shape: 8 512 28 28 (3211264)
I0629 03:28:25.192229  2085 net.cpp:137] Memory required for data: 1372815520
I0629 03:28:25.192234  2085 layer_factory.hpp:77] Creating layer res3d_res3d_relu_0_split
I0629 03:28:25.192243  2085 net.cpp:84] Creating Layer res3d_res3d_relu_0_split
I0629 03:28:25.192247  2085 net.cpp:406] res3d_res3d_relu_0_split <- res3d
I0629 03:28:25.192255  2085 net.cpp:380] res3d_res3d_relu_0_split -> res3d_res3d_relu_0_split_0
I0629 03:28:25.192263  2085 net.cpp:380] res3d_res3d_relu_0_split -> res3d_res3d_relu_0_split_1
I0629 03:28:25.192315  2085 net.cpp:122] Setting up res3d_res3d_relu_0_split
I0629 03:28:25.192329  2085 net.cpp:129] Top shape: 8 512 28 28 (3211264)
I0629 03:28:25.192334  2085 net.cpp:129] Top shape: 8 512 28 28 (3211264)
I0629 03:28:25.192338  2085 net.cpp:137] Memory required for data: 1398505632
I0629 03:28:25.192342  2085 layer_factory.hpp:77] Creating layer res4a_branch1
I0629 03:28:25.192353  2085 net.cpp:84] Creating Layer res4a_branch1
I0629 03:28:25.192358  2085 net.cpp:406] res4a_branch1 <- res3d_res3d_relu_0_split_0
I0629 03:28:25.192365  2085 net.cpp:380] res4a_branch1 -> res4a_branch1
I0629 03:28:25.194530  2085 net.cpp:122] Setting up res4a_branch1
I0629 03:28:25.194550  2085 net.cpp:129] Top shape: 8 1024 14 14 (1605632)
I0629 03:28:25.194553  2085 net.cpp:137] Memory required for data: 1404928160
I0629 03:28:25.194561  2085 layer_factory.hpp:77] Creating layer bn4a_branch1
I0629 03:28:25.194571  2085 net.cpp:84] Creating Layer bn4a_branch1
I0629 03:28:25.194576  2085 net.cpp:406] bn4a_branch1 <- res4a_branch1
I0629 03:28:25.194581  2085 net.cpp:367] bn4a_branch1 -> res4a_branch1 (in-place)
I0629 03:28:25.194811  2085 net.cpp:122] Setting up bn4a_branch1
I0629 03:28:25.194840  2085 net.cpp:129] Top shape: 8 1024 14 14 (1605632)
I0629 03:28:25.194845  2085 net.cpp:137] Memory required for data: 1411350688
I0629 03:28:25.194855  2085 layer_factory.hpp:77] Creating layer scale4a_branch1
I0629 03:28:25.194864  2085 net.cpp:84] Creating Layer scale4a_branch1
I0629 03:28:25.194867  2085 net.cpp:406] scale4a_branch1 <- res4a_branch1
I0629 03:28:25.194874  2085 net.cpp:367] scale4a_branch1 -> res4a_branch1 (in-place)
I0629 03:28:25.194922  2085 layer_factory.hpp:77] Creating layer scale4a_branch1
I0629 03:28:25.195072  2085 net.cpp:122] Setting up scale4a_branch1
I0629 03:28:25.195087  2085 net.cpp:129] Top shape: 8 1024 14 14 (1605632)
I0629 03:28:25.195091  2085 net.cpp:137] Memory required for data: 1417773216
I0629 03:28:25.195098  2085 layer_factory.hpp:77] Creating layer res4a_branch2a
I0629 03:28:25.195109  2085 net.cpp:84] Creating Layer res4a_branch2a
I0629 03:28:25.195116  2085 net.cpp:406] res4a_branch2a <- res3d_res3d_relu_0_split_1
I0629 03:28:25.195124  2085 net.cpp:380] res4a_branch2a -> res4a_branch2a
I0629 03:28:25.196172  2085 net.cpp:122] Setting up res4a_branch2a
I0629 03:28:25.196192  2085 net.cpp:129] Top shape: 8 256 14 14 (401408)
I0629 03:28:25.196197  2085 net.cpp:137] Memory required for data: 1419378848
I0629 03:28:25.196202  2085 layer_factory.hpp:77] Creating layer bn4a_branch2a
I0629 03:28:25.196210  2085 net.cpp:84] Creating Layer bn4a_branch2a
I0629 03:28:25.196214  2085 net.cpp:406] bn4a_branch2a <- res4a_branch2a
I0629 03:28:25.196223  2085 net.cpp:367] bn4a_branch2a -> res4a_branch2a (in-place)
I0629 03:28:25.196445  2085 net.cpp:122] Setting up bn4a_branch2a
I0629 03:28:25.196460  2085 net.cpp:129] Top shape: 8 256 14 14 (401408)
I0629 03:28:25.196465  2085 net.cpp:137] Memory required for data: 1420984480
I0629 03:28:25.196472  2085 layer_factory.hpp:77] Creating layer scale4a_branch2a
I0629 03:28:25.196480  2085 net.cpp:84] Creating Layer scale4a_branch2a
I0629 03:28:25.196487  2085 net.cpp:406] scale4a_branch2a <- res4a_branch2a
I0629 03:28:25.196492  2085 net.cpp:367] scale4a_branch2a -> res4a_branch2a (in-place)
I0629 03:28:25.196548  2085 layer_factory.hpp:77] Creating layer scale4a_branch2a
I0629 03:28:25.196687  2085 net.cpp:122] Setting up scale4a_branch2a
I0629 03:28:25.196702  2085 net.cpp:129] Top shape: 8 256 14 14 (401408)
I0629 03:28:25.196705  2085 net.cpp:137] Memory required for data: 1422590112
I0629 03:28:25.196712  2085 layer_factory.hpp:77] Creating layer res4a_branch2a_relu
I0629 03:28:25.196718  2085 net.cpp:84] Creating Layer res4a_branch2a_relu
I0629 03:28:25.196723  2085 net.cpp:406] res4a_branch2a_relu <- res4a_branch2a
I0629 03:28:25.196730  2085 net.cpp:367] res4a_branch2a_relu -> res4a_branch2a (in-place)
I0629 03:28:25.196888  2085 net.cpp:122] Setting up res4a_branch2a_relu
I0629 03:28:25.196908  2085 net.cpp:129] Top shape: 8 256 14 14 (401408)
I0629 03:28:25.196913  2085 net.cpp:137] Memory required for data: 1424195744
I0629 03:28:25.196916  2085 layer_factory.hpp:77] Creating layer res4a_branch2b
I0629 03:28:25.196925  2085 net.cpp:84] Creating Layer res4a_branch2b
I0629 03:28:25.196929  2085 net.cpp:406] res4a_branch2b <- res4a_branch2a
I0629 03:28:25.196938  2085 net.cpp:380] res4a_branch2b -> res4a_branch2b
I0629 03:28:25.199120  2085 net.cpp:122] Setting up res4a_branch2b
I0629 03:28:25.199139  2085 net.cpp:129] Top shape: 8 256 14 14 (401408)
I0629 03:28:25.199144  2085 net.cpp:137] Memory required for data: 1425801376
I0629 03:28:25.199151  2085 layer_factory.hpp:77] Creating layer bn4a_branch2b
I0629 03:28:25.199157  2085 net.cpp:84] Creating Layer bn4a_branch2b
I0629 03:28:25.199162  2085 net.cpp:406] bn4a_branch2b <- res4a_branch2b
I0629 03:28:25.199170  2085 net.cpp:367] bn4a_branch2b -> res4a_branch2b (in-place)
I0629 03:28:25.199403  2085 net.cpp:122] Setting up bn4a_branch2b
I0629 03:28:25.199419  2085 net.cpp:129] Top shape: 8 256 14 14 (401408)
I0629 03:28:25.199422  2085 net.cpp:137] Memory required for data: 1427407008
I0629 03:28:25.199430  2085 layer_factory.hpp:77] Creating layer scale4a_branch2b
I0629 03:28:25.199456  2085 net.cpp:84] Creating Layer scale4a_branch2b
I0629 03:28:25.199461  2085 net.cpp:406] scale4a_branch2b <- res4a_branch2b
I0629 03:28:25.199467  2085 net.cpp:367] scale4a_branch2b -> res4a_branch2b (in-place)
I0629 03:28:25.199522  2085 layer_factory.hpp:77] Creating layer scale4a_branch2b
I0629 03:28:25.199668  2085 net.cpp:122] Setting up scale4a_branch2b
I0629 03:28:25.199684  2085 net.cpp:129] Top shape: 8 256 14 14 (401408)
I0629 03:28:25.199688  2085 net.cpp:137] Memory required for data: 1429012640
I0629 03:28:25.199695  2085 layer_factory.hpp:77] Creating layer res4a_branch2b_relu
I0629 03:28:25.199702  2085 net.cpp:84] Creating Layer res4a_branch2b_relu
I0629 03:28:25.199705  2085 net.cpp:406] res4a_branch2b_relu <- res4a_branch2b
I0629 03:28:25.199713  2085 net.cpp:367] res4a_branch2b_relu -> res4a_branch2b (in-place)
I0629 03:28:25.199868  2085 net.cpp:122] Setting up res4a_branch2b_relu
I0629 03:28:25.199885  2085 net.cpp:129] Top shape: 8 256 14 14 (401408)
I0629 03:28:25.199900  2085 net.cpp:137] Memory required for data: 1430618272
I0629 03:28:25.199908  2085 layer_factory.hpp:77] Creating layer res4a_branch2c
I0629 03:28:25.199919  2085 net.cpp:84] Creating Layer res4a_branch2c
I0629 03:28:25.199924  2085 net.cpp:406] res4a_branch2c <- res4a_branch2b
I0629 03:28:25.199932  2085 net.cpp:380] res4a_branch2c -> res4a_branch2c
I0629 03:28:25.201436  2085 net.cpp:122] Setting up res4a_branch2c
I0629 03:28:25.201457  2085 net.cpp:129] Top shape: 8 1024 14 14 (1605632)
I0629 03:28:25.201462  2085 net.cpp:137] Memory required for data: 1437040800
I0629 03:28:25.201467  2085 layer_factory.hpp:77] Creating layer bn4a_branch2c
I0629 03:28:25.201475  2085 net.cpp:84] Creating Layer bn4a_branch2c
I0629 03:28:25.201479  2085 net.cpp:406] bn4a_branch2c <- res4a_branch2c
I0629 03:28:25.201488  2085 net.cpp:367] bn4a_branch2c -> res4a_branch2c (in-place)
I0629 03:28:25.201717  2085 net.cpp:122] Setting up bn4a_branch2c
I0629 03:28:25.201732  2085 net.cpp:129] Top shape: 8 1024 14 14 (1605632)
I0629 03:28:25.201736  2085 net.cpp:137] Memory required for data: 1443463328
I0629 03:28:25.201746  2085 layer_factory.hpp:77] Creating layer scale4a_branch2c
I0629 03:28:25.201755  2085 net.cpp:84] Creating Layer scale4a_branch2c
I0629 03:28:25.201758  2085 net.cpp:406] scale4a_branch2c <- res4a_branch2c
I0629 03:28:25.201763  2085 net.cpp:367] scale4a_branch2c -> res4a_branch2c (in-place)
I0629 03:28:25.201815  2085 layer_factory.hpp:77] Creating layer scale4a_branch2c
I0629 03:28:25.201967  2085 net.cpp:122] Setting up scale4a_branch2c
I0629 03:28:25.201983  2085 net.cpp:129] Top shape: 8 1024 14 14 (1605632)
I0629 03:28:25.201987  2085 net.cpp:137] Memory required for data: 1449885856
I0629 03:28:25.201993  2085 layer_factory.hpp:77] Creating layer res4a
I0629 03:28:25.202000  2085 net.cpp:84] Creating Layer res4a
I0629 03:28:25.202005  2085 net.cpp:406] res4a <- res4a_branch1
I0629 03:28:25.202009  2085 net.cpp:406] res4a <- res4a_branch2c
I0629 03:28:25.202018  2085 net.cpp:380] res4a -> res4a
I0629 03:28:25.202049  2085 net.cpp:122] Setting up res4a
I0629 03:28:25.202057  2085 net.cpp:129] Top shape: 8 1024 14 14 (1605632)
I0629 03:28:25.202061  2085 net.cpp:137] Memory required for data: 1456308384
I0629 03:28:25.202064  2085 layer_factory.hpp:77] Creating layer res4a_relu
I0629 03:28:25.202074  2085 net.cpp:84] Creating Layer res4a_relu
I0629 03:28:25.202077  2085 net.cpp:406] res4a_relu <- res4a
I0629 03:28:25.202082  2085 net.cpp:367] res4a_relu -> res4a (in-place)
I0629 03:28:25.202350  2085 net.cpp:122] Setting up res4a_relu
I0629 03:28:25.202368  2085 net.cpp:129] Top shape: 8 1024 14 14 (1605632)
I0629 03:28:25.202373  2085 net.cpp:137] Memory required for data: 1462730912
I0629 03:28:25.202378  2085 layer_factory.hpp:77] Creating layer res4a_res4a_relu_0_split
I0629 03:28:25.202405  2085 net.cpp:84] Creating Layer res4a_res4a_relu_0_split
I0629 03:28:25.202416  2085 net.cpp:406] res4a_res4a_relu_0_split <- res4a
I0629 03:28:25.202424  2085 net.cpp:380] res4a_res4a_relu_0_split -> res4a_res4a_relu_0_split_0
I0629 03:28:25.202455  2085 net.cpp:380] res4a_res4a_relu_0_split -> res4a_res4a_relu_0_split_1
I0629 03:28:25.202512  2085 net.cpp:122] Setting up res4a_res4a_relu_0_split
I0629 03:28:25.202527  2085 net.cpp:129] Top shape: 8 1024 14 14 (1605632)
I0629 03:28:25.202531  2085 net.cpp:129] Top shape: 8 1024 14 14 (1605632)
I0629 03:28:25.202534  2085 net.cpp:137] Memory required for data: 1475575968
I0629 03:28:25.202539  2085 layer_factory.hpp:77] Creating layer res4b_branch2a
I0629 03:28:25.202550  2085 net.cpp:84] Creating Layer res4b_branch2a
I0629 03:28:25.202554  2085 net.cpp:406] res4b_branch2a <- res4a_res4a_relu_0_split_0
I0629 03:28:25.202560  2085 net.cpp:380] res4b_branch2a -> res4b_branch2a
I0629 03:28:25.204121  2085 net.cpp:122] Setting up res4b_branch2a
I0629 03:28:25.204143  2085 net.cpp:129] Top shape: 8 256 14 14 (401408)
I0629 03:28:25.204146  2085 net.cpp:137] Memory required for data: 1477181600
I0629 03:28:25.204152  2085 layer_factory.hpp:77] Creating layer bn4b_branch2a
I0629 03:28:25.204162  2085 net.cpp:84] Creating Layer bn4b_branch2a
I0629 03:28:25.204167  2085 net.cpp:406] bn4b_branch2a <- res4b_branch2a
I0629 03:28:25.204175  2085 net.cpp:367] bn4b_branch2a -> res4b_branch2a (in-place)
I0629 03:28:25.204402  2085 net.cpp:122] Setting up bn4b_branch2a
I0629 03:28:25.204417  2085 net.cpp:129] Top shape: 8 256 14 14 (401408)
I0629 03:28:25.204421  2085 net.cpp:137] Memory required for data: 1478787232
I0629 03:28:25.204430  2085 layer_factory.hpp:77] Creating layer scale4b_branch2a
I0629 03:28:25.204437  2085 net.cpp:84] Creating Layer scale4b_branch2a
I0629 03:28:25.204442  2085 net.cpp:406] scale4b_branch2a <- res4b_branch2a
I0629 03:28:25.204449  2085 net.cpp:367] scale4b_branch2a -> res4b_branch2a (in-place)
I0629 03:28:25.204505  2085 layer_factory.hpp:77] Creating layer scale4b_branch2a
I0629 03:28:25.204650  2085 net.cpp:122] Setting up scale4b_branch2a
I0629 03:28:25.204666  2085 net.cpp:129] Top shape: 8 256 14 14 (401408)
I0629 03:28:25.204670  2085 net.cpp:137] Memory required for data: 1480392864
I0629 03:28:25.204676  2085 layer_factory.hpp:77] Creating layer res4b_branch2a_relu
I0629 03:28:25.204684  2085 net.cpp:84] Creating Layer res4b_branch2a_relu
I0629 03:28:25.204689  2085 net.cpp:406] res4b_branch2a_relu <- res4b_branch2a
I0629 03:28:25.204694  2085 net.cpp:367] res4b_branch2a_relu -> res4b_branch2a (in-place)
I0629 03:28:25.204854  2085 net.cpp:122] Setting up res4b_branch2a_relu
I0629 03:28:25.204871  2085 net.cpp:129] Top shape: 8 256 14 14 (401408)
I0629 03:28:25.204875  2085 net.cpp:137] Memory required for data: 1481998496
I0629 03:28:25.204879  2085 layer_factory.hpp:77] Creating layer res4b_branch2b
I0629 03:28:25.204892  2085 net.cpp:84] Creating Layer res4b_branch2b
I0629 03:28:25.204905  2085 net.cpp:406] res4b_branch2b <- res4b_branch2a
I0629 03:28:25.204915  2085 net.cpp:380] res4b_branch2b -> res4b_branch2b
I0629 03:28:25.207057  2085 net.cpp:122] Setting up res4b_branch2b
I0629 03:28:25.207077  2085 net.cpp:129] Top shape: 8 256 14 14 (401408)
I0629 03:28:25.207082  2085 net.cpp:137] Memory required for data: 1483604128
I0629 03:28:25.207088  2085 layer_factory.hpp:77] Creating layer bn4b_branch2b
I0629 03:28:25.207095  2085 net.cpp:84] Creating Layer bn4b_branch2b
I0629 03:28:25.207100  2085 net.cpp:406] bn4b_branch2b <- res4b_branch2b
I0629 03:28:25.207106  2085 net.cpp:367] bn4b_branch2b -> res4b_branch2b (in-place)
I0629 03:28:25.207342  2085 net.cpp:122] Setting up bn4b_branch2b
I0629 03:28:25.207360  2085 net.cpp:129] Top shape: 8 256 14 14 (401408)
I0629 03:28:25.207365  2085 net.cpp:137] Memory required for data: 1485209760
I0629 03:28:25.207373  2085 layer_factory.hpp:77] Creating layer scale4b_branch2b
I0629 03:28:25.207381  2085 net.cpp:84] Creating Layer scale4b_branch2b
I0629 03:28:25.207384  2085 net.cpp:406] scale4b_branch2b <- res4b_branch2b
I0629 03:28:25.207389  2085 net.cpp:367] scale4b_branch2b -> res4b_branch2b (in-place)
I0629 03:28:25.207448  2085 layer_factory.hpp:77] Creating layer scale4b_branch2b
I0629 03:28:25.207590  2085 net.cpp:122] Setting up scale4b_branch2b
I0629 03:28:25.207617  2085 net.cpp:129] Top shape: 8 256 14 14 (401408)
I0629 03:28:25.207623  2085 net.cpp:137] Memory required for data: 1486815392
I0629 03:28:25.207629  2085 layer_factory.hpp:77] Creating layer res4b_branch2b_relu
I0629 03:28:25.207635  2085 net.cpp:84] Creating Layer res4b_branch2b_relu
I0629 03:28:25.207643  2085 net.cpp:406] res4b_branch2b_relu <- res4b_branch2b
I0629 03:28:25.207648  2085 net.cpp:367] res4b_branch2b_relu -> res4b_branch2b (in-place)
I0629 03:28:25.207816  2085 net.cpp:122] Setting up res4b_branch2b_relu
I0629 03:28:25.207836  2085 net.cpp:129] Top shape: 8 256 14 14 (401408)
I0629 03:28:25.207840  2085 net.cpp:137] Memory required for data: 1488421024
I0629 03:28:25.207844  2085 layer_factory.hpp:77] Creating layer res4b_branch2c
I0629 03:28:25.207854  2085 net.cpp:84] Creating Layer res4b_branch2c
I0629 03:28:25.207859  2085 net.cpp:406] res4b_branch2c <- res4b_branch2b
I0629 03:28:25.207866  2085 net.cpp:380] res4b_branch2c -> res4b_branch2c
I0629 03:28:25.209393  2085 net.cpp:122] Setting up res4b_branch2c
I0629 03:28:25.209414  2085 net.cpp:129] Top shape: 8 1024 14 14 (1605632)
I0629 03:28:25.209417  2085 net.cpp:137] Memory required for data: 1494843552
I0629 03:28:25.209424  2085 layer_factory.hpp:77] Creating layer bn4b_branch2c
I0629 03:28:25.209434  2085 net.cpp:84] Creating Layer bn4b_branch2c
I0629 03:28:25.209439  2085 net.cpp:406] bn4b_branch2c <- res4b_branch2c
I0629 03:28:25.209444  2085 net.cpp:367] bn4b_branch2c -> res4b_branch2c (in-place)
I0629 03:28:25.209683  2085 net.cpp:122] Setting up bn4b_branch2c
I0629 03:28:25.209699  2085 net.cpp:129] Top shape: 8 1024 14 14 (1605632)
I0629 03:28:25.209703  2085 net.cpp:137] Memory required for data: 1501266080
I0629 03:28:25.209712  2085 layer_factory.hpp:77] Creating layer scale4b_branch2c
I0629 03:28:25.209719  2085 net.cpp:84] Creating Layer scale4b_branch2c
I0629 03:28:25.209723  2085 net.cpp:406] scale4b_branch2c <- res4b_branch2c
I0629 03:28:25.209731  2085 net.cpp:367] scale4b_branch2c -> res4b_branch2c (in-place)
I0629 03:28:25.209785  2085 layer_factory.hpp:77] Creating layer scale4b_branch2c
I0629 03:28:25.209938  2085 net.cpp:122] Setting up scale4b_branch2c
I0629 03:28:25.209954  2085 net.cpp:129] Top shape: 8 1024 14 14 (1605632)
I0629 03:28:25.209957  2085 net.cpp:137] Memory required for data: 1507688608
I0629 03:28:25.209964  2085 layer_factory.hpp:77] Creating layer res4b
I0629 03:28:25.209972  2085 net.cpp:84] Creating Layer res4b
I0629 03:28:25.209977  2085 net.cpp:406] res4b <- res4a_res4a_relu_0_split_1
I0629 03:28:25.209982  2085 net.cpp:406] res4b <- res4b_branch2c
I0629 03:28:25.209987  2085 net.cpp:380] res4b -> res4b
I0629 03:28:25.210032  2085 net.cpp:122] Setting up res4b
I0629 03:28:25.210048  2085 net.cpp:129] Top shape: 8 1024 14 14 (1605632)
I0629 03:28:25.210052  2085 net.cpp:137] Memory required for data: 1514111136
I0629 03:28:25.210057  2085 layer_factory.hpp:77] Creating layer res4b_relu
I0629 03:28:25.210062  2085 net.cpp:84] Creating Layer res4b_relu
I0629 03:28:25.210067  2085 net.cpp:406] res4b_relu <- res4b
I0629 03:28:25.210072  2085 net.cpp:367] res4b_relu -> res4b (in-place)
I0629 03:28:25.210345  2085 net.cpp:122] Setting up res4b_relu
I0629 03:28:25.210362  2085 net.cpp:129] Top shape: 8 1024 14 14 (1605632)
I0629 03:28:25.210366  2085 net.cpp:137] Memory required for data: 1520533664
I0629 03:28:25.210371  2085 layer_factory.hpp:77] Creating layer res4b_res4b_relu_0_split
I0629 03:28:25.210379  2085 net.cpp:84] Creating Layer res4b_res4b_relu_0_split
I0629 03:28:25.210383  2085 net.cpp:406] res4b_res4b_relu_0_split <- res4b
I0629 03:28:25.210389  2085 net.cpp:380] res4b_res4b_relu_0_split -> res4b_res4b_relu_0_split_0
I0629 03:28:25.210397  2085 net.cpp:380] res4b_res4b_relu_0_split -> res4b_res4b_relu_0_split_1
I0629 03:28:25.210451  2085 net.cpp:122] Setting up res4b_res4b_relu_0_split
I0629 03:28:25.210466  2085 net.cpp:129] Top shape: 8 1024 14 14 (1605632)
I0629 03:28:25.210471  2085 net.cpp:129] Top shape: 8 1024 14 14 (1605632)
I0629 03:28:25.210489  2085 net.cpp:137] Memory required for data: 1533378720
I0629 03:28:25.210494  2085 layer_factory.hpp:77] Creating layer res4c_branch2a
I0629 03:28:25.210506  2085 net.cpp:84] Creating Layer res4c_branch2a
I0629 03:28:25.210510  2085 net.cpp:406] res4c_branch2a <- res4b_res4b_relu_0_split_0
I0629 03:28:25.210517  2085 net.cpp:380] res4c_branch2a -> res4c_branch2a
I0629 03:28:25.212056  2085 net.cpp:122] Setting up res4c_branch2a
I0629 03:28:25.212076  2085 net.cpp:129] Top shape: 8 256 14 14 (401408)
I0629 03:28:25.212081  2085 net.cpp:137] Memory required for data: 1534984352
I0629 03:28:25.212087  2085 layer_factory.hpp:77] Creating layer bn4c_branch2a
I0629 03:28:25.212096  2085 net.cpp:84] Creating Layer bn4c_branch2a
I0629 03:28:25.212101  2085 net.cpp:406] bn4c_branch2a <- res4c_branch2a
I0629 03:28:25.212110  2085 net.cpp:367] bn4c_branch2a -> res4c_branch2a (in-place)
I0629 03:28:25.212348  2085 net.cpp:122] Setting up bn4c_branch2a
I0629 03:28:25.212363  2085 net.cpp:129] Top shape: 8 256 14 14 (401408)
I0629 03:28:25.212368  2085 net.cpp:137] Memory required for data: 1536589984
I0629 03:28:25.212376  2085 layer_factory.hpp:77] Creating layer scale4c_branch2a
I0629 03:28:25.212383  2085 net.cpp:84] Creating Layer scale4c_branch2a
I0629 03:28:25.212388  2085 net.cpp:406] scale4c_branch2a <- res4c_branch2a
I0629 03:28:25.212395  2085 net.cpp:367] scale4c_branch2a -> res4c_branch2a (in-place)
I0629 03:28:25.212450  2085 layer_factory.hpp:77] Creating layer scale4c_branch2a
I0629 03:28:25.212597  2085 net.cpp:122] Setting up scale4c_branch2a
I0629 03:28:25.212612  2085 net.cpp:129] Top shape: 8 256 14 14 (401408)
I0629 03:28:25.212616  2085 net.cpp:137] Memory required for data: 1538195616
I0629 03:28:25.212622  2085 layer_factory.hpp:77] Creating layer res4c_branch2a_relu
I0629 03:28:25.212630  2085 net.cpp:84] Creating Layer res4c_branch2a_relu
I0629 03:28:25.212633  2085 net.cpp:406] res4c_branch2a_relu <- res4c_branch2a
I0629 03:28:25.212638  2085 net.cpp:367] res4c_branch2a_relu -> res4c_branch2a (in-place)
I0629 03:28:25.212803  2085 net.cpp:122] Setting up res4c_branch2a_relu
I0629 03:28:25.212821  2085 net.cpp:129] Top shape: 8 256 14 14 (401408)
I0629 03:28:25.212824  2085 net.cpp:137] Memory required for data: 1539801248
I0629 03:28:25.212828  2085 layer_factory.hpp:77] Creating layer res4c_branch2b
I0629 03:28:25.212839  2085 net.cpp:84] Creating Layer res4c_branch2b
I0629 03:28:25.212843  2085 net.cpp:406] res4c_branch2b <- res4c_branch2a
I0629 03:28:25.212852  2085 net.cpp:380] res4c_branch2b -> res4c_branch2b
I0629 03:28:25.215061  2085 net.cpp:122] Setting up res4c_branch2b
I0629 03:28:25.215081  2085 net.cpp:129] Top shape: 8 256 14 14 (401408)
I0629 03:28:25.215085  2085 net.cpp:137] Memory required for data: 1541406880
I0629 03:28:25.215091  2085 layer_factory.hpp:77] Creating layer bn4c_branch2b
I0629 03:28:25.215101  2085 net.cpp:84] Creating Layer bn4c_branch2b
I0629 03:28:25.215106  2085 net.cpp:406] bn4c_branch2b <- res4c_branch2b
I0629 03:28:25.215113  2085 net.cpp:367] bn4c_branch2b -> res4c_branch2b (in-place)
I0629 03:28:25.215351  2085 net.cpp:122] Setting up bn4c_branch2b
I0629 03:28:25.215366  2085 net.cpp:129] Top shape: 8 256 14 14 (401408)
I0629 03:28:25.215370  2085 net.cpp:137] Memory required for data: 1543012512
I0629 03:28:25.215378  2085 layer_factory.hpp:77] Creating layer scale4c_branch2b
I0629 03:28:25.215389  2085 net.cpp:84] Creating Layer scale4c_branch2b
I0629 03:28:25.215392  2085 net.cpp:406] scale4c_branch2b <- res4c_branch2b
I0629 03:28:25.215399  2085 net.cpp:367] scale4c_branch2b -> res4c_branch2b (in-place)
I0629 03:28:25.215457  2085 layer_factory.hpp:77] Creating layer scale4c_branch2b
I0629 03:28:25.215611  2085 net.cpp:122] Setting up scale4c_branch2b
I0629 03:28:25.215626  2085 net.cpp:129] Top shape: 8 256 14 14 (401408)
I0629 03:28:25.215631  2085 net.cpp:137] Memory required for data: 1544618144
I0629 03:28:25.215637  2085 layer_factory.hpp:77] Creating layer res4c_branch2b_relu
I0629 03:28:25.215643  2085 net.cpp:84] Creating Layer res4c_branch2b_relu
I0629 03:28:25.215667  2085 net.cpp:406] res4c_branch2b_relu <- res4c_branch2b
I0629 03:28:25.215673  2085 net.cpp:367] res4c_branch2b_relu -> res4c_branch2b (in-place)
I0629 03:28:25.215837  2085 net.cpp:122] Setting up res4c_branch2b_relu
I0629 03:28:25.215853  2085 net.cpp:129] Top shape: 8 256 14 14 (401408)
I0629 03:28:25.215858  2085 net.cpp:137] Memory required for data: 1546223776
I0629 03:28:25.215862  2085 layer_factory.hpp:77] Creating layer res4c_branch2c
I0629 03:28:25.215873  2085 net.cpp:84] Creating Layer res4c_branch2c
I0629 03:28:25.215878  2085 net.cpp:406] res4c_branch2c <- res4c_branch2b
I0629 03:28:25.215886  2085 net.cpp:380] res4c_branch2c -> res4c_branch2c
I0629 03:28:25.217417  2085 net.cpp:122] Setting up res4c_branch2c
I0629 03:28:25.217437  2085 net.cpp:129] Top shape: 8 1024 14 14 (1605632)
I0629 03:28:25.217440  2085 net.cpp:137] Memory required for data: 1552646304
I0629 03:28:25.217447  2085 layer_factory.hpp:77] Creating layer bn4c_branch2c
I0629 03:28:25.217458  2085 net.cpp:84] Creating Layer bn4c_branch2c
I0629 03:28:25.217461  2085 net.cpp:406] bn4c_branch2c <- res4c_branch2c
I0629 03:28:25.217468  2085 net.cpp:367] bn4c_branch2c -> res4c_branch2c (in-place)
I0629 03:28:25.217713  2085 net.cpp:122] Setting up bn4c_branch2c
I0629 03:28:25.217730  2085 net.cpp:129] Top shape: 8 1024 14 14 (1605632)
I0629 03:28:25.217733  2085 net.cpp:137] Memory required for data: 1559068832
I0629 03:28:25.217742  2085 layer_factory.hpp:77] Creating layer scale4c_branch2c
I0629 03:28:25.217751  2085 net.cpp:84] Creating Layer scale4c_branch2c
I0629 03:28:25.217756  2085 net.cpp:406] scale4c_branch2c <- res4c_branch2c
I0629 03:28:25.217761  2085 net.cpp:367] scale4c_branch2c -> res4c_branch2c (in-place)
I0629 03:28:25.217814  2085 layer_factory.hpp:77] Creating layer scale4c_branch2c
I0629 03:28:25.217972  2085 net.cpp:122] Setting up scale4c_branch2c
I0629 03:28:25.217988  2085 net.cpp:129] Top shape: 8 1024 14 14 (1605632)
I0629 03:28:25.217991  2085 net.cpp:137] Memory required for data: 1565491360
I0629 03:28:25.217998  2085 layer_factory.hpp:77] Creating layer res4c
I0629 03:28:25.218004  2085 net.cpp:84] Creating Layer res4c
I0629 03:28:25.218009  2085 net.cpp:406] res4c <- res4b_res4b_relu_0_split_1
I0629 03:28:25.218014  2085 net.cpp:406] res4c <- res4c_branch2c
I0629 03:28:25.218021  2085 net.cpp:380] res4c -> res4c
I0629 03:28:25.218056  2085 net.cpp:122] Setting up res4c
I0629 03:28:25.218071  2085 net.cpp:129] Top shape: 8 1024 14 14 (1605632)
I0629 03:28:25.218075  2085 net.cpp:137] Memory required for data: 1571913888
I0629 03:28:25.218078  2085 layer_factory.hpp:77] Creating layer res4c_relu
I0629 03:28:25.218085  2085 net.cpp:84] Creating Layer res4c_relu
I0629 03:28:25.218088  2085 net.cpp:406] res4c_relu <- res4c
I0629 03:28:25.218093  2085 net.cpp:367] res4c_relu -> res4c (in-place)
I0629 03:28:25.218369  2085 net.cpp:122] Setting up res4c_relu
I0629 03:28:25.218387  2085 net.cpp:129] Top shape: 8 1024 14 14 (1605632)
I0629 03:28:25.218391  2085 net.cpp:137] Memory required for data: 1578336416
I0629 03:28:25.218396  2085 layer_factory.hpp:77] Creating layer res4c_res4c_relu_0_split
I0629 03:28:25.218402  2085 net.cpp:84] Creating Layer res4c_res4c_relu_0_split
I0629 03:28:25.218406  2085 net.cpp:406] res4c_res4c_relu_0_split <- res4c
I0629 03:28:25.218415  2085 net.cpp:380] res4c_res4c_relu_0_split -> res4c_res4c_relu_0_split_0
I0629 03:28:25.218422  2085 net.cpp:380] res4c_res4c_relu_0_split -> res4c_res4c_relu_0_split_1
I0629 03:28:25.218477  2085 net.cpp:122] Setting up res4c_res4c_relu_0_split
I0629 03:28:25.218492  2085 net.cpp:129] Top shape: 8 1024 14 14 (1605632)
I0629 03:28:25.218497  2085 net.cpp:129] Top shape: 8 1024 14 14 (1605632)
I0629 03:28:25.218500  2085 net.cpp:137] Memory required for data: 1591181472
I0629 03:28:25.218504  2085 layer_factory.hpp:77] Creating layer res4d_branch2a
I0629 03:28:25.218513  2085 net.cpp:84] Creating Layer res4d_branch2a
I0629 03:28:25.218518  2085 net.cpp:406] res4d_branch2a <- res4c_res4c_relu_0_split_0
I0629 03:28:25.218545  2085 net.cpp:380] res4d_branch2a -> res4d_branch2a
I0629 03:28:25.220100  2085 net.cpp:122] Setting up res4d_branch2a
I0629 03:28:25.220120  2085 net.cpp:129] Top shape: 8 256 14 14 (401408)
I0629 03:28:25.220125  2085 net.cpp:137] Memory required for data: 1592787104
I0629 03:28:25.220131  2085 layer_factory.hpp:77] Creating layer bn4d_branch2a
I0629 03:28:25.220140  2085 net.cpp:84] Creating Layer bn4d_branch2a
I0629 03:28:25.220145  2085 net.cpp:406] bn4d_branch2a <- res4d_branch2a
I0629 03:28:25.220151  2085 net.cpp:367] bn4d_branch2a -> res4d_branch2a (in-place)
I0629 03:28:25.220402  2085 net.cpp:122] Setting up bn4d_branch2a
I0629 03:28:25.220418  2085 net.cpp:129] Top shape: 8 256 14 14 (401408)
I0629 03:28:25.220422  2085 net.cpp:137] Memory required for data: 1594392736
I0629 03:28:25.220432  2085 layer_factory.hpp:77] Creating layer scale4d_branch2a
I0629 03:28:25.220438  2085 net.cpp:84] Creating Layer scale4d_branch2a
I0629 03:28:25.220443  2085 net.cpp:406] scale4d_branch2a <- res4d_branch2a
I0629 03:28:25.220449  2085 net.cpp:367] scale4d_branch2a -> res4d_branch2a (in-place)
I0629 03:28:25.220506  2085 layer_factory.hpp:77] Creating layer scale4d_branch2a
I0629 03:28:25.220660  2085 net.cpp:122] Setting up scale4d_branch2a
I0629 03:28:25.220679  2085 net.cpp:129] Top shape: 8 256 14 14 (401408)
I0629 03:28:25.220683  2085 net.cpp:137] Memory required for data: 1595998368
I0629 03:28:25.220690  2085 layer_factory.hpp:77] Creating layer res4d_branch2a_relu
I0629 03:28:25.220696  2085 net.cpp:84] Creating Layer res4d_branch2a_relu
I0629 03:28:25.220700  2085 net.cpp:406] res4d_branch2a_relu <- res4d_branch2a
I0629 03:28:25.220705  2085 net.cpp:367] res4d_branch2a_relu -> res4d_branch2a (in-place)
I0629 03:28:25.220875  2085 net.cpp:122] Setting up res4d_branch2a_relu
I0629 03:28:25.220891  2085 net.cpp:129] Top shape: 8 256 14 14 (401408)
I0629 03:28:25.220896  2085 net.cpp:137] Memory required for data: 1597604000
I0629 03:28:25.220899  2085 layer_factory.hpp:77] Creating layer res4d_branch2b
I0629 03:28:25.220911  2085 net.cpp:84] Creating Layer res4d_branch2b
I0629 03:28:25.220914  2085 net.cpp:406] res4d_branch2b <- res4d_branch2a
I0629 03:28:25.220921  2085 net.cpp:380] res4d_branch2b -> res4d_branch2b
I0629 03:28:25.223060  2085 net.cpp:122] Setting up res4d_branch2b
I0629 03:28:25.223080  2085 net.cpp:129] Top shape: 8 256 14 14 (401408)
I0629 03:28:25.223084  2085 net.cpp:137] Memory required for data: 1599209632
I0629 03:28:25.223091  2085 layer_factory.hpp:77] Creating layer bn4d_branch2b
I0629 03:28:25.223098  2085 net.cpp:84] Creating Layer bn4d_branch2b
I0629 03:28:25.223104  2085 net.cpp:406] bn4d_branch2b <- res4d_branch2b
I0629 03:28:25.223114  2085 net.cpp:367] bn4d_branch2b -> res4d_branch2b (in-place)
I0629 03:28:25.223361  2085 net.cpp:122] Setting up bn4d_branch2b
I0629 03:28:25.223376  2085 net.cpp:129] Top shape: 8 256 14 14 (401408)
I0629 03:28:25.223381  2085 net.cpp:137] Memory required for data: 1600815264
I0629 03:28:25.223388  2085 layer_factory.hpp:77] Creating layer scale4d_branch2b
I0629 03:28:25.223395  2085 net.cpp:84] Creating Layer scale4d_branch2b
I0629 03:28:25.223399  2085 net.cpp:406] scale4d_branch2b <- res4d_branch2b
I0629 03:28:25.223405  2085 net.cpp:367] scale4d_branch2b -> res4d_branch2b (in-place)
I0629 03:28:25.223466  2085 layer_factory.hpp:77] Creating layer scale4d_branch2b
I0629 03:28:25.223621  2085 net.cpp:122] Setting up scale4d_branch2b
I0629 03:28:25.223636  2085 net.cpp:129] Top shape: 8 256 14 14 (401408)
I0629 03:28:25.223640  2085 net.cpp:137] Memory required for data: 1602420896
I0629 03:28:25.223646  2085 layer_factory.hpp:77] Creating layer res4d_branch2b_relu
I0629 03:28:25.223654  2085 net.cpp:84] Creating Layer res4d_branch2b_relu
I0629 03:28:25.223657  2085 net.cpp:406] res4d_branch2b_relu <- res4d_branch2b
I0629 03:28:25.223665  2085 net.cpp:367] res4d_branch2b_relu -> res4d_branch2b (in-place)
I0629 03:28:25.223829  2085 net.cpp:122] Setting up res4d_branch2b_relu
I0629 03:28:25.223845  2085 net.cpp:129] Top shape: 8 256 14 14 (401408)
I0629 03:28:25.223862  2085 net.cpp:137] Memory required for data: 1604026528
I0629 03:28:25.223867  2085 layer_factory.hpp:77] Creating layer res4d_branch2c
I0629 03:28:25.223878  2085 net.cpp:84] Creating Layer res4d_branch2c
I0629 03:28:25.223886  2085 net.cpp:406] res4d_branch2c <- res4d_branch2b
I0629 03:28:25.223906  2085 net.cpp:380] res4d_branch2c -> res4d_branch2c
I0629 03:28:25.225445  2085 net.cpp:122] Setting up res4d_branch2c
I0629 03:28:25.225466  2085 net.cpp:129] Top shape: 8 1024 14 14 (1605632)
I0629 03:28:25.225471  2085 net.cpp:137] Memory required for data: 1610449056
I0629 03:28:25.225476  2085 layer_factory.hpp:77] Creating layer bn4d_branch2c
I0629 03:28:25.225488  2085 net.cpp:84] Creating Layer bn4d_branch2c
I0629 03:28:25.225495  2085 net.cpp:406] bn4d_branch2c <- res4d_branch2c
I0629 03:28:25.225502  2085 net.cpp:367] bn4d_branch2c -> res4d_branch2c (in-place)
I0629 03:28:25.225757  2085 net.cpp:122] Setting up bn4d_branch2c
I0629 03:28:25.225774  2085 net.cpp:129] Top shape: 8 1024 14 14 (1605632)
I0629 03:28:25.225777  2085 net.cpp:137] Memory required for data: 1616871584
I0629 03:28:25.225785  2085 layer_factory.hpp:77] Creating layer scale4d_branch2c
I0629 03:28:25.225792  2085 net.cpp:84] Creating Layer scale4d_branch2c
I0629 03:28:25.225797  2085 net.cpp:406] scale4d_branch2c <- res4d_branch2c
I0629 03:28:25.225802  2085 net.cpp:367] scale4d_branch2c -> res4d_branch2c (in-place)
I0629 03:28:25.225857  2085 layer_factory.hpp:77] Creating layer scale4d_branch2c
I0629 03:28:25.226019  2085 net.cpp:122] Setting up scale4d_branch2c
I0629 03:28:25.226035  2085 net.cpp:129] Top shape: 8 1024 14 14 (1605632)
I0629 03:28:25.226039  2085 net.cpp:137] Memory required for data: 1623294112
I0629 03:28:25.226047  2085 layer_factory.hpp:77] Creating layer res4d
I0629 03:28:25.226054  2085 net.cpp:84] Creating Layer res4d
I0629 03:28:25.226059  2085 net.cpp:406] res4d <- res4c_res4c_relu_0_split_1
I0629 03:28:25.226064  2085 net.cpp:406] res4d <- res4d_branch2c
I0629 03:28:25.226069  2085 net.cpp:380] res4d -> res4d
I0629 03:28:25.226104  2085 net.cpp:122] Setting up res4d
I0629 03:28:25.226119  2085 net.cpp:129] Top shape: 8 1024 14 14 (1605632)
I0629 03:28:25.226122  2085 net.cpp:137] Memory required for data: 1629716640
I0629 03:28:25.226126  2085 layer_factory.hpp:77] Creating layer res4d_relu
I0629 03:28:25.226135  2085 net.cpp:84] Creating Layer res4d_relu
I0629 03:28:25.226140  2085 net.cpp:406] res4d_relu <- res4d
I0629 03:28:25.226146  2085 net.cpp:367] res4d_relu -> res4d (in-place)
I0629 03:28:25.226419  2085 net.cpp:122] Setting up res4d_relu
I0629 03:28:25.226438  2085 net.cpp:129] Top shape: 8 1024 14 14 (1605632)
I0629 03:28:25.226442  2085 net.cpp:137] Memory required for data: 1636139168
I0629 03:28:25.226446  2085 layer_factory.hpp:77] Creating layer res4d_res4d_relu_0_split
I0629 03:28:25.226454  2085 net.cpp:84] Creating Layer res4d_res4d_relu_0_split
I0629 03:28:25.226457  2085 net.cpp:406] res4d_res4d_relu_0_split <- res4d
I0629 03:28:25.226465  2085 net.cpp:380] res4d_res4d_relu_0_split -> res4d_res4d_relu_0_split_0
I0629 03:28:25.226474  2085 net.cpp:380] res4d_res4d_relu_0_split -> res4d_res4d_relu_0_split_1
I0629 03:28:25.226528  2085 net.cpp:122] Setting up res4d_res4d_relu_0_split
I0629 03:28:25.226543  2085 net.cpp:129] Top shape: 8 1024 14 14 (1605632)
I0629 03:28:25.226548  2085 net.cpp:129] Top shape: 8 1024 14 14 (1605632)
I0629 03:28:25.226552  2085 net.cpp:137] Memory required for data: 1648984224
I0629 03:28:25.226555  2085 layer_factory.hpp:77] Creating layer res4e_branch2a
I0629 03:28:25.226568  2085 net.cpp:84] Creating Layer res4e_branch2a
I0629 03:28:25.226573  2085 net.cpp:406] res4e_branch2a <- res4d_res4d_relu_0_split_0
I0629 03:28:25.226583  2085 net.cpp:380] res4e_branch2a -> res4e_branch2a
I0629 03:28:25.228169  2085 net.cpp:122] Setting up res4e_branch2a
I0629 03:28:25.228189  2085 net.cpp:129] Top shape: 8 256 14 14 (401408)
I0629 03:28:25.228193  2085 net.cpp:137] Memory required for data: 1650589856
I0629 03:28:25.228199  2085 layer_factory.hpp:77] Creating layer bn4e_branch2a
I0629 03:28:25.228224  2085 net.cpp:84] Creating Layer bn4e_branch2a
I0629 03:28:25.228229  2085 net.cpp:406] bn4e_branch2a <- res4e_branch2a
I0629 03:28:25.228235  2085 net.cpp:367] bn4e_branch2a -> res4e_branch2a (in-place)
I0629 03:28:25.228488  2085 net.cpp:122] Setting up bn4e_branch2a
I0629 03:28:25.228503  2085 net.cpp:129] Top shape: 8 256 14 14 (401408)
I0629 03:28:25.228507  2085 net.cpp:137] Memory required for data: 1652195488
I0629 03:28:25.228516  2085 layer_factory.hpp:77] Creating layer scale4e_branch2a
I0629 03:28:25.228525  2085 net.cpp:84] Creating Layer scale4e_branch2a
I0629 03:28:25.228529  2085 net.cpp:406] scale4e_branch2a <- res4e_branch2a
I0629 03:28:25.228535  2085 net.cpp:367] scale4e_branch2a -> res4e_branch2a (in-place)
I0629 03:28:25.228593  2085 layer_factory.hpp:77] Creating layer scale4e_branch2a
I0629 03:28:25.228760  2085 net.cpp:122] Setting up scale4e_branch2a
I0629 03:28:25.228775  2085 net.cpp:129] Top shape: 8 256 14 14 (401408)
I0629 03:28:25.228778  2085 net.cpp:137] Memory required for data: 1653801120
I0629 03:28:25.228785  2085 layer_factory.hpp:77] Creating layer res4e_branch2a_relu
I0629 03:28:25.228791  2085 net.cpp:84] Creating Layer res4e_branch2a_relu
I0629 03:28:25.228796  2085 net.cpp:406] res4e_branch2a_relu <- res4e_branch2a
I0629 03:28:25.228803  2085 net.cpp:367] res4e_branch2a_relu -> res4e_branch2a (in-place)
I0629 03:28:25.228968  2085 net.cpp:122] Setting up res4e_branch2a_relu
I0629 03:28:25.228984  2085 net.cpp:129] Top shape: 8 256 14 14 (401408)
I0629 03:28:25.228988  2085 net.cpp:137] Memory required for data: 1655406752
I0629 03:28:25.228993  2085 layer_factory.hpp:77] Creating layer res4e_branch2b
I0629 03:28:25.229005  2085 net.cpp:84] Creating Layer res4e_branch2b
I0629 03:28:25.229012  2085 net.cpp:406] res4e_branch2b <- res4e_branch2a
I0629 03:28:25.229018  2085 net.cpp:380] res4e_branch2b -> res4e_branch2b
I0629 03:28:25.231154  2085 net.cpp:122] Setting up res4e_branch2b
I0629 03:28:25.231174  2085 net.cpp:129] Top shape: 8 256 14 14 (401408)
I0629 03:28:25.231178  2085 net.cpp:137] Memory required for data: 1657012384
I0629 03:28:25.231184  2085 layer_factory.hpp:77] Creating layer bn4e_branch2b
I0629 03:28:25.231196  2085 net.cpp:84] Creating Layer bn4e_branch2b
I0629 03:28:25.231204  2085 net.cpp:406] bn4e_branch2b <- res4e_branch2b
I0629 03:28:25.231209  2085 net.cpp:367] bn4e_branch2b -> res4e_branch2b (in-place)
I0629 03:28:25.231464  2085 net.cpp:122] Setting up bn4e_branch2b
I0629 03:28:25.231473  2085 net.cpp:129] Top shape: 8 256 14 14 (401408)
I0629 03:28:25.231477  2085 net.cpp:137] Memory required for data: 1658618016
I0629 03:28:25.231484  2085 layer_factory.hpp:77] Creating layer scale4e_branch2b
I0629 03:28:25.231493  2085 net.cpp:84] Creating Layer scale4e_branch2b
I0629 03:28:25.231498  2085 net.cpp:406] scale4e_branch2b <- res4e_branch2b
I0629 03:28:25.231503  2085 net.cpp:367] scale4e_branch2b -> res4e_branch2b (in-place)
I0629 03:28:25.231560  2085 layer_factory.hpp:77] Creating layer scale4e_branch2b
I0629 03:28:25.231709  2085 net.cpp:122] Setting up scale4e_branch2b
I0629 03:28:25.231717  2085 net.cpp:129] Top shape: 8 256 14 14 (401408)
I0629 03:28:25.231721  2085 net.cpp:137] Memory required for data: 1660223648
I0629 03:28:25.231727  2085 layer_factory.hpp:77] Creating layer res4e_branch2b_relu
I0629 03:28:25.231734  2085 net.cpp:84] Creating Layer res4e_branch2b_relu
I0629 03:28:25.231737  2085 net.cpp:406] res4e_branch2b_relu <- res4e_branch2b
I0629 03:28:25.231745  2085 net.cpp:367] res4e_branch2b_relu -> res4e_branch2b (in-place)
I0629 03:28:25.231927  2085 net.cpp:122] Setting up res4e_branch2b_relu
I0629 03:28:25.231938  2085 net.cpp:129] Top shape: 8 256 14 14 (401408)
I0629 03:28:25.231941  2085 net.cpp:137] Memory required for data: 1661829280
I0629 03:28:25.231945  2085 layer_factory.hpp:77] Creating layer res4e_branch2c
I0629 03:28:25.231956  2085 net.cpp:84] Creating Layer res4e_branch2c
I0629 03:28:25.231961  2085 net.cpp:406] res4e_branch2c <- res4e_branch2b
I0629 03:28:25.231982  2085 net.cpp:380] res4e_branch2c -> res4e_branch2c
I0629 03:28:25.233536  2085 net.cpp:122] Setting up res4e_branch2c
I0629 03:28:25.233548  2085 net.cpp:129] Top shape: 8 1024 14 14 (1605632)
I0629 03:28:25.233552  2085 net.cpp:137] Memory required for data: 1668251808
I0629 03:28:25.233557  2085 layer_factory.hpp:77] Creating layer bn4e_branch2c
I0629 03:28:25.233567  2085 net.cpp:84] Creating Layer bn4e_branch2c
I0629 03:28:25.233572  2085 net.cpp:406] bn4e_branch2c <- res4e_branch2c
I0629 03:28:25.233577  2085 net.cpp:367] bn4e_branch2c -> res4e_branch2c (in-place)
I0629 03:28:25.233839  2085 net.cpp:122] Setting up bn4e_branch2c
I0629 03:28:25.233849  2085 net.cpp:129] Top shape: 8 1024 14 14 (1605632)
I0629 03:28:25.233851  2085 net.cpp:137] Memory required for data: 1674674336
I0629 03:28:25.233860  2085 layer_factory.hpp:77] Creating layer scale4e_branch2c
I0629 03:28:25.233868  2085 net.cpp:84] Creating Layer scale4e_branch2c
I0629 03:28:25.233873  2085 net.cpp:406] scale4e_branch2c <- res4e_branch2c
I0629 03:28:25.233878  2085 net.cpp:367] scale4e_branch2c -> res4e_branch2c (in-place)
I0629 03:28:25.233933  2085 layer_factory.hpp:77] Creating layer scale4e_branch2c
I0629 03:28:25.234094  2085 net.cpp:122] Setting up scale4e_branch2c
I0629 03:28:25.234103  2085 net.cpp:129] Top shape: 8 1024 14 14 (1605632)
I0629 03:28:25.234107  2085 net.cpp:137] Memory required for data: 1681096864
I0629 03:28:25.234113  2085 layer_factory.hpp:77] Creating layer res4e
I0629 03:28:25.234119  2085 net.cpp:84] Creating Layer res4e
I0629 03:28:25.234124  2085 net.cpp:406] res4e <- res4d_res4d_relu_0_split_1
I0629 03:28:25.234131  2085 net.cpp:406] res4e <- res4e_branch2c
I0629 03:28:25.234136  2085 net.cpp:380] res4e -> res4e
I0629 03:28:25.234172  2085 net.cpp:122] Setting up res4e
I0629 03:28:25.234180  2085 net.cpp:129] Top shape: 8 1024 14 14 (1605632)
I0629 03:28:25.234184  2085 net.cpp:137] Memory required for data: 1687519392
I0629 03:28:25.234187  2085 layer_factory.hpp:77] Creating layer res4e_relu
I0629 03:28:25.234194  2085 net.cpp:84] Creating Layer res4e_relu
I0629 03:28:25.234197  2085 net.cpp:406] res4e_relu <- res4e
I0629 03:28:25.234202  2085 net.cpp:367] res4e_relu -> res4e (in-place)
I0629 03:28:25.234479  2085 net.cpp:122] Setting up res4e_relu
I0629 03:28:25.234490  2085 net.cpp:129] Top shape: 8 1024 14 14 (1605632)
I0629 03:28:25.234493  2085 net.cpp:137] Memory required for data: 1693941920
I0629 03:28:25.234498  2085 layer_factory.hpp:77] Creating layer res4e_res4e_relu_0_split
I0629 03:28:25.234508  2085 net.cpp:84] Creating Layer res4e_res4e_relu_0_split
I0629 03:28:25.234513  2085 net.cpp:406] res4e_res4e_relu_0_split <- res4e
I0629 03:28:25.234519  2085 net.cpp:380] res4e_res4e_relu_0_split -> res4e_res4e_relu_0_split_0
I0629 03:28:25.234525  2085 net.cpp:380] res4e_res4e_relu_0_split -> res4e_res4e_relu_0_split_1
I0629 03:28:25.234582  2085 net.cpp:122] Setting up res4e_res4e_relu_0_split
I0629 03:28:25.234591  2085 net.cpp:129] Top shape: 8 1024 14 14 (1605632)
I0629 03:28:25.234596  2085 net.cpp:129] Top shape: 8 1024 14 14 (1605632)
I0629 03:28:25.234598  2085 net.cpp:137] Memory required for data: 1706786976
I0629 03:28:25.234602  2085 layer_factory.hpp:77] Creating layer res4f_branch2a
I0629 03:28:25.234612  2085 net.cpp:84] Creating Layer res4f_branch2a
I0629 03:28:25.234617  2085 net.cpp:406] res4f_branch2a <- res4e_res4e_relu_0_split_0
I0629 03:28:25.234623  2085 net.cpp:380] res4f_branch2a -> res4f_branch2a
I0629 03:28:25.236307  2085 net.cpp:122] Setting up res4f_branch2a
I0629 03:28:25.236320  2085 net.cpp:129] Top shape: 8 256 14 14 (401408)
I0629 03:28:25.236325  2085 net.cpp:137] Memory required for data: 1708392608
I0629 03:28:25.236330  2085 layer_factory.hpp:77] Creating layer bn4f_branch2a
I0629 03:28:25.236341  2085 net.cpp:84] Creating Layer bn4f_branch2a
I0629 03:28:25.236346  2085 net.cpp:406] bn4f_branch2a <- res4f_branch2a
I0629 03:28:25.236351  2085 net.cpp:367] bn4f_branch2a -> res4f_branch2a (in-place)
I0629 03:28:25.236613  2085 net.cpp:122] Setting up bn4f_branch2a
I0629 03:28:25.236634  2085 net.cpp:129] Top shape: 8 256 14 14 (401408)
I0629 03:28:25.236637  2085 net.cpp:137] Memory required for data: 1709998240
I0629 03:28:25.236645  2085 layer_factory.hpp:77] Creating layer scale4f_branch2a
I0629 03:28:25.236654  2085 net.cpp:84] Creating Layer scale4f_branch2a
I0629 03:28:25.236660  2085 net.cpp:406] scale4f_branch2a <- res4f_branch2a
I0629 03:28:25.236665  2085 net.cpp:367] scale4f_branch2a -> res4f_branch2a (in-place)
I0629 03:28:25.236726  2085 layer_factory.hpp:77] Creating layer scale4f_branch2a
I0629 03:28:25.236876  2085 net.cpp:122] Setting up scale4f_branch2a
I0629 03:28:25.236884  2085 net.cpp:129] Top shape: 8 256 14 14 (401408)
I0629 03:28:25.236887  2085 net.cpp:137] Memory required for data: 1711603872
I0629 03:28:25.236894  2085 layer_factory.hpp:77] Creating layer res4f_branch2a_relu
I0629 03:28:25.236901  2085 net.cpp:84] Creating Layer res4f_branch2a_relu
I0629 03:28:25.236904  2085 net.cpp:406] res4f_branch2a_relu <- res4f_branch2a
I0629 03:28:25.236912  2085 net.cpp:367] res4f_branch2a_relu -> res4f_branch2a (in-place)
I0629 03:28:25.237076  2085 net.cpp:122] Setting up res4f_branch2a_relu
I0629 03:28:25.237087  2085 net.cpp:129] Top shape: 8 256 14 14 (401408)
I0629 03:28:25.237090  2085 net.cpp:137] Memory required for data: 1713209504
I0629 03:28:25.237097  2085 layer_factory.hpp:77] Creating layer res4f_branch2b
I0629 03:28:25.237109  2085 net.cpp:84] Creating Layer res4f_branch2b
I0629 03:28:25.237113  2085 net.cpp:406] res4f_branch2b <- res4f_branch2a
I0629 03:28:25.237121  2085 net.cpp:380] res4f_branch2b -> res4f_branch2b
I0629 03:28:25.239272  2085 net.cpp:122] Setting up res4f_branch2b
I0629 03:28:25.239284  2085 net.cpp:129] Top shape: 8 256 14 14 (401408)
I0629 03:28:25.239289  2085 net.cpp:137] Memory required for data: 1714815136
I0629 03:28:25.239295  2085 layer_factory.hpp:77] Creating layer bn4f_branch2b
I0629 03:28:25.239303  2085 net.cpp:84] Creating Layer bn4f_branch2b
I0629 03:28:25.239308  2085 net.cpp:406] bn4f_branch2b <- res4f_branch2b
I0629 03:28:25.239315  2085 net.cpp:367] bn4f_branch2b -> res4f_branch2b (in-place)
I0629 03:28:25.239574  2085 net.cpp:122] Setting up bn4f_branch2b
I0629 03:28:25.239583  2085 net.cpp:129] Top shape: 8 256 14 14 (401408)
I0629 03:28:25.239586  2085 net.cpp:137] Memory required for data: 1716420768
I0629 03:28:25.239594  2085 layer_factory.hpp:77] Creating layer scale4f_branch2b
I0629 03:28:25.239606  2085 net.cpp:84] Creating Layer scale4f_branch2b
I0629 03:28:25.239611  2085 net.cpp:406] scale4f_branch2b <- res4f_branch2b
I0629 03:28:25.239617  2085 net.cpp:367] scale4f_branch2b -> res4f_branch2b (in-place)
I0629 03:28:25.239676  2085 layer_factory.hpp:77] Creating layer scale4f_branch2b
I0629 03:28:25.239828  2085 net.cpp:122] Setting up scale4f_branch2b
I0629 03:28:25.239836  2085 net.cpp:129] Top shape: 8 256 14 14 (401408)
I0629 03:28:25.239840  2085 net.cpp:137] Memory required for data: 1718026400
I0629 03:28:25.239846  2085 layer_factory.hpp:77] Creating layer res4f_branch2b_relu
I0629 03:28:25.239853  2085 net.cpp:84] Creating Layer res4f_branch2b_relu
I0629 03:28:25.239857  2085 net.cpp:406] res4f_branch2b_relu <- res4f_branch2b
I0629 03:28:25.239862  2085 net.cpp:367] res4f_branch2b_relu -> res4f_branch2b (in-place)
I0629 03:28:25.240044  2085 net.cpp:122] Setting up res4f_branch2b_relu
I0629 03:28:25.240056  2085 net.cpp:129] Top shape: 8 256 14 14 (401408)
I0629 03:28:25.240059  2085 net.cpp:137] Memory required for data: 1719632032
I0629 03:28:25.240063  2085 layer_factory.hpp:77] Creating layer res4f_branch2c
I0629 03:28:25.240073  2085 net.cpp:84] Creating Layer res4f_branch2c
I0629 03:28:25.240078  2085 net.cpp:406] res4f_branch2c <- res4f_branch2b
I0629 03:28:25.240087  2085 net.cpp:380] res4f_branch2c -> res4f_branch2c
I0629 03:28:25.241657  2085 net.cpp:122] Setting up res4f_branch2c
I0629 03:28:25.241668  2085 net.cpp:129] Top shape: 8 1024 14 14 (1605632)
I0629 03:28:25.241672  2085 net.cpp:137] Memory required for data: 1726054560
I0629 03:28:25.241678  2085 layer_factory.hpp:77] Creating layer bn4f_branch2c
I0629 03:28:25.241701  2085 net.cpp:84] Creating Layer bn4f_branch2c
I0629 03:28:25.241709  2085 net.cpp:406] bn4f_branch2c <- res4f_branch2c
I0629 03:28:25.241715  2085 net.cpp:367] bn4f_branch2c -> res4f_branch2c (in-place)
I0629 03:28:25.241977  2085 net.cpp:122] Setting up bn4f_branch2c
I0629 03:28:25.241986  2085 net.cpp:129] Top shape: 8 1024 14 14 (1605632)
I0629 03:28:25.241989  2085 net.cpp:137] Memory required for data: 1732477088
I0629 03:28:25.242036  2085 layer_factory.hpp:77] Creating layer scale4f_branch2c
I0629 03:28:25.242048  2085 net.cpp:84] Creating Layer scale4f_branch2c
I0629 03:28:25.242051  2085 net.cpp:406] scale4f_branch2c <- res4f_branch2c
I0629 03:28:25.242058  2085 net.cpp:367] scale4f_branch2c -> res4f_branch2c (in-place)
I0629 03:28:25.242117  2085 layer_factory.hpp:77] Creating layer scale4f_branch2c
I0629 03:28:25.242275  2085 net.cpp:122] Setting up scale4f_branch2c
I0629 03:28:25.242285  2085 net.cpp:129] Top shape: 8 1024 14 14 (1605632)
I0629 03:28:25.242288  2085 net.cpp:137] Memory required for data: 1738899616
I0629 03:28:25.242295  2085 layer_factory.hpp:77] Creating layer res4f
I0629 03:28:25.242301  2085 net.cpp:84] Creating Layer res4f
I0629 03:28:25.242307  2085 net.cpp:406] res4f <- res4e_res4e_relu_0_split_1
I0629 03:28:25.242312  2085 net.cpp:406] res4f <- res4f_branch2c
I0629 03:28:25.242318  2085 net.cpp:380] res4f -> res4f
I0629 03:28:25.242355  2085 net.cpp:122] Setting up res4f
I0629 03:28:25.242364  2085 net.cpp:129] Top shape: 8 1024 14 14 (1605632)
I0629 03:28:25.242367  2085 net.cpp:137] Memory required for data: 1745322144
I0629 03:28:25.242372  2085 layer_factory.hpp:77] Creating layer res4f_relu
I0629 03:28:25.242380  2085 net.cpp:84] Creating Layer res4f_relu
I0629 03:28:25.242384  2085 net.cpp:406] res4f_relu <- res4f
I0629 03:28:25.242389  2085 net.cpp:367] res4f_relu -> res4f (in-place)
I0629 03:28:25.242673  2085 net.cpp:122] Setting up res4f_relu
I0629 03:28:25.242683  2085 net.cpp:129] Top shape: 8 1024 14 14 (1605632)
I0629 03:28:25.242687  2085 net.cpp:137] Memory required for data: 1751744672
I0629 03:28:25.242691  2085 layer_factory.hpp:77] Creating layer res4f_res4f_relu_0_split
I0629 03:28:25.242698  2085 net.cpp:84] Creating Layer res4f_res4f_relu_0_split
I0629 03:28:25.242702  2085 net.cpp:406] res4f_res4f_relu_0_split <- res4f
I0629 03:28:25.242712  2085 net.cpp:380] res4f_res4f_relu_0_split -> res4f_res4f_relu_0_split_0
I0629 03:28:25.242718  2085 net.cpp:380] res4f_res4f_relu_0_split -> res4f_res4f_relu_0_split_1
I0629 03:28:25.242779  2085 net.cpp:122] Setting up res4f_res4f_relu_0_split
I0629 03:28:25.242789  2085 net.cpp:129] Top shape: 8 1024 14 14 (1605632)
I0629 03:28:25.242794  2085 net.cpp:129] Top shape: 8 1024 14 14 (1605632)
I0629 03:28:25.242796  2085 net.cpp:137] Memory required for data: 1764589728
I0629 03:28:25.242800  2085 layer_factory.hpp:77] Creating layer res5a_branch1
I0629 03:28:25.242812  2085 net.cpp:84] Creating Layer res5a_branch1
I0629 03:28:25.242817  2085 net.cpp:406] res5a_branch1 <- res4f_res4f_relu_0_split_0
I0629 03:28:25.242823  2085 net.cpp:380] res5a_branch1 -> res5a_branch1
I0629 03:28:25.247792  2085 net.cpp:122] Setting up res5a_branch1
I0629 03:28:25.247805  2085 net.cpp:129] Top shape: 8 2048 7 7 (802816)
I0629 03:28:25.247809  2085 net.cpp:137] Memory required for data: 1767800992
I0629 03:28:25.247815  2085 layer_factory.hpp:77] Creating layer bn5a_branch1
I0629 03:28:25.247825  2085 net.cpp:84] Creating Layer bn5a_branch1
I0629 03:28:25.247830  2085 net.cpp:406] bn5a_branch1 <- res5a_branch1
I0629 03:28:25.247836  2085 net.cpp:367] bn5a_branch1 -> res5a_branch1 (in-place)
I0629 03:28:25.248150  2085 net.cpp:122] Setting up bn5a_branch1
I0629 03:28:25.248160  2085 net.cpp:129] Top shape: 8 2048 7 7 (802816)
I0629 03:28:25.248163  2085 net.cpp:137] Memory required for data: 1771012256
I0629 03:28:25.248174  2085 layer_factory.hpp:77] Creating layer scale5a_branch1
I0629 03:28:25.248181  2085 net.cpp:84] Creating Layer scale5a_branch1
I0629 03:28:25.248186  2085 net.cpp:406] scale5a_branch1 <- res5a_branch1
I0629 03:28:25.248206  2085 net.cpp:367] scale5a_branch1 -> res5a_branch1 (in-place)
I0629 03:28:25.248268  2085 layer_factory.hpp:77] Creating layer scale5a_branch1
I0629 03:28:25.248436  2085 net.cpp:122] Setting up scale5a_branch1
I0629 03:28:25.248445  2085 net.cpp:129] Top shape: 8 2048 7 7 (802816)
I0629 03:28:25.248450  2085 net.cpp:137] Memory required for data: 1774223520
I0629 03:28:25.248456  2085 layer_factory.hpp:77] Creating layer res5a_branch2a
I0629 03:28:25.248467  2085 net.cpp:84] Creating Layer res5a_branch2a
I0629 03:28:25.248472  2085 net.cpp:406] res5a_branch2a <- res4f_res4f_relu_0_split_1
I0629 03:28:25.248481  2085 net.cpp:380] res5a_branch2a -> res5a_branch2a
I0629 03:28:25.250432  2085 net.cpp:122] Setting up res5a_branch2a
I0629 03:28:25.250443  2085 net.cpp:129] Top shape: 8 512 7 7 (200704)
I0629 03:28:25.250447  2085 net.cpp:137] Memory required for data: 1775026336
I0629 03:28:25.250453  2085 layer_factory.hpp:77] Creating layer bn5a_branch2a
I0629 03:28:25.250463  2085 net.cpp:84] Creating Layer bn5a_branch2a
I0629 03:28:25.250468  2085 net.cpp:406] bn5a_branch2a <- res5a_branch2a
I0629 03:28:25.250473  2085 net.cpp:367] bn5a_branch2a -> res5a_branch2a (in-place)
I0629 03:28:25.250746  2085 net.cpp:122] Setting up bn5a_branch2a
I0629 03:28:25.250754  2085 net.cpp:129] Top shape: 8 512 7 7 (200704)
I0629 03:28:25.250758  2085 net.cpp:137] Memory required for data: 1775829152
I0629 03:28:25.250769  2085 layer_factory.hpp:77] Creating layer scale5a_branch2a
I0629 03:28:25.250777  2085 net.cpp:84] Creating Layer scale5a_branch2a
I0629 03:28:25.250782  2085 net.cpp:406] scale5a_branch2a <- res5a_branch2a
I0629 03:28:25.250787  2085 net.cpp:367] scale5a_branch2a -> res5a_branch2a (in-place)
I0629 03:28:25.250844  2085 layer_factory.hpp:77] Creating layer scale5a_branch2a
I0629 03:28:25.251013  2085 net.cpp:122] Setting up scale5a_branch2a
I0629 03:28:25.251022  2085 net.cpp:129] Top shape: 8 512 7 7 (200704)
I0629 03:28:25.251025  2085 net.cpp:137] Memory required for data: 1776631968
I0629 03:28:25.251032  2085 layer_factory.hpp:77] Creating layer res5a_branch2a_relu
I0629 03:28:25.251041  2085 net.cpp:84] Creating Layer res5a_branch2a_relu
I0629 03:28:25.251045  2085 net.cpp:406] res5a_branch2a_relu <- res5a_branch2a
I0629 03:28:25.251051  2085 net.cpp:367] res5a_branch2a_relu -> res5a_branch2a (in-place)
I0629 03:28:25.251336  2085 net.cpp:122] Setting up res5a_branch2a_relu
I0629 03:28:25.251348  2085 net.cpp:129] Top shape: 8 512 7 7 (200704)
I0629 03:28:25.251351  2085 net.cpp:137] Memory required for data: 1777434784
I0629 03:28:25.251355  2085 layer_factory.hpp:77] Creating layer res5a_branch2b
I0629 03:28:25.251368  2085 net.cpp:84] Creating Layer res5a_branch2b
I0629 03:28:25.251374  2085 net.cpp:406] res5a_branch2b <- res5a_branch2a
I0629 03:28:25.251380  2085 net.cpp:380] res5a_branch2b -> res5a_branch2b
I0629 03:28:25.256901  2085 net.cpp:122] Setting up res5a_branch2b
I0629 03:28:25.256917  2085 net.cpp:129] Top shape: 8 512 7 7 (200704)
I0629 03:28:25.256922  2085 net.cpp:137] Memory required for data: 1778237600
I0629 03:28:25.256928  2085 layer_factory.hpp:77] Creating layer bn5a_branch2b
I0629 03:28:25.256937  2085 net.cpp:84] Creating Layer bn5a_branch2b
I0629 03:28:25.256942  2085 net.cpp:406] bn5a_branch2b <- res5a_branch2b
I0629 03:28:25.256948  2085 net.cpp:367] bn5a_branch2b -> res5a_branch2b (in-place)
I0629 03:28:25.257241  2085 net.cpp:122] Setting up bn5a_branch2b
I0629 03:28:25.257251  2085 net.cpp:129] Top shape: 8 512 7 7 (200704)
I0629 03:28:25.257253  2085 net.cpp:137] Memory required for data: 1779040416
I0629 03:28:25.257262  2085 layer_factory.hpp:77] Creating layer scale5a_branch2b
I0629 03:28:25.257272  2085 net.cpp:84] Creating Layer scale5a_branch2b
I0629 03:28:25.257277  2085 net.cpp:406] scale5a_branch2b <- res5a_branch2b
I0629 03:28:25.257282  2085 net.cpp:367] scale5a_branch2b -> res5a_branch2b (in-place)
I0629 03:28:25.257340  2085 layer_factory.hpp:77] Creating layer scale5a_branch2b
I0629 03:28:25.257511  2085 net.cpp:122] Setting up scale5a_branch2b
I0629 03:28:25.257536  2085 net.cpp:129] Top shape: 8 512 7 7 (200704)
I0629 03:28:25.257540  2085 net.cpp:137] Memory required for data: 1779843232
I0629 03:28:25.257547  2085 layer_factory.hpp:77] Creating layer res5a_branch2b_relu
I0629 03:28:25.257555  2085 net.cpp:84] Creating Layer res5a_branch2b_relu
I0629 03:28:25.257558  2085 net.cpp:406] res5a_branch2b_relu <- res5a_branch2b
I0629 03:28:25.257565  2085 net.cpp:367] res5a_branch2b_relu -> res5a_branch2b (in-place)
I0629 03:28:25.257735  2085 net.cpp:122] Setting up res5a_branch2b_relu
I0629 03:28:25.257745  2085 net.cpp:129] Top shape: 8 512 7 7 (200704)
I0629 03:28:25.257748  2085 net.cpp:137] Memory required for data: 1780646048
I0629 03:28:25.257752  2085 layer_factory.hpp:77] Creating layer res5a_branch2c
I0629 03:28:25.257766  2085 net.cpp:84] Creating Layer res5a_branch2c
I0629 03:28:25.257769  2085 net.cpp:406] res5a_branch2c <- res5a_branch2b
I0629 03:28:25.257776  2085 net.cpp:380] res5a_branch2c -> res5a_branch2c
I0629 03:28:25.260838  2085 net.cpp:122] Setting up res5a_branch2c
I0629 03:28:25.260851  2085 net.cpp:129] Top shape: 8 2048 7 7 (802816)
I0629 03:28:25.260855  2085 net.cpp:137] Memory required for data: 1783857312
I0629 03:28:25.260861  2085 layer_factory.hpp:77] Creating layer bn5a_branch2c
I0629 03:28:25.260871  2085 net.cpp:84] Creating Layer bn5a_branch2c
I0629 03:28:25.260876  2085 net.cpp:406] bn5a_branch2c <- res5a_branch2c
I0629 03:28:25.260881  2085 net.cpp:367] bn5a_branch2c -> res5a_branch2c (in-place)
I0629 03:28:25.261175  2085 net.cpp:122] Setting up bn5a_branch2c
I0629 03:28:25.261184  2085 net.cpp:129] Top shape: 8 2048 7 7 (802816)
I0629 03:28:25.261188  2085 net.cpp:137] Memory required for data: 1787068576
I0629 03:28:25.261199  2085 layer_factory.hpp:77] Creating layer scale5a_branch2c
I0629 03:28:25.261206  2085 net.cpp:84] Creating Layer scale5a_branch2c
I0629 03:28:25.261210  2085 net.cpp:406] scale5a_branch2c <- res5a_branch2c
I0629 03:28:25.261216  2085 net.cpp:367] scale5a_branch2c -> res5a_branch2c (in-place)
I0629 03:28:25.261276  2085 layer_factory.hpp:77] Creating layer scale5a_branch2c
I0629 03:28:25.261461  2085 net.cpp:122] Setting up scale5a_branch2c
I0629 03:28:25.261469  2085 net.cpp:129] Top shape: 8 2048 7 7 (802816)
I0629 03:28:25.261474  2085 net.cpp:137] Memory required for data: 1790279840
I0629 03:28:25.261481  2085 layer_factory.hpp:77] Creating layer res5a
I0629 03:28:25.261489  2085 net.cpp:84] Creating Layer res5a
I0629 03:28:25.261494  2085 net.cpp:406] res5a <- res5a_branch1
I0629 03:28:25.261499  2085 net.cpp:406] res5a <- res5a_branch2c
I0629 03:28:25.261504  2085 net.cpp:380] res5a -> res5a
I0629 03:28:25.261544  2085 net.cpp:122] Setting up res5a
I0629 03:28:25.261553  2085 net.cpp:129] Top shape: 8 2048 7 7 (802816)
I0629 03:28:25.261556  2085 net.cpp:137] Memory required for data: 1793491104
I0629 03:28:25.261560  2085 layer_factory.hpp:77] Creating layer res5a_relu
I0629 03:28:25.261565  2085 net.cpp:84] Creating Layer res5a_relu
I0629 03:28:25.261569  2085 net.cpp:406] res5a_relu <- res5a
I0629 03:28:25.261577  2085 net.cpp:367] res5a_relu -> res5a (in-place)
I0629 03:28:25.261858  2085 net.cpp:122] Setting up res5a_relu
I0629 03:28:25.261869  2085 net.cpp:129] Top shape: 8 2048 7 7 (802816)
I0629 03:28:25.261873  2085 net.cpp:137] Memory required for data: 1796702368
I0629 03:28:25.261878  2085 layer_factory.hpp:77] Creating layer res5a_res5a_relu_0_split
I0629 03:28:25.261885  2085 net.cpp:84] Creating Layer res5a_res5a_relu_0_split
I0629 03:28:25.261890  2085 net.cpp:406] res5a_res5a_relu_0_split <- res5a
I0629 03:28:25.261896  2085 net.cpp:380] res5a_res5a_relu_0_split -> res5a_res5a_relu_0_split_0
I0629 03:28:25.261904  2085 net.cpp:380] res5a_res5a_relu_0_split -> res5a_res5a_relu_0_split_1
I0629 03:28:25.261965  2085 net.cpp:122] Setting up res5a_res5a_relu_0_split
I0629 03:28:25.261972  2085 net.cpp:129] Top shape: 8 2048 7 7 (802816)
I0629 03:28:25.261977  2085 net.cpp:129] Top shape: 8 2048 7 7 (802816)
I0629 03:28:25.261981  2085 net.cpp:137] Memory required for data: 1803124896
I0629 03:28:25.261997  2085 layer_factory.hpp:77] Creating layer my_res5b_branch2a
I0629 03:28:25.262008  2085 net.cpp:84] Creating Layer my_res5b_branch2a
I0629 03:28:25.262013  2085 net.cpp:406] my_res5b_branch2a <- res5a_res5a_relu_0_split_0
I0629 03:28:25.262022  2085 net.cpp:380] my_res5b_branch2a -> my_res5b_branch2a
I0629 03:28:25.265050  2085 net.cpp:122] Setting up my_res5b_branch2a
I0629 03:28:25.265064  2085 net.cpp:129] Top shape: 8 512 7 7 (200704)
I0629 03:28:25.265069  2085 net.cpp:137] Memory required for data: 1803927712
I0629 03:28:25.265074  2085 layer_factory.hpp:77] Creating layer my_bn5b_branch2a
I0629 03:28:25.265084  2085 net.cpp:84] Creating Layer my_bn5b_branch2a
I0629 03:28:25.265089  2085 net.cpp:406] my_bn5b_branch2a <- my_res5b_branch2a
I0629 03:28:25.265096  2085 net.cpp:367] my_bn5b_branch2a -> my_res5b_branch2a (in-place)
I0629 03:28:25.265379  2085 net.cpp:122] Setting up my_bn5b_branch2a
I0629 03:28:25.265388  2085 net.cpp:129] Top shape: 8 512 7 7 (200704)
I0629 03:28:25.265391  2085 net.cpp:137] Memory required for data: 1804730528
I0629 03:28:25.265400  2085 layer_factory.hpp:77] Creating layer my_scale5b_branch2a
I0629 03:28:25.265409  2085 net.cpp:84] Creating Layer my_scale5b_branch2a
I0629 03:28:25.265413  2085 net.cpp:406] my_scale5b_branch2a <- my_res5b_branch2a
I0629 03:28:25.265419  2085 net.cpp:367] my_scale5b_branch2a -> my_res5b_branch2a (in-place)
I0629 03:28:25.265475  2085 layer_factory.hpp:77] Creating layer my_scale5b_branch2a
I0629 03:28:25.265653  2085 net.cpp:122] Setting up my_scale5b_branch2a
I0629 03:28:25.265662  2085 net.cpp:129] Top shape: 8 512 7 7 (200704)
I0629 03:28:25.265666  2085 net.cpp:137] Memory required for data: 1805533344
I0629 03:28:25.265672  2085 layer_factory.hpp:77] Creating layer my_res5b_branch2a_relu
I0629 03:28:25.265678  2085 net.cpp:84] Creating Layer my_res5b_branch2a_relu
I0629 03:28:25.265682  2085 net.cpp:406] my_res5b_branch2a_relu <- my_res5b_branch2a
I0629 03:28:25.265687  2085 net.cpp:367] my_res5b_branch2a_relu -> my_res5b_branch2a (in-place)
I0629 03:28:25.265980  2085 net.cpp:122] Setting up my_res5b_branch2a_relu
I0629 03:28:25.265990  2085 net.cpp:129] Top shape: 8 512 7 7 (200704)
I0629 03:28:25.265995  2085 net.cpp:137] Memory required for data: 1806336160
I0629 03:28:25.266000  2085 layer_factory.hpp:77] Creating layer my_res5b_branch2b
I0629 03:28:25.266010  2085 net.cpp:84] Creating Layer my_res5b_branch2b
I0629 03:28:25.266014  2085 net.cpp:406] my_res5b_branch2b <- my_res5b_branch2a
I0629 03:28:25.266023  2085 net.cpp:380] my_res5b_branch2b -> my_res5b_branch2b
I0629 03:28:25.271508  2085 net.cpp:122] Setting up my_res5b_branch2b
I0629 03:28:25.271524  2085 net.cpp:129] Top shape: 8 512 7 7 (200704)
I0629 03:28:25.271528  2085 net.cpp:137] Memory required for data: 1807138976
I0629 03:28:25.271534  2085 layer_factory.hpp:77] Creating layer my_bn5b_branch2b
I0629 03:28:25.271543  2085 net.cpp:84] Creating Layer my_bn5b_branch2b
I0629 03:28:25.271546  2085 net.cpp:406] my_bn5b_branch2b <- my_res5b_branch2b
I0629 03:28:25.271553  2085 net.cpp:367] my_bn5b_branch2b -> my_res5b_branch2b (in-place)
I0629 03:28:25.271852  2085 net.cpp:122] Setting up my_bn5b_branch2b
I0629 03:28:25.271862  2085 net.cpp:129] Top shape: 8 512 7 7 (200704)
I0629 03:28:25.271865  2085 net.cpp:137] Memory required for data: 1807941792
I0629 03:28:25.271873  2085 layer_factory.hpp:77] Creating layer my_scale5b_branch2b
I0629 03:28:25.271880  2085 net.cpp:84] Creating Layer my_scale5b_branch2b
I0629 03:28:25.271885  2085 net.cpp:406] my_scale5b_branch2b <- my_res5b_branch2b
I0629 03:28:25.271903  2085 net.cpp:367] my_scale5b_branch2b -> my_res5b_branch2b (in-place)
I0629 03:28:25.271967  2085 layer_factory.hpp:77] Creating layer my_scale5b_branch2b
I0629 03:28:25.272143  2085 net.cpp:122] Setting up my_scale5b_branch2b
I0629 03:28:25.272152  2085 net.cpp:129] Top shape: 8 512 7 7 (200704)
I0629 03:28:25.272156  2085 net.cpp:137] Memory required for data: 1808744608
I0629 03:28:25.272163  2085 layer_factory.hpp:77] Creating layer my_res5b_branch2b_relu
I0629 03:28:25.272195  2085 net.cpp:84] Creating Layer my_res5b_branch2b_relu
I0629 03:28:25.272202  2085 net.cpp:406] my_res5b_branch2b_relu <- my_res5b_branch2b
I0629 03:28:25.272208  2085 net.cpp:367] my_res5b_branch2b_relu -> my_res5b_branch2b (in-place)
I0629 03:28:25.272380  2085 net.cpp:122] Setting up my_res5b_branch2b_relu
I0629 03:28:25.272398  2085 net.cpp:129] Top shape: 8 512 7 7 (200704)
I0629 03:28:25.272403  2085 net.cpp:137] Memory required for data: 1809547424
I0629 03:28:25.272406  2085 layer_factory.hpp:77] Creating layer my_res5b_branch2c
I0629 03:28:25.272418  2085 net.cpp:84] Creating Layer my_res5b_branch2c
I0629 03:28:25.272426  2085 net.cpp:406] my_res5b_branch2c <- my_res5b_branch2b
I0629 03:28:25.272433  2085 net.cpp:380] my_res5b_branch2c -> my_res5b_branch2c
I0629 03:28:25.275475  2085 net.cpp:122] Setting up my_res5b_branch2c
I0629 03:28:25.275496  2085 net.cpp:129] Top shape: 8 2048 7 7 (802816)
I0629 03:28:25.275501  2085 net.cpp:137] Memory required for data: 1812758688
I0629 03:28:25.275506  2085 layer_factory.hpp:77] Creating layer my_bn5b_branch2c
I0629 03:28:25.275514  2085 net.cpp:84] Creating Layer my_bn5b_branch2c
I0629 03:28:25.275518  2085 net.cpp:406] my_bn5b_branch2c <- my_res5b_branch2c
I0629 03:28:25.275527  2085 net.cpp:367] my_bn5b_branch2c -> my_res5b_branch2c (in-place)
I0629 03:28:25.275822  2085 net.cpp:122] Setting up my_bn5b_branch2c
I0629 03:28:25.275840  2085 net.cpp:129] Top shape: 8 2048 7 7 (802816)
I0629 03:28:25.275843  2085 net.cpp:137] Memory required for data: 1815969952
I0629 03:28:25.275851  2085 layer_factory.hpp:77] Creating layer my_scale5b_branch2c
I0629 03:28:25.275858  2085 net.cpp:84] Creating Layer my_scale5b_branch2c
I0629 03:28:25.275862  2085 net.cpp:406] my_scale5b_branch2c <- my_res5b_branch2c
I0629 03:28:25.275867  2085 net.cpp:367] my_scale5b_branch2c -> my_res5b_branch2c (in-place)
I0629 03:28:25.275946  2085 layer_factory.hpp:77] Creating layer my_scale5b_branch2c
I0629 03:28:25.276144  2085 net.cpp:122] Setting up my_scale5b_branch2c
I0629 03:28:25.276160  2085 net.cpp:129] Top shape: 8 2048 7 7 (802816)
I0629 03:28:25.276163  2085 net.cpp:137] Memory required for data: 1819181216
I0629 03:28:25.276170  2085 layer_factory.hpp:77] Creating layer my_res5b
I0629 03:28:25.276177  2085 net.cpp:84] Creating Layer my_res5b
I0629 03:28:25.276182  2085 net.cpp:406] my_res5b <- res5a_res5a_relu_0_split_1
I0629 03:28:25.276187  2085 net.cpp:406] my_res5b <- my_res5b_branch2c
I0629 03:28:25.276196  2085 net.cpp:380] my_res5b -> my_res5b
I0629 03:28:25.276234  2085 net.cpp:122] Setting up my_res5b
I0629 03:28:25.276249  2085 net.cpp:129] Top shape: 8 2048 7 7 (802816)
I0629 03:28:25.276253  2085 net.cpp:137] Memory required for data: 1822392480
I0629 03:28:25.276257  2085 layer_factory.hpp:77] Creating layer my_res5b_relu
I0629 03:28:25.276268  2085 net.cpp:84] Creating Layer my_res5b_relu
I0629 03:28:25.276273  2085 net.cpp:406] my_res5b_relu <- my_res5b
I0629 03:28:25.276278  2085 net.cpp:367] my_res5b_relu -> my_res5b (in-place)
I0629 03:28:25.276564  2085 net.cpp:122] Setting up my_res5b_relu
I0629 03:28:25.276582  2085 net.cpp:129] Top shape: 8 2048 7 7 (802816)
I0629 03:28:25.276587  2085 net.cpp:137] Memory required for data: 1825603744
I0629 03:28:25.276592  2085 layer_factory.hpp:77] Creating layer my_res5b_my_res5b_relu_0_split
I0629 03:28:25.276598  2085 net.cpp:84] Creating Layer my_res5b_my_res5b_relu_0_split
I0629 03:28:25.276602  2085 net.cpp:406] my_res5b_my_res5b_relu_0_split <- my_res5b
I0629 03:28:25.276610  2085 net.cpp:380] my_res5b_my_res5b_relu_0_split -> my_res5b_my_res5b_relu_0_split_0
I0629 03:28:25.276618  2085 net.cpp:380] my_res5b_my_res5b_relu_0_split -> my_res5b_my_res5b_relu_0_split_1
I0629 03:28:25.276684  2085 net.cpp:122] Setting up my_res5b_my_res5b_relu_0_split
I0629 03:28:25.276698  2085 net.cpp:129] Top shape: 8 2048 7 7 (802816)
I0629 03:28:25.276703  2085 net.cpp:129] Top shape: 8 2048 7 7 (802816)
I0629 03:28:25.276707  2085 net.cpp:137] Memory required for data: 1832026272
I0629 03:28:25.276736  2085 layer_factory.hpp:77] Creating layer my_res5c_branch2a
I0629 03:28:25.276747  2085 net.cpp:84] Creating Layer my_res5c_branch2a
I0629 03:28:25.276757  2085 net.cpp:406] my_res5c_branch2a <- my_res5b_my_res5b_relu_0_split_0
I0629 03:28:25.276763  2085 net.cpp:380] my_res5c_branch2a -> my_res5c_branch2a
I0629 03:28:25.279695  2085 net.cpp:122] Setting up my_res5c_branch2a
I0629 03:28:25.279716  2085 net.cpp:129] Top shape: 8 512 7 7 (200704)
I0629 03:28:25.279721  2085 net.cpp:137] Memory required for data: 1832829088
I0629 03:28:25.279726  2085 layer_factory.hpp:77] Creating layer my_bn5c_branch2a
I0629 03:28:25.279737  2085 net.cpp:84] Creating Layer my_bn5c_branch2a
I0629 03:28:25.279742  2085 net.cpp:406] my_bn5c_branch2a <- my_res5c_branch2a
I0629 03:28:25.279748  2085 net.cpp:367] my_bn5c_branch2a -> my_res5c_branch2a (in-place)
I0629 03:28:25.280061  2085 net.cpp:122] Setting up my_bn5c_branch2a
I0629 03:28:25.280078  2085 net.cpp:129] Top shape: 8 512 7 7 (200704)
I0629 03:28:25.280082  2085 net.cpp:137] Memory required for data: 1833631904
I0629 03:28:25.280091  2085 layer_factory.hpp:77] Creating layer my_scale5c_branch2a
I0629 03:28:25.280097  2085 net.cpp:84] Creating Layer my_scale5c_branch2a
I0629 03:28:25.280102  2085 net.cpp:406] my_scale5c_branch2a <- my_res5c_branch2a
I0629 03:28:25.280110  2085 net.cpp:367] my_scale5c_branch2a -> my_res5c_branch2a (in-place)
I0629 03:28:25.280169  2085 layer_factory.hpp:77] Creating layer my_scale5c_branch2a
I0629 03:28:25.280359  2085 net.cpp:122] Setting up my_scale5c_branch2a
I0629 03:28:25.280375  2085 net.cpp:129] Top shape: 8 512 7 7 (200704)
I0629 03:28:25.280380  2085 net.cpp:137] Memory required for data: 1834434720
I0629 03:28:25.280386  2085 layer_factory.hpp:77] Creating layer my_res5c_branch2a_relu
I0629 03:28:25.280395  2085 net.cpp:84] Creating Layer my_res5c_branch2a_relu
I0629 03:28:25.280400  2085 net.cpp:406] my_res5c_branch2a_relu <- my_res5c_branch2a
I0629 03:28:25.280405  2085 net.cpp:367] my_res5c_branch2a_relu -> my_res5c_branch2a (in-place)
I0629 03:28:25.280719  2085 net.cpp:122] Setting up my_res5c_branch2a_relu
I0629 03:28:25.280738  2085 net.cpp:129] Top shape: 8 512 7 7 (200704)
I0629 03:28:25.280742  2085 net.cpp:137] Memory required for data: 1835237536
I0629 03:28:25.280746  2085 layer_factory.hpp:77] Creating layer my_res5c_branch2b
I0629 03:28:25.280760  2085 net.cpp:84] Creating Layer my_res5c_branch2b
I0629 03:28:25.280766  2085 net.cpp:406] my_res5c_branch2b <- my_res5c_branch2a
I0629 03:28:25.280772  2085 net.cpp:380] my_res5c_branch2b -> my_res5c_branch2b
I0629 03:28:25.286334  2085 net.cpp:122] Setting up my_res5c_branch2b
I0629 03:28:25.286360  2085 net.cpp:129] Top shape: 8 512 7 7 (200704)
I0629 03:28:25.286365  2085 net.cpp:137] Memory required for data: 1836040352
I0629 03:28:25.286370  2085 layer_factory.hpp:77] Creating layer my_bn5c_branch2b
I0629 03:28:25.286382  2085 net.cpp:84] Creating Layer my_bn5c_branch2b
I0629 03:28:25.286387  2085 net.cpp:406] my_bn5c_branch2b <- my_res5c_branch2b
I0629 03:28:25.286394  2085 net.cpp:367] my_bn5c_branch2b -> my_res5c_branch2b (in-place)
I0629 03:28:25.286703  2085 net.cpp:122] Setting up my_bn5c_branch2b
I0629 03:28:25.286720  2085 net.cpp:129] Top shape: 8 512 7 7 (200704)
I0629 03:28:25.286725  2085 net.cpp:137] Memory required for data: 1836843168
I0629 03:28:25.286733  2085 layer_factory.hpp:77] Creating layer my_scale5c_branch2b
I0629 03:28:25.286743  2085 net.cpp:84] Creating Layer my_scale5c_branch2b
I0629 03:28:25.286748  2085 net.cpp:406] my_scale5c_branch2b <- my_res5c_branch2b
I0629 03:28:25.286753  2085 net.cpp:367] my_scale5c_branch2b -> my_res5c_branch2b (in-place)
I0629 03:28:25.286818  2085 layer_factory.hpp:77] Creating layer my_scale5c_branch2b
I0629 03:28:25.287011  2085 net.cpp:122] Setting up my_scale5c_branch2b
I0629 03:28:25.287026  2085 net.cpp:129] Top shape: 8 512 7 7 (200704)
I0629 03:28:25.287030  2085 net.cpp:137] Memory required for data: 1837645984
I0629 03:28:25.287037  2085 layer_factory.hpp:77] Creating layer my_res5c_branch2b_relu
I0629 03:28:25.287065  2085 net.cpp:84] Creating Layer my_res5c_branch2b_relu
I0629 03:28:25.287070  2085 net.cpp:406] my_res5c_branch2b_relu <- my_res5c_branch2b
I0629 03:28:25.287077  2085 net.cpp:367] my_res5c_branch2b_relu -> my_res5c_branch2b (in-place)
I0629 03:28:25.287250  2085 net.cpp:122] Setting up my_res5c_branch2b_relu
I0629 03:28:25.287266  2085 net.cpp:129] Top shape: 8 512 7 7 (200704)
I0629 03:28:25.287271  2085 net.cpp:137] Memory required for data: 1838448800
I0629 03:28:25.287274  2085 layer_factory.hpp:77] Creating layer my_res5c_branch2c
I0629 03:28:25.287287  2085 net.cpp:84] Creating Layer my_res5c_branch2c
I0629 03:28:25.287295  2085 net.cpp:406] my_res5c_branch2c <- my_res5c_branch2b
I0629 03:28:25.287302  2085 net.cpp:380] my_res5c_branch2c -> my_res5c_branch2c
I0629 03:28:25.290410  2085 net.cpp:122] Setting up my_res5c_branch2c
I0629 03:28:25.290431  2085 net.cpp:129] Top shape: 8 2048 7 7 (802816)
I0629 03:28:25.290436  2085 net.cpp:137] Memory required for data: 1841660064
I0629 03:28:25.290441  2085 layer_factory.hpp:77] Creating layer my_bn5c_branch2c
I0629 03:28:25.290452  2085 net.cpp:84] Creating Layer my_bn5c_branch2c
I0629 03:28:25.290455  2085 net.cpp:406] my_bn5c_branch2c <- my_res5c_branch2c
I0629 03:28:25.290462  2085 net.cpp:367] my_bn5c_branch2c -> my_res5c_branch2c (in-place)
I0629 03:28:25.290773  2085 net.cpp:122] Setting up my_bn5c_branch2c
I0629 03:28:25.290789  2085 net.cpp:129] Top shape: 8 2048 7 7 (802816)
I0629 03:28:25.290793  2085 net.cpp:137] Memory required for data: 1844871328
I0629 03:28:25.290804  2085 layer_factory.hpp:77] Creating layer my_scale5c_branch2c
I0629 03:28:25.290812  2085 net.cpp:84] Creating Layer my_scale5c_branch2c
I0629 03:28:25.290817  2085 net.cpp:406] my_scale5c_branch2c <- my_res5c_branch2c
I0629 03:28:25.290822  2085 net.cpp:367] my_scale5c_branch2c -> my_res5c_branch2c (in-place)
I0629 03:28:25.290886  2085 layer_factory.hpp:77] Creating layer my_scale5c_branch2c
I0629 03:28:25.291072  2085 net.cpp:122] Setting up my_scale5c_branch2c
I0629 03:28:25.291081  2085 net.cpp:129] Top shape: 8 2048 7 7 (802816)
I0629 03:28:25.291085  2085 net.cpp:137] Memory required for data: 1848082592
I0629 03:28:25.291092  2085 layer_factory.hpp:77] Creating layer my_res5c
I0629 03:28:25.291100  2085 net.cpp:84] Creating Layer my_res5c
I0629 03:28:25.291105  2085 net.cpp:406] my_res5c <- my_res5b_my_res5b_relu_0_split_1
I0629 03:28:25.291110  2085 net.cpp:406] my_res5c <- my_res5c_branch2c
I0629 03:28:25.291115  2085 net.cpp:380] my_res5c -> my_res5c
I0629 03:28:25.291164  2085 net.cpp:122] Setting up my_res5c
I0629 03:28:25.291172  2085 net.cpp:129] Top shape: 8 2048 7 7 (802816)
I0629 03:28:25.291177  2085 net.cpp:137] Memory required for data: 1851293856
I0629 03:28:25.291179  2085 layer_factory.hpp:77] Creating layer my_res5c_relu
I0629 03:28:25.291185  2085 net.cpp:84] Creating Layer my_res5c_relu
I0629 03:28:25.291189  2085 net.cpp:406] my_res5c_relu <- my_res5c
I0629 03:28:25.291198  2085 net.cpp:367] my_res5c_relu -> my_res5c (in-place)
I0629 03:28:25.291486  2085 net.cpp:122] Setting up my_res5c_relu
I0629 03:28:25.291496  2085 net.cpp:129] Top shape: 8 2048 7 7 (802816)
I0629 03:28:25.291501  2085 net.cpp:137] Memory required for data: 1854505120
I0629 03:28:25.291504  2085 layer_factory.hpp:77] Creating layer my_pool5
I0629 03:28:25.291514  2085 net.cpp:84] Creating Layer my_pool5
I0629 03:28:25.291519  2085 net.cpp:406] my_pool5 <- my_res5c
I0629 03:28:25.291525  2085 net.cpp:380] my_pool5 -> my_pool5
I0629 03:28:25.292223  2085 net.cpp:122] Setting up my_pool5
I0629 03:28:25.292237  2085 net.cpp:129] Top shape: 8 2048 1 1 (16384)
I0629 03:28:25.292240  2085 net.cpp:137] Memory required for data: 1854570656
I0629 03:28:25.292244  2085 layer_factory.hpp:77] Creating layer my_fc1000
I0629 03:28:25.292254  2085 net.cpp:84] Creating Layer my_fc1000
I0629 03:28:25.292259  2085 net.cpp:406] my_fc1000 <- my_pool5
I0629 03:28:25.292265  2085 net.cpp:380] my_fc1000 -> my_fc1000
I0629 03:28:25.292459  2085 net.cpp:122] Setting up my_fc1000
I0629 03:28:25.292481  2085 net.cpp:129] Top shape: 8 50 (400)
I0629 03:28:25.292485  2085 net.cpp:137] Memory required for data: 1854572256
I0629 03:28:25.292492  2085 layer_factory.hpp:77] Creating layer my_fc1000_my_fc1000_0_split
I0629 03:28:25.292498  2085 net.cpp:84] Creating Layer my_fc1000_my_fc1000_0_split
I0629 03:28:25.292503  2085 net.cpp:406] my_fc1000_my_fc1000_0_split <- my_fc1000
I0629 03:28:25.292510  2085 net.cpp:380] my_fc1000_my_fc1000_0_split -> my_fc1000_my_fc1000_0_split_0
I0629 03:28:25.292518  2085 net.cpp:380] my_fc1000_my_fc1000_0_split -> my_fc1000_my_fc1000_0_split_1
I0629 03:28:25.292526  2085 net.cpp:380] my_fc1000_my_fc1000_0_split -> my_fc1000_my_fc1000_0_split_2
I0629 03:28:25.292531  2085 net.cpp:380] my_fc1000_my_fc1000_0_split -> my_fc1000_my_fc1000_0_split_3
I0629 03:28:25.292596  2085 net.cpp:122] Setting up my_fc1000_my_fc1000_0_split
I0629 03:28:25.292603  2085 net.cpp:129] Top shape: 8 50 (400)
I0629 03:28:25.292608  2085 net.cpp:129] Top shape: 8 50 (400)
I0629 03:28:25.292613  2085 net.cpp:129] Top shape: 8 50 (400)
I0629 03:28:25.292616  2085 net.cpp:129] Top shape: 8 50 (400)
I0629 03:28:25.292620  2085 net.cpp:137] Memory required for data: 1854578656
I0629 03:28:25.292623  2085 layer_factory.hpp:77] Creating layer loss
I0629 03:28:25.292634  2085 net.cpp:84] Creating Layer loss
I0629 03:28:25.292637  2085 net.cpp:406] loss <- my_fc1000_my_fc1000_0_split_0
I0629 03:28:25.292644  2085 net.cpp:406] loss <- label_input_1_split_0
I0629 03:28:25.292650  2085 net.cpp:380] loss -> loss
…
