…
I0630 03:57:10.506053  1435 net.cpp:294] The NetState phase (1) differed from the phase (0) specified by a rule in layer input
I0630 03:57:10.507453  1435 net.cpp:51] Initializing net from parameters: 
name: "ResNet-50"
state {
  phase: TEST
  level: 0
  stage: ""
}
layer {
  name: "input"
  type: "Data"
  top: "data"
  top: "label"
  include {
    phase: TEST
  }
  transform_param {
    mirror: true
    mean_file: "../../../data_subsets/subtrain2_mean.binaryproto"
  }
  data_param {
    source: "../../../data_subsets/subtrain2_lmdb"
    batch_size: 8
    backend: LMDB
  }
}
layer {
  name: "conv1"
  type: "Convolution"
  bottom: "data"
  top: "conv1"
  param {
    lr_mult: 1
    decay_mult: 1
  }
  param {
    lr_mult: 2
    decay_mult: 0
  }
  convolution_param {
    num_output: 64
    pad: 3
    kernel_size: 7
    stride: 2
  }
}
layer {
  name: "bn_conv1"
  type: "BatchNorm"
  bottom: "conv1"
  top: "conv1"
  batch_norm_param {
    use_global_stats: true
  }
}
layer {
  name: "scale_conv1"
  type: "Scale"
  bottom: "conv1"
  top: "conv1"
  scale_param {
    bias_term: true
  }
}
layer {
  name: "conv1_relu"
  type: "ReLU"
  bottom: "conv1"
  top: "conv1"
}
layer {
  name: "pool1"
  type: "Pooling"
  bottom: "conv1"
  top: "pool1"
  pooling_param {
    pool: MAX
    kernel_size: 3
    stride: 2
  }
}
layer {
  name: "res2a_branch1"
  type: "Convolution"
  bottom: "pool1"
  top: "res2a_branch1"
  param {
    lr_mult: 1
    decay_mult: 1
  }
  convolution_param {
    num_output: 256
    bias_term: false
    pad: 0
    kernel_size: 1
    stride: 1
  }
}
layer {
  name: "bn2a_branch1"
  type: "BatchNorm"
  bottom: "res2a_branch1"
  top: "res2a_branch1"
  batch_norm_param {
    use_global_stats: true
  }
}
layer {
  name: "scale2a_branch1"
  type: "Scale"
  bottom: "res2a_branch1"
  top: "res2a_branch1"
  scale_param {
    bias_term: true
  }
}
layer {
  name: "res2a_branch2a"
  type: "Convolution"
  bottom: "pool1"
  top: "res2a_branch2a"
  param {
    lr_mult: 1
    decay_mult: 1
  }
  convolution_param {
    num_output: 64
    bias_term: false
    pad: 0
    kernel_size: 1
    stride: 1
  }
}
layer {
  name: "bn2a_branch2a"
  type: "BatchNorm"
  bottom: "res2a_branch2a"
  top: "res2a_branch2a"
  batch_norm_param {
    use_global_stats: true
  }
}
layer {
  name: "scale2a_branch2a"
  type: "Scale"
  bottom: "res2a_branch2a"
  top: "res2a_branch2a"
  scale_param {
    bias_term: true
  }
}
layer {
  name: "res2a_branch2a_relu"
  type: "ReLU"
  bottom: "res2a_branch2a"
  top: "res2a_branch2a"
}
layer {
  name: "res2a_branch2b"
  type: "Convolution"
  bottom: "res2a_branch2a"
  top: "res2a_branch2b"
  param {
    lr_mult: 1
    decay_mult: 1
  }
  convolution_param {
    num_output: 64
    bias_term: false
    pad: 1
    kernel_size: 3
    stride: 1
  }
}
layer {
  name: "bn2a_branch2b"
  type: "BatchNorm"
  bottom: "res2a_branch2b"
  top: "res2a_branch2b"
  batch_norm_param {
    use_global_stats: true
  }
}
layer {
  name: "scale2a_branch2b"
  type: "Scale"
  bottom: "res2a_branch2b"
  top: "res2a_branch2b"
  scale_param {
    bias_term: true
  }
}
layer {
  name: "res2a_branch2b_relu"
  type: "ReLU"
  bottom: "res2a_branch2b"
  top: "res2a_branch2b"
}
layer {
  name: "res2a_branch2c"
  type: "Convolution"
  bottom: "res2a_branch2b"
  top: "res2a_branch2c"
  param {
    lr_mult: 1
    decay_mult: 1
  }
  convolution_param {
    num_output: 256
    bias_term: false
    pad: 0
    kernel_size: 1
    stride: 1
  }
}
layer {
  name: "bn2a_branch2c"
  type: "BatchNorm"
  bottom: "res2a_branch2c"
  top: "res2a_branch2c"
  batch_norm_param {
    use_global_stats: true
  }
}
layer {
  name: "scale2a_branch2c"
  type: "Scale"
  bottom: "res2a_branch2c"
  top: "res2a_branch2c"
  scale_param {
    bias_term: true
  }
}
layer {
  name: "res2a"
  type: "Eltwise"
  bottom: "res2a_branch1"
  bottom: "res2a_branch2c"
  top: "res2a"
}
layer {
  name: "res2a_relu"
  type: "ReLU"
  bottom: "res2a"
  top: "res2a"
}
layer {
  name: "res2b_branch2a"
  type: "Convolution"
  bottom: "res2a"
  top: "res2b_branch2a"
  param {
    lr_mult: 1
    decay_mult: 1
  }
  convolution_param {
    num_output: 64
    bias_term: false
    pad: 0
    kernel_size: 1
    stride: 1
  }
}
layer {
  name: "bn2b_branch2a"
  type: "BatchNorm"
  bottom: "res2b_branch2a"
  top: "res2b_branch2a"
  batch_norm_param {
    use_global_stats: true
  }
}
layer {
  name: "scale2b_branch2a"
  type: "Scale"
  bottom: "res2b_branch2a"
  top: "res2b_branch2a"
  scale_param {
    bias_term: true
  }
}
layer {
  name: "res2b_branch2a_relu"
  type: "ReLU"
  bottom: "res2b_branch2a"
  top: "res2b_branch2a"
}
layer {
  name: "res2b_branch2b"
  type: "Convolution"
  bottom: "res2b_branch2a"
  top: "res2b_branch2b"
  param {
    lr_mult: 1
    decay_mult: 1
  }
  convolution_param {
    num_output: 64
    bias_term: false
    pad: 1
    kernel_size: 3
    stride: 1
  }
}
layer {
  name: "bn2b_branch2b"
  type: "BatchNorm"
  bottom: "res2b_branch2b"
  top: "res2b_branch2b"
  batch_norm_param {
    use_global_stats: true
  }
}
layer {
  name: "scale2b_branch2b"
  type: "Scale"
  bottom: "res2b_branch2b"
  top: "res2b_branch2b"
  scale_param {
    bias_term: true
  }
}
layer {
  name: "res2b_branch2b_relu"
  type: "ReLU"
  bottom: "res2b_branch2b"
  top: "res2b_branch2b"
}
layer {
  name: "res2b_branch2c"
  type: "Convolution"
  bottom: "res2b_branch2b"
  top: "res2b_branch2c"
  param {
    lr_mult: 1
    decay_mult: 1
  }
  convolution_param {
    num_output: 256
    bias_term: false
    pad: 0
    kernel_size: 1
    stride: 1
  }
}
layer {
  name: "bn2b_branch2c"
  type: "BatchNorm"
  bottom: "res2b_branch2c"
  top: "res2b_branch2c"
  batch_norm_param {
    use_global_stats: true
  }
}
layer {
  name: "scale2b_branch2c"
  type: "Scale"
  bottom: "res2b_branch2c"
  top: "res2b_branch2c"
  scale_param {
    bias_term: true
  }
}
layer {
  name: "res2b"
  type: "Eltwise"
  bottom: "res2a"
  bottom: "res2b_branch2c"
  top: "res2b"
}
layer {
  name: "res2b_relu"
  type: "ReLU"
  bottom: "res2b"
  top: "res2b"
}
layer {
  name: "res2c_branch2a"
  type: "Convolution"
  bottom: "res2b"
  top: "res2c_branch2a"
  param {
    lr_mult: 1
    decay_mult: 1
  }
  convolution_param {
    num_output: 64
    bias_term: false
    pad: 0
    kernel_size: 1
    stride: 1
  }
}
layer {
  name: "bn2c_branch2a"
  type: "BatchNorm"
  bottom: "res2c_branch2a"
  top: "res2c_branch2a"
  batch_norm_param {
    use_global_stats: true
  }
}
layer {
  name: "scale2c_branch2a"
  type: "Scale"
  bottom: "res2c_branch2a"
  top: "res2c_branch2a"
  scale_param {
    bias_term: true
  }
}
layer {
  name: "res2c_branch2a_relu"
  type: "ReLU"
  bottom: "res2c_branch2a"
  top: "res2c_branch2a"
}
layer {
  name: "res2c_branch2b"
  type: "Convolution"
  bottom: "res2c_branch2a"
  top: "res2c_branch2b"
  param {
    lr_mult: 1
    decay_mult: 1
  }
  convolution_param {
    num_output: 64
    bias_term: false
    pad: 1
    kernel_size: 3
    stride: 1
  }
}
layer {
  name: "bn2c_branch2b"
  type: "BatchNorm"
  bottom: "res2c_branch2b"
  top: "res2c_branch2b"
  batch_norm_param {
    use_global_stats: true
  }
}
layer {
  name: "scale2c_branch2b"
  type: "Scale"
  bottom: "res2c_branch2b"
  top: "res2c_branch2b"
  scale_param {
    bias_term: true
  }
}
layer {
  name: "res2c_branch2b_relu"
  type: "ReLU"
  bottom: "res2c_branch2b"
  top: "res2c_branch2b"
}
layer {
  name: "res2c_branch2c"
  type: "Convolution"
  bottom: "res2c_branch2b"
  top: "res2c_branch2c"
  param {
    lr_mult: 1
    decay_mult: 1
  }
  convolution_param {
    num_output: 256
    bias_term: false
    pad: 0
    kernel_size: 1
    stride: 1
  }
}
layer {
  name: "bn2c_branch2c"
  type: "BatchNorm"
  bottom: "res2c_branch2c"
  top: "res2c_branch2c"
  batch_norm_param {
    use_global_stats: true
  }
}
layer {
  name: "scale2c_branch2c"
  type: "Scale"
  bottom: "res2c_branch2c"
  top: "res2c_branch2c"
  scale_param {
    bias_term: true
  }
}
layer {
  name: "res2c"
  type: "Eltwise"
  bottom: "res2b"
  bottom: "res2c_branch2c"
  top: "res2c"
}
layer {
  name: "res2c_relu"
  type: "ReLU"
  bottom: "res2c"
  top: "res2c"
}
layer {
  name: "res3a_branch1"
  type: "Convolution"
  bottom: "res2c"
  top: "res3a_branch1"
  param {
    lr_mult: 1
    decay_mult: 1
  }
  convolution_param {
    num_output: 512
    bias_term: false
    pad: 0
    kernel_size: 1
    stride: 2
  }
}
layer {
  name: "bn3a_branch1"
  type: "BatchNorm"
  bottom: "res3a_branch1"
  top: "res3a_branch1"
  batch_norm_param {
    use_global_stats: true
  }
}
layer {
  name: "scale3a_branch1"
  type: "Scale"
  bottom: "res3a_branch1"
  top: "res3a_branch1"
  scale_param {
    bias_term: true
  }
}
layer {
  name: "res3a_branch2a"
  type: "Convolution"
  bottom: "res2c"
  top: "res3a_branch2a"
  param {
    lr_mult: 1
    decay_mult: 1
  }
  convolution_param {
    num_output: 128
    bias_term: false
    pad: 0
    kernel_size: 1
    stride: 2
  }
}
layer {
  name: "bn3a_branch2a"
  type: "BatchNorm"
  bottom: "res3a_branch2a"
  top: "res3a_branch2a"
  batch_norm_param {
    use_global_stats: true
  }
}
layer {
  name: "scale3a_branch2a"
  type: "Scale"
  bottom: "res3a_branch2a"
  top: "res3a_branch2a"
  scale_param {
    bias_term: true
  }
}
layer {
  name: "res3a_branch2a_relu"
  type: "ReLU"
  bottom: "res3a_branch2a"
  top: "res3a_branch2a"
}
layer {
  name: "res3a_branch2b"
  type: "Convolution"
  bottom: "res3a_branch2a"
  top: "res3a_branch2b"
  param {
    lr_mult: 1
    decay_mult: 1
  }
  convolution_param {
    num_output: 128
    bias_term: false
    pad: 1
    kernel_size: 3
    stride: 1
  }
}
layer {
  name: "bn3a_branch2b"
  type: "BatchNorm"
  bottom: "res3a_branch2b"
  top: "res3a_branch2b"
  batch_norm_param {
    use_global_stats: true
  }
}
layer {
  name: "scale3a_branch2b"
  type: "Scale"
  bottom: "res3a_branch2b"
  top: "res3a_branch2b"
  scale_param {
    bias_term: true
  }
}
layer {
  name: "res3a_branch2b_relu"
  type: "ReLU"
  bottom: "res3a_branch2b"
  top: "res3a_branch2b"
}
layer {
  name: "res3a_branch2c"
  type: "Convolution"
  bottom: "res3a_branch2b"
  top: "res3a_branch2c"
  param {
    lr_mult: 1
    decay_mult: 1
  }
  convolution_param {
    num_output: 512
    bias_term: false
    pad: 0
    kernel_size: 1
    stride: 1
  }
}
layer {
  name: "bn3a_branch2c"
  type: "BatchNorm"
  bottom: "res3a_branch2c"
  top: "res3a_branch2c"
  batch_norm_param {
    use_global_stats: true
  }
}
layer {
  name: "scale3a_branch2c"
  type: "Scale"
  bottom: "res3a_branch2c"
  top: "res3a_branch2c"
  scale_param {
    bias_term: true
  }
}
layer {
  name: "res3a"
  type: "Eltwise"
  bottom: "res3a_branch1"
  bottom: "res3a_branch2c"
  top: "res3a"
}
layer {
  name: "res3a_relu"
  type: "ReLU"
  bottom: "res3a"
  top: "res3a"
}
layer {
  name: "res3b_branch2a"
  type: "Convolution"
  bottom: "res3a"
  top: "res3b_branch2a"
  param {
    lr_mult: 1
    decay_mult: 1
  }
  convolution_param {
    num_output: 128
    bias_term: false
    pad: 0
    kernel_size: 1
    stride: 1
  }
}
layer {
  name: "bn3b_branch2a"
  type: "BatchNorm"
  bottom: "res3b_branch2a"
  top: "res3b_branch2a"
  batch_norm_param {
    use_global_stats: true
  }
}
layer {
  name: "scale3b_branch2a"
  type: "Scale"
  bottom: "res3b_branch2a"
  top: "res3b_branch2a"
  scale_param {
    bias_term: true
  }
}
layer {
  name: "res3b_branch2a_relu"
  type: "ReLU"
  bottom: "res3b_branch2a"
  top: "res3b_branch2a"
}
layer {
  name: "res3b_branch2b"
  type: "Convolution"
  bottom: "res3b_branch2a"
  top: "res3b_branch2b"
  param {
    lr_mult: 1
    decay_mult: 1
  }
  convolution_param {
    num_output: 128
    bias_term: false
    pad: 1
    kernel_size: 3
    stride: 1
  }
}
layer {
  name: "bn3b_branch2b"
  type: "BatchNorm"
  bottom: "res3b_branch2b"
  top: "res3b_branch2b"
  batch_norm_param {
    use_global_stats: true
  }
}
layer {
  name: "scale3b_branch2b"
  type: "Scale"
  bottom: "res3b_branch2b"
  top: "res3b_branch2b"
  scale_param {
    bias_term: true
  }
}
layer {
  name: "res3b_branch2b_relu"
  type: "ReLU"
  bottom: "res3b_branch2b"
  top: "res3b_branch2b"
}
layer {
  name: "res3b_branch2c"
  type: "Convolution"
  bottom: "res3b_branch2b"
  top: "res3b_branch2c"
  param {
    lr_mult: 1
    decay_mult: 1
  }
  convolution_param {
    num_output: 512
    bias_term: false
    pad: 0
    kernel_size: 1
    stride: 1
  }
}
layer {
  name: "bn3b_branch2c"
  type: "BatchNorm"
  bottom: "res3b_branch2c"
  top: "res3b_branch2c"
  batch_norm_param {
    use_global_stats: true
  }
}
layer {
  name: "scale3b_branch2c"
  type: "Scale"
  bottom: "res3b_branch2c"
  top: "res3b_branch2c"
  scale_param {
    bias_term: true
  }
}
layer {
  name: "res3b"
  type: "Eltwise"
  bottom: "res3a"
  bottom: "res3b_branch2c"
  top: "res3b"
}
layer {
  name: "res3b_relu"
  type: "ReLU"
  bottom: "res3b"
  top: "res3b"
}
layer {
  name: "res3c_branch2a"
  type: "Convolution"
  bottom: "res3b"
  top: "res3c_branch2a"
  param {
    lr_mult: 1
    decay_mult: 1
  }
  convolution_param {
    num_output: 128
    bias_term: false
    pad: 0
    kernel_size: 1
    stride: 1
  }
}
layer {
  name: "bn3c_branch2a"
  type: "BatchNorm"
  bottom: "res3c_branch2a"
  top: "res3c_branch2a"
  batch_norm_param {
    use_global_stats: true
  }
}
layer {
  name: "scale3c_branch2a"
  type: "Scale"
  bottom: "res3c_branch2a"
  top: "res3c_branch2a"
  scale_param {
    bias_term: true
  }
}
layer {
  name: "res3c_branch2a_relu"
  type: "ReLU"
  bottom: "res3c_branch2a"
  top: "res3c_branch2a"
}
layer {
  name: "res3c_branch2b"
  type: "Convolution"
  bottom: "res3c_branch2a"
  top: "res3c_branch2b"
  param {
    lr_mult: 1
    decay_mult: 1
  }
  convolution_param {
    num_output: 128
    bias_term: false
    pad: 1
    kernel_size: 3
    stride: 1
  }
}
layer {
  name: "bn3c_branch2b"
  type: "BatchNorm"
  bottom: "res3c_branch2b"
  top: "res3c_branch2b"
  batch_norm_param {
    use_global_stats: true
  }
}
layer {
  name: "scale3c_branch2b"
  type: "Scale"
  bottom: "res3c_branch2b"
  top: "res3c_branch2b"
  scale_param {
    bias_term: true
  }
}
layer {
  name: "res3c_branch2b_relu"
  type: "ReLU"
  bottom: "res3c_branch2b"
  top: "res3c_branch2b"
}
layer {
  name: "res3c_branch2c"
  type: "Convolution"
  bottom: "res3c_branch2b"
  top: "res3c_branch2c"
  param {
    lr_mult: 1
    decay_mult: 1
  }
  convolution_param {
    num_output: 512
    bias_term: false
    pad: 0
    kernel_size: 1
    stride: 1
  }
}
layer {
  name: "bn3c_branch2c"
  type: "BatchNorm"
  bottom: "res3c_branch2c"
  top: "res3c_branch2c"
  batch_norm_param {
    use_global_stats: true
  }
}
layer {
  name: "scale3c_branch2c"
  type: "Scale"
  bottom: "res3c_branch2c"
  top: "res3c_branch2c"
  scale_param {
    bias_term: true
  }
}
layer {
  name: "res3c"
  type: "Eltwise"
  bottom: "res3b"
  bottom: "res3c_branch2c"
  top: "res3c"
}
layer {
  name: "res3c_relu"
  type: "ReLU"
  bottom: "res3c"
  top: "res3c"
}
layer {
  name: "res3d_branch2a"
  type: "Convolution"
  bottom: "res3c"
  top: "res3d_branch2a"
  param {
    lr_mult: 1
    decay_mult: 1
  }
  convolution_param {
    num_output: 128
    bias_term: false
    pad: 0
    kernel_size: 1
    stride: 1
  }
}
layer {
  name: "bn3d_branch2a"
  type: "BatchNorm"
  bottom: "res3d_branch2a"
  top: "res3d_branch2a"
  batch_norm_param {
    use_global_stats: true
  }
}
layer {
  name: "scale3d_branch2a"
  type: "Scale"
  bottom: "res3d_branch2a"
  top: "res3d_branch2a"
  scale_param {
    bias_term: true
  }
}
layer {
  name: "res3d_branch2a_relu"
  type: "ReLU"
  bottom: "res3d_branch2a"
  top: "res3d_branch2a"
}
layer {
  name: "res3d_branch2b"
  type: "Convolution"
  bottom: "res3d_branch2a"
  top: "res3d_branch2b"
  param {
    lr_mult: 1
    decay_mult: 1
  }
  convolution_param {
    num_output: 128
    bias_term: false
    pad: 1
    kernel_size: 3
    stride: 1
  }
}
layer {
  name: "bn3d_branch2b"
  type: "BatchNorm"
  bottom: "res3d_branch2b"
  top: "res3d_branch2b"
  batch_norm_param {
    use_global_stats: true
  }
}
layer {
  name: "scale3d_branch2b"
  type: "Scale"
  bottom: "res3d_branch2b"
  top: "res3d_branch2b"
  scale_param {
    bias_term: true
  }
}
layer {
  name: "res3d_branch2b_relu"
  type: "ReLU"
  bottom: "res3d_branch2b"
  top: "res3d_branch2b"
}
layer {
  name: "res3d_branch2c"
  type: "Convolution"
  bottom: "res3d_branch2b"
  top: "res3d_branch2c"
  param {
    lr_mult: 1
    decay_mult: 1
  }
  convolution_param {
    num_output: 512
    bias_term: false
    pad: 0
    kernel_size: 1
    stride: 1
  }
}
layer {
  name: "bn3d_branch2c"
  type: "BatchNorm"
  bottom: "res3d_branch2c"
  top: "res3d_branch2c"
  batch_norm_param {
    use_global_stats: true
  }
}
layer {
  name: "scale3d_branch2c"
  type: "Scale"
  bottom: "res3d_branch2c"
  top: "res3d_branch2c"
  scale_param {
    bias_term: true
  }
}
layer {
  name: "res3d"
  type: "Eltwise"
  bottom: "res3c"
  bottom: "res3d_branch2c"
  top: "res3d"
}
layer {
  name: "res3d_relu"
  type: "ReLU"
  bottom: "res3d"
  top: "res3d"
}
layer {
  name: "res4a_branch1"
  type: "Convolution"
  bottom: "res3d"
  top: "res4a_branch1"
  param {
    lr_mult: 1
    decay_mult: 1
  }
  convolution_param {
    num_output: 1024
    bias_term: false
    pad: 0
    kernel_size: 1
    stride: 2
  }
}
layer {
  name: "bn4a_branch1"
  type: "BatchNorm"
  bottom: "res4a_branch1"
  top: "res4a_branch1"
  batch_norm_param {
    use_global_stats: true
  }
}
layer {
  name: "scale4a_branch1"
  type: "Scale"
  bottom: "res4a_branch1"
  top: "res4a_branch1"
  scale_param {
    bias_term: true
  }
}
layer {
  name: "res4a_branch2a"
  type: "Convolution"
  bottom: "res3d"
  top: "res4a_branch2a"
  param {
    lr_mult: 1
    decay_mult: 1
  }
  convolution_param {
    num_output: 256
    bias_term: false
    pad: 0
    kernel_size: 1
    stride: 2
  }
}
layer {
  name: "bn4a_branch2a"
  type: "BatchNorm"
  bottom: "res4a_branch2a"
  top: "res4a_branch2a"
  batch_norm_param {
    use_global_stats: true
  }
}
layer {
  name: "scale4a_branch2a"
  type: "Scale"
  bottom: "res4a_branch2a"
  top: "res4a_branch2a"
  scale_param {
    bias_term: true
  }
}
layer {
  name: "res4a_branch2a_relu"
  type: "ReLU"
  bottom: "res4a_branch2a"
  top: "res4a_branch2a"
}
layer {
  name: "res4a_branch2b"
  type: "Convolution"
  bottom: "res4a_branch2a"
  top: "res4a_branch2b"
  param {
    lr_mult: 1
    decay_mult: 1
  }
  convolution_param {
    num_output: 256
    bias_term: false
    pad: 1
    kernel_size: 3
    stride: 1
  }
}
layer {
  name: "bn4a_branch2b"
  type: "BatchNorm"
  bottom: "res4a_branch2b"
  top: "res4a_branch2b"
  batch_norm_param {
    use_global_stats: true
  }
}
layer {
  name: "scale4a_branch2b"
  type: "Scale"
  bottom: "res4a_branch2b"
  top: "res4a_branch2b"
  scale_param {
    bias_term: true
  }
}
layer {
  name: "res4a_branch2b_relu"
  type: "ReLU"
  bottom: "res4a_branch2b"
  top: "res4a_branch2b"
}
layer {
  name: "res4a_branch2c"
  type: "Convolution"
  bottom: "res4a_branch2b"
  top: "res4a_branch2c"
  param {
    lr_mult: 1
    decay_mult: 1
  }
  convolution_param {
    num_output: 1024
    bias_term: false
    pad: 0
    kernel_size: 1
    stride: 1
  }
}
layer {
  name: "bn4a_branch2c"
  type: "BatchNorm"
  bottom: "res4a_branch2c"
  top: "res4a_branch2c"
  batch_norm_param {
    use_global_stats: true
  }
}
layer {
  name: "scale4a_branch2c"
  type: "Scale"
  bottom: "res4a_branch2c"
  top: "res4a_branch2c"
  scale_param {
    bias_term: true
  }
}
layer {
  name: "res4a"
  type: "Eltwise"
  bottom: "res4a_branch1"
  bottom: "res4a_branch2c"
  top: "res4a"
}
layer {
  name: "res4a_relu"
  type: "ReLU"
  bottom: "res4a"
  top: "res4a"
}
layer {
  name: "res4b_branch2a"
  type: "Convolution"
  bottom: "res4a"
  top: "res4b_branch2a"
  param {
    lr_mult: 1
    decay_mult: 1
  }
  convolution_param {
    num_output: 256
    bias_term: false
    pad: 0
    kernel_size: 1
    stride: 1
  }
}
layer {
  name: "bn4b_branch2a"
  type: "BatchNorm"
  bottom: "res4b_branch2a"
  top: "res4b_branch2a"
  batch_norm_param {
    use_global_stats: true
  }
}
layer {
  name: "scale4b_branch2a"
  type: "Scale"
  bottom: "res4b_branch2a"
  top: "res4b_branch2a"
  scale_param {
    bias_term: true
  }
}
layer {
  name: "res4b_branch2a_relu"
  type: "ReLU"
  bottom: "res4b_branch2a"
  top: "res4b_branch2a"
}
layer {
  name: "res4b_branch2b"
  type: "Convolution"
  bottom: "res4b_branch2a"
  top: "res4b_branch2b"
  param {
    lr_mult: 1
    decay_mult: 1
  }
  convolution_param {
    num_output: 256
    bias_term: false
    pad: 1
    kernel_size: 3
    stride: 1
  }
}
layer {
  name: "bn4b_branch2b"
  type: "BatchNorm"
  bottom: "res4b_branch2b"
  top: "res4b_branch2b"
  batch_norm_param {
    use_global_stats: true
  }
}
layer {
  name: "scale4b_branch2b"
  type: "Scale"
  bottom: "res4b_branch2b"
  top: "res4b_branch2b"
  scale_param {
    bias_term: true
  }
}
layer {
  name: "res4b_branch2b_relu"
  type: "ReLU"
  bottom: "res4b_branch2b"
  top: "res4b_branch2b"
}
layer {
  name: "res4b_branch2c"
  type: "Convolution"
  bottom: "res4b_branch2b"
  top: "res4b_branch2c"
  param {
    lr_mult: 1
    decay_mult: 1
  }
  convolution_param {
    num_output: 1024
    bias_term: false
    pad: 0
    kernel_size: 1
    stride: 1
  }
}
layer {
  name: "bn4b_branch2c"
  type: "BatchNorm"
  bottom: "res4b_branch2c"
  top: "res4b_branch2c"
  batch_norm_param {
    use_global_stats: true
  }
}
layer {
  name: "scale4b_branch2c"
  type: "Scale"
  bottom: "res4b_branch2c"
  top: "res4b_branch2c"
  scale_param {
    bias_term: true
  }
}
layer {
  name: "res4b"
  type: "Eltwise"
  bottom: "res4a"
  bottom: "res4b_branch2c"
  top: "res4b"
}
layer {
  name: "res4b_relu"
  type: "ReLU"
  bottom: "res4b"
  top: "res4b"
}
layer {
  name: "res4c_branch2a"
  type: "Convolution"
  bottom: "res4b"
  top: "res4c_branch2a"
  param {
    lr_mult: 1
    decay_mult: 1
  }
  convolution_param {
    num_output: 256
    bias_term: false
    pad: 0
    kernel_size: 1
    stride: 1
  }
}
layer {
  name: "bn4c_branch2a"
  type: "BatchNorm"
  bottom: "res4c_branch2a"
  top: "res4c_branch2a"
  batch_norm_param {
    use_global_stats: true
  }
}
layer {
  name: "scale4c_branch2a"
  type: "Scale"
  bottom: "res4c_branch2a"
  top: "res4c_branch2a"
  scale_param {
    bias_term: true
  }
}
layer {
  name: "res4c_branch2a_relu"
  type: "ReLU"
  bottom: "res4c_branch2a"
  top: "res4c_branch2a"
}
layer {
  name: "res4c_branch2b"
  type: "Convolution"
  bottom: "res4c_branch2a"
  top: "res4c_branch2b"
  param {
    lr_mult: 1
    decay_mult: 1
  }
  convolution_param {
    num_output: 256
    bias_term: false
    pad: 1
    kernel_size: 3
    stride: 1
  }
}
layer {
  name: "bn4c_branch2b"
  type: "BatchNorm"
  bottom: "res4c_branch2b"
  top: "res4c_branch2b"
  batch_norm_param {
    use_global_stats: true
  }
}
layer {
  name: "scale4c_branch2b"
  type: "Scale"
  bottom: "res4c_branch2b"
  top: "res4c_branch2b"
  scale_param {
    bias_term: true
  }
}
layer {
  name: "res4c_branch2b_relu"
  type: "ReLU"
  bottom: "res4c_branch2b"
  top: "res4c_branch2b"
}
layer {
  name: "res4c_branch2c"
  type: "Convolution"
  bottom: "res4c_branch2b"
  top: "res4c_branch2c"
  param {
    lr_mult: 1
    decay_mult: 1
  }
  convolution_param {
    num_output: 1024
    bias_term: false
    pad: 0
    kernel_size: 1
    stride: 1
  }
}
layer {
  name: "bn4c_branch2c"
  type: "BatchNorm"
  bottom: "res4c_branch2c"
  top: "res4c_branch2c"
  batch_norm_param {
    use_global_stats: true
  }
}
layer {
  name: "scale4c_branch2c"
  type: "Scale"
  bottom: "res4c_branch2c"
  top: "res4c_branch2c"
  scale_param {
    bias_term: true
  }
}
layer {
  name: "res4c"
  type: "Eltwise"
  bottom: "res4b"
  bottom: "res4c_branch2c"
  top: "res4c"
}
layer {
  name: "res4c_relu"
  type: "ReLU"
  bottom: "res4c"
  top: "res4c"
}
layer {
  name: "res4d_branch2a"
  type: "Convolution"
  bottom: "res4c"
  top: "res4d_branch2a"
  param {
    lr_mult: 1
    decay_mult: 1
  }
  convolution_param {
    num_output: 256
    bias_term: false
    pad: 0
    kernel_size: 1
    stride: 1
  }
}
layer {
  name: "bn4d_branch2a"
  type: "BatchNorm"
  bottom: "res4d_branch2a"
  top: "res4d_branch2a"
  batch_norm_param {
    use_global_stats: true
  }
}
layer {
  name: "scale4d_branch2a"
  type: "Scale"
  bottom: "res4d_branch2a"
  top: "res4d_branch2a"
  scale_param {
    bias_term: true
  }
}
layer {
  name: "res4d_branch2a_relu"
  type: "ReLU"
  bottom: "res4d_branch2a"
  top: "res4d_branch2a"
}
layer {
  name: "res4d_branch2b"
  type: "Convolution"
  bottom: "res4d_branch2a"
  top: "res4d_branch2b"
  param {
    lr_mult: 1
    decay_mult: 1
  }
  convolution_param {
    num_output: 256
    bias_term: false
    pad: 1
    kernel_size: 3
    stride: 1
  }
}
layer {
  name: "bn4d_branch2b"
  type: "BatchNorm"
  bottom: "res4d_branch2b"
  top: "res4d_branch2b"
  batch_norm_param {
    use_global_stats: true
  }
}
layer {
  name: "scale4d_branch2b"
  type: "Scale"
  bottom: "res4d_branch2b"
  top: "res4d_branch2b"
  scale_param {
    bias_term: true
  }
}
layer {
  name: "res4d_branch2b_relu"
  type: "ReLU"
  bottom: "res4d_branch2b"
  top: "res4d_branch2b"
}
layer {
  name: "res4d_branch2c"
  type: "Convolution"
  bottom: "res4d_branch2b"
  top: "res4d_branch2c"
  param {
    lr_mult: 1
    decay_mult: 1
  }
  convolution_param {
    num_output: 1024
    bias_term: false
    pad: 0
    kernel_size: 1
    stride: 1
  }
}
layer {
  name: "bn4d_branch2c"
  type: "BatchNorm"
  bottom: "res4d_branch2c"
  top: "res4d_branch2c"
  batch_norm_param {
    use_global_stats: true
  }
}
layer {
  name: "scale4d_branch2c"
  type: "Scale"
  bottom: "res4d_branch2c"
  top: "res4d_branch2c"
  scale_param {
    bias_term: true
  }
}
layer {
  name: "res4d"
  type: "Eltwise"
  bottom: "res4c"
  bottom: "res4d_branch2c"
  top: "res4d"
}
layer {
  name: "res4d_relu"
  type: "ReLU"
  bottom: "res4d"
  top: "res4d"
}
layer {
  name: "res4e_branch2a"
  type: "Convolution"
  bottom: "res4d"
  top: "res4e_branch2a"
  param {
    lr_mult: 1
    decay_mult: 1
  }
  convolution_param {
    num_output: 256
    bias_term: false
    pad: 0
    kernel_size: 1
    stride: 1
  }
}
layer {
  name: "bn4e_branch2a"
  type: "BatchNorm"
  bottom: "res4e_branch2a"
  top: "res4e_branch2a"
  batch_norm_param {
    use_global_stats: true
  }
}
layer {
  name: "scale4e_branch2a"
  type: "Scale"
  bottom: "res4e_branch2a"
  top: "res4e_branch2a"
  scale_param {
    bias_term: true
  }
}
layer {
  name: "res4e_branch2a_relu"
  type: "ReLU"
  bottom: "res4e_branch2a"
  top: "res4e_branch2a"
}
layer {
  name: "res4e_branch2b"
  type: "Convolution"
  bottom: "res4e_branch2a"
  top: "res4e_branch2b"
  param {
    lr_mult: 1
    decay_mult: 1
  }
  convolution_param {
    num_output: 256
    bias_term: false
    pad: 1
    kernel_size: 3
    stride: 1
  }
}
layer {
  name: "bn4e_branch2b"
  type: "BatchNorm"
  bottom: "res4e_branch2b"
  top: "res4e_branch2b"
  batch_norm_param {
    use_global_stats: true
  }
}
layer {
  name: "scale4e_branch2b"
  type: "Scale"
  bottom: "res4e_branch2b"
  top: "res4e_branch2b"
  scale_param {
    bias_term: true
  }
}
layer {
  name: "res4e_branch2b_relu"
  type: "ReLU"
  bottom: "res4e_branch2b"
  top: "res4e_branch2b"
}
layer {
  name: "res4e_branch2c"
  type: "Convolution"
  bottom: "res4e_branch2b"
  top: "res4e_branch2c"
  param {
    lr_mult: 1
    decay_mult: 1
  }
  convolution_param {
    num_output: 1024
    bias_term: false
    pad: 0
    kernel_size: 1
    stride: 1
  }
}
layer {
  name: "bn4e_branch2c"
  type: "BatchNorm"
  bottom: "res4e_branch2c"
  top: "res4e_branch2c"
  batch_norm_param {
    use_global_stats: true
  }
}
layer {
  name: "scale4e_branch2c"
  type: "Scale"
  bottom: "res4e_branch2c"
  top: "res4e_branch2c"
  scale_param {
    bias_term: true
  }
}
layer {
  name: "res4e"
  type: "Eltwise"
  bottom: "res4d"
  bottom: "res4e_branch2c"
  top: "res4e"
}
layer {
  name: "res4e_relu"
  type: "ReLU"
  bottom: "res4e"
  top: "res4e"
}
layer {
  name: "res4f_branch2a"
  type: "Convolution"
  bottom: "res4e"
  top: "res4f_branch2a"
  param {
    lr_mult: 1
    decay_mult: 1
  }
  convolution_param {
    num_output: 256
    bias_term: false
    pad: 0
    kernel_size: 1
    stride: 1
  }
}
layer {
  name: "bn4f_branch2a"
  type: "BatchNorm"
  bottom: "res4f_branch2a"
  top: "res4f_branch2a"
  batch_norm_param {
    use_global_stats: true
  }
}
layer {
  name: "scale4f_branch2a"
  type: "Scale"
  bottom: "res4f_branch2a"
  top: "res4f_branch2a"
  scale_param {
    bias_term: true
  }
}
layer {
  name: "res4f_branch2a_relu"
  type: "ReLU"
  bottom: "res4f_branch2a"
  top: "res4f_branch2a"
}
layer {
  name: "res4f_branch2b"
  type: "Convolution"
  bottom: "res4f_branch2a"
  top: "res4f_branch2b"
  param {
    lr_mult: 1
    decay_mult: 1
  }
  convolution_param {
    num_output: 256
    bias_term: false
    pad: 1
    kernel_size: 3
    stride: 1
  }
}
layer {
  name: "bn4f_branch2b"
  type: "BatchNorm"
  bottom: "res4f_branch2b"
  top: "res4f_branch2b"
  batch_norm_param {
    use_global_stats: true
  }
}
layer {
  name: "scale4f_branch2b"
  type: "Scale"
  bottom: "res4f_branch2b"
  top: "res4f_branch2b"
  scale_param {
    bias_term: true
  }
}
layer {
  name: "res4f_branch2b_relu"
  type: "ReLU"
  bottom: "res4f_branch2b"
  top: "res4f_branch2b"
}
layer {
  name: "res4f_branch2c"
  type: "Convolution"
  bottom: "res4f_branch2b"
  top: "res4f_branch2c"
  param {
    lr_mult: 1
    decay_mult: 1
  }
  convolution_param {
    num_output: 1024
    bias_term: false
    pad: 0
    kernel_size: 1
    stride: 1
  }
}
layer {
  name: "bn4f_branch2c"
  type: "BatchNorm"
  bottom: "res4f_branch2c"
  top: "res4f_branch2c"
  batch_norm_param {
    use_global_stats: true
  }
}
layer {
  name: "scale4f_branch2c"
  type: "Scale"
  bottom: "res4f_branch2c"
  top: "res4f_branch2c"
  scale_param {
    bias_term: true
  }
}
layer {
  name: "res4f"
  type: "Eltwise"
  bottom: "res4e"
  bottom: "res4f_branch2c"
  top: "res4f"
}
layer {
  name: "res4f_relu"
  type: "ReLU"
  bottom: "res4f"
  top: "res
I0630 03:57:10.508348  1435 layer_factory.hpp:77] Creating layer input
I0630 03:57:10.508471  1435 db_lmdb.cpp:35] Opened lmdb ../../../data_subsets/subtrain2_lmdb
I0630 03:57:10.508507  1435 net.cpp:84] Creating Layer input
I0630 03:57:10.508523  1435 net.cpp:380] input -> data
I0630 03:57:10.508570  1435 net.cpp:380] input -> label
I0630 03:57:10.508589  1435 data_transformer.cpp:25] Loading mean file from: ../../../data_subsets/subtrain2_mean.binaryproto
I0630 03:57:10.522920  1435 data_layer.cpp:45] output data size: 8,3,224,224
I0630 03:57:10.535987  1435 net.cpp:122] Setting up input
I0630 03:57:10.536038  1435 net.cpp:129] Top shape: 8 3 224 224 (1204224)
I0630 03:57:10.536046  1435 net.cpp:129] Top shape: 8 (8)
I0630 03:57:10.536051  1435 net.cpp:137] Memory required for data: 4816928
I0630 03:57:10.536065  1435 layer_factory.hpp:77] Creating layer label_input_1_split
I0630 03:57:10.536089  1435 net.cpp:84] Creating Layer label_input_1_split
I0630 03:57:10.536099  1435 net.cpp:406] label_input_1_split <- label
I0630 03:57:10.536120  1435 net.cpp:380] label_input_1_split -> label_input_1_split_0
I0630 03:57:10.536136  1435 net.cpp:380] label_input_1_split -> label_input_1_split_1
I0630 03:57:10.536144  1435 net.cpp:380] label_input_1_split -> label_input_1_split_2
I0630 03:57:10.536151  1435 net.cpp:380] label_input_1_split -> label_input_1_split_3
I0630 03:57:10.536217  1435 net.cpp:122] Setting up label_input_1_split
I0630 03:57:10.536233  1435 net.cpp:129] Top shape: 8 (8)
I0630 03:57:10.536238  1435 net.cpp:129] Top shape: 8 (8)
I0630 03:57:10.536243  1435 net.cpp:129] Top shape: 8 (8)
I0630 03:57:10.536248  1435 net.cpp:129] Top shape: 8 (8)
I0630 03:57:10.536252  1435 net.cpp:137] Memory required for data: 4817056
I0630 03:57:10.536255  1435 layer_factory.hpp:77] Creating layer conv1
I0630 03:57:10.536290  1435 net.cpp:84] Creating Layer conv1
I0630 03:57:10.536295  1435 net.cpp:406] conv1 <- data
I0630 03:57:10.536303  1435 net.cpp:380] conv1 -> conv1
I0630 03:57:10.727609  1435 net.cpp:122] Setting up conv1
I0630 03:57:10.727669  1435 net.cpp:129] Top shape: 8 64 112 112 (6422528)
I0630 03:57:10.727674  1435 net.cpp:137] Memory required for data: 30507168
I0630 03:57:10.727705  1435 layer_factory.hpp:77] Creating layer bn_conv1
I0630 03:57:10.727730  1435 net.cpp:84] Creating Layer bn_conv1
I0630 03:57:10.727743  1435 net.cpp:406] bn_conv1 <- conv1
I0630 03:57:10.727754  1435 net.cpp:367] bn_conv1 -> conv1 (in-place)
I0630 03:57:10.727949  1435 net.cpp:122] Setting up bn_conv1
I0630 03:57:10.727965  1435 net.cpp:129] Top shape: 8 64 112 112 (6422528)
I0630 03:57:10.727996  1435 net.cpp:137] Memory required for data: 56197280
I0630 03:57:10.728011  1435 layer_factory.hpp:77] Creating layer scale_conv1
I0630 03:57:10.728027  1435 net.cpp:84] Creating Layer scale_conv1
I0630 03:57:10.728039  1435 net.cpp:406] scale_conv1 <- conv1
I0630 03:57:10.728045  1435 net.cpp:367] scale_conv1 -> conv1 (in-place)
I0630 03:57:10.728109  1435 layer_factory.hpp:77] Creating layer scale_conv1
I0630 03:57:10.728253  1435 net.cpp:122] Setting up scale_conv1
I0630 03:57:10.728269  1435 net.cpp:129] Top shape: 8 64 112 112 (6422528)
I0630 03:57:10.728274  1435 net.cpp:137] Memory required for data: 81887392
I0630 03:57:10.728281  1435 layer_factory.hpp:77] Creating layer conv1_relu
I0630 03:57:10.728291  1435 net.cpp:84] Creating Layer conv1_relu
I0630 03:57:10.728294  1435 net.cpp:406] conv1_relu <- conv1
I0630 03:57:10.728299  1435 net.cpp:367] conv1_relu -> conv1 (in-place)
I0630 03:57:10.728442  1435 net.cpp:122] Setting up conv1_relu
I0630 03:57:10.728461  1435 net.cpp:129] Top shape: 8 64 112 112 (6422528)
I0630 03:57:10.728464  1435 net.cpp:137] Memory required for data: 107577504
I0630 03:57:10.728468  1435 layer_factory.hpp:77] Creating layer pool1
I0630 03:57:10.728482  1435 net.cpp:84] Creating Layer pool1
I0630 03:57:10.728485  1435 net.cpp:406] pool1 <- conv1
I0630 03:57:10.728493  1435 net.cpp:380] pool1 -> pool1
I0630 03:57:10.728554  1435 net.cpp:122] Setting up pool1
I0630 03:57:10.728569  1435 net.cpp:129] Top shape: 8 64 56 56 (1605632)
I0630 03:57:10.728574  1435 net.cpp:137] Memory required for data: 114000032
I0630 03:57:10.728577  1435 layer_factory.hpp:77] Creating layer pool1_pool1_0_split
I0630 03:57:10.728585  1435 net.cpp:84] Creating Layer pool1_pool1_0_split
I0630 03:57:10.728588  1435 net.cpp:406] pool1_pool1_0_split <- pool1
I0630 03:57:10.728595  1435 net.cpp:380] pool1_pool1_0_split -> pool1_pool1_0_split_0
I0630 03:57:10.728602  1435 net.cpp:380] pool1_pool1_0_split -> pool1_pool1_0_split_1
I0630 03:57:10.728636  1435 net.cpp:122] Setting up pool1_pool1_0_split
I0630 03:57:10.728651  1435 net.cpp:129] Top shape: 8 64 56 56 (1605632)
I0630 03:57:10.728655  1435 net.cpp:129] Top shape: 8 64 56 56 (1605632)
I0630 03:57:10.728658  1435 net.cpp:137] Memory required for data: 126845088
I0630 03:57:10.728662  1435 layer_factory.hpp:77] Creating layer res2a_branch1
I0630 03:57:10.728678  1435 net.cpp:84] Creating Layer res2a_branch1
I0630 03:57:10.728682  1435 net.cpp:406] res2a_branch1 <- pool1_pool1_0_split_0
I0630 03:57:10.728688  1435 net.cpp:380] res2a_branch1 -> res2a_branch1
I0630 03:57:10.729560  1435 net.cpp:122] Setting up res2a_branch1
I0630 03:57:10.729581  1435 net.cpp:129] Top shape: 8 256 56 56 (6422528)
I0630 03:57:10.729585  1435 net.cpp:137] Memory required for data: 152535200
I0630 03:57:10.729593  1435 layer_factory.hpp:77] Creating layer bn2a_branch1
I0630 03:57:10.729601  1435 net.cpp:84] Creating Layer bn2a_branch1
I0630 03:57:10.729605  1435 net.cpp:406] bn2a_branch1 <- res2a_branch1
I0630 03:57:10.729611  1435 net.cpp:367] bn2a_branch1 -> res2a_branch1 (in-place)
I0630 03:57:10.730464  1435 net.cpp:122] Setting up bn2a_branch1
I0630 03:57:10.730484  1435 net.cpp:129] Top shape: 8 256 56 56 (6422528)
I0630 03:57:10.730487  1435 net.cpp:137] Memory required for data: 178225312
I0630 03:57:10.730499  1435 layer_factory.hpp:77] Creating layer scale2a_branch1
I0630 03:57:10.730509  1435 net.cpp:84] Creating Layer scale2a_branch1
I0630 03:57:10.730512  1435 net.cpp:406] scale2a_branch1 <- res2a_branch1
I0630 03:57:10.730518  1435 net.cpp:367] scale2a_branch1 -> res2a_branch1 (in-place)
I0630 03:57:10.730559  1435 layer_factory.hpp:77] Creating layer scale2a_branch1
I0630 03:57:10.730664  1435 net.cpp:122] Setting up scale2a_branch1
I0630 03:57:10.730679  1435 net.cpp:129] Top shape: 8 256 56 56 (6422528)
I0630 03:57:10.730682  1435 net.cpp:137] Memory required for data: 203915424
I0630 03:57:10.730690  1435 layer_factory.hpp:77] Creating layer res2a_branch2a
I0630 03:57:10.730700  1435 net.cpp:84] Creating Layer res2a_branch2a
I0630 03:57:10.730726  1435 net.cpp:406] res2a_branch2a <- pool1_pool1_0_split_1
I0630 03:57:10.730734  1435 net.cpp:380] res2a_branch2a -> res2a_branch2a
I0630 03:57:10.731477  1435 net.cpp:122] Setting up res2a_branch2a
I0630 03:57:10.731497  1435 net.cpp:129] Top shape: 8 64 56 56 (1605632)
I0630 03:57:10.731500  1435 net.cpp:137] Memory required for data: 210337952
I0630 03:57:10.731508  1435 layer_factory.hpp:77] Creating layer bn2a_branch2a
I0630 03:57:10.731515  1435 net.cpp:84] Creating Layer bn2a_branch2a
I0630 03:57:10.731519  1435 net.cpp:406] bn2a_branch2a <- res2a_branch2a
I0630 03:57:10.731525  1435 net.cpp:367] bn2a_branch2a -> res2a_branch2a (in-place)
I0630 03:57:10.731688  1435 net.cpp:122] Setting up bn2a_branch2a
I0630 03:57:10.731703  1435 net.cpp:129] Top shape: 8 64 56 56 (1605632)
I0630 03:57:10.731709  1435 net.cpp:137] Memory required for data: 216760480
I0630 03:57:10.731719  1435 layer_factory.hpp:77] Creating layer scale2a_branch2a
I0630 03:57:10.731727  1435 net.cpp:84] Creating Layer scale2a_branch2a
I0630 03:57:10.731732  1435 net.cpp:406] scale2a_branch2a <- res2a_branch2a
I0630 03:57:10.731737  1435 net.cpp:367] scale2a_branch2a -> res2a_branch2a (in-place)
I0630 03:57:10.731777  1435 layer_factory.hpp:77] Creating layer scale2a_branch2a
I0630 03:57:10.731889  1435 net.cpp:122] Setting up scale2a_branch2a
I0630 03:57:10.731902  1435 net.cpp:129] Top shape: 8 64 56 56 (1605632)
I0630 03:57:10.731907  1435 net.cpp:137] Memory required for data: 223183008
I0630 03:57:10.731914  1435 layer_factory.hpp:77] Creating layer res2a_branch2a_relu
I0630 03:57:10.731920  1435 net.cpp:84] Creating Layer res2a_branch2a_relu
I0630 03:57:10.731925  1435 net.cpp:406] res2a_branch2a_relu <- res2a_branch2a
I0630 03:57:10.731935  1435 net.cpp:367] res2a_branch2a_relu -> res2a_branch2a (in-place)
I0630 03:57:10.732162  1435 net.cpp:122] Setting up res2a_branch2a_relu
I0630 03:57:10.732180  1435 net.cpp:129] Top shape: 8 64 56 56 (1605632)
I0630 03:57:10.732185  1435 net.cpp:137] Memory required for data: 229605536
I0630 03:57:10.732189  1435 layer_factory.hpp:77] Creating layer res2a_branch2b
I0630 03:57:10.732200  1435 net.cpp:84] Creating Layer res2a_branch2b
I0630 03:57:10.732204  1435 net.cpp:406] res2a_branch2b <- res2a_branch2a
I0630 03:57:10.732210  1435 net.cpp:380] res2a_branch2b -> res2a_branch2b
I0630 03:57:10.733639  1435 net.cpp:122] Setting up res2a_branch2b
I0630 03:57:10.733659  1435 net.cpp:129] Top shape: 8 64 56 56 (1605632)
I0630 03:57:10.733664  1435 net.cpp:137] Memory required for data: 236028064
I0630 03:57:10.733670  1435 layer_factory.hpp:77] Creating layer bn2a_branch2b
I0630 03:57:10.733685  1435 net.cpp:84] Creating Layer bn2a_branch2b
I0630 03:57:10.733690  1435 net.cpp:406] bn2a_branch2b <- res2a_branch2b
I0630 03:57:10.733695  1435 net.cpp:367] bn2a_branch2b -> res2a_branch2b (in-place)
I0630 03:57:10.733888  1435 net.cpp:122] Setting up bn2a_branch2b
I0630 03:57:10.733903  1435 net.cpp:129] Top shape: 8 64 56 56 (1605632)
I0630 03:57:10.733921  1435 net.cpp:137] Memory required for data: 242450592
I0630 03:57:10.733929  1435 layer_factory.hpp:77] Creating layer scale2a_branch2b
I0630 03:57:10.733937  1435 net.cpp:84] Creating Layer scale2a_branch2b
I0630 03:57:10.733940  1435 net.cpp:406] scale2a_branch2b <- res2a_branch2b
I0630 03:57:10.733947  1435 net.cpp:367] scale2a_branch2b -> res2a_branch2b (in-place)
I0630 03:57:10.733995  1435 layer_factory.hpp:77] Creating layer scale2a_branch2b
I0630 03:57:10.734127  1435 net.cpp:122] Setting up scale2a_branch2b
I0630 03:57:10.734143  1435 net.cpp:129] Top shape: 8 64 56 56 (1605632)
I0630 03:57:10.734146  1435 net.cpp:137] Memory required for data: 248873120
I0630 03:57:10.734153  1435 layer_factory.hpp:77] Creating layer res2a_branch2b_relu
I0630 03:57:10.734170  1435 net.cpp:84] Creating Layer res2a_branch2b_relu
I0630 03:57:10.734176  1435 net.cpp:406] res2a_branch2b_relu <- res2a_branch2b
I0630 03:57:10.734182  1435 net.cpp:367] res2a_branch2b_relu -> res2a_branch2b (in-place)
I0630 03:57:10.734429  1435 net.cpp:122] Setting up res2a_branch2b_relu
I0630 03:57:10.734462  1435 net.cpp:129] Top shape: 8 64 56 56 (1605632)
I0630 03:57:10.734465  1435 net.cpp:137] Memory required for data: 255295648
I0630 03:57:10.734470  1435 layer_factory.hpp:77] Creating layer res2a_branch2c
I0630 03:57:10.734485  1435 net.cpp:84] Creating Layer res2a_branch2c
I0630 03:57:10.734490  1435 net.cpp:406] res2a_branch2c <- res2a_branch2b
I0630 03:57:10.734496  1435 net.cpp:380] res2a_branch2c -> res2a_branch2c
I0630 03:57:10.735456  1435 net.cpp:122] Setting up res2a_branch2c
I0630 03:57:10.735478  1435 net.cpp:129] Top shape: 8 256 56 56 (6422528)
I0630 03:57:10.735482  1435 net.cpp:137] Memory required for data: 280985760
I0630 03:57:10.735489  1435 layer_factory.hpp:77] Creating layer bn2a_branch2c
I0630 03:57:10.735497  1435 net.cpp:84] Creating Layer bn2a_branch2c
I0630 03:57:10.735502  1435 net.cpp:406] bn2a_branch2c <- res2a_branch2c
I0630 03:57:10.735512  1435 net.cpp:367] bn2a_branch2c -> res2a_branch2c (in-place)
I0630 03:57:10.735708  1435 net.cpp:122] Setting up bn2a_branch2c
I0630 03:57:10.735723  1435 net.cpp:129] Top shape: 8 256 56 56 (6422528)
I0630 03:57:10.735728  1435 net.cpp:137] Memory required for data: 306675872
I0630 03:57:10.735736  1435 layer_factory.hpp:77] Creating layer scale2a_branch2c
I0630 03:57:10.735744  1435 net.cpp:84] Creating Layer scale2a_branch2c
I0630 03:57:10.735749  1435 net.cpp:406] scale2a_branch2c <- res2a_branch2c
I0630 03:57:10.735754  1435 net.cpp:367] scale2a_branch2c -> res2a_branch2c (in-place)
I0630 03:57:10.735797  1435 layer_factory.hpp:77] Creating layer scale2a_branch2c
I0630 03:57:10.735922  1435 net.cpp:122] Setting up scale2a_branch2c
I0630 03:57:10.735937  1435 net.cpp:129] Top shape: 8 256 56 56 (6422528)
I0630 03:57:10.735941  1435 net.cpp:137] Memory required for data: 332365984
I0630 03:57:10.735949  1435 layer_factory.hpp:77] Creating layer res2a
I0630 03:57:10.735962  1435 net.cpp:84] Creating Layer res2a
I0630 03:57:10.735967  1435 net.cpp:406] res2a <- res2a_branch1
I0630 03:57:10.735972  1435 net.cpp:406] res2a <- res2a_branch2c
I0630 03:57:10.735980  1435 net.cpp:380] res2a -> res2a
I0630 03:57:10.736012  1435 net.cpp:122] Setting up res2a
I0630 03:57:10.736027  1435 net.cpp:129] Top shape: 8 256 56 56 (6422528)
I0630 03:57:10.736030  1435 net.cpp:137] Memory required for data: 358056096
I0630 03:57:10.736034  1435 layer_factory.hpp:77] Creating layer res2a_relu
I0630 03:57:10.736044  1435 net.cpp:84] Creating Layer res2a_relu
I0630 03:57:10.736048  1435 net.cpp:406] res2a_relu <- res2a
I0630 03:57:10.736054  1435 net.cpp:367] res2a_relu -> res2a (in-place)
I0630 03:57:10.736212  1435 net.cpp:122] Setting up res2a_relu
I0630 03:57:10.736229  1435 net.cpp:129] Top shape: 8 256 56 56 (6422528)
I0630 03:57:10.736233  1435 net.cpp:137] Memory required for data: 383746208
I0630 03:57:10.736238  1435 layer_factory.hpp:77] Creating layer res2a_res2a_relu_0_split
I0630 03:57:10.736248  1435 net.cpp:84] Creating Layer res2a_res2a_relu_0_split
I0630 03:57:10.736251  1435 net.cpp:406] res2a_res2a_relu_0_split <- res2a
I0630 03:57:10.736259  1435 net.cpp:380] res2a_res2a_relu_0_split -> res2a_res2a_relu_0_split_0
I0630 03:57:10.736266  1435 net.cpp:380] res2a_res2a_relu_0_split -> res2a_res2a_relu_0_split_1
I0630 03:57:10.736310  1435 net.cpp:122] Setting up res2a_res2a_relu_0_split
I0630 03:57:10.736325  1435 net.cpp:129] Top shape: 8 256 56 56 (6422528)
I0630 03:57:10.736331  1435 net.cpp:129] Top shape: 8 256 56 56 (6422528)
I0630 03:57:10.736335  1435 net.cpp:137] Memory required for data: 435126432
I0630 03:57:10.736338  1435 layer_factory.hpp:77] Creating layer res2b_branch2a
I0630 03:57:10.736348  1435 net.cpp:84] Creating Layer res2b_branch2a
I0630 03:57:10.736352  1435 net.cpp:406] res2b_branch2a <- res2a_res2a_relu_0_split_0
I0630 03:57:10.736361  1435 net.cpp:380] res2b_branch2a -> res2b_branch2a
I0630 03:57:10.737238  1435 net.cpp:122] Setting up res2b_branch2a
I0630 03:57:10.737257  1435 net.cpp:129] Top shape: 8 64 56 56 (1605632)
I0630 03:57:10.737262  1435 net.cpp:137] Memory required for data: 441548960
I0630 03:57:10.737282  1435 layer_factory.hpp:77] Creating layer bn2b_branch2a
I0630 03:57:10.737293  1435 net.cpp:84] Creating Layer bn2b_branch2a
I0630 03:57:10.737298  1435 net.cpp:406] bn2b_branch2a <- res2b_branch2a
I0630 03:57:10.737305  1435 net.cpp:367] bn2b_branch2a -> res2b_branch2a (in-place)
I0630 03:57:10.737496  1435 net.cpp:122] Setting up bn2b_branch2a
I0630 03:57:10.737512  1435 net.cpp:129] Top shape: 8 64 56 56 (1605632)
I0630 03:57:10.737517  1435 net.cpp:137] Memory required for data: 447971488
I0630 03:57:10.737532  1435 layer_factory.hpp:77] Creating layer scale2b_branch2a
I0630 03:57:10.737540  1435 net.cpp:84] Creating Layer scale2b_branch2a
I0630 03:57:10.737545  1435 net.cpp:406] scale2b_branch2a <- res2b_branch2a
I0630 03:57:10.737550  1435 net.cpp:367] scale2b_branch2a -> res2b_branch2a (in-place)
I0630 03:57:10.737598  1435 layer_factory.hpp:77] Creating layer scale2b_branch2a
I0630 03:57:10.737732  1435 net.cpp:122] Setting up scale2b_branch2a
I0630 03:57:10.737747  1435 net.cpp:129] Top shape: 8 64 56 56 (1605632)
I0630 03:57:10.737751  1435 net.cpp:137] Memory required for data: 454394016
I0630 03:57:10.737758  1435 layer_factory.hpp:77] Creating layer res2b_branch2a_relu
I0630 03:57:10.737766  1435 net.cpp:84] Creating Layer res2b_branch2a_relu
I0630 03:57:10.737769  1435 net.cpp:406] res2b_branch2a_relu <- res2b_branch2a
I0630 03:57:10.737776  1435 net.cpp:367] res2b_branch2a_relu -> res2b_branch2a (in-place)
I0630 03:57:10.738035  1435 net.cpp:122] Setting up res2b_branch2a_relu
I0630 03:57:10.738054  1435 net.cpp:129] Top shape: 8 64 56 56 (1605632)
I0630 03:57:10.738059  1435 net.cpp:137] Memory required for data: 460816544
I0630 03:57:10.738064  1435 layer_factory.hpp:77] Creating layer res2b_branch2b
I0630 03:57:10.738085  1435 net.cpp:84] Creating Layer res2b_branch2b
I0630 03:57:10.738091  1435 net.cpp:406] res2b_branch2b <- res2b_branch2a
I0630 03:57:10.738098  1435 net.cpp:380] res2b_branch2b -> res2b_branch2b
I0630 03:57:10.738889  1435 net.cpp:122] Setting up res2b_branch2b
I0630 03:57:10.738909  1435 net.cpp:129] Top shape: 8 64 56 56 (1605632)
I0630 03:57:10.738914  1435 net.cpp:137] Memory required for data: 467239072
I0630 03:57:10.738919  1435 layer_factory.hpp:77] Creating layer bn2b_branch2b
I0630 03:57:10.738931  1435 net.cpp:84] Creating Layer bn2b_branch2b
I0630 03:57:10.738936  1435 net.cpp:406] bn2b_branch2b <- res2b_branch2b
I0630 03:57:10.738942  1435 net.cpp:367] bn2b_branch2b -> res2b_branch2b (in-place)
I0630 03:57:10.739140  1435 net.cpp:122] Setting up bn2b_branch2b
I0630 03:57:10.739154  1435 net.cpp:129] Top shape: 8 64 56 56 (1605632)
I0630 03:57:10.739159  1435 net.cpp:137] Memory required for data: 473661600
I0630 03:57:10.739167  1435 layer_factory.hpp:77] Creating layer scale2b_branch2b
I0630 03:57:10.739178  1435 net.cpp:84] Creating Layer scale2b_branch2b
I0630 03:57:10.739182  1435 net.cpp:406] scale2b_branch2b <- res2b_branch2b
I0630 03:57:10.739188  1435 net.cpp:367] scale2b_branch2b -> res2b_branch2b (in-place)
I0630 03:57:10.739233  1435 layer_factory.hpp:77] Creating layer scale2b_branch2b
I0630 03:57:10.739372  1435 net.cpp:122] Setting up scale2b_branch2b
I0630 03:57:10.739387  1435 net.cpp:129] Top shape: 8 64 56 56 (1605632)
I0630 03:57:10.739392  1435 net.cpp:137] Memory required for data: 480084128
I0630 03:57:10.739398  1435 layer_factory.hpp:77] Creating layer res2b_branch2b_relu
I0630 03:57:10.739416  1435 net.cpp:84] Creating Layer res2b_branch2b_relu
I0630 03:57:10.739426  1435 net.cpp:406] res2b_branch2b_relu <- res2b_branch2b
I0630 03:57:10.739435  1435 net.cpp:367] res2b_branch2b_relu -> res2b_branch2b (in-place)
I0630 03:57:10.739681  1435 net.cpp:122] Setting up res2b_branch2b_relu
I0630 03:57:10.739698  1435 net.cpp:129] Top shape: 8 64 56 56 (1605632)
I0630 03:57:10.739703  1435 net.cpp:137] Memory required for data: 486506656
I0630 03:57:10.739707  1435 layer_factory.hpp:77] Creating layer res2b_branch2c
I0630 03:57:10.739720  1435 net.cpp:84] Creating Layer res2b_branch2c
I0630 03:57:10.739724  1435 net.cpp:406] res2b_branch2c <- res2b_branch2b
I0630 03:57:10.739748  1435 net.cpp:380] res2b_branch2c -> res2b_branch2c
I0630 03:57:10.740758  1435 net.cpp:122] Setting up res2b_branch2c
I0630 03:57:10.740777  1435 net.cpp:129] Top shape: 8 256 56 56 (6422528)
I0630 03:57:10.740782  1435 net.cpp:137] Memory required for data: 512196768
I0630 03:57:10.740788  1435 layer_factory.hpp:77] Creating layer bn2b_branch2c
I0630 03:57:10.740799  1435 net.cpp:84] Creating Layer bn2b_branch2c
I0630 03:57:10.740804  1435 net.cpp:406] bn2b_branch2c <- res2b_branch2c
I0630 03:57:10.740810  1435 net.cpp:367] bn2b_branch2c -> res2b_branch2c (in-place)
I0630 03:57:10.741003  1435 net.cpp:122] Setting up bn2b_branch2c
I0630 03:57:10.741019  1435 net.cpp:129] Top shape: 8 256 56 56 (6422528)
I0630 03:57:10.741022  1435 net.cpp:137] Memory required for data: 537886880
I0630 03:57:10.741031  1435 layer_factory.hpp:77] Creating layer scale2b_branch2c
I0630 03:57:10.741041  1435 net.cpp:84] Creating Layer scale2b_branch2c
I0630 03:57:10.741046  1435 net.cpp:406] scale2b_branch2c <- res2b_branch2c
I0630 03:57:10.741051  1435 net.cpp:367] scale2b_branch2c -> res2b_branch2c (in-place)
I0630 03:57:10.741096  1435 layer_factory.hpp:77] Creating layer scale2b_branch2c
I0630 03:57:10.741227  1435 net.cpp:122] Setting up scale2b_branch2c
I0630 03:57:10.741242  1435 net.cpp:129] Top shape: 8 256 56 56 (6422528)
I0630 03:57:10.741246  1435 net.cpp:137] Memory required for data: 563576992
I0630 03:57:10.741253  1435 layer_factory.hpp:77] Creating layer res2b
I0630 03:57:10.741261  1435 net.cpp:84] Creating Layer res2b
I0630 03:57:10.741264  1435 net.cpp:406] res2b <- res2a_res2a_relu_0_split_1
I0630 03:57:10.741277  1435 net.cpp:406] res2b <- res2b_branch2c
I0630 03:57:10.741286  1435 net.cpp:380] res2b -> res2b
I0630 03:57:10.741313  1435 net.cpp:122] Setting up res2b
I0630 03:57:10.741330  1435 net.cpp:129] Top shape: 8 256 56 56 (6422528)
I0630 03:57:10.741334  1435 net.cpp:137] Memory required for data: 589267104
I0630 03:57:10.741338  1435 layer_factory.hpp:77] Creating layer res2b_relu
I0630 03:57:10.741344  1435 net.cpp:84] Creating Layer res2b_relu
I0630 03:57:10.741348  1435 net.cpp:406] res2b_relu <- res2b
I0630 03:57:10.741353  1435 net.cpp:367] res2b_relu -> res2b (in-place)
I0630 03:57:10.741605  1435 net.cpp:122] Setting up res2b_relu
I0630 03:57:10.741622  1435 net.cpp:129] Top shape: 8 256 56 56 (6422528)
I0630 03:57:10.741626  1435 net.cpp:137] Memory required for data: 614957216
I0630 03:57:10.741631  1435 layer_factory.hpp:77] Creating layer res2b_res2b_relu_0_split
I0630 03:57:10.741637  1435 net.cpp:84] Creating Layer res2b_res2b_relu_0_split
I0630 03:57:10.741641  1435 net.cpp:406] res2b_res2b_relu_0_split <- res2b
I0630 03:57:10.741650  1435 net.cpp:380] res2b_res2b_relu_0_split -> res2b_res2b_relu_0_split_0
I0630 03:57:10.741657  1435 net.cpp:380] res2b_res2b_relu_0_split -> res2b_res2b_relu_0_split_1
I0630 03:57:10.741701  1435 net.cpp:122] Setting up res2b_res2b_relu_0_split
I0630 03:57:10.741714  1435 net.cpp:129] Top shape: 8 256 56 56 (6422528)
I0630 03:57:10.741719  1435 net.cpp:129] Top shape: 8 256 56 56 (6422528)
I0630 03:57:10.741724  1435 net.cpp:137] Memory required for data: 666337440
I0630 03:57:10.741726  1435 layer_factory.hpp:77] Creating layer res2c_branch2a
I0630 03:57:10.741739  1435 net.cpp:84] Creating Layer res2c_branch2a
I0630 03:57:10.741744  1435 net.cpp:406] res2c_branch2a <- res2b_res2b_relu_0_split_0
I0630 03:57:10.741751  1435 net.cpp:380] res2c_branch2a -> res2c_branch2a
I0630 03:57:10.742642  1435 net.cpp:122] Setting up res2c_branch2a
I0630 03:57:10.742662  1435 net.cpp:129] Top shape: 8 64 56 56 (1605632)
I0630 03:57:10.742667  1435 net.cpp:137] Memory required for data: 672759968
I0630 03:57:10.742673  1435 layer_factory.hpp:77] Creating layer bn2c_branch2a
I0630 03:57:10.742684  1435 net.cpp:84] Creating Layer bn2c_branch2a
I0630 03:57:10.742688  1435 net.cpp:406] bn2c_branch2a <- res2c_branch2a
I0630 03:57:10.742697  1435 net.cpp:367] bn2c_branch2a -> res2c_branch2a (in-place)
I0630 03:57:10.742902  1435 net.cpp:122] Setting up bn2c_branch2a
I0630 03:57:10.742929  1435 net.cpp:129] Top shape: 8 64 56 56 (1605632)
I0630 03:57:10.742933  1435 net.cpp:137] Memory required for data: 679182496
I0630 03:57:10.742945  1435 layer_factory.hpp:77] Creating layer scale2c_branch2a
I0630 03:57:10.742954  1435 net.cpp:84] Creating Layer scale2c_branch2a
I0630 03:57:10.742957  1435 net.cpp:406] scale2c_branch2a <- res2c_branch2a
I0630 03:57:10.742962  1435 net.cpp:367] scale2c_branch2a -> res2c_branch2a (in-place)
I0630 03:57:10.743010  1435 layer_factory.hpp:77] Creating layer scale2c_branch2a
I0630 03:57:10.743149  1435 net.cpp:122] Setting up scale2c_branch2a
I0630 03:57:10.743163  1435 net.cpp:129] Top shape: 8 64 56 56 (1605632)
I0630 03:57:10.743167  1435 net.cpp:137] Memory required for data: 685605024
I0630 03:57:10.743175  1435 layer_factory.hpp:77] Creating layer res2c_branch2a_relu
I0630 03:57:10.743181  1435 net.cpp:84] Creating Layer res2c_branch2a_relu
I0630 03:57:10.743185  1435 net.cpp:406] res2c_branch2a_relu <- res2c_branch2a
I0630 03:57:10.743193  1435 net.cpp:367] res2c_branch2a_relu -> res2c_branch2a (in-place)
I0630 03:57:10.743448  1435 net.cpp:122] Setting up res2c_branch2a_relu
I0630 03:57:10.743466  1435 net.cpp:129] Top shape: 8 64 56 56 (1605632)
I0630 03:57:10.743471  1435 net.cpp:137] Memory required for data: 692027552
I0630 03:57:10.743475  1435 layer_factory.hpp:77] Creating layer res2c_branch2b
I0630 03:57:10.743487  1435 net.cpp:84] Creating Layer res2c_branch2b
I0630 03:57:10.743492  1435 net.cpp:406] res2c_branch2b <- res2c_branch2a
I0630 03:57:10.743505  1435 net.cpp:380] res2c_branch2b -> res2c_branch2b
I0630 03:57:10.744284  1435 net.cpp:122] Setting up res2c_branch2b
I0630 03:57:10.744303  1435 net.cpp:129] Top shape: 8 64 56 56 (1605632)
I0630 03:57:10.744310  1435 net.cpp:137] Memory required for data: 698450080
I0630 03:57:10.744316  1435 layer_factory.hpp:77] Creating layer bn2c_branch2b
I0630 03:57:10.744324  1435 net.cpp:84] Creating Layer bn2c_branch2b
I0630 03:57:10.744329  1435 net.cpp:406] bn2c_branch2b <- res2c_branch2b
I0630 03:57:10.744334  1435 net.cpp:367] bn2c_branch2b -> res2c_branch2b (in-place)
I0630 03:57:10.744541  1435 net.cpp:122] Setting up bn2c_branch2b
I0630 03:57:10.744560  1435 net.cpp:129] Top shape: 8 64 56 56 (1605632)
I0630 03:57:10.744563  1435 net.cpp:137] Memory required for data: 704872608
I0630 03:57:10.744572  1435 layer_factory.hpp:77] Creating layer scale2c_branch2b
I0630 03:57:10.744580  1435 net.cpp:84] Creating Layer scale2c_branch2b
I0630 03:57:10.744583  1435 net.cpp:406] scale2c_branch2b <- res2c_branch2b
I0630 03:57:10.744590  1435 net.cpp:367] scale2c_branch2b -> res2c_branch2b (in-place)
I0630 03:57:10.744639  1435 layer_factory.hpp:77] Creating layer scale2c_branch2b
I0630 03:57:10.744777  1435 net.cpp:122] Setting up scale2c_branch2b
I0630 03:57:10.744792  1435 net.cpp:129] Top shape: 8 64 56 56 (1605632)
I0630 03:57:10.744796  1435 net.cpp:137] Memory required for data: 711295136
I0630 03:57:10.744803  1435 layer_factory.hpp:77] Creating layer res2c_branch2b_relu
I0630 03:57:10.744810  1435 net.cpp:84] Creating Layer res2c_branch2b_relu
I0630 03:57:10.744814  1435 net.cpp:406] res2c_branch2b_relu <- res2c_branch2b
I0630 03:57:10.744819  1435 net.cpp:367] res2c_branch2b_relu -> res2c_branch2b (in-place)
I0630 03:57:10.745085  1435 net.cpp:122] Setting up res2c_branch2b_relu
I0630 03:57:10.745102  1435 net.cpp:129] Top shape: 8 64 56 56 (1605632)
I0630 03:57:10.745107  1435 net.cpp:137] Memory required for data: 717717664
I0630 03:57:10.745111  1435 layer_factory.hpp:77] Creating layer res2c_branch2c
I0630 03:57:10.745124  1435 net.cpp:84] Creating Layer res2c_branch2c
I0630 03:57:10.745128  1435 net.cpp:406] res2c_branch2c <- res2c_branch2b
I0630 03:57:10.745136  1435 net.cpp:380] res2c_branch2c -> res2c_branch2c
I0630 03:57:10.746140  1435 net.cpp:122] Setting up res2c_branch2c
I0630 03:57:10.746160  1435 net.cpp:129] Top shape: 8 256 56 56 (6422528)
I0630 03:57:10.746165  1435 net.cpp:137] Memory required for data: 743407776
I0630 03:57:10.746184  1435 layer_factory.hpp:77] Creating layer bn2c_branch2c
I0630 03:57:10.746193  1435 net.cpp:84] Creating Layer bn2c_branch2c
I0630 03:57:10.746198  1435 net.cpp:406] bn2c_branch2c <- res2c_branch2c
I0630 03:57:10.746206  1435 net.cpp:367] bn2c_branch2c -> res2c_branch2c (in-place)
I0630 03:57:10.746413  1435 net.cpp:122] Setting up bn2c_branch2c
I0630 03:57:10.746429  1435 net.cpp:129] Top shape: 8 256 56 56 (6422528)
I0630 03:57:10.746433  1435 net.cpp:137] Memory required for data: 769097888
I0630 03:57:10.746451  1435 layer_factory.hpp:77] Creating layer scale2c_branch2c
I0630 03:57:10.746460  1435 net.cpp:84] Creating Layer scale2c_branch2c
I0630 03:57:10.746465  1435 net.cpp:406] scale2c_branch2c <- res2c_branch2c
I0630 03:57:10.746471  1435 net.cpp:367] scale2c_branch2c -> res2c_branch2c (in-place)
I0630 03:57:10.746522  1435 layer_factory.hpp:77] Creating layer scale2c_branch2c
I0630 03:57:10.746660  1435 net.cpp:122] Setting up scale2c_branch2c
I0630 03:57:10.746675  1435 net.cpp:129] Top shape: 8 256 56 56 (6422528)
I0630 03:57:10.746680  1435 net.cpp:137] Memory required for data: 794788000
I0630 03:57:10.746686  1435 layer_factory.hpp:77] Creating layer res2c
I0630 03:57:10.746693  1435 net.cpp:84] Creating Layer res2c
I0630 03:57:10.746697  1435 net.cpp:406] res2c <- res2b_res2b_relu_0_split_1
I0630 03:57:10.746702  1435 net.cpp:406] res2c <- res2c_branch2c
I0630 03:57:10.746711  1435 net.cpp:380] res2c -> res2c
I0630 03:57:10.746738  1435 net.cpp:122] Setting up res2c
I0630 03:57:10.746752  1435 net.cpp:129] Top shape: 8 256 56 56 (6422528)
I0630 03:57:10.746757  1435 net.cpp:137] Memory required for data: 820478112
I0630 03:57:10.746760  1435 layer_factory.hpp:77] Creating layer res2c_relu
I0630 03:57:10.746773  1435 net.cpp:84] Creating Layer res2c_relu
I0630 03:57:10.746776  1435 net.cpp:406] res2c_relu <- res2c
I0630 03:57:10.746781  1435 net.cpp:367] res2c_relu -> res2c (in-place)
I0630 03:57:10.746942  1435 net.cpp:122] Setting up res2c_relu
I0630 03:57:10.746959  1435 net.cpp:129] Top shape: 8 256 56 56 (6422528)
I0630 03:57:10.746963  1435 net.cpp:137] Memory required for data: 846168224
I0630 03:57:10.746968  1435 layer_factory.hpp:77] Creating layer res2c_res2c_relu_0_split
I0630 03:57:10.746974  1435 net.cpp:84] Creating Layer res2c_res2c_relu_0_split
I0630 03:57:10.746978  1435 net.cpp:406] res2c_res2c_relu_0_split <- res2c
I0630 03:57:10.746987  1435 net.cpp:380] res2c_res2c_relu_0_split -> res2c_res2c_relu_0_split_0
I0630 03:57:10.746994  1435 net.cpp:380] res2c_res2c_relu_0_split -> res2c_res2c_relu_0_split_1
I0630 03:57:10.747040  1435 net.cpp:122] Setting up res2c_res2c_relu_0_split
I0630 03:57:10.747053  1435 net.cpp:129] Top shape: 8 256 56 56 (6422528)
I0630 03:57:10.747059  1435 net.cpp:129] Top shape: 8 256 56 56 (6422528)
I0630 03:57:10.747062  1435 net.cpp:137] Memory required for data: 897548448
I0630 03:57:10.747066  1435 layer_factory.hpp:77] Creating layer res3a_branch1
I0630 03:57:10.747078  1435 net.cpp:84] Creating Layer res3a_branch1
I0630 03:57:10.747082  1435 net.cpp:406] res3a_branch1 <- res2c_res2c_relu_0_split_0
I0630 03:57:10.747092  1435 net.cpp:380] res3a_branch1 -> res3a_branch1
I0630 03:57:10.748771  1435 net.cpp:122] Setting up res3a_branch1
I0630 03:57:10.748790  1435 net.cpp:129] Top shape: 8 512 28 28 (3211264)
I0630 03:57:10.748795  1435 net.cpp:137] Memory required for data: 910393504
I0630 03:57:10.748801  1435 layer_factory.hpp:77] Creating layer bn3a_branch1
I0630 03:57:10.748812  1435 net.cpp:84] Creating Layer bn3a_branch1
I0630 03:57:10.748816  1435 net.cpp:406] bn3a_branch1 <- res3a_branch1
I0630 03:57:10.748823  1435 net.cpp:367] bn3a_branch1 -> res3a_branch1 (in-place)
I0630 03:57:10.749656  1435 net.cpp:122] Setting up bn3a_branch1
I0630 03:57:10.749676  1435 net.cpp:129] Top shape: 8 512 28 28 (3211264)
I0630 03:57:10.749680  1435 net.cpp:137] Memory required for data: 923238560
I0630 03:57:10.749688  1435 layer_factory.hpp:77] Creating layer scale3a_branch1
I0630 03:57:10.749696  1435 net.cpp:84] Creating Layer scale3a_branch1
I0630 03:57:10.749713  1435 net.cpp:406] scale3a_branch1 <- res3a_branch1
I0630 03:57:10.749719  1435 net.cpp:367] scale3a_branch1 -> res3a_branch1 (in-place)
I0630 03:57:10.749773  1435 layer_factory.hpp:77] Creating layer scale3a_branch1
I0630 03:57:10.749927  1435 net.cpp:122] Setting up scale3a_branch1
I0630 03:57:10.749943  1435 net.cpp:129] Top shape: 8 512 28 28 (3211264)
I0630 03:57:10.749948  1435 net.cpp:137] Memory required for data: 936083616
I0630 03:57:10.749954  1435 layer_factory.hpp:77] Creating layer res3a_branch2a
I0630 03:57:10.749967  1435 net.cpp:84] Creating Layer res3a_branch2a
I0630 03:57:10.749972  1435 net.cpp:406] res3a_branch2a <- res2c_res2c_relu_0_split_1
I0630 03:57:10.749979  1435 net.cpp:380] res3a_branch2a -> res3a_branch2a
I0630 03:57:10.750892  1435 net.cpp:122] Setting up res3a_branch2a
I0630 03:57:10.750912  1435 net.cpp:129] Top shape: 8 128 28 28 (802816)
I0630 03:57:10.750916  1435 net.cpp:137] Memory required for data: 939294880
I0630 03:57:10.750922  1435 layer_factory.hpp:77] Creating layer bn3a_branch2a
I0630 03:57:10.750933  1435 net.cpp:84] Creating Layer bn3a_branch2a
I0630 03:57:10.750938  1435 net.cpp:406] bn3a_branch2a <- res3a_branch2a
I0630 03:57:10.750944  1435 net.cpp:367] bn3a_branch2a -> res3a_branch2a (in-place)
I0630 03:57:10.751149  1435 net.cpp:122] Setting up bn3a_branch2a
I0630 03:57:10.751164  1435 net.cpp:129] Top shape: 8 128 28 28 (802816)
I0630 03:57:10.751169  1435 net.cpp:137] Memory required for data: 942506144
I0630 03:57:10.751178  1435 layer_factory.hpp:77] Creating layer scale3a_branch2a
I0630 03:57:10.751188  1435 net.cpp:84] Creating Layer scale3a_branch2a
I0630 03:57:10.751193  1435 net.cpp:406] scale3a_branch2a <- res3a_branch2a
I0630 03:57:10.751197  1435 net.cpp:367] scale3a_branch2a -> res3a_branch2a (in-place)
I0630 03:57:10.751248  1435 layer_factory.hpp:77] Creating layer scale3a_branch2a
I0630 03:57:10.751379  1435 net.cpp:122] Setting up scale3a_branch2a
I0630 03:57:10.751394  1435 net.cpp:129] Top shape: 8 128 28 28 (802816)
I0630 03:57:10.751399  1435 net.cpp:137] Memory required for data: 945717408
I0630 03:57:10.751405  1435 layer_factory.hpp:77] Creating layer res3a_branch2a_relu
I0630 03:57:10.751413  1435 net.cpp:84] Creating Layer res3a_branch2a_relu
I0630 03:57:10.751417  1435 net.cpp:406] res3a_branch2a_relu <- res3a_branch2a
I0630 03:57:10.751425  1435 net.cpp:367] res3a_branch2a_relu -> res3a_branch2a (in-place)
I0630 03:57:10.751576  1435 net.cpp:122] Setting up res3a_branch2a_relu
I0630 03:57:10.751592  1435 net.cpp:129] Top shape: 8 128 28 28 (802816)
I0630 03:57:10.751597  1435 net.cpp:137] Memory required for data: 948928672
I0630 03:57:10.751601  1435 layer_factory.hpp:77] Creating layer res3a_branch2b
I0630 03:57:10.751615  1435 net.cpp:84] Creating Layer res3a_branch2b
I0630 03:57:10.751619  1435 net.cpp:406] res3a_branch2b <- res3a_branch2a
I0630 03:57:10.751628  1435 net.cpp:380] res3a_branch2b -> res3a_branch2b
I0630 03:57:10.753234  1435 net.cpp:122] Setting up res3a_branch2b
I0630 03:57:10.753254  1435 net.cpp:129] Top shape: 8 128 28 28 (802816)
I0630 03:57:10.753259  1435 net.cpp:137] Memory required for data: 952139936
I0630 03:57:10.753265  1435 layer_factory.hpp:77] Creating layer bn3a_branch2b
I0630 03:57:10.753276  1435 net.cpp:84] Creating Layer bn3a_branch2b
I0630 03:57:10.753281  1435 net.cpp:406] bn3a_branch2b <- res3a_branch2b
I0630 03:57:10.753288  1435 net.cpp:367] bn3a_branch2b -> res3a_branch2b (in-place)
I0630 03:57:10.753496  1435 net.cpp:122] Setting up bn3a_branch2b
I0630 03:57:10.753511  1435 net.cpp:129] Top shape: 8 128 28 28 (802816)
I0630 03:57:10.753516  1435 net.cpp:137] Memory required for data: 955351200
I0630 03:57:10.753527  1435 layer_factory.hpp:77] Creating layer scale3a_branch2b
I0630 03:57:10.753535  1435 net.cpp:84] Creating Layer scale3a_branch2b
I0630 03:57:10.753540  1435 net.cpp:406] scale3a_branch2b <- res3a_branch2b
I0630 03:57:10.753545  1435 net.cpp:367] scale3a_branch2b -> res3a_branch2b (in-place)
I0630 03:57:10.753593  1435 layer_factory.hpp:77] Creating layer scale3a_branch2b
I0630 03:57:10.753742  1435 net.cpp:122] Setting up scale3a_branch2b
I0630 03:57:10.753758  1435 net.cpp:129] Top shape: 8 128 28 28 (802816)
I0630 03:57:10.753762  1435 net.cpp:137] Memory required for data: 958562464
I0630 03:57:10.753769  1435 layer_factory.hpp:77] Creating layer res3a_branch2b_relu
I0630 03:57:10.753778  1435 net.cpp:84] Creating Layer res3a_branch2b_relu
I0630 03:57:10.753783  1435 net.cpp:406] res3a_branch2b_relu <- res3a_branch2b
I0630 03:57:10.753788  1435 net.cpp:367] res3a_branch2b_relu -> res3a_branch2b (in-place)
I0630 03:57:10.754067  1435 net.cpp:122] Setting up res3a_branch2b_relu
I0630 03:57:10.754086  1435 net.cpp:129] Top shape: 8 128 28 28 (802816)
I0630 03:57:10.754091  1435 net.cpp:137] Memory required for data: 961773728
I0630 03:57:10.754094  1435 layer_factory.hpp:77] Creating layer res3a_branch2c
I0630 03:57:10.754117  1435 net.cpp:84] Creating Layer res3a_branch2c
I0630 03:57:10.754127  1435 net.cpp:406] res3a_branch2c <- res3a_branch2b
I0630 03:57:10.754134  1435 net.cpp:380] res3a_branch2c -> res3a_branch2c
I0630 03:57:10.754962  1435 net.cpp:122] Setting up res3a_branch2c
I0630 03:57:10.754982  1435 net.cpp:129] Top shape: 8 512 28 28 (3211264)
I0630 03:57:10.754987  1435 net.cpp:137] Memory required for data: 974618784
I0630 03:57:10.754993  1435 layer_factory.hpp:77] Creating layer bn3a_branch2c
I0630 03:57:10.755000  1435 net.cpp:84] Creating Layer bn3a_branch2c
I0630 03:57:10.755005  1435 net.cpp:406] bn3a_branch2c <- res3a_branch2c
I0630 03:57:10.755013  1435 net.cpp:367] bn3a_branch2c -> res3a_branch2c (in-place)
I0630 03:57:10.755225  1435 net.cpp:122] Setting up bn3a_branch2c
I0630 03:57:10.755241  1435 net.cpp:129] Top shape: 8 512 28 28 (3211264)
I0630 03:57:10.755245  1435 net.cpp:137] Memory required for data: 987463840
I0630 03:57:10.755254  1435 layer_factory.hpp:77] Creating layer scale3a_branch2c
I0630 03:57:10.755262  1435 net.cpp:84] Creating Layer scale3a_branch2c
I0630 03:57:10.755266  1435 net.cpp:406] scale3a_branch2c <- res3a_branch2c
I0630 03:57:10.755271  1435 net.cpp:367] scale3a_branch2c -> res3a_branch2c (in-place)
I0630 03:57:10.755321  1435 layer_factory.hpp:77] Creating layer scale3a_branch2c
I0630 03:57:10.755448  1435 net.cpp:122] Setting up scale3a_branch2c
I0630 03:57:10.755463  1435 net.cpp:129] Top shape: 8 512 28 28 (3211264)
I0630 03:57:10.755467  1435 net.cpp:137] Memory required for data: 1000308896
I0630 03:57:10.755477  1435 layer_factory.hpp:77] Creating layer res3a
I0630 03:57:10.755488  1435 net.cpp:84] Creating Layer res3a
I0630 03:57:10.755496  1435 net.cpp:406] res3a <- res3a_branch1
I0630 03:57:10.755506  1435 net.cpp:406] res3a <- res3a_branch2c
I0630 03:57:10.755527  1435 net.cpp:380] res3a -> res3a
I0630 03:57:10.755568  1435 net.cpp:122] Setting up res3a
I0630 03:57:10.755584  1435 net.cpp:129] Top shape: 8 512 28 28 (3211264)
I0630 03:57:10.755589  1435 net.cpp:137] Memory required for data: 1013153952
I0630 03:57:10.755592  1435 layer_factory.hpp:77] Creating layer res3a_relu
I0630 03:57:10.755604  1435 net.cpp:84] Creating Layer res3a_relu
I0630 03:57:10.755607  1435 net.cpp:406] res3a_relu <- res3a
I0630 03:57:10.755614  1435 net.cpp:367] res3a_relu -> res3a (in-place)
I0630 03:57:10.755889  1435 net.cpp:122] Setting up res3a_relu
I0630 03:57:10.755908  1435 net.cpp:129] Top shape: 8 512 28 28 (3211264)
I0630 03:57:10.755911  1435 net.cpp:137] Memory required for data: 1025999008
I0630 03:57:10.755916  1435 layer_factory.hpp:77] Creating layer res3a_res3a_relu_0_split
I0630 03:57:10.755923  1435 net.cpp:84] Creating Layer res3a_res3a_relu_0_split
I0630 03:57:10.755928  1435 net.cpp:406] res3a_res3a_relu_0_split <- res3a
I0630 03:57:10.755937  1435 net.cpp:380] res3a_res3a_relu_0_split -> res3a_res3a_relu_0_split_0
I0630 03:57:10.755944  1435 net.cpp:380] res3a_res3a_relu_0_split -> res3a_res3a_relu_0_split_1
I0630 03:57:10.755991  1435 net.cpp:122] Setting up res3a_res3a_relu_0_split
I0630 03:57:10.756006  1435 net.cpp:129] Top shape: 8 512 28 28 (3211264)
I0630 03:57:10.756011  1435 net.cpp:129] Top shape: 8 512 28 28 (3211264)
I0630 03:57:10.756027  1435 net.cpp:137] Memory required for data: 1051689120
I0630 03:57:10.756032  1435 layer_factory.hpp:77] Creating layer res3b_branch2a
I0630 03:57:10.756048  1435 net.cpp:84] Creating Layer res3b_branch2a
I0630 03:57:10.756059  1435 net.cpp:406] res3b_branch2a <- res3a_res3a_relu_0_split_0
I0630 03:57:10.756067  1435 net.cpp:380] res3b_branch2a -> res3b_branch2a
I0630 03:57:10.757611  1435 net.cpp:122] Setting up res3b_branch2a
I0630 03:57:10.757632  1435 net.cpp:129] Top shape: 8 128 28 28 (802816)
I0630 03:57:10.757637  1435 net.cpp:137] Memory required for data: 1054900384
I0630 03:57:10.757642  1435 layer_factory.hpp:77] Creating layer bn3b_branch2a
I0630 03:57:10.757652  1435 net.cpp:84] Creating Layer bn3b_branch2a
I0630 03:57:10.757655  1435 net.cpp:406] bn3b_branch2a <- res3b_branch2a
I0630 03:57:10.757663  1435 net.cpp:367] bn3b_branch2a -> res3b_branch2a (in-place)
I0630 03:57:10.757884  1435 net.cpp:122] Setting up bn3b_branch2a
I0630 03:57:10.757899  1435 net.cpp:129] Top shape: 8 128 28 28 (802816)
I0630 03:57:10.757903  1435 net.cpp:137] Memory required for data: 1058111648
I0630 03:57:10.757923  1435 layer_factory.hpp:77] Creating layer scale3b_branch2a
I0630 03:57:10.757937  1435 net.cpp:84] Creating Layer scale3b_branch2a
I0630 03:57:10.757948  1435 net.cpp:406] scale3b_branch2a <- res3b_branch2a
I0630 03:57:10.757954  1435 net.cpp:367] scale3b_branch2a -> res3b_branch2a (in-place)
I0630 03:57:10.758004  1435 layer_factory.hpp:77] Creating layer scale3b_branch2a
I0630 03:57:10.758138  1435 net.cpp:122] Setting up scale3b_branch2a
I0630 03:57:10.758153  1435 net.cpp:129] Top shape: 8 128 28 28 (802816)
I0630 03:57:10.758157  1435 net.cpp:137] Memory required for data: 1061322912
I0630 03:57:10.758164  1435 layer_factory.hpp:77] Creating layer res3b_branch2a_relu
I0630 03:57:10.758172  1435 net.cpp:84] Creating Layer res3b_branch2a_relu
I0630 03:57:10.758175  1435 net.cpp:406] res3b_branch2a_relu <- res3b_branch2a
I0630 03:57:10.758183  1435 net.cpp:367] res3b_branch2a_relu -> res3b_branch2a (in-place)
I0630 03:57:10.758339  1435 net.cpp:122] Setting up res3b_branch2a_relu
I0630 03:57:10.758355  1435 net.cpp:129] Top shape: 8 128 28 28 (802816)
I0630 03:57:10.758359  1435 net.cpp:137] Memory required for data: 1064534176
I0630 03:57:10.758363  1435 layer_factory.hpp:77] Creating layer res3b_branch2b
I0630 03:57:10.758375  1435 net.cpp:84] Creating Layer res3b_branch2b
I0630 03:57:10.758380  1435 net.cpp:406] res3b_branch2b <- res3b_branch2a
I0630 03:57:10.758386  1435 net.cpp:380] res3b_branch2b -> res3b_branch2b
I0630 03:57:10.759944  1435 net.cpp:122] Setting up res3b_branch2b
I0630 03:57:10.759964  1435 net.cpp:129] Top shape: 8 128 28 28 (802816)
I0630 03:57:10.759969  1435 net.cpp:137] Memory required for data: 1067745440
I0630 03:57:10.759975  1435 layer_factory.hpp:77] Creating layer bn3b_branch2b
I0630 03:57:10.759986  1435 net.cpp:84] Creating Layer bn3b_branch2b
I0630 03:57:10.759991  1435 net.cpp:406] bn3b_branch2b <- res3b_branch2b
I0630 03:57:10.759999  1435 net.cpp:367] bn3b_branch2b -> res3b_branch2b (in-place)
I0630 03:57:10.760207  1435 net.cpp:122] Setting up bn3b_branch2b
I0630 03:57:10.760223  1435 net.cpp:129] Top shape: 8 128 28 28 (802816)
I0630 03:57:10.760227  1435 net.cpp:137] Memory required for data: 1070956704
I0630 03:57:10.760236  1435 layer_factory.hpp:77] Creating layer scale3b_branch2b
I0630 03:57:10.760246  1435 net.cpp:84] Creating Layer scale3b_branch2b
I0630 03:57:10.760251  1435 net.cpp:406] scale3b_branch2b <- res3b_branch2b
I0630 03:57:10.760257  1435 net.cpp:367] scale3b_branch2b -> res3b_branch2b (in-place)
I0630 03:57:10.760304  1435 layer_factory.hpp:77] Creating layer scale3b_branch2b
I0630 03:57:10.760442  1435 net.cpp:122] Setting up scale3b_branch2b
I0630 03:57:10.760457  1435 net.cpp:129] Top shape: 8 128 28 28 (802816)
I0630 03:57:10.760462  1435 net.cpp:137] Memory required for data: 1074167968
I0630 03:57:10.760468  1435 layer_factory.hpp:77] Creating layer res3b_branch2b_relu
I0630 03:57:10.760475  1435 net.cpp:84] Creating Layer res3b_branch2b_relu
I0630 03:57:10.760493  1435 net.cpp:406] res3b_branch2b_relu <- res3b_branch2b
I0630 03:57:10.760499  1435 net.cpp:367] res3b_branch2b_relu -> res3b_branch2b (in-place)
I0630 03:57:10.760757  1435 net.cpp:122] Setting up res3b_branch2b_relu
I0630 03:57:10.760776  1435 net.cpp:129] Top shape: 8 128 28 28 (802816)
I0630 03:57:10.760779  1435 net.cpp:137] Memory required for data: 1077379232
I0630 03:57:10.760784  1435 layer_factory.hpp:77] Creating layer res3b_branch2c
I0630 03:57:10.760797  1435 net.cpp:84] Creating Layer res3b_branch2c
I0630 03:57:10.760802  1435 net.cpp:406] res3b_branch2c <- res3b_branch2b
I0630 03:57:10.760810  1435 net.cpp:380] res3b_branch2c -> res3b_branch2c
I0630 03:57:10.761633  1435 net.cpp:122] Setting up res3b_branch2c
I0630 03:57:10.761652  1435 net.cpp:129] Top shape: 8 512 28 28 (3211264)
I0630 03:57:10.761657  1435 net.cpp:137] Memory required for data: 1090224288
I0630 03:57:10.761663  1435 layer_factory.hpp:77] Creating layer bn3b_branch2c
I0630 03:57:10.761675  1435 net.cpp:84] Creating Layer bn3b_branch2c
I0630 03:57:10.761682  1435 net.cpp:406] bn3b_branch2c <- res3b_branch2c
I0630 03:57:10.761687  1435 net.cpp:367] bn3b_branch2c -> res3b_branch2c (in-place)
I0630 03:57:10.761916  1435 net.cpp:122] Setting up bn3b_branch2c
I0630 03:57:10.761932  1435 net.cpp:129] Top shape: 8 512 28 28 (3211264)
I0630 03:57:10.761936  1435 net.cpp:137] Memory required for data: 1103069344
I0630 03:57:10.761945  1435 layer_factory.hpp:77] Creating layer scale3b_branch2c
I0630 03:57:10.761953  1435 net.cpp:84] Creating Layer scale3b_branch2c
I0630 03:57:10.761957  1435 net.cpp:406] scale3b_branch2c <- res3b_branch2c
I0630 03:57:10.761965  1435 net.cpp:367] scale3b_branch2c -> res3b_branch2c (in-place)
I0630 03:57:10.762012  1435 layer_factory.hpp:77] Creating layer scale3b_branch2c
I0630 03:57:10.762141  1435 net.cpp:122] Setting up scale3b_branch2c
I0630 03:57:10.762156  1435 net.cpp:129] Top shape: 8 512 28 28 (3211264)
I0630 03:57:10.762161  1435 net.cpp:137] Memory required for data: 1115914400
I0630 03:57:10.762167  1435 layer_factory.hpp:77] Creating layer res3b
I0630 03:57:10.762176  1435 net.cpp:84] Creating Layer res3b
I0630 03:57:10.762181  1435 net.cpp:406] res3b <- res3a_res3a_relu_0_split_1
I0630 03:57:10.762187  1435 net.cpp:406] res3b <- res3b_branch2c
I0630 03:57:10.762192  1435 net.cpp:380] res3b -> res3b
I0630 03:57:10.762224  1435 net.cpp:122] Setting up res3b
I0630 03:57:10.762238  1435 net.cpp:129] Top shape: 8 512 28 28 (3211264)
I0630 03:57:10.762243  1435 net.cpp:137] Memory required for data: 1128759456
I0630 03:57:10.762246  1435 layer_factory.hpp:77] Creating layer res3b_relu
I0630 03:57:10.762253  1435 net.cpp:84] Creating Layer res3b_relu
I0630 03:57:10.762256  1435 net.cpp:406] res3b_relu <- res3b
I0630 03:57:10.762264  1435 net.cpp:367] res3b_relu -> res3b (in-place)
I0630 03:57:10.762521  1435 net.cpp:122] Setting up res3b_relu
I0630 03:57:10.762540  1435 net.cpp:129] Top shape: 8 512 28 28 (3211264)
I0630 03:57:10.762544  1435 net.cpp:137] Memory required for data: 1141604512
I0630 03:57:10.762548  1435 layer_factory.hpp:77] Creating layer res3b_res3b_relu_0_split
I0630 03:57:10.762555  1435 net.cpp:84] Creating Layer res3b_res3b_relu_0_split
I0630 03:57:10.762559  1435 net.cpp:406] res3b_res3b_relu_0_split <- res3b
I0630 03:57:10.762568  1435 net.cpp:380] res3b_res3b_relu_0_split -> res3b_res3b_relu_0_split_0
I0630 03:57:10.762575  1435 net.cpp:380] res3b_res3b_relu_0_split -> res3b_res3b_relu_0_split_1
I0630 03:57:10.762627  1435 net.cpp:122] Setting up res3b_res3b_relu_0_split
I0630 03:57:10.762642  1435 net.cpp:129] Top shape: 8 512 28 28 (3211264)
I0630 03:57:10.762647  1435 net.cpp:129] Top shape: 8 512 28 28 (3211264)
I0630 03:57:10.762650  1435 net.cpp:137] Memory required for data: 1167294624
I0630 03:57:10.762655  1435 layer_factory.hpp:77] Creating layer res3c_branch2a
I0630 03:57:10.762665  1435 net.cpp:84] Creating Layer res3c_branch2a
I0630 03:57:10.762670  1435 net.cpp:406] res3c_branch2a <- res3b_res3b_relu_0_split_0
I0630 03:57:10.762689  1435 net.cpp:380] res3c_branch2a -> res3c_branch2a
I0630 03:57:10.763622  1435 net.cpp:122] Setting up res3c_branch2a
I0630 03:57:10.763643  1435 net.cpp:129] Top shape: 8 128 28 28 (802816)
I0630 03:57:10.763648  1435 net.cpp:137] Memory required for data: 1170505888
I0630 03:57:10.763654  1435 layer_factory.hpp:77] Creating layer bn3c_branch2a
I0630 03:57:10.763662  1435 net.cpp:84] Creating Layer bn3c_branch2a
I0630 03:57:10.763669  1435 net.cpp:406] bn3c_branch2a <- res3c_branch2a
I0630 03:57:10.763675  1435 net.cpp:367] bn3c_branch2a -> res3c_branch2a (in-place)
I0630 03:57:10.763890  1435 net.cpp:122] Setting up bn3c_branch2a
I0630 03:57:10.763905  1435 net.cpp:129] Top shape: 8 128 28 28 (802816)
I0630 03:57:10.763909  1435 net.cpp:137] Memory required for data: 1173717152
I0630 03:57:10.763917  1435 layer_factory.hpp:77] Creating layer scale3c_branch2a
I0630 03:57:10.763927  1435 net.cpp:84] Creating Layer scale3c_branch2a
I0630 03:57:10.763932  1435 net.cpp:406] scale3c_branch2a <- res3c_branch2a
I0630 03:57:10.763937  1435 net.cpp:367] scale3c_branch2a -> res3c_branch2a (in-place)
I0630 03:57:10.763988  1435 layer_factory.hpp:77] Creating layer scale3c_branch2a
I0630 03:57:10.764129  1435 net.cpp:122] Setting up scale3c_branch2a
I0630 03:57:10.764144  1435 net.cpp:129] Top shape: 8 128 28 28 (802816)
I0630 03:57:10.764148  1435 net.cpp:137] Memory required for data: 1176928416
I0630 03:57:10.764155  1435 layer_factory.hpp:77] Creating layer res3c_branch2a_relu
I0630 03:57:10.764163  1435 net.cpp:84] Creating Layer res3c_branch2a_relu
I0630 03:57:10.764166  1435 net.cpp:406] res3c_branch2a_relu <- res3c_branch2a
I0630 03:57:10.764174  1435 net.cpp:367] res3c_branch2a_relu -> res3c_branch2a (in-place)
I0630 03:57:10.764325  1435 net.cpp:122] Setting up res3c_branch2a_relu
I0630 03:57:10.764343  1435 net.cpp:129] Top shape: 8 128 28 28 (802816)
I0630 03:57:10.764346  1435 net.cpp:137] Memory required for data: 1180139680
I0630 03:57:10.764350  1435 layer_factory.hpp:77] Creating layer res3c_branch2b
I0630 03:57:10.764363  1435 net.cpp:84] Creating Layer res3c_branch2b
I0630 03:57:10.764367  1435 net.cpp:406] res3c_branch2b <- res3c_branch2a
I0630 03:57:10.764376  1435 net.cpp:380] res3c_branch2b -> res3c_branch2b
I0630 03:57:10.765848  1435 net.cpp:122] Setting up res3c_branch2b
I0630 03:57:10.765868  1435 net.cpp:129] Top shape: 8 128 28 28 (802816)
I0630 03:57:10.765873  1435 net.cpp:137] Memory required for data: 1183350944
I0630 03:57:10.765879  1435 layer_factory.hpp:77] Creating layer bn3c_branch2b
I0630 03:57:10.765889  1435 net.cpp:84] Creating Layer bn3c_branch2b
I0630 03:57:10.765894  1435 net.cpp:406] bn3c_branch2b <- res3c_branch2b
I0630 03:57:10.765900  1435 net.cpp:367] bn3c_branch2b -> res3c_branch2b (in-place)
I0630 03:57:10.766127  1435 net.cpp:122] Setting up bn3c_branch2b
I0630 03:57:10.766144  1435 net.cpp:129] Top shape: 8 128 28 28 (802816)
I0630 03:57:10.766149  1435 net.cpp:137] Memory required for data: 1186562208
I0630 03:57:10.766156  1435 layer_factory.hpp:77] Creating layer scale3c_branch2b
I0630 03:57:10.766167  1435 net.cpp:84] Creating Layer scale3c_branch2b
I0630 03:57:10.766171  1435 net.cpp:406] scale3c_branch2b <- res3c_branch2b
I0630 03:57:10.766177  1435 net.cpp:367] scale3c_branch2b -> res3c_branch2b (in-place)
I0630 03:57:10.766227  1435 layer_factory.hpp:77] Creating layer scale3c_branch2b
I0630 03:57:10.766362  1435 net.cpp:122] Setting up scale3c_branch2b
I0630 03:57:10.766378  1435 net.cpp:129] Top shape: 8 128 28 28 (802816)
I0630 03:57:10.766382  1435 net.cpp:137] Memory required for data: 1189773472
I0630 03:57:10.766389  1435 layer_factory.hpp:77] Creating layer res3c_branch2b_relu
I0630 03:57:10.766396  1435 net.cpp:84] Creating Layer res3c_branch2b_relu
I0630 03:57:10.766399  1435 net.cpp:406] res3c_branch2b_relu <- res3c_branch2b
I0630 03:57:10.766407  1435 net.cpp:367] res3c_branch2b_relu -> res3c_branch2b (in-place)
I0630 03:57:10.766674  1435 net.cpp:122] Setting up res3c_branch2b_relu
I0630 03:57:10.766695  1435 net.cpp:129] Top shape: 8 128 28 28 (802816)
I0630 03:57:10.766712  1435 net.cpp:137] Memory required for data: 1192984736
I0630 03:57:10.766717  1435 layer_factory.hpp:77] Creating layer res3c_branch2c
I0630 03:57:10.766727  1435 net.cpp:84] Creating Layer res3c_branch2c
I0630 03:57:10.766731  1435 net.cpp:406] res3c_branch2c <- res3c_branch2b
I0630 03:57:10.766741  1435 net.cpp:380] res3c_branch2c -> res3c_branch2c
I0630 03:57:10.767568  1435 net.cpp:122] Setting up res3c_branch2c
I0630 03:57:10.767588  1435 net.cpp:129] Top shape: 8 512 28 28 (3211264)
I0630 03:57:10.767592  1435 net.cpp:137] Memory required for data: 1205829792
I0630 03:57:10.767598  1435 layer_factory.hpp:77] Creating layer bn3c_branch2c
I0630 03:57:10.767609  1435 net.cpp:84] Creating Layer bn3c_branch2c
I0630 03:57:10.767614  1435 net.cpp:406] bn3c_branch2c <- res3c_branch2c
I0630 03:57:10.767621  1435 net.cpp:367] bn3c_branch2c -> res3c_branch2c (in-place)
I0630 03:57:10.767839  1435 net.cpp:122] Setting up bn3c_branch2c
I0630 03:57:10.767855  1435 net.cpp:129] Top shape: 8 512 28 28 (3211264)
I0630 03:57:10.767859  1435 net.cpp:137] Memory required for data: 1218674848
I0630 03:57:10.767868  1435 layer_factory.hpp:77] Creating layer scale3c_branch2c
I0630 03:57:10.767875  1435 net.cpp:84] Creating Layer scale3c_branch2c
I0630 03:57:10.767879  1435 net.cpp:406] scale3c_branch2c <- res3c_branch2c
I0630 03:57:10.767887  1435 net.cpp:367] scale3c_branch2c -> res3c_branch2c (in-place)
I0630 03:57:10.767935  1435 layer_factory.hpp:77] Creating layer scale3c_branch2c
I0630 03:57:10.768067  1435 net.cpp:122] Setting up scale3c_branch2c
I0630 03:57:10.768081  1435 net.cpp:129] Top shape: 8 512 28 28 (3211264)
I0630 03:57:10.768086  1435 net.cpp:137] Memory required for data: 1231519904
I0630 03:57:10.768093  1435 layer_factory.hpp:77] Creating layer res3c
I0630 03:57:10.768102  1435 net.cpp:84] Creating Layer res3c
I0630 03:57:10.768107  1435 net.cpp:406] res3c <- res3b_res3b_relu_0_split_1
I0630 03:57:10.768111  1435 net.cpp:406] res3c <- res3c_branch2c
I0630 03:57:10.768117  1435 net.cpp:380] res3c -> res3c
I0630 03:57:10.768149  1435 net.cpp:122] Setting up res3c
I0630 03:57:10.768163  1435 net.cpp:129] Top shape: 8 512 28 28 (3211264)
I0630 03:57:10.768167  1435 net.cpp:137] Memory required for data: 1244364960
I0630 03:57:10.768170  1435 layer_factory.hpp:77] Creating layer res3c_relu
I0630 03:57:10.768177  1435 net.cpp:84] Creating Layer res3c_relu
I0630 03:57:10.768182  1435 net.cpp:406] res3c_relu <- res3c
I0630 03:57:10.768188  1435 net.cpp:367] res3c_relu -> res3c (in-place)
I0630 03:57:10.768440  1435 net.cpp:122] Setting up res3c_relu
I0630 03:57:10.768458  1435 net.cpp:129] Top shape: 8 512 28 28 (3211264)
I0630 03:57:10.768462  1435 net.cpp:137] Memory required for data: 1257210016
I0630 03:57:10.768466  1435 layer_factory.hpp:77] Creating layer res3c_res3c_relu_0_split
I0630 03:57:10.768473  1435 net.cpp:84] Creating Layer res3c_res3c_relu_0_split
I0630 03:57:10.768477  1435 net.cpp:406] res3c_res3c_relu_0_split <- res3c
I0630 03:57:10.768486  1435 net.cpp:380] res3c_res3c_relu_0_split -> res3c_res3c_relu_0_split_0
I0630 03:57:10.768493  1435 net.cpp:380] res3c_res3c_relu_0_split -> res3c_res3c_relu_0_split_1
I0630 03:57:10.768543  1435 net.cpp:122] Setting up res3c_res3c_relu_0_split
I0630 03:57:10.768558  1435 net.cpp:129] Top shape: 8 512 28 28 (3211264)
I0630 03:57:10.768563  1435 net.cpp:129] Top shape: 8 512 28 28 (3211264)
I0630 03:57:10.768566  1435 net.cpp:137] Memory required for data: 1282900128
I0630 03:57:10.768569  1435 layer_factory.hpp:77] Creating layer res3d_branch2a
I0630 03:57:10.768581  1435 net.cpp:84] Creating Layer res3d_branch2a
I0630 03:57:10.768586  1435 net.cpp:406] res3d_branch2a <- res3c_res3c_relu_0_split_0
I0630 03:57:10.768592  1435 net.cpp:380] res3d_branch2a -> res3d_branch2a
I0630 03:57:10.770169  1435 net.cpp:122] Setting up res3d_branch2a
I0630 03:57:10.770197  1435 net.cpp:129] Top shape: 8 128 28 28 (802816)
I0630 03:57:10.770201  1435 net.cpp:137] Memory required for data: 1286111392
I0630 03:57:10.770207  1435 layer_factory.hpp:77] Creating layer bn3d_branch2a
I0630 03:57:10.770232  1435 net.cpp:84] Creating Layer bn3d_branch2a
I0630 03:57:10.770237  1435 net.cpp:406] bn3d_branch2a <- res3d_branch2a
I0630 03:57:10.770248  1435 net.cpp:367] bn3d_branch2a -> res3d_branch2a (in-place)
I0630 03:57:10.770473  1435 net.cpp:122] Setting up bn3d_branch2a
I0630 03:57:10.770488  1435 net.cpp:129] Top shape: 8 128 28 28 (802816)
I0630 03:57:10.770493  1435 net.cpp:137] Memory required for data: 1289322656
I0630 03:57:10.770520  1435 layer_factory.hpp:77] Creating layer scale3d_branch2a
I0630 03:57:10.770535  1435 net.cpp:84] Creating Layer scale3d_branch2a
I0630 03:57:10.770540  1435 net.cpp:406] scale3d_branch2a <- res3d_branch2a
I0630 03:57:10.770547  1435 net.cpp:367] scale3d_branch2a -> res3d_branch2a (in-place)
I0630 03:57:10.770601  1435 layer_factory.hpp:77] Creating layer scale3d_branch2a
I0630 03:57:10.770750  1435 net.cpp:122] Setting up scale3d_branch2a
I0630 03:57:10.770766  1435 net.cpp:129] Top shape: 8 128 28 28 (802816)
I0630 03:57:10.770769  1435 net.cpp:137] Memory required for data: 1292533920
I0630 03:57:10.770776  1435 layer_factory.hpp:77] Creating layer res3d_branch2a_relu
I0630 03:57:10.770784  1435 net.cpp:84] Creating Layer res3d_branch2a_relu
I0630 03:57:10.770788  1435 net.cpp:406] res3d_branch2a_relu <- res3d_branch2a
I0630 03:57:10.770797  1435 net.cpp:367] res3d_branch2a_relu -> res3d_branch2a (in-place)
I0630 03:57:10.770961  1435 net.cpp:122] Setting up res3d_branch2a_relu
I0630 03:57:10.770977  1435 net.cpp:129] Top shape: 8 128 28 28 (802816)
I0630 03:57:10.770982  1435 net.cpp:137] Memory required for data: 1295745184
I0630 03:57:10.770985  1435 layer_factory.hpp:77] Creating layer res3d_branch2b
I0630 03:57:10.771000  1435 net.cpp:84] Creating Layer res3d_branch2b
I0630 03:57:10.771004  1435 net.cpp:406] res3d_branch2b <- res3d_branch2a
I0630 03:57:10.771011  1435 net.cpp:380] res3d_branch2b -> res3d_branch2b
I0630 03:57:10.772627  1435 net.cpp:122] Setting up res3d_branch2b
I0630 03:57:10.772650  1435 net.cpp:129] Top shape: 8 128 28 28 (802816)
I0630 03:57:10.772655  1435 net.cpp:137] Memory required for data: 1298956448
I0630 03:57:10.772660  1435 layer_factory.hpp:77] Creating layer bn3d_branch2b
I0630 03:57:10.772668  1435 net.cpp:84] Creating Layer bn3d_branch2b
I0630 03:57:10.772673  1435 net.cpp:406] bn3d_branch2b <- res3d_branch2b
I0630 03:57:10.772681  1435 net.cpp:367] bn3d_branch2b -> res3d_branch2b (in-place)
I0630 03:57:10.772905  1435 net.cpp:122] Setting up bn3d_branch2b
I0630 03:57:10.772920  1435 net.cpp:129] Top shape: 8 128 28 28 (802816)
I0630 03:57:10.772925  1435 net.cpp:137] Memory required for data: 1302167712
I0630 03:57:10.772933  1435 layer_factory.hpp:77] Creating layer scale3d_branch2b
I0630 03:57:10.772943  1435 net.cpp:84] Creating Layer scale3d_branch2b
I0630 03:57:10.772946  1435 net.cpp:406] scale3d_branch2b <- res3d_branch2b
I0630 03:57:10.772951  1435 net.cpp:367] scale3d_branch2b -> res3d_branch2b (in-place)
I0630 03:57:10.773006  1435 layer_factory.hpp:77] Creating layer scale3d_branch2b
I0630 03:57:10.773147  1435 net.cpp:122] Setting up scale3d_branch2b
I0630 03:57:10.773162  1435 net.cpp:129] Top shape: 8 128 28 28 (802816)
I0630 03:57:10.773166  1435 net.cpp:137] Memory required for data: 1305378976
I0630 03:57:10.773172  1435 layer_factory.hpp:77] Creating layer res3d_branch2b_relu
I0630 03:57:10.773183  1435 net.cpp:84] Creating Layer res3d_branch2b_relu
I0630 03:57:10.773187  1435 net.cpp:406] res3d_branch2b_relu <- res3d_branch2b
I0630 03:57:10.773195  1435 net.cpp:367] res3d_branch2b_relu -> res3d_branch2b (in-place)
I0630 03:57:10.773457  1435 net.cpp:122] Setting up res3d_branch2b_relu
I0630 03:57:10.773474  1435 net.cpp:129] Top shape: 8 128 28 28 (802816)
I0630 03:57:10.773478  1435 net.cpp:137] Memory required for data: 1308590240
I0630 03:57:10.773483  1435 layer_factory.hpp:77] Creating layer res3d_branch2c
I0630 03:57:10.773495  1435 net.cpp:84] Creating Layer res3d_branch2c
I0630 03:57:10.773500  1435 net.cpp:406] res3d_branch2c <- res3d_branch2b
I0630 03:57:10.773530  1435 net.cpp:380] res3d_branch2c -> res3d_branch2c
I0630 03:57:10.774394  1435 net.cpp:122] Setting up res3d_branch2c
I0630 03:57:10.774415  1435 net.cpp:129] Top shape: 8 512 28 28 (3211264)
I0630 03:57:10.774418  1435 net.cpp:137] Memory required for data: 1321435296
I0630 03:57:10.774425  1435 layer_factory.hpp:77] Creating layer bn3d_branch2c
I0630 03:57:10.774435  1435 net.cpp:84] Creating Layer bn3d_branch2c
I0630 03:57:10.774441  1435 net.cpp:406] bn3d_branch2c <- res3d_branch2c
I0630 03:57:10.774446  1435 net.cpp:367] bn3d_branch2c -> res3d_branch2c (in-place)
I0630 03:57:10.774686  1435 net.cpp:122] Setting up bn3d_branch2c
I0630 03:57:10.774701  1435 net.cpp:129] Top shape: 8 512 28 28 (3211264)
I0630 03:57:10.774706  1435 net.cpp:137] Memory required for data: 1334280352
I0630 03:57:10.774714  1435 layer_factory.hpp:77] Creating layer scale3d_branch2c
I0630 03:57:10.774724  1435 net.cpp:84] Creating Layer scale3d_branch2c
I0630 03:57:10.774729  1435 net.cpp:406] scale3d_branch2c <- res3d_branch2c
I0630 03:57:10.774735  1435 net.cpp:367] scale3d_branch2c -> res3d_branch2c (in-place)
I0630 03:57:10.774787  1435 layer_factory.hpp:77] Creating layer scale3d_branch2c
I0630 03:57:10.774925  1435 net.cpp:122] Setting up scale3d_branch2c
I0630 03:57:10.774940  1435 net.cpp:129] Top shape: 8 512 28 28 (3211264)
I0630 03:57:10.774945  1435 net.cpp:137] Memory required for data: 1347125408
I0630 03:57:10.774951  1435 layer_factory.hpp:77] Creating layer res3d
I0630 03:57:10.774958  1435 net.cpp:84] Creating Layer res3d
I0630 03:57:10.774962  1435 net.cpp:406] res3d <- res3c_res3c_relu_0_split_1
I0630 03:57:10.774971  1435 net.cpp:406] res3d <- res3d_branch2c
I0630 03:57:10.774976  1435 net.cpp:380] res3d -> res3d
I0630 03:57:10.775009  1435 net.cpp:122] Setting up res3d
I0630 03:57:10.775023  1435 net.cpp:129] Top shape: 8 512 28 28 (3211264)
I0630 03:57:10.775027  1435 net.cpp:137] Memory required for data: 1359970464
I0630 03:57:10.775032  1435 layer_factory.hpp:77] Creating layer res3d_relu
I0630 03:57:10.775038  1435 net.cpp:84] Creating Layer res3d_relu
I0630 03:57:10.775041  1435 net.cpp:406] res3d_relu <- res3d
I0630 03:57:10.775048  1435 net.cpp:367] res3d_relu -> res3d (in-place)
I0630 03:57:10.775317  1435 net.cpp:122] Setting up res3d_relu
I0630 03:57:10.775336  1435 net.cpp:129] Top shape: 8 512 28 28 (3211264)
I0630 03:57:10.775339  1435 net.cpp:137] Memory required for data: 1372815520
I0630 03:57:10.775343  1435 layer_factory.hpp:77] Creating layer res3d_res3d_relu_0_split
I0630 03:57:10.775351  1435 net.cpp:84] Creating Layer res3d_res3d_relu_0_split
I0630 03:57:10.775354  1435 net.cpp:406] res3d_res3d_relu_0_split <- res3d
I0630 03:57:10.775370  1435 net.cpp:380] res3d_res3d_relu_0_split -> res3d_res3d_relu_0_split_0
I0630 03:57:10.775383  1435 net.cpp:380] res3d_res3d_relu_0_split -> res3d_res3d_relu_0_split_1
I0630 03:57:10.775434  1435 net.cpp:122] Setting up res3d_res3d_relu_0_split
I0630 03:57:10.775449  1435 net.cpp:129] Top shape: 8 512 28 28 (3211264)
I0630 03:57:10.775454  1435 net.cpp:129] Top shape: 8 512 28 28 (3211264)
I0630 03:57:10.775459  1435 net.cpp:137] Memory required for data: 1398505632
I0630 03:57:10.775462  1435 layer_factory.hpp:77] Creating layer res4a_branch1
I0630 03:57:10.775471  1435 net.cpp:84] Creating Layer res4a_branch1
I0630 03:57:10.775475  1435 net.cpp:406] res4a_branch1 <- res3d_res3d_relu_0_split_0
I0630 03:57:10.775485  1435 net.cpp:380] res4a_branch1 -> res4a_branch1
I0630 03:57:10.777945  1435 net.cpp:122] Setting up res4a_branch1
I0630 03:57:10.777964  1435 net.cpp:129] Top shape: 8 1024 14 14 (1605632)
I0630 03:57:10.777969  1435 net.cpp:137] Memory required for data: 1404928160
I0630 03:57:10.777976  1435 layer_factory.hpp:77] Creating layer bn4a_branch1
I0630 03:57:10.777987  1435 net.cpp:84] Creating Layer bn4a_branch1
I0630 03:57:10.777993  1435 net.cpp:406] bn4a_branch1 <- res4a_branch1
I0630 03:57:10.778000  1435 net.cpp:367] bn4a_branch1 -> res4a_branch1 (in-place)
I0630 03:57:10.778249  1435 net.cpp:122] Setting up bn4a_branch1
I0630 03:57:10.778277  1435 net.cpp:129] Top shape: 8 1024 14 14 (1605632)
I0630 03:57:10.778281  1435 net.cpp:137] Memory required for data: 1411350688
I0630 03:57:10.778290  1435 layer_factory.hpp:77] Creating layer scale4a_branch1
I0630 03:57:10.778298  1435 net.cpp:84] Creating Layer scale4a_branch1
I0630 03:57:10.778302  1435 net.cpp:406] scale4a_branch1 <- res4a_branch1
I0630 03:57:10.778308  1435 net.cpp:367] scale4a_branch1 -> res4a_branch1 (in-place)
I0630 03:57:10.778358  1435 layer_factory.hpp:77] Creating layer scale4a_branch1
I0630 03:57:10.778506  1435 net.cpp:122] Setting up scale4a_branch1
I0630 03:57:10.778520  1435 net.cpp:129] Top shape: 8 1024 14 14 (1605632)
I0630 03:57:10.778524  1435 net.cpp:137] Memory required for data: 1417773216
I0630 03:57:10.778532  1435 layer_factory.hpp:77] Creating layer res4a_branch2a
I0630 03:57:10.778547  1435 net.cpp:84] Creating Layer res4a_branch2a
I0630 03:57:10.778556  1435 net.cpp:406] res4a_branch2a <- res3d_res3d_relu_0_split_1
I0630 03:57:10.778563  1435 net.cpp:380] res4a_branch2a -> res4a_branch2a
I0630 03:57:10.779577  1435 net.cpp:122] Setting up res4a_branch2a
I0630 03:57:10.779597  1435 net.cpp:129] Top shape: 8 256 14 14 (401408)
I0630 03:57:10.779602  1435 net.cpp:137] Memory required for data: 1419378848
I0630 03:57:10.779608  1435 layer_factory.hpp:77] Creating layer bn4a_branch2a
I0630 03:57:10.779620  1435 net.cpp:84] Creating Layer bn4a_branch2a
I0630 03:57:10.779631  1435 net.cpp:406] bn4a_branch2a <- res4a_branch2a
I0630 03:57:10.779639  1435 net.cpp:367] bn4a_branch2a -> res4a_branch2a (in-place)
I0630 03:57:10.779865  1435 net.cpp:122] Setting up bn4a_branch2a
I0630 03:57:10.779880  1435 net.cpp:129] Top shape: 8 256 14 14 (401408)
I0630 03:57:10.779883  1435 net.cpp:137] Memory required for data: 1420984480
I0630 03:57:10.779891  1435 layer_factory.hpp:77] Creating layer scale4a_branch2a
I0630 03:57:10.779899  1435 net.cpp:84] Creating Layer scale4a_branch2a
I0630 03:57:10.779903  1435 net.cpp:406] scale4a_branch2a <- res4a_branch2a
I0630 03:57:10.779911  1435 net.cpp:367] scale4a_branch2a -> res4a_branch2a (in-place)
I0630 03:57:10.779961  1435 layer_factory.hpp:77] Creating layer scale4a_branch2a
I0630 03:57:10.780105  1435 net.cpp:122] Setting up scale4a_branch2a
I0630 03:57:10.780120  1435 net.cpp:129] Top shape: 8 256 14 14 (401408)
I0630 03:57:10.780125  1435 net.cpp:137] Memory required for data: 1422590112
I0630 03:57:10.780131  1435 layer_factory.hpp:77] Creating layer res4a_branch2a_relu
I0630 03:57:10.780143  1435 net.cpp:84] Creating Layer res4a_branch2a_relu
I0630 03:57:10.780146  1435 net.cpp:406] res4a_branch2a_relu <- res4a_branch2a
I0630 03:57:10.780151  1435 net.cpp:367] res4a_branch2a_relu -> res4a_branch2a (in-place)
I0630 03:57:10.780318  1435 net.cpp:122] Setting up res4a_branch2a_relu
I0630 03:57:10.780339  1435 net.cpp:129] Top shape: 8 256 14 14 (401408)
I0630 03:57:10.780342  1435 net.cpp:137] Memory required for data: 1424195744
I0630 03:57:10.780346  1435 layer_factory.hpp:77] Creating layer res4a_branch2b
I0630 03:57:10.780369  1435 net.cpp:84] Creating Layer res4a_branch2b
I0630 03:57:10.780374  1435 net.cpp:406] res4a_branch2b <- res4a_branch2a
I0630 03:57:10.780380  1435 net.cpp:380] res4a_branch2b -> res4a_branch2b
I0630 03:57:10.782894  1435 net.cpp:122] Setting up res4a_branch2b
I0630 03:57:10.782915  1435 net.cpp:129] Top shape: 8 256 14 14 (401408)
I0630 03:57:10.782919  1435 net.cpp:137] Memory required for data: 1425801376
I0630 03:57:10.782925  1435 layer_factory.hpp:77] Creating layer bn4a_branch2b
I0630 03:57:10.782937  1435 net.cpp:84] Creating Layer bn4a_branch2b
I0630 03:57:10.782941  1435 net.cpp:406] bn4a_branch2b <- res4a_branch2b
I0630 03:57:10.782946  1435 net.cpp:367] bn4a_branch2b -> res4a_branch2b (in-place)
I0630 03:57:10.783179  1435 net.cpp:122] Setting up bn4a_branch2b
I0630 03:57:10.783195  1435 net.cpp:129] Top shape: 8 256 14 14 (401408)
I0630 03:57:10.783200  1435 net.cpp:137] Memory required for data: 1427407008
I0630 03:57:10.783207  1435 layer_factory.hpp:77] Creating layer scale4a_branch2b
I0630 03:57:10.783234  1435 net.cpp:84] Creating Layer scale4a_branch2b
I0630 03:57:10.783239  1435 net.cpp:406] scale4a_branch2b <- res4a_branch2b
I0630 03:57:10.783246  1435 net.cpp:367] scale4a_branch2b -> res4a_branch2b (in-place)
I0630 03:57:10.783300  1435 layer_factory.hpp:77] Creating layer scale4a_branch2b
I0630 03:57:10.783443  1435 net.cpp:122] Setting up scale4a_branch2b
I0630 03:57:10.783458  1435 net.cpp:129] Top shape: 8 256 14 14 (401408)
I0630 03:57:10.783463  1435 net.cpp:137] Memory required for data: 1429012640
I0630 03:57:10.783468  1435 layer_factory.hpp:77] Creating layer res4a_branch2b_relu
I0630 03:57:10.783479  1435 net.cpp:84] Creating Layer res4a_branch2b_relu
I0630 03:57:10.783488  1435 net.cpp:406] res4a_branch2b_relu <- res4a_branch2b
I0630 03:57:10.783494  1435 net.cpp:367] res4a_branch2b_relu -> res4a_branch2b (in-place)
I0630 03:57:10.783653  1435 net.cpp:122] Setting up res4a_branch2b_relu
I0630 03:57:10.783674  1435 net.cpp:129] Top shape: 8 256 14 14 (401408)
I0630 03:57:10.783677  1435 net.cpp:137] Memory required for data: 1430618272
I0630 03:57:10.783681  1435 layer_factory.hpp:77] Creating layer res4a_branch2c
I0630 03:57:10.783691  1435 net.cpp:84] Creating Layer res4a_branch2c
I0630 03:57:10.783695  1435 net.cpp:406] res4a_branch2c <- res4a_branch2b
I0630 03:57:10.783704  1435 net.cpp:380] res4a_branch2c -> res4a_branch2c
I0630 03:57:10.785387  1435 net.cpp:122] Setting up res4a_branch2c
I0630 03:57:10.785406  1435 net.cpp:129] Top shape: 8 1024 14 14 (1605632)
I0630 03:57:10.785410  1435 net.cpp:137] Memory required for data: 1437040800
I0630 03:57:10.785418  1435 layer_factory.hpp:77] Creating layer bn4a_branch2c
I0630 03:57:10.785425  1435 net.cpp:84] Creating Layer bn4a_branch2c
I0630 03:57:10.785430  1435 net.cpp:406] bn4a_branch2c <- res4a_branch2c
I0630 03:57:10.785439  1435 net.cpp:367] bn4a_branch2c -> res4a_branch2c (in-place)
I0630 03:57:10.785697  1435 net.cpp:122] Setting up bn4a_branch2c
I0630 03:57:10.785713  1435 net.cpp:129] Top shape: 8 1024 14 14 (1605632)
I0630 03:57:10.785717  1435 net.cpp:137] Memory required for data: 1443463328
I0630 03:57:10.785727  1435 layer_factory.hpp:77] Creating layer scale4a_branch2c
I0630 03:57:10.785734  1435 net.cpp:84] Creating Layer scale4a_branch2c
I0630 03:57:10.785738  1435 net.cpp:406] scale4a_branch2c <- res4a_branch2c
I0630 03:57:10.785743  1435 net.cpp:367] scale4a_branch2c -> res4a_branch2c (in-place)
I0630 03:57:10.785795  1435 layer_factory.hpp:77] Creating layer scale4a_branch2c
I0630 03:57:10.785964  1435 net.cpp:122] Setting up scale4a_branch2c
I0630 03:57:10.785979  1435 net.cpp:129] Top shape: 8 1024 14 14 (1605632)
I0630 03:57:10.785984  1435 net.cpp:137] Memory required for data: 1449885856
I0630 03:57:10.785989  1435 layer_factory.hpp:77] Creating layer res4a
I0630 03:57:10.785997  1435 net.cpp:84] Creating Layer res4a
I0630 03:57:10.786001  1435 net.cpp:406] res4a <- res4a_branch1
I0630 03:57:10.786006  1435 net.cpp:406] res4a <- res4a_branch2c
I0630 03:57:10.786015  1435 net.cpp:380] res4a -> res4a
I0630 03:57:10.786047  1435 net.cpp:122] Setting up res4a
I0630 03:57:10.786062  1435 net.cpp:129] Top shape: 8 1024 14 14 (1605632)
I0630 03:57:10.786065  1435 net.cpp:137] Memory required for data: 1456308384
I0630 03:57:10.786069  1435 layer_factory.hpp:77] Creating layer res4a_relu
I0630 03:57:10.786079  1435 net.cpp:84] Creating Layer res4a_relu
I0630 03:57:10.786084  1435 net.cpp:406] res4a_relu <- res4a
I0630 03:57:10.786089  1435 net.cpp:367] res4a_relu -> res4a (in-place)
I0630 03:57:10.786370  1435 net.cpp:122] Setting up res4a_relu
I0630 03:57:10.786389  1435 net.cpp:129] Top shape: 8 1024 14 14 (1605632)
I0630 03:57:10.786393  1435 net.cpp:137] Memory required for data: 1462730912
I0630 03:57:10.786397  1435 layer_factory.hpp:77] Creating layer res4a_res4a_relu_0_split
I0630 03:57:10.786424  1435 net.cpp:84] Creating Layer res4a_res4a_relu_0_split
I0630 03:57:10.786435  1435 net.cpp:406] res4a_res4a_relu_0_split <- res4a
I0630 03:57:10.786442  1435 net.cpp:380] res4a_res4a_relu_0_split -> res4a_res4a_relu_0_split_0
I0630 03:57:10.786471  1435 net.cpp:380] res4a_res4a_relu_0_split -> res4a_res4a_relu_0_split_1
I0630 03:57:10.786527  1435 net.cpp:122] Setting up res4a_res4a_relu_0_split
I0630 03:57:10.786542  1435 net.cpp:129] Top shape: 8 1024 14 14 (1605632)
I0630 03:57:10.786547  1435 net.cpp:129] Top shape: 8 1024 14 14 (1605632)
I0630 03:57:10.786551  1435 net.cpp:137] Memory required for data: 1475575968
I0630 03:57:10.786556  1435 layer_factory.hpp:77] Creating layer res4b_branch2a
I0630 03:57:10.786567  1435 net.cpp:84] Creating Layer res4b_branch2a
I0630 03:57:10.786572  1435 net.cpp:406] res4b_branch2a <- res4a_res4a_relu_0_split_0
I0630 03:57:10.786581  1435 net.cpp:380] res4b_branch2a -> res4b_branch2a
I0630 03:57:10.788305  1435 net.cpp:122] Setting up res4b_branch2a
I0630 03:57:10.788327  1435 net.cpp:129] Top shape: 8 256 14 14 (401408)
I0630 03:57:10.788332  1435 net.cpp:137] Memory required for data: 1477181600
I0630 03:57:10.788338  1435 layer_factory.hpp:77] Creating layer bn4b_branch2a
I0630 03:57:10.788347  1435 net.cpp:84] Creating Layer bn4b_branch2a
I0630 03:57:10.788353  1435 net.cpp:406] bn4b_branch2a <- res4b_branch2a
I0630 03:57:10.788359  1435 net.cpp:367] bn4b_branch2a -> res4b_branch2a (in-place)
I0630 03:57:10.788589  1435 net.cpp:122] Setting up bn4b_branch2a
I0630 03:57:10.788604  1435 net.cpp:129] Top shape: 8 256 14 14 (401408)
I0630 03:57:10.788609  1435 net.cpp:137] Memory required for data: 1478787232
I0630 03:57:10.788617  1435 layer_factory.hpp:77] Creating layer scale4b_branch2a
I0630 03:57:10.788628  1435 net.cpp:84] Creating Layer scale4b_branch2a
I0630 03:57:10.788635  1435 net.cpp:406] scale4b_branch2a <- res4b_branch2a
I0630 03:57:10.788640  1435 net.cpp:367] scale4b_branch2a -> res4b_branch2a (in-place)
I0630 03:57:10.788694  1435 layer_factory.hpp:77] Creating layer scale4b_branch2a
I0630 03:57:10.788848  1435 net.cpp:122] Setting up scale4b_branch2a
I0630 03:57:10.788863  1435 net.cpp:129] Top shape: 8 256 14 14 (401408)
I0630 03:57:10.788867  1435 net.cpp:137] Memory required for data: 1480392864
I0630 03:57:10.788874  1435 layer_factory.hpp:77] Creating layer res4b_branch2a_relu
I0630 03:57:10.788882  1435 net.cpp:84] Creating Layer res4b_branch2a_relu
I0630 03:57:10.788885  1435 net.cpp:406] res4b_branch2a_relu <- res4b_branch2a
I0630 03:57:10.788893  1435 net.cpp:367] res4b_branch2a_relu -> res4b_branch2a (in-place)
I0630 03:57:10.789055  1435 net.cpp:122] Setting up res4b_branch2a_relu
I0630 03:57:10.789072  1435 net.cpp:129] Top shape: 8 256 14 14 (401408)
I0630 03:57:10.789077  1435 net.cpp:137] Memory required for data: 1481998496
I0630 03:57:10.789080  1435 layer_factory.hpp:77] Creating layer res4b_branch2b
I0630 03:57:10.789093  1435 net.cpp:84] Creating Layer res4b_branch2b
I0630 03:57:10.789098  1435 net.cpp:406] res4b_branch2b <- res4b_branch2a
I0630 03:57:10.789106  1435 net.cpp:380] res4b_branch2b -> res4b_branch2b
I0630 03:57:10.791667  1435 net.cpp:122] Setting up res4b_branch2b
I0630 03:57:10.791688  1435 net.cpp:129] Top shape: 8 256 14 14 (401408)
I0630 03:57:10.791693  1435 net.cpp:137] Memory required for data: 1483604128
I0630 03:57:10.791699  1435 layer_factory.hpp:77] Creating layer bn4b_branch2b
I0630 03:57:10.791707  1435 net.cpp:84] Creating Layer bn4b_branch2b
I0630 03:57:10.791712  1435 net.cpp:406] bn4b_branch2b <- res4b_branch2b
I0630 03:57:10.791718  1435 net.cpp:367] bn4b_branch2b -> res4b_branch2b (in-place)
I0630 03:57:10.791955  1435 net.cpp:122] Setting up bn4b_branch2b
I0630 03:57:10.791970  1435 net.cpp:129] Top shape: 8 256 14 14 (401408)
I0630 03:57:10.791975  1435 net.cpp:137] Memory required for data: 1485209760
I0630 03:57:10.791983  1435 layer_factory.hpp:77] Creating layer scale4b_branch2b
I0630 03:57:10.791991  1435 net.cpp:84] Creating Layer scale4b_branch2b
I0630 03:57:10.791996  1435 net.cpp:406] scale4b_branch2b <- res4b_branch2b
I0630 03:57:10.792004  1435 net.cpp:367] scale4b_branch2b -> res4b_branch2b (in-place)
I0630 03:57:10.792059  1435 layer_factory.hpp:77] Creating layer scale4b_branch2b
I0630 03:57:10.792204  1435 net.cpp:122] Setting up scale4b_branch2b
I0630 03:57:10.792232  1435 net.cpp:129] Top shape: 8 256 14 14 (401408)
I0630 03:57:10.792237  1435 net.cpp:137] Memory required for data: 1486815392
I0630 03:57:10.792244  1435 layer_factory.hpp:77] Creating layer res4b_branch2b_relu
I0630 03:57:10.792254  1435 net.cpp:84] Creating Layer res4b_branch2b_relu
I0630 03:57:10.792261  1435 net.cpp:406] res4b_branch2b_relu <- res4b_branch2b
I0630 03:57:10.792268  1435 net.cpp:367] res4b_branch2b_relu -> res4b_branch2b (in-place)
I0630 03:57:10.792434  1435 net.cpp:122] Setting up res4b_branch2b_relu
I0630 03:57:10.792451  1435 net.cpp:129] Top shape: 8 256 14 14 (401408)
I0630 03:57:10.792455  1435 net.cpp:137] Memory required for data: 1488421024
I0630 03:57:10.792459  1435 layer_factory.hpp:77] Creating layer res4b_branch2c
I0630 03:57:10.792474  1435 net.cpp:84] Creating Layer res4b_branch2c
I0630 03:57:10.792477  1435 net.cpp:406] res4b_branch2c <- res4b_branch2b
I0630 03:57:10.792484  1435 net.cpp:380] res4b_branch2c -> res4b_branch2c
I0630 03:57:10.794100  1435 net.cpp:122] Setting up res4b_branch2c
I0630 03:57:10.794121  1435 net.cpp:129] Top shape: 8 1024 14 14 (1605632)
I0630 03:57:10.794124  1435 net.cpp:137] Memory required for data: 1494843552
I0630 03:57:10.794131  1435 layer_factory.hpp:77] Creating layer bn4b_branch2c
I0630 03:57:10.794142  1435 net.cpp:84] Creating Layer bn4b_branch2c
I0630 03:57:10.794147  1435 net.cpp:406] bn4b_branch2c <- res4b_branch2c
I0630 03:57:10.794154  1435 net.cpp:367] bn4b_branch2c -> res4b_branch2c (in-place)
I0630 03:57:10.794391  1435 net.cpp:122] Setting up bn4b_branch2c
I0630 03:57:10.794407  1435 net.cpp:129] Top shape: 8 1024 14 14 (1605632)
I0630 03:57:10.794411  1435 net.cpp:137] Memory required for data: 1501266080
I0630 03:57:10.794420  1435 layer_factory.hpp:77] Creating layer scale4b_branch2c
I0630 03:57:10.794427  1435 net.cpp:84] Creating Layer scale4b_branch2c
I0630 03:57:10.794431  1435 net.cpp:406] scale4b_branch2c <- res4b_branch2c
I0630 03:57:10.794440  1435 net.cpp:367] scale4b_branch2c -> res4b_branch2c (in-place)
I0630 03:57:10.794488  1435 layer_factory.hpp:77] Creating layer scale4b_branch2c
I0630 03:57:10.794643  1435 net.cpp:122] Setting up scale4b_branch2c
I0630 03:57:10.794659  1435 net.cpp:129] Top shape: 8 1024 14 14 (1605632)
I0630 03:57:10.794663  1435 net.cpp:137] Memory required for data: 1507688608
I0630 03:57:10.794670  1435 layer_factory.hpp:77] Creating layer res4b
I0630 03:57:10.794677  1435 net.cpp:84] Creating Layer res4b
I0630 03:57:10.794682  1435 net.cpp:406] res4b <- res4a_res4a_relu_0_split_1
I0630 03:57:10.794687  1435 net.cpp:406] res4b <- res4b_branch2c
I0630 03:57:10.794692  1435 net.cpp:380] res4b -> res4b
I0630 03:57:10.794740  1435 net.cpp:122] Setting up res4b
I0630 03:57:10.794756  1435 net.cpp:129] Top shape: 8 1024 14 14 (1605632)
I0630 03:57:10.794760  1435 net.cpp:137] Memory required for data: 1514111136
I0630 03:57:10.794764  1435 layer_factory.hpp:77] Creating layer res4b_relu
I0630 03:57:10.794770  1435 net.cpp:84] Creating Layer res4b_relu
I0630 03:57:10.794775  1435 net.cpp:406] res4b_relu <- res4b
I0630 03:57:10.794782  1435 net.cpp:367] res4b_relu -> res4b (in-place)
I0630 03:57:10.795058  1435 net.cpp:122] Setting up res4b_relu
I0630 03:57:10.795078  1435 net.cpp:129] Top shape: 8 1024 14 14 (1605632)
I0630 03:57:10.795081  1435 net.cpp:137] Memory required for data: 1520533664
I0630 03:57:10.795085  1435 layer_factory.hpp:77] Creating layer res4b_res4b_relu_0_split
I0630 03:57:10.795092  1435 net.cpp:84] Creating Layer res4b_res4b_relu_0_split
I0630 03:57:10.795097  1435 net.cpp:406] res4b_res4b_relu_0_split <- res4b
I0630 03:57:10.795104  1435 net.cpp:380] res4b_res4b_relu_0_split -> res4b_res4b_relu_0_split_0
I0630 03:57:10.795110  1435 net.cpp:380] res4b_res4b_relu_0_split -> res4b_res4b_relu_0_split_1
I0630 03:57:10.795164  1435 net.cpp:122] Setting up res4b_res4b_relu_0_split
I0630 03:57:10.795178  1435 net.cpp:129] Top shape: 8 1024 14 14 (1605632)
I0630 03:57:10.795184  1435 net.cpp:129] Top shape: 8 1024 14 14 (1605632)
I0630 03:57:10.795202  1435 net.cpp:137] Memory required for data: 1533378720
I0630 03:57:10.795205  1435 layer_factory.hpp:77] Creating layer res4c_branch2a
I0630 03:57:10.795217  1435 net.cpp:84] Creating Layer res4c_branch2a
I0630 03:57:10.795224  1435 net.cpp:406] res4c_branch2a <- res4b_res4b_relu_0_split_0
I0630 03:57:10.795233  1435 net.cpp:380] res4c_branch2a -> res4c_branch2a
I0630 03:57:10.796767  1435 net.cpp:122] Setting up res4c_branch2a
I0630 03:57:10.796787  1435 net.cpp:129] Top shape: 8 256 14 14 (401408)
I0630 03:57:10.796792  1435 net.cpp:137] Memory required for data: 1534984352
I0630 03:57:10.796798  1435 layer_factory.hpp:77] Creating layer bn4c_branch2a
I0630 03:57:10.796809  1435 net.cpp:84] Creating Layer bn4c_branch2a
I0630 03:57:10.796814  1435 net.cpp:406] bn4c_branch2a <- res4c_branch2a
I0630 03:57:10.796823  1435 net.cpp:367] bn4c_branch2a -> res4c_branch2a (in-place)
I0630 03:57:10.797052  1435 net.cpp:122] Setting up bn4c_branch2a
I0630 03:57:10.797067  1435 net.cpp:129] Top shape: 8 256 14 14 (401408)
I0630 03:57:10.797071  1435 net.cpp:137] Memory required for data: 1536589984
I0630 03:57:10.797080  1435 layer_factory.hpp:77] Creating layer scale4c_branch2a
I0630 03:57:10.797089  1435 net.cpp:84] Creating Layer scale4c_branch2a
I0630 03:57:10.797094  1435 net.cpp:406] scale4c_branch2a <- res4c_branch2a
I0630 03:57:10.797099  1435 net.cpp:367] scale4c_branch2a -> res4c_branch2a (in-place)
I0630 03:57:10.797168  1435 layer_factory.hpp:77] Creating layer scale4c_branch2a
I0630 03:57:10.797323  1435 net.cpp:122] Setting up scale4c_branch2a
I0630 03:57:10.797338  1435 net.cpp:129] Top shape: 8 256 14 14 (401408)
I0630 03:57:10.797343  1435 net.cpp:137] Memory required for data: 1538195616
I0630 03:57:10.797349  1435 layer_factory.hpp:77] Creating layer res4c_branch2a_relu
I0630 03:57:10.797356  1435 net.cpp:84] Creating Layer res4c_branch2a_relu
I0630 03:57:10.797360  1435 net.cpp:406] res4c_branch2a_relu <- res4c_branch2a
I0630 03:57:10.797365  1435 net.cpp:367] res4c_branch2a_relu -> res4c_branch2a (in-place)
I0630 03:57:10.797528  1435 net.cpp:122] Setting up res4c_branch2a_relu
I0630 03:57:10.797544  1435 net.cpp:129] Top shape: 8 256 14 14 (401408)
I0630 03:57:10.797549  1435 net.cpp:137] Memory required for data: 1539801248
I0630 03:57:10.797552  1435 layer_factory.hpp:77] Creating layer res4c_branch2b
I0630 03:57:10.797564  1435 net.cpp:84] Creating Layer res4c_branch2b
I0630 03:57:10.797569  1435 net.cpp:406] res4c_branch2b <- res4c_branch2a
I0630 03:57:10.797577  1435 net.cpp:380] res4c_branch2b -> res4c_branch2b
I0630 03:57:10.799993  1435 net.cpp:122] Setting up res4c_branch2b
I0630 03:57:10.800014  1435 net.cpp:129] Top shape: 8 256 14 14 (401408)
I0630 03:57:10.800019  1435 net.cpp:137] Memory required for data: 1541406880
I0630 03:57:10.800024  1435 layer_factory.hpp:77] Creating layer bn4c_branch2b
I0630 03:57:10.800035  1435 net.cpp:84] Creating Layer bn4c_branch2b
I0630 03:57:10.800040  1435 net.cpp:406] bn4c_branch2b <- res4c_branch2b
I0630 03:57:10.800046  1435 net.cpp:367] bn4c_branch2b -> res4c_branch2b (in-place)
I0630 03:57:10.800287  1435 net.cpp:122] Setting up bn4c_branch2b
I0630 03:57:10.800302  1435 net.cpp:129] Top shape: 8 256 14 14 (401408)
I0630 03:57:10.800307  1435 net.cpp:137] Memory required for data: 1543012512
I0630 03:57:10.800315  1435 layer_factory.hpp:77] Creating layer scale4c_branch2b
I0630 03:57:10.800329  1435 net.cpp:84] Creating Layer scale4c_branch2b
I0630 03:57:10.800335  1435 net.cpp:406] scale4c_branch2b <- res4c_branch2b
I0630 03:57:10.800341  1435 net.cpp:367] scale4c_branch2b -> res4c_branch2b (in-place)
I0630 03:57:10.800397  1435 layer_factory.hpp:77] Creating layer scale4c_branch2b
I0630 03:57:10.800549  1435 net.cpp:122] Setting up scale4c_branch2b
I0630 03:57:10.800565  1435 net.cpp:129] Top shape: 8 256 14 14 (401408)
I0630 03:57:10.800568  1435 net.cpp:137] Memory required for data: 1544618144
I0630 03:57:10.800575  1435 layer_factory.hpp:77] Creating layer res4c_branch2b_relu
I0630 03:57:10.800582  1435 net.cpp:84] Creating Layer res4c_branch2b_relu
I0630 03:57:10.800601  1435 net.cpp:406] res4c_branch2b_relu <- res4c_branch2b
I0630 03:57:10.800611  1435 net.cpp:367] res4c_branch2b_relu -> res4c_branch2b (in-place)
I0630 03:57:10.800773  1435 net.cpp:122] Setting up res4c_branch2b_relu
I0630 03:57:10.800791  1435 net.cpp:129] Top shape: 8 256 14 14 (401408)
I0630 03:57:10.800794  1435 net.cpp:137] Memory required for data: 1546223776
I0630 03:57:10.800801  1435 layer_factory.hpp:77] Creating layer res4c_branch2c
I0630 03:57:10.800817  1435 net.cpp:84] Creating Layer res4c_branch2c
I0630 03:57:10.800822  1435 net.cpp:406] res4c_branch2c <- res4c_branch2b
I0630 03:57:10.800828  1435 net.cpp:380] res4c_branch2c -> res4c_branch2c
I0630 03:57:10.802574  1435 net.cpp:122] Setting up res4c_branch2c
I0630 03:57:10.802594  1435 net.cpp:129] Top shape: 8 1024 14 14 (1605632)
I0630 03:57:10.802599  1435 net.cpp:137] Memory required for data: 1552646304
I0630 03:57:10.802605  1435 layer_factory.hpp:77] Creating layer bn4c_branch2c
I0630 03:57:10.802616  1435 net.cpp:84] Creating Layer bn4c_branch2c
I0630 03:57:10.802623  1435 net.cpp:406] bn4c_branch2c <- res4c_branch2c
I0630 03:57:10.802628  1435 net.cpp:367] bn4c_branch2c -> res4c_branch2c (in-place)
I0630 03:57:10.802875  1435 net.cpp:122] Setting up bn4c_branch2c
I0630 03:57:10.802891  1435 net.cpp:129] Top shape: 8 1024 14 14 (1605632)
I0630 03:57:10.802894  1435 net.cpp:137] Memory required for data: 1559068832
I0630 03:57:10.802906  1435 layer_factory.hpp:77] Creating layer scale4c_branch2c
I0630 03:57:10.802914  1435 net.cpp:84] Creating Layer scale4c_branch2c
I0630 03:57:10.802919  1435 net.cpp:406] scale4c_branch2c <- res4c_branch2c
I0630 03:57:10.802927  1435 net.cpp:367] scale4c_branch2c -> res4c_branch2c (in-place)
I0630 03:57:10.802979  1435 layer_factory.hpp:77] Creating layer scale4c_branch2c
I0630 03:57:10.803138  1435 net.cpp:122] Setting up scale4c_branch2c
I0630 03:57:10.803153  1435 net.cpp:129] Top shape: 8 1024 14 14 (1605632)
I0630 03:57:10.803158  1435 net.cpp:137] Memory required for data: 1565491360
I0630 03:57:10.803164  1435 layer_factory.hpp:77] Creating layer res4c
I0630 03:57:10.803174  1435 net.cpp:84] Creating Layer res4c
I0630 03:57:10.803179  1435 net.cpp:406] res4c <- res4b_res4b_relu_0_split_1
I0630 03:57:10.803184  1435 net.cpp:406] res4c <- res4c_branch2c
I0630 03:57:10.803189  1435 net.cpp:380] res4c -> res4c
I0630 03:57:10.803226  1435 net.cpp:122] Setting up res4c
I0630 03:57:10.803241  1435 net.cpp:129] Top shape: 8 1024 14 14 (1605632)
I0630 03:57:10.803244  1435 net.cpp:137] Memory required for data: 1571913888
I0630 03:57:10.803248  1435 layer_factory.hpp:77] Creating layer res4c_relu
I0630 03:57:10.803254  1435 net.cpp:84] Creating Layer res4c_relu
I0630 03:57:10.803258  1435 net.cpp:406] res4c_relu <- res4c
I0630 03:57:10.803269  1435 net.cpp:367] res4c_relu -> res4c (in-place)
I0630 03:57:10.803541  1435 net.cpp:122] Setting up res4c_relu
I0630 03:57:10.803560  1435 net.cpp:129] Top shape: 8 1024 14 14 (1605632)
I0630 03:57:10.803563  1435 net.cpp:137] Memory required for data: 1578336416
I0630 03:57:10.803567  1435 layer_factory.hpp:77] Creating layer res4c_res4c_relu_0_split
I0630 03:57:10.803577  1435 net.cpp:84] Creating Layer res4c_res4c_relu_0_split
I0630 03:57:10.803582  1435 net.cpp:406] res4c_res4c_relu_0_split <- res4c
I0630 03:57:10.803588  1435 net.cpp:380] res4c_res4c_relu_0_split -> res4c_res4c_relu_0_split_0
I0630 03:57:10.803596  1435 net.cpp:380] res4c_res4c_relu_0_split -> res4c_res4c_relu_0_split_1
I0630 03:57:10.803653  1435 net.cpp:122] Setting up res4c_res4c_relu_0_split
I0630 03:57:10.803668  1435 net.cpp:129] Top shape: 8 1024 14 14 (1605632)
I0630 03:57:10.803673  1435 net.cpp:129] Top shape: 8 1024 14 14 (1605632)
I0630 03:57:10.803676  1435 net.cpp:137] Memory required for data: 1591181472
I0630 03:57:10.803680  1435 layer_factory.hpp:77] Creating layer res4d_branch2a
I0630 03:57:10.803692  1435 net.cpp:84] Creating Layer res4d_branch2a
I0630 03:57:10.803697  1435 net.cpp:406] res4d_branch2a <- res4c_res4c_relu_0_split_0
I0630 03:57:10.803725  1435 net.cpp:380] res4d_branch2a -> res4d_branch2a
I0630 03:57:10.805444  1435 net.cpp:122] Setting up res4d_branch2a
I0630 03:57:10.805464  1435 net.cpp:129] Top shape: 8 256 14 14 (401408)
I0630 03:57:10.805467  1435 net.cpp:137] Memory required for data: 1592787104
I0630 03:57:10.805474  1435 layer_factory.hpp:77] Creating layer bn4d_branch2a
I0630 03:57:10.805485  1435 net.cpp:84] Creating Layer bn4d_branch2a
I0630 03:57:10.805490  1435 net.cpp:406] bn4d_branch2a <- res4d_branch2a
I0630 03:57:10.805498  1435 net.cpp:367] bn4d_branch2a -> res4d_branch2a (in-place)
I0630 03:57:10.805747  1435 net.cpp:122] Setting up bn4d_branch2a
I0630 03:57:10.805763  1435 net.cpp:129] Top shape: 8 256 14 14 (401408)
I0630 03:57:10.805768  1435 net.cpp:137] Memory required for data: 1594392736
I0630 03:57:10.805775  1435 layer_factory.hpp:77] Creating layer scale4d_branch2a
I0630 03:57:10.805786  1435 net.cpp:84] Creating Layer scale4d_branch2a
I0630 03:57:10.805793  1435 net.cpp:406] scale4d_branch2a <- res4d_branch2a
I0630 03:57:10.805799  1435 net.cpp:367] scale4d_branch2a -> res4d_branch2a (in-place)
I0630 03:57:10.805857  1435 layer_factory.hpp:77] Creating layer scale4d_branch2a
I0630 03:57:10.806031  1435 net.cpp:122] Setting up scale4d_branch2a
I0630 03:57:10.806054  1435 net.cpp:129] Top shape: 8 256 14 14 (401408)
I0630 03:57:10.806058  1435 net.cpp:137] Memory required for data: 1595998368
I0630 03:57:10.806066  1435 layer_factory.hpp:77] Creating layer res4d_branch2a_relu
I0630 03:57:10.806072  1435 net.cpp:84] Creating Layer res4d_branch2a_relu
I0630 03:57:10.806077  1435 net.cpp:406] res4d_branch2a_relu <- res4d_branch2a
I0630 03:57:10.806082  1435 net.cpp:367] res4d_branch2a_relu -> res4d_branch2a (in-place)
I0630 03:57:10.806251  1435 net.cpp:122] Setting up res4d_branch2a_relu
I0630 03:57:10.806267  1435 net.cpp:129] Top shape: 8 256 14 14 (401408)
I0630 03:57:10.806272  1435 net.cpp:137] Memory required for data: 1597604000
I0630 03:57:10.806277  1435 layer_factory.hpp:77] Creating layer res4d_branch2b
I0630 03:57:10.806288  1435 net.cpp:84] Creating Layer res4d_branch2b
I0630 03:57:10.806293  1435 net.cpp:406] res4d_branch2b <- res4d_branch2a
I0630 03:57:10.806303  1435 net.cpp:380] res4d_branch2b -> res4d_branch2b
I0630 03:57:10.808830  1435 net.cpp:122] Setting up res4d_branch2b
I0630 03:57:10.808851  1435 net.cpp:129] Top shape: 8 256 14 14 (401408)
I0630 03:57:10.808854  1435 net.cpp:137] Memory required for data: 1599209632
I0630 03:57:10.808861  1435 layer_factory.hpp:77] Creating layer bn4d_branch2b
I0630 03:57:10.808871  1435 net.cpp:84] Creating Layer bn4d_branch2b
I0630 03:57:10.808876  1435 net.cpp:406] bn4d_branch2b <- res4d_branch2b
I0630 03:57:10.808882  1435 net.cpp:367] bn4d_branch2b -> res4d_branch2b (in-place)
I0630 03:57:10.809132  1435 net.cpp:122] Setting up bn4d_branch2b
I0630 03:57:10.809147  1435 net.cpp:129] Top shape: 8 256 14 14 (401408)
I0630 03:57:10.809151  1435 net.cpp:137] Memory required for data: 1600815264
I0630 03:57:10.809160  1435 layer_factory.hpp:77] Creating layer scale4d_branch2b
I0630 03:57:10.809168  1435 net.cpp:84] Creating Layer scale4d_branch2b
I0630 03:57:10.809172  1435 net.cpp:406] scale4d_branch2b <- res4d_branch2b
I0630 03:57:10.809177  1435 net.cpp:367] scale4d_branch2b -> res4d_branch2b (in-place)
I0630 03:57:10.809234  1435 layer_factory.hpp:77] Creating layer scale4d_branch2b
I0630 03:57:10.809391  1435 net.cpp:122] Setting up scale4d_branch2b
I0630 03:57:10.809406  1435 net.cpp:129] Top shape: 8 256 14 14 (401408)
I0630 03:57:10.809411  1435 net.cpp:137] Memory required for data: 1602420896
I0630 03:57:10.809417  1435 layer_factory.hpp:77] Creating layer res4d_branch2b_relu
I0630 03:57:10.809427  1435 net.cpp:84] Creating Layer res4d_branch2b_relu
I0630 03:57:10.809432  1435 net.cpp:406] res4d_branch2b_relu <- res4d_branch2b
I0630 03:57:10.809437  1435 net.cpp:367] res4d_branch2b_relu -> res4d_branch2b (in-place)
I0630 03:57:10.809602  1435 net.cpp:122] Setting up res4d_branch2b_relu
I0630 03:57:10.809622  1435 net.cpp:129] Top shape: 8 256 14 14 (401408)
I0630 03:57:10.809645  1435 net.cpp:137] Memory required for data: 1604026528
I0630 03:57:10.809650  1435 layer_factory.hpp:77] Creating layer res4d_branch2c
I0630 03:57:10.809660  1435 net.cpp:84] Creating Layer res4d_branch2c
I0630 03:57:10.809665  1435 net.cpp:406] res4d_branch2c <- res4d_branch2b
I0630 03:57:10.809674  1435 net.cpp:380] res4d_branch2c -> res4d_branch2c
I0630 03:57:10.811420  1435 net.cpp:122] Setting up res4d_branch2c
I0630 03:57:10.811440  1435 net.cpp:129] Top shape: 8 1024 14 14 (1605632)
I0630 03:57:10.811445  1435 net.cpp:137] Memory required for data: 1610449056
I0630 03:57:10.811451  1435 layer_factory.hpp:77] Creating layer bn4d_branch2c
I0630 03:57:10.811462  1435 net.cpp:84] Creating Layer bn4d_branch2c
I0630 03:57:10.811467  1435 net.cpp:406] bn4d_branch2c <- res4d_branch2c
I0630 03:57:10.811473  1435 net.cpp:367] bn4d_branch2c -> res4d_branch2c (in-place)
I0630 03:57:10.811728  1435 net.cpp:122] Setting up bn4d_branch2c
I0630 03:57:10.811743  1435 net.cpp:129] Top shape: 8 1024 14 14 (1605632)
I0630 03:57:10.811748  1435 net.cpp:137] Memory required for data: 1616871584
I0630 03:57:10.811756  1435 layer_factory.hpp:77] Creating layer scale4d_branch2c
I0630 03:57:10.811764  1435 net.cpp:84] Creating Layer scale4d_branch2c
I0630 03:57:10.811769  1435 net.cpp:406] scale4d_branch2c <- res4d_branch2c
I0630 03:57:10.811776  1435 net.cpp:367] scale4d_branch2c -> res4d_branch2c (in-place)
I0630 03:57:10.811828  1435 layer_factory.hpp:77] Creating layer scale4d_branch2c
I0630 03:57:10.811997  1435 net.cpp:122] Setting up scale4d_branch2c
I0630 03:57:10.812012  1435 net.cpp:129] Top shape: 8 1024 14 14 (1605632)
I0630 03:57:10.812016  1435 net.cpp:137] Memory required for data: 1623294112
I0630 03:57:10.812023  1435 layer_factory.hpp:77] Creating layer res4d
I0630 03:57:10.812033  1435 net.cpp:84] Creating Layer res4d
I0630 03:57:10.812038  1435 net.cpp:406] res4d <- res4c_res4c_relu_0_split_1
I0630 03:57:10.812043  1435 net.cpp:406] res4d <- res4d_branch2c
I0630 03:57:10.812048  1435 net.cpp:380] res4d -> res4d
I0630 03:57:10.812085  1435 net.cpp:122] Setting up res4d
I0630 03:57:10.812099  1435 net.cpp:129] Top shape: 8 1024 14 14 (1605632)
I0630 03:57:10.812103  1435 net.cpp:137] Memory required for data: 1629716640
I0630 03:57:10.812108  1435 layer_factory.hpp:77] Creating layer res4d_relu
I0630 03:57:10.812114  1435 net.cpp:84] Creating Layer res4d_relu
I0630 03:57:10.812119  1435 net.cpp:406] res4d_relu <- res4d
I0630 03:57:10.812126  1435 net.cpp:367] res4d_relu -> res4d (in-place)
I0630 03:57:10.812405  1435 net.cpp:122] Setting up res4d_relu
I0630 03:57:10.812423  1435 net.cpp:129] Top shape: 8 1024 14 14 (1605632)
I0630 03:57:10.812427  1435 net.cpp:137] Memory required for data: 1636139168
I0630 03:57:10.812432  1435 layer_factory.hpp:77] Creating layer res4d_res4d_relu_0_split
I0630 03:57:10.812441  1435 net.cpp:84] Creating Layer res4d_res4d_relu_0_split
I0630 03:57:10.812446  1435 net.cpp:406] res4d_res4d_relu_0_split <- res4d
I0630 03:57:10.812453  1435 net.cpp:380] res4d_res4d_relu_0_split -> res4d_res4d_relu_0_split_0
I0630 03:57:10.812459  1435 net.cpp:380] res4d_res4d_relu_0_split -> res4d_res4d_relu_0_split_1
I0630 03:57:10.812517  1435 net.cpp:122] Setting up res4d_res4d_relu_0_split
I0630 03:57:10.812532  1435 net.cpp:129] Top shape: 8 1024 14 14 (1605632)
I0630 03:57:10.812537  1435 net.cpp:129] Top shape: 8 1024 14 14 (1605632)
I0630 03:57:10.812541  1435 net.cpp:137] Memory required for data: 1648984224
I0630 03:57:10.812546  1435 layer_factory.hpp:77] Creating layer res4e_branch2a
I0630 03:57:10.812558  1435 net.cpp:84] Creating Layer res4e_branch2a
I0630 03:57:10.812566  1435 net.cpp:406] res4e_branch2a <- res4d_res4d_relu_0_split_0
I0630 03:57:10.812572  1435 net.cpp:380] res4e_branch2a -> res4e_branch2a
I0630 03:57:10.814328  1435 net.cpp:122] Setting up res4e_branch2a
I0630 03:57:10.814348  1435 net.cpp:129] Top shape: 8 256 14 14 (401408)
I0630 03:57:10.814353  1435 net.cpp:137] Memory required for data: 1650589856
I0630 03:57:10.814359  1435 layer_factory.hpp:77] Creating layer bn4e_branch2a
I0630 03:57:10.814385  1435 net.cpp:84] Creating Layer bn4e_branch2a
I0630 03:57:10.814393  1435 net.cpp:406] bn4e_branch2a <- res4e_branch2a
I0630 03:57:10.814399  1435 net.cpp:367] bn4e_branch2a -> res4e_branch2a (in-place)
I0630 03:57:10.814658  1435 net.cpp:122] Setting up bn4e_branch2a
I0630 03:57:10.814677  1435 net.cpp:129] Top shape: 8 256 14 14 (401408)
I0630 03:57:10.814682  1435 net.cpp:137] Memory required for data: 1652195488
I0630 03:57:10.814690  1435 layer_factory.hpp:77] Creating layer scale4e_branch2a
I0630 03:57:10.814697  1435 net.cpp:84] Creating Layer scale4e_branch2a
I0630 03:57:10.814703  1435 net.cpp:406] scale4e_branch2a <- res4e_branch2a
I0630 03:57:10.814709  1435 net.cpp:367] scale4e_branch2a -> res4e_branch2a (in-place)
I0630 03:57:10.814767  1435 layer_factory.hpp:77] Creating layer scale4e_branch2a
I0630 03:57:10.814927  1435 net.cpp:122] Setting up scale4e_branch2a
I0630 03:57:10.814942  1435 net.cpp:129] Top shape: 8 256 14 14 (401408)
I0630 03:57:10.814947  1435 net.cpp:137] Memory required for data: 1653801120
I0630 03:57:10.814954  1435 layer_factory.hpp:77] Creating layer res4e_branch2a_relu
I0630 03:57:10.814965  1435 net.cpp:84] Creating Layer res4e_branch2a_relu
I0630 03:57:10.814968  1435 net.cpp:406] res4e_branch2a_relu <- res4e_branch2a
I0630 03:57:10.814975  1435 net.cpp:367] res4e_branch2a_relu -> res4e_branch2a (in-place)
I0630 03:57:10.815145  1435 net.cpp:122] Setting up res4e_branch2a_relu
I0630 03:57:10.815161  1435 net.cpp:129] Top shape: 8 256 14 14 (401408)
I0630 03:57:10.815165  1435 net.cpp:137] Memory required for data: 1655406752
I0630 03:57:10.815170  1435 layer_factory.hpp:77] Creating layer res4e_branch2b
I0630 03:57:10.815182  1435 net.cpp:84] Creating Layer res4e_branch2b
I0630 03:57:10.815187  1435 net.cpp:406] res4e_branch2b <- res4e_branch2a
I0630 03:57:10.815193  1435 net.cpp:380] res4e_branch2b -> res4e_branch2b
I0630 03:57:10.817742  1435 net.cpp:122] Setting up res4e_branch2b
I0630 03:57:10.817764  1435 net.cpp:129] Top shape: 8 256 14 14 (401408)
I0630 03:57:10.817767  1435 net.cpp:137] Memory required for data: 1657012384
I0630 03:57:10.817773  1435 layer_factory.hpp:77] Creating layer bn4e_branch2b
I0630 03:57:10.817785  1435 net.cpp:84] Creating Layer bn4e_branch2b
I0630 03:57:10.817790  1435 net.cpp:406] bn4e_branch2b <- res4e_branch2b
I0630 03:57:10.817795  1435 net.cpp:367] bn4e_branch2b -> res4e_branch2b (in-place)
I0630 03:57:10.818084  1435 net.cpp:122] Setting up bn4e_branch2b
I0630 03:57:10.818100  1435 net.cpp:129] Top shape: 8 256 14 14 (401408)
I0630 03:57:10.818104  1435 net.cpp:137] Memory required for data: 1658618016
I0630 03:57:10.818112  1435 layer_factory.hpp:77] Creating layer scale4e_branch2b
I0630 03:57:10.818123  1435 net.cpp:84] Creating Layer scale4e_branch2b
I0630 03:57:10.818128  1435 net.cpp:406] scale4e_branch2b <- res4e_branch2b
I0630 03:57:10.818135  1435 net.cpp:367] scale4e_branch2b -> res4e_branch2b (in-place)
I0630 03:57:10.818193  1435 layer_factory.hpp:77] Creating layer scale4e_branch2b
I0630 03:57:10.818359  1435 net.cpp:122] Setting up scale4e_branch2b
I0630 03:57:10.818374  1435 net.cpp:129] Top shape: 8 256 14 14 (401408)
I0630 03:57:10.818378  1435 net.cpp:137] Memory required for data: 1660223648
I0630 03:57:10.818385  1435 layer_factory.hpp:77] Creating layer res4e_branch2b_relu
I0630 03:57:10.818392  1435 net.cpp:84] Creating Layer res4e_branch2b_relu
I0630 03:57:10.818397  1435 net.cpp:406] res4e_branch2b_relu <- res4e_branch2b
I0630 03:57:10.818404  1435 net.cpp:367] res4e_branch2b_relu -> res4e_branch2b (in-place)
I0630 03:57:10.818572  1435 net.cpp:122] Setting up res4e_branch2b_relu
I0630 03:57:10.818588  1435 net.cpp:129] Top shape: 8 256 14 14 (401408)
I0630 03:57:10.818593  1435 net.cpp:137] Memory required for data: 1661829280
I0630 03:57:10.818596  1435 layer_factory.hpp:77] Creating layer res4e_branch2c
I0630 03:57:10.818611  1435 net.cpp:84] Creating Layer res4e_branch2c
I0630 03:57:10.818617  1435 net.cpp:406] res4e_branch2c <- res4e_branch2b
I0630 03:57:10.818640  1435 net.cpp:380] res4e_branch2c -> res4e_branch2c
I0630 03:57:10.820379  1435 net.cpp:122] Setting up res4e_branch2c
I0630 03:57:10.820399  1435 net.cpp:129] Top shape: 8 1024 14 14 (1605632)
I0630 03:57:10.820403  1435 net.cpp:137] Memory required for data: 1668251808
I0630 03:57:10.820408  1435 layer_factory.hpp:77] Creating layer bn4e_branch2c
I0630 03:57:10.820420  1435 net.cpp:84] Creating Layer bn4e_branch2c
I0630 03:57:10.820425  1435 net.cpp:406] bn4e_branch2c <- res4e_branch2c
I0630 03:57:10.820430  1435 net.cpp:367] bn4e_branch2c -> res4e_branch2c (in-place)
I0630 03:57:10.820696  1435 net.cpp:122] Setting up bn4e_branch2c
I0630 03:57:10.820711  1435 net.cpp:129] Top shape: 8 1024 14 14 (1605632)
I0630 03:57:10.820715  1435 net.cpp:137] Memory required for data: 1674674336
I0630 03:57:10.820724  1435 layer_factory.hpp:77] Creating layer scale4e_branch2c
I0630 03:57:10.820732  1435 net.cpp:84] Creating Layer scale4e_branch2c
I0630 03:57:10.820736  1435 net.cpp:406] scale4e_branch2c <- res4e_branch2c
I0630 03:57:10.820742  1435 net.cpp:367] scale4e_branch2c -> res4e_branch2c (in-place)
I0630 03:57:10.820797  1435 layer_factory.hpp:77] Creating layer scale4e_branch2c
I0630 03:57:10.820967  1435 net.cpp:122] Setting up scale4e_branch2c
I0630 03:57:10.820982  1435 net.cpp:129] Top shape: 8 1024 14 14 (1605632)
I0630 03:57:10.820986  1435 net.cpp:137] Memory required for data: 1681096864
I0630 03:57:10.820994  1435 layer_factory.hpp:77] Creating layer res4e
I0630 03:57:10.821003  1435 net.cpp:84] Creating Layer res4e
I0630 03:57:10.821008  1435 net.cpp:406] res4e <- res4d_res4d_relu_0_split_1
I0630 03:57:10.821013  1435 net.cpp:406] res4e <- res4e_branch2c
I0630 03:57:10.821019  1435 net.cpp:380] res4e -> res4e
I0630 03:57:10.821058  1435 net.cpp:122] Setting up res4e
I0630 03:57:10.821071  1435 net.cpp:129] Top shape: 8 1024 14 14 (1605632)
I0630 03:57:10.821076  1435 net.cpp:137] Memory required for data: 1687519392
I0630 03:57:10.821080  1435 layer_factory.hpp:77] Creating layer res4e_relu
I0630 03:57:10.821086  1435 net.cpp:84] Creating Layer res4e_relu
I0630 03:57:10.821090  1435 net.cpp:406] res4e_relu <- res4e
I0630 03:57:10.821099  1435 net.cpp:367] res4e_relu -> res4e (in-place)
I0630 03:57:10.821375  1435 net.cpp:122] Setting up res4e_relu
I0630 03:57:10.821405  1435 net.cpp:129] Top shape: 8 1024 14 14 (1605632)
I0630 03:57:10.821410  1435 net.cpp:137] Memory required for data: 1693941920
I0630 03:57:10.821414  1435 layer_factory.hpp:77] Creating layer res4e_res4e_relu_0_split
I0630 03:57:10.821421  1435 net.cpp:84] Creating Layer res4e_res4e_relu_0_split
I0630 03:57:10.821425  1435 net.cpp:406] res4e_res4e_relu_0_split <- res4e
I0630 03:57:10.821431  1435 net.cpp:380] res4e_res4e_relu_0_split -> res4e_res4e_relu_0_split_0
I0630 03:57:10.821439  1435 net.cpp:380] res4e_res4e_relu_0_split -> res4e_res4e_relu_0_split_1
I0630 03:57:10.821496  1435 net.cpp:122] Setting up res4e_res4e_relu_0_split
I0630 03:57:10.821511  1435 net.cpp:129] Top shape: 8 1024 14 14 (1605632)
I0630 03:57:10.821516  1435 net.cpp:129] Top shape: 8 1024 14 14 (1605632)
I0630 03:57:10.821519  1435 net.cpp:137] Memory required for data: 1706786976
I0630 03:57:10.821523  1435 layer_factory.hpp:77] Creating layer res4f_branch2a
I0630 03:57:10.821535  1435 net.cpp:84] Creating Layer res4f_branch2a
I0630 03:57:10.821540  1435 net.cpp:406] res4f_branch2a <- res4e_res4e_relu_0_split_0
I0630 03:57:10.821550  1435 net.cpp:380] res4f_branch2a -> res4f_branch2a
I0630 03:57:10.823307  1435 net.cpp:122] Setting up res4f_branch2a
I0630 03:57:10.823328  1435 net.cpp:129] Top shape: 8 256 14 14 (401408)
I0630 03:57:10.823333  1435 net.cpp:137] Memory required for data: 1708392608
I0630 03:57:10.823338  1435 layer_factory.hpp:77] Creating layer bn4f_branch2a
I0630 03:57:10.823348  1435 net.cpp:84] Creating Layer bn4f_branch2a
I0630 03:57:10.823354  1435 net.cpp:406] bn4f_branch2a <- res4f_branch2a
I0630 03:57:10.823359  1435 net.cpp:367] bn4f_branch2a -> res4f_branch2a (in-place)
I0630 03:57:10.823626  1435 net.cpp:122] Setting up bn4f_branch2a
I0630 03:57:10.823655  1435 net.cpp:129] Top shape: 8 256 14 14 (401408)
I0630 03:57:10.823660  1435 net.cpp:137] Memory required for data: 1709998240
I0630 03:57:10.823670  1435 layer_factory.hpp:77] Creating layer scale4f_branch2a
I0630 03:57:10.823679  1435 net.cpp:84] Creating Layer scale4f_branch2a
I0630 03:57:10.823685  1435 net.cpp:406] scale4f_branch2a <- res4f_branch2a
I0630 03:57:10.823691  1435 net.cpp:367] scale4f_branch2a -> res4f_branch2a (in-place)
I0630 03:57:10.823752  1435 layer_factory.hpp:77] Creating layer scale4f_branch2a
I0630 03:57:10.823915  1435 net.cpp:122] Setting up scale4f_branch2a
I0630 03:57:10.823931  1435 net.cpp:129] Top shape: 8 256 14 14 (401408)
I0630 03:57:10.823935  1435 net.cpp:137] Memory required for data: 1711603872
I0630 03:57:10.823941  1435 layer_factory.hpp:77] Creating layer res4f_branch2a_relu
I0630 03:57:10.823949  1435 net.cpp:84] Creating Layer res4f_branch2a_relu
I0630 03:57:10.823953  1435 net.cpp:406] res4f_branch2a_relu <- res4f_branch2a
I0630 03:57:10.823961  1435 net.cpp:367] res4f_branch2a_relu -> res4f_branch2a (in-place)
I0630 03:57:10.824123  1435 net.cpp:122] Setting up res4f_branch2a_relu
I0630 03:57:10.824139  1435 net.cpp:129] Top shape: 8 256 14 14 (401408)
I0630 03:57:10.824143  1435 net.cpp:137] Memory required for data: 1713209504
I0630 03:57:10.824147  1435 layer_factory.hpp:77] Creating layer res4f_branch2b
I0630 03:57:10.824162  1435 net.cpp:84] Creating Layer res4f_branch2b
I0630 03:57:10.824168  1435 net.cpp:406] res4f_branch2b <- res4f_branch2a
I0630 03:57:10.824174  1435 net.cpp:380] res4f_branch2b -> res4f_branch2b
I0630 03:57:10.826411  1435 net.cpp:122] Setting up res4f_branch2b
I0630 03:57:10.826434  1435 net.cpp:129] Top shape: 8 256 14 14 (401408)
I0630 03:57:10.826438  1435 net.cpp:137] Memory required for data: 1714815136
I0630 03:57:10.826444  1435 layer_factory.hpp:77] Creating layer bn4f_branch2b
I0630 03:57:10.826455  1435 net.cpp:84] Creating Layer bn4f_branch2b
I0630 03:57:10.826460  1435 net.cpp:406] bn4f_branch2b <- res4f_branch2b
I0630 03:57:10.826467  1435 net.cpp:367] bn4f_branch2b -> res4f_branch2b (in-place)
I0630 03:57:10.826733  1435 net.cpp:122] Setting up bn4f_branch2b
I0630 03:57:10.826750  1435 net.cpp:129] Top shape: 8 256 14 14 (401408)
I0630 03:57:10.826755  1435 net.cpp:137] Memory required for data: 1716420768
I0630 03:57:10.826763  1435 layer_factory.hpp:77] Creating layer scale4f_branch2b
I0630 03:57:10.826773  1435 net.cpp:84] Creating Layer scale4f_branch2b
I0630 03:57:10.826779  1435 net.cpp:406] scale4f_branch2b <- res4f_branch2b
I0630 03:57:10.826786  1435 net.cpp:367] scale4f_branch2b -> res4f_branch2b (in-place)
I0630 03:57:10.826844  1435 layer_factory.hpp:77] Creating layer scale4f_branch2b
I0630 03:57:10.827008  1435 net.cpp:122] Setting up scale4f_branch2b
I0630 03:57:10.827023  1435 net.cpp:129] Top shape: 8 256 14 14 (401408)
I0630 03:57:10.827026  1435 net.cpp:137] Memory required for data: 1718026400
I0630 03:57:10.827033  1435 layer_factory.hpp:77] Creating layer res4f_branch2b_relu
I0630 03:57:10.827040  1435 net.cpp:84] Creating Layer res4f_branch2b_relu
I0630 03:57:10.827044  1435 net.cpp:406] res4f_branch2b_relu <- res4f_branch2b
I0630 03:57:10.827052  1435 net.cpp:367] res4f_branch2b_relu -> res4f_branch2b (in-place)
I0630 03:57:10.827216  1435 net.cpp:122] Setting up res4f_branch2b_relu
I0630 03:57:10.827241  1435 net.cpp:129] Top shape: 8 256 14 14 (401408)
I0630 03:57:10.827245  1435 net.cpp:137] Memory required for data: 1719632032
I0630 03:57:10.827250  1435 layer_factory.hpp:77] Creating layer res4f_branch2c
I0630 03:57:10.827261  1435 net.cpp:84] Creating Layer res4f_branch2c
I0630 03:57:10.827267  1435 net.cpp:406] res4f_branch2c <- res4f_branch2b
I0630 03:57:10.827275  1435 net.cpp:380] res4f_branch2c -> res4f_branch2c
I0630 03:57:10.828969  1435 net.cpp:122] Setting up res4f_branch2c
I0630 03:57:10.828989  1435 net.cpp:129] Top shape: 8 1024 14 14 (1605632)
I0630 03:57:10.828994  1435 net.cpp:137] Memory required for data: 1726054560
I0630 03:57:10.828999  1435 layer_factory.hpp:77] Creating layer bn4f_branch2c
I0630 03:57:10.829030  1435 net.cpp:84] Creating Layer bn4f_branch2c
I0630 03:57:10.829035  1435 net.cpp:406] bn4f_branch2c <- res4f_branch2c
I0630 03:57:10.829041  1435 net.cpp:367] bn4f_branch2c -> res4f_branch2c (in-place)
I0630 03:57:10.829310  1435 net.cpp:122] Setting up bn4f_branch2c
I0630 03:57:10.829325  1435 net.cpp:129] Top shape: 8 1024 14 14 (1605632)
I0630 03:57:10.829329  1435 net.cpp:137] Memory required for data: 1732477088
I0630 03:57:10.829393  1435 layer_factory.hpp:77] Creating layer scale4f_branch2c
I0630 03:57:10.829411  1435 net.cpp:84] Creating Layer scale4f_branch2c
I0630 03:57:10.829417  1435 net.cpp:406] scale4f_branch2c <- res4f_branch2c
I0630 03:57:10.829422  1435 net.cpp:367] scale4f_branch2c -> res4f_branch2c (in-place)
I0630 03:57:10.829479  1435 layer_factory.hpp:77] Creating layer scale4f_branch2c
I0630 03:57:10.829645  1435 net.cpp:122] Setting up scale4f_branch2c
I0630 03:57:10.829661  1435 net.cpp:129] Top shape: 8 1024 14 14 (1605632)
I0630 03:57:10.829665  1435 net.cpp:137] Memory required for data: 1738899616
I0630 03:57:10.829672  1435 layer_factory.hpp:77] Creating layer res4f
I0630 03:57:10.829682  1435 net.cpp:84] Creating Layer res4f
I0630 03:57:10.829686  1435 net.cpp:406] res4f <- res4e_res4e_relu_0_split_1
I0630 03:57:10.829692  1435 net.cpp:406] res4f <- res4f_branch2c
I0630 03:57:10.829697  1435 net.cpp:380] res4f -> res4f
I0630 03:57:10.829735  1435 net.cpp:122] Setting up res4f
I0630 03:57:10.829751  1435 net.cpp:129] Top shape: 8 1024 14 14 (1605632)
I0630 03:57:10.829754  1435 net.cpp:137] Memory required for data: 1745322144
I0630 03:57:10.829758  1435 layer_factory.hpp:77] Creating layer res4f_relu
I0630 03:57:10.829766  1435 net.cpp:84] Creating Layer res4f_relu
I0630 03:57:10.829769  1435 net.cpp:406] res4f_relu <- res4f
I0630 03:57:10.829782  1435 net.cpp:367] res4f_relu -> res4f (in-place)
I0630 03:57:10.830083  1435 net.cpp:122] Setting up res4f_relu
I0630 03:57:10.830102  1435 net.cpp:129] Top shape: 8 1024 14 14 (1605632)
I0630 03:57:10.830106  1435 net.cpp:137] Memory required for data: 1751744672
I0630 03:57:10.830111  1435 layer_factory.hpp:77] Creating layer res4f_res4f_relu_0_split
I0630 03:57:10.830121  1435 net.cpp:84] Creating Layer res4f_res4f_relu_0_split
I0630 03:57:10.830126  1435 net.cpp:406] res4f_res4f_relu_0_split <- res4f
I0630 03:57:10.830132  1435 net.cpp:380] res4f_res4f_relu_0_split -> res4f_res4f_relu_0_split_0
I0630 03:57:10.830139  1435 net.cpp:380] res4f_res4f_relu_0_split -> res4f_res4f_relu_0_split_1
I0630 03:57:10.830199  1435 net.cpp:122] Setting up res4f_res4f_relu_0_split
I0630 03:57:10.830214  1435 net.cpp:129] Top shape: 8 1024 14 14 (1605632)
I0630 03:57:10.830220  1435 net.cpp:129] Top shape: 8 1024 14 14 (1605632)
I0630 03:57:10.830224  1435 net.cpp:137] Memory required for data: 1764589728
I0630 03:57:10.830227  1435 layer_factory.hpp:77] Creating layer res5a_branch1
I0630 03:57:10.830240  1435 net.cpp:84] Creating Layer res5a_branch1
I0630 03:57:10.830245  1435 net.cpp:406] res5a_branch1 <- res4f_res4f_relu_0_split_0
I0630 03:57:10.830250  1435 net.cpp:380] res5a_branch1 -> res5a_branch1
I0630 03:57:10.836555  1435 net.cpp:122] Setting up res5a_branch1
I0630 03:57:10.836577  1435 net.cpp:129] Top shape: 8 2048 7 7 (802816)
I0630 03:57:10.836582  1435 net.cpp:137] Memory required for data: 1767800992
I0630 03:57:10.836588  1435 layer_factory.hpp:77] Creating layer bn5a_branch1
I0630 03:57:10.836599  1435 net.cpp:84] Creating Layer bn5a_branch1
I0630 03:57:10.836606  1435 net.cpp:406] bn5a_branch1 <- res5a_branch1
I0630 03:57:10.836611  1435 net.cpp:367] bn5a_branch1 -> res5a_branch1 (in-place)
I0630 03:57:10.836941  1435 net.cpp:122] Setting up bn5a_branch1
I0630 03:57:10.836957  1435 net.cpp:129] Top shape: 8 2048 7 7 (802816)
I0630 03:57:10.836961  1435 net.cpp:137] Memory required for data: 1771012256
I0630 03:57:10.836971  1435 layer_factory.hpp:77] Creating layer scale5a_branch1
I0630 03:57:10.836978  1435 net.cpp:84] Creating Layer scale5a_branch1
I0630 03:57:10.836983  1435 net.cpp:406] scale5a_branch1 <- res5a_branch1
I0630 03:57:10.837005  1435 net.cpp:367] scale5a_branch1 -> res5a_branch1 (in-place)
I0630 03:57:10.837069  1435 layer_factory.hpp:77] Creating layer scale5a_branch1
I0630 03:57:10.837255  1435 net.cpp:122] Setting up scale5a_branch1
I0630 03:57:10.837270  1435 net.cpp:129] Top shape: 8 2048 7 7 (802816)
I0630 03:57:10.837275  1435 net.cpp:137] Memory required for data: 1774223520
I0630 03:57:10.837281  1435 layer_factory.hpp:77] Creating layer res5a_branch2a
I0630 03:57:10.837301  1435 net.cpp:84] Creating Layer res5a_branch2a
I0630 03:57:10.837311  1435 net.cpp:406] res5a_branch2a <- res4f_res4f_relu_0_split_1
I0630 03:57:10.837317  1435 net.cpp:380] res5a_branch2a -> res5a_branch2a
I0630 03:57:10.839622  1435 net.cpp:122] Setting up res5a_branch2a
I0630 03:57:10.839642  1435 net.cpp:129] Top shape: 8 512 7 7 (200704)
I0630 03:57:10.839645  1435 net.cpp:137] Memory required for data: 1775026336
I0630 03:57:10.839653  1435 layer_factory.hpp:77] Creating layer bn5a_branch2a
I0630 03:57:10.839665  1435 net.cpp:84] Creating Layer bn5a_branch2a
I0630 03:57:10.839673  1435 net.cpp:406] bn5a_branch2a <- res5a_branch2a
I0630 03:57:10.839679  1435 net.cpp:367] bn5a_branch2a -> res5a_branch2a (in-place)
I0630 03:57:10.839954  1435 net.cpp:122] Setting up bn5a_branch2a
I0630 03:57:10.839970  1435 net.cpp:129] Top shape: 8 512 7 7 (200704)
I0630 03:57:10.839974  1435 net.cpp:137] Memory required for data: 1775829152
I0630 03:57:10.839982  1435 layer_factory.hpp:77] Creating layer scale5a_branch2a
I0630 03:57:10.839990  1435 net.cpp:84] Creating Layer scale5a_branch2a
I0630 03:57:10.839994  1435 net.cpp:406] scale5a_branch2a <- res5a_branch2a
I0630 03:57:10.840003  1435 net.cpp:367] scale5a_branch2a -> res5a_branch2a (in-place)
I0630 03:57:10.840057  1435 layer_factory.hpp:77] Creating layer scale5a_branch2a
I0630 03:57:10.840232  1435 net.cpp:122] Setting up scale5a_branch2a
I0630 03:57:10.840250  1435 net.cpp:129] Top shape: 8 512 7 7 (200704)
I0630 03:57:10.840255  1435 net.cpp:137] Memory required for data: 1776631968
I0630 03:57:10.840261  1435 layer_factory.hpp:77] Creating layer res5a_branch2a_relu
I0630 03:57:10.840268  1435 net.cpp:84] Creating Layer res5a_branch2a_relu
I0630 03:57:10.840272  1435 net.cpp:406] res5a_branch2a_relu <- res5a_branch2a
I0630 03:57:10.840277  1435 net.cpp:367] res5a_branch2a_relu -> res5a_branch2a (in-place)
I0630 03:57:10.840572  1435 net.cpp:122] Setting up res5a_branch2a_relu
I0630 03:57:10.840590  1435 net.cpp:129] Top shape: 8 512 7 7 (200704)
I0630 03:57:10.840595  1435 net.cpp:137] Memory required for data: 1777434784
I0630 03:57:10.840600  1435 layer_factory.hpp:77] Creating layer res5a_branch2b
I0630 03:57:10.840613  1435 net.cpp:84] Creating Layer res5a_branch2b
I0630 03:57:10.840620  1435 net.cpp:406] res5a_branch2b <- res5a_branch2a
I0630 03:57:10.840626  1435 net.cpp:380] res5a_branch2b -> res5a_branch2b
I0630 03:57:10.847218  1435 net.cpp:122] Setting up res5a_branch2b
I0630 03:57:10.847252  1435 net.cpp:129] Top shape: 8 512 7 7 (200704)
I0630 03:57:10.847256  1435 net.cpp:137] Memory required for data: 1778237600
I0630 03:57:10.847263  1435 layer_factory.hpp:77] Creating layer bn5a_branch2b
I0630 03:57:10.847275  1435 net.cpp:84] Creating Layer bn5a_branch2b
I0630 03:57:10.847281  1435 net.cpp:406] bn5a_branch2b <- res5a_branch2b
I0630 03:57:10.847287  1435 net.cpp:367] bn5a_branch2b -> res5a_branch2b (in-place)
I0630 03:57:10.847569  1435 net.cpp:122] Setting up bn5a_branch2b
I0630 03:57:10.847585  1435 net.cpp:129] Top shape: 8 512 7 7 (200704)
I0630 03:57:10.847589  1435 net.cpp:137] Memory required for data: 1779040416
I0630 03:57:10.847600  1435 layer_factory.hpp:77] Creating layer scale5a_branch2b
I0630 03:57:10.847609  1435 net.cpp:84] Creating Layer scale5a_branch2b
I0630 03:57:10.847616  1435 net.cpp:406] scale5a_branch2b <- res5a_branch2b
I0630 03:57:10.847622  1435 net.cpp:367] scale5a_branch2b -> res5a_branch2b (in-place)
I0630 03:57:10.847687  1435 layer_factory.hpp:77] Creating layer scale5a_branch2b
I0630 03:57:10.847863  1435 net.cpp:122] Setting up scale5a_branch2b
I0630 03:57:10.847893  1435 net.cpp:129] Top shape: 8 512 7 7 (200704)
I0630 03:57:10.847898  1435 net.cpp:137] Memory required for data: 1779843232
I0630 03:57:10.847904  1435 layer_factory.hpp:77] Creating layer res5a_branch2b_relu
I0630 03:57:10.847918  1435 net.cpp:84] Creating Layer res5a_branch2b_relu
I0630 03:57:10.847923  1435 net.cpp:406] res5a_branch2b_relu <- res5a_branch2b
I0630 03:57:10.847929  1435 net.cpp:367] res5a_branch2b_relu -> res5a_branch2b (in-place)
I0630 03:57:10.848100  1435 net.cpp:122] Setting up res5a_branch2b_relu
I0630 03:57:10.848120  1435 net.cpp:129] Top shape: 8 512 7 7 (200704)
I0630 03:57:10.848124  1435 net.cpp:137] Memory required for data: 1780646048
I0630 03:57:10.848129  1435 layer_factory.hpp:77] Creating layer res5a_branch2c
I0630 03:57:10.848141  1435 net.cpp:84] Creating Layer res5a_branch2c
I0630 03:57:10.848148  1435 net.cpp:406] res5a_branch2c <- res5a_branch2b
I0630 03:57:10.848155  1435 net.cpp:380] res5a_branch2c -> res5a_branch2c
I0630 03:57:10.851898  1435 net.cpp:122] Setting up res5a_branch2c
I0630 03:57:10.851932  1435 net.cpp:129] Top shape: 8 2048 7 7 (802816)
I0630 03:57:10.851936  1435 net.cpp:137] Memory required for data: 1783857312
I0630 03:57:10.851943  1435 layer_factory.hpp:77] Creating layer bn5a_branch2c
I0630 03:57:10.851951  1435 net.cpp:84] Creating Layer bn5a_branch2c
I0630 03:57:10.851956  1435 net.cpp:406] bn5a_branch2c <- res5a_branch2c
I0630 03:57:10.851963  1435 net.cpp:367] bn5a_branch2c -> res5a_branch2c (in-place)
I0630 03:57:10.852269  1435 net.cpp:122] Setting up bn5a_branch2c
I0630 03:57:10.852285  1435 net.cpp:129] Top shape: 8 2048 7 7 (802816)
I0630 03:57:10.852290  1435 net.cpp:137] Memory required for data: 1787068576
I0630 03:57:10.852298  1435 layer_factory.hpp:77] Creating layer scale5a_branch2c
I0630 03:57:10.852306  1435 net.cpp:84] Creating Layer scale5a_branch2c
I0630 03:57:10.852310  1435 net.cpp:406] scale5a_branch2c <- res5a_branch2c
I0630 03:57:10.852316  1435 net.cpp:367] scale5a_branch2c -> res5a_branch2c (in-place)
I0630 03:57:10.852377  1435 layer_factory.hpp:77] Creating layer scale5a_branch2c
I0630 03:57:10.852572  1435 net.cpp:122] Setting up scale5a_branch2c
I0630 03:57:10.852599  1435 net.cpp:129] Top shape: 8 2048 7 7 (802816)
I0630 03:57:10.852603  1435 net.cpp:137] Memory required for data: 1790279840
I0630 03:57:10.852610  1435 layer_factory.hpp:77] Creating layer res5a
I0630 03:57:10.852622  1435 net.cpp:84] Creating Layer res5a
I0630 03:57:10.852625  1435 net.cpp:406] res5a <- res5a_branch1
I0630 03:57:10.852630  1435 net.cpp:406] res5a <- res5a_branch2c
I0630 03:57:10.852635  1435 net.cpp:380] res5a -> res5a
I0630 03:57:10.852677  1435 net.cpp:122] Setting up res5a
I0630 03:57:10.852692  1435 net.cpp:129] Top shape: 8 2048 7 7 (802816)
I0630 03:57:10.852696  1435 net.cpp:137] Memory required for data: 1793491104
I0630 03:57:10.852700  1435 layer_factory.hpp:77] Creating layer res5a_relu
I0630 03:57:10.852716  1435 net.cpp:84] Creating Layer res5a_relu
I0630 03:57:10.852720  1435 net.cpp:406] res5a_relu <- res5a
I0630 03:57:10.852730  1435 net.cpp:367] res5a_relu -> res5a (in-place)
I0630 03:57:10.853018  1435 net.cpp:122] Setting up res5a_relu
I0630 03:57:10.853037  1435 net.cpp:129] Top shape: 8 2048 7 7 (802816)
I0630 03:57:10.853042  1435 net.cpp:137] Memory required for data: 1796702368
I0630 03:57:10.853051  1435 layer_factory.hpp:77] Creating layer res5a_res5a_relu_0_split
I0630 03:57:10.853060  1435 net.cpp:84] Creating Layer res5a_res5a_relu_0_split
I0630 03:57:10.853066  1435 net.cpp:406] res5a_res5a_relu_0_split <- res5a
I0630 03:57:10.853072  1435 net.cpp:380] res5a_res5a_relu_0_split -> res5a_res5a_relu_0_split_0
I0630 03:57:10.853080  1435 net.cpp:380] res5a_res5a_relu_0_split -> res5a_res5a_relu_0_split_1
I0630 03:57:10.853142  1435 net.cpp:122] Setting up res5a_res5a_relu_0_split
I0630 03:57:10.853157  1435 net.cpp:129] Top shape: 8 2048 7 7 (802816)
I0630 03:57:10.853162  1435 net.cpp:129] Top shape: 8 2048 7 7 (802816)
I0630 03:57:10.853164  1435 net.cpp:137] Memory required for data: 1803124896
I0630 03:57:10.853184  1435 layer_factory.hpp:77] Creating layer my_res5b_branch2a
I0630 03:57:10.853199  1435 net.cpp:84] Creating Layer my_res5b_branch2a
I0630 03:57:10.853204  1435 net.cpp:406] my_res5b_branch2a <- res5a_res5a_relu_0_split_0
I0630 03:57:10.853214  1435 net.cpp:380] my_res5b_branch2a -> my_res5b_branch2a
I0630 03:57:10.856957  1435 net.cpp:122] Setting up my_res5b_branch2a
I0630 03:57:10.856979  1435 net.cpp:129] Top shape: 8 512 7 7 (200704)
I0630 03:57:10.856984  1435 net.cpp:137] Memory required for data: 1803927712
I0630 03:57:10.856990  1435 layer_factory.hpp:77] Creating layer my_bn5b_branch2a
I0630 03:57:10.857002  1435 net.cpp:84] Creating Layer my_bn5b_branch2a
I0630 03:57:10.857007  1435 net.cpp:406] my_bn5b_branch2a <- my_res5b_branch2a
I0630 03:57:10.857012  1435 net.cpp:367] my_bn5b_branch2a -> my_res5b_branch2a (in-place)
I0630 03:57:10.857311  1435 net.cpp:122] Setting up my_bn5b_branch2a
I0630 03:57:10.857327  1435 net.cpp:129] Top shape: 8 512 7 7 (200704)
I0630 03:57:10.857332  1435 net.cpp:137] Memory required for data: 1804730528
I0630 03:57:10.857342  1435 layer_factory.hpp:77] Creating layer my_scale5b_branch2a
I0630 03:57:10.857350  1435 net.cpp:84] Creating Layer my_scale5b_branch2a
I0630 03:57:10.857355  1435 net.cpp:406] my_scale5b_branch2a <- my_res5b_branch2a
I0630 03:57:10.857365  1435 net.cpp:367] my_scale5b_branch2a -> my_res5b_branch2a (in-place)
I0630 03:57:10.857424  1435 layer_factory.hpp:77] Creating layer my_scale5b_branch2a
I0630 03:57:10.857605  1435 net.cpp:122] Setting up my_scale5b_branch2a
I0630 03:57:10.857620  1435 net.cpp:129] Top shape: 8 512 7 7 (200704)
I0630 03:57:10.857625  1435 net.cpp:137] Memory required for data: 1805533344
I0630 03:57:10.857631  1435 layer_factory.hpp:77] Creating layer my_res5b_branch2a_relu
I0630 03:57:10.857640  1435 net.cpp:84] Creating Layer my_res5b_branch2a_relu
I0630 03:57:10.857643  1435 net.cpp:406] my_res5b_branch2a_relu <- my_res5b_branch2a
I0630 03:57:10.857650  1435 net.cpp:367] my_res5b_branch2a_relu -> my_res5b_branch2a (in-place)
I0630 03:57:10.857951  1435 net.cpp:122] Setting up my_res5b_branch2a_relu
I0630 03:57:10.857969  1435 net.cpp:129] Top shape: 8 512 7 7 (200704)
I0630 03:57:10.857976  1435 net.cpp:137] Memory required for data: 1806336160
I0630 03:57:10.857980  1435 layer_factory.hpp:77] Creating layer my_res5b_branch2b
I0630 03:57:10.857990  1435 net.cpp:84] Creating Layer my_res5b_branch2b
I0630 03:57:10.857995  1435 net.cpp:406] my_res5b_branch2b <- my_res5b_branch2a
I0630 03:57:10.858003  1435 net.cpp:380] my_res5b_branch2b -> my_res5b_branch2b
I0630 03:57:10.864612  1435 net.cpp:122] Setting up my_res5b_branch2b
I0630 03:57:10.864635  1435 net.cpp:129] Top shape: 8 512 7 7 (200704)
I0630 03:57:10.864640  1435 net.cpp:137] Memory required for data: 1807138976
I0630 03:57:10.864646  1435 layer_factory.hpp:77] Creating layer my_bn5b_branch2b
I0630 03:57:10.864655  1435 net.cpp:84] Creating Layer my_bn5b_branch2b
I0630 03:57:10.864660  1435 net.cpp:406] my_bn5b_branch2b <- my_res5b_branch2b
I0630 03:57:10.864668  1435 net.cpp:367] my_bn5b_branch2b -> my_res5b_branch2b (in-place)
I0630 03:57:10.864966  1435 net.cpp:122] Setting up my_bn5b_branch2b
I0630 03:57:10.864982  1435 net.cpp:129] Top shape: 8 512 7 7 (200704)
I0630 03:57:10.864986  1435 net.cpp:137] Memory required for data: 1807941792
I0630 03:57:10.864995  1435 layer_factory.hpp:77] Creating layer my_scale5b_branch2b
I0630 03:57:10.865003  1435 net.cpp:84] Creating Layer my_scale5b_branch2b
I0630 03:57:10.865007  1435 net.cpp:406] my_scale5b_branch2b <- my_res5b_branch2b
I0630 03:57:10.865012  1435 net.cpp:367] my_scale5b_branch2b -> my_res5b_branch2b (in-place)
I0630 03:57:10.865072  1435 layer_factory.hpp:77] Creating layer my_scale5b_branch2b
I0630 03:57:10.865257  1435 net.cpp:122] Setting up my_scale5b_branch2b
I0630 03:57:10.865272  1435 net.cpp:129] Top shape: 8 512 7 7 (200704)
I0630 03:57:10.865275  1435 net.cpp:137] Memory required for data: 1808744608
I0630 03:57:10.865283  1435 layer_factory.hpp:77] Creating layer my_res5b_branch2b_relu
I0630 03:57:10.865308  1435 net.cpp:84] Creating Layer my_res5b_branch2b_relu
I0630 03:57:10.865312  1435 net.cpp:406] my_res5b_branch2b_relu <- my_res5b_branch2b
I0630 03:57:10.865321  1435 net.cpp:367] my_res5b_branch2b_relu -> my_res5b_branch2b (in-place)
I0630 03:57:10.865497  1435 net.cpp:122] Setting up my_res5b_branch2b_relu
I0630 03:57:10.865514  1435 net.cpp:129] Top shape: 8 512 7 7 (200704)
I0630 03:57:10.865519  1435 net.cpp:137] Memory required for data: 1809547424
I0630 03:57:10.865522  1435 layer_factory.hpp:77] Creating layer my_res5b_branch2c
I0630 03:57:10.865535  1435 net.cpp:84] Creating Layer my_res5b_branch2c
I0630 03:57:10.865545  1435 net.cpp:406] my_res5b_branch2c <- my_res5b_branch2b
I0630 03:57:10.865553  1435 net.cpp:380] my_res5b_branch2c -> my_res5b_branch2c
I0630 03:57:10.869354  1435 net.cpp:122] Setting up my_res5b_branch2c
I0630 03:57:10.869375  1435 net.cpp:129] Top shape: 8 2048 7 7 (802816)
I0630 03:57:10.869380  1435 net.cpp:137] Memory required for data: 1812758688
I0630 03:57:10.869387  1435 layer_factory.hpp:77] Creating layer my_bn5b_branch2c
I0630 03:57:10.869398  1435 net.cpp:84] Creating Layer my_bn5b_branch2c
I0630 03:57:10.869403  1435 net.cpp:406] my_bn5b_branch2c <- my_res5b_branch2c
I0630 03:57:10.869410  1435 net.cpp:367] my_bn5b_branch2c -> my_res5b_branch2c (in-place)
I0630 03:57:10.869709  1435 net.cpp:122] Setting up my_bn5b_branch2c
I0630 03:57:10.869726  1435 net.cpp:129] Top shape: 8 2048 7 7 (802816)
I0630 03:57:10.869730  1435 net.cpp:137] Memory required for data: 1815969952
I0630 03:57:10.869740  1435 layer_factory.hpp:77] Creating layer my_scale5b_branch2c
I0630 03:57:10.869748  1435 net.cpp:84] Creating Layer my_scale5b_branch2c
I0630 03:57:10.869753  1435 net.cpp:406] my_scale5b_branch2c <- my_res5b_branch2c
I0630 03:57:10.869758  1435 net.cpp:367] my_scale5b_branch2c -> my_res5b_branch2c (in-place)
I0630 03:57:10.869819  1435 layer_factory.hpp:77] Creating layer my_scale5b_branch2c
I0630 03:57:10.870026  1435 net.cpp:122] Setting up my_scale5b_branch2c
I0630 03:57:10.870043  1435 net.cpp:129] Top shape: 8 2048 7 7 (802816)
I0630 03:57:10.870048  1435 net.cpp:137] Memory required for data: 1819181216
I0630 03:57:10.870054  1435 layer_factory.hpp:77] Creating layer my_res5b
I0630 03:57:10.870065  1435 net.cpp:84] Creating Layer my_res5b
I0630 03:57:10.870070  1435 net.cpp:406] my_res5b <- res5a_res5a_relu_0_split_1
I0630 03:57:10.870076  1435 net.cpp:406] my_res5b <- my_res5b_branch2c
I0630 03:57:10.870081  1435 net.cpp:380] my_res5b -> my_res5b
I0630 03:57:10.870121  1435 net.cpp:122] Setting up my_res5b
I0630 03:57:10.870136  1435 net.cpp:129] Top shape: 8 2048 7 7 (802816)
I0630 03:57:10.870139  1435 net.cpp:137] Memory required for data: 1822392480
I0630 03:57:10.870143  1435 layer_factory.hpp:77] Creating layer my_res5b_relu
I0630 03:57:10.870153  1435 net.cpp:84] Creating Layer my_res5b_relu
I0630 03:57:10.870157  1435 net.cpp:406] my_res5b_relu <- my_res5b
I0630 03:57:10.870165  1435 net.cpp:367] my_res5b_relu -> my_res5b (in-place)
I0630 03:57:10.870455  1435 net.cpp:122] Setting up my_res5b_relu
I0630 03:57:10.870473  1435 net.cpp:129] Top shape: 8 2048 7 7 (802816)
I0630 03:57:10.870477  1435 net.cpp:137] Memory required for data: 1825603744
I0630 03:57:10.870482  1435 layer_factory.hpp:77] Creating layer my_res5b_my_res5b_relu_0_split
I0630 03:57:10.870491  1435 net.cpp:84] Creating Layer my_res5b_my_res5b_relu_0_split
I0630 03:57:10.870494  1435 net.cpp:406] my_res5b_my_res5b_relu_0_split <- my_res5b
I0630 03:57:10.870503  1435 net.cpp:380] my_res5b_my_res5b_relu_0_split -> my_res5b_my_res5b_relu_0_split_0
I0630 03:57:10.870512  1435 net.cpp:380] my_res5b_my_res5b_relu_0_split -> my_res5b_my_res5b_relu_0_split_1
I0630 03:57:10.870576  1435 net.cpp:122] Setting up my_res5b_my_res5b_relu_0_split
I0630 03:57:10.870591  1435 net.cpp:129] Top shape: 8 2048 7 7 (802816)
I0630 03:57:10.870597  1435 net.cpp:129] Top shape: 8 2048 7 7 (802816)
I0630 03:57:10.870600  1435 net.cpp:137] Memory required for data: 1832026272
I0630 03:57:10.870618  1435 layer_factory.hpp:77] Creating layer my_res5c_branch2a
I0630 03:57:10.870635  1435 net.cpp:84] Creating Layer my_res5c_branch2a
I0630 03:57:10.870645  1435 net.cpp:406] my_res5c_branch2a <- my_res5b_my_res5b_relu_0_split_0
I0630 03:57:10.870653  1435 net.cpp:380] my_res5c_branch2a -> my_res5c_branch2a
I0630 03:57:10.874089  1435 net.cpp:122] Setting up my_res5c_branch2a
I0630 03:57:10.874114  1435 net.cpp:129] Top shape: 8 512 7 7 (200704)
I0630 03:57:10.874119  1435 net.cpp:137] Memory required for data: 1832829088
I0630 03:57:10.874125  1435 layer_factory.hpp:77] Creating layer my_bn5c_branch2a
I0630 03:57:10.874136  1435 net.cpp:84] Creating Layer my_bn5c_branch2a
I0630 03:57:10.874147  1435 net.cpp:406] my_bn5c_branch2a <- my_res5c_branch2a
I0630 03:57:10.874153  1435 net.cpp:367] my_bn5c_branch2a -> my_res5c_branch2a (in-place)
I0630 03:57:10.874444  1435 net.cpp:122] Setting up my_bn5c_branch2a
I0630 03:57:10.874459  1435 net.cpp:129] Top shape: 8 512 7 7 (200704)
I0630 03:57:10.874462  1435 net.cpp:137] Memory required for data: 1833631904
I0630 03:57:10.874470  1435 layer_factory.hpp:77] Creating layer my_scale5c_branch2a
I0630 03:57:10.874480  1435 net.cpp:84] Creating Layer my_scale5c_branch2a
I0630 03:57:10.874483  1435 net.cpp:406] my_scale5c_branch2a <- my_res5c_branch2a
I0630 03:57:10.874490  1435 net.cpp:367] my_scale5c_branch2a -> my_res5c_branch2a (in-place)
I0630 03:57:10.874547  1435 layer_factory.hpp:77] Creating layer my_scale5c_branch2a
I0630 03:57:10.874733  1435 net.cpp:122] Setting up my_scale5c_branch2a
I0630 03:57:10.874752  1435 net.cpp:129] Top shape: 8 512 7 7 (200704)
I0630 03:57:10.874755  1435 net.cpp:137] Memory required for data: 1834434720
I0630 03:57:10.874763  1435 layer_factory.hpp:77] Creating layer my_res5c_branch2a_relu
I0630 03:57:10.874769  1435 net.cpp:84] Creating Layer my_res5c_branch2a_relu
I0630 03:57:10.874773  1435 net.cpp:406] my_res5c_branch2a_relu <- my_res5c_branch2a
I0630 03:57:10.874778  1435 net.cpp:367] my_res5c_branch2a_relu -> my_res5c_branch2a (in-place)
I0630 03:57:10.875100  1435 net.cpp:122] Setting up my_res5c_branch2a_relu
I0630 03:57:10.875118  1435 net.cpp:129] Top shape: 8 512 7 7 (200704)
I0630 03:57:10.875123  1435 net.cpp:137] Memory required for data: 1835237536
I0630 03:57:10.875128  1435 layer_factory.hpp:77] Creating layer my_res5c_branch2b
I0630 03:57:10.875139  1435 net.cpp:84] Creating Layer my_res5c_branch2b
I0630 03:57:10.875144  1435 net.cpp:406] my_res5c_branch2b <- my_res5c_branch2a
I0630 03:57:10.875151  1435 net.cpp:380] my_res5c_branch2b -> my_res5c_branch2b
I0630 03:57:10.882024  1435 net.cpp:122] Setting up my_res5c_branch2b
I0630 03:57:10.882045  1435 net.cpp:129] Top shape: 8 512 7 7 (200704)
I0630 03:57:10.882050  1435 net.cpp:137] Memory required for data: 1836040352
I0630 03:57:10.882055  1435 layer_factory.hpp:77] Creating layer my_bn5c_branch2b
I0630 03:57:10.882067  1435 net.cpp:84] Creating Layer my_bn5c_branch2b
I0630 03:57:10.882072  1435 net.cpp:406] my_bn5c_branch2b <- my_res5c_branch2b
I0630 03:57:10.882078  1435 net.cpp:367] my_bn5c_branch2b -> my_res5c_branch2b (in-place)
I0630 03:57:10.882375  1435 net.cpp:122] Setting up my_bn5c_branch2b
I0630 03:57:10.882391  1435 net.cpp:129] Top shape: 8 512 7 7 (200704)
I0630 03:57:10.882395  1435 net.cpp:137] Memory required for data: 1836843168
I0630 03:57:10.882410  1435 layer_factory.hpp:77] Creating layer my_scale5c_branch2b
I0630 03:57:10.882421  1435 net.cpp:84] Creating Layer my_scale5c_branch2b
I0630 03:57:10.882426  1435 net.cpp:406] my_scale5c_branch2b <- my_res5c_branch2b
I0630 03:57:10.882431  1435 net.cpp:367] my_scale5c_branch2b -> my_res5c_branch2b (in-place)
I0630 03:57:10.882493  1435 layer_factory.hpp:77] Creating layer my_scale5c_branch2b
I0630 03:57:10.882683  1435 net.cpp:122] Setting up my_scale5c_branch2b
I0630 03:57:10.882699  1435 net.cpp:129] Top shape: 8 512 7 7 (200704)
I0630 03:57:10.882702  1435 net.cpp:137] Memory required for data: 1837645984
I0630 03:57:10.882709  1435 layer_factory.hpp:77] Creating layer my_res5c_branch2b_relu
I0630 03:57:10.882735  1435 net.cpp:84] Creating Layer my_res5c_branch2b_relu
I0630 03:57:10.882741  1435 net.cpp:406] my_res5c_branch2b_relu <- my_res5c_branch2b
I0630 03:57:10.882746  1435 net.cpp:367] my_res5c_branch2b_relu -> my_res5c_branch2b (in-place)
I0630 03:57:10.882932  1435 net.cpp:122] Setting up my_res5c_branch2b_relu
I0630 03:57:10.882956  1435 net.cpp:129] Top shape: 8 512 7 7 (200704)
I0630 03:57:10.882961  1435 net.cpp:137] Memory required for data: 1838448800
I0630 03:57:10.882964  1435 layer_factory.hpp:77] Creating layer my_res5c_branch2c
I0630 03:57:10.882977  1435 net.cpp:84] Creating Layer my_res5c_branch2c
I0630 03:57:10.882982  1435 net.cpp:406] my_res5c_branch2c <- my_res5c_branch2b
I0630 03:57:10.882987  1435 net.cpp:380] my_res5c_branch2c -> my_res5c_branch2c
I0630 03:57:10.886723  1435 net.cpp:122] Setting up my_res5c_branch2c
I0630 03:57:10.886746  1435 net.cpp:129] Top shape: 8 2048 7 7 (802816)
I0630 03:57:10.886751  1435 net.cpp:137] Memory required for data: 1841660064
I0630 03:57:10.886760  1435 layer_factory.hpp:77] Creating layer my_bn5c_branch2c
I0630 03:57:10.886770  1435 net.cpp:84] Creating Layer my_bn5c_branch2c
I0630 03:57:10.886775  1435 net.cpp:406] my_bn5c_branch2c <- my_res5c_branch2c
I0630 03:57:10.886780  1435 net.cpp:367] my_bn5c_branch2c -> my_res5c_branch2c (in-place)
I0630 03:57:10.887089  1435 net.cpp:122] Setting up my_bn5c_branch2c
I0630 03:57:10.887105  1435 net.cpp:129] Top shape: 8 2048 7 7 (802816)
I0630 03:57:10.887109  1435 net.cpp:137] Memory required for data: 1844871328
I0630 03:57:10.887118  1435 layer_factory.hpp:77] Creating layer my_scale5c_branch2c
I0630 03:57:10.887126  1435 net.cpp:84] Creating Layer my_scale5c_branch2c
I0630 03:57:10.887130  1435 net.cpp:406] my_scale5c_branch2c <- my_res5c_branch2c
I0630 03:57:10.887136  1435 net.cpp:367] my_scale5c_branch2c -> my_res5c_branch2c (in-place)
I0630 03:57:10.887199  1435 layer_factory.hpp:77] Creating layer my_scale5c_branch2c
I0630 03:57:10.887398  1435 net.cpp:122] Setting up my_scale5c_branch2c
I0630 03:57:10.887414  1435 net.cpp:129] Top shape: 8 2048 7 7 (802816)
I0630 03:57:10.887418  1435 net.cpp:137] Memory required for data: 1848082592
I0630 03:57:10.887425  1435 layer_factory.hpp:77] Creating layer my_res5c
I0630 03:57:10.887439  1435 net.cpp:84] Creating Layer my_res5c
I0630 03:57:10.887445  1435 net.cpp:406] my_res5c <- my_res5b_my_res5b_relu_0_split_1
I0630 03:57:10.887451  1435 net.cpp:406] my_res5c <- my_res5c_branch2c
I0630 03:57:10.887456  1435 net.cpp:380] my_res5c -> my_res5c
I0630 03:57:10.887501  1435 net.cpp:122] Setting up my_res5c
I0630 03:57:10.887516  1435 net.cpp:129] Top shape: 8 2048 7 7 (802816)
I0630 03:57:10.887519  1435 net.cpp:137] Memory required for data: 1851293856
I0630 03:57:10.887523  1435 layer_factory.hpp:77] Creating layer my_res5c_relu
I0630 03:57:10.887531  1435 net.cpp:84] Creating Layer my_res5c_relu
I0630 03:57:10.887534  1435 net.cpp:406] my_res5c_relu <- my_res5c
I0630 03:57:10.887542  1435 net.cpp:367] my_res5c_relu -> my_res5c (in-place)
I0630 03:57:10.887836  1435 net.cpp:122] Setting up my_res5c_relu
I0630 03:57:10.887858  1435 net.cpp:129] Top shape: 8 2048 7 7 (802816)
I0630 03:57:10.887862  1435 net.cpp:137] Memory required for data: 1854505120
I0630 03:57:10.887866  1435 layer_factory.hpp:77] Creating layer my_pool5
I0630 03:57:10.887876  1435 net.cpp:84] Creating Layer my_pool5
I0630 03:57:10.887881  1435 net.cpp:406] my_pool5 <- my_res5c
I0630 03:57:10.887887  1435 net.cpp:380] my_pool5 -> my_pool5
I0630 03:57:10.888752  1435 net.cpp:122] Setting up my_pool5
I0630 03:57:10.888772  1435 net.cpp:129] Top shape: 8 2048 1 1 (16384)
I0630 03:57:10.888775  1435 net.cpp:137] Memory required for data: 1854570656
I0630 03:57:10.888779  1435 layer_factory.hpp:77] Creating layer my_fc1000
I0630 03:57:10.888792  1435 net.cpp:84] Creating Layer my_fc1000
I0630 03:57:10.888797  1435 net.cpp:406] my_fc1000 <- my_pool5
I0630 03:57:10.888803  1435 net.cpp:380] my_fc1000 -> my_fc1000
I0630 03:57:10.889034  1435 net.cpp:122] Setting up my_fc1000
I0630 03:57:10.889066  1435 net.cpp:129] Top shape: 8 50 (400)
I0630 03:57:10.889070  1435 net.cpp:137] Memory required for data: 1854572256
I0630 03:57:10.889078  1435 layer_factory.hpp:77] Creating layer my_fc1000_my_fc1000_0_split
I0630 03:57:10.889086  1435 net.cpp:84] Creating Layer my_fc1000_my_fc1000_0_split
I0630 03:57:10.889091  1435 net.cpp:406] my_fc1000_my_fc1000_0_split <- my_fc1000
I0630 03:57:10.889098  1435 net.cpp:380] my_fc1000_my_fc1000_0_split -> my_fc1000_my_fc1000_0_split_0
I0630 03:57:10.889106  1435 net.cpp:380] my_fc1000_my_fc1000_0_split -> my_fc1000_my_fc1000_0_split_1
I0630 03:57:10.889112  1435 net.cpp:380] my_fc1000_my_fc1000_0_split -> my_fc1000_my_fc1000_0_split_2
I0630 03:57:10.889122  1435 net.cpp:380] my_fc1000_my_fc1000_0_split -> my_fc1000_my_fc1000_0_split_3
I0630 03:57:10.889188  1435 net.cpp:122] Setting up my_fc1000_my_fc1000_0_split
I0630 03:57:10.889201  1435 net.cpp:129] Top shape: 8 50 (400)
I0630 03:57:10.889206  1435 net.cpp:129] Top shape: 8 50 (400)
I0630 03:57:10.889210  1435 net.cpp:129] Top shape: 8 50 (400)
I0630 03:57:10.889214  1435 net.cpp:129] Top shape: 8 50 (400)
I0630 03:57:10.889217  1435 net.cpp:137] Memory required for data: 1854578656
I0630 03:57:10.889221  1435 layer_factory.hpp:77] Creating layer loss
I0630 03:57:10.889230  1435 net.cpp:84] Creating Layer loss
I0630 03:57:10.889235  1435 net.cpp:406] loss <- my_fc1000_my_fc1000_0_split_0
I0630 03:57:10.889240  1435 net.cpp:406] loss <- label_input_1_split_0
I0630 03:57:10.889248  1435 net.cpp:380] loss -> loss
…
