…
I0630 04:54:44.183346  1491 net.cpp:294] The NetState phase (1) differed from the phase (0) specified by a rule in layer input
I0630 04:54:44.184756  1491 net.cpp:51] Initializing net from parameters: 
name: "ResNet-50"
state {
  phase: TEST
  level: 0
  stage: ""
}
layer {
  name: "input"
  type: "Data"
  top: "data"
  top: "label"
  include {
    phase: TEST
  }
  transform_param {
    mirror: true
    mean_file: "../../../data_subsets/subtrain2_mean.binaryproto"
  }
  data_param {
    source: "../../../data_subsets/subtrain2_lmdb"
    batch_size: 8
    backend: LMDB
  }
}
layer {
  name: "conv1"
  type: "Convolution"
  bottom: "data"
  top: "conv1"
  param {
    lr_mult: 1
    decay_mult: 1
  }
  param {
    lr_mult: 2
    decay_mult: 0
  }
  convolution_param {
    num_output: 64
    pad: 3
    kernel_size: 7
    stride: 2
  }
}
layer {
  name: "bn_conv1"
  type: "BatchNorm"
  bottom: "conv1"
  top: "conv1"
  batch_norm_param {
    use_global_stats: true
  }
}
layer {
  name: "scale_conv1"
  type: "Scale"
  bottom: "conv1"
  top: "conv1"
  scale_param {
    bias_term: true
  }
}
layer {
  name: "conv1_relu"
  type: "ReLU"
  bottom: "conv1"
  top: "conv1"
}
layer {
  name: "pool1"
  type: "Pooling"
  bottom: "conv1"
  top: "pool1"
  pooling_param {
    pool: MAX
    kernel_size: 3
    stride: 2
  }
}
layer {
  name: "res2a_branch1"
  type: "Convolution"
  bottom: "pool1"
  top: "res2a_branch1"
  param {
    lr_mult: 1
    decay_mult: 1
  }
  convolution_param {
    num_output: 256
    bias_term: false
    pad: 0
    kernel_size: 1
    stride: 1
  }
}
layer {
  name: "bn2a_branch1"
  type: "BatchNorm"
  bottom: "res2a_branch1"
  top: "res2a_branch1"
  batch_norm_param {
    use_global_stats: true
  }
}
layer {
  name: "scale2a_branch1"
  type: "Scale"
  bottom: "res2a_branch1"
  top: "res2a_branch1"
  scale_param {
    bias_term: true
  }
}
layer {
  name: "res2a_branch2a"
  type: "Convolution"
  bottom: "pool1"
  top: "res2a_branch2a"
  param {
    lr_mult: 1
    decay_mult: 1
  }
  convolution_param {
    num_output: 64
    bias_term: false
    pad: 0
    kernel_size: 1
    stride: 1
  }
}
layer {
  name: "bn2a_branch2a"
  type: "BatchNorm"
  bottom: "res2a_branch2a"
  top: "res2a_branch2a"
  batch_norm_param {
    use_global_stats: true
  }
}
layer {
  name: "scale2a_branch2a"
  type: "Scale"
  bottom: "res2a_branch2a"
  top: "res2a_branch2a"
  scale_param {
    bias_term: true
  }
}
layer {
  name: "res2a_branch2a_relu"
  type: "ReLU"
  bottom: "res2a_branch2a"
  top: "res2a_branch2a"
}
layer {
  name: "res2a_branch2b"
  type: "Convolution"
  bottom: "res2a_branch2a"
  top: "res2a_branch2b"
  param {
    lr_mult: 1
    decay_mult: 1
  }
  convolution_param {
    num_output: 64
    bias_term: false
    pad: 1
    kernel_size: 3
    stride: 1
  }
}
layer {
  name: "bn2a_branch2b"
  type: "BatchNorm"
  bottom: "res2a_branch2b"
  top: "res2a_branch2b"
  batch_norm_param {
    use_global_stats: true
  }
}
layer {
  name: "scale2a_branch2b"
  type: "Scale"
  bottom: "res2a_branch2b"
  top: "res2a_branch2b"
  scale_param {
    bias_term: true
  }
}
layer {
  name: "res2a_branch2b_relu"
  type: "ReLU"
  bottom: "res2a_branch2b"
  top: "res2a_branch2b"
}
layer {
  name: "res2a_branch2c"
  type: "Convolution"
  bottom: "res2a_branch2b"
  top: "res2a_branch2c"
  param {
    lr_mult: 1
    decay_mult: 1
  }
  convolution_param {
    num_output: 256
    bias_term: false
    pad: 0
    kernel_size: 1
    stride: 1
  }
}
layer {
  name: "bn2a_branch2c"
  type: "BatchNorm"
  bottom: "res2a_branch2c"
  top: "res2a_branch2c"
  batch_norm_param {
    use_global_stats: true
  }
}
layer {
  name: "scale2a_branch2c"
  type: "Scale"
  bottom: "res2a_branch2c"
  top: "res2a_branch2c"
  scale_param {
    bias_term: true
  }
}
layer {
  name: "res2a"
  type: "Eltwise"
  bottom: "res2a_branch1"
  bottom: "res2a_branch2c"
  top: "res2a"
}
layer {
  name: "res2a_relu"
  type: "ReLU"
  bottom: "res2a"
  top: "res2a"
}
layer {
  name: "res2b_branch2a"
  type: "Convolution"
  bottom: "res2a"
  top: "res2b_branch2a"
  param {
    lr_mult: 1
    decay_mult: 1
  }
  convolution_param {
    num_output: 64
    bias_term: false
    pad: 0
    kernel_size: 1
    stride: 1
  }
}
layer {
  name: "bn2b_branch2a"
  type: "BatchNorm"
  bottom: "res2b_branch2a"
  top: "res2b_branch2a"
  batch_norm_param {
    use_global_stats: true
  }
}
layer {
  name: "scale2b_branch2a"
  type: "Scale"
  bottom: "res2b_branch2a"
  top: "res2b_branch2a"
  scale_param {
    bias_term: true
  }
}
layer {
  name: "res2b_branch2a_relu"
  type: "ReLU"
  bottom: "res2b_branch2a"
  top: "res2b_branch2a"
}
layer {
  name: "res2b_branch2b"
  type: "Convolution"
  bottom: "res2b_branch2a"
  top: "res2b_branch2b"
  param {
    lr_mult: 1
    decay_mult: 1
  }
  convolution_param {
    num_output: 64
    bias_term: false
    pad: 1
    kernel_size: 3
    stride: 1
  }
}
layer {
  name: "bn2b_branch2b"
  type: "BatchNorm"
  bottom: "res2b_branch2b"
  top: "res2b_branch2b"
  batch_norm_param {
    use_global_stats: true
  }
}
layer {
  name: "scale2b_branch2b"
  type: "Scale"
  bottom: "res2b_branch2b"
  top: "res2b_branch2b"
  scale_param {
    bias_term: true
  }
}
layer {
  name: "res2b_branch2b_relu"
  type: "ReLU"
  bottom: "res2b_branch2b"
  top: "res2b_branch2b"
}
layer {
  name: "res2b_branch2c"
  type: "Convolution"
  bottom: "res2b_branch2b"
  top: "res2b_branch2c"
  param {
    lr_mult: 1
    decay_mult: 1
  }
  convolution_param {
    num_output: 256
    bias_term: false
    pad: 0
    kernel_size: 1
    stride: 1
  }
}
layer {
  name: "bn2b_branch2c"
  type: "BatchNorm"
  bottom: "res2b_branch2c"
  top: "res2b_branch2c"
  batch_norm_param {
    use_global_stats: true
  }
}
layer {
  name: "scale2b_branch2c"
  type: "Scale"
  bottom: "res2b_branch2c"
  top: "res2b_branch2c"
  scale_param {
    bias_term: true
  }
}
layer {
  name: "res2b"
  type: "Eltwise"
  bottom: "res2a"
  bottom: "res2b_branch2c"
  top: "res2b"
}
layer {
  name: "res2b_relu"
  type: "ReLU"
  bottom: "res2b"
  top: "res2b"
}
layer {
  name: "res2c_branch2a"
  type: "Convolution"
  bottom: "res2b"
  top: "res2c_branch2a"
  param {
    lr_mult: 1
    decay_mult: 1
  }
  convolution_param {
    num_output: 64
    bias_term: false
    pad: 0
    kernel_size: 1
    stride: 1
  }
}
layer {
  name: "bn2c_branch2a"
  type: "BatchNorm"
  bottom: "res2c_branch2a"
  top: "res2c_branch2a"
  batch_norm_param {
    use_global_stats: true
  }
}
layer {
  name: "scale2c_branch2a"
  type: "Scale"
  bottom: "res2c_branch2a"
  top: "res2c_branch2a"
  scale_param {
    bias_term: true
  }
}
layer {
  name: "res2c_branch2a_relu"
  type: "ReLU"
  bottom: "res2c_branch2a"
  top: "res2c_branch2a"
}
layer {
  name: "res2c_branch2b"
  type: "Convolution"
  bottom: "res2c_branch2a"
  top: "res2c_branch2b"
  param {
    lr_mult: 1
    decay_mult: 1
  }
  convolution_param {
    num_output: 64
    bias_term: false
    pad: 1
    kernel_size: 3
    stride: 1
  }
}
layer {
  name: "bn2c_branch2b"
  type: "BatchNorm"
  bottom: "res2c_branch2b"
  top: "res2c_branch2b"
  batch_norm_param {
    use_global_stats: true
  }
}
layer {
  name: "scale2c_branch2b"
  type: "Scale"
  bottom: "res2c_branch2b"
  top: "res2c_branch2b"
  scale_param {
    bias_term: true
  }
}
layer {
  name: "res2c_branch2b_relu"
  type: "ReLU"
  bottom: "res2c_branch2b"
  top: "res2c_branch2b"
}
layer {
  name: "res2c_branch2c"
  type: "Convolution"
  bottom: "res2c_branch2b"
  top: "res2c_branch2c"
  param {
    lr_mult: 1
    decay_mult: 1
  }
  convolution_param {
    num_output: 256
    bias_term: false
    pad: 0
    kernel_size: 1
    stride: 1
  }
}
layer {
  name: "bn2c_branch2c"
  type: "BatchNorm"
  bottom: "res2c_branch2c"
  top: "res2c_branch2c"
  batch_norm_param {
    use_global_stats: true
  }
}
layer {
  name: "scale2c_branch2c"
  type: "Scale"
  bottom: "res2c_branch2c"
  top: "res2c_branch2c"
  scale_param {
    bias_term: true
  }
}
layer {
  name: "res2c"
  type: "Eltwise"
  bottom: "res2b"
  bottom: "res2c_branch2c"
  top: "res2c"
}
layer {
  name: "res2c_relu"
  type: "ReLU"
  bottom: "res2c"
  top: "res2c"
}
layer {
  name: "res3a_branch1"
  type: "Convolution"
  bottom: "res2c"
  top: "res3a_branch1"
  param {
    lr_mult: 1
    decay_mult: 1
  }
  convolution_param {
    num_output: 512
    bias_term: false
    pad: 0
    kernel_size: 1
    stride: 2
  }
}
layer {
  name: "bn3a_branch1"
  type: "BatchNorm"
  bottom: "res3a_branch1"
  top: "res3a_branch1"
  batch_norm_param {
    use_global_stats: true
  }
}
layer {
  name: "scale3a_branch1"
  type: "Scale"
  bottom: "res3a_branch1"
  top: "res3a_branch1"
  scale_param {
    bias_term: true
  }
}
layer {
  name: "res3a_branch2a"
  type: "Convolution"
  bottom: "res2c"
  top: "res3a_branch2a"
  param {
    lr_mult: 1
    decay_mult: 1
  }
  convolution_param {
    num_output: 128
    bias_term: false
    pad: 0
    kernel_size: 1
    stride: 2
  }
}
layer {
  name: "bn3a_branch2a"
  type: "BatchNorm"
  bottom: "res3a_branch2a"
  top: "res3a_branch2a"
  batch_norm_param {
    use_global_stats: true
  }
}
layer {
  name: "scale3a_branch2a"
  type: "Scale"
  bottom: "res3a_branch2a"
  top: "res3a_branch2a"
  scale_param {
    bias_term: true
  }
}
layer {
  name: "res3a_branch2a_relu"
  type: "ReLU"
  bottom: "res3a_branch2a"
  top: "res3a_branch2a"
}
layer {
  name: "res3a_branch2b"
  type: "Convolution"
  bottom: "res3a_branch2a"
  top: "res3a_branch2b"
  param {
    lr_mult: 1
    decay_mult: 1
  }
  convolution_param {
    num_output: 128
    bias_term: false
    pad: 1
    kernel_size: 3
    stride: 1
  }
}
layer {
  name: "bn3a_branch2b"
  type: "BatchNorm"
  bottom: "res3a_branch2b"
  top: "res3a_branch2b"
  batch_norm_param {
    use_global_stats: true
  }
}
layer {
  name: "scale3a_branch2b"
  type: "Scale"
  bottom: "res3a_branch2b"
  top: "res3a_branch2b"
  scale_param {
    bias_term: true
  }
}
layer {
  name: "res3a_branch2b_relu"
  type: "ReLU"
  bottom: "res3a_branch2b"
  top: "res3a_branch2b"
}
layer {
  name: "res3a_branch2c"
  type: "Convolution"
  bottom: "res3a_branch2b"
  top: "res3a_branch2c"
  param {
    lr_mult: 1
    decay_mult: 1
  }
  convolution_param {
    num_output: 512
    bias_term: false
    pad: 0
    kernel_size: 1
    stride: 1
  }
}
layer {
  name: "bn3a_branch2c"
  type: "BatchNorm"
  bottom: "res3a_branch2c"
  top: "res3a_branch2c"
  batch_norm_param {
    use_global_stats: true
  }
}
layer {
  name: "scale3a_branch2c"
  type: "Scale"
  bottom: "res3a_branch2c"
  top: "res3a_branch2c"
  scale_param {
    bias_term: true
  }
}
layer {
  name: "res3a"
  type: "Eltwise"
  bottom: "res3a_branch1"
  bottom: "res3a_branch2c"
  top: "res3a"
}
layer {
  name: "res3a_relu"
  type: "ReLU"
  bottom: "res3a"
  top: "res3a"
}
layer {
  name: "res3b_branch2a"
  type: "Convolution"
  bottom: "res3a"
  top: "res3b_branch2a"
  param {
    lr_mult: 1
    decay_mult: 1
  }
  convolution_param {
    num_output: 128
    bias_term: false
    pad: 0
    kernel_size: 1
    stride: 1
  }
}
layer {
  name: "bn3b_branch2a"
  type: "BatchNorm"
  bottom: "res3b_branch2a"
  top: "res3b_branch2a"
  batch_norm_param {
    use_global_stats: true
  }
}
layer {
  name: "scale3b_branch2a"
  type: "Scale"
  bottom: "res3b_branch2a"
  top: "res3b_branch2a"
  scale_param {
    bias_term: true
  }
}
layer {
  name: "res3b_branch2a_relu"
  type: "ReLU"
  bottom: "res3b_branch2a"
  top: "res3b_branch2a"
}
layer {
  name: "res3b_branch2b"
  type: "Convolution"
  bottom: "res3b_branch2a"
  top: "res3b_branch2b"
  param {
    lr_mult: 1
    decay_mult: 1
  }
  convolution_param {
    num_output: 128
    bias_term: false
    pad: 1
    kernel_size: 3
    stride: 1
  }
}
layer {
  name: "bn3b_branch2b"
  type: "BatchNorm"
  bottom: "res3b_branch2b"
  top: "res3b_branch2b"
  batch_norm_param {
    use_global_stats: true
  }
}
layer {
  name: "scale3b_branch2b"
  type: "Scale"
  bottom: "res3b_branch2b"
  top: "res3b_branch2b"
  scale_param {
    bias_term: true
  }
}
layer {
  name: "res3b_branch2b_relu"
  type: "ReLU"
  bottom: "res3b_branch2b"
  top: "res3b_branch2b"
}
layer {
  name: "res3b_branch2c"
  type: "Convolution"
  bottom: "res3b_branch2b"
  top: "res3b_branch2c"
  param {
    lr_mult: 1
    decay_mult: 1
  }
  convolution_param {
    num_output: 512
    bias_term: false
    pad: 0
    kernel_size: 1
    stride: 1
  }
}
layer {
  name: "bn3b_branch2c"
  type: "BatchNorm"
  bottom: "res3b_branch2c"
  top: "res3b_branch2c"
  batch_norm_param {
    use_global_stats: true
  }
}
layer {
  name: "scale3b_branch2c"
  type: "Scale"
  bottom: "res3b_branch2c"
  top: "res3b_branch2c"
  scale_param {
    bias_term: true
  }
}
layer {
  name: "res3b"
  type: "Eltwise"
  bottom: "res3a"
  bottom: "res3b_branch2c"
  top: "res3b"
}
layer {
  name: "res3b_relu"
  type: "ReLU"
  bottom: "res3b"
  top: "res3b"
}
layer {
  name: "res3c_branch2a"
  type: "Convolution"
  bottom: "res3b"
  top: "res3c_branch2a"
  param {
    lr_mult: 1
    decay_mult: 1
  }
  convolution_param {
    num_output: 128
    bias_term: false
    pad: 0
    kernel_size: 1
    stride: 1
  }
}
layer {
  name: "bn3c_branch2a"
  type: "BatchNorm"
  bottom: "res3c_branch2a"
  top: "res3c_branch2a"
  batch_norm_param {
    use_global_stats: true
  }
}
layer {
  name: "scale3c_branch2a"
  type: "Scale"
  bottom: "res3c_branch2a"
  top: "res3c_branch2a"
  scale_param {
    bias_term: true
  }
}
layer {
  name: "res3c_branch2a_relu"
  type: "ReLU"
  bottom: "res3c_branch2a"
  top: "res3c_branch2a"
}
layer {
  name: "res3c_branch2b"
  type: "Convolution"
  bottom: "res3c_branch2a"
  top: "res3c_branch2b"
  param {
    lr_mult: 1
    decay_mult: 1
  }
  convolution_param {
    num_output: 128
    bias_term: false
    pad: 1
    kernel_size: 3
    stride: 1
  }
}
layer {
  name: "bn3c_branch2b"
  type: "BatchNorm"
  bottom: "res3c_branch2b"
  top: "res3c_branch2b"
  batch_norm_param {
    use_global_stats: true
  }
}
layer {
  name: "scale3c_branch2b"
  type: "Scale"
  bottom: "res3c_branch2b"
  top: "res3c_branch2b"
  scale_param {
    bias_term: true
  }
}
layer {
  name: "res3c_branch2b_relu"
  type: "ReLU"
  bottom: "res3c_branch2b"
  top: "res3c_branch2b"
}
layer {
  name: "res3c_branch2c"
  type: "Convolution"
  bottom: "res3c_branch2b"
  top: "res3c_branch2c"
  param {
    lr_mult: 1
    decay_mult: 1
  }
  convolution_param {
    num_output: 512
    bias_term: false
    pad: 0
    kernel_size: 1
    stride: 1
  }
}
layer {
  name: "bn3c_branch2c"
  type: "BatchNorm"
  bottom: "res3c_branch2c"
  top: "res3c_branch2c"
  batch_norm_param {
    use_global_stats: true
  }
}
layer {
  name: "scale3c_branch2c"
  type: "Scale"
  bottom: "res3c_branch2c"
  top: "res3c_branch2c"
  scale_param {
    bias_term: true
  }
}
layer {
  name: "res3c"
  type: "Eltwise"
  bottom: "res3b"
  bottom: "res3c_branch2c"
  top: "res3c"
}
layer {
  name: "res3c_relu"
  type: "ReLU"
  bottom: "res3c"
  top: "res3c"
}
layer {
  name: "res3d_branch2a"
  type: "Convolution"
  bottom: "res3c"
  top: "res3d_branch2a"
  param {
    lr_mult: 1
    decay_mult: 1
  }
  convolution_param {
    num_output: 128
    bias_term: false
    pad: 0
    kernel_size: 1
    stride: 1
  }
}
layer {
  name: "bn3d_branch2a"
  type: "BatchNorm"
  bottom: "res3d_branch2a"
  top: "res3d_branch2a"
  batch_norm_param {
    use_global_stats: true
  }
}
layer {
  name: "scale3d_branch2a"
  type: "Scale"
  bottom: "res3d_branch2a"
  top: "res3d_branch2a"
  scale_param {
    bias_term: true
  }
}
layer {
  name: "res3d_branch2a_relu"
  type: "ReLU"
  bottom: "res3d_branch2a"
  top: "res3d_branch2a"
}
layer {
  name: "res3d_branch2b"
  type: "Convolution"
  bottom: "res3d_branch2a"
  top: "res3d_branch2b"
  param {
    lr_mult: 1
    decay_mult: 1
  }
  convolution_param {
    num_output: 128
    bias_term: false
    pad: 1
    kernel_size: 3
    stride: 1
  }
}
layer {
  name: "bn3d_branch2b"
  type: "BatchNorm"
  bottom: "res3d_branch2b"
  top: "res3d_branch2b"
  batch_norm_param {
    use_global_stats: true
  }
}
layer {
  name: "scale3d_branch2b"
  type: "Scale"
  bottom: "res3d_branch2b"
  top: "res3d_branch2b"
  scale_param {
    bias_term: true
  }
}
layer {
  name: "res3d_branch2b_relu"
  type: "ReLU"
  bottom: "res3d_branch2b"
  top: "res3d_branch2b"
}
layer {
  name: "res3d_branch2c"
  type: "Convolution"
  bottom: "res3d_branch2b"
  top: "res3d_branch2c"
  param {
    lr_mult: 1
    decay_mult: 1
  }
  convolution_param {
    num_output: 512
    bias_term: false
    pad: 0
    kernel_size: 1
    stride: 1
  }
}
layer {
  name: "bn3d_branch2c"
  type: "BatchNorm"
  bottom: "res3d_branch2c"
  top: "res3d_branch2c"
  batch_norm_param {
    use_global_stats: true
  }
}
layer {
  name: "scale3d_branch2c"
  type: "Scale"
  bottom: "res3d_branch2c"
  top: "res3d_branch2c"
  scale_param {
    bias_term: true
  }
}
layer {
  name: "res3d"
  type: "Eltwise"
  bottom: "res3c"
  bottom: "res3d_branch2c"
  top: "res3d"
}
layer {
  name: "res3d_relu"
  type: "ReLU"
  bottom: "res3d"
  top: "res3d"
}
layer {
  name: "res4a_branch1"
  type: "Convolution"
  bottom: "res3d"
  top: "res4a_branch1"
  param {
    lr_mult: 1
    decay_mult: 1
  }
  convolution_param {
    num_output: 1024
    bias_term: false
    pad: 0
    kernel_size: 1
    stride: 2
  }
}
layer {
  name: "bn4a_branch1"
  type: "BatchNorm"
  bottom: "res4a_branch1"
  top: "res4a_branch1"
  batch_norm_param {
    use_global_stats: true
  }
}
layer {
  name: "scale4a_branch1"
  type: "Scale"
  bottom: "res4a_branch1"
  top: "res4a_branch1"
  scale_param {
    bias_term: true
  }
}
layer {
  name: "res4a_branch2a"
  type: "Convolution"
  bottom: "res3d"
  top: "res4a_branch2a"
  param {
    lr_mult: 1
    decay_mult: 1
  }
  convolution_param {
    num_output: 256
    bias_term: false
    pad: 0
    kernel_size: 1
    stride: 2
  }
}
layer {
  name: "bn4a_branch2a"
  type: "BatchNorm"
  bottom: "res4a_branch2a"
  top: "res4a_branch2a"
  batch_norm_param {
    use_global_stats: true
  }
}
layer {
  name: "scale4a_branch2a"
  type: "Scale"
  bottom: "res4a_branch2a"
  top: "res4a_branch2a"
  scale_param {
    bias_term: true
  }
}
layer {
  name: "res4a_branch2a_relu"
  type: "ReLU"
  bottom: "res4a_branch2a"
  top: "res4a_branch2a"
}
layer {
  name: "res4a_branch2b"
  type: "Convolution"
  bottom: "res4a_branch2a"
  top: "res4a_branch2b"
  param {
    lr_mult: 1
    decay_mult: 1
  }
  convolution_param {
    num_output: 256
    bias_term: false
    pad: 1
    kernel_size: 3
    stride: 1
  }
}
layer {
  name: "bn4a_branch2b"
  type: "BatchNorm"
  bottom: "res4a_branch2b"
  top: "res4a_branch2b"
  batch_norm_param {
    use_global_stats: true
  }
}
layer {
  name: "scale4a_branch2b"
  type: "Scale"
  bottom: "res4a_branch2b"
  top: "res4a_branch2b"
  scale_param {
    bias_term: true
  }
}
layer {
  name: "res4a_branch2b_relu"
  type: "ReLU"
  bottom: "res4a_branch2b"
  top: "res4a_branch2b"
}
layer {
  name: "res4a_branch2c"
  type: "Convolution"
  bottom: "res4a_branch2b"
  top: "res4a_branch2c"
  param {
    lr_mult: 1
    decay_mult: 1
  }
  convolution_param {
    num_output: 1024
    bias_term: false
    pad: 0
    kernel_size: 1
    stride: 1
  }
}
layer {
  name: "bn4a_branch2c"
  type: "BatchNorm"
  bottom: "res4a_branch2c"
  top: "res4a_branch2c"
  batch_norm_param {
    use_global_stats: true
  }
}
layer {
  name: "scale4a_branch2c"
  type: "Scale"
  bottom: "res4a_branch2c"
  top: "res4a_branch2c"
  scale_param {
    bias_term: true
  }
}
layer {
  name: "res4a"
  type: "Eltwise"
  bottom: "res4a_branch1"
  bottom: "res4a_branch2c"
  top: "res4a"
}
layer {
  name: "res4a_relu"
  type: "ReLU"
  bottom: "res4a"
  top: "res4a"
}
layer {
  name: "res4b_branch2a"
  type: "Convolution"
  bottom: "res4a"
  top: "res4b_branch2a"
  param {
    lr_mult: 1
    decay_mult: 1
  }
  convolution_param {
    num_output: 256
    bias_term: false
    pad: 0
    kernel_size: 1
    stride: 1
  }
}
layer {
  name: "bn4b_branch2a"
  type: "BatchNorm"
  bottom: "res4b_branch2a"
  top: "res4b_branch2a"
  batch_norm_param {
    use_global_stats: true
  }
}
layer {
  name: "scale4b_branch2a"
  type: "Scale"
  bottom: "res4b_branch2a"
  top: "res4b_branch2a"
  scale_param {
    bias_term: true
  }
}
layer {
  name: "res4b_branch2a_relu"
  type: "ReLU"
  bottom: "res4b_branch2a"
  top: "res4b_branch2a"
}
layer {
  name: "res4b_branch2b"
  type: "Convolution"
  bottom: "res4b_branch2a"
  top: "res4b_branch2b"
  param {
    lr_mult: 1
    decay_mult: 1
  }
  convolution_param {
    num_output: 256
    bias_term: false
    pad: 1
    kernel_size: 3
    stride: 1
  }
}
layer {
  name: "bn4b_branch2b"
  type: "BatchNorm"
  bottom: "res4b_branch2b"
  top: "res4b_branch2b"
  batch_norm_param {
    use_global_stats: true
  }
}
layer {
  name: "scale4b_branch2b"
  type: "Scale"
  bottom: "res4b_branch2b"
  top: "res4b_branch2b"
  scale_param {
    bias_term: true
  }
}
layer {
  name: "res4b_branch2b_relu"
  type: "ReLU"
  bottom: "res4b_branch2b"
  top: "res4b_branch2b"
}
layer {
  name: "res4b_branch2c"
  type: "Convolution"
  bottom: "res4b_branch2b"
  top: "res4b_branch2c"
  param {
    lr_mult: 1
    decay_mult: 1
  }
  convolution_param {
    num_output: 1024
    bias_term: false
    pad: 0
    kernel_size: 1
    stride: 1
  }
}
layer {
  name: "bn4b_branch2c"
  type: "BatchNorm"
  bottom: "res4b_branch2c"
  top: "res4b_branch2c"
  batch_norm_param {
    use_global_stats: true
  }
}
layer {
  name: "scale4b_branch2c"
  type: "Scale"
  bottom: "res4b_branch2c"
  top: "res4b_branch2c"
  scale_param {
    bias_term: true
  }
}
layer {
  name: "res4b"
  type: "Eltwise"
  bottom: "res4a"
  bottom: "res4b_branch2c"
  top: "res4b"
}
layer {
  name: "res4b_relu"
  type: "ReLU"
  bottom: "res4b"
  top: "res4b"
}
layer {
  name: "res4c_branch2a"
  type: "Convolution"
  bottom: "res4b"
  top: "res4c_branch2a"
  param {
    lr_mult: 1
    decay_mult: 1
  }
  convolution_param {
    num_output: 256
    bias_term: false
    pad: 0
    kernel_size: 1
    stride: 1
  }
}
layer {
  name: "bn4c_branch2a"
  type: "BatchNorm"
  bottom: "res4c_branch2a"
  top: "res4c_branch2a"
  batch_norm_param {
    use_global_stats: true
  }
}
layer {
  name: "scale4c_branch2a"
  type: "Scale"
  bottom: "res4c_branch2a"
  top: "res4c_branch2a"
  scale_param {
    bias_term: true
  }
}
layer {
  name: "res4c_branch2a_relu"
  type: "ReLU"
  bottom: "res4c_branch2a"
  top: "res4c_branch2a"
}
layer {
  name: "res4c_branch2b"
  type: "Convolution"
  bottom: "res4c_branch2a"
  top: "res4c_branch2b"
  param {
    lr_mult: 1
    decay_mult: 1
  }
  convolution_param {
    num_output: 256
    bias_term: false
    pad: 1
    kernel_size: 3
    stride: 1
  }
}
layer {
  name: "bn4c_branch2b"
  type: "BatchNorm"
  bottom: "res4c_branch2b"
  top: "res4c_branch2b"
  batch_norm_param {
    use_global_stats: true
  }
}
layer {
  name: "scale4c_branch2b"
  type: "Scale"
  bottom: "res4c_branch2b"
  top: "res4c_branch2b"
  scale_param {
    bias_term: true
  }
}
layer {
  name: "res4c_branch2b_relu"
  type: "ReLU"
  bottom: "res4c_branch2b"
  top: "res4c_branch2b"
}
layer {
  name: "res4c_branch2c"
  type: "Convolution"
  bottom: "res4c_branch2b"
  top: "res4c_branch2c"
  param {
    lr_mult: 1
    decay_mult: 1
  }
  convolution_param {
    num_output: 1024
    bias_term: false
    pad: 0
    kernel_size: 1
    stride: 1
  }
}
layer {
  name: "bn4c_branch2c"
  type: "BatchNorm"
  bottom: "res4c_branch2c"
  top: "res4c_branch2c"
  batch_norm_param {
    use_global_stats: true
  }
}
layer {
  name: "scale4c_branch2c"
  type: "Scale"
  bottom: "res4c_branch2c"
  top: "res4c_branch2c"
  scale_param {
    bias_term: true
  }
}
layer {
  name: "res4c"
  type: "Eltwise"
  bottom: "res4b"
  bottom: "res4c_branch2c"
  top: "res4c"
}
layer {
  name: "res4c_relu"
  type: "ReLU"
  bottom: "res4c"
  top: "res4c"
}
layer {
  name: "res4d_branch2a"
  type: "Convolution"
  bottom: "res4c"
  top: "res4d_branch2a"
  param {
    lr_mult: 1
    decay_mult: 1
  }
  convolution_param {
    num_output: 256
    bias_term: false
    pad: 0
    kernel_size: 1
    stride: 1
  }
}
layer {
  name: "bn4d_branch2a"
  type: "BatchNorm"
  bottom: "res4d_branch2a"
  top: "res4d_branch2a"
  batch_norm_param {
    use_global_stats: true
  }
}
layer {
  name: "scale4d_branch2a"
  type: "Scale"
  bottom: "res4d_branch2a"
  top: "res4d_branch2a"
  scale_param {
    bias_term: true
  }
}
layer {
  name: "res4d_branch2a_relu"
  type: "ReLU"
  bottom: "res4d_branch2a"
  top: "res4d_branch2a"
}
layer {
  name: "res4d_branch2b"
  type: "Convolution"
  bottom: "res4d_branch2a"
  top: "res4d_branch2b"
  param {
    lr_mult: 1
    decay_mult: 1
  }
  convolution_param {
    num_output: 256
    bias_term: false
    pad: 1
    kernel_size: 3
    stride: 1
  }
}
layer {
  name: "bn4d_branch2b"
  type: "BatchNorm"
  bottom: "res4d_branch2b"
  top: "res4d_branch2b"
  batch_norm_param {
    use_global_stats: true
  }
}
layer {
  name: "scale4d_branch2b"
  type: "Scale"
  bottom: "res4d_branch2b"
  top: "res4d_branch2b"
  scale_param {
    bias_term: true
  }
}
layer {
  name: "res4d_branch2b_relu"
  type: "ReLU"
  bottom: "res4d_branch2b"
  top: "res4d_branch2b"
}
layer {
  name: "res4d_branch2c"
  type: "Convolution"
  bottom: "res4d_branch2b"
  top: "res4d_branch2c"
  param {
    lr_mult: 1
    decay_mult: 1
  }
  convolution_param {
    num_output: 1024
    bias_term: false
    pad: 0
    kernel_size: 1
    stride: 1
  }
}
layer {
  name: "bn4d_branch2c"
  type: "BatchNorm"
  bottom: "res4d_branch2c"
  top: "res4d_branch2c"
  batch_norm_param {
    use_global_stats: true
  }
}
layer {
  name: "scale4d_branch2c"
  type: "Scale"
  bottom: "res4d_branch2c"
  top: "res4d_branch2c"
  scale_param {
    bias_term: true
  }
}
layer {
  name: "res4d"
  type: "Eltwise"
  bottom: "res4c"
  bottom: "res4d_branch2c"
  top: "res4d"
}
layer {
  name: "res4d_relu"
  type: "ReLU"
  bottom: "res4d"
  top: "res4d"
}
layer {
  name: "res4e_branch2a"
  type: "Convolution"
  bottom: "res4d"
  top: "res4e_branch2a"
  param {
    lr_mult: 1
    decay_mult: 1
  }
  convolution_param {
    num_output: 256
    bias_term: false
    pad: 0
    kernel_size: 1
    stride: 1
  }
}
layer {
  name: "bn4e_branch2a"
  type: "BatchNorm"
  bottom: "res4e_branch2a"
  top: "res4e_branch2a"
  batch_norm_param {
    use_global_stats: true
  }
}
layer {
  name: "scale4e_branch2a"
  type: "Scale"
  bottom: "res4e_branch2a"
  top: "res4e_branch2a"
  scale_param {
    bias_term: true
  }
}
layer {
  name: "res4e_branch2a_relu"
  type: "ReLU"
  bottom: "res4e_branch2a"
  top: "res4e_branch2a"
}
layer {
  name: "res4e_branch2b"
  type: "Convolution"
  bottom: "res4e_branch2a"
  top: "res4e_branch2b"
  param {
    lr_mult: 1
    decay_mult: 1
  }
  convolution_param {
    num_output: 256
    bias_term: false
    pad: 1
    kernel_size: 3
    stride: 1
  }
}
layer {
  name: "bn4e_branch2b"
  type: "BatchNorm"
  bottom: "res4e_branch2b"
  top: "res4e_branch2b"
  batch_norm_param {
    use_global_stats: true
  }
}
layer {
  name: "scale4e_branch2b"
  type: "Scale"
  bottom: "res4e_branch2b"
  top: "res4e_branch2b"
  scale_param {
    bias_term: true
  }
}
layer {
  name: "res4e_branch2b_relu"
  type: "ReLU"
  bottom: "res4e_branch2b"
  top: "res4e_branch2b"
}
layer {
  name: "res4e_branch2c"
  type: "Convolution"
  bottom: "res4e_branch2b"
  top: "res4e_branch2c"
  param {
    lr_mult: 1
    decay_mult: 1
  }
  convolution_param {
    num_output: 1024
    bias_term: false
    pad: 0
    kernel_size: 1
    stride: 1
  }
}
layer {
  name: "bn4e_branch2c"
  type: "BatchNorm"
  bottom: "res4e_branch2c"
  top: "res4e_branch2c"
  batch_norm_param {
    use_global_stats: true
  }
}
layer {
  name: "scale4e_branch2c"
  type: "Scale"
  bottom: "res4e_branch2c"
  top: "res4e_branch2c"
  scale_param {
    bias_term: true
  }
}
layer {
  name: "res4e"
  type: "Eltwise"
  bottom: "res4d"
  bottom: "res4e_branch2c"
  top: "res4e"
}
layer {
  name: "res4e_relu"
  type: "ReLU"
  bottom: "res4e"
  top: "res4e"
}
layer {
  name: "res4f_branch2a"
  type: "Convolution"
  bottom: "res4e"
  top: "res4f_branch2a"
  param {
    lr_mult: 1
    decay_mult: 1
  }
  convolution_param {
    num_output: 256
    bias_term: false
    pad: 0
    kernel_size: 1
    stride: 1
  }
}
layer {
  name: "bn4f_branch2a"
  type: "BatchNorm"
  bottom: "res4f_branch2a"
  top: "res4f_branch2a"
  batch_norm_param {
    use_global_stats: true
  }
}
layer {
  name: "scale4f_branch2a"
  type: "Scale"
  bottom: "res4f_branch2a"
  top: "res4f_branch2a"
  scale_param {
    bias_term: true
  }
}
layer {
  name: "res4f_branch2a_relu"
  type: "ReLU"
  bottom: "res4f_branch2a"
  top: "res4f_branch2a"
}
layer {
  name: "res4f_branch2b"
  type: "Convolution"
  bottom: "res4f_branch2a"
  top: "res4f_branch2b"
  param {
    lr_mult: 1
    decay_mult: 1
  }
  convolution_param {
    num_output: 256
    bias_term: false
    pad: 1
    kernel_size: 3
    stride: 1
  }
}
layer {
  name: "bn4f_branch2b"
  type: "BatchNorm"
  bottom: "res4f_branch2b"
  top: "res4f_branch2b"
  batch_norm_param {
    use_global_stats: true
  }
}
layer {
  name: "scale4f_branch2b"
  type: "Scale"
  bottom: "res4f_branch2b"
  top: "res4f_branch2b"
  scale_param {
    bias_term: true
  }
}
layer {
  name: "res4f_branch2b_relu"
  type: "ReLU"
  bottom: "res4f_branch2b"
  top: "res4f_branch2b"
}
layer {
  name: "res4f_branch2c"
  type: "Convolution"
  bottom: "res4f_branch2b"
  top: "res4f_branch2c"
  param {
    lr_mult: 1
    decay_mult: 1
  }
  convolution_param {
    num_output: 1024
    bias_term: false
    pad: 0
    kernel_size: 1
    stride: 1
  }
}
layer {
  name: "bn4f_branch2c"
  type: "BatchNorm"
  bottom: "res4f_branch2c"
  top: "res4f_branch2c"
  batch_norm_param {
    use_global_stats: true
  }
}
layer {
  name: "scale4f_branch2c"
  type: "Scale"
  bottom: "res4f_branch2c"
  top: "res4f_branch2c"
  scale_param {
    bias_term: true
  }
}
layer {
  name: "res4f"
  type: "Eltwise"
  bottom: "res4e"
  bottom: "res4f_branch2c"
  top: "res4f"
}
layer {
  name: "res4f_relu"
  type: "ReLU"
  bottom: "res4f"
  top: "res
I0630 04:54:44.186190  1491 layer_factory.hpp:77] Creating layer input
I0630 04:54:44.186342  1491 db_lmdb.cpp:35] Opened lmdb ../../../data_subsets/subtrain2_lmdb
I0630 04:54:44.186388  1491 net.cpp:84] Creating Layer input
I0630 04:54:44.186409  1491 net.cpp:380] input -> data
I0630 04:54:44.186455  1491 net.cpp:380] input -> label
I0630 04:54:44.186483  1491 data_transformer.cpp:25] Loading mean file from: ../../../data_subsets/subtrain2_mean.binaryproto
I0630 04:54:44.202745  1491 data_layer.cpp:45] output data size: 8,3,224,224
I0630 04:54:44.215042  1491 net.cpp:122] Setting up input
I0630 04:54:44.215098  1491 net.cpp:129] Top shape: 8 3 224 224 (1204224)
I0630 04:54:44.215112  1491 net.cpp:129] Top shape: 8 (8)
I0630 04:54:44.215121  1491 net.cpp:137] Memory required for data: 4816928
I0630 04:54:44.215138  1491 layer_factory.hpp:77] Creating layer label_input_1_split
I0630 04:54:44.215173  1491 net.cpp:84] Creating Layer label_input_1_split
I0630 04:54:44.215195  1491 net.cpp:406] label_input_1_split <- label
I0630 04:54:44.215225  1491 net.cpp:380] label_input_1_split -> label_input_1_split_0
I0630 04:54:44.215250  1491 net.cpp:380] label_input_1_split -> label_input_1_split_1
I0630 04:54:44.215266  1491 net.cpp:380] label_input_1_split -> label_input_1_split_2
I0630 04:54:44.215281  1491 net.cpp:380] label_input_1_split -> label_input_1_split_3
I0630 04:54:44.215363  1491 net.cpp:122] Setting up label_input_1_split
I0630 04:54:44.215384  1491 net.cpp:129] Top shape: 8 (8)
I0630 04:54:44.215394  1491 net.cpp:129] Top shape: 8 (8)
I0630 04:54:44.215404  1491 net.cpp:129] Top shape: 8 (8)
I0630 04:54:44.215414  1491 net.cpp:129] Top shape: 8 (8)
I0630 04:54:44.215421  1491 net.cpp:137] Memory required for data: 4817056
I0630 04:54:44.215430  1491 layer_factory.hpp:77] Creating layer conv1
I0630 04:54:44.215466  1491 net.cpp:84] Creating Layer conv1
I0630 04:54:44.215484  1491 net.cpp:406] conv1 <- data
I0630 04:54:44.215499  1491 net.cpp:380] conv1 -> conv1
I0630 04:54:44.399384  1491 net.cpp:122] Setting up conv1
I0630 04:54:44.399432  1491 net.cpp:129] Top shape: 8 64 112 112 (6422528)
I0630 04:54:44.399438  1491 net.cpp:137] Memory required for data: 30507168
I0630 04:54:44.399464  1491 layer_factory.hpp:77] Creating layer bn_conv1
I0630 04:54:44.399484  1491 net.cpp:84] Creating Layer bn_conv1
I0630 04:54:44.399490  1491 net.cpp:406] bn_conv1 <- conv1
I0630 04:54:44.399500  1491 net.cpp:367] bn_conv1 -> conv1 (in-place)
I0630 04:54:44.399700  1491 net.cpp:122] Setting up bn_conv1
I0630 04:54:44.399718  1491 net.cpp:129] Top shape: 8 64 112 112 (6422528)
I0630 04:54:44.399744  1491 net.cpp:137] Memory required for data: 56197280
I0630 04:54:44.399760  1491 layer_factory.hpp:77] Creating layer scale_conv1
I0630 04:54:44.399776  1491 net.cpp:84] Creating Layer scale_conv1
I0630 04:54:44.399780  1491 net.cpp:406] scale_conv1 <- conv1
I0630 04:54:44.399786  1491 net.cpp:367] scale_conv1 -> conv1 (in-place)
I0630 04:54:44.399848  1491 layer_factory.hpp:77] Creating layer scale_conv1
I0630 04:54:44.399986  1491 net.cpp:122] Setting up scale_conv1
I0630 04:54:44.400004  1491 net.cpp:129] Top shape: 8 64 112 112 (6422528)
I0630 04:54:44.400009  1491 net.cpp:137] Memory required for data: 81887392
I0630 04:54:44.400017  1491 layer_factory.hpp:77] Creating layer conv1_relu
I0630 04:54:44.400027  1491 net.cpp:84] Creating Layer conv1_relu
I0630 04:54:44.400030  1491 net.cpp:406] conv1_relu <- conv1
I0630 04:54:44.400035  1491 net.cpp:367] conv1_relu -> conv1 (in-place)
I0630 04:54:44.400182  1491 net.cpp:122] Setting up conv1_relu
I0630 04:54:44.400200  1491 net.cpp:129] Top shape: 8 64 112 112 (6422528)
I0630 04:54:44.400204  1491 net.cpp:137] Memory required for data: 107577504
I0630 04:54:44.400209  1491 layer_factory.hpp:77] Creating layer pool1
I0630 04:54:44.400221  1491 net.cpp:84] Creating Layer pool1
I0630 04:54:44.400225  1491 net.cpp:406] pool1 <- conv1
I0630 04:54:44.400233  1491 net.cpp:380] pool1 -> pool1
I0630 04:54:44.400287  1491 net.cpp:122] Setting up pool1
I0630 04:54:44.400302  1491 net.cpp:129] Top shape: 8 64 56 56 (1605632)
I0630 04:54:44.400306  1491 net.cpp:137] Memory required for data: 114000032
I0630 04:54:44.400310  1491 layer_factory.hpp:77] Creating layer pool1_pool1_0_split
I0630 04:54:44.400318  1491 net.cpp:84] Creating Layer pool1_pool1_0_split
I0630 04:54:44.400322  1491 net.cpp:406] pool1_pool1_0_split <- pool1
I0630 04:54:44.400327  1491 net.cpp:380] pool1_pool1_0_split -> pool1_pool1_0_split_0
I0630 04:54:44.400336  1491 net.cpp:380] pool1_pool1_0_split -> pool1_pool1_0_split_1
I0630 04:54:44.400368  1491 net.cpp:122] Setting up pool1_pool1_0_split
I0630 04:54:44.400377  1491 net.cpp:129] Top shape: 8 64 56 56 (1605632)
I0630 04:54:44.400382  1491 net.cpp:129] Top shape: 8 64 56 56 (1605632)
I0630 04:54:44.400384  1491 net.cpp:137] Memory required for data: 126845088
I0630 04:54:44.400388  1491 layer_factory.hpp:77] Creating layer res2a_branch1
I0630 04:54:44.400403  1491 net.cpp:84] Creating Layer res2a_branch1
I0630 04:54:44.400408  1491 net.cpp:406] res2a_branch1 <- pool1_pool1_0_split_0
I0630 04:54:44.400413  1491 net.cpp:380] res2a_branch1 -> res2a_branch1
I0630 04:54:44.401334  1491 net.cpp:122] Setting up res2a_branch1
I0630 04:54:44.401355  1491 net.cpp:129] Top shape: 8 256 56 56 (6422528)
I0630 04:54:44.401360  1491 net.cpp:137] Memory required for data: 152535200
I0630 04:54:44.401365  1491 layer_factory.hpp:77] Creating layer bn2a_branch1
I0630 04:54:44.401376  1491 net.cpp:84] Creating Layer bn2a_branch1
I0630 04:54:44.401381  1491 net.cpp:406] bn2a_branch1 <- res2a_branch1
I0630 04:54:44.401387  1491 net.cpp:367] bn2a_branch1 -> res2a_branch1 (in-place)
I0630 04:54:44.402144  1491 net.cpp:122] Setting up bn2a_branch1
I0630 04:54:44.402164  1491 net.cpp:129] Top shape: 8 256 56 56 (6422528)
I0630 04:54:44.402168  1491 net.cpp:137] Memory required for data: 178225312
I0630 04:54:44.402180  1491 layer_factory.hpp:77] Creating layer scale2a_branch1
I0630 04:54:44.402189  1491 net.cpp:84] Creating Layer scale2a_branch1
I0630 04:54:44.402192  1491 net.cpp:406] scale2a_branch1 <- res2a_branch1
I0630 04:54:44.402200  1491 net.cpp:367] scale2a_branch1 -> res2a_branch1 (in-place)
I0630 04:54:44.402245  1491 layer_factory.hpp:77] Creating layer scale2a_branch1
I0630 04:54:44.402360  1491 net.cpp:122] Setting up scale2a_branch1
I0630 04:54:44.402376  1491 net.cpp:129] Top shape: 8 256 56 56 (6422528)
I0630 04:54:44.402380  1491 net.cpp:137] Memory required for data: 203915424
I0630 04:54:44.402387  1491 layer_factory.hpp:77] Creating layer res2a_branch2a
I0630 04:54:44.402400  1491 net.cpp:84] Creating Layer res2a_branch2a
I0630 04:54:44.402417  1491 net.cpp:406] res2a_branch2a <- pool1_pool1_0_split_1
I0630 04:54:44.402427  1491 net.cpp:380] res2a_branch2a -> res2a_branch2a
I0630 04:54:44.403234  1491 net.cpp:122] Setting up res2a_branch2a
I0630 04:54:44.403254  1491 net.cpp:129] Top shape: 8 64 56 56 (1605632)
I0630 04:54:44.403259  1491 net.cpp:137] Memory required for data: 210337952
I0630 04:54:44.403265  1491 layer_factory.hpp:77] Creating layer bn2a_branch2a
I0630 04:54:44.403275  1491 net.cpp:84] Creating Layer bn2a_branch2a
I0630 04:54:44.403280  1491 net.cpp:406] bn2a_branch2a <- res2a_branch2a
I0630 04:54:44.403286  1491 net.cpp:367] bn2a_branch2a -> res2a_branch2a (in-place)
I0630 04:54:44.403465  1491 net.cpp:122] Setting up bn2a_branch2a
I0630 04:54:44.403481  1491 net.cpp:129] Top shape: 8 64 56 56 (1605632)
I0630 04:54:44.403484  1491 net.cpp:137] Memory required for data: 216760480
I0630 04:54:44.403498  1491 layer_factory.hpp:77] Creating layer scale2a_branch2a
I0630 04:54:44.403506  1491 net.cpp:84] Creating Layer scale2a_branch2a
I0630 04:54:44.403511  1491 net.cpp:406] scale2a_branch2a <- res2a_branch2a
I0630 04:54:44.403517  1491 net.cpp:367] scale2a_branch2a -> res2a_branch2a (in-place)
I0630 04:54:44.403561  1491 layer_factory.hpp:77] Creating layer scale2a_branch2a
I0630 04:54:44.403687  1491 net.cpp:122] Setting up scale2a_branch2a
I0630 04:54:44.403702  1491 net.cpp:129] Top shape: 8 64 56 56 (1605632)
I0630 04:54:44.403707  1491 net.cpp:137] Memory required for data: 223183008
I0630 04:54:44.403712  1491 layer_factory.hpp:77] Creating layer res2a_branch2a_relu
I0630 04:54:44.403722  1491 net.cpp:84] Creating Layer res2a_branch2a_relu
I0630 04:54:44.403726  1491 net.cpp:406] res2a_branch2a_relu <- res2a_branch2a
I0630 04:54:44.403731  1491 net.cpp:367] res2a_branch2a_relu -> res2a_branch2a (in-place)
I0630 04:54:44.403975  1491 net.cpp:122] Setting up res2a_branch2a_relu
I0630 04:54:44.403992  1491 net.cpp:129] Top shape: 8 64 56 56 (1605632)
I0630 04:54:44.403996  1491 net.cpp:137] Memory required for data: 229605536
I0630 04:54:44.404000  1491 layer_factory.hpp:77] Creating layer res2a_branch2b
I0630 04:54:44.404013  1491 net.cpp:84] Creating Layer res2a_branch2b
I0630 04:54:44.404017  1491 net.cpp:406] res2a_branch2b <- res2a_branch2a
I0630 04:54:44.404024  1491 net.cpp:380] res2a_branch2b -> res2a_branch2b
I0630 04:54:44.405321  1491 net.cpp:122] Setting up res2a_branch2b
I0630 04:54:44.405344  1491 net.cpp:129] Top shape: 8 64 56 56 (1605632)
I0630 04:54:44.405349  1491 net.cpp:137] Memory required for data: 236028064
I0630 04:54:44.405355  1491 layer_factory.hpp:77] Creating layer bn2a_branch2b
I0630 04:54:44.405364  1491 net.cpp:84] Creating Layer bn2a_branch2b
I0630 04:54:44.405369  1491 net.cpp:406] bn2a_branch2b <- res2a_branch2b
I0630 04:54:44.405377  1491 net.cpp:367] bn2a_branch2b -> res2a_branch2b (in-place)
I0630 04:54:44.405568  1491 net.cpp:122] Setting up bn2a_branch2b
I0630 04:54:44.405585  1491 net.cpp:129] Top shape: 8 64 56 56 (1605632)
I0630 04:54:44.405588  1491 net.cpp:137] Memory required for data: 242450592
I0630 04:54:44.405597  1491 layer_factory.hpp:77] Creating layer scale2a_branch2b
I0630 04:54:44.405604  1491 net.cpp:84] Creating Layer scale2a_branch2b
I0630 04:54:44.405608  1491 net.cpp:406] scale2a_branch2b <- res2a_branch2b
I0630 04:54:44.405617  1491 net.cpp:367] scale2a_branch2b -> res2a_branch2b (in-place)
I0630 04:54:44.405658  1491 layer_factory.hpp:77] Creating layer scale2a_branch2b
I0630 04:54:44.405798  1491 net.cpp:122] Setting up scale2a_branch2b
I0630 04:54:44.405815  1491 net.cpp:129] Top shape: 8 64 56 56 (1605632)
I0630 04:54:44.405819  1491 net.cpp:137] Memory required for data: 248873120
I0630 04:54:44.405827  1491 layer_factory.hpp:77] Creating layer res2a_branch2b_relu
I0630 04:54:44.405833  1491 net.cpp:84] Creating Layer res2a_branch2b_relu
I0630 04:54:44.405838  1491 net.cpp:406] res2a_branch2b_relu <- res2a_branch2b
I0630 04:54:44.405844  1491 net.cpp:367] res2a_branch2b_relu -> res2a_branch2b (in-place)
I0630 04:54:44.406106  1491 net.cpp:122] Setting up res2a_branch2b_relu
I0630 04:54:44.406138  1491 net.cpp:129] Top shape: 8 64 56 56 (1605632)
I0630 04:54:44.406146  1491 net.cpp:137] Memory required for data: 255295648
I0630 04:54:44.406150  1491 layer_factory.hpp:77] Creating layer res2a_branch2c
I0630 04:54:44.406159  1491 net.cpp:84] Creating Layer res2a_branch2c
I0630 04:54:44.406164  1491 net.cpp:406] res2a_branch2c <- res2a_branch2b
I0630 04:54:44.406173  1491 net.cpp:380] res2a_branch2c -> res2a_branch2c
I0630 04:54:44.407116  1491 net.cpp:122] Setting up res2a_branch2c
I0630 04:54:44.407140  1491 net.cpp:129] Top shape: 8 256 56 56 (6422528)
I0630 04:54:44.407147  1491 net.cpp:137] Memory required for data: 280985760
I0630 04:54:44.407158  1491 layer_factory.hpp:77] Creating layer bn2a_branch2c
I0630 04:54:44.407174  1491 net.cpp:84] Creating Layer bn2a_branch2c
I0630 04:54:44.407181  1491 net.cpp:406] bn2a_branch2c <- res2a_branch2c
I0630 04:54:44.407186  1491 net.cpp:367] bn2a_branch2c -> res2a_branch2c (in-place)
I0630 04:54:44.407378  1491 net.cpp:122] Setting up bn2a_branch2c
I0630 04:54:44.407395  1491 net.cpp:129] Top shape: 8 256 56 56 (6422528)
I0630 04:54:44.407399  1491 net.cpp:137] Memory required for data: 306675872
I0630 04:54:44.407408  1491 layer_factory.hpp:77] Creating layer scale2a_branch2c
I0630 04:54:44.407415  1491 net.cpp:84] Creating Layer scale2a_branch2c
I0630 04:54:44.407420  1491 net.cpp:406] scale2a_branch2c <- res2a_branch2c
I0630 04:54:44.407428  1491 net.cpp:367] scale2a_branch2c -> res2a_branch2c (in-place)
I0630 04:54:44.407470  1491 layer_factory.hpp:77] Creating layer scale2a_branch2c
I0630 04:54:44.407598  1491 net.cpp:122] Setting up scale2a_branch2c
I0630 04:54:44.407615  1491 net.cpp:129] Top shape: 8 256 56 56 (6422528)
I0630 04:54:44.407619  1491 net.cpp:137] Memory required for data: 332365984
I0630 04:54:44.407626  1491 layer_factory.hpp:77] Creating layer res2a
I0630 04:54:44.407639  1491 net.cpp:84] Creating Layer res2a
I0630 04:54:44.407644  1491 net.cpp:406] res2a <- res2a_branch1
I0630 04:54:44.407649  1491 net.cpp:406] res2a <- res2a_branch2c
I0630 04:54:44.407654  1491 net.cpp:380] res2a -> res2a
I0630 04:54:44.407687  1491 net.cpp:122] Setting up res2a
I0630 04:54:44.407697  1491 net.cpp:129] Top shape: 8 256 56 56 (6422528)
I0630 04:54:44.407701  1491 net.cpp:137] Memory required for data: 358056096
I0630 04:54:44.407706  1491 layer_factory.hpp:77] Creating layer res2a_relu
I0630 04:54:44.407712  1491 net.cpp:84] Creating Layer res2a_relu
I0630 04:54:44.407716  1491 net.cpp:406] res2a_relu <- res2a
I0630 04:54:44.407723  1491 net.cpp:367] res2a_relu -> res2a (in-place)
I0630 04:54:44.407873  1491 net.cpp:122] Setting up res2a_relu
I0630 04:54:44.407892  1491 net.cpp:129] Top shape: 8 256 56 56 (6422528)
I0630 04:54:44.407896  1491 net.cpp:137] Memory required for data: 383746208
I0630 04:54:44.407901  1491 layer_factory.hpp:77] Creating layer res2a_res2a_relu_0_split
I0630 04:54:44.407908  1491 net.cpp:84] Creating Layer res2a_res2a_relu_0_split
I0630 04:54:44.407912  1491 net.cpp:406] res2a_res2a_relu_0_split <- res2a
I0630 04:54:44.407917  1491 net.cpp:380] res2a_res2a_relu_0_split -> res2a_res2a_relu_0_split_0
I0630 04:54:44.407924  1491 net.cpp:380] res2a_res2a_relu_0_split -> res2a_res2a_relu_0_split_1
I0630 04:54:44.407968  1491 net.cpp:122] Setting up res2a_res2a_relu_0_split
I0630 04:54:44.407982  1491 net.cpp:129] Top shape: 8 256 56 56 (6422528)
I0630 04:54:44.407989  1491 net.cpp:129] Top shape: 8 256 56 56 (6422528)
I0630 04:54:44.407992  1491 net.cpp:137] Memory required for data: 435126432
I0630 04:54:44.407995  1491 layer_factory.hpp:77] Creating layer res2b_branch2a
I0630 04:54:44.408008  1491 net.cpp:84] Creating Layer res2b_branch2a
I0630 04:54:44.408013  1491 net.cpp:406] res2b_branch2a <- res2a_res2a_relu_0_split_0
I0630 04:54:44.408021  1491 net.cpp:380] res2b_branch2a -> res2b_branch2a
I0630 04:54:44.408865  1491 net.cpp:122] Setting up res2b_branch2a
I0630 04:54:44.408885  1491 net.cpp:129] Top shape: 8 64 56 56 (1605632)
I0630 04:54:44.408890  1491 net.cpp:137] Memory required for data: 441548960
I0630 04:54:44.408910  1491 layer_factory.hpp:77] Creating layer bn2b_branch2a
I0630 04:54:44.408921  1491 net.cpp:84] Creating Layer bn2b_branch2a
I0630 04:54:44.408926  1491 net.cpp:406] bn2b_branch2a <- res2b_branch2a
I0630 04:54:44.408932  1491 net.cpp:367] bn2b_branch2a -> res2b_branch2a (in-place)
I0630 04:54:44.409126  1491 net.cpp:122] Setting up bn2b_branch2a
I0630 04:54:44.409142  1491 net.cpp:129] Top shape: 8 64 56 56 (1605632)
I0630 04:54:44.409147  1491 net.cpp:137] Memory required for data: 447971488
I0630 04:54:44.409159  1491 layer_factory.hpp:77] Creating layer scale2b_branch2a
I0630 04:54:44.409173  1491 net.cpp:84] Creating Layer scale2b_branch2a
I0630 04:54:44.409178  1491 net.cpp:406] scale2b_branch2a <- res2b_branch2a
I0630 04:54:44.409183  1491 net.cpp:367] scale2b_branch2a -> res2b_branch2a (in-place)
I0630 04:54:44.409231  1491 layer_factory.hpp:77] Creating layer scale2b_branch2a
I0630 04:54:44.409359  1491 net.cpp:122] Setting up scale2b_branch2a
I0630 04:54:44.409374  1491 net.cpp:129] Top shape: 8 64 56 56 (1605632)
I0630 04:54:44.409379  1491 net.cpp:137] Memory required for data: 454394016
I0630 04:54:44.409385  1491 layer_factory.hpp:77] Creating layer res2b_branch2a_relu
I0630 04:54:44.409397  1491 net.cpp:84] Creating Layer res2b_branch2a_relu
I0630 04:54:44.409401  1491 net.cpp:406] res2b_branch2a_relu <- res2b_branch2a
I0630 04:54:44.409406  1491 net.cpp:367] res2b_branch2a_relu -> res2b_branch2a (in-place)
I0630 04:54:44.409662  1491 net.cpp:122] Setting up res2b_branch2a_relu
I0630 04:54:44.409679  1491 net.cpp:129] Top shape: 8 64 56 56 (1605632)
I0630 04:54:44.409683  1491 net.cpp:137] Memory required for data: 460816544
I0630 04:54:44.409688  1491 layer_factory.hpp:77] Creating layer res2b_branch2b
I0630 04:54:44.409703  1491 net.cpp:84] Creating Layer res2b_branch2b
I0630 04:54:44.409708  1491 net.cpp:406] res2b_branch2b <- res2b_branch2a
I0630 04:54:44.409715  1491 net.cpp:380] res2b_branch2b -> res2b_branch2b
I0630 04:54:44.410503  1491 net.cpp:122] Setting up res2b_branch2b
I0630 04:54:44.410526  1491 net.cpp:129] Top shape: 8 64 56 56 (1605632)
I0630 04:54:44.410531  1491 net.cpp:137] Memory required for data: 467239072
I0630 04:54:44.410537  1491 layer_factory.hpp:77] Creating layer bn2b_branch2b
I0630 04:54:44.410548  1491 net.cpp:84] Creating Layer bn2b_branch2b
I0630 04:54:44.410553  1491 net.cpp:406] bn2b_branch2b <- res2b_branch2b
I0630 04:54:44.410558  1491 net.cpp:367] bn2b_branch2b -> res2b_branch2b (in-place)
I0630 04:54:44.410778  1491 net.cpp:122] Setting up bn2b_branch2b
I0630 04:54:44.410794  1491 net.cpp:129] Top shape: 8 64 56 56 (1605632)
I0630 04:54:44.410797  1491 net.cpp:137] Memory required for data: 473661600
I0630 04:54:44.410806  1491 layer_factory.hpp:77] Creating layer scale2b_branch2b
I0630 04:54:44.410815  1491 net.cpp:84] Creating Layer scale2b_branch2b
I0630 04:54:44.410818  1491 net.cpp:406] scale2b_branch2b <- res2b_branch2b
I0630 04:54:44.410823  1491 net.cpp:367] scale2b_branch2b -> res2b_branch2b (in-place)
I0630 04:54:44.410871  1491 layer_factory.hpp:77] Creating layer scale2b_branch2b
I0630 04:54:44.410995  1491 net.cpp:122] Setting up scale2b_branch2b
I0630 04:54:44.411010  1491 net.cpp:129] Top shape: 8 64 56 56 (1605632)
I0630 04:54:44.411015  1491 net.cpp:137] Memory required for data: 480084128
I0630 04:54:44.411021  1491 layer_factory.hpp:77] Creating layer res2b_branch2b_relu
I0630 04:54:44.411033  1491 net.cpp:84] Creating Layer res2b_branch2b_relu
I0630 04:54:44.411037  1491 net.cpp:406] res2b_branch2b_relu <- res2b_branch2b
I0630 04:54:44.411043  1491 net.cpp:367] res2b_branch2b_relu -> res2b_branch2b (in-place)
I0630 04:54:44.411290  1491 net.cpp:122] Setting up res2b_branch2b_relu
I0630 04:54:44.411309  1491 net.cpp:129] Top shape: 8 64 56 56 (1605632)
I0630 04:54:44.411314  1491 net.cpp:137] Memory required for data: 486506656
I0630 04:54:44.411317  1491 layer_factory.hpp:77] Creating layer res2b_branch2c
I0630 04:54:44.411330  1491 net.cpp:84] Creating Layer res2b_branch2c
I0630 04:54:44.411334  1491 net.cpp:406] res2b_branch2c <- res2b_branch2b
I0630 04:54:44.411355  1491 net.cpp:380] res2b_branch2c -> res2b_branch2c
I0630 04:54:44.412372  1491 net.cpp:122] Setting up res2b_branch2c
I0630 04:54:44.412395  1491 net.cpp:129] Top shape: 8 256 56 56 (6422528)
I0630 04:54:44.412400  1491 net.cpp:137] Memory required for data: 512196768
I0630 04:54:44.412406  1491 layer_factory.hpp:77] Creating layer bn2b_branch2c
I0630 04:54:44.412415  1491 net.cpp:84] Creating Layer bn2b_branch2c
I0630 04:54:44.412418  1491 net.cpp:406] bn2b_branch2c <- res2b_branch2c
I0630 04:54:44.412426  1491 net.cpp:367] bn2b_branch2c -> res2b_branch2c (in-place)
I0630 04:54:44.412619  1491 net.cpp:122] Setting up bn2b_branch2c
I0630 04:54:44.412634  1491 net.cpp:129] Top shape: 8 256 56 56 (6422528)
I0630 04:54:44.412639  1491 net.cpp:137] Memory required for data: 537886880
I0630 04:54:44.412647  1491 layer_factory.hpp:77] Creating layer scale2b_branch2c
I0630 04:54:44.412655  1491 net.cpp:84] Creating Layer scale2b_branch2c
I0630 04:54:44.412659  1491 net.cpp:406] scale2b_branch2c <- res2b_branch2c
I0630 04:54:44.412665  1491 net.cpp:367] scale2b_branch2c -> res2b_branch2c (in-place)
I0630 04:54:44.412710  1491 layer_factory.hpp:77] Creating layer scale2b_branch2c
I0630 04:54:44.412838  1491 net.cpp:122] Setting up scale2b_branch2c
I0630 04:54:44.412853  1491 net.cpp:129] Top shape: 8 256 56 56 (6422528)
I0630 04:54:44.412858  1491 net.cpp:137] Memory required for data: 563576992
I0630 04:54:44.412864  1491 layer_factory.hpp:77] Creating layer res2b
I0630 04:54:44.412873  1491 net.cpp:84] Creating Layer res2b
I0630 04:54:44.412878  1491 net.cpp:406] res2b <- res2a_res2a_relu_0_split_1
I0630 04:54:44.412883  1491 net.cpp:406] res2b <- res2b_branch2c
I0630 04:54:44.412891  1491 net.cpp:380] res2b -> res2b
I0630 04:54:44.412919  1491 net.cpp:122] Setting up res2b
I0630 04:54:44.412925  1491 net.cpp:129] Top shape: 8 256 56 56 (6422528)
I0630 04:54:44.412930  1491 net.cpp:137] Memory required for data: 589267104
I0630 04:54:44.412933  1491 layer_factory.hpp:77] Creating layer res2b_relu
I0630 04:54:44.412942  1491 net.cpp:84] Creating Layer res2b_relu
I0630 04:54:44.412946  1491 net.cpp:406] res2b_relu <- res2b
I0630 04:54:44.412951  1491 net.cpp:367] res2b_relu -> res2b (in-place)
I0630 04:54:44.413197  1491 net.cpp:122] Setting up res2b_relu
I0630 04:54:44.413218  1491 net.cpp:129] Top shape: 8 256 56 56 (6422528)
I0630 04:54:44.413223  1491 net.cpp:137] Memory required for data: 614957216
I0630 04:54:44.413226  1491 layer_factory.hpp:77] Creating layer res2b_res2b_relu_0_split
I0630 04:54:44.413233  1491 net.cpp:84] Creating Layer res2b_res2b_relu_0_split
I0630 04:54:44.413238  1491 net.cpp:406] res2b_res2b_relu_0_split <- res2b
I0630 04:54:44.413244  1491 net.cpp:380] res2b_res2b_relu_0_split -> res2b_res2b_relu_0_split_0
I0630 04:54:44.413250  1491 net.cpp:380] res2b_res2b_relu_0_split -> res2b_res2b_relu_0_split_1
I0630 04:54:44.413296  1491 net.cpp:122] Setting up res2b_res2b_relu_0_split
I0630 04:54:44.413311  1491 net.cpp:129] Top shape: 8 256 56 56 (6422528)
I0630 04:54:44.413316  1491 net.cpp:129] Top shape: 8 256 56 56 (6422528)
I0630 04:54:44.413319  1491 net.cpp:137] Memory required for data: 666337440
I0630 04:54:44.413323  1491 layer_factory.hpp:77] Creating layer res2c_branch2a
I0630 04:54:44.413336  1491 net.cpp:84] Creating Layer res2c_branch2a
I0630 04:54:44.413341  1491 net.cpp:406] res2c_branch2a <- res2b_res2b_relu_0_split_0
I0630 04:54:44.413349  1491 net.cpp:380] res2c_branch2a -> res2c_branch2a
I0630 04:54:44.414232  1491 net.cpp:122] Setting up res2c_branch2a
I0630 04:54:44.414252  1491 net.cpp:129] Top shape: 8 64 56 56 (1605632)
I0630 04:54:44.414257  1491 net.cpp:137] Memory required for data: 672759968
I0630 04:54:44.414263  1491 layer_factory.hpp:77] Creating layer bn2c_branch2a
I0630 04:54:44.414273  1491 net.cpp:84] Creating Layer bn2c_branch2a
I0630 04:54:44.414278  1491 net.cpp:406] bn2c_branch2a <- res2c_branch2a
I0630 04:54:44.414283  1491 net.cpp:367] bn2c_branch2a -> res2c_branch2a (in-place)
I0630 04:54:44.414484  1491 net.cpp:122] Setting up bn2c_branch2a
I0630 04:54:44.414515  1491 net.cpp:129] Top shape: 8 64 56 56 (1605632)
I0630 04:54:44.414518  1491 net.cpp:137] Memory required for data: 679182496
I0630 04:54:44.414527  1491 layer_factory.hpp:77] Creating layer scale2c_branch2a
I0630 04:54:44.414535  1491 net.cpp:84] Creating Layer scale2c_branch2a
I0630 04:54:44.414539  1491 net.cpp:406] scale2c_branch2a <- res2c_branch2a
I0630 04:54:44.414544  1491 net.cpp:367] scale2c_branch2a -> res2c_branch2a (in-place)
I0630 04:54:44.414595  1491 layer_factory.hpp:77] Creating layer scale2c_branch2a
I0630 04:54:44.414732  1491 net.cpp:122] Setting up scale2c_branch2a
I0630 04:54:44.414750  1491 net.cpp:129] Top shape: 8 64 56 56 (1605632)
I0630 04:54:44.414754  1491 net.cpp:137] Memory required for data: 685605024
I0630 04:54:44.414762  1491 layer_factory.hpp:77] Creating layer res2c_branch2a_relu
I0630 04:54:44.414768  1491 net.cpp:84] Creating Layer res2c_branch2a_relu
I0630 04:54:44.414772  1491 net.cpp:406] res2c_branch2a_relu <- res2c_branch2a
I0630 04:54:44.414777  1491 net.cpp:367] res2c_branch2a_relu -> res2c_branch2a (in-place)
I0630 04:54:44.415032  1491 net.cpp:122] Setting up res2c_branch2a_relu
I0630 04:54:44.415050  1491 net.cpp:129] Top shape: 8 64 56 56 (1605632)
I0630 04:54:44.415055  1491 net.cpp:137] Memory required for data: 692027552
I0630 04:54:44.415060  1491 layer_factory.hpp:77] Creating layer res2c_branch2b
I0630 04:54:44.415071  1491 net.cpp:84] Creating Layer res2c_branch2b
I0630 04:54:44.415076  1491 net.cpp:406] res2c_branch2b <- res2c_branch2a
I0630 04:54:44.415082  1491 net.cpp:380] res2c_branch2b -> res2c_branch2b
I0630 04:54:44.415889  1491 net.cpp:122] Setting up res2c_branch2b
I0630 04:54:44.415910  1491 net.cpp:129] Top shape: 8 64 56 56 (1605632)
I0630 04:54:44.415913  1491 net.cpp:137] Memory required for data: 698450080
I0630 04:54:44.415920  1491 layer_factory.hpp:77] Creating layer bn2c_branch2b
I0630 04:54:44.415930  1491 net.cpp:84] Creating Layer bn2c_branch2b
I0630 04:54:44.415935  1491 net.cpp:406] bn2c_branch2b <- res2c_branch2b
I0630 04:54:44.415940  1491 net.cpp:367] bn2c_branch2b -> res2c_branch2b (in-place)
I0630 04:54:44.416144  1491 net.cpp:122] Setting up bn2c_branch2b
I0630 04:54:44.416160  1491 net.cpp:129] Top shape: 8 64 56 56 (1605632)
I0630 04:54:44.416164  1491 net.cpp:137] Memory required for data: 704872608
I0630 04:54:44.416172  1491 layer_factory.hpp:77] Creating layer scale2c_branch2b
I0630 04:54:44.416182  1491 net.cpp:84] Creating Layer scale2c_branch2b
I0630 04:54:44.416188  1491 net.cpp:406] scale2c_branch2b <- res2c_branch2b
I0630 04:54:44.416193  1491 net.cpp:367] scale2c_branch2b -> res2c_branch2b (in-place)
I0630 04:54:44.416240  1491 layer_factory.hpp:77] Creating layer scale2c_branch2b
I0630 04:54:44.416379  1491 net.cpp:122] Setting up scale2c_branch2b
I0630 04:54:44.416394  1491 net.cpp:129] Top shape: 8 64 56 56 (1605632)
I0630 04:54:44.416399  1491 net.cpp:137] Memory required for data: 711295136
I0630 04:54:44.416405  1491 layer_factory.hpp:77] Creating layer res2c_branch2b_relu
I0630 04:54:44.416417  1491 net.cpp:84] Creating Layer res2c_branch2b_relu
I0630 04:54:44.416421  1491 net.cpp:406] res2c_branch2b_relu <- res2c_branch2b
I0630 04:54:44.416427  1491 net.cpp:367] res2c_branch2b_relu -> res2c_branch2b (in-place)
I0630 04:54:44.416679  1491 net.cpp:122] Setting up res2c_branch2b_relu
I0630 04:54:44.416697  1491 net.cpp:129] Top shape: 8 64 56 56 (1605632)
I0630 04:54:44.416702  1491 net.cpp:137] Memory required for data: 717717664
I0630 04:54:44.416707  1491 layer_factory.hpp:77] Creating layer res2c_branch2c
I0630 04:54:44.416718  1491 net.cpp:84] Creating Layer res2c_branch2c
I0630 04:54:44.416723  1491 net.cpp:406] res2c_branch2c <- res2c_branch2b
I0630 04:54:44.416729  1491 net.cpp:380] res2c_branch2c -> res2c_branch2c
I0630 04:54:44.417726  1491 net.cpp:122] Setting up res2c_branch2c
I0630 04:54:44.417747  1491 net.cpp:129] Top shape: 8 256 56 56 (6422528)
I0630 04:54:44.417752  1491 net.cpp:137] Memory required for data: 743407776
I0630 04:54:44.417773  1491 layer_factory.hpp:77] Creating layer bn2c_branch2c
I0630 04:54:44.417781  1491 net.cpp:84] Creating Layer bn2c_branch2c
I0630 04:54:44.417786  1491 net.cpp:406] bn2c_branch2c <- res2c_branch2c
I0630 04:54:44.417794  1491 net.cpp:367] bn2c_branch2c -> res2c_branch2c (in-place)
I0630 04:54:44.418014  1491 net.cpp:122] Setting up bn2c_branch2c
I0630 04:54:44.418030  1491 net.cpp:129] Top shape: 8 256 56 56 (6422528)
I0630 04:54:44.418035  1491 net.cpp:137] Memory required for data: 769097888
I0630 04:54:44.418051  1491 layer_factory.hpp:77] Creating layer scale2c_branch2c
I0630 04:54:44.418064  1491 net.cpp:84] Creating Layer scale2c_branch2c
I0630 04:54:44.418069  1491 net.cpp:406] scale2c_branch2c <- res2c_branch2c
I0630 04:54:44.418076  1491 net.cpp:367] scale2c_branch2c -> res2c_branch2c (in-place)
I0630 04:54:44.418126  1491 layer_factory.hpp:77] Creating layer scale2c_branch2c
I0630 04:54:44.418256  1491 net.cpp:122] Setting up scale2c_branch2c
I0630 04:54:44.418273  1491 net.cpp:129] Top shape: 8 256 56 56 (6422528)
I0630 04:54:44.418277  1491 net.cpp:137] Memory required for data: 794788000
I0630 04:54:44.418284  1491 layer_factory.hpp:77] Creating layer res2c
I0630 04:54:44.418292  1491 net.cpp:84] Creating Layer res2c
I0630 04:54:44.418296  1491 net.cpp:406] res2c <- res2b_res2b_relu_0_split_1
I0630 04:54:44.418301  1491 net.cpp:406] res2c <- res2c_branch2c
I0630 04:54:44.418306  1491 net.cpp:380] res2c -> res2c
I0630 04:54:44.418337  1491 net.cpp:122] Setting up res2c
I0630 04:54:44.418345  1491 net.cpp:129] Top shape: 8 256 56 56 (6422528)
I0630 04:54:44.418349  1491 net.cpp:137] Memory required for data: 820478112
I0630 04:54:44.418352  1491 layer_factory.hpp:77] Creating layer res2c_relu
I0630 04:54:44.418359  1491 net.cpp:84] Creating Layer res2c_relu
I0630 04:54:44.418362  1491 net.cpp:406] res2c_relu <- res2c
I0630 04:54:44.418367  1491 net.cpp:367] res2c_relu -> res2c (in-place)
I0630 04:54:44.418524  1491 net.cpp:122] Setting up res2c_relu
I0630 04:54:44.418543  1491 net.cpp:129] Top shape: 8 256 56 56 (6422528)
I0630 04:54:44.418547  1491 net.cpp:137] Memory required for data: 846168224
I0630 04:54:44.418551  1491 layer_factory.hpp:77] Creating layer res2c_res2c_relu_0_split
I0630 04:54:44.418557  1491 net.cpp:84] Creating Layer res2c_res2c_relu_0_split
I0630 04:54:44.418561  1491 net.cpp:406] res2c_res2c_relu_0_split <- res2c
I0630 04:54:44.418567  1491 net.cpp:380] res2c_res2c_relu_0_split -> res2c_res2c_relu_0_split_0
I0630 04:54:44.418575  1491 net.cpp:380] res2c_res2c_relu_0_split -> res2c_res2c_relu_0_split_1
I0630 04:54:44.418620  1491 net.cpp:122] Setting up res2c_res2c_relu_0_split
I0630 04:54:44.418634  1491 net.cpp:129] Top shape: 8 256 56 56 (6422528)
I0630 04:54:44.418639  1491 net.cpp:129] Top shape: 8 256 56 56 (6422528)
I0630 04:54:44.418643  1491 net.cpp:137] Memory required for data: 897548448
I0630 04:54:44.418647  1491 layer_factory.hpp:77] Creating layer res3a_branch1
I0630 04:54:44.418658  1491 net.cpp:84] Creating Layer res3a_branch1
I0630 04:54:44.418663  1491 net.cpp:406] res3a_branch1 <- res2c_res2c_relu_0_split_0
I0630 04:54:44.418670  1491 net.cpp:380] res3a_branch1 -> res3a_branch1
I0630 04:54:44.420251  1491 net.cpp:122] Setting up res3a_branch1
I0630 04:54:44.420274  1491 net.cpp:129] Top shape: 8 512 28 28 (3211264)
I0630 04:54:44.420279  1491 net.cpp:137] Memory required for data: 910393504
I0630 04:54:44.420285  1491 layer_factory.hpp:77] Creating layer bn3a_branch1
I0630 04:54:44.420294  1491 net.cpp:84] Creating Layer bn3a_branch1
I0630 04:54:44.420297  1491 net.cpp:406] bn3a_branch1 <- res3a_branch1
I0630 04:54:44.420306  1491 net.cpp:367] bn3a_branch1 -> res3a_branch1 (in-place)
I0630 04:54:44.421054  1491 net.cpp:122] Setting up bn3a_branch1
I0630 04:54:44.421072  1491 net.cpp:129] Top shape: 8 512 28 28 (3211264)
I0630 04:54:44.421077  1491 net.cpp:137] Memory required for data: 923238560
I0630 04:54:44.421085  1491 layer_factory.hpp:77] Creating layer scale3a_branch1
I0630 04:54:44.421093  1491 net.cpp:84] Creating Layer scale3a_branch1
I0630 04:54:44.421110  1491 net.cpp:406] scale3a_branch1 <- res3a_branch1
I0630 04:54:44.421119  1491 net.cpp:367] scale3a_branch1 -> res3a_branch1 (in-place)
I0630 04:54:44.421167  1491 layer_factory.hpp:77] Creating layer scale3a_branch1
I0630 04:54:44.421293  1491 net.cpp:122] Setting up scale3a_branch1
I0630 04:54:44.421310  1491 net.cpp:129] Top shape: 8 512 28 28 (3211264)
I0630 04:54:44.421314  1491 net.cpp:137] Memory required for data: 936083616
I0630 04:54:44.421321  1491 layer_factory.hpp:77] Creating layer res3a_branch2a
I0630 04:54:44.421331  1491 net.cpp:84] Creating Layer res3a_branch2a
I0630 04:54:44.421335  1491 net.cpp:406] res3a_branch2a <- res2c_res2c_relu_0_split_1
I0630 04:54:44.421344  1491 net.cpp:380] res3a_branch2a -> res3a_branch2a
I0630 04:54:44.422246  1491 net.cpp:122] Setting up res3a_branch2a
I0630 04:54:44.422271  1491 net.cpp:129] Top shape: 8 128 28 28 (802816)
I0630 04:54:44.422276  1491 net.cpp:137] Memory required for data: 939294880
I0630 04:54:44.422282  1491 layer_factory.hpp:77] Creating layer bn3a_branch2a
I0630 04:54:44.422291  1491 net.cpp:84] Creating Layer bn3a_branch2a
I0630 04:54:44.422296  1491 net.cpp:406] bn3a_branch2a <- res3a_branch2a
I0630 04:54:44.422302  1491 net.cpp:367] bn3a_branch2a -> res3a_branch2a (in-place)
I0630 04:54:44.422505  1491 net.cpp:122] Setting up bn3a_branch2a
I0630 04:54:44.422529  1491 net.cpp:129] Top shape: 8 128 28 28 (802816)
I0630 04:54:44.422538  1491 net.cpp:137] Memory required for data: 942506144
I0630 04:54:44.422547  1491 layer_factory.hpp:77] Creating layer scale3a_branch2a
I0630 04:54:44.422555  1491 net.cpp:84] Creating Layer scale3a_branch2a
I0630 04:54:44.422559  1491 net.cpp:406] scale3a_branch2a <- res3a_branch2a
I0630 04:54:44.422565  1491 net.cpp:367] scale3a_branch2a -> res3a_branch2a (in-place)
I0630 04:54:44.422619  1491 layer_factory.hpp:77] Creating layer scale3a_branch2a
I0630 04:54:44.422750  1491 net.cpp:122] Setting up scale3a_branch2a
I0630 04:54:44.422765  1491 net.cpp:129] Top shape: 8 128 28 28 (802816)
I0630 04:54:44.422770  1491 net.cpp:137] Memory required for data: 945717408
I0630 04:54:44.422777  1491 layer_factory.hpp:77] Creating layer res3a_branch2a_relu
I0630 04:54:44.422786  1491 net.cpp:84] Creating Layer res3a_branch2a_relu
I0630 04:54:44.422791  1491 net.cpp:406] res3a_branch2a_relu <- res3a_branch2a
I0630 04:54:44.422796  1491 net.cpp:367] res3a_branch2a_relu -> res3a_branch2a (in-place)
I0630 04:54:44.422948  1491 net.cpp:122] Setting up res3a_branch2a_relu
I0630 04:54:44.422966  1491 net.cpp:129] Top shape: 8 128 28 28 (802816)
I0630 04:54:44.422969  1491 net.cpp:137] Memory required for data: 948928672
I0630 04:54:44.422973  1491 layer_factory.hpp:77] Creating layer res3a_branch2b
I0630 04:54:44.422986  1491 net.cpp:84] Creating Layer res3a_branch2b
I0630 04:54:44.422991  1491 net.cpp:406] res3a_branch2b <- res3a_branch2a
I0630 04:54:44.422996  1491 net.cpp:380] res3a_branch2b -> res3a_branch2b
I0630 04:54:44.424470  1491 net.cpp:122] Setting up res3a_branch2b
I0630 04:54:44.424491  1491 net.cpp:129] Top shape: 8 128 28 28 (802816)
I0630 04:54:44.424496  1491 net.cpp:137] Memory required for data: 952139936
I0630 04:54:44.424502  1491 layer_factory.hpp:77] Creating layer bn3a_branch2b
I0630 04:54:44.424513  1491 net.cpp:84] Creating Layer bn3a_branch2b
I0630 04:54:44.424518  1491 net.cpp:406] bn3a_branch2b <- res3a_branch2b
I0630 04:54:44.424525  1491 net.cpp:367] bn3a_branch2b -> res3a_branch2b (in-place)
I0630 04:54:44.424728  1491 net.cpp:122] Setting up bn3a_branch2b
I0630 04:54:44.424743  1491 net.cpp:129] Top shape: 8 128 28 28 (802816)
I0630 04:54:44.424748  1491 net.cpp:137] Memory required for data: 955351200
I0630 04:54:44.424757  1491 layer_factory.hpp:77] Creating layer scale3a_branch2b
I0630 04:54:44.424764  1491 net.cpp:84] Creating Layer scale3a_branch2b
I0630 04:54:44.424768  1491 net.cpp:406] scale3a_branch2b <- res3a_branch2b
I0630 04:54:44.424774  1491 net.cpp:367] scale3a_branch2b -> res3a_branch2b (in-place)
I0630 04:54:44.424823  1491 layer_factory.hpp:77] Creating layer scale3a_branch2b
I0630 04:54:44.424968  1491 net.cpp:122] Setting up scale3a_branch2b
I0630 04:54:44.424984  1491 net.cpp:129] Top shape: 8 128 28 28 (802816)
I0630 04:54:44.424988  1491 net.cpp:137] Memory required for data: 958562464
I0630 04:54:44.424995  1491 layer_factory.hpp:77] Creating layer res3a_branch2b_relu
I0630 04:54:44.425004  1491 net.cpp:84] Creating Layer res3a_branch2b_relu
I0630 04:54:44.425009  1491 net.cpp:406] res3a_branch2b_relu <- res3a_branch2b
I0630 04:54:44.425015  1491 net.cpp:367] res3a_branch2b_relu -> res3a_branch2b (in-place)
I0630 04:54:44.425277  1491 net.cpp:122] Setting up res3a_branch2b_relu
I0630 04:54:44.425297  1491 net.cpp:129] Top shape: 8 128 28 28 (802816)
I0630 04:54:44.425300  1491 net.cpp:137] Memory required for data: 961773728
I0630 04:54:44.425305  1491 layer_factory.hpp:77] Creating layer res3a_branch2c
I0630 04:54:44.425324  1491 net.cpp:84] Creating Layer res3a_branch2c
I0630 04:54:44.425329  1491 net.cpp:406] res3a_branch2c <- res3a_branch2b
I0630 04:54:44.425338  1491 net.cpp:380] res3a_branch2c -> res3a_branch2c
I0630 04:54:44.426216  1491 net.cpp:122] Setting up res3a_branch2c
I0630 04:54:44.426237  1491 net.cpp:129] Top shape: 8 512 28 28 (3211264)
I0630 04:54:44.426241  1491 net.cpp:137] Memory required for data: 974618784
I0630 04:54:44.426249  1491 layer_factory.hpp:77] Creating layer bn3a_branch2c
I0630 04:54:44.426259  1491 net.cpp:84] Creating Layer bn3a_branch2c
I0630 04:54:44.426264  1491 net.cpp:406] bn3a_branch2c <- res3a_branch2c
I0630 04:54:44.426271  1491 net.cpp:367] bn3a_branch2c -> res3a_branch2c (in-place)
I0630 04:54:44.426477  1491 net.cpp:122] Setting up bn3a_branch2c
I0630 04:54:44.426492  1491 net.cpp:129] Top shape: 8 512 28 28 (3211264)
I0630 04:54:44.426496  1491 net.cpp:137] Memory required for data: 987463840
I0630 04:54:44.426504  1491 layer_factory.hpp:77] Creating layer scale3a_branch2c
I0630 04:54:44.426515  1491 net.cpp:84] Creating Layer scale3a_branch2c
I0630 04:54:44.426519  1491 net.cpp:406] scale3a_branch2c <- res3a_branch2c
I0630 04:54:44.426525  1491 net.cpp:367] scale3a_branch2c -> res3a_branch2c (in-place)
I0630 04:54:44.426573  1491 layer_factory.hpp:77] Creating layer scale3a_branch2c
I0630 04:54:44.426712  1491 net.cpp:122] Setting up scale3a_branch2c
I0630 04:54:44.426726  1491 net.cpp:129] Top shape: 8 512 28 28 (3211264)
I0630 04:54:44.426730  1491 net.cpp:137] Memory required for data: 1000308896
I0630 04:54:44.426738  1491 layer_factory.hpp:77] Creating layer res3a
I0630 04:54:44.426744  1491 net.cpp:84] Creating Layer res3a
I0630 04:54:44.426748  1491 net.cpp:406] res3a <- res3a_branch1
I0630 04:54:44.426753  1491 net.cpp:406] res3a <- res3a_branch2c
I0630 04:54:44.426758  1491 net.cpp:380] res3a -> res3a
I0630 04:54:44.426790  1491 net.cpp:122] Setting up res3a
I0630 04:54:44.426800  1491 net.cpp:129] Top shape: 8 512 28 28 (3211264)
I0630 04:54:44.426802  1491 net.cpp:137] Memory required for data: 1013153952
I0630 04:54:44.426806  1491 layer_factory.hpp:77] Creating layer res3a_relu
I0630 04:54:44.426815  1491 net.cpp:84] Creating Layer res3a_relu
I0630 04:54:44.426820  1491 net.cpp:406] res3a_relu <- res3a
I0630 04:54:44.426825  1491 net.cpp:367] res3a_relu -> res3a (in-place)
I0630 04:54:44.427098  1491 net.cpp:122] Setting up res3a_relu
I0630 04:54:44.427119  1491 net.cpp:129] Top shape: 8 512 28 28 (3211264)
I0630 04:54:44.427122  1491 net.cpp:137] Memory required for data: 1025999008
I0630 04:54:44.427127  1491 layer_factory.hpp:77] Creating layer res3a_res3a_relu_0_split
I0630 04:54:44.427134  1491 net.cpp:84] Creating Layer res3a_res3a_relu_0_split
I0630 04:54:44.427139  1491 net.cpp:406] res3a_res3a_relu_0_split <- res3a
I0630 04:54:44.427146  1491 net.cpp:380] res3a_res3a_relu_0_split -> res3a_res3a_relu_0_split_0
I0630 04:54:44.427155  1491 net.cpp:380] res3a_res3a_relu_0_split -> res3a_res3a_relu_0_split_1
I0630 04:54:44.427201  1491 net.cpp:122] Setting up res3a_res3a_relu_0_split
I0630 04:54:44.427214  1491 net.cpp:129] Top shape: 8 512 28 28 (3211264)
I0630 04:54:44.427219  1491 net.cpp:129] Top shape: 8 512 28 28 (3211264)
I0630 04:54:44.427235  1491 net.cpp:137] Memory required for data: 1051689120
I0630 04:54:44.427240  1491 layer_factory.hpp:77] Creating layer res3b_branch2a
I0630 04:54:44.427253  1491 net.cpp:84] Creating Layer res3b_branch2a
I0630 04:54:44.427258  1491 net.cpp:406] res3b_branch2a <- res3a_res3a_relu_0_split_0
I0630 04:54:44.427265  1491 net.cpp:380] res3b_branch2a -> res3b_branch2a
I0630 04:54:44.428694  1491 net.cpp:122] Setting up res3b_branch2a
I0630 04:54:44.428714  1491 net.cpp:129] Top shape: 8 128 28 28 (802816)
I0630 04:54:44.428719  1491 net.cpp:137] Memory required for data: 1054900384
I0630 04:54:44.428725  1491 layer_factory.hpp:77] Creating layer bn3b_branch2a
I0630 04:54:44.428736  1491 net.cpp:84] Creating Layer bn3b_branch2a
I0630 04:54:44.428740  1491 net.cpp:406] bn3b_branch2a <- res3b_branch2a
I0630 04:54:44.428748  1491 net.cpp:367] bn3b_branch2a -> res3b_branch2a (in-place)
I0630 04:54:44.428952  1491 net.cpp:122] Setting up bn3b_branch2a
I0630 04:54:44.428968  1491 net.cpp:129] Top shape: 8 128 28 28 (802816)
I0630 04:54:44.428972  1491 net.cpp:137] Memory required for data: 1058111648
I0630 04:54:44.428980  1491 layer_factory.hpp:77] Creating layer scale3b_branch2a
I0630 04:54:44.428988  1491 net.cpp:84] Creating Layer scale3b_branch2a
I0630 04:54:44.428992  1491 net.cpp:406] scale3b_branch2a <- res3b_branch2a
I0630 04:54:44.429000  1491 net.cpp:367] scale3b_branch2a -> res3b_branch2a (in-place)
I0630 04:54:44.429047  1491 layer_factory.hpp:77] Creating layer scale3b_branch2a
I0630 04:54:44.429177  1491 net.cpp:122] Setting up scale3b_branch2a
I0630 04:54:44.429198  1491 net.cpp:129] Top shape: 8 128 28 28 (802816)
I0630 04:54:44.429201  1491 net.cpp:137] Memory required for data: 1061322912
I0630 04:54:44.429208  1491 layer_factory.hpp:77] Creating layer res3b_branch2a_relu
I0630 04:54:44.429214  1491 net.cpp:84] Creating Layer res3b_branch2a_relu
I0630 04:54:44.429219  1491 net.cpp:406] res3b_branch2a_relu <- res3b_branch2a
I0630 04:54:44.429224  1491 net.cpp:367] res3b_branch2a_relu -> res3b_branch2a (in-place)
I0630 04:54:44.429376  1491 net.cpp:122] Setting up res3b_branch2a_relu
I0630 04:54:44.429395  1491 net.cpp:129] Top shape: 8 128 28 28 (802816)
I0630 04:54:44.429399  1491 net.cpp:137] Memory required for data: 1064534176
I0630 04:54:44.429404  1491 layer_factory.hpp:77] Creating layer res3b_branch2b
I0630 04:54:44.429414  1491 net.cpp:84] Creating Layer res3b_branch2b
I0630 04:54:44.429417  1491 net.cpp:406] res3b_branch2b <- res3b_branch2a
I0630 04:54:44.429426  1491 net.cpp:380] res3b_branch2b -> res3b_branch2b
I0630 04:54:44.430991  1491 net.cpp:122] Setting up res3b_branch2b
I0630 04:54:44.431012  1491 net.cpp:129] Top shape: 8 128 28 28 (802816)
I0630 04:54:44.431017  1491 net.cpp:137] Memory required for data: 1067745440
I0630 04:54:44.431023  1491 layer_factory.hpp:77] Creating layer bn3b_branch2b
I0630 04:54:44.431035  1491 net.cpp:84] Creating Layer bn3b_branch2b
I0630 04:54:44.431040  1491 net.cpp:406] bn3b_branch2b <- res3b_branch2b
I0630 04:54:44.431046  1491 net.cpp:367] bn3b_branch2b -> res3b_branch2b (in-place)
I0630 04:54:44.431257  1491 net.cpp:122] Setting up bn3b_branch2b
I0630 04:54:44.431272  1491 net.cpp:129] Top shape: 8 128 28 28 (802816)
I0630 04:54:44.431277  1491 net.cpp:137] Memory required for data: 1070956704
I0630 04:54:44.431284  1491 layer_factory.hpp:77] Creating layer scale3b_branch2b
I0630 04:54:44.431293  1491 net.cpp:84] Creating Layer scale3b_branch2b
I0630 04:54:44.431296  1491 net.cpp:406] scale3b_branch2b <- res3b_branch2b
I0630 04:54:44.431301  1491 net.cpp:367] scale3b_branch2b -> res3b_branch2b (in-place)
I0630 04:54:44.431355  1491 layer_factory.hpp:77] Creating layer scale3b_branch2b
I0630 04:54:44.431486  1491 net.cpp:122] Setting up scale3b_branch2b
I0630 04:54:44.431502  1491 net.cpp:129] Top shape: 8 128 28 28 (802816)
I0630 04:54:44.431506  1491 net.cpp:137] Memory required for data: 1074167968
I0630 04:54:44.431514  1491 layer_factory.hpp:77] Creating layer res3b_branch2b_relu
I0630 04:54:44.431522  1491 net.cpp:84] Creating Layer res3b_branch2b_relu
I0630 04:54:44.431540  1491 net.cpp:406] res3b_branch2b_relu <- res3b_branch2b
I0630 04:54:44.431550  1491 net.cpp:367] res3b_branch2b_relu -> res3b_branch2b (in-place)
I0630 04:54:44.431813  1491 net.cpp:122] Setting up res3b_branch2b_relu
I0630 04:54:44.431833  1491 net.cpp:129] Top shape: 8 128 28 28 (802816)
I0630 04:54:44.431836  1491 net.cpp:137] Memory required for data: 1077379232
I0630 04:54:44.431841  1491 layer_factory.hpp:77] Creating layer res3b_branch2c
I0630 04:54:44.431854  1491 net.cpp:84] Creating Layer res3b_branch2c
I0630 04:54:44.431859  1491 net.cpp:406] res3b_branch2c <- res3b_branch2b
I0630 04:54:44.431864  1491 net.cpp:380] res3b_branch2c -> res3b_branch2c
I0630 04:54:44.432689  1491 net.cpp:122] Setting up res3b_branch2c
I0630 04:54:44.432708  1491 net.cpp:129] Top shape: 8 512 28 28 (3211264)
I0630 04:54:44.432713  1491 net.cpp:137] Memory required for data: 1090224288
I0630 04:54:44.432719  1491 layer_factory.hpp:77] Creating layer bn3b_branch2c
I0630 04:54:44.432729  1491 net.cpp:84] Creating Layer bn3b_branch2c
I0630 04:54:44.432734  1491 net.cpp:406] bn3b_branch2c <- res3b_branch2c
I0630 04:54:44.432740  1491 net.cpp:367] bn3b_branch2c -> res3b_branch2c (in-place)
I0630 04:54:44.432967  1491 net.cpp:122] Setting up bn3b_branch2c
I0630 04:54:44.432986  1491 net.cpp:129] Top shape: 8 512 28 28 (3211264)
I0630 04:54:44.432989  1491 net.cpp:137] Memory required for data: 1103069344
I0630 04:54:44.432997  1491 layer_factory.hpp:77] Creating layer scale3b_branch2c
I0630 04:54:44.433007  1491 net.cpp:84] Creating Layer scale3b_branch2c
I0630 04:54:44.433012  1491 net.cpp:406] scale3b_branch2c <- res3b_branch2c
I0630 04:54:44.433018  1491 net.cpp:367] scale3b_branch2c -> res3b_branch2c (in-place)
I0630 04:54:44.433068  1491 layer_factory.hpp:77] Creating layer scale3b_branch2c
I0630 04:54:44.433200  1491 net.cpp:122] Setting up scale3b_branch2c
I0630 04:54:44.433215  1491 net.cpp:129] Top shape: 8 512 28 28 (3211264)
I0630 04:54:44.433219  1491 net.cpp:137] Memory required for data: 1115914400
I0630 04:54:44.433226  1491 layer_factory.hpp:77] Creating layer res3b
I0630 04:54:44.433233  1491 net.cpp:84] Creating Layer res3b
I0630 04:54:44.433238  1491 net.cpp:406] res3b <- res3a_res3a_relu_0_split_1
I0630 04:54:44.433243  1491 net.cpp:406] res3b <- res3b_branch2c
I0630 04:54:44.433250  1491 net.cpp:380] res3b -> res3b
I0630 04:54:44.433280  1491 net.cpp:122] Setting up res3b
I0630 04:54:44.433290  1491 net.cpp:129] Top shape: 8 512 28 28 (3211264)
I0630 04:54:44.433295  1491 net.cpp:137] Memory required for data: 1128759456
I0630 04:54:44.433298  1491 layer_factory.hpp:77] Creating layer res3b_relu
I0630 04:54:44.433305  1491 net.cpp:84] Creating Layer res3b_relu
I0630 04:54:44.433308  1491 net.cpp:406] res3b_relu <- res3b
I0630 04:54:44.433313  1491 net.cpp:367] res3b_relu -> res3b (in-place)
I0630 04:54:44.433570  1491 net.cpp:122] Setting up res3b_relu
I0630 04:54:44.433589  1491 net.cpp:129] Top shape: 8 512 28 28 (3211264)
I0630 04:54:44.433593  1491 net.cpp:137] Memory required for data: 1141604512
I0630 04:54:44.433598  1491 layer_factory.hpp:77] Creating layer res3b_res3b_relu_0_split
I0630 04:54:44.433604  1491 net.cpp:84] Creating Layer res3b_res3b_relu_0_split
I0630 04:54:44.433609  1491 net.cpp:406] res3b_res3b_relu_0_split <- res3b
I0630 04:54:44.433617  1491 net.cpp:380] res3b_res3b_relu_0_split -> res3b_res3b_relu_0_split_0
I0630 04:54:44.433625  1491 net.cpp:380] res3b_res3b_relu_0_split -> res3b_res3b_relu_0_split_1
I0630 04:54:44.433677  1491 net.cpp:122] Setting up res3b_res3b_relu_0_split
I0630 04:54:44.433694  1491 net.cpp:129] Top shape: 8 512 28 28 (3211264)
I0630 04:54:44.433701  1491 net.cpp:129] Top shape: 8 512 28 28 (3211264)
I0630 04:54:44.433703  1491 net.cpp:137] Memory required for data: 1167294624
I0630 04:54:44.433707  1491 layer_factory.hpp:77] Creating layer res3c_branch2a
I0630 04:54:44.433717  1491 net.cpp:84] Creating Layer res3c_branch2a
I0630 04:54:44.433722  1491 net.cpp:406] res3c_branch2a <- res3b_res3b_relu_0_split_0
I0630 04:54:44.433743  1491 net.cpp:380] res3c_branch2a -> res3c_branch2a
I0630 04:54:44.434674  1491 net.cpp:122] Setting up res3c_branch2a
I0630 04:54:44.434696  1491 net.cpp:129] Top shape: 8 128 28 28 (802816)
I0630 04:54:44.434705  1491 net.cpp:137] Memory required for data: 1170505888
I0630 04:54:44.434710  1491 layer_factory.hpp:77] Creating layer bn3c_branch2a
I0630 04:54:44.434718  1491 net.cpp:84] Creating Layer bn3c_branch2a
I0630 04:54:44.434723  1491 net.cpp:406] bn3c_branch2a <- res3c_branch2a
I0630 04:54:44.434729  1491 net.cpp:367] bn3c_branch2a -> res3c_branch2a (in-place)
I0630 04:54:44.434949  1491 net.cpp:122] Setting up bn3c_branch2a
I0630 04:54:44.434965  1491 net.cpp:129] Top shape: 8 128 28 28 (802816)
I0630 04:54:44.434969  1491 net.cpp:137] Memory required for data: 1173717152
I0630 04:54:44.434978  1491 layer_factory.hpp:77] Creating layer scale3c_branch2a
I0630 04:54:44.434985  1491 net.cpp:84] Creating Layer scale3c_branch2a
I0630 04:54:44.434989  1491 net.cpp:406] scale3c_branch2a <- res3c_branch2a
I0630 04:54:44.434995  1491 net.cpp:367] scale3c_branch2a -> res3c_branch2a (in-place)
I0630 04:54:44.435048  1491 layer_factory.hpp:77] Creating layer scale3c_branch2a
I0630 04:54:44.435184  1491 net.cpp:122] Setting up scale3c_branch2a
I0630 04:54:44.435199  1491 net.cpp:129] Top shape: 8 128 28 28 (802816)
I0630 04:54:44.435204  1491 net.cpp:137] Memory required for data: 1176928416
I0630 04:54:44.435210  1491 layer_factory.hpp:77] Creating layer res3c_branch2a_relu
I0630 04:54:44.435220  1491 net.cpp:84] Creating Layer res3c_branch2a_relu
I0630 04:54:44.435225  1491 net.cpp:406] res3c_branch2a_relu <- res3c_branch2a
I0630 04:54:44.435230  1491 net.cpp:367] res3c_branch2a_relu -> res3c_branch2a (in-place)
I0630 04:54:44.435384  1491 net.cpp:122] Setting up res3c_branch2a_relu
I0630 04:54:44.435400  1491 net.cpp:129] Top shape: 8 128 28 28 (802816)
I0630 04:54:44.435403  1491 net.cpp:137] Memory required for data: 1180139680
I0630 04:54:44.435408  1491 layer_factory.hpp:77] Creating layer res3c_branch2b
I0630 04:54:44.435420  1491 net.cpp:84] Creating Layer res3c_branch2b
I0630 04:54:44.435425  1491 net.cpp:406] res3c_branch2b <- res3c_branch2a
I0630 04:54:44.435431  1491 net.cpp:380] res3c_branch2b -> res3c_branch2b
I0630 04:54:44.436996  1491 net.cpp:122] Setting up res3c_branch2b
I0630 04:54:44.437016  1491 net.cpp:129] Top shape: 8 128 28 28 (802816)
I0630 04:54:44.437021  1491 net.cpp:137] Memory required for data: 1183350944
I0630 04:54:44.437027  1491 layer_factory.hpp:77] Creating layer bn3c_branch2b
I0630 04:54:44.437034  1491 net.cpp:84] Creating Layer bn3c_branch2b
I0630 04:54:44.437039  1491 net.cpp:406] bn3c_branch2b <- res3c_branch2b
I0630 04:54:44.437047  1491 net.cpp:367] bn3c_branch2b -> res3c_branch2b (in-place)
I0630 04:54:44.437269  1491 net.cpp:122] Setting up bn3c_branch2b
I0630 04:54:44.437286  1491 net.cpp:129] Top shape: 8 128 28 28 (802816)
I0630 04:54:44.437290  1491 net.cpp:137] Memory required for data: 1186562208
I0630 04:54:44.437299  1491 layer_factory.hpp:77] Creating layer scale3c_branch2b
I0630 04:54:44.437306  1491 net.cpp:84] Creating Layer scale3c_branch2b
I0630 04:54:44.437310  1491 net.cpp:406] scale3c_branch2b <- res3c_branch2b
I0630 04:54:44.437316  1491 net.cpp:367] scale3c_branch2b -> res3c_branch2b (in-place)
I0630 04:54:44.437369  1491 layer_factory.hpp:77] Creating layer scale3c_branch2b
I0630 04:54:44.437506  1491 net.cpp:122] Setting up scale3c_branch2b
I0630 04:54:44.437522  1491 net.cpp:129] Top shape: 8 128 28 28 (802816)
I0630 04:54:44.437526  1491 net.cpp:137] Memory required for data: 1189773472
I0630 04:54:44.437533  1491 layer_factory.hpp:77] Creating layer res3c_branch2b_relu
I0630 04:54:44.437539  1491 net.cpp:84] Creating Layer res3c_branch2b_relu
I0630 04:54:44.437543  1491 net.cpp:406] res3c_branch2b_relu <- res3c_branch2b
I0630 04:54:44.437551  1491 net.cpp:367] res3c_branch2b_relu -> res3c_branch2b (in-place)
I0630 04:54:44.437829  1491 net.cpp:122] Setting up res3c_branch2b_relu
I0630 04:54:44.437847  1491 net.cpp:129] Top shape: 8 128 28 28 (802816)
I0630 04:54:44.437868  1491 net.cpp:137] Memory required for data: 1192984736
I0630 04:54:44.437876  1491 layer_factory.hpp:77] Creating layer res3c_branch2c
I0630 04:54:44.437894  1491 net.cpp:84] Creating Layer res3c_branch2c
I0630 04:54:44.437918  1491 net.cpp:406] res3c_branch2c <- res3c_branch2b
I0630 04:54:44.437937  1491 net.cpp:380] res3c_branch2c -> res3c_branch2c
I0630 04:54:44.438766  1491 net.cpp:122] Setting up res3c_branch2c
I0630 04:54:44.438786  1491 net.cpp:129] Top shape: 8 512 28 28 (3211264)
I0630 04:54:44.438791  1491 net.cpp:137] Memory required for data: 1205829792
I0630 04:54:44.438797  1491 layer_factory.hpp:77] Creating layer bn3c_branch2c
I0630 04:54:44.438807  1491 net.cpp:84] Creating Layer bn3c_branch2c
I0630 04:54:44.438812  1491 net.cpp:406] bn3c_branch2c <- res3c_branch2c
I0630 04:54:44.438818  1491 net.cpp:367] bn3c_branch2c -> res3c_branch2c (in-place)
I0630 04:54:44.439034  1491 net.cpp:122] Setting up bn3c_branch2c
I0630 04:54:44.439049  1491 net.cpp:129] Top shape: 8 512 28 28 (3211264)
I0630 04:54:44.439054  1491 net.cpp:137] Memory required for data: 1218674848
I0630 04:54:44.439061  1491 layer_factory.hpp:77] Creating layer scale3c_branch2c
I0630 04:54:44.439072  1491 net.cpp:84] Creating Layer scale3c_branch2c
I0630 04:54:44.439076  1491 net.cpp:406] scale3c_branch2c <- res3c_branch2c
I0630 04:54:44.439082  1491 net.cpp:367] scale3c_branch2c -> res3c_branch2c (in-place)
I0630 04:54:44.439136  1491 layer_factory.hpp:77] Creating layer scale3c_branch2c
I0630 04:54:44.439270  1491 net.cpp:122] Setting up scale3c_branch2c
I0630 04:54:44.439285  1491 net.cpp:129] Top shape: 8 512 28 28 (3211264)
I0630 04:54:44.439290  1491 net.cpp:137] Memory required for data: 1231519904
I0630 04:54:44.439296  1491 layer_factory.hpp:77] Creating layer res3c
I0630 04:54:44.439303  1491 net.cpp:84] Creating Layer res3c
I0630 04:54:44.439307  1491 net.cpp:406] res3c <- res3b_res3b_relu_0_split_1
I0630 04:54:44.439312  1491 net.cpp:406] res3c <- res3c_branch2c
I0630 04:54:44.439321  1491 net.cpp:380] res3c -> res3c
I0630 04:54:44.439350  1491 net.cpp:122] Setting up res3c
I0630 04:54:44.439360  1491 net.cpp:129] Top shape: 8 512 28 28 (3211264)
I0630 04:54:44.439364  1491 net.cpp:137] Memory required for data: 1244364960
I0630 04:54:44.439368  1491 layer_factory.hpp:77] Creating layer res3c_relu
I0630 04:54:44.439374  1491 net.cpp:84] Creating Layer res3c_relu
I0630 04:54:44.439378  1491 net.cpp:406] res3c_relu <- res3c
I0630 04:54:44.439383  1491 net.cpp:367] res3c_relu -> res3c (in-place)
I0630 04:54:44.439640  1491 net.cpp:122] Setting up res3c_relu
I0630 04:54:44.439658  1491 net.cpp:129] Top shape: 8 512 28 28 (3211264)
I0630 04:54:44.439662  1491 net.cpp:137] Memory required for data: 1257210016
I0630 04:54:44.439667  1491 layer_factory.hpp:77] Creating layer res3c_res3c_relu_0_split
I0630 04:54:44.439673  1491 net.cpp:84] Creating Layer res3c_res3c_relu_0_split
I0630 04:54:44.439678  1491 net.cpp:406] res3c_res3c_relu_0_split <- res3c
I0630 04:54:44.439687  1491 net.cpp:380] res3c_res3c_relu_0_split -> res3c_res3c_relu_0_split_0
I0630 04:54:44.439694  1491 net.cpp:380] res3c_res3c_relu_0_split -> res3c_res3c_relu_0_split_1
I0630 04:54:44.439746  1491 net.cpp:122] Setting up res3c_res3c_relu_0_split
I0630 04:54:44.439764  1491 net.cpp:129] Top shape: 8 512 28 28 (3211264)
I0630 04:54:44.439769  1491 net.cpp:129] Top shape: 8 512 28 28 (3211264)
I0630 04:54:44.439772  1491 net.cpp:137] Memory required for data: 1282900128
I0630 04:54:44.439776  1491 layer_factory.hpp:77] Creating layer res3d_branch2a
I0630 04:54:44.439785  1491 net.cpp:84] Creating Layer res3d_branch2a
I0630 04:54:44.439790  1491 net.cpp:406] res3d_branch2a <- res3c_res3c_relu_0_split_0
I0630 04:54:44.439798  1491 net.cpp:380] res3d_branch2a -> res3d_branch2a
I0630 04:54:44.441444  1491 net.cpp:122] Setting up res3d_branch2a
I0630 04:54:44.441464  1491 net.cpp:129] Top shape: 8 128 28 28 (802816)
I0630 04:54:44.441469  1491 net.cpp:137] Memory required for data: 1286111392
I0630 04:54:44.441475  1491 layer_factory.hpp:77] Creating layer bn3d_branch2a
I0630 04:54:44.441499  1491 net.cpp:84] Creating Layer bn3d_branch2a
I0630 04:54:44.441505  1491 net.cpp:406] bn3d_branch2a <- res3d_branch2a
I0630 04:54:44.441511  1491 net.cpp:367] bn3d_branch2a -> res3d_branch2a (in-place)
I0630 04:54:44.441732  1491 net.cpp:122] Setting up bn3d_branch2a
I0630 04:54:44.441748  1491 net.cpp:129] Top shape: 8 128 28 28 (802816)
I0630 04:54:44.441752  1491 net.cpp:137] Memory required for data: 1289322656
I0630 04:54:44.441781  1491 layer_factory.hpp:77] Creating layer scale3d_branch2a
I0630 04:54:44.441794  1491 net.cpp:84] Creating Layer scale3d_branch2a
I0630 04:54:44.441799  1491 net.cpp:406] scale3d_branch2a <- res3d_branch2a
I0630 04:54:44.441805  1491 net.cpp:367] scale3d_branch2a -> res3d_branch2a (in-place)
I0630 04:54:44.441860  1491 layer_factory.hpp:77] Creating layer scale3d_branch2a
I0630 04:54:44.442018  1491 net.cpp:122] Setting up scale3d_branch2a
I0630 04:54:44.442034  1491 net.cpp:129] Top shape: 8 128 28 28 (802816)
I0630 04:54:44.442037  1491 net.cpp:137] Memory required for data: 1292533920
I0630 04:54:44.442044  1491 layer_factory.hpp:77] Creating layer res3d_branch2a_relu
I0630 04:54:44.442051  1491 net.cpp:84] Creating Layer res3d_branch2a_relu
I0630 04:54:44.442055  1491 net.cpp:406] res3d_branch2a_relu <- res3d_branch2a
I0630 04:54:44.442065  1491 net.cpp:367] res3d_branch2a_relu -> res3d_branch2a (in-place)
I0630 04:54:44.442224  1491 net.cpp:122] Setting up res3d_branch2a_relu
I0630 04:54:44.442240  1491 net.cpp:129] Top shape: 8 128 28 28 (802816)
I0630 04:54:44.442245  1491 net.cpp:137] Memory required for data: 1295745184
I0630 04:54:44.442251  1491 layer_factory.hpp:77] Creating layer res3d_branch2b
I0630 04:54:44.442265  1491 net.cpp:84] Creating Layer res3d_branch2b
I0630 04:54:44.442270  1491 net.cpp:406] res3d_branch2b <- res3d_branch2a
I0630 04:54:44.442278  1491 net.cpp:380] res3d_branch2b -> res3d_branch2b
I0630 04:54:44.443974  1491 net.cpp:122] Setting up res3d_branch2b
I0630 04:54:44.443994  1491 net.cpp:129] Top shape: 8 128 28 28 (802816)
I0630 04:54:44.443998  1491 net.cpp:137] Memory required for data: 1298956448
I0630 04:54:44.444005  1491 layer_factory.hpp:77] Creating layer bn3d_branch2b
I0630 04:54:44.444016  1491 net.cpp:84] Creating Layer bn3d_branch2b
I0630 04:54:44.444021  1491 net.cpp:406] bn3d_branch2b <- res3d_branch2b
I0630 04:54:44.444026  1491 net.cpp:367] bn3d_branch2b -> res3d_branch2b (in-place)
I0630 04:54:44.444257  1491 net.cpp:122] Setting up bn3d_branch2b
I0630 04:54:44.444272  1491 net.cpp:129] Top shape: 8 128 28 28 (802816)
I0630 04:54:44.444277  1491 net.cpp:137] Memory required for data: 1302167712
I0630 04:54:44.444284  1491 layer_factory.hpp:77] Creating layer scale3d_branch2b
I0630 04:54:44.444293  1491 net.cpp:84] Creating Layer scale3d_branch2b
I0630 04:54:44.444296  1491 net.cpp:406] scale3d_branch2b <- res3d_branch2b
I0630 04:54:44.444305  1491 net.cpp:367] scale3d_branch2b -> res3d_branch2b (in-place)
I0630 04:54:44.444357  1491 layer_factory.hpp:77] Creating layer scale3d_branch2b
I0630 04:54:44.444500  1491 net.cpp:122] Setting up scale3d_branch2b
I0630 04:54:44.444519  1491 net.cpp:129] Top shape: 8 128 28 28 (802816)
I0630 04:54:44.444524  1491 net.cpp:137] Memory required for data: 1305378976
I0630 04:54:44.444530  1491 layer_factory.hpp:77] Creating layer res3d_branch2b_relu
I0630 04:54:44.444537  1491 net.cpp:84] Creating Layer res3d_branch2b_relu
I0630 04:54:44.444541  1491 net.cpp:406] res3d_branch2b_relu <- res3d_branch2b
I0630 04:54:44.444547  1491 net.cpp:367] res3d_branch2b_relu -> res3d_branch2b (in-place)
I0630 04:54:44.444814  1491 net.cpp:122] Setting up res3d_branch2b_relu
I0630 04:54:44.444833  1491 net.cpp:129] Top shape: 8 128 28 28 (802816)
I0630 04:54:44.444836  1491 net.cpp:137] Memory required for data: 1308590240
I0630 04:54:44.444841  1491 layer_factory.hpp:77] Creating layer res3d_branch2c
I0630 04:54:44.444854  1491 net.cpp:84] Creating Layer res3d_branch2c
I0630 04:54:44.444859  1491 net.cpp:406] res3d_branch2c <- res3d_branch2b
I0630 04:54:44.444880  1491 net.cpp:380] res3d_branch2c -> res3d_branch2c
I0630 04:54:44.445758  1491 net.cpp:122] Setting up res3d_branch2c
I0630 04:54:44.445778  1491 net.cpp:129] Top shape: 8 512 28 28 (3211264)
I0630 04:54:44.445782  1491 net.cpp:137] Memory required for data: 1321435296
I0630 04:54:44.445788  1491 layer_factory.hpp:77] Creating layer bn3d_branch2c
I0630 04:54:44.445797  1491 net.cpp:84] Creating Layer bn3d_branch2c
I0630 04:54:44.445801  1491 net.cpp:406] bn3d_branch2c <- res3d_branch2c
I0630 04:54:44.445809  1491 net.cpp:367] bn3d_branch2c -> res3d_branch2c (in-place)
I0630 04:54:44.446059  1491 net.cpp:122] Setting up bn3d_branch2c
I0630 04:54:44.446077  1491 net.cpp:129] Top shape: 8 512 28 28 (3211264)
I0630 04:54:44.446081  1491 net.cpp:137] Memory required for data: 1334280352
I0630 04:54:44.446090  1491 layer_factory.hpp:77] Creating layer scale3d_branch2c
I0630 04:54:44.446097  1491 net.cpp:84] Creating Layer scale3d_branch2c
I0630 04:54:44.446102  1491 net.cpp:406] scale3d_branch2c <- res3d_branch2c
I0630 04:54:44.446107  1491 net.cpp:367] scale3d_branch2c -> res3d_branch2c (in-place)
I0630 04:54:44.446161  1491 layer_factory.hpp:77] Creating layer scale3d_branch2c
I0630 04:54:44.446300  1491 net.cpp:122] Setting up scale3d_branch2c
I0630 04:54:44.446316  1491 net.cpp:129] Top shape: 8 512 28 28 (3211264)
I0630 04:54:44.446321  1491 net.cpp:137] Memory required for data: 1347125408
I0630 04:54:44.446327  1491 layer_factory.hpp:77] Creating layer res3d
I0630 04:54:44.446334  1491 net.cpp:84] Creating Layer res3d
I0630 04:54:44.446338  1491 net.cpp:406] res3d <- res3c_res3c_relu_0_split_1
I0630 04:54:44.446343  1491 net.cpp:406] res3d <- res3d_branch2c
I0630 04:54:44.446352  1491 net.cpp:380] res3d -> res3d
I0630 04:54:44.446382  1491 net.cpp:122] Setting up res3d
I0630 04:54:44.446390  1491 net.cpp:129] Top shape: 8 512 28 28 (3211264)
I0630 04:54:44.446393  1491 net.cpp:137] Memory required for data: 1359970464
I0630 04:54:44.446398  1491 layer_factory.hpp:77] Creating layer res3d_relu
I0630 04:54:44.446406  1491 net.cpp:84] Creating Layer res3d_relu
I0630 04:54:44.446410  1491 net.cpp:406] res3d_relu <- res3d
I0630 04:54:44.446416  1491 net.cpp:367] res3d_relu -> res3d (in-place)
I0630 04:54:44.446677  1491 net.cpp:122] Setting up res3d_relu
I0630 04:54:44.446696  1491 net.cpp:129] Top shape: 8 512 28 28 (3211264)
I0630 04:54:44.446699  1491 net.cpp:137] Memory required for data: 1372815520
I0630 04:54:44.446703  1491 layer_factory.hpp:77] Creating layer res3d_res3d_relu_0_split
I0630 04:54:44.446710  1491 net.cpp:84] Creating Layer res3d_res3d_relu_0_split
I0630 04:54:44.446714  1491 net.cpp:406] res3d_res3d_relu_0_split <- res3d
I0630 04:54:44.446719  1491 net.cpp:380] res3d_res3d_relu_0_split -> res3d_res3d_relu_0_split_0
I0630 04:54:44.446727  1491 net.cpp:380] res3d_res3d_relu_0_split -> res3d_res3d_relu_0_split_1
I0630 04:54:44.446777  1491 net.cpp:122] Setting up res3d_res3d_relu_0_split
I0630 04:54:44.446792  1491 net.cpp:129] Top shape: 8 512 28 28 (3211264)
I0630 04:54:44.446797  1491 net.cpp:129] Top shape: 8 512 28 28 (3211264)
I0630 04:54:44.446800  1491 net.cpp:137] Memory required for data: 1398505632
I0630 04:54:44.446805  1491 layer_factory.hpp:77] Creating layer res4a_branch1
I0630 04:54:44.446815  1491 net.cpp:84] Creating Layer res4a_branch1
I0630 04:54:44.446820  1491 net.cpp:406] res4a_branch1 <- res3d_res3d_relu_0_split_0
I0630 04:54:44.446828  1491 net.cpp:380] res4a_branch1 -> res4a_branch1
I0630 04:54:44.449146  1491 net.cpp:122] Setting up res4a_branch1
I0630 04:54:44.449167  1491 net.cpp:129] Top shape: 8 1024 14 14 (1605632)
I0630 04:54:44.449172  1491 net.cpp:137] Memory required for data: 1404928160
I0630 04:54:44.449177  1491 layer_factory.hpp:77] Creating layer bn4a_branch1
I0630 04:54:44.449185  1491 net.cpp:84] Creating Layer bn4a_branch1
I0630 04:54:44.449189  1491 net.cpp:406] bn4a_branch1 <- res4a_branch1
I0630 04:54:44.449200  1491 net.cpp:367] bn4a_branch1 -> res4a_branch1 (in-place)
I0630 04:54:44.449448  1491 net.cpp:122] Setting up bn4a_branch1
I0630 04:54:44.449478  1491 net.cpp:129] Top shape: 8 1024 14 14 (1605632)
I0630 04:54:44.449483  1491 net.cpp:137] Memory required for data: 1411350688
I0630 04:54:44.449492  1491 layer_factory.hpp:77] Creating layer scale4a_branch1
I0630 04:54:44.449501  1491 net.cpp:84] Creating Layer scale4a_branch1
I0630 04:54:44.449504  1491 net.cpp:406] scale4a_branch1 <- res4a_branch1
I0630 04:54:44.449513  1491 net.cpp:367] scale4a_branch1 -> res4a_branch1 (in-place)
I0630 04:54:44.449561  1491 layer_factory.hpp:77] Creating layer scale4a_branch1
I0630 04:54:44.449710  1491 net.cpp:122] Setting up scale4a_branch1
I0630 04:54:44.449725  1491 net.cpp:129] Top shape: 8 1024 14 14 (1605632)
I0630 04:54:44.449729  1491 net.cpp:137] Memory required for data: 1417773216
I0630 04:54:44.449738  1491 layer_factory.hpp:77] Creating layer res4a_branch2a
I0630 04:54:44.449749  1491 net.cpp:84] Creating Layer res4a_branch2a
I0630 04:54:44.449754  1491 net.cpp:406] res4a_branch2a <- res3d_res3d_relu_0_split_1
I0630 04:54:44.449764  1491 net.cpp:380] res4a_branch2a -> res4a_branch2a
I0630 04:54:44.450832  1491 net.cpp:122] Setting up res4a_branch2a
I0630 04:54:44.450852  1491 net.cpp:129] Top shape: 8 256 14 14 (401408)
I0630 04:54:44.450857  1491 net.cpp:137] Memory required for data: 1419378848
I0630 04:54:44.450863  1491 layer_factory.hpp:77] Creating layer bn4a_branch2a
I0630 04:54:44.450875  1491 net.cpp:84] Creating Layer bn4a_branch2a
I0630 04:54:44.450881  1491 net.cpp:406] bn4a_branch2a <- res4a_branch2a
I0630 04:54:44.450886  1491 net.cpp:367] bn4a_branch2a -> res4a_branch2a (in-place)
I0630 04:54:44.451109  1491 net.cpp:122] Setting up bn4a_branch2a
I0630 04:54:44.451125  1491 net.cpp:129] Top shape: 8 256 14 14 (401408)
I0630 04:54:44.451129  1491 net.cpp:137] Memory required for data: 1420984480
I0630 04:54:44.451138  1491 layer_factory.hpp:77] Creating layer scale4a_branch2a
I0630 04:54:44.451149  1491 net.cpp:84] Creating Layer scale4a_branch2a
I0630 04:54:44.451153  1491 net.cpp:406] scale4a_branch2a <- res4a_branch2a
I0630 04:54:44.451159  1491 net.cpp:367] scale4a_branch2a -> res4a_branch2a (in-place)
I0630 04:54:44.451215  1491 layer_factory.hpp:77] Creating layer scale4a_branch2a
I0630 04:54:44.451359  1491 net.cpp:122] Setting up scale4a_branch2a
I0630 04:54:44.451373  1491 net.cpp:129] Top shape: 8 256 14 14 (401408)
I0630 04:54:44.451377  1491 net.cpp:137] Memory required for data: 1422590112
I0630 04:54:44.451385  1491 layer_factory.hpp:77] Creating layer res4a_branch2a_relu
I0630 04:54:44.451391  1491 net.cpp:84] Creating Layer res4a_branch2a_relu
I0630 04:54:44.451395  1491 net.cpp:406] res4a_branch2a_relu <- res4a_branch2a
I0630 04:54:44.451403  1491 net.cpp:367] res4a_branch2a_relu -> res4a_branch2a (in-place)
I0630 04:54:44.451571  1491 net.cpp:122] Setting up res4a_branch2a_relu
I0630 04:54:44.451588  1491 net.cpp:129] Top shape: 8 256 14 14 (401408)
I0630 04:54:44.451592  1491 net.cpp:137] Memory required for data: 1424195744
I0630 04:54:44.451596  1491 layer_factory.hpp:77] Creating layer res4a_branch2b
I0630 04:54:44.451608  1491 net.cpp:84] Creating Layer res4a_branch2b
I0630 04:54:44.451613  1491 net.cpp:406] res4a_branch2b <- res4a_branch2a
I0630 04:54:44.451622  1491 net.cpp:380] res4a_branch2b -> res4a_branch2b
I0630 04:54:44.454216  1491 net.cpp:122] Setting up res4a_branch2b
I0630 04:54:44.454237  1491 net.cpp:129] Top shape: 8 256 14 14 (401408)
I0630 04:54:44.454242  1491 net.cpp:137] Memory required for data: 1425801376
I0630 04:54:44.454248  1491 layer_factory.hpp:77] Creating layer bn4a_branch2b
I0630 04:54:44.454262  1491 net.cpp:84] Creating Layer bn4a_branch2b
I0630 04:54:44.454267  1491 net.cpp:406] bn4a_branch2b <- res4a_branch2b
I0630 04:54:44.454277  1491 net.cpp:367] bn4a_branch2b -> res4a_branch2b (in-place)
I0630 04:54:44.454505  1491 net.cpp:122] Setting up bn4a_branch2b
I0630 04:54:44.454522  1491 net.cpp:129] Top shape: 8 256 14 14 (401408)
I0630 04:54:44.454526  1491 net.cpp:137] Memory required for data: 1427407008
I0630 04:54:44.454535  1491 layer_factory.hpp:77] Creating layer scale4a_branch2b
I0630 04:54:44.454563  1491 net.cpp:84] Creating Layer scale4a_branch2b
I0630 04:54:44.454569  1491 net.cpp:406] scale4a_branch2b <- res4a_branch2b
I0630 04:54:44.454574  1491 net.cpp:367] scale4a_branch2b -> res4a_branch2b (in-place)
I0630 04:54:44.454629  1491 layer_factory.hpp:77] Creating layer scale4a_branch2b
I0630 04:54:44.454780  1491 net.cpp:122] Setting up scale4a_branch2b
I0630 04:54:44.454797  1491 net.cpp:129] Top shape: 8 256 14 14 (401408)
I0630 04:54:44.454800  1491 net.cpp:137] Memory required for data: 1429012640
I0630 04:54:44.454807  1491 layer_factory.hpp:77] Creating layer res4a_branch2b_relu
I0630 04:54:44.454814  1491 net.cpp:84] Creating Layer res4a_branch2b_relu
I0630 04:54:44.454818  1491 net.cpp:406] res4a_branch2b_relu <- res4a_branch2b
I0630 04:54:44.454823  1491 net.cpp:367] res4a_branch2b_relu -> res4a_branch2b (in-place)
I0630 04:54:44.454988  1491 net.cpp:122] Setting up res4a_branch2b_relu
I0630 04:54:44.455004  1491 net.cpp:129] Top shape: 8 256 14 14 (401408)
I0630 04:54:44.455008  1491 net.cpp:137] Memory required for data: 1430618272
I0630 04:54:44.455013  1491 layer_factory.hpp:77] Creating layer res4a_branch2c
I0630 04:54:44.455025  1491 net.cpp:84] Creating Layer res4a_branch2c
I0630 04:54:44.455030  1491 net.cpp:406] res4a_branch2c <- res4a_branch2b
I0630 04:54:44.455039  1491 net.cpp:380] res4a_branch2c -> res4a_branch2c
I0630 04:54:44.456790  1491 net.cpp:122] Setting up res4a_branch2c
I0630 04:54:44.456810  1491 net.cpp:129] Top shape: 8 1024 14 14 (1605632)
I0630 04:54:44.456815  1491 net.cpp:137] Memory required for data: 1437040800
I0630 04:54:44.456821  1491 layer_factory.hpp:77] Creating layer bn4a_branch2c
I0630 04:54:44.456832  1491 net.cpp:84] Creating Layer bn4a_branch2c
I0630 04:54:44.456837  1491 net.cpp:406] bn4a_branch2c <- res4a_branch2c
I0630 04:54:44.456845  1491 net.cpp:367] bn4a_branch2c -> res4a_branch2c (in-place)
I0630 04:54:44.457087  1491 net.cpp:122] Setting up bn4a_branch2c
I0630 04:54:44.457103  1491 net.cpp:129] Top shape: 8 1024 14 14 (1605632)
I0630 04:54:44.457106  1491 net.cpp:137] Memory required for data: 1443463328
I0630 04:54:44.457115  1491 layer_factory.hpp:77] Creating layer scale4a_branch2c
I0630 04:54:44.457126  1491 net.cpp:84] Creating Layer scale4a_branch2c
I0630 04:54:44.457130  1491 net.cpp:406] scale4a_branch2c <- res4a_branch2c
I0630 04:54:44.457136  1491 net.cpp:367] scale4a_branch2c -> res4a_branch2c (in-place)
I0630 04:54:44.457185  1491 layer_factory.hpp:77] Creating layer scale4a_branch2c
I0630 04:54:44.457345  1491 net.cpp:122] Setting up scale4a_branch2c
I0630 04:54:44.457360  1491 net.cpp:129] Top shape: 8 1024 14 14 (1605632)
I0630 04:54:44.457365  1491 net.cpp:137] Memory required for data: 1449885856
I0630 04:54:44.457371  1491 layer_factory.hpp:77] Creating layer res4a
I0630 04:54:44.457381  1491 net.cpp:84] Creating Layer res4a
I0630 04:54:44.457384  1491 net.cpp:406] res4a <- res4a_branch1
I0630 04:54:44.457389  1491 net.cpp:406] res4a <- res4a_branch2c
I0630 04:54:44.457394  1491 net.cpp:380] res4a -> res4a
I0630 04:54:44.457432  1491 net.cpp:122] Setting up res4a
I0630 04:54:44.457440  1491 net.cpp:129] Top shape: 8 1024 14 14 (1605632)
I0630 04:54:44.457444  1491 net.cpp:137] Memory required for data: 1456308384
I0630 04:54:44.457448  1491 layer_factory.hpp:77] Creating layer res4a_relu
I0630 04:54:44.457458  1491 net.cpp:84] Creating Layer res4a_relu
I0630 04:54:44.457463  1491 net.cpp:406] res4a_relu <- res4a
I0630 04:54:44.457468  1491 net.cpp:367] res4a_relu -> res4a (in-place)
I0630 04:54:44.457813  1491 net.cpp:122] Setting up res4a_relu
I0630 04:54:44.457831  1491 net.cpp:129] Top shape: 8 1024 14 14 (1605632)
I0630 04:54:44.457835  1491 net.cpp:137] Memory required for data: 1462730912
I0630 04:54:44.457839  1491 layer_factory.hpp:77] Creating layer res4a_res4a_relu_0_split
I0630 04:54:44.457875  1491 net.cpp:84] Creating Layer res4a_res4a_relu_0_split
I0630 04:54:44.457883  1491 net.cpp:406] res4a_res4a_relu_0_split <- res4a
I0630 04:54:44.457890  1491 net.cpp:380] res4a_res4a_relu_0_split -> res4a_res4a_relu_0_split_0
I0630 04:54:44.457926  1491 net.cpp:380] res4a_res4a_relu_0_split -> res4a_res4a_relu_0_split_1
I0630 04:54:44.457984  1491 net.cpp:122] Setting up res4a_res4a_relu_0_split
I0630 04:54:44.457999  1491 net.cpp:129] Top shape: 8 1024 14 14 (1605632)
I0630 04:54:44.458005  1491 net.cpp:129] Top shape: 8 1024 14 14 (1605632)
I0630 04:54:44.458009  1491 net.cpp:137] Memory required for data: 1475575968
I0630 04:54:44.458012  1491 layer_factory.hpp:77] Creating layer res4b_branch2a
I0630 04:54:44.458025  1491 net.cpp:84] Creating Layer res4b_branch2a
I0630 04:54:44.458030  1491 net.cpp:406] res4b_branch2a <- res4a_res4a_relu_0_split_0
I0630 04:54:44.458036  1491 net.cpp:380] res4b_branch2a -> res4b_branch2a
I0630 04:54:44.459756  1491 net.cpp:122] Setting up res4b_branch2a
I0630 04:54:44.459779  1491 net.cpp:129] Top shape: 8 256 14 14 (401408)
I0630 04:54:44.459784  1491 net.cpp:137] Memory required for data: 1477181600
I0630 04:54:44.459790  1491 layer_factory.hpp:77] Creating layer bn4b_branch2a
I0630 04:54:44.459799  1491 net.cpp:84] Creating Layer bn4b_branch2a
I0630 04:54:44.459803  1491 net.cpp:406] bn4b_branch2a <- res4b_branch2a
I0630 04:54:44.459810  1491 net.cpp:367] bn4b_branch2a -> res4b_branch2a (in-place)
I0630 04:54:44.460045  1491 net.cpp:122] Setting up bn4b_branch2a
I0630 04:54:44.460062  1491 net.cpp:129] Top shape: 8 256 14 14 (401408)
I0630 04:54:44.460065  1491 net.cpp:137] Memory required for data: 1478787232
I0630 04:54:44.460074  1491 layer_factory.hpp:77] Creating layer scale4b_branch2a
I0630 04:54:44.460083  1491 net.cpp:84] Creating Layer scale4b_branch2a
I0630 04:54:44.460086  1491 net.cpp:406] scale4b_branch2a <- res4b_branch2a
I0630 04:54:44.460091  1491 net.cpp:367] scale4b_branch2a -> res4b_branch2a (in-place)
I0630 04:54:44.460147  1491 layer_factory.hpp:77] Creating layer scale4b_branch2a
I0630 04:54:44.460299  1491 net.cpp:122] Setting up scale4b_branch2a
I0630 04:54:44.460314  1491 net.cpp:129] Top shape: 8 256 14 14 (401408)
I0630 04:54:44.460319  1491 net.cpp:137] Memory required for data: 1480392864
I0630 04:54:44.460325  1491 layer_factory.hpp:77] Creating layer res4b_branch2a_relu
I0630 04:54:44.460335  1491 net.cpp:84] Creating Layer res4b_branch2a_relu
I0630 04:54:44.460340  1491 net.cpp:406] res4b_branch2a_relu <- res4b_branch2a
I0630 04:54:44.460345  1491 net.cpp:367] res4b_branch2a_relu -> res4b_branch2a (in-place)
I0630 04:54:44.460510  1491 net.cpp:122] Setting up res4b_branch2a_relu
I0630 04:54:44.460525  1491 net.cpp:129] Top shape: 8 256 14 14 (401408)
I0630 04:54:44.460530  1491 net.cpp:137] Memory required for data: 1481998496
I0630 04:54:44.460535  1491 layer_factory.hpp:77] Creating layer res4b_branch2b
I0630 04:54:44.460547  1491 net.cpp:84] Creating Layer res4b_branch2b
I0630 04:54:44.460554  1491 net.cpp:406] res4b_branch2b <- res4b_branch2a
I0630 04:54:44.460561  1491 net.cpp:380] res4b_branch2b -> res4b_branch2b
I0630 04:54:44.462872  1491 net.cpp:122] Setting up res4b_branch2b
I0630 04:54:44.462896  1491 net.cpp:129] Top shape: 8 256 14 14 (401408)
I0630 04:54:44.462901  1491 net.cpp:137] Memory required for data: 1483604128
I0630 04:54:44.462908  1491 layer_factory.hpp:77] Creating layer bn4b_branch2b
I0630 04:54:44.462916  1491 net.cpp:84] Creating Layer bn4b_branch2b
I0630 04:54:44.462920  1491 net.cpp:406] bn4b_branch2b <- res4b_branch2b
I0630 04:54:44.462926  1491 net.cpp:367] bn4b_branch2b -> res4b_branch2b (in-place)
I0630 04:54:44.463157  1491 net.cpp:122] Setting up bn4b_branch2b
I0630 04:54:44.463166  1491 net.cpp:129] Top shape: 8 256 14 14 (401408)
I0630 04:54:44.463171  1491 net.cpp:137] Memory required for data: 1485209760
I0630 04:54:44.463178  1491 layer_factory.hpp:77] Creating layer scale4b_branch2b
I0630 04:54:44.463188  1491 net.cpp:84] Creating Layer scale4b_branch2b
I0630 04:54:44.463193  1491 net.cpp:406] scale4b_branch2b <- res4b_branch2b
I0630 04:54:44.463201  1491 net.cpp:367] scale4b_branch2b -> res4b_branch2b (in-place)
I0630 04:54:44.463255  1491 layer_factory.hpp:77] Creating layer scale4b_branch2b
I0630 04:54:44.463395  1491 net.cpp:122] Setting up scale4b_branch2b
I0630 04:54:44.463425  1491 net.cpp:129] Top shape: 8 256 14 14 (401408)
I0630 04:54:44.463430  1491 net.cpp:137] Memory required for data: 1486815392
I0630 04:54:44.463438  1491 layer_factory.hpp:77] Creating layer res4b_branch2b_relu
I0630 04:54:44.463445  1491 net.cpp:84] Creating Layer res4b_branch2b_relu
I0630 04:54:44.463449  1491 net.cpp:406] res4b_branch2b_relu <- res4b_branch2b
I0630 04:54:44.463457  1491 net.cpp:367] res4b_branch2b_relu -> res4b_branch2b (in-place)
I0630 04:54:44.463645  1491 net.cpp:122] Setting up res4b_branch2b_relu
I0630 04:54:44.463663  1491 net.cpp:129] Top shape: 8 256 14 14 (401408)
I0630 04:54:44.463668  1491 net.cpp:137] Memory required for data: 1488421024
I0630 04:54:44.463673  1491 layer_factory.hpp:77] Creating layer res4b_branch2c
I0630 04:54:44.463686  1491 net.cpp:84] Creating Layer res4b_branch2c
I0630 04:54:44.463692  1491 net.cpp:406] res4b_branch2c <- res4b_branch2b
I0630 04:54:44.463701  1491 net.cpp:380] res4b_branch2c -> res4b_branch2c
I0630 04:54:44.465234  1491 net.cpp:122] Setting up res4b_branch2c
I0630 04:54:44.465255  1491 net.cpp:129] Top shape: 8 1024 14 14 (1605632)
I0630 04:54:44.465260  1491 net.cpp:137] Memory required for data: 1494843552
I0630 04:54:44.465265  1491 layer_factory.hpp:77] Creating layer bn4b_branch2c
I0630 04:54:44.465276  1491 net.cpp:84] Creating Layer bn4b_branch2c
I0630 04:54:44.465281  1491 net.cpp:406] bn4b_branch2c <- res4b_branch2c
I0630 04:54:44.465286  1491 net.cpp:367] bn4b_branch2c -> res4b_branch2c (in-place)
I0630 04:54:44.465523  1491 net.cpp:122] Setting up bn4b_branch2c
I0630 04:54:44.465538  1491 net.cpp:129] Top shape: 8 1024 14 14 (1605632)
I0630 04:54:44.465543  1491 net.cpp:137] Memory required for data: 1501266080
I0630 04:54:44.465553  1491 layer_factory.hpp:77] Creating layer scale4b_branch2c
I0630 04:54:44.465560  1491 net.cpp:84] Creating Layer scale4b_branch2c
I0630 04:54:44.465565  1491 net.cpp:406] scale4b_branch2c <- res4b_branch2c
I0630 04:54:44.465570  1491 net.cpp:367] scale4b_branch2c -> res4b_branch2c (in-place)
I0630 04:54:44.465646  1491 layer_factory.hpp:77] Creating layer scale4b_branch2c
I0630 04:54:44.465821  1491 net.cpp:122] Setting up scale4b_branch2c
I0630 04:54:44.465837  1491 net.cpp:129] Top shape: 8 1024 14 14 (1605632)
I0630 04:54:44.465842  1491 net.cpp:137] Memory required for data: 1507688608
I0630 04:54:44.465849  1491 layer_factory.hpp:77] Creating layer res4b
I0630 04:54:44.465858  1491 net.cpp:84] Creating Layer res4b
I0630 04:54:44.465863  1491 net.cpp:406] res4b <- res4a_res4a_relu_0_split_1
I0630 04:54:44.465868  1491 net.cpp:406] res4b <- res4b_branch2c
I0630 04:54:44.465873  1491 net.cpp:380] res4b -> res4b
I0630 04:54:44.465932  1491 net.cpp:122] Setting up res4b
I0630 04:54:44.465952  1491 net.cpp:129] Top shape: 8 1024 14 14 (1605632)
I0630 04:54:44.465956  1491 net.cpp:137] Memory required for data: 1514111136
I0630 04:54:44.465961  1491 layer_factory.hpp:77] Creating layer res4b_relu
I0630 04:54:44.465968  1491 net.cpp:84] Creating Layer res4b_relu
I0630 04:54:44.465972  1491 net.cpp:406] res4b_relu <- res4b
I0630 04:54:44.465977  1491 net.cpp:367] res4b_relu -> res4b (in-place)
I0630 04:54:44.466253  1491 net.cpp:122] Setting up res4b_relu
I0630 04:54:44.466271  1491 net.cpp:129] Top shape: 8 1024 14 14 (1605632)
I0630 04:54:44.466276  1491 net.cpp:137] Memory required for data: 1520533664
I0630 04:54:44.466280  1491 layer_factory.hpp:77] Creating layer res4b_res4b_relu_0_split
I0630 04:54:44.466286  1491 net.cpp:84] Creating Layer res4b_res4b_relu_0_split
I0630 04:54:44.466291  1491 net.cpp:406] res4b_res4b_relu_0_split <- res4b
I0630 04:54:44.466300  1491 net.cpp:380] res4b_res4b_relu_0_split -> res4b_res4b_relu_0_split_0
I0630 04:54:44.466307  1491 net.cpp:380] res4b_res4b_relu_0_split -> res4b_res4b_relu_0_split_1
I0630 04:54:44.466361  1491 net.cpp:122] Setting up res4b_res4b_relu_0_split
I0630 04:54:44.466378  1491 net.cpp:129] Top shape: 8 1024 14 14 (1605632)
I0630 04:54:44.466383  1491 net.cpp:129] Top shape: 8 1024 14 14 (1605632)
I0630 04:54:44.466403  1491 net.cpp:137] Memory required for data: 1533378720
I0630 04:54:44.466408  1491 layer_factory.hpp:77] Creating layer res4c_branch2a
I0630 04:54:44.466419  1491 net.cpp:84] Creating Layer res4c_branch2a
I0630 04:54:44.466424  1491 net.cpp:406] res4c_branch2a <- res4b_res4b_relu_0_split_0
I0630 04:54:44.466430  1491 net.cpp:380] res4c_branch2a -> res4c_branch2a
I0630 04:54:44.468021  1491 net.cpp:122] Setting up res4c_branch2a
I0630 04:54:44.468044  1491 net.cpp:129] Top shape: 8 256 14 14 (401408)
I0630 04:54:44.468050  1491 net.cpp:137] Memory required for data: 1534984352
I0630 04:54:44.468055  1491 layer_factory.hpp:77] Creating layer bn4c_branch2a
I0630 04:54:44.468063  1491 net.cpp:84] Creating Layer bn4c_branch2a
I0630 04:54:44.468068  1491 net.cpp:406] bn4c_branch2a <- res4c_branch2a
I0630 04:54:44.468073  1491 net.cpp:367] bn4c_branch2a -> res4c_branch2a (in-place)
I0630 04:54:44.468319  1491 net.cpp:122] Setting up bn4c_branch2a
I0630 04:54:44.468335  1491 net.cpp:129] Top shape: 8 256 14 14 (401408)
I0630 04:54:44.468339  1491 net.cpp:137] Memory required for data: 1536589984
I0630 04:54:44.468348  1491 layer_factory.hpp:77] Creating layer scale4c_branch2a
I0630 04:54:44.468355  1491 net.cpp:84] Creating Layer scale4c_branch2a
I0630 04:54:44.468359  1491 net.cpp:406] scale4c_branch2a <- res4c_branch2a
I0630 04:54:44.468365  1491 net.cpp:367] scale4c_branch2a -> res4c_branch2a (in-place)
I0630 04:54:44.468422  1491 layer_factory.hpp:77] Creating layer scale4c_branch2a
I0630 04:54:44.468570  1491 net.cpp:122] Setting up scale4c_branch2a
I0630 04:54:44.468585  1491 net.cpp:129] Top shape: 8 256 14 14 (401408)
I0630 04:54:44.468590  1491 net.cpp:137] Memory required for data: 1538195616
I0630 04:54:44.468596  1491 layer_factory.hpp:77] Creating layer res4c_branch2a_relu
I0630 04:54:44.468605  1491 net.cpp:84] Creating Layer res4c_branch2a_relu
I0630 04:54:44.468611  1491 net.cpp:406] res4c_branch2a_relu <- res4c_branch2a
I0630 04:54:44.468616  1491 net.cpp:367] res4c_branch2a_relu -> res4c_branch2a (in-place)
I0630 04:54:44.468780  1491 net.cpp:122] Setting up res4c_branch2a_relu
I0630 04:54:44.468796  1491 net.cpp:129] Top shape: 8 256 14 14 (401408)
I0630 04:54:44.468801  1491 net.cpp:137] Memory required for data: 1539801248
I0630 04:54:44.468804  1491 layer_factory.hpp:77] Creating layer res4c_branch2b
I0630 04:54:44.468818  1491 net.cpp:84] Creating Layer res4c_branch2b
I0630 04:54:44.468825  1491 net.cpp:406] res4c_branch2b <- res4c_branch2a
I0630 04:54:44.468832  1491 net.cpp:380] res4c_branch2b -> res4c_branch2b
I0630 04:54:44.471273  1491 net.cpp:122] Setting up res4c_branch2b
I0630 04:54:44.471293  1491 net.cpp:129] Top shape: 8 256 14 14 (401408)
I0630 04:54:44.471298  1491 net.cpp:137] Memory required for data: 1541406880
I0630 04:54:44.471307  1491 layer_factory.hpp:77] Creating layer bn4c_branch2b
I0630 04:54:44.471315  1491 net.cpp:84] Creating Layer bn4c_branch2b
I0630 04:54:44.471320  1491 net.cpp:406] bn4c_branch2b <- res4c_branch2b
I0630 04:54:44.471328  1491 net.cpp:367] bn4c_branch2b -> res4c_branch2b (in-place)
I0630 04:54:44.471572  1491 net.cpp:122] Setting up bn4c_branch2b
I0630 04:54:44.471588  1491 net.cpp:129] Top shape: 8 256 14 14 (401408)
I0630 04:54:44.471592  1491 net.cpp:137] Memory required for data: 1543012512
I0630 04:54:44.471601  1491 layer_factory.hpp:77] Creating layer scale4c_branch2b
I0630 04:54:44.471608  1491 net.cpp:84] Creating Layer scale4c_branch2b
I0630 04:54:44.471613  1491 net.cpp:406] scale4c_branch2b <- res4c_branch2b
I0630 04:54:44.471618  1491 net.cpp:367] scale4c_branch2b -> res4c_branch2b (in-place)
I0630 04:54:44.471675  1491 layer_factory.hpp:77] Creating layer scale4c_branch2b
I0630 04:54:44.471827  1491 net.cpp:122] Setting up scale4c_branch2b
I0630 04:54:44.471843  1491 net.cpp:129] Top shape: 8 256 14 14 (401408)
I0630 04:54:44.471848  1491 net.cpp:137] Memory required for data: 1544618144
I0630 04:54:44.471854  1491 layer_factory.hpp:77] Creating layer res4c_branch2b_relu
I0630 04:54:44.471861  1491 net.cpp:84] Creating Layer res4c_branch2b_relu
I0630 04:54:44.471880  1491 net.cpp:406] res4c_branch2b_relu <- res4c_branch2b
I0630 04:54:44.471889  1491 net.cpp:367] res4c_branch2b_relu -> res4c_branch2b (in-place)
I0630 04:54:44.472055  1491 net.cpp:122] Setting up res4c_branch2b_relu
I0630 04:54:44.472072  1491 net.cpp:129] Top shape: 8 256 14 14 (401408)
I0630 04:54:44.472076  1491 net.cpp:137] Memory required for data: 1546223776
I0630 04:54:44.472081  1491 layer_factory.hpp:77] Creating layer res4c_branch2c
I0630 04:54:44.472093  1491 net.cpp:84] Creating Layer res4c_branch2c
I0630 04:54:44.472100  1491 net.cpp:406] res4c_branch2c <- res4c_branch2b
I0630 04:54:44.472110  1491 net.cpp:380] res4c_branch2c -> res4c_branch2c
I0630 04:54:44.473775  1491 net.cpp:122] Setting up res4c_branch2c
I0630 04:54:44.473796  1491 net.cpp:129] Top shape: 8 1024 14 14 (1605632)
I0630 04:54:44.473800  1491 net.cpp:137] Memory required for data: 1552646304
I0630 04:54:44.473806  1491 layer_factory.hpp:77] Creating layer bn4c_branch2c
I0630 04:54:44.473814  1491 net.cpp:84] Creating Layer bn4c_branch2c
I0630 04:54:44.473819  1491 net.cpp:406] bn4c_branch2c <- res4c_branch2c
I0630 04:54:44.473827  1491 net.cpp:367] bn4c_branch2c -> res4c_branch2c (in-place)
I0630 04:54:44.474097  1491 net.cpp:122] Setting up bn4c_branch2c
I0630 04:54:44.474113  1491 net.cpp:129] Top shape: 8 1024 14 14 (1605632)
I0630 04:54:44.474117  1491 net.cpp:137] Memory required for data: 1559068832
I0630 04:54:44.474126  1491 layer_factory.hpp:77] Creating layer scale4c_branch2c
I0630 04:54:44.474134  1491 net.cpp:84] Creating Layer scale4c_branch2c
I0630 04:54:44.474138  1491 net.cpp:406] scale4c_branch2c <- res4c_branch2c
I0630 04:54:44.474143  1491 net.cpp:367] scale4c_branch2c -> res4c_branch2c (in-place)
I0630 04:54:44.474197  1491 layer_factory.hpp:77] Creating layer scale4c_branch2c
I0630 04:54:44.474354  1491 net.cpp:122] Setting up scale4c_branch2c
I0630 04:54:44.474370  1491 net.cpp:129] Top shape: 8 1024 14 14 (1605632)
I0630 04:54:44.474372  1491 net.cpp:137] Memory required for data: 1565491360
I0630 04:54:44.474380  1491 layer_factory.hpp:77] Creating layer res4c
I0630 04:54:44.474387  1491 net.cpp:84] Creating Layer res4c
I0630 04:54:44.474391  1491 net.cpp:406] res4c <- res4b_res4b_relu_0_split_1
I0630 04:54:44.474396  1491 net.cpp:406] res4c <- res4c_branch2c
I0630 04:54:44.474405  1491 net.cpp:380] res4c -> res4c
I0630 04:54:44.474437  1491 net.cpp:122] Setting up res4c
I0630 04:54:44.474452  1491 net.cpp:129] Top shape: 8 1024 14 14 (1605632)
I0630 04:54:44.474458  1491 net.cpp:137] Memory required for data: 1571913888
I0630 04:54:44.474462  1491 layer_factory.hpp:77] Creating layer res4c_relu
I0630 04:54:44.474472  1491 net.cpp:84] Creating Layer res4c_relu
I0630 04:54:44.474476  1491 net.cpp:406] res4c_relu <- res4c
I0630 04:54:44.474481  1491 net.cpp:367] res4c_relu -> res4c (in-place)
I0630 04:54:44.474756  1491 net.cpp:122] Setting up res4c_relu
I0630 04:54:44.474776  1491 net.cpp:129] Top shape: 8 1024 14 14 (1605632)
I0630 04:54:44.474779  1491 net.cpp:137] Memory required for data: 1578336416
I0630 04:54:44.474783  1491 layer_factory.hpp:77] Creating layer res4c_res4c_relu_0_split
I0630 04:54:44.474791  1491 net.cpp:84] Creating Layer res4c_res4c_relu_0_split
I0630 04:54:44.474794  1491 net.cpp:406] res4c_res4c_relu_0_split <- res4c
I0630 04:54:44.474803  1491 net.cpp:380] res4c_res4c_relu_0_split -> res4c_res4c_relu_0_split_0
I0630 04:54:44.474810  1491 net.cpp:380] res4c_res4c_relu_0_split -> res4c_res4c_relu_0_split_1
I0630 04:54:44.474864  1491 net.cpp:122] Setting up res4c_res4c_relu_0_split
I0630 04:54:44.474879  1491 net.cpp:129] Top shape: 8 1024 14 14 (1605632)
I0630 04:54:44.474884  1491 net.cpp:129] Top shape: 8 1024 14 14 (1605632)
I0630 04:54:44.474886  1491 net.cpp:137] Memory required for data: 1591181472
I0630 04:54:44.474890  1491 layer_factory.hpp:77] Creating layer res4d_branch2a
I0630 04:54:44.474905  1491 net.cpp:84] Creating Layer res4d_branch2a
I0630 04:54:44.474911  1491 net.cpp:406] res4d_branch2a <- res4c_res4c_relu_0_split_0
I0630 04:54:44.474937  1491 net.cpp:380] res4d_branch2a -> res4d_branch2a
I0630 04:54:44.476591  1491 net.cpp:122] Setting up res4d_branch2a
I0630 04:54:44.476611  1491 net.cpp:129] Top shape: 8 256 14 14 (401408)
I0630 04:54:44.476615  1491 net.cpp:137] Memory required for data: 1592787104
I0630 04:54:44.476622  1491 layer_factory.hpp:77] Creating layer bn4d_branch2a
I0630 04:54:44.476634  1491 net.cpp:84] Creating Layer bn4d_branch2a
I0630 04:54:44.476639  1491 net.cpp:406] bn4d_branch2a <- res4d_branch2a
I0630 04:54:44.476644  1491 net.cpp:367] bn4d_branch2a -> res4d_branch2a (in-place)
I0630 04:54:44.476896  1491 net.cpp:122] Setting up bn4d_branch2a
I0630 04:54:44.476912  1491 net.cpp:129] Top shape: 8 256 14 14 (401408)
I0630 04:54:44.476915  1491 net.cpp:137] Memory required for data: 1594392736
I0630 04:54:44.476927  1491 layer_factory.hpp:77] Creating layer scale4d_branch2a
I0630 04:54:44.476935  1491 net.cpp:84] Creating Layer scale4d_branch2a
I0630 04:54:44.476941  1491 net.cpp:406] scale4d_branch2a <- res4d_branch2a
I0630 04:54:44.476948  1491 net.cpp:367] scale4d_branch2a -> res4d_branch2a (in-place)
I0630 04:54:44.477006  1491 layer_factory.hpp:77] Creating layer scale4d_branch2a
I0630 04:54:44.477177  1491 net.cpp:122] Setting up scale4d_branch2a
I0630 04:54:44.477192  1491 net.cpp:129] Top shape: 8 256 14 14 (401408)
I0630 04:54:44.477196  1491 net.cpp:137] Memory required for data: 1595998368
I0630 04:54:44.477205  1491 layer_factory.hpp:77] Creating layer res4d_branch2a_relu
I0630 04:54:44.477213  1491 net.cpp:84] Creating Layer res4d_branch2a_relu
I0630 04:54:44.477218  1491 net.cpp:406] res4d_branch2a_relu <- res4d_branch2a
I0630 04:54:44.477223  1491 net.cpp:367] res4d_branch2a_relu -> res4d_branch2a (in-place)
I0630 04:54:44.477399  1491 net.cpp:122] Setting up res4d_branch2a_relu
I0630 04:54:44.477416  1491 net.cpp:129] Top shape: 8 256 14 14 (401408)
I0630 04:54:44.477421  1491 net.cpp:137] Memory required for data: 1597604000
I0630 04:54:44.477424  1491 layer_factory.hpp:77] Creating layer res4d_branch2b
I0630 04:54:44.477437  1491 net.cpp:84] Creating Layer res4d_branch2b
I0630 04:54:44.477443  1491 net.cpp:406] res4d_branch2b <- res4d_branch2a
I0630 04:54:44.477449  1491 net.cpp:380] res4d_branch2b -> res4d_branch2b
I0630 04:54:44.480001  1491 net.cpp:122] Setting up res4d_branch2b
I0630 04:54:44.480024  1491 net.cpp:129] Top shape: 8 256 14 14 (401408)
I0630 04:54:44.480029  1491 net.cpp:137] Memory required for data: 1599209632
I0630 04:54:44.480036  1491 layer_factory.hpp:77] Creating layer bn4d_branch2b
I0630 04:54:44.480043  1491 net.cpp:84] Creating Layer bn4d_branch2b
I0630 04:54:44.480054  1491 net.cpp:406] bn4d_branch2b <- res4d_branch2b
I0630 04:54:44.480060  1491 net.cpp:367] bn4d_branch2b -> res4d_branch2b (in-place)
I0630 04:54:44.480312  1491 net.cpp:122] Setting up bn4d_branch2b
I0630 04:54:44.480327  1491 net.cpp:129] Top shape: 8 256 14 14 (401408)
I0630 04:54:44.480331  1491 net.cpp:137] Memory required for data: 1600815264
I0630 04:54:44.480340  1491 layer_factory.hpp:77] Creating layer scale4d_branch2b
I0630 04:54:44.480351  1491 net.cpp:84] Creating Layer scale4d_branch2b
I0630 04:54:44.480357  1491 net.cpp:406] scale4d_branch2b <- res4d_branch2b
I0630 04:54:44.480363  1491 net.cpp:367] scale4d_branch2b -> res4d_branch2b (in-place)
I0630 04:54:44.480425  1491 layer_factory.hpp:77] Creating layer scale4d_branch2b
I0630 04:54:44.480585  1491 net.cpp:122] Setting up scale4d_branch2b
I0630 04:54:44.480600  1491 net.cpp:129] Top shape: 8 256 14 14 (401408)
I0630 04:54:44.480604  1491 net.cpp:137] Memory required for data: 1602420896
I0630 04:54:44.480612  1491 layer_factory.hpp:77] Creating layer res4d_branch2b_relu
I0630 04:54:44.480618  1491 net.cpp:84] Creating Layer res4d_branch2b_relu
I0630 04:54:44.480623  1491 net.cpp:406] res4d_branch2b_relu <- res4d_branch2b
I0630 04:54:44.480631  1491 net.cpp:367] res4d_branch2b_relu -> res4d_branch2b (in-place)
I0630 04:54:44.480801  1491 net.cpp:122] Setting up res4d_branch2b_relu
I0630 04:54:44.480818  1491 net.cpp:129] Top shape: 8 256 14 14 (401408)
I0630 04:54:44.480844  1491 net.cpp:137] Memory required for data: 1604026528
I0630 04:54:44.480849  1491 layer_factory.hpp:77] Creating layer res4d_branch2c
I0630 04:54:44.480861  1491 net.cpp:84] Creating Layer res4d_branch2c
I0630 04:54:44.480867  1491 net.cpp:406] res4d_branch2c <- res4d_branch2b
I0630 04:54:44.480876  1491 net.cpp:380] res4d_branch2c -> res4d_branch2c
I0630 04:54:44.482566  1491 net.cpp:122] Setting up res4d_branch2c
I0630 04:54:44.482587  1491 net.cpp:129] Top shape: 8 1024 14 14 (1605632)
I0630 04:54:44.482591  1491 net.cpp:137] Memory required for data: 1610449056
I0630 04:54:44.482597  1491 layer_factory.hpp:77] Creating layer bn4d_branch2c
I0630 04:54:44.482609  1491 net.cpp:84] Creating Layer bn4d_branch2c
I0630 04:54:44.482614  1491 net.cpp:406] bn4d_branch2c <- res4d_branch2c
I0630 04:54:44.482620  1491 net.cpp:367] bn4d_branch2c -> res4d_branch2c (in-place)
I0630 04:54:44.482883  1491 net.cpp:122] Setting up bn4d_branch2c
I0630 04:54:44.482899  1491 net.cpp:129] Top shape: 8 1024 14 14 (1605632)
I0630 04:54:44.482903  1491 net.cpp:137] Memory required for data: 1616871584
I0630 04:54:44.482911  1491 layer_factory.hpp:77] Creating layer scale4d_branch2c
I0630 04:54:44.482923  1491 net.cpp:84] Creating Layer scale4d_branch2c
I0630 04:54:44.482926  1491 net.cpp:406] scale4d_branch2c <- res4d_branch2c
I0630 04:54:44.482933  1491 net.cpp:367] scale4d_branch2c -> res4d_branch2c (in-place)
I0630 04:54:44.483008  1491 layer_factory.hpp:77] Creating layer scale4d_branch2c
I0630 04:54:44.483178  1491 net.cpp:122] Setting up scale4d_branch2c
I0630 04:54:44.483194  1491 net.cpp:129] Top shape: 8 1024 14 14 (1605632)
I0630 04:54:44.483198  1491 net.cpp:137] Memory required for data: 1623294112
I0630 04:54:44.483206  1491 layer_factory.hpp:77] Creating layer res4d
I0630 04:54:44.483212  1491 net.cpp:84] Creating Layer res4d
I0630 04:54:44.483217  1491 net.cpp:406] res4d <- res4c_res4c_relu_0_split_1
I0630 04:54:44.483222  1491 net.cpp:406] res4d <- res4d_branch2c
I0630 04:54:44.483230  1491 net.cpp:380] res4d -> res4d
I0630 04:54:44.483268  1491 net.cpp:122] Setting up res4d
I0630 04:54:44.483283  1491 net.cpp:129] Top shape: 8 1024 14 14 (1605632)
I0630 04:54:44.483286  1491 net.cpp:137] Memory required for data: 1629716640
I0630 04:54:44.483290  1491 layer_factory.hpp:77] Creating layer res4d_relu
I0630 04:54:44.483296  1491 net.cpp:84] Creating Layer res4d_relu
I0630 04:54:44.483300  1491 net.cpp:406] res4d_relu <- res4d
I0630 04:54:44.483305  1491 net.cpp:367] res4d_relu -> res4d (in-place)
I0630 04:54:44.483582  1491 net.cpp:122] Setting up res4d_relu
I0630 04:54:44.483600  1491 net.cpp:129] Top shape: 8 1024 14 14 (1605632)
I0630 04:54:44.483605  1491 net.cpp:137] Memory required for data: 1636139168
I0630 04:54:44.483609  1491 layer_factory.hpp:77] Creating layer res4d_res4d_relu_0_split
I0630 04:54:44.483616  1491 net.cpp:84] Creating Layer res4d_res4d_relu_0_split
I0630 04:54:44.483623  1491 net.cpp:406] res4d_res4d_relu_0_split <- res4d
I0630 04:54:44.483630  1491 net.cpp:380] res4d_res4d_relu_0_split -> res4d_res4d_relu_0_split_0
I0630 04:54:44.483638  1491 net.cpp:380] res4d_res4d_relu_0_split -> res4d_res4d_relu_0_split_1
I0630 04:54:44.483695  1491 net.cpp:122] Setting up res4d_res4d_relu_0_split
I0630 04:54:44.483710  1491 net.cpp:129] Top shape: 8 1024 14 14 (1605632)
I0630 04:54:44.483714  1491 net.cpp:129] Top shape: 8 1024 14 14 (1605632)
I0630 04:54:44.483717  1491 net.cpp:137] Memory required for data: 1648984224
I0630 04:54:44.483721  1491 layer_factory.hpp:77] Creating layer res4e_branch2a
I0630 04:54:44.483734  1491 net.cpp:84] Creating Layer res4e_branch2a
I0630 04:54:44.483739  1491 net.cpp:406] res4e_branch2a <- res4d_res4d_relu_0_split_0
I0630 04:54:44.483747  1491 net.cpp:380] res4e_branch2a -> res4e_branch2a
I0630 04:54:44.485409  1491 net.cpp:122] Setting up res4e_branch2a
I0630 04:54:44.485429  1491 net.cpp:129] Top shape: 8 256 14 14 (401408)
I0630 04:54:44.485433  1491 net.cpp:137] Memory required for data: 1650589856
I0630 04:54:44.485440  1491 layer_factory.hpp:77] Creating layer bn4e_branch2a
I0630 04:54:44.485466  1491 net.cpp:84] Creating Layer bn4e_branch2a
I0630 04:54:44.485471  1491 net.cpp:406] bn4e_branch2a <- res4e_branch2a
I0630 04:54:44.485476  1491 net.cpp:367] bn4e_branch2a -> res4e_branch2a (in-place)
I0630 04:54:44.485759  1491 net.cpp:122] Setting up bn4e_branch2a
I0630 04:54:44.485775  1491 net.cpp:129] Top shape: 8 256 14 14 (401408)
I0630 04:54:44.485780  1491 net.cpp:137] Memory required for data: 1652195488
I0630 04:54:44.485788  1491 layer_factory.hpp:77] Creating layer scale4e_branch2a
I0630 04:54:44.485796  1491 net.cpp:84] Creating Layer scale4e_branch2a
I0630 04:54:44.485801  1491 net.cpp:406] scale4e_branch2a <- res4e_branch2a
I0630 04:54:44.485806  1491 net.cpp:367] scale4e_branch2a -> res4e_branch2a (in-place)
I0630 04:54:44.485867  1491 layer_factory.hpp:77] Creating layer scale4e_branch2a
I0630 04:54:44.486049  1491 net.cpp:122] Setting up scale4e_branch2a
I0630 04:54:44.486065  1491 net.cpp:129] Top shape: 8 256 14 14 (401408)
I0630 04:54:44.486070  1491 net.cpp:137] Memory required for data: 1653801120
I0630 04:54:44.486078  1491 layer_factory.hpp:77] Creating layer res4e_branch2a_relu
I0630 04:54:44.486086  1491 net.cpp:84] Creating Layer res4e_branch2a_relu
I0630 04:54:44.486091  1491 net.cpp:406] res4e_branch2a_relu <- res4e_branch2a
I0630 04:54:44.486096  1491 net.cpp:367] res4e_branch2a_relu -> res4e_branch2a (in-place)
I0630 04:54:44.486265  1491 net.cpp:122] Setting up res4e_branch2a_relu
I0630 04:54:44.486284  1491 net.cpp:129] Top shape: 8 256 14 14 (401408)
I0630 04:54:44.486289  1491 net.cpp:137] Memory required for data: 1655406752
I0630 04:54:44.486294  1491 layer_factory.hpp:77] Creating layer res4e_branch2b
I0630 04:54:44.486302  1491 net.cpp:84] Creating Layer res4e_branch2b
I0630 04:54:44.486307  1491 net.cpp:406] res4e_branch2b <- res4e_branch2a
I0630 04:54:44.486317  1491 net.cpp:380] res4e_branch2b -> res4e_branch2b
I0630 04:54:44.488653  1491 net.cpp:122] Setting up res4e_branch2b
I0630 04:54:44.488673  1491 net.cpp:129] Top shape: 8 256 14 14 (401408)
I0630 04:54:44.488678  1491 net.cpp:137] Memory required for data: 1657012384
I0630 04:54:44.488684  1491 layer_factory.hpp:77] Creating layer bn4e_branch2b
I0630 04:54:44.488692  1491 net.cpp:84] Creating Layer bn4e_branch2b
I0630 04:54:44.488696  1491 net.cpp:406] bn4e_branch2b <- res4e_branch2b
I0630 04:54:44.488704  1491 net.cpp:367] bn4e_branch2b -> res4e_branch2b (in-place)
I0630 04:54:44.488966  1491 net.cpp:122] Setting up bn4e_branch2b
I0630 04:54:44.488981  1491 net.cpp:129] Top shape: 8 256 14 14 (401408)
I0630 04:54:44.488986  1491 net.cpp:137] Memory required for data: 1658618016
I0630 04:54:44.489001  1491 layer_factory.hpp:77] Creating layer scale4e_branch2b
I0630 04:54:44.489014  1491 net.cpp:84] Creating Layer scale4e_branch2b
I0630 04:54:44.489025  1491 net.cpp:406] scale4e_branch2b <- res4e_branch2b
I0630 04:54:44.489037  1491 net.cpp:367] scale4e_branch2b -> res4e_branch2b (in-place)
I0630 04:54:44.489109  1491 layer_factory.hpp:77] Creating layer scale4e_branch2b
I0630 04:54:44.489279  1491 net.cpp:122] Setting up scale4e_branch2b
I0630 04:54:44.489293  1491 net.cpp:129] Top shape: 8 256 14 14 (401408)
I0630 04:54:44.489297  1491 net.cpp:137] Memory required for data: 1660223648
I0630 04:54:44.489305  1491 layer_factory.hpp:77] Creating layer res4e_branch2b_relu
I0630 04:54:44.489311  1491 net.cpp:84] Creating Layer res4e_branch2b_relu
I0630 04:54:44.489316  1491 net.cpp:406] res4e_branch2b_relu <- res4e_branch2b
I0630 04:54:44.489323  1491 net.cpp:367] res4e_branch2b_relu -> res4e_branch2b (in-place)
I0630 04:54:44.489490  1491 net.cpp:122] Setting up res4e_branch2b_relu
I0630 04:54:44.489507  1491 net.cpp:129] Top shape: 8 256 14 14 (401408)
I0630 04:54:44.489511  1491 net.cpp:137] Memory required for data: 1661829280
I0630 04:54:44.489516  1491 layer_factory.hpp:77] Creating layer res4e_branch2c
I0630 04:54:44.489527  1491 net.cpp:84] Creating Layer res4e_branch2c
I0630 04:54:44.489531  1491 net.cpp:406] res4e_branch2c <- res4e_branch2b
I0630 04:54:44.489560  1491 net.cpp:380] res4e_branch2c -> res4e_branch2c
I0630 04:54:44.491137  1491 net.cpp:122] Setting up res4e_branch2c
I0630 04:54:44.491158  1491 net.cpp:129] Top shape: 8 1024 14 14 (1605632)
I0630 04:54:44.491161  1491 net.cpp:137] Memory required for data: 1668251808
I0630 04:54:44.491168  1491 layer_factory.hpp:77] Creating layer bn4e_branch2c
I0630 04:54:44.491178  1491 net.cpp:84] Creating Layer bn4e_branch2c
I0630 04:54:44.491183  1491 net.cpp:406] bn4e_branch2c <- res4e_branch2c
I0630 04:54:44.491189  1491 net.cpp:367] bn4e_branch2c -> res4e_branch2c (in-place)
I0630 04:54:44.491456  1491 net.cpp:122] Setting up bn4e_branch2c
I0630 04:54:44.491473  1491 net.cpp:129] Top shape: 8 1024 14 14 (1605632)
I0630 04:54:44.491477  1491 net.cpp:137] Memory required for data: 1674674336
I0630 04:54:44.491487  1491 layer_factory.hpp:77] Creating layer scale4e_branch2c
I0630 04:54:44.491493  1491 net.cpp:84] Creating Layer scale4e_branch2c
I0630 04:54:44.491498  1491 net.cpp:406] scale4e_branch2c <- res4e_branch2c
I0630 04:54:44.491503  1491 net.cpp:367] scale4e_branch2c -> res4e_branch2c (in-place)
I0630 04:54:44.491561  1491 layer_factory.hpp:77] Creating layer scale4e_branch2c
I0630 04:54:44.491725  1491 net.cpp:122] Setting up scale4e_branch2c
I0630 04:54:44.491741  1491 net.cpp:129] Top shape: 8 1024 14 14 (1605632)
I0630 04:54:44.491745  1491 net.cpp:137] Memory required for data: 1681096864
I0630 04:54:44.491752  1491 layer_factory.hpp:77] Creating layer res4e
I0630 04:54:44.491762  1491 net.cpp:84] Creating Layer res4e
I0630 04:54:44.491770  1491 net.cpp:406] res4e <- res4d_res4d_relu_0_split_1
I0630 04:54:44.491775  1491 net.cpp:406] res4e <- res4e_branch2c
I0630 04:54:44.491780  1491 net.cpp:380] res4e -> res4e
I0630 04:54:44.491816  1491 net.cpp:122] Setting up res4e
I0630 04:54:44.491832  1491 net.cpp:129] Top shape: 8 1024 14 14 (1605632)
I0630 04:54:44.491835  1491 net.cpp:137] Memory required for data: 1687519392
I0630 04:54:44.491839  1491 layer_factory.hpp:77] Creating layer res4e_relu
I0630 04:54:44.491845  1491 net.cpp:84] Creating Layer res4e_relu
I0630 04:54:44.491849  1491 net.cpp:406] res4e_relu <- res4e
I0630 04:54:44.491858  1491 net.cpp:367] res4e_relu -> res4e (in-place)
I0630 04:54:44.492139  1491 net.cpp:122] Setting up res4e_relu
I0630 04:54:44.492158  1491 net.cpp:129] Top shape: 8 1024 14 14 (1605632)
I0630 04:54:44.492162  1491 net.cpp:137] Memory required for data: 1693941920
I0630 04:54:44.492166  1491 layer_factory.hpp:77] Creating layer res4e_res4e_relu_0_split
I0630 04:54:44.492173  1491 net.cpp:84] Creating Layer res4e_res4e_relu_0_split
I0630 04:54:44.492178  1491 net.cpp:406] res4e_res4e_relu_0_split <- res4e
I0630 04:54:44.492194  1491 net.cpp:380] res4e_res4e_relu_0_split -> res4e_res4e_relu_0_split_0
I0630 04:54:44.492202  1491 net.cpp:380] res4e_res4e_relu_0_split -> res4e_res4e_relu_0_split_1
I0630 04:54:44.492259  1491 net.cpp:122] Setting up res4e_res4e_relu_0_split
I0630 04:54:44.492275  1491 net.cpp:129] Top shape: 8 1024 14 14 (1605632)
I0630 04:54:44.492281  1491 net.cpp:129] Top shape: 8 1024 14 14 (1605632)
I0630 04:54:44.492285  1491 net.cpp:137] Memory required for data: 1706786976
I0630 04:54:44.492288  1491 layer_factory.hpp:77] Creating layer res4f_branch2a
I0630 04:54:44.492301  1491 net.cpp:84] Creating Layer res4f_branch2a
I0630 04:54:44.492308  1491 net.cpp:406] res4f_branch2a <- res4e_res4e_relu_0_split_0
I0630 04:54:44.492314  1491 net.cpp:380] res4f_branch2a -> res4f_branch2a
I0630 04:54:44.494087  1491 net.cpp:122] Setting up res4f_branch2a
I0630 04:54:44.494107  1491 net.cpp:129] Top shape: 8 256 14 14 (401408)
I0630 04:54:44.494112  1491 net.cpp:137] Memory required for data: 1708392608
I0630 04:54:44.494118  1491 layer_factory.hpp:77] Creating layer bn4f_branch2a
I0630 04:54:44.494127  1491 net.cpp:84] Creating Layer bn4f_branch2a
I0630 04:54:44.494132  1491 net.cpp:406] bn4f_branch2a <- res4f_branch2a
I0630 04:54:44.494139  1491 net.cpp:367] bn4f_branch2a -> res4f_branch2a (in-place)
I0630 04:54:44.494403  1491 net.cpp:122] Setting up bn4f_branch2a
I0630 04:54:44.494434  1491 net.cpp:129] Top shape: 8 256 14 14 (401408)
I0630 04:54:44.494439  1491 net.cpp:137] Memory required for data: 1709998240
I0630 04:54:44.494448  1491 layer_factory.hpp:77] Creating layer scale4f_branch2a
I0630 04:54:44.494457  1491 net.cpp:84] Creating Layer scale4f_branch2a
I0630 04:54:44.494463  1491 net.cpp:406] scale4f_branch2a <- res4f_branch2a
I0630 04:54:44.494469  1491 net.cpp:367] scale4f_branch2a -> res4f_branch2a (in-place)
I0630 04:54:44.494530  1491 layer_factory.hpp:77] Creating layer scale4f_branch2a
I0630 04:54:44.494693  1491 net.cpp:122] Setting up scale4f_branch2a
I0630 04:54:44.494709  1491 net.cpp:129] Top shape: 8 256 14 14 (401408)
I0630 04:54:44.494714  1491 net.cpp:137] Memory required for data: 1711603872
I0630 04:54:44.494720  1491 layer_factory.hpp:77] Creating layer res4f_branch2a_relu
I0630 04:54:44.494727  1491 net.cpp:84] Creating Layer res4f_branch2a_relu
I0630 04:54:44.494731  1491 net.cpp:406] res4f_branch2a_relu <- res4f_branch2a
I0630 04:54:44.494740  1491 net.cpp:367] res4f_branch2a_relu -> res4f_branch2a (in-place)
I0630 04:54:44.494909  1491 net.cpp:122] Setting up res4f_branch2a_relu
I0630 04:54:44.494925  1491 net.cpp:129] Top shape: 8 256 14 14 (401408)
I0630 04:54:44.494931  1491 net.cpp:137] Memory required for data: 1713209504
I0630 04:54:44.494936  1491 layer_factory.hpp:77] Creating layer res4f_branch2b
I0630 04:54:44.494946  1491 net.cpp:84] Creating Layer res4f_branch2b
I0630 04:54:44.494951  1491 net.cpp:406] res4f_branch2b <- res4f_branch2a
I0630 04:54:44.494958  1491 net.cpp:380] res4f_branch2b -> res4f_branch2b
I0630 04:54:44.497673  1491 net.cpp:122] Setting up res4f_branch2b
I0630 04:54:44.497695  1491 net.cpp:129] Top shape: 8 256 14 14 (401408)
I0630 04:54:44.497700  1491 net.cpp:137] Memory required for data: 1714815136
I0630 04:54:44.497706  1491 layer_factory.hpp:77] Creating layer bn4f_branch2b
I0630 04:54:44.497714  1491 net.cpp:84] Creating Layer bn4f_branch2b
I0630 04:54:44.497720  1491 net.cpp:406] bn4f_branch2b <- res4f_branch2b
I0630 04:54:44.497727  1491 net.cpp:367] bn4f_branch2b -> res4f_branch2b (in-place)
I0630 04:54:44.498019  1491 net.cpp:122] Setting up bn4f_branch2b
I0630 04:54:44.498036  1491 net.cpp:129] Top shape: 8 256 14 14 (401408)
I0630 04:54:44.498040  1491 net.cpp:137] Memory required for data: 1716420768
I0630 04:54:44.498049  1491 layer_factory.hpp:77] Creating layer scale4f_branch2b
I0630 04:54:44.498057  1491 net.cpp:84] Creating Layer scale4f_branch2b
I0630 04:54:44.498061  1491 net.cpp:406] scale4f_branch2b <- res4f_branch2b
I0630 04:54:44.498067  1491 net.cpp:367] scale4f_branch2b -> res4f_branch2b (in-place)
I0630 04:54:44.498128  1491 layer_factory.hpp:77] Creating layer scale4f_branch2b
I0630 04:54:44.498299  1491 net.cpp:122] Setting up scale4f_branch2b
I0630 04:54:44.498316  1491 net.cpp:129] Top shape: 8 256 14 14 (401408)
I0630 04:54:44.498319  1491 net.cpp:137] Memory required for data: 1718026400
I0630 04:54:44.498327  1491 layer_factory.hpp:77] Creating layer res4f_branch2b_relu
I0630 04:54:44.498333  1491 net.cpp:84] Creating Layer res4f_branch2b_relu
I0630 04:54:44.498338  1491 net.cpp:406] res4f_branch2b_relu <- res4f_branch2b
I0630 04:54:44.498345  1491 net.cpp:367] res4f_branch2b_relu -> res4f_branch2b (in-place)
I0630 04:54:44.498512  1491 net.cpp:122] Setting up res4f_branch2b_relu
I0630 04:54:44.498529  1491 net.cpp:129] Top shape: 8 256 14 14 (401408)
I0630 04:54:44.498533  1491 net.cpp:137] Memory required for data: 1719632032
I0630 04:54:44.498538  1491 layer_factory.hpp:77] Creating layer res4f_branch2c
I0630 04:54:44.498549  1491 net.cpp:84] Creating Layer res4f_branch2c
I0630 04:54:44.498554  1491 net.cpp:406] res4f_branch2c <- res4f_branch2b
I0630 04:54:44.498564  1491 net.cpp:380] res4f_branch2c -> res4f_branch2c
I0630 04:54:44.500247  1491 net.cpp:122] Setting up res4f_branch2c
I0630 04:54:44.500268  1491 net.cpp:129] Top shape: 8 1024 14 14 (1605632)
I0630 04:54:44.500272  1491 net.cpp:137] Memory required for data: 1726054560
I0630 04:54:44.500278  1491 layer_factory.hpp:77] Creating layer bn4f_branch2c
I0630 04:54:44.500303  1491 net.cpp:84] Creating Layer bn4f_branch2c
I0630 04:54:44.500308  1491 net.cpp:406] bn4f_branch2c <- res4f_branch2c
I0630 04:54:44.500318  1491 net.cpp:367] bn4f_branch2c -> res4f_branch2c (in-place)
I0630 04:54:44.500591  1491 net.cpp:122] Setting up bn4f_branch2c
I0630 04:54:44.500607  1491 net.cpp:129] Top shape: 8 1024 14 14 (1605632)
I0630 04:54:44.500612  1491 net.cpp:137] Memory required for data: 1732477088
I0630 04:54:44.500671  1491 layer_factory.hpp:77] Creating layer scale4f_branch2c
I0630 04:54:44.500686  1491 net.cpp:84] Creating Layer scale4f_branch2c
I0630 04:54:44.500691  1491 net.cpp:406] scale4f_branch2c <- res4f_branch2c
I0630 04:54:44.500697  1491 net.cpp:367] scale4f_branch2c -> res4f_branch2c (in-place)
I0630 04:54:44.500761  1491 layer_factory.hpp:77] Creating layer scale4f_branch2c
I0630 04:54:44.500933  1491 net.cpp:122] Setting up scale4f_branch2c
I0630 04:54:44.500949  1491 net.cpp:129] Top shape: 8 1024 14 14 (1605632)
I0630 04:54:44.500953  1491 net.cpp:137] Memory required for data: 1738899616
I0630 04:54:44.500960  1491 layer_factory.hpp:77] Creating layer res4f
I0630 04:54:44.500967  1491 net.cpp:84] Creating Layer res4f
I0630 04:54:44.500972  1491 net.cpp:406] res4f <- res4e_res4e_relu_0_split_1
I0630 04:54:44.500977  1491 net.cpp:406] res4f <- res4f_branch2c
I0630 04:54:44.500985  1491 net.cpp:380] res4f -> res4f
I0630 04:54:44.501024  1491 net.cpp:122] Setting up res4f
I0630 04:54:44.501039  1491 net.cpp:129] Top shape: 8 1024 14 14 (1605632)
I0630 04:54:44.501042  1491 net.cpp:137] Memory required for data: 1745322144
I0630 04:54:44.501046  1491 layer_factory.hpp:77] Creating layer res4f_relu
I0630 04:54:44.501054  1491 net.cpp:84] Creating Layer res4f_relu
I0630 04:54:44.501057  1491 net.cpp:406] res4f_relu <- res4f
I0630 04:54:44.501062  1491 net.cpp:367] res4f_relu -> res4f (in-place)
I0630 04:54:44.501346  1491 net.cpp:122] Setting up res4f_relu
I0630 04:54:44.501364  1491 net.cpp:129] Top shape: 8 1024 14 14 (1605632)
I0630 04:54:44.501369  1491 net.cpp:137] Memory required for data: 1751744672
I0630 04:54:44.501374  1491 layer_factory.hpp:77] Creating layer res4f_res4f_relu_0_split
I0630 04:54:44.501380  1491 net.cpp:84] Creating Layer res4f_res4f_relu_0_split
I0630 04:54:44.501384  1491 net.cpp:406] res4f_res4f_relu_0_split <- res4f
I0630 04:54:44.501394  1491 net.cpp:380] res4f_res4f_relu_0_split -> res4f_res4f_relu_0_split_0
I0630 04:54:44.501404  1491 net.cpp:380] res4f_res4f_relu_0_split -> res4f_res4f_relu_0_split_1
I0630 04:54:44.501463  1491 net.cpp:122] Setting up res4f_res4f_relu_0_split
I0630 04:54:44.501480  1491 net.cpp:129] Top shape: 8 1024 14 14 (1605632)
I0630 04:54:44.501485  1491 net.cpp:129] Top shape: 8 1024 14 14 (1605632)
I0630 04:54:44.501489  1491 net.cpp:137] Memory required for data: 1764589728
I0630 04:54:44.501492  1491 layer_factory.hpp:77] Creating layer res5a_branch1
I0630 04:54:44.501502  1491 net.cpp:84] Creating Layer res5a_branch1
I0630 04:54:44.501507  1491 net.cpp:406] res5a_branch1 <- res4f_res4f_relu_0_split_0
I0630 04:54:44.501515  1491 net.cpp:380] res5a_branch1 -> res5a_branch1
I0630 04:54:44.506829  1491 net.cpp:122] Setting up res5a_branch1
I0630 04:54:44.506851  1491 net.cpp:129] Top shape: 8 2048 7 7 (802816)
I0630 04:54:44.506856  1491 net.cpp:137] Memory required for data: 1767800992
I0630 04:54:44.506863  1491 layer_factory.hpp:77] Creating layer bn5a_branch1
I0630 04:54:44.506873  1491 net.cpp:84] Creating Layer bn5a_branch1
I0630 04:54:44.506880  1491 net.cpp:406] bn5a_branch1 <- res5a_branch1
I0630 04:54:44.506886  1491 net.cpp:367] bn5a_branch1 -> res5a_branch1 (in-place)
I0630 04:54:44.507191  1491 net.cpp:122] Setting up bn5a_branch1
I0630 04:54:44.507211  1491 net.cpp:129] Top shape: 8 2048 7 7 (802816)
I0630 04:54:44.507215  1491 net.cpp:137] Memory required for data: 1771012256
I0630 04:54:44.507225  1491 layer_factory.hpp:77] Creating layer scale5a_branch1
I0630 04:54:44.507232  1491 net.cpp:84] Creating Layer scale5a_branch1
I0630 04:54:44.507236  1491 net.cpp:406] scale5a_branch1 <- res5a_branch1
I0630 04:54:44.507259  1491 net.cpp:367] scale5a_branch1 -> res5a_branch1 (in-place)
I0630 04:54:44.507320  1491 layer_factory.hpp:77] Creating layer scale5a_branch1
I0630 04:54:44.507496  1491 net.cpp:122] Setting up scale5a_branch1
I0630 04:54:44.507513  1491 net.cpp:129] Top shape: 8 2048 7 7 (802816)
I0630 04:54:44.507516  1491 net.cpp:137] Memory required for data: 1774223520
I0630 04:54:44.507524  1491 layer_factory.hpp:77] Creating layer res5a_branch2a
I0630 04:54:44.507535  1491 net.cpp:84] Creating Layer res5a_branch2a
I0630 04:54:44.507542  1491 net.cpp:406] res5a_branch2a <- res4f_res4f_relu_0_split_1
I0630 04:54:44.507550  1491 net.cpp:380] res5a_branch2a -> res5a_branch2a
I0630 04:54:44.509506  1491 net.cpp:122] Setting up res5a_branch2a
I0630 04:54:44.509527  1491 net.cpp:129] Top shape: 8 512 7 7 (200704)
I0630 04:54:44.509532  1491 net.cpp:137] Memory required for data: 1775026336
I0630 04:54:44.509538  1491 layer_factory.hpp:77] Creating layer bn5a_branch2a
I0630 04:54:44.509548  1491 net.cpp:84] Creating Layer bn5a_branch2a
I0630 04:54:44.509553  1491 net.cpp:406] bn5a_branch2a <- res5a_branch2a
I0630 04:54:44.509559  1491 net.cpp:367] bn5a_branch2a -> res5a_branch2a (in-place)
I0630 04:54:44.509835  1491 net.cpp:122] Setting up bn5a_branch2a
I0630 04:54:44.509853  1491 net.cpp:129] Top shape: 8 512 7 7 (200704)
I0630 04:54:44.509858  1491 net.cpp:137] Memory required for data: 1775829152
I0630 04:54:44.509866  1491 layer_factory.hpp:77] Creating layer scale5a_branch2a
I0630 04:54:44.509876  1491 net.cpp:84] Creating Layer scale5a_branch2a
I0630 04:54:44.509881  1491 net.cpp:406] scale5a_branch2a <- res5a_branch2a
I0630 04:54:44.509886  1491 net.cpp:367] scale5a_branch2a -> res5a_branch2a (in-place)
I0630 04:54:44.509959  1491 layer_factory.hpp:77] Creating layer scale5a_branch2a
I0630 04:54:44.510138  1491 net.cpp:122] Setting up scale5a_branch2a
I0630 04:54:44.510154  1491 net.cpp:129] Top shape: 8 512 7 7 (200704)
I0630 04:54:44.510157  1491 net.cpp:137] Memory required for data: 1776631968
I0630 04:54:44.510164  1491 layer_factory.hpp:77] Creating layer res5a_branch2a_relu
I0630 04:54:44.510171  1491 net.cpp:84] Creating Layer res5a_branch2a_relu
I0630 04:54:44.510175  1491 net.cpp:406] res5a_branch2a_relu <- res5a_branch2a
I0630 04:54:44.510184  1491 net.cpp:367] res5a_branch2a_relu -> res5a_branch2a (in-place)
I0630 04:54:44.510478  1491 net.cpp:122] Setting up res5a_branch2a_relu
I0630 04:54:44.510498  1491 net.cpp:129] Top shape: 8 512 7 7 (200704)
I0630 04:54:44.510502  1491 net.cpp:137] Memory required for data: 1777434784
I0630 04:54:44.510506  1491 layer_factory.hpp:77] Creating layer res5a_branch2b
I0630 04:54:44.510516  1491 net.cpp:84] Creating Layer res5a_branch2b
I0630 04:54:44.510521  1491 net.cpp:406] res5a_branch2b <- res5a_branch2a
I0630 04:54:44.510531  1491 net.cpp:380] res5a_branch2b -> res5a_branch2b
I0630 04:54:44.516916  1491 net.cpp:122] Setting up res5a_branch2b
I0630 04:54:44.516944  1491 net.cpp:129] Top shape: 8 512 7 7 (200704)
I0630 04:54:44.516949  1491 net.cpp:137] Memory required for data: 1778237600
I0630 04:54:44.516957  1491 layer_factory.hpp:77] Creating layer bn5a_branch2b
I0630 04:54:44.516968  1491 net.cpp:84] Creating Layer bn5a_branch2b
I0630 04:54:44.516973  1491 net.cpp:406] bn5a_branch2b <- res5a_branch2b
I0630 04:54:44.516979  1491 net.cpp:367] bn5a_branch2b -> res5a_branch2b (in-place)
I0630 04:54:44.517269  1491 net.cpp:122] Setting up bn5a_branch2b
I0630 04:54:44.517287  1491 net.cpp:129] Top shape: 8 512 7 7 (200704)
I0630 04:54:44.517290  1491 net.cpp:137] Memory required for data: 1779040416
I0630 04:54:44.517299  1491 layer_factory.hpp:77] Creating layer scale5a_branch2b
I0630 04:54:44.517307  1491 net.cpp:84] Creating Layer scale5a_branch2b
I0630 04:54:44.517312  1491 net.cpp:406] scale5a_branch2b <- res5a_branch2b
I0630 04:54:44.517318  1491 net.cpp:367] scale5a_branch2b -> res5a_branch2b (in-place)
I0630 04:54:44.517376  1491 layer_factory.hpp:77] Creating layer scale5a_branch2b
I0630 04:54:44.517554  1491 net.cpp:122] Setting up scale5a_branch2b
I0630 04:54:44.517587  1491 net.cpp:129] Top shape: 8 512 7 7 (200704)
I0630 04:54:44.517592  1491 net.cpp:137] Memory required for data: 1779843232
I0630 04:54:44.517601  1491 layer_factory.hpp:77] Creating layer res5a_branch2b_relu
I0630 04:54:44.517607  1491 net.cpp:84] Creating Layer res5a_branch2b_relu
I0630 04:54:44.517611  1491 net.cpp:406] res5a_branch2b_relu <- res5a_branch2b
I0630 04:54:44.517619  1491 net.cpp:367] res5a_branch2b_relu -> res5a_branch2b (in-place)
I0630 04:54:44.517794  1491 net.cpp:122] Setting up res5a_branch2b_relu
I0630 04:54:44.517814  1491 net.cpp:129] Top shape: 8 512 7 7 (200704)
I0630 04:54:44.517818  1491 net.cpp:137] Memory required for data: 1780646048
I0630 04:54:44.517822  1491 layer_factory.hpp:77] Creating layer res5a_branch2c
I0630 04:54:44.517832  1491 net.cpp:84] Creating Layer res5a_branch2c
I0630 04:54:44.517838  1491 net.cpp:406] res5a_branch2c <- res5a_branch2b
I0630 04:54:44.517845  1491 net.cpp:380] res5a_branch2c -> res5a_branch2c
I0630 04:54:44.521311  1491 net.cpp:122] Setting up res5a_branch2c
I0630 04:54:44.521332  1491 net.cpp:129] Top shape: 8 2048 7 7 (802816)
I0630 04:54:44.521337  1491 net.cpp:137] Memory required for data: 1783857312
I0630 04:54:44.521343  1491 layer_factory.hpp:77] Creating layer bn5a_branch2c
I0630 04:54:44.521354  1491 net.cpp:84] Creating Layer bn5a_branch2c
I0630 04:54:44.521359  1491 net.cpp:406] bn5a_branch2c <- res5a_branch2c
I0630 04:54:44.521365  1491 net.cpp:367] bn5a_branch2c -> res5a_branch2c (in-place)
I0630 04:54:44.521668  1491 net.cpp:122] Setting up bn5a_branch2c
I0630 04:54:44.521684  1491 net.cpp:129] Top shape: 8 2048 7 7 (802816)
I0630 04:54:44.521689  1491 net.cpp:137] Memory required for data: 1787068576
I0630 04:54:44.521698  1491 layer_factory.hpp:77] Creating layer scale5a_branch2c
I0630 04:54:44.521706  1491 net.cpp:84] Creating Layer scale5a_branch2c
I0630 04:54:44.521711  1491 net.cpp:406] scale5a_branch2c <- res5a_branch2c
I0630 04:54:44.521719  1491 net.cpp:367] scale5a_branch2c -> res5a_branch2c (in-place)
I0630 04:54:44.521781  1491 layer_factory.hpp:77] Creating layer scale5a_branch2c
I0630 04:54:44.521987  1491 net.cpp:122] Setting up scale5a_branch2c
I0630 04:54:44.522004  1491 net.cpp:129] Top shape: 8 2048 7 7 (802816)
I0630 04:54:44.522009  1491 net.cpp:137] Memory required for data: 1790279840
I0630 04:54:44.522017  1491 layer_factory.hpp:77] Creating layer res5a
I0630 04:54:44.522027  1491 net.cpp:84] Creating Layer res5a
I0630 04:54:44.522034  1491 net.cpp:406] res5a <- res5a_branch1
I0630 04:54:44.522039  1491 net.cpp:406] res5a <- res5a_branch2c
I0630 04:54:44.522045  1491 net.cpp:380] res5a -> res5a
I0630 04:54:44.522086  1491 net.cpp:122] Setting up res5a
I0630 04:54:44.522101  1491 net.cpp:129] Top shape: 8 2048 7 7 (802816)
I0630 04:54:44.522105  1491 net.cpp:137] Memory required for data: 1793491104
I0630 04:54:44.522109  1491 layer_factory.hpp:77] Creating layer res5a_relu
I0630 04:54:44.522116  1491 net.cpp:84] Creating Layer res5a_relu
I0630 04:54:44.522120  1491 net.cpp:406] res5a_relu <- res5a
I0630 04:54:44.522127  1491 net.cpp:367] res5a_relu -> res5a (in-place)
I0630 04:54:44.522411  1491 net.cpp:122] Setting up res5a_relu
I0630 04:54:44.522429  1491 net.cpp:129] Top shape: 8 2048 7 7 (802816)
I0630 04:54:44.522434  1491 net.cpp:137] Memory required for data: 1796702368
I0630 04:54:44.522439  1491 layer_factory.hpp:77] Creating layer res5a_res5a_relu_0_split
I0630 04:54:44.522449  1491 net.cpp:84] Creating Layer res5a_res5a_relu_0_split
I0630 04:54:44.522454  1491 net.cpp:406] res5a_res5a_relu_0_split <- res5a
I0630 04:54:44.522459  1491 net.cpp:380] res5a_res5a_relu_0_split -> res5a_res5a_relu_0_split_0
I0630 04:54:44.522469  1491 net.cpp:380] res5a_res5a_relu_0_split -> res5a_res5a_relu_0_split_1
I0630 04:54:44.522536  1491 net.cpp:122] Setting up res5a_res5a_relu_0_split
I0630 04:54:44.522550  1491 net.cpp:129] Top shape: 8 2048 7 7 (802816)
I0630 04:54:44.522555  1491 net.cpp:129] Top shape: 8 2048 7 7 (802816)
I0630 04:54:44.522559  1491 net.cpp:137] Memory required for data: 1803124896
I0630 04:54:44.522577  1491 layer_factory.hpp:77] Creating layer my_res5b_branch2a
I0630 04:54:44.522589  1491 net.cpp:84] Creating Layer my_res5b_branch2a
I0630 04:54:44.522600  1491 net.cpp:406] my_res5b_branch2a <- res5a_res5a_relu_0_split_0
I0630 04:54:44.522609  1491 net.cpp:380] my_res5b_branch2a -> my_res5b_branch2a
I0630 04:54:44.525823  1491 net.cpp:122] Setting up my_res5b_branch2a
I0630 04:54:44.525848  1491 net.cpp:129] Top shape: 8 512 7 7 (200704)
I0630 04:54:44.525853  1491 net.cpp:137] Memory required for data: 1803927712
I0630 04:54:44.525859  1491 layer_factory.hpp:77] Creating layer my_bn5b_branch2a
I0630 04:54:44.525867  1491 net.cpp:84] Creating Layer my_bn5b_branch2a
I0630 04:54:44.525872  1491 net.cpp:406] my_bn5b_branch2a <- my_res5b_branch2a
I0630 04:54:44.525880  1491 net.cpp:367] my_bn5b_branch2a -> my_res5b_branch2a (in-place)
I0630 04:54:44.526199  1491 net.cpp:122] Setting up my_bn5b_branch2a
I0630 04:54:44.526217  1491 net.cpp:129] Top shape: 8 512 7 7 (200704)
I0630 04:54:44.526221  1491 net.cpp:137] Memory required for data: 1804730528
I0630 04:54:44.526231  1491 layer_factory.hpp:77] Creating layer my_scale5b_branch2a
I0630 04:54:44.526238  1491 net.cpp:84] Creating Layer my_scale5b_branch2a
I0630 04:54:44.526242  1491 net.cpp:406] my_scale5b_branch2a <- my_res5b_branch2a
I0630 04:54:44.526248  1491 net.cpp:367] my_scale5b_branch2a -> my_res5b_branch2a (in-place)
I0630 04:54:44.526309  1491 layer_factory.hpp:77] Creating layer my_scale5b_branch2a
I0630 04:54:44.526489  1491 net.cpp:122] Setting up my_scale5b_branch2a
I0630 04:54:44.526505  1491 net.cpp:129] Top shape: 8 512 7 7 (200704)
I0630 04:54:44.526510  1491 net.cpp:137] Memory required for data: 1805533344
I0630 04:54:44.526516  1491 layer_factory.hpp:77] Creating layer my_res5b_branch2a_relu
I0630 04:54:44.526526  1491 net.cpp:84] Creating Layer my_res5b_branch2a_relu
I0630 04:54:44.526533  1491 net.cpp:406] my_res5b_branch2a_relu <- my_res5b_branch2a
I0630 04:54:44.526540  1491 net.cpp:367] my_res5b_branch2a_relu -> my_res5b_branch2a (in-place)
I0630 04:54:44.526845  1491 net.cpp:122] Setting up my_res5b_branch2a_relu
I0630 04:54:44.526865  1491 net.cpp:129] Top shape: 8 512 7 7 (200704)
I0630 04:54:44.526868  1491 net.cpp:137] Memory required for data: 1806336160
I0630 04:54:44.526873  1491 layer_factory.hpp:77] Creating layer my_res5b_branch2b
I0630 04:54:44.526885  1491 net.cpp:84] Creating Layer my_res5b_branch2b
I0630 04:54:44.526890  1491 net.cpp:406] my_res5b_branch2b <- my_res5b_branch2a
I0630 04:54:44.526899  1491 net.cpp:380] my_res5b_branch2b -> my_res5b_branch2b
I0630 04:54:44.534919  1491 net.cpp:122] Setting up my_res5b_branch2b
I0630 04:54:44.534974  1491 net.cpp:129] Top shape: 8 512 7 7 (200704)
I0630 04:54:44.534981  1491 net.cpp:137] Memory required for data: 1807138976
I0630 04:54:44.534991  1491 layer_factory.hpp:77] Creating layer my_bn5b_branch2b
I0630 04:54:44.535012  1491 net.cpp:84] Creating Layer my_bn5b_branch2b
I0630 04:54:44.535020  1491 net.cpp:406] my_bn5b_branch2b <- my_res5b_branch2b
I0630 04:54:44.535032  1491 net.cpp:367] my_bn5b_branch2b -> my_res5b_branch2b (in-place)
I0630 04:54:44.535362  1491 net.cpp:122] Setting up my_bn5b_branch2b
I0630 04:54:44.535378  1491 net.cpp:129] Top shape: 8 512 7 7 (200704)
I0630 04:54:44.535382  1491 net.cpp:137] Memory required for data: 1807941792
I0630 04:54:44.535392  1491 layer_factory.hpp:77] Creating layer my_scale5b_branch2b
I0630 04:54:44.535403  1491 net.cpp:84] Creating Layer my_scale5b_branch2b
I0630 04:54:44.535408  1491 net.cpp:406] my_scale5b_branch2b <- my_res5b_branch2b
I0630 04:54:44.535415  1491 net.cpp:367] my_scale5b_branch2b -> my_res5b_branch2b (in-place)
I0630 04:54:44.535490  1491 layer_factory.hpp:77] Creating layer my_scale5b_branch2b
I0630 04:54:44.535694  1491 net.cpp:122] Setting up my_scale5b_branch2b
I0630 04:54:44.535724  1491 net.cpp:129] Top shape: 8 512 7 7 (200704)
I0630 04:54:44.535729  1491 net.cpp:137] Memory required for data: 1808744608
I0630 04:54:44.535737  1491 layer_factory.hpp:77] Creating layer my_res5b_branch2b_relu
I0630 04:54:44.535780  1491 net.cpp:84] Creating Layer my_res5b_branch2b_relu
I0630 04:54:44.535785  1491 net.cpp:406] my_res5b_branch2b_relu <- my_res5b_branch2b
I0630 04:54:44.535791  1491 net.cpp:367] my_res5b_branch2b_relu -> my_res5b_branch2b (in-place)
I0630 04:54:44.535976  1491 net.cpp:122] Setting up my_res5b_branch2b_relu
I0630 04:54:44.535993  1491 net.cpp:129] Top shape: 8 512 7 7 (200704)
I0630 04:54:44.535998  1491 net.cpp:137] Memory required for data: 1809547424
I0630 04:54:44.536002  1491 layer_factory.hpp:77] Creating layer my_res5b_branch2c
I0630 04:54:44.536020  1491 net.cpp:84] Creating Layer my_res5b_branch2c
I0630 04:54:44.536026  1491 net.cpp:406] my_res5b_branch2c <- my_res5b_branch2b
I0630 04:54:44.536036  1491 net.cpp:380] my_res5b_branch2c -> my_res5b_branch2c
I0630 04:54:44.539454  1491 net.cpp:122] Setting up my_res5b_branch2c
I0630 04:54:44.539475  1491 net.cpp:129] Top shape: 8 2048 7 7 (802816)
I0630 04:54:44.539480  1491 net.cpp:137] Memory required for data: 1812758688
I0630 04:54:44.539486  1491 layer_factory.hpp:77] Creating layer my_bn5b_branch2c
I0630 04:54:44.539497  1491 net.cpp:84] Creating Layer my_bn5b_branch2c
I0630 04:54:44.539502  1491 net.cpp:406] my_bn5b_branch2c <- my_res5b_branch2c
I0630 04:54:44.539510  1491 net.cpp:367] my_bn5b_branch2c -> my_res5b_branch2c (in-place)
I0630 04:54:44.539819  1491 net.cpp:122] Setting up my_bn5b_branch2c
I0630 04:54:44.539835  1491 net.cpp:129] Top shape: 8 2048 7 7 (802816)
I0630 04:54:44.539839  1491 net.cpp:137] Memory required for data: 1815969952
I0630 04:54:44.539849  1491 layer_factory.hpp:77] Creating layer my_scale5b_branch2c
I0630 04:54:44.539858  1491 net.cpp:84] Creating Layer my_scale5b_branch2c
I0630 04:54:44.539863  1491 net.cpp:406] my_scale5b_branch2c <- my_res5b_branch2c
I0630 04:54:44.539870  1491 net.cpp:367] my_scale5b_branch2c -> my_res5b_branch2c (in-place)
I0630 04:54:44.539929  1491 layer_factory.hpp:77] Creating layer my_scale5b_branch2c
I0630 04:54:44.540122  1491 net.cpp:122] Setting up my_scale5b_branch2c
I0630 04:54:44.540138  1491 net.cpp:129] Top shape: 8 2048 7 7 (802816)
I0630 04:54:44.540141  1491 net.cpp:137] Memory required for data: 1819181216
I0630 04:54:44.540148  1491 layer_factory.hpp:77] Creating layer my_res5b
I0630 04:54:44.540158  1491 net.cpp:84] Creating Layer my_res5b
I0630 04:54:44.540165  1491 net.cpp:406] my_res5b <- res5a_res5a_relu_0_split_1
I0630 04:54:44.540170  1491 net.cpp:406] my_res5b <- my_res5b_branch2c
I0630 04:54:44.540180  1491 net.cpp:380] my_res5b -> my_res5b
I0630 04:54:44.540223  1491 net.cpp:122] Setting up my_res5b
I0630 04:54:44.540241  1491 net.cpp:129] Top shape: 8 2048 7 7 (802816)
I0630 04:54:44.540246  1491 net.cpp:137] Memory required for data: 1822392480
I0630 04:54:44.540251  1491 layer_factory.hpp:77] Creating layer my_res5b_relu
I0630 04:54:44.540257  1491 net.cpp:84] Creating Layer my_res5b_relu
I0630 04:54:44.540261  1491 net.cpp:406] my_res5b_relu <- my_res5b
I0630 04:54:44.540266  1491 net.cpp:367] my_res5b_relu -> my_res5b (in-place)
I0630 04:54:44.540556  1491 net.cpp:122] Setting up my_res5b_relu
I0630 04:54:44.540575  1491 net.cpp:129] Top shape: 8 2048 7 7 (802816)
I0630 04:54:44.540580  1491 net.cpp:137] Memory required for data: 1825603744
I0630 04:54:44.540585  1491 layer_factory.hpp:77] Creating layer my_res5b_my_res5b_relu_0_split
I0630 04:54:44.540592  1491 net.cpp:84] Creating Layer my_res5b_my_res5b_relu_0_split
I0630 04:54:44.540596  1491 net.cpp:406] my_res5b_my_res5b_relu_0_split <- my_res5b
I0630 04:54:44.540604  1491 net.cpp:380] my_res5b_my_res5b_relu_0_split -> my_res5b_my_res5b_relu_0_split_0
I0630 04:54:44.540612  1491 net.cpp:380] my_res5b_my_res5b_relu_0_split -> my_res5b_my_res5b_relu_0_split_1
I0630 04:54:44.540674  1491 net.cpp:122] Setting up my_res5b_my_res5b_relu_0_split
I0630 04:54:44.540689  1491 net.cpp:129] Top shape: 8 2048 7 7 (802816)
I0630 04:54:44.540700  1491 net.cpp:129] Top shape: 8 2048 7 7 (802816)
I0630 04:54:44.540704  1491 net.cpp:137] Memory required for data: 1832026272
I0630 04:54:44.540724  1491 layer_factory.hpp:77] Creating layer my_res5c_branch2a
I0630 04:54:44.540735  1491 net.cpp:84] Creating Layer my_res5c_branch2a
I0630 04:54:44.540740  1491 net.cpp:406] my_res5c_branch2a <- my_res5b_my_res5b_relu_0_split_0
I0630 04:54:44.540750  1491 net.cpp:380] my_res5c_branch2a -> my_res5c_branch2a
I0630 04:54:44.543774  1491 net.cpp:122] Setting up my_res5c_branch2a
I0630 04:54:44.543797  1491 net.cpp:129] Top shape: 8 512 7 7 (200704)
I0630 04:54:44.543800  1491 net.cpp:137] Memory required for data: 1832829088
I0630 04:54:44.543807  1491 layer_factory.hpp:77] Creating layer my_bn5c_branch2a
I0630 04:54:44.543817  1491 net.cpp:84] Creating Layer my_bn5c_branch2a
I0630 04:54:44.543823  1491 net.cpp:406] my_bn5c_branch2a <- my_res5c_branch2a
I0630 04:54:44.543828  1491 net.cpp:367] my_bn5c_branch2a -> my_res5c_branch2a (in-place)
I0630 04:54:44.544134  1491 net.cpp:122] Setting up my_bn5c_branch2a
I0630 04:54:44.544150  1491 net.cpp:129] Top shape: 8 512 7 7 (200704)
I0630 04:54:44.544154  1491 net.cpp:137] Memory required for data: 1833631904
I0630 04:54:44.544163  1491 layer_factory.hpp:77] Creating layer my_scale5c_branch2a
I0630 04:54:44.544173  1491 net.cpp:84] Creating Layer my_scale5c_branch2a
I0630 04:54:44.544178  1491 net.cpp:406] my_scale5c_branch2a <- my_res5c_branch2a
I0630 04:54:44.544183  1491 net.cpp:367] my_scale5c_branch2a -> my_res5c_branch2a (in-place)
I0630 04:54:44.544245  1491 layer_factory.hpp:77] Creating layer my_scale5c_branch2a
I0630 04:54:44.544431  1491 net.cpp:122] Setting up my_scale5c_branch2a
I0630 04:54:44.544447  1491 net.cpp:129] Top shape: 8 512 7 7 (200704)
I0630 04:54:44.544451  1491 net.cpp:137] Memory required for data: 1834434720
I0630 04:54:44.544458  1491 layer_factory.hpp:77] Creating layer my_res5c_branch2a_relu
I0630 04:54:44.544466  1491 net.cpp:84] Creating Layer my_res5c_branch2a_relu
I0630 04:54:44.544469  1491 net.cpp:406] my_res5c_branch2a_relu <- my_res5c_branch2a
I0630 04:54:44.544477  1491 net.cpp:367] my_res5c_branch2a_relu -> my_res5c_branch2a (in-place)
I0630 04:54:44.544791  1491 net.cpp:122] Setting up my_res5c_branch2a_relu
I0630 04:54:44.544812  1491 net.cpp:129] Top shape: 8 512 7 7 (200704)
I0630 04:54:44.544816  1491 net.cpp:137] Memory required for data: 1835237536
I0630 04:54:44.544821  1491 layer_factory.hpp:77] Creating layer my_res5c_branch2b
I0630 04:54:44.544831  1491 net.cpp:84] Creating Layer my_res5c_branch2b
I0630 04:54:44.544836  1491 net.cpp:406] my_res5c_branch2b <- my_res5c_branch2a
I0630 04:54:44.544844  1491 net.cpp:380] my_res5c_branch2b -> my_res5c_branch2b
I0630 04:54:44.550792  1491 net.cpp:122] Setting up my_res5c_branch2b
I0630 04:54:44.550820  1491 net.cpp:129] Top shape: 8 512 7 7 (200704)
I0630 04:54:44.550825  1491 net.cpp:137] Memory required for data: 1836040352
I0630 04:54:44.550832  1491 layer_factory.hpp:77] Creating layer my_bn5c_branch2b
I0630 04:54:44.550844  1491 net.cpp:84] Creating Layer my_bn5c_branch2b
I0630 04:54:44.550851  1491 net.cpp:406] my_bn5c_branch2b <- my_res5c_branch2b
I0630 04:54:44.550858  1491 net.cpp:367] my_bn5c_branch2b -> my_res5c_branch2b (in-place)
I0630 04:54:44.551170  1491 net.cpp:122] Setting up my_bn5c_branch2b
I0630 04:54:44.551187  1491 net.cpp:129] Top shape: 8 512 7 7 (200704)
I0630 04:54:44.551192  1491 net.cpp:137] Memory required for data: 1836843168
I0630 04:54:44.551200  1491 layer_factory.hpp:77] Creating layer my_scale5c_branch2b
I0630 04:54:44.551209  1491 net.cpp:84] Creating Layer my_scale5c_branch2b
I0630 04:54:44.551213  1491 net.cpp:406] my_scale5c_branch2b <- my_res5c_branch2b
I0630 04:54:44.551218  1491 net.cpp:367] my_scale5c_branch2b -> my_res5c_branch2b (in-place)
I0630 04:54:44.551282  1491 layer_factory.hpp:77] Creating layer my_scale5c_branch2b
I0630 04:54:44.551472  1491 net.cpp:122] Setting up my_scale5c_branch2b
I0630 04:54:44.551487  1491 net.cpp:129] Top shape: 8 512 7 7 (200704)
I0630 04:54:44.551492  1491 net.cpp:137] Memory required for data: 1837645984
I0630 04:54:44.551499  1491 layer_factory.hpp:77] Creating layer my_res5c_branch2b_relu
I0630 04:54:44.551524  1491 net.cpp:84] Creating Layer my_res5c_branch2b_relu
I0630 04:54:44.551532  1491 net.cpp:406] my_res5c_branch2b_relu <- my_res5c_branch2b
I0630 04:54:44.551537  1491 net.cpp:367] my_res5c_branch2b_relu -> my_res5c_branch2b (in-place)
I0630 04:54:44.551714  1491 net.cpp:122] Setting up my_res5c_branch2b_relu
I0630 04:54:44.551734  1491 net.cpp:129] Top shape: 8 512 7 7 (200704)
I0630 04:54:44.551738  1491 net.cpp:137] Memory required for data: 1838448800
I0630 04:54:44.551743  1491 layer_factory.hpp:77] Creating layer my_res5c_branch2c
I0630 04:54:44.551753  1491 net.cpp:84] Creating Layer my_res5c_branch2c
I0630 04:54:44.551759  1491 net.cpp:406] my_res5c_branch2c <- my_res5c_branch2b
I0630 04:54:44.551766  1491 net.cpp:380] my_res5c_branch2c -> my_res5c_branch2c
I0630 04:54:44.554857  1491 net.cpp:122] Setting up my_res5c_branch2c
I0630 04:54:44.554870  1491 net.cpp:129] Top shape: 8 2048 7 7 (802816)
I0630 04:54:44.554874  1491 net.cpp:137] Memory required for data: 1841660064
I0630 04:54:44.554882  1491 layer_factory.hpp:77] Creating layer my_bn5c_branch2c
I0630 04:54:44.554891  1491 net.cpp:84] Creating Layer my_bn5c_branch2c
I0630 04:54:44.554896  1491 net.cpp:406] my_bn5c_branch2c <- my_res5c_branch2c
I0630 04:54:44.554903  1491 net.cpp:367] my_bn5c_branch2c -> my_res5c_branch2c (in-place)
I0630 04:54:44.555217  1491 net.cpp:122] Setting up my_bn5c_branch2c
I0630 04:54:44.555225  1491 net.cpp:129] Top shape: 8 2048 7 7 (802816)
I0630 04:54:44.555229  1491 net.cpp:137] Memory required for data: 1844871328
I0630 04:54:44.555238  1491 layer_factory.hpp:77] Creating layer my_scale5c_branch2c
I0630 04:54:44.555246  1491 net.cpp:84] Creating Layer my_scale5c_branch2c
I0630 04:54:44.555250  1491 net.cpp:406] my_scale5c_branch2c <- my_res5c_branch2c
I0630 04:54:44.555258  1491 net.cpp:367] my_scale5c_branch2c -> my_res5c_branch2c (in-place)
I0630 04:54:44.555318  1491 layer_factory.hpp:77] Creating layer my_scale5c_branch2c
I0630 04:54:44.555512  1491 net.cpp:122] Setting up my_scale5c_branch2c
I0630 04:54:44.555521  1491 net.cpp:129] Top shape: 8 2048 7 7 (802816)
I0630 04:54:44.555526  1491 net.cpp:137] Memory required for data: 1848082592
I0630 04:54:44.555532  1491 layer_factory.hpp:77] Creating layer my_res5c
I0630 04:54:44.555542  1491 net.cpp:84] Creating Layer my_res5c
I0630 04:54:44.555546  1491 net.cpp:406] my_res5c <- my_res5b_my_res5b_relu_0_split_1
I0630 04:54:44.555552  1491 net.cpp:406] my_res5c <- my_res5c_branch2c
I0630 04:54:44.555557  1491 net.cpp:380] my_res5c -> my_res5c
I0630 04:54:44.555601  1491 net.cpp:122] Setting up my_res5c
I0630 04:54:44.555609  1491 net.cpp:129] Top shape: 8 2048 7 7 (802816)
I0630 04:54:44.555613  1491 net.cpp:137] Memory required for data: 1851293856
I0630 04:54:44.555618  1491 layer_factory.hpp:77] Creating layer my_res5c_relu
I0630 04:54:44.555624  1491 net.cpp:84] Creating Layer my_res5c_relu
I0630 04:54:44.555627  1491 net.cpp:406] my_res5c_relu <- my_res5c
I0630 04:54:44.555634  1491 net.cpp:367] my_res5c_relu -> my_res5c (in-place)
I0630 04:54:44.555948  1491 net.cpp:122] Setting up my_res5c_relu
I0630 04:54:44.555959  1491 net.cpp:129] Top shape: 8 2048 7 7 (802816)
I0630 04:54:44.555963  1491 net.cpp:137] Memory required for data: 1854505120
I0630 04:54:44.555968  1491 layer_factory.hpp:77] Creating layer my_pool5
I0630 04:54:44.555982  1491 net.cpp:84] Creating Layer my_pool5
I0630 04:54:44.555987  1491 net.cpp:406] my_pool5 <- my_res5c
I0630 04:54:44.555994  1491 net.cpp:380] my_pool5 -> my_pool5
I0630 04:54:44.556687  1491 net.cpp:122] Setting up my_pool5
I0630 04:54:44.556699  1491 net.cpp:129] Top shape: 8 2048 1 1 (16384)
I0630 04:54:44.556702  1491 net.cpp:137] Memory required for data: 1854570656
I0630 04:54:44.556706  1491 layer_factory.hpp:77] Creating layer my_fc1000
I0630 04:54:44.556720  1491 net.cpp:84] Creating Layer my_fc1000
I0630 04:54:44.556725  1491 net.cpp:406] my_fc1000 <- my_pool5
I0630 04:54:44.556731  1491 net.cpp:380] my_fc1000 -> my_fc1000
I0630 04:54:44.556939  1491 net.cpp:122] Setting up my_fc1000
I0630 04:54:44.556963  1491 net.cpp:129] Top shape: 8 50 (400)
I0630 04:54:44.556967  1491 net.cpp:137] Memory required for data: 1854572256
I0630 04:54:44.556975  1491 layer_factory.hpp:77] Creating layer my_fc1000_my_fc1000_0_split
I0630 04:54:44.556982  1491 net.cpp:84] Creating Layer my_fc1000_my_fc1000_0_split
I0630 04:54:44.556988  1491 net.cpp:406] my_fc1000_my_fc1000_0_split <- my_fc1000
I0630 04:54:44.556995  1491 net.cpp:380] my_fc1000_my_fc1000_0_split -> my_fc1000_my_fc1000_0_split_0
I0630 04:54:44.557004  1491 net.cpp:380] my_fc1000_my_fc1000_0_split -> my_fc1000_my_fc1000_0_split_1
I0630 04:54:44.557011  1491 net.cpp:380] my_fc1000_my_fc1000_0_split -> my_fc1000_my_fc1000_0_split_2
I0630 04:54:44.557018  1491 net.cpp:380] my_fc1000_my_fc1000_0_split -> my_fc1000_my_fc1000_0_split_3
I0630 04:54:44.557078  1491 net.cpp:122] Setting up my_fc1000_my_fc1000_0_split
I0630 04:54:44.557088  1491 net.cpp:129] Top shape: 8 50 (400)
I0630 04:54:44.557093  1491 net.cpp:129] Top shape: 8 50 (400)
I0630 04:54:44.557098  1491 net.cpp:129] Top shape: 8 50 (400)
I0630 04:54:44.557102  1491 net.cpp:129] Top shape: 8 50 (400)
I0630 04:54:44.557106  1491 net.cpp:137] Memory required for data: 1854578656
I0630 04:54:44.557109  1491 layer_factory.hpp:77] Creating layer loss
I0630 04:54:44.557118  1491 net.cpp:84] Creating Layer loss
I0630 04:54:44.557122  1491 net.cpp:406] loss <- my_fc1000_my_fc1000_0_split_0
I0630 04:54:44.557128  1491 net.cpp:406] loss <- label_input_1_split_0
I0630 04:54:44.557133  1491 net.cpp:380] loss -> loss
…
