…
I0629 04:06:45.264696  2133 net.cpp:294] The NetState phase (1) differed from the phase (0) specified by a rule in layer input
I0629 04:06:45.266078  2133 net.cpp:51] Initializing net from parameters: 
name: "ResNet-50"
state {
  phase: TEST
  level: 0
  stage: ""
}
layer {
  name: "input"
  type: "Data"
  top: "data"
  top: "label"
  include {
    phase: TEST
  }
  transform_param {
    mirror: true
    mean_file: "../../../data_subsets/subtrain2_mean.binaryproto"
  }
  data_param {
    source: "../../../data_subsets/subtrain2_lmdb"
    batch_size: 8
    backend: LMDB
  }
}
layer {
  name: "conv1"
  type: "Convolution"
  bottom: "data"
  top: "conv1"
  param {
    lr_mult: 1
    decay_mult: 1
  }
  param {
    lr_mult: 2
    decay_mult: 0
  }
  convolution_param {
    num_output: 64
    pad: 3
    kernel_size: 7
    stride: 2
  }
}
layer {
  name: "bn_conv1"
  type: "BatchNorm"
  bottom: "conv1"
  top: "conv1"
  batch_norm_param {
    use_global_stats: true
  }
}
layer {
  name: "scale_conv1"
  type: "Scale"
  bottom: "conv1"
  top: "conv1"
  scale_param {
    bias_term: true
  }
}
layer {
  name: "conv1_relu"
  type: "ReLU"
  bottom: "conv1"
  top: "conv1"
}
layer {
  name: "pool1"
  type: "Pooling"
  bottom: "conv1"
  top: "pool1"
  pooling_param {
    pool: MAX
    kernel_size: 3
    stride: 2
  }
}
layer {
  name: "res2a_branch1"
  type: "Convolution"
  bottom: "pool1"
  top: "res2a_branch1"
  param {
    lr_mult: 1
    decay_mult: 1
  }
  convolution_param {
    num_output: 256
    bias_term: false
    pad: 0
    kernel_size: 1
    stride: 1
  }
}
layer {
  name: "bn2a_branch1"
  type: "BatchNorm"
  bottom: "res2a_branch1"
  top: "res2a_branch1"
  batch_norm_param {
    use_global_stats: true
  }
}
layer {
  name: "scale2a_branch1"
  type: "Scale"
  bottom: "res2a_branch1"
  top: "res2a_branch1"
  scale_param {
    bias_term: true
  }
}
layer {
  name: "res2a_branch2a"
  type: "Convolution"
  bottom: "pool1"
  top: "res2a_branch2a"
  param {
    lr_mult: 1
    decay_mult: 1
  }
  convolution_param {
    num_output: 64
    bias_term: false
    pad: 0
    kernel_size: 1
    stride: 1
  }
}
layer {
  name: "bn2a_branch2a"
  type: "BatchNorm"
  bottom: "res2a_branch2a"
  top: "res2a_branch2a"
  batch_norm_param {
    use_global_stats: true
  }
}
layer {
  name: "scale2a_branch2a"
  type: "Scale"
  bottom: "res2a_branch2a"
  top: "res2a_branch2a"
  scale_param {
    bias_term: true
  }
}
layer {
  name: "res2a_branch2a_relu"
  type: "ReLU"
  bottom: "res2a_branch2a"
  top: "res2a_branch2a"
}
layer {
  name: "res2a_branch2b"
  type: "Convolution"
  bottom: "res2a_branch2a"
  top: "res2a_branch2b"
  param {
    lr_mult: 1
    decay_mult: 1
  }
  convolution_param {
    num_output: 64
    bias_term: false
    pad: 1
    kernel_size: 3
    stride: 1
  }
}
layer {
  name: "bn2a_branch2b"
  type: "BatchNorm"
  bottom: "res2a_branch2b"
  top: "res2a_branch2b"
  batch_norm_param {
    use_global_stats: true
  }
}
layer {
  name: "scale2a_branch2b"
  type: "Scale"
  bottom: "res2a_branch2b"
  top: "res2a_branch2b"
  scale_param {
    bias_term: true
  }
}
layer {
  name: "res2a_branch2b_relu"
  type: "ReLU"
  bottom: "res2a_branch2b"
  top: "res2a_branch2b"
}
layer {
  name: "res2a_branch2c"
  type: "Convolution"
  bottom: "res2a_branch2b"
  top: "res2a_branch2c"
  param {
    lr_mult: 1
    decay_mult: 1
  }
  convolution_param {
    num_output: 256
    bias_term: false
    pad: 0
    kernel_size: 1
    stride: 1
  }
}
layer {
  name: "bn2a_branch2c"
  type: "BatchNorm"
  bottom: "res2a_branch2c"
  top: "res2a_branch2c"
  batch_norm_param {
    use_global_stats: true
  }
}
layer {
  name: "scale2a_branch2c"
  type: "Scale"
  bottom: "res2a_branch2c"
  top: "res2a_branch2c"
  scale_param {
    bias_term: true
  }
}
layer {
  name: "res2a"
  type: "Eltwise"
  bottom: "res2a_branch1"
  bottom: "res2a_branch2c"
  top: "res2a"
}
layer {
  name: "res2a_relu"
  type: "ReLU"
  bottom: "res2a"
  top: "res2a"
}
layer {
  name: "res2b_branch2a"
  type: "Convolution"
  bottom: "res2a"
  top: "res2b_branch2a"
  param {
    lr_mult: 1
    decay_mult: 1
  }
  convolution_param {
    num_output: 64
    bias_term: false
    pad: 0
    kernel_size: 1
    stride: 1
  }
}
layer {
  name: "bn2b_branch2a"
  type: "BatchNorm"
  bottom: "res2b_branch2a"
  top: "res2b_branch2a"
  batch_norm_param {
    use_global_stats: true
  }
}
layer {
  name: "scale2b_branch2a"
  type: "Scale"
  bottom: "res2b_branch2a"
  top: "res2b_branch2a"
  scale_param {
    bias_term: true
  }
}
layer {
  name: "res2b_branch2a_relu"
  type: "ReLU"
  bottom: "res2b_branch2a"
  top: "res2b_branch2a"
}
layer {
  name: "res2b_branch2b"
  type: "Convolution"
  bottom: "res2b_branch2a"
  top: "res2b_branch2b"
  param {
    lr_mult: 1
    decay_mult: 1
  }
  convolution_param {
    num_output: 64
    bias_term: false
    pad: 1
    kernel_size: 3
    stride: 1
  }
}
layer {
  name: "bn2b_branch2b"
  type: "BatchNorm"
  bottom: "res2b_branch2b"
  top: "res2b_branch2b"
  batch_norm_param {
    use_global_stats: true
  }
}
layer {
  name: "scale2b_branch2b"
  type: "Scale"
  bottom: "res2b_branch2b"
  top: "res2b_branch2b"
  scale_param {
    bias_term: true
  }
}
layer {
  name: "res2b_branch2b_relu"
  type: "ReLU"
  bottom: "res2b_branch2b"
  top: "res2b_branch2b"
}
layer {
  name: "res2b_branch2c"
  type: "Convolution"
  bottom: "res2b_branch2b"
  top: "res2b_branch2c"
  param {
    lr_mult: 1
    decay_mult: 1
  }
  convolution_param {
    num_output: 256
    bias_term: false
    pad: 0
    kernel_size: 1
    stride: 1
  }
}
layer {
  name: "bn2b_branch2c"
  type: "BatchNorm"
  bottom: "res2b_branch2c"
  top: "res2b_branch2c"
  batch_norm_param {
    use_global_stats: true
  }
}
layer {
  name: "scale2b_branch2c"
  type: "Scale"
  bottom: "res2b_branch2c"
  top: "res2b_branch2c"
  scale_param {
    bias_term: true
  }
}
layer {
  name: "res2b"
  type: "Eltwise"
  bottom: "res2a"
  bottom: "res2b_branch2c"
  top: "res2b"
}
layer {
  name: "res2b_relu"
  type: "ReLU"
  bottom: "res2b"
  top: "res2b"
}
layer {
  name: "res2c_branch2a"
  type: "Convolution"
  bottom: "res2b"
  top: "res2c_branch2a"
  param {
    lr_mult: 1
    decay_mult: 1
  }
  convolution_param {
    num_output: 64
    bias_term: false
    pad: 0
    kernel_size: 1
    stride: 1
  }
}
layer {
  name: "bn2c_branch2a"
  type: "BatchNorm"
  bottom: "res2c_branch2a"
  top: "res2c_branch2a"
  batch_norm_param {
    use_global_stats: true
  }
}
layer {
  name: "scale2c_branch2a"
  type: "Scale"
  bottom: "res2c_branch2a"
  top: "res2c_branch2a"
  scale_param {
    bias_term: true
  }
}
layer {
  name: "res2c_branch2a_relu"
  type: "ReLU"
  bottom: "res2c_branch2a"
  top: "res2c_branch2a"
}
layer {
  name: "res2c_branch2b"
  type: "Convolution"
  bottom: "res2c_branch2a"
  top: "res2c_branch2b"
  param {
    lr_mult: 1
    decay_mult: 1
  }
  convolution_param {
    num_output: 64
    bias_term: false
    pad: 1
    kernel_size: 3
    stride: 1
  }
}
layer {
  name: "bn2c_branch2b"
  type: "BatchNorm"
  bottom: "res2c_branch2b"
  top: "res2c_branch2b"
  batch_norm_param {
    use_global_stats: true
  }
}
layer {
  name: "scale2c_branch2b"
  type: "Scale"
  bottom: "res2c_branch2b"
  top: "res2c_branch2b"
  scale_param {
    bias_term: true
  }
}
layer {
  name: "res2c_branch2b_relu"
  type: "ReLU"
  bottom: "res2c_branch2b"
  top: "res2c_branch2b"
}
layer {
  name: "res2c_branch2c"
  type: "Convolution"
  bottom: "res2c_branch2b"
  top: "res2c_branch2c"
  param {
    lr_mult: 1
    decay_mult: 1
  }
  convolution_param {
    num_output: 256
    bias_term: false
    pad: 0
    kernel_size: 1
    stride: 1
  }
}
layer {
  name: "bn2c_branch2c"
  type: "BatchNorm"
  bottom: "res2c_branch2c"
  top: "res2c_branch2c"
  batch_norm_param {
    use_global_stats: true
  }
}
layer {
  name: "scale2c_branch2c"
  type: "Scale"
  bottom: "res2c_branch2c"
  top: "res2c_branch2c"
  scale_param {
    bias_term: true
  }
}
layer {
  name: "res2c"
  type: "Eltwise"
  bottom: "res2b"
  bottom: "res2c_branch2c"
  top: "res2c"
}
layer {
  name: "res2c_relu"
  type: "ReLU"
  bottom: "res2c"
  top: "res2c"
}
layer {
  name: "res3a_branch1"
  type: "Convolution"
  bottom: "res2c"
  top: "res3a_branch1"
  param {
    lr_mult: 1
    decay_mult: 1
  }
  convolution_param {
    num_output: 512
    bias_term: false
    pad: 0
    kernel_size: 1
    stride: 2
  }
}
layer {
  name: "bn3a_branch1"
  type: "BatchNorm"
  bottom: "res3a_branch1"
  top: "res3a_branch1"
  batch_norm_param {
    use_global_stats: true
  }
}
layer {
  name: "scale3a_branch1"
  type: "Scale"
  bottom: "res3a_branch1"
  top: "res3a_branch1"
  scale_param {
    bias_term: true
  }
}
layer {
  name: "res3a_branch2a"
  type: "Convolution"
  bottom: "res2c"
  top: "res3a_branch2a"
  param {
    lr_mult: 1
    decay_mult: 1
  }
  convolution_param {
    num_output: 128
    bias_term: false
    pad: 0
    kernel_size: 1
    stride: 2
  }
}
layer {
  name: "bn3a_branch2a"
  type: "BatchNorm"
  bottom: "res3a_branch2a"
  top: "res3a_branch2a"
  batch_norm_param {
    use_global_stats: true
  }
}
layer {
  name: "scale3a_branch2a"
  type: "Scale"
  bottom: "res3a_branch2a"
  top: "res3a_branch2a"
  scale_param {
    bias_term: true
  }
}
layer {
  name: "res3a_branch2a_relu"
  type: "ReLU"
  bottom: "res3a_branch2a"
  top: "res3a_branch2a"
}
layer {
  name: "res3a_branch2b"
  type: "Convolution"
  bottom: "res3a_branch2a"
  top: "res3a_branch2b"
  param {
    lr_mult: 1
    decay_mult: 1
  }
  convolution_param {
    num_output: 128
    bias_term: false
    pad: 1
    kernel_size: 3
    stride: 1
  }
}
layer {
  name: "bn3a_branch2b"
  type: "BatchNorm"
  bottom: "res3a_branch2b"
  top: "res3a_branch2b"
  batch_norm_param {
    use_global_stats: true
  }
}
layer {
  name: "scale3a_branch2b"
  type: "Scale"
  bottom: "res3a_branch2b"
  top: "res3a_branch2b"
  scale_param {
    bias_term: true
  }
}
layer {
  name: "res3a_branch2b_relu"
  type: "ReLU"
  bottom: "res3a_branch2b"
  top: "res3a_branch2b"
}
layer {
  name: "res3a_branch2c"
  type: "Convolution"
  bottom: "res3a_branch2b"
  top: "res3a_branch2c"
  param {
    lr_mult: 1
    decay_mult: 1
  }
  convolution_param {
    num_output: 512
    bias_term: false
    pad: 0
    kernel_size: 1
    stride: 1
  }
}
layer {
  name: "bn3a_branch2c"
  type: "BatchNorm"
  bottom: "res3a_branch2c"
  top: "res3a_branch2c"
  batch_norm_param {
    use_global_stats: true
  }
}
layer {
  name: "scale3a_branch2c"
  type: "Scale"
  bottom: "res3a_branch2c"
  top: "res3a_branch2c"
  scale_param {
    bias_term: true
  }
}
layer {
  name: "res3a"
  type: "Eltwise"
  bottom: "res3a_branch1"
  bottom: "res3a_branch2c"
  top: "res3a"
}
layer {
  name: "res3a_relu"
  type: "ReLU"
  bottom: "res3a"
  top: "res3a"
}
layer {
  name: "res3b_branch2a"
  type: "Convolution"
  bottom: "res3a"
  top: "res3b_branch2a"
  param {
    lr_mult: 1
    decay_mult: 1
  }
  convolution_param {
    num_output: 128
    bias_term: false
    pad: 0
    kernel_size: 1
    stride: 1
  }
}
layer {
  name: "bn3b_branch2a"
  type: "BatchNorm"
  bottom: "res3b_branch2a"
  top: "res3b_branch2a"
  batch_norm_param {
    use_global_stats: true
  }
}
layer {
  name: "scale3b_branch2a"
  type: "Scale"
  bottom: "res3b_branch2a"
  top: "res3b_branch2a"
  scale_param {
    bias_term: true
  }
}
layer {
  name: "res3b_branch2a_relu"
  type: "ReLU"
  bottom: "res3b_branch2a"
  top: "res3b_branch2a"
}
layer {
  name: "res3b_branch2b"
  type: "Convolution"
  bottom: "res3b_branch2a"
  top: "res3b_branch2b"
  param {
    lr_mult: 1
    decay_mult: 1
  }
  convolution_param {
    num_output: 128
    bias_term: false
    pad: 1
    kernel_size: 3
    stride: 1
  }
}
layer {
  name: "bn3b_branch2b"
  type: "BatchNorm"
  bottom: "res3b_branch2b"
  top: "res3b_branch2b"
  batch_norm_param {
    use_global_stats: true
  }
}
layer {
  name: "scale3b_branch2b"
  type: "Scale"
  bottom: "res3b_branch2b"
  top: "res3b_branch2b"
  scale_param {
    bias_term: true
  }
}
layer {
  name: "res3b_branch2b_relu"
  type: "ReLU"
  bottom: "res3b_branch2b"
  top: "res3b_branch2b"
}
layer {
  name: "res3b_branch2c"
  type: "Convolution"
  bottom: "res3b_branch2b"
  top: "res3b_branch2c"
  param {
    lr_mult: 1
    decay_mult: 1
  }
  convolution_param {
    num_output: 512
    bias_term: false
    pad: 0
    kernel_size: 1
    stride: 1
  }
}
layer {
  name: "bn3b_branch2c"
  type: "BatchNorm"
  bottom: "res3b_branch2c"
  top: "res3b_branch2c"
  batch_norm_param {
    use_global_stats: true
  }
}
layer {
  name: "scale3b_branch2c"
  type: "Scale"
  bottom: "res3b_branch2c"
  top: "res3b_branch2c"
  scale_param {
    bias_term: true
  }
}
layer {
  name: "res3b"
  type: "Eltwise"
  bottom: "res3a"
  bottom: "res3b_branch2c"
  top: "res3b"
}
layer {
  name: "res3b_relu"
  type: "ReLU"
  bottom: "res3b"
  top: "res3b"
}
layer {
  name: "res3c_branch2a"
  type: "Convolution"
  bottom: "res3b"
  top: "res3c_branch2a"
  param {
    lr_mult: 1
    decay_mult: 1
  }
  convolution_param {
    num_output: 128
    bias_term: false
    pad: 0
    kernel_size: 1
    stride: 1
  }
}
layer {
  name: "bn3c_branch2a"
  type: "BatchNorm"
  bottom: "res3c_branch2a"
  top: "res3c_branch2a"
  batch_norm_param {
    use_global_stats: true
  }
}
layer {
  name: "scale3c_branch2a"
  type: "Scale"
  bottom: "res3c_branch2a"
  top: "res3c_branch2a"
  scale_param {
    bias_term: true
  }
}
layer {
  name: "res3c_branch2a_relu"
  type: "ReLU"
  bottom: "res3c_branch2a"
  top: "res3c_branch2a"
}
layer {
  name: "res3c_branch2b"
  type: "Convolution"
  bottom: "res3c_branch2a"
  top: "res3c_branch2b"
  param {
    lr_mult: 1
    decay_mult: 1
  }
  convolution_param {
    num_output: 128
    bias_term: false
    pad: 1
    kernel_size: 3
    stride: 1
  }
}
layer {
  name: "bn3c_branch2b"
  type: "BatchNorm"
  bottom: "res3c_branch2b"
  top: "res3c_branch2b"
  batch_norm_param {
    use_global_stats: true
  }
}
layer {
  name: "scale3c_branch2b"
  type: "Scale"
  bottom: "res3c_branch2b"
  top: "res3c_branch2b"
  scale_param {
    bias_term: true
  }
}
layer {
  name: "res3c_branch2b_relu"
  type: "ReLU"
  bottom: "res3c_branch2b"
  top: "res3c_branch2b"
}
layer {
  name: "res3c_branch2c"
  type: "Convolution"
  bottom: "res3c_branch2b"
  top: "res3c_branch2c"
  param {
    lr_mult: 1
    decay_mult: 1
  }
  convolution_param {
    num_output: 512
    bias_term: false
    pad: 0
    kernel_size: 1
    stride: 1
  }
}
layer {
  name: "bn3c_branch2c"
  type: "BatchNorm"
  bottom: "res3c_branch2c"
  top: "res3c_branch2c"
  batch_norm_param {
    use_global_stats: true
  }
}
layer {
  name: "scale3c_branch2c"
  type: "Scale"
  bottom: "res3c_branch2c"
  top: "res3c_branch2c"
  scale_param {
    bias_term: true
  }
}
layer {
  name: "res3c"
  type: "Eltwise"
  bottom: "res3b"
  bottom: "res3c_branch2c"
  top: "res3c"
}
layer {
  name: "res3c_relu"
  type: "ReLU"
  bottom: "res3c"
  top: "res3c"
}
layer {
  name: "res3d_branch2a"
  type: "Convolution"
  bottom: "res3c"
  top: "res3d_branch2a"
  param {
    lr_mult: 1
    decay_mult: 1
  }
  convolution_param {
    num_output: 128
    bias_term: false
    pad: 0
    kernel_size: 1
    stride: 1
  }
}
layer {
  name: "bn3d_branch2a"
  type: "BatchNorm"
  bottom: "res3d_branch2a"
  top: "res3d_branch2a"
  batch_norm_param {
    use_global_stats: true
  }
}
layer {
  name: "scale3d_branch2a"
  type: "Scale"
  bottom: "res3d_branch2a"
  top: "res3d_branch2a"
  scale_param {
    bias_term: true
  }
}
layer {
  name: "res3d_branch2a_relu"
  type: "ReLU"
  bottom: "res3d_branch2a"
  top: "res3d_branch2a"
}
layer {
  name: "res3d_branch2b"
  type: "Convolution"
  bottom: "res3d_branch2a"
  top: "res3d_branch2b"
  param {
    lr_mult: 1
    decay_mult: 1
  }
  convolution_param {
    num_output: 128
    bias_term: false
    pad: 1
    kernel_size: 3
    stride: 1
  }
}
layer {
  name: "bn3d_branch2b"
  type: "BatchNorm"
  bottom: "res3d_branch2b"
  top: "res3d_branch2b"
  batch_norm_param {
    use_global_stats: true
  }
}
layer {
  name: "scale3d_branch2b"
  type: "Scale"
  bottom: "res3d_branch2b"
  top: "res3d_branch2b"
  scale_param {
    bias_term: true
  }
}
layer {
  name: "res3d_branch2b_relu"
  type: "ReLU"
  bottom: "res3d_branch2b"
  top: "res3d_branch2b"
}
layer {
  name: "res3d_branch2c"
  type: "Convolution"
  bottom: "res3d_branch2b"
  top: "res3d_branch2c"
  param {
    lr_mult: 1
    decay_mult: 1
  }
  convolution_param {
    num_output: 512
    bias_term: false
    pad: 0
    kernel_size: 1
    stride: 1
  }
}
layer {
  name: "bn3d_branch2c"
  type: "BatchNorm"
  bottom: "res3d_branch2c"
  top: "res3d_branch2c"
  batch_norm_param {
    use_global_stats: true
  }
}
layer {
  name: "scale3d_branch2c"
  type: "Scale"
  bottom: "res3d_branch2c"
  top: "res3d_branch2c"
  scale_param {
    bias_term: true
  }
}
layer {
  name: "res3d"
  type: "Eltwise"
  bottom: "res3c"
  bottom: "res3d_branch2c"
  top: "res3d"
}
layer {
  name: "res3d_relu"
  type: "ReLU"
  bottom: "res3d"
  top: "res3d"
}
layer {
  name: "res4a_branch1"
  type: "Convolution"
  bottom: "res3d"
  top: "res4a_branch1"
  param {
    lr_mult: 1
    decay_mult: 1
  }
  convolution_param {
    num_output: 1024
    bias_term: false
    pad: 0
    kernel_size: 1
    stride: 2
  }
}
layer {
  name: "bn4a_branch1"
  type: "BatchNorm"
  bottom: "res4a_branch1"
  top: "res4a_branch1"
  batch_norm_param {
    use_global_stats: true
  }
}
layer {
  name: "scale4a_branch1"
  type: "Scale"
  bottom: "res4a_branch1"
  top: "res4a_branch1"
  scale_param {
    bias_term: true
  }
}
layer {
  name: "res4a_branch2a"
  type: "Convolution"
  bottom: "res3d"
  top: "res4a_branch2a"
  param {
    lr_mult: 1
    decay_mult: 1
  }
  convolution_param {
    num_output: 256
    bias_term: false
    pad: 0
    kernel_size: 1
    stride: 2
  }
}
layer {
  name: "bn4a_branch2a"
  type: "BatchNorm"
  bottom: "res4a_branch2a"
  top: "res4a_branch2a"
  batch_norm_param {
    use_global_stats: true
  }
}
layer {
  name: "scale4a_branch2a"
  type: "Scale"
  bottom: "res4a_branch2a"
  top: "res4a_branch2a"
  scale_param {
    bias_term: true
  }
}
layer {
  name: "res4a_branch2a_relu"
  type: "ReLU"
  bottom: "res4a_branch2a"
  top: "res4a_branch2a"
}
layer {
  name: "res4a_branch2b"
  type: "Convolution"
  bottom: "res4a_branch2a"
  top: "res4a_branch2b"
  param {
    lr_mult: 1
    decay_mult: 1
  }
  convolution_param {
    num_output: 256
    bias_term: false
    pad: 1
    kernel_size: 3
    stride: 1
  }
}
layer {
  name: "bn4a_branch2b"
  type: "BatchNorm"
  bottom: "res4a_branch2b"
  top: "res4a_branch2b"
  batch_norm_param {
    use_global_stats: true
  }
}
layer {
  name: "scale4a_branch2b"
  type: "Scale"
  bottom: "res4a_branch2b"
  top: "res4a_branch2b"
  scale_param {
    bias_term: true
  }
}
layer {
  name: "res4a_branch2b_relu"
  type: "ReLU"
  bottom: "res4a_branch2b"
  top: "res4a_branch2b"
}
layer {
  name: "res4a_branch2c"
  type: "Convolution"
  bottom: "res4a_branch2b"
  top: "res4a_branch2c"
  param {
    lr_mult: 1
    decay_mult: 1
  }
  convolution_param {
    num_output: 1024
    bias_term: false
    pad: 0
    kernel_size: 1
    stride: 1
  }
}
layer {
  name: "bn4a_branch2c"
  type: "BatchNorm"
  bottom: "res4a_branch2c"
  top: "res4a_branch2c"
  batch_norm_param {
    use_global_stats: true
  }
}
layer {
  name: "scale4a_branch2c"
  type: "Scale"
  bottom: "res4a_branch2c"
  top: "res4a_branch2c"
  scale_param {
    bias_term: true
  }
}
layer {
  name: "res4a"
  type: "Eltwise"
  bottom: "res4a_branch1"
  bottom: "res4a_branch2c"
  top: "res4a"
}
layer {
  name: "res4a_relu"
  type: "ReLU"
  bottom: "res4a"
  top: "res4a"
}
layer {
  name: "res4b_branch2a"
  type: "Convolution"
  bottom: "res4a"
  top: "res4b_branch2a"
  param {
    lr_mult: 1
    decay_mult: 1
  }
  convolution_param {
    num_output: 256
    bias_term: false
    pad: 0
    kernel_size: 1
    stride: 1
  }
}
layer {
  name: "bn4b_branch2a"
  type: "BatchNorm"
  bottom: "res4b_branch2a"
  top: "res4b_branch2a"
  batch_norm_param {
    use_global_stats: true
  }
}
layer {
  name: "scale4b_branch2a"
  type: "Scale"
  bottom: "res4b_branch2a"
  top: "res4b_branch2a"
  scale_param {
    bias_term: true
  }
}
layer {
  name: "res4b_branch2a_relu"
  type: "ReLU"
  bottom: "res4b_branch2a"
  top: "res4b_branch2a"
}
layer {
  name: "res4b_branch2b"
  type: "Convolution"
  bottom: "res4b_branch2a"
  top: "res4b_branch2b"
  param {
    lr_mult: 1
    decay_mult: 1
  }
  convolution_param {
    num_output: 256
    bias_term: false
    pad: 1
    kernel_size: 3
    stride: 1
  }
}
layer {
  name: "bn4b_branch2b"
  type: "BatchNorm"
  bottom: "res4b_branch2b"
  top: "res4b_branch2b"
  batch_norm_param {
    use_global_stats: true
  }
}
layer {
  name: "scale4b_branch2b"
  type: "Scale"
  bottom: "res4b_branch2b"
  top: "res4b_branch2b"
  scale_param {
    bias_term: true
  }
}
layer {
  name: "res4b_branch2b_relu"
  type: "ReLU"
  bottom: "res4b_branch2b"
  top: "res4b_branch2b"
}
layer {
  name: "res4b_branch2c"
  type: "Convolution"
  bottom: "res4b_branch2b"
  top: "res4b_branch2c"
  param {
    lr_mult: 1
    decay_mult: 1
  }
  convolution_param {
    num_output: 1024
    bias_term: false
    pad: 0
    kernel_size: 1
    stride: 1
  }
}
layer {
  name: "bn4b_branch2c"
  type: "BatchNorm"
  bottom: "res4b_branch2c"
  top: "res4b_branch2c"
  batch_norm_param {
    use_global_stats: true
  }
}
layer {
  name: "scale4b_branch2c"
  type: "Scale"
  bottom: "res4b_branch2c"
  top: "res4b_branch2c"
  scale_param {
    bias_term: true
  }
}
layer {
  name: "res4b"
  type: "Eltwise"
  bottom: "res4a"
  bottom: "res4b_branch2c"
  top: "res4b"
}
layer {
  name: "res4b_relu"
  type: "ReLU"
  bottom: "res4b"
  top: "res4b"
}
layer {
  name: "res4c_branch2a"
  type: "Convolution"
  bottom: "res4b"
  top: "res4c_branch2a"
  param {
    lr_mult: 1
    decay_mult: 1
  }
  convolution_param {
    num_output: 256
    bias_term: false
    pad: 0
    kernel_size: 1
    stride: 1
  }
}
layer {
  name: "bn4c_branch2a"
  type: "BatchNorm"
  bottom: "res4c_branch2a"
  top: "res4c_branch2a"
  batch_norm_param {
    use_global_stats: true
  }
}
layer {
  name: "scale4c_branch2a"
  type: "Scale"
  bottom: "res4c_branch2a"
  top: "res4c_branch2a"
  scale_param {
    bias_term: true
  }
}
layer {
  name: "res4c_branch2a_relu"
  type: "ReLU"
  bottom: "res4c_branch2a"
  top: "res4c_branch2a"
}
layer {
  name: "res4c_branch2b"
  type: "Convolution"
  bottom: "res4c_branch2a"
  top: "res4c_branch2b"
  param {
    lr_mult: 1
    decay_mult: 1
  }
  convolution_param {
    num_output: 256
    bias_term: false
    pad: 1
    kernel_size: 3
    stride: 1
  }
}
layer {
  name: "bn4c_branch2b"
  type: "BatchNorm"
  bottom: "res4c_branch2b"
  top: "res4c_branch2b"
  batch_norm_param {
    use_global_stats: true
  }
}
layer {
  name: "scale4c_branch2b"
  type: "Scale"
  bottom: "res4c_branch2b"
  top: "res4c_branch2b"
  scale_param {
    bias_term: true
  }
}
layer {
  name: "res4c_branch2b_relu"
  type: "ReLU"
  bottom: "res4c_branch2b"
  top: "res4c_branch2b"
}
layer {
  name: "res4c_branch2c"
  type: "Convolution"
  bottom: "res4c_branch2b"
  top: "res4c_branch2c"
  param {
    lr_mult: 1
    decay_mult: 1
  }
  convolution_param {
    num_output: 1024
    bias_term: false
    pad: 0
    kernel_size: 1
    stride: 1
  }
}
layer {
  name: "bn4c_branch2c"
  type: "BatchNorm"
  bottom: "res4c_branch2c"
  top: "res4c_branch2c"
  batch_norm_param {
    use_global_stats: true
  }
}
layer {
  name: "scale4c_branch2c"
  type: "Scale"
  bottom: "res4c_branch2c"
  top: "res4c_branch2c"
  scale_param {
    bias_term: true
  }
}
layer {
  name: "res4c"
  type: "Eltwise"
  bottom: "res4b"
  bottom: "res4c_branch2c"
  top: "res4c"
}
layer {
  name: "res4c_relu"
  type: "ReLU"
  bottom: "res4c"
  top: "res4c"
}
layer {
  name: "res4d_branch2a"
  type: "Convolution"
  bottom: "res4c"
  top: "res4d_branch2a"
  param {
    lr_mult: 1
    decay_mult: 1
  }
  convolution_param {
    num_output: 256
    bias_term: false
    pad: 0
    kernel_size: 1
    stride: 1
  }
}
layer {
  name: "bn4d_branch2a"
  type: "BatchNorm"
  bottom: "res4d_branch2a"
  top: "res4d_branch2a"
  batch_norm_param {
    use_global_stats: true
  }
}
layer {
  name: "scale4d_branch2a"
  type: "Scale"
  bottom: "res4d_branch2a"
  top: "res4d_branch2a"
  scale_param {
    bias_term: true
  }
}
layer {
  name: "res4d_branch2a_relu"
  type: "ReLU"
  bottom: "res4d_branch2a"
  top: "res4d_branch2a"
}
layer {
  name: "res4d_branch2b"
  type: "Convolution"
  bottom: "res4d_branch2a"
  top: "res4d_branch2b"
  param {
    lr_mult: 1
    decay_mult: 1
  }
  convolution_param {
    num_output: 256
    bias_term: false
    pad: 1
    kernel_size: 3
    stride: 1
  }
}
layer {
  name: "bn4d_branch2b"
  type: "BatchNorm"
  bottom: "res4d_branch2b"
  top: "res4d_branch2b"
  batch_norm_param {
    use_global_stats: true
  }
}
layer {
  name: "scale4d_branch2b"
  type: "Scale"
  bottom: "res4d_branch2b"
  top: "res4d_branch2b"
  scale_param {
    bias_term: true
  }
}
layer {
  name: "res4d_branch2b_relu"
  type: "ReLU"
  bottom: "res4d_branch2b"
  top: "res4d_branch2b"
}
layer {
  name: "res4d_branch2c"
  type: "Convolution"
  bottom: "res4d_branch2b"
  top: "res4d_branch2c"
  param {
    lr_mult: 1
    decay_mult: 1
  }
  convolution_param {
    num_output: 1024
    bias_term: false
    pad: 0
    kernel_size: 1
    stride: 1
  }
}
layer {
  name: "bn4d_branch2c"
  type: "BatchNorm"
  bottom: "res4d_branch2c"
  top: "res4d_branch2c"
  batch_norm_param {
    use_global_stats: true
  }
}
layer {
  name: "scale4d_branch2c"
  type: "Scale"
  bottom: "res4d_branch2c"
  top: "res4d_branch2c"
  scale_param {
    bias_term: true
  }
}
layer {
  name: "res4d"
  type: "Eltwise"
  bottom: "res4c"
  bottom: "res4d_branch2c"
  top: "res4d"
}
layer {
  name: "res4d_relu"
  type: "ReLU"
  bottom: "res4d"
  top: "res4d"
}
layer {
  name: "res4e_branch2a"
  type: "Convolution"
  bottom: "res4d"
  top: "res4e_branch2a"
  param {
    lr_mult: 1
    decay_mult: 1
  }
  convolution_param {
    num_output: 256
    bias_term: false
    pad: 0
    kernel_size: 1
    stride: 1
  }
}
layer {
  name: "bn4e_branch2a"
  type: "BatchNorm"
  bottom: "res4e_branch2a"
  top: "res4e_branch2a"
  batch_norm_param {
    use_global_stats: true
  }
}
layer {
  name: "scale4e_branch2a"
  type: "Scale"
  bottom: "res4e_branch2a"
  top: "res4e_branch2a"
  scale_param {
    bias_term: true
  }
}
layer {
  name: "res4e_branch2a_relu"
  type: "ReLU"
  bottom: "res4e_branch2a"
  top: "res4e_branch2a"
}
layer {
  name: "res4e_branch2b"
  type: "Convolution"
  bottom: "res4e_branch2a"
  top: "res4e_branch2b"
  param {
    lr_mult: 1
    decay_mult: 1
  }
  convolution_param {
    num_output: 256
    bias_term: false
    pad: 1
    kernel_size: 3
    stride: 1
  }
}
layer {
  name: "bn4e_branch2b"
  type: "BatchNorm"
  bottom: "res4e_branch2b"
  top: "res4e_branch2b"
  batch_norm_param {
    use_global_stats: true
  }
}
layer {
  name: "scale4e_branch2b"
  type: "Scale"
  bottom: "res4e_branch2b"
  top: "res4e_branch2b"
  scale_param {
    bias_term: true
  }
}
layer {
  name: "res4e_branch2b_relu"
  type: "ReLU"
  bottom: "res4e_branch2b"
  top: "res4e_branch2b"
}
layer {
  name: "res4e_branch2c"
  type: "Convolution"
  bottom: "res4e_branch2b"
  top: "res4e_branch2c"
  param {
    lr_mult: 1
    decay_mult: 1
  }
  convolution_param {
    num_output: 1024
    bias_term: false
    pad: 0
    kernel_size: 1
    stride: 1
  }
}
layer {
  name: "bn4e_branch2c"
  type: "BatchNorm"
  bottom: "res4e_branch2c"
  top: "res4e_branch2c"
  batch_norm_param {
    use_global_stats: true
  }
}
layer {
  name: "scale4e_branch2c"
  type: "Scale"
  bottom: "res4e_branch2c"
  top: "res4e_branch2c"
  scale_param {
    bias_term: true
  }
}
layer {
  name: "res4e"
  type: "Eltwise"
  bottom: "res4d"
  bottom: "res4e_branch2c"
  top: "res4e"
}
layer {
  name: "res4e_relu"
  type: "ReLU"
  bottom: "res4e"
  top: "res4e"
}
layer {
  name: "res4f_branch2a"
  type: "Convolution"
  bottom: "res4e"
  top: "res4f_branch2a"
  param {
    lr_mult: 1
    decay_mult: 1
  }
  convolution_param {
    num_output: 256
    bias_term: false
    pad: 0
    kernel_size: 1
    stride: 1
  }
}
layer {
  name: "bn4f_branch2a"
  type: "BatchNorm"
  bottom: "res4f_branch2a"
  top: "res4f_branch2a"
  batch_norm_param {
    use_global_stats: true
  }
}
layer {
  name: "scale4f_branch2a"
  type: "Scale"
  bottom: "res4f_branch2a"
  top: "res4f_branch2a"
  scale_param {
    bias_term: true
  }
}
layer {
  name: "res4f_branch2a_relu"
  type: "ReLU"
  bottom: "res4f_branch2a"
  top: "res4f_branch2a"
}
layer {
  name: "res4f_branch2b"
  type: "Convolution"
  bottom: "res4f_branch2a"
  top: "res4f_branch2b"
  param {
    lr_mult: 1
    decay_mult: 1
  }
  convolution_param {
    num_output: 256
    bias_term: false
    pad: 1
    kernel_size: 3
    stride: 1
  }
}
layer {
  name: "bn4f_branch2b"
  type: "BatchNorm"
  bottom: "res4f_branch2b"
  top: "res4f_branch2b"
  batch_norm_param {
    use_global_stats: true
  }
}
layer {
  name: "scale4f_branch2b"
  type: "Scale"
  bottom: "res4f_branch2b"
  top: "res4f_branch2b"
  scale_param {
    bias_term: true
  }
}
layer {
  name: "res4f_branch2b_relu"
  type: "ReLU"
  bottom: "res4f_branch2b"
  top: "res4f_branch2b"
}
layer {
  name: "res4f_branch2c"
  type: "Convolution"
  bottom: "res4f_branch2b"
  top: "res4f_branch2c"
  param {
    lr_mult: 1
    decay_mult: 1
  }
  convolution_param {
    num_output: 1024
    bias_term: false
    pad: 0
    kernel_size: 1
    stride: 1
  }
}
layer {
  name: "bn4f_branch2c"
  type: "BatchNorm"
  bottom: "res4f_branch2c"
  top: "res4f_branch2c"
  batch_norm_param {
    use_global_stats: true
  }
}
layer {
  name: "scale4f_branch2c"
  type: "Scale"
  bottom: "res4f_branch2c"
  top: "res4f_branch2c"
  scale_param {
    bias_term: true
  }
}
layer {
  name: "res4f"
  type: "Eltwise"
  bottom: "res4e"
  bottom: "res4f_branch2c"
  top: "res4f"
}
layer {
  name: "res4f_relu"
  type: "ReLU"
  bottom: "res4f"
  top: "res
I0629 04:06:45.267406  2133 layer_factory.hpp:77] Creating layer input
I0629 04:06:45.267544  2133 db_lmdb.cpp:35] Opened lmdb ../../../data_subsets/subtrain2_lmdb
I0629 04:06:45.267596  2133 net.cpp:84] Creating Layer input
I0629 04:06:45.267616  2133 net.cpp:380] input -> data
I0629 04:06:45.267659  2133 net.cpp:380] input -> label
I0629 04:06:45.267688  2133 data_transformer.cpp:25] Loading mean file from: ../../../data_subsets/subtrain2_mean.binaryproto
I0629 04:06:45.281450  2133 data_layer.cpp:45] output data size: 8,3,224,224
I0629 04:06:45.292397  2133 net.cpp:122] Setting up input
I0629 04:06:45.292485  2133 net.cpp:129] Top shape: 8 3 224 224 (1204224)
I0629 04:06:45.292510  2133 net.cpp:129] Top shape: 8 (8)
I0629 04:06:45.292517  2133 net.cpp:137] Memory required for data: 4816928
I0629 04:06:45.292533  2133 layer_factory.hpp:77] Creating layer label_input_1_split
I0629 04:06:45.292559  2133 net.cpp:84] Creating Layer label_input_1_split
I0629 04:06:45.292582  2133 net.cpp:406] label_input_1_split <- label
I0629 04:06:45.292609  2133 net.cpp:380] label_input_1_split -> label_input_1_split_0
I0629 04:06:45.292634  2133 net.cpp:380] label_input_1_split -> label_input_1_split_1
I0629 04:06:45.292654  2133 net.cpp:380] label_input_1_split -> label_input_1_split_2
I0629 04:06:45.292670  2133 net.cpp:380] label_input_1_split -> label_input_1_split_3
I0629 04:06:45.292750  2133 net.cpp:122] Setting up label_input_1_split
I0629 04:06:45.292768  2133 net.cpp:129] Top shape: 8 (8)
I0629 04:06:45.292774  2133 net.cpp:129] Top shape: 8 (8)
I0629 04:06:45.292779  2133 net.cpp:129] Top shape: 8 (8)
I0629 04:06:45.292784  2133 net.cpp:129] Top shape: 8 (8)
I0629 04:06:45.292788  2133 net.cpp:137] Memory required for data: 4817056
I0629 04:06:45.292795  2133 layer_factory.hpp:77] Creating layer conv1
I0629 04:06:45.292824  2133 net.cpp:84] Creating Layer conv1
I0629 04:06:45.292835  2133 net.cpp:406] conv1 <- data
I0629 04:06:45.292848  2133 net.cpp:380] conv1 -> conv1
I0629 04:06:45.455655  2133 net.cpp:122] Setting up conv1
I0629 04:06:45.455698  2133 net.cpp:129] Top shape: 8 64 112 112 (6422528)
I0629 04:06:45.455703  2133 net.cpp:137] Memory required for data: 30507168
I0629 04:06:45.455730  2133 layer_factory.hpp:77] Creating layer bn_conv1
I0629 04:06:45.455759  2133 net.cpp:84] Creating Layer bn_conv1
I0629 04:06:45.455777  2133 net.cpp:406] bn_conv1 <- conv1
I0629 04:06:45.455791  2133 net.cpp:367] bn_conv1 -> conv1 (in-place)
I0629 04:06:45.456043  2133 net.cpp:122] Setting up bn_conv1
I0629 04:06:45.456061  2133 net.cpp:129] Top shape: 8 64 112 112 (6422528)
I0629 04:06:45.456094  2133 net.cpp:137] Memory required for data: 56197280
I0629 04:06:45.456118  2133 layer_factory.hpp:77] Creating layer scale_conv1
I0629 04:06:45.456156  2133 net.cpp:84] Creating Layer scale_conv1
I0629 04:06:45.456174  2133 net.cpp:406] scale_conv1 <- conv1
I0629 04:06:45.456187  2133 net.cpp:367] scale_conv1 -> conv1 (in-place)
I0629 04:06:45.456270  2133 layer_factory.hpp:77] Creating layer scale_conv1
I0629 04:06:45.456444  2133 net.cpp:122] Setting up scale_conv1
I0629 04:06:45.456462  2133 net.cpp:129] Top shape: 8 64 112 112 (6422528)
I0629 04:06:45.456466  2133 net.cpp:137] Memory required for data: 81887392
I0629 04:06:45.456477  2133 layer_factory.hpp:77] Creating layer conv1_relu
I0629 04:06:45.456491  2133 net.cpp:84] Creating Layer conv1_relu
I0629 04:06:45.456507  2133 net.cpp:406] conv1_relu <- conv1
I0629 04:06:45.456519  2133 net.cpp:367] conv1_relu -> conv1 (in-place)
I0629 04:06:45.456696  2133 net.cpp:122] Setting up conv1_relu
I0629 04:06:45.456714  2133 net.cpp:129] Top shape: 8 64 112 112 (6422528)
I0629 04:06:45.456719  2133 net.cpp:137] Memory required for data: 107577504
I0629 04:06:45.456724  2133 layer_factory.hpp:77] Creating layer pool1
I0629 04:06:45.456742  2133 net.cpp:84] Creating Layer pool1
I0629 04:06:45.456759  2133 net.cpp:406] pool1 <- conv1
I0629 04:06:45.456776  2133 net.cpp:380] pool1 -> pool1
I0629 04:06:45.456862  2133 net.cpp:122] Setting up pool1
I0629 04:06:45.456879  2133 net.cpp:129] Top shape: 8 64 56 56 (1605632)
I0629 04:06:45.456883  2133 net.cpp:137] Memory required for data: 114000032
I0629 04:06:45.456889  2133 layer_factory.hpp:77] Creating layer pool1_pool1_0_split
I0629 04:06:45.456903  2133 net.cpp:84] Creating Layer pool1_pool1_0_split
I0629 04:06:45.456915  2133 net.cpp:406] pool1_pool1_0_split <- pool1
I0629 04:06:45.456929  2133 net.cpp:380] pool1_pool1_0_split -> pool1_pool1_0_split_0
I0629 04:06:45.456959  2133 net.cpp:380] pool1_pool1_0_split -> pool1_pool1_0_split_1
I0629 04:06:45.457020  2133 net.cpp:122] Setting up pool1_pool1_0_split
I0629 04:06:45.457036  2133 net.cpp:129] Top shape: 8 64 56 56 (1605632)
I0629 04:06:45.457046  2133 net.cpp:129] Top shape: 8 64 56 56 (1605632)
I0629 04:06:45.457052  2133 net.cpp:137] Memory required for data: 126845088
I0629 04:06:45.457060  2133 layer_factory.hpp:77] Creating layer res2a_branch1
I0629 04:06:45.457078  2133 net.cpp:84] Creating Layer res2a_branch1
I0629 04:06:45.457096  2133 net.cpp:406] res2a_branch1 <- pool1_pool1_0_split_0
I0629 04:06:45.457113  2133 net.cpp:380] res2a_branch1 -> res2a_branch1
I0629 04:06:45.458078  2133 net.cpp:122] Setting up res2a_branch1
I0629 04:06:45.458099  2133 net.cpp:129] Top shape: 8 256 56 56 (6422528)
I0629 04:06:45.458103  2133 net.cpp:137] Memory required for data: 152535200
I0629 04:06:45.458114  2133 layer_factory.hpp:77] Creating layer bn2a_branch1
I0629 04:06:45.458130  2133 net.cpp:84] Creating Layer bn2a_branch1
I0629 04:06:45.458148  2133 net.cpp:406] bn2a_branch1 <- res2a_branch1
I0629 04:06:45.458161  2133 net.cpp:367] bn2a_branch1 -> res2a_branch1 (in-place)
I0629 04:06:45.458856  2133 net.cpp:122] Setting up bn2a_branch1
I0629 04:06:45.458875  2133 net.cpp:129] Top shape: 8 256 56 56 (6422528)
I0629 04:06:45.458880  2133 net.cpp:137] Memory required for data: 178225312
I0629 04:06:45.458899  2133 layer_factory.hpp:77] Creating layer scale2a_branch1
I0629 04:06:45.458920  2133 net.cpp:84] Creating Layer scale2a_branch1
I0629 04:06:45.458931  2133 net.cpp:406] scale2a_branch1 <- res2a_branch1
I0629 04:06:45.458945  2133 net.cpp:367] scale2a_branch1 -> res2a_branch1 (in-place)
I0629 04:06:45.459028  2133 layer_factory.hpp:77] Creating layer scale2a_branch1
I0629 04:06:45.459180  2133 net.cpp:122] Setting up scale2a_branch1
I0629 04:06:45.459202  2133 net.cpp:129] Top shape: 8 256 56 56 (6422528)
I0629 04:06:45.459206  2133 net.cpp:137] Memory required for data: 203915424
I0629 04:06:45.459221  2133 layer_factory.hpp:77] Creating layer res2a_branch2a
I0629 04:06:45.459244  2133 net.cpp:84] Creating Layer res2a_branch2a
I0629 04:06:45.459278  2133 net.cpp:406] res2a_branch2a <- pool1_pool1_0_split_1
I0629 04:06:45.459298  2133 net.cpp:380] res2a_branch2a -> res2a_branch2a
I0629 04:06:45.460175  2133 net.cpp:122] Setting up res2a_branch2a
I0629 04:06:45.460196  2133 net.cpp:129] Top shape: 8 64 56 56 (1605632)
I0629 04:06:45.460201  2133 net.cpp:137] Memory required for data: 210337952
I0629 04:06:45.460211  2133 layer_factory.hpp:77] Creating layer bn2a_branch2a
I0629 04:06:45.460227  2133 net.cpp:84] Creating Layer bn2a_branch2a
I0629 04:06:45.460245  2133 net.cpp:406] bn2a_branch2a <- res2a_branch2a
I0629 04:06:45.460258  2133 net.cpp:367] bn2a_branch2a -> res2a_branch2a (in-place)
I0629 04:06:45.460469  2133 net.cpp:122] Setting up bn2a_branch2a
I0629 04:06:45.460487  2133 net.cpp:129] Top shape: 8 64 56 56 (1605632)
I0629 04:06:45.460491  2133 net.cpp:137] Memory required for data: 216760480
I0629 04:06:45.460508  2133 layer_factory.hpp:77] Creating layer scale2a_branch2a
I0629 04:06:45.460530  2133 net.cpp:84] Creating Layer scale2a_branch2a
I0629 04:06:45.460542  2133 net.cpp:406] scale2a_branch2a <- res2a_branch2a
I0629 04:06:45.460553  2133 net.cpp:367] scale2a_branch2a -> res2a_branch2a (in-place)
I0629 04:06:45.460635  2133 layer_factory.hpp:77] Creating layer scale2a_branch2a
I0629 04:06:45.460791  2133 net.cpp:122] Setting up scale2a_branch2a
I0629 04:06:45.460810  2133 net.cpp:129] Top shape: 8 64 56 56 (1605632)
I0629 04:06:45.460814  2133 net.cpp:137] Memory required for data: 223183008
I0629 04:06:45.460825  2133 layer_factory.hpp:77] Creating layer res2a_branch2a_relu
I0629 04:06:45.460837  2133 net.cpp:84] Creating Layer res2a_branch2a_relu
I0629 04:06:45.460853  2133 net.cpp:406] res2a_branch2a_relu <- res2a_branch2a
I0629 04:06:45.460865  2133 net.cpp:367] res2a_branch2a_relu -> res2a_branch2a (in-place)
I0629 04:06:45.461129  2133 net.cpp:122] Setting up res2a_branch2a_relu
I0629 04:06:45.461151  2133 net.cpp:129] Top shape: 8 64 56 56 (1605632)
I0629 04:06:45.461156  2133 net.cpp:137] Memory required for data: 229605536
I0629 04:06:45.461163  2133 layer_factory.hpp:77] Creating layer res2a_branch2b
I0629 04:06:45.461182  2133 net.cpp:84] Creating Layer res2a_branch2b
I0629 04:06:45.461201  2133 net.cpp:406] res2a_branch2b <- res2a_branch2a
I0629 04:06:45.461215  2133 net.cpp:380] res2a_branch2b -> res2a_branch2b
I0629 04:06:45.462569  2133 net.cpp:122] Setting up res2a_branch2b
I0629 04:06:45.462591  2133 net.cpp:129] Top shape: 8 64 56 56 (1605632)
I0629 04:06:45.462597  2133 net.cpp:137] Memory required for data: 236028064
I0629 04:06:45.462607  2133 layer_factory.hpp:77] Creating layer bn2a_branch2b
I0629 04:06:45.462622  2133 net.cpp:84] Creating Layer bn2a_branch2b
I0629 04:06:45.462640  2133 net.cpp:406] bn2a_branch2b <- res2a_branch2b
I0629 04:06:45.462656  2133 net.cpp:367] bn2a_branch2b -> res2a_branch2b (in-place)
I0629 04:06:45.462880  2133 net.cpp:122] Setting up bn2a_branch2b
I0629 04:06:45.462898  2133 net.cpp:129] Top shape: 8 64 56 56 (1605632)
I0629 04:06:45.462901  2133 net.cpp:137] Memory required for data: 242450592
I0629 04:06:45.462914  2133 layer_factory.hpp:77] Creating layer scale2a_branch2b
I0629 04:06:45.462927  2133 net.cpp:84] Creating Layer scale2a_branch2b
I0629 04:06:45.462944  2133 net.cpp:406] scale2a_branch2b <- res2a_branch2b
I0629 04:06:45.462962  2133 net.cpp:367] scale2a_branch2b -> res2a_branch2b (in-place)
I0629 04:06:45.463042  2133 layer_factory.hpp:77] Creating layer scale2a_branch2b
I0629 04:06:45.463201  2133 net.cpp:122] Setting up scale2a_branch2b
I0629 04:06:45.463217  2133 net.cpp:129] Top shape: 8 64 56 56 (1605632)
I0629 04:06:45.463222  2133 net.cpp:137] Memory required for data: 248873120
I0629 04:06:45.463232  2133 layer_factory.hpp:77] Creating layer res2a_branch2b_relu
I0629 04:06:45.463244  2133 net.cpp:84] Creating Layer res2a_branch2b_relu
I0629 04:06:45.463265  2133 net.cpp:406] res2a_branch2b_relu <- res2a_branch2b
I0629 04:06:45.463281  2133 net.cpp:367] res2a_branch2b_relu -> res2a_branch2b (in-place)
I0629 04:06:45.463572  2133 net.cpp:122] Setting up res2a_branch2b_relu
I0629 04:06:45.463605  2133 net.cpp:129] Top shape: 8 64 56 56 (1605632)
I0629 04:06:45.463611  2133 net.cpp:137] Memory required for data: 255295648
I0629 04:06:45.463619  2133 layer_factory.hpp:77] Creating layer res2a_branch2c
I0629 04:06:45.463634  2133 net.cpp:84] Creating Layer res2a_branch2c
I0629 04:06:45.463651  2133 net.cpp:406] res2a_branch2c <- res2a_branch2b
I0629 04:06:45.463670  2133 net.cpp:380] res2a_branch2c -> res2a_branch2c
I0629 04:06:45.464655  2133 net.cpp:122] Setting up res2a_branch2c
I0629 04:06:45.464679  2133 net.cpp:129] Top shape: 8 256 56 56 (6422528)
I0629 04:06:45.464684  2133 net.cpp:137] Memory required for data: 280985760
I0629 04:06:45.464696  2133 layer_factory.hpp:77] Creating layer bn2a_branch2c
I0629 04:06:45.464720  2133 net.cpp:84] Creating Layer bn2a_branch2c
I0629 04:06:45.464740  2133 net.cpp:406] bn2a_branch2c <- res2a_branch2c
I0629 04:06:45.464756  2133 net.cpp:367] bn2a_branch2c -> res2a_branch2c (in-place)
I0629 04:06:45.464983  2133 net.cpp:122] Setting up bn2a_branch2c
I0629 04:06:45.465000  2133 net.cpp:129] Top shape: 8 256 56 56 (6422528)
I0629 04:06:45.465005  2133 net.cpp:137] Memory required for data: 306675872
I0629 04:06:45.465018  2133 layer_factory.hpp:77] Creating layer scale2a_branch2c
I0629 04:06:45.465034  2133 net.cpp:84] Creating Layer scale2a_branch2c
I0629 04:06:45.465050  2133 net.cpp:406] scale2a_branch2c <- res2a_branch2c
I0629 04:06:45.465066  2133 net.cpp:367] scale2a_branch2c -> res2a_branch2c (in-place)
I0629 04:06:45.465145  2133 layer_factory.hpp:77] Creating layer scale2a_branch2c
I0629 04:06:45.465301  2133 net.cpp:122] Setting up scale2a_branch2c
I0629 04:06:45.465318  2133 net.cpp:129] Top shape: 8 256 56 56 (6422528)
I0629 04:06:45.465322  2133 net.cpp:137] Memory required for data: 332365984
I0629 04:06:45.465332  2133 layer_factory.hpp:77] Creating layer res2a
I0629 04:06:45.465349  2133 net.cpp:84] Creating Layer res2a
I0629 04:06:45.465373  2133 net.cpp:406] res2a <- res2a_branch1
I0629 04:06:45.465382  2133 net.cpp:406] res2a <- res2a_branch2c
I0629 04:06:45.465394  2133 net.cpp:380] res2a -> res2a
I0629 04:06:45.465443  2133 net.cpp:122] Setting up res2a
I0629 04:06:45.465459  2133 net.cpp:129] Top shape: 8 256 56 56 (6422528)
I0629 04:06:45.465464  2133 net.cpp:137] Memory required for data: 358056096
I0629 04:06:45.465469  2133 layer_factory.hpp:77] Creating layer res2a_relu
I0629 04:06:45.465482  2133 net.cpp:84] Creating Layer res2a_relu
I0629 04:06:45.465499  2133 net.cpp:406] res2a_relu <- res2a
I0629 04:06:45.465510  2133 net.cpp:367] res2a_relu -> res2a (in-place)
I0629 04:06:45.465690  2133 net.cpp:122] Setting up res2a_relu
I0629 04:06:45.465711  2133 net.cpp:129] Top shape: 8 256 56 56 (6422528)
I0629 04:06:45.465715  2133 net.cpp:137] Memory required for data: 383746208
I0629 04:06:45.465723  2133 layer_factory.hpp:77] Creating layer res2a_res2a_relu_0_split
I0629 04:06:45.465734  2133 net.cpp:84] Creating Layer res2a_res2a_relu_0_split
I0629 04:06:45.465744  2133 net.cpp:406] res2a_res2a_relu_0_split <- res2a
I0629 04:06:45.465755  2133 net.cpp:380] res2a_res2a_relu_0_split -> res2a_res2a_relu_0_split_0
I0629 04:06:45.465778  2133 net.cpp:380] res2a_res2a_relu_0_split -> res2a_res2a_relu_0_split_1
I0629 04:06:45.465845  2133 net.cpp:122] Setting up res2a_res2a_relu_0_split
I0629 04:06:45.465862  2133 net.cpp:129] Top shape: 8 256 56 56 (6422528)
I0629 04:06:45.465868  2133 net.cpp:129] Top shape: 8 256 56 56 (6422528)
I0629 04:06:45.465874  2133 net.cpp:137] Memory required for data: 435126432
I0629 04:06:45.465883  2133 layer_factory.hpp:77] Creating layer res2b_branch2a
I0629 04:06:45.465900  2133 net.cpp:84] Creating Layer res2b_branch2a
I0629 04:06:45.465919  2133 net.cpp:406] res2b_branch2a <- res2a_res2a_relu_0_split_0
I0629 04:06:45.465936  2133 net.cpp:380] res2b_branch2a -> res2b_branch2a
I0629 04:06:45.466823  2133 net.cpp:122] Setting up res2b_branch2a
I0629 04:06:45.466845  2133 net.cpp:129] Top shape: 8 64 56 56 (1605632)
I0629 04:06:45.466852  2133 net.cpp:137] Memory required for data: 441548960
I0629 04:06:45.466891  2133 layer_factory.hpp:77] Creating layer bn2b_branch2a
I0629 04:06:45.466913  2133 net.cpp:84] Creating Layer bn2b_branch2a
I0629 04:06:45.466924  2133 net.cpp:406] bn2b_branch2a <- res2b_branch2a
I0629 04:06:45.466934  2133 net.cpp:367] bn2b_branch2a -> res2b_branch2a (in-place)
I0629 04:06:45.467159  2133 net.cpp:122] Setting up bn2b_branch2a
I0629 04:06:45.467176  2133 net.cpp:129] Top shape: 8 64 56 56 (1605632)
I0629 04:06:45.467180  2133 net.cpp:137] Memory required for data: 447971488
I0629 04:06:45.467200  2133 layer_factory.hpp:77] Creating layer scale2b_branch2a
I0629 04:06:45.467226  2133 net.cpp:84] Creating Layer scale2b_branch2a
I0629 04:06:45.467242  2133 net.cpp:406] scale2b_branch2a <- res2b_branch2a
I0629 04:06:45.467254  2133 net.cpp:367] scale2b_branch2a -> res2b_branch2a (in-place)
I0629 04:06:45.467329  2133 layer_factory.hpp:77] Creating layer scale2b_branch2a
I0629 04:06:45.467496  2133 net.cpp:122] Setting up scale2b_branch2a
I0629 04:06:45.467514  2133 net.cpp:129] Top shape: 8 64 56 56 (1605632)
I0629 04:06:45.467517  2133 net.cpp:137] Memory required for data: 454394016
I0629 04:06:45.467528  2133 layer_factory.hpp:77] Creating layer res2b_branch2a_relu
I0629 04:06:45.467543  2133 net.cpp:84] Creating Layer res2b_branch2a_relu
I0629 04:06:45.467561  2133 net.cpp:406] res2b_branch2a_relu <- res2b_branch2a
I0629 04:06:45.467573  2133 net.cpp:367] res2b_branch2a_relu -> res2b_branch2a (in-place)
I0629 04:06:45.467841  2133 net.cpp:122] Setting up res2b_branch2a_relu
I0629 04:06:45.467860  2133 net.cpp:129] Top shape: 8 64 56 56 (1605632)
I0629 04:06:45.467864  2133 net.cpp:137] Memory required for data: 460816544
I0629 04:06:45.467870  2133 layer_factory.hpp:77] Creating layer res2b_branch2b
I0629 04:06:45.467888  2133 net.cpp:84] Creating Layer res2b_branch2b
I0629 04:06:45.467921  2133 net.cpp:406] res2b_branch2b <- res2b_branch2a
I0629 04:06:45.467939  2133 net.cpp:380] res2b_branch2b -> res2b_branch2b
I0629 04:06:45.468737  2133 net.cpp:122] Setting up res2b_branch2b
I0629 04:06:45.468757  2133 net.cpp:129] Top shape: 8 64 56 56 (1605632)
I0629 04:06:45.468762  2133 net.cpp:137] Memory required for data: 467239072
I0629 04:06:45.468772  2133 layer_factory.hpp:77] Creating layer bn2b_branch2b
I0629 04:06:45.468788  2133 net.cpp:84] Creating Layer bn2b_branch2b
I0629 04:06:45.468806  2133 net.cpp:406] bn2b_branch2b <- res2b_branch2b
I0629 04:06:45.468819  2133 net.cpp:367] bn2b_branch2b -> res2b_branch2b (in-place)
I0629 04:06:45.469038  2133 net.cpp:122] Setting up bn2b_branch2b
I0629 04:06:45.469055  2133 net.cpp:129] Top shape: 8 64 56 56 (1605632)
I0629 04:06:45.469059  2133 net.cpp:137] Memory required for data: 473661600
I0629 04:06:45.469074  2133 layer_factory.hpp:77] Creating layer scale2b_branch2b
I0629 04:06:45.469089  2133 net.cpp:84] Creating Layer scale2b_branch2b
I0629 04:06:45.469099  2133 net.cpp:406] scale2b_branch2b <- res2b_branch2b
I0629 04:06:45.469110  2133 net.cpp:367] scale2b_branch2b -> res2b_branch2b (in-place)
I0629 04:06:45.469192  2133 layer_factory.hpp:77] Creating layer scale2b_branch2b
I0629 04:06:45.469350  2133 net.cpp:122] Setting up scale2b_branch2b
I0629 04:06:45.469367  2133 net.cpp:129] Top shape: 8 64 56 56 (1605632)
I0629 04:06:45.469372  2133 net.cpp:137] Memory required for data: 480084128
I0629 04:06:45.469383  2133 layer_factory.hpp:77] Creating layer res2b_branch2b_relu
I0629 04:06:45.469401  2133 net.cpp:84] Creating Layer res2b_branch2b_relu
I0629 04:06:45.469420  2133 net.cpp:406] res2b_branch2b_relu <- res2b_branch2b
I0629 04:06:45.469432  2133 net.cpp:367] res2b_branch2b_relu -> res2b_branch2b (in-place)
I0629 04:06:45.469709  2133 net.cpp:122] Setting up res2b_branch2b_relu
I0629 04:06:45.469728  2133 net.cpp:129] Top shape: 8 64 56 56 (1605632)
I0629 04:06:45.469733  2133 net.cpp:137] Memory required for data: 486506656
I0629 04:06:45.469739  2133 layer_factory.hpp:77] Creating layer res2b_branch2c
I0629 04:06:45.469756  2133 net.cpp:84] Creating Layer res2b_branch2c
I0629 04:06:45.469774  2133 net.cpp:406] res2b_branch2c <- res2b_branch2b
I0629 04:06:45.469816  2133 net.cpp:380] res2b_branch2c -> res2b_branch2c
I0629 04:06:45.470842  2133 net.cpp:122] Setting up res2b_branch2c
I0629 04:06:45.470863  2133 net.cpp:129] Top shape: 8 256 56 56 (6422528)
I0629 04:06:45.470868  2133 net.cpp:137] Memory required for data: 512196768
I0629 04:06:45.470878  2133 layer_factory.hpp:77] Creating layer bn2b_branch2c
I0629 04:06:45.470891  2133 net.cpp:84] Creating Layer bn2b_branch2c
I0629 04:06:45.470908  2133 net.cpp:406] bn2b_branch2c <- res2b_branch2c
I0629 04:06:45.470927  2133 net.cpp:367] bn2b_branch2c -> res2b_branch2c (in-place)
I0629 04:06:45.471159  2133 net.cpp:122] Setting up bn2b_branch2c
I0629 04:06:45.471177  2133 net.cpp:129] Top shape: 8 256 56 56 (6422528)
I0629 04:06:45.471181  2133 net.cpp:137] Memory required for data: 537886880
I0629 04:06:45.471195  2133 layer_factory.hpp:77] Creating layer scale2b_branch2c
I0629 04:06:45.471210  2133 net.cpp:84] Creating Layer scale2b_branch2c
I0629 04:06:45.471227  2133 net.cpp:406] scale2b_branch2c <- res2b_branch2c
I0629 04:06:45.471240  2133 net.cpp:367] scale2b_branch2c -> res2b_branch2c (in-place)
I0629 04:06:45.471308  2133 layer_factory.hpp:77] Creating layer scale2b_branch2c
I0629 04:06:45.471464  2133 net.cpp:122] Setting up scale2b_branch2c
I0629 04:06:45.471482  2133 net.cpp:129] Top shape: 8 256 56 56 (6422528)
I0629 04:06:45.471487  2133 net.cpp:137] Memory required for data: 563576992
I0629 04:06:45.471498  2133 layer_factory.hpp:77] Creating layer res2b
I0629 04:06:45.471508  2133 net.cpp:84] Creating Layer res2b
I0629 04:06:45.471525  2133 net.cpp:406] res2b <- res2a_res2a_relu_0_split_1
I0629 04:06:45.471536  2133 net.cpp:406] res2b <- res2b_branch2c
I0629 04:06:45.471551  2133 net.cpp:380] res2b -> res2b
I0629 04:06:45.471606  2133 net.cpp:122] Setting up res2b
I0629 04:06:45.471627  2133 net.cpp:129] Top shape: 8 256 56 56 (6422528)
I0629 04:06:45.471633  2133 net.cpp:137] Memory required for data: 589267104
I0629 04:06:45.471640  2133 layer_factory.hpp:77] Creating layer res2b_relu
I0629 04:06:45.471654  2133 net.cpp:84] Creating Layer res2b_relu
I0629 04:06:45.471675  2133 net.cpp:406] res2b_relu <- res2b
I0629 04:06:45.471688  2133 net.cpp:367] res2b_relu -> res2b (in-place)
I0629 04:06:45.471973  2133 net.cpp:122] Setting up res2b_relu
I0629 04:06:45.471992  2133 net.cpp:129] Top shape: 8 256 56 56 (6422528)
I0629 04:06:45.471997  2133 net.cpp:137] Memory required for data: 614957216
I0629 04:06:45.472002  2133 layer_factory.hpp:77] Creating layer res2b_res2b_relu_0_split
I0629 04:06:45.472013  2133 net.cpp:84] Creating Layer res2b_res2b_relu_0_split
I0629 04:06:45.472021  2133 net.cpp:406] res2b_res2b_relu_0_split <- res2b
I0629 04:06:45.472033  2133 net.cpp:380] res2b_res2b_relu_0_split -> res2b_res2b_relu_0_split_0
I0629 04:06:45.472055  2133 net.cpp:380] res2b_res2b_relu_0_split -> res2b_res2b_relu_0_split_1
I0629 04:06:45.472126  2133 net.cpp:122] Setting up res2b_res2b_relu_0_split
I0629 04:06:45.472143  2133 net.cpp:129] Top shape: 8 256 56 56 (6422528)
I0629 04:06:45.472148  2133 net.cpp:129] Top shape: 8 256 56 56 (6422528)
I0629 04:06:45.472154  2133 net.cpp:137] Memory required for data: 666337440
I0629 04:06:45.472162  2133 layer_factory.hpp:77] Creating layer res2c_branch2a
I0629 04:06:45.472180  2133 net.cpp:84] Creating Layer res2c_branch2a
I0629 04:06:45.472199  2133 net.cpp:406] res2c_branch2a <- res2b_res2b_relu_0_split_0
I0629 04:06:45.472218  2133 net.cpp:380] res2c_branch2a -> res2c_branch2a
I0629 04:06:45.473117  2133 net.cpp:122] Setting up res2c_branch2a
I0629 04:06:45.473140  2133 net.cpp:129] Top shape: 8 64 56 56 (1605632)
I0629 04:06:45.473145  2133 net.cpp:137] Memory required for data: 672759968
I0629 04:06:45.473156  2133 layer_factory.hpp:77] Creating layer bn2c_branch2a
I0629 04:06:45.473176  2133 net.cpp:84] Creating Layer bn2c_branch2a
I0629 04:06:45.473188  2133 net.cpp:406] bn2c_branch2a <- res2c_branch2a
I0629 04:06:45.473201  2133 net.cpp:367] bn2c_branch2a -> res2c_branch2a (in-place)
I0629 04:06:45.473441  2133 net.cpp:122] Setting up bn2c_branch2a
I0629 04:06:45.473479  2133 net.cpp:129] Top shape: 8 64 56 56 (1605632)
I0629 04:06:45.473484  2133 net.cpp:137] Memory required for data: 679182496
I0629 04:06:45.473497  2133 layer_factory.hpp:77] Creating layer scale2c_branch2a
I0629 04:06:45.473518  2133 net.cpp:84] Creating Layer scale2c_branch2a
I0629 04:06:45.473528  2133 net.cpp:406] scale2c_branch2a <- res2c_branch2a
I0629 04:06:45.473541  2133 net.cpp:367] scale2c_branch2a -> res2c_branch2a (in-place)
I0629 04:06:45.473631  2133 layer_factory.hpp:77] Creating layer scale2c_branch2a
I0629 04:06:45.473808  2133 net.cpp:122] Setting up scale2c_branch2a
I0629 04:06:45.473825  2133 net.cpp:129] Top shape: 8 64 56 56 (1605632)
I0629 04:06:45.473829  2133 net.cpp:137] Memory required for data: 685605024
I0629 04:06:45.473840  2133 layer_factory.hpp:77] Creating layer res2c_branch2a_relu
I0629 04:06:45.473852  2133 net.cpp:84] Creating Layer res2c_branch2a_relu
I0629 04:06:45.473868  2133 net.cpp:406] res2c_branch2a_relu <- res2c_branch2a
I0629 04:06:45.473881  2133 net.cpp:367] res2c_branch2a_relu -> res2c_branch2a (in-place)
I0629 04:06:45.474150  2133 net.cpp:122] Setting up res2c_branch2a_relu
I0629 04:06:45.474169  2133 net.cpp:129] Top shape: 8 64 56 56 (1605632)
I0629 04:06:45.474174  2133 net.cpp:137] Memory required for data: 692027552
I0629 04:06:45.474180  2133 layer_factory.hpp:77] Creating layer res2c_branch2b
I0629 04:06:45.474197  2133 net.cpp:84] Creating Layer res2c_branch2b
I0629 04:06:45.474215  2133 net.cpp:406] res2c_branch2b <- res2c_branch2a
I0629 04:06:45.474232  2133 net.cpp:380] res2c_branch2b -> res2c_branch2b
I0629 04:06:45.475047  2133 net.cpp:122] Setting up res2c_branch2b
I0629 04:06:45.475066  2133 net.cpp:129] Top shape: 8 64 56 56 (1605632)
I0629 04:06:45.475071  2133 net.cpp:137] Memory required for data: 698450080
I0629 04:06:45.475080  2133 layer_factory.hpp:77] Creating layer bn2c_branch2b
I0629 04:06:45.475096  2133 net.cpp:84] Creating Layer bn2c_branch2b
I0629 04:06:45.475114  2133 net.cpp:406] bn2c_branch2b <- res2c_branch2b
I0629 04:06:45.475127  2133 net.cpp:367] bn2c_branch2b -> res2c_branch2b (in-place)
I0629 04:06:45.475363  2133 net.cpp:122] Setting up bn2c_branch2b
I0629 04:06:45.475380  2133 net.cpp:129] Top shape: 8 64 56 56 (1605632)
I0629 04:06:45.475384  2133 net.cpp:137] Memory required for data: 704872608
I0629 04:06:45.475397  2133 layer_factory.hpp:77] Creating layer scale2c_branch2b
I0629 04:06:45.475415  2133 net.cpp:84] Creating Layer scale2c_branch2b
I0629 04:06:45.475433  2133 net.cpp:406] scale2c_branch2b <- res2c_branch2b
I0629 04:06:45.475446  2133 net.cpp:367] scale2c_branch2b -> res2c_branch2b (in-place)
I0629 04:06:45.475519  2133 layer_factory.hpp:77] Creating layer scale2c_branch2b
I0629 04:06:45.475689  2133 net.cpp:122] Setting up scale2c_branch2b
I0629 04:06:45.475706  2133 net.cpp:129] Top shape: 8 64 56 56 (1605632)
I0629 04:06:45.475710  2133 net.cpp:137] Memory required for data: 711295136
I0629 04:06:45.475721  2133 layer_factory.hpp:77] Creating layer res2c_branch2b_relu
I0629 04:06:45.475735  2133 net.cpp:84] Creating Layer res2c_branch2b_relu
I0629 04:06:45.475752  2133 net.cpp:406] res2c_branch2b_relu <- res2c_branch2b
I0629 04:06:45.475765  2133 net.cpp:367] res2c_branch2b_relu -> res2c_branch2b (in-place)
I0629 04:06:45.476056  2133 net.cpp:122] Setting up res2c_branch2b_relu
I0629 04:06:45.476075  2133 net.cpp:129] Top shape: 8 64 56 56 (1605632)
I0629 04:06:45.476079  2133 net.cpp:137] Memory required for data: 717717664
I0629 04:06:45.476085  2133 layer_factory.hpp:77] Creating layer res2c_branch2c
I0629 04:06:45.476104  2133 net.cpp:84] Creating Layer res2c_branch2c
I0629 04:06:45.476121  2133 net.cpp:406] res2c_branch2c <- res2c_branch2b
I0629 04:06:45.476136  2133 net.cpp:380] res2c_branch2c -> res2c_branch2c
I0629 04:06:45.477149  2133 net.cpp:122] Setting up res2c_branch2c
I0629 04:06:45.477170  2133 net.cpp:129] Top shape: 8 256 56 56 (6422528)
I0629 04:06:45.477176  2133 net.cpp:137] Memory required for data: 743407776
I0629 04:06:45.477211  2133 layer_factory.hpp:77] Creating layer bn2c_branch2c
I0629 04:06:45.477226  2133 net.cpp:84] Creating Layer bn2c_branch2c
I0629 04:06:45.477246  2133 net.cpp:406] bn2c_branch2c <- res2c_branch2c
I0629 04:06:45.477259  2133 net.cpp:367] bn2c_branch2c -> res2c_branch2c (in-place)
I0629 04:06:45.477497  2133 net.cpp:122] Setting up bn2c_branch2c
I0629 04:06:45.477515  2133 net.cpp:129] Top shape: 8 256 56 56 (6422528)
I0629 04:06:45.477519  2133 net.cpp:137] Memory required for data: 769097888
I0629 04:06:45.477545  2133 layer_factory.hpp:77] Creating layer scale2c_branch2c
I0629 04:06:45.477571  2133 net.cpp:84] Creating Layer scale2c_branch2c
I0629 04:06:45.477589  2133 net.cpp:406] scale2c_branch2c <- res2c_branch2c
I0629 04:06:45.477603  2133 net.cpp:367] scale2c_branch2c -> res2c_branch2c (in-place)
I0629 04:06:45.477696  2133 layer_factory.hpp:77] Creating layer scale2c_branch2c
I0629 04:06:45.477862  2133 net.cpp:122] Setting up scale2c_branch2c
I0629 04:06:45.477880  2133 net.cpp:129] Top shape: 8 256 56 56 (6422528)
I0629 04:06:45.477883  2133 net.cpp:137] Memory required for data: 794788000
I0629 04:06:45.477895  2133 layer_factory.hpp:77] Creating layer res2c
I0629 04:06:45.477906  2133 net.cpp:84] Creating Layer res2c
I0629 04:06:45.477923  2133 net.cpp:406] res2c <- res2b_res2b_relu_0_split_1
I0629 04:06:45.477934  2133 net.cpp:406] res2c <- res2c_branch2c
I0629 04:06:45.477946  2133 net.cpp:380] res2c -> res2c
I0629 04:06:45.478008  2133 net.cpp:122] Setting up res2c
I0629 04:06:45.478025  2133 net.cpp:129] Top shape: 8 256 56 56 (6422528)
I0629 04:06:45.478030  2133 net.cpp:137] Memory required for data: 820478112
I0629 04:06:45.478036  2133 layer_factory.hpp:77] Creating layer res2c_relu
I0629 04:06:45.478046  2133 net.cpp:84] Creating Layer res2c_relu
I0629 04:06:45.478055  2133 net.cpp:406] res2c_relu <- res2c
I0629 04:06:45.478065  2133 net.cpp:367] res2c_relu -> res2c (in-place)
I0629 04:06:45.478257  2133 net.cpp:122] Setting up res2c_relu
I0629 04:06:45.478276  2133 net.cpp:129] Top shape: 8 256 56 56 (6422528)
I0629 04:06:45.478281  2133 net.cpp:137] Memory required for data: 846168224
I0629 04:06:45.478286  2133 layer_factory.hpp:77] Creating layer res2c_res2c_relu_0_split
I0629 04:06:45.478296  2133 net.cpp:84] Creating Layer res2c_res2c_relu_0_split
I0629 04:06:45.478304  2133 net.cpp:406] res2c_res2c_relu_0_split <- res2c
I0629 04:06:45.478314  2133 net.cpp:380] res2c_res2c_relu_0_split -> res2c_res2c_relu_0_split_0
I0629 04:06:45.478338  2133 net.cpp:380] res2c_res2c_relu_0_split -> res2c_res2c_relu_0_split_1
I0629 04:06:45.478408  2133 net.cpp:122] Setting up res2c_res2c_relu_0_split
I0629 04:06:45.478425  2133 net.cpp:129] Top shape: 8 256 56 56 (6422528)
I0629 04:06:45.478431  2133 net.cpp:129] Top shape: 8 256 56 56 (6422528)
I0629 04:06:45.478436  2133 net.cpp:137] Memory required for data: 897548448
I0629 04:06:45.478444  2133 layer_factory.hpp:77] Creating layer res3a_branch1
I0629 04:06:45.478461  2133 net.cpp:84] Creating Layer res3a_branch1
I0629 04:06:45.478480  2133 net.cpp:406] res3a_branch1 <- res2c_res2c_relu_0_split_0
I0629 04:06:45.478497  2133 net.cpp:380] res3a_branch1 -> res3a_branch1
I0629 04:06:45.480047  2133 net.cpp:122] Setting up res3a_branch1
I0629 04:06:45.480068  2133 net.cpp:129] Top shape: 8 512 28 28 (3211264)
I0629 04:06:45.480073  2133 net.cpp:137] Memory required for data: 910393504
I0629 04:06:45.480083  2133 layer_factory.hpp:77] Creating layer bn3a_branch1
I0629 04:06:45.480108  2133 net.cpp:84] Creating Layer bn3a_branch1
I0629 04:06:45.480126  2133 net.cpp:406] bn3a_branch1 <- res3a_branch1
I0629 04:06:45.480144  2133 net.cpp:367] bn3a_branch1 -> res3a_branch1 (in-place)
I0629 04:06:45.480851  2133 net.cpp:122] Setting up bn3a_branch1
I0629 04:06:45.480871  2133 net.cpp:129] Top shape: 8 512 28 28 (3211264)
I0629 04:06:45.480875  2133 net.cpp:137] Memory required for data: 923238560
I0629 04:06:45.480890  2133 layer_factory.hpp:77] Creating layer scale3a_branch1
I0629 04:06:45.480914  2133 net.cpp:84] Creating Layer scale3a_branch1
I0629 04:06:45.480948  2133 net.cpp:406] scale3a_branch1 <- res3a_branch1
I0629 04:06:45.480959  2133 net.cpp:367] scale3a_branch1 -> res3a_branch1 (in-place)
I0629 04:06:45.481029  2133 layer_factory.hpp:77] Creating layer scale3a_branch1
I0629 04:06:45.481194  2133 net.cpp:122] Setting up scale3a_branch1
I0629 04:06:45.481211  2133 net.cpp:129] Top shape: 8 512 28 28 (3211264)
I0629 04:06:45.481215  2133 net.cpp:137] Memory required for data: 936083616
I0629 04:06:45.481226  2133 layer_factory.hpp:77] Creating layer res3a_branch2a
I0629 04:06:45.481245  2133 net.cpp:84] Creating Layer res3a_branch2a
I0629 04:06:45.481262  2133 net.cpp:406] res3a_branch2a <- res2c_res2c_relu_0_split_1
I0629 04:06:45.481277  2133 net.cpp:380] res3a_branch2a -> res3a_branch2a
I0629 04:06:45.482210  2133 net.cpp:122] Setting up res3a_branch2a
I0629 04:06:45.482230  2133 net.cpp:129] Top shape: 8 128 28 28 (802816)
I0629 04:06:45.482235  2133 net.cpp:137] Memory required for data: 939294880
I0629 04:06:45.482245  2133 layer_factory.hpp:77] Creating layer bn3a_branch2a
I0629 04:06:45.482257  2133 net.cpp:84] Creating Layer bn3a_branch2a
I0629 04:06:45.482275  2133 net.cpp:406] bn3a_branch2a <- res3a_branch2a
I0629 04:06:45.482290  2133 net.cpp:367] bn3a_branch2a -> res3a_branch2a (in-place)
I0629 04:06:45.482543  2133 net.cpp:122] Setting up bn3a_branch2a
I0629 04:06:45.482563  2133 net.cpp:129] Top shape: 8 128 28 28 (802816)
I0629 04:06:45.482568  2133 net.cpp:137] Memory required for data: 942506144
I0629 04:06:45.482584  2133 layer_factory.hpp:77] Creating layer scale3a_branch2a
I0629 04:06:45.482605  2133 net.cpp:84] Creating Layer scale3a_branch2a
I0629 04:06:45.482615  2133 net.cpp:406] scale3a_branch2a <- res3a_branch2a
I0629 04:06:45.482630  2133 net.cpp:367] scale3a_branch2a -> res3a_branch2a (in-place)
I0629 04:06:45.482717  2133 layer_factory.hpp:77] Creating layer scale3a_branch2a
I0629 04:06:45.482879  2133 net.cpp:122] Setting up scale3a_branch2a
I0629 04:06:45.482897  2133 net.cpp:129] Top shape: 8 128 28 28 (802816)
I0629 04:06:45.482902  2133 net.cpp:137] Memory required for data: 945717408
I0629 04:06:45.482913  2133 layer_factory.hpp:77] Creating layer res3a_branch2a_relu
I0629 04:06:45.482923  2133 net.cpp:84] Creating Layer res3a_branch2a_relu
I0629 04:06:45.482940  2133 net.cpp:406] res3a_branch2a_relu <- res3a_branch2a
I0629 04:06:45.482955  2133 net.cpp:367] res3a_branch2a_relu -> res3a_branch2a (in-place)
I0629 04:06:45.483144  2133 net.cpp:122] Setting up res3a_branch2a_relu
I0629 04:06:45.483161  2133 net.cpp:129] Top shape: 8 128 28 28 (802816)
I0629 04:06:45.483165  2133 net.cpp:137] Memory required for data: 948928672
I0629 04:06:45.483171  2133 layer_factory.hpp:77] Creating layer res3a_branch2b
I0629 04:06:45.483188  2133 net.cpp:84] Creating Layer res3a_branch2b
I0629 04:06:45.483206  2133 net.cpp:406] res3a_branch2b <- res3a_branch2a
I0629 04:06:45.483222  2133 net.cpp:380] res3a_branch2b -> res3a_branch2b
I0629 04:06:45.484697  2133 net.cpp:122] Setting up res3a_branch2b
I0629 04:06:45.484719  2133 net.cpp:129] Top shape: 8 128 28 28 (802816)
I0629 04:06:45.484724  2133 net.cpp:137] Memory required for data: 952139936
I0629 04:06:45.484733  2133 layer_factory.hpp:77] Creating layer bn3a_branch2b
I0629 04:06:45.484750  2133 net.cpp:84] Creating Layer bn3a_branch2b
I0629 04:06:45.484767  2133 net.cpp:406] bn3a_branch2b <- res3a_branch2b
I0629 04:06:45.484781  2133 net.cpp:367] bn3a_branch2b -> res3a_branch2b (in-place)
I0629 04:06:45.485028  2133 net.cpp:122] Setting up bn3a_branch2b
I0629 04:06:45.485044  2133 net.cpp:129] Top shape: 8 128 28 28 (802816)
I0629 04:06:45.485049  2133 net.cpp:137] Memory required for data: 955351200
I0629 04:06:45.485062  2133 layer_factory.hpp:77] Creating layer scale3a_branch2b
I0629 04:06:45.485077  2133 net.cpp:84] Creating Layer scale3a_branch2b
I0629 04:06:45.485095  2133 net.cpp:406] scale3a_branch2b <- res3a_branch2b
I0629 04:06:45.485111  2133 net.cpp:367] scale3a_branch2b -> res3a_branch2b (in-place)
I0629 04:06:45.485191  2133 layer_factory.hpp:77] Creating layer scale3a_branch2b
I0629 04:06:45.485379  2133 net.cpp:122] Setting up scale3a_branch2b
I0629 04:06:45.485396  2133 net.cpp:129] Top shape: 8 128 28 28 (802816)
I0629 04:06:45.485401  2133 net.cpp:137] Memory required for data: 958562464
I0629 04:06:45.485412  2133 layer_factory.hpp:77] Creating layer res3a_branch2b_relu
I0629 04:06:45.485427  2133 net.cpp:84] Creating Layer res3a_branch2b_relu
I0629 04:06:45.485445  2133 net.cpp:406] res3a_branch2b_relu <- res3a_branch2b
I0629 04:06:45.485457  2133 net.cpp:367] res3a_branch2b_relu -> res3a_branch2b (in-place)
I0629 04:06:45.485743  2133 net.cpp:122] Setting up res3a_branch2b_relu
I0629 04:06:45.485761  2133 net.cpp:129] Top shape: 8 128 28 28 (802816)
I0629 04:06:45.485765  2133 net.cpp:137] Memory required for data: 961773728
I0629 04:06:45.485772  2133 layer_factory.hpp:77] Creating layer res3a_branch2c
I0629 04:06:45.485801  2133 net.cpp:84] Creating Layer res3a_branch2c
I0629 04:06:45.485821  2133 net.cpp:406] res3a_branch2c <- res3a_branch2b
I0629 04:06:45.485841  2133 net.cpp:380] res3a_branch2c -> res3a_branch2c
I0629 04:06:45.486687  2133 net.cpp:122] Setting up res3a_branch2c
I0629 04:06:45.486709  2133 net.cpp:129] Top shape: 8 512 28 28 (3211264)
I0629 04:06:45.486716  2133 net.cpp:137] Memory required for data: 974618784
I0629 04:06:45.486728  2133 layer_factory.hpp:77] Creating layer bn3a_branch2c
I0629 04:06:45.486742  2133 net.cpp:84] Creating Layer bn3a_branch2c
I0629 04:06:45.486759  2133 net.cpp:406] bn3a_branch2c <- res3a_branch2c
I0629 04:06:45.486775  2133 net.cpp:367] bn3a_branch2c -> res3a_branch2c (in-place)
I0629 04:06:45.487018  2133 net.cpp:122] Setting up bn3a_branch2c
I0629 04:06:45.487036  2133 net.cpp:129] Top shape: 8 512 28 28 (3211264)
I0629 04:06:45.487040  2133 net.cpp:137] Memory required for data: 987463840
I0629 04:06:45.487054  2133 layer_factory.hpp:77] Creating layer scale3a_branch2c
I0629 04:06:45.487072  2133 net.cpp:84] Creating Layer scale3a_branch2c
I0629 04:06:45.487089  2133 net.cpp:406] scale3a_branch2c <- res3a_branch2c
I0629 04:06:45.487102  2133 net.cpp:367] scale3a_branch2c -> res3a_branch2c (in-place)
I0629 04:06:45.487174  2133 layer_factory.hpp:77] Creating layer scale3a_branch2c
I0629 04:06:45.487339  2133 net.cpp:122] Setting up scale3a_branch2c
I0629 04:06:45.487355  2133 net.cpp:129] Top shape: 8 512 28 28 (3211264)
I0629 04:06:45.487360  2133 net.cpp:137] Memory required for data: 1000308896
I0629 04:06:45.487370  2133 layer_factory.hpp:77] Creating layer res3a
I0629 04:06:45.487381  2133 net.cpp:84] Creating Layer res3a
I0629 04:06:45.487398  2133 net.cpp:406] res3a <- res3a_branch1
I0629 04:06:45.487409  2133 net.cpp:406] res3a <- res3a_branch2c
I0629 04:06:45.487424  2133 net.cpp:380] res3a -> res3a
I0629 04:06:45.487484  2133 net.cpp:122] Setting up res3a
I0629 04:06:45.487507  2133 net.cpp:129] Top shape: 8 512 28 28 (3211264)
I0629 04:06:45.487514  2133 net.cpp:137] Memory required for data: 1013153952
I0629 04:06:45.487521  2133 layer_factory.hpp:77] Creating layer res3a_relu
I0629 04:06:45.487531  2133 net.cpp:84] Creating Layer res3a_relu
I0629 04:06:45.487540  2133 net.cpp:406] res3a_relu <- res3a
I0629 04:06:45.487560  2133 net.cpp:367] res3a_relu -> res3a (in-place)
I0629 04:06:45.487855  2133 net.cpp:122] Setting up res3a_relu
I0629 04:06:45.487874  2133 net.cpp:129] Top shape: 8 512 28 28 (3211264)
I0629 04:06:45.487879  2133 net.cpp:137] Memory required for data: 1025999008
I0629 04:06:45.487884  2133 layer_factory.hpp:77] Creating layer res3a_res3a_relu_0_split
I0629 04:06:45.487908  2133 net.cpp:84] Creating Layer res3a_res3a_relu_0_split
I0629 04:06:45.487926  2133 net.cpp:406] res3a_res3a_relu_0_split <- res3a
I0629 04:06:45.487944  2133 net.cpp:380] res3a_res3a_relu_0_split -> res3a_res3a_relu_0_split_0
I0629 04:06:45.487968  2133 net.cpp:380] res3a_res3a_relu_0_split -> res3a_res3a_relu_0_split_1
I0629 04:06:45.488037  2133 net.cpp:122] Setting up res3a_res3a_relu_0_split
I0629 04:06:45.488056  2133 net.cpp:129] Top shape: 8 512 28 28 (3211264)
I0629 04:06:45.488064  2133 net.cpp:129] Top shape: 8 512 28 28 (3211264)
I0629 04:06:45.488097  2133 net.cpp:137] Memory required for data: 1051689120
I0629 04:06:45.488107  2133 layer_factory.hpp:77] Creating layer res3b_branch2a
I0629 04:06:45.488121  2133 net.cpp:84] Creating Layer res3b_branch2a
I0629 04:06:45.488140  2133 net.cpp:406] res3b_branch2a <- res3a_res3a_relu_0_split_0
I0629 04:06:45.488158  2133 net.cpp:380] res3b_branch2a -> res3b_branch2a
I0629 04:06:45.489581  2133 net.cpp:122] Setting up res3b_branch2a
I0629 04:06:45.489603  2133 net.cpp:129] Top shape: 8 128 28 28 (802816)
I0629 04:06:45.489606  2133 net.cpp:137] Memory required for data: 1054900384
I0629 04:06:45.489616  2133 layer_factory.hpp:77] Creating layer bn3b_branch2a
I0629 04:06:45.489632  2133 net.cpp:84] Creating Layer bn3b_branch2a
I0629 04:06:45.489650  2133 net.cpp:406] bn3b_branch2a <- res3b_branch2a
I0629 04:06:45.489667  2133 net.cpp:367] bn3b_branch2a -> res3b_branch2a (in-place)
I0629 04:06:45.489917  2133 net.cpp:122] Setting up bn3b_branch2a
I0629 04:06:45.489938  2133 net.cpp:129] Top shape: 8 128 28 28 (802816)
I0629 04:06:45.489943  2133 net.cpp:137] Memory required for data: 1058111648
I0629 04:06:45.489958  2133 layer_factory.hpp:77] Creating layer scale3b_branch2a
I0629 04:06:45.489977  2133 net.cpp:84] Creating Layer scale3b_branch2a
I0629 04:06:45.489990  2133 net.cpp:406] scale3b_branch2a <- res3b_branch2a
I0629 04:06:45.490006  2133 net.cpp:367] scale3b_branch2a -> res3b_branch2a (in-place)
I0629 04:06:45.490087  2133 layer_factory.hpp:77] Creating layer scale3b_branch2a
I0629 04:06:45.490257  2133 net.cpp:122] Setting up scale3b_branch2a
I0629 04:06:45.490275  2133 net.cpp:129] Top shape: 8 128 28 28 (802816)
I0629 04:06:45.490279  2133 net.cpp:137] Memory required for data: 1061322912
I0629 04:06:45.490290  2133 layer_factory.hpp:77] Creating layer res3b_branch2a_relu
I0629 04:06:45.490303  2133 net.cpp:84] Creating Layer res3b_branch2a_relu
I0629 04:06:45.490319  2133 net.cpp:406] res3b_branch2a_relu <- res3b_branch2a
I0629 04:06:45.490331  2133 net.cpp:367] res3b_branch2a_relu -> res3b_branch2a (in-place)
I0629 04:06:45.490509  2133 net.cpp:122] Setting up res3b_branch2a_relu
I0629 04:06:45.490526  2133 net.cpp:129] Top shape: 8 128 28 28 (802816)
I0629 04:06:45.490530  2133 net.cpp:137] Memory required for data: 1064534176
I0629 04:06:45.490536  2133 layer_factory.hpp:77] Creating layer res3b_branch2b
I0629 04:06:45.490552  2133 net.cpp:84] Creating Layer res3b_branch2b
I0629 04:06:45.490569  2133 net.cpp:406] res3b_branch2b <- res3b_branch2a
I0629 04:06:45.490583  2133 net.cpp:380] res3b_branch2b -> res3b_branch2b
I0629 04:06:45.492163  2133 net.cpp:122] Setting up res3b_branch2b
I0629 04:06:45.492187  2133 net.cpp:129] Top shape: 8 128 28 28 (802816)
I0629 04:06:45.492194  2133 net.cpp:137] Memory required for data: 1067745440
I0629 04:06:45.492204  2133 layer_factory.hpp:77] Creating layer bn3b_branch2b
I0629 04:06:45.492218  2133 net.cpp:84] Creating Layer bn3b_branch2b
I0629 04:06:45.492234  2133 net.cpp:406] bn3b_branch2b <- res3b_branch2b
I0629 04:06:45.492247  2133 net.cpp:367] bn3b_branch2b -> res3b_branch2b (in-place)
I0629 04:06:45.492502  2133 net.cpp:122] Setting up bn3b_branch2b
I0629 04:06:45.492521  2133 net.cpp:129] Top shape: 8 128 28 28 (802816)
I0629 04:06:45.492524  2133 net.cpp:137] Memory required for data: 1070956704
I0629 04:06:45.492538  2133 layer_factory.hpp:77] Creating layer scale3b_branch2b
I0629 04:06:45.492553  2133 net.cpp:84] Creating Layer scale3b_branch2b
I0629 04:06:45.492571  2133 net.cpp:406] scale3b_branch2b <- res3b_branch2b
I0629 04:06:45.492583  2133 net.cpp:367] scale3b_branch2b -> res3b_branch2b (in-place)
I0629 04:06:45.492660  2133 layer_factory.hpp:77] Creating layer scale3b_branch2b
I0629 04:06:45.492830  2133 net.cpp:122] Setting up scale3b_branch2b
I0629 04:06:45.492847  2133 net.cpp:129] Top shape: 8 128 28 28 (802816)
I0629 04:06:45.492851  2133 net.cpp:137] Memory required for data: 1074167968
I0629 04:06:45.492862  2133 layer_factory.hpp:77] Creating layer res3b_branch2b_relu
I0629 04:06:45.492877  2133 net.cpp:84] Creating Layer res3b_branch2b_relu
I0629 04:06:45.492911  2133 net.cpp:406] res3b_branch2b_relu <- res3b_branch2b
I0629 04:06:45.492921  2133 net.cpp:367] res3b_branch2b_relu -> res3b_branch2b (in-place)
I0629 04:06:45.493202  2133 net.cpp:122] Setting up res3b_branch2b_relu
I0629 04:06:45.493221  2133 net.cpp:129] Top shape: 8 128 28 28 (802816)
I0629 04:06:45.493227  2133 net.cpp:137] Memory required for data: 1077379232
I0629 04:06:45.493232  2133 layer_factory.hpp:77] Creating layer res3b_branch2c
I0629 04:06:45.493252  2133 net.cpp:84] Creating Layer res3b_branch2c
I0629 04:06:45.493271  2133 net.cpp:406] res3b_branch2c <- res3b_branch2b
I0629 04:06:45.493290  2133 net.cpp:380] res3b_branch2c -> res3b_branch2c
I0629 04:06:45.494158  2133 net.cpp:122] Setting up res3b_branch2c
I0629 04:06:45.494177  2133 net.cpp:129] Top shape: 8 512 28 28 (3211264)
I0629 04:06:45.494181  2133 net.cpp:137] Memory required for data: 1090224288
I0629 04:06:45.494191  2133 layer_factory.hpp:77] Creating layer bn3b_branch2c
I0629 04:06:45.494207  2133 net.cpp:84] Creating Layer bn3b_branch2c
I0629 04:06:45.494226  2133 net.cpp:406] bn3b_branch2c <- res3b_branch2c
I0629 04:06:45.494238  2133 net.cpp:367] bn3b_branch2c -> res3b_branch2c (in-place)
I0629 04:06:45.494489  2133 net.cpp:122] Setting up bn3b_branch2c
I0629 04:06:45.494508  2133 net.cpp:129] Top shape: 8 512 28 28 (3211264)
I0629 04:06:45.494511  2133 net.cpp:137] Memory required for data: 1103069344
I0629 04:06:45.494524  2133 layer_factory.hpp:77] Creating layer scale3b_branch2c
I0629 04:06:45.494549  2133 net.cpp:84] Creating Layer scale3b_branch2c
I0629 04:06:45.494567  2133 net.cpp:406] scale3b_branch2c <- res3b_branch2c
I0629 04:06:45.494580  2133 net.cpp:367] scale3b_branch2c -> res3b_branch2c (in-place)
I0629 04:06:45.494652  2133 layer_factory.hpp:77] Creating layer scale3b_branch2c
I0629 04:06:45.494822  2133 net.cpp:122] Setting up scale3b_branch2c
I0629 04:06:45.494839  2133 net.cpp:129] Top shape: 8 512 28 28 (3211264)
I0629 04:06:45.494843  2133 net.cpp:137] Memory required for data: 1115914400
I0629 04:06:45.494853  2133 layer_factory.hpp:77] Creating layer res3b
I0629 04:06:45.494865  2133 net.cpp:84] Creating Layer res3b
I0629 04:06:45.494881  2133 net.cpp:406] res3b <- res3a_res3a_relu_0_split_1
I0629 04:06:45.494892  2133 net.cpp:406] res3b <- res3b_branch2c
I0629 04:06:45.494906  2133 net.cpp:380] res3b -> res3b
I0629 04:06:45.494968  2133 net.cpp:122] Setting up res3b
I0629 04:06:45.494987  2133 net.cpp:129] Top shape: 8 512 28 28 (3211264)
I0629 04:06:45.494992  2133 net.cpp:137] Memory required for data: 1128759456
I0629 04:06:45.494999  2133 layer_factory.hpp:77] Creating layer res3b_relu
I0629 04:06:45.495009  2133 net.cpp:84] Creating Layer res3b_relu
I0629 04:06:45.495018  2133 net.cpp:406] res3b_relu <- res3b
I0629 04:06:45.495030  2133 net.cpp:367] res3b_relu -> res3b (in-place)
I0629 04:06:45.495302  2133 net.cpp:122] Setting up res3b_relu
I0629 04:06:45.495321  2133 net.cpp:129] Top shape: 8 512 28 28 (3211264)
I0629 04:06:45.495326  2133 net.cpp:137] Memory required for data: 1141604512
I0629 04:06:45.495332  2133 layer_factory.hpp:77] Creating layer res3b_res3b_relu_0_split
I0629 04:06:45.495342  2133 net.cpp:84] Creating Layer res3b_res3b_relu_0_split
I0629 04:06:45.495357  2133 net.cpp:406] res3b_res3b_relu_0_split <- res3b
I0629 04:06:45.495370  2133 net.cpp:380] res3b_res3b_relu_0_split -> res3b_res3b_relu_0_split_0
I0629 04:06:45.495394  2133 net.cpp:380] res3b_res3b_relu_0_split -> res3b_res3b_relu_0_split_1
I0629 04:06:45.495473  2133 net.cpp:122] Setting up res3b_res3b_relu_0_split
I0629 04:06:45.495491  2133 net.cpp:129] Top shape: 8 512 28 28 (3211264)
I0629 04:06:45.495496  2133 net.cpp:129] Top shape: 8 512 28 28 (3211264)
I0629 04:06:45.495501  2133 net.cpp:137] Memory required for data: 1167294624
I0629 04:06:45.495508  2133 layer_factory.hpp:77] Creating layer res3c_branch2a
I0629 04:06:45.495527  2133 net.cpp:84] Creating Layer res3c_branch2a
I0629 04:06:45.495545  2133 net.cpp:406] res3c_branch2a <- res3b_res3b_relu_0_split_0
I0629 04:06:45.495585  2133 net.cpp:380] res3c_branch2a -> res3c_branch2a
I0629 04:06:45.496552  2133 net.cpp:122] Setting up res3c_branch2a
I0629 04:06:45.496575  2133 net.cpp:129] Top shape: 8 128 28 28 (802816)
I0629 04:06:45.496579  2133 net.cpp:137] Memory required for data: 1170505888
I0629 04:06:45.496589  2133 layer_factory.hpp:77] Creating layer bn3c_branch2a
I0629 04:06:45.496601  2133 net.cpp:84] Creating Layer bn3c_branch2a
I0629 04:06:45.496618  2133 net.cpp:406] bn3c_branch2a <- res3c_branch2a
I0629 04:06:45.496634  2133 net.cpp:367] bn3c_branch2a -> res3c_branch2a (in-place)
I0629 04:06:45.496898  2133 net.cpp:122] Setting up bn3c_branch2a
I0629 04:06:45.496917  2133 net.cpp:129] Top shape: 8 128 28 28 (802816)
I0629 04:06:45.496924  2133 net.cpp:137] Memory required for data: 1173717152
I0629 04:06:45.496942  2133 layer_factory.hpp:77] Creating layer scale3c_branch2a
I0629 04:06:45.496963  2133 net.cpp:84] Creating Layer scale3c_branch2a
I0629 04:06:45.496973  2133 net.cpp:406] scale3c_branch2a <- res3c_branch2a
I0629 04:06:45.496991  2133 net.cpp:367] scale3c_branch2a -> res3c_branch2a (in-place)
I0629 04:06:45.497063  2133 layer_factory.hpp:77] Creating layer scale3c_branch2a
I0629 04:06:45.497239  2133 net.cpp:122] Setting up scale3c_branch2a
I0629 04:06:45.497257  2133 net.cpp:129] Top shape: 8 128 28 28 (802816)
I0629 04:06:45.497262  2133 net.cpp:137] Memory required for data: 1176928416
I0629 04:06:45.497272  2133 layer_factory.hpp:77] Creating layer res3c_branch2a_relu
I0629 04:06:45.497283  2133 net.cpp:84] Creating Layer res3c_branch2a_relu
I0629 04:06:45.497300  2133 net.cpp:406] res3c_branch2a_relu <- res3c_branch2a
I0629 04:06:45.497315  2133 net.cpp:367] res3c_branch2a_relu -> res3c_branch2a (in-place)
I0629 04:06:45.497503  2133 net.cpp:122] Setting up res3c_branch2a_relu
I0629 04:06:45.497521  2133 net.cpp:129] Top shape: 8 128 28 28 (802816)
I0629 04:06:45.497525  2133 net.cpp:137] Memory required for data: 1180139680
I0629 04:06:45.497531  2133 layer_factory.hpp:77] Creating layer res3c_branch2b
I0629 04:06:45.497548  2133 net.cpp:84] Creating Layer res3c_branch2b
I0629 04:06:45.497565  2133 net.cpp:406] res3c_branch2b <- res3c_branch2a
I0629 04:06:45.497583  2133 net.cpp:380] res3c_branch2b -> res3c_branch2b
I0629 04:06:45.499066  2133 net.cpp:122] Setting up res3c_branch2b
I0629 04:06:45.499088  2133 net.cpp:129] Top shape: 8 128 28 28 (802816)
I0629 04:06:45.499091  2133 net.cpp:137] Memory required for data: 1183350944
I0629 04:06:45.499102  2133 layer_factory.hpp:77] Creating layer bn3c_branch2b
I0629 04:06:45.499114  2133 net.cpp:84] Creating Layer bn3c_branch2b
I0629 04:06:45.499132  2133 net.cpp:406] bn3c_branch2b <- res3c_branch2b
I0629 04:06:45.499148  2133 net.cpp:367] bn3c_branch2b -> res3c_branch2b (in-place)
I0629 04:06:45.499413  2133 net.cpp:122] Setting up bn3c_branch2b
I0629 04:06:45.499429  2133 net.cpp:129] Top shape: 8 128 28 28 (802816)
I0629 04:06:45.499434  2133 net.cpp:137] Memory required for data: 1186562208
I0629 04:06:45.499447  2133 layer_factory.hpp:77] Creating layer scale3c_branch2b
I0629 04:06:45.499462  2133 net.cpp:84] Creating Layer scale3c_branch2b
I0629 04:06:45.499475  2133 net.cpp:406] scale3c_branch2b <- res3c_branch2b
I0629 04:06:45.499485  2133 net.cpp:367] scale3c_branch2b -> res3c_branch2b (in-place)
I0629 04:06:45.499577  2133 layer_factory.hpp:77] Creating layer scale3c_branch2b
I0629 04:06:45.499750  2133 net.cpp:122] Setting up scale3c_branch2b
I0629 04:06:45.499768  2133 net.cpp:129] Top shape: 8 128 28 28 (802816)
I0629 04:06:45.499771  2133 net.cpp:137] Memory required for data: 1189773472
I0629 04:06:45.499783  2133 layer_factory.hpp:77] Creating layer res3c_branch2b_relu
I0629 04:06:45.499795  2133 net.cpp:84] Creating Layer res3c_branch2b_relu
I0629 04:06:45.499811  2133 net.cpp:406] res3c_branch2b_relu <- res3c_branch2b
I0629 04:06:45.499827  2133 net.cpp:367] res3c_branch2b_relu -> res3c_branch2b (in-place)
I0629 04:06:45.500141  2133 net.cpp:122] Setting up res3c_branch2b_relu
I0629 04:06:45.500161  2133 net.cpp:129] Top shape: 8 128 28 28 (802816)
I0629 04:06:45.500185  2133 net.cpp:137] Memory required for data: 1192984736
I0629 04:06:45.500195  2133 layer_factory.hpp:77] Creating layer res3c_branch2c
I0629 04:06:45.500213  2133 net.cpp:84] Creating Layer res3c_branch2c
I0629 04:06:45.500231  2133 net.cpp:406] res3c_branch2c <- res3c_branch2b
I0629 04:06:45.500247  2133 net.cpp:380] res3c_branch2c -> res3c_branch2c
I0629 04:06:45.501099  2133 net.cpp:122] Setting up res3c_branch2c
I0629 04:06:45.501121  2133 net.cpp:129] Top shape: 8 512 28 28 (3211264)
I0629 04:06:45.501124  2133 net.cpp:137] Memory required for data: 1205829792
I0629 04:06:45.501140  2133 layer_factory.hpp:77] Creating layer bn3c_branch2c
I0629 04:06:45.501163  2133 net.cpp:84] Creating Layer bn3c_branch2c
I0629 04:06:45.501181  2133 net.cpp:406] bn3c_branch2c <- res3c_branch2c
I0629 04:06:45.501194  2133 net.cpp:367] bn3c_branch2c -> res3c_branch2c (in-place)
I0629 04:06:45.501456  2133 net.cpp:122] Setting up bn3c_branch2c
I0629 04:06:45.501474  2133 net.cpp:129] Top shape: 8 512 28 28 (3211264)
I0629 04:06:45.501478  2133 net.cpp:137] Memory required for data: 1218674848
I0629 04:06:45.501492  2133 layer_factory.hpp:77] Creating layer scale3c_branch2c
I0629 04:06:45.501516  2133 net.cpp:84] Creating Layer scale3c_branch2c
I0629 04:06:45.501534  2133 net.cpp:406] scale3c_branch2c <- res3c_branch2c
I0629 04:06:45.501547  2133 net.cpp:367] scale3c_branch2c -> res3c_branch2c (in-place)
I0629 04:06:45.501621  2133 layer_factory.hpp:77] Creating layer scale3c_branch2c
I0629 04:06:45.501794  2133 net.cpp:122] Setting up scale3c_branch2c
I0629 04:06:45.501812  2133 net.cpp:129] Top shape: 8 512 28 28 (3211264)
I0629 04:06:45.501816  2133 net.cpp:137] Memory required for data: 1231519904
I0629 04:06:45.501828  2133 layer_factory.hpp:77] Creating layer res3c
I0629 04:06:45.501839  2133 net.cpp:84] Creating Layer res3c
I0629 04:06:45.501857  2133 net.cpp:406] res3c <- res3b_res3b_relu_0_split_1
I0629 04:06:45.501868  2133 net.cpp:406] res3c <- res3c_branch2c
I0629 04:06:45.501883  2133 net.cpp:380] res3c -> res3c
I0629 04:06:45.501943  2133 net.cpp:122] Setting up res3c
I0629 04:06:45.501963  2133 net.cpp:129] Top shape: 8 512 28 28 (3211264)
I0629 04:06:45.501968  2133 net.cpp:137] Memory required for data: 1244364960
I0629 04:06:45.501974  2133 layer_factory.hpp:77] Creating layer res3c_relu
I0629 04:06:45.501984  2133 net.cpp:84] Creating Layer res3c_relu
I0629 04:06:45.501992  2133 net.cpp:406] res3c_relu <- res3c
I0629 04:06:45.502003  2133 net.cpp:367] res3c_relu -> res3c (in-place)
I0629 04:06:45.502295  2133 net.cpp:122] Setting up res3c_relu
I0629 04:06:45.502315  2133 net.cpp:129] Top shape: 8 512 28 28 (3211264)
I0629 04:06:45.502318  2133 net.cpp:137] Memory required for data: 1257210016
I0629 04:06:45.502324  2133 layer_factory.hpp:77] Creating layer res3c_res3c_relu_0_split
I0629 04:06:45.502334  2133 net.cpp:84] Creating Layer res3c_res3c_relu_0_split
I0629 04:06:45.502351  2133 net.cpp:406] res3c_res3c_relu_0_split <- res3c
I0629 04:06:45.502362  2133 net.cpp:380] res3c_res3c_relu_0_split -> res3c_res3c_relu_0_split_0
I0629 04:06:45.502385  2133 net.cpp:380] res3c_res3c_relu_0_split -> res3c_res3c_relu_0_split_1
I0629 04:06:45.502462  2133 net.cpp:122] Setting up res3c_res3c_relu_0_split
I0629 04:06:45.502480  2133 net.cpp:129] Top shape: 8 512 28 28 (3211264)
I0629 04:06:45.502485  2133 net.cpp:129] Top shape: 8 512 28 28 (3211264)
I0629 04:06:45.502490  2133 net.cpp:137] Memory required for data: 1282900128
I0629 04:06:45.502497  2133 layer_factory.hpp:77] Creating layer res3d_branch2a
I0629 04:06:45.502516  2133 net.cpp:84] Creating Layer res3d_branch2a
I0629 04:06:45.502534  2133 net.cpp:406] res3d_branch2a <- res3c_res3c_relu_0_split_0
I0629 04:06:45.502548  2133 net.cpp:380] res3d_branch2a -> res3d_branch2a
I0629 04:06:45.504015  2133 net.cpp:122] Setting up res3d_branch2a
I0629 04:06:45.504036  2133 net.cpp:129] Top shape: 8 128 28 28 (802816)
I0629 04:06:45.504040  2133 net.cpp:137] Memory required for data: 1286111392
I0629 04:06:45.504051  2133 layer_factory.hpp:77] Creating layer bn3d_branch2a
I0629 04:06:45.504093  2133 net.cpp:84] Creating Layer bn3d_branch2a
I0629 04:06:45.504112  2133 net.cpp:406] bn3d_branch2a <- res3d_branch2a
I0629 04:06:45.504129  2133 net.cpp:367] bn3d_branch2a -> res3d_branch2a (in-place)
I0629 04:06:45.504393  2133 net.cpp:122] Setting up bn3d_branch2a
I0629 04:06:45.504411  2133 net.cpp:129] Top shape: 8 128 28 28 (802816)
I0629 04:06:45.504415  2133 net.cpp:137] Memory required for data: 1289322656
I0629 04:06:45.504454  2133 layer_factory.hpp:77] Creating layer scale3d_branch2a
I0629 04:06:45.504478  2133 net.cpp:84] Creating Layer scale3d_branch2a
I0629 04:06:45.504488  2133 net.cpp:406] scale3d_branch2a <- res3d_branch2a
I0629 04:06:45.504503  2133 net.cpp:367] scale3d_branch2a -> res3d_branch2a (in-place)
I0629 04:06:45.504585  2133 layer_factory.hpp:77] Creating layer scale3d_branch2a
I0629 04:06:45.504760  2133 net.cpp:122] Setting up scale3d_branch2a
I0629 04:06:45.504777  2133 net.cpp:129] Top shape: 8 128 28 28 (802816)
I0629 04:06:45.504781  2133 net.cpp:137] Memory required for data: 1292533920
I0629 04:06:45.504792  2133 layer_factory.hpp:77] Creating layer res3d_branch2a_relu
I0629 04:06:45.504804  2133 net.cpp:84] Creating Layer res3d_branch2a_relu
I0629 04:06:45.504820  2133 net.cpp:406] res3d_branch2a_relu <- res3d_branch2a
I0629 04:06:45.504832  2133 net.cpp:367] res3d_branch2a_relu -> res3d_branch2a (in-place)
I0629 04:06:45.505013  2133 net.cpp:122] Setting up res3d_branch2a_relu
I0629 04:06:45.505033  2133 net.cpp:129] Top shape: 8 128 28 28 (802816)
I0629 04:06:45.505038  2133 net.cpp:137] Memory required for data: 1295745184
I0629 04:06:45.505046  2133 layer_factory.hpp:77] Creating layer res3d_branch2b
I0629 04:06:45.505061  2133 net.cpp:84] Creating Layer res3d_branch2b
I0629 04:06:45.505079  2133 net.cpp:406] res3d_branch2b <- res3d_branch2a
I0629 04:06:45.505097  2133 net.cpp:380] res3d_branch2b -> res3d_branch2b
I0629 04:06:45.506598  2133 net.cpp:122] Setting up res3d_branch2b
I0629 04:06:45.506619  2133 net.cpp:129] Top shape: 8 128 28 28 (802816)
I0629 04:06:45.506624  2133 net.cpp:137] Memory required for data: 1298956448
I0629 04:06:45.506634  2133 layer_factory.hpp:77] Creating layer bn3d_branch2b
I0629 04:06:45.506650  2133 net.cpp:84] Creating Layer bn3d_branch2b
I0629 04:06:45.506669  2133 net.cpp:406] bn3d_branch2b <- res3d_branch2b
I0629 04:06:45.506685  2133 net.cpp:367] bn3d_branch2b -> res3d_branch2b (in-place)
I0629 04:06:45.506949  2133 net.cpp:122] Setting up bn3d_branch2b
I0629 04:06:45.506966  2133 net.cpp:129] Top shape: 8 128 28 28 (802816)
I0629 04:06:45.506971  2133 net.cpp:137] Memory required for data: 1302167712
I0629 04:06:45.506984  2133 layer_factory.hpp:77] Creating layer scale3d_branch2b
I0629 04:06:45.507000  2133 net.cpp:84] Creating Layer scale3d_branch2b
I0629 04:06:45.507017  2133 net.cpp:406] scale3d_branch2b <- res3d_branch2b
I0629 04:06:45.507036  2133 net.cpp:367] scale3d_branch2b -> res3d_branch2b (in-place)
I0629 04:06:45.507122  2133 layer_factory.hpp:77] Creating layer scale3d_branch2b
I0629 04:06:45.507298  2133 net.cpp:122] Setting up scale3d_branch2b
I0629 04:06:45.507316  2133 net.cpp:129] Top shape: 8 128 28 28 (802816)
I0629 04:06:45.507320  2133 net.cpp:137] Memory required for data: 1305378976
I0629 04:06:45.507331  2133 layer_factory.hpp:77] Creating layer res3d_branch2b_relu
I0629 04:06:45.507344  2133 net.cpp:84] Creating Layer res3d_branch2b_relu
I0629 04:06:45.507360  2133 net.cpp:406] res3d_branch2b_relu <- res3d_branch2b
I0629 04:06:45.507372  2133 net.cpp:367] res3d_branch2b_relu -> res3d_branch2b (in-place)
I0629 04:06:45.507663  2133 net.cpp:122] Setting up res3d_branch2b_relu
I0629 04:06:45.507681  2133 net.cpp:129] Top shape: 8 128 28 28 (802816)
I0629 04:06:45.507685  2133 net.cpp:137] Memory required for data: 1308590240
I0629 04:06:45.507691  2133 layer_factory.hpp:77] Creating layer res3d_branch2c
I0629 04:06:45.507709  2133 net.cpp:84] Creating Layer res3d_branch2c
I0629 04:06:45.507726  2133 net.cpp:406] res3d_branch2c <- res3d_branch2b
I0629 04:06:45.507766  2133 net.cpp:380] res3d_branch2c -> res3d_branch2c
I0629 04:06:45.508669  2133 net.cpp:122] Setting up res3d_branch2c
I0629 04:06:45.508689  2133 net.cpp:129] Top shape: 8 512 28 28 (3211264)
I0629 04:06:45.508694  2133 net.cpp:137] Memory required for data: 1321435296
I0629 04:06:45.508703  2133 layer_factory.hpp:77] Creating layer bn3d_branch2c
I0629 04:06:45.508716  2133 net.cpp:84] Creating Layer bn3d_branch2c
I0629 04:06:45.508733  2133 net.cpp:406] bn3d_branch2c <- res3d_branch2c
I0629 04:06:45.508749  2133 net.cpp:367] bn3d_branch2c -> res3d_branch2c (in-place)
I0629 04:06:45.509016  2133 net.cpp:122] Setting up bn3d_branch2c
I0629 04:06:45.509033  2133 net.cpp:129] Top shape: 8 512 28 28 (3211264)
I0629 04:06:45.509038  2133 net.cpp:137] Memory required for data: 1334280352
I0629 04:06:45.509052  2133 layer_factory.hpp:77] Creating layer scale3d_branch2c
I0629 04:06:45.509068  2133 net.cpp:84] Creating Layer scale3d_branch2c
I0629 04:06:45.509084  2133 net.cpp:406] scale3d_branch2c <- res3d_branch2c
I0629 04:06:45.509096  2133 net.cpp:367] scale3d_branch2c -> res3d_branch2c (in-place)
I0629 04:06:45.509169  2133 layer_factory.hpp:77] Creating layer scale3d_branch2c
I0629 04:06:45.509343  2133 net.cpp:122] Setting up scale3d_branch2c
I0629 04:06:45.509361  2133 net.cpp:129] Top shape: 8 512 28 28 (3211264)
I0629 04:06:45.509366  2133 net.cpp:137] Memory required for data: 1347125408
I0629 04:06:45.509377  2133 layer_factory.hpp:77] Creating layer res3d
I0629 04:06:45.509387  2133 net.cpp:84] Creating Layer res3d
I0629 04:06:45.509407  2133 net.cpp:406] res3d <- res3c_res3c_relu_0_split_1
I0629 04:06:45.509418  2133 net.cpp:406] res3d <- res3d_branch2c
I0629 04:06:45.509430  2133 net.cpp:380] res3d -> res3d
I0629 04:06:45.509487  2133 net.cpp:122] Setting up res3d
I0629 04:06:45.509503  2133 net.cpp:129] Top shape: 8 512 28 28 (3211264)
I0629 04:06:45.509507  2133 net.cpp:137] Memory required for data: 1359970464
I0629 04:06:45.509512  2133 layer_factory.hpp:77] Creating layer res3d_relu
I0629 04:06:45.509529  2133 net.cpp:84] Creating Layer res3d_relu
I0629 04:06:45.509551  2133 net.cpp:406] res3d_relu <- res3d
I0629 04:06:45.509563  2133 net.cpp:367] res3d_relu -> res3d (in-place)
I0629 04:06:45.509852  2133 net.cpp:122] Setting up res3d_relu
I0629 04:06:45.509871  2133 net.cpp:129] Top shape: 8 512 28 28 (3211264)
I0629 04:06:45.509876  2133 net.cpp:137] Memory required for data: 1372815520
I0629 04:06:45.509881  2133 layer_factory.hpp:77] Creating layer res3d_res3d_relu_0_split
I0629 04:06:45.509891  2133 net.cpp:84] Creating Layer res3d_res3d_relu_0_split
I0629 04:06:45.509901  2133 net.cpp:406] res3d_res3d_relu_0_split <- res3d
I0629 04:06:45.509912  2133 net.cpp:380] res3d_res3d_relu_0_split -> res3d_res3d_relu_0_split_0
I0629 04:06:45.509938  2133 net.cpp:380] res3d_res3d_relu_0_split -> res3d_res3d_relu_0_split_1
I0629 04:06:45.510023  2133 net.cpp:122] Setting up res3d_res3d_relu_0_split
I0629 04:06:45.510040  2133 net.cpp:129] Top shape: 8 512 28 28 (3211264)
I0629 04:06:45.510046  2133 net.cpp:129] Top shape: 8 512 28 28 (3211264)
I0629 04:06:45.510052  2133 net.cpp:137] Memory required for data: 1398505632
I0629 04:06:45.510059  2133 layer_factory.hpp:77] Creating layer res4a_branch1
I0629 04:06:45.510076  2133 net.cpp:84] Creating Layer res4a_branch1
I0629 04:06:45.510095  2133 net.cpp:406] res4a_branch1 <- res3d_res3d_relu_0_split_0
I0629 04:06:45.510113  2133 net.cpp:380] res4a_branch1 -> res4a_branch1
I0629 04:06:45.512264  2133 net.cpp:122] Setting up res4a_branch1
I0629 04:06:45.512286  2133 net.cpp:129] Top shape: 8 1024 14 14 (1605632)
I0629 04:06:45.512291  2133 net.cpp:137] Memory required for data: 1404928160
I0629 04:06:45.512301  2133 layer_factory.hpp:77] Creating layer bn4a_branch1
I0629 04:06:45.512317  2133 net.cpp:84] Creating Layer bn4a_branch1
I0629 04:06:45.512336  2133 net.cpp:406] bn4a_branch1 <- res4a_branch1
I0629 04:06:45.512348  2133 net.cpp:367] bn4a_branch1 -> res4a_branch1 (in-place)
I0629 04:06:45.512612  2133 net.cpp:122] Setting up bn4a_branch1
I0629 04:06:45.512643  2133 net.cpp:129] Top shape: 8 1024 14 14 (1605632)
I0629 04:06:45.512648  2133 net.cpp:137] Memory required for data: 1411350688
I0629 04:06:45.512662  2133 layer_factory.hpp:77] Creating layer scale4a_branch1
I0629 04:06:45.512683  2133 net.cpp:84] Creating Layer scale4a_branch1
I0629 04:06:45.512696  2133 net.cpp:406] scale4a_branch1 <- res4a_branch1
I0629 04:06:45.512718  2133 net.cpp:367] scale4a_branch1 -> res4a_branch1 (in-place)
I0629 04:06:45.512800  2133 layer_factory.hpp:77] Creating layer scale4a_branch1
I0629 04:06:45.512979  2133 net.cpp:122] Setting up scale4a_branch1
I0629 04:06:45.512997  2133 net.cpp:129] Top shape: 8 1024 14 14 (1605632)
I0629 04:06:45.513002  2133 net.cpp:137] Memory required for data: 1417773216
I0629 04:06:45.513015  2133 layer_factory.hpp:77] Creating layer res4a_branch2a
I0629 04:06:45.513037  2133 net.cpp:84] Creating Layer res4a_branch2a
I0629 04:06:45.513056  2133 net.cpp:406] res4a_branch2a <- res3d_res3d_relu_0_split_1
I0629 04:06:45.513073  2133 net.cpp:380] res4a_branch2a -> res4a_branch2a
I0629 04:06:45.514114  2133 net.cpp:122] Setting up res4a_branch2a
I0629 04:06:45.514137  2133 net.cpp:129] Top shape: 8 256 14 14 (401408)
I0629 04:06:45.514143  2133 net.cpp:137] Memory required for data: 1419378848
I0629 04:06:45.514154  2133 layer_factory.hpp:77] Creating layer bn4a_branch2a
I0629 04:06:45.514170  2133 net.cpp:84] Creating Layer bn4a_branch2a
I0629 04:06:45.514189  2133 net.cpp:406] bn4a_branch2a <- res4a_branch2a
I0629 04:06:45.514201  2133 net.cpp:367] bn4a_branch2a -> res4a_branch2a (in-place)
I0629 04:06:45.514454  2133 net.cpp:122] Setting up bn4a_branch2a
I0629 04:06:45.514472  2133 net.cpp:129] Top shape: 8 256 14 14 (401408)
I0629 04:06:45.514477  2133 net.cpp:137] Memory required for data: 1420984480
I0629 04:06:45.514490  2133 layer_factory.hpp:77] Creating layer scale4a_branch2a
I0629 04:06:45.514509  2133 net.cpp:84] Creating Layer scale4a_branch2a
I0629 04:06:45.514528  2133 net.cpp:406] scale4a_branch2a <- res4a_branch2a
I0629 04:06:45.514539  2133 net.cpp:367] scale4a_branch2a -> res4a_branch2a (in-place)
I0629 04:06:45.514614  2133 layer_factory.hpp:77] Creating layer scale4a_branch2a
I0629 04:06:45.514791  2133 net.cpp:122] Setting up scale4a_branch2a
I0629 04:06:45.514812  2133 net.cpp:129] Top shape: 8 256 14 14 (401408)
I0629 04:06:45.514816  2133 net.cpp:137] Memory required for data: 1422590112
I0629 04:06:45.514830  2133 layer_factory.hpp:77] Creating layer res4a_branch2a_relu
I0629 04:06:45.514849  2133 net.cpp:84] Creating Layer res4a_branch2a_relu
I0629 04:06:45.514859  2133 net.cpp:406] res4a_branch2a_relu <- res4a_branch2a
I0629 04:06:45.514875  2133 net.cpp:367] res4a_branch2a_relu -> res4a_branch2a (in-place)
I0629 04:06:45.515069  2133 net.cpp:122] Setting up res4a_branch2a_relu
I0629 04:06:45.515087  2133 net.cpp:129] Top shape: 8 256 14 14 (401408)
I0629 04:06:45.515091  2133 net.cpp:137] Memory required for data: 1424195744
I0629 04:06:45.515097  2133 layer_factory.hpp:77] Creating layer res4a_branch2b
I0629 04:06:45.515116  2133 net.cpp:84] Creating Layer res4a_branch2b
I0629 04:06:45.515136  2133 net.cpp:406] res4a_branch2b <- res4a_branch2a
I0629 04:06:45.515149  2133 net.cpp:380] res4a_branch2b -> res4a_branch2b
I0629 04:06:45.517282  2133 net.cpp:122] Setting up res4a_branch2b
I0629 04:06:45.517304  2133 net.cpp:129] Top shape: 8 256 14 14 (401408)
I0629 04:06:45.517309  2133 net.cpp:137] Memory required for data: 1425801376
I0629 04:06:45.517320  2133 layer_factory.hpp:77] Creating layer bn4a_branch2b
I0629 04:06:45.517339  2133 net.cpp:84] Creating Layer bn4a_branch2b
I0629 04:06:45.517359  2133 net.cpp:406] bn4a_branch2b <- res4a_branch2b
I0629 04:06:45.517371  2133 net.cpp:367] bn4a_branch2b -> res4a_branch2b (in-place)
I0629 04:06:45.517622  2133 net.cpp:122] Setting up bn4a_branch2b
I0629 04:06:45.517640  2133 net.cpp:129] Top shape: 8 256 14 14 (401408)
I0629 04:06:45.517644  2133 net.cpp:137] Memory required for data: 1427407008
I0629 04:06:45.517658  2133 layer_factory.hpp:77] Creating layer scale4a_branch2b
I0629 04:06:45.517699  2133 net.cpp:84] Creating Layer scale4a_branch2b
I0629 04:06:45.517709  2133 net.cpp:406] scale4a_branch2b <- res4a_branch2b
I0629 04:06:45.517720  2133 net.cpp:367] scale4a_branch2b -> res4a_branch2b (in-place)
I0629 04:06:45.517812  2133 layer_factory.hpp:77] Creating layer scale4a_branch2b
I0629 04:06:45.517997  2133 net.cpp:122] Setting up scale4a_branch2b
I0629 04:06:45.518013  2133 net.cpp:129] Top shape: 8 256 14 14 (401408)
I0629 04:06:45.518018  2133 net.cpp:137] Memory required for data: 1429012640
I0629 04:06:45.518029  2133 layer_factory.hpp:77] Creating layer res4a_branch2b_relu
I0629 04:06:45.518041  2133 net.cpp:84] Creating Layer res4a_branch2b_relu
I0629 04:06:45.518059  2133 net.cpp:406] res4a_branch2b_relu <- res4a_branch2b
I0629 04:06:45.518074  2133 net.cpp:367] res4a_branch2b_relu -> res4a_branch2b (in-place)
I0629 04:06:45.518251  2133 net.cpp:122] Setting up res4a_branch2b_relu
I0629 04:06:45.518270  2133 net.cpp:129] Top shape: 8 256 14 14 (401408)
I0629 04:06:45.518273  2133 net.cpp:137] Memory required for data: 1430618272
I0629 04:06:45.518280  2133 layer_factory.hpp:77] Creating layer res4a_branch2c
I0629 04:06:45.518296  2133 net.cpp:84] Creating Layer res4a_branch2c
I0629 04:06:45.518314  2133 net.cpp:406] res4a_branch2c <- res4a_branch2b
I0629 04:06:45.518332  2133 net.cpp:380] res4a_branch2c -> res4a_branch2c
I0629 04:06:45.519878  2133 net.cpp:122] Setting up res4a_branch2c
I0629 04:06:45.519912  2133 net.cpp:129] Top shape: 8 1024 14 14 (1605632)
I0629 04:06:45.519928  2133 net.cpp:137] Memory required for data: 1437040800
I0629 04:06:45.519939  2133 layer_factory.hpp:77] Creating layer bn4a_branch2c
I0629 04:06:45.519955  2133 net.cpp:84] Creating Layer bn4a_branch2c
I0629 04:06:45.519973  2133 net.cpp:406] bn4a_branch2c <- res4a_branch2c
I0629 04:06:45.519986  2133 net.cpp:367] bn4a_branch2c -> res4a_branch2c (in-place)
I0629 04:06:45.520256  2133 net.cpp:122] Setting up bn4a_branch2c
I0629 04:06:45.520274  2133 net.cpp:129] Top shape: 8 1024 14 14 (1605632)
I0629 04:06:45.520278  2133 net.cpp:137] Memory required for data: 1443463328
I0629 04:06:45.520292  2133 layer_factory.hpp:77] Creating layer scale4a_branch2c
I0629 04:06:45.520316  2133 net.cpp:84] Creating Layer scale4a_branch2c
I0629 04:06:45.520334  2133 net.cpp:406] scale4a_branch2c <- res4a_branch2c
I0629 04:06:45.520347  2133 net.cpp:367] scale4a_branch2c -> res4a_branch2c (in-place)
I0629 04:06:45.520416  2133 layer_factory.hpp:77] Creating layer scale4a_branch2c
I0629 04:06:45.520601  2133 net.cpp:122] Setting up scale4a_branch2c
I0629 04:06:45.520618  2133 net.cpp:129] Top shape: 8 1024 14 14 (1605632)
I0629 04:06:45.520623  2133 net.cpp:137] Memory required for data: 1449885856
I0629 04:06:45.520634  2133 layer_factory.hpp:77] Creating layer res4a
I0629 04:06:45.520645  2133 net.cpp:84] Creating Layer res4a
I0629 04:06:45.520663  2133 net.cpp:406] res4a <- res4a_branch1
I0629 04:06:45.520673  2133 net.cpp:406] res4a <- res4a_branch2c
I0629 04:06:45.520687  2133 net.cpp:380] res4a -> res4a
I0629 04:06:45.520747  2133 net.cpp:122] Setting up res4a
I0629 04:06:45.520768  2133 net.cpp:129] Top shape: 8 1024 14 14 (1605632)
I0629 04:06:45.520774  2133 net.cpp:137] Memory required for data: 1456308384
I0629 04:06:45.520782  2133 layer_factory.hpp:77] Creating layer res4a_relu
I0629 04:06:45.520792  2133 net.cpp:84] Creating Layer res4a_relu
I0629 04:06:45.520802  2133 net.cpp:406] res4a_relu <- res4a
I0629 04:06:45.520814  2133 net.cpp:367] res4a_relu -> res4a (in-place)
I0629 04:06:45.521102  2133 net.cpp:122] Setting up res4a_relu
I0629 04:06:45.521124  2133 net.cpp:129] Top shape: 8 1024 14 14 (1605632)
I0629 04:06:45.521131  2133 net.cpp:137] Memory required for data: 1462730912
I0629 04:06:45.521138  2133 layer_factory.hpp:77] Creating layer res4a_res4a_relu_0_split
I0629 04:06:45.521169  2133 net.cpp:84] Creating Layer res4a_res4a_relu_0_split
I0629 04:06:45.521186  2133 net.cpp:406] res4a_res4a_relu_0_split <- res4a
I0629 04:06:45.521196  2133 net.cpp:380] res4a_res4a_relu_0_split -> res4a_res4a_relu_0_split_0
I0629 04:06:45.521239  2133 net.cpp:380] res4a_res4a_relu_0_split -> res4a_res4a_relu_0_split_1
I0629 04:06:45.521317  2133 net.cpp:122] Setting up res4a_res4a_relu_0_split
I0629 04:06:45.521334  2133 net.cpp:129] Top shape: 8 1024 14 14 (1605632)
I0629 04:06:45.521339  2133 net.cpp:129] Top shape: 8 1024 14 14 (1605632)
I0629 04:06:45.521347  2133 net.cpp:137] Memory required for data: 1475575968
I0629 04:06:45.521354  2133 layer_factory.hpp:77] Creating layer res4b_branch2a
I0629 04:06:45.521371  2133 net.cpp:84] Creating Layer res4b_branch2a
I0629 04:06:45.521390  2133 net.cpp:406] res4b_branch2a <- res4a_res4a_relu_0_split_0
I0629 04:06:45.521404  2133 net.cpp:380] res4b_branch2a -> res4b_branch2a
I0629 04:06:45.522954  2133 net.cpp:122] Setting up res4b_branch2a
I0629 04:06:45.522975  2133 net.cpp:129] Top shape: 8 256 14 14 (401408)
I0629 04:06:45.522980  2133 net.cpp:137] Memory required for data: 1477181600
I0629 04:06:45.522990  2133 layer_factory.hpp:77] Creating layer bn4b_branch2a
I0629 04:06:45.523002  2133 net.cpp:84] Creating Layer bn4b_branch2a
I0629 04:06:45.523020  2133 net.cpp:406] bn4b_branch2a <- res4b_branch2a
I0629 04:06:45.523036  2133 net.cpp:367] bn4b_branch2a -> res4b_branch2a (in-place)
I0629 04:06:45.523319  2133 net.cpp:122] Setting up bn4b_branch2a
I0629 04:06:45.523336  2133 net.cpp:129] Top shape: 8 256 14 14 (401408)
I0629 04:06:45.523340  2133 net.cpp:137] Memory required for data: 1478787232
I0629 04:06:45.523355  2133 layer_factory.hpp:77] Creating layer scale4b_branch2a
I0629 04:06:45.523370  2133 net.cpp:84] Creating Layer scale4b_branch2a
I0629 04:06:45.523386  2133 net.cpp:406] scale4b_branch2a <- res4b_branch2a
I0629 04:06:45.523397  2133 net.cpp:367] scale4b_branch2a -> res4b_branch2a (in-place)
I0629 04:06:45.523473  2133 layer_factory.hpp:77] Creating layer scale4b_branch2a
I0629 04:06:45.523655  2133 net.cpp:122] Setting up scale4b_branch2a
I0629 04:06:45.523672  2133 net.cpp:129] Top shape: 8 256 14 14 (401408)
I0629 04:06:45.523676  2133 net.cpp:137] Memory required for data: 1480392864
I0629 04:06:45.523686  2133 layer_factory.hpp:77] Creating layer res4b_branch2a_relu
I0629 04:06:45.523699  2133 net.cpp:84] Creating Layer res4b_branch2a_relu
I0629 04:06:45.523715  2133 net.cpp:406] res4b_branch2a_relu <- res4b_branch2a
I0629 04:06:45.523730  2133 net.cpp:367] res4b_branch2a_relu -> res4b_branch2a (in-place)
I0629 04:06:45.523922  2133 net.cpp:122] Setting up res4b_branch2a_relu
I0629 04:06:45.523941  2133 net.cpp:129] Top shape: 8 256 14 14 (401408)
I0629 04:06:45.523944  2133 net.cpp:137] Memory required for data: 1481998496
I0629 04:06:45.523949  2133 layer_factory.hpp:77] Creating layer res4b_branch2b
I0629 04:06:45.523967  2133 net.cpp:84] Creating Layer res4b_branch2b
I0629 04:06:45.523984  2133 net.cpp:406] res4b_branch2b <- res4b_branch2a
I0629 04:06:45.524001  2133 net.cpp:380] res4b_branch2b -> res4b_branch2b
I0629 04:06:45.526177  2133 net.cpp:122] Setting up res4b_branch2b
I0629 04:06:45.526199  2133 net.cpp:129] Top shape: 8 256 14 14 (401408)
I0629 04:06:45.526204  2133 net.cpp:137] Memory required for data: 1483604128
I0629 04:06:45.526216  2133 layer_factory.hpp:77] Creating layer bn4b_branch2b
I0629 04:06:45.526231  2133 net.cpp:84] Creating Layer bn4b_branch2b
I0629 04:06:45.526249  2133 net.cpp:406] bn4b_branch2b <- res4b_branch2b
I0629 04:06:45.526262  2133 net.cpp:367] bn4b_branch2b -> res4b_branch2b (in-place)
I0629 04:06:45.526517  2133 net.cpp:122] Setting up bn4b_branch2b
I0629 04:06:45.526535  2133 net.cpp:129] Top shape: 8 256 14 14 (401408)
I0629 04:06:45.526540  2133 net.cpp:137] Memory required for data: 1485209760
I0629 04:06:45.526552  2133 layer_factory.hpp:77] Creating layer scale4b_branch2b
I0629 04:06:45.526571  2133 net.cpp:84] Creating Layer scale4b_branch2b
I0629 04:06:45.526588  2133 net.cpp:406] scale4b_branch2b <- res4b_branch2b
I0629 04:06:45.526602  2133 net.cpp:367] scale4b_branch2b -> res4b_branch2b (in-place)
I0629 04:06:45.526674  2133 layer_factory.hpp:77] Creating layer scale4b_branch2b
I0629 04:06:45.526850  2133 net.cpp:122] Setting up scale4b_branch2b
I0629 04:06:45.526880  2133 net.cpp:129] Top shape: 8 256 14 14 (401408)
I0629 04:06:45.526885  2133 net.cpp:137] Memory required for data: 1486815392
I0629 04:06:45.526896  2133 layer_factory.hpp:77] Creating layer res4b_branch2b_relu
I0629 04:06:45.526907  2133 net.cpp:84] Creating Layer res4b_branch2b_relu
I0629 04:06:45.526924  2133 net.cpp:406] res4b_branch2b_relu <- res4b_branch2b
I0629 04:06:45.526938  2133 net.cpp:367] res4b_branch2b_relu -> res4b_branch2b (in-place)
I0629 04:06:45.527113  2133 net.cpp:122] Setting up res4b_branch2b_relu
I0629 04:06:45.527132  2133 net.cpp:129] Top shape: 8 256 14 14 (401408)
I0629 04:06:45.527137  2133 net.cpp:137] Memory required for data: 1488421024
I0629 04:06:45.527143  2133 layer_factory.hpp:77] Creating layer res4b_branch2c
I0629 04:06:45.527161  2133 net.cpp:84] Creating Layer res4b_branch2c
I0629 04:06:45.527179  2133 net.cpp:406] res4b_branch2c <- res4b_branch2b
I0629 04:06:45.527191  2133 net.cpp:380] res4b_branch2c -> res4b_branch2c
I0629 04:06:45.528746  2133 net.cpp:122] Setting up res4b_branch2c
I0629 04:06:45.528767  2133 net.cpp:129] Top shape: 8 1024 14 14 (1605632)
I0629 04:06:45.528772  2133 net.cpp:137] Memory required for data: 1494843552
I0629 04:06:45.528782  2133 layer_factory.hpp:77] Creating layer bn4b_branch2c
I0629 04:06:45.528798  2133 net.cpp:84] Creating Layer bn4b_branch2c
I0629 04:06:45.528816  2133 net.cpp:406] bn4b_branch2c <- res4b_branch2c
I0629 04:06:45.528827  2133 net.cpp:367] bn4b_branch2c -> res4b_branch2c (in-place)
I0629 04:06:45.529093  2133 net.cpp:122] Setting up bn4b_branch2c
I0629 04:06:45.529111  2133 net.cpp:129] Top shape: 8 1024 14 14 (1605632)
I0629 04:06:45.529116  2133 net.cpp:137] Memory required for data: 1501266080
I0629 04:06:45.529132  2133 layer_factory.hpp:77] Creating layer scale4b_branch2c
I0629 04:06:45.529152  2133 net.cpp:84] Creating Layer scale4b_branch2c
I0629 04:06:45.529162  2133 net.cpp:406] scale4b_branch2c <- res4b_branch2c
I0629 04:06:45.529173  2133 net.cpp:367] scale4b_branch2c -> res4b_branch2c (in-place)
I0629 04:06:45.529260  2133 layer_factory.hpp:77] Creating layer scale4b_branch2c
I0629 04:06:45.529443  2133 net.cpp:122] Setting up scale4b_branch2c
I0629 04:06:45.529461  2133 net.cpp:129] Top shape: 8 1024 14 14 (1605632)
I0629 04:06:45.529465  2133 net.cpp:137] Memory required for data: 1507688608
I0629 04:06:45.529476  2133 layer_factory.hpp:77] Creating layer res4b
I0629 04:06:45.529492  2133 net.cpp:84] Creating Layer res4b
I0629 04:06:45.529508  2133 net.cpp:406] res4b <- res4a_res4a_relu_0_split_1
I0629 04:06:45.529516  2133 net.cpp:406] res4b <- res4b_branch2c
I0629 04:06:45.529526  2133 net.cpp:380] res4b -> res4b
I0629 04:06:45.529589  2133 net.cpp:122] Setting up res4b
I0629 04:06:45.529606  2133 net.cpp:129] Top shape: 8 1024 14 14 (1605632)
I0629 04:06:45.529610  2133 net.cpp:137] Memory required for data: 1514111136
I0629 04:06:45.529616  2133 layer_factory.hpp:77] Creating layer res4b_relu
I0629 04:06:45.529628  2133 net.cpp:84] Creating Layer res4b_relu
I0629 04:06:45.529635  2133 net.cpp:406] res4b_relu <- res4b
I0629 04:06:45.529646  2133 net.cpp:367] res4b_relu -> res4b (in-place)
I0629 04:06:45.529943  2133 net.cpp:122] Setting up res4b_relu
I0629 04:06:45.529963  2133 net.cpp:129] Top shape: 8 1024 14 14 (1605632)
I0629 04:06:45.529968  2133 net.cpp:137] Memory required for data: 1520533664
I0629 04:06:45.529973  2133 layer_factory.hpp:77] Creating layer res4b_res4b_relu_0_split
I0629 04:06:45.529988  2133 net.cpp:84] Creating Layer res4b_res4b_relu_0_split
I0629 04:06:45.529999  2133 net.cpp:406] res4b_res4b_relu_0_split <- res4b
I0629 04:06:45.530012  2133 net.cpp:380] res4b_res4b_relu_0_split -> res4b_res4b_relu_0_split_0
I0629 04:06:45.530033  2133 net.cpp:380] res4b_res4b_relu_0_split -> res4b_res4b_relu_0_split_1
I0629 04:06:45.530109  2133 net.cpp:122] Setting up res4b_res4b_relu_0_split
I0629 04:06:45.530127  2133 net.cpp:129] Top shape: 8 1024 14 14 (1605632)
I0629 04:06:45.530131  2133 net.cpp:129] Top shape: 8 1024 14 14 (1605632)
I0629 04:06:45.530166  2133 net.cpp:137] Memory required for data: 1533378720
I0629 04:06:45.530176  2133 layer_factory.hpp:77] Creating layer res4c_branch2a
I0629 04:06:45.530194  2133 net.cpp:84] Creating Layer res4c_branch2a
I0629 04:06:45.530211  2133 net.cpp:406] res4c_branch2a <- res4b_res4b_relu_0_split_0
I0629 04:06:45.530221  2133 net.cpp:380] res4c_branch2a -> res4c_branch2a
I0629 04:06:45.531785  2133 net.cpp:122] Setting up res4c_branch2a
I0629 04:06:45.531807  2133 net.cpp:129] Top shape: 8 256 14 14 (401408)
I0629 04:06:45.531812  2133 net.cpp:137] Memory required for data: 1534984352
I0629 04:06:45.531822  2133 layer_factory.hpp:77] Creating layer bn4c_branch2a
I0629 04:06:45.531834  2133 net.cpp:84] Creating Layer bn4c_branch2a
I0629 04:06:45.531852  2133 net.cpp:406] bn4c_branch2a <- res4c_branch2a
I0629 04:06:45.531867  2133 net.cpp:367] bn4c_branch2a -> res4c_branch2a (in-place)
I0629 04:06:45.532155  2133 net.cpp:122] Setting up bn4c_branch2a
I0629 04:06:45.532172  2133 net.cpp:129] Top shape: 8 256 14 14 (401408)
I0629 04:06:45.532176  2133 net.cpp:137] Memory required for data: 1536589984
I0629 04:06:45.532189  2133 layer_factory.hpp:77] Creating layer scale4c_branch2a
I0629 04:06:45.532204  2133 net.cpp:84] Creating Layer scale4c_branch2a
I0629 04:06:45.532222  2133 net.cpp:406] scale4c_branch2a <- res4c_branch2a
I0629 04:06:45.532232  2133 net.cpp:367] scale4c_branch2a -> res4c_branch2a (in-place)
I0629 04:06:45.532306  2133 layer_factory.hpp:77] Creating layer scale4c_branch2a
I0629 04:06:45.532486  2133 net.cpp:122] Setting up scale4c_branch2a
I0629 04:06:45.532503  2133 net.cpp:129] Top shape: 8 256 14 14 (401408)
I0629 04:06:45.532507  2133 net.cpp:137] Memory required for data: 1538195616
I0629 04:06:45.532519  2133 layer_factory.hpp:77] Creating layer res4c_branch2a_relu
I0629 04:06:45.532536  2133 net.cpp:84] Creating Layer res4c_branch2a_relu
I0629 04:06:45.532552  2133 net.cpp:406] res4c_branch2a_relu <- res4c_branch2a
I0629 04:06:45.532563  2133 net.cpp:367] res4c_branch2a_relu -> res4c_branch2a (in-place)
I0629 04:06:45.532750  2133 net.cpp:122] Setting up res4c_branch2a_relu
I0629 04:06:45.532768  2133 net.cpp:129] Top shape: 8 256 14 14 (401408)
I0629 04:06:45.532771  2133 net.cpp:137] Memory required for data: 1539801248
I0629 04:06:45.532778  2133 layer_factory.hpp:77] Creating layer res4c_branch2b
I0629 04:06:45.532795  2133 net.cpp:84] Creating Layer res4c_branch2b
I0629 04:06:45.532812  2133 net.cpp:406] res4c_branch2b <- res4c_branch2a
I0629 04:06:45.532829  2133 net.cpp:380] res4c_branch2b -> res4c_branch2b
I0629 04:06:45.535080  2133 net.cpp:122] Setting up res4c_branch2b
I0629 04:06:45.535101  2133 net.cpp:129] Top shape: 8 256 14 14 (401408)
I0629 04:06:45.535106  2133 net.cpp:137] Memory required for data: 1541406880
I0629 04:06:45.535116  2133 layer_factory.hpp:77] Creating layer bn4c_branch2b
I0629 04:06:45.535128  2133 net.cpp:84] Creating Layer bn4c_branch2b
I0629 04:06:45.535146  2133 net.cpp:406] bn4c_branch2b <- res4c_branch2b
I0629 04:06:45.535162  2133 net.cpp:367] bn4c_branch2b -> res4c_branch2b (in-place)
I0629 04:06:45.535445  2133 net.cpp:122] Setting up bn4c_branch2b
I0629 04:06:45.535464  2133 net.cpp:129] Top shape: 8 256 14 14 (401408)
I0629 04:06:45.535467  2133 net.cpp:137] Memory required for data: 1543012512
I0629 04:06:45.535481  2133 layer_factory.hpp:77] Creating layer scale4c_branch2b
I0629 04:06:45.535496  2133 net.cpp:84] Creating Layer scale4c_branch2b
I0629 04:06:45.535513  2133 net.cpp:406] scale4c_branch2b <- res4c_branch2b
I0629 04:06:45.535524  2133 net.cpp:367] scale4c_branch2b -> res4c_branch2b (in-place)
I0629 04:06:45.535600  2133 layer_factory.hpp:77] Creating layer scale4c_branch2b
I0629 04:06:45.535784  2133 net.cpp:122] Setting up scale4c_branch2b
I0629 04:06:45.535801  2133 net.cpp:129] Top shape: 8 256 14 14 (401408)
I0629 04:06:45.535805  2133 net.cpp:137] Memory required for data: 1544618144
I0629 04:06:45.535816  2133 layer_factory.hpp:77] Creating layer res4c_branch2b_relu
I0629 04:06:45.535827  2133 net.cpp:84] Creating Layer res4c_branch2b_relu
I0629 04:06:45.535873  2133 net.cpp:406] res4c_branch2b_relu <- res4c_branch2b
I0629 04:06:45.535887  2133 net.cpp:367] res4c_branch2b_relu -> res4c_branch2b (in-place)
I0629 04:06:45.536067  2133 net.cpp:122] Setting up res4c_branch2b_relu
I0629 04:06:45.536085  2133 net.cpp:129] Top shape: 8 256 14 14 (401408)
I0629 04:06:45.536089  2133 net.cpp:137] Memory required for data: 1546223776
I0629 04:06:45.536095  2133 layer_factory.hpp:77] Creating layer res4c_branch2c
I0629 04:06:45.536113  2133 net.cpp:84] Creating Layer res4c_branch2c
I0629 04:06:45.536130  2133 net.cpp:406] res4c_branch2c <- res4c_branch2b
I0629 04:06:45.536147  2133 net.cpp:380] res4c_branch2c -> res4c_branch2c
I0629 04:06:45.537729  2133 net.cpp:122] Setting up res4c_branch2c
I0629 04:06:45.537750  2133 net.cpp:129] Top shape: 8 1024 14 14 (1605632)
I0629 04:06:45.537755  2133 net.cpp:137] Memory required for data: 1552646304
I0629 04:06:45.537765  2133 layer_factory.hpp:77] Creating layer bn4c_branch2c
I0629 04:06:45.537781  2133 net.cpp:84] Creating Layer bn4c_branch2c
I0629 04:06:45.537798  2133 net.cpp:406] bn4c_branch2c <- res4c_branch2c
I0629 04:06:45.537811  2133 net.cpp:367] bn4c_branch2c -> res4c_branch2c (in-place)
I0629 04:06:45.538085  2133 net.cpp:122] Setting up bn4c_branch2c
I0629 04:06:45.538103  2133 net.cpp:129] Top shape: 8 1024 14 14 (1605632)
I0629 04:06:45.538107  2133 net.cpp:137] Memory required for data: 1559068832
I0629 04:06:45.538121  2133 layer_factory.hpp:77] Creating layer scale4c_branch2c
I0629 04:06:45.538136  2133 net.cpp:84] Creating Layer scale4c_branch2c
I0629 04:06:45.538152  2133 net.cpp:406] scale4c_branch2c <- res4c_branch2c
I0629 04:06:45.538163  2133 net.cpp:367] scale4c_branch2c -> res4c_branch2c (in-place)
I0629 04:06:45.538234  2133 layer_factory.hpp:77] Creating layer scale4c_branch2c
I0629 04:06:45.538427  2133 net.cpp:122] Setting up scale4c_branch2c
I0629 04:06:45.538444  2133 net.cpp:129] Top shape: 8 1024 14 14 (1605632)
I0629 04:06:45.538449  2133 net.cpp:137] Memory required for data: 1565491360
I0629 04:06:45.538460  2133 layer_factory.hpp:77] Creating layer res4c
I0629 04:06:45.538475  2133 net.cpp:84] Creating Layer res4c
I0629 04:06:45.538491  2133 net.cpp:406] res4c <- res4b_res4b_relu_0_split_1
I0629 04:06:45.538501  2133 net.cpp:406] res4c <- res4c_branch2c
I0629 04:06:45.538511  2133 net.cpp:380] res4c -> res4c
I0629 04:06:45.538563  2133 net.cpp:122] Setting up res4c
I0629 04:06:45.538584  2133 net.cpp:129] Top shape: 8 1024 14 14 (1605632)
I0629 04:06:45.538591  2133 net.cpp:137] Memory required for data: 1571913888
I0629 04:06:45.538599  2133 layer_factory.hpp:77] Creating layer res4c_relu
I0629 04:06:45.538609  2133 net.cpp:84] Creating Layer res4c_relu
I0629 04:06:45.538625  2133 net.cpp:406] res4c_relu <- res4c
I0629 04:06:45.538640  2133 net.cpp:367] res4c_relu -> res4c (in-place)
I0629 04:06:45.538928  2133 net.cpp:122] Setting up res4c_relu
I0629 04:06:45.538946  2133 net.cpp:129] Top shape: 8 1024 14 14 (1605632)
I0629 04:06:45.538951  2133 net.cpp:137] Memory required for data: 1578336416
I0629 04:06:45.538957  2133 layer_factory.hpp:77] Creating layer res4c_res4c_relu_0_split
I0629 04:06:45.538967  2133 net.cpp:84] Creating Layer res4c_res4c_relu_0_split
I0629 04:06:45.538976  2133 net.cpp:406] res4c_res4c_relu_0_split <- res4c
I0629 04:06:45.538991  2133 net.cpp:380] res4c_res4c_relu_0_split -> res4c_res4c_relu_0_split_0
I0629 04:06:45.539014  2133 net.cpp:380] res4c_res4c_relu_0_split -> res4c_res4c_relu_0_split_1
I0629 04:06:45.539089  2133 net.cpp:122] Setting up res4c_res4c_relu_0_split
I0629 04:06:45.539106  2133 net.cpp:129] Top shape: 8 1024 14 14 (1605632)
I0629 04:06:45.539113  2133 net.cpp:129] Top shape: 8 1024 14 14 (1605632)
I0629 04:06:45.539117  2133 net.cpp:137] Memory required for data: 1591181472
I0629 04:06:45.539125  2133 layer_factory.hpp:77] Creating layer res4d_branch2a
I0629 04:06:45.539147  2133 net.cpp:84] Creating Layer res4d_branch2a
I0629 04:06:45.539163  2133 net.cpp:406] res4d_branch2a <- res4c_res4c_relu_0_split_0
I0629 04:06:45.539198  2133 net.cpp:380] res4d_branch2a -> res4d_branch2a
I0629 04:06:45.540779  2133 net.cpp:122] Setting up res4d_branch2a
I0629 04:06:45.540803  2133 net.cpp:129] Top shape: 8 256 14 14 (401408)
I0629 04:06:45.540809  2133 net.cpp:137] Memory required for data: 1592787104
I0629 04:06:45.540820  2133 layer_factory.hpp:77] Creating layer bn4d_branch2a
I0629 04:06:45.540841  2133 net.cpp:84] Creating Layer bn4d_branch2a
I0629 04:06:45.540858  2133 net.cpp:406] bn4d_branch2a <- res4d_branch2a
I0629 04:06:45.540870  2133 net.cpp:367] bn4d_branch2a -> res4d_branch2a (in-place)
I0629 04:06:45.541162  2133 net.cpp:122] Setting up bn4d_branch2a
I0629 04:06:45.541178  2133 net.cpp:129] Top shape: 8 256 14 14 (401408)
I0629 04:06:45.541183  2133 net.cpp:137] Memory required for data: 1594392736
I0629 04:06:45.541198  2133 layer_factory.hpp:77] Creating layer scale4d_branch2a
I0629 04:06:45.541220  2133 net.cpp:84] Creating Layer scale4d_branch2a
I0629 04:06:45.541229  2133 net.cpp:406] scale4d_branch2a <- res4d_branch2a
I0629 04:06:45.541249  2133 net.cpp:367] scale4d_branch2a -> res4d_branch2a (in-place)
I0629 04:06:45.541332  2133 layer_factory.hpp:77] Creating layer scale4d_branch2a
I0629 04:06:45.541520  2133 net.cpp:122] Setting up scale4d_branch2a
I0629 04:06:45.541538  2133 net.cpp:129] Top shape: 8 256 14 14 (401408)
I0629 04:06:45.541543  2133 net.cpp:137] Memory required for data: 1595998368
I0629 04:06:45.541554  2133 layer_factory.hpp:77] Creating layer res4d_branch2a_relu
I0629 04:06:45.541576  2133 net.cpp:84] Creating Layer res4d_branch2a_relu
I0629 04:06:45.541594  2133 net.cpp:406] res4d_branch2a_relu <- res4d_branch2a
I0629 04:06:45.541605  2133 net.cpp:367] res4d_branch2a_relu -> res4d_branch2a (in-place)
I0629 04:06:45.541800  2133 net.cpp:122] Setting up res4d_branch2a_relu
I0629 04:06:45.541817  2133 net.cpp:129] Top shape: 8 256 14 14 (401408)
I0629 04:06:45.541822  2133 net.cpp:137] Memory required for data: 1597604000
I0629 04:06:45.541829  2133 layer_factory.hpp:77] Creating layer res4d_branch2b
I0629 04:06:45.541846  2133 net.cpp:84] Creating Layer res4d_branch2b
I0629 04:06:45.541864  2133 net.cpp:406] res4d_branch2b <- res4d_branch2a
I0629 04:06:45.541875  2133 net.cpp:380] res4d_branch2b -> res4d_branch2b
I0629 04:06:45.544049  2133 net.cpp:122] Setting up res4d_branch2b
I0629 04:06:45.544071  2133 net.cpp:129] Top shape: 8 256 14 14 (401408)
I0629 04:06:45.544075  2133 net.cpp:137] Memory required for data: 1599209632
I0629 04:06:45.544083  2133 layer_factory.hpp:77] Creating layer bn4d_branch2b
I0629 04:06:45.544097  2133 net.cpp:84] Creating Layer bn4d_branch2b
I0629 04:06:45.544116  2133 net.cpp:406] bn4d_branch2b <- res4d_branch2b
I0629 04:06:45.544128  2133 net.cpp:367] bn4d_branch2b -> res4d_branch2b (in-place)
I0629 04:06:45.544404  2133 net.cpp:122] Setting up bn4d_branch2b
I0629 04:06:45.544421  2133 net.cpp:129] Top shape: 8 256 14 14 (401408)
I0629 04:06:45.544425  2133 net.cpp:137] Memory required for data: 1600815264
I0629 04:06:45.544440  2133 layer_factory.hpp:77] Creating layer scale4d_branch2b
I0629 04:06:45.544458  2133 net.cpp:84] Creating Layer scale4d_branch2b
I0629 04:06:45.544476  2133 net.cpp:406] scale4d_branch2b <- res4d_branch2b
I0629 04:06:45.544484  2133 net.cpp:367] scale4d_branch2b -> res4d_branch2b (in-place)
I0629 04:06:45.544562  2133 layer_factory.hpp:77] Creating layer scale4d_branch2b
I0629 04:06:45.544752  2133 net.cpp:122] Setting up scale4d_branch2b
I0629 04:06:45.544770  2133 net.cpp:129] Top shape: 8 256 14 14 (401408)
I0629 04:06:45.544773  2133 net.cpp:137] Memory required for data: 1602420896
I0629 04:06:45.544785  2133 layer_factory.hpp:77] Creating layer res4d_branch2b_relu
I0629 04:06:45.544797  2133 net.cpp:84] Creating Layer res4d_branch2b_relu
I0629 04:06:45.544814  2133 net.cpp:406] res4d_branch2b_relu <- res4d_branch2b
I0629 04:06:45.544827  2133 net.cpp:367] res4d_branch2b_relu -> res4d_branch2b (in-place)
I0629 04:06:45.545006  2133 net.cpp:122] Setting up res4d_branch2b_relu
I0629 04:06:45.545023  2133 net.cpp:129] Top shape: 8 256 14 14 (401408)
I0629 04:06:45.545048  2133 net.cpp:137] Memory required for data: 1604026528
I0629 04:06:45.545058  2133 layer_factory.hpp:77] Creating layer res4d_branch2c
I0629 04:06:45.545076  2133 net.cpp:84] Creating Layer res4d_branch2c
I0629 04:06:45.545092  2133 net.cpp:406] res4d_branch2c <- res4d_branch2b
I0629 04:06:45.545107  2133 net.cpp:380] res4d_branch2c -> res4d_branch2c
I0629 04:06:45.546675  2133 net.cpp:122] Setting up res4d_branch2c
I0629 04:06:45.546696  2133 net.cpp:129] Top shape: 8 1024 14 14 (1605632)
I0629 04:06:45.546700  2133 net.cpp:137] Memory required for data: 1610449056
I0629 04:06:45.546710  2133 layer_factory.hpp:77] Creating layer bn4d_branch2c
I0629 04:06:45.546726  2133 net.cpp:84] Creating Layer bn4d_branch2c
I0629 04:06:45.546744  2133 net.cpp:406] bn4d_branch2c <- res4d_branch2c
I0629 04:06:45.546756  2133 net.cpp:367] bn4d_branch2c -> res4d_branch2c (in-place)
I0629 04:06:45.547032  2133 net.cpp:122] Setting up bn4d_branch2c
I0629 04:06:45.547050  2133 net.cpp:129] Top shape: 8 1024 14 14 (1605632)
I0629 04:06:45.547055  2133 net.cpp:137] Memory required for data: 1616871584
I0629 04:06:45.547067  2133 layer_factory.hpp:77] Creating layer scale4d_branch2c
I0629 04:06:45.547085  2133 net.cpp:84] Creating Layer scale4d_branch2c
I0629 04:06:45.547101  2133 net.cpp:406] scale4d_branch2c <- res4d_branch2c
I0629 04:06:45.547109  2133 net.cpp:367] scale4d_branch2c -> res4d_branch2c (in-place)
I0629 04:06:45.547183  2133 layer_factory.hpp:77] Creating layer scale4d_branch2c
I0629 04:06:45.547375  2133 net.cpp:122] Setting up scale4d_branch2c
I0629 04:06:45.547394  2133 net.cpp:129] Top shape: 8 1024 14 14 (1605632)
I0629 04:06:45.547397  2133 net.cpp:137] Memory required for data: 1623294112
I0629 04:06:45.547408  2133 layer_factory.hpp:77] Creating layer res4d
I0629 04:06:45.547425  2133 net.cpp:84] Creating Layer res4d
I0629 04:06:45.547441  2133 net.cpp:406] res4d <- res4c_res4c_relu_0_split_1
I0629 04:06:45.547452  2133 net.cpp:406] res4d <- res4d_branch2c
I0629 04:06:45.547464  2133 net.cpp:380] res4d -> res4d
I0629 04:06:45.547521  2133 net.cpp:122] Setting up res4d
I0629 04:06:45.547538  2133 net.cpp:129] Top shape: 8 1024 14 14 (1605632)
I0629 04:06:45.547541  2133 net.cpp:137] Memory required for data: 1629716640
I0629 04:06:45.547546  2133 layer_factory.hpp:77] Creating layer res4d_relu
I0629 04:06:45.547556  2133 net.cpp:84] Creating Layer res4d_relu
I0629 04:06:45.547565  2133 net.cpp:406] res4d_relu <- res4d
I0629 04:06:45.547579  2133 net.cpp:367] res4d_relu -> res4d (in-place)
I0629 04:06:45.547875  2133 net.cpp:122] Setting up res4d_relu
I0629 04:06:45.547906  2133 net.cpp:129] Top shape: 8 1024 14 14 (1605632)
I0629 04:06:45.547921  2133 net.cpp:137] Memory required for data: 1636139168
I0629 04:06:45.547930  2133 layer_factory.hpp:77] Creating layer res4d_res4d_relu_0_split
I0629 04:06:45.547945  2133 net.cpp:84] Creating Layer res4d_res4d_relu_0_split
I0629 04:06:45.547961  2133 net.cpp:406] res4d_res4d_relu_0_split <- res4d
I0629 04:06:45.547976  2133 net.cpp:380] res4d_res4d_relu_0_split -> res4d_res4d_relu_0_split_0
I0629 04:06:45.547988  2133 net.cpp:380] res4d_res4d_relu_0_split -> res4d_res4d_relu_0_split_1
I0629 04:06:45.548080  2133 net.cpp:122] Setting up res4d_res4d_relu_0_split
I0629 04:06:45.548097  2133 net.cpp:129] Top shape: 8 1024 14 14 (1605632)
I0629 04:06:45.548104  2133 net.cpp:129] Top shape: 8 1024 14 14 (1605632)
I0629 04:06:45.548108  2133 net.cpp:137] Memory required for data: 1648984224
I0629 04:06:45.548116  2133 layer_factory.hpp:77] Creating layer res4e_branch2a
I0629 04:06:45.548135  2133 net.cpp:84] Creating Layer res4e_branch2a
I0629 04:06:45.548151  2133 net.cpp:406] res4e_branch2a <- res4d_res4d_relu_0_split_0
I0629 04:06:45.548161  2133 net.cpp:380] res4e_branch2a -> res4e_branch2a
I0629 04:06:45.549744  2133 net.cpp:122] Setting up res4e_branch2a
I0629 04:06:45.549764  2133 net.cpp:129] Top shape: 8 256 14 14 (401408)
I0629 04:06:45.549769  2133 net.cpp:137] Memory required for data: 1650589856
I0629 04:06:45.549779  2133 layer_factory.hpp:77] Creating layer bn4e_branch2a
I0629 04:06:45.549820  2133 net.cpp:84] Creating Layer bn4e_branch2a
I0629 04:06:45.549832  2133 net.cpp:406] bn4e_branch2a <- res4e_branch2a
I0629 04:06:45.549851  2133 net.cpp:367] bn4e_branch2a -> res4e_branch2a (in-place)
I0629 04:06:45.550138  2133 net.cpp:122] Setting up bn4e_branch2a
I0629 04:06:45.550156  2133 net.cpp:129] Top shape: 8 256 14 14 (401408)
I0629 04:06:45.550160  2133 net.cpp:137] Memory required for data: 1652195488
I0629 04:06:45.550174  2133 layer_factory.hpp:77] Creating layer scale4e_branch2a
I0629 04:06:45.550189  2133 net.cpp:84] Creating Layer scale4e_branch2a
I0629 04:06:45.550205  2133 net.cpp:406] scale4e_branch2a <- res4e_branch2a
I0629 04:06:45.550220  2133 net.cpp:367] scale4e_branch2a -> res4e_branch2a (in-place)
I0629 04:06:45.550294  2133 layer_factory.hpp:77] Creating layer scale4e_branch2a
I0629 04:06:45.550482  2133 net.cpp:122] Setting up scale4e_branch2a
I0629 04:06:45.550498  2133 net.cpp:129] Top shape: 8 256 14 14 (401408)
I0629 04:06:45.550503  2133 net.cpp:137] Memory required for data: 1653801120
I0629 04:06:45.550514  2133 layer_factory.hpp:77] Creating layer res4e_branch2a_relu
I0629 04:06:45.550529  2133 net.cpp:84] Creating Layer res4e_branch2a_relu
I0629 04:06:45.550546  2133 net.cpp:406] res4e_branch2a_relu <- res4e_branch2a
I0629 04:06:45.550555  2133 net.cpp:367] res4e_branch2a_relu -> res4e_branch2a (in-place)
I0629 04:06:45.550745  2133 net.cpp:122] Setting up res4e_branch2a_relu
I0629 04:06:45.550763  2133 net.cpp:129] Top shape: 8 256 14 14 (401408)
I0629 04:06:45.550767  2133 net.cpp:137] Memory required for data: 1655406752
I0629 04:06:45.550773  2133 layer_factory.hpp:77] Creating layer res4e_branch2b
I0629 04:06:45.550791  2133 net.cpp:84] Creating Layer res4e_branch2b
I0629 04:06:45.550809  2133 net.cpp:406] res4e_branch2b <- res4e_branch2a
I0629 04:06:45.550822  2133 net.cpp:380] res4e_branch2b -> res4e_branch2b
I0629 04:06:45.553158  2133 net.cpp:122] Setting up res4e_branch2b
I0629 04:06:45.553179  2133 net.cpp:129] Top shape: 8 256 14 14 (401408)
I0629 04:06:45.553184  2133 net.cpp:137] Memory required for data: 1657012384
I0629 04:06:45.553194  2133 layer_factory.hpp:77] Creating layer bn4e_branch2b
I0629 04:06:45.553210  2133 net.cpp:84] Creating Layer bn4e_branch2b
I0629 04:06:45.553228  2133 net.cpp:406] bn4e_branch2b <- res4e_branch2b
I0629 04:06:45.553239  2133 net.cpp:367] bn4e_branch2b -> res4e_branch2b (in-place)
I0629 04:06:45.553519  2133 net.cpp:122] Setting up bn4e_branch2b
I0629 04:06:45.553536  2133 net.cpp:129] Top shape: 8 256 14 14 (401408)
I0629 04:06:45.553540  2133 net.cpp:137] Memory required for data: 1658618016
I0629 04:06:45.553555  2133 layer_factory.hpp:77] Creating layer scale4e_branch2b
I0629 04:06:45.553570  2133 net.cpp:84] Creating Layer scale4e_branch2b
I0629 04:06:45.553586  2133 net.cpp:406] scale4e_branch2b <- res4e_branch2b
I0629 04:06:45.553597  2133 net.cpp:367] scale4e_branch2b -> res4e_branch2b (in-place)
I0629 04:06:45.553675  2133 layer_factory.hpp:77] Creating layer scale4e_branch2b
I0629 04:06:45.553869  2133 net.cpp:122] Setting up scale4e_branch2b
I0629 04:06:45.553886  2133 net.cpp:129] Top shape: 8 256 14 14 (401408)
I0629 04:06:45.553890  2133 net.cpp:137] Memory required for data: 1660223648
I0629 04:06:45.553901  2133 layer_factory.hpp:77] Creating layer res4e_branch2b_relu
I0629 04:06:45.553913  2133 net.cpp:84] Creating Layer res4e_branch2b_relu
I0629 04:06:45.553932  2133 net.cpp:406] res4e_branch2b_relu <- res4e_branch2b
I0629 04:06:45.553943  2133 net.cpp:367] res4e_branch2b_relu -> res4e_branch2b (in-place)
I0629 04:06:45.554132  2133 net.cpp:122] Setting up res4e_branch2b_relu
I0629 04:06:45.554153  2133 net.cpp:129] Top shape: 8 256 14 14 (401408)
I0629 04:06:45.554158  2133 net.cpp:137] Memory required for data: 1661829280
I0629 04:06:45.554167  2133 layer_factory.hpp:77] Creating layer res4e_branch2c
I0629 04:06:45.554180  2133 net.cpp:84] Creating Layer res4e_branch2c
I0629 04:06:45.554198  2133 net.cpp:406] res4e_branch2c <- res4e_branch2b
I0629 04:06:45.554240  2133 net.cpp:380] res4e_branch2c -> res4e_branch2c
I0629 04:06:45.555852  2133 net.cpp:122] Setting up res4e_branch2c
I0629 04:06:45.555872  2133 net.cpp:129] Top shape: 8 1024 14 14 (1605632)
I0629 04:06:45.555877  2133 net.cpp:137] Memory required for data: 1668251808
I0629 04:06:45.555887  2133 layer_factory.hpp:77] Creating layer bn4e_branch2c
I0629 04:06:45.555923  2133 net.cpp:84] Creating Layer bn4e_branch2c
I0629 04:06:45.555938  2133 net.cpp:406] bn4e_branch2c <- res4e_branch2c
I0629 04:06:45.555949  2133 net.cpp:367] bn4e_branch2c -> res4e_branch2c (in-place)
I0629 04:06:45.556248  2133 net.cpp:122] Setting up bn4e_branch2c
I0629 04:06:45.556267  2133 net.cpp:129] Top shape: 8 1024 14 14 (1605632)
I0629 04:06:45.556270  2133 net.cpp:137] Memory required for data: 1674674336
I0629 04:06:45.556283  2133 layer_factory.hpp:77] Creating layer scale4e_branch2c
I0629 04:06:45.556298  2133 net.cpp:84] Creating Layer scale4e_branch2c
I0629 04:06:45.556315  2133 net.cpp:406] scale4e_branch2c <- res4e_branch2c
I0629 04:06:45.556330  2133 net.cpp:367] scale4e_branch2c -> res4e_branch2c (in-place)
I0629 04:06:45.556401  2133 layer_factory.hpp:77] Creating layer scale4e_branch2c
I0629 04:06:45.556597  2133 net.cpp:122] Setting up scale4e_branch2c
I0629 04:06:45.556615  2133 net.cpp:129] Top shape: 8 1024 14 14 (1605632)
I0629 04:06:45.556619  2133 net.cpp:137] Memory required for data: 1681096864
I0629 04:06:45.556630  2133 layer_factory.hpp:77] Creating layer res4e
I0629 04:06:45.556646  2133 net.cpp:84] Creating Layer res4e
I0629 04:06:45.556663  2133 net.cpp:406] res4e <- res4d_res4d_relu_0_split_1
I0629 04:06:45.556671  2133 net.cpp:406] res4e <- res4e_branch2c
I0629 04:06:45.556682  2133 net.cpp:380] res4e -> res4e
I0629 04:06:45.556740  2133 net.cpp:122] Setting up res4e
I0629 04:06:45.556756  2133 net.cpp:129] Top shape: 8 1024 14 14 (1605632)
I0629 04:06:45.556761  2133 net.cpp:137] Memory required for data: 1687519392
I0629 04:06:45.556766  2133 layer_factory.hpp:77] Creating layer res4e_relu
I0629 04:06:45.556777  2133 net.cpp:84] Creating Layer res4e_relu
I0629 04:06:45.556784  2133 net.cpp:406] res4e_relu <- res4e
I0629 04:06:45.556802  2133 net.cpp:367] res4e_relu -> res4e (in-place)
I0629 04:06:45.557121  2133 net.cpp:122] Setting up res4e_relu
I0629 04:06:45.557140  2133 net.cpp:129] Top shape: 8 1024 14 14 (1605632)
I0629 04:06:45.557144  2133 net.cpp:137] Memory required for data: 1693941920
I0629 04:06:45.557150  2133 layer_factory.hpp:77] Creating layer res4e_res4e_relu_0_split
I0629 04:06:45.557165  2133 net.cpp:84] Creating Layer res4e_res4e_relu_0_split
I0629 04:06:45.557183  2133 net.cpp:406] res4e_res4e_relu_0_split <- res4e
I0629 04:06:45.557195  2133 net.cpp:380] res4e_res4e_relu_0_split -> res4e_res4e_relu_0_split_0
I0629 04:06:45.557209  2133 net.cpp:380] res4e_res4e_relu_0_split -> res4e_res4e_relu_0_split_1
I0629 04:06:45.557304  2133 net.cpp:122] Setting up res4e_res4e_relu_0_split
I0629 04:06:45.557322  2133 net.cpp:129] Top shape: 8 1024 14 14 (1605632)
I0629 04:06:45.557327  2133 net.cpp:129] Top shape: 8 1024 14 14 (1605632)
I0629 04:06:45.557332  2133 net.cpp:137] Memory required for data: 1706786976
I0629 04:06:45.557339  2133 layer_factory.hpp:77] Creating layer res4f_branch2a
I0629 04:06:45.557358  2133 net.cpp:84] Creating Layer res4f_branch2a
I0629 04:06:45.557375  2133 net.cpp:406] res4f_branch2a <- res4e_res4e_relu_0_split_0
I0629 04:06:45.557385  2133 net.cpp:380] res4f_branch2a -> res4f_branch2a
I0629 04:06:45.559079  2133 net.cpp:122] Setting up res4f_branch2a
I0629 04:06:45.559100  2133 net.cpp:129] Top shape: 8 256 14 14 (401408)
I0629 04:06:45.559105  2133 net.cpp:137] Memory required for data: 1708392608
I0629 04:06:45.559114  2133 layer_factory.hpp:77] Creating layer bn4f_branch2a
I0629 04:06:45.559130  2133 net.cpp:84] Creating Layer bn4f_branch2a
I0629 04:06:45.559149  2133 net.cpp:406] bn4f_branch2a <- res4f_branch2a
I0629 04:06:45.559161  2133 net.cpp:367] bn4f_branch2a -> res4f_branch2a (in-place)
I0629 04:06:45.559453  2133 net.cpp:122] Setting up bn4f_branch2a
I0629 04:06:45.559483  2133 net.cpp:129] Top shape: 8 256 14 14 (401408)
I0629 04:06:45.559486  2133 net.cpp:137] Memory required for data: 1709998240
I0629 04:06:45.559500  2133 layer_factory.hpp:77] Creating layer scale4f_branch2a
I0629 04:06:45.559516  2133 net.cpp:84] Creating Layer scale4f_branch2a
I0629 04:06:45.559533  2133 net.cpp:406] scale4f_branch2a <- res4f_branch2a
I0629 04:06:45.559543  2133 net.cpp:367] scale4f_branch2a -> res4f_branch2a (in-place)
I0629 04:06:45.559626  2133 layer_factory.hpp:77] Creating layer scale4f_branch2a
I0629 04:06:45.559824  2133 net.cpp:122] Setting up scale4f_branch2a
I0629 04:06:45.559842  2133 net.cpp:129] Top shape: 8 256 14 14 (401408)
I0629 04:06:45.559846  2133 net.cpp:137] Memory required for data: 1711603872
I0629 04:06:45.559857  2133 layer_factory.hpp:77] Creating layer res4f_branch2a_relu
I0629 04:06:45.559873  2133 net.cpp:84] Creating Layer res4f_branch2a_relu
I0629 04:06:45.559904  2133 net.cpp:406] res4f_branch2a_relu <- res4f_branch2a
I0629 04:06:45.559926  2133 net.cpp:367] res4f_branch2a_relu -> res4f_branch2a (in-place)
I0629 04:06:45.560112  2133 net.cpp:122] Setting up res4f_branch2a_relu
I0629 04:06:45.560132  2133 net.cpp:129] Top shape: 8 256 14 14 (401408)
I0629 04:06:45.560137  2133 net.cpp:137] Memory required for data: 1713209504
I0629 04:06:45.560145  2133 layer_factory.hpp:77] Creating layer res4f_branch2b
I0629 04:06:45.560159  2133 net.cpp:84] Creating Layer res4f_branch2b
I0629 04:06:45.560176  2133 net.cpp:406] res4f_branch2b <- res4f_branch2a
I0629 04:06:45.560191  2133 net.cpp:380] res4f_branch2b -> res4f_branch2b
I0629 04:06:45.562371  2133 net.cpp:122] Setting up res4f_branch2b
I0629 04:06:45.562392  2133 net.cpp:129] Top shape: 8 256 14 14 (401408)
I0629 04:06:45.562397  2133 net.cpp:137] Memory required for data: 1714815136
I0629 04:06:45.562409  2133 layer_factory.hpp:77] Creating layer bn4f_branch2b
I0629 04:06:45.562424  2133 net.cpp:84] Creating Layer bn4f_branch2b
I0629 04:06:45.562443  2133 net.cpp:406] bn4f_branch2b <- res4f_branch2b
I0629 04:06:45.562458  2133 net.cpp:367] bn4f_branch2b -> res4f_branch2b (in-place)
I0629 04:06:45.562764  2133 net.cpp:122] Setting up bn4f_branch2b
I0629 04:06:45.562783  2133 net.cpp:129] Top shape: 8 256 14 14 (401408)
I0629 04:06:45.562786  2133 net.cpp:137] Memory required for data: 1716420768
I0629 04:06:45.562801  2133 layer_factory.hpp:77] Creating layer scale4f_branch2b
I0629 04:06:45.562822  2133 net.cpp:84] Creating Layer scale4f_branch2b
I0629 04:06:45.562831  2133 net.cpp:406] scale4f_branch2b <- res4f_branch2b
I0629 04:06:45.562842  2133 net.cpp:367] scale4f_branch2b -> res4f_branch2b (in-place)
I0629 04:06:45.562938  2133 layer_factory.hpp:77] Creating layer scale4f_branch2b
I0629 04:06:45.563132  2133 net.cpp:122] Setting up scale4f_branch2b
I0629 04:06:45.563149  2133 net.cpp:129] Top shape: 8 256 14 14 (401408)
I0629 04:06:45.563153  2133 net.cpp:137] Memory required for data: 1718026400
I0629 04:06:45.563163  2133 layer_factory.hpp:77] Creating layer res4f_branch2b_relu
I0629 04:06:45.563175  2133 net.cpp:84] Creating Layer res4f_branch2b_relu
I0629 04:06:45.563192  2133 net.cpp:406] res4f_branch2b_relu <- res4f_branch2b
I0629 04:06:45.563210  2133 net.cpp:367] res4f_branch2b_relu -> res4f_branch2b (in-place)
I0629 04:06:45.563408  2133 net.cpp:122] Setting up res4f_branch2b_relu
I0629 04:06:45.563426  2133 net.cpp:129] Top shape: 8 256 14 14 (401408)
I0629 04:06:45.563431  2133 net.cpp:137] Memory required for data: 1719632032
I0629 04:06:45.563436  2133 layer_factory.hpp:77] Creating layer res4f_branch2c
I0629 04:06:45.563454  2133 net.cpp:84] Creating Layer res4f_branch2c
I0629 04:06:45.563473  2133 net.cpp:406] res4f_branch2c <- res4f_branch2b
I0629 04:06:45.563489  2133 net.cpp:380] res4f_branch2c -> res4f_branch2c
I0629 04:06:45.565115  2133 net.cpp:122] Setting up res4f_branch2c
I0629 04:06:45.565136  2133 net.cpp:129] Top shape: 8 1024 14 14 (1605632)
I0629 04:06:45.565141  2133 net.cpp:137] Memory required for data: 1726054560
I0629 04:06:45.565152  2133 layer_factory.hpp:77] Creating layer bn4f_branch2c
I0629 04:06:45.565194  2133 net.cpp:84] Creating Layer bn4f_branch2c
I0629 04:06:45.565207  2133 net.cpp:406] bn4f_branch2c <- res4f_branch2c
I0629 04:06:45.565227  2133 net.cpp:367] bn4f_branch2c -> res4f_branch2c (in-place)
I0629 04:06:45.565511  2133 net.cpp:122] Setting up bn4f_branch2c
I0629 04:06:45.565528  2133 net.cpp:129] Top shape: 8 1024 14 14 (1605632)
I0629 04:06:45.565532  2133 net.cpp:137] Memory required for data: 1732477088
I0629 04:06:45.565582  2133 layer_factory.hpp:77] Creating layer scale4f_branch2c
I0629 04:06:45.565598  2133 net.cpp:84] Creating Layer scale4f_branch2c
I0629 04:06:45.565603  2133 net.cpp:406] scale4f_branch2c <- res4f_branch2c
I0629 04:06:45.565609  2133 net.cpp:367] scale4f_branch2c -> res4f_branch2c (in-place)
I0629 04:06:45.565670  2133 layer_factory.hpp:77] Creating layer scale4f_branch2c
I0629 04:06:45.565845  2133 net.cpp:122] Setting up scale4f_branch2c
I0629 04:06:45.565860  2133 net.cpp:129] Top shape: 8 1024 14 14 (1605632)
I0629 04:06:45.565865  2133 net.cpp:137] Memory required for data: 1738899616
I0629 04:06:45.565871  2133 layer_factory.hpp:77] Creating layer res4f
I0629 04:06:45.565878  2133 net.cpp:84] Creating Layer res4f
I0629 04:06:45.565882  2133 net.cpp:406] res4f <- res4e_res4e_relu_0_split_1
I0629 04:06:45.565887  2133 net.cpp:406] res4f <- res4f_branch2c
I0629 04:06:45.565896  2133 net.cpp:380] res4f -> res4f
I0629 04:06:45.565935  2133 net.cpp:122] Setting up res4f
I0629 04:06:45.565949  2133 net.cpp:129] Top shape: 8 1024 14 14 (1605632)
I0629 04:06:45.565953  2133 net.cpp:137] Memory required for data: 1745322144
I0629 04:06:45.565958  2133 layer_factory.hpp:77] Creating layer res4f_relu
I0629 04:06:45.565964  2133 net.cpp:84] Creating Layer res4f_relu
I0629 04:06:45.565968  2133 net.cpp:406] res4f_relu <- res4f
I0629 04:06:45.565973  2133 net.cpp:367] res4f_relu -> res4f (in-place)
I0629 04:06:45.566257  2133 net.cpp:122] Setting up res4f_relu
I0629 04:06:45.566277  2133 net.cpp:129] Top shape: 8 1024 14 14 (1605632)
I0629 04:06:45.566280  2133 net.cpp:137] Memory required for data: 1751744672
I0629 04:06:45.566284  2133 layer_factory.hpp:77] Creating layer res4f_res4f_relu_0_split
I0629 04:06:45.566293  2133 net.cpp:84] Creating Layer res4f_res4f_relu_0_split
I0629 04:06:45.566298  2133 net.cpp:406] res4f_res4f_relu_0_split <- res4f
I0629 04:06:45.566304  2133 net.cpp:380] res4f_res4f_relu_0_split -> res4f_res4f_relu_0_split_0
I0629 04:06:45.566313  2133 net.cpp:380] res4f_res4f_relu_0_split -> res4f_res4f_relu_0_split_1
I0629 04:06:45.566376  2133 net.cpp:122] Setting up res4f_res4f_relu_0_split
I0629 04:06:45.566391  2133 net.cpp:129] Top shape: 8 1024 14 14 (1605632)
I0629 04:06:45.566397  2133 net.cpp:129] Top shape: 8 1024 14 14 (1605632)
I0629 04:06:45.566401  2133 net.cpp:137] Memory required for data: 1764589728
I0629 04:06:45.566404  2133 layer_factory.hpp:77] Creating layer res5a_branch1
I0629 04:06:45.566416  2133 net.cpp:84] Creating Layer res5a_branch1
I0629 04:06:45.566421  2133 net.cpp:406] res5a_branch1 <- res4f_res4f_relu_0_split_0
I0629 04:06:45.566426  2133 net.cpp:380] res5a_branch1 -> res5a_branch1
I0629 04:06:45.571383  2133 net.cpp:122] Setting up res5a_branch1
I0629 04:06:45.571405  2133 net.cpp:129] Top shape: 8 2048 7 7 (802816)
I0629 04:06:45.571410  2133 net.cpp:137] Memory required for data: 1767800992
I0629 04:06:45.571418  2133 layer_factory.hpp:77] Creating layer bn5a_branch1
I0629 04:06:45.571427  2133 net.cpp:84] Creating Layer bn5a_branch1
I0629 04:06:45.571432  2133 net.cpp:406] bn5a_branch1 <- res5a_branch1
I0629 04:06:45.571439  2133 net.cpp:367] bn5a_branch1 -> res5a_branch1 (in-place)
I0629 04:06:45.571741  2133 net.cpp:122] Setting up bn5a_branch1
I0629 04:06:45.571758  2133 net.cpp:129] Top shape: 8 2048 7 7 (802816)
I0629 04:06:45.571763  2133 net.cpp:137] Memory required for data: 1771012256
I0629 04:06:45.571771  2133 layer_factory.hpp:77] Creating layer scale5a_branch1
I0629 04:06:45.571779  2133 net.cpp:84] Creating Layer scale5a_branch1
I0629 04:06:45.571784  2133 net.cpp:406] scale5a_branch1 <- res5a_branch1
I0629 04:06:45.571806  2133 net.cpp:367] scale5a_branch1 -> res5a_branch1 (in-place)
I0629 04:06:45.571866  2133 layer_factory.hpp:77] Creating layer scale5a_branch1
I0629 04:06:45.572068  2133 net.cpp:122] Setting up scale5a_branch1
I0629 04:06:45.572088  2133 net.cpp:129] Top shape: 8 2048 7 7 (802816)
I0629 04:06:45.572091  2133 net.cpp:137] Memory required for data: 1774223520
I0629 04:06:45.572098  2133 layer_factory.hpp:77] Creating layer res5a_branch2a
I0629 04:06:45.572108  2133 net.cpp:84] Creating Layer res5a_branch2a
I0629 04:06:45.572114  2133 net.cpp:406] res5a_branch2a <- res4f_res4f_relu_0_split_1
I0629 04:06:45.572125  2133 net.cpp:380] res5a_branch2a -> res5a_branch2a
I0629 04:06:45.574080  2133 net.cpp:122] Setting up res5a_branch2a
I0629 04:06:45.574101  2133 net.cpp:129] Top shape: 8 512 7 7 (200704)
I0629 04:06:45.574106  2133 net.cpp:137] Memory required for data: 1775026336
I0629 04:06:45.574112  2133 layer_factory.hpp:77] Creating layer bn5a_branch2a
I0629 04:06:45.574122  2133 net.cpp:84] Creating Layer bn5a_branch2a
I0629 04:06:45.574133  2133 net.cpp:406] bn5a_branch2a <- res5a_branch2a
I0629 04:06:45.574141  2133 net.cpp:367] bn5a_branch2a -> res5a_branch2a (in-place)
I0629 04:06:45.574424  2133 net.cpp:122] Setting up bn5a_branch2a
I0629 04:06:45.574440  2133 net.cpp:129] Top shape: 8 512 7 7 (200704)
I0629 04:06:45.574445  2133 net.cpp:137] Memory required for data: 1775829152
I0629 04:06:45.574455  2133 layer_factory.hpp:77] Creating layer scale5a_branch2a
I0629 04:06:45.574463  2133 net.cpp:84] Creating Layer scale5a_branch2a
I0629 04:06:45.574471  2133 net.cpp:406] scale5a_branch2a <- res5a_branch2a
I0629 04:06:45.574476  2133 net.cpp:367] scale5a_branch2a -> res5a_branch2a (in-place)
I0629 04:06:45.574535  2133 layer_factory.hpp:77] Creating layer scale5a_branch2a
I0629 04:06:45.574713  2133 net.cpp:122] Setting up scale5a_branch2a
I0629 04:06:45.574729  2133 net.cpp:129] Top shape: 8 512 7 7 (200704)
I0629 04:06:45.574733  2133 net.cpp:137] Memory required for data: 1776631968
I0629 04:06:45.574740  2133 layer_factory.hpp:77] Creating layer res5a_branch2a_relu
I0629 04:06:45.574749  2133 net.cpp:84] Creating Layer res5a_branch2a_relu
I0629 04:06:45.574754  2133 net.cpp:406] res5a_branch2a_relu <- res5a_branch2a
I0629 04:06:45.574759  2133 net.cpp:367] res5a_branch2a_relu -> res5a_branch2a (in-place)
I0629 04:06:45.575044  2133 net.cpp:122] Setting up res5a_branch2a_relu
I0629 04:06:45.575063  2133 net.cpp:129] Top shape: 8 512 7 7 (200704)
I0629 04:06:45.575067  2133 net.cpp:137] Memory required for data: 1777434784
I0629 04:06:45.575072  2133 layer_factory.hpp:77] Creating layer res5a_branch2b
I0629 04:06:45.575083  2133 net.cpp:84] Creating Layer res5a_branch2b
I0629 04:06:45.575088  2133 net.cpp:406] res5a_branch2b <- res5a_branch2a
I0629 04:06:45.575095  2133 net.cpp:380] res5a_branch2b -> res5a_branch2b
I0629 04:06:45.580575  2133 net.cpp:122] Setting up res5a_branch2b
I0629 04:06:45.580600  2133 net.cpp:129] Top shape: 8 512 7 7 (200704)
I0629 04:06:45.580605  2133 net.cpp:137] Memory required for data: 1778237600
I0629 04:06:45.580611  2133 layer_factory.hpp:77] Creating layer bn5a_branch2b
I0629 04:06:45.580622  2133 net.cpp:84] Creating Layer bn5a_branch2b
I0629 04:06:45.580628  2133 net.cpp:406] bn5a_branch2b <- res5a_branch2b
I0629 04:06:45.580634  2133 net.cpp:367] bn5a_branch2b -> res5a_branch2b (in-place)
I0629 04:06:45.580920  2133 net.cpp:122] Setting up bn5a_branch2b
I0629 04:06:45.580936  2133 net.cpp:129] Top shape: 8 512 7 7 (200704)
I0629 04:06:45.580940  2133 net.cpp:137] Memory required for data: 1779040416
I0629 04:06:45.580950  2133 layer_factory.hpp:77] Creating layer scale5a_branch2b
I0629 04:06:45.580956  2133 net.cpp:84] Creating Layer scale5a_branch2b
I0629 04:06:45.580961  2133 net.cpp:406] scale5a_branch2b <- res5a_branch2b
I0629 04:06:45.580970  2133 net.cpp:367] scale5a_branch2b -> res5a_branch2b (in-place)
I0629 04:06:45.581025  2133 layer_factory.hpp:77] Creating layer scale5a_branch2b
I0629 04:06:45.581210  2133 net.cpp:122] Setting up scale5a_branch2b
I0629 04:06:45.581240  2133 net.cpp:129] Top shape: 8 512 7 7 (200704)
I0629 04:06:45.581244  2133 net.cpp:137] Memory required for data: 1779843232
I0629 04:06:45.581251  2133 layer_factory.hpp:77] Creating layer res5a_branch2b_relu
I0629 04:06:45.581260  2133 net.cpp:84] Creating Layer res5a_branch2b_relu
I0629 04:06:45.581265  2133 net.cpp:406] res5a_branch2b_relu <- res5a_branch2b
I0629 04:06:45.581270  2133 net.cpp:367] res5a_branch2b_relu -> res5a_branch2b (in-place)
I0629 04:06:45.581447  2133 net.cpp:122] Setting up res5a_branch2b_relu
I0629 04:06:45.581465  2133 net.cpp:129] Top shape: 8 512 7 7 (200704)
I0629 04:06:45.581468  2133 net.cpp:137] Memory required for data: 1780646048
I0629 04:06:45.581472  2133 layer_factory.hpp:77] Creating layer res5a_branch2c
I0629 04:06:45.581481  2133 net.cpp:84] Creating Layer res5a_branch2c
I0629 04:06:45.581486  2133 net.cpp:406] res5a_branch2c <- res5a_branch2b
I0629 04:06:45.581497  2133 net.cpp:380] res5a_branch2c -> res5a_branch2c
I0629 04:06:45.584563  2133 net.cpp:122] Setting up res5a_branch2c
I0629 04:06:45.584583  2133 net.cpp:129] Top shape: 8 2048 7 7 (802816)
I0629 04:06:45.584588  2133 net.cpp:137] Memory required for data: 1783857312
I0629 04:06:45.584594  2133 layer_factory.hpp:77] Creating layer bn5a_branch2c
I0629 04:06:45.584604  2133 net.cpp:84] Creating Layer bn5a_branch2c
I0629 04:06:45.584609  2133 net.cpp:406] bn5a_branch2c <- res5a_branch2c
I0629 04:06:45.584615  2133 net.cpp:367] bn5a_branch2c -> res5a_branch2c (in-place)
I0629 04:06:45.584920  2133 net.cpp:122] Setting up bn5a_branch2c
I0629 04:06:45.584938  2133 net.cpp:129] Top shape: 8 2048 7 7 (802816)
I0629 04:06:45.584941  2133 net.cpp:137] Memory required for data: 1787068576
I0629 04:06:45.584950  2133 layer_factory.hpp:77] Creating layer scale5a_branch2c
I0629 04:06:45.584957  2133 net.cpp:84] Creating Layer scale5a_branch2c
I0629 04:06:45.584962  2133 net.cpp:406] scale5a_branch2c <- res5a_branch2c
I0629 04:06:45.584970  2133 net.cpp:367] scale5a_branch2c -> res5a_branch2c (in-place)
I0629 04:06:45.585031  2133 layer_factory.hpp:77] Creating layer scale5a_branch2c
I0629 04:06:45.585220  2133 net.cpp:122] Setting up scale5a_branch2c
I0629 04:06:45.585239  2133 net.cpp:129] Top shape: 8 2048 7 7 (802816)
I0629 04:06:45.585243  2133 net.cpp:137] Memory required for data: 1790279840
I0629 04:06:45.585250  2133 layer_factory.hpp:77] Creating layer res5a
I0629 04:06:45.585258  2133 net.cpp:84] Creating Layer res5a
I0629 04:06:45.585263  2133 net.cpp:406] res5a <- res5a_branch1
I0629 04:06:45.585266  2133 net.cpp:406] res5a <- res5a_branch2c
I0629 04:06:45.585273  2133 net.cpp:380] res5a -> res5a
I0629 04:06:45.585316  2133 net.cpp:122] Setting up res5a
I0629 04:06:45.585332  2133 net.cpp:129] Top shape: 8 2048 7 7 (802816)
I0629 04:06:45.585336  2133 net.cpp:137] Memory required for data: 1793491104
I0629 04:06:45.585340  2133 layer_factory.hpp:77] Creating layer res5a_relu
I0629 04:06:45.585346  2133 net.cpp:84] Creating Layer res5a_relu
I0629 04:06:45.585351  2133 net.cpp:406] res5a_relu <- res5a
I0629 04:06:45.585358  2133 net.cpp:367] res5a_relu -> res5a (in-place)
I0629 04:06:45.585649  2133 net.cpp:122] Setting up res5a_relu
I0629 04:06:45.585667  2133 net.cpp:129] Top shape: 8 2048 7 7 (802816)
I0629 04:06:45.585671  2133 net.cpp:137] Memory required for data: 1796702368
I0629 04:06:45.585676  2133 layer_factory.hpp:77] Creating layer res5a_res5a_relu_0_split
I0629 04:06:45.585685  2133 net.cpp:84] Creating Layer res5a_res5a_relu_0_split
I0629 04:06:45.585690  2133 net.cpp:406] res5a_res5a_relu_0_split <- res5a
I0629 04:06:45.585696  2133 net.cpp:380] res5a_res5a_relu_0_split -> res5a_res5a_relu_0_split_0
I0629 04:06:45.585705  2133 net.cpp:380] res5a_res5a_relu_0_split -> res5a_res5a_relu_0_split_1
I0629 04:06:45.585777  2133 net.cpp:122] Setting up res5a_res5a_relu_0_split
I0629 04:06:45.585793  2133 net.cpp:129] Top shape: 8 2048 7 7 (802816)
I0629 04:06:45.585798  2133 net.cpp:129] Top shape: 8 2048 7 7 (802816)
I0629 04:06:45.585801  2133 net.cpp:137] Memory required for data: 1803124896
I0629 04:06:45.585817  2133 layer_factory.hpp:77] Creating layer my_res5b_branch2a
I0629 04:06:45.585830  2133 net.cpp:84] Creating Layer my_res5b_branch2a
I0629 04:06:45.585841  2133 net.cpp:406] my_res5b_branch2a <- res5a_res5a_relu_0_split_0
I0629 04:06:45.585850  2133 net.cpp:380] my_res5b_branch2a -> my_res5b_branch2a
I0629 04:06:45.588913  2133 net.cpp:122] Setting up my_res5b_branch2a
I0629 04:06:45.588935  2133 net.cpp:129] Top shape: 8 512 7 7 (200704)
I0629 04:06:45.588940  2133 net.cpp:137] Memory required for data: 1803927712
I0629 04:06:45.588946  2133 layer_factory.hpp:77] Creating layer my_bn5b_branch2a
I0629 04:06:45.588954  2133 net.cpp:84] Creating Layer my_bn5b_branch2a
I0629 04:06:45.588959  2133 net.cpp:406] my_bn5b_branch2a <- my_res5b_branch2a
I0629 04:06:45.588968  2133 net.cpp:367] my_bn5b_branch2a -> my_res5b_branch2a (in-place)
I0629 04:06:45.589264  2133 net.cpp:122] Setting up my_bn5b_branch2a
I0629 04:06:45.589280  2133 net.cpp:129] Top shape: 8 512 7 7 (200704)
I0629 04:06:45.589284  2133 net.cpp:137] Memory required for data: 1804730528
I0629 04:06:45.589293  2133 layer_factory.hpp:77] Creating layer my_scale5b_branch2a
I0629 04:06:45.589300  2133 net.cpp:84] Creating Layer my_scale5b_branch2a
I0629 04:06:45.589304  2133 net.cpp:406] my_scale5b_branch2a <- my_res5b_branch2a
I0629 04:06:45.589309  2133 net.cpp:367] my_scale5b_branch2a -> my_res5b_branch2a (in-place)
I0629 04:06:45.589370  2133 layer_factory.hpp:77] Creating layer my_scale5b_branch2a
I0629 04:06:45.589568  2133 net.cpp:122] Setting up my_scale5b_branch2a
I0629 04:06:45.589584  2133 net.cpp:129] Top shape: 8 512 7 7 (200704)
I0629 04:06:45.589588  2133 net.cpp:137] Memory required for data: 1805533344
I0629 04:06:45.589596  2133 layer_factory.hpp:77] Creating layer my_res5b_branch2a_relu
I0629 04:06:45.589602  2133 net.cpp:84] Creating Layer my_res5b_branch2a_relu
I0629 04:06:45.589607  2133 net.cpp:406] my_res5b_branch2a_relu <- my_res5b_branch2a
I0629 04:06:45.589614  2133 net.cpp:367] my_res5b_branch2a_relu -> my_res5b_branch2a (in-place)
I0629 04:06:45.589900  2133 net.cpp:122] Setting up my_res5b_branch2a_relu
I0629 04:06:45.589920  2133 net.cpp:129] Top shape: 8 512 7 7 (200704)
I0629 04:06:45.589926  2133 net.cpp:137] Memory required for data: 1806336160
I0629 04:06:45.589931  2133 layer_factory.hpp:77] Creating layer my_res5b_branch2b
I0629 04:06:45.589942  2133 net.cpp:84] Creating Layer my_res5b_branch2b
I0629 04:06:45.589948  2133 net.cpp:406] my_res5b_branch2b <- my_res5b_branch2a
I0629 04:06:45.589957  2133 net.cpp:380] my_res5b_branch2b -> my_res5b_branch2b
I0629 04:06:45.595407  2133 net.cpp:122] Setting up my_res5b_branch2b
I0629 04:06:45.595429  2133 net.cpp:129] Top shape: 8 512 7 7 (200704)
I0629 04:06:45.595434  2133 net.cpp:137] Memory required for data: 1807138976
I0629 04:06:45.595440  2133 layer_factory.hpp:77] Creating layer my_bn5b_branch2b
I0629 04:06:45.595451  2133 net.cpp:84] Creating Layer my_bn5b_branch2b
I0629 04:06:45.595456  2133 net.cpp:406] my_bn5b_branch2b <- my_res5b_branch2b
I0629 04:06:45.595464  2133 net.cpp:367] my_bn5b_branch2b -> my_res5b_branch2b (in-place)
I0629 04:06:45.595767  2133 net.cpp:122] Setting up my_bn5b_branch2b
I0629 04:06:45.595783  2133 net.cpp:129] Top shape: 8 512 7 7 (200704)
I0629 04:06:45.595788  2133 net.cpp:137] Memory required for data: 1807941792
I0629 04:06:45.595796  2133 layer_factory.hpp:77] Creating layer my_scale5b_branch2b
I0629 04:06:45.595806  2133 net.cpp:84] Creating Layer my_scale5b_branch2b
I0629 04:06:45.595821  2133 net.cpp:406] my_scale5b_branch2b <- my_res5b_branch2b
I0629 04:06:45.595829  2133 net.cpp:367] my_scale5b_branch2b -> my_res5b_branch2b (in-place)
I0629 04:06:45.595888  2133 layer_factory.hpp:77] Creating layer my_scale5b_branch2b
I0629 04:06:45.596089  2133 net.cpp:122] Setting up my_scale5b_branch2b
I0629 04:06:45.596105  2133 net.cpp:129] Top shape: 8 512 7 7 (200704)
I0629 04:06:45.596109  2133 net.cpp:137] Memory required for data: 1808744608
I0629 04:06:45.596117  2133 layer_factory.hpp:77] Creating layer my_res5b_branch2b_relu
I0629 04:06:45.596140  2133 net.cpp:84] Creating Layer my_res5b_branch2b_relu
I0629 04:06:45.596146  2133 net.cpp:406] my_res5b_branch2b_relu <- my_res5b_branch2b
I0629 04:06:45.596151  2133 net.cpp:367] my_res5b_branch2b_relu -> my_res5b_branch2b (in-place)
I0629 04:06:45.596334  2133 net.cpp:122] Setting up my_res5b_branch2b_relu
I0629 04:06:45.596351  2133 net.cpp:129] Top shape: 8 512 7 7 (200704)
I0629 04:06:45.596355  2133 net.cpp:137] Memory required for data: 1809547424
I0629 04:06:45.596359  2133 layer_factory.hpp:77] Creating layer my_res5b_branch2c
I0629 04:06:45.596371  2133 net.cpp:84] Creating Layer my_res5b_branch2c
I0629 04:06:45.596375  2133 net.cpp:406] my_res5b_branch2c <- my_res5b_branch2b
I0629 04:06:45.596385  2133 net.cpp:380] my_res5b_branch2c -> my_res5b_branch2c
I0629 04:06:45.599467  2133 net.cpp:122] Setting up my_res5b_branch2c
I0629 04:06:45.599488  2133 net.cpp:129] Top shape: 8 2048 7 7 (802816)
I0629 04:06:45.599493  2133 net.cpp:137] Memory required for data: 1812758688
I0629 04:06:45.599499  2133 layer_factory.hpp:77] Creating layer my_bn5b_branch2c
I0629 04:06:45.599509  2133 net.cpp:84] Creating Layer my_bn5b_branch2c
I0629 04:06:45.599514  2133 net.cpp:406] my_bn5b_branch2c <- my_res5b_branch2c
I0629 04:06:45.599520  2133 net.cpp:367] my_bn5b_branch2c -> my_res5b_branch2c (in-place)
I0629 04:06:45.599824  2133 net.cpp:122] Setting up my_bn5b_branch2c
I0629 04:06:45.599841  2133 net.cpp:129] Top shape: 8 2048 7 7 (802816)
I0629 04:06:45.599845  2133 net.cpp:137] Memory required for data: 1815969952
I0629 04:06:45.599853  2133 layer_factory.hpp:77] Creating layer my_scale5b_branch2c
I0629 04:06:45.599864  2133 net.cpp:84] Creating Layer my_scale5b_branch2c
I0629 04:06:45.599877  2133 net.cpp:406] my_scale5b_branch2c <- my_res5b_branch2c
I0629 04:06:45.599884  2133 net.cpp:367] my_scale5b_branch2c -> my_res5b_branch2c (in-place)
I0629 04:06:45.599961  2133 layer_factory.hpp:77] Creating layer my_scale5b_branch2c
I0629 04:06:45.600159  2133 net.cpp:122] Setting up my_scale5b_branch2c
I0629 04:06:45.600177  2133 net.cpp:129] Top shape: 8 2048 7 7 (802816)
I0629 04:06:45.600180  2133 net.cpp:137] Memory required for data: 1819181216
I0629 04:06:45.600188  2133 layer_factory.hpp:77] Creating layer my_res5b
I0629 04:06:45.600194  2133 net.cpp:84] Creating Layer my_res5b
I0629 04:06:45.600199  2133 net.cpp:406] my_res5b <- res5a_res5a_relu_0_split_1
I0629 04:06:45.600204  2133 net.cpp:406] my_res5b <- my_res5b_branch2c
I0629 04:06:45.600214  2133 net.cpp:380] my_res5b -> my_res5b
I0629 04:06:45.600253  2133 net.cpp:122] Setting up my_res5b
I0629 04:06:45.600272  2133 net.cpp:129] Top shape: 8 2048 7 7 (802816)
I0629 04:06:45.600276  2133 net.cpp:137] Memory required for data: 1822392480
I0629 04:06:45.600281  2133 layer_factory.hpp:77] Creating layer my_res5b_relu
I0629 04:06:45.600286  2133 net.cpp:84] Creating Layer my_res5b_relu
I0629 04:06:45.600291  2133 net.cpp:406] my_res5b_relu <- my_res5b
I0629 04:06:45.600296  2133 net.cpp:367] my_res5b_relu -> my_res5b (in-place)
I0629 04:06:45.600585  2133 net.cpp:122] Setting up my_res5b_relu
I0629 04:06:45.600603  2133 net.cpp:129] Top shape: 8 2048 7 7 (802816)
I0629 04:06:45.600607  2133 net.cpp:137] Memory required for data: 1825603744
I0629 04:06:45.600612  2133 layer_factory.hpp:77] Creating layer my_res5b_my_res5b_relu_0_split
I0629 04:06:45.600618  2133 net.cpp:84] Creating Layer my_res5b_my_res5b_relu_0_split
I0629 04:06:45.600623  2133 net.cpp:406] my_res5b_my_res5b_relu_0_split <- my_res5b
I0629 04:06:45.600631  2133 net.cpp:380] my_res5b_my_res5b_relu_0_split -> my_res5b_my_res5b_relu_0_split_0
I0629 04:06:45.600639  2133 net.cpp:380] my_res5b_my_res5b_relu_0_split -> my_res5b_my_res5b_relu_0_split_1
I0629 04:06:45.600704  2133 net.cpp:122] Setting up my_res5b_my_res5b_relu_0_split
I0629 04:06:45.600721  2133 net.cpp:129] Top shape: 8 2048 7 7 (802816)
I0629 04:06:45.600728  2133 net.cpp:129] Top shape: 8 2048 7 7 (802816)
I0629 04:06:45.600731  2133 net.cpp:137] Memory required for data: 1832026272
I0629 04:06:45.600747  2133 layer_factory.hpp:77] Creating layer my_res5c_branch2a
I0629 04:06:45.600756  2133 net.cpp:84] Creating Layer my_res5c_branch2a
I0629 04:06:45.600764  2133 net.cpp:406] my_res5c_branch2a <- my_res5b_my_res5b_relu_0_split_0
I0629 04:06:45.600772  2133 net.cpp:380] my_res5c_branch2a -> my_res5c_branch2a
I0629 04:06:45.603742  2133 net.cpp:122] Setting up my_res5c_branch2a
I0629 04:06:45.603765  2133 net.cpp:129] Top shape: 8 512 7 7 (200704)
I0629 04:06:45.603770  2133 net.cpp:137] Memory required for data: 1832829088
I0629 04:06:45.603775  2133 layer_factory.hpp:77] Creating layer my_bn5c_branch2a
I0629 04:06:45.603786  2133 net.cpp:84] Creating Layer my_bn5c_branch2a
I0629 04:06:45.603791  2133 net.cpp:406] my_bn5c_branch2a <- my_res5c_branch2a
I0629 04:06:45.603798  2133 net.cpp:367] my_bn5c_branch2a -> my_res5c_branch2a (in-place)
I0629 04:06:45.604152  2133 net.cpp:122] Setting up my_bn5c_branch2a
I0629 04:06:45.604171  2133 net.cpp:129] Top shape: 8 512 7 7 (200704)
I0629 04:06:45.604176  2133 net.cpp:137] Memory required for data: 1833631904
I0629 04:06:45.604188  2133 layer_factory.hpp:77] Creating layer my_scale5c_branch2a
I0629 04:06:45.604198  2133 net.cpp:84] Creating Layer my_scale5c_branch2a
I0629 04:06:45.604203  2133 net.cpp:406] my_scale5c_branch2a <- my_res5c_branch2a
I0629 04:06:45.604212  2133 net.cpp:367] my_scale5c_branch2a -> my_res5c_branch2a (in-place)
I0629 04:06:45.604276  2133 layer_factory.hpp:77] Creating layer my_scale5c_branch2a
I0629 04:06:45.604470  2133 net.cpp:122] Setting up my_scale5c_branch2a
I0629 04:06:45.604485  2133 net.cpp:129] Top shape: 8 512 7 7 (200704)
I0629 04:06:45.604490  2133 net.cpp:137] Memory required for data: 1834434720
I0629 04:06:45.604496  2133 layer_factory.hpp:77] Creating layer my_res5c_branch2a_relu
I0629 04:06:45.604506  2133 net.cpp:84] Creating Layer my_res5c_branch2a_relu
I0629 04:06:45.604511  2133 net.cpp:406] my_res5c_branch2a_relu <- my_res5c_branch2a
I0629 04:06:45.604516  2133 net.cpp:367] my_res5c_branch2a_relu -> my_res5c_branch2a (in-place)
I0629 04:06:45.604830  2133 net.cpp:122] Setting up my_res5c_branch2a_relu
I0629 04:06:45.604849  2133 net.cpp:129] Top shape: 8 512 7 7 (200704)
I0629 04:06:45.604853  2133 net.cpp:137] Memory required for data: 1835237536
I0629 04:06:45.604857  2133 layer_factory.hpp:77] Creating layer my_res5c_branch2b
I0629 04:06:45.604869  2133 net.cpp:84] Creating Layer my_res5c_branch2b
I0629 04:06:45.604874  2133 net.cpp:406] my_res5c_branch2b <- my_res5c_branch2a
I0629 04:06:45.604881  2133 net.cpp:380] my_res5c_branch2b -> my_res5c_branch2b
I0629 04:06:45.610424  2133 net.cpp:122] Setting up my_res5c_branch2b
I0629 04:06:45.610445  2133 net.cpp:129] Top shape: 8 512 7 7 (200704)
I0629 04:06:45.610450  2133 net.cpp:137] Memory required for data: 1836040352
I0629 04:06:45.610456  2133 layer_factory.hpp:77] Creating layer my_bn5c_branch2b
I0629 04:06:45.610466  2133 net.cpp:84] Creating Layer my_bn5c_branch2b
I0629 04:06:45.610471  2133 net.cpp:406] my_bn5c_branch2b <- my_res5c_branch2b
I0629 04:06:45.610477  2133 net.cpp:367] my_bn5c_branch2b -> my_res5c_branch2b (in-place)
I0629 04:06:45.610788  2133 net.cpp:122] Setting up my_bn5c_branch2b
I0629 04:06:45.610805  2133 net.cpp:129] Top shape: 8 512 7 7 (200704)
I0629 04:06:45.610810  2133 net.cpp:137] Memory required for data: 1836843168
I0629 04:06:45.610818  2133 layer_factory.hpp:77] Creating layer my_scale5c_branch2b
I0629 04:06:45.610826  2133 net.cpp:84] Creating Layer my_scale5c_branch2b
I0629 04:06:45.610829  2133 net.cpp:406] my_scale5c_branch2b <- my_res5c_branch2b
I0629 04:06:45.610837  2133 net.cpp:367] my_scale5c_branch2b -> my_res5c_branch2b (in-place)
I0629 04:06:45.610898  2133 layer_factory.hpp:77] Creating layer my_scale5c_branch2b
I0629 04:06:45.611095  2133 net.cpp:122] Setting up my_scale5c_branch2b
I0629 04:06:45.611111  2133 net.cpp:129] Top shape: 8 512 7 7 (200704)
I0629 04:06:45.611116  2133 net.cpp:137] Memory required for data: 1837645984
I0629 04:06:45.611124  2133 layer_factory.hpp:77] Creating layer my_res5c_branch2b_relu
I0629 04:06:45.611147  2133 net.cpp:84] Creating Layer my_res5c_branch2b_relu
I0629 04:06:45.611152  2133 net.cpp:406] my_res5c_branch2b_relu <- my_res5c_branch2b
I0629 04:06:45.611158  2133 net.cpp:367] my_res5c_branch2b_relu -> my_res5c_branch2b (in-place)
I0629 04:06:45.611337  2133 net.cpp:122] Setting up my_res5c_branch2b_relu
I0629 04:06:45.611354  2133 net.cpp:129] Top shape: 8 512 7 7 (200704)
I0629 04:06:45.611359  2133 net.cpp:137] Memory required for data: 1838448800
I0629 04:06:45.611363  2133 layer_factory.hpp:77] Creating layer my_res5c_branch2c
I0629 04:06:45.611374  2133 net.cpp:84] Creating Layer my_res5c_branch2c
I0629 04:06:45.611379  2133 net.cpp:406] my_res5c_branch2c <- my_res5c_branch2b
I0629 04:06:45.611387  2133 net.cpp:380] my_res5c_branch2c -> my_res5c_branch2c
I0629 04:06:45.614490  2133 net.cpp:122] Setting up my_res5c_branch2c
I0629 04:06:45.614511  2133 net.cpp:129] Top shape: 8 2048 7 7 (802816)
I0629 04:06:45.614516  2133 net.cpp:137] Memory required for data: 1841660064
I0629 04:06:45.614522  2133 layer_factory.hpp:77] Creating layer my_bn5c_branch2c
I0629 04:06:45.614532  2133 net.cpp:84] Creating Layer my_bn5c_branch2c
I0629 04:06:45.614537  2133 net.cpp:406] my_bn5c_branch2c <- my_res5c_branch2c
I0629 04:06:45.614544  2133 net.cpp:367] my_bn5c_branch2c -> my_res5c_branch2c (in-place)
I0629 04:06:45.614864  2133 net.cpp:122] Setting up my_bn5c_branch2c
I0629 04:06:45.614881  2133 net.cpp:129] Top shape: 8 2048 7 7 (802816)
I0629 04:06:45.614886  2133 net.cpp:137] Memory required for data: 1844871328
I0629 04:06:45.614894  2133 layer_factory.hpp:77] Creating layer my_scale5c_branch2c
I0629 04:06:45.614902  2133 net.cpp:84] Creating Layer my_scale5c_branch2c
I0629 04:06:45.614905  2133 net.cpp:406] my_scale5c_branch2c <- my_res5c_branch2c
I0629 04:06:45.614913  2133 net.cpp:367] my_scale5c_branch2c -> my_res5c_branch2c (in-place)
I0629 04:06:45.614976  2133 layer_factory.hpp:77] Creating layer my_scale5c_branch2c
I0629 04:06:45.615181  2133 net.cpp:122] Setting up my_scale5c_branch2c
I0629 04:06:45.615200  2133 net.cpp:129] Top shape: 8 2048 7 7 (802816)
I0629 04:06:45.615205  2133 net.cpp:137] Memory required for data: 1848082592
I0629 04:06:45.615211  2133 layer_factory.hpp:77] Creating layer my_res5c
I0629 04:06:45.615218  2133 net.cpp:84] Creating Layer my_res5c
I0629 04:06:45.615223  2133 net.cpp:406] my_res5c <- my_res5b_my_res5b_relu_0_split_1
I0629 04:06:45.615228  2133 net.cpp:406] my_res5c <- my_res5c_branch2c
I0629 04:06:45.615233  2133 net.cpp:380] my_res5c -> my_res5c
I0629 04:06:45.615281  2133 net.cpp:122] Setting up my_res5c
I0629 04:06:45.615298  2133 net.cpp:129] Top shape: 8 2048 7 7 (802816)
I0629 04:06:45.615301  2133 net.cpp:137] Memory required for data: 1851293856
I0629 04:06:45.615305  2133 layer_factory.hpp:77] Creating layer my_res5c_relu
I0629 04:06:45.615311  2133 net.cpp:84] Creating Layer my_res5c_relu
I0629 04:06:45.615315  2133 net.cpp:406] my_res5c_relu <- my_res5c
I0629 04:06:45.615324  2133 net.cpp:367] my_res5c_relu -> my_res5c (in-place)
I0629 04:06:45.615617  2133 net.cpp:122] Setting up my_res5c_relu
I0629 04:06:45.615634  2133 net.cpp:129] Top shape: 8 2048 7 7 (802816)
I0629 04:06:45.615639  2133 net.cpp:137] Memory required for data: 1854505120
I0629 04:06:45.615646  2133 layer_factory.hpp:77] Creating layer my_pool5
I0629 04:06:45.615658  2133 net.cpp:84] Creating Layer my_pool5
I0629 04:06:45.615664  2133 net.cpp:406] my_pool5 <- my_res5c
I0629 04:06:45.615672  2133 net.cpp:380] my_pool5 -> my_pool5
I0629 04:06:45.616380  2133 net.cpp:122] Setting up my_pool5
I0629 04:06:45.616400  2133 net.cpp:129] Top shape: 8 2048 1 1 (16384)
I0629 04:06:45.616405  2133 net.cpp:137] Memory required for data: 1854570656
I0629 04:06:45.616408  2133 layer_factory.hpp:77] Creating layer my_fc1000
I0629 04:06:45.616420  2133 net.cpp:84] Creating Layer my_fc1000
I0629 04:06:45.616425  2133 net.cpp:406] my_fc1000 <- my_pool5
I0629 04:06:45.616432  2133 net.cpp:380] my_fc1000 -> my_fc1000
I0629 04:06:45.616631  2133 net.cpp:122] Setting up my_fc1000
I0629 04:06:45.616660  2133 net.cpp:129] Top shape: 8 50 (400)
I0629 04:06:45.616664  2133 net.cpp:137] Memory required for data: 1854572256
I0629 04:06:45.616672  2133 layer_factory.hpp:77] Creating layer my_fc1000_my_fc1000_0_split
I0629 04:06:45.616683  2133 net.cpp:84] Creating Layer my_fc1000_my_fc1000_0_split
I0629 04:06:45.616686  2133 net.cpp:406] my_fc1000_my_fc1000_0_split <- my_fc1000
I0629 04:06:45.616695  2133 net.cpp:380] my_fc1000_my_fc1000_0_split -> my_fc1000_my_fc1000_0_split_0
I0629 04:06:45.616706  2133 net.cpp:380] my_fc1000_my_fc1000_0_split -> my_fc1000_my_fc1000_0_split_1
I0629 04:06:45.616713  2133 net.cpp:380] my_fc1000_my_fc1000_0_split -> my_fc1000_my_fc1000_0_split_2
I0629 04:06:45.616719  2133 net.cpp:380] my_fc1000_my_fc1000_0_split -> my_fc1000_my_fc1000_0_split_3
I0629 04:06:45.616785  2133 net.cpp:122] Setting up my_fc1000_my_fc1000_0_split
I0629 04:06:45.616799  2133 net.cpp:129] Top shape: 8 50 (400)
I0629 04:06:45.616804  2133 net.cpp:129] Top shape: 8 50 (400)
I0629 04:06:45.616808  2133 net.cpp:129] Top shape: 8 50 (400)
I0629 04:06:45.616813  2133 net.cpp:129] Top shape: 8 50 (400)
I0629 04:06:45.616816  2133 net.cpp:137] Memory required for data: 1854578656
I0629 04:06:45.616821  2133 layer_factory.hpp:77] Creating layer loss
I0629 04:06:45.616832  2133 net.cpp:84] Creating Layer loss
I0629 04:06:45.616835  2133 net.cpp:406] loss <- my_fc1000_my_fc1000_0_split_0
I0629 04:06:45.616842  2133 net.cpp:406] loss <- label_input_1_split_0
I0629 04:06:45.616847  2133 net.cpp:380] loss -> loss
…
