…
I0629 03:46:19.083241  2102 net.cpp:294] The NetState phase (1) differed from the phase (0) specified by a rule in layer input
I0629 03:46:19.084607  2102 net.cpp:51] Initializing net from parameters: 
name: "ResNet-50"
state {
  phase: TEST
  level: 0
  stage: ""
}
layer {
  name: "input"
  type: "Data"
  top: "data"
  top: "label"
  include {
    phase: TEST
  }
  transform_param {
    mirror: true
    mean_file: "../../../data_subsets/subtrain2_mean.binaryproto"
  }
  data_param {
    source: "../../../data_subsets/subtrain2_lmdb"
    batch_size: 8
    backend: LMDB
  }
}
layer {
  name: "conv1"
  type: "Convolution"
  bottom: "data"
  top: "conv1"
  param {
    lr_mult: 1
    decay_mult: 1
  }
  param {
    lr_mult: 2
    decay_mult: 0
  }
  convolution_param {
    num_output: 64
    pad: 3
    kernel_size: 7
    stride: 2
  }
}
layer {
  name: "bn_conv1"
  type: "BatchNorm"
  bottom: "conv1"
  top: "conv1"
  batch_norm_param {
    use_global_stats: true
  }
}
layer {
  name: "scale_conv1"
  type: "Scale"
  bottom: "conv1"
  top: "conv1"
  scale_param {
    bias_term: true
  }
}
layer {
  name: "conv1_relu"
  type: "ReLU"
  bottom: "conv1"
  top: "conv1"
}
layer {
  name: "pool1"
  type: "Pooling"
  bottom: "conv1"
  top: "pool1"
  pooling_param {
    pool: MAX
    kernel_size: 3
    stride: 2
  }
}
layer {
  name: "res2a_branch1"
  type: "Convolution"
  bottom: "pool1"
  top: "res2a_branch1"
  param {
    lr_mult: 1
    decay_mult: 1
  }
  convolution_param {
    num_output: 256
    bias_term: false
    pad: 0
    kernel_size: 1
    stride: 1
  }
}
layer {
  name: "bn2a_branch1"
  type: "BatchNorm"
  bottom: "res2a_branch1"
  top: "res2a_branch1"
  batch_norm_param {
    use_global_stats: true
  }
}
layer {
  name: "scale2a_branch1"
  type: "Scale"
  bottom: "res2a_branch1"
  top: "res2a_branch1"
  scale_param {
    bias_term: true
  }
}
layer {
  name: "res2a_branch2a"
  type: "Convolution"
  bottom: "pool1"
  top: "res2a_branch2a"
  param {
    lr_mult: 1
    decay_mult: 1
  }
  convolution_param {
    num_output: 64
    bias_term: false
    pad: 0
    kernel_size: 1
    stride: 1
  }
}
layer {
  name: "bn2a_branch2a"
  type: "BatchNorm"
  bottom: "res2a_branch2a"
  top: "res2a_branch2a"
  batch_norm_param {
    use_global_stats: true
  }
}
layer {
  name: "scale2a_branch2a"
  type: "Scale"
  bottom: "res2a_branch2a"
  top: "res2a_branch2a"
  scale_param {
    bias_term: true
  }
}
layer {
  name: "res2a_branch2a_relu"
  type: "ReLU"
  bottom: "res2a_branch2a"
  top: "res2a_branch2a"
}
layer {
  name: "res2a_branch2b"
  type: "Convolution"
  bottom: "res2a_branch2a"
  top: "res2a_branch2b"
  param {
    lr_mult: 1
    decay_mult: 1
  }
  convolution_param {
    num_output: 64
    bias_term: false
    pad: 1
    kernel_size: 3
    stride: 1
  }
}
layer {
  name: "bn2a_branch2b"
  type: "BatchNorm"
  bottom: "res2a_branch2b"
  top: "res2a_branch2b"
  batch_norm_param {
    use_global_stats: true
  }
}
layer {
  name: "scale2a_branch2b"
  type: "Scale"
  bottom: "res2a_branch2b"
  top: "res2a_branch2b"
  scale_param {
    bias_term: true
  }
}
layer {
  name: "res2a_branch2b_relu"
  type: "ReLU"
  bottom: "res2a_branch2b"
  top: "res2a_branch2b"
}
layer {
  name: "res2a_branch2c"
  type: "Convolution"
  bottom: "res2a_branch2b"
  top: "res2a_branch2c"
  param {
    lr_mult: 1
    decay_mult: 1
  }
  convolution_param {
    num_output: 256
    bias_term: false
    pad: 0
    kernel_size: 1
    stride: 1
  }
}
layer {
  name: "bn2a_branch2c"
  type: "BatchNorm"
  bottom: "res2a_branch2c"
  top: "res2a_branch2c"
  batch_norm_param {
    use_global_stats: true
  }
}
layer {
  name: "scale2a_branch2c"
  type: "Scale"
  bottom: "res2a_branch2c"
  top: "res2a_branch2c"
  scale_param {
    bias_term: true
  }
}
layer {
  name: "res2a"
  type: "Eltwise"
  bottom: "res2a_branch1"
  bottom: "res2a_branch2c"
  top: "res2a"
}
layer {
  name: "res2a_relu"
  type: "ReLU"
  bottom: "res2a"
  top: "res2a"
}
layer {
  name: "res2b_branch2a"
  type: "Convolution"
  bottom: "res2a"
  top: "res2b_branch2a"
  param {
    lr_mult: 1
    decay_mult: 1
  }
  convolution_param {
    num_output: 64
    bias_term: false
    pad: 0
    kernel_size: 1
    stride: 1
  }
}
layer {
  name: "bn2b_branch2a"
  type: "BatchNorm"
  bottom: "res2b_branch2a"
  top: "res2b_branch2a"
  batch_norm_param {
    use_global_stats: true
  }
}
layer {
  name: "scale2b_branch2a"
  type: "Scale"
  bottom: "res2b_branch2a"
  top: "res2b_branch2a"
  scale_param {
    bias_term: true
  }
}
layer {
  name: "res2b_branch2a_relu"
  type: "ReLU"
  bottom: "res2b_branch2a"
  top: "res2b_branch2a"
}
layer {
  name: "res2b_branch2b"
  type: "Convolution"
  bottom: "res2b_branch2a"
  top: "res2b_branch2b"
  param {
    lr_mult: 1
    decay_mult: 1
  }
  convolution_param {
    num_output: 64
    bias_term: false
    pad: 1
    kernel_size: 3
    stride: 1
  }
}
layer {
  name: "bn2b_branch2b"
  type: "BatchNorm"
  bottom: "res2b_branch2b"
  top: "res2b_branch2b"
  batch_norm_param {
    use_global_stats: true
  }
}
layer {
  name: "scale2b_branch2b"
  type: "Scale"
  bottom: "res2b_branch2b"
  top: "res2b_branch2b"
  scale_param {
    bias_term: true
  }
}
layer {
  name: "res2b_branch2b_relu"
  type: "ReLU"
  bottom: "res2b_branch2b"
  top: "res2b_branch2b"
}
layer {
  name: "res2b_branch2c"
  type: "Convolution"
  bottom: "res2b_branch2b"
  top: "res2b_branch2c"
  param {
    lr_mult: 1
    decay_mult: 1
  }
  convolution_param {
    num_output: 256
    bias_term: false
    pad: 0
    kernel_size: 1
    stride: 1
  }
}
layer {
  name: "bn2b_branch2c"
  type: "BatchNorm"
  bottom: "res2b_branch2c"
  top: "res2b_branch2c"
  batch_norm_param {
    use_global_stats: true
  }
}
layer {
  name: "scale2b_branch2c"
  type: "Scale"
  bottom: "res2b_branch2c"
  top: "res2b_branch2c"
  scale_param {
    bias_term: true
  }
}
layer {
  name: "res2b"
  type: "Eltwise"
  bottom: "res2a"
  bottom: "res2b_branch2c"
  top: "res2b"
}
layer {
  name: "res2b_relu"
  type: "ReLU"
  bottom: "res2b"
  top: "res2b"
}
layer {
  name: "res2c_branch2a"
  type: "Convolution"
  bottom: "res2b"
  top: "res2c_branch2a"
  param {
    lr_mult: 1
    decay_mult: 1
  }
  convolution_param {
    num_output: 64
    bias_term: false
    pad: 0
    kernel_size: 1
    stride: 1
  }
}
layer {
  name: "bn2c_branch2a"
  type: "BatchNorm"
  bottom: "res2c_branch2a"
  top: "res2c_branch2a"
  batch_norm_param {
    use_global_stats: true
  }
}
layer {
  name: "scale2c_branch2a"
  type: "Scale"
  bottom: "res2c_branch2a"
  top: "res2c_branch2a"
  scale_param {
    bias_term: true
  }
}
layer {
  name: "res2c_branch2a_relu"
  type: "ReLU"
  bottom: "res2c_branch2a"
  top: "res2c_branch2a"
}
layer {
  name: "res2c_branch2b"
  type: "Convolution"
  bottom: "res2c_branch2a"
  top: "res2c_branch2b"
  param {
    lr_mult: 1
    decay_mult: 1
  }
  convolution_param {
    num_output: 64
    bias_term: false
    pad: 1
    kernel_size: 3
    stride: 1
  }
}
layer {
  name: "bn2c_branch2b"
  type: "BatchNorm"
  bottom: "res2c_branch2b"
  top: "res2c_branch2b"
  batch_norm_param {
    use_global_stats: true
  }
}
layer {
  name: "scale2c_branch2b"
  type: "Scale"
  bottom: "res2c_branch2b"
  top: "res2c_branch2b"
  scale_param {
    bias_term: true
  }
}
layer {
  name: "res2c_branch2b_relu"
  type: "ReLU"
  bottom: "res2c_branch2b"
  top: "res2c_branch2b"
}
layer {
  name: "res2c_branch2c"
  type: "Convolution"
  bottom: "res2c_branch2b"
  top: "res2c_branch2c"
  param {
    lr_mult: 1
    decay_mult: 1
  }
  convolution_param {
    num_output: 256
    bias_term: false
    pad: 0
    kernel_size: 1
    stride: 1
  }
}
layer {
  name: "bn2c_branch2c"
  type: "BatchNorm"
  bottom: "res2c_branch2c"
  top: "res2c_branch2c"
  batch_norm_param {
    use_global_stats: true
  }
}
layer {
  name: "scale2c_branch2c"
  type: "Scale"
  bottom: "res2c_branch2c"
  top: "res2c_branch2c"
  scale_param {
    bias_term: true
  }
}
layer {
  name: "res2c"
  type: "Eltwise"
  bottom: "res2b"
  bottom: "res2c_branch2c"
  top: "res2c"
}
layer {
  name: "res2c_relu"
  type: "ReLU"
  bottom: "res2c"
  top: "res2c"
}
layer {
  name: "res3a_branch1"
  type: "Convolution"
  bottom: "res2c"
  top: "res3a_branch1"
  param {
    lr_mult: 1
    decay_mult: 1
  }
  convolution_param {
    num_output: 512
    bias_term: false
    pad: 0
    kernel_size: 1
    stride: 2
  }
}
layer {
  name: "bn3a_branch1"
  type: "BatchNorm"
  bottom: "res3a_branch1"
  top: "res3a_branch1"
  batch_norm_param {
    use_global_stats: true
  }
}
layer {
  name: "scale3a_branch1"
  type: "Scale"
  bottom: "res3a_branch1"
  top: "res3a_branch1"
  scale_param {
    bias_term: true
  }
}
layer {
  name: "res3a_branch2a"
  type: "Convolution"
  bottom: "res2c"
  top: "res3a_branch2a"
  param {
    lr_mult: 1
    decay_mult: 1
  }
  convolution_param {
    num_output: 128
    bias_term: false
    pad: 0
    kernel_size: 1
    stride: 2
  }
}
layer {
  name: "bn3a_branch2a"
  type: "BatchNorm"
  bottom: "res3a_branch2a"
  top: "res3a_branch2a"
  batch_norm_param {
    use_global_stats: true
  }
}
layer {
  name: "scale3a_branch2a"
  type: "Scale"
  bottom: "res3a_branch2a"
  top: "res3a_branch2a"
  scale_param {
    bias_term: true
  }
}
layer {
  name: "res3a_branch2a_relu"
  type: "ReLU"
  bottom: "res3a_branch2a"
  top: "res3a_branch2a"
}
layer {
  name: "res3a_branch2b"
  type: "Convolution"
  bottom: "res3a_branch2a"
  top: "res3a_branch2b"
  param {
    lr_mult: 1
    decay_mult: 1
  }
  convolution_param {
    num_output: 128
    bias_term: false
    pad: 1
    kernel_size: 3
    stride: 1
  }
}
layer {
  name: "bn3a_branch2b"
  type: "BatchNorm"
  bottom: "res3a_branch2b"
  top: "res3a_branch2b"
  batch_norm_param {
    use_global_stats: true
  }
}
layer {
  name: "scale3a_branch2b"
  type: "Scale"
  bottom: "res3a_branch2b"
  top: "res3a_branch2b"
  scale_param {
    bias_term: true
  }
}
layer {
  name: "res3a_branch2b_relu"
  type: "ReLU"
  bottom: "res3a_branch2b"
  top: "res3a_branch2b"
}
layer {
  name: "res3a_branch2c"
  type: "Convolution"
  bottom: "res3a_branch2b"
  top: "res3a_branch2c"
  param {
    lr_mult: 1
    decay_mult: 1
  }
  convolution_param {
    num_output: 512
    bias_term: false
    pad: 0
    kernel_size: 1
    stride: 1
  }
}
layer {
  name: "bn3a_branch2c"
  type: "BatchNorm"
  bottom: "res3a_branch2c"
  top: "res3a_branch2c"
  batch_norm_param {
    use_global_stats: true
  }
}
layer {
  name: "scale3a_branch2c"
  type: "Scale"
  bottom: "res3a_branch2c"
  top: "res3a_branch2c"
  scale_param {
    bias_term: true
  }
}
layer {
  name: "res3a"
  type: "Eltwise"
  bottom: "res3a_branch1"
  bottom: "res3a_branch2c"
  top: "res3a"
}
layer {
  name: "res3a_relu"
  type: "ReLU"
  bottom: "res3a"
  top: "res3a"
}
layer {
  name: "res3b_branch2a"
  type: "Convolution"
  bottom: "res3a"
  top: "res3b_branch2a"
  param {
    lr_mult: 1
    decay_mult: 1
  }
  convolution_param {
    num_output: 128
    bias_term: false
    pad: 0
    kernel_size: 1
    stride: 1
  }
}
layer {
  name: "bn3b_branch2a"
  type: "BatchNorm"
  bottom: "res3b_branch2a"
  top: "res3b_branch2a"
  batch_norm_param {
    use_global_stats: true
  }
}
layer {
  name: "scale3b_branch2a"
  type: "Scale"
  bottom: "res3b_branch2a"
  top: "res3b_branch2a"
  scale_param {
    bias_term: true
  }
}
layer {
  name: "res3b_branch2a_relu"
  type: "ReLU"
  bottom: "res3b_branch2a"
  top: "res3b_branch2a"
}
layer {
  name: "res3b_branch2b"
  type: "Convolution"
  bottom: "res3b_branch2a"
  top: "res3b_branch2b"
  param {
    lr_mult: 1
    decay_mult: 1
  }
  convolution_param {
    num_output: 128
    bias_term: false
    pad: 1
    kernel_size: 3
    stride: 1
  }
}
layer {
  name: "bn3b_branch2b"
  type: "BatchNorm"
  bottom: "res3b_branch2b"
  top: "res3b_branch2b"
  batch_norm_param {
    use_global_stats: true
  }
}
layer {
  name: "scale3b_branch2b"
  type: "Scale"
  bottom: "res3b_branch2b"
  top: "res3b_branch2b"
  scale_param {
    bias_term: true
  }
}
layer {
  name: "res3b_branch2b_relu"
  type: "ReLU"
  bottom: "res3b_branch2b"
  top: "res3b_branch2b"
}
layer {
  name: "res3b_branch2c"
  type: "Convolution"
  bottom: "res3b_branch2b"
  top: "res3b_branch2c"
  param {
    lr_mult: 1
    decay_mult: 1
  }
  convolution_param {
    num_output: 512
    bias_term: false
    pad: 0
    kernel_size: 1
    stride: 1
  }
}
layer {
  name: "bn3b_branch2c"
  type: "BatchNorm"
  bottom: "res3b_branch2c"
  top: "res3b_branch2c"
  batch_norm_param {
    use_global_stats: true
  }
}
layer {
  name: "scale3b_branch2c"
  type: "Scale"
  bottom: "res3b_branch2c"
  top: "res3b_branch2c"
  scale_param {
    bias_term: true
  }
}
layer {
  name: "res3b"
  type: "Eltwise"
  bottom: "res3a"
  bottom: "res3b_branch2c"
  top: "res3b"
}
layer {
  name: "res3b_relu"
  type: "ReLU"
  bottom: "res3b"
  top: "res3b"
}
layer {
  name: "res3c_branch2a"
  type: "Convolution"
  bottom: "res3b"
  top: "res3c_branch2a"
  param {
    lr_mult: 1
    decay_mult: 1
  }
  convolution_param {
    num_output: 128
    bias_term: false
    pad: 0
    kernel_size: 1
    stride: 1
  }
}
layer {
  name: "bn3c_branch2a"
  type: "BatchNorm"
  bottom: "res3c_branch2a"
  top: "res3c_branch2a"
  batch_norm_param {
    use_global_stats: true
  }
}
layer {
  name: "scale3c_branch2a"
  type: "Scale"
  bottom: "res3c_branch2a"
  top: "res3c_branch2a"
  scale_param {
    bias_term: true
  }
}
layer {
  name: "res3c_branch2a_relu"
  type: "ReLU"
  bottom: "res3c_branch2a"
  top: "res3c_branch2a"
}
layer {
  name: "res3c_branch2b"
  type: "Convolution"
  bottom: "res3c_branch2a"
  top: "res3c_branch2b"
  param {
    lr_mult: 1
    decay_mult: 1
  }
  convolution_param {
    num_output: 128
    bias_term: false
    pad: 1
    kernel_size: 3
    stride: 1
  }
}
layer {
  name: "bn3c_branch2b"
  type: "BatchNorm"
  bottom: "res3c_branch2b"
  top: "res3c_branch2b"
  batch_norm_param {
    use_global_stats: true
  }
}
layer {
  name: "scale3c_branch2b"
  type: "Scale"
  bottom: "res3c_branch2b"
  top: "res3c_branch2b"
  scale_param {
    bias_term: true
  }
}
layer {
  name: "res3c_branch2b_relu"
  type: "ReLU"
  bottom: "res3c_branch2b"
  top: "res3c_branch2b"
}
layer {
  name: "res3c_branch2c"
  type: "Convolution"
  bottom: "res3c_branch2b"
  top: "res3c_branch2c"
  param {
    lr_mult: 1
    decay_mult: 1
  }
  convolution_param {
    num_output: 512
    bias_term: false
    pad: 0
    kernel_size: 1
    stride: 1
  }
}
layer {
  name: "bn3c_branch2c"
  type: "BatchNorm"
  bottom: "res3c_branch2c"
  top: "res3c_branch2c"
  batch_norm_param {
    use_global_stats: true
  }
}
layer {
  name: "scale3c_branch2c"
  type: "Scale"
  bottom: "res3c_branch2c"
  top: "res3c_branch2c"
  scale_param {
    bias_term: true
  }
}
layer {
  name: "res3c"
  type: "Eltwise"
  bottom: "res3b"
  bottom: "res3c_branch2c"
  top: "res3c"
}
layer {
  name: "res3c_relu"
  type: "ReLU"
  bottom: "res3c"
  top: "res3c"
}
layer {
  name: "res3d_branch2a"
  type: "Convolution"
  bottom: "res3c"
  top: "res3d_branch2a"
  param {
    lr_mult: 1
    decay_mult: 1
  }
  convolution_param {
    num_output: 128
    bias_term: false
    pad: 0
    kernel_size: 1
    stride: 1
  }
}
layer {
  name: "bn3d_branch2a"
  type: "BatchNorm"
  bottom: "res3d_branch2a"
  top: "res3d_branch2a"
  batch_norm_param {
    use_global_stats: true
  }
}
layer {
  name: "scale3d_branch2a"
  type: "Scale"
  bottom: "res3d_branch2a"
  top: "res3d_branch2a"
  scale_param {
    bias_term: true
  }
}
layer {
  name: "res3d_branch2a_relu"
  type: "ReLU"
  bottom: "res3d_branch2a"
  top: "res3d_branch2a"
}
layer {
  name: "res3d_branch2b"
  type: "Convolution"
  bottom: "res3d_branch2a"
  top: "res3d_branch2b"
  param {
    lr_mult: 1
    decay_mult: 1
  }
  convolution_param {
    num_output: 128
    bias_term: false
    pad: 1
    kernel_size: 3
    stride: 1
  }
}
layer {
  name: "bn3d_branch2b"
  type: "BatchNorm"
  bottom: "res3d_branch2b"
  top: "res3d_branch2b"
  batch_norm_param {
    use_global_stats: true
  }
}
layer {
  name: "scale3d_branch2b"
  type: "Scale"
  bottom: "res3d_branch2b"
  top: "res3d_branch2b"
  scale_param {
    bias_term: true
  }
}
layer {
  name: "res3d_branch2b_relu"
  type: "ReLU"
  bottom: "res3d_branch2b"
  top: "res3d_branch2b"
}
layer {
  name: "res3d_branch2c"
  type: "Convolution"
  bottom: "res3d_branch2b"
  top: "res3d_branch2c"
  param {
    lr_mult: 1
    decay_mult: 1
  }
  convolution_param {
    num_output: 512
    bias_term: false
    pad: 0
    kernel_size: 1
    stride: 1
  }
}
layer {
  name: "bn3d_branch2c"
  type: "BatchNorm"
  bottom: "res3d_branch2c"
  top: "res3d_branch2c"
  batch_norm_param {
    use_global_stats: true
  }
}
layer {
  name: "scale3d_branch2c"
  type: "Scale"
  bottom: "res3d_branch2c"
  top: "res3d_branch2c"
  scale_param {
    bias_term: true
  }
}
layer {
  name: "res3d"
  type: "Eltwise"
  bottom: "res3c"
  bottom: "res3d_branch2c"
  top: "res3d"
}
layer {
  name: "res3d_relu"
  type: "ReLU"
  bottom: "res3d"
  top: "res3d"
}
layer {
  name: "res4a_branch1"
  type: "Convolution"
  bottom: "res3d"
  top: "res4a_branch1"
  param {
    lr_mult: 1
    decay_mult: 1
  }
  convolution_param {
    num_output: 1024
    bias_term: false
    pad: 0
    kernel_size: 1
    stride: 2
  }
}
layer {
  name: "bn4a_branch1"
  type: "BatchNorm"
  bottom: "res4a_branch1"
  top: "res4a_branch1"
  batch_norm_param {
    use_global_stats: true
  }
}
layer {
  name: "scale4a_branch1"
  type: "Scale"
  bottom: "res4a_branch1"
  top: "res4a_branch1"
  scale_param {
    bias_term: true
  }
}
layer {
  name: "res4a_branch2a"
  type: "Convolution"
  bottom: "res3d"
  top: "res4a_branch2a"
  param {
    lr_mult: 1
    decay_mult: 1
  }
  convolution_param {
    num_output: 256
    bias_term: false
    pad: 0
    kernel_size: 1
    stride: 2
  }
}
layer {
  name: "bn4a_branch2a"
  type: "BatchNorm"
  bottom: "res4a_branch2a"
  top: "res4a_branch2a"
  batch_norm_param {
    use_global_stats: true
  }
}
layer {
  name: "scale4a_branch2a"
  type: "Scale"
  bottom: "res4a_branch2a"
  top: "res4a_branch2a"
  scale_param {
    bias_term: true
  }
}
layer {
  name: "res4a_branch2a_relu"
  type: "ReLU"
  bottom: "res4a_branch2a"
  top: "res4a_branch2a"
}
layer {
  name: "res4a_branch2b"
  type: "Convolution"
  bottom: "res4a_branch2a"
  top: "res4a_branch2b"
  param {
    lr_mult: 1
    decay_mult: 1
  }
  convolution_param {
    num_output: 256
    bias_term: false
    pad: 1
    kernel_size: 3
    stride: 1
  }
}
layer {
  name: "bn4a_branch2b"
  type: "BatchNorm"
  bottom: "res4a_branch2b"
  top: "res4a_branch2b"
  batch_norm_param {
    use_global_stats: true
  }
}
layer {
  name: "scale4a_branch2b"
  type: "Scale"
  bottom: "res4a_branch2b"
  top: "res4a_branch2b"
  scale_param {
    bias_term: true
  }
}
layer {
  name: "res4a_branch2b_relu"
  type: "ReLU"
  bottom: "res4a_branch2b"
  top: "res4a_branch2b"
}
layer {
  name: "res4a_branch2c"
  type: "Convolution"
  bottom: "res4a_branch2b"
  top: "res4a_branch2c"
  param {
    lr_mult: 1
    decay_mult: 1
  }
  convolution_param {
    num_output: 1024
    bias_term: false
    pad: 0
    kernel_size: 1
    stride: 1
  }
}
layer {
  name: "bn4a_branch2c"
  type: "BatchNorm"
  bottom: "res4a_branch2c"
  top: "res4a_branch2c"
  batch_norm_param {
    use_global_stats: true
  }
}
layer {
  name: "scale4a_branch2c"
  type: "Scale"
  bottom: "res4a_branch2c"
  top: "res4a_branch2c"
  scale_param {
    bias_term: true
  }
}
layer {
  name: "res4a"
  type: "Eltwise"
  bottom: "res4a_branch1"
  bottom: "res4a_branch2c"
  top: "res4a"
}
layer {
  name: "res4a_relu"
  type: "ReLU"
  bottom: "res4a"
  top: "res4a"
}
layer {
  name: "res4b_branch2a"
  type: "Convolution"
  bottom: "res4a"
  top: "res4b_branch2a"
  param {
    lr_mult: 1
    decay_mult: 1
  }
  convolution_param {
    num_output: 256
    bias_term: false
    pad: 0
    kernel_size: 1
    stride: 1
  }
}
layer {
  name: "bn4b_branch2a"
  type: "BatchNorm"
  bottom: "res4b_branch2a"
  top: "res4b_branch2a"
  batch_norm_param {
    use_global_stats: true
  }
}
layer {
  name: "scale4b_branch2a"
  type: "Scale"
  bottom: "res4b_branch2a"
  top: "res4b_branch2a"
  scale_param {
    bias_term: true
  }
}
layer {
  name: "res4b_branch2a_relu"
  type: "ReLU"
  bottom: "res4b_branch2a"
  top: "res4b_branch2a"
}
layer {
  name: "res4b_branch2b"
  type: "Convolution"
  bottom: "res4b_branch2a"
  top: "res4b_branch2b"
  param {
    lr_mult: 1
    decay_mult: 1
  }
  convolution_param {
    num_output: 256
    bias_term: false
    pad: 1
    kernel_size: 3
    stride: 1
  }
}
layer {
  name: "bn4b_branch2b"
  type: "BatchNorm"
  bottom: "res4b_branch2b"
  top: "res4b_branch2b"
  batch_norm_param {
    use_global_stats: true
  }
}
layer {
  name: "scale4b_branch2b"
  type: "Scale"
  bottom: "res4b_branch2b"
  top: "res4b_branch2b"
  scale_param {
    bias_term: true
  }
}
layer {
  name: "res4b_branch2b_relu"
  type: "ReLU"
  bottom: "res4b_branch2b"
  top: "res4b_branch2b"
}
layer {
  name: "res4b_branch2c"
  type: "Convolution"
  bottom: "res4b_branch2b"
  top: "res4b_branch2c"
  param {
    lr_mult: 1
    decay_mult: 1
  }
  convolution_param {
    num_output: 1024
    bias_term: false
    pad: 0
    kernel_size: 1
    stride: 1
  }
}
layer {
  name: "bn4b_branch2c"
  type: "BatchNorm"
  bottom: "res4b_branch2c"
  top: "res4b_branch2c"
  batch_norm_param {
    use_global_stats: true
  }
}
layer {
  name: "scale4b_branch2c"
  type: "Scale"
  bottom: "res4b_branch2c"
  top: "res4b_branch2c"
  scale_param {
    bias_term: true
  }
}
layer {
  name: "res4b"
  type: "Eltwise"
  bottom: "res4a"
  bottom: "res4b_branch2c"
  top: "res4b"
}
layer {
  name: "res4b_relu"
  type: "ReLU"
  bottom: "res4b"
  top: "res4b"
}
layer {
  name: "res4c_branch2a"
  type: "Convolution"
  bottom: "res4b"
  top: "res4c_branch2a"
  param {
    lr_mult: 1
    decay_mult: 1
  }
  convolution_param {
    num_output: 256
    bias_term: false
    pad: 0
    kernel_size: 1
    stride: 1
  }
}
layer {
  name: "bn4c_branch2a"
  type: "BatchNorm"
  bottom: "res4c_branch2a"
  top: "res4c_branch2a"
  batch_norm_param {
    use_global_stats: true
  }
}
layer {
  name: "scale4c_branch2a"
  type: "Scale"
  bottom: "res4c_branch2a"
  top: "res4c_branch2a"
  scale_param {
    bias_term: true
  }
}
layer {
  name: "res4c_branch2a_relu"
  type: "ReLU"
  bottom: "res4c_branch2a"
  top: "res4c_branch2a"
}
layer {
  name: "res4c_branch2b"
  type: "Convolution"
  bottom: "res4c_branch2a"
  top: "res4c_branch2b"
  param {
    lr_mult: 1
    decay_mult: 1
  }
  convolution_param {
    num_output: 256
    bias_term: false
    pad: 1
    kernel_size: 3
    stride: 1
  }
}
layer {
  name: "bn4c_branch2b"
  type: "BatchNorm"
  bottom: "res4c_branch2b"
  top: "res4c_branch2b"
  batch_norm_param {
    use_global_stats: true
  }
}
layer {
  name: "scale4c_branch2b"
  type: "Scale"
  bottom: "res4c_branch2b"
  top: "res4c_branch2b"
  scale_param {
    bias_term: true
  }
}
layer {
  name: "res4c_branch2b_relu"
  type: "ReLU"
  bottom: "res4c_branch2b"
  top: "res4c_branch2b"
}
layer {
  name: "res4c_branch2c"
  type: "Convolution"
  bottom: "res4c_branch2b"
  top: "res4c_branch2c"
  param {
    lr_mult: 1
    decay_mult: 1
  }
  convolution_param {
    num_output: 1024
    bias_term: false
    pad: 0
    kernel_size: 1
    stride: 1
  }
}
layer {
  name: "bn4c_branch2c"
  type: "BatchNorm"
  bottom: "res4c_branch2c"
  top: "res4c_branch2c"
  batch_norm_param {
    use_global_stats: true
  }
}
layer {
  name: "scale4c_branch2c"
  type: "Scale"
  bottom: "res4c_branch2c"
  top: "res4c_branch2c"
  scale_param {
    bias_term: true
  }
}
layer {
  name: "res4c"
  type: "Eltwise"
  bottom: "res4b"
  bottom: "res4c_branch2c"
  top: "res4c"
}
layer {
  name: "res4c_relu"
  type: "ReLU"
  bottom: "res4c"
  top: "res4c"
}
layer {
  name: "res4d_branch2a"
  type: "Convolution"
  bottom: "res4c"
  top: "res4d_branch2a"
  param {
    lr_mult: 1
    decay_mult: 1
  }
  convolution_param {
    num_output: 256
    bias_term: false
    pad: 0
    kernel_size: 1
    stride: 1
  }
}
layer {
  name: "bn4d_branch2a"
  type: "BatchNorm"
  bottom: "res4d_branch2a"
  top: "res4d_branch2a"
  batch_norm_param {
    use_global_stats: true
  }
}
layer {
  name: "scale4d_branch2a"
  type: "Scale"
  bottom: "res4d_branch2a"
  top: "res4d_branch2a"
  scale_param {
    bias_term: true
  }
}
layer {
  name: "res4d_branch2a_relu"
  type: "ReLU"
  bottom: "res4d_branch2a"
  top: "res4d_branch2a"
}
layer {
  name: "res4d_branch2b"
  type: "Convolution"
  bottom: "res4d_branch2a"
  top: "res4d_branch2b"
  param {
    lr_mult: 1
    decay_mult: 1
  }
  convolution_param {
    num_output: 256
    bias_term: false
    pad: 1
    kernel_size: 3
    stride: 1
  }
}
layer {
  name: "bn4d_branch2b"
  type: "BatchNorm"
  bottom: "res4d_branch2b"
  top: "res4d_branch2b"
  batch_norm_param {
    use_global_stats: true
  }
}
layer {
  name: "scale4d_branch2b"
  type: "Scale"
  bottom: "res4d_branch2b"
  top: "res4d_branch2b"
  scale_param {
    bias_term: true
  }
}
layer {
  name: "res4d_branch2b_relu"
  type: "ReLU"
  bottom: "res4d_branch2b"
  top: "res4d_branch2b"
}
layer {
  name: "res4d_branch2c"
  type: "Convolution"
  bottom: "res4d_branch2b"
  top: "res4d_branch2c"
  param {
    lr_mult: 1
    decay_mult: 1
  }
  convolution_param {
    num_output: 1024
    bias_term: false
    pad: 0
    kernel_size: 1
    stride: 1
  }
}
layer {
  name: "bn4d_branch2c"
  type: "BatchNorm"
  bottom: "res4d_branch2c"
  top: "res4d_branch2c"
  batch_norm_param {
    use_global_stats: true
  }
}
layer {
  name: "scale4d_branch2c"
  type: "Scale"
  bottom: "res4d_branch2c"
  top: "res4d_branch2c"
  scale_param {
    bias_term: true
  }
}
layer {
  name: "res4d"
  type: "Eltwise"
  bottom: "res4c"
  bottom: "res4d_branch2c"
  top: "res4d"
}
layer {
  name: "res4d_relu"
  type: "ReLU"
  bottom: "res4d"
  top: "res4d"
}
layer {
  name: "res4e_branch2a"
  type: "Convolution"
  bottom: "res4d"
  top: "res4e_branch2a"
  param {
    lr_mult: 1
    decay_mult: 1
  }
  convolution_param {
    num_output: 256
    bias_term: false
    pad: 0
    kernel_size: 1
    stride: 1
  }
}
layer {
  name: "bn4e_branch2a"
  type: "BatchNorm"
  bottom: "res4e_branch2a"
  top: "res4e_branch2a"
  batch_norm_param {
    use_global_stats: true
  }
}
layer {
  name: "scale4e_branch2a"
  type: "Scale"
  bottom: "res4e_branch2a"
  top: "res4e_branch2a"
  scale_param {
    bias_term: true
  }
}
layer {
  name: "res4e_branch2a_relu"
  type: "ReLU"
  bottom: "res4e_branch2a"
  top: "res4e_branch2a"
}
layer {
  name: "res4e_branch2b"
  type: "Convolution"
  bottom: "res4e_branch2a"
  top: "res4e_branch2b"
  param {
    lr_mult: 1
    decay_mult: 1
  }
  convolution_param {
    num_output: 256
    bias_term: false
    pad: 1
    kernel_size: 3
    stride: 1
  }
}
layer {
  name: "bn4e_branch2b"
  type: "BatchNorm"
  bottom: "res4e_branch2b"
  top: "res4e_branch2b"
  batch_norm_param {
    use_global_stats: true
  }
}
layer {
  name: "scale4e_branch2b"
  type: "Scale"
  bottom: "res4e_branch2b"
  top: "res4e_branch2b"
  scale_param {
    bias_term: true
  }
}
layer {
  name: "res4e_branch2b_relu"
  type: "ReLU"
  bottom: "res4e_branch2b"
  top: "res4e_branch2b"
}
layer {
  name: "res4e_branch2c"
  type: "Convolution"
  bottom: "res4e_branch2b"
  top: "res4e_branch2c"
  param {
    lr_mult: 1
    decay_mult: 1
  }
  convolution_param {
    num_output: 1024
    bias_term: false
    pad: 0
    kernel_size: 1
    stride: 1
  }
}
layer {
  name: "bn4e_branch2c"
  type: "BatchNorm"
  bottom: "res4e_branch2c"
  top: "res4e_branch2c"
  batch_norm_param {
    use_global_stats: true
  }
}
layer {
  name: "scale4e_branch2c"
  type: "Scale"
  bottom: "res4e_branch2c"
  top: "res4e_branch2c"
  scale_param {
    bias_term: true
  }
}
layer {
  name: "res4e"
  type: "Eltwise"
  bottom: "res4d"
  bottom: "res4e_branch2c"
  top: "res4e"
}
layer {
  name: "res4e_relu"
  type: "ReLU"
  bottom: "res4e"
  top: "res4e"
}
layer {
  name: "res4f_branch2a"
  type: "Convolution"
  bottom: "res4e"
  top: "res4f_branch2a"
  param {
    lr_mult: 1
    decay_mult: 1
  }
  convolution_param {
    num_output: 256
    bias_term: false
    pad: 0
    kernel_size: 1
    stride: 1
  }
}
layer {
  name: "bn4f_branch2a"
  type: "BatchNorm"
  bottom: "res4f_branch2a"
  top: "res4f_branch2a"
  batch_norm_param {
    use_global_stats: true
  }
}
layer {
  name: "scale4f_branch2a"
  type: "Scale"
  bottom: "res4f_branch2a"
  top: "res4f_branch2a"
  scale_param {
    bias_term: true
  }
}
layer {
  name: "res4f_branch2a_relu"
  type: "ReLU"
  bottom: "res4f_branch2a"
  top: "res4f_branch2a"
}
layer {
  name: "res4f_branch2b"
  type: "Convolution"
  bottom: "res4f_branch2a"
  top: "res4f_branch2b"
  param {
    lr_mult: 1
    decay_mult: 1
  }
  convolution_param {
    num_output: 256
    bias_term: false
    pad: 1
    kernel_size: 3
    stride: 1
  }
}
layer {
  name: "bn4f_branch2b"
  type: "BatchNorm"
  bottom: "res4f_branch2b"
  top: "res4f_branch2b"
  batch_norm_param {
    use_global_stats: true
  }
}
layer {
  name: "scale4f_branch2b"
  type: "Scale"
  bottom: "res4f_branch2b"
  top: "res4f_branch2b"
  scale_param {
    bias_term: true
  }
}
layer {
  name: "res4f_branch2b_relu"
  type: "ReLU"
  bottom: "res4f_branch2b"
  top: "res4f_branch2b"
}
layer {
  name: "res4f_branch2c"
  type: "Convolution"
  bottom: "res4f_branch2b"
  top: "res4f_branch2c"
  param {
    lr_mult: 1
    decay_mult: 1
  }
  convolution_param {
    num_output: 1024
    bias_term: false
    pad: 0
    kernel_size: 1
    stride: 1
  }
}
layer {
  name: "bn4f_branch2c"
  type: "BatchNorm"
  bottom: "res4f_branch2c"
  top: "res4f_branch2c"
  batch_norm_param {
    use_global_stats: true
  }
}
layer {
  name: "scale4f_branch2c"
  type: "Scale"
  bottom: "res4f_branch2c"
  top: "res4f_branch2c"
  scale_param {
    bias_term: true
  }
}
layer {
  name: "res4f"
  type: "Eltwise"
  bottom: "res4e"
  bottom: "res4f_branch2c"
  top: "res4f"
}
layer {
  name: "res4f_relu"
  type: "ReLU"
  bottom: "res4f"
  top: "res
I0629 03:46:19.085434  2102 layer_factory.hpp:77] Creating layer input
I0629 03:46:19.085539  2102 db_lmdb.cpp:35] Opened lmdb ../../../data_subsets/subtrain2_lmdb
I0629 03:46:19.085572  2102 net.cpp:84] Creating Layer input
I0629 03:46:19.085587  2102 net.cpp:380] input -> data
I0629 03:46:19.085613  2102 net.cpp:380] input -> label
I0629 03:46:19.085630  2102 data_transformer.cpp:25] Loading mean file from: ../../../data_subsets/subtrain2_mean.binaryproto
I0629 03:46:19.098487  2102 data_layer.cpp:45] output data size: 8,3,224,224
I0629 03:46:19.109601  2102 net.cpp:122] Setting up input
I0629 03:46:19.109640  2102 net.cpp:129] Top shape: 8 3 224 224 (1204224)
I0629 03:46:19.109648  2102 net.cpp:129] Top shape: 8 (8)
I0629 03:46:19.109652  2102 net.cpp:137] Memory required for data: 4816928
I0629 03:46:19.109663  2102 layer_factory.hpp:77] Creating layer label_input_1_split
I0629 03:46:19.109679  2102 net.cpp:84] Creating Layer label_input_1_split
I0629 03:46:19.109690  2102 net.cpp:406] label_input_1_split <- label
I0629 03:46:19.109707  2102 net.cpp:380] label_input_1_split -> label_input_1_split_0
I0629 03:46:19.109725  2102 net.cpp:380] label_input_1_split -> label_input_1_split_1
I0629 03:46:19.109733  2102 net.cpp:380] label_input_1_split -> label_input_1_split_2
I0629 03:46:19.109740  2102 net.cpp:380] label_input_1_split -> label_input_1_split_3
I0629 03:46:19.109799  2102 net.cpp:122] Setting up label_input_1_split
I0629 03:46:19.109813  2102 net.cpp:129] Top shape: 8 (8)
I0629 03:46:19.109819  2102 net.cpp:129] Top shape: 8 (8)
I0629 03:46:19.109823  2102 net.cpp:129] Top shape: 8 (8)
I0629 03:46:19.109828  2102 net.cpp:129] Top shape: 8 (8)
I0629 03:46:19.109833  2102 net.cpp:137] Memory required for data: 4817056
I0629 03:46:19.109836  2102 layer_factory.hpp:77] Creating layer conv1
I0629 03:46:19.109855  2102 net.cpp:84] Creating Layer conv1
I0629 03:46:19.109869  2102 net.cpp:406] conv1 <- data
I0629 03:46:19.109876  2102 net.cpp:380] conv1 -> conv1
I0629 03:46:19.276528  2102 net.cpp:122] Setting up conv1
I0629 03:46:19.276577  2102 net.cpp:129] Top shape: 8 64 112 112 (6422528)
I0629 03:46:19.276583  2102 net.cpp:137] Memory required for data: 30507168
I0629 03:46:19.276605  2102 layer_factory.hpp:77] Creating layer bn_conv1
I0629 03:46:19.276623  2102 net.cpp:84] Creating Layer bn_conv1
I0629 03:46:19.276628  2102 net.cpp:406] bn_conv1 <- conv1
I0629 03:46:19.276636  2102 net.cpp:367] bn_conv1 -> conv1 (in-place)
I0629 03:46:19.276814  2102 net.cpp:122] Setting up bn_conv1
I0629 03:46:19.276831  2102 net.cpp:129] Top shape: 8 64 112 112 (6422528)
I0629 03:46:19.276860  2102 net.cpp:137] Memory required for data: 56197280
I0629 03:46:19.276873  2102 layer_factory.hpp:77] Creating layer scale_conv1
I0629 03:46:19.276887  2102 net.cpp:84] Creating Layer scale_conv1
I0629 03:46:19.276893  2102 net.cpp:406] scale_conv1 <- conv1
I0629 03:46:19.276901  2102 net.cpp:367] scale_conv1 -> conv1 (in-place)
I0629 03:46:19.276957  2102 layer_factory.hpp:77] Creating layer scale_conv1
I0629 03:46:19.277093  2102 net.cpp:122] Setting up scale_conv1
I0629 03:46:19.277110  2102 net.cpp:129] Top shape: 8 64 112 112 (6422528)
I0629 03:46:19.277114  2102 net.cpp:137] Memory required for data: 81887392
I0629 03:46:19.277122  2102 layer_factory.hpp:77] Creating layer conv1_relu
I0629 03:46:19.277132  2102 net.cpp:84] Creating Layer conv1_relu
I0629 03:46:19.277135  2102 net.cpp:406] conv1_relu <- conv1
I0629 03:46:19.277140  2102 net.cpp:367] conv1_relu -> conv1 (in-place)
I0629 03:46:19.277298  2102 net.cpp:122] Setting up conv1_relu
I0629 03:46:19.277315  2102 net.cpp:129] Top shape: 8 64 112 112 (6422528)
I0629 03:46:19.277319  2102 net.cpp:137] Memory required for data: 107577504
I0629 03:46:19.277323  2102 layer_factory.hpp:77] Creating layer pool1
I0629 03:46:19.277334  2102 net.cpp:84] Creating Layer pool1
I0629 03:46:19.277338  2102 net.cpp:406] pool1 <- conv1
I0629 03:46:19.277348  2102 net.cpp:380] pool1 -> pool1
I0629 03:46:19.277405  2102 net.cpp:122] Setting up pool1
I0629 03:46:19.277420  2102 net.cpp:129] Top shape: 8 64 56 56 (1605632)
I0629 03:46:19.277425  2102 net.cpp:137] Memory required for data: 114000032
I0629 03:46:19.277428  2102 layer_factory.hpp:77] Creating layer pool1_pool1_0_split
I0629 03:46:19.277436  2102 net.cpp:84] Creating Layer pool1_pool1_0_split
I0629 03:46:19.277439  2102 net.cpp:406] pool1_pool1_0_split <- pool1
I0629 03:46:19.277444  2102 net.cpp:380] pool1_pool1_0_split -> pool1_pool1_0_split_0
I0629 03:46:19.277452  2102 net.cpp:380] pool1_pool1_0_split -> pool1_pool1_0_split_1
I0629 03:46:19.277487  2102 net.cpp:122] Setting up pool1_pool1_0_split
I0629 03:46:19.277501  2102 net.cpp:129] Top shape: 8 64 56 56 (1605632)
I0629 03:46:19.277506  2102 net.cpp:129] Top shape: 8 64 56 56 (1605632)
I0629 03:46:19.277510  2102 net.cpp:137] Memory required for data: 126845088
I0629 03:46:19.277513  2102 layer_factory.hpp:77] Creating layer res2a_branch1
I0629 03:46:19.277529  2102 net.cpp:84] Creating Layer res2a_branch1
I0629 03:46:19.277532  2102 net.cpp:406] res2a_branch1 <- pool1_pool1_0_split_0
I0629 03:46:19.277540  2102 net.cpp:380] res2a_branch1 -> res2a_branch1
I0629 03:46:19.278475  2102 net.cpp:122] Setting up res2a_branch1
I0629 03:46:19.278496  2102 net.cpp:129] Top shape: 8 256 56 56 (6422528)
I0629 03:46:19.278501  2102 net.cpp:137] Memory required for data: 152535200
I0629 03:46:19.278507  2102 layer_factory.hpp:77] Creating layer bn2a_branch1
I0629 03:46:19.278517  2102 net.cpp:84] Creating Layer bn2a_branch1
I0629 03:46:19.278522  2102 net.cpp:406] bn2a_branch1 <- res2a_branch1
I0629 03:46:19.278527  2102 net.cpp:367] bn2a_branch1 -> res2a_branch1 (in-place)
I0629 03:46:19.279217  2102 net.cpp:122] Setting up bn2a_branch1
I0629 03:46:19.279237  2102 net.cpp:129] Top shape: 8 256 56 56 (6422528)
I0629 03:46:19.279242  2102 net.cpp:137] Memory required for data: 178225312
I0629 03:46:19.279253  2102 layer_factory.hpp:77] Creating layer scale2a_branch1
I0629 03:46:19.279263  2102 net.cpp:84] Creating Layer scale2a_branch1
I0629 03:46:19.279266  2102 net.cpp:406] scale2a_branch1 <- res2a_branch1
I0629 03:46:19.279273  2102 net.cpp:367] scale2a_branch1 -> res2a_branch1 (in-place)
I0629 03:46:19.279315  2102 layer_factory.hpp:77] Creating layer scale2a_branch1
I0629 03:46:19.279430  2102 net.cpp:122] Setting up scale2a_branch1
I0629 03:46:19.279445  2102 net.cpp:129] Top shape: 8 256 56 56 (6422528)
I0629 03:46:19.279449  2102 net.cpp:137] Memory required for data: 203915424
I0629 03:46:19.279456  2102 layer_factory.hpp:77] Creating layer res2a_branch2a
I0629 03:46:19.279467  2102 net.cpp:84] Creating Layer res2a_branch2a
I0629 03:46:19.279492  2102 net.cpp:406] res2a_branch2a <- pool1_pool1_0_split_1
I0629 03:46:19.279503  2102 net.cpp:380] res2a_branch2a -> res2a_branch2a
I0629 03:46:19.280326  2102 net.cpp:122] Setting up res2a_branch2a
I0629 03:46:19.280346  2102 net.cpp:129] Top shape: 8 64 56 56 (1605632)
I0629 03:46:19.280351  2102 net.cpp:137] Memory required for data: 210337952
I0629 03:46:19.280357  2102 layer_factory.hpp:77] Creating layer bn2a_branch2a
I0629 03:46:19.280364  2102 net.cpp:84] Creating Layer bn2a_branch2a
I0629 03:46:19.280369  2102 net.cpp:406] bn2a_branch2a <- res2a_branch2a
I0629 03:46:19.280377  2102 net.cpp:367] bn2a_branch2a -> res2a_branch2a (in-place)
I0629 03:46:19.280556  2102 net.cpp:122] Setting up bn2a_branch2a
I0629 03:46:19.280571  2102 net.cpp:129] Top shape: 8 64 56 56 (1605632)
I0629 03:46:19.280575  2102 net.cpp:137] Memory required for data: 216760480
I0629 03:46:19.280587  2102 layer_factory.hpp:77] Creating layer scale2a_branch2a
I0629 03:46:19.280597  2102 net.cpp:84] Creating Layer scale2a_branch2a
I0629 03:46:19.280601  2102 net.cpp:406] scale2a_branch2a <- res2a_branch2a
I0629 03:46:19.280607  2102 net.cpp:367] scale2a_branch2a -> res2a_branch2a (in-place)
I0629 03:46:19.280650  2102 layer_factory.hpp:77] Creating layer scale2a_branch2a
I0629 03:46:19.280773  2102 net.cpp:122] Setting up scale2a_branch2a
I0629 03:46:19.280788  2102 net.cpp:129] Top shape: 8 64 56 56 (1605632)
I0629 03:46:19.280792  2102 net.cpp:137] Memory required for data: 223183008
I0629 03:46:19.280799  2102 layer_factory.hpp:77] Creating layer res2a_branch2a_relu
I0629 03:46:19.280808  2102 net.cpp:84] Creating Layer res2a_branch2a_relu
I0629 03:46:19.280812  2102 net.cpp:406] res2a_branch2a_relu <- res2a_branch2a
I0629 03:46:19.280817  2102 net.cpp:367] res2a_branch2a_relu -> res2a_branch2a (in-place)
I0629 03:46:19.281060  2102 net.cpp:122] Setting up res2a_branch2a_relu
I0629 03:46:19.281078  2102 net.cpp:129] Top shape: 8 64 56 56 (1605632)
I0629 03:46:19.281082  2102 net.cpp:137] Memory required for data: 229605536
I0629 03:46:19.281086  2102 layer_factory.hpp:77] Creating layer res2a_branch2b
I0629 03:46:19.281097  2102 net.cpp:84] Creating Layer res2a_branch2b
I0629 03:46:19.281102  2102 net.cpp:406] res2a_branch2b <- res2a_branch2a
I0629 03:46:19.281108  2102 net.cpp:380] res2a_branch2b -> res2a_branch2b
I0629 03:46:19.282459  2102 net.cpp:122] Setting up res2a_branch2b
I0629 03:46:19.282480  2102 net.cpp:129] Top shape: 8 64 56 56 (1605632)
I0629 03:46:19.282483  2102 net.cpp:137] Memory required for data: 236028064
I0629 03:46:19.282490  2102 layer_factory.hpp:77] Creating layer bn2a_branch2b
I0629 03:46:19.282501  2102 net.cpp:84] Creating Layer bn2a_branch2b
I0629 03:46:19.282506  2102 net.cpp:406] bn2a_branch2b <- res2a_branch2b
I0629 03:46:19.282515  2102 net.cpp:367] bn2a_branch2b -> res2a_branch2b (in-place)
I0629 03:46:19.282701  2102 net.cpp:122] Setting up bn2a_branch2b
I0629 03:46:19.282716  2102 net.cpp:129] Top shape: 8 64 56 56 (1605632)
I0629 03:46:19.282719  2102 net.cpp:137] Memory required for data: 242450592
I0629 03:46:19.282732  2102 layer_factory.hpp:77] Creating layer scale2a_branch2b
I0629 03:46:19.282739  2102 net.cpp:84] Creating Layer scale2a_branch2b
I0629 03:46:19.282743  2102 net.cpp:406] scale2a_branch2b <- res2a_branch2b
I0629 03:46:19.282749  2102 net.cpp:367] scale2a_branch2b -> res2a_branch2b (in-place)
I0629 03:46:19.282793  2102 layer_factory.hpp:77] Creating layer scale2a_branch2b
I0629 03:46:19.282922  2102 net.cpp:122] Setting up scale2a_branch2b
I0629 03:46:19.282937  2102 net.cpp:129] Top shape: 8 64 56 56 (1605632)
I0629 03:46:19.282940  2102 net.cpp:137] Memory required for data: 248873120
I0629 03:46:19.282948  2102 layer_factory.hpp:77] Creating layer res2a_branch2b_relu
I0629 03:46:19.282953  2102 net.cpp:84] Creating Layer res2a_branch2b_relu
I0629 03:46:19.282958  2102 net.cpp:406] res2a_branch2b_relu <- res2a_branch2b
I0629 03:46:19.282965  2102 net.cpp:367] res2a_branch2b_relu -> res2a_branch2b (in-place)
I0629 03:46:19.283215  2102 net.cpp:122] Setting up res2a_branch2b_relu
I0629 03:46:19.283246  2102 net.cpp:129] Top shape: 8 64 56 56 (1605632)
I0629 03:46:19.283251  2102 net.cpp:137] Memory required for data: 255295648
I0629 03:46:19.283254  2102 layer_factory.hpp:77] Creating layer res2a_branch2c
I0629 03:46:19.283267  2102 net.cpp:84] Creating Layer res2a_branch2c
I0629 03:46:19.283272  2102 net.cpp:406] res2a_branch2c <- res2a_branch2b
I0629 03:46:19.283280  2102 net.cpp:380] res2a_branch2c -> res2a_branch2c
I0629 03:46:19.284222  2102 net.cpp:122] Setting up res2a_branch2c
I0629 03:46:19.284242  2102 net.cpp:129] Top shape: 8 256 56 56 (6422528)
I0629 03:46:19.284246  2102 net.cpp:137] Memory required for data: 280985760
I0629 03:46:19.284253  2102 layer_factory.hpp:77] Creating layer bn2a_branch2c
I0629 03:46:19.284263  2102 net.cpp:84] Creating Layer bn2a_branch2c
I0629 03:46:19.284268  2102 net.cpp:406] bn2a_branch2c <- res2a_branch2c
I0629 03:46:19.284273  2102 net.cpp:367] bn2a_branch2c -> res2a_branch2c (in-place)
I0629 03:46:19.284461  2102 net.cpp:122] Setting up bn2a_branch2c
I0629 03:46:19.284477  2102 net.cpp:129] Top shape: 8 256 56 56 (6422528)
I0629 03:46:19.284482  2102 net.cpp:137] Memory required for data: 306675872
I0629 03:46:19.284495  2102 layer_factory.hpp:77] Creating layer scale2a_branch2c
I0629 03:46:19.284502  2102 net.cpp:84] Creating Layer scale2a_branch2c
I0629 03:46:19.284507  2102 net.cpp:406] scale2a_branch2c <- res2a_branch2c
I0629 03:46:19.284512  2102 net.cpp:367] scale2a_branch2c -> res2a_branch2c (in-place)
I0629 03:46:19.284556  2102 layer_factory.hpp:77] Creating layer scale2a_branch2c
I0629 03:46:19.284677  2102 net.cpp:122] Setting up scale2a_branch2c
I0629 03:46:19.284692  2102 net.cpp:129] Top shape: 8 256 56 56 (6422528)
I0629 03:46:19.284696  2102 net.cpp:137] Memory required for data: 332365984
I0629 03:46:19.284703  2102 layer_factory.hpp:77] Creating layer res2a
I0629 03:46:19.284715  2102 net.cpp:84] Creating Layer res2a
I0629 03:46:19.284719  2102 net.cpp:406] res2a <- res2a_branch1
I0629 03:46:19.284724  2102 net.cpp:406] res2a <- res2a_branch2c
I0629 03:46:19.284729  2102 net.cpp:380] res2a -> res2a
I0629 03:46:19.284762  2102 net.cpp:122] Setting up res2a
I0629 03:46:19.284776  2102 net.cpp:129] Top shape: 8 256 56 56 (6422528)
I0629 03:46:19.284780  2102 net.cpp:137] Memory required for data: 358056096
I0629 03:46:19.284785  2102 layer_factory.hpp:77] Creating layer res2a_relu
I0629 03:46:19.284790  2102 net.cpp:84] Creating Layer res2a_relu
I0629 03:46:19.284793  2102 net.cpp:406] res2a_relu <- res2a
I0629 03:46:19.284801  2102 net.cpp:367] res2a_relu -> res2a (in-place)
I0629 03:46:19.284955  2102 net.cpp:122] Setting up res2a_relu
I0629 03:46:19.284970  2102 net.cpp:129] Top shape: 8 256 56 56 (6422528)
I0629 03:46:19.284974  2102 net.cpp:137] Memory required for data: 383746208
I0629 03:46:19.284978  2102 layer_factory.hpp:77] Creating layer res2a_res2a_relu_0_split
I0629 03:46:19.284986  2102 net.cpp:84] Creating Layer res2a_res2a_relu_0_split
I0629 03:46:19.284991  2102 net.cpp:406] res2a_res2a_relu_0_split <- res2a
I0629 03:46:19.284996  2102 net.cpp:380] res2a_res2a_relu_0_split -> res2a_res2a_relu_0_split_0
I0629 03:46:19.285003  2102 net.cpp:380] res2a_res2a_relu_0_split -> res2a_res2a_relu_0_split_1
I0629 03:46:19.285048  2102 net.cpp:122] Setting up res2a_res2a_relu_0_split
I0629 03:46:19.285063  2102 net.cpp:129] Top shape: 8 256 56 56 (6422528)
I0629 03:46:19.285068  2102 net.cpp:129] Top shape: 8 256 56 56 (6422528)
I0629 03:46:19.285071  2102 net.cpp:137] Memory required for data: 435126432
I0629 03:46:19.285075  2102 layer_factory.hpp:77] Creating layer res2b_branch2a
I0629 03:46:19.285085  2102 net.cpp:84] Creating Layer res2b_branch2a
I0629 03:46:19.285090  2102 net.cpp:406] res2b_branch2a <- res2a_res2a_relu_0_split_0
I0629 03:46:19.285099  2102 net.cpp:380] res2b_branch2a -> res2b_branch2a
I0629 03:46:19.285925  2102 net.cpp:122] Setting up res2b_branch2a
I0629 03:46:19.285944  2102 net.cpp:129] Top shape: 8 64 56 56 (1605632)
I0629 03:46:19.285948  2102 net.cpp:137] Memory required for data: 441548960
I0629 03:46:19.285967  2102 layer_factory.hpp:77] Creating layer bn2b_branch2a
I0629 03:46:19.285979  2102 net.cpp:84] Creating Layer bn2b_branch2a
I0629 03:46:19.285984  2102 net.cpp:406] bn2b_branch2a <- res2b_branch2a
I0629 03:46:19.285989  2102 net.cpp:367] bn2b_branch2a -> res2b_branch2a (in-place)
I0629 03:46:19.286180  2102 net.cpp:122] Setting up bn2b_branch2a
I0629 03:46:19.286195  2102 net.cpp:129] Top shape: 8 64 56 56 (1605632)
I0629 03:46:19.286201  2102 net.cpp:137] Memory required for data: 447971488
I0629 03:46:19.286216  2102 layer_factory.hpp:77] Creating layer scale2b_branch2a
I0629 03:46:19.286222  2102 net.cpp:84] Creating Layer scale2b_branch2a
I0629 03:46:19.286226  2102 net.cpp:406] scale2b_branch2a <- res2b_branch2a
I0629 03:46:19.286232  2102 net.cpp:367] scale2b_branch2a -> res2b_branch2a (in-place)
I0629 03:46:19.286279  2102 layer_factory.hpp:77] Creating layer scale2b_branch2a
I0629 03:46:19.286406  2102 net.cpp:122] Setting up scale2b_branch2a
I0629 03:46:19.286422  2102 net.cpp:129] Top shape: 8 64 56 56 (1605632)
I0629 03:46:19.286425  2102 net.cpp:137] Memory required for data: 454394016
I0629 03:46:19.286432  2102 layer_factory.hpp:77] Creating layer res2b_branch2a_relu
I0629 03:46:19.286442  2102 net.cpp:84] Creating Layer res2b_branch2a_relu
I0629 03:46:19.286445  2102 net.cpp:406] res2b_branch2a_relu <- res2b_branch2a
I0629 03:46:19.286450  2102 net.cpp:367] res2b_branch2a_relu -> res2b_branch2a (in-place)
I0629 03:46:19.286718  2102 net.cpp:122] Setting up res2b_branch2a_relu
I0629 03:46:19.286736  2102 net.cpp:129] Top shape: 8 64 56 56 (1605632)
I0629 03:46:19.286741  2102 net.cpp:137] Memory required for data: 460816544
I0629 03:46:19.286746  2102 layer_factory.hpp:77] Creating layer res2b_branch2b
I0629 03:46:19.286758  2102 net.cpp:84] Creating Layer res2b_branch2b
I0629 03:46:19.286763  2102 net.cpp:406] res2b_branch2b <- res2b_branch2a
I0629 03:46:19.286770  2102 net.cpp:380] res2b_branch2b -> res2b_branch2b
I0629 03:46:19.287521  2102 net.cpp:122] Setting up res2b_branch2b
I0629 03:46:19.287544  2102 net.cpp:129] Top shape: 8 64 56 56 (1605632)
I0629 03:46:19.287547  2102 net.cpp:137] Memory required for data: 467239072
I0629 03:46:19.287554  2102 layer_factory.hpp:77] Creating layer bn2b_branch2b
I0629 03:46:19.287560  2102 net.cpp:84] Creating Layer bn2b_branch2b
I0629 03:46:19.287564  2102 net.cpp:406] bn2b_branch2b <- res2b_branch2b
I0629 03:46:19.287572  2102 net.cpp:367] bn2b_branch2b -> res2b_branch2b (in-place)
I0629 03:46:19.287765  2102 net.cpp:122] Setting up bn2b_branch2b
I0629 03:46:19.287781  2102 net.cpp:129] Top shape: 8 64 56 56 (1605632)
I0629 03:46:19.287786  2102 net.cpp:137] Memory required for data: 473661600
I0629 03:46:19.287793  2102 layer_factory.hpp:77] Creating layer scale2b_branch2b
I0629 03:46:19.287801  2102 net.cpp:84] Creating Layer scale2b_branch2b
I0629 03:46:19.287804  2102 net.cpp:406] scale2b_branch2b <- res2b_branch2b
I0629 03:46:19.287812  2102 net.cpp:367] scale2b_branch2b -> res2b_branch2b (in-place)
I0629 03:46:19.287854  2102 layer_factory.hpp:77] Creating layer scale2b_branch2b
I0629 03:46:19.287994  2102 net.cpp:122] Setting up scale2b_branch2b
I0629 03:46:19.288010  2102 net.cpp:129] Top shape: 8 64 56 56 (1605632)
I0629 03:46:19.288014  2102 net.cpp:137] Memory required for data: 480084128
I0629 03:46:19.288022  2102 layer_factory.hpp:77] Creating layer res2b_branch2b_relu
I0629 03:46:19.288033  2102 net.cpp:84] Creating Layer res2b_branch2b_relu
I0629 03:46:19.288038  2102 net.cpp:406] res2b_branch2b_relu <- res2b_branch2b
I0629 03:46:19.288043  2102 net.cpp:367] res2b_branch2b_relu -> res2b_branch2b (in-place)
I0629 03:46:19.288302  2102 net.cpp:122] Setting up res2b_branch2b_relu
I0629 03:46:19.288321  2102 net.cpp:129] Top shape: 8 64 56 56 (1605632)
I0629 03:46:19.288324  2102 net.cpp:137] Memory required for data: 486506656
I0629 03:46:19.288329  2102 layer_factory.hpp:77] Creating layer res2b_branch2c
I0629 03:46:19.288341  2102 net.cpp:84] Creating Layer res2b_branch2c
I0629 03:46:19.288344  2102 net.cpp:406] res2b_branch2c <- res2b_branch2b
I0629 03:46:19.288363  2102 net.cpp:380] res2b_branch2c -> res2b_branch2c
I0629 03:46:19.289345  2102 net.cpp:122] Setting up res2b_branch2c
I0629 03:46:19.289364  2102 net.cpp:129] Top shape: 8 256 56 56 (6422528)
I0629 03:46:19.289368  2102 net.cpp:137] Memory required for data: 512196768
I0629 03:46:19.289376  2102 layer_factory.hpp:77] Creating layer bn2b_branch2c
I0629 03:46:19.289384  2102 net.cpp:84] Creating Layer bn2b_branch2c
I0629 03:46:19.289389  2102 net.cpp:406] bn2b_branch2c <- res2b_branch2c
I0629 03:46:19.289397  2102 net.cpp:367] bn2b_branch2c -> res2b_branch2c (in-place)
I0629 03:46:19.289584  2102 net.cpp:122] Setting up bn2b_branch2c
I0629 03:46:19.289600  2102 net.cpp:129] Top shape: 8 256 56 56 (6422528)
I0629 03:46:19.289604  2102 net.cpp:137] Memory required for data: 537886880
I0629 03:46:19.289613  2102 layer_factory.hpp:77] Creating layer scale2b_branch2c
I0629 03:46:19.289619  2102 net.cpp:84] Creating Layer scale2b_branch2c
I0629 03:46:19.289623  2102 net.cpp:406] scale2b_branch2c <- res2b_branch2c
I0629 03:46:19.289633  2102 net.cpp:367] scale2b_branch2c -> res2b_branch2c (in-place)
I0629 03:46:19.289677  2102 layer_factory.hpp:77] Creating layer scale2b_branch2c
I0629 03:46:19.289803  2102 net.cpp:122] Setting up scale2b_branch2c
I0629 03:46:19.289819  2102 net.cpp:129] Top shape: 8 256 56 56 (6422528)
I0629 03:46:19.289822  2102 net.cpp:137] Memory required for data: 563576992
I0629 03:46:19.289829  2102 layer_factory.hpp:77] Creating layer res2b
I0629 03:46:19.289835  2102 net.cpp:84] Creating Layer res2b
I0629 03:46:19.289839  2102 net.cpp:406] res2b <- res2a_res2a_relu_0_split_1
I0629 03:46:19.289844  2102 net.cpp:406] res2b <- res2b_branch2c
I0629 03:46:19.289849  2102 net.cpp:380] res2b -> res2b
I0629 03:46:19.289878  2102 net.cpp:122] Setting up res2b
I0629 03:46:19.289891  2102 net.cpp:129] Top shape: 8 256 56 56 (6422528)
I0629 03:46:19.289896  2102 net.cpp:137] Memory required for data: 589267104
I0629 03:46:19.289899  2102 layer_factory.hpp:77] Creating layer res2b_relu
I0629 03:46:19.289907  2102 net.cpp:84] Creating Layer res2b_relu
I0629 03:46:19.289911  2102 net.cpp:406] res2b_relu <- res2b
I0629 03:46:19.289917  2102 net.cpp:367] res2b_relu -> res2b (in-place)
I0629 03:46:19.290159  2102 net.cpp:122] Setting up res2b_relu
I0629 03:46:19.290177  2102 net.cpp:129] Top shape: 8 256 56 56 (6422528)
I0629 03:46:19.290181  2102 net.cpp:137] Memory required for data: 614957216
I0629 03:46:19.290185  2102 layer_factory.hpp:77] Creating layer res2b_res2b_relu_0_split
I0629 03:46:19.290194  2102 net.cpp:84] Creating Layer res2b_res2b_relu_0_split
I0629 03:46:19.290199  2102 net.cpp:406] res2b_res2b_relu_0_split <- res2b
I0629 03:46:19.290207  2102 net.cpp:380] res2b_res2b_relu_0_split -> res2b_res2b_relu_0_split_0
I0629 03:46:19.290215  2102 net.cpp:380] res2b_res2b_relu_0_split -> res2b_res2b_relu_0_split_1
I0629 03:46:19.290261  2102 net.cpp:122] Setting up res2b_res2b_relu_0_split
I0629 03:46:19.290276  2102 net.cpp:129] Top shape: 8 256 56 56 (6422528)
I0629 03:46:19.290280  2102 net.cpp:129] Top shape: 8 256 56 56 (6422528)
I0629 03:46:19.290284  2102 net.cpp:137] Memory required for data: 666337440
I0629 03:46:19.290288  2102 layer_factory.hpp:77] Creating layer res2c_branch2a
I0629 03:46:19.290300  2102 net.cpp:84] Creating Layer res2c_branch2a
I0629 03:46:19.290305  2102 net.cpp:406] res2c_branch2a <- res2b_res2b_relu_0_split_0
I0629 03:46:19.290311  2102 net.cpp:380] res2c_branch2a -> res2c_branch2a
I0629 03:46:19.291157  2102 net.cpp:122] Setting up res2c_branch2a
I0629 03:46:19.291177  2102 net.cpp:129] Top shape: 8 64 56 56 (1605632)
I0629 03:46:19.291182  2102 net.cpp:137] Memory required for data: 672759968
I0629 03:46:19.291188  2102 layer_factory.hpp:77] Creating layer bn2c_branch2a
I0629 03:46:19.291198  2102 net.cpp:84] Creating Layer bn2c_branch2a
I0629 03:46:19.291201  2102 net.cpp:406] bn2c_branch2a <- res2c_branch2a
I0629 03:46:19.291208  2102 net.cpp:367] bn2c_branch2a -> res2c_branch2a (in-place)
I0629 03:46:19.291406  2102 net.cpp:122] Setting up bn2c_branch2a
I0629 03:46:19.291434  2102 net.cpp:129] Top shape: 8 64 56 56 (1605632)
I0629 03:46:19.291437  2102 net.cpp:137] Memory required for data: 679182496
I0629 03:46:19.291446  2102 layer_factory.hpp:77] Creating layer scale2c_branch2a
I0629 03:46:19.291456  2102 net.cpp:84] Creating Layer scale2c_branch2a
I0629 03:46:19.291460  2102 net.cpp:406] scale2c_branch2a <- res2c_branch2a
I0629 03:46:19.291466  2102 net.cpp:367] scale2c_branch2a -> res2c_branch2a (in-place)
I0629 03:46:19.291512  2102 layer_factory.hpp:77] Creating layer scale2c_branch2a
I0629 03:46:19.291657  2102 net.cpp:122] Setting up scale2c_branch2a
I0629 03:46:19.291672  2102 net.cpp:129] Top shape: 8 64 56 56 (1605632)
I0629 03:46:19.291676  2102 net.cpp:137] Memory required for data: 685605024
I0629 03:46:19.291683  2102 layer_factory.hpp:77] Creating layer res2c_branch2a_relu
I0629 03:46:19.291692  2102 net.cpp:84] Creating Layer res2c_branch2a_relu
I0629 03:46:19.291697  2102 net.cpp:406] res2c_branch2a_relu <- res2c_branch2a
I0629 03:46:19.291702  2102 net.cpp:367] res2c_branch2a_relu -> res2c_branch2a (in-place)
I0629 03:46:19.291970  2102 net.cpp:122] Setting up res2c_branch2a_relu
I0629 03:46:19.291987  2102 net.cpp:129] Top shape: 8 64 56 56 (1605632)
I0629 03:46:19.291991  2102 net.cpp:137] Memory required for data: 692027552
I0629 03:46:19.291996  2102 layer_factory.hpp:77] Creating layer res2c_branch2b
I0629 03:46:19.292006  2102 net.cpp:84] Creating Layer res2c_branch2b
I0629 03:46:19.292011  2102 net.cpp:406] res2c_branch2b <- res2c_branch2a
I0629 03:46:19.292017  2102 net.cpp:380] res2c_branch2b -> res2c_branch2b
I0629 03:46:19.292793  2102 net.cpp:122] Setting up res2c_branch2b
I0629 03:46:19.292812  2102 net.cpp:129] Top shape: 8 64 56 56 (1605632)
I0629 03:46:19.292816  2102 net.cpp:137] Memory required for data: 698450080
I0629 03:46:19.292822  2102 layer_factory.hpp:77] Creating layer bn2c_branch2b
I0629 03:46:19.292832  2102 net.cpp:84] Creating Layer bn2c_branch2b
I0629 03:46:19.292837  2102 net.cpp:406] bn2c_branch2b <- res2c_branch2b
I0629 03:46:19.292843  2102 net.cpp:367] bn2c_branch2b -> res2c_branch2b (in-place)
I0629 03:46:19.293043  2102 net.cpp:122] Setting up bn2c_branch2b
I0629 03:46:19.293058  2102 net.cpp:129] Top shape: 8 64 56 56 (1605632)
I0629 03:46:19.293062  2102 net.cpp:137] Memory required for data: 704872608
I0629 03:46:19.293071  2102 layer_factory.hpp:77] Creating layer scale2c_branch2b
I0629 03:46:19.293078  2102 net.cpp:84] Creating Layer scale2c_branch2b
I0629 03:46:19.293082  2102 net.cpp:406] scale2c_branch2b <- res2c_branch2b
I0629 03:46:19.293087  2102 net.cpp:367] scale2c_branch2b -> res2c_branch2b (in-place)
I0629 03:46:19.293138  2102 layer_factory.hpp:77] Creating layer scale2c_branch2b
I0629 03:46:19.293267  2102 net.cpp:122] Setting up scale2c_branch2b
I0629 03:46:19.293282  2102 net.cpp:129] Top shape: 8 64 56 56 (1605632)
I0629 03:46:19.293285  2102 net.cpp:137] Memory required for data: 711295136
I0629 03:46:19.293292  2102 layer_factory.hpp:77] Creating layer res2c_branch2b_relu
I0629 03:46:19.293301  2102 net.cpp:84] Creating Layer res2c_branch2b_relu
I0629 03:46:19.293305  2102 net.cpp:406] res2c_branch2b_relu <- res2c_branch2b
I0629 03:46:19.293310  2102 net.cpp:367] res2c_branch2b_relu -> res2c_branch2b (in-place)
I0629 03:46:19.293565  2102 net.cpp:122] Setting up res2c_branch2b_relu
I0629 03:46:19.293583  2102 net.cpp:129] Top shape: 8 64 56 56 (1605632)
I0629 03:46:19.293587  2102 net.cpp:137] Memory required for data: 717717664
I0629 03:46:19.293591  2102 layer_factory.hpp:77] Creating layer res2c_branch2c
I0629 03:46:19.293604  2102 net.cpp:84] Creating Layer res2c_branch2c
I0629 03:46:19.293609  2102 net.cpp:406] res2c_branch2c <- res2c_branch2b
I0629 03:46:19.293615  2102 net.cpp:380] res2c_branch2c -> res2c_branch2c
I0629 03:46:19.294592  2102 net.cpp:122] Setting up res2c_branch2c
I0629 03:46:19.294615  2102 net.cpp:129] Top shape: 8 256 56 56 (6422528)
I0629 03:46:19.294620  2102 net.cpp:137] Memory required for data: 743407776
I0629 03:46:19.294637  2102 layer_factory.hpp:77] Creating layer bn2c_branch2c
I0629 03:46:19.294646  2102 net.cpp:84] Creating Layer bn2c_branch2c
I0629 03:46:19.294651  2102 net.cpp:406] bn2c_branch2c <- res2c_branch2c
I0629 03:46:19.294658  2102 net.cpp:367] bn2c_branch2c -> res2c_branch2c (in-place)
I0629 03:46:19.294854  2102 net.cpp:122] Setting up bn2c_branch2c
I0629 03:46:19.294870  2102 net.cpp:129] Top shape: 8 256 56 56 (6422528)
I0629 03:46:19.294875  2102 net.cpp:137] Memory required for data: 769097888
I0629 03:46:19.294894  2102 layer_factory.hpp:77] Creating layer scale2c_branch2c
I0629 03:46:19.294904  2102 net.cpp:84] Creating Layer scale2c_branch2c
I0629 03:46:19.294909  2102 net.cpp:406] scale2c_branch2c <- res2c_branch2c
I0629 03:46:19.294914  2102 net.cpp:367] scale2c_branch2c -> res2c_branch2c (in-place)
I0629 03:46:19.294962  2102 layer_factory.hpp:77] Creating layer scale2c_branch2c
I0629 03:46:19.295097  2102 net.cpp:122] Setting up scale2c_branch2c
I0629 03:46:19.295112  2102 net.cpp:129] Top shape: 8 256 56 56 (6422528)
I0629 03:46:19.295116  2102 net.cpp:137] Memory required for data: 794788000
I0629 03:46:19.295123  2102 layer_factory.hpp:77] Creating layer res2c
I0629 03:46:19.295132  2102 net.cpp:84] Creating Layer res2c
I0629 03:46:19.295136  2102 net.cpp:406] res2c <- res2b_res2b_relu_0_split_1
I0629 03:46:19.295141  2102 net.cpp:406] res2c <- res2c_branch2c
I0629 03:46:19.295147  2102 net.cpp:380] res2c -> res2c
I0629 03:46:19.295178  2102 net.cpp:122] Setting up res2c
I0629 03:46:19.295192  2102 net.cpp:129] Top shape: 8 256 56 56 (6422528)
I0629 03:46:19.295197  2102 net.cpp:137] Memory required for data: 820478112
I0629 03:46:19.295200  2102 layer_factory.hpp:77] Creating layer res2c_relu
I0629 03:46:19.295207  2102 net.cpp:84] Creating Layer res2c_relu
I0629 03:46:19.295210  2102 net.cpp:406] res2c_relu <- res2c
I0629 03:46:19.295217  2102 net.cpp:367] res2c_relu -> res2c (in-place)
I0629 03:46:19.295372  2102 net.cpp:122] Setting up res2c_relu
I0629 03:46:19.295388  2102 net.cpp:129] Top shape: 8 256 56 56 (6422528)
I0629 03:46:19.295392  2102 net.cpp:137] Memory required for data: 846168224
I0629 03:46:19.295397  2102 layer_factory.hpp:77] Creating layer res2c_res2c_relu_0_split
I0629 03:46:19.295404  2102 net.cpp:84] Creating Layer res2c_res2c_relu_0_split
I0629 03:46:19.295408  2102 net.cpp:406] res2c_res2c_relu_0_split <- res2c
I0629 03:46:19.295414  2102 net.cpp:380] res2c_res2c_relu_0_split -> res2c_res2c_relu_0_split_0
I0629 03:46:19.295421  2102 net.cpp:380] res2c_res2c_relu_0_split -> res2c_res2c_relu_0_split_1
I0629 03:46:19.295470  2102 net.cpp:122] Setting up res2c_res2c_relu_0_split
I0629 03:46:19.295485  2102 net.cpp:129] Top shape: 8 256 56 56 (6422528)
I0629 03:46:19.295490  2102 net.cpp:129] Top shape: 8 256 56 56 (6422528)
I0629 03:46:19.295493  2102 net.cpp:137] Memory required for data: 897548448
I0629 03:46:19.295496  2102 layer_factory.hpp:77] Creating layer res3a_branch1
I0629 03:46:19.295506  2102 net.cpp:84] Creating Layer res3a_branch1
I0629 03:46:19.295511  2102 net.cpp:406] res3a_branch1 <- res2c_res2c_relu_0_split_0
I0629 03:46:19.295517  2102 net.cpp:380] res3a_branch1 -> res3a_branch1
I0629 03:46:19.297031  2102 net.cpp:122] Setting up res3a_branch1
I0629 03:46:19.297051  2102 net.cpp:129] Top shape: 8 512 28 28 (3211264)
I0629 03:46:19.297056  2102 net.cpp:137] Memory required for data: 910393504
I0629 03:46:19.297062  2102 layer_factory.hpp:77] Creating layer bn3a_branch1
I0629 03:46:19.297072  2102 net.cpp:84] Creating Layer bn3a_branch1
I0629 03:46:19.297076  2102 net.cpp:406] bn3a_branch1 <- res3a_branch1
I0629 03:46:19.297085  2102 net.cpp:367] bn3a_branch1 -> res3a_branch1 (in-place)
I0629 03:46:19.297811  2102 net.cpp:122] Setting up bn3a_branch1
I0629 03:46:19.297828  2102 net.cpp:129] Top shape: 8 512 28 28 (3211264)
I0629 03:46:19.297833  2102 net.cpp:137] Memory required for data: 923238560
I0629 03:46:19.297842  2102 layer_factory.hpp:77] Creating layer scale3a_branch1
I0629 03:46:19.297848  2102 net.cpp:84] Creating Layer scale3a_branch1
I0629 03:46:19.297866  2102 net.cpp:406] scale3a_branch1 <- res3a_branch1
I0629 03:46:19.297873  2102 net.cpp:367] scale3a_branch1 -> res3a_branch1 (in-place)
I0629 03:46:19.297921  2102 layer_factory.hpp:77] Creating layer scale3a_branch1
I0629 03:46:19.298049  2102 net.cpp:122] Setting up scale3a_branch1
I0629 03:46:19.298064  2102 net.cpp:129] Top shape: 8 512 28 28 (3211264)
I0629 03:46:19.298069  2102 net.cpp:137] Memory required for data: 936083616
I0629 03:46:19.298075  2102 layer_factory.hpp:77] Creating layer res3a_branch2a
I0629 03:46:19.298086  2102 net.cpp:84] Creating Layer res3a_branch2a
I0629 03:46:19.298094  2102 net.cpp:406] res3a_branch2a <- res2c_res2c_relu_0_split_1
I0629 03:46:19.298099  2102 net.cpp:380] res3a_branch2a -> res3a_branch2a
I0629 03:46:19.298977  2102 net.cpp:122] Setting up res3a_branch2a
I0629 03:46:19.298996  2102 net.cpp:129] Top shape: 8 128 28 28 (802816)
I0629 03:46:19.299001  2102 net.cpp:137] Memory required for data: 939294880
I0629 03:46:19.299007  2102 layer_factory.hpp:77] Creating layer bn3a_branch2a
I0629 03:46:19.299017  2102 net.cpp:84] Creating Layer bn3a_branch2a
I0629 03:46:19.299021  2102 net.cpp:406] bn3a_branch2a <- res3a_branch2a
I0629 03:46:19.299029  2102 net.cpp:367] bn3a_branch2a -> res3a_branch2a (in-place)
I0629 03:46:19.299229  2102 net.cpp:122] Setting up bn3a_branch2a
I0629 03:46:19.299245  2102 net.cpp:129] Top shape: 8 128 28 28 (802816)
I0629 03:46:19.299250  2102 net.cpp:137] Memory required for data: 942506144
I0629 03:46:19.299258  2102 layer_factory.hpp:77] Creating layer scale3a_branch2a
I0629 03:46:19.299265  2102 net.cpp:84] Creating Layer scale3a_branch2a
I0629 03:46:19.299269  2102 net.cpp:406] scale3a_branch2a <- res3a_branch2a
I0629 03:46:19.299278  2102 net.cpp:367] scale3a_branch2a -> res3a_branch2a (in-place)
I0629 03:46:19.299321  2102 layer_factory.hpp:77] Creating layer scale3a_branch2a
I0629 03:46:19.299448  2102 net.cpp:122] Setting up scale3a_branch2a
I0629 03:46:19.299464  2102 net.cpp:129] Top shape: 8 128 28 28 (802816)
I0629 03:46:19.299469  2102 net.cpp:137] Memory required for data: 945717408
I0629 03:46:19.299475  2102 layer_factory.hpp:77] Creating layer res3a_branch2a_relu
I0629 03:46:19.299482  2102 net.cpp:84] Creating Layer res3a_branch2a_relu
I0629 03:46:19.299486  2102 net.cpp:406] res3a_branch2a_relu <- res3a_branch2a
I0629 03:46:19.299491  2102 net.cpp:367] res3a_branch2a_relu -> res3a_branch2a (in-place)
I0629 03:46:19.299651  2102 net.cpp:122] Setting up res3a_branch2a_relu
I0629 03:46:19.299676  2102 net.cpp:129] Top shape: 8 128 28 28 (802816)
I0629 03:46:19.299680  2102 net.cpp:137] Memory required for data: 948928672
I0629 03:46:19.299685  2102 layer_factory.hpp:77] Creating layer res3a_branch2b
I0629 03:46:19.299695  2102 net.cpp:84] Creating Layer res3a_branch2b
I0629 03:46:19.299700  2102 net.cpp:406] res3a_branch2b <- res3a_branch2a
I0629 03:46:19.299708  2102 net.cpp:380] res3a_branch2b -> res3a_branch2b
I0629 03:46:19.301172  2102 net.cpp:122] Setting up res3a_branch2b
I0629 03:46:19.301192  2102 net.cpp:129] Top shape: 8 128 28 28 (802816)
I0629 03:46:19.301196  2102 net.cpp:137] Memory required for data: 952139936
I0629 03:46:19.301203  2102 layer_factory.hpp:77] Creating layer bn3a_branch2b
I0629 03:46:19.301213  2102 net.cpp:84] Creating Layer bn3a_branch2b
I0629 03:46:19.301218  2102 net.cpp:406] bn3a_branch2b <- res3a_branch2b
I0629 03:46:19.301223  2102 net.cpp:367] bn3a_branch2b -> res3a_branch2b (in-place)
I0629 03:46:19.301425  2102 net.cpp:122] Setting up bn3a_branch2b
I0629 03:46:19.301440  2102 net.cpp:129] Top shape: 8 128 28 28 (802816)
I0629 03:46:19.301445  2102 net.cpp:137] Memory required for data: 955351200
I0629 03:46:19.301453  2102 layer_factory.hpp:77] Creating layer scale3a_branch2b
I0629 03:46:19.301462  2102 net.cpp:84] Creating Layer scale3a_branch2b
I0629 03:46:19.301466  2102 net.cpp:406] scale3a_branch2b <- res3a_branch2b
I0629 03:46:19.301472  2102 net.cpp:367] scale3a_branch2b -> res3a_branch2b (in-place)
I0629 03:46:19.301522  2102 layer_factory.hpp:77] Creating layer scale3a_branch2b
I0629 03:46:19.301666  2102 net.cpp:122] Setting up scale3a_branch2b
I0629 03:46:19.301681  2102 net.cpp:129] Top shape: 8 128 28 28 (802816)
I0629 03:46:19.301684  2102 net.cpp:137] Memory required for data: 958562464
I0629 03:46:19.301692  2102 layer_factory.hpp:77] Creating layer res3a_branch2b_relu
I0629 03:46:19.301698  2102 net.cpp:84] Creating Layer res3a_branch2b_relu
I0629 03:46:19.301702  2102 net.cpp:406] res3a_branch2b_relu <- res3a_branch2b
I0629 03:46:19.301709  2102 net.cpp:367] res3a_branch2b_relu -> res3a_branch2b (in-place)
I0629 03:46:19.301967  2102 net.cpp:122] Setting up res3a_branch2b_relu
I0629 03:46:19.301987  2102 net.cpp:129] Top shape: 8 128 28 28 (802816)
I0629 03:46:19.301992  2102 net.cpp:137] Memory required for data: 961773728
I0629 03:46:19.301996  2102 layer_factory.hpp:77] Creating layer res3a_branch2c
I0629 03:46:19.302011  2102 net.cpp:84] Creating Layer res3a_branch2c
I0629 03:46:19.302022  2102 net.cpp:406] res3a_branch2c <- res3a_branch2b
I0629 03:46:19.302033  2102 net.cpp:380] res3a_branch2c -> res3a_branch2c
I0629 03:46:19.302830  2102 net.cpp:122] Setting up res3a_branch2c
I0629 03:46:19.302852  2102 net.cpp:129] Top shape: 8 512 28 28 (3211264)
I0629 03:46:19.302856  2102 net.cpp:137] Memory required for data: 974618784
I0629 03:46:19.302862  2102 layer_factory.hpp:77] Creating layer bn3a_branch2c
I0629 03:46:19.302870  2102 net.cpp:84] Creating Layer bn3a_branch2c
I0629 03:46:19.302875  2102 net.cpp:406] bn3a_branch2c <- res3a_branch2c
I0629 03:46:19.302880  2102 net.cpp:367] bn3a_branch2c -> res3a_branch2c (in-place)
I0629 03:46:19.303083  2102 net.cpp:122] Setting up bn3a_branch2c
I0629 03:46:19.303099  2102 net.cpp:129] Top shape: 8 512 28 28 (3211264)
I0629 03:46:19.303103  2102 net.cpp:137] Memory required for data: 987463840
I0629 03:46:19.303112  2102 layer_factory.hpp:77] Creating layer scale3a_branch2c
I0629 03:46:19.303118  2102 net.cpp:84] Creating Layer scale3a_branch2c
I0629 03:46:19.303122  2102 net.cpp:406] scale3a_branch2c <- res3a_branch2c
I0629 03:46:19.303128  2102 net.cpp:367] scale3a_branch2c -> res3a_branch2c (in-place)
I0629 03:46:19.303189  2102 layer_factory.hpp:77] Creating layer scale3a_branch2c
I0629 03:46:19.303318  2102 net.cpp:122] Setting up scale3a_branch2c
I0629 03:46:19.303333  2102 net.cpp:129] Top shape: 8 512 28 28 (3211264)
I0629 03:46:19.303338  2102 net.cpp:137] Memory required for data: 1000308896
I0629 03:46:19.303344  2102 layer_factory.hpp:77] Creating layer res3a
I0629 03:46:19.303352  2102 net.cpp:84] Creating Layer res3a
I0629 03:46:19.303357  2102 net.cpp:406] res3a <- res3a_branch1
I0629 03:46:19.303362  2102 net.cpp:406] res3a <- res3a_branch2c
I0629 03:46:19.303369  2102 net.cpp:380] res3a -> res3a
I0629 03:46:19.303398  2102 net.cpp:122] Setting up res3a
I0629 03:46:19.303411  2102 net.cpp:129] Top shape: 8 512 28 28 (3211264)
I0629 03:46:19.303416  2102 net.cpp:137] Memory required for data: 1013153952
I0629 03:46:19.303419  2102 layer_factory.hpp:77] Creating layer res3a_relu
I0629 03:46:19.303427  2102 net.cpp:84] Creating Layer res3a_relu
I0629 03:46:19.303432  2102 net.cpp:406] res3a_relu <- res3a
I0629 03:46:19.303439  2102 net.cpp:367] res3a_relu -> res3a (in-place)
I0629 03:46:19.303707  2102 net.cpp:122] Setting up res3a_relu
I0629 03:46:19.303725  2102 net.cpp:129] Top shape: 8 512 28 28 (3211264)
I0629 03:46:19.303730  2102 net.cpp:137] Memory required for data: 1025999008
I0629 03:46:19.303733  2102 layer_factory.hpp:77] Creating layer res3a_res3a_relu_0_split
I0629 03:46:19.303740  2102 net.cpp:84] Creating Layer res3a_res3a_relu_0_split
I0629 03:46:19.303745  2102 net.cpp:406] res3a_res3a_relu_0_split <- res3a
I0629 03:46:19.303750  2102 net.cpp:380] res3a_res3a_relu_0_split -> res3a_res3a_relu_0_split_0
I0629 03:46:19.303757  2102 net.cpp:380] res3a_res3a_relu_0_split -> res3a_res3a_relu_0_split_1
I0629 03:46:19.303807  2102 net.cpp:122] Setting up res3a_res3a_relu_0_split
I0629 03:46:19.303822  2102 net.cpp:129] Top shape: 8 512 28 28 (3211264)
I0629 03:46:19.303827  2102 net.cpp:129] Top shape: 8 512 28 28 (3211264)
I0629 03:46:19.303841  2102 net.cpp:137] Memory required for data: 1051689120
I0629 03:46:19.303846  2102 layer_factory.hpp:77] Creating layer res3b_branch2a
I0629 03:46:19.303858  2102 net.cpp:84] Creating Layer res3b_branch2a
I0629 03:46:19.303864  2102 net.cpp:406] res3b_branch2a <- res3a_res3a_relu_0_split_0
I0629 03:46:19.303872  2102 net.cpp:380] res3b_branch2a -> res3b_branch2a
I0629 03:46:19.305299  2102 net.cpp:122] Setting up res3b_branch2a
I0629 03:46:19.305320  2102 net.cpp:129] Top shape: 8 128 28 28 (802816)
I0629 03:46:19.305323  2102 net.cpp:137] Memory required for data: 1054900384
I0629 03:46:19.305330  2102 layer_factory.hpp:77] Creating layer bn3b_branch2a
I0629 03:46:19.305339  2102 net.cpp:84] Creating Layer bn3b_branch2a
I0629 03:46:19.305344  2102 net.cpp:406] bn3b_branch2a <- res3b_branch2a
I0629 03:46:19.305351  2102 net.cpp:367] bn3b_branch2a -> res3b_branch2a (in-place)
I0629 03:46:19.305562  2102 net.cpp:122] Setting up bn3b_branch2a
I0629 03:46:19.305577  2102 net.cpp:129] Top shape: 8 128 28 28 (802816)
I0629 03:46:19.305583  2102 net.cpp:137] Memory required for data: 1058111648
I0629 03:46:19.305593  2102 layer_factory.hpp:77] Creating layer scale3b_branch2a
I0629 03:46:19.305600  2102 net.cpp:84] Creating Layer scale3b_branch2a
I0629 03:46:19.305604  2102 net.cpp:406] scale3b_branch2a <- res3b_branch2a
I0629 03:46:19.305609  2102 net.cpp:367] scale3b_branch2a -> res3b_branch2a (in-place)
I0629 03:46:19.305660  2102 layer_factory.hpp:77] Creating layer scale3b_branch2a
I0629 03:46:19.305790  2102 net.cpp:122] Setting up scale3b_branch2a
I0629 03:46:19.305805  2102 net.cpp:129] Top shape: 8 128 28 28 (802816)
I0629 03:46:19.305809  2102 net.cpp:137] Memory required for data: 1061322912
I0629 03:46:19.305816  2102 layer_factory.hpp:77] Creating layer res3b_branch2a_relu
I0629 03:46:19.305825  2102 net.cpp:84] Creating Layer res3b_branch2a_relu
I0629 03:46:19.305830  2102 net.cpp:406] res3b_branch2a_relu <- res3b_branch2a
I0629 03:46:19.305835  2102 net.cpp:367] res3b_branch2a_relu -> res3b_branch2a (in-place)
I0629 03:46:19.305990  2102 net.cpp:122] Setting up res3b_branch2a_relu
I0629 03:46:19.306006  2102 net.cpp:129] Top shape: 8 128 28 28 (802816)
I0629 03:46:19.306010  2102 net.cpp:137] Memory required for data: 1064534176
I0629 03:46:19.306015  2102 layer_factory.hpp:77] Creating layer res3b_branch2b
I0629 03:46:19.306027  2102 net.cpp:84] Creating Layer res3b_branch2b
I0629 03:46:19.306031  2102 net.cpp:406] res3b_branch2b <- res3b_branch2a
I0629 03:46:19.306037  2102 net.cpp:380] res3b_branch2b -> res3b_branch2b
I0629 03:46:19.307590  2102 net.cpp:122] Setting up res3b_branch2b
I0629 03:46:19.307610  2102 net.cpp:129] Top shape: 8 128 28 28 (802816)
I0629 03:46:19.307615  2102 net.cpp:137] Memory required for data: 1067745440
I0629 03:46:19.307621  2102 layer_factory.hpp:77] Creating layer bn3b_branch2b
I0629 03:46:19.307633  2102 net.cpp:84] Creating Layer bn3b_branch2b
I0629 03:46:19.307638  2102 net.cpp:406] bn3b_branch2b <- res3b_branch2b
I0629 03:46:19.307644  2102 net.cpp:367] bn3b_branch2b -> res3b_branch2b (in-place)
I0629 03:46:19.307855  2102 net.cpp:122] Setting up bn3b_branch2b
I0629 03:46:19.307871  2102 net.cpp:129] Top shape: 8 128 28 28 (802816)
I0629 03:46:19.307875  2102 net.cpp:137] Memory required for data: 1070956704
I0629 03:46:19.307884  2102 layer_factory.hpp:77] Creating layer scale3b_branch2b
I0629 03:46:19.307903  2102 net.cpp:84] Creating Layer scale3b_branch2b
I0629 03:46:19.307914  2102 net.cpp:406] scale3b_branch2b <- res3b_branch2b
I0629 03:46:19.307922  2102 net.cpp:367] scale3b_branch2b -> res3b_branch2b (in-place)
I0629 03:46:19.307970  2102 layer_factory.hpp:77] Creating layer scale3b_branch2b
I0629 03:46:19.308105  2102 net.cpp:122] Setting up scale3b_branch2b
I0629 03:46:19.308122  2102 net.cpp:129] Top shape: 8 128 28 28 (802816)
I0629 03:46:19.308126  2102 net.cpp:137] Memory required for data: 1074167968
I0629 03:46:19.308133  2102 layer_factory.hpp:77] Creating layer res3b_branch2b_relu
I0629 03:46:19.308140  2102 net.cpp:84] Creating Layer res3b_branch2b_relu
I0629 03:46:19.308157  2102 net.cpp:406] res3b_branch2b_relu <- res3b_branch2b
I0629 03:46:19.308163  2102 net.cpp:367] res3b_branch2b_relu -> res3b_branch2b (in-place)
I0629 03:46:19.308429  2102 net.cpp:122] Setting up res3b_branch2b_relu
I0629 03:46:19.308446  2102 net.cpp:129] Top shape: 8 128 28 28 (802816)
I0629 03:46:19.308451  2102 net.cpp:137] Memory required for data: 1077379232
I0629 03:46:19.308455  2102 layer_factory.hpp:77] Creating layer res3b_branch2c
I0629 03:46:19.308466  2102 net.cpp:84] Creating Layer res3b_branch2c
I0629 03:46:19.308471  2102 net.cpp:406] res3b_branch2c <- res3b_branch2b
I0629 03:46:19.308477  2102 net.cpp:380] res3b_branch2c -> res3b_branch2c
I0629 03:46:19.309304  2102 net.cpp:122] Setting up res3b_branch2c
I0629 03:46:19.309324  2102 net.cpp:129] Top shape: 8 512 28 28 (3211264)
I0629 03:46:19.309329  2102 net.cpp:137] Memory required for data: 1090224288
I0629 03:46:19.309334  2102 layer_factory.hpp:77] Creating layer bn3b_branch2c
I0629 03:46:19.309342  2102 net.cpp:84] Creating Layer bn3b_branch2c
I0629 03:46:19.309346  2102 net.cpp:406] bn3b_branch2c <- res3b_branch2c
I0629 03:46:19.309355  2102 net.cpp:367] bn3b_branch2c -> res3b_branch2c (in-place)
I0629 03:46:19.309571  2102 net.cpp:122] Setting up bn3b_branch2c
I0629 03:46:19.309586  2102 net.cpp:129] Top shape: 8 512 28 28 (3211264)
I0629 03:46:19.309590  2102 net.cpp:137] Memory required for data: 1103069344
I0629 03:46:19.309598  2102 layer_factory.hpp:77] Creating layer scale3b_branch2c
I0629 03:46:19.309605  2102 net.cpp:84] Creating Layer scale3b_branch2c
I0629 03:46:19.309609  2102 net.cpp:406] scale3b_branch2c <- res3b_branch2c
I0629 03:46:19.309614  2102 net.cpp:367] scale3b_branch2c -> res3b_branch2c (in-place)
I0629 03:46:19.309664  2102 layer_factory.hpp:77] Creating layer scale3b_branch2c
I0629 03:46:19.309800  2102 net.cpp:122] Setting up scale3b_branch2c
I0629 03:46:19.309815  2102 net.cpp:129] Top shape: 8 512 28 28 (3211264)
I0629 03:46:19.309820  2102 net.cpp:137] Memory required for data: 1115914400
I0629 03:46:19.309826  2102 layer_factory.hpp:77] Creating layer res3b
I0629 03:46:19.309834  2102 net.cpp:84] Creating Layer res3b
I0629 03:46:19.309837  2102 net.cpp:406] res3b <- res3a_res3a_relu_0_split_1
I0629 03:46:19.309842  2102 net.cpp:406] res3b <- res3b_branch2c
I0629 03:46:19.309850  2102 net.cpp:380] res3b -> res3b
I0629 03:46:19.309880  2102 net.cpp:122] Setting up res3b
I0629 03:46:19.309895  2102 net.cpp:129] Top shape: 8 512 28 28 (3211264)
I0629 03:46:19.309898  2102 net.cpp:137] Memory required for data: 1128759456
I0629 03:46:19.309902  2102 layer_factory.hpp:77] Creating layer res3b_relu
I0629 03:46:19.309913  2102 net.cpp:84] Creating Layer res3b_relu
I0629 03:46:19.309918  2102 net.cpp:406] res3b_relu <- res3b
I0629 03:46:19.309923  2102 net.cpp:367] res3b_relu -> res3b (in-place)
I0629 03:46:19.310178  2102 net.cpp:122] Setting up res3b_relu
I0629 03:46:19.310197  2102 net.cpp:129] Top shape: 8 512 28 28 (3211264)
I0629 03:46:19.310201  2102 net.cpp:137] Memory required for data: 1141604512
I0629 03:46:19.310206  2102 layer_factory.hpp:77] Creating layer res3b_res3b_relu_0_split
I0629 03:46:19.310212  2102 net.cpp:84] Creating Layer res3b_res3b_relu_0_split
I0629 03:46:19.310216  2102 net.cpp:406] res3b_res3b_relu_0_split <- res3b
I0629 03:46:19.310225  2102 net.cpp:380] res3b_res3b_relu_0_split -> res3b_res3b_relu_0_split_0
I0629 03:46:19.310232  2102 net.cpp:380] res3b_res3b_relu_0_split -> res3b_res3b_relu_0_split_1
I0629 03:46:19.310281  2102 net.cpp:122] Setting up res3b_res3b_relu_0_split
I0629 03:46:19.310295  2102 net.cpp:129] Top shape: 8 512 28 28 (3211264)
I0629 03:46:19.310300  2102 net.cpp:129] Top shape: 8 512 28 28 (3211264)
I0629 03:46:19.310303  2102 net.cpp:137] Memory required for data: 1167294624
I0629 03:46:19.310307  2102 layer_factory.hpp:77] Creating layer res3c_branch2a
I0629 03:46:19.310318  2102 net.cpp:84] Creating Layer res3c_branch2a
I0629 03:46:19.310322  2102 net.cpp:406] res3c_branch2a <- res3b_res3b_relu_0_split_0
I0629 03:46:19.310350  2102 net.cpp:380] res3c_branch2a -> res3c_branch2a
I0629 03:46:19.311273  2102 net.cpp:122] Setting up res3c_branch2a
I0629 03:46:19.311292  2102 net.cpp:129] Top shape: 8 128 28 28 (802816)
I0629 03:46:19.311296  2102 net.cpp:137] Memory required for data: 1170505888
I0629 03:46:19.311302  2102 layer_factory.hpp:77] Creating layer bn3c_branch2a
I0629 03:46:19.311312  2102 net.cpp:84] Creating Layer bn3c_branch2a
I0629 03:46:19.311317  2102 net.cpp:406] bn3c_branch2a <- res3c_branch2a
I0629 03:46:19.311324  2102 net.cpp:367] bn3c_branch2a -> res3c_branch2a (in-place)
I0629 03:46:19.311538  2102 net.cpp:122] Setting up bn3c_branch2a
I0629 03:46:19.311554  2102 net.cpp:129] Top shape: 8 128 28 28 (802816)
I0629 03:46:19.311558  2102 net.cpp:137] Memory required for data: 1173717152
I0629 03:46:19.311566  2102 layer_factory.hpp:77] Creating layer scale3c_branch2a
I0629 03:46:19.311573  2102 net.cpp:84] Creating Layer scale3c_branch2a
I0629 03:46:19.311578  2102 net.cpp:406] scale3c_branch2a <- res3c_branch2a
I0629 03:46:19.311585  2102 net.cpp:367] scale3c_branch2a -> res3c_branch2a (in-place)
I0629 03:46:19.311635  2102 layer_factory.hpp:77] Creating layer scale3c_branch2a
I0629 03:46:19.311774  2102 net.cpp:122] Setting up scale3c_branch2a
I0629 03:46:19.311790  2102 net.cpp:129] Top shape: 8 128 28 28 (802816)
I0629 03:46:19.311794  2102 net.cpp:137] Memory required for data: 1176928416
I0629 03:46:19.311801  2102 layer_factory.hpp:77] Creating layer res3c_branch2a_relu
I0629 03:46:19.311807  2102 net.cpp:84] Creating Layer res3c_branch2a_relu
I0629 03:46:19.311811  2102 net.cpp:406] res3c_branch2a_relu <- res3c_branch2a
I0629 03:46:19.311816  2102 net.cpp:367] res3c_branch2a_relu -> res3c_branch2a (in-place)
I0629 03:46:19.311992  2102 net.cpp:122] Setting up res3c_branch2a_relu
I0629 03:46:19.312011  2102 net.cpp:129] Top shape: 8 128 28 28 (802816)
I0629 03:46:19.312014  2102 net.cpp:137] Memory required for data: 1180139680
I0629 03:46:19.312018  2102 layer_factory.hpp:77] Creating layer res3c_branch2b
I0629 03:46:19.312029  2102 net.cpp:84] Creating Layer res3c_branch2b
I0629 03:46:19.312033  2102 net.cpp:406] res3c_branch2b <- res3c_branch2a
I0629 03:46:19.312041  2102 net.cpp:380] res3c_branch2b -> res3c_branch2b
I0629 03:46:19.313520  2102 net.cpp:122] Setting up res3c_branch2b
I0629 03:46:19.313540  2102 net.cpp:129] Top shape: 8 128 28 28 (802816)
I0629 03:46:19.313544  2102 net.cpp:137] Memory required for data: 1183350944
I0629 03:46:19.313550  2102 layer_factory.hpp:77] Creating layer bn3c_branch2b
I0629 03:46:19.313560  2102 net.cpp:84] Creating Layer bn3c_branch2b
I0629 03:46:19.313565  2102 net.cpp:406] bn3c_branch2b <- res3c_branch2b
I0629 03:46:19.313573  2102 net.cpp:367] bn3c_branch2b -> res3c_branch2b (in-place)
I0629 03:46:19.313792  2102 net.cpp:122] Setting up bn3c_branch2b
I0629 03:46:19.313807  2102 net.cpp:129] Top shape: 8 128 28 28 (802816)
I0629 03:46:19.313812  2102 net.cpp:137] Memory required for data: 1186562208
I0629 03:46:19.313820  2102 layer_factory.hpp:77] Creating layer scale3c_branch2b
I0629 03:46:19.313829  2102 net.cpp:84] Creating Layer scale3c_branch2b
I0629 03:46:19.313833  2102 net.cpp:406] scale3c_branch2b <- res3c_branch2b
I0629 03:46:19.313839  2102 net.cpp:367] scale3c_branch2b -> res3c_branch2b (in-place)
I0629 03:46:19.313891  2102 layer_factory.hpp:77] Creating layer scale3c_branch2b
I0629 03:46:19.314031  2102 net.cpp:122] Setting up scale3c_branch2b
I0629 03:46:19.314046  2102 net.cpp:129] Top shape: 8 128 28 28 (802816)
I0629 03:46:19.314050  2102 net.cpp:137] Memory required for data: 1189773472
I0629 03:46:19.314056  2102 layer_factory.hpp:77] Creating layer res3c_branch2b_relu
I0629 03:46:19.314064  2102 net.cpp:84] Creating Layer res3c_branch2b_relu
I0629 03:46:19.314067  2102 net.cpp:406] res3c_branch2b_relu <- res3c_branch2b
I0629 03:46:19.314072  2102 net.cpp:367] res3c_branch2b_relu -> res3c_branch2b (in-place)
I0629 03:46:19.314335  2102 net.cpp:122] Setting up res3c_branch2b_relu
I0629 03:46:19.314353  2102 net.cpp:129] Top shape: 8 128 28 28 (802816)
I0629 03:46:19.314370  2102 net.cpp:137] Memory required for data: 1192984736
I0629 03:46:19.314375  2102 layer_factory.hpp:77] Creating layer res3c_branch2c
I0629 03:46:19.314398  2102 net.cpp:84] Creating Layer res3c_branch2c
I0629 03:46:19.314409  2102 net.cpp:406] res3c_branch2c <- res3c_branch2b
I0629 03:46:19.314417  2102 net.cpp:380] res3c_branch2c -> res3c_branch2c
I0629 03:46:19.315248  2102 net.cpp:122] Setting up res3c_branch2c
I0629 03:46:19.315268  2102 net.cpp:129] Top shape: 8 512 28 28 (3211264)
I0629 03:46:19.315271  2102 net.cpp:137] Memory required for data: 1205829792
I0629 03:46:19.315277  2102 layer_factory.hpp:77] Creating layer bn3c_branch2c
I0629 03:46:19.315285  2102 net.cpp:84] Creating Layer bn3c_branch2c
I0629 03:46:19.315289  2102 net.cpp:406] bn3c_branch2c <- res3c_branch2c
I0629 03:46:19.315297  2102 net.cpp:367] bn3c_branch2c -> res3c_branch2c (in-place)
I0629 03:46:19.315516  2102 net.cpp:122] Setting up bn3c_branch2c
I0629 03:46:19.315531  2102 net.cpp:129] Top shape: 8 512 28 28 (3211264)
I0629 03:46:19.315536  2102 net.cpp:137] Memory required for data: 1218674848
I0629 03:46:19.315544  2102 layer_factory.hpp:77] Creating layer scale3c_branch2c
I0629 03:46:19.315551  2102 net.cpp:84] Creating Layer scale3c_branch2c
I0629 03:46:19.315556  2102 net.cpp:406] scale3c_branch2c <- res3c_branch2c
I0629 03:46:19.315560  2102 net.cpp:367] scale3c_branch2c -> res3c_branch2c (in-place)
I0629 03:46:19.315610  2102 layer_factory.hpp:77] Creating layer scale3c_branch2c
I0629 03:46:19.315744  2102 net.cpp:122] Setting up scale3c_branch2c
I0629 03:46:19.315759  2102 net.cpp:129] Top shape: 8 512 28 28 (3211264)
I0629 03:46:19.315764  2102 net.cpp:137] Memory required for data: 1231519904
I0629 03:46:19.315770  2102 layer_factory.hpp:77] Creating layer res3c
I0629 03:46:19.315778  2102 net.cpp:84] Creating Layer res3c
I0629 03:46:19.315781  2102 net.cpp:406] res3c <- res3b_res3b_relu_0_split_1
I0629 03:46:19.315786  2102 net.cpp:406] res3c <- res3c_branch2c
I0629 03:46:19.315793  2102 net.cpp:380] res3c -> res3c
I0629 03:46:19.315824  2102 net.cpp:122] Setting up res3c
I0629 03:46:19.315838  2102 net.cpp:129] Top shape: 8 512 28 28 (3211264)
I0629 03:46:19.315842  2102 net.cpp:137] Memory required for data: 1244364960
I0629 03:46:19.315846  2102 layer_factory.hpp:77] Creating layer res3c_relu
I0629 03:46:19.315855  2102 net.cpp:84] Creating Layer res3c_relu
I0629 03:46:19.315860  2102 net.cpp:406] res3c_relu <- res3c
I0629 03:46:19.315865  2102 net.cpp:367] res3c_relu -> res3c (in-place)
I0629 03:46:19.316136  2102 net.cpp:122] Setting up res3c_relu
I0629 03:46:19.316154  2102 net.cpp:129] Top shape: 8 512 28 28 (3211264)
I0629 03:46:19.316159  2102 net.cpp:137] Memory required for data: 1257210016
I0629 03:46:19.316164  2102 layer_factory.hpp:77] Creating layer res3c_res3c_relu_0_split
I0629 03:46:19.316169  2102 net.cpp:84] Creating Layer res3c_res3c_relu_0_split
I0629 03:46:19.316174  2102 net.cpp:406] res3c_res3c_relu_0_split <- res3c
I0629 03:46:19.316181  2102 net.cpp:380] res3c_res3c_relu_0_split -> res3c_res3c_relu_0_split_0
I0629 03:46:19.316190  2102 net.cpp:380] res3c_res3c_relu_0_split -> res3c_res3c_relu_0_split_1
I0629 03:46:19.316237  2102 net.cpp:122] Setting up res3c_res3c_relu_0_split
I0629 03:46:19.316252  2102 net.cpp:129] Top shape: 8 512 28 28 (3211264)
I0629 03:46:19.316258  2102 net.cpp:129] Top shape: 8 512 28 28 (3211264)
I0629 03:46:19.316262  2102 net.cpp:137] Memory required for data: 1282900128
I0629 03:46:19.316264  2102 layer_factory.hpp:77] Creating layer res3d_branch2a
I0629 03:46:19.316277  2102 net.cpp:84] Creating Layer res3d_branch2a
I0629 03:46:19.316282  2102 net.cpp:406] res3d_branch2a <- res3c_res3c_relu_0_split_0
I0629 03:46:19.316289  2102 net.cpp:380] res3d_branch2a -> res3d_branch2a
I0629 03:46:19.317729  2102 net.cpp:122] Setting up res3d_branch2a
I0629 03:46:19.317749  2102 net.cpp:129] Top shape: 8 128 28 28 (802816)
I0629 03:46:19.317754  2102 net.cpp:137] Memory required for data: 1286111392
I0629 03:46:19.317759  2102 layer_factory.hpp:77] Creating layer bn3d_branch2a
I0629 03:46:19.317781  2102 net.cpp:84] Creating Layer bn3d_branch2a
I0629 03:46:19.317787  2102 net.cpp:406] bn3d_branch2a <- res3d_branch2a
I0629 03:46:19.317793  2102 net.cpp:367] bn3d_branch2a -> res3d_branch2a (in-place)
I0629 03:46:19.318022  2102 net.cpp:122] Setting up bn3d_branch2a
I0629 03:46:19.318037  2102 net.cpp:129] Top shape: 8 128 28 28 (802816)
I0629 03:46:19.318042  2102 net.cpp:137] Memory required for data: 1289322656
I0629 03:46:19.318068  2102 layer_factory.hpp:77] Creating layer scale3d_branch2a
I0629 03:46:19.318083  2102 net.cpp:84] Creating Layer scale3d_branch2a
I0629 03:46:19.318087  2102 net.cpp:406] scale3d_branch2a <- res3d_branch2a
I0629 03:46:19.318092  2102 net.cpp:367] scale3d_branch2a -> res3d_branch2a (in-place)
I0629 03:46:19.318150  2102 layer_factory.hpp:77] Creating layer scale3d_branch2a
I0629 03:46:19.318289  2102 net.cpp:122] Setting up scale3d_branch2a
I0629 03:46:19.318303  2102 net.cpp:129] Top shape: 8 128 28 28 (802816)
I0629 03:46:19.318307  2102 net.cpp:137] Memory required for data: 1292533920
I0629 03:46:19.318315  2102 layer_factory.hpp:77] Creating layer res3d_branch2a_relu
I0629 03:46:19.318320  2102 net.cpp:84] Creating Layer res3d_branch2a_relu
I0629 03:46:19.318325  2102 net.cpp:406] res3d_branch2a_relu <- res3d_branch2a
I0629 03:46:19.318330  2102 net.cpp:367] res3d_branch2a_relu -> res3d_branch2a (in-place)
I0629 03:46:19.318488  2102 net.cpp:122] Setting up res3d_branch2a_relu
I0629 03:46:19.318506  2102 net.cpp:129] Top shape: 8 128 28 28 (802816)
I0629 03:46:19.318509  2102 net.cpp:137] Memory required for data: 1295745184
I0629 03:46:19.318513  2102 layer_factory.hpp:77] Creating layer res3d_branch2b
I0629 03:46:19.318523  2102 net.cpp:84] Creating Layer res3d_branch2b
I0629 03:46:19.318528  2102 net.cpp:406] res3d_branch2b <- res3d_branch2a
I0629 03:46:19.318536  2102 net.cpp:380] res3d_branch2b -> res3d_branch2b
I0629 03:46:19.320035  2102 net.cpp:122] Setting up res3d_branch2b
I0629 03:46:19.320056  2102 net.cpp:129] Top shape: 8 128 28 28 (802816)
I0629 03:46:19.320060  2102 net.cpp:137] Memory required for data: 1298956448
I0629 03:46:19.320066  2102 layer_factory.hpp:77] Creating layer bn3d_branch2b
I0629 03:46:19.320080  2102 net.cpp:84] Creating Layer bn3d_branch2b
I0629 03:46:19.320085  2102 net.cpp:406] bn3d_branch2b <- res3d_branch2b
I0629 03:46:19.320091  2102 net.cpp:367] bn3d_branch2b -> res3d_branch2b (in-place)
I0629 03:46:19.320318  2102 net.cpp:122] Setting up bn3d_branch2b
I0629 03:46:19.320334  2102 net.cpp:129] Top shape: 8 128 28 28 (802816)
I0629 03:46:19.320338  2102 net.cpp:137] Memory required for data: 1302167712
I0629 03:46:19.320349  2102 layer_factory.hpp:77] Creating layer scale3d_branch2b
I0629 03:46:19.320356  2102 net.cpp:84] Creating Layer scale3d_branch2b
I0629 03:46:19.320361  2102 net.cpp:406] scale3d_branch2b <- res3d_branch2b
I0629 03:46:19.320366  2102 net.cpp:367] scale3d_branch2b -> res3d_branch2b (in-place)
I0629 03:46:19.320417  2102 layer_factory.hpp:77] Creating layer scale3d_branch2b
I0629 03:46:19.320560  2102 net.cpp:122] Setting up scale3d_branch2b
I0629 03:46:19.320576  2102 net.cpp:129] Top shape: 8 128 28 28 (802816)
I0629 03:46:19.320580  2102 net.cpp:137] Memory required for data: 1305378976
I0629 03:46:19.320586  2102 layer_factory.hpp:77] Creating layer res3d_branch2b_relu
I0629 03:46:19.320595  2102 net.cpp:84] Creating Layer res3d_branch2b_relu
I0629 03:46:19.320600  2102 net.cpp:406] res3d_branch2b_relu <- res3d_branch2b
I0629 03:46:19.320605  2102 net.cpp:367] res3d_branch2b_relu -> res3d_branch2b (in-place)
I0629 03:46:19.320868  2102 net.cpp:122] Setting up res3d_branch2b_relu
I0629 03:46:19.320886  2102 net.cpp:129] Top shape: 8 128 28 28 (802816)
I0629 03:46:19.320890  2102 net.cpp:137] Memory required for data: 1308590240
I0629 03:46:19.320894  2102 layer_factory.hpp:77] Creating layer res3d_branch2c
I0629 03:46:19.320905  2102 net.cpp:84] Creating Layer res3d_branch2c
I0629 03:46:19.320910  2102 net.cpp:406] res3d_branch2c <- res3d_branch2b
I0629 03:46:19.320932  2102 net.cpp:380] res3d_branch2c -> res3d_branch2c
I0629 03:46:19.321782  2102 net.cpp:122] Setting up res3d_branch2c
I0629 03:46:19.321802  2102 net.cpp:129] Top shape: 8 512 28 28 (3211264)
I0629 03:46:19.321806  2102 net.cpp:137] Memory required for data: 1321435296
I0629 03:46:19.321812  2102 layer_factory.hpp:77] Creating layer bn3d_branch2c
I0629 03:46:19.321822  2102 net.cpp:84] Creating Layer bn3d_branch2c
I0629 03:46:19.321827  2102 net.cpp:406] bn3d_branch2c <- res3d_branch2c
I0629 03:46:19.321835  2102 net.cpp:367] bn3d_branch2c -> res3d_branch2c (in-place)
I0629 03:46:19.322052  2102 net.cpp:122] Setting up bn3d_branch2c
I0629 03:46:19.322068  2102 net.cpp:129] Top shape: 8 512 28 28 (3211264)
I0629 03:46:19.322072  2102 net.cpp:137] Memory required for data: 1334280352
I0629 03:46:19.322080  2102 layer_factory.hpp:77] Creating layer scale3d_branch2c
I0629 03:46:19.322089  2102 net.cpp:84] Creating Layer scale3d_branch2c
I0629 03:46:19.322094  2102 net.cpp:406] scale3d_branch2c <- res3d_branch2c
I0629 03:46:19.322099  2102 net.cpp:367] scale3d_branch2c -> res3d_branch2c (in-place)
I0629 03:46:19.322151  2102 layer_factory.hpp:77] Creating layer scale3d_branch2c
I0629 03:46:19.322299  2102 net.cpp:122] Setting up scale3d_branch2c
I0629 03:46:19.322315  2102 net.cpp:129] Top shape: 8 512 28 28 (3211264)
I0629 03:46:19.322319  2102 net.cpp:137] Memory required for data: 1347125408
I0629 03:46:19.322325  2102 layer_factory.hpp:77] Creating layer res3d
I0629 03:46:19.322332  2102 net.cpp:84] Creating Layer res3d
I0629 03:46:19.322336  2102 net.cpp:406] res3d <- res3c_res3c_relu_0_split_1
I0629 03:46:19.322345  2102 net.cpp:406] res3d <- res3d_branch2c
I0629 03:46:19.322355  2102 net.cpp:380] res3d -> res3d
I0629 03:46:19.322387  2102 net.cpp:122] Setting up res3d
I0629 03:46:19.322404  2102 net.cpp:129] Top shape: 8 512 28 28 (3211264)
I0629 03:46:19.322408  2102 net.cpp:137] Memory required for data: 1359970464
I0629 03:46:19.322412  2102 layer_factory.hpp:77] Creating layer res3d_relu
I0629 03:46:19.322417  2102 net.cpp:84] Creating Layer res3d_relu
I0629 03:46:19.322422  2102 net.cpp:406] res3d_relu <- res3d
I0629 03:46:19.322427  2102 net.cpp:367] res3d_relu -> res3d (in-place)
I0629 03:46:19.322676  2102 net.cpp:122] Setting up res3d_relu
I0629 03:46:19.322695  2102 net.cpp:129] Top shape: 8 512 28 28 (3211264)
I0629 03:46:19.322700  2102 net.cpp:137] Memory required for data: 1372815520
I0629 03:46:19.322703  2102 layer_factory.hpp:77] Creating layer res3d_res3d_relu_0_split
I0629 03:46:19.322711  2102 net.cpp:84] Creating Layer res3d_res3d_relu_0_split
I0629 03:46:19.322715  2102 net.cpp:406] res3d_res3d_relu_0_split <- res3d
I0629 03:46:19.322721  2102 net.cpp:380] res3d_res3d_relu_0_split -> res3d_res3d_relu_0_split_0
I0629 03:46:19.322731  2102 net.cpp:380] res3d_res3d_relu_0_split -> res3d_res3d_relu_0_split_1
I0629 03:46:19.322779  2102 net.cpp:122] Setting up res3d_res3d_relu_0_split
I0629 03:46:19.322793  2102 net.cpp:129] Top shape: 8 512 28 28 (3211264)
I0629 03:46:19.322799  2102 net.cpp:129] Top shape: 8 512 28 28 (3211264)
I0629 03:46:19.322803  2102 net.cpp:137] Memory required for data: 1398505632
I0629 03:46:19.322809  2102 layer_factory.hpp:77] Creating layer res4a_branch1
I0629 03:46:19.322819  2102 net.cpp:84] Creating Layer res4a_branch1
I0629 03:46:19.322824  2102 net.cpp:406] res4a_branch1 <- res3d_res3d_relu_0_split_0
I0629 03:46:19.322832  2102 net.cpp:380] res4a_branch1 -> res4a_branch1
I0629 03:46:19.325019  2102 net.cpp:122] Setting up res4a_branch1
I0629 03:46:19.325039  2102 net.cpp:129] Top shape: 8 1024 14 14 (1605632)
I0629 03:46:19.325044  2102 net.cpp:137] Memory required for data: 1404928160
I0629 03:46:19.325050  2102 layer_factory.hpp:77] Creating layer bn4a_branch1
I0629 03:46:19.325060  2102 net.cpp:84] Creating Layer bn4a_branch1
I0629 03:46:19.325065  2102 net.cpp:406] bn4a_branch1 <- res4a_branch1
I0629 03:46:19.325072  2102 net.cpp:367] bn4a_branch1 -> res4a_branch1 (in-place)
I0629 03:46:19.325306  2102 net.cpp:122] Setting up bn4a_branch1
I0629 03:46:19.325337  2102 net.cpp:129] Top shape: 8 1024 14 14 (1605632)
I0629 03:46:19.325342  2102 net.cpp:137] Memory required for data: 1411350688
I0629 03:46:19.325351  2102 layer_factory.hpp:77] Creating layer scale4a_branch1
I0629 03:46:19.325361  2102 net.cpp:84] Creating Layer scale4a_branch1
I0629 03:46:19.325366  2102 net.cpp:406] scale4a_branch1 <- res4a_branch1
I0629 03:46:19.325371  2102 net.cpp:367] scale4a_branch1 -> res4a_branch1 (in-place)
I0629 03:46:19.325423  2102 layer_factory.hpp:77] Creating layer scale4a_branch1
I0629 03:46:19.325572  2102 net.cpp:122] Setting up scale4a_branch1
I0629 03:46:19.325587  2102 net.cpp:129] Top shape: 8 1024 14 14 (1605632)
I0629 03:46:19.325592  2102 net.cpp:137] Memory required for data: 1417773216
I0629 03:46:19.325598  2102 layer_factory.hpp:77] Creating layer res4a_branch2a
I0629 03:46:19.325608  2102 net.cpp:84] Creating Layer res4a_branch2a
I0629 03:46:19.325613  2102 net.cpp:406] res4a_branch2a <- res3d_res3d_relu_0_split_1
I0629 03:46:19.325623  2102 net.cpp:380] res4a_branch2a -> res4a_branch2a
I0629 03:46:19.326614  2102 net.cpp:122] Setting up res4a_branch2a
I0629 03:46:19.326634  2102 net.cpp:129] Top shape: 8 256 14 14 (401408)
I0629 03:46:19.326638  2102 net.cpp:137] Memory required for data: 1419378848
I0629 03:46:19.326644  2102 layer_factory.hpp:77] Creating layer bn4a_branch2a
I0629 03:46:19.326653  2102 net.cpp:84] Creating Layer bn4a_branch2a
I0629 03:46:19.326656  2102 net.cpp:406] bn4a_branch2a <- res4a_branch2a
I0629 03:46:19.326664  2102 net.cpp:367] bn4a_branch2a -> res4a_branch2a (in-place)
I0629 03:46:19.326889  2102 net.cpp:122] Setting up bn4a_branch2a
I0629 03:46:19.326905  2102 net.cpp:129] Top shape: 8 256 14 14 (401408)
I0629 03:46:19.326910  2102 net.cpp:137] Memory required for data: 1420984480
I0629 03:46:19.326917  2102 layer_factory.hpp:77] Creating layer scale4a_branch2a
I0629 03:46:19.326925  2102 net.cpp:84] Creating Layer scale4a_branch2a
I0629 03:46:19.326928  2102 net.cpp:406] scale4a_branch2a <- res4a_branch2a
I0629 03:46:19.326934  2102 net.cpp:367] scale4a_branch2a -> res4a_branch2a (in-place)
I0629 03:46:19.326987  2102 layer_factory.hpp:77] Creating layer scale4a_branch2a
I0629 03:46:19.327131  2102 net.cpp:122] Setting up scale4a_branch2a
I0629 03:46:19.327147  2102 net.cpp:129] Top shape: 8 256 14 14 (401408)
I0629 03:46:19.327150  2102 net.cpp:137] Memory required for data: 1422590112
I0629 03:46:19.327157  2102 layer_factory.hpp:77] Creating layer res4a_branch2a_relu
I0629 03:46:19.327163  2102 net.cpp:84] Creating Layer res4a_branch2a_relu
I0629 03:46:19.327167  2102 net.cpp:406] res4a_branch2a_relu <- res4a_branch2a
I0629 03:46:19.327175  2102 net.cpp:367] res4a_branch2a_relu -> res4a_branch2a (in-place)
I0629 03:46:19.327332  2102 net.cpp:122] Setting up res4a_branch2a_relu
I0629 03:46:19.327348  2102 net.cpp:129] Top shape: 8 256 14 14 (401408)
I0629 03:46:19.327353  2102 net.cpp:137] Memory required for data: 1424195744
I0629 03:46:19.327356  2102 layer_factory.hpp:77] Creating layer res4a_branch2b
I0629 03:46:19.327369  2102 net.cpp:84] Creating Layer res4a_branch2b
I0629 03:46:19.327374  2102 net.cpp:406] res4a_branch2b <- res4a_branch2a
I0629 03:46:19.327383  2102 net.cpp:380] res4a_branch2b -> res4a_branch2b
I0629 03:46:19.329547  2102 net.cpp:122] Setting up res4a_branch2b
I0629 03:46:19.329569  2102 net.cpp:129] Top shape: 8 256 14 14 (401408)
I0629 03:46:19.329574  2102 net.cpp:137] Memory required for data: 1425801376
I0629 03:46:19.329581  2102 layer_factory.hpp:77] Creating layer bn4a_branch2b
I0629 03:46:19.329587  2102 net.cpp:84] Creating Layer bn4a_branch2b
I0629 03:46:19.329592  2102 net.cpp:406] bn4a_branch2b <- res4a_branch2b
I0629 03:46:19.329601  2102 net.cpp:367] bn4a_branch2b -> res4a_branch2b (in-place)
I0629 03:46:19.329833  2102 net.cpp:122] Setting up bn4a_branch2b
I0629 03:46:19.329849  2102 net.cpp:129] Top shape: 8 256 14 14 (401408)
I0629 03:46:19.329852  2102 net.cpp:137] Memory required for data: 1427407008
I0629 03:46:19.329861  2102 layer_factory.hpp:77] Creating layer scale4a_branch2b
I0629 03:46:19.329882  2102 net.cpp:84] Creating Layer scale4a_branch2b
I0629 03:46:19.329888  2102 net.cpp:406] scale4a_branch2b <- res4a_branch2b
I0629 03:46:19.329893  2102 net.cpp:367] scale4a_branch2b -> res4a_branch2b (in-place)
I0629 03:46:19.329948  2102 layer_factory.hpp:77] Creating layer scale4a_branch2b
I0629 03:46:19.330092  2102 net.cpp:122] Setting up scale4a_branch2b
I0629 03:46:19.330107  2102 net.cpp:129] Top shape: 8 256 14 14 (401408)
I0629 03:46:19.330111  2102 net.cpp:137] Memory required for data: 1429012640
I0629 03:46:19.330118  2102 layer_factory.hpp:77] Creating layer res4a_branch2b_relu
I0629 03:46:19.330127  2102 net.cpp:84] Creating Layer res4a_branch2b_relu
I0629 03:46:19.330132  2102 net.cpp:406] res4a_branch2b_relu <- res4a_branch2b
I0629 03:46:19.330138  2102 net.cpp:367] res4a_branch2b_relu -> res4a_branch2b (in-place)
I0629 03:46:19.330297  2102 net.cpp:122] Setting up res4a_branch2b_relu
I0629 03:46:19.330313  2102 net.cpp:129] Top shape: 8 256 14 14 (401408)
I0629 03:46:19.330317  2102 net.cpp:137] Memory required for data: 1430618272
I0629 03:46:19.330322  2102 layer_factory.hpp:77] Creating layer res4a_branch2c
I0629 03:46:19.330332  2102 net.cpp:84] Creating Layer res4a_branch2c
I0629 03:46:19.330338  2102 net.cpp:406] res4a_branch2c <- res4a_branch2b
I0629 03:46:19.330345  2102 net.cpp:380] res4a_branch2c -> res4a_branch2c
I0629 03:46:19.331866  2102 net.cpp:122] Setting up res4a_branch2c
I0629 03:46:19.331887  2102 net.cpp:129] Top shape: 8 1024 14 14 (1605632)
I0629 03:46:19.331905  2102 net.cpp:137] Memory required for data: 1437040800
I0629 03:46:19.331912  2102 layer_factory.hpp:77] Creating layer bn4a_branch2c
I0629 03:46:19.331919  2102 net.cpp:84] Creating Layer bn4a_branch2c
I0629 03:46:19.331924  2102 net.cpp:406] bn4a_branch2c <- res4a_branch2c
I0629 03:46:19.331930  2102 net.cpp:367] bn4a_branch2c -> res4a_branch2c (in-place)
I0629 03:46:19.332164  2102 net.cpp:122] Setting up bn4a_branch2c
I0629 03:46:19.332178  2102 net.cpp:129] Top shape: 8 1024 14 14 (1605632)
I0629 03:46:19.332183  2102 net.cpp:137] Memory required for data: 1443463328
I0629 03:46:19.332191  2102 layer_factory.hpp:77] Creating layer scale4a_branch2c
I0629 03:46:19.332200  2102 net.cpp:84] Creating Layer scale4a_branch2c
I0629 03:46:19.332203  2102 net.cpp:406] scale4a_branch2c <- res4a_branch2c
I0629 03:46:19.332208  2102 net.cpp:367] scale4a_branch2c -> res4a_branch2c (in-place)
I0629 03:46:19.332259  2102 layer_factory.hpp:77] Creating layer scale4a_branch2c
I0629 03:46:19.332413  2102 net.cpp:122] Setting up scale4a_branch2c
I0629 03:46:19.332428  2102 net.cpp:129] Top shape: 8 1024 14 14 (1605632)
I0629 03:46:19.332432  2102 net.cpp:137] Memory required for data: 1449885856
I0629 03:46:19.332439  2102 layer_factory.hpp:77] Creating layer res4a
I0629 03:46:19.332448  2102 net.cpp:84] Creating Layer res4a
I0629 03:46:19.332453  2102 net.cpp:406] res4a <- res4a_branch1
I0629 03:46:19.332458  2102 net.cpp:406] res4a <- res4a_branch2c
I0629 03:46:19.332463  2102 net.cpp:380] res4a -> res4a
I0629 03:46:19.332496  2102 net.cpp:122] Setting up res4a
I0629 03:46:19.332511  2102 net.cpp:129] Top shape: 8 1024 14 14 (1605632)
I0629 03:46:19.332515  2102 net.cpp:137] Memory required for data: 1456308384
I0629 03:46:19.332520  2102 layer_factory.hpp:77] Creating layer res4a_relu
I0629 03:46:19.332525  2102 net.cpp:84] Creating Layer res4a_relu
I0629 03:46:19.332530  2102 net.cpp:406] res4a_relu <- res4a
I0629 03:46:19.332537  2102 net.cpp:367] res4a_relu -> res4a (in-place)
I0629 03:46:19.332808  2102 net.cpp:122] Setting up res4a_relu
I0629 03:46:19.332826  2102 net.cpp:129] Top shape: 8 1024 14 14 (1605632)
I0629 03:46:19.332830  2102 net.cpp:137] Memory required for data: 1462730912
I0629 03:46:19.332834  2102 layer_factory.hpp:77] Creating layer res4a_res4a_relu_0_split
I0629 03:46:19.332857  2102 net.cpp:84] Creating Layer res4a_res4a_relu_0_split
I0629 03:46:19.332867  2102 net.cpp:406] res4a_res4a_relu_0_split <- res4a
I0629 03:46:19.332876  2102 net.cpp:380] res4a_res4a_relu_0_split -> res4a_res4a_relu_0_split_0
I0629 03:46:19.332898  2102 net.cpp:380] res4a_res4a_relu_0_split -> res4a_res4a_relu_0_split_1
I0629 03:46:19.332953  2102 net.cpp:122] Setting up res4a_res4a_relu_0_split
I0629 03:46:19.332968  2102 net.cpp:129] Top shape: 8 1024 14 14 (1605632)
I0629 03:46:19.332974  2102 net.cpp:129] Top shape: 8 1024 14 14 (1605632)
I0629 03:46:19.332978  2102 net.cpp:137] Memory required for data: 1475575968
I0629 03:46:19.332981  2102 layer_factory.hpp:77] Creating layer res4b_branch2a
I0629 03:46:19.332993  2102 net.cpp:84] Creating Layer res4b_branch2a
I0629 03:46:19.332998  2102 net.cpp:406] res4b_branch2a <- res4a_res4a_relu_0_split_0
I0629 03:46:19.333003  2102 net.cpp:380] res4b_branch2a -> res4b_branch2a
I0629 03:46:19.334545  2102 net.cpp:122] Setting up res4b_branch2a
I0629 03:46:19.334565  2102 net.cpp:129] Top shape: 8 256 14 14 (401408)
I0629 03:46:19.334569  2102 net.cpp:137] Memory required for data: 1477181600
I0629 03:46:19.334575  2102 layer_factory.hpp:77] Creating layer bn4b_branch2a
I0629 03:46:19.334586  2102 net.cpp:84] Creating Layer bn4b_branch2a
I0629 03:46:19.334591  2102 net.cpp:406] bn4b_branch2a <- res4b_branch2a
I0629 03:46:19.334599  2102 net.cpp:367] bn4b_branch2a -> res4b_branch2a (in-place)
I0629 03:46:19.334831  2102 net.cpp:122] Setting up bn4b_branch2a
I0629 03:46:19.334847  2102 net.cpp:129] Top shape: 8 256 14 14 (401408)
I0629 03:46:19.334851  2102 net.cpp:137] Memory required for data: 1478787232
I0629 03:46:19.334859  2102 layer_factory.hpp:77] Creating layer scale4b_branch2a
I0629 03:46:19.334867  2102 net.cpp:84] Creating Layer scale4b_branch2a
I0629 03:46:19.334872  2102 net.cpp:406] scale4b_branch2a <- res4b_branch2a
I0629 03:46:19.334879  2102 net.cpp:367] scale4b_branch2a -> res4b_branch2a (in-place)
I0629 03:46:19.334930  2102 layer_factory.hpp:77] Creating layer scale4b_branch2a
I0629 03:46:19.335078  2102 net.cpp:122] Setting up scale4b_branch2a
I0629 03:46:19.335095  2102 net.cpp:129] Top shape: 8 256 14 14 (401408)
I0629 03:46:19.335099  2102 net.cpp:137] Memory required for data: 1480392864
I0629 03:46:19.335106  2102 layer_factory.hpp:77] Creating layer res4b_branch2a_relu
I0629 03:46:19.335113  2102 net.cpp:84] Creating Layer res4b_branch2a_relu
I0629 03:46:19.335116  2102 net.cpp:406] res4b_branch2a_relu <- res4b_branch2a
I0629 03:46:19.335122  2102 net.cpp:367] res4b_branch2a_relu -> res4b_branch2a (in-place)
I0629 03:46:19.335286  2102 net.cpp:122] Setting up res4b_branch2a_relu
I0629 03:46:19.335304  2102 net.cpp:129] Top shape: 8 256 14 14 (401408)
I0629 03:46:19.335307  2102 net.cpp:137] Memory required for data: 1481998496
I0629 03:46:19.335311  2102 layer_factory.hpp:77] Creating layer res4b_branch2b
I0629 03:46:19.335322  2102 net.cpp:84] Creating Layer res4b_branch2b
I0629 03:46:19.335326  2102 net.cpp:406] res4b_branch2b <- res4b_branch2a
I0629 03:46:19.335335  2102 net.cpp:380] res4b_branch2b -> res4b_branch2b
I0629 03:46:19.337549  2102 net.cpp:122] Setting up res4b_branch2b
I0629 03:46:19.337570  2102 net.cpp:129] Top shape: 8 256 14 14 (401408)
I0629 03:46:19.337575  2102 net.cpp:137] Memory required for data: 1483604128
I0629 03:46:19.337581  2102 layer_factory.hpp:77] Creating layer bn4b_branch2b
I0629 03:46:19.337589  2102 net.cpp:84] Creating Layer bn4b_branch2b
I0629 03:46:19.337594  2102 net.cpp:406] bn4b_branch2b <- res4b_branch2b
I0629 03:46:19.337599  2102 net.cpp:367] bn4b_branch2b -> res4b_branch2b (in-place)
I0629 03:46:19.337829  2102 net.cpp:122] Setting up bn4b_branch2b
I0629 03:46:19.337846  2102 net.cpp:129] Top shape: 8 256 14 14 (401408)
I0629 03:46:19.337849  2102 net.cpp:137] Memory required for data: 1485209760
I0629 03:46:19.337860  2102 layer_factory.hpp:77] Creating layer scale4b_branch2b
I0629 03:46:19.337868  2102 net.cpp:84] Creating Layer scale4b_branch2b
I0629 03:46:19.337872  2102 net.cpp:406] scale4b_branch2b <- res4b_branch2b
I0629 03:46:19.337878  2102 net.cpp:367] scale4b_branch2b -> res4b_branch2b (in-place)
I0629 03:46:19.337935  2102 layer_factory.hpp:77] Creating layer scale4b_branch2b
I0629 03:46:19.338079  2102 net.cpp:122] Setting up scale4b_branch2b
I0629 03:46:19.338107  2102 net.cpp:129] Top shape: 8 256 14 14 (401408)
I0629 03:46:19.338111  2102 net.cpp:137] Memory required for data: 1486815392
I0629 03:46:19.338119  2102 layer_factory.hpp:77] Creating layer res4b_branch2b_relu
I0629 03:46:19.338127  2102 net.cpp:84] Creating Layer res4b_branch2b_relu
I0629 03:46:19.338132  2102 net.cpp:406] res4b_branch2b_relu <- res4b_branch2b
I0629 03:46:19.338140  2102 net.cpp:367] res4b_branch2b_relu -> res4b_branch2b (in-place)
I0629 03:46:19.338307  2102 net.cpp:122] Setting up res4b_branch2b_relu
I0629 03:46:19.338326  2102 net.cpp:129] Top shape: 8 256 14 14 (401408)
I0629 03:46:19.338330  2102 net.cpp:137] Memory required for data: 1488421024
I0629 03:46:19.338335  2102 layer_factory.hpp:77] Creating layer res4b_branch2c
I0629 03:46:19.338343  2102 net.cpp:84] Creating Layer res4b_branch2c
I0629 03:46:19.338348  2102 net.cpp:406] res4b_branch2c <- res4b_branch2b
I0629 03:46:19.338356  2102 net.cpp:380] res4b_branch2c -> res4b_branch2c
I0629 03:46:19.339920  2102 net.cpp:122] Setting up res4b_branch2c
I0629 03:46:19.339939  2102 net.cpp:129] Top shape: 8 1024 14 14 (1605632)
I0629 03:46:19.339944  2102 net.cpp:137] Memory required for data: 1494843552
I0629 03:46:19.339951  2102 layer_factory.hpp:77] Creating layer bn4b_branch2c
I0629 03:46:19.339960  2102 net.cpp:84] Creating Layer bn4b_branch2c
I0629 03:46:19.339965  2102 net.cpp:406] bn4b_branch2c <- res4b_branch2c
I0629 03:46:19.339970  2102 net.cpp:367] bn4b_branch2c -> res4b_branch2c (in-place)
I0629 03:46:19.340217  2102 net.cpp:122] Setting up bn4b_branch2c
I0629 03:46:19.340234  2102 net.cpp:129] Top shape: 8 1024 14 14 (1605632)
I0629 03:46:19.340239  2102 net.cpp:137] Memory required for data: 1501266080
I0629 03:46:19.340247  2102 layer_factory.hpp:77] Creating layer scale4b_branch2c
I0629 03:46:19.340255  2102 net.cpp:84] Creating Layer scale4b_branch2c
I0629 03:46:19.340258  2102 net.cpp:406] scale4b_branch2c <- res4b_branch2c
I0629 03:46:19.340265  2102 net.cpp:367] scale4b_branch2c -> res4b_branch2c (in-place)
I0629 03:46:19.340317  2102 layer_factory.hpp:77] Creating layer scale4b_branch2c
I0629 03:46:19.340469  2102 net.cpp:122] Setting up scale4b_branch2c
I0629 03:46:19.340484  2102 net.cpp:129] Top shape: 8 1024 14 14 (1605632)
I0629 03:46:19.340488  2102 net.cpp:137] Memory required for data: 1507688608
I0629 03:46:19.340495  2102 layer_factory.hpp:77] Creating layer res4b
I0629 03:46:19.340504  2102 net.cpp:84] Creating Layer res4b
I0629 03:46:19.340508  2102 net.cpp:406] res4b <- res4a_res4a_relu_0_split_1
I0629 03:46:19.340513  2102 net.cpp:406] res4b <- res4b_branch2c
I0629 03:46:19.340518  2102 net.cpp:380] res4b -> res4b
I0629 03:46:19.340561  2102 net.cpp:122] Setting up res4b
I0629 03:46:19.340579  2102 net.cpp:129] Top shape: 8 1024 14 14 (1605632)
I0629 03:46:19.340582  2102 net.cpp:137] Memory required for data: 1514111136
I0629 03:46:19.340586  2102 layer_factory.hpp:77] Creating layer res4b_relu
I0629 03:46:19.340592  2102 net.cpp:84] Creating Layer res4b_relu
I0629 03:46:19.340596  2102 net.cpp:406] res4b_relu <- res4b
I0629 03:46:19.340601  2102 net.cpp:367] res4b_relu -> res4b (in-place)
I0629 03:46:19.340878  2102 net.cpp:122] Setting up res4b_relu
I0629 03:46:19.340896  2102 net.cpp:129] Top shape: 8 1024 14 14 (1605632)
I0629 03:46:19.340900  2102 net.cpp:137] Memory required for data: 1520533664
I0629 03:46:19.340904  2102 layer_factory.hpp:77] Creating layer res4b_res4b_relu_0_split
I0629 03:46:19.340911  2102 net.cpp:84] Creating Layer res4b_res4b_relu_0_split
I0629 03:46:19.340919  2102 net.cpp:406] res4b_res4b_relu_0_split <- res4b
I0629 03:46:19.340924  2102 net.cpp:380] res4b_res4b_relu_0_split -> res4b_res4b_relu_0_split_0
I0629 03:46:19.340931  2102 net.cpp:380] res4b_res4b_relu_0_split -> res4b_res4b_relu_0_split_1
I0629 03:46:19.340986  2102 net.cpp:122] Setting up res4b_res4b_relu_0_split
I0629 03:46:19.340999  2102 net.cpp:129] Top shape: 8 1024 14 14 (1605632)
I0629 03:46:19.341006  2102 net.cpp:129] Top shape: 8 1024 14 14 (1605632)
I0629 03:46:19.341024  2102 net.cpp:137] Memory required for data: 1533378720
I0629 03:46:19.341029  2102 layer_factory.hpp:77] Creating layer res4c_branch2a
I0629 03:46:19.341040  2102 net.cpp:84] Creating Layer res4c_branch2a
I0629 03:46:19.341047  2102 net.cpp:406] res4c_branch2a <- res4b_res4b_relu_0_split_0
I0629 03:46:19.341053  2102 net.cpp:380] res4c_branch2a -> res4c_branch2a
I0629 03:46:19.342624  2102 net.cpp:122] Setting up res4c_branch2a
I0629 03:46:19.342643  2102 net.cpp:129] Top shape: 8 256 14 14 (401408)
I0629 03:46:19.342648  2102 net.cpp:137] Memory required for data: 1534984352
I0629 03:46:19.342654  2102 layer_factory.hpp:77] Creating layer bn4c_branch2a
I0629 03:46:19.342664  2102 net.cpp:84] Creating Layer bn4c_branch2a
I0629 03:46:19.342669  2102 net.cpp:406] bn4c_branch2a <- res4c_branch2a
I0629 03:46:19.342674  2102 net.cpp:367] bn4c_branch2a -> res4c_branch2a (in-place)
I0629 03:46:19.342921  2102 net.cpp:122] Setting up bn4c_branch2a
I0629 03:46:19.342937  2102 net.cpp:129] Top shape: 8 256 14 14 (401408)
I0629 03:46:19.342942  2102 net.cpp:137] Memory required for data: 1536589984
I0629 03:46:19.342950  2102 layer_factory.hpp:77] Creating layer scale4c_branch2a
I0629 03:46:19.342957  2102 net.cpp:84] Creating Layer scale4c_branch2a
I0629 03:46:19.342962  2102 net.cpp:406] scale4c_branch2a <- res4c_branch2a
I0629 03:46:19.342975  2102 net.cpp:367] scale4c_branch2a -> res4c_branch2a (in-place)
I0629 03:46:19.343029  2102 layer_factory.hpp:77] Creating layer scale4c_branch2a
I0629 03:46:19.343178  2102 net.cpp:122] Setting up scale4c_branch2a
I0629 03:46:19.343194  2102 net.cpp:129] Top shape: 8 256 14 14 (401408)
I0629 03:46:19.343199  2102 net.cpp:137] Memory required for data: 1538195616
I0629 03:46:19.343205  2102 layer_factory.hpp:77] Creating layer res4c_branch2a_relu
I0629 03:46:19.343214  2102 net.cpp:84] Creating Layer res4c_branch2a_relu
I0629 03:46:19.343219  2102 net.cpp:406] res4c_branch2a_relu <- res4c_branch2a
I0629 03:46:19.343224  2102 net.cpp:367] res4c_branch2a_relu -> res4c_branch2a (in-place)
I0629 03:46:19.343395  2102 net.cpp:122] Setting up res4c_branch2a_relu
I0629 03:46:19.343411  2102 net.cpp:129] Top shape: 8 256 14 14 (401408)
I0629 03:46:19.343415  2102 net.cpp:137] Memory required for data: 1539801248
I0629 03:46:19.343420  2102 layer_factory.hpp:77] Creating layer res4c_branch2b
I0629 03:46:19.343430  2102 net.cpp:84] Creating Layer res4c_branch2b
I0629 03:46:19.343436  2102 net.cpp:406] res4c_branch2b <- res4c_branch2a
I0629 03:46:19.343441  2102 net.cpp:380] res4c_branch2b -> res4c_branch2b
I0629 03:46:19.345746  2102 net.cpp:122] Setting up res4c_branch2b
I0629 03:46:19.345767  2102 net.cpp:129] Top shape: 8 256 14 14 (401408)
I0629 03:46:19.345772  2102 net.cpp:137] Memory required for data: 1541406880
I0629 03:46:19.345777  2102 layer_factory.hpp:77] Creating layer bn4c_branch2b
I0629 03:46:19.345788  2102 net.cpp:84] Creating Layer bn4c_branch2b
I0629 03:46:19.345793  2102 net.cpp:406] bn4c_branch2b <- res4c_branch2b
I0629 03:46:19.345799  2102 net.cpp:367] bn4c_branch2b -> res4c_branch2b (in-place)
I0629 03:46:19.346051  2102 net.cpp:122] Setting up bn4c_branch2b
I0629 03:46:19.346066  2102 net.cpp:129] Top shape: 8 256 14 14 (401408)
I0629 03:46:19.346071  2102 net.cpp:137] Memory required for data: 1543012512
I0629 03:46:19.346079  2102 layer_factory.hpp:77] Creating layer scale4c_branch2b
I0629 03:46:19.346088  2102 net.cpp:84] Creating Layer scale4c_branch2b
I0629 03:46:19.346096  2102 net.cpp:406] scale4c_branch2b <- res4c_branch2b
I0629 03:46:19.346101  2102 net.cpp:367] scale4c_branch2b -> res4c_branch2b (in-place)
I0629 03:46:19.346158  2102 layer_factory.hpp:77] Creating layer scale4c_branch2b
I0629 03:46:19.346312  2102 net.cpp:122] Setting up scale4c_branch2b
I0629 03:46:19.346328  2102 net.cpp:129] Top shape: 8 256 14 14 (401408)
I0629 03:46:19.346331  2102 net.cpp:137] Memory required for data: 1544618144
I0629 03:46:19.346338  2102 layer_factory.hpp:77] Creating layer res4c_branch2b_relu
I0629 03:46:19.346344  2102 net.cpp:84] Creating Layer res4c_branch2b_relu
I0629 03:46:19.346369  2102 net.cpp:406] res4c_branch2b_relu <- res4c_branch2b
I0629 03:46:19.346376  2102 net.cpp:367] res4c_branch2b_relu -> res4c_branch2b (in-place)
I0629 03:46:19.346541  2102 net.cpp:122] Setting up res4c_branch2b_relu
I0629 03:46:19.346559  2102 net.cpp:129] Top shape: 8 256 14 14 (401408)
I0629 03:46:19.346562  2102 net.cpp:137] Memory required for data: 1546223776
I0629 03:46:19.346566  2102 layer_factory.hpp:77] Creating layer res4c_branch2c
I0629 03:46:19.346577  2102 net.cpp:84] Creating Layer res4c_branch2c
I0629 03:46:19.346582  2102 net.cpp:406] res4c_branch2c <- res4c_branch2b
I0629 03:46:19.346590  2102 net.cpp:380] res4c_branch2c -> res4c_branch2c
I0629 03:46:19.348280  2102 net.cpp:122] Setting up res4c_branch2c
I0629 03:46:19.348300  2102 net.cpp:129] Top shape: 8 1024 14 14 (1605632)
I0629 03:46:19.348305  2102 net.cpp:137] Memory required for data: 1552646304
I0629 03:46:19.348311  2102 layer_factory.hpp:77] Creating layer bn4c_branch2c
I0629 03:46:19.348321  2102 net.cpp:84] Creating Layer bn4c_branch2c
I0629 03:46:19.348332  2102 net.cpp:406] bn4c_branch2c <- res4c_branch2c
I0629 03:46:19.348338  2102 net.cpp:367] bn4c_branch2c -> res4c_branch2c (in-place)
I0629 03:46:19.348587  2102 net.cpp:122] Setting up bn4c_branch2c
I0629 03:46:19.348601  2102 net.cpp:129] Top shape: 8 1024 14 14 (1605632)
I0629 03:46:19.348605  2102 net.cpp:137] Memory required for data: 1559068832
I0629 03:46:19.348614  2102 layer_factory.hpp:77] Creating layer scale4c_branch2c
I0629 03:46:19.348624  2102 net.cpp:84] Creating Layer scale4c_branch2c
I0629 03:46:19.348634  2102 net.cpp:406] scale4c_branch2c <- res4c_branch2c
I0629 03:46:19.348640  2102 net.cpp:367] scale4c_branch2c -> res4c_branch2c (in-place)
I0629 03:46:19.348693  2102 layer_factory.hpp:77] Creating layer scale4c_branch2c
I0629 03:46:19.348853  2102 net.cpp:122] Setting up scale4c_branch2c
I0629 03:46:19.348870  2102 net.cpp:129] Top shape: 8 1024 14 14 (1605632)
I0629 03:46:19.348873  2102 net.cpp:137] Memory required for data: 1565491360
I0629 03:46:19.348881  2102 layer_factory.hpp:77] Creating layer res4c
I0629 03:46:19.348886  2102 net.cpp:84] Creating Layer res4c
I0629 03:46:19.348891  2102 net.cpp:406] res4c <- res4b_res4b_relu_0_split_1
I0629 03:46:19.348896  2102 net.cpp:406] res4c <- res4c_branch2c
I0629 03:46:19.348903  2102 net.cpp:380] res4c -> res4c
I0629 03:46:19.348937  2102 net.cpp:122] Setting up res4c
I0629 03:46:19.348956  2102 net.cpp:129] Top shape: 8 1024 14 14 (1605632)
I0629 03:46:19.348960  2102 net.cpp:137] Memory required for data: 1571913888
I0629 03:46:19.348964  2102 layer_factory.hpp:77] Creating layer res4c_relu
I0629 03:46:19.348970  2102 net.cpp:84] Creating Layer res4c_relu
I0629 03:46:19.348974  2102 net.cpp:406] res4c_relu <- res4c
I0629 03:46:19.348979  2102 net.cpp:367] res4c_relu -> res4c (in-place)
I0629 03:46:19.349254  2102 net.cpp:122] Setting up res4c_relu
I0629 03:46:19.349273  2102 net.cpp:129] Top shape: 8 1024 14 14 (1605632)
I0629 03:46:19.349277  2102 net.cpp:137] Memory required for data: 1578336416
I0629 03:46:19.349282  2102 layer_factory.hpp:77] Creating layer res4c_res4c_relu_0_split
I0629 03:46:19.349287  2102 net.cpp:84] Creating Layer res4c_res4c_relu_0_split
I0629 03:46:19.349292  2102 net.cpp:406] res4c_res4c_relu_0_split <- res4c
I0629 03:46:19.349300  2102 net.cpp:380] res4c_res4c_relu_0_split -> res4c_res4c_relu_0_split_0
I0629 03:46:19.349308  2102 net.cpp:380] res4c_res4c_relu_0_split -> res4c_res4c_relu_0_split_1
I0629 03:46:19.349367  2102 net.cpp:122] Setting up res4c_res4c_relu_0_split
I0629 03:46:19.349385  2102 net.cpp:129] Top shape: 8 1024 14 14 (1605632)
I0629 03:46:19.349390  2102 net.cpp:129] Top shape: 8 1024 14 14 (1605632)
I0629 03:46:19.349393  2102 net.cpp:137] Memory required for data: 1591181472
I0629 03:46:19.349397  2102 layer_factory.hpp:77] Creating layer res4d_branch2a
I0629 03:46:19.349406  2102 net.cpp:84] Creating Layer res4d_branch2a
I0629 03:46:19.349409  2102 net.cpp:406] res4d_branch2a <- res4c_res4c_relu_0_split_0
I0629 03:46:19.349438  2102 net.cpp:380] res4d_branch2a -> res4d_branch2a
I0629 03:46:19.351017  2102 net.cpp:122] Setting up res4d_branch2a
I0629 03:46:19.351037  2102 net.cpp:129] Top shape: 8 256 14 14 (401408)
I0629 03:46:19.351042  2102 net.cpp:137] Memory required for data: 1592787104
I0629 03:46:19.351052  2102 layer_factory.hpp:77] Creating layer bn4d_branch2a
I0629 03:46:19.351066  2102 net.cpp:84] Creating Layer bn4d_branch2a
I0629 03:46:19.351073  2102 net.cpp:406] bn4d_branch2a <- res4d_branch2a
I0629 03:46:19.351078  2102 net.cpp:367] bn4d_branch2a -> res4d_branch2a (in-place)
I0629 03:46:19.351325  2102 net.cpp:122] Setting up bn4d_branch2a
I0629 03:46:19.351341  2102 net.cpp:129] Top shape: 8 256 14 14 (401408)
I0629 03:46:19.351346  2102 net.cpp:137] Memory required for data: 1594392736
I0629 03:46:19.351353  2102 layer_factory.hpp:77] Creating layer scale4d_branch2a
I0629 03:46:19.351361  2102 net.cpp:84] Creating Layer scale4d_branch2a
I0629 03:46:19.351364  2102 net.cpp:406] scale4d_branch2a <- res4d_branch2a
I0629 03:46:19.351374  2102 net.cpp:367] scale4d_branch2a -> res4d_branch2a (in-place)
I0629 03:46:19.351430  2102 layer_factory.hpp:77] Creating layer scale4d_branch2a
I0629 03:46:19.351584  2102 net.cpp:122] Setting up scale4d_branch2a
I0629 03:46:19.351600  2102 net.cpp:129] Top shape: 8 256 14 14 (401408)
I0629 03:46:19.351603  2102 net.cpp:137] Memory required for data: 1595998368
I0629 03:46:19.351610  2102 layer_factory.hpp:77] Creating layer res4d_branch2a_relu
I0629 03:46:19.351619  2102 net.cpp:84] Creating Layer res4d_branch2a_relu
I0629 03:46:19.351627  2102 net.cpp:406] res4d_branch2a_relu <- res4d_branch2a
I0629 03:46:19.351632  2102 net.cpp:367] res4d_branch2a_relu -> res4d_branch2a (in-place)
I0629 03:46:19.351801  2102 net.cpp:122] Setting up res4d_branch2a_relu
I0629 03:46:19.351819  2102 net.cpp:129] Top shape: 8 256 14 14 (401408)
I0629 03:46:19.351822  2102 net.cpp:137] Memory required for data: 1597604000
I0629 03:46:19.351826  2102 layer_factory.hpp:77] Creating layer res4d_branch2b
I0629 03:46:19.351837  2102 net.cpp:84] Creating Layer res4d_branch2b
I0629 03:46:19.351842  2102 net.cpp:406] res4d_branch2b <- res4d_branch2a
I0629 03:46:19.351848  2102 net.cpp:380] res4d_branch2b -> res4d_branch2b
I0629 03:46:19.354086  2102 net.cpp:122] Setting up res4d_branch2b
I0629 03:46:19.354107  2102 net.cpp:129] Top shape: 8 256 14 14 (401408)
I0629 03:46:19.354111  2102 net.cpp:137] Memory required for data: 1599209632
I0629 03:46:19.354117  2102 layer_factory.hpp:77] Creating layer bn4d_branch2b
I0629 03:46:19.354125  2102 net.cpp:84] Creating Layer bn4d_branch2b
I0629 03:46:19.354130  2102 net.cpp:406] bn4d_branch2b <- res4d_branch2b
I0629 03:46:19.354137  2102 net.cpp:367] bn4d_branch2b -> res4d_branch2b (in-place)
I0629 03:46:19.354389  2102 net.cpp:122] Setting up bn4d_branch2b
I0629 03:46:19.354405  2102 net.cpp:129] Top shape: 8 256 14 14 (401408)
I0629 03:46:19.354409  2102 net.cpp:137] Memory required for data: 1600815264
I0629 03:46:19.354418  2102 layer_factory.hpp:77] Creating layer scale4d_branch2b
I0629 03:46:19.354424  2102 net.cpp:84] Creating Layer scale4d_branch2b
I0629 03:46:19.354429  2102 net.cpp:406] scale4d_branch2b <- res4d_branch2b
I0629 03:46:19.354434  2102 net.cpp:367] scale4d_branch2b -> res4d_branch2b (in-place)
I0629 03:46:19.354492  2102 layer_factory.hpp:77] Creating layer scale4d_branch2b
I0629 03:46:19.354648  2102 net.cpp:122] Setting up scale4d_branch2b
I0629 03:46:19.354665  2102 net.cpp:129] Top shape: 8 256 14 14 (401408)
I0629 03:46:19.354667  2102 net.cpp:137] Memory required for data: 1602420896
I0629 03:46:19.354674  2102 layer_factory.hpp:77] Creating layer res4d_branch2b_relu
I0629 03:46:19.354681  2102 net.cpp:84] Creating Layer res4d_branch2b_relu
I0629 03:46:19.354686  2102 net.cpp:406] res4d_branch2b_relu <- res4d_branch2b
I0629 03:46:19.354692  2102 net.cpp:367] res4d_branch2b_relu -> res4d_branch2b (in-place)
I0629 03:46:19.354858  2102 net.cpp:122] Setting up res4d_branch2b_relu
I0629 03:46:19.354874  2102 net.cpp:129] Top shape: 8 256 14 14 (401408)
I0629 03:46:19.354892  2102 net.cpp:137] Memory required for data: 1604026528
I0629 03:46:19.354897  2102 layer_factory.hpp:77] Creating layer res4d_branch2c
I0629 03:46:19.354907  2102 net.cpp:84] Creating Layer res4d_branch2c
I0629 03:46:19.354913  2102 net.cpp:406] res4d_branch2c <- res4d_branch2b
I0629 03:46:19.354923  2102 net.cpp:380] res4d_branch2c -> res4d_branch2c
I0629 03:46:19.356531  2102 net.cpp:122] Setting up res4d_branch2c
I0629 03:46:19.356551  2102 net.cpp:129] Top shape: 8 1024 14 14 (1605632)
I0629 03:46:19.356555  2102 net.cpp:137] Memory required for data: 1610449056
I0629 03:46:19.356561  2102 layer_factory.hpp:77] Creating layer bn4d_branch2c
I0629 03:46:19.356570  2102 net.cpp:84] Creating Layer bn4d_branch2c
I0629 03:46:19.356573  2102 net.cpp:406] bn4d_branch2c <- res4d_branch2c
I0629 03:46:19.356582  2102 net.cpp:367] bn4d_branch2c -> res4d_branch2c (in-place)
I0629 03:46:19.356840  2102 net.cpp:122] Setting up bn4d_branch2c
I0629 03:46:19.356856  2102 net.cpp:129] Top shape: 8 1024 14 14 (1605632)
I0629 03:46:19.356860  2102 net.cpp:137] Memory required for data: 1616871584
I0629 03:46:19.356869  2102 layer_factory.hpp:77] Creating layer scale4d_branch2c
I0629 03:46:19.356876  2102 net.cpp:84] Creating Layer scale4d_branch2c
I0629 03:46:19.356883  2102 net.cpp:406] scale4d_branch2c <- res4d_branch2c
I0629 03:46:19.356889  2102 net.cpp:367] scale4d_branch2c -> res4d_branch2c (in-place)
I0629 03:46:19.356943  2102 layer_factory.hpp:77] Creating layer scale4d_branch2c
I0629 03:46:19.357107  2102 net.cpp:122] Setting up scale4d_branch2c
I0629 03:46:19.357123  2102 net.cpp:129] Top shape: 8 1024 14 14 (1605632)
I0629 03:46:19.357127  2102 net.cpp:137] Memory required for data: 1623294112
I0629 03:46:19.357134  2102 layer_factory.hpp:77] Creating layer res4d
I0629 03:46:19.357141  2102 net.cpp:84] Creating Layer res4d
I0629 03:46:19.357146  2102 net.cpp:406] res4d <- res4c_res4c_relu_0_split_1
I0629 03:46:19.357151  2102 net.cpp:406] res4d <- res4d_branch2c
I0629 03:46:19.357158  2102 net.cpp:380] res4d -> res4d
I0629 03:46:19.357193  2102 net.cpp:122] Setting up res4d
I0629 03:46:19.357208  2102 net.cpp:129] Top shape: 8 1024 14 14 (1605632)
I0629 03:46:19.357211  2102 net.cpp:137] Memory required for data: 1629716640
I0629 03:46:19.357215  2102 layer_factory.hpp:77] Creating layer res4d_relu
I0629 03:46:19.357224  2102 net.cpp:84] Creating Layer res4d_relu
I0629 03:46:19.357228  2102 net.cpp:406] res4d_relu <- res4d
I0629 03:46:19.357234  2102 net.cpp:367] res4d_relu -> res4d (in-place)
I0629 03:46:19.357511  2102 net.cpp:122] Setting up res4d_relu
I0629 03:46:19.357529  2102 net.cpp:129] Top shape: 8 1024 14 14 (1605632)
I0629 03:46:19.357533  2102 net.cpp:137] Memory required for data: 1636139168
I0629 03:46:19.357537  2102 layer_factory.hpp:77] Creating layer res4d_res4d_relu_0_split
I0629 03:46:19.357544  2102 net.cpp:84] Creating Layer res4d_res4d_relu_0_split
I0629 03:46:19.357548  2102 net.cpp:406] res4d_res4d_relu_0_split <- res4d
I0629 03:46:19.357556  2102 net.cpp:380] res4d_res4d_relu_0_split -> res4d_res4d_relu_0_split_0
I0629 03:46:19.357564  2102 net.cpp:380] res4d_res4d_relu_0_split -> res4d_res4d_relu_0_split_1
I0629 03:46:19.357620  2102 net.cpp:122] Setting up res4d_res4d_relu_0_split
I0629 03:46:19.357635  2102 net.cpp:129] Top shape: 8 1024 14 14 (1605632)
I0629 03:46:19.357640  2102 net.cpp:129] Top shape: 8 1024 14 14 (1605632)
I0629 03:46:19.357643  2102 net.cpp:137] Memory required for data: 1648984224
I0629 03:46:19.357647  2102 layer_factory.hpp:77] Creating layer res4e_branch2a
I0629 03:46:19.357661  2102 net.cpp:84] Creating Layer res4e_branch2a
I0629 03:46:19.357667  2102 net.cpp:406] res4e_branch2a <- res4d_res4d_relu_0_split_0
I0629 03:46:19.357674  2102 net.cpp:380] res4e_branch2a -> res4e_branch2a
I0629 03:46:19.359272  2102 net.cpp:122] Setting up res4e_branch2a
I0629 03:46:19.359292  2102 net.cpp:129] Top shape: 8 256 14 14 (401408)
I0629 03:46:19.359297  2102 net.cpp:137] Memory required for data: 1650589856
I0629 03:46:19.359303  2102 layer_factory.hpp:77] Creating layer bn4e_branch2a
I0629 03:46:19.359328  2102 net.cpp:84] Creating Layer bn4e_branch2a
I0629 03:46:19.359333  2102 net.cpp:406] bn4e_branch2a <- res4e_branch2a
I0629 03:46:19.359339  2102 net.cpp:367] bn4e_branch2a -> res4e_branch2a (in-place)
I0629 03:46:19.359597  2102 net.cpp:122] Setting up bn4e_branch2a
I0629 03:46:19.359613  2102 net.cpp:129] Top shape: 8 256 14 14 (401408)
I0629 03:46:19.359617  2102 net.cpp:137] Memory required for data: 1652195488
I0629 03:46:19.359627  2102 layer_factory.hpp:77] Creating layer scale4e_branch2a
I0629 03:46:19.359635  2102 net.cpp:84] Creating Layer scale4e_branch2a
I0629 03:46:19.359640  2102 net.cpp:406] scale4e_branch2a <- res4e_branch2a
I0629 03:46:19.359645  2102 net.cpp:367] scale4e_branch2a -> res4e_branch2a (in-place)
I0629 03:46:19.359704  2102 layer_factory.hpp:77] Creating layer scale4e_branch2a
I0629 03:46:19.359866  2102 net.cpp:122] Setting up scale4e_branch2a
I0629 03:46:19.359881  2102 net.cpp:129] Top shape: 8 256 14 14 (401408)
I0629 03:46:19.359885  2102 net.cpp:137] Memory required for data: 1653801120
I0629 03:46:19.359905  2102 layer_factory.hpp:77] Creating layer res4e_branch2a_relu
I0629 03:46:19.359916  2102 net.cpp:84] Creating Layer res4e_branch2a_relu
I0629 03:46:19.359921  2102 net.cpp:406] res4e_branch2a_relu <- res4e_branch2a
I0629 03:46:19.359928  2102 net.cpp:367] res4e_branch2a_relu -> res4e_branch2a (in-place)
I0629 03:46:19.360096  2102 net.cpp:122] Setting up res4e_branch2a_relu
I0629 03:46:19.360112  2102 net.cpp:129] Top shape: 8 256 14 14 (401408)
I0629 03:46:19.360116  2102 net.cpp:137] Memory required for data: 1655406752
I0629 03:46:19.360121  2102 layer_factory.hpp:77] Creating layer res4e_branch2b
I0629 03:46:19.360132  2102 net.cpp:84] Creating Layer res4e_branch2b
I0629 03:46:19.360138  2102 net.cpp:406] res4e_branch2b <- res4e_branch2a
I0629 03:46:19.360146  2102 net.cpp:380] res4e_branch2b -> res4e_branch2b
I0629 03:46:19.362362  2102 net.cpp:122] Setting up res4e_branch2b
I0629 03:46:19.362385  2102 net.cpp:129] Top shape: 8 256 14 14 (401408)
I0629 03:46:19.362390  2102 net.cpp:137] Memory required for data: 1657012384
I0629 03:46:19.362396  2102 layer_factory.hpp:77] Creating layer bn4e_branch2b
I0629 03:46:19.362403  2102 net.cpp:84] Creating Layer bn4e_branch2b
I0629 03:46:19.362412  2102 net.cpp:406] bn4e_branch2b <- res4e_branch2b
I0629 03:46:19.362418  2102 net.cpp:367] bn4e_branch2b -> res4e_branch2b (in-place)
I0629 03:46:19.362679  2102 net.cpp:122] Setting up bn4e_branch2b
I0629 03:46:19.362694  2102 net.cpp:129] Top shape: 8 256 14 14 (401408)
I0629 03:46:19.362699  2102 net.cpp:137] Memory required for data: 1658618016
I0629 03:46:19.362707  2102 layer_factory.hpp:77] Creating layer scale4e_branch2b
I0629 03:46:19.362716  2102 net.cpp:84] Creating Layer scale4e_branch2b
I0629 03:46:19.362721  2102 net.cpp:406] scale4e_branch2b <- res4e_branch2b
I0629 03:46:19.362726  2102 net.cpp:367] scale4e_branch2b -> res4e_branch2b (in-place)
I0629 03:46:19.362785  2102 layer_factory.hpp:77] Creating layer scale4e_branch2b
I0629 03:46:19.362946  2102 net.cpp:122] Setting up scale4e_branch2b
I0629 03:46:19.362960  2102 net.cpp:129] Top shape: 8 256 14 14 (401408)
I0629 03:46:19.362964  2102 net.cpp:137] Memory required for data: 1660223648
I0629 03:46:19.362972  2102 layer_factory.hpp:77] Creating layer res4e_branch2b_relu
I0629 03:46:19.362977  2102 net.cpp:84] Creating Layer res4e_branch2b_relu
I0629 03:46:19.362982  2102 net.cpp:406] res4e_branch2b_relu <- res4e_branch2b
I0629 03:46:19.362989  2102 net.cpp:367] res4e_branch2b_relu -> res4e_branch2b (in-place)
I0629 03:46:19.363154  2102 net.cpp:122] Setting up res4e_branch2b_relu
I0629 03:46:19.363171  2102 net.cpp:129] Top shape: 8 256 14 14 (401408)
I0629 03:46:19.363175  2102 net.cpp:137] Memory required for data: 1661829280
I0629 03:46:19.363179  2102 layer_factory.hpp:77] Creating layer res4e_branch2c
I0629 03:46:19.363193  2102 net.cpp:84] Creating Layer res4e_branch2c
I0629 03:46:19.363199  2102 net.cpp:406] res4e_branch2c <- res4e_branch2b
I0629 03:46:19.363220  2102 net.cpp:380] res4e_branch2c -> res4e_branch2c
I0629 03:46:19.364841  2102 net.cpp:122] Setting up res4e_branch2c
I0629 03:46:19.364862  2102 net.cpp:129] Top shape: 8 1024 14 14 (1605632)
I0629 03:46:19.364866  2102 net.cpp:137] Memory required for data: 1668251808
I0629 03:46:19.364872  2102 layer_factory.hpp:77] Creating layer bn4e_branch2c
I0629 03:46:19.364882  2102 net.cpp:84] Creating Layer bn4e_branch2c
I0629 03:46:19.364887  2102 net.cpp:406] bn4e_branch2c <- res4e_branch2c
I0629 03:46:19.364892  2102 net.cpp:367] bn4e_branch2c -> res4e_branch2c (in-place)
I0629 03:46:19.365155  2102 net.cpp:122] Setting up bn4e_branch2c
I0629 03:46:19.365170  2102 net.cpp:129] Top shape: 8 1024 14 14 (1605632)
I0629 03:46:19.365175  2102 net.cpp:137] Memory required for data: 1674674336
I0629 03:46:19.365183  2102 layer_factory.hpp:77] Creating layer scale4e_branch2c
I0629 03:46:19.365193  2102 net.cpp:84] Creating Layer scale4e_branch2c
I0629 03:46:19.365197  2102 net.cpp:406] scale4e_branch2c <- res4e_branch2c
I0629 03:46:19.365203  2102 net.cpp:367] scale4e_branch2c -> res4e_branch2c (in-place)
I0629 03:46:19.365258  2102 layer_factory.hpp:77] Creating layer scale4e_branch2c
I0629 03:46:19.365520  2102 net.cpp:122] Setting up scale4e_branch2c
I0629 03:46:19.365536  2102 net.cpp:129] Top shape: 8 1024 14 14 (1605632)
I0629 03:46:19.365540  2102 net.cpp:137] Memory required for data: 1681096864
I0629 03:46:19.365547  2102 layer_factory.hpp:77] Creating layer res4e
I0629 03:46:19.365555  2102 net.cpp:84] Creating Layer res4e
I0629 03:46:19.365559  2102 net.cpp:406] res4e <- res4d_res4d_relu_0_split_1
I0629 03:46:19.365563  2102 net.cpp:406] res4e <- res4e_branch2c
I0629 03:46:19.365571  2102 net.cpp:380] res4e -> res4e
I0629 03:46:19.365610  2102 net.cpp:122] Setting up res4e
I0629 03:46:19.365625  2102 net.cpp:129] Top shape: 8 1024 14 14 (1605632)
I0629 03:46:19.365628  2102 net.cpp:137] Memory required for data: 1687519392
I0629 03:46:19.365633  2102 layer_factory.hpp:77] Creating layer res4e_relu
I0629 03:46:19.365638  2102 net.cpp:84] Creating Layer res4e_relu
I0629 03:46:19.365643  2102 net.cpp:406] res4e_relu <- res4e
I0629 03:46:19.365648  2102 net.cpp:367] res4e_relu -> res4e (in-place)
I0629 03:46:19.365928  2102 net.cpp:122] Setting up res4e_relu
I0629 03:46:19.365947  2102 net.cpp:129] Top shape: 8 1024 14 14 (1605632)
I0629 03:46:19.365950  2102 net.cpp:137] Memory required for data: 1693941920
I0629 03:46:19.365955  2102 layer_factory.hpp:77] Creating layer res4e_res4e_relu_0_split
I0629 03:46:19.365962  2102 net.cpp:84] Creating Layer res4e_res4e_relu_0_split
I0629 03:46:19.365968  2102 net.cpp:406] res4e_res4e_relu_0_split <- res4e
I0629 03:46:19.365974  2102 net.cpp:380] res4e_res4e_relu_0_split -> res4e_res4e_relu_0_split_0
I0629 03:46:19.365983  2102 net.cpp:380] res4e_res4e_relu_0_split -> res4e_res4e_relu_0_split_1
I0629 03:46:19.366040  2102 net.cpp:122] Setting up res4e_res4e_relu_0_split
I0629 03:46:19.366055  2102 net.cpp:129] Top shape: 8 1024 14 14 (1605632)
I0629 03:46:19.366060  2102 net.cpp:129] Top shape: 8 1024 14 14 (1605632)
I0629 03:46:19.366063  2102 net.cpp:137] Memory required for data: 1706786976
I0629 03:46:19.366067  2102 layer_factory.hpp:77] Creating layer res4f_branch2a
I0629 03:46:19.366078  2102 net.cpp:84] Creating Layer res4f_branch2a
I0629 03:46:19.366082  2102 net.cpp:406] res4f_branch2a <- res4e_res4e_relu_0_split_0
I0629 03:46:19.366089  2102 net.cpp:380] res4f_branch2a -> res4f_branch2a
I0629 03:46:19.367792  2102 net.cpp:122] Setting up res4f_branch2a
I0629 03:46:19.367812  2102 net.cpp:129] Top shape: 8 256 14 14 (401408)
I0629 03:46:19.367817  2102 net.cpp:137] Memory required for data: 1708392608
I0629 03:46:19.367823  2102 layer_factory.hpp:77] Creating layer bn4f_branch2a
I0629 03:46:19.367833  2102 net.cpp:84] Creating Layer bn4f_branch2a
I0629 03:46:19.367838  2102 net.cpp:406] bn4f_branch2a <- res4f_branch2a
I0629 03:46:19.367844  2102 net.cpp:367] bn4f_branch2a -> res4f_branch2a (in-place)
I0629 03:46:19.368120  2102 net.cpp:122] Setting up bn4f_branch2a
I0629 03:46:19.368149  2102 net.cpp:129] Top shape: 8 256 14 14 (401408)
I0629 03:46:19.368154  2102 net.cpp:137] Memory required for data: 1709998240
I0629 03:46:19.368162  2102 layer_factory.hpp:77] Creating layer scale4f_branch2a
I0629 03:46:19.368172  2102 net.cpp:84] Creating Layer scale4f_branch2a
I0629 03:46:19.368176  2102 net.cpp:406] scale4f_branch2a <- res4f_branch2a
I0629 03:46:19.368182  2102 net.cpp:367] scale4f_branch2a -> res4f_branch2a (in-place)
I0629 03:46:19.368243  2102 layer_factory.hpp:77] Creating layer scale4f_branch2a
I0629 03:46:19.368407  2102 net.cpp:122] Setting up scale4f_branch2a
I0629 03:46:19.368422  2102 net.cpp:129] Top shape: 8 256 14 14 (401408)
I0629 03:46:19.368425  2102 net.cpp:137] Memory required for data: 1711603872
I0629 03:46:19.368432  2102 layer_factory.hpp:77] Creating layer res4f_branch2a_relu
I0629 03:46:19.368439  2102 net.cpp:84] Creating Layer res4f_branch2a_relu
I0629 03:46:19.368443  2102 net.cpp:406] res4f_branch2a_relu <- res4f_branch2a
I0629 03:46:19.368453  2102 net.cpp:367] res4f_branch2a_relu -> res4f_branch2a (in-place)
I0629 03:46:19.368619  2102 net.cpp:122] Setting up res4f_branch2a_relu
I0629 03:46:19.368638  2102 net.cpp:129] Top shape: 8 256 14 14 (401408)
I0629 03:46:19.368641  2102 net.cpp:137] Memory required for data: 1713209504
I0629 03:46:19.368646  2102 layer_factory.hpp:77] Creating layer res4f_branch2b
I0629 03:46:19.368657  2102 net.cpp:84] Creating Layer res4f_branch2b
I0629 03:46:19.368662  2102 net.cpp:406] res4f_branch2b <- res4f_branch2a
I0629 03:46:19.368670  2102 net.cpp:380] res4f_branch2b -> res4f_branch2b
I0629 03:46:19.370890  2102 net.cpp:122] Setting up res4f_branch2b
I0629 03:46:19.370910  2102 net.cpp:129] Top shape: 8 256 14 14 (401408)
I0629 03:46:19.370914  2102 net.cpp:137] Memory required for data: 1714815136
I0629 03:46:19.370920  2102 layer_factory.hpp:77] Creating layer bn4f_branch2b
I0629 03:46:19.370932  2102 net.cpp:84] Creating Layer bn4f_branch2b
I0629 03:46:19.370937  2102 net.cpp:406] bn4f_branch2b <- res4f_branch2b
I0629 03:46:19.370945  2102 net.cpp:367] bn4f_branch2b -> res4f_branch2b (in-place)
I0629 03:46:19.371218  2102 net.cpp:122] Setting up bn4f_branch2b
I0629 03:46:19.371234  2102 net.cpp:129] Top shape: 8 256 14 14 (401408)
I0629 03:46:19.371238  2102 net.cpp:137] Memory required for data: 1716420768
I0629 03:46:19.371248  2102 layer_factory.hpp:77] Creating layer scale4f_branch2b
I0629 03:46:19.371258  2102 net.cpp:84] Creating Layer scale4f_branch2b
I0629 03:46:19.371261  2102 net.cpp:406] scale4f_branch2b <- res4f_branch2b
I0629 03:46:19.371268  2102 net.cpp:367] scale4f_branch2b -> res4f_branch2b (in-place)
I0629 03:46:19.371327  2102 layer_factory.hpp:77] Creating layer scale4f_branch2b
I0629 03:46:19.371492  2102 net.cpp:122] Setting up scale4f_branch2b
I0629 03:46:19.371507  2102 net.cpp:129] Top shape: 8 256 14 14 (401408)
I0629 03:46:19.371511  2102 net.cpp:137] Memory required for data: 1718026400
I0629 03:46:19.371518  2102 layer_factory.hpp:77] Creating layer res4f_branch2b_relu
I0629 03:46:19.371526  2102 net.cpp:84] Creating Layer res4f_branch2b_relu
I0629 03:46:19.371529  2102 net.cpp:406] res4f_branch2b_relu <- res4f_branch2b
I0629 03:46:19.371534  2102 net.cpp:367] res4f_branch2b_relu -> res4f_branch2b (in-place)
I0629 03:46:19.371703  2102 net.cpp:122] Setting up res4f_branch2b_relu
I0629 03:46:19.371721  2102 net.cpp:129] Top shape: 8 256 14 14 (401408)
I0629 03:46:19.371724  2102 net.cpp:137] Memory required for data: 1719632032
I0629 03:46:19.371728  2102 layer_factory.hpp:77] Creating layer res4f_branch2c
I0629 03:46:19.371739  2102 net.cpp:84] Creating Layer res4f_branch2c
I0629 03:46:19.371744  2102 net.cpp:406] res4f_branch2c <- res4f_branch2b
I0629 03:46:19.371752  2102 net.cpp:380] res4f_branch2c -> res4f_branch2c
I0629 03:46:19.373405  2102 net.cpp:122] Setting up res4f_branch2c
I0629 03:46:19.373425  2102 net.cpp:129] Top shape: 8 1024 14 14 (1605632)
I0629 03:46:19.373430  2102 net.cpp:137] Memory required for data: 1726054560
I0629 03:46:19.373436  2102 layer_factory.hpp:77] Creating layer bn4f_branch2c
I0629 03:46:19.373462  2102 net.cpp:84] Creating Layer bn4f_branch2c
I0629 03:46:19.373468  2102 net.cpp:406] bn4f_branch2c <- res4f_branch2c
I0629 03:46:19.373474  2102 net.cpp:367] bn4f_branch2c -> res4f_branch2c (in-place)
I0629 03:46:19.373739  2102 net.cpp:122] Setting up bn4f_branch2c
I0629 03:46:19.373754  2102 net.cpp:129] Top shape: 8 1024 14 14 (1605632)
I0629 03:46:19.373759  2102 net.cpp:137] Memory required for data: 1732477088
I0629 03:46:19.373811  2102 layer_factory.hpp:77] Creating layer scale4f_branch2c
I0629 03:46:19.373828  2102 net.cpp:84] Creating Layer scale4f_branch2c
I0629 03:46:19.373833  2102 net.cpp:406] scale4f_branch2c <- res4f_branch2c
I0629 03:46:19.373839  2102 net.cpp:367] scale4f_branch2c -> res4f_branch2c (in-place)
I0629 03:46:19.373903  2102 layer_factory.hpp:77] Creating layer scale4f_branch2c
I0629 03:46:19.374070  2102 net.cpp:122] Setting up scale4f_branch2c
I0629 03:46:19.374085  2102 net.cpp:129] Top shape: 8 1024 14 14 (1605632)
I0629 03:46:19.374089  2102 net.cpp:137] Memory required for data: 1738899616
I0629 03:46:19.374096  2102 layer_factory.hpp:77] Creating layer res4f
I0629 03:46:19.374105  2102 net.cpp:84] Creating Layer res4f
I0629 03:46:19.374110  2102 net.cpp:406] res4f <- res4e_res4e_relu_0_split_1
I0629 03:46:19.374115  2102 net.cpp:406] res4f <- res4f_branch2c
I0629 03:46:19.374124  2102 net.cpp:380] res4f -> res4f
I0629 03:46:19.374161  2102 net.cpp:122] Setting up res4f
I0629 03:46:19.374174  2102 net.cpp:129] Top shape: 8 1024 14 14 (1605632)
I0629 03:46:19.374178  2102 net.cpp:137] Memory required for data: 1745322144
I0629 03:46:19.374182  2102 layer_factory.hpp:77] Creating layer res4f_relu
I0629 03:46:19.374191  2102 net.cpp:84] Creating Layer res4f_relu
I0629 03:46:19.374195  2102 net.cpp:406] res4f_relu <- res4f
I0629 03:46:19.374200  2102 net.cpp:367] res4f_relu -> res4f (in-place)
I0629 03:46:19.374492  2102 net.cpp:122] Setting up res4f_relu
I0629 03:46:19.374511  2102 net.cpp:129] Top shape: 8 1024 14 14 (1605632)
I0629 03:46:19.374514  2102 net.cpp:137] Memory required for data: 1751744672
I0629 03:46:19.374518  2102 layer_factory.hpp:77] Creating layer res4f_res4f_relu_0_split
I0629 03:46:19.374526  2102 net.cpp:84] Creating Layer res4f_res4f_relu_0_split
I0629 03:46:19.374529  2102 net.cpp:406] res4f_res4f_relu_0_split <- res4f
I0629 03:46:19.374537  2102 net.cpp:380] res4f_res4f_relu_0_split -> res4f_res4f_relu_0_split_0
I0629 03:46:19.374546  2102 net.cpp:380] res4f_res4f_relu_0_split -> res4f_res4f_relu_0_split_1
I0629 03:46:19.374604  2102 net.cpp:122] Setting up res4f_res4f_relu_0_split
I0629 03:46:19.374619  2102 net.cpp:129] Top shape: 8 1024 14 14 (1605632)
I0629 03:46:19.374624  2102 net.cpp:129] Top shape: 8 1024 14 14 (1605632)
I0629 03:46:19.374627  2102 net.cpp:137] Memory required for data: 1764589728
I0629 03:46:19.374631  2102 layer_factory.hpp:77] Creating layer res5a_branch1
I0629 03:46:19.374644  2102 net.cpp:84] Creating Layer res5a_branch1
I0629 03:46:19.374649  2102 net.cpp:406] res5a_branch1 <- res4f_res4f_relu_0_split_0
I0629 03:46:19.374655  2102 net.cpp:380] res5a_branch1 -> res5a_branch1
I0629 03:46:19.379863  2102 net.cpp:122] Setting up res5a_branch1
I0629 03:46:19.379884  2102 net.cpp:129] Top shape: 8 2048 7 7 (802816)
I0629 03:46:19.379889  2102 net.cpp:137] Memory required for data: 1767800992
I0629 03:46:19.379906  2102 layer_factory.hpp:77] Creating layer bn5a_branch1
I0629 03:46:19.379923  2102 net.cpp:84] Creating Layer bn5a_branch1
I0629 03:46:19.379928  2102 net.cpp:406] bn5a_branch1 <- res5a_branch1
I0629 03:46:19.379935  2102 net.cpp:367] bn5a_branch1 -> res5a_branch1 (in-place)
I0629 03:46:19.380233  2102 net.cpp:122] Setting up bn5a_branch1
I0629 03:46:19.380249  2102 net.cpp:129] Top shape: 8 2048 7 7 (802816)
I0629 03:46:19.380254  2102 net.cpp:137] Memory required for data: 1771012256
I0629 03:46:19.380264  2102 layer_factory.hpp:77] Creating layer scale5a_branch1
I0629 03:46:19.380271  2102 net.cpp:84] Creating Layer scale5a_branch1
I0629 03:46:19.380276  2102 net.cpp:406] scale5a_branch1 <- res5a_branch1
I0629 03:46:19.380296  2102 net.cpp:367] scale5a_branch1 -> res5a_branch1 (in-place)
I0629 03:46:19.380357  2102 layer_factory.hpp:77] Creating layer scale5a_branch1
I0629 03:46:19.380532  2102 net.cpp:122] Setting up scale5a_branch1
I0629 03:46:19.380548  2102 net.cpp:129] Top shape: 8 2048 7 7 (802816)
I0629 03:46:19.380553  2102 net.cpp:137] Memory required for data: 1774223520
I0629 03:46:19.380559  2102 layer_factory.hpp:77] Creating layer res5a_branch2a
I0629 03:46:19.380571  2102 net.cpp:84] Creating Layer res5a_branch2a
I0629 03:46:19.380576  2102 net.cpp:406] res5a_branch2a <- res4f_res4f_relu_0_split_1
I0629 03:46:19.380584  2102 net.cpp:380] res5a_branch2a -> res5a_branch2a
I0629 03:46:19.382598  2102 net.cpp:122] Setting up res5a_branch2a
I0629 03:46:19.382618  2102 net.cpp:129] Top shape: 8 512 7 7 (200704)
I0629 03:46:19.382623  2102 net.cpp:137] Memory required for data: 1775026336
I0629 03:46:19.382629  2102 layer_factory.hpp:77] Creating layer bn5a_branch2a
I0629 03:46:19.382639  2102 net.cpp:84] Creating Layer bn5a_branch2a
I0629 03:46:19.382644  2102 net.cpp:406] bn5a_branch2a <- res5a_branch2a
I0629 03:46:19.382650  2102 net.cpp:367] bn5a_branch2a -> res5a_branch2a (in-place)
I0629 03:46:19.382926  2102 net.cpp:122] Setting up bn5a_branch2a
I0629 03:46:19.382942  2102 net.cpp:129] Top shape: 8 512 7 7 (200704)
I0629 03:46:19.382946  2102 net.cpp:137] Memory required for data: 1775829152
I0629 03:46:19.382954  2102 layer_factory.hpp:77] Creating layer scale5a_branch2a
I0629 03:46:19.382961  2102 net.cpp:84] Creating Layer scale5a_branch2a
I0629 03:46:19.382966  2102 net.cpp:406] scale5a_branch2a <- res5a_branch2a
I0629 03:46:19.382972  2102 net.cpp:367] scale5a_branch2a -> res5a_branch2a (in-place)
I0629 03:46:19.383030  2102 layer_factory.hpp:77] Creating layer scale5a_branch2a
I0629 03:46:19.383214  2102 net.cpp:122] Setting up scale5a_branch2a
I0629 03:46:19.383230  2102 net.cpp:129] Top shape: 8 512 7 7 (200704)
I0629 03:46:19.383234  2102 net.cpp:137] Memory required for data: 1776631968
I0629 03:46:19.383241  2102 layer_factory.hpp:77] Creating layer res5a_branch2a_relu
I0629 03:46:19.383247  2102 net.cpp:84] Creating Layer res5a_branch2a_relu
I0629 03:46:19.383251  2102 net.cpp:406] res5a_branch2a_relu <- res5a_branch2a
I0629 03:46:19.383260  2102 net.cpp:367] res5a_branch2a_relu -> res5a_branch2a (in-place)
I0629 03:46:19.383544  2102 net.cpp:122] Setting up res5a_branch2a_relu
I0629 03:46:19.383563  2102 net.cpp:129] Top shape: 8 512 7 7 (200704)
I0629 03:46:19.383566  2102 net.cpp:137] Memory required for data: 1777434784
I0629 03:46:19.383570  2102 layer_factory.hpp:77] Creating layer res5a_branch2b
I0629 03:46:19.383584  2102 net.cpp:84] Creating Layer res5a_branch2b
I0629 03:46:19.383591  2102 net.cpp:406] res5a_branch2b <- res5a_branch2a
I0629 03:46:19.383599  2102 net.cpp:380] res5a_branch2b -> res5a_branch2b
I0629 03:46:19.389401  2102 net.cpp:122] Setting up res5a_branch2b
I0629 03:46:19.389425  2102 net.cpp:129] Top shape: 8 512 7 7 (200704)
I0629 03:46:19.389430  2102 net.cpp:137] Memory required for data: 1778237600
I0629 03:46:19.389436  2102 layer_factory.hpp:77] Creating layer bn5a_branch2b
I0629 03:46:19.389446  2102 net.cpp:84] Creating Layer bn5a_branch2b
I0629 03:46:19.389451  2102 net.cpp:406] bn5a_branch2b <- res5a_branch2b
I0629 03:46:19.389457  2102 net.cpp:367] bn5a_branch2b -> res5a_branch2b (in-place)
I0629 03:46:19.389744  2102 net.cpp:122] Setting up bn5a_branch2b
I0629 03:46:19.389760  2102 net.cpp:129] Top shape: 8 512 7 7 (200704)
I0629 03:46:19.389765  2102 net.cpp:137] Memory required for data: 1779040416
I0629 03:46:19.389772  2102 layer_factory.hpp:77] Creating layer scale5a_branch2b
I0629 03:46:19.389782  2102 net.cpp:84] Creating Layer scale5a_branch2b
I0629 03:46:19.389786  2102 net.cpp:406] scale5a_branch2b <- res5a_branch2b
I0629 03:46:19.389792  2102 net.cpp:367] scale5a_branch2b -> res5a_branch2b (in-place)
I0629 03:46:19.389850  2102 layer_factory.hpp:77] Creating layer scale5a_branch2b
I0629 03:46:19.390027  2102 net.cpp:122] Setting up scale5a_branch2b
I0629 03:46:19.390056  2102 net.cpp:129] Top shape: 8 512 7 7 (200704)
I0629 03:46:19.390061  2102 net.cpp:137] Memory required for data: 1779843232
I0629 03:46:19.390069  2102 layer_factory.hpp:77] Creating layer res5a_branch2b_relu
I0629 03:46:19.390075  2102 net.cpp:84] Creating Layer res5a_branch2b_relu
I0629 03:46:19.390079  2102 net.cpp:406] res5a_branch2b_relu <- res5a_branch2b
I0629 03:46:19.390087  2102 net.cpp:367] res5a_branch2b_relu -> res5a_branch2b (in-place)
I0629 03:46:19.390255  2102 net.cpp:122] Setting up res5a_branch2b_relu
I0629 03:46:19.390272  2102 net.cpp:129] Top shape: 8 512 7 7 (200704)
I0629 03:46:19.390276  2102 net.cpp:137] Memory required for data: 1780646048
I0629 03:46:19.390280  2102 layer_factory.hpp:77] Creating layer res5a_branch2c
I0629 03:46:19.390291  2102 net.cpp:84] Creating Layer res5a_branch2c
I0629 03:46:19.390296  2102 net.cpp:406] res5a_branch2c <- res5a_branch2b
I0629 03:46:19.390305  2102 net.cpp:380] res5a_branch2c -> res5a_branch2c
I0629 03:46:19.393476  2102 net.cpp:122] Setting up res5a_branch2c
I0629 03:46:19.393496  2102 net.cpp:129] Top shape: 8 2048 7 7 (802816)
I0629 03:46:19.393501  2102 net.cpp:137] Memory required for data: 1783857312
I0629 03:46:19.393507  2102 layer_factory.hpp:77] Creating layer bn5a_branch2c
I0629 03:46:19.393517  2102 net.cpp:84] Creating Layer bn5a_branch2c
I0629 03:46:19.393522  2102 net.cpp:406] bn5a_branch2c <- res5a_branch2c
I0629 03:46:19.393528  2102 net.cpp:367] bn5a_branch2c -> res5a_branch2c (in-place)
I0629 03:46:19.393827  2102 net.cpp:122] Setting up bn5a_branch2c
I0629 03:46:19.393843  2102 net.cpp:129] Top shape: 8 2048 7 7 (802816)
I0629 03:46:19.393848  2102 net.cpp:137] Memory required for data: 1787068576
I0629 03:46:19.393858  2102 layer_factory.hpp:77] Creating layer scale5a_branch2c
I0629 03:46:19.393869  2102 net.cpp:84] Creating Layer scale5a_branch2c
I0629 03:46:19.393875  2102 net.cpp:406] scale5a_branch2c <- res5a_branch2c
I0629 03:46:19.393882  2102 net.cpp:367] scale5a_branch2c -> res5a_branch2c (in-place)
I0629 03:46:19.393944  2102 layer_factory.hpp:77] Creating layer scale5a_branch2c
I0629 03:46:19.394129  2102 net.cpp:122] Setting up scale5a_branch2c
I0629 03:46:19.394145  2102 net.cpp:129] Top shape: 8 2048 7 7 (802816)
I0629 03:46:19.394150  2102 net.cpp:137] Memory required for data: 1790279840
I0629 03:46:19.394155  2102 layer_factory.hpp:77] Creating layer res5a
I0629 03:46:19.394162  2102 net.cpp:84] Creating Layer res5a
I0629 03:46:19.394167  2102 net.cpp:406] res5a <- res5a_branch1
I0629 03:46:19.394174  2102 net.cpp:406] res5a <- res5a_branch2c
I0629 03:46:19.394181  2102 net.cpp:380] res5a -> res5a
I0629 03:46:19.394222  2102 net.cpp:122] Setting up res5a
I0629 03:46:19.394235  2102 net.cpp:129] Top shape: 8 2048 7 7 (802816)
I0629 03:46:19.394239  2102 net.cpp:137] Memory required for data: 1793491104
I0629 03:46:19.394243  2102 layer_factory.hpp:77] Creating layer res5a_relu
I0629 03:46:19.394249  2102 net.cpp:84] Creating Layer res5a_relu
I0629 03:46:19.394253  2102 net.cpp:406] res5a_relu <- res5a
I0629 03:46:19.394258  2102 net.cpp:367] res5a_relu -> res5a (in-place)
I0629 03:46:19.394542  2102 net.cpp:122] Setting up res5a_relu
I0629 03:46:19.394560  2102 net.cpp:129] Top shape: 8 2048 7 7 (802816)
I0629 03:46:19.394564  2102 net.cpp:137] Memory required for data: 1796702368
I0629 03:46:19.394568  2102 layer_factory.hpp:77] Creating layer res5a_res5a_relu_0_split
I0629 03:46:19.394577  2102 net.cpp:84] Creating Layer res5a_res5a_relu_0_split
I0629 03:46:19.394582  2102 net.cpp:406] res5a_res5a_relu_0_split <- res5a
I0629 03:46:19.394588  2102 net.cpp:380] res5a_res5a_relu_0_split -> res5a_res5a_relu_0_split_0
I0629 03:46:19.394596  2102 net.cpp:380] res5a_res5a_relu_0_split -> res5a_res5a_relu_0_split_1
I0629 03:46:19.394662  2102 net.cpp:122] Setting up res5a_res5a_relu_0_split
I0629 03:46:19.394677  2102 net.cpp:129] Top shape: 8 2048 7 7 (802816)
I0629 03:46:19.394682  2102 net.cpp:129] Top shape: 8 2048 7 7 (802816)
I0629 03:46:19.394686  2102 net.cpp:137] Memory required for data: 1803124896
I0629 03:46:19.394716  2102 layer_factory.hpp:77] Creating layer my_res5b_branch2a
I0629 03:46:19.394731  2102 net.cpp:84] Creating Layer my_res5b_branch2a
I0629 03:46:19.394738  2102 net.cpp:406] my_res5b_branch2a <- res5a_res5a_relu_0_split_0
I0629 03:46:19.394747  2102 net.cpp:380] my_res5b_branch2a -> my_res5b_branch2a
I0629 03:46:19.397945  2102 net.cpp:122] Setting up my_res5b_branch2a
I0629 03:46:19.397966  2102 net.cpp:129] Top shape: 8 512 7 7 (200704)
I0629 03:46:19.397971  2102 net.cpp:137] Memory required for data: 1803927712
I0629 03:46:19.397977  2102 layer_factory.hpp:77] Creating layer my_bn5b_branch2a
I0629 03:46:19.397987  2102 net.cpp:84] Creating Layer my_bn5b_branch2a
I0629 03:46:19.397992  2102 net.cpp:406] my_bn5b_branch2a <- my_res5b_branch2a
I0629 03:46:19.398000  2102 net.cpp:367] my_bn5b_branch2a -> my_res5b_branch2a (in-place)
I0629 03:46:19.398288  2102 net.cpp:122] Setting up my_bn5b_branch2a
I0629 03:46:19.398304  2102 net.cpp:129] Top shape: 8 512 7 7 (200704)
I0629 03:46:19.398308  2102 net.cpp:137] Memory required for data: 1804730528
I0629 03:46:19.398317  2102 layer_factory.hpp:77] Creating layer my_scale5b_branch2a
I0629 03:46:19.398324  2102 net.cpp:84] Creating Layer my_scale5b_branch2a
I0629 03:46:19.398329  2102 net.cpp:406] my_scale5b_branch2a <- my_res5b_branch2a
I0629 03:46:19.398336  2102 net.cpp:367] my_scale5b_branch2a -> my_res5b_branch2a (in-place)
I0629 03:46:19.398393  2102 layer_factory.hpp:77] Creating layer my_scale5b_branch2a
I0629 03:46:19.398576  2102 net.cpp:122] Setting up my_scale5b_branch2a
I0629 03:46:19.398591  2102 net.cpp:129] Top shape: 8 512 7 7 (200704)
I0629 03:46:19.398594  2102 net.cpp:137] Memory required for data: 1805533344
I0629 03:46:19.398602  2102 layer_factory.hpp:77] Creating layer my_res5b_branch2a_relu
I0629 03:46:19.398608  2102 net.cpp:84] Creating Layer my_res5b_branch2a_relu
I0629 03:46:19.398612  2102 net.cpp:406] my_res5b_branch2a_relu <- my_res5b_branch2a
I0629 03:46:19.398617  2102 net.cpp:367] my_res5b_branch2a_relu -> my_res5b_branch2a (in-place)
I0629 03:46:19.398913  2102 net.cpp:122] Setting up my_res5b_branch2a_relu
I0629 03:46:19.398933  2102 net.cpp:129] Top shape: 8 512 7 7 (200704)
I0629 03:46:19.398937  2102 net.cpp:137] Memory required for data: 1806336160
I0629 03:46:19.398941  2102 layer_factory.hpp:77] Creating layer my_res5b_branch2b
I0629 03:46:19.398953  2102 net.cpp:84] Creating Layer my_res5b_branch2b
I0629 03:46:19.398957  2102 net.cpp:406] my_res5b_branch2b <- my_res5b_branch2a
I0629 03:46:19.398964  2102 net.cpp:380] my_res5b_branch2b -> my_res5b_branch2b
I0629 03:46:19.404814  2102 net.cpp:122] Setting up my_res5b_branch2b
I0629 03:46:19.404839  2102 net.cpp:129] Top shape: 8 512 7 7 (200704)
I0629 03:46:19.404844  2102 net.cpp:137] Memory required for data: 1807138976
I0629 03:46:19.404850  2102 layer_factory.hpp:77] Creating layer my_bn5b_branch2b
I0629 03:46:19.404856  2102 net.cpp:84] Creating Layer my_bn5b_branch2b
I0629 03:46:19.404861  2102 net.cpp:406] my_bn5b_branch2b <- my_res5b_branch2b
I0629 03:46:19.404867  2102 net.cpp:367] my_bn5b_branch2b -> my_res5b_branch2b (in-place)
I0629 03:46:19.405167  2102 net.cpp:122] Setting up my_bn5b_branch2b
I0629 03:46:19.405184  2102 net.cpp:129] Top shape: 8 512 7 7 (200704)
I0629 03:46:19.405187  2102 net.cpp:137] Memory required for data: 1807941792
I0629 03:46:19.405196  2102 layer_factory.hpp:77] Creating layer my_scale5b_branch2b
I0629 03:46:19.405203  2102 net.cpp:84] Creating Layer my_scale5b_branch2b
I0629 03:46:19.405208  2102 net.cpp:406] my_scale5b_branch2b <- my_res5b_branch2b
I0629 03:46:19.405213  2102 net.cpp:367] my_scale5b_branch2b -> my_res5b_branch2b (in-place)
I0629 03:46:19.405277  2102 layer_factory.hpp:77] Creating layer my_scale5b_branch2b
I0629 03:46:19.405465  2102 net.cpp:122] Setting up my_scale5b_branch2b
I0629 03:46:19.405480  2102 net.cpp:129] Top shape: 8 512 7 7 (200704)
I0629 03:46:19.405484  2102 net.cpp:137] Memory required for data: 1808744608
I0629 03:46:19.405493  2102 layer_factory.hpp:77] Creating layer my_res5b_branch2b_relu
I0629 03:46:19.405519  2102 net.cpp:84] Creating Layer my_res5b_branch2b_relu
I0629 03:46:19.405524  2102 net.cpp:406] my_res5b_branch2b_relu <- my_res5b_branch2b
I0629 03:46:19.405529  2102 net.cpp:367] my_res5b_branch2b_relu -> my_res5b_branch2b (in-place)
I0629 03:46:19.405704  2102 net.cpp:122] Setting up my_res5b_branch2b_relu
I0629 03:46:19.405721  2102 net.cpp:129] Top shape: 8 512 7 7 (200704)
I0629 03:46:19.405725  2102 net.cpp:137] Memory required for data: 1809547424
I0629 03:46:19.405730  2102 layer_factory.hpp:77] Creating layer my_res5b_branch2c
I0629 03:46:19.405741  2102 net.cpp:84] Creating Layer my_res5b_branch2c
I0629 03:46:19.405745  2102 net.cpp:406] my_res5b_branch2c <- my_res5b_branch2b
I0629 03:46:19.405752  2102 net.cpp:380] my_res5b_branch2c -> my_res5b_branch2c
I0629 03:46:19.408928  2102 net.cpp:122] Setting up my_res5b_branch2c
I0629 03:46:19.408949  2102 net.cpp:129] Top shape: 8 2048 7 7 (802816)
I0629 03:46:19.408953  2102 net.cpp:137] Memory required for data: 1812758688
I0629 03:46:19.408960  2102 layer_factory.hpp:77] Creating layer my_bn5b_branch2c
I0629 03:46:19.408967  2102 net.cpp:84] Creating Layer my_bn5b_branch2c
I0629 03:46:19.408972  2102 net.cpp:406] my_bn5b_branch2c <- my_res5b_branch2c
I0629 03:46:19.408980  2102 net.cpp:367] my_bn5b_branch2c -> my_res5b_branch2c (in-place)
I0629 03:46:19.409284  2102 net.cpp:122] Setting up my_bn5b_branch2c
I0629 03:46:19.409301  2102 net.cpp:129] Top shape: 8 2048 7 7 (802816)
I0629 03:46:19.409304  2102 net.cpp:137] Memory required for data: 1815969952
I0629 03:46:19.409313  2102 layer_factory.hpp:77] Creating layer my_scale5b_branch2c
I0629 03:46:19.409320  2102 net.cpp:84] Creating Layer my_scale5b_branch2c
I0629 03:46:19.409324  2102 net.cpp:406] my_scale5b_branch2c <- my_res5b_branch2c
I0629 03:46:19.409330  2102 net.cpp:367] my_scale5b_branch2c -> my_res5b_branch2c (in-place)
I0629 03:46:19.409399  2102 layer_factory.hpp:77] Creating layer my_scale5b_branch2c
I0629 03:46:19.409590  2102 net.cpp:122] Setting up my_scale5b_branch2c
I0629 03:46:19.409605  2102 net.cpp:129] Top shape: 8 2048 7 7 (802816)
I0629 03:46:19.409610  2102 net.cpp:137] Memory required for data: 1819181216
I0629 03:46:19.409616  2102 layer_factory.hpp:77] Creating layer my_res5b
I0629 03:46:19.409623  2102 net.cpp:84] Creating Layer my_res5b
I0629 03:46:19.409631  2102 net.cpp:406] my_res5b <- res5a_res5a_relu_0_split_1
I0629 03:46:19.409637  2102 net.cpp:406] my_res5b <- my_res5b_branch2c
I0629 03:46:19.409646  2102 net.cpp:380] my_res5b -> my_res5b
I0629 03:46:19.409687  2102 net.cpp:122] Setting up my_res5b
I0629 03:46:19.409701  2102 net.cpp:129] Top shape: 8 2048 7 7 (802816)
I0629 03:46:19.409705  2102 net.cpp:137] Memory required for data: 1822392480
I0629 03:46:19.409709  2102 layer_factory.hpp:77] Creating layer my_res5b_relu
I0629 03:46:19.409720  2102 net.cpp:84] Creating Layer my_res5b_relu
I0629 03:46:19.409724  2102 net.cpp:406] my_res5b_relu <- my_res5b
I0629 03:46:19.409729  2102 net.cpp:367] my_res5b_relu -> my_res5b (in-place)
I0629 03:46:19.410017  2102 net.cpp:122] Setting up my_res5b_relu
I0629 03:46:19.410037  2102 net.cpp:129] Top shape: 8 2048 7 7 (802816)
I0629 03:46:19.410040  2102 net.cpp:137] Memory required for data: 1825603744
I0629 03:46:19.410044  2102 layer_factory.hpp:77] Creating layer my_res5b_my_res5b_relu_0_split
I0629 03:46:19.410051  2102 net.cpp:84] Creating Layer my_res5b_my_res5b_relu_0_split
I0629 03:46:19.410055  2102 net.cpp:406] my_res5b_my_res5b_relu_0_split <- my_res5b
I0629 03:46:19.410061  2102 net.cpp:380] my_res5b_my_res5b_relu_0_split -> my_res5b_my_res5b_relu_0_split_0
I0629 03:46:19.410071  2102 net.cpp:380] my_res5b_my_res5b_relu_0_split -> my_res5b_my_res5b_relu_0_split_1
I0629 03:46:19.410137  2102 net.cpp:122] Setting up my_res5b_my_res5b_relu_0_split
I0629 03:46:19.410151  2102 net.cpp:129] Top shape: 8 2048 7 7 (802816)
I0629 03:46:19.410157  2102 net.cpp:129] Top shape: 8 2048 7 7 (802816)
I0629 03:46:19.410161  2102 net.cpp:137] Memory required for data: 1832026272
I0629 03:46:19.410177  2102 layer_factory.hpp:77] Creating layer my_res5c_branch2a
I0629 03:46:19.410189  2102 net.cpp:84] Creating Layer my_res5c_branch2a
I0629 03:46:19.410200  2102 net.cpp:406] my_res5c_branch2a <- my_res5b_my_res5b_relu_0_split_0
I0629 03:46:19.410209  2102 net.cpp:380] my_res5c_branch2a -> my_res5c_branch2a
I0629 03:46:19.413305  2102 net.cpp:122] Setting up my_res5c_branch2a
I0629 03:46:19.413326  2102 net.cpp:129] Top shape: 8 512 7 7 (200704)
I0629 03:46:19.413331  2102 net.cpp:137] Memory required for data: 1832829088
I0629 03:46:19.413336  2102 layer_factory.hpp:77] Creating layer my_bn5c_branch2a
I0629 03:46:19.413347  2102 net.cpp:84] Creating Layer my_bn5c_branch2a
I0629 03:46:19.413352  2102 net.cpp:406] my_bn5c_branch2a <- my_res5c_branch2a
I0629 03:46:19.413357  2102 net.cpp:367] my_bn5c_branch2a -> my_res5c_branch2a (in-place)
I0629 03:46:19.413661  2102 net.cpp:122] Setting up my_bn5c_branch2a
I0629 03:46:19.413676  2102 net.cpp:129] Top shape: 8 512 7 7 (200704)
I0629 03:46:19.413681  2102 net.cpp:137] Memory required for data: 1833631904
I0629 03:46:19.413689  2102 layer_factory.hpp:77] Creating layer my_scale5c_branch2a
I0629 03:46:19.413697  2102 net.cpp:84] Creating Layer my_scale5c_branch2a
I0629 03:46:19.413700  2102 net.cpp:406] my_scale5c_branch2a <- my_res5c_branch2a
I0629 03:46:19.413707  2102 net.cpp:367] my_scale5c_branch2a -> my_res5c_branch2a (in-place)
I0629 03:46:19.413766  2102 layer_factory.hpp:77] Creating layer my_scale5c_branch2a
I0629 03:46:19.413955  2102 net.cpp:122] Setting up my_scale5c_branch2a
I0629 03:46:19.413971  2102 net.cpp:129] Top shape: 8 512 7 7 (200704)
I0629 03:46:19.413975  2102 net.cpp:137] Memory required for data: 1834434720
I0629 03:46:19.413982  2102 layer_factory.hpp:77] Creating layer my_res5c_branch2a_relu
I0629 03:46:19.413990  2102 net.cpp:84] Creating Layer my_res5c_branch2a_relu
I0629 03:46:19.413996  2102 net.cpp:406] my_res5c_branch2a_relu <- my_res5c_branch2a
I0629 03:46:19.414001  2102 net.cpp:367] my_res5c_branch2a_relu -> my_res5c_branch2a (in-place)
I0629 03:46:19.414320  2102 net.cpp:122] Setting up my_res5c_branch2a_relu
I0629 03:46:19.414340  2102 net.cpp:129] Top shape: 8 512 7 7 (200704)
I0629 03:46:19.414343  2102 net.cpp:137] Memory required for data: 1835237536
I0629 03:46:19.414347  2102 layer_factory.hpp:77] Creating layer my_res5c_branch2b
I0629 03:46:19.414361  2102 net.cpp:84] Creating Layer my_res5c_branch2b
I0629 03:46:19.414366  2102 net.cpp:406] my_res5c_branch2b <- my_res5c_branch2a
I0629 03:46:19.414376  2102 net.cpp:380] my_res5c_branch2b -> my_res5c_branch2b
I0629 03:46:19.420195  2102 net.cpp:122] Setting up my_res5c_branch2b
I0629 03:46:19.420217  2102 net.cpp:129] Top shape: 8 512 7 7 (200704)
I0629 03:46:19.420222  2102 net.cpp:137] Memory required for data: 1836040352
I0629 03:46:19.420228  2102 layer_factory.hpp:77] Creating layer my_bn5c_branch2b
I0629 03:46:19.420238  2102 net.cpp:84] Creating Layer my_bn5c_branch2b
I0629 03:46:19.420244  2102 net.cpp:406] my_bn5c_branch2b <- my_res5c_branch2b
I0629 03:46:19.420250  2102 net.cpp:367] my_bn5c_branch2b -> my_res5c_branch2b (in-place)
I0629 03:46:19.420547  2102 net.cpp:122] Setting up my_bn5c_branch2b
I0629 03:46:19.420562  2102 net.cpp:129] Top shape: 8 512 7 7 (200704)
I0629 03:46:19.420567  2102 net.cpp:137] Memory required for data: 1836843168
I0629 03:46:19.420575  2102 layer_factory.hpp:77] Creating layer my_scale5c_branch2b
I0629 03:46:19.420585  2102 net.cpp:84] Creating Layer my_scale5c_branch2b
I0629 03:46:19.420589  2102 net.cpp:406] my_scale5c_branch2b <- my_res5c_branch2b
I0629 03:46:19.420595  2102 net.cpp:367] my_scale5c_branch2b -> my_res5c_branch2b (in-place)
I0629 03:46:19.420656  2102 layer_factory.hpp:77] Creating layer my_scale5c_branch2b
I0629 03:46:19.420843  2102 net.cpp:122] Setting up my_scale5c_branch2b
I0629 03:46:19.420859  2102 net.cpp:129] Top shape: 8 512 7 7 (200704)
I0629 03:46:19.420863  2102 net.cpp:137] Memory required for data: 1837645984
I0629 03:46:19.420869  2102 layer_factory.hpp:77] Creating layer my_res5c_branch2b_relu
I0629 03:46:19.420893  2102 net.cpp:84] Creating Layer my_res5c_branch2b_relu
I0629 03:46:19.420898  2102 net.cpp:406] my_res5c_branch2b_relu <- my_res5c_branch2b
I0629 03:46:19.420907  2102 net.cpp:367] my_res5c_branch2b_relu -> my_res5c_branch2b (in-place)
I0629 03:46:19.421084  2102 net.cpp:122] Setting up my_res5c_branch2b_relu
I0629 03:46:19.421102  2102 net.cpp:129] Top shape: 8 512 7 7 (200704)
I0629 03:46:19.421105  2102 net.cpp:137] Memory required for data: 1838448800
I0629 03:46:19.421110  2102 layer_factory.hpp:77] Creating layer my_res5c_branch2c
I0629 03:46:19.421121  2102 net.cpp:84] Creating Layer my_res5c_branch2c
I0629 03:46:19.421125  2102 net.cpp:406] my_res5c_branch2c <- my_res5c_branch2b
I0629 03:46:19.421134  2102 net.cpp:380] my_res5c_branch2c -> my_res5c_branch2c
I0629 03:46:19.424331  2102 net.cpp:122] Setting up my_res5c_branch2c
I0629 03:46:19.424351  2102 net.cpp:129] Top shape: 8 2048 7 7 (802816)
I0629 03:46:19.424356  2102 net.cpp:137] Memory required for data: 1841660064
I0629 03:46:19.424362  2102 layer_factory.hpp:77] Creating layer my_bn5c_branch2c
I0629 03:46:19.424372  2102 net.cpp:84] Creating Layer my_bn5c_branch2c
I0629 03:46:19.424377  2102 net.cpp:406] my_bn5c_branch2c <- my_res5c_branch2c
I0629 03:46:19.424383  2102 net.cpp:367] my_bn5c_branch2c -> my_res5c_branch2c (in-place)
I0629 03:46:19.424690  2102 net.cpp:122] Setting up my_bn5c_branch2c
I0629 03:46:19.424705  2102 net.cpp:129] Top shape: 8 2048 7 7 (802816)
I0629 03:46:19.424710  2102 net.cpp:137] Memory required for data: 1844871328
I0629 03:46:19.424718  2102 layer_factory.hpp:77] Creating layer my_scale5c_branch2c
I0629 03:46:19.424728  2102 net.cpp:84] Creating Layer my_scale5c_branch2c
I0629 03:46:19.424732  2102 net.cpp:406] my_scale5c_branch2c <- my_res5c_branch2c
I0629 03:46:19.424738  2102 net.cpp:367] my_scale5c_branch2c -> my_res5c_branch2c (in-place)
I0629 03:46:19.424801  2102 layer_factory.hpp:77] Creating layer my_scale5c_branch2c
I0629 03:46:19.424996  2102 net.cpp:122] Setting up my_scale5c_branch2c
I0629 03:46:19.425011  2102 net.cpp:129] Top shape: 8 2048 7 7 (802816)
I0629 03:46:19.425015  2102 net.cpp:137] Memory required for data: 1848082592
I0629 03:46:19.425022  2102 layer_factory.hpp:77] Creating layer my_res5c
I0629 03:46:19.425029  2102 net.cpp:84] Creating Layer my_res5c
I0629 03:46:19.425034  2102 net.cpp:406] my_res5c <- my_res5b_my_res5b_relu_0_split_1
I0629 03:46:19.425043  2102 net.cpp:406] my_res5c <- my_res5c_branch2c
I0629 03:46:19.425050  2102 net.cpp:380] my_res5c -> my_res5c
I0629 03:46:19.425093  2102 net.cpp:122] Setting up my_res5c
I0629 03:46:19.425108  2102 net.cpp:129] Top shape: 8 2048 7 7 (802816)
I0629 03:46:19.425112  2102 net.cpp:137] Memory required for data: 1851293856
I0629 03:46:19.425117  2102 layer_factory.hpp:77] Creating layer my_res5c_relu
I0629 03:46:19.425122  2102 net.cpp:84] Creating Layer my_res5c_relu
I0629 03:46:19.425127  2102 net.cpp:406] my_res5c_relu <- my_res5c
I0629 03:46:19.425134  2102 net.cpp:367] my_res5c_relu -> my_res5c (in-place)
I0629 03:46:19.425429  2102 net.cpp:122] Setting up my_res5c_relu
I0629 03:46:19.425447  2102 net.cpp:129] Top shape: 8 2048 7 7 (802816)
I0629 03:46:19.425452  2102 net.cpp:137] Memory required for data: 1854505120
I0629 03:46:19.425457  2102 layer_factory.hpp:77] Creating layer my_pool5
I0629 03:46:19.425467  2102 net.cpp:84] Creating Layer my_pool5
I0629 03:46:19.425470  2102 net.cpp:406] my_pool5 <- my_res5c
I0629 03:46:19.425477  2102 net.cpp:380] my_pool5 -> my_pool5
I0629 03:46:19.426196  2102 net.cpp:122] Setting up my_pool5
I0629 03:46:19.426214  2102 net.cpp:129] Top shape: 8 2048 1 1 (16384)
I0629 03:46:19.426219  2102 net.cpp:137] Memory required for data: 1854570656
I0629 03:46:19.426223  2102 layer_factory.hpp:77] Creating layer my_fc1000
I0629 03:46:19.426237  2102 net.cpp:84] Creating Layer my_fc1000
I0629 03:46:19.426242  2102 net.cpp:406] my_fc1000 <- my_pool5
I0629 03:46:19.426249  2102 net.cpp:380] my_fc1000 -> my_fc1000
I0629 03:46:19.426450  2102 net.cpp:122] Setting up my_fc1000
I0629 03:46:19.426471  2102 net.cpp:129] Top shape: 8 50 (400)
I0629 03:46:19.426476  2102 net.cpp:137] Memory required for data: 1854572256
I0629 03:46:19.426482  2102 layer_factory.hpp:77] Creating layer my_fc1000_my_fc1000_0_split
I0629 03:46:19.426489  2102 net.cpp:84] Creating Layer my_fc1000_my_fc1000_0_split
I0629 03:46:19.426493  2102 net.cpp:406] my_fc1000_my_fc1000_0_split <- my_fc1000
I0629 03:46:19.426501  2102 net.cpp:380] my_fc1000_my_fc1000_0_split -> my_fc1000_my_fc1000_0_split_0
I0629 03:46:19.426509  2102 net.cpp:380] my_fc1000_my_fc1000_0_split -> my_fc1000_my_fc1000_0_split_1
I0629 03:46:19.426517  2102 net.cpp:380] my_fc1000_my_fc1000_0_split -> my_fc1000_my_fc1000_0_split_2
I0629 03:46:19.426522  2102 net.cpp:380] my_fc1000_my_fc1000_0_split -> my_fc1000_my_fc1000_0_split_3
I0629 03:46:19.426585  2102 net.cpp:122] Setting up my_fc1000_my_fc1000_0_split
I0629 03:46:19.426594  2102 net.cpp:129] Top shape: 8 50 (400)
I0629 03:46:19.426597  2102 net.cpp:129] Top shape: 8 50 (400)
I0629 03:46:19.426601  2102 net.cpp:129] Top shape: 8 50 (400)
I0629 03:46:19.426605  2102 net.cpp:129] Top shape: 8 50 (400)
I0629 03:46:19.426609  2102 net.cpp:137] Memory required for data: 1854578656
I0629 03:46:19.426612  2102 layer_factory.hpp:77] Creating layer loss
I0629 03:46:19.426622  2102 net.cpp:84] Creating Layer loss
I0629 03:46:19.426627  2102 net.cpp:406] loss <- my_fc1000_my_fc1000_0_split_0
I0629 03:46:19.426632  2102 net.cpp:406] loss <- label_input_1_split_0
I0629 03:46:19.426637  2102 net.cpp:380] loss -> loss
…
