…
I0627 04:15:36.806783  1477 net.cpp:294] The NetState phase (0) differed from the phase (1) specified by a rule in layer input
I0627 04:15:36.808137  1477 net.cpp:51] Initializing net from parameters: 
name: "ResNet-50"
state {
  phase: TRAIN
  level: 0
  stage: ""
}
layer {
  name: "input"
  type: "Data"
  top: "data"
  top: "label"
  include {
    phase: TRAIN
  }
  transform_param {
    mirror: true
    mean_file: "../../data_subsets/subtrain1_mean.binaryproto"
  }
  data_param {
    source: "../../data_subsets/subtrain1_lmdb"
    batch_size: 8
    backend: LMDB
  }
}
layer {
  name: "conv1"
  type: "Convolution"
  bottom: "data"
  top: "conv1"
  param {
    lr_mult: 1
    decay_mult: 1
  }
  param {
    lr_mult: 2
    decay_mult: 0
  }
  convolution_param {
    num_output: 64
    pad: 3
    kernel_size: 7
    stride: 2
  }
}
layer {
  name: "bn_conv1"
  type: "BatchNorm"
  bottom: "conv1"
  top: "conv1"
  batch_norm_param {
    use_global_stats: true
  }
}
layer {
  name: "scale_conv1"
  type: "Scale"
  bottom: "conv1"
  top: "conv1"
  scale_param {
    bias_term: true
  }
}
layer {
  name: "conv1_relu"
  type: "ReLU"
  bottom: "conv1"
  top: "conv1"
}
layer {
  name: "pool1"
  type: "Pooling"
  bottom: "conv1"
  top: "pool1"
  pooling_param {
    pool: MAX
    kernel_size: 3
    stride: 2
  }
}
layer {
  name: "res2a_branch1"
  type: "Convolution"
  bottom: "pool1"
  top: "res2a_branch1"
  param {
    lr_mult: 1
    decay_mult: 1
  }
  convolution_param {
    num_output: 256
    bias_term: false
    pad: 0
    kernel_size: 1
    stride: 1
  }
}
layer {
  name: "bn2a_branch1"
  type: "BatchNorm"
  bottom: "res2a_branch1"
  top: "res2a_branch1"
  batch_norm_param {
    use_global_stats: true
  }
}
layer {
  name: "scale2a_branch1"
  type: "Scale"
  bottom: "res2a_branch1"
  top: "res2a_branch1"
  scale_param {
    bias_term: true
  }
}
layer {
  name: "res2a_branch2a"
  type: "Convolution"
  bottom: "pool1"
  top: "res2a_branch2a"
  param {
    lr_mult: 1
    decay_mult: 1
  }
  convolution_param {
    num_output: 64
    bias_term: false
    pad: 0
    kernel_size: 1
    stride: 1
  }
}
layer {
  name: "bn2a_branch2a"
  type: "BatchNorm"
  bottom: "res2a_branch2a"
  top: "res2a_branch2a"
  batch_norm_param {
    use_global_stats: true
  }
}
layer {
  name: "scale2a_branch2a"
  type: "Scale"
  bottom: "res2a_branch2a"
  top: "res2a_branch2a"
  scale_param {
    bias_term: true
  }
}
layer {
  name: "res2a_branch2a_relu"
  type: "ReLU"
  bottom: "res2a_branch2a"
  top: "res2a_branch2a"
}
layer {
  name: "res2a_branch2b"
  type: "Convolution"
  bottom: "res2a_branch2a"
  top: "res2a_branch2b"
  param {
    lr_mult: 1
    decay_mult: 1
  }
  convolution_param {
    num_output: 64
    bias_term: false
    pad: 1
    kernel_size: 3
    stride: 1
  }
}
layer {
  name: "bn2a_branch2b"
  type: "BatchNorm"
  bottom: "res2a_branch2b"
  top: "res2a_branch2b"
  batch_norm_param {
    use_global_stats: true
  }
}
layer {
  name: "scale2a_branch2b"
  type: "Scale"
  bottom: "res2a_branch2b"
  top: "res2a_branch2b"
  scale_param {
    bias_term: true
  }
}
layer {
  name: "res2a_branch2b_relu"
  type: "ReLU"
  bottom: "res2a_branch2b"
  top: "res2a_branch2b"
}
layer {
  name: "res2a_branch2c"
  type: "Convolution"
  bottom: "res2a_branch2b"
  top: "res2a_branch2c"
  param {
    lr_mult: 1
    decay_mult: 1
  }
  convolution_param {
    num_output: 256
    bias_term: false
    pad: 0
    kernel_size: 1
    stride: 1
  }
}
layer {
  name: "bn2a_branch2c"
  type: "BatchNorm"
  bottom: "res2a_branch2c"
  top: "res2a_branch2c"
  batch_norm_param {
    use_global_stats: true
  }
}
layer {
  name: "scale2a_branch2c"
  type: "Scale"
  bottom: "res2a_branch2c"
  top: "res2a_branch2c"
  scale_param {
    bias_term: true
  }
}
layer {
  name: "res2a"
  type: "Eltwise"
  bottom: "res2a_branch1"
  bottom: "res2a_branch2c"
  top: "res2a"
}
layer {
  name: "res2a_relu"
  type: "ReLU"
  bottom: "res2a"
  top: "res2a"
}
layer {
  name: "res2b_branch2a"
  type: "Convolution"
  bottom: "res2a"
  top: "res2b_branch2a"
  param {
    lr_mult: 1
    decay_mult: 1
  }
  convolution_param {
    num_output: 64
    bias_term: false
    pad: 0
    kernel_size: 1
    stride: 1
  }
}
layer {
  name: "bn2b_branch2a"
  type: "BatchNorm"
  bottom: "res2b_branch2a"
  top: "res2b_branch2a"
  batch_norm_param {
    use_global_stats: true
  }
}
layer {
  name: "scale2b_branch2a"
  type: "Scale"
  bottom: "res2b_branch2a"
  top: "res2b_branch2a"
  scale_param {
    bias_term: true
  }
}
layer {
  name: "res2b_branch2a_relu"
  type: "ReLU"
  bottom: "res2b_branch2a"
  top: "res2b_branch2a"
}
layer {
  name: "res2b_branch2b"
  type: "Convolution"
  bottom: "res2b_branch2a"
  top: "res2b_branch2b"
  param {
    lr_mult: 1
    decay_mult: 1
  }
  convolution_param {
    num_output: 64
    bias_term: false
    pad: 1
    kernel_size: 3
    stride: 1
  }
}
layer {
  name: "bn2b_branch2b"
  type: "BatchNorm"
  bottom: "res2b_branch2b"
  top: "res2b_branch2b"
  batch_norm_param {
    use_global_stats: true
  }
}
layer {
  name: "scale2b_branch2b"
  type: "Scale"
  bottom: "res2b_branch2b"
  top: "res2b_branch2b"
  scale_param {
    bias_term: true
  }
}
layer {
  name: "res2b_branch2b_relu"
  type: "ReLU"
  bottom: "res2b_branch2b"
  top: "res2b_branch2b"
}
layer {
  name: "res2b_branch2c"
  type: "Convolution"
  bottom: "res2b_branch2b"
  top: "res2b_branch2c"
  param {
    lr_mult: 1
    decay_mult: 1
  }
  convolution_param {
    num_output: 256
    bias_term: false
    pad: 0
    kernel_size: 1
    stride: 1
  }
}
layer {
  name: "bn2b_branch2c"
  type: "BatchNorm"
  bottom: "res2b_branch2c"
  top: "res2b_branch2c"
  batch_norm_param {
    use_global_stats: true
  }
}
layer {
  name: "scale2b_branch2c"
  type: "Scale"
  bottom: "res2b_branch2c"
  top: "res2b_branch2c"
  scale_param {
    bias_term: true
  }
}
layer {
  name: "res2b"
  type: "Eltwise"
  bottom: "res2a"
  bottom: "res2b_branch2c"
  top: "res2b"
}
layer {
  name: "res2b_relu"
  type: "ReLU"
  bottom: "res2b"
  top: "res2b"
}
layer {
  name: "res2c_branch2a"
  type: "Convolution"
  bottom: "res2b"
  top: "res2c_branch2a"
  param {
    lr_mult: 1
    decay_mult: 1
  }
  convolution_param {
    num_output: 64
    bias_term: false
    pad: 0
    kernel_size: 1
    stride: 1
  }
}
layer {
  name: "bn2c_branch2a"
  type: "BatchNorm"
  bottom: "res2c_branch2a"
  top: "res2c_branch2a"
  batch_norm_param {
    use_global_stats: true
  }
}
layer {
  name: "scale2c_branch2a"
  type: "Scale"
  bottom: "res2c_branch2a"
  top: "res2c_branch2a"
  scale_param {
    bias_term: true
  }
}
layer {
  name: "res2c_branch2a_relu"
  type: "ReLU"
  bottom: "res2c_branch2a"
  top: "res2c_branch2a"
}
layer {
  name: "res2c_branch2b"
  type: "Convolution"
  bottom: "res2c_branch2a"
  top: "res2c_branch2b"
  param {
    lr_mult: 1
    decay_mult: 1
  }
  convolution_param {
    num_output: 64
    bias_term: false
    pad: 1
    kernel_size: 3
    stride: 1
  }
}
layer {
  name: "bn2c_branch2b"
  type: "BatchNorm"
  bottom: "res2c_branch2b"
  top: "res2c_branch2b"
  batch_norm_param {
    use_global_stats: true
  }
}
layer {
  name: "scale2c_branch2b"
  type: "Scale"
  bottom: "res2c_branch2b"
  top: "res2c_branch2b"
  scale_param {
    bias_term: true
  }
}
layer {
  name: "res2c_branch2b_relu"
  type: "ReLU"
  bottom: "res2c_branch2b"
  top: "res2c_branch2b"
}
layer {
  name: "res2c_branch2c"
  type: "Convolution"
  bottom: "res2c_branch2b"
  top: "res2c_branch2c"
  param {
    lr_mult: 1
    decay_mult: 1
  }
  convolution_param {
    num_output: 256
    bias_term: false
    pad: 0
    kernel_size: 1
    stride: 1
  }
}
layer {
  name: "bn2c_branch2c"
  type: "BatchNorm"
  bottom: "res2c_branch2c"
  top: "res2c_branch2c"
  batch_norm_param {
    use_global_stats: true
  }
}
layer {
  name: "scale2c_branch2c"
  type: "Scale"
  bottom: "res2c_branch2c"
  top: "res2c_branch2c"
  scale_param {
    bias_term: true
  }
}
layer {
  name: "res2c"
  type: "Eltwise"
  bottom: "res2b"
  bottom: "res2c_branch2c"
  top: "res2c"
}
layer {
  name: "res2c_relu"
  type: "ReLU"
  bottom: "res2c"
  top: "res2c"
}
layer {
  name: "res3a_branch1"
  type: "Convolution"
  bottom: "res2c"
  top: "res3a_branch1"
  param {
    lr_mult: 1
    decay_mult: 1
  }
  convolution_param {
    num_output: 512
    bias_term: false
    pad: 0
    kernel_size: 1
    stride: 2
  }
}
layer {
  name: "bn3a_branch1"
  type: "BatchNorm"
  bottom: "res3a_branch1"
  top: "res3a_branch1"
  batch_norm_param {
    use_global_stats: true
  }
}
layer {
  name: "scale3a_branch1"
  type: "Scale"
  bottom: "res3a_branch1"
  top: "res3a_branch1"
  scale_param {
    bias_term: true
  }
}
layer {
  name: "res3a_branch2a"
  type: "Convolution"
  bottom: "res2c"
  top: "res3a_branch2a"
  param {
    lr_mult: 1
    decay_mult: 1
  }
  convolution_param {
    num_output: 128
    bias_term: false
    pad: 0
    kernel_size: 1
    stride: 2
  }
}
layer {
  name: "bn3a_branch2a"
  type: "BatchNorm"
  bottom: "res3a_branch2a"
  top: "res3a_branch2a"
  batch_norm_param {
    use_global_stats: true
  }
}
layer {
  name: "scale3a_branch2a"
  type: "Scale"
  bottom: "res3a_branch2a"
  top: "res3a_branch2a"
  scale_param {
    bias_term: true
  }
}
layer {
  name: "res3a_branch2a_relu"
  type: "ReLU"
  bottom: "res3a_branch2a"
  top: "res3a_branch2a"
}
layer {
  name: "res3a_branch2b"
  type: "Convolution"
  bottom: "res3a_branch2a"
  top: "res3a_branch2b"
  param {
    lr_mult: 1
    decay_mult: 1
  }
  convolution_param {
    num_output: 128
    bias_term: false
    pad: 1
    kernel_size: 3
    stride: 1
  }
}
layer {
  name: "bn3a_branch2b"
  type: "BatchNorm"
  bottom: "res3a_branch2b"
  top: "res3a_branch2b"
  batch_norm_param {
    use_global_stats: true
  }
}
layer {
  name: "scale3a_branch2b"
  type: "Scale"
  bottom: "res3a_branch2b"
  top: "res3a_branch2b"
  scale_param {
    bias_term: true
  }
}
layer {
  name: "res3a_branch2b_relu"
  type: "ReLU"
  bottom: "res3a_branch2b"
  top: "res3a_branch2b"
}
layer {
  name: "res3a_branch2c"
  type: "Convolution"
  bottom: "res3a_branch2b"
  top: "res3a_branch2c"
  param {
    lr_mult: 1
    decay_mult: 1
  }
  convolution_param {
    num_output: 512
    bias_term: false
    pad: 0
    kernel_size: 1
    stride: 1
  }
}
layer {
  name: "bn3a_branch2c"
  type: "BatchNorm"
  bottom: "res3a_branch2c"
  top: "res3a_branch2c"
  batch_norm_param {
    use_global_stats: true
  }
}
layer {
  name: "scale3a_branch2c"
  type: "Scale"
  bottom: "res3a_branch2c"
  top: "res3a_branch2c"
  scale_param {
    bias_term: true
  }
}
layer {
  name: "res3a"
  type: "Eltwise"
  bottom: "res3a_branch1"
  bottom: "res3a_branch2c"
  top: "res3a"
}
layer {
  name: "res3a_relu"
  type: "ReLU"
  bottom: "res3a"
  top: "res3a"
}
layer {
  name: "res3b_branch2a"
  type: "Convolution"
  bottom: "res3a"
  top: "res3b_branch2a"
  param {
    lr_mult: 1
    decay_mult: 1
  }
  convolution_param {
    num_output: 128
    bias_term: false
    pad: 0
    kernel_size: 1
    stride: 1
  }
}
layer {
  name: "bn3b_branch2a"
  type: "BatchNorm"
  bottom: "res3b_branch2a"
  top: "res3b_branch2a"
  batch_norm_param {
    use_global_stats: true
  }
}
layer {
  name: "scale3b_branch2a"
  type: "Scale"
  bottom: "res3b_branch2a"
  top: "res3b_branch2a"
  scale_param {
    bias_term: true
  }
}
layer {
  name: "res3b_branch2a_relu"
  type: "ReLU"
  bottom: "res3b_branch2a"
  top: "res3b_branch2a"
}
layer {
  name: "res3b_branch2b"
  type: "Convolution"
  bottom: "res3b_branch2a"
  top: "res3b_branch2b"
  param {
    lr_mult: 1
    decay_mult: 1
  }
  convolution_param {
    num_output: 128
    bias_term: false
    pad: 1
    kernel_size: 3
    stride: 1
  }
}
layer {
  name: "bn3b_branch2b"
  type: "BatchNorm"
  bottom: "res3b_branch2b"
  top: "res3b_branch2b"
  batch_norm_param {
    use_global_stats: true
  }
}
layer {
  name: "scale3b_branch2b"
  type: "Scale"
  bottom: "res3b_branch2b"
  top: "res3b_branch2b"
  scale_param {
    bias_term: true
  }
}
layer {
  name: "res3b_branch2b_relu"
  type: "ReLU"
  bottom: "res3b_branch2b"
  top: "res3b_branch2b"
}
layer {
  name: "res3b_branch2c"
  type: "Convolution"
  bottom: "res3b_branch2b"
  top: "res3b_branch2c"
  param {
    lr_mult: 1
    decay_mult: 1
  }
  convolution_param {
    num_output: 512
    bias_term: false
    pad: 0
    kernel_size: 1
    stride: 1
  }
}
layer {
  name: "bn3b_branch2c"
  type: "BatchNorm"
  bottom: "res3b_branch2c"
  top: "res3b_branch2c"
  batch_norm_param {
    use_global_stats: true
  }
}
layer {
  name: "scale3b_branch2c"
  type: "Scale"
  bottom: "res3b_branch2c"
  top: "res3b_branch2c"
  scale_param {
    bias_term: true
  }
}
layer {
  name: "res3b"
  type: "Eltwise"
  bottom: "res3a"
  bottom: "res3b_branch2c"
  top: "res3b"
}
layer {
  name: "res3b_relu"
  type: "ReLU"
  bottom: "res3b"
  top: "res3b"
}
layer {
  name: "res3c_branch2a"
  type: "Convolution"
  bottom: "res3b"
  top: "res3c_branch2a"
  param {
    lr_mult: 1
    decay_mult: 1
  }
  convolution_param {
    num_output: 128
    bias_term: false
    pad: 0
    kernel_size: 1
    stride: 1
  }
}
layer {
  name: "bn3c_branch2a"
  type: "BatchNorm"
  bottom: "res3c_branch2a"
  top: "res3c_branch2a"
  batch_norm_param {
    use_global_stats: true
  }
}
layer {
  name: "scale3c_branch2a"
  type: "Scale"
  bottom: "res3c_branch2a"
  top: "res3c_branch2a"
  scale_param {
    bias_term: true
  }
}
layer {
  name: "res3c_branch2a_relu"
  type: "ReLU"
  bottom: "res3c_branch2a"
  top: "res3c_branch2a"
}
layer {
  name: "res3c_branch2b"
  type: "Convolution"
  bottom: "res3c_branch2a"
  top: "res3c_branch2b"
  param {
    lr_mult: 1
    decay_mult: 1
  }
  convolution_param {
    num_output: 128
    bias_term: false
    pad: 1
    kernel_size: 3
    stride: 1
  }
}
layer {
  name: "bn3c_branch2b"
  type: "BatchNorm"
  bottom: "res3c_branch2b"
  top: "res3c_branch2b"
  batch_norm_param {
    use_global_stats: true
  }
}
layer {
  name: "scale3c_branch2b"
  type: "Scale"
  bottom: "res3c_branch2b"
  top: "res3c_branch2b"
  scale_param {
    bias_term: true
  }
}
layer {
  name: "res3c_branch2b_relu"
  type: "ReLU"
  bottom: "res3c_branch2b"
  top: "res3c_branch2b"
}
layer {
  name: "res3c_branch2c"
  type: "Convolution"
  bottom: "res3c_branch2b"
  top: "res3c_branch2c"
  param {
    lr_mult: 1
    decay_mult: 1
  }
  convolution_param {
    num_output: 512
    bias_term: false
    pad: 0
    kernel_size: 1
    stride: 1
  }
}
layer {
  name: "bn3c_branch2c"
  type: "BatchNorm"
  bottom: "res3c_branch2c"
  top: "res3c_branch2c"
  batch_norm_param {
    use_global_stats: true
  }
}
layer {
  name: "scale3c_branch2c"
  type: "Scale"
  bottom: "res3c_branch2c"
  top: "res3c_branch2c"
  scale_param {
    bias_term: true
  }
}
layer {
  name: "res3c"
  type: "Eltwise"
  bottom: "res3b"
  bottom: "res3c_branch2c"
  top: "res3c"
}
layer {
  name: "res3c_relu"
  type: "ReLU"
  bottom: "res3c"
  top: "res3c"
}
layer {
  name: "res3d_branch2a"
  type: "Convolution"
  bottom: "res3c"
  top: "res3d_branch2a"
  param {
    lr_mult: 1
    decay_mult: 1
  }
  convolution_param {
    num_output: 128
    bias_term: false
    pad: 0
    kernel_size: 1
    stride: 1
  }
}
layer {
  name: "bn3d_branch2a"
  type: "BatchNorm"
  bottom: "res3d_branch2a"
  top: "res3d_branch2a"
  batch_norm_param {
    use_global_stats: true
  }
}
layer {
  name: "scale3d_branch2a"
  type: "Scale"
  bottom: "res3d_branch2a"
  top: "res3d_branch2a"
  scale_param {
    bias_term: true
  }
}
layer {
  name: "res3d_branch2a_relu"
  type: "ReLU"
  bottom: "res3d_branch2a"
  top: "res3d_branch2a"
}
layer {
  name: "res3d_branch2b"
  type: "Convolution"
  bottom: "res3d_branch2a"
  top: "res3d_branch2b"
  param {
    lr_mult: 1
    decay_mult: 1
  }
  convolution_param {
    num_output: 128
    bias_term: false
    pad: 1
    kernel_size: 3
    stride: 1
  }
}
layer {
  name: "bn3d_branch2b"
  type: "BatchNorm"
  bottom: "res3d_branch2b"
  top: "res3d_branch2b"
  batch_norm_param {
    use_global_stats: true
  }
}
layer {
  name: "scale3d_branch2b"
  type: "Scale"
  bottom: "res3d_branch2b"
  top: "res3d_branch2b"
  scale_param {
    bias_term: true
  }
}
layer {
  name: "res3d_branch2b_relu"
  type: "ReLU"
  bottom: "res3d_branch2b"
  top: "res3d_branch2b"
}
layer {
  name: "res3d_branch2c"
  type: "Convolution"
  bottom: "res3d_branch2b"
  top: "res3d_branch2c"
  param {
    lr_mult: 1
    decay_mult: 1
  }
  convolution_param {
    num_output: 512
    bias_term: false
    pad: 0
    kernel_size: 1
    stride: 1
  }
}
layer {
  name: "bn3d_branch2c"
  type: "BatchNorm"
  bottom: "res3d_branch2c"
  top: "res3d_branch2c"
  batch_norm_param {
    use_global_stats: true
  }
}
layer {
  name: "scale3d_branch2c"
  type: "Scale"
  bottom: "res3d_branch2c"
  top: "res3d_branch2c"
  scale_param {
    bias_term: true
  }
}
layer {
  name: "res3d"
  type: "Eltwise"
  bottom: "res3c"
  bottom: "res3d_branch2c"
  top: "res3d"
}
layer {
  name: "res3d_relu"
  type: "ReLU"
  bottom: "res3d"
  top: "res3d"
}
layer {
  name: "res4a_branch1"
  type: "Convolution"
  bottom: "res3d"
  top: "res4a_branch1"
  param {
    lr_mult: 1
    decay_mult: 1
  }
  convolution_param {
    num_output: 1024
    bias_term: false
    pad: 0
    kernel_size: 1
    stride: 2
  }
}
layer {
  name: "bn4a_branch1"
  type: "BatchNorm"
  bottom: "res4a_branch1"
  top: "res4a_branch1"
  batch_norm_param {
    use_global_stats: true
  }
}
layer {
  name: "scale4a_branch1"
  type: "Scale"
  bottom: "res4a_branch1"
  top: "res4a_branch1"
  scale_param {
    bias_term: true
  }
}
layer {
  name: "res4a_branch2a"
  type: "Convolution"
  bottom: "res3d"
  top: "res4a_branch2a"
  param {
    lr_mult: 1
    decay_mult: 1
  }
  convolution_param {
    num_output: 256
    bias_term: false
    pad: 0
    kernel_size: 1
    stride: 2
  }
}
layer {
  name: "bn4a_branch2a"
  type: "BatchNorm"
  bottom: "res4a_branch2a"
  top: "res4a_branch2a"
  batch_norm_param {
    use_global_stats: true
  }
}
layer {
  name: "scale4a_branch2a"
  type: "Scale"
  bottom: "res4a_branch2a"
  top: "res4a_branch2a"
  scale_param {
    bias_term: true
  }
}
layer {
  name: "res4a_branch2a_relu"
  type: "ReLU"
  bottom: "res4a_branch2a"
  top: "res4a_branch2a"
}
layer {
  name: "res4a_branch2b"
  type: "Convolution"
  bottom: "res4a_branch2a"
  top: "res4a_branch2b"
  param {
    lr_mult: 1
    decay_mult: 1
  }
  convolution_param {
    num_output: 256
    bias_term: false
    pad: 1
    kernel_size: 3
    stride: 1
  }
}
layer {
  name: "bn4a_branch2b"
  type: "BatchNorm"
  bottom: "res4a_branch2b"
  top: "res4a_branch2b"
  batch_norm_param {
    use_global_stats: true
  }
}
layer {
  name: "scale4a_branch2b"
  type: "Scale"
  bottom: "res4a_branch2b"
  top: "res4a_branch2b"
  scale_param {
    bias_term: true
  }
}
layer {
  name: "res4a_branch2b_relu"
  type: "ReLU"
  bottom: "res4a_branch2b"
  top: "res4a_branch2b"
}
layer {
  name: "res4a_branch2c"
  type: "Convolution"
  bottom: "res4a_branch2b"
  top: "res4a_branch2c"
  param {
    lr_mult: 1
    decay_mult: 1
  }
  convolution_param {
    num_output: 1024
    bias_term: false
    pad: 0
    kernel_size: 1
    stride: 1
  }
}
layer {
  name: "bn4a_branch2c"
  type: "BatchNorm"
  bottom: "res4a_branch2c"
  top: "res4a_branch2c"
  batch_norm_param {
    use_global_stats: true
  }
}
layer {
  name: "scale4a_branch2c"
  type: "Scale"
  bottom: "res4a_branch2c"
  top: "res4a_branch2c"
  scale_param {
    bias_term: true
  }
}
layer {
  name: "res4a"
  type: "Eltwise"
  bottom: "res4a_branch1"
  bottom: "res4a_branch2c"
  top: "res4a"
}
layer {
  name: "res4a_relu"
  type: "ReLU"
  bottom: "res4a"
  top: "res4a"
}
layer {
  name: "res4b_branch2a"
  type: "Convolution"
  bottom: "res4a"
  top: "res4b_branch2a"
  param {
    lr_mult: 1
    decay_mult: 1
  }
  convolution_param {
    num_output: 256
    bias_term: false
    pad: 0
    kernel_size: 1
    stride: 1
  }
}
layer {
  name: "bn4b_branch2a"
  type: "BatchNorm"
  bottom: "res4b_branch2a"
  top: "res4b_branch2a"
  batch_norm_param {
    use_global_stats: true
  }
}
layer {
  name: "scale4b_branch2a"
  type: "Scale"
  bottom: "res4b_branch2a"
  top: "res4b_branch2a"
  scale_param {
    bias_term: true
  }
}
layer {
  name: "res4b_branch2a_relu"
  type: "ReLU"
  bottom: "res4b_branch2a"
  top: "res4b_branch2a"
}
layer {
  name: "res4b_branch2b"
  type: "Convolution"
  bottom: "res4b_branch2a"
  top: "res4b_branch2b"
  param {
    lr_mult: 1
    decay_mult: 1
  }
  convolution_param {
    num_output: 256
    bias_term: false
    pad: 1
    kernel_size: 3
    stride: 1
  }
}
layer {
  name: "bn4b_branch2b"
  type: "BatchNorm"
  bottom: "res4b_branch2b"
  top: "res4b_branch2b"
  batch_norm_param {
    use_global_stats: true
  }
}
layer {
  name: "scale4b_branch2b"
  type: "Scale"
  bottom: "res4b_branch2b"
  top: "res4b_branch2b"
  scale_param {
    bias_term: true
  }
}
layer {
  name: "res4b_branch2b_relu"
  type: "ReLU"
  bottom: "res4b_branch2b"
  top: "res4b_branch2b"
}
layer {
  name: "res4b_branch2c"
  type: "Convolution"
  bottom: "res4b_branch2b"
  top: "res4b_branch2c"
  param {
    lr_mult: 1
    decay_mult: 1
  }
  convolution_param {
    num_output: 1024
    bias_term: false
    pad: 0
    kernel_size: 1
    stride: 1
  }
}
layer {
  name: "bn4b_branch2c"
  type: "BatchNorm"
  bottom: "res4b_branch2c"
  top: "res4b_branch2c"
  batch_norm_param {
    use_global_stats: true
  }
}
layer {
  name: "scale4b_branch2c"
  type: "Scale"
  bottom: "res4b_branch2c"
  top: "res4b_branch2c"
  scale_param {
    bias_term: true
  }
}
layer {
  name: "res4b"
  type: "Eltwise"
  bottom: "res4a"
  bottom: "res4b_branch2c"
  top: "res4b"
}
layer {
  name: "res4b_relu"
  type: "ReLU"
  bottom: "res4b"
  top: "res4b"
}
layer {
  name: "res4c_branch2a"
  type: "Convolution"
  bottom: "res4b"
  top: "res4c_branch2a"
  param {
    lr_mult: 1
    decay_mult: 1
  }
  convolution_param {
    num_output: 256
    bias_term: false
    pad: 0
    kernel_size: 1
    stride: 1
  }
}
layer {
  name: "bn4c_branch2a"
  type: "BatchNorm"
  bottom: "res4c_branch2a"
  top: "res4c_branch2a"
  batch_norm_param {
    use_global_stats: true
  }
}
layer {
  name: "scale4c_branch2a"
  type: "Scale"
  bottom: "res4c_branch2a"
  top: "res4c_branch2a"
  scale_param {
    bias_term: true
  }
}
layer {
  name: "res4c_branch2a_relu"
  type: "ReLU"
  bottom: "res4c_branch2a"
  top: "res4c_branch2a"
}
layer {
  name: "res4c_branch2b"
  type: "Convolution"
  bottom: "res4c_branch2a"
  top: "res4c_branch2b"
  param {
    lr_mult: 1
    decay_mult: 1
  }
  convolution_param {
    num_output: 256
    bias_term: false
    pad: 1
    kernel_size: 3
    stride: 1
  }
}
layer {
  name: "bn4c_branch2b"
  type: "BatchNorm"
  bottom: "res4c_branch2b"
  top: "res4c_branch2b"
  batch_norm_param {
    use_global_stats: true
  }
}
layer {
  name: "scale4c_branch2b"
  type: "Scale"
  bottom: "res4c_branch2b"
  top: "res4c_branch2b"
  scale_param {
    bias_term: true
  }
}
layer {
  name: "res4c_branch2b_relu"
  type: "ReLU"
  bottom: "res4c_branch2b"
  top: "res4c_branch2b"
}
layer {
  name: "res4c_branch2c"
  type: "Convolution"
  bottom: "res4c_branch2b"
  top: "res4c_branch2c"
  param {
    lr_mult: 1
    decay_mult: 1
  }
  convolution_param {
    num_output: 1024
    bias_term: false
    pad: 0
    kernel_size: 1
    stride: 1
  }
}
layer {
  name: "bn4c_branch2c"
  type: "BatchNorm"
  bottom: "res4c_branch2c"
  top: "res4c_branch2c"
  batch_norm_param {
    use_global_stats: true
  }
}
layer {
  name: "scale4c_branch2c"
  type: "Scale"
  bottom: "res4c_branch2c"
  top: "res4c_branch2c"
  scale_param {
    bias_term: true
  }
}
layer {
  name: "res4c"
  type: "Eltwise"
  bottom: "res4b"
  bottom: "res4c_branch2c"
  top: "res4c"
}
layer {
  name: "res4c_relu"
  type: "ReLU"
  bottom: "res4c"
  top: "res4c"
}
layer {
  name: "res4d_branch2a"
  type: "Convolution"
  bottom: "res4c"
  top: "res4d_branch2a"
  param {
    lr_mult: 1
    decay_mult: 1
  }
  convolution_param {
    num_output: 256
    bias_term: false
    pad: 0
    kernel_size: 1
    stride: 1
  }
}
layer {
  name: "bn4d_branch2a"
  type: "BatchNorm"
  bottom: "res4d_branch2a"
  top: "res4d_branch2a"
  batch_norm_param {
    use_global_stats: true
  }
}
layer {
  name: "scale4d_branch2a"
  type: "Scale"
  bottom: "res4d_branch2a"
  top: "res4d_branch2a"
  scale_param {
    bias_term: true
  }
}
layer {
  name: "res4d_branch2a_relu"
  type: "ReLU"
  bottom: "res4d_branch2a"
  top: "res4d_branch2a"
}
layer {
  name: "res4d_branch2b"
  type: "Convolution"
  bottom: "res4d_branch2a"
  top: "res4d_branch2b"
  param {
    lr_mult: 1
    decay_mult: 1
  }
  convolution_param {
    num_output: 256
    bias_term: false
    pad: 1
    kernel_size: 3
    stride: 1
  }
}
layer {
  name: "bn4d_branch2b"
  type: "BatchNorm"
  bottom: "res4d_branch2b"
  top: "res4d_branch2b"
  batch_norm_param {
    use_global_stats: true
  }
}
layer {
  name: "scale4d_branch2b"
  type: "Scale"
  bottom: "res4d_branch2b"
  top: "res4d_branch2b"
  scale_param {
    bias_term: true
  }
}
layer {
  name: "res4d_branch2b_relu"
  type: "ReLU"
  bottom: "res4d_branch2b"
  top: "res4d_branch2b"
}
layer {
  name: "res4d_branch2c"
  type: "Convolution"
  bottom: "res4d_branch2b"
  top: "res4d_branch2c"
  param {
    lr_mult: 1
    decay_mult: 1
  }
  convolution_param {
    num_output: 1024
    bias_term: false
    pad: 0
    kernel_size: 1
    stride: 1
  }
}
layer {
  name: "bn4d_branch2c"
  type: "BatchNorm"
  bottom: "res4d_branch2c"
  top: "res4d_branch2c"
  batch_norm_param {
    use_global_stats: true
  }
}
layer {
  name: "scale4d_branch2c"
  type: "Scale"
  bottom: "res4d_branch2c"
  top: "res4d_branch2c"
  scale_param {
    bias_term: true
  }
}
layer {
  name: "res4d"
  type: "Eltwise"
  bottom: "res4c"
  bottom: "res4d_branch2c"
  top: "res4d"
}
layer {
  name: "res4d_relu"
  type: "ReLU"
  bottom: "res4d"
  top: "res4d"
}
layer {
  name: "res4e_branch2a"
  type: "Convolution"
  bottom: "res4d"
  top: "res4e_branch2a"
  param {
    lr_mult: 1
    decay_mult: 1
  }
  convolution_param {
    num_output: 256
    bias_term: false
    pad: 0
    kernel_size: 1
    stride: 1
  }
}
layer {
  name: "bn4e_branch2a"
  type: "BatchNorm"
  bottom: "res4e_branch2a"
  top: "res4e_branch2a"
  batch_norm_param {
    use_global_stats: true
  }
}
layer {
  name: "scale4e_branch2a"
  type: "Scale"
  bottom: "res4e_branch2a"
  top: "res4e_branch2a"
  scale_param {
    bias_term: true
  }
}
layer {
  name: "res4e_branch2a_relu"
  type: "ReLU"
  bottom: "res4e_branch2a"
  top: "res4e_branch2a"
}
layer {
  name: "res4e_branch2b"
  type: "Convolution"
  bottom: "res4e_branch2a"
  top: "res4e_branch2b"
  param {
    lr_mult: 1
    decay_mult: 1
  }
  convolution_param {
    num_output: 256
    bias_term: false
    pad: 1
    kernel_size: 3
    stride: 1
  }
}
layer {
  name: "bn4e_branch2b"
  type: "BatchNorm"
  bottom: "res4e_branch2b"
  top: "res4e_branch2b"
  batch_norm_param {
    use_global_stats: true
  }
}
layer {
  name: "scale4e_branch2b"
  type: "Scale"
  bottom: "res4e_branch2b"
  top: "res4e_branch2b"
  scale_param {
    bias_term: true
  }
}
layer {
  name: "res4e_branch2b_relu"
  type: "ReLU"
  bottom: "res4e_branch2b"
  top: "res4e_branch2b"
}
layer {
  name: "res4e_branch2c"
  type: "Convolution"
  bottom: "res4e_branch2b"
  top: "res4e_branch2c"
  param {
    lr_mult: 1
    decay_mult: 1
  }
  convolution_param {
    num_output: 1024
    bias_term: false
    pad: 0
    kernel_size: 1
    stride: 1
  }
}
layer {
  name: "bn4e_branch2c"
  type: "BatchNorm"
  bottom: "res4e_branch2c"
  top: "res4e_branch2c"
  batch_norm_param {
    use_global_stats: true
  }
}
layer {
  name: "scale4e_branch2c"
  type: "Scale"
  bottom: "res4e_branch2c"
  top: "res4e_branch2c"
  scale_param {
    bias_term: true
  }
}
layer {
  name: "res4e"
  type: "Eltwise"
  bottom: "res4d"
  bottom: "res4e_branch2c"
  top: "res4e"
}
layer {
  name: "res4e_relu"
  type: "ReLU"
  bottom: "res4e"
  top: "res4e"
}
layer {
  name: "res4f_branch2a"
  type: "Convolution"
  bottom: "res4e"
  top: "res4f_branch2a"
  param {
    lr_mult: 1
    decay_mult: 1
  }
  convolution_param {
    num_output: 256
    bias_term: false
    pad: 0
    kernel_size: 1
    stride: 1
  }
}
layer {
  name: "bn4f_branch2a"
  type: "BatchNorm"
  bottom: "res4f_branch2a"
  top: "res4f_branch2a"
  batch_norm_param {
    use_global_stats: true
  }
}
layer {
  name: "scale4f_branch2a"
  type: "Scale"
  bottom: "res4f_branch2a"
  top: "res4f_branch2a"
  scale_param {
    bias_term: true
  }
}
layer {
  name: "res4f_branch2a_relu"
  type: "ReLU"
  bottom: "res4f_branch2a"
  top: "res4f_branch2a"
}
layer {
  name: "res4f_branch2b"
  type: "Convolution"
  bottom: "res4f_branch2a"
  top: "res4f_branch2b"
  param {
    lr_mult: 1
    decay_mult: 1
  }
  convolution_param {
    num_output: 256
    bias_term: false
    pad: 1
    kernel_size: 3
    stride: 1
  }
}
layer {
  name: "bn4f_branch2b"
  type: "BatchNorm"
  bottom: "res4f_branch2b"
  top: "res4f_branch2b"
  batch_norm_param {
    use_global_stats: true
  }
}
layer {
  name: "scale4f_branch2b"
  type: "Scale"
  bottom: "res4f_branch2b"
  top: "res4f_branch2b"
  scale_param {
    bias_term: true
  }
}
layer {
  name: "res4f_branch2b_relu"
  type: "ReLU"
  bottom: "res4f_branch2b"
  top: "res4f_branch2b"
}
layer {
  name: "res4f_branch2c"
  type: "Convolution"
  bottom: "res4f_branch2b"
  top: "res4f_branch2c"
  param {
    lr_mult: 1
    decay_mult: 1
  }
  convolution_param {
    num_output: 1024
    bias_term: false
    pad: 0
    kernel_size: 1
    stride: 1
  }
}
layer {
  name: "bn4f_branch2c"
  type: "BatchNorm"
  bottom: "res4f_branch2c"
  top: "res4f_branch2c"
  batch_norm_param {
    use_global_stats: true
  }
}
layer {
  name: "scale4f_branch2c"
  type: "Scale"
  bottom: "res4f_branch2c"
  top: "res4f_branch2c"
  scale_param {
    bias_term: true
  }
}
layer {
  name: "res4f"
  type: "Eltwise"
  bottom: "res4e"
  bottom: "res4f_branch2c"
  top: "res4f"
}
layer {
  name: "res4f_relu"
  type: "ReLU"
  bottom: "res4f"
  top: "res4f"
I0627 04:15:36.809025  1477 layer_factory.hpp:77] Creating layer input
I0627 04:15:36.809149  1477 db_lmdb.cpp:35] Opened lmdb ../../data_subsets/subtrain1_lmdb
I0627 04:15:36.809195  1477 net.cpp:84] Creating Layer input
I0627 04:15:36.809209  1477 net.cpp:380] input -> data
I0627 04:15:36.809244  1477 net.cpp:380] input -> label
I0627 04:15:36.809265  1477 data_transformer.cpp:25] Loading mean file from: ../../data_subsets/subtrain1_mean.binaryproto
I0627 04:15:36.813042  1477 data_layer.cpp:45] output data size: 8,3,224,224
I0627 04:15:36.826318  1477 net.cpp:122] Setting up input
I0627 04:15:36.826370  1477 net.cpp:129] Top shape: 8 3 224 224 (1204224)
I0627 04:15:36.826378  1477 net.cpp:129] Top shape: 8 (8)
I0627 04:15:36.826383  1477 net.cpp:137] Memory required for data: 4816928
I0627 04:15:36.826400  1477 layer_factory.hpp:77] Creating layer label_input_1_split
I0627 04:15:36.826423  1477 net.cpp:84] Creating Layer label_input_1_split
I0627 04:15:36.826433  1477 net.cpp:406] label_input_1_split <- label
I0627 04:15:36.826454  1477 net.cpp:380] label_input_1_split -> label_input_1_split_0
I0627 04:15:36.826468  1477 net.cpp:380] label_input_1_split -> label_input_1_split_1
I0627 04:15:36.826475  1477 net.cpp:380] label_input_1_split -> label_input_1_split_2
I0627 04:15:36.826483  1477 net.cpp:380] label_input_1_split -> label_input_1_split_3
I0627 04:15:36.826547  1477 net.cpp:122] Setting up label_input_1_split
I0627 04:15:36.826563  1477 net.cpp:129] Top shape: 8 (8)
I0627 04:15:36.826568  1477 net.cpp:129] Top shape: 8 (8)
I0627 04:15:36.826573  1477 net.cpp:129] Top shape: 8 (8)
I0627 04:15:36.826578  1477 net.cpp:129] Top shape: 8 (8)
I0627 04:15:36.826582  1477 net.cpp:137] Memory required for data: 4817056
I0627 04:15:36.826586  1477 layer_factory.hpp:77] Creating layer conv1
I0627 04:15:36.826612  1477 net.cpp:84] Creating Layer conv1
I0627 04:15:36.826617  1477 net.cpp:406] conv1 <- data
I0627 04:15:36.826625  1477 net.cpp:380] conv1 -> conv1
I0627 04:15:37.018126  1477 net.cpp:122] Setting up conv1
I0627 04:15:37.018180  1477 net.cpp:129] Top shape: 8 64 112 112 (6422528)
I0627 04:15:37.018187  1477 net.cpp:137] Memory required for data: 30507168
I0627 04:15:37.018246  1477 layer_factory.hpp:77] Creating layer bn_conv1
I0627 04:15:37.018275  1477 net.cpp:84] Creating Layer bn_conv1
I0627 04:15:37.018285  1477 net.cpp:406] bn_conv1 <- conv1
I0627 04:15:37.018293  1477 net.cpp:367] bn_conv1 -> conv1 (in-place)
I0627 04:15:37.018491  1477 net.cpp:122] Setting up bn_conv1
I0627 04:15:37.018508  1477 net.cpp:129] Top shape: 8 64 112 112 (6422528)
I0627 04:15:37.018513  1477 net.cpp:137] Memory required for data: 56197280
I0627 04:15:37.018527  1477 layer_factory.hpp:77] Creating layer scale_conv1
I0627 04:15:37.018543  1477 net.cpp:84] Creating Layer scale_conv1
I0627 04:15:37.018548  1477 net.cpp:406] scale_conv1 <- conv1
I0627 04:15:37.018554  1477 net.cpp:367] scale_conv1 -> conv1 (in-place)
I0627 04:15:37.018616  1477 layer_factory.hpp:77] Creating layer scale_conv1
I0627 04:15:37.018766  1477 net.cpp:122] Setting up scale_conv1
I0627 04:15:37.018784  1477 net.cpp:129] Top shape: 8 64 112 112 (6422528)
I0627 04:15:37.018787  1477 net.cpp:137] Memory required for data: 81887392
I0627 04:15:37.018795  1477 layer_factory.hpp:77] Creating layer conv1_relu
I0627 04:15:37.018805  1477 net.cpp:84] Creating Layer conv1_relu
I0627 04:15:37.018808  1477 net.cpp:406] conv1_relu <- conv1
I0627 04:15:37.018815  1477 net.cpp:367] conv1_relu -> conv1 (in-place)
I0627 04:15:37.018965  1477 net.cpp:122] Setting up conv1_relu
I0627 04:15:37.018981  1477 net.cpp:129] Top shape: 8 64 112 112 (6422528)
I0627 04:15:37.018985  1477 net.cpp:137] Memory required for data: 107577504
I0627 04:15:37.018990  1477 layer_factory.hpp:77] Creating layer pool1
I0627 04:15:37.019003  1477 net.cpp:84] Creating Layer pool1
I0627 04:15:37.019007  1477 net.cpp:406] pool1 <- conv1
I0627 04:15:37.019014  1477 net.cpp:380] pool1 -> pool1
I0627 04:15:37.019075  1477 net.cpp:122] Setting up pool1
I0627 04:15:37.019091  1477 net.cpp:129] Top shape: 8 64 56 56 (1605632)
I0627 04:15:37.019095  1477 net.cpp:137] Memory required for data: 114000032
I0627 04:15:37.019099  1477 layer_factory.hpp:77] Creating layer pool1_pool1_0_split
I0627 04:15:37.019107  1477 net.cpp:84] Creating Layer pool1_pool1_0_split
I0627 04:15:37.019111  1477 net.cpp:406] pool1_pool1_0_split <- pool1
I0627 04:15:37.019116  1477 net.cpp:380] pool1_pool1_0_split -> pool1_pool1_0_split_0
I0627 04:15:37.019125  1477 net.cpp:380] pool1_pool1_0_split -> pool1_pool1_0_split_1
I0627 04:15:37.019160  1477 net.cpp:122] Setting up pool1_pool1_0_split
I0627 04:15:37.019173  1477 net.cpp:129] Top shape: 8 64 56 56 (1605632)
I0627 04:15:37.019179  1477 net.cpp:129] Top shape: 8 64 56 56 (1605632)
I0627 04:15:37.019182  1477 net.cpp:137] Memory required for data: 126845088
I0627 04:15:37.019186  1477 layer_factory.hpp:77] Creating layer res2a_branch1
I0627 04:15:37.019201  1477 net.cpp:84] Creating Layer res2a_branch1
I0627 04:15:37.019206  1477 net.cpp:406] res2a_branch1 <- pool1_pool1_0_split_0
I0627 04:15:37.019212  1477 net.cpp:380] res2a_branch1 -> res2a_branch1
I0627 04:15:37.020105  1477 net.cpp:122] Setting up res2a_branch1
I0627 04:15:37.020128  1477 net.cpp:129] Top shape: 8 256 56 56 (6422528)
I0627 04:15:37.020133  1477 net.cpp:137] Memory required for data: 152535200
I0627 04:15:37.020148  1477 layer_factory.hpp:77] Creating layer bn2a_branch1
I0627 04:15:37.020155  1477 net.cpp:84] Creating Layer bn2a_branch1
I0627 04:15:37.020160  1477 net.cpp:406] bn2a_branch1 <- res2a_branch1
I0627 04:15:37.020165  1477 net.cpp:367] bn2a_branch1 -> res2a_branch1 (in-place)
I0627 04:15:37.020840  1477 net.cpp:122] Setting up bn2a_branch1
I0627 04:15:37.020859  1477 net.cpp:129] Top shape: 8 256 56 56 (6422528)
I0627 04:15:37.020864  1477 net.cpp:137] Memory required for data: 178225312
I0627 04:15:37.020875  1477 layer_factory.hpp:77] Creating layer scale2a_branch1
I0627 04:15:37.020884  1477 net.cpp:84] Creating Layer scale2a_branch1
I0627 04:15:37.020889  1477 net.cpp:406] scale2a_branch1 <- res2a_branch1
I0627 04:15:37.020895  1477 net.cpp:367] scale2a_branch1 -> res2a_branch1 (in-place)
I0627 04:15:37.020934  1477 layer_factory.hpp:77] Creating layer scale2a_branch1
I0627 04:15:37.021059  1477 net.cpp:122] Setting up scale2a_branch1
I0627 04:15:37.021076  1477 net.cpp:129] Top shape: 8 256 56 56 (6422528)
I0627 04:15:37.021080  1477 net.cpp:137] Memory required for data: 203915424
I0627 04:15:37.021087  1477 layer_factory.hpp:77] Creating layer res2a_branch2a
I0627 04:15:37.021097  1477 net.cpp:84] Creating Layer res2a_branch2a
I0627 04:15:37.021102  1477 net.cpp:406] res2a_branch2a <- pool1_pool1_0_split_1
I0627 04:15:37.021114  1477 net.cpp:380] res2a_branch2a -> res2a_branch2a
I0627 04:15:37.021920  1477 net.cpp:122] Setting up res2a_branch2a
I0627 04:15:37.021940  1477 net.cpp:129] Top shape: 8 64 56 56 (1605632)
I0627 04:15:37.021945  1477 net.cpp:137] Memory required for data: 210337952
I0627 04:15:37.021952  1477 layer_factory.hpp:77] Creating layer bn2a_branch2a
I0627 04:15:37.021962  1477 net.cpp:84] Creating Layer bn2a_branch2a
I0627 04:15:37.021966  1477 net.cpp:406] bn2a_branch2a <- res2a_branch2a
I0627 04:15:37.021972  1477 net.cpp:367] bn2a_branch2a -> res2a_branch2a (in-place)
I0627 04:15:37.022157  1477 net.cpp:122] Setting up bn2a_branch2a
I0627 04:15:37.022173  1477 net.cpp:129] Top shape: 8 64 56 56 (1605632)
I0627 04:15:37.022177  1477 net.cpp:137] Memory required for data: 216760480
I0627 04:15:37.022189  1477 layer_factory.hpp:77] Creating layer scale2a_branch2a
I0627 04:15:37.022199  1477 net.cpp:84] Creating Layer scale2a_branch2a
I0627 04:15:37.022204  1477 net.cpp:406] scale2a_branch2a <- res2a_branch2a
I0627 04:15:37.022209  1477 net.cpp:367] scale2a_branch2a -> res2a_branch2a (in-place)
I0627 04:15:37.022256  1477 layer_factory.hpp:77] Creating layer scale2a_branch2a
I0627 04:15:37.022384  1477 net.cpp:122] Setting up scale2a_branch2a
I0627 04:15:37.022399  1477 net.cpp:129] Top shape: 8 64 56 56 (1605632)
I0627 04:15:37.022403  1477 net.cpp:137] Memory required for data: 223183008
I0627 04:15:37.022410  1477 layer_factory.hpp:77] Creating layer res2a_branch2a_relu
I0627 04:15:37.022420  1477 net.cpp:84] Creating Layer res2a_branch2a_relu
I0627 04:15:37.022424  1477 net.cpp:406] res2a_branch2a_relu <- res2a_branch2a
I0627 04:15:37.022429  1477 net.cpp:367] res2a_branch2a_relu -> res2a_branch2a (in-place)
I0627 04:15:37.022675  1477 net.cpp:122] Setting up res2a_branch2a_relu
I0627 04:15:37.022693  1477 net.cpp:129] Top shape: 8 64 56 56 (1605632)
I0627 04:15:37.022698  1477 net.cpp:137] Memory required for data: 229605536
I0627 04:15:37.022702  1477 layer_factory.hpp:77] Creating layer res2a_branch2b
I0627 04:15:37.022716  1477 net.cpp:84] Creating Layer res2a_branch2b
I0627 04:15:37.022719  1477 net.cpp:406] res2a_branch2b <- res2a_branch2a
I0627 04:15:37.022728  1477 net.cpp:380] res2a_branch2b -> res2a_branch2b
I0627 04:15:37.024133  1477 net.cpp:122] Setting up res2a_branch2b
I0627 04:15:37.024154  1477 net.cpp:129] Top shape: 8 64 56 56 (1605632)
I0627 04:15:37.024159  1477 net.cpp:137] Memory required for data: 236028064
I0627 04:15:37.024165  1477 layer_factory.hpp:77] Creating layer bn2a_branch2b
I0627 04:15:37.024178  1477 net.cpp:84] Creating Layer bn2a_branch2b
I0627 04:15:37.024183  1477 net.cpp:406] bn2a_branch2b <- res2a_branch2b
I0627 04:15:37.024188  1477 net.cpp:367] bn2a_branch2b -> res2a_branch2b (in-place)
I0627 04:15:37.024387  1477 net.cpp:122] Setting up bn2a_branch2b
I0627 04:15:37.024404  1477 net.cpp:129] Top shape: 8 64 56 56 (1605632)
I0627 04:15:37.024407  1477 net.cpp:137] Memory required for data: 242450592
I0627 04:15:37.024416  1477 layer_factory.hpp:77] Creating layer scale2a_branch2b
I0627 04:15:37.024423  1477 net.cpp:84] Creating Layer scale2a_branch2b
I0627 04:15:37.024428  1477 net.cpp:406] scale2a_branch2b <- res2a_branch2b
I0627 04:15:37.024433  1477 net.cpp:367] scale2a_branch2b -> res2a_branch2b (in-place)
I0627 04:15:37.024482  1477 layer_factory.hpp:77] Creating layer scale2a_branch2b
I0627 04:15:37.024611  1477 net.cpp:122] Setting up scale2a_branch2b
I0627 04:15:37.024626  1477 net.cpp:129] Top shape: 8 64 56 56 (1605632)
I0627 04:15:37.024631  1477 net.cpp:137] Memory required for data: 248873120
I0627 04:15:37.024652  1477 layer_factory.hpp:77] Creating layer res2a_branch2b_relu
I0627 04:15:37.024662  1477 net.cpp:84] Creating Layer res2a_branch2b_relu
I0627 04:15:37.024665  1477 net.cpp:406] res2a_branch2b_relu <- res2a_branch2b
I0627 04:15:37.024672  1477 net.cpp:367] res2a_branch2b_relu -> res2a_branch2b (in-place)
I0627 04:15:37.024929  1477 net.cpp:122] Setting up res2a_branch2b_relu
I0627 04:15:37.024947  1477 net.cpp:129] Top shape: 8 64 56 56 (1605632)
I0627 04:15:37.024951  1477 net.cpp:137] Memory required for data: 255295648
I0627 04:15:37.024955  1477 layer_factory.hpp:77] Creating layer res2a_branch2c
I0627 04:15:37.024971  1477 net.cpp:84] Creating Layer res2a_branch2c
I0627 04:15:37.024976  1477 net.cpp:406] res2a_branch2c <- res2a_branch2b
I0627 04:15:37.024982  1477 net.cpp:380] res2a_branch2c -> res2a_branch2c
I0627 04:15:37.025964  1477 net.cpp:122] Setting up res2a_branch2c
I0627 04:15:37.025990  1477 net.cpp:129] Top shape: 8 256 56 56 (6422528)
I0627 04:15:37.025995  1477 net.cpp:137] Memory required for data: 280985760
I0627 04:15:37.026002  1477 layer_factory.hpp:77] Creating layer bn2a_branch2c
I0627 04:15:37.026010  1477 net.cpp:84] Creating Layer bn2a_branch2c
I0627 04:15:37.026015  1477 net.cpp:406] bn2a_branch2c <- res2a_branch2c
I0627 04:15:37.026021  1477 net.cpp:367] bn2a_branch2c -> res2a_branch2c (in-place)
I0627 04:15:37.026219  1477 net.cpp:122] Setting up bn2a_branch2c
I0627 04:15:37.026237  1477 net.cpp:129] Top shape: 8 256 56 56 (6422528)
I0627 04:15:37.026240  1477 net.cpp:137] Memory required for data: 306675872
I0627 04:15:37.026249  1477 layer_factory.hpp:77] Creating layer scale2a_branch2c
I0627 04:15:37.026257  1477 net.cpp:84] Creating Layer scale2a_branch2c
I0627 04:15:37.026260  1477 net.cpp:406] scale2a_branch2c <- res2a_branch2c
I0627 04:15:37.026266  1477 net.cpp:367] scale2a_branch2c -> res2a_branch2c (in-place)
I0627 04:15:37.026311  1477 layer_factory.hpp:77] Creating layer scale2a_branch2c
I0627 04:15:37.026438  1477 net.cpp:122] Setting up scale2a_branch2c
I0627 04:15:37.026453  1477 net.cpp:129] Top shape: 8 256 56 56 (6422528)
I0627 04:15:37.026458  1477 net.cpp:137] Memory required for data: 332365984
I0627 04:15:37.026464  1477 layer_factory.hpp:77] Creating layer res2a
I0627 04:15:37.026479  1477 net.cpp:84] Creating Layer res2a
I0627 04:15:37.026484  1477 net.cpp:406] res2a <- res2a_branch1
I0627 04:15:37.026487  1477 net.cpp:406] res2a <- res2a_branch2c
I0627 04:15:37.026495  1477 net.cpp:380] res2a -> res2a
I0627 04:15:37.026526  1477 net.cpp:122] Setting up res2a
I0627 04:15:37.026540  1477 net.cpp:129] Top shape: 8 256 56 56 (6422528)
I0627 04:15:37.026545  1477 net.cpp:137] Memory required for data: 358056096
I0627 04:15:37.026548  1477 layer_factory.hpp:77] Creating layer res2a_relu
I0627 04:15:37.026557  1477 net.cpp:84] Creating Layer res2a_relu
I0627 04:15:37.026562  1477 net.cpp:406] res2a_relu <- res2a
I0627 04:15:37.026567  1477 net.cpp:367] res2a_relu -> res2a (in-place)
I0627 04:15:37.026726  1477 net.cpp:122] Setting up res2a_relu
I0627 04:15:37.026742  1477 net.cpp:129] Top shape: 8 256 56 56 (6422528)
I0627 04:15:37.026747  1477 net.cpp:137] Memory required for data: 383746208
I0627 04:15:37.026751  1477 layer_factory.hpp:77] Creating layer res2a_res2a_relu_0_split
I0627 04:15:37.026759  1477 net.cpp:84] Creating Layer res2a_res2a_relu_0_split
I0627 04:15:37.026764  1477 net.cpp:406] res2a_res2a_relu_0_split <- res2a
I0627 04:15:37.026772  1477 net.cpp:380] res2a_res2a_relu_0_split -> res2a_res2a_relu_0_split_0
I0627 04:15:37.026779  1477 net.cpp:380] res2a_res2a_relu_0_split -> res2a_res2a_relu_0_split_1
I0627 04:15:37.026823  1477 net.cpp:122] Setting up res2a_res2a_relu_0_split
I0627 04:15:37.026839  1477 net.cpp:129] Top shape: 8 256 56 56 (6422528)
I0627 04:15:37.026845  1477 net.cpp:129] Top shape: 8 256 56 56 (6422528)
I0627 04:15:37.026849  1477 net.cpp:137] Memory required for data: 435126432
I0627 04:15:37.026852  1477 layer_factory.hpp:77] Creating layer res2b_branch2a
I0627 04:15:37.026875  1477 net.cpp:84] Creating Layer res2b_branch2a
I0627 04:15:37.026880  1477 net.cpp:406] res2b_branch2a <- res2a_res2a_relu_0_split_0
I0627 04:15:37.026888  1477 net.cpp:380] res2b_branch2a -> res2b_branch2a
I0627 04:15:37.027755  1477 net.cpp:122] Setting up res2b_branch2a
I0627 04:15:37.027776  1477 net.cpp:129] Top shape: 8 64 56 56 (1605632)
I0627 04:15:37.027779  1477 net.cpp:137] Memory required for data: 441548960
I0627 04:15:37.027786  1477 layer_factory.hpp:77] Creating layer bn2b_branch2a
I0627 04:15:37.027803  1477 net.cpp:84] Creating Layer bn2b_branch2a
I0627 04:15:37.027811  1477 net.cpp:406] bn2b_branch2a <- res2b_branch2a
I0627 04:15:37.027818  1477 net.cpp:367] bn2b_branch2a -> res2b_branch2a (in-place)
I0627 04:15:37.028013  1477 net.cpp:122] Setting up bn2b_branch2a
I0627 04:15:37.028029  1477 net.cpp:129] Top shape: 8 64 56 56 (1605632)
I0627 04:15:37.028033  1477 net.cpp:137] Memory required for data: 447971488
I0627 04:15:37.028049  1477 layer_factory.hpp:77] Creating layer scale2b_branch2a
I0627 04:15:37.028057  1477 net.cpp:84] Creating Layer scale2b_branch2a
I0627 04:15:37.028061  1477 net.cpp:406] scale2b_branch2a <- res2b_branch2a
I0627 04:15:37.028066  1477 net.cpp:367] scale2b_branch2a -> res2b_branch2a (in-place)
I0627 04:15:37.028117  1477 layer_factory.hpp:77] Creating layer scale2b_branch2a
I0627 04:15:37.028255  1477 net.cpp:122] Setting up scale2b_branch2a
I0627 04:15:37.028270  1477 net.cpp:129] Top shape: 8 64 56 56 (1605632)
I0627 04:15:37.028275  1477 net.cpp:137] Memory required for data: 454394016
I0627 04:15:37.028281  1477 layer_factory.hpp:77] Creating layer res2b_branch2a_relu
I0627 04:15:37.028288  1477 net.cpp:84] Creating Layer res2b_branch2a_relu
I0627 04:15:37.028292  1477 net.cpp:406] res2b_branch2a_relu <- res2b_branch2a
I0627 04:15:37.028297  1477 net.cpp:367] res2b_branch2a_relu -> res2b_branch2a (in-place)
I0627 04:15:37.028550  1477 net.cpp:122] Setting up res2b_branch2a_relu
I0627 04:15:37.028569  1477 net.cpp:129] Top shape: 8 64 56 56 (1605632)
I0627 04:15:37.028573  1477 net.cpp:137] Memory required for data: 460816544
I0627 04:15:37.028578  1477 layer_factory.hpp:77] Creating layer res2b_branch2b
I0627 04:15:37.028590  1477 net.cpp:84] Creating Layer res2b_branch2b
I0627 04:15:37.028594  1477 net.cpp:406] res2b_branch2b <- res2b_branch2a
I0627 04:15:37.028600  1477 net.cpp:380] res2b_branch2b -> res2b_branch2b
I0627 04:15:37.029382  1477 net.cpp:122] Setting up res2b_branch2b
I0627 04:15:37.029402  1477 net.cpp:129] Top shape: 8 64 56 56 (1605632)
I0627 04:15:37.029407  1477 net.cpp:137] Memory required for data: 467239072
I0627 04:15:37.029413  1477 layer_factory.hpp:77] Creating layer bn2b_branch2b
I0627 04:15:37.029423  1477 net.cpp:84] Creating Layer bn2b_branch2b
I0627 04:15:37.029428  1477 net.cpp:406] bn2b_branch2b <- res2b_branch2b
I0627 04:15:37.029434  1477 net.cpp:367] bn2b_branch2b -> res2b_branch2b (in-place)
I0627 04:15:37.029635  1477 net.cpp:122] Setting up bn2b_branch2b
I0627 04:15:37.029651  1477 net.cpp:129] Top shape: 8 64 56 56 (1605632)
I0627 04:15:37.029655  1477 net.cpp:137] Memory required for data: 473661600
I0627 04:15:37.029664  1477 layer_factory.hpp:77] Creating layer scale2b_branch2b
I0627 04:15:37.029675  1477 net.cpp:84] Creating Layer scale2b_branch2b
I0627 04:15:37.029678  1477 net.cpp:406] scale2b_branch2b <- res2b_branch2b
I0627 04:15:37.029685  1477 net.cpp:367] scale2b_branch2b -> res2b_branch2b (in-place)
I0627 04:15:37.029729  1477 layer_factory.hpp:77] Creating layer scale2b_branch2b
I0627 04:15:37.029880  1477 net.cpp:122] Setting up scale2b_branch2b
I0627 04:15:37.029896  1477 net.cpp:129] Top shape: 8 64 56 56 (1605632)
I0627 04:15:37.029899  1477 net.cpp:137] Memory required for data: 480084128
I0627 04:15:37.029906  1477 layer_factory.hpp:77] Creating layer res2b_branch2b_relu
I0627 04:15:37.029919  1477 net.cpp:84] Creating Layer res2b_branch2b_relu
I0627 04:15:37.029923  1477 net.cpp:406] res2b_branch2b_relu <- res2b_branch2b
I0627 04:15:37.029932  1477 net.cpp:367] res2b_branch2b_relu -> res2b_branch2b (in-place)
I0627 04:15:37.030205  1477 net.cpp:122] Setting up res2b_branch2b_relu
I0627 04:15:37.030223  1477 net.cpp:129] Top shape: 8 64 56 56 (1605632)
I0627 04:15:37.030228  1477 net.cpp:137] Memory required for data: 486506656
I0627 04:15:37.030232  1477 layer_factory.hpp:77] Creating layer res2b_branch2c
I0627 04:15:37.030246  1477 net.cpp:84] Creating Layer res2b_branch2c
I0627 04:15:37.030249  1477 net.cpp:406] res2b_branch2c <- res2b_branch2b
I0627 04:15:37.030257  1477 net.cpp:380] res2b_branch2c -> res2b_branch2c
I0627 04:15:37.031291  1477 net.cpp:122] Setting up res2b_branch2c
I0627 04:15:37.031311  1477 net.cpp:129] Top shape: 8 256 56 56 (6422528)
I0627 04:15:37.031314  1477 net.cpp:137] Memory required for data: 512196768
I0627 04:15:37.031322  1477 layer_factory.hpp:77] Creating layer bn2b_branch2c
I0627 04:15:37.031332  1477 net.cpp:84] Creating Layer bn2b_branch2c
I0627 04:15:37.031337  1477 net.cpp:406] bn2b_branch2c <- res2b_branch2c
I0627 04:15:37.031342  1477 net.cpp:367] bn2b_branch2c -> res2b_branch2c (in-place)
I0627 04:15:37.031543  1477 net.cpp:122] Setting up bn2b_branch2c
I0627 04:15:37.031559  1477 net.cpp:129] Top shape: 8 256 56 56 (6422528)
I0627 04:15:37.031563  1477 net.cpp:137] Memory required for data: 537886880
I0627 04:15:37.031572  1477 layer_factory.hpp:77] Creating layer scale2b_branch2c
I0627 04:15:37.031582  1477 net.cpp:84] Creating Layer scale2b_branch2c
I0627 04:15:37.031586  1477 net.cpp:406] scale2b_branch2c <- res2b_branch2c
I0627 04:15:37.031592  1477 net.cpp:367] scale2b_branch2c -> res2b_branch2c (in-place)
I0627 04:15:37.031639  1477 layer_factory.hpp:77] Creating layer scale2b_branch2c
I0627 04:15:37.031771  1477 net.cpp:122] Setting up scale2b_branch2c
I0627 04:15:37.031787  1477 net.cpp:129] Top shape: 8 256 56 56 (6422528)
I0627 04:15:37.031791  1477 net.cpp:137] Memory required for data: 563576992
I0627 04:15:37.031798  1477 layer_factory.hpp:77] Creating layer res2b
I0627 04:15:37.031805  1477 net.cpp:84] Creating Layer res2b
I0627 04:15:37.031810  1477 net.cpp:406] res2b <- res2a_res2a_relu_0_split_1
I0627 04:15:37.031813  1477 net.cpp:406] res2b <- res2b_branch2c
I0627 04:15:37.031821  1477 net.cpp:380] res2b -> res2b
I0627 04:15:37.031848  1477 net.cpp:122] Setting up res2b
I0627 04:15:37.031864  1477 net.cpp:129] Top shape: 8 256 56 56 (6422528)
I0627 04:15:37.031869  1477 net.cpp:137] Memory required for data: 589267104
I0627 04:15:37.031873  1477 layer_factory.hpp:77] Creating layer res2b_relu
I0627 04:15:37.031879  1477 net.cpp:84] Creating Layer res2b_relu
I0627 04:15:37.031883  1477 net.cpp:406] res2b_relu <- res2b
I0627 04:15:37.031888  1477 net.cpp:367] res2b_relu -> res2b (in-place)
I0627 04:15:37.032135  1477 net.cpp:122] Setting up res2b_relu
I0627 04:15:37.032152  1477 net.cpp:129] Top shape: 8 256 56 56 (6422528)
I0627 04:15:37.032156  1477 net.cpp:137] Memory required for data: 614957216
I0627 04:15:37.032161  1477 layer_factory.hpp:77] Creating layer res2b_res2b_relu_0_split
I0627 04:15:37.032167  1477 net.cpp:84] Creating Layer res2b_res2b_relu_0_split
I0627 04:15:37.032171  1477 net.cpp:406] res2b_res2b_relu_0_split <- res2b
I0627 04:15:37.032181  1477 net.cpp:380] res2b_res2b_relu_0_split -> res2b_res2b_relu_0_split_0
I0627 04:15:37.032187  1477 net.cpp:380] res2b_res2b_relu_0_split -> res2b_res2b_relu_0_split_1
I0627 04:15:37.032234  1477 net.cpp:122] Setting up res2b_res2b_relu_0_split
I0627 04:15:37.032249  1477 net.cpp:129] Top shape: 8 256 56 56 (6422528)
I0627 04:15:37.032254  1477 net.cpp:129] Top shape: 8 256 56 56 (6422528)
I0627 04:15:37.032258  1477 net.cpp:137] Memory required for data: 666337440
I0627 04:15:37.032263  1477 layer_factory.hpp:77] Creating layer res2c_branch2a
I0627 04:15:37.032274  1477 net.cpp:84] Creating Layer res2c_branch2a
I0627 04:15:37.032279  1477 net.cpp:406] res2c_branch2a <- res2b_res2b_relu_0_split_0
I0627 04:15:37.032286  1477 net.cpp:380] res2c_branch2a -> res2c_branch2a
I0627 04:15:37.033160  1477 net.cpp:122] Setting up res2c_branch2a
I0627 04:15:37.033181  1477 net.cpp:129] Top shape: 8 64 56 56 (1605632)
I0627 04:15:37.033198  1477 net.cpp:137] Memory required for data: 672759968
I0627 04:15:37.033205  1477 layer_factory.hpp:77] Creating layer bn2c_branch2a
I0627 04:15:37.033215  1477 net.cpp:84] Creating Layer bn2c_branch2a
I0627 04:15:37.033221  1477 net.cpp:406] bn2c_branch2a <- res2c_branch2a
I0627 04:15:37.033228  1477 net.cpp:367] bn2c_branch2a -> res2c_branch2a (in-place)
I0627 04:15:37.033430  1477 net.cpp:122] Setting up bn2c_branch2a
I0627 04:15:37.033447  1477 net.cpp:129] Top shape: 8 64 56 56 (1605632)
I0627 04:15:37.033450  1477 net.cpp:137] Memory required for data: 679182496
I0627 04:15:37.033465  1477 layer_factory.hpp:77] Creating layer scale2c_branch2a
I0627 04:15:37.033474  1477 net.cpp:84] Creating Layer scale2c_branch2a
I0627 04:15:37.033478  1477 net.cpp:406] scale2c_branch2a <- res2c_branch2a
I0627 04:15:37.033483  1477 net.cpp:367] scale2c_branch2a -> res2c_branch2a (in-place)
I0627 04:15:37.033530  1477 layer_factory.hpp:77] Creating layer scale2c_branch2a
I0627 04:15:37.033670  1477 net.cpp:122] Setting up scale2c_branch2a
I0627 04:15:37.033685  1477 net.cpp:129] Top shape: 8 64 56 56 (1605632)
I0627 04:15:37.033689  1477 net.cpp:137] Memory required for data: 685605024
I0627 04:15:37.033696  1477 layer_factory.hpp:77] Creating layer res2c_branch2a_relu
I0627 04:15:37.033704  1477 net.cpp:84] Creating Layer res2c_branch2a_relu
I0627 04:15:37.033707  1477 net.cpp:406] res2c_branch2a_relu <- res2c_branch2a
I0627 04:15:37.033715  1477 net.cpp:367] res2c_branch2a_relu -> res2c_branch2a (in-place)
I0627 04:15:37.033983  1477 net.cpp:122] Setting up res2c_branch2a_relu
I0627 04:15:37.034003  1477 net.cpp:129] Top shape: 8 64 56 56 (1605632)
I0627 04:15:37.034008  1477 net.cpp:137] Memory required for data: 692027552
I0627 04:15:37.034011  1477 layer_factory.hpp:77] Creating layer res2c_branch2b
I0627 04:15:37.034024  1477 net.cpp:84] Creating Layer res2c_branch2b
I0627 04:15:37.034029  1477 net.cpp:406] res2c_branch2b <- res2c_branch2a
I0627 04:15:37.034039  1477 net.cpp:380] res2c_branch2b -> res2c_branch2b
I0627 04:15:37.034822  1477 net.cpp:122] Setting up res2c_branch2b
I0627 04:15:37.034843  1477 net.cpp:129] Top shape: 8 64 56 56 (1605632)
I0627 04:15:37.034850  1477 net.cpp:137] Memory required for data: 698450080
I0627 04:15:37.034857  1477 layer_factory.hpp:77] Creating layer bn2c_branch2b
I0627 04:15:37.034864  1477 net.cpp:84] Creating Layer bn2c_branch2b
I0627 04:15:37.034868  1477 net.cpp:406] bn2c_branch2b <- res2c_branch2b
I0627 04:15:37.034874  1477 net.cpp:367] bn2c_branch2b -> res2c_branch2b (in-place)
I0627 04:15:37.035084  1477 net.cpp:122] Setting up bn2c_branch2b
I0627 04:15:37.035100  1477 net.cpp:129] Top shape: 8 64 56 56 (1605632)
I0627 04:15:37.035104  1477 net.cpp:137] Memory required for data: 704872608
I0627 04:15:37.035112  1477 layer_factory.hpp:77] Creating layer scale2c_branch2b
I0627 04:15:37.035120  1477 net.cpp:84] Creating Layer scale2c_branch2b
I0627 04:15:37.035125  1477 net.cpp:406] scale2c_branch2b <- res2c_branch2b
I0627 04:15:37.035130  1477 net.cpp:367] scale2c_branch2b -> res2c_branch2b (in-place)
I0627 04:15:37.035181  1477 layer_factory.hpp:77] Creating layer scale2c_branch2b
I0627 04:15:37.035318  1477 net.cpp:122] Setting up scale2c_branch2b
I0627 04:15:37.035334  1477 net.cpp:129] Top shape: 8 64 56 56 (1605632)
I0627 04:15:37.035338  1477 net.cpp:137] Memory required for data: 711295136
I0627 04:15:37.035346  1477 layer_factory.hpp:77] Creating layer res2c_branch2b_relu
I0627 04:15:37.035352  1477 net.cpp:84] Creating Layer res2c_branch2b_relu
I0627 04:15:37.035356  1477 net.cpp:406] res2c_branch2b_relu <- res2c_branch2b
I0627 04:15:37.035362  1477 net.cpp:367] res2c_branch2b_relu -> res2c_branch2b (in-place)
I0627 04:15:37.035622  1477 net.cpp:122] Setting up res2c_branch2b_relu
I0627 04:15:37.035641  1477 net.cpp:129] Top shape: 8 64 56 56 (1605632)
I0627 04:15:37.035646  1477 net.cpp:137] Memory required for data: 717717664
I0627 04:15:37.035650  1477 layer_factory.hpp:77] Creating layer res2c_branch2c
I0627 04:15:37.035662  1477 net.cpp:84] Creating Layer res2c_branch2c
I0627 04:15:37.035681  1477 net.cpp:406] res2c_branch2c <- res2c_branch2b
I0627 04:15:37.035689  1477 net.cpp:380] res2c_branch2c -> res2c_branch2c
I0627 04:15:37.036702  1477 net.cpp:122] Setting up res2c_branch2c
I0627 04:15:37.036722  1477 net.cpp:129] Top shape: 8 256 56 56 (6422528)
I0627 04:15:37.036727  1477 net.cpp:137] Memory required for data: 743407776
I0627 04:15:37.036733  1477 layer_factory.hpp:77] Creating layer bn2c_branch2c
I0627 04:15:37.036741  1477 net.cpp:84] Creating Layer bn2c_branch2c
I0627 04:15:37.036746  1477 net.cpp:406] bn2c_branch2c <- res2c_branch2c
I0627 04:15:37.036753  1477 net.cpp:367] bn2c_branch2c -> res2c_branch2c (in-place)
I0627 04:15:37.036981  1477 net.cpp:122] Setting up bn2c_branch2c
I0627 04:15:37.036998  1477 net.cpp:129] Top shape: 8 256 56 56 (6422528)
I0627 04:15:37.037000  1477 net.cpp:137] Memory required for data: 769097888
I0627 04:15:37.037019  1477 layer_factory.hpp:77] Creating layer scale2c_branch2c
I0627 04:15:37.037026  1477 net.cpp:84] Creating Layer scale2c_branch2c
I0627 04:15:37.037031  1477 net.cpp:406] scale2c_branch2c <- res2c_branch2c
I0627 04:15:37.037036  1477 net.cpp:367] scale2c_branch2c -> res2c_branch2c (in-place)
I0627 04:15:37.037088  1477 layer_factory.hpp:77] Creating layer scale2c_branch2c
I0627 04:15:37.037227  1477 net.cpp:122] Setting up scale2c_branch2c
I0627 04:15:37.037243  1477 net.cpp:129] Top shape: 8 256 56 56 (6422528)
I0627 04:15:37.037247  1477 net.cpp:137] Memory required for data: 794788000
I0627 04:15:37.037255  1477 layer_factory.hpp:77] Creating layer res2c
I0627 04:15:37.037261  1477 net.cpp:84] Creating Layer res2c
I0627 04:15:37.037266  1477 net.cpp:406] res2c <- res2b_res2b_relu_0_split_1
I0627 04:15:37.037271  1477 net.cpp:406] res2c <- res2c_branch2c
I0627 04:15:37.037278  1477 net.cpp:380] res2c -> res2c
I0627 04:15:37.037307  1477 net.cpp:122] Setting up res2c
I0627 04:15:37.037322  1477 net.cpp:129] Top shape: 8 256 56 56 (6422528)
I0627 04:15:37.037325  1477 net.cpp:137] Memory required for data: 820478112
I0627 04:15:37.037329  1477 layer_factory.hpp:77] Creating layer res2c_relu
I0627 04:15:37.037338  1477 net.cpp:84] Creating Layer res2c_relu
I0627 04:15:37.037343  1477 net.cpp:406] res2c_relu <- res2c
I0627 04:15:37.037348  1477 net.cpp:367] res2c_relu -> res2c (in-place)
I0627 04:15:37.037506  1477 net.cpp:122] Setting up res2c_relu
I0627 04:15:37.037523  1477 net.cpp:129] Top shape: 8 256 56 56 (6422528)
I0627 04:15:37.037528  1477 net.cpp:137] Memory required for data: 846168224
I0627 04:15:37.037531  1477 layer_factory.hpp:77] Creating layer res2c_res2c_relu_0_split
I0627 04:15:37.037539  1477 net.cpp:84] Creating Layer res2c_res2c_relu_0_split
I0627 04:15:37.037542  1477 net.cpp:406] res2c_res2c_relu_0_split <- res2c
I0627 04:15:37.037550  1477 net.cpp:380] res2c_res2c_relu_0_split -> res2c_res2c_relu_0_split_0
I0627 04:15:37.037557  1477 net.cpp:380] res2c_res2c_relu_0_split -> res2c_res2c_relu_0_split_1
I0627 04:15:37.037601  1477 net.cpp:122] Setting up res2c_res2c_relu_0_split
I0627 04:15:37.037616  1477 net.cpp:129] Top shape: 8 256 56 56 (6422528)
I0627 04:15:37.037621  1477 net.cpp:129] Top shape: 8 256 56 56 (6422528)
I0627 04:15:37.037624  1477 net.cpp:137] Memory required for data: 897548448
I0627 04:15:37.037628  1477 layer_factory.hpp:77] Creating layer res3a_branch1
I0627 04:15:37.037639  1477 net.cpp:84] Creating Layer res3a_branch1
I0627 04:15:37.037644  1477 net.cpp:406] res3a_branch1 <- res2c_res2c_relu_0_split_0
I0627 04:15:37.037653  1477 net.cpp:380] res3a_branch1 -> res3a_branch1
I0627 04:15:37.039273  1477 net.cpp:122] Setting up res3a_branch1
I0627 04:15:37.039294  1477 net.cpp:129] Top shape: 8 512 28 28 (3211264)
I0627 04:15:37.039299  1477 net.cpp:137] Memory required for data: 910393504
I0627 04:15:37.039305  1477 layer_factory.hpp:77] Creating layer bn3a_branch1
I0627 04:15:37.039316  1477 net.cpp:84] Creating Layer bn3a_branch1
I0627 04:15:37.039320  1477 net.cpp:406] bn3a_branch1 <- res3a_branch1
I0627 04:15:37.039326  1477 net.cpp:367] bn3a_branch1 -> res3a_branch1 (in-place)
I0627 04:15:37.040089  1477 net.cpp:122] Setting up bn3a_branch1
I0627 04:15:37.040112  1477 net.cpp:129] Top shape: 8 512 28 28 (3211264)
I0627 04:15:37.040115  1477 net.cpp:137] Memory required for data: 923238560
I0627 04:15:37.040124  1477 layer_factory.hpp:77] Creating layer scale3a_branch1
I0627 04:15:37.040132  1477 net.cpp:84] Creating Layer scale3a_branch1
I0627 04:15:37.040136  1477 net.cpp:406] scale3a_branch1 <- res3a_branch1
I0627 04:15:37.040143  1477 net.cpp:367] scale3a_branch1 -> res3a_branch1 (in-place)
I0627 04:15:37.040194  1477 layer_factory.hpp:77] Creating layer scale3a_branch1
I0627 04:15:37.040321  1477 net.cpp:122] Setting up scale3a_branch1
I0627 04:15:37.040338  1477 net.cpp:129] Top shape: 8 512 28 28 (3211264)
I0627 04:15:37.040341  1477 net.cpp:137] Memory required for data: 936083616
I0627 04:15:37.040354  1477 layer_factory.hpp:77] Creating layer res3a_branch2a
I0627 04:15:37.040365  1477 net.cpp:84] Creating Layer res3a_branch2a
I0627 04:15:37.040369  1477 net.cpp:406] res3a_branch2a <- res2c_res2c_relu_0_split_1
I0627 04:15:37.040376  1477 net.cpp:380] res3a_branch2a -> res3a_branch2a
I0627 04:15:37.041302  1477 net.cpp:122] Setting up res3a_branch2a
I0627 04:15:37.041326  1477 net.cpp:129] Top shape: 8 128 28 28 (802816)
I0627 04:15:37.041329  1477 net.cpp:137] Memory required for data: 939294880
I0627 04:15:37.041335  1477 layer_factory.hpp:77] Creating layer bn3a_branch2a
I0627 04:15:37.041343  1477 net.cpp:84] Creating Layer bn3a_branch2a
I0627 04:15:37.041350  1477 net.cpp:406] bn3a_branch2a <- res3a_branch2a
I0627 04:15:37.041357  1477 net.cpp:367] bn3a_branch2a -> res3a_branch2a (in-place)
I0627 04:15:37.041563  1477 net.cpp:122] Setting up bn3a_branch2a
I0627 04:15:37.041579  1477 net.cpp:129] Top shape: 8 128 28 28 (802816)
I0627 04:15:37.041582  1477 net.cpp:137] Memory required for data: 942506144
I0627 04:15:37.041590  1477 layer_factory.hpp:77] Creating layer scale3a_branch2a
I0627 04:15:37.041600  1477 net.cpp:84] Creating Layer scale3a_branch2a
I0627 04:15:37.041613  1477 net.cpp:406] scale3a_branch2a <- res3a_branch2a
I0627 04:15:37.041620  1477 net.cpp:367] scale3a_branch2a -> res3a_branch2a (in-place)
I0627 04:15:37.041671  1477 layer_factory.hpp:77] Creating layer scale3a_branch2a
I0627 04:15:37.041803  1477 net.cpp:122] Setting up scale3a_branch2a
I0627 04:15:37.041827  1477 net.cpp:129] Top shape: 8 128 28 28 (802816)
I0627 04:15:37.041846  1477 net.cpp:137] Memory required for data: 945717408
I0627 04:15:37.041853  1477 layer_factory.hpp:77] Creating layer res3a_branch2a_relu
I0627 04:15:37.041860  1477 net.cpp:84] Creating Layer res3a_branch2a_relu
I0627 04:15:37.041864  1477 net.cpp:406] res3a_branch2a_relu <- res3a_branch2a
I0627 04:15:37.041872  1477 net.cpp:367] res3a_branch2a_relu -> res3a_branch2a (in-place)
I0627 04:15:37.042032  1477 net.cpp:122] Setting up res3a_branch2a_relu
I0627 04:15:37.042050  1477 net.cpp:129] Top shape: 8 128 28 28 (802816)
I0627 04:15:37.042054  1477 net.cpp:137] Memory required for data: 948928672
I0627 04:15:37.042058  1477 layer_factory.hpp:77] Creating layer res3a_branch2b
I0627 04:15:37.042070  1477 net.cpp:84] Creating Layer res3a_branch2b
I0627 04:15:37.042075  1477 net.cpp:406] res3a_branch2b <- res3a_branch2a
I0627 04:15:37.042083  1477 net.cpp:380] res3a_branch2b -> res3a_branch2b
I0627 04:15:37.043598  1477 net.cpp:122] Setting up res3a_branch2b
I0627 04:15:37.043619  1477 net.cpp:129] Top shape: 8 128 28 28 (802816)
I0627 04:15:37.043624  1477 net.cpp:137] Memory required for data: 952139936
I0627 04:15:37.043630  1477 layer_factory.hpp:77] Creating layer bn3a_branch2b
I0627 04:15:37.043642  1477 net.cpp:84] Creating Layer bn3a_branch2b
I0627 04:15:37.043647  1477 net.cpp:406] bn3a_branch2b <- res3a_branch2b
I0627 04:15:37.043653  1477 net.cpp:367] bn3a_branch2b -> res3a_branch2b (in-place)
I0627 04:15:37.043864  1477 net.cpp:122] Setting up bn3a_branch2b
I0627 04:15:37.043880  1477 net.cpp:129] Top shape: 8 128 28 28 (802816)
I0627 04:15:37.043884  1477 net.cpp:137] Memory required for data: 955351200
I0627 04:15:37.043908  1477 layer_factory.hpp:77] Creating layer scale3a_branch2b
I0627 04:15:37.043920  1477 net.cpp:84] Creating Layer scale3a_branch2b
I0627 04:15:37.043923  1477 net.cpp:406] scale3a_branch2b <- res3a_branch2b
I0627 04:15:37.043929  1477 net.cpp:367] scale3a_branch2b -> res3a_branch2b (in-place)
I0627 04:15:37.043984  1477 layer_factory.hpp:77] Creating layer scale3a_branch2b
I0627 04:15:37.044121  1477 net.cpp:122] Setting up scale3a_branch2b
I0627 04:15:37.044136  1477 net.cpp:129] Top shape: 8 128 28 28 (802816)
I0627 04:15:37.044139  1477 net.cpp:137] Memory required for data: 958562464
I0627 04:15:37.044147  1477 layer_factory.hpp:77] Creating layer res3a_branch2b_relu
I0627 04:15:37.044157  1477 net.cpp:84] Creating Layer res3a_branch2b_relu
I0627 04:15:37.044160  1477 net.cpp:406] res3a_branch2b_relu <- res3a_branch2b
I0627 04:15:37.044165  1477 net.cpp:367] res3a_branch2b_relu -> res3a_branch2b (in-place)
I0627 04:15:37.044430  1477 net.cpp:122] Setting up res3a_branch2b_relu
I0627 04:15:37.044448  1477 net.cpp:129] Top shape: 8 128 28 28 (802816)
I0627 04:15:37.044453  1477 net.cpp:137] Memory required for data: 961773728
I0627 04:15:37.044459  1477 layer_factory.hpp:77] Creating layer res3a_branch2c
I0627 04:15:37.044478  1477 net.cpp:84] Creating Layer res3a_branch2c
I0627 04:15:37.044484  1477 net.cpp:406] res3a_branch2c <- res3a_branch2b
I0627 04:15:37.044492  1477 net.cpp:380] res3a_branch2c -> res3a_branch2c
I0627 04:15:37.045328  1477 net.cpp:122] Setting up res3a_branch2c
I0627 04:15:37.045348  1477 net.cpp:129] Top shape: 8 512 28 28 (3211264)
I0627 04:15:37.045354  1477 net.cpp:137] Memory required for data: 974618784
I0627 04:15:37.045361  1477 layer_factory.hpp:77] Creating layer bn3a_branch2c
I0627 04:15:37.045369  1477 net.cpp:84] Creating Layer bn3a_branch2c
I0627 04:15:37.045373  1477 net.cpp:406] bn3a_branch2c <- res3a_branch2c
I0627 04:15:37.045382  1477 net.cpp:367] bn3a_branch2c -> res3a_branch2c (in-place)
I0627 04:15:37.045590  1477 net.cpp:122] Setting up bn3a_branch2c
I0627 04:15:37.045606  1477 net.cpp:129] Top shape: 8 512 28 28 (3211264)
I0627 04:15:37.045610  1477 net.cpp:137] Memory required for data: 987463840
I0627 04:15:37.045619  1477 layer_factory.hpp:77] Creating layer scale3a_branch2c
I0627 04:15:37.045626  1477 net.cpp:84] Creating Layer scale3a_branch2c
I0627 04:15:37.045630  1477 net.cpp:406] scale3a_branch2c <- res3a_branch2c
I0627 04:15:37.045636  1477 net.cpp:367] scale3a_branch2c -> res3a_branch2c (in-place)
I0627 04:15:37.045686  1477 layer_factory.hpp:77] Creating layer scale3a_branch2c
I0627 04:15:37.045814  1477 net.cpp:122] Setting up scale3a_branch2c
I0627 04:15:37.045841  1477 net.cpp:129] Top shape: 8 512 28 28 (3211264)
I0627 04:15:37.045846  1477 net.cpp:137] Memory required for data: 1000308896
I0627 04:15:37.045853  1477 layer_factory.hpp:77] Creating layer res3a
I0627 04:15:37.045861  1477 net.cpp:84] Creating Layer res3a
I0627 04:15:37.045866  1477 net.cpp:406] res3a <- res3a_branch1
I0627 04:15:37.045871  1477 net.cpp:406] res3a <- res3a_branch2c
I0627 04:15:37.045878  1477 net.cpp:380] res3a -> res3a
I0627 04:15:37.045908  1477 net.cpp:122] Setting up res3a
I0627 04:15:37.045922  1477 net.cpp:129] Top shape: 8 512 28 28 (3211264)
I0627 04:15:37.045927  1477 net.cpp:137] Memory required for data: 1013153952
I0627 04:15:37.045930  1477 layer_factory.hpp:77] Creating layer res3a_relu
I0627 04:15:37.045940  1477 net.cpp:84] Creating Layer res3a_relu
I0627 04:15:37.045944  1477 net.cpp:406] res3a_relu <- res3a
I0627 04:15:37.045950  1477 net.cpp:367] res3a_relu -> res3a (in-place)
I0627 04:15:37.046236  1477 net.cpp:122] Setting up res3a_relu
I0627 04:15:37.046254  1477 net.cpp:129] Top shape: 8 512 28 28 (3211264)
I0627 04:15:37.046258  1477 net.cpp:137] Memory required for data: 1025999008
I0627 04:15:37.046263  1477 layer_factory.hpp:77] Creating layer res3a_res3a_relu_0_split
I0627 04:15:37.046270  1477 net.cpp:84] Creating Layer res3a_res3a_relu_0_split
I0627 04:15:37.046274  1477 net.cpp:406] res3a_res3a_relu_0_split <- res3a
I0627 04:15:37.046296  1477 net.cpp:380] res3a_res3a_relu_0_split -> res3a_res3a_relu_0_split_0
I0627 04:15:37.046304  1477 net.cpp:380] res3a_res3a_relu_0_split -> res3a_res3a_relu_0_split_1
I0627 04:15:37.046352  1477 net.cpp:122] Setting up res3a_res3a_relu_0_split
I0627 04:15:37.046368  1477 net.cpp:129] Top shape: 8 512 28 28 (3211264)
I0627 04:15:37.046373  1477 net.cpp:129] Top shape: 8 512 28 28 (3211264)
I0627 04:15:37.046376  1477 net.cpp:137] Memory required for data: 1051689120
I0627 04:15:37.046380  1477 layer_factory.hpp:77] Creating layer res3b_branch2a
I0627 04:15:37.046394  1477 net.cpp:84] Creating Layer res3b_branch2a
I0627 04:15:37.046399  1477 net.cpp:406] res3b_branch2a <- res3a_res3a_relu_0_split_0
I0627 04:15:37.046407  1477 net.cpp:380] res3b_branch2a -> res3b_branch2a
I0627 04:15:37.047914  1477 net.cpp:122] Setting up res3b_branch2a
I0627 04:15:37.047935  1477 net.cpp:129] Top shape: 8 128 28 28 (802816)
I0627 04:15:37.047940  1477 net.cpp:137] Memory required for data: 1054900384
I0627 04:15:37.047945  1477 layer_factory.hpp:77] Creating layer bn3b_branch2a
I0627 04:15:37.047953  1477 net.cpp:84] Creating Layer bn3b_branch2a
I0627 04:15:37.047957  1477 net.cpp:406] bn3b_branch2a <- res3b_branch2a
I0627 04:15:37.047966  1477 net.cpp:367] bn3b_branch2a -> res3b_branch2a (in-place)
I0627 04:15:37.048189  1477 net.cpp:122] Setting up bn3b_branch2a
I0627 04:15:37.048205  1477 net.cpp:129] Top shape: 8 128 28 28 (802816)
I0627 04:15:37.048209  1477 net.cpp:137] Memory required for data: 1058111648
I0627 04:15:37.048218  1477 layer_factory.hpp:77] Creating layer scale3b_branch2a
I0627 04:15:37.048226  1477 net.cpp:84] Creating Layer scale3b_branch2a
I0627 04:15:37.048230  1477 net.cpp:406] scale3b_branch2a <- res3b_branch2a
I0627 04:15:37.048235  1477 net.cpp:367] scale3b_branch2a -> res3b_branch2a (in-place)
I0627 04:15:37.048286  1477 layer_factory.hpp:77] Creating layer scale3b_branch2a
I0627 04:15:37.048422  1477 net.cpp:122] Setting up scale3b_branch2a
I0627 04:15:37.048439  1477 net.cpp:129] Top shape: 8 128 28 28 (802816)
I0627 04:15:37.048442  1477 net.cpp:137] Memory required for data: 1061322912
I0627 04:15:37.048449  1477 layer_factory.hpp:77] Creating layer res3b_branch2a_relu
I0627 04:15:37.048456  1477 net.cpp:84] Creating Layer res3b_branch2a_relu
I0627 04:15:37.048460  1477 net.cpp:406] res3b_branch2a_relu <- res3b_branch2a
I0627 04:15:37.048468  1477 net.cpp:367] res3b_branch2a_relu -> res3b_branch2a (in-place)
I0627 04:15:37.048625  1477 net.cpp:122] Setting up res3b_branch2a_relu
I0627 04:15:37.048642  1477 net.cpp:129] Top shape: 8 128 28 28 (802816)
I0627 04:15:37.048646  1477 net.cpp:137] Memory required for data: 1064534176
I0627 04:15:37.048650  1477 layer_factory.hpp:77] Creating layer res3b_branch2b
I0627 04:15:37.048662  1477 net.cpp:84] Creating Layer res3b_branch2b
I0627 04:15:37.048667  1477 net.cpp:406] res3b_branch2b <- res3b_branch2a
I0627 04:15:37.048673  1477 net.cpp:380] res3b_branch2b -> res3b_branch2b
I0627 04:15:37.050304  1477 net.cpp:122] Setting up res3b_branch2b
I0627 04:15:37.050325  1477 net.cpp:129] Top shape: 8 128 28 28 (802816)
I0627 04:15:37.050330  1477 net.cpp:137] Memory required for data: 1067745440
I0627 04:15:37.050336  1477 layer_factory.hpp:77] Creating layer bn3b_branch2b
I0627 04:15:37.050346  1477 net.cpp:84] Creating Layer bn3b_branch2b
I0627 04:15:37.050351  1477 net.cpp:406] bn3b_branch2b <- res3b_branch2b
I0627 04:15:37.050359  1477 net.cpp:367] bn3b_branch2b -> res3b_branch2b (in-place)
I0627 04:15:37.050585  1477 net.cpp:122] Setting up bn3b_branch2b
I0627 04:15:37.050601  1477 net.cpp:129] Top shape: 8 128 28 28 (802816)
I0627 04:15:37.050604  1477 net.cpp:137] Memory required for data: 1070956704
I0627 04:15:37.050616  1477 layer_factory.hpp:77] Creating layer scale3b_branch2b
I0627 04:15:37.050626  1477 net.cpp:84] Creating Layer scale3b_branch2b
I0627 04:15:37.050631  1477 net.cpp:406] scale3b_branch2b <- res3b_branch2b
I0627 04:15:37.050637  1477 net.cpp:367] scale3b_branch2b -> res3b_branch2b (in-place)
I0627 04:15:37.050710  1477 layer_factory.hpp:77] Creating layer scale3b_branch2b
I0627 04:15:37.050848  1477 net.cpp:122] Setting up scale3b_branch2b
I0627 04:15:37.050863  1477 net.cpp:129] Top shape: 8 128 28 28 (802816)
I0627 04:15:37.050868  1477 net.cpp:137] Memory required for data: 1074167968
I0627 04:15:37.050874  1477 layer_factory.hpp:77] Creating layer res3b_branch2b_relu
I0627 04:15:37.050881  1477 net.cpp:84] Creating Layer res3b_branch2b_relu
I0627 04:15:37.050885  1477 net.cpp:406] res3b_branch2b_relu <- res3b_branch2b
I0627 04:15:37.050890  1477 net.cpp:367] res3b_branch2b_relu -> res3b_branch2b (in-place)
I0627 04:15:37.051154  1477 net.cpp:122] Setting up res3b_branch2b_relu
I0627 04:15:37.051173  1477 net.cpp:129] Top shape: 8 128 28 28 (802816)
I0627 04:15:37.051178  1477 net.cpp:137] Memory required for data: 1077379232
I0627 04:15:37.051182  1477 layer_factory.hpp:77] Creating layer res3b_branch2c
I0627 04:15:37.051195  1477 net.cpp:84] Creating Layer res3b_branch2c
I0627 04:15:37.051200  1477 net.cpp:406] res3b_branch2c <- res3b_branch2b
I0627 04:15:37.051208  1477 net.cpp:380] res3b_branch2c -> res3b_branch2c
I0627 04:15:37.052062  1477 net.cpp:122] Setting up res3b_branch2c
I0627 04:15:37.052080  1477 net.cpp:129] Top shape: 8 512 28 28 (3211264)
I0627 04:15:37.052085  1477 net.cpp:137] Memory required for data: 1090224288
I0627 04:15:37.052091  1477 layer_factory.hpp:77] Creating layer bn3b_branch2c
I0627 04:15:37.052103  1477 net.cpp:84] Creating Layer bn3b_branch2c
I0627 04:15:37.052109  1477 net.cpp:406] bn3b_branch2c <- res3b_branch2c
I0627 04:15:37.052114  1477 net.cpp:367] bn3b_branch2c -> res3b_branch2c (in-place)
I0627 04:15:37.052330  1477 net.cpp:122] Setting up bn3b_branch2c
I0627 04:15:37.052345  1477 net.cpp:129] Top shape: 8 512 28 28 (3211264)
I0627 04:15:37.052352  1477 net.cpp:137] Memory required for data: 1103069344
I0627 04:15:37.052361  1477 layer_factory.hpp:77] Creating layer scale3b_branch2c
I0627 04:15:37.052368  1477 net.cpp:84] Creating Layer scale3b_branch2c
I0627 04:15:37.052372  1477 net.cpp:406] scale3b_branch2c <- res3b_branch2c
I0627 04:15:37.052377  1477 net.cpp:367] scale3b_branch2c -> res3b_branch2c (in-place)
I0627 04:15:37.052428  1477 layer_factory.hpp:77] Creating layer scale3b_branch2c
I0627 04:15:37.052561  1477 net.cpp:122] Setting up scale3b_branch2c
I0627 04:15:37.052577  1477 net.cpp:129] Top shape: 8 512 28 28 (3211264)
I0627 04:15:37.052582  1477 net.cpp:137] Memory required for data: 1115914400
I0627 04:15:37.052588  1477 layer_factory.hpp:77] Creating layer res3b
I0627 04:15:37.052597  1477 net.cpp:84] Creating Layer res3b
I0627 04:15:37.052603  1477 net.cpp:406] res3b <- res3a_res3a_relu_0_split_1
I0627 04:15:37.052608  1477 net.cpp:406] res3b <- res3b_branch2c
I0627 04:15:37.052613  1477 net.cpp:380] res3b -> res3b
I0627 04:15:37.052645  1477 net.cpp:122] Setting up res3b
I0627 04:15:37.052660  1477 net.cpp:129] Top shape: 8 512 28 28 (3211264)
I0627 04:15:37.052664  1477 net.cpp:137] Memory required for data: 1128759456
I0627 04:15:37.052669  1477 layer_factory.hpp:77] Creating layer res3b_relu
I0627 04:15:37.052675  1477 net.cpp:84] Creating Layer res3b_relu
I0627 04:15:37.052678  1477 net.cpp:406] res3b_relu <- res3b
I0627 04:15:37.052686  1477 net.cpp:367] res3b_relu -> res3b (in-place)
I0627 04:15:37.052947  1477 net.cpp:122] Setting up res3b_relu
I0627 04:15:37.052966  1477 net.cpp:129] Top shape: 8 512 28 28 (3211264)
I0627 04:15:37.052971  1477 net.cpp:137] Memory required for data: 1141604512
I0627 04:15:37.052975  1477 layer_factory.hpp:77] Creating layer res3b_res3b_relu_0_split
I0627 04:15:37.052983  1477 net.cpp:84] Creating Layer res3b_res3b_relu_0_split
I0627 04:15:37.052986  1477 net.cpp:406] res3b_res3b_relu_0_split <- res3b
I0627 04:15:37.053002  1477 net.cpp:380] res3b_res3b_relu_0_split -> res3b_res3b_relu_0_split_0
I0627 04:15:37.053009  1477 net.cpp:380] res3b_res3b_relu_0_split -> res3b_res3b_relu_0_split_1
I0627 04:15:37.053143  1477 net.cpp:122] Setting up res3b_res3b_relu_0_split
I0627 04:15:37.053159  1477 net.cpp:129] Top shape: 8 512 28 28 (3211264)
I0627 04:15:37.053177  1477 net.cpp:129] Top shape: 8 512 28 28 (3211264)
I0627 04:15:37.053181  1477 net.cpp:137] Memory required for data: 1167294624
I0627 04:15:37.053185  1477 layer_factory.hpp:77] Creating layer res3c_branch2a
I0627 04:15:37.053200  1477 net.cpp:84] Creating Layer res3c_branch2a
I0627 04:15:37.053205  1477 net.cpp:406] res3c_branch2a <- res3b_res3b_relu_0_split_0
I0627 04:15:37.053210  1477 net.cpp:380] res3c_branch2a -> res3c_branch2a
I0627 04:15:37.054214  1477 net.cpp:122] Setting up res3c_branch2a
I0627 04:15:37.054235  1477 net.cpp:129] Top shape: 8 128 28 28 (802816)
I0627 04:15:37.054239  1477 net.cpp:137] Memory required for data: 1170505888
I0627 04:15:37.054246  1477 layer_factory.hpp:77] Creating layer bn3c_branch2a
I0627 04:15:37.054258  1477 net.cpp:84] Creating Layer bn3c_branch2a
I0627 04:15:37.054265  1477 net.cpp:406] bn3c_branch2a <- res3c_branch2a
I0627 04:15:37.054271  1477 net.cpp:367] bn3c_branch2a -> res3c_branch2a (in-place)
I0627 04:15:37.054507  1477 net.cpp:122] Setting up bn3c_branch2a
I0627 04:15:37.054522  1477 net.cpp:129] Top shape: 8 128 28 28 (802816)
I0627 04:15:37.054527  1477 net.cpp:137] Memory required for data: 1173717152
I0627 04:15:37.054535  1477 layer_factory.hpp:77] Creating layer scale3c_branch2a
I0627 04:15:37.054545  1477 net.cpp:84] Creating Layer scale3c_branch2a
I0627 04:15:37.054549  1477 net.cpp:406] scale3c_branch2a <- res3c_branch2a
I0627 04:15:37.054555  1477 net.cpp:367] scale3c_branch2a -> res3c_branch2a (in-place)
I0627 04:15:37.054607  1477 layer_factory.hpp:77] Creating layer scale3c_branch2a
I0627 04:15:37.054752  1477 net.cpp:122] Setting up scale3c_branch2a
I0627 04:15:37.054769  1477 net.cpp:129] Top shape: 8 128 28 28 (802816)
I0627 04:15:37.054772  1477 net.cpp:137] Memory required for data: 1176928416
I0627 04:15:37.054780  1477 layer_factory.hpp:77] Creating layer res3c_branch2a_relu
I0627 04:15:37.054786  1477 net.cpp:84] Creating Layer res3c_branch2a_relu
I0627 04:15:37.054790  1477 net.cpp:406] res3c_branch2a_relu <- res3c_branch2a
I0627 04:15:37.054797  1477 net.cpp:367] res3c_branch2a_relu -> res3c_branch2a (in-place)
I0627 04:15:37.054957  1477 net.cpp:122] Setting up res3c_branch2a_relu
I0627 04:15:37.054975  1477 net.cpp:129] Top shape: 8 128 28 28 (802816)
I0627 04:15:37.054980  1477 net.cpp:137] Memory required for data: 1180139680
I0627 04:15:37.054983  1477 layer_factory.hpp:77] Creating layer res3c_branch2b
I0627 04:15:37.054996  1477 net.cpp:84] Creating Layer res3c_branch2b
I0627 04:15:37.055001  1477 net.cpp:406] res3c_branch2b <- res3c_branch2a
I0627 04:15:37.055008  1477 net.cpp:380] res3c_branch2b -> res3c_branch2b
I0627 04:15:37.056548  1477 net.cpp:122] Setting up res3c_branch2b
I0627 04:15:37.056572  1477 net.cpp:129] Top shape: 8 128 28 28 (802816)
I0627 04:15:37.056576  1477 net.cpp:137] Memory required for data: 1183350944
I0627 04:15:37.056583  1477 layer_factory.hpp:77] Creating layer bn3c_branch2b
I0627 04:15:37.056596  1477 net.cpp:84] Creating Layer bn3c_branch2b
I0627 04:15:37.056601  1477 net.cpp:406] bn3c_branch2b <- res3c_branch2b
I0627 04:15:37.056607  1477 net.cpp:367] bn3c_branch2b -> res3c_branch2b (in-place)
I0627 04:15:37.056830  1477 net.cpp:122] Setting up bn3c_branch2b
I0627 04:15:37.056848  1477 net.cpp:129] Top shape: 8 128 28 28 (802816)
I0627 04:15:37.056851  1477 net.cpp:137] Memory required for data: 1186562208
I0627 04:15:37.056861  1477 layer_factory.hpp:77] Creating layer scale3c_branch2b
I0627 04:15:37.056871  1477 net.cpp:84] Creating Layer scale3c_branch2b
I0627 04:15:37.056876  1477 net.cpp:406] scale3c_branch2b <- res3c_branch2b
I0627 04:15:37.056881  1477 net.cpp:367] scale3c_branch2b -> res3c_branch2b (in-place)
I0627 04:15:37.056938  1477 layer_factory.hpp:77] Creating layer scale3c_branch2b
I0627 04:15:37.057081  1477 net.cpp:122] Setting up scale3c_branch2b
I0627 04:15:37.057097  1477 net.cpp:129] Top shape: 8 128 28 28 (802816)
I0627 04:15:37.057101  1477 net.cpp:137] Memory required for data: 1189773472
I0627 04:15:37.057117  1477 layer_factory.hpp:77] Creating layer res3c_branch2b_relu
I0627 04:15:37.057138  1477 net.cpp:84] Creating Layer res3c_branch2b_relu
I0627 04:15:37.057143  1477 net.cpp:406] res3c_branch2b_relu <- res3c_branch2b
I0627 04:15:37.057152  1477 net.cpp:367] res3c_branch2b_relu -> res3c_branch2b (in-place)
I0627 04:15:37.057422  1477 net.cpp:122] Setting up res3c_branch2b_relu
I0627 04:15:37.057445  1477 net.cpp:129] Top shape: 8 128 28 28 (802816)
I0627 04:15:37.057448  1477 net.cpp:137] Memory required for data: 1192984736
I0627 04:15:37.057452  1477 layer_factory.hpp:77] Creating layer res3c_branch2c
I0627 04:15:37.057462  1477 net.cpp:84] Creating Layer res3c_branch2c
I0627 04:15:37.057467  1477 net.cpp:406] res3c_branch2c <- res3c_branch2b
I0627 04:15:37.057476  1477 net.cpp:380] res3c_branch2c -> res3c_branch2c
I0627 04:15:37.058342  1477 net.cpp:122] Setting up res3c_branch2c
I0627 04:15:37.058363  1477 net.cpp:129] Top shape: 8 512 28 28 (3211264)
I0627 04:15:37.058367  1477 net.cpp:137] Memory required for data: 1205829792
I0627 04:15:37.058374  1477 layer_factory.hpp:77] Creating layer bn3c_branch2c
I0627 04:15:37.058384  1477 net.cpp:84] Creating Layer bn3c_branch2c
I0627 04:15:37.058389  1477 net.cpp:406] bn3c_branch2c <- res3c_branch2c
I0627 04:15:37.058394  1477 net.cpp:367] bn3c_branch2c -> res3c_branch2c (in-place)
I0627 04:15:37.058619  1477 net.cpp:122] Setting up bn3c_branch2c
I0627 04:15:37.058634  1477 net.cpp:129] Top shape: 8 512 28 28 (3211264)
I0627 04:15:37.058639  1477 net.cpp:137] Memory required for data: 1218674848
I0627 04:15:37.058647  1477 layer_factory.hpp:77] Creating layer scale3c_branch2c
I0627 04:15:37.058655  1477 net.cpp:84] Creating Layer scale3c_branch2c
I0627 04:15:37.058662  1477 net.cpp:406] scale3c_branch2c <- res3c_branch2c
I0627 04:15:37.058672  1477 net.cpp:367] scale3c_branch2c -> res3c_branch2c (in-place)
I0627 04:15:37.058722  1477 layer_factory.hpp:77] Creating layer scale3c_branch2c
I0627 04:15:37.058861  1477 net.cpp:122] Setting up scale3c_branch2c
I0627 04:15:37.058876  1477 net.cpp:129] Top shape: 8 512 28 28 (3211264)
I0627 04:15:37.058881  1477 net.cpp:137] Memory required for data: 1231519904
I0627 04:15:37.058887  1477 layer_factory.hpp:77] Creating layer res3c
I0627 04:15:37.058897  1477 net.cpp:84] Creating Layer res3c
I0627 04:15:37.058900  1477 net.cpp:406] res3c <- res3b_res3b_relu_0_split_1
I0627 04:15:37.058905  1477 net.cpp:406] res3c <- res3c_branch2c
I0627 04:15:37.058910  1477 net.cpp:380] res3c -> res3c
I0627 04:15:37.058943  1477 net.cpp:122] Setting up res3c
I0627 04:15:37.058959  1477 net.cpp:129] Top shape: 8 512 28 28 (3211264)
I0627 04:15:37.058962  1477 net.cpp:137] Memory required for data: 1244364960
I0627 04:15:37.058966  1477 layer_factory.hpp:77] Creating layer res3c_relu
I0627 04:15:37.058972  1477 net.cpp:84] Creating Layer res3c_relu
I0627 04:15:37.058976  1477 net.cpp:406] res3c_relu <- res3c
I0627 04:15:37.058984  1477 net.cpp:367] res3c_relu -> res3c (in-place)
I0627 04:15:37.059248  1477 net.cpp:122] Setting up res3c_relu
I0627 04:15:37.059267  1477 net.cpp:129] Top shape: 8 512 28 28 (3211264)
I0627 04:15:37.059272  1477 net.cpp:137] Memory required for data: 1257210016
I0627 04:15:37.059276  1477 layer_factory.hpp:77] Creating layer res3c_res3c_relu_0_split
I0627 04:15:37.059283  1477 net.cpp:84] Creating Layer res3c_res3c_relu_0_split
I0627 04:15:37.059288  1477 net.cpp:406] res3c_res3c_relu_0_split <- res3c
I0627 04:15:37.059295  1477 net.cpp:380] res3c_res3c_relu_0_split -> res3c_res3c_relu_0_split_0
I0627 04:15:37.059303  1477 net.cpp:380] res3c_res3c_relu_0_split -> res3c_res3c_relu_0_split_1
I0627 04:15:37.059353  1477 net.cpp:122] Setting up res3c_res3c_relu_0_split
I0627 04:15:37.059368  1477 net.cpp:129] Top shape: 8 512 28 28 (3211264)
I0627 04:15:37.059373  1477 net.cpp:129] Top shape: 8 512 28 28 (3211264)
I0627 04:15:37.059377  1477 net.cpp:137] Memory required for data: 1282900128
I0627 04:15:37.059381  1477 layer_factory.hpp:77] Creating layer res3d_branch2a
I0627 04:15:37.059393  1477 net.cpp:84] Creating Layer res3d_branch2a
I0627 04:15:37.059412  1477 net.cpp:406] res3d_branch2a <- res3c_res3c_relu_0_split_0
I0627 04:15:37.059419  1477 net.cpp:380] res3d_branch2a -> res3d_branch2a
I0627 04:15:37.060942  1477 net.cpp:122] Setting up res3d_branch2a
I0627 04:15:37.060966  1477 net.cpp:129] Top shape: 8 128 28 28 (802816)
I0627 04:15:37.060969  1477 net.cpp:137] Memory required for data: 1286111392
I0627 04:15:37.060976  1477 layer_factory.hpp:77] Creating layer bn3d_branch2a
I0627 04:15:37.060984  1477 net.cpp:84] Creating Layer bn3d_branch2a
I0627 04:15:37.060988  1477 net.cpp:406] bn3d_branch2a <- res3d_branch2a
I0627 04:15:37.060994  1477 net.cpp:367] bn3d_branch2a -> res3d_branch2a (in-place)
I0627 04:15:37.061234  1477 net.cpp:122] Setting up bn3d_branch2a
I0627 04:15:37.061251  1477 net.cpp:129] Top shape: 8 128 28 28 (802816)
I0627 04:15:37.061255  1477 net.cpp:137] Memory required for data: 1289322656
I0627 04:15:37.061283  1477 layer_factory.hpp:77] Creating layer scale3d_branch2a
I0627 04:15:37.061298  1477 net.cpp:84] Creating Layer scale3d_branch2a
I0627 04:15:37.061303  1477 net.cpp:406] scale3d_branch2a <- res3d_branch2a
I0627 04:15:37.061308  1477 net.cpp:367] scale3d_branch2a -> res3d_branch2a (in-place)
I0627 04:15:37.061364  1477 layer_factory.hpp:77] Creating layer scale3d_branch2a
I0627 04:15:37.061511  1477 net.cpp:122] Setting up scale3d_branch2a
I0627 04:15:37.061527  1477 net.cpp:129] Top shape: 8 128 28 28 (802816)
I0627 04:15:37.061530  1477 net.cpp:137] Memory required for data: 1292533920
I0627 04:15:37.061537  1477 layer_factory.hpp:77] Creating layer res3d_branch2a_relu
I0627 04:15:37.061543  1477 net.cpp:84] Creating Layer res3d_branch2a_relu
I0627 04:15:37.061547  1477 net.cpp:406] res3d_branch2a_relu <- res3d_branch2a
I0627 04:15:37.061555  1477 net.cpp:367] res3d_branch2a_relu -> res3d_branch2a (in-place)
I0627 04:15:37.061717  1477 net.cpp:122] Setting up res3d_branch2a_relu
I0627 04:15:37.061734  1477 net.cpp:129] Top shape: 8 128 28 28 (802816)
I0627 04:15:37.061738  1477 net.cpp:137] Memory required for data: 1295745184
I0627 04:15:37.061743  1477 layer_factory.hpp:77] Creating layer res3d_branch2b
I0627 04:15:37.061756  1477 net.cpp:84] Creating Layer res3d_branch2b
I0627 04:15:37.061760  1477 net.cpp:406] res3d_branch2b <- res3d_branch2a
I0627 04:15:37.061767  1477 net.cpp:380] res3d_branch2b -> res3d_branch2b
I0627 04:15:37.063436  1477 net.cpp:122] Setting up res3d_branch2b
I0627 04:15:37.063459  1477 net.cpp:129] Top shape: 8 128 28 28 (802816)
I0627 04:15:37.063464  1477 net.cpp:137] Memory required for data: 1298956448
I0627 04:15:37.063470  1477 layer_factory.hpp:77] Creating layer bn3d_branch2b
I0627 04:15:37.063478  1477 net.cpp:84] Creating Layer bn3d_branch2b
I0627 04:15:37.063483  1477 net.cpp:406] bn3d_branch2b <- res3d_branch2b
I0627 04:15:37.063491  1477 net.cpp:367] bn3d_branch2b -> res3d_branch2b (in-place)
I0627 04:15:37.063720  1477 net.cpp:122] Setting up bn3d_branch2b
I0627 04:15:37.063736  1477 net.cpp:129] Top shape: 8 128 28 28 (802816)
I0627 04:15:37.063740  1477 net.cpp:137] Memory required for data: 1302167712
I0627 04:15:37.063750  1477 layer_factory.hpp:77] Creating layer scale3d_branch2b
I0627 04:15:37.063757  1477 net.cpp:84] Creating Layer scale3d_branch2b
I0627 04:15:37.063761  1477 net.cpp:406] scale3d_branch2b <- res3d_branch2b
I0627 04:15:37.063766  1477 net.cpp:367] scale3d_branch2b -> res3d_branch2b (in-place)
I0627 04:15:37.063820  1477 layer_factory.hpp:77] Creating layer scale3d_branch2b
I0627 04:15:37.063971  1477 net.cpp:122] Setting up scale3d_branch2b
I0627 04:15:37.063987  1477 net.cpp:129] Top shape: 8 128 28 28 (802816)
I0627 04:15:37.063990  1477 net.cpp:137] Memory required for data: 1305378976
I0627 04:15:37.063997  1477 layer_factory.hpp:77] Creating layer res3d_branch2b_relu
I0627 04:15:37.064007  1477 net.cpp:84] Creating Layer res3d_branch2b_relu
I0627 04:15:37.064012  1477 net.cpp:406] res3d_branch2b_relu <- res3d_branch2b
I0627 04:15:37.064023  1477 net.cpp:367] res3d_branch2b_relu -> res3d_branch2b (in-place)
I0627 04:15:37.064337  1477 net.cpp:122] Setting up res3d_branch2b_relu
I0627 04:15:37.064370  1477 net.cpp:129] Top shape: 8 128 28 28 (802816)
I0627 04:15:37.064375  1477 net.cpp:137] Memory required for data: 1308590240
I0627 04:15:37.064379  1477 layer_factory.hpp:77] Creating layer res3d_branch2c
I0627 04:15:37.064391  1477 net.cpp:84] Creating Layer res3d_branch2c
I0627 04:15:37.064396  1477 net.cpp:406] res3d_branch2c <- res3d_branch2b
I0627 04:15:37.064405  1477 net.cpp:380] res3d_branch2c -> res3d_branch2c
I0627 04:15:37.065264  1477 net.cpp:122] Setting up res3d_branch2c
I0627 04:15:37.065285  1477 net.cpp:129] Top shape: 8 512 28 28 (3211264)
I0627 04:15:37.065290  1477 net.cpp:137] Memory required for data: 1321435296
I0627 04:15:37.065296  1477 layer_factory.hpp:77] Creating layer bn3d_branch2c
I0627 04:15:37.065306  1477 net.cpp:84] Creating Layer bn3d_branch2c
I0627 04:15:37.065310  1477 net.cpp:406] bn3d_branch2c <- res3d_branch2c
I0627 04:15:37.065316  1477 net.cpp:367] bn3d_branch2c -> res3d_branch2c (in-place)
I0627 04:15:37.065546  1477 net.cpp:122] Setting up bn3d_branch2c
I0627 04:15:37.065562  1477 net.cpp:129] Top shape: 8 512 28 28 (3211264)
I0627 04:15:37.065565  1477 net.cpp:137] Memory required for data: 1334280352
I0627 04:15:37.065573  1477 layer_factory.hpp:77] Creating layer scale3d_branch2c
I0627 04:15:37.065584  1477 net.cpp:84] Creating Layer scale3d_branch2c
I0627 04:15:37.065588  1477 net.cpp:406] scale3d_branch2c <- res3d_branch2c
I0627 04:15:37.065594  1477 net.cpp:367] scale3d_branch2c -> res3d_branch2c (in-place)
I0627 04:15:37.065647  1477 layer_factory.hpp:77] Creating layer scale3d_branch2c
I0627 04:15:37.065788  1477 net.cpp:122] Setting up scale3d_branch2c
I0627 04:15:37.065804  1477 net.cpp:129] Top shape: 8 512 28 28 (3211264)
I0627 04:15:37.065807  1477 net.cpp:137] Memory required for data: 1347125408
I0627 04:15:37.065814  1477 layer_factory.hpp:77] Creating layer res3d
I0627 04:15:37.065821  1477 net.cpp:84] Creating Layer res3d
I0627 04:15:37.065825  1477 net.cpp:406] res3d <- res3c_res3c_relu_0_split_1
I0627 04:15:37.065842  1477 net.cpp:406] res3d <- res3d_branch2c
I0627 04:15:37.065853  1477 net.cpp:380] res3d -> res3d
I0627 04:15:37.065888  1477 net.cpp:122] Setting up res3d
I0627 04:15:37.065902  1477 net.cpp:129] Top shape: 8 512 28 28 (3211264)
I0627 04:15:37.065907  1477 net.cpp:137] Memory required for data: 1359970464
I0627 04:15:37.065912  1477 layer_factory.hpp:77] Creating layer res3d_relu
I0627 04:15:37.065917  1477 net.cpp:84] Creating Layer res3d_relu
I0627 04:15:37.065922  1477 net.cpp:406] res3d_relu <- res3d
I0627 04:15:37.065927  1477 net.cpp:367] res3d_relu -> res3d (in-place)
I0627 04:15:37.066190  1477 net.cpp:122] Setting up res3d_relu
I0627 04:15:37.066210  1477 net.cpp:129] Top shape: 8 512 28 28 (3211264)
I0627 04:15:37.066213  1477 net.cpp:137] Memory required for data: 1372815520
I0627 04:15:37.066218  1477 layer_factory.hpp:77] Creating layer res3d_res3d_relu_0_split
I0627 04:15:37.066226  1477 net.cpp:84] Creating Layer res3d_res3d_relu_0_split
I0627 04:15:37.066229  1477 net.cpp:406] res3d_res3d_relu_0_split <- res3d
I0627 04:15:37.066237  1477 net.cpp:380] res3d_res3d_relu_0_split -> res3d_res3d_relu_0_split_0
I0627 04:15:37.066244  1477 net.cpp:380] res3d_res3d_relu_0_split -> res3d_res3d_relu_0_split_1
I0627 04:15:37.066293  1477 net.cpp:122] Setting up res3d_res3d_relu_0_split
I0627 04:15:37.066310  1477 net.cpp:129] Top shape: 8 512 28 28 (3211264)
I0627 04:15:37.066315  1477 net.cpp:129] Top shape: 8 512 28 28 (3211264)
I0627 04:15:37.066318  1477 net.cpp:137] Memory required for data: 1398505632
I0627 04:15:37.066323  1477 layer_factory.hpp:77] Creating layer res4a_branch1
I0627 04:15:37.066332  1477 net.cpp:84] Creating Layer res4a_branch1
I0627 04:15:37.066336  1477 net.cpp:406] res4a_branch1 <- res3d_res3d_relu_0_split_0
I0627 04:15:37.066344  1477 net.cpp:380] res4a_branch1 -> res4a_branch1
I0627 04:15:37.068506  1477 net.cpp:122] Setting up res4a_branch1
I0627 04:15:37.068526  1477 net.cpp:129] Top shape: 8 1024 14 14 (1605632)
I0627 04:15:37.068531  1477 net.cpp:137] Memory required for data: 1404928160
I0627 04:15:37.068550  1477 layer_factory.hpp:77] Creating layer bn4a_branch1
I0627 04:15:37.068562  1477 net.cpp:84] Creating Layer bn4a_branch1
I0627 04:15:37.068567  1477 net.cpp:406] bn4a_branch1 <- res4a_branch1
I0627 04:15:37.068572  1477 net.cpp:367] bn4a_branch1 -> res4a_branch1 (in-place)
I0627 04:15:37.068816  1477 net.cpp:122] Setting up bn4a_branch1
I0627 04:15:37.068833  1477 net.cpp:129] Top shape: 8 1024 14 14 (1605632)
I0627 04:15:37.068837  1477 net.cpp:137] Memory required for data: 1411350688
I0627 04:15:37.068846  1477 layer_factory.hpp:77] Creating layer scale4a_branch1
I0627 04:15:37.068853  1477 net.cpp:84] Creating Layer scale4a_branch1
I0627 04:15:37.068858  1477 net.cpp:406] scale4a_branch1 <- res4a_branch1
I0627 04:15:37.068863  1477 net.cpp:367] scale4a_branch1 -> res4a_branch1 (in-place)
I0627 04:15:37.068914  1477 layer_factory.hpp:77] Creating layer scale4a_branch1
I0627 04:15:37.069064  1477 net.cpp:122] Setting up scale4a_branch1
I0627 04:15:37.069080  1477 net.cpp:129] Top shape: 8 1024 14 14 (1605632)
I0627 04:15:37.069084  1477 net.cpp:137] Memory required for data: 1417773216
I0627 04:15:37.069090  1477 layer_factory.hpp:77] Creating layer res4a_branch2a
I0627 04:15:37.069104  1477 net.cpp:84] Creating Layer res4a_branch2a
I0627 04:15:37.069109  1477 net.cpp:406] res4a_branch2a <- res3d_res3d_relu_0_split_1
I0627 04:15:37.069115  1477 net.cpp:380] res4a_branch2a -> res4a_branch2a
I0627 04:15:37.070132  1477 net.cpp:122] Setting up res4a_branch2a
I0627 04:15:37.070152  1477 net.cpp:129] Top shape: 8 256 14 14 (401408)
I0627 04:15:37.070157  1477 net.cpp:137] Memory required for data: 1419378848
I0627 04:15:37.070163  1477 layer_factory.hpp:77] Creating layer bn4a_branch2a
I0627 04:15:37.070173  1477 net.cpp:84] Creating Layer bn4a_branch2a
I0627 04:15:37.070178  1477 net.cpp:406] bn4a_branch2a <- res4a_branch2a
I0627 04:15:37.070183  1477 net.cpp:367] bn4a_branch2a -> res4a_branch2a (in-place)
I0627 04:15:37.070417  1477 net.cpp:122] Setting up bn4a_branch2a
I0627 04:15:37.070433  1477 net.cpp:129] Top shape: 8 256 14 14 (401408)
I0627 04:15:37.070437  1477 net.cpp:137] Memory required for data: 1420984480
I0627 04:15:37.070446  1477 layer_factory.hpp:77] Creating layer scale4a_branch2a
I0627 04:15:37.070453  1477 net.cpp:84] Creating Layer scale4a_branch2a
I0627 04:15:37.070457  1477 net.cpp:406] scale4a_branch2a <- res4a_branch2a
I0627 04:15:37.070466  1477 net.cpp:367] scale4a_branch2a -> res4a_branch2a (in-place)
I0627 04:15:37.070516  1477 layer_factory.hpp:77] Creating layer scale4a_branch2a
I0627 04:15:37.070663  1477 net.cpp:122] Setting up scale4a_branch2a
I0627 04:15:37.070679  1477 net.cpp:129] Top shape: 8 256 14 14 (401408)
I0627 04:15:37.070683  1477 net.cpp:137] Memory required for data: 1422590112
I0627 04:15:37.070690  1477 layer_factory.hpp:77] Creating layer res4a_branch2a_relu
I0627 04:15:37.070699  1477 net.cpp:84] Creating Layer res4a_branch2a_relu
I0627 04:15:37.070703  1477 net.cpp:406] res4a_branch2a_relu <- res4a_branch2a
I0627 04:15:37.070708  1477 net.cpp:367] res4a_branch2a_relu -> res4a_branch2a (in-place)
I0627 04:15:37.070873  1477 net.cpp:122] Setting up res4a_branch2a_relu
I0627 04:15:37.070890  1477 net.cpp:129] Top shape: 8 256 14 14 (401408)
I0627 04:15:37.070894  1477 net.cpp:137] Memory required for data: 1424195744
I0627 04:15:37.070899  1477 layer_factory.hpp:77] Creating layer res4a_branch2b
I0627 04:15:37.070909  1477 net.cpp:84] Creating Layer res4a_branch2b
I0627 04:15:37.070914  1477 net.cpp:406] res4a_branch2b <- res4a_branch2a
I0627 04:15:37.070921  1477 net.cpp:380] res4a_branch2b -> res4a_branch2b
I0627 04:15:37.073177  1477 net.cpp:122] Setting up res4a_branch2b
I0627 04:15:37.073199  1477 net.cpp:129] Top shape: 8 256 14 14 (401408)
I0627 04:15:37.073204  1477 net.cpp:137] Memory required for data: 1425801376
I0627 04:15:37.073210  1477 layer_factory.hpp:77] Creating layer bn4a_branch2b
I0627 04:15:37.073221  1477 net.cpp:84] Creating Layer bn4a_branch2b
I0627 04:15:37.073226  1477 net.cpp:406] bn4a_branch2b <- res4a_branch2b
I0627 04:15:37.073246  1477 net.cpp:367] bn4a_branch2b -> res4a_branch2b (in-place)
I0627 04:15:37.073485  1477 net.cpp:122] Setting up bn4a_branch2b
I0627 04:15:37.073503  1477 net.cpp:129] Top shape: 8 256 14 14 (401408)
I0627 04:15:37.073506  1477 net.cpp:137] Memory required for data: 1427407008
I0627 04:15:37.073515  1477 layer_factory.hpp:77] Creating layer scale4a_branch2b
I0627 04:15:37.073523  1477 net.cpp:84] Creating Layer scale4a_branch2b
I0627 04:15:37.073528  1477 net.cpp:406] scale4a_branch2b <- res4a_branch2b
I0627 04:15:37.073532  1477 net.cpp:367] scale4a_branch2b -> res4a_branch2b (in-place)
I0627 04:15:37.073588  1477 layer_factory.hpp:77] Creating layer scale4a_branch2b
I0627 04:15:37.073735  1477 net.cpp:122] Setting up scale4a_branch2b
I0627 04:15:37.073753  1477 net.cpp:129] Top shape: 8 256 14 14 (401408)
I0627 04:15:37.073757  1477 net.cpp:137] Memory required for data: 1429012640
I0627 04:15:37.073765  1477 layer_factory.hpp:77] Creating layer res4a_branch2b_relu
I0627 04:15:37.073771  1477 net.cpp:84] Creating Layer res4a_branch2b_relu
I0627 04:15:37.073776  1477 net.cpp:406] res4a_branch2b_relu <- res4a_branch2b
I0627 04:15:37.073783  1477 net.cpp:367] res4a_branch2b_relu -> res4a_branch2b (in-place)
I0627 04:15:37.073967  1477 net.cpp:122] Setting up res4a_branch2b_relu
I0627 04:15:37.073987  1477 net.cpp:129] Top shape: 8 256 14 14 (401408)
I0627 04:15:37.073992  1477 net.cpp:137] Memory required for data: 1430618272
I0627 04:15:37.073997  1477 layer_factory.hpp:77] Creating layer res4a_branch2c
I0627 04:15:37.074005  1477 net.cpp:84] Creating Layer res4a_branch2c
I0627 04:15:37.074010  1477 net.cpp:406] res4a_branch2c <- res4a_branch2b
I0627 04:15:37.074019  1477 net.cpp:380] res4a_branch2c -> res4a_branch2c
I0627 04:15:37.075640  1477 net.cpp:122] Setting up res4a_branch2c
I0627 04:15:37.075661  1477 net.cpp:129] Top shape: 8 1024 14 14 (1605632)
I0627 04:15:37.075665  1477 net.cpp:137] Memory required for data: 1437040800
I0627 04:15:37.075672  1477 layer_factory.hpp:77] Creating layer bn4a_branch2c
I0627 04:15:37.075680  1477 net.cpp:84] Creating Layer bn4a_branch2c
I0627 04:15:37.075685  1477 net.cpp:406] bn4a_branch2c <- res4a_branch2c
I0627 04:15:37.075693  1477 net.cpp:367] bn4a_branch2c -> res4a_branch2c (in-place)
I0627 04:15:37.075939  1477 net.cpp:122] Setting up bn4a_branch2c
I0627 04:15:37.075956  1477 net.cpp:129] Top shape: 8 1024 14 14 (1605632)
I0627 04:15:37.075960  1477 net.cpp:137] Memory required for data: 1443463328
I0627 04:15:37.075968  1477 layer_factory.hpp:77] Creating layer scale4a_branch2c
I0627 04:15:37.075976  1477 net.cpp:84] Creating Layer scale4a_branch2c
I0627 04:15:37.075980  1477 net.cpp:406] scale4a_branch2c <- res4a_branch2c
I0627 04:15:37.075985  1477 net.cpp:367] scale4a_branch2c -> res4a_branch2c (in-place)
I0627 04:15:37.076040  1477 layer_factory.hpp:77] Creating layer scale4a_branch2c
I0627 04:15:37.076196  1477 net.cpp:122] Setting up scale4a_branch2c
I0627 04:15:37.076212  1477 net.cpp:129] Top shape: 8 1024 14 14 (1605632)
I0627 04:15:37.076216  1477 net.cpp:137] Memory required for data: 1449885856
I0627 04:15:37.076223  1477 layer_factory.hpp:77] Creating layer res4a
I0627 04:15:37.076231  1477 net.cpp:84] Creating Layer res4a
I0627 04:15:37.076236  1477 net.cpp:406] res4a <- res4a_branch1
I0627 04:15:37.076239  1477 net.cpp:406] res4a <- res4a_branch2c
I0627 04:15:37.076247  1477 net.cpp:380] res4a -> res4a
I0627 04:15:37.076279  1477 net.cpp:122] Setting up res4a
I0627 04:15:37.076294  1477 net.cpp:129] Top shape: 8 1024 14 14 (1605632)
I0627 04:15:37.076298  1477 net.cpp:137] Memory required for data: 1456308384
I0627 04:15:37.076303  1477 layer_factory.hpp:77] Creating layer res4a_relu
I0627 04:15:37.076313  1477 net.cpp:84] Creating Layer res4a_relu
I0627 04:15:37.076316  1477 net.cpp:406] res4a_relu <- res4a
I0627 04:15:37.076321  1477 net.cpp:367] res4a_relu -> res4a (in-place)
I0627 04:15:37.076596  1477 net.cpp:122] Setting up res4a_relu
I0627 04:15:37.076616  1477 net.cpp:129] Top shape: 8 1024 14 14 (1605632)
I0627 04:15:37.076632  1477 net.cpp:137] Memory required for data: 1462730912
I0627 04:15:37.076637  1477 layer_factory.hpp:77] Creating layer res4a_res4a_relu_0_split
I0627 04:15:37.076664  1477 net.cpp:84] Creating Layer res4a_res4a_relu_0_split
I0627 04:15:37.076676  1477 net.cpp:406] res4a_res4a_relu_0_split <- res4a
I0627 04:15:37.076683  1477 net.cpp:380] res4a_res4a_relu_0_split -> res4a_res4a_relu_0_split_0
I0627 04:15:37.076691  1477 net.cpp:380] res4a_res4a_relu_0_split -> res4a_res4a_relu_0_split_1
I0627 04:15:37.076746  1477 net.cpp:122] Setting up res4a_res4a_relu_0_split
I0627 04:15:37.076761  1477 net.cpp:129] Top shape: 8 1024 14 14 (1605632)
I0627 04:15:37.076766  1477 net.cpp:129] Top shape: 8 1024 14 14 (1605632)
I0627 04:15:37.076769  1477 net.cpp:137] Memory required for data: 1475575968
I0627 04:15:37.076774  1477 layer_factory.hpp:77] Creating layer res4b_branch2a
I0627 04:15:37.076786  1477 net.cpp:84] Creating Layer res4b_branch2a
I0627 04:15:37.076792  1477 net.cpp:406] res4b_branch2a <- res4a_res4a_relu_0_split_0
I0627 04:15:37.076799  1477 net.cpp:380] res4b_branch2a -> res4b_branch2a
I0627 04:15:37.078477  1477 net.cpp:122] Setting up res4b_branch2a
I0627 04:15:37.078501  1477 net.cpp:129] Top shape: 8 256 14 14 (401408)
I0627 04:15:37.078506  1477 net.cpp:137] Memory required for data: 1477181600
I0627 04:15:37.078512  1477 layer_factory.hpp:77] Creating layer bn4b_branch2a
I0627 04:15:37.078521  1477 net.cpp:84] Creating Layer bn4b_branch2a
I0627 04:15:37.078528  1477 net.cpp:406] bn4b_branch2a <- res4b_branch2a
I0627 04:15:37.078534  1477 net.cpp:367] bn4b_branch2a -> res4b_branch2a (in-place)
I0627 04:15:37.078775  1477 net.cpp:122] Setting up bn4b_branch2a
I0627 04:15:37.078791  1477 net.cpp:129] Top shape: 8 256 14 14 (401408)
I0627 04:15:37.078796  1477 net.cpp:137] Memory required for data: 1478787232
I0627 04:15:37.078805  1477 layer_factory.hpp:77] Creating layer scale4b_branch2a
I0627 04:15:37.078815  1477 net.cpp:84] Creating Layer scale4b_branch2a
I0627 04:15:37.078819  1477 net.cpp:406] scale4b_branch2a <- res4b_branch2a
I0627 04:15:37.078825  1477 net.cpp:367] scale4b_branch2a -> res4b_branch2a (in-place)
I0627 04:15:37.078881  1477 layer_factory.hpp:77] Creating layer scale4b_branch2a
I0627 04:15:37.079035  1477 net.cpp:122] Setting up scale4b_branch2a
I0627 04:15:37.079051  1477 net.cpp:129] Top shape: 8 256 14 14 (401408)
I0627 04:15:37.079054  1477 net.cpp:137] Memory required for data: 1480392864
I0627 04:15:37.079061  1477 layer_factory.hpp:77] Creating layer res4b_branch2a_relu
I0627 04:15:37.079069  1477 net.cpp:84] Creating Layer res4b_branch2a_relu
I0627 04:15:37.079073  1477 net.cpp:406] res4b_branch2a_relu <- res4b_branch2a
I0627 04:15:37.079080  1477 net.cpp:367] res4b_branch2a_relu -> res4b_branch2a (in-place)
I0627 04:15:37.079247  1477 net.cpp:122] Setting up res4b_branch2a_relu
I0627 04:15:37.079264  1477 net.cpp:129] Top shape: 8 256 14 14 (401408)
I0627 04:15:37.079269  1477 net.cpp:137] Memory required for data: 1481998496
I0627 04:15:37.079273  1477 layer_factory.hpp:77] Creating layer res4b_branch2b
I0627 04:15:37.079285  1477 net.cpp:84] Creating Layer res4b_branch2b
I0627 04:15:37.079290  1477 net.cpp:406] res4b_branch2b <- res4b_branch2a
I0627 04:15:37.079298  1477 net.cpp:380] res4b_branch2b -> res4b_branch2b
I0627 04:15:37.081661  1477 net.cpp:122] Setting up res4b_branch2b
I0627 04:15:37.081682  1477 net.cpp:129] Top shape: 8 256 14 14 (401408)
I0627 04:15:37.081687  1477 net.cpp:137] Memory required for data: 1483604128
I0627 04:15:37.081694  1477 layer_factory.hpp:77] Creating layer bn4b_branch2b
I0627 04:15:37.081702  1477 net.cpp:84] Creating Layer bn4b_branch2b
I0627 04:15:37.081707  1477 net.cpp:406] bn4b_branch2b <- res4b_branch2b
I0627 04:15:37.081713  1477 net.cpp:367] bn4b_branch2b -> res4b_branch2b (in-place)
I0627 04:15:37.081969  1477 net.cpp:122] Setting up bn4b_branch2b
I0627 04:15:37.081986  1477 net.cpp:129] Top shape: 8 256 14 14 (401408)
I0627 04:15:37.081990  1477 net.cpp:137] Memory required for data: 1485209760
I0627 04:15:37.082012  1477 layer_factory.hpp:77] Creating layer scale4b_branch2b
I0627 04:15:37.082021  1477 net.cpp:84] Creating Layer scale4b_branch2b
I0627 04:15:37.082026  1477 net.cpp:406] scale4b_branch2b <- res4b_branch2b
I0627 04:15:37.082034  1477 net.cpp:367] scale4b_branch2b -> res4b_branch2b (in-place)
I0627 04:15:37.082093  1477 layer_factory.hpp:77] Creating layer scale4b_branch2b
I0627 04:15:37.082243  1477 net.cpp:122] Setting up scale4b_branch2b
I0627 04:15:37.082259  1477 net.cpp:129] Top shape: 8 256 14 14 (401408)
I0627 04:15:37.082262  1477 net.cpp:137] Memory required for data: 1486815392
I0627 04:15:37.082270  1477 layer_factory.hpp:77] Creating layer res4b_branch2b_relu
I0627 04:15:37.082279  1477 net.cpp:84] Creating Layer res4b_branch2b_relu
I0627 04:15:37.082283  1477 net.cpp:406] res4b_branch2b_relu <- res4b_branch2b
I0627 04:15:37.082288  1477 net.cpp:367] res4b_branch2b_relu -> res4b_branch2b (in-place)
I0627 04:15:37.082465  1477 net.cpp:122] Setting up res4b_branch2b_relu
I0627 04:15:37.082484  1477 net.cpp:129] Top shape: 8 256 14 14 (401408)
I0627 04:15:37.082487  1477 net.cpp:137] Memory required for data: 1488421024
I0627 04:15:37.082492  1477 layer_factory.hpp:77] Creating layer res4b_branch2c
I0627 04:15:37.082504  1477 net.cpp:84] Creating Layer res4b_branch2c
I0627 04:15:37.082509  1477 net.cpp:406] res4b_branch2c <- res4b_branch2b
I0627 04:15:37.082521  1477 net.cpp:380] res4b_branch2c -> res4b_branch2c
I0627 04:15:37.084153  1477 net.cpp:122] Setting up res4b_branch2c
I0627 04:15:37.084174  1477 net.cpp:129] Top shape: 8 1024 14 14 (1605632)
I0627 04:15:37.084178  1477 net.cpp:137] Memory required for data: 1494843552
I0627 04:15:37.084185  1477 layer_factory.hpp:77] Creating layer bn4b_branch2c
I0627 04:15:37.084195  1477 net.cpp:84] Creating Layer bn4b_branch2c
I0627 04:15:37.084200  1477 net.cpp:406] bn4b_branch2c <- res4b_branch2c
I0627 04:15:37.084208  1477 net.cpp:367] bn4b_branch2c -> res4b_branch2c (in-place)
I0627 04:15:37.084455  1477 net.cpp:122] Setting up bn4b_branch2c
I0627 04:15:37.084472  1477 net.cpp:129] Top shape: 8 1024 14 14 (1605632)
I0627 04:15:37.084475  1477 net.cpp:137] Memory required for data: 1501266080
I0627 04:15:37.084484  1477 layer_factory.hpp:77] Creating layer scale4b_branch2c
I0627 04:15:37.084492  1477 net.cpp:84] Creating Layer scale4b_branch2c
I0627 04:15:37.084496  1477 net.cpp:406] scale4b_branch2c <- res4b_branch2c
I0627 04:15:37.084504  1477 net.cpp:367] scale4b_branch2c -> res4b_branch2c (in-place)
I0627 04:15:37.084554  1477 layer_factory.hpp:77] Creating layer scale4b_branch2c
I0627 04:15:37.084717  1477 net.cpp:122] Setting up scale4b_branch2c
I0627 04:15:37.084733  1477 net.cpp:129] Top shape: 8 1024 14 14 (1605632)
I0627 04:15:37.084738  1477 net.cpp:137] Memory required for data: 1507688608
I0627 04:15:37.084744  1477 layer_factory.hpp:77] Creating layer res4b
I0627 04:15:37.084751  1477 net.cpp:84] Creating Layer res4b
I0627 04:15:37.084756  1477 net.cpp:406] res4b <- res4a_res4a_relu_0_split_1
I0627 04:15:37.084760  1477 net.cpp:406] res4b <- res4b_branch2c
I0627 04:15:37.084766  1477 net.cpp:380] res4b -> res4b
I0627 04:15:37.084815  1477 net.cpp:122] Setting up res4b
I0627 04:15:37.084830  1477 net.cpp:129] Top shape: 8 1024 14 14 (1605632)
I0627 04:15:37.084834  1477 net.cpp:137] Memory required for data: 1514111136
I0627 04:15:37.084838  1477 layer_factory.hpp:77] Creating layer res4b_relu
I0627 04:15:37.084846  1477 net.cpp:84] Creating Layer res4b_relu
I0627 04:15:37.084849  1477 net.cpp:406] res4b_relu <- res4b
I0627 04:15:37.084857  1477 net.cpp:367] res4b_relu -> res4b (in-place)
I0627 04:15:37.085137  1477 net.cpp:122] Setting up res4b_relu
I0627 04:15:37.085158  1477 net.cpp:129] Top shape: 8 1024 14 14 (1605632)
I0627 04:15:37.085163  1477 net.cpp:137] Memory required for data: 1520533664
I0627 04:15:37.085167  1477 layer_factory.hpp:77] Creating layer res4b_res4b_relu_0_split
I0627 04:15:37.085175  1477 net.cpp:84] Creating Layer res4b_res4b_relu_0_split
I0627 04:15:37.085178  1477 net.cpp:406] res4b_res4b_relu_0_split <- res4b
I0627 04:15:37.085197  1477 net.cpp:380] res4b_res4b_relu_0_split -> res4b_res4b_relu_0_split_0
I0627 04:15:37.085206  1477 net.cpp:380] res4b_res4b_relu_0_split -> res4b_res4b_relu_0_split_1
I0627 04:15:37.085261  1477 net.cpp:122] Setting up res4b_res4b_relu_0_split
I0627 04:15:37.085276  1477 net.cpp:129] Top shape: 8 1024 14 14 (1605632)
I0627 04:15:37.085283  1477 net.cpp:129] Top shape: 8 1024 14 14 (1605632)
I0627 04:15:37.085285  1477 net.cpp:137] Memory required for data: 1533378720
I0627 04:15:37.085289  1477 layer_factory.hpp:77] Creating layer res4c_branch2a
I0627 04:15:37.085301  1477 net.cpp:84] Creating Layer res4c_branch2a
I0627 04:15:37.085306  1477 net.cpp:406] res4c_branch2a <- res4b_res4b_relu_0_split_0
I0627 04:15:37.085314  1477 net.cpp:380] res4c_branch2a -> res4c_branch2a
I0627 04:15:37.086968  1477 net.cpp:122] Setting up res4c_branch2a
I0627 04:15:37.086990  1477 net.cpp:129] Top shape: 8 256 14 14 (401408)
I0627 04:15:37.086995  1477 net.cpp:137] Memory required for data: 1534984352
I0627 04:15:37.087002  1477 layer_factory.hpp:77] Creating layer bn4c_branch2a
I0627 04:15:37.087013  1477 net.cpp:84] Creating Layer bn4c_branch2a
I0627 04:15:37.087016  1477 net.cpp:406] bn4c_branch2a <- res4c_branch2a
I0627 04:15:37.087025  1477 net.cpp:367] bn4c_branch2a -> res4c_branch2a (in-place)
I0627 04:15:37.087270  1477 net.cpp:122] Setting up bn4c_branch2a
I0627 04:15:37.087286  1477 net.cpp:129] Top shape: 8 256 14 14 (401408)
I0627 04:15:37.087291  1477 net.cpp:137] Memory required for data: 1536589984
I0627 04:15:37.087299  1477 layer_factory.hpp:77] Creating layer scale4c_branch2a
I0627 04:15:37.087309  1477 net.cpp:84] Creating Layer scale4c_branch2a
I0627 04:15:37.087314  1477 net.cpp:406] scale4c_branch2a <- res4c_branch2a
I0627 04:15:37.087321  1477 net.cpp:367] scale4c_branch2a -> res4c_branch2a (in-place)
I0627 04:15:37.087376  1477 layer_factory.hpp:77] Creating layer scale4c_branch2a
I0627 04:15:37.087533  1477 net.cpp:122] Setting up scale4c_branch2a
I0627 04:15:37.087553  1477 net.cpp:129] Top shape: 8 256 14 14 (401408)
I0627 04:15:37.087556  1477 net.cpp:137] Memory required for data: 1538195616
I0627 04:15:37.087563  1477 layer_factory.hpp:77] Creating layer res4c_branch2a_relu
I0627 04:15:37.087570  1477 net.cpp:84] Creating Layer res4c_branch2a_relu
I0627 04:15:37.087574  1477 net.cpp:406] res4c_branch2a_relu <- res4c_branch2a
I0627 04:15:37.087579  1477 net.cpp:367] res4c_branch2a_relu -> res4c_branch2a (in-place)
I0627 04:15:37.087761  1477 net.cpp:122] Setting up res4c_branch2a_relu
I0627 04:15:37.087779  1477 net.cpp:129] Top shape: 8 256 14 14 (401408)
I0627 04:15:37.087783  1477 net.cpp:137] Memory required for data: 1539801248
I0627 04:15:37.087787  1477 layer_factory.hpp:77] Creating layer res4c_branch2b
I0627 04:15:37.087800  1477 net.cpp:84] Creating Layer res4c_branch2b
I0627 04:15:37.087805  1477 net.cpp:406] res4c_branch2b <- res4c_branch2a
I0627 04:15:37.087812  1477 net.cpp:380] res4c_branch2b -> res4c_branch2b
I0627 04:15:37.090248  1477 net.cpp:122] Setting up res4c_branch2b
I0627 04:15:37.090270  1477 net.cpp:129] Top shape: 8 256 14 14 (401408)
I0627 04:15:37.090275  1477 net.cpp:137] Memory required for data: 1541406880
I0627 04:15:37.090281  1477 layer_factory.hpp:77] Creating layer bn4c_branch2b
I0627 04:15:37.090291  1477 net.cpp:84] Creating Layer bn4c_branch2b
I0627 04:15:37.090296  1477 net.cpp:406] bn4c_branch2b <- res4c_branch2b
I0627 04:15:37.090303  1477 net.cpp:367] bn4c_branch2b -> res4c_branch2b (in-place)
I0627 04:15:37.090553  1477 net.cpp:122] Setting up bn4c_branch2b
I0627 04:15:37.090569  1477 net.cpp:129] Top shape: 8 256 14 14 (401408)
I0627 04:15:37.090574  1477 net.cpp:137] Memory required for data: 1543012512
I0627 04:15:37.090584  1477 layer_factory.hpp:77] Creating layer scale4c_branch2b
I0627 04:15:37.090593  1477 net.cpp:84] Creating Layer scale4c_branch2b
I0627 04:15:37.090598  1477 net.cpp:406] scale4c_branch2b <- res4c_branch2b
I0627 04:15:37.090603  1477 net.cpp:367] scale4c_branch2b -> res4c_branch2b (in-place)
I0627 04:15:37.090683  1477 layer_factory.hpp:77] Creating layer scale4c_branch2b
I0627 04:15:37.090842  1477 net.cpp:122] Setting up scale4c_branch2b
I0627 04:15:37.090858  1477 net.cpp:129] Top shape: 8 256 14 14 (401408)
I0627 04:15:37.090862  1477 net.cpp:137] Memory required for data: 1544618144
I0627 04:15:37.090869  1477 layer_factory.hpp:77] Creating layer res4c_branch2b_relu
I0627 04:15:37.090876  1477 net.cpp:84] Creating Layer res4c_branch2b_relu
I0627 04:15:37.090881  1477 net.cpp:406] res4c_branch2b_relu <- res4c_branch2b
I0627 04:15:37.090888  1477 net.cpp:367] res4c_branch2b_relu -> res4c_branch2b (in-place)
I0627 04:15:37.091061  1477 net.cpp:122] Setting up res4c_branch2b_relu
I0627 04:15:37.091078  1477 net.cpp:129] Top shape: 8 256 14 14 (401408)
I0627 04:15:37.091084  1477 net.cpp:137] Memory required for data: 1546223776
I0627 04:15:37.091087  1477 layer_factory.hpp:77] Creating layer res4c_branch2c
I0627 04:15:37.091099  1477 net.cpp:84] Creating Layer res4c_branch2c
I0627 04:15:37.091106  1477 net.cpp:406] res4c_branch2c <- res4c_branch2b
I0627 04:15:37.091114  1477 net.cpp:380] res4c_branch2c -> res4c_branch2c
I0627 04:15:37.092777  1477 net.cpp:122] Setting up res4c_branch2c
I0627 04:15:37.092797  1477 net.cpp:129] Top shape: 8 1024 14 14 (1605632)
I0627 04:15:37.092802  1477 net.cpp:137] Memory required for data: 1552646304
I0627 04:15:37.092808  1477 layer_factory.hpp:77] Creating layer bn4c_branch2c
I0627 04:15:37.092818  1477 net.cpp:84] Creating Layer bn4c_branch2c
I0627 04:15:37.092823  1477 net.cpp:406] bn4c_branch2c <- res4c_branch2c
I0627 04:15:37.092828  1477 net.cpp:367] bn4c_branch2c -> res4c_branch2c (in-place)
I0627 04:15:37.093081  1477 net.cpp:122] Setting up bn4c_branch2c
I0627 04:15:37.093097  1477 net.cpp:129] Top shape: 8 1024 14 14 (1605632)
I0627 04:15:37.093102  1477 net.cpp:137] Memory required for data: 1559068832
I0627 04:15:37.093113  1477 layer_factory.hpp:77] Creating layer scale4c_branch2c
I0627 04:15:37.093122  1477 net.cpp:84] Creating Layer scale4c_branch2c
I0627 04:15:37.093125  1477 net.cpp:406] scale4c_branch2c <- res4c_branch2c
I0627 04:15:37.093132  1477 net.cpp:367] scale4c_branch2c -> res4c_branch2c (in-place)
I0627 04:15:37.093188  1477 layer_factory.hpp:77] Creating layer scale4c_branch2c
I0627 04:15:37.093350  1477 net.cpp:122] Setting up scale4c_branch2c
I0627 04:15:37.093369  1477 net.cpp:129] Top shape: 8 1024 14 14 (1605632)
I0627 04:15:37.093374  1477 net.cpp:137] Memory required for data: 1565491360
I0627 04:15:37.093380  1477 layer_factory.hpp:77] Creating layer res4c
I0627 04:15:37.093389  1477 net.cpp:84] Creating Layer res4c
I0627 04:15:37.093394  1477 net.cpp:406] res4c <- res4b_res4b_relu_0_split_1
I0627 04:15:37.093400  1477 net.cpp:406] res4c <- res4c_branch2c
I0627 04:15:37.093405  1477 net.cpp:380] res4c -> res4c
I0627 04:15:37.093441  1477 net.cpp:122] Setting up res4c
I0627 04:15:37.093456  1477 net.cpp:129] Top shape: 8 1024 14 14 (1605632)
I0627 04:15:37.093461  1477 net.cpp:137] Memory required for data: 1571913888
I0627 04:15:37.093464  1477 layer_factory.hpp:77] Creating layer res4c_relu
I0627 04:15:37.093471  1477 net.cpp:84] Creating Layer res4c_relu
I0627 04:15:37.093474  1477 net.cpp:406] res4c_relu <- res4c
I0627 04:15:37.093484  1477 net.cpp:367] res4c_relu -> res4c (in-place)
I0627 04:15:37.093763  1477 net.cpp:122] Setting up res4c_relu
I0627 04:15:37.093782  1477 net.cpp:129] Top shape: 8 1024 14 14 (1605632)
I0627 04:15:37.093786  1477 net.cpp:137] Memory required for data: 1578336416
I0627 04:15:37.093791  1477 layer_factory.hpp:77] Creating layer res4c_res4c_relu_0_split
I0627 04:15:37.093801  1477 net.cpp:84] Creating Layer res4c_res4c_relu_0_split
I0627 04:15:37.093804  1477 net.cpp:406] res4c_res4c_relu_0_split <- res4c
I0627 04:15:37.093811  1477 net.cpp:380] res4c_res4c_relu_0_split -> res4c_res4c_relu_0_split_0
I0627 04:15:37.093818  1477 net.cpp:380] res4c_res4c_relu_0_split -> res4c_res4c_relu_0_split_1
I0627 04:15:37.093888  1477 net.cpp:122] Setting up res4c_res4c_relu_0_split
I0627 04:15:37.093904  1477 net.cpp:129] Top shape: 8 1024 14 14 (1605632)
I0627 04:15:37.093922  1477 net.cpp:129] Top shape: 8 1024 14 14 (1605632)
I0627 04:15:37.093926  1477 net.cpp:137] Memory required for data: 1591181472
I0627 04:15:37.093930  1477 layer_factory.hpp:77] Creating layer res4d_branch2a
I0627 04:15:37.093951  1477 net.cpp:84] Creating Layer res4d_branch2a
I0627 04:15:37.093962  1477 net.cpp:406] res4d_branch2a <- res4c_res4c_relu_0_split_0
I0627 04:15:37.093969  1477 net.cpp:380] res4d_branch2a -> res4d_branch2a
I0627 04:15:37.095587  1477 net.cpp:122] Setting up res4d_branch2a
I0627 04:15:37.095608  1477 net.cpp:129] Top shape: 8 256 14 14 (401408)
I0627 04:15:37.095613  1477 net.cpp:137] Memory required for data: 1592787104
I0627 04:15:37.095619  1477 layer_factory.hpp:77] Creating layer bn4d_branch2a
I0627 04:15:37.095630  1477 net.cpp:84] Creating Layer bn4d_branch2a
I0627 04:15:37.095635  1477 net.cpp:406] bn4d_branch2a <- res4d_branch2a
I0627 04:15:37.095643  1477 net.cpp:367] bn4d_branch2a -> res4d_branch2a (in-place)
I0627 04:15:37.095898  1477 net.cpp:122] Setting up bn4d_branch2a
I0627 04:15:37.095916  1477 net.cpp:129] Top shape: 8 256 14 14 (401408)
I0627 04:15:37.095918  1477 net.cpp:137] Memory required for data: 1594392736
I0627 04:15:37.095927  1477 layer_factory.hpp:77] Creating layer scale4d_branch2a
I0627 04:15:37.095937  1477 net.cpp:84] Creating Layer scale4d_branch2a
I0627 04:15:37.095942  1477 net.cpp:406] scale4d_branch2a <- res4d_branch2a
I0627 04:15:37.095948  1477 net.cpp:367] scale4d_branch2a -> res4d_branch2a (in-place)
I0627 04:15:37.096007  1477 layer_factory.hpp:77] Creating layer scale4d_branch2a
I0627 04:15:37.096170  1477 net.cpp:122] Setting up scale4d_branch2a
I0627 04:15:37.096186  1477 net.cpp:129] Top shape: 8 256 14 14 (401408)
I0627 04:15:37.096190  1477 net.cpp:137] Memory required for data: 1595998368
I0627 04:15:37.096197  1477 layer_factory.hpp:77] Creating layer res4d_branch2a_relu
I0627 04:15:37.096204  1477 net.cpp:84] Creating Layer res4d_branch2a_relu
I0627 04:15:37.096209  1477 net.cpp:406] res4d_branch2a_relu <- res4d_branch2a
I0627 04:15:37.096213  1477 net.cpp:367] res4d_branch2a_relu -> res4d_branch2a (in-place)
I0627 04:15:37.096381  1477 net.cpp:122] Setting up res4d_branch2a_relu
I0627 04:15:37.096400  1477 net.cpp:129] Top shape: 8 256 14 14 (401408)
I0627 04:15:37.096403  1477 net.cpp:137] Memory required for data: 1597604000
I0627 04:15:37.096407  1477 layer_factory.hpp:77] Creating layer res4d_branch2b
I0627 04:15:37.096420  1477 net.cpp:84] Creating Layer res4d_branch2b
I0627 04:15:37.096424  1477 net.cpp:406] res4d_branch2b <- res4d_branch2a
I0627 04:15:37.096432  1477 net.cpp:380] res4d_branch2b -> res4d_branch2b
I0627 04:15:37.098665  1477 net.cpp:122] Setting up res4d_branch2b
I0627 04:15:37.098686  1477 net.cpp:129] Top shape: 8 256 14 14 (401408)
I0627 04:15:37.098690  1477 net.cpp:137] Memory required for data: 1599209632
I0627 04:15:37.098697  1477 layer_factory.hpp:77] Creating layer bn4d_branch2b
I0627 04:15:37.098707  1477 net.cpp:84] Creating Layer bn4d_branch2b
I0627 04:15:37.098712  1477 net.cpp:406] bn4d_branch2b <- res4d_branch2b
I0627 04:15:37.098718  1477 net.cpp:367] bn4d_branch2b -> res4d_branch2b (in-place)
I0627 04:15:37.098980  1477 net.cpp:122] Setting up bn4d_branch2b
I0627 04:15:37.098999  1477 net.cpp:129] Top shape: 8 256 14 14 (401408)
I0627 04:15:37.099004  1477 net.cpp:137] Memory required for data: 1600815264
I0627 04:15:37.099012  1477 layer_factory.hpp:77] Creating layer scale4d_branch2b
I0627 04:15:37.099020  1477 net.cpp:84] Creating Layer scale4d_branch2b
I0627 04:15:37.099025  1477 net.cpp:406] scale4d_branch2b <- res4d_branch2b
I0627 04:15:37.099030  1477 net.cpp:367] scale4d_branch2b -> res4d_branch2b (in-place)
I0627 04:15:37.099090  1477 layer_factory.hpp:77] Creating layer scale4d_branch2b
I0627 04:15:37.099251  1477 net.cpp:122] Setting up scale4d_branch2b
I0627 04:15:37.099267  1477 net.cpp:129] Top shape: 8 256 14 14 (401408)
I0627 04:15:37.099270  1477 net.cpp:137] Memory required for data: 1602420896
I0627 04:15:37.099277  1477 layer_factory.hpp:77] Creating layer res4d_branch2b_relu
I0627 04:15:37.099303  1477 net.cpp:84] Creating Layer res4d_branch2b_relu
I0627 04:15:37.099309  1477 net.cpp:406] res4d_branch2b_relu <- res4d_branch2b
I0627 04:15:37.099314  1477 net.cpp:367] res4d_branch2b_relu -> res4d_branch2b (in-place)
I0627 04:15:37.099484  1477 net.cpp:122] Setting up res4d_branch2b_relu
I0627 04:15:37.099504  1477 net.cpp:129] Top shape: 8 256 14 14 (401408)
I0627 04:15:37.099509  1477 net.cpp:137] Memory required for data: 1604026528
I0627 04:15:37.099512  1477 layer_factory.hpp:77] Creating layer res4d_branch2c
I0627 04:15:37.099522  1477 net.cpp:84] Creating Layer res4d_branch2c
I0627 04:15:37.099526  1477 net.cpp:406] res4d_branch2c <- res4d_branch2b
I0627 04:15:37.099535  1477 net.cpp:380] res4d_branch2c -> res4d_branch2c
I0627 04:15:37.101198  1477 net.cpp:122] Setting up res4d_branch2c
I0627 04:15:37.101219  1477 net.cpp:129] Top shape: 8 1024 14 14 (1605632)
I0627 04:15:37.101224  1477 net.cpp:137] Memory required for data: 1610449056
I0627 04:15:37.101230  1477 layer_factory.hpp:77] Creating layer bn4d_branch2c
I0627 04:15:37.101240  1477 net.cpp:84] Creating Layer bn4d_branch2c
I0627 04:15:37.101246  1477 net.cpp:406] bn4d_branch2c <- res4d_branch2c
I0627 04:15:37.101251  1477 net.cpp:367] bn4d_branch2c -> res4d_branch2c (in-place)
I0627 04:15:37.101514  1477 net.cpp:122] Setting up bn4d_branch2c
I0627 04:15:37.101531  1477 net.cpp:129] Top shape: 8 1024 14 14 (1605632)
I0627 04:15:37.101534  1477 net.cpp:137] Memory required for data: 1616871584
I0627 04:15:37.101543  1477 layer_factory.hpp:77] Creating layer scale4d_branch2c
I0627 04:15:37.101550  1477 net.cpp:84] Creating Layer scale4d_branch2c
I0627 04:15:37.101555  1477 net.cpp:406] scale4d_branch2c <- res4d_branch2c
I0627 04:15:37.101563  1477 net.cpp:367] scale4d_branch2c -> res4d_branch2c (in-place)
I0627 04:15:37.101616  1477 layer_factory.hpp:77] Creating layer scale4d_branch2c
I0627 04:15:37.101788  1477 net.cpp:122] Setting up scale4d_branch2c
I0627 04:15:37.101804  1477 net.cpp:129] Top shape: 8 1024 14 14 (1605632)
I0627 04:15:37.101809  1477 net.cpp:137] Memory required for data: 1623294112
I0627 04:15:37.101815  1477 layer_factory.hpp:77] Creating layer res4d
I0627 04:15:37.101826  1477 net.cpp:84] Creating Layer res4d
I0627 04:15:37.101848  1477 net.cpp:406] res4d <- res4c_res4c_relu_0_split_1
I0627 04:15:37.101855  1477 net.cpp:406] res4d <- res4d_branch2c
I0627 04:15:37.101861  1477 net.cpp:380] res4d -> res4d
I0627 04:15:37.101898  1477 net.cpp:122] Setting up res4d
I0627 04:15:37.101913  1477 net.cpp:129] Top shape: 8 1024 14 14 (1605632)
I0627 04:15:37.101917  1477 net.cpp:137] Memory required for data: 1629716640
I0627 04:15:37.101922  1477 layer_factory.hpp:77] Creating layer res4d_relu
I0627 04:15:37.101927  1477 net.cpp:84] Creating Layer res4d_relu
I0627 04:15:37.101933  1477 net.cpp:406] res4d_relu <- res4d
I0627 04:15:37.101939  1477 net.cpp:367] res4d_relu -> res4d (in-place)
I0627 04:15:37.102226  1477 net.cpp:122] Setting up res4d_relu
I0627 04:15:37.102244  1477 net.cpp:129] Top shape: 8 1024 14 14 (1605632)
I0627 04:15:37.102248  1477 net.cpp:137] Memory required for data: 1636139168
I0627 04:15:37.102252  1477 layer_factory.hpp:77] Creating layer res4d_res4d_relu_0_split
I0627 04:15:37.102262  1477 net.cpp:84] Creating Layer res4d_res4d_relu_0_split
I0627 04:15:37.102267  1477 net.cpp:406] res4d_res4d_relu_0_split <- res4d
I0627 04:15:37.102272  1477 net.cpp:380] res4d_res4d_relu_0_split -> res4d_res4d_relu_0_split_0
I0627 04:15:37.102279  1477 net.cpp:380] res4d_res4d_relu_0_split -> res4d_res4d_relu_0_split_1
I0627 04:15:37.102339  1477 net.cpp:122] Setting up res4d_res4d_relu_0_split
I0627 04:15:37.102354  1477 net.cpp:129] Top shape: 8 1024 14 14 (1605632)
I0627 04:15:37.102360  1477 net.cpp:129] Top shape: 8 1024 14 14 (1605632)
I0627 04:15:37.102362  1477 net.cpp:137] Memory required for data: 1648984224
I0627 04:15:37.102366  1477 layer_factory.hpp:77] Creating layer res4e_branch2a
I0627 04:15:37.102380  1477 net.cpp:84] Creating Layer res4e_branch2a
I0627 04:15:37.102403  1477 net.cpp:406] res4e_branch2a <- res4d_res4d_relu_0_split_0
I0627 04:15:37.102411  1477 net.cpp:380] res4e_branch2a -> res4e_branch2a
I0627 04:15:37.104090  1477 net.cpp:122] Setting up res4e_branch2a
I0627 04:15:37.104120  1477 net.cpp:129] Top shape: 8 256 14 14 (401408)
I0627 04:15:37.104125  1477 net.cpp:137] Memory required for data: 1650589856
I0627 04:15:37.104131  1477 layer_factory.hpp:77] Creating layer bn4e_branch2a
I0627 04:15:37.104141  1477 net.cpp:84] Creating Layer bn4e_branch2a
I0627 04:15:37.104146  1477 net.cpp:406] bn4e_branch2a <- res4e_branch2a
I0627 04:15:37.104152  1477 net.cpp:367] bn4e_branch2a -> res4e_branch2a (in-place)
I0627 04:15:37.104419  1477 net.cpp:122] Setting up bn4e_branch2a
I0627 04:15:37.104439  1477 net.cpp:129] Top shape: 8 256 14 14 (401408)
I0627 04:15:37.104442  1477 net.cpp:137] Memory required for data: 1652195488
I0627 04:15:37.104451  1477 layer_factory.hpp:77] Creating layer scale4e_branch2a
I0627 04:15:37.104460  1477 net.cpp:84] Creating Layer scale4e_branch2a
I0627 04:15:37.104463  1477 net.cpp:406] scale4e_branch2a <- res4e_branch2a
I0627 04:15:37.104470  1477 net.cpp:367] scale4e_branch2a -> res4e_branch2a (in-place)
I0627 04:15:37.104529  1477 layer_factory.hpp:77] Creating layer scale4e_branch2a
I0627 04:15:37.104696  1477 net.cpp:122] Setting up scale4e_branch2a
I0627 04:15:37.104713  1477 net.cpp:129] Top shape: 8 256 14 14 (401408)
I0627 04:15:37.104717  1477 net.cpp:137] Memory required for data: 1653801120
I0627 04:15:37.104723  1477 layer_factory.hpp:77] Creating layer res4e_branch2a_relu
I0627 04:15:37.104733  1477 net.cpp:84] Creating Layer res4e_branch2a_relu
I0627 04:15:37.104737  1477 net.cpp:406] res4e_branch2a_relu <- res4e_branch2a
I0627 04:15:37.104743  1477 net.cpp:367] res4e_branch2a_relu -> res4e_branch2a (in-place)
I0627 04:15:37.104909  1477 net.cpp:122] Setting up res4e_branch2a_relu
I0627 04:15:37.104926  1477 net.cpp:129] Top shape: 8 256 14 14 (401408)
I0627 04:15:37.104933  1477 net.cpp:137] Memory required for data: 1655406752
I0627 04:15:37.104938  1477 layer_factory.hpp:77] Creating layer res4e_branch2b
I0627 04:15:37.104950  1477 net.cpp:84] Creating Layer res4e_branch2b
I0627 04:15:37.104955  1477 net.cpp:406] res4e_branch2b <- res4e_branch2a
I0627 04:15:37.104961  1477 net.cpp:380] res4e_branch2b -> res4e_branch2b
I0627 04:15:37.107332  1477 net.cpp:122] Setting up res4e_branch2b
I0627 04:15:37.107354  1477 net.cpp:129] Top shape: 8 256 14 14 (401408)
I0627 04:15:37.107359  1477 net.cpp:137] Memory required for data: 1657012384
I0627 04:15:37.107365  1477 layer_factory.hpp:77] Creating layer bn4e_branch2b
I0627 04:15:37.107375  1477 net.cpp:84] Creating Layer bn4e_branch2b
I0627 04:15:37.107380  1477 net.cpp:406] bn4e_branch2b <- res4e_branch2b
I0627 04:15:37.107386  1477 net.cpp:367] bn4e_branch2b -> res4e_branch2b (in-place)
I0627 04:15:37.107661  1477 net.cpp:122] Setting up bn4e_branch2b
I0627 04:15:37.107677  1477 net.cpp:129] Top shape: 8 256 14 14 (401408)
I0627 04:15:37.107681  1477 net.cpp:137] Memory required for data: 1658618016
I0627 04:15:37.107691  1477 layer_factory.hpp:77] Creating layer scale4e_branch2b
I0627 04:15:37.107700  1477 net.cpp:84] Creating Layer scale4e_branch2b
I0627 04:15:37.107705  1477 net.cpp:406] scale4e_branch2b <- res4e_branch2b
I0627 04:15:37.107710  1477 net.cpp:367] scale4e_branch2b -> res4e_branch2b (in-place)
I0627 04:15:37.107772  1477 layer_factory.hpp:77] Creating layer scale4e_branch2b
I0627 04:15:37.107939  1477 net.cpp:122] Setting up scale4e_branch2b
I0627 04:15:37.107954  1477 net.cpp:129] Top shape: 8 256 14 14 (401408)
I0627 04:15:37.107957  1477 net.cpp:137] Memory required for data: 1660223648
I0627 04:15:37.107964  1477 layer_factory.hpp:77] Creating layer res4e_branch2b_relu
I0627 04:15:37.107971  1477 net.cpp:84] Creating Layer res4e_branch2b_relu
I0627 04:15:37.107975  1477 net.cpp:406] res4e_branch2b_relu <- res4e_branch2b
I0627 04:15:37.107983  1477 net.cpp:367] res4e_branch2b_relu -> res4e_branch2b (in-place)
I0627 04:15:37.108163  1477 net.cpp:122] Setting up res4e_branch2b_relu
I0627 04:15:37.108194  1477 net.cpp:129] Top shape: 8 256 14 14 (401408)
I0627 04:15:37.108199  1477 net.cpp:137] Memory required for data: 1661829280
I0627 04:15:37.108203  1477 layer_factory.hpp:77] Creating layer res4e_branch2c
I0627 04:15:37.108217  1477 net.cpp:84] Creating Layer res4e_branch2c
I0627 04:15:37.108222  1477 net.cpp:406] res4e_branch2c <- res4e_branch2b
I0627 04:15:37.108228  1477 net.cpp:380] res4e_branch2c -> res4e_branch2c
I0627 04:15:37.109917  1477 net.cpp:122] Setting up res4e_branch2c
I0627 04:15:37.109938  1477 net.cpp:129] Top shape: 8 1024 14 14 (1605632)
I0627 04:15:37.109943  1477 net.cpp:137] Memory required for data: 1668251808
I0627 04:15:37.109949  1477 layer_factory.hpp:77] Creating layer bn4e_branch2c
I0627 04:15:37.109959  1477 net.cpp:84] Creating Layer bn4e_branch2c
I0627 04:15:37.109964  1477 net.cpp:406] bn4e_branch2c <- res4e_branch2c
I0627 04:15:37.109971  1477 net.cpp:367] bn4e_branch2c -> res4e_branch2c (in-place)
I0627 04:15:37.110247  1477 net.cpp:122] Setting up bn4e_branch2c
I0627 04:15:37.110266  1477 net.cpp:129] Top shape: 8 1024 14 14 (1605632)
I0627 04:15:37.110271  1477 net.cpp:137] Memory required for data: 1674674336
I0627 04:15:37.110280  1477 layer_factory.hpp:77] Creating layer scale4e_branch2c
I0627 04:15:37.110288  1477 net.cpp:84] Creating Layer scale4e_branch2c
I0627 04:15:37.110292  1477 net.cpp:406] scale4e_branch2c <- res4e_branch2c
I0627 04:15:37.110298  1477 net.cpp:367] scale4e_branch2c -> res4e_branch2c (in-place)
I0627 04:15:37.110355  1477 layer_factory.hpp:77] Creating layer scale4e_branch2c
I0627 04:15:37.110528  1477 net.cpp:122] Setting up scale4e_branch2c
I0627 04:15:37.110544  1477 net.cpp:129] Top shape: 8 1024 14 14 (1605632)
I0627 04:15:37.110548  1477 net.cpp:137] Memory required for data: 1681096864
I0627 04:15:37.110558  1477 layer_factory.hpp:77] Creating layer res4e
I0627 04:15:37.110568  1477 net.cpp:84] Creating Layer res4e
I0627 04:15:37.110572  1477 net.cpp:406] res4e <- res4d_res4d_relu_0_split_1
I0627 04:15:37.110577  1477 net.cpp:406] res4e <- res4e_branch2c
I0627 04:15:37.110584  1477 net.cpp:380] res4e -> res4e
I0627 04:15:37.110621  1477 net.cpp:122] Setting up res4e
I0627 04:15:37.110636  1477 net.cpp:129] Top shape: 8 1024 14 14 (1605632)
I0627 04:15:37.110641  1477 net.cpp:137] Memory required for data: 1687519392
I0627 04:15:37.110644  1477 layer_factory.hpp:77] Creating layer res4e_relu
I0627 04:15:37.110651  1477 net.cpp:84] Creating Layer res4e_relu
I0627 04:15:37.110656  1477 net.cpp:406] res4e_relu <- res4e
I0627 04:15:37.110662  1477 net.cpp:367] res4e_relu -> res4e (in-place)
I0627 04:15:37.110946  1477 net.cpp:122] Setting up res4e_relu
I0627 04:15:37.110967  1477 net.cpp:129] Top shape: 8 1024 14 14 (1605632)
I0627 04:15:37.110971  1477 net.cpp:137] Memory required for data: 1693941920
I0627 04:15:37.110976  1477 layer_factory.hpp:77] Creating layer res4e_res4e_relu_0_split
I0627 04:15:37.110983  1477 net.cpp:84] Creating Layer res4e_res4e_relu_0_split
I0627 04:15:37.110987  1477 net.cpp:406] res4e_res4e_relu_0_split <- res4e
I0627 04:15:37.110993  1477 net.cpp:380] res4e_res4e_relu_0_split -> res4e_res4e_relu_0_split_0
I0627 04:15:37.111001  1477 net.cpp:380] res4e_res4e_relu_0_split -> res4e_res4e_relu_0_split_1
I0627 04:15:37.111068  1477 net.cpp:122] Setting up res4e_res4e_relu_0_split
I0627 04:15:37.111083  1477 net.cpp:129] Top shape: 8 1024 14 14 (1605632)
I0627 04:15:37.111089  1477 net.cpp:129] Top shape: 8 1024 14 14 (1605632)
I0627 04:15:37.111093  1477 net.cpp:137] Memory required for data: 1706786976
I0627 04:15:37.111096  1477 layer_factory.hpp:77] Creating layer res4f_branch2a
I0627 04:15:37.111116  1477 net.cpp:84] Creating Layer res4f_branch2a
I0627 04:15:37.111129  1477 net.cpp:406] res4f_branch2a <- res4e_res4e_relu_0_split_0
I0627 04:15:37.111138  1477 net.cpp:380] res4f_branch2a -> res4f_branch2a
I0627 04:15:37.112931  1477 net.cpp:122] Setting up res4f_branch2a
I0627 04:15:37.112951  1477 net.cpp:129] Top shape: 8 256 14 14 (401408)
I0627 04:15:37.112975  1477 net.cpp:137] Memory required for data: 1708392608
I0627 04:15:37.112983  1477 layer_factory.hpp:77] Creating layer bn4f_branch2a
I0627 04:15:37.112994  1477 net.cpp:84] Creating Layer bn4f_branch2a
I0627 04:15:37.112999  1477 net.cpp:406] bn4f_branch2a <- res4f_branch2a
I0627 04:15:37.113005  1477 net.cpp:367] bn4f_branch2a -> res4f_branch2a (in-place)
I0627 04:15:37.113279  1477 net.cpp:122] Setting up bn4f_branch2a
I0627 04:15:37.113303  1477 net.cpp:129] Top shape: 8 256 14 14 (401408)
I0627 04:15:37.113308  1477 net.cpp:137] Memory required for data: 1709998240
I0627 04:15:37.113319  1477 layer_factory.hpp:77] Creating layer scale4f_branch2a
I0627 04:15:37.113327  1477 net.cpp:84] Creating Layer scale4f_branch2a
I0627 04:15:37.113332  1477 net.cpp:406] scale4f_branch2a <- res4f_branch2a
I0627 04:15:37.113337  1477 net.cpp:367] scale4f_branch2a -> res4f_branch2a (in-place)
I0627 04:15:37.113404  1477 layer_factory.hpp:77] Creating layer scale4f_branch2a
I0627 04:15:37.113575  1477 net.cpp:122] Setting up scale4f_branch2a
I0627 04:15:37.113591  1477 net.cpp:129] Top shape: 8 256 14 14 (401408)
I0627 04:15:37.113596  1477 net.cpp:137] Memory required for data: 1711603872
I0627 04:15:37.113603  1477 layer_factory.hpp:77] Creating layer res4f_branch2a_relu
I0627 04:15:37.113610  1477 net.cpp:84] Creating Layer res4f_branch2a_relu
I0627 04:15:37.113615  1477 net.cpp:406] res4f_branch2a_relu <- res4f_branch2a
I0627 04:15:37.113622  1477 net.cpp:367] res4f_branch2a_relu -> res4f_branch2a (in-place)
I0627 04:15:37.113793  1477 net.cpp:122] Setting up res4f_branch2a_relu
I0627 04:15:37.113811  1477 net.cpp:129] Top shape: 8 256 14 14 (401408)
I0627 04:15:37.113816  1477 net.cpp:137] Memory required for data: 1713209504
I0627 04:15:37.113821  1477 layer_factory.hpp:77] Creating layer res4f_branch2b
I0627 04:15:37.113845  1477 net.cpp:84] Creating Layer res4f_branch2b
I0627 04:15:37.113857  1477 net.cpp:406] res4f_branch2b <- res4f_branch2a
I0627 04:15:37.113864  1477 net.cpp:380] res4f_branch2b -> res4f_branch2b
I0627 04:15:37.116243  1477 net.cpp:122] Setting up res4f_branch2b
I0627 04:15:37.116264  1477 net.cpp:129] Top shape: 8 256 14 14 (401408)
I0627 04:15:37.116269  1477 net.cpp:137] Memory required for data: 1714815136
I0627 04:15:37.116276  1477 layer_factory.hpp:77] Creating layer bn4f_branch2b
I0627 04:15:37.116286  1477 net.cpp:84] Creating Layer bn4f_branch2b
I0627 04:15:37.116291  1477 net.cpp:406] bn4f_branch2b <- res4f_branch2b
I0627 04:15:37.116297  1477 net.cpp:367] bn4f_branch2b -> res4f_branch2b (in-place)
I0627 04:15:37.116575  1477 net.cpp:122] Setting up bn4f_branch2b
I0627 04:15:37.116592  1477 net.cpp:129] Top shape: 8 256 14 14 (401408)
I0627 04:15:37.116596  1477 net.cpp:137] Memory required for data: 1716420768
I0627 04:15:37.116605  1477 layer_factory.hpp:77] Creating layer scale4f_branch2b
I0627 04:15:37.116616  1477 net.cpp:84] Creating Layer scale4f_branch2b
I0627 04:15:37.116621  1477 net.cpp:406] scale4f_branch2b <- res4f_branch2b
I0627 04:15:37.116626  1477 net.cpp:367] scale4f_branch2b -> res4f_branch2b (in-place)
I0627 04:15:37.116688  1477 layer_factory.hpp:77] Creating layer scale4f_branch2b
I0627 04:15:37.116858  1477 net.cpp:122] Setting up scale4f_branch2b
I0627 04:15:37.116876  1477 net.cpp:129] Top shape: 8 256 14 14 (401408)
I0627 04:15:37.116880  1477 net.cpp:137] Memory required for data: 1718026400
I0627 04:15:37.116888  1477 layer_factory.hpp:77] Creating layer res4f_branch2b_relu
I0627 04:15:37.116894  1477 net.cpp:84] Creating Layer res4f_branch2b_relu
I0627 04:15:37.116899  1477 net.cpp:406] res4f_branch2b_relu <- res4f_branch2b
I0627 04:15:37.116906  1477 net.cpp:367] res4f_branch2b_relu -> res4f_branch2b (in-place)
I0627 04:15:37.117076  1477 net.cpp:122] Setting up res4f_branch2b_relu
I0627 04:15:37.117094  1477 net.cpp:129] Top shape: 8 256 14 14 (401408)
I0627 04:15:37.117099  1477 net.cpp:137] Memory required for data: 1719632032
I0627 04:15:37.117102  1477 layer_factory.hpp:77] Creating layer res4f_branch2c
I0627 04:15:37.117115  1477 net.cpp:84] Creating Layer res4f_branch2c
I0627 04:15:37.117136  1477 net.cpp:406] res4f_branch2c <- res4f_branch2b
I0627 04:15:37.117144  1477 net.cpp:380] res4f_branch2c -> res4f_branch2c
I0627 04:15:37.118862  1477 net.cpp:122] Setting up res4f_branch2c
I0627 04:15:37.118885  1477 net.cpp:129] Top shape: 8 1024 14 14 (1605632)
I0627 04:15:37.118888  1477 net.cpp:137] Memory required for data: 1726054560
I0627 04:15:37.118896  1477 layer_factory.hpp:77] Creating layer bn4f_branch2c
I0627 04:15:37.118906  1477 net.cpp:84] Creating Layer bn4f_branch2c
I0627 04:15:37.118911  1477 net.cpp:406] bn4f_branch2c <- res4f_branch2c
I0627 04:15:37.118916  1477 net.cpp:367] bn4f_branch2c -> res4f_branch2c (in-place)
I0627 04:15:37.119196  1477 net.cpp:122] Setting up bn4f_branch2c
I0627 04:15:37.119213  1477 net.cpp:129] Top shape: 8 1024 14 14 (1605632)
I0627 04:15:37.119217  1477 net.cpp:137] Memory required for data: 1732477088
I0627 04:15:37.119277  1477 layer_factory.hpp:77] Creating layer scale4f_branch2c
I0627 04:15:37.119295  1477 net.cpp:84] Creating Layer scale4f_branch2c
I0627 04:15:37.119300  1477 net.cpp:406] scale4f_branch2c <- res4f_branch2c
I0627 04:15:37.119307  1477 net.cpp:367] scale4f_branch2c -> res4f_branch2c (in-place)
I0627 04:15:37.119364  1477 layer_factory.hpp:77] Creating layer scale4f_branch2c
I0627 04:15:37.119535  1477 net.cpp:122] Setting up scale4f_branch2c
I0627 04:15:37.119551  1477 net.cpp:129] Top shape: 8 1024 14 14 (1605632)
I0627 04:15:37.119555  1477 net.cpp:137] Memory required for data: 1738899616
I0627 04:15:37.119562  1477 layer_factory.hpp:77] Creating layer res4f
I0627 04:15:37.119572  1477 net.cpp:84] Creating Layer res4f
I0627 04:15:37.119576  1477 net.cpp:406] res4f <- res4e_res4e_relu_0_split_1
I0627 04:15:37.119581  1477 net.cpp:406] res4f <- res4f_branch2c
I0627 04:15:37.119586  1477 net.cpp:380] res4f -> res4f
I0627 04:15:37.119626  1477 net.cpp:122] Setting up res4f
I0627 04:15:37.119640  1477 net.cpp:129] Top shape: 8 1024 14 14 (1605632)
I0627 04:15:37.119644  1477 net.cpp:137] Memory required for data: 1745322144
I0627 04:15:37.119648  1477 layer_factory.hpp:77] Creating layer res4f_relu
I0627 04:15:37.119657  1477 net.cpp:84] Creating Layer res4f_relu
I0627 04:15:37.119663  1477 net.cpp:406] res4f_relu <- res4f
I0627 04:15:37.119670  1477 net.cpp:367] res4f_relu -> res4f (in-place)
I0627 04:15:37.119958  1477 net.cpp:122] Setting up res4f_relu
I0627 04:15:37.119977  1477 net.cpp:129] Top shape: 8 1024 14 14 (1605632)
I0627 04:15:37.119982  1477 net.cpp:137] Memory required for data: 1751744672
I0627 04:15:37.119987  1477 layer_factory.hpp:77] Creating layer res4f_res4f_relu_0_split
I0627 04:15:37.119997  1477 net.cpp:84] Creating Layer res4f_res4f_relu_0_split
I0627 04:15:37.120002  1477 net.cpp:406] res4f_res4f_relu_0_split <- res4f
I0627 04:15:37.120007  1477 net.cpp:380] res4f_res4f_relu_0_split -> res4f_res4f_relu_0_split_0
I0627 04:15:37.120014  1477 net.cpp:380] res4f_res4f_relu_0_split -> res4f_res4f_relu_0_split_1
I0627 04:15:37.120077  1477 net.cpp:122] Setting up res4f_res4f_relu_0_split
I0627 04:15:37.120093  1477 net.cpp:129] Top shape: 8 1024 14 14 (1605632)
I0627 04:15:37.120098  1477 net.cpp:129] Top shape: 8 1024 14 14 (1605632)
I0627 04:15:37.120102  1477 net.cpp:137] Memory required for data: 1764589728
I0627 04:15:37.120106  1477 layer_factory.hpp:77] Creating layer res5a_branch1
I0627 04:15:37.120117  1477 net.cpp:84] Creating Layer res5a_branch1
I0627 04:15:37.120122  1477 net.cpp:406] res5a_branch1 <- res4f_res4f_relu_0_split_0
I0627 04:15:37.120128  1477 net.cpp:380] res5a_branch1 -> res5a_branch1
I0627 04:15:37.125663  1477 net.cpp:122] Setting up res5a_branch1
I0627 04:15:37.125689  1477 net.cpp:129] Top shape: 8 2048 7 7 (802816)
I0627 04:15:37.125694  1477 net.cpp:137] Memory required for data: 1767800992
I0627 04:15:37.125701  1477 layer_factory.hpp:77] Creating layer bn5a_branch1
I0627 04:15:37.125715  1477 net.cpp:84] Creating Layer bn5a_branch1
I0627 04:15:37.125720  1477 net.cpp:406] bn5a_branch1 <- res5a_branch1
I0627 04:15:37.125726  1477 net.cpp:367] bn5a_branch1 -> res5a_branch1 (in-place)
I0627 04:15:37.126083  1477 net.cpp:122] Setting up bn5a_branch1
I0627 04:15:37.126101  1477 net.cpp:129] Top shape: 8 2048 7 7 (802816)
I0627 04:15:37.126106  1477 net.cpp:137] Memory required for data: 1771012256
I0627 04:15:37.126114  1477 layer_factory.hpp:77] Creating layer scale5a_branch1
I0627 04:15:37.126122  1477 net.cpp:84] Creating Layer scale5a_branch1
I0627 04:15:37.126127  1477 net.cpp:406] scale5a_branch1 <- res5a_branch1
I0627 04:15:37.126132  1477 net.cpp:367] scale5a_branch1 -> res5a_branch1 (in-place)
I0627 04:15:37.126194  1477 layer_factory.hpp:77] Creating layer scale5a_branch1
I0627 04:15:37.126381  1477 net.cpp:122] Setting up scale5a_branch1
I0627 04:15:37.126397  1477 net.cpp:129] Top shape: 8 2048 7 7 (802816)
I0627 04:15:37.126401  1477 net.cpp:137] Memory required for data: 1774223520
I0627 04:15:37.126408  1477 layer_factory.hpp:77] Creating layer res5a_branch2a
I0627 04:15:37.126426  1477 net.cpp:84] Creating Layer res5a_branch2a
I0627 04:15:37.126433  1477 net.cpp:406] res5a_branch2a <- res4f_res4f_relu_0_split_1
I0627 04:15:37.126441  1477 net.cpp:380] res5a_branch2a -> res5a_branch2a
I0627 04:15:37.128589  1477 net.cpp:122] Setting up res5a_branch2a
I0627 04:15:37.128619  1477 net.cpp:129] Top shape: 8 512 7 7 (200704)
I0627 04:15:37.128624  1477 net.cpp:137] Memory required for data: 1775026336
I0627 04:15:37.128631  1477 layer_factory.hpp:77] Creating layer bn5a_branch2a
I0627 04:15:37.128643  1477 net.cpp:84] Creating Layer bn5a_branch2a
I0627 04:15:37.128648  1477 net.cpp:406] bn5a_branch2a <- res5a_branch2a
I0627 04:15:37.128655  1477 net.cpp:367] bn5a_branch2a -> res5a_branch2a (in-place)
I0627 04:15:37.128940  1477 net.cpp:122] Setting up bn5a_branch2a
I0627 04:15:37.128957  1477 net.cpp:129] Top shape: 8 512 7 7 (200704)
I0627 04:15:37.128960  1477 net.cpp:137] Memory required for data: 1775829152
I0627 04:15:37.128969  1477 layer_factory.hpp:77] Creating layer scale5a_branch2a
I0627 04:15:37.128978  1477 net.cpp:84] Creating Layer scale5a_branch2a
I0627 04:15:37.128981  1477 net.cpp:406] scale5a_branch2a <- res5a_branch2a
I0627 04:15:37.128989  1477 net.cpp:367] scale5a_branch2a -> res5a_branch2a (in-place)
I0627 04:15:37.129046  1477 layer_factory.hpp:77] Creating layer scale5a_branch2a
I0627 04:15:37.129227  1477 net.cpp:122] Setting up scale5a_branch2a
I0627 04:15:37.129246  1477 net.cpp:129] Top shape: 8 512 7 7 (200704)
I0627 04:15:37.129251  1477 net.cpp:137] Memory required for data: 1776631968
I0627 04:15:37.129257  1477 layer_factory.hpp:77] Creating layer res5a_branch2a_relu
I0627 04:15:37.129264  1477 net.cpp:84] Creating Layer res5a_branch2a_relu
I0627 04:15:37.129268  1477 net.cpp:406] res5a_branch2a_relu <- res5a_branch2a
I0627 04:15:37.129273  1477 net.cpp:367] res5a_branch2a_relu -> res5a_branch2a (in-place)
I0627 04:15:37.129566  1477 net.cpp:122] Setting up res5a_branch2a_relu
I0627 04:15:37.129585  1477 net.cpp:129] Top shape: 8 512 7 7 (200704)
I0627 04:15:37.129590  1477 net.cpp:137] Memory required for data: 1777434784
I0627 04:15:37.129595  1477 layer_factory.hpp:77] Creating layer res5a_branch2b
I0627 04:15:37.129607  1477 net.cpp:84] Creating Layer res5a_branch2b
I0627 04:15:37.129612  1477 net.cpp:406] res5a_branch2b <- res5a_branch2a
I0627 04:15:37.129618  1477 net.cpp:380] res5a_branch2b -> res5a_branch2b
I0627 04:15:37.135987  1477 net.cpp:122] Setting up res5a_branch2b
I0627 04:15:37.136019  1477 net.cpp:129] Top shape: 8 512 7 7 (200704)
I0627 04:15:37.136024  1477 net.cpp:137] Memory required for data: 1778237600
I0627 04:15:37.136032  1477 layer_factory.hpp:77] Creating layer bn5a_branch2b
I0627 04:15:37.136044  1477 net.cpp:84] Creating Layer bn5a_branch2b
I0627 04:15:37.136051  1477 net.cpp:406] bn5a_branch2b <- res5a_branch2b
I0627 04:15:37.136059  1477 net.cpp:367] bn5a_branch2b -> res5a_branch2b (in-place)
I0627 04:15:37.136351  1477 net.cpp:122] Setting up bn5a_branch2b
I0627 04:15:37.136368  1477 net.cpp:129] Top shape: 8 512 7 7 (200704)
I0627 04:15:37.136373  1477 net.cpp:137] Memory required for data: 1779040416
I0627 04:15:37.136409  1477 layer_factory.hpp:77] Creating layer scale5a_branch2b
I0627 04:15:37.136418  1477 net.cpp:84] Creating Layer scale5a_branch2b
I0627 04:15:37.136423  1477 net.cpp:406] scale5a_branch2b <- res5a_branch2b
I0627 04:15:37.136430  1477 net.cpp:367] scale5a_branch2b -> res5a_branch2b (in-place)
I0627 04:15:37.136495  1477 layer_factory.hpp:77] Creating layer scale5a_branch2b
I0627 04:15:37.136678  1477 net.cpp:122] Setting up scale5a_branch2b
I0627 04:15:37.136694  1477 net.cpp:129] Top shape: 8 512 7 7 (200704)
I0627 04:15:37.136698  1477 net.cpp:137] Memory required for data: 1779843232
I0627 04:15:37.136705  1477 layer_factory.hpp:77] Creating layer res5a_branch2b_relu
I0627 04:15:37.136718  1477 net.cpp:84] Creating Layer res5a_branch2b_relu
I0627 04:15:37.136723  1477 net.cpp:406] res5a_branch2b_relu <- res5a_branch2b
I0627 04:15:37.136729  1477 net.cpp:367] res5a_branch2b_relu -> res5a_branch2b (in-place)
I0627 04:15:37.136905  1477 net.cpp:122] Setting up res5a_branch2b_relu
I0627 04:15:37.136925  1477 net.cpp:129] Top shape: 8 512 7 7 (200704)
I0627 04:15:37.136929  1477 net.cpp:137] Memory required for data: 1780646048
I0627 04:15:37.136934  1477 layer_factory.hpp:77] Creating layer res5a_branch2c
I0627 04:15:37.136946  1477 net.cpp:84] Creating Layer res5a_branch2c
I0627 04:15:37.136951  1477 net.cpp:406] res5a_branch2c <- res5a_branch2b
I0627 04:15:37.136958  1477 net.cpp:380] res5a_branch2c -> res5a_branch2c
I0627 04:15:37.140413  1477 net.cpp:122] Setting up res5a_branch2c
I0627 04:15:37.140439  1477 net.cpp:129] Top shape: 8 2048 7 7 (802816)
I0627 04:15:37.140444  1477 net.cpp:137] Memory required for data: 1783857312
I0627 04:15:37.140450  1477 layer_factory.hpp:77] Creating layer bn5a_branch2c
I0627 04:15:37.140457  1477 net.cpp:84] Creating Layer bn5a_branch2c
I0627 04:15:37.140462  1477 net.cpp:406] bn5a_branch2c <- res5a_branch2c
I0627 04:15:37.140468  1477 net.cpp:367] bn5a_branch2c -> res5a_branch2c (in-place)
I0627 04:15:37.140775  1477 net.cpp:122] Setting up bn5a_branch2c
I0627 04:15:37.140792  1477 net.cpp:129] Top shape: 8 2048 7 7 (802816)
I0627 04:15:37.140796  1477 net.cpp:137] Memory required for data: 1787068576
I0627 04:15:37.140805  1477 layer_factory.hpp:77] Creating layer scale5a_branch2c
I0627 04:15:37.140815  1477 net.cpp:84] Creating Layer scale5a_branch2c
I0627 04:15:37.140818  1477 net.cpp:406] scale5a_branch2c <- res5a_branch2c
I0627 04:15:37.140823  1477 net.cpp:367] scale5a_branch2c -> res5a_branch2c (in-place)
I0627 04:15:37.140887  1477 layer_factory.hpp:77] Creating layer scale5a_branch2c
I0627 04:15:37.141082  1477 net.cpp:122] Setting up scale5a_branch2c
I0627 04:15:37.141098  1477 net.cpp:129] Top shape: 8 2048 7 7 (802816)
I0627 04:15:37.141101  1477 net.cpp:137] Memory required for data: 1790279840
I0627 04:15:37.141108  1477 layer_factory.hpp:77] Creating layer res5a
I0627 04:15:37.141119  1477 net.cpp:84] Creating Layer res5a
I0627 04:15:37.141124  1477 net.cpp:406] res5a <- res5a_branch1
I0627 04:15:37.141129  1477 net.cpp:406] res5a <- res5a_branch2c
I0627 04:15:37.141134  1477 net.cpp:380] res5a -> res5a
I0627 04:15:37.141176  1477 net.cpp:122] Setting up res5a
I0627 04:15:37.141192  1477 net.cpp:129] Top shape: 8 2048 7 7 (802816)
I0627 04:15:37.141196  1477 net.cpp:137] Memory required for data: 1793491104
I0627 04:15:37.141201  1477 layer_factory.hpp:77] Creating layer res5a_relu
I0627 04:15:37.141206  1477 net.cpp:84] Creating Layer res5a_relu
I0627 04:15:37.141211  1477 net.cpp:406] res5a_relu <- res5a
I0627 04:15:37.141218  1477 net.cpp:367] res5a_relu -> res5a (in-place)
I0627 04:15:37.141505  1477 net.cpp:122] Setting up res5a_relu
I0627 04:15:37.141526  1477 net.cpp:129] Top shape: 8 2048 7 7 (802816)
I0627 04:15:37.141530  1477 net.cpp:137] Memory required for data: 1796702368
I0627 04:15:37.141535  1477 layer_factory.hpp:77] Creating layer res5a_res5a_relu_0_split
I0627 04:15:37.141542  1477 net.cpp:84] Creating Layer res5a_res5a_relu_0_split
I0627 04:15:37.141546  1477 net.cpp:406] res5a_res5a_relu_0_split <- res5a
I0627 04:15:37.141568  1477 net.cpp:380] res5a_res5a_relu_0_split -> res5a_res5a_relu_0_split_0
I0627 04:15:37.141577  1477 net.cpp:380] res5a_res5a_relu_0_split -> res5a_res5a_relu_0_split_1
I0627 04:15:37.141640  1477 net.cpp:122] Setting up res5a_res5a_relu_0_split
I0627 04:15:37.141664  1477 net.cpp:129] Top shape: 8 2048 7 7 (802816)
I0627 04:15:37.141669  1477 net.cpp:129] Top shape: 8 2048 7 7 (802816)
I0627 04:15:37.141674  1477 net.cpp:137] Memory required for data: 1803124896
I0627 04:15:37.141677  1477 layer_factory.hpp:77] Creating layer my_res5b_branch2a
I0627 04:15:37.141690  1477 net.cpp:84] Creating Layer my_res5b_branch2a
I0627 04:15:37.141695  1477 net.cpp:406] my_res5b_branch2a <- res5a_res5a_relu_0_split_0
I0627 04:15:37.141703  1477 net.cpp:380] my_res5b_branch2a -> my_res5b_branch2a
I0627 04:15:37.145097  1477 net.cpp:122] Setting up my_res5b_branch2a
I0627 04:15:37.145118  1477 net.cpp:129] Top shape: 8 512 7 7 (200704)
I0627 04:15:37.145123  1477 net.cpp:137] Memory required for data: 1803927712
I0627 04:15:37.145130  1477 layer_factory.hpp:77] Creating layer my_bn5b_branch2a
I0627 04:15:37.145140  1477 net.cpp:84] Creating Layer my_bn5b_branch2a
I0627 04:15:37.145145  1477 net.cpp:406] my_bn5b_branch2a <- my_res5b_branch2a
I0627 04:15:37.145151  1477 net.cpp:367] my_bn5b_branch2a -> my_res5b_branch2a (in-place)
I0627 04:15:37.145449  1477 net.cpp:122] Setting up my_bn5b_branch2a
I0627 04:15:37.145467  1477 net.cpp:129] Top shape: 8 512 7 7 (200704)
I0627 04:15:37.145470  1477 net.cpp:137] Memory required for data: 1804730528
I0627 04:15:37.145478  1477 layer_factory.hpp:77] Creating layer my_scale5b_branch2a
I0627 04:15:37.145491  1477 net.cpp:84] Creating Layer my_scale5b_branch2a
I0627 04:15:37.145496  1477 net.cpp:406] my_scale5b_branch2a <- my_res5b_branch2a
I0627 04:15:37.145501  1477 net.cpp:367] my_scale5b_branch2a -> my_res5b_branch2a (in-place)
I0627 04:15:37.145562  1477 layer_factory.hpp:77] Creating layer my_scale5b_branch2a
I0627 04:15:37.145752  1477 net.cpp:122] Setting up my_scale5b_branch2a
I0627 04:15:37.145768  1477 net.cpp:129] Top shape: 8 512 7 7 (200704)
I0627 04:15:37.145772  1477 net.cpp:137] Memory required for data: 1805533344
I0627 04:15:37.145779  1477 layer_factory.hpp:77] Creating layer my_res5b_branch2a_relu
I0627 04:15:37.145787  1477 net.cpp:84] Creating Layer my_res5b_branch2a_relu
I0627 04:15:37.145792  1477 net.cpp:406] my_res5b_branch2a_relu <- my_res5b_branch2a
I0627 04:15:37.145798  1477 net.cpp:367] my_res5b_branch2a_relu -> my_res5b_branch2a (in-place)
I0627 04:15:37.146117  1477 net.cpp:122] Setting up my_res5b_branch2a_relu
I0627 04:15:37.146136  1477 net.cpp:129] Top shape: 8 512 7 7 (200704)
I0627 04:15:37.146143  1477 net.cpp:137] Memory required for data: 1806336160
I0627 04:15:37.146147  1477 layer_factory.hpp:77] Creating layer my_res5b_branch2b
I0627 04:15:37.146157  1477 net.cpp:84] Creating Layer my_res5b_branch2b
I0627 04:15:37.146162  1477 net.cpp:406] my_res5b_branch2b <- my_res5b_branch2a
I0627 04:15:37.146172  1477 net.cpp:380] my_res5b_branch2b -> my_res5b_branch2b
I0627 04:15:37.152468  1477 net.cpp:122] Setting up my_res5b_branch2b
I0627 04:15:37.152498  1477 net.cpp:129] Top shape: 8 512 7 7 (200704)
I0627 04:15:37.152503  1477 net.cpp:137] Memory required for data: 1807138976
I0627 04:15:37.152510  1477 layer_factory.hpp:77] Creating layer my_bn5b_branch2b
I0627 04:15:37.152519  1477 net.cpp:84] Creating Layer my_bn5b_branch2b
I0627 04:15:37.152524  1477 net.cpp:406] my_bn5b_branch2b <- my_res5b_branch2b
I0627 04:15:37.152534  1477 net.cpp:367] my_bn5b_branch2b -> my_res5b_branch2b (in-place)
I0627 04:15:37.152837  1477 net.cpp:122] Setting up my_bn5b_branch2b
I0627 04:15:37.152854  1477 net.cpp:129] Top shape: 8 512 7 7 (200704)
I0627 04:15:37.152858  1477 net.cpp:137] Memory required for data: 1807941792
I0627 04:15:37.152868  1477 layer_factory.hpp:77] Creating layer my_scale5b_branch2b
I0627 04:15:37.152875  1477 net.cpp:84] Creating Layer my_scale5b_branch2b
I0627 04:15:37.152880  1477 net.cpp:406] my_scale5b_branch2b <- my_res5b_branch2b
I0627 04:15:37.152909  1477 net.cpp:367] my_scale5b_branch2b -> my_res5b_branch2b (in-place)
I0627 04:15:37.152976  1477 layer_factory.hpp:77] Creating layer my_scale5b_branch2b
I0627 04:15:37.153164  1477 net.cpp:122] Setting up my_scale5b_branch2b
I0627 04:15:37.153182  1477 net.cpp:129] Top shape: 8 512 7 7 (200704)
I0627 04:15:37.153185  1477 net.cpp:137] Memory required for data: 1808744608
I0627 04:15:37.153192  1477 layer_factory.hpp:77] Creating layer my_res5b_branch2b_relu
I0627 04:15:37.153199  1477 net.cpp:84] Creating Layer my_res5b_branch2b_relu
I0627 04:15:37.153203  1477 net.cpp:406] my_res5b_branch2b_relu <- my_res5b_branch2b
I0627 04:15:37.153210  1477 net.cpp:367] my_res5b_branch2b_relu -> my_res5b_branch2b (in-place)
I0627 04:15:37.153399  1477 net.cpp:122] Setting up my_res5b_branch2b_relu
I0627 04:15:37.153417  1477 net.cpp:129] Top shape: 8 512 7 7 (200704)
I0627 04:15:37.153421  1477 net.cpp:137] Memory required for data: 1809547424
I0627 04:15:37.153425  1477 layer_factory.hpp:77] Creating layer my_res5b_branch2c
I0627 04:15:37.153439  1477 net.cpp:84] Creating Layer my_res5b_branch2c
I0627 04:15:37.153443  1477 net.cpp:406] my_res5b_branch2c <- my_res5b_branch2b
I0627 04:15:37.153451  1477 net.cpp:380] my_res5b_branch2c -> my_res5b_branch2c
I0627 04:15:37.156924  1477 net.cpp:122] Setting up my_res5b_branch2c
I0627 04:15:37.156945  1477 net.cpp:129] Top shape: 8 2048 7 7 (802816)
I0627 04:15:37.156949  1477 net.cpp:137] Memory required for data: 1812758688
I0627 04:15:37.156956  1477 layer_factory.hpp:77] Creating layer my_bn5b_branch2c
I0627 04:15:37.156967  1477 net.cpp:84] Creating Layer my_bn5b_branch2c
I0627 04:15:37.156972  1477 net.cpp:406] my_bn5b_branch2c <- my_res5b_branch2c
I0627 04:15:37.156978  1477 net.cpp:367] my_bn5b_branch2c -> my_res5b_branch2c (in-place)
I0627 04:15:37.157326  1477 net.cpp:122] Setting up my_bn5b_branch2c
I0627 04:15:37.157343  1477 net.cpp:129] Top shape: 8 2048 7 7 (802816)
I0627 04:15:37.157347  1477 net.cpp:137] Memory required for data: 1815969952
I0627 04:15:37.157356  1477 layer_factory.hpp:77] Creating layer my_scale5b_branch2c
I0627 04:15:37.157371  1477 net.cpp:84] Creating Layer my_scale5b_branch2c
I0627 04:15:37.157376  1477 net.cpp:406] my_scale5b_branch2c <- my_res5b_branch2c
I0627 04:15:37.157382  1477 net.cpp:367] my_scale5b_branch2c -> my_res5b_branch2c (in-place)
I0627 04:15:37.157457  1477 layer_factory.hpp:77] Creating layer my_scale5b_branch2c
I0627 04:15:37.157655  1477 net.cpp:122] Setting up my_scale5b_branch2c
I0627 04:15:37.157672  1477 net.cpp:129] Top shape: 8 2048 7 7 (802816)
I0627 04:15:37.157676  1477 net.cpp:137] Memory required for data: 1819181216
I0627 04:15:37.157683  1477 layer_factory.hpp:77] Creating layer my_res5b
I0627 04:15:37.157694  1477 net.cpp:84] Creating Layer my_res5b
I0627 04:15:37.157701  1477 net.cpp:406] my_res5b <- res5a_res5a_relu_0_split_1
I0627 04:15:37.157706  1477 net.cpp:406] my_res5b <- my_res5b_branch2c
I0627 04:15:37.157711  1477 net.cpp:380] my_res5b -> my_res5b
I0627 04:15:37.157750  1477 net.cpp:122] Setting up my_res5b
I0627 04:15:37.157766  1477 net.cpp:129] Top shape: 8 2048 7 7 (802816)
I0627 04:15:37.157770  1477 net.cpp:137] Memory required for data: 1822392480
I0627 04:15:37.157774  1477 layer_factory.hpp:77] Creating layer my_res5b_relu
I0627 04:15:37.157783  1477 net.cpp:84] Creating Layer my_res5b_relu
I0627 04:15:37.157788  1477 net.cpp:406] my_res5b_relu <- my_res5b
I0627 04:15:37.157793  1477 net.cpp:367] my_res5b_relu -> my_res5b (in-place)
I0627 04:15:37.158109  1477 net.cpp:122] Setting up my_res5b_relu
I0627 04:15:37.158128  1477 net.cpp:129] Top shape: 8 2048 7 7 (802816)
I0627 04:15:37.158133  1477 net.cpp:137] Memory required for data: 1825603744
I0627 04:15:37.158138  1477 layer_factory.hpp:77] Creating layer my_res5b_my_res5b_relu_0_split
I0627 04:15:37.158145  1477 net.cpp:84] Creating Layer my_res5b_my_res5b_relu_0_split
I0627 04:15:37.158150  1477 net.cpp:406] my_res5b_my_res5b_relu_0_split <- my_res5b
I0627 04:15:37.158159  1477 net.cpp:380] my_res5b_my_res5b_relu_0_split -> my_res5b_my_res5b_relu_0_split_0
I0627 04:15:37.158180  1477 net.cpp:380] my_res5b_my_res5b_relu_0_split -> my_res5b_my_res5b_relu_0_split_1
I0627 04:15:37.158246  1477 net.cpp:122] Setting up my_res5b_my_res5b_relu_0_split
I0627 04:15:37.158262  1477 net.cpp:129] Top shape: 8 2048 7 7 (802816)
I0627 04:15:37.158267  1477 net.cpp:129] Top shape: 8 2048 7 7 (802816)
I0627 04:15:37.158270  1477 net.cpp:137] Memory required for data: 1832026272
I0627 04:15:37.158274  1477 layer_factory.hpp:77] Creating layer my_res5c_branch2a
I0627 04:15:37.158288  1477 net.cpp:84] Creating Layer my_res5c_branch2a
I0627 04:15:37.158293  1477 net.cpp:406] my_res5c_branch2a <- my_res5b_my_res5b_relu_0_split_0
I0627 04:15:37.158299  1477 net.cpp:380] my_res5c_branch2a -> my_res5c_branch2a
I0627 04:15:37.161643  1477 net.cpp:122] Setting up my_res5c_branch2a
I0627 04:15:37.161664  1477 net.cpp:129] Top shape: 8 512 7 7 (200704)
I0627 04:15:37.161669  1477 net.cpp:137] Memory required for data: 1832829088
I0627 04:15:37.161676  1477 layer_factory.hpp:77] Creating layer my_bn5c_branch2a
I0627 04:15:37.161687  1477 net.cpp:84] Creating Layer my_bn5c_branch2a
I0627 04:15:37.161692  1477 net.cpp:406] my_bn5c_branch2a <- my_res5c_branch2a
I0627 04:15:37.161698  1477 net.cpp:367] my_bn5c_branch2a -> my_res5c_branch2a (in-place)
I0627 04:15:37.162025  1477 net.cpp:122] Setting up my_bn5c_branch2a
I0627 04:15:37.162045  1477 net.cpp:129] Top shape: 8 512 7 7 (200704)
I0627 04:15:37.162050  1477 net.cpp:137] Memory required for data: 1833631904
I0627 04:15:37.162058  1477 layer_factory.hpp:77] Creating layer my_scale5c_branch2a
I0627 04:15:37.162066  1477 net.cpp:84] Creating Layer my_scale5c_branch2a
I0627 04:15:37.162070  1477 net.cpp:406] my_scale5c_branch2a <- my_res5c_branch2a
I0627 04:15:37.162080  1477 net.cpp:367] my_scale5c_branch2a -> my_res5c_branch2a (in-place)
I0627 04:15:37.162138  1477 layer_factory.hpp:77] Creating layer my_scale5c_branch2a
I0627 04:15:37.162333  1477 net.cpp:122] Setting up my_scale5c_branch2a
I0627 04:15:37.162353  1477 net.cpp:129] Top shape: 8 512 7 7 (200704)
I0627 04:15:37.162358  1477 net.cpp:137] Memory required for data: 1834434720
I0627 04:15:37.162364  1477 layer_factory.hpp:77] Creating layer my_res5c_branch2a_relu
I0627 04:15:37.162371  1477 net.cpp:84] Creating Layer my_res5c_branch2a_relu
I0627 04:15:37.162375  1477 net.cpp:406] my_res5c_branch2a_relu <- my_res5c_branch2a
I0627 04:15:37.162380  1477 net.cpp:367] my_res5c_branch2a_relu -> my_res5c_branch2a (in-place)
I0627 04:15:37.162711  1477 net.cpp:122] Setting up my_res5c_branch2a_relu
I0627 04:15:37.162730  1477 net.cpp:129] Top shape: 8 512 7 7 (200704)
I0627 04:15:37.162734  1477 net.cpp:137] Memory required for data: 1835237536
I0627 04:15:37.162739  1477 layer_factory.hpp:77] Creating layer my_res5c_branch2b
I0627 04:15:37.162751  1477 net.cpp:84] Creating Layer my_res5c_branch2b
I0627 04:15:37.162756  1477 net.cpp:406] my_res5c_branch2b <- my_res5c_branch2a
I0627 04:15:37.162763  1477 net.cpp:380] my_res5c_branch2b -> my_res5c_branch2b
I0627 04:15:37.168871  1477 net.cpp:122] Setting up my_res5c_branch2b
I0627 04:15:37.168895  1477 net.cpp:129] Top shape: 8 512 7 7 (200704)
I0627 04:15:37.168900  1477 net.cpp:137] Memory required for data: 1836040352
I0627 04:15:37.168907  1477 layer_factory.hpp:77] Creating layer my_bn5c_branch2b
I0627 04:15:37.168918  1477 net.cpp:84] Creating Layer my_bn5c_branch2b
I0627 04:15:37.168923  1477 net.cpp:406] my_bn5c_branch2b <- my_res5c_branch2b
I0627 04:15:37.168929  1477 net.cpp:367] my_bn5c_branch2b -> my_res5c_branch2b (in-place)
I0627 04:15:37.169240  1477 net.cpp:122] Setting up my_bn5c_branch2b
I0627 04:15:37.169257  1477 net.cpp:129] Top shape: 8 512 7 7 (200704)
I0627 04:15:37.169261  1477 net.cpp:137] Memory required for data: 1836843168
I0627 04:15:37.169273  1477 layer_factory.hpp:77] Creating layer my_scale5c_branch2b
I0627 04:15:37.169281  1477 net.cpp:84] Creating Layer my_scale5c_branch2b
I0627 04:15:37.169286  1477 net.cpp:406] my_scale5c_branch2b <- my_res5c_branch2b
I0627 04:15:37.169291  1477 net.cpp:367] my_scale5c_branch2b -> my_res5c_branch2b (in-place)
I0627 04:15:37.169374  1477 layer_factory.hpp:77] Creating layer my_scale5c_branch2b
I0627 04:15:37.169571  1477 net.cpp:122] Setting up my_scale5c_branch2b
I0627 04:15:37.169587  1477 net.cpp:129] Top shape: 8 512 7 7 (200704)
I0627 04:15:37.169591  1477 net.cpp:137] Memory required for data: 1837645984
I0627 04:15:37.169598  1477 layer_factory.hpp:77] Creating layer my_res5c_branch2b_relu
I0627 04:15:37.169616  1477 net.cpp:84] Creating Layer my_res5c_branch2b_relu
I0627 04:15:37.169621  1477 net.cpp:406] my_res5c_branch2b_relu <- my_res5c_branch2b
I0627 04:15:37.169626  1477 net.cpp:367] my_res5c_branch2b_relu -> my_res5c_branch2b (in-place)
I0627 04:15:37.169814  1477 net.cpp:122] Setting up my_res5c_branch2b_relu
I0627 04:15:37.169842  1477 net.cpp:129] Top shape: 8 512 7 7 (200704)
I0627 04:15:37.169848  1477 net.cpp:137] Memory required for data: 1838448800
I0627 04:15:37.169853  1477 layer_factory.hpp:77] Creating layer my_res5c_branch2c
I0627 04:15:37.169865  1477 net.cpp:84] Creating Layer my_res5c_branch2c
I0627 04:15:37.169873  1477 net.cpp:406] my_res5c_branch2c <- my_res5c_branch2b
I0627 04:15:37.169880  1477 net.cpp:380] my_res5c_branch2c -> my_res5c_branch2c
I0627 04:15:37.173328  1477 net.cpp:122] Setting up my_res5c_branch2c
I0627 04:15:37.173353  1477 net.cpp:129] Top shape: 8 2048 7 7 (802816)
I0627 04:15:37.173358  1477 net.cpp:137] Memory required for data: 1841660064
I0627 04:15:37.173365  1477 layer_factory.hpp:77] Creating layer my_bn5c_branch2c
I0627 04:15:37.173372  1477 net.cpp:84] Creating Layer my_bn5c_branch2c
I0627 04:15:37.173377  1477 net.cpp:406] my_bn5c_branch2c <- my_res5c_branch2c
I0627 04:15:37.173382  1477 net.cpp:367] my_bn5c_branch2c -> my_res5c_branch2c (in-place)
I0627 04:15:37.173712  1477 net.cpp:122] Setting up my_bn5c_branch2c
I0627 04:15:37.173728  1477 net.cpp:129] Top shape: 8 2048 7 7 (802816)
I0627 04:15:37.173732  1477 net.cpp:137] Memory required for data: 1844871328
I0627 04:15:37.173741  1477 layer_factory.hpp:77] Creating layer my_scale5c_branch2c
I0627 04:15:37.173749  1477 net.cpp:84] Creating Layer my_scale5c_branch2c
I0627 04:15:37.173753  1477 net.cpp:406] my_scale5c_branch2c <- my_res5c_branch2c
I0627 04:15:37.173759  1477 net.cpp:367] my_scale5c_branch2c -> my_res5c_branch2c (in-place)
I0627 04:15:37.173825  1477 layer_factory.hpp:77] Creating layer my_scale5c_branch2c
I0627 04:15:37.174044  1477 net.cpp:122] Setting up my_scale5c_branch2c
I0627 04:15:37.174062  1477 net.cpp:129] Top shape: 8 2048 7 7 (802816)
I0627 04:15:37.174065  1477 net.cpp:137] Memory required for data: 1848082592
I0627 04:15:37.174072  1477 layer_factory.hpp:77] Creating layer my_res5c
I0627 04:15:37.174083  1477 net.cpp:84] Creating Layer my_res5c
I0627 04:15:37.174088  1477 net.cpp:406] my_res5c <- my_res5b_my_res5b_relu_0_split_1
I0627 04:15:37.174093  1477 net.cpp:406] my_res5c <- my_res5c_branch2c
I0627 04:15:37.174098  1477 net.cpp:380] my_res5c -> my_res5c
I0627 04:15:37.174144  1477 net.cpp:122] Setting up my_res5c
I0627 04:15:37.174159  1477 net.cpp:129] Top shape: 8 2048 7 7 (802816)
I0627 04:15:37.174162  1477 net.cpp:137] Memory required for data: 1851293856
I0627 04:15:37.174167  1477 layer_factory.hpp:77] Creating layer my_res5c_relu
I0627 04:15:37.174173  1477 net.cpp:84] Creating Layer my_res5c_relu
I0627 04:15:37.174177  1477 net.cpp:406] my_res5c_relu <- my_res5c
I0627 04:15:37.174185  1477 net.cpp:367] my_res5c_relu -> my_res5c (in-place)
I0627 04:15:37.174490  1477 net.cpp:122] Setting up my_res5c_relu
I0627 04:15:37.174512  1477 net.cpp:129] Top shape: 8 2048 7 7 (802816)
I0627 04:15:37.174516  1477 net.cpp:137] Memory required for data: 1854505120
I0627 04:15:37.174521  1477 layer_factory.hpp:77] Creating layer my_pool5
I0627 04:15:37.174530  1477 net.cpp:84] Creating Layer my_pool5
I0627 04:15:37.174535  1477 net.cpp:406] my_pool5 <- my_res5c
I0627 04:15:37.174540  1477 net.cpp:380] my_pool5 -> my_pool5
I0627 04:15:37.175348  1477 net.cpp:122] Setting up my_pool5
I0627 04:15:37.175367  1477 net.cpp:129] Top shape: 8 2048 1 1 (16384)
I0627 04:15:37.175384  1477 net.cpp:137] Memory required for data: 1854570656
I0627 04:15:37.175390  1477 layer_factory.hpp:77] Creating layer my_fc1000
I0627 04:15:37.175406  1477 net.cpp:84] Creating Layer my_fc1000
I0627 04:15:37.175413  1477 net.cpp:406] my_fc1000 <- my_pool5
I0627 04:15:37.175420  1477 net.cpp:380] my_fc1000 -> my_fc1000
I0627 04:15:37.175652  1477 net.cpp:122] Setting up my_fc1000
I0627 04:15:37.175670  1477 net.cpp:129] Top shape: 8 50 (400)
I0627 04:15:37.175674  1477 net.cpp:137] Memory required for data: 1854572256
I0627 04:15:37.175681  1477 layer_factory.hpp:77] Creating layer my_fc1000_my_fc1000_0_split
I0627 04:15:37.175689  1477 net.cpp:84] Creating Layer my_fc1000_my_fc1000_0_split
I0627 04:15:37.175693  1477 net.cpp:406] my_fc1000_my_fc1000_0_split <- my_fc1000
I0627 04:15:37.175701  1477 net.cpp:380] my_fc1000_my_fc1000_0_split -> my_fc1000_my_fc1000_0_split_0
I0627 04:15:37.175711  1477 net.cpp:380] my_fc1000_my_fc1000_0_split -> my_fc1000_my_fc1000_0_split_1
I0627 04:15:37.175719  1477 net.cpp:380] my_fc1000_my_fc1000_0_split -> my_fc1000_my_fc1000_0_split_2
I0627 04:15:37.175726  1477 net.cpp:380] my_fc1000_my_fc1000_0_split -> my_fc1000_my_fc1000_0_split_3
I0627 04:15:37.175791  1477 net.cpp:122] Setting up my_fc1000_my_fc1000_0_split
I0627 04:15:37.175806  1477 net.cpp:129] Top shape: 8 50 (400)
I0627 04:15:37.175812  1477 net.cpp:129] Top shape: 8 50 (400)
I0627 04:15:37.175815  1477 net.cpp:129] Top shape: 8 50 (400)
I0627 04:15:37.175819  1477 net.cpp:129] Top shape: 8 50 (400)
I0627 04:15:37.175823  1477 net.cpp:137] Memory required for data: 1854578656
I0627 04:15:37.175827  1477 layer_factory.hpp:77] Creating layer loss
I0627 04:15:37.175837  1477 net.cpp:84] Creating Layer loss
I0627 04:15:37.175842  1477 net.cpp:406] loss <- my_fc1000_my_fc1000_0_split_0
I0627 04:15:37.175846  1477 net.cpp:406] loss <- label_input_1_split_0
I0627 04:15:37.175854  1477 net.cpp:380] loss -> loss
…
