…
I0627 17:37:07.210225  1680 net.cpp:294] The NetState phase (1) differed from the phase (0) specified by a rule in layer input
I0627 17:37:07.211679  1680 net.cpp:51] Initializing net from parameters: 
name: "ResNet-50"
state {
  phase: TEST
  level: 0
  stage: ""
}
layer {
  name: "input"
  type: "Data"
  top: "data"
  top: "label"
  include {
    phase: TEST
  }
  transform_param {
    mirror: true
    mean_file: "../../../data_subsets/subtrain2_mean.binaryproto"
  }
  data_param {
    source: "../../../data_subsets/subtrain2_lmdb"
    batch_size: 8
    backend: LMDB
  }
}
layer {
  name: "conv1"
  type: "Convolution"
  bottom: "data"
  top: "conv1"
  param {
    lr_mult: 1
    decay_mult: 1
  }
  param {
    lr_mult: 2
    decay_mult: 0
  }
  convolution_param {
    num_output: 64
    pad: 3
    kernel_size: 7
    stride: 2
  }
}
layer {
  name: "bn_conv1"
  type: "BatchNorm"
  bottom: "conv1"
  top: "conv1"
  batch_norm_param {
    use_global_stats: true
  }
}
layer {
  name: "scale_conv1"
  type: "Scale"
  bottom: "conv1"
  top: "conv1"
  scale_param {
    bias_term: true
  }
}
layer {
  name: "conv1_relu"
  type: "ReLU"
  bottom: "conv1"
  top: "conv1"
}
layer {
  name: "pool1"
  type: "Pooling"
  bottom: "conv1"
  top: "pool1"
  pooling_param {
    pool: MAX
    kernel_size: 3
    stride: 2
  }
}
layer {
  name: "res2a_branch1"
  type: "Convolution"
  bottom: "pool1"
  top: "res2a_branch1"
  param {
    lr_mult: 1
    decay_mult: 1
  }
  convolution_param {
    num_output: 256
    bias_term: false
    pad: 0
    kernel_size: 1
    stride: 1
  }
}
layer {
  name: "bn2a_branch1"
  type: "BatchNorm"
  bottom: "res2a_branch1"
  top: "res2a_branch1"
  batch_norm_param {
    use_global_stats: true
  }
}
layer {
  name: "scale2a_branch1"
  type: "Scale"
  bottom: "res2a_branch1"
  top: "res2a_branch1"
  scale_param {
    bias_term: true
  }
}
layer {
  name: "res2a_branch2a"
  type: "Convolution"
  bottom: "pool1"
  top: "res2a_branch2a"
  param {
    lr_mult: 1
    decay_mult: 1
  }
  convolution_param {
    num_output: 64
    bias_term: false
    pad: 0
    kernel_size: 1
    stride: 1
  }
}
layer {
  name: "bn2a_branch2a"
  type: "BatchNorm"
  bottom: "res2a_branch2a"
  top: "res2a_branch2a"
  batch_norm_param {
    use_global_stats: true
  }
}
layer {
  name: "scale2a_branch2a"
  type: "Scale"
  bottom: "res2a_branch2a"
  top: "res2a_branch2a"
  scale_param {
    bias_term: true
  }
}
layer {
  name: "res2a_branch2a_relu"
  type: "ReLU"
  bottom: "res2a_branch2a"
  top: "res2a_branch2a"
}
layer {
  name: "res2a_branch2b"
  type: "Convolution"
  bottom: "res2a_branch2a"
  top: "res2a_branch2b"
  param {
    lr_mult: 1
    decay_mult: 1
  }
  convolution_param {
    num_output: 64
    bias_term: false
    pad: 1
    kernel_size: 3
    stride: 1
  }
}
layer {
  name: "bn2a_branch2b"
  type: "BatchNorm"
  bottom: "res2a_branch2b"
  top: "res2a_branch2b"
  batch_norm_param {
    use_global_stats: true
  }
}
layer {
  name: "scale2a_branch2b"
  type: "Scale"
  bottom: "res2a_branch2b"
  top: "res2a_branch2b"
  scale_param {
    bias_term: true
  }
}
layer {
  name: "res2a_branch2b_relu"
  type: "ReLU"
  bottom: "res2a_branch2b"
  top: "res2a_branch2b"
}
layer {
  name: "res2a_branch2c"
  type: "Convolution"
  bottom: "res2a_branch2b"
  top: "res2a_branch2c"
  param {
    lr_mult: 1
    decay_mult: 1
  }
  convolution_param {
    num_output: 256
    bias_term: false
    pad: 0
    kernel_size: 1
    stride: 1
  }
}
layer {
  name: "bn2a_branch2c"
  type: "BatchNorm"
  bottom: "res2a_branch2c"
  top: "res2a_branch2c"
  batch_norm_param {
    use_global_stats: true
  }
}
layer {
  name: "scale2a_branch2c"
  type: "Scale"
  bottom: "res2a_branch2c"
  top: "res2a_branch2c"
  scale_param {
    bias_term: true
  }
}
layer {
  name: "res2a"
  type: "Eltwise"
  bottom: "res2a_branch1"
  bottom: "res2a_branch2c"
  top: "res2a"
}
layer {
  name: "res2a_relu"
  type: "ReLU"
  bottom: "res2a"
  top: "res2a"
}
layer {
  name: "res2b_branch2a"
  type: "Convolution"
  bottom: "res2a"
  top: "res2b_branch2a"
  param {
    lr_mult: 1
    decay_mult: 1
  }
  convolution_param {
    num_output: 64
    bias_term: false
    pad: 0
    kernel_size: 1
    stride: 1
  }
}
layer {
  name: "bn2b_branch2a"
  type: "BatchNorm"
  bottom: "res2b_branch2a"
  top: "res2b_branch2a"
  batch_norm_param {
    use_global_stats: true
  }
}
layer {
  name: "scale2b_branch2a"
  type: "Scale"
  bottom: "res2b_branch2a"
  top: "res2b_branch2a"
  scale_param {
    bias_term: true
  }
}
layer {
  name: "res2b_branch2a_relu"
  type: "ReLU"
  bottom: "res2b_branch2a"
  top: "res2b_branch2a"
}
layer {
  name: "res2b_branch2b"
  type: "Convolution"
  bottom: "res2b_branch2a"
  top: "res2b_branch2b"
  param {
    lr_mult: 1
    decay_mult: 1
  }
  convolution_param {
    num_output: 64
    bias_term: false
    pad: 1
    kernel_size: 3
    stride: 1
  }
}
layer {
  name: "bn2b_branch2b"
  type: "BatchNorm"
  bottom: "res2b_branch2b"
  top: "res2b_branch2b"
  batch_norm_param {
    use_global_stats: true
  }
}
layer {
  name: "scale2b_branch2b"
  type: "Scale"
  bottom: "res2b_branch2b"
  top: "res2b_branch2b"
  scale_param {
    bias_term: true
  }
}
layer {
  name: "res2b_branch2b_relu"
  type: "ReLU"
  bottom: "res2b_branch2b"
  top: "res2b_branch2b"
}
layer {
  name: "res2b_branch2c"
  type: "Convolution"
  bottom: "res2b_branch2b"
  top: "res2b_branch2c"
  param {
    lr_mult: 1
    decay_mult: 1
  }
  convolution_param {
    num_output: 256
    bias_term: false
    pad: 0
    kernel_size: 1
    stride: 1
  }
}
layer {
  name: "bn2b_branch2c"
  type: "BatchNorm"
  bottom: "res2b_branch2c"
  top: "res2b_branch2c"
  batch_norm_param {
    use_global_stats: true
  }
}
layer {
  name: "scale2b_branch2c"
  type: "Scale"
  bottom: "res2b_branch2c"
  top: "res2b_branch2c"
  scale_param {
    bias_term: true
  }
}
layer {
  name: "res2b"
  type: "Eltwise"
  bottom: "res2a"
  bottom: "res2b_branch2c"
  top: "res2b"
}
layer {
  name: "res2b_relu"
  type: "ReLU"
  bottom: "res2b"
  top: "res2b"
}
layer {
  name: "res2c_branch2a"
  type: "Convolution"
  bottom: "res2b"
  top: "res2c_branch2a"
  param {
    lr_mult: 1
    decay_mult: 1
  }
  convolution_param {
    num_output: 64
    bias_term: false
    pad: 0
    kernel_size: 1
    stride: 1
  }
}
layer {
  name: "bn2c_branch2a"
  type: "BatchNorm"
  bottom: "res2c_branch2a"
  top: "res2c_branch2a"
  batch_norm_param {
    use_global_stats: true
  }
}
layer {
  name: "scale2c_branch2a"
  type: "Scale"
  bottom: "res2c_branch2a"
  top: "res2c_branch2a"
  scale_param {
    bias_term: true
  }
}
layer {
  name: "res2c_branch2a_relu"
  type: "ReLU"
  bottom: "res2c_branch2a"
  top: "res2c_branch2a"
}
layer {
  name: "res2c_branch2b"
  type: "Convolution"
  bottom: "res2c_branch2a"
  top: "res2c_branch2b"
  param {
    lr_mult: 1
    decay_mult: 1
  }
  convolution_param {
    num_output: 64
    bias_term: false
    pad: 1
    kernel_size: 3
    stride: 1
  }
}
layer {
  name: "bn2c_branch2b"
  type: "BatchNorm"
  bottom: "res2c_branch2b"
  top: "res2c_branch2b"
  batch_norm_param {
    use_global_stats: true
  }
}
layer {
  name: "scale2c_branch2b"
  type: "Scale"
  bottom: "res2c_branch2b"
  top: "res2c_branch2b"
  scale_param {
    bias_term: true
  }
}
layer {
  name: "res2c_branch2b_relu"
  type: "ReLU"
  bottom: "res2c_branch2b"
  top: "res2c_branch2b"
}
layer {
  name: "res2c_branch2c"
  type: "Convolution"
  bottom: "res2c_branch2b"
  top: "res2c_branch2c"
  param {
    lr_mult: 1
    decay_mult: 1
  }
  convolution_param {
    num_output: 256
    bias_term: false
    pad: 0
    kernel_size: 1
    stride: 1
  }
}
layer {
  name: "bn2c_branch2c"
  type: "BatchNorm"
  bottom: "res2c_branch2c"
  top: "res2c_branch2c"
  batch_norm_param {
    use_global_stats: true
  }
}
layer {
  name: "scale2c_branch2c"
  type: "Scale"
  bottom: "res2c_branch2c"
  top: "res2c_branch2c"
  scale_param {
    bias_term: true
  }
}
layer {
  name: "res2c"
  type: "Eltwise"
  bottom: "res2b"
  bottom: "res2c_branch2c"
  top: "res2c"
}
layer {
  name: "res2c_relu"
  type: "ReLU"
  bottom: "res2c"
  top: "res2c"
}
layer {
  name: "res3a_branch1"
  type: "Convolution"
  bottom: "res2c"
  top: "res3a_branch1"
  param {
    lr_mult: 1
    decay_mult: 1
  }
  convolution_param {
    num_output: 512
    bias_term: false
    pad: 0
    kernel_size: 1
    stride: 2
  }
}
layer {
  name: "bn3a_branch1"
  type: "BatchNorm"
  bottom: "res3a_branch1"
  top: "res3a_branch1"
  batch_norm_param {
    use_global_stats: true
  }
}
layer {
  name: "scale3a_branch1"
  type: "Scale"
  bottom: "res3a_branch1"
  top: "res3a_branch1"
  scale_param {
    bias_term: true
  }
}
layer {
  name: "res3a_branch2a"
  type: "Convolution"
  bottom: "res2c"
  top: "res3a_branch2a"
  param {
    lr_mult: 1
    decay_mult: 1
  }
  convolution_param {
    num_output: 128
    bias_term: false
    pad: 0
    kernel_size: 1
    stride: 2
  }
}
layer {
  name: "bn3a_branch2a"
  type: "BatchNorm"
  bottom: "res3a_branch2a"
  top: "res3a_branch2a"
  batch_norm_param {
    use_global_stats: true
  }
}
layer {
  name: "scale3a_branch2a"
  type: "Scale"
  bottom: "res3a_branch2a"
  top: "res3a_branch2a"
  scale_param {
    bias_term: true
  }
}
layer {
  name: "res3a_branch2a_relu"
  type: "ReLU"
  bottom: "res3a_branch2a"
  top: "res3a_branch2a"
}
layer {
  name: "res3a_branch2b"
  type: "Convolution"
  bottom: "res3a_branch2a"
  top: "res3a_branch2b"
  param {
    lr_mult: 1
    decay_mult: 1
  }
  convolution_param {
    num_output: 128
    bias_term: false
    pad: 1
    kernel_size: 3
    stride: 1
  }
}
layer {
  name: "bn3a_branch2b"
  type: "BatchNorm"
  bottom: "res3a_branch2b"
  top: "res3a_branch2b"
  batch_norm_param {
    use_global_stats: true
  }
}
layer {
  name: "scale3a_branch2b"
  type: "Scale"
  bottom: "res3a_branch2b"
  top: "res3a_branch2b"
  scale_param {
    bias_term: true
  }
}
layer {
  name: "res3a_branch2b_relu"
  type: "ReLU"
  bottom: "res3a_branch2b"
  top: "res3a_branch2b"
}
layer {
  name: "res3a_branch2c"
  type: "Convolution"
  bottom: "res3a_branch2b"
  top: "res3a_branch2c"
  param {
    lr_mult: 1
    decay_mult: 1
  }
  convolution_param {
    num_output: 512
    bias_term: false
    pad: 0
    kernel_size: 1
    stride: 1
  }
}
layer {
  name: "bn3a_branch2c"
  type: "BatchNorm"
  bottom: "res3a_branch2c"
  top: "res3a_branch2c"
  batch_norm_param {
    use_global_stats: true
  }
}
layer {
  name: "scale3a_branch2c"
  type: "Scale"
  bottom: "res3a_branch2c"
  top: "res3a_branch2c"
  scale_param {
    bias_term: true
  }
}
layer {
  name: "res3a"
  type: "Eltwise"
  bottom: "res3a_branch1"
  bottom: "res3a_branch2c"
  top: "res3a"
}
layer {
  name: "res3a_relu"
  type: "ReLU"
  bottom: "res3a"
  top: "res3a"
}
layer {
  name: "res3b_branch2a"
  type: "Convolution"
  bottom: "res3a"
  top: "res3b_branch2a"
  param {
    lr_mult: 1
    decay_mult: 1
  }
  convolution_param {
    num_output: 128
    bias_term: false
    pad: 0
    kernel_size: 1
    stride: 1
  }
}
layer {
  name: "bn3b_branch2a"
  type: "BatchNorm"
  bottom: "res3b_branch2a"
  top: "res3b_branch2a"
  batch_norm_param {
    use_global_stats: true
  }
}
layer {
  name: "scale3b_branch2a"
  type: "Scale"
  bottom: "res3b_branch2a"
  top: "res3b_branch2a"
  scale_param {
    bias_term: true
  }
}
layer {
  name: "res3b_branch2a_relu"
  type: "ReLU"
  bottom: "res3b_branch2a"
  top: "res3b_branch2a"
}
layer {
  name: "res3b_branch2b"
  type: "Convolution"
  bottom: "res3b_branch2a"
  top: "res3b_branch2b"
  param {
    lr_mult: 1
    decay_mult: 1
  }
  convolution_param {
    num_output: 128
    bias_term: false
    pad: 1
    kernel_size: 3
    stride: 1
  }
}
layer {
  name: "bn3b_branch2b"
  type: "BatchNorm"
  bottom: "res3b_branch2b"
  top: "res3b_branch2b"
  batch_norm_param {
    use_global_stats: true
  }
}
layer {
  name: "scale3b_branch2b"
  type: "Scale"
  bottom: "res3b_branch2b"
  top: "res3b_branch2b"
  scale_param {
    bias_term: true
  }
}
layer {
  name: "res3b_branch2b_relu"
  type: "ReLU"
  bottom: "res3b_branch2b"
  top: "res3b_branch2b"
}
layer {
  name: "res3b_branch2c"
  type: "Convolution"
  bottom: "res3b_branch2b"
  top: "res3b_branch2c"
  param {
    lr_mult: 1
    decay_mult: 1
  }
  convolution_param {
    num_output: 512
    bias_term: false
    pad: 0
    kernel_size: 1
    stride: 1
  }
}
layer {
  name: "bn3b_branch2c"
  type: "BatchNorm"
  bottom: "res3b_branch2c"
  top: "res3b_branch2c"
  batch_norm_param {
    use_global_stats: true
  }
}
layer {
  name: "scale3b_branch2c"
  type: "Scale"
  bottom: "res3b_branch2c"
  top: "res3b_branch2c"
  scale_param {
    bias_term: true
  }
}
layer {
  name: "res3b"
  type: "Eltwise"
  bottom: "res3a"
  bottom: "res3b_branch2c"
  top: "res3b"
}
layer {
  name: "res3b_relu"
  type: "ReLU"
  bottom: "res3b"
  top: "res3b"
}
layer {
  name: "res3c_branch2a"
  type: "Convolution"
  bottom: "res3b"
  top: "res3c_branch2a"
  param {
    lr_mult: 1
    decay_mult: 1
  }
  convolution_param {
    num_output: 128
    bias_term: false
    pad: 0
    kernel_size: 1
    stride: 1
  }
}
layer {
  name: "bn3c_branch2a"
  type: "BatchNorm"
  bottom: "res3c_branch2a"
  top: "res3c_branch2a"
  batch_norm_param {
    use_global_stats: true
  }
}
layer {
  name: "scale3c_branch2a"
  type: "Scale"
  bottom: "res3c_branch2a"
  top: "res3c_branch2a"
  scale_param {
    bias_term: true
  }
}
layer {
  name: "res3c_branch2a_relu"
  type: "ReLU"
  bottom: "res3c_branch2a"
  top: "res3c_branch2a"
}
layer {
  name: "res3c_branch2b"
  type: "Convolution"
  bottom: "res3c_branch2a"
  top: "res3c_branch2b"
  param {
    lr_mult: 1
    decay_mult: 1
  }
  convolution_param {
    num_output: 128
    bias_term: false
    pad: 1
    kernel_size: 3
    stride: 1
  }
}
layer {
  name: "bn3c_branch2b"
  type: "BatchNorm"
  bottom: "res3c_branch2b"
  top: "res3c_branch2b"
  batch_norm_param {
    use_global_stats: true
  }
}
layer {
  name: "scale3c_branch2b"
  type: "Scale"
  bottom: "res3c_branch2b"
  top: "res3c_branch2b"
  scale_param {
    bias_term: true
  }
}
layer {
  name: "res3c_branch2b_relu"
  type: "ReLU"
  bottom: "res3c_branch2b"
  top: "res3c_branch2b"
}
layer {
  name: "res3c_branch2c"
  type: "Convolution"
  bottom: "res3c_branch2b"
  top: "res3c_branch2c"
  param {
    lr_mult: 1
    decay_mult: 1
  }
  convolution_param {
    num_output: 512
    bias_term: false
    pad: 0
    kernel_size: 1
    stride: 1
  }
}
layer {
  name: "bn3c_branch2c"
  type: "BatchNorm"
  bottom: "res3c_branch2c"
  top: "res3c_branch2c"
  batch_norm_param {
    use_global_stats: true
  }
}
layer {
  name: "scale3c_branch2c"
  type: "Scale"
  bottom: "res3c_branch2c"
  top: "res3c_branch2c"
  scale_param {
    bias_term: true
  }
}
layer {
  name: "res3c"
  type: "Eltwise"
  bottom: "res3b"
  bottom: "res3c_branch2c"
  top: "res3c"
}
layer {
  name: "res3c_relu"
  type: "ReLU"
  bottom: "res3c"
  top: "res3c"
}
layer {
  name: "res3d_branch2a"
  type: "Convolution"
  bottom: "res3c"
  top: "res3d_branch2a"
  param {
    lr_mult: 1
    decay_mult: 1
  }
  convolution_param {
    num_output: 128
    bias_term: false
    pad: 0
    kernel_size: 1
    stride: 1
  }
}
layer {
  name: "bn3d_branch2a"
  type: "BatchNorm"
  bottom: "res3d_branch2a"
  top: "res3d_branch2a"
  batch_norm_param {
    use_global_stats: true
  }
}
layer {
  name: "scale3d_branch2a"
  type: "Scale"
  bottom: "res3d_branch2a"
  top: "res3d_branch2a"
  scale_param {
    bias_term: true
  }
}
layer {
  name: "res3d_branch2a_relu"
  type: "ReLU"
  bottom: "res3d_branch2a"
  top: "res3d_branch2a"
}
layer {
  name: "res3d_branch2b"
  type: "Convolution"
  bottom: "res3d_branch2a"
  top: "res3d_branch2b"
  param {
    lr_mult: 1
    decay_mult: 1
  }
  convolution_param {
    num_output: 128
    bias_term: false
    pad: 1
    kernel_size: 3
    stride: 1
  }
}
layer {
  name: "bn3d_branch2b"
  type: "BatchNorm"
  bottom: "res3d_branch2b"
  top: "res3d_branch2b"
  batch_norm_param {
    use_global_stats: true
  }
}
layer {
  name: "scale3d_branch2b"
  type: "Scale"
  bottom: "res3d_branch2b"
  top: "res3d_branch2b"
  scale_param {
    bias_term: true
  }
}
layer {
  name: "res3d_branch2b_relu"
  type: "ReLU"
  bottom: "res3d_branch2b"
  top: "res3d_branch2b"
}
layer {
  name: "res3d_branch2c"
  type: "Convolution"
  bottom: "res3d_branch2b"
  top: "res3d_branch2c"
  param {
    lr_mult: 1
    decay_mult: 1
  }
  convolution_param {
    num_output: 512
    bias_term: false
    pad: 0
    kernel_size: 1
    stride: 1
  }
}
layer {
  name: "bn3d_branch2c"
  type: "BatchNorm"
  bottom: "res3d_branch2c"
  top: "res3d_branch2c"
  batch_norm_param {
    use_global_stats: true
  }
}
layer {
  name: "scale3d_branch2c"
  type: "Scale"
  bottom: "res3d_branch2c"
  top: "res3d_branch2c"
  scale_param {
    bias_term: true
  }
}
layer {
  name: "res3d"
  type: "Eltwise"
  bottom: "res3c"
  bottom: "res3d_branch2c"
  top: "res3d"
}
layer {
  name: "res3d_relu"
  type: "ReLU"
  bottom: "res3d"
  top: "res3d"
}
layer {
  name: "res4a_branch1"
  type: "Convolution"
  bottom: "res3d"
  top: "res4a_branch1"
  param {
    lr_mult: 1
    decay_mult: 1
  }
  convolution_param {
    num_output: 1024
    bias_term: false
    pad: 0
    kernel_size: 1
    stride: 2
  }
}
layer {
  name: "bn4a_branch1"
  type: "BatchNorm"
  bottom: "res4a_branch1"
  top: "res4a_branch1"
  batch_norm_param {
    use_global_stats: true
  }
}
layer {
  name: "scale4a_branch1"
  type: "Scale"
  bottom: "res4a_branch1"
  top: "res4a_branch1"
  scale_param {
    bias_term: true
  }
}
layer {
  name: "res4a_branch2a"
  type: "Convolution"
  bottom: "res3d"
  top: "res4a_branch2a"
  param {
    lr_mult: 1
    decay_mult: 1
  }
  convolution_param {
    num_output: 256
    bias_term: false
    pad: 0
    kernel_size: 1
    stride: 2
  }
}
layer {
  name: "bn4a_branch2a"
  type: "BatchNorm"
  bottom: "res4a_branch2a"
  top: "res4a_branch2a"
  batch_norm_param {
    use_global_stats: true
  }
}
layer {
  name: "scale4a_branch2a"
  type: "Scale"
  bottom: "res4a_branch2a"
  top: "res4a_branch2a"
  scale_param {
    bias_term: true
  }
}
layer {
  name: "res4a_branch2a_relu"
  type: "ReLU"
  bottom: "res4a_branch2a"
  top: "res4a_branch2a"
}
layer {
  name: "res4a_branch2b"
  type: "Convolution"
  bottom: "res4a_branch2a"
  top: "res4a_branch2b"
  param {
    lr_mult: 1
    decay_mult: 1
  }
  convolution_param {
    num_output: 256
    bias_term: false
    pad: 1
    kernel_size: 3
    stride: 1
  }
}
layer {
  name: "bn4a_branch2b"
  type: "BatchNorm"
  bottom: "res4a_branch2b"
  top: "res4a_branch2b"
  batch_norm_param {
    use_global_stats: true
  }
}
layer {
  name: "scale4a_branch2b"
  type: "Scale"
  bottom: "res4a_branch2b"
  top: "res4a_branch2b"
  scale_param {
    bias_term: true
  }
}
layer {
  name: "res4a_branch2b_relu"
  type: "ReLU"
  bottom: "res4a_branch2b"
  top: "res4a_branch2b"
}
layer {
  name: "res4a_branch2c"
  type: "Convolution"
  bottom: "res4a_branch2b"
  top: "res4a_branch2c"
  param {
    lr_mult: 1
    decay_mult: 1
  }
  convolution_param {
    num_output: 1024
    bias_term: false
    pad: 0
    kernel_size: 1
    stride: 1
  }
}
layer {
  name: "bn4a_branch2c"
  type: "BatchNorm"
  bottom: "res4a_branch2c"
  top: "res4a_branch2c"
  batch_norm_param {
    use_global_stats: true
  }
}
layer {
  name: "scale4a_branch2c"
  type: "Scale"
  bottom: "res4a_branch2c"
  top: "res4a_branch2c"
  scale_param {
    bias_term: true
  }
}
layer {
  name: "res4a"
  type: "Eltwise"
  bottom: "res4a_branch1"
  bottom: "res4a_branch2c"
  top: "res4a"
}
layer {
  name: "res4a_relu"
  type: "ReLU"
  bottom: "res4a"
  top: "res4a"
}
layer {
  name: "res4b_branch2a"
  type: "Convolution"
  bottom: "res4a"
  top: "res4b_branch2a"
  param {
    lr_mult: 1
    decay_mult: 1
  }
  convolution_param {
    num_output: 256
    bias_term: false
    pad: 0
    kernel_size: 1
    stride: 1
  }
}
layer {
  name: "bn4b_branch2a"
  type: "BatchNorm"
  bottom: "res4b_branch2a"
  top: "res4b_branch2a"
  batch_norm_param {
    use_global_stats: true
  }
}
layer {
  name: "scale4b_branch2a"
  type: "Scale"
  bottom: "res4b_branch2a"
  top: "res4b_branch2a"
  scale_param {
    bias_term: true
  }
}
layer {
  name: "res4b_branch2a_relu"
  type: "ReLU"
  bottom: "res4b_branch2a"
  top: "res4b_branch2a"
}
layer {
  name: "res4b_branch2b"
  type: "Convolution"
  bottom: "res4b_branch2a"
  top: "res4b_branch2b"
  param {
    lr_mult: 1
    decay_mult: 1
  }
  convolution_param {
    num_output: 256
    bias_term: false
    pad: 1
    kernel_size: 3
    stride: 1
  }
}
layer {
  name: "bn4b_branch2b"
  type: "BatchNorm"
  bottom: "res4b_branch2b"
  top: "res4b_branch2b"
  batch_norm_param {
    use_global_stats: true
  }
}
layer {
  name: "scale4b_branch2b"
  type: "Scale"
  bottom: "res4b_branch2b"
  top: "res4b_branch2b"
  scale_param {
    bias_term: true
  }
}
layer {
  name: "res4b_branch2b_relu"
  type: "ReLU"
  bottom: "res4b_branch2b"
  top: "res4b_branch2b"
}
layer {
  name: "res4b_branch2c"
  type: "Convolution"
  bottom: "res4b_branch2b"
  top: "res4b_branch2c"
  param {
    lr_mult: 1
    decay_mult: 1
  }
  convolution_param {
    num_output: 1024
    bias_term: false
    pad: 0
    kernel_size: 1
    stride: 1
  }
}
layer {
  name: "bn4b_branch2c"
  type: "BatchNorm"
  bottom: "res4b_branch2c"
  top: "res4b_branch2c"
  batch_norm_param {
    use_global_stats: true
  }
}
layer {
  name: "scale4b_branch2c"
  type: "Scale"
  bottom: "res4b_branch2c"
  top: "res4b_branch2c"
  scale_param {
    bias_term: true
  }
}
layer {
  name: "res4b"
  type: "Eltwise"
  bottom: "res4a"
  bottom: "res4b_branch2c"
  top: "res4b"
}
layer {
  name: "res4b_relu"
  type: "ReLU"
  bottom: "res4b"
  top: "res4b"
}
layer {
  name: "res4c_branch2a"
  type: "Convolution"
  bottom: "res4b"
  top: "res4c_branch2a"
  param {
    lr_mult: 1
    decay_mult: 1
  }
  convolution_param {
    num_output: 256
    bias_term: false
    pad: 0
    kernel_size: 1
    stride: 1
  }
}
layer {
  name: "bn4c_branch2a"
  type: "BatchNorm"
  bottom: "res4c_branch2a"
  top: "res4c_branch2a"
  batch_norm_param {
    use_global_stats: true
  }
}
layer {
  name: "scale4c_branch2a"
  type: "Scale"
  bottom: "res4c_branch2a"
  top: "res4c_branch2a"
  scale_param {
    bias_term: true
  }
}
layer {
  name: "res4c_branch2a_relu"
  type: "ReLU"
  bottom: "res4c_branch2a"
  top: "res4c_branch2a"
}
layer {
  name: "res4c_branch2b"
  type: "Convolution"
  bottom: "res4c_branch2a"
  top: "res4c_branch2b"
  param {
    lr_mult: 1
    decay_mult: 1
  }
  convolution_param {
    num_output: 256
    bias_term: false
    pad: 1
    kernel_size: 3
    stride: 1
  }
}
layer {
  name: "bn4c_branch2b"
  type: "BatchNorm"
  bottom: "res4c_branch2b"
  top: "res4c_branch2b"
  batch_norm_param {
    use_global_stats: true
  }
}
layer {
  name: "scale4c_branch2b"
  type: "Scale"
  bottom: "res4c_branch2b"
  top: "res4c_branch2b"
  scale_param {
    bias_term: true
  }
}
layer {
  name: "res4c_branch2b_relu"
  type: "ReLU"
  bottom: "res4c_branch2b"
  top: "res4c_branch2b"
}
layer {
  name: "res4c_branch2c"
  type: "Convolution"
  bottom: "res4c_branch2b"
  top: "res4c_branch2c"
  param {
    lr_mult: 1
    decay_mult: 1
  }
  convolution_param {
    num_output: 1024
    bias_term: false
    pad: 0
    kernel_size: 1
    stride: 1
  }
}
layer {
  name: "bn4c_branch2c"
  type: "BatchNorm"
  bottom: "res4c_branch2c"
  top: "res4c_branch2c"
  batch_norm_param {
    use_global_stats: true
  }
}
layer {
  name: "scale4c_branch2c"
  type: "Scale"
  bottom: "res4c_branch2c"
  top: "res4c_branch2c"
  scale_param {
    bias_term: true
  }
}
layer {
  name: "res4c"
  type: "Eltwise"
  bottom: "res4b"
  bottom: "res4c_branch2c"
  top: "res4c"
}
layer {
  name: "res4c_relu"
  type: "ReLU"
  bottom: "res4c"
  top: "res4c"
}
layer {
  name: "res4d_branch2a"
  type: "Convolution"
  bottom: "res4c"
  top: "res4d_branch2a"
  param {
    lr_mult: 1
    decay_mult: 1
  }
  convolution_param {
    num_output: 256
    bias_term: false
    pad: 0
    kernel_size: 1
    stride: 1
  }
}
layer {
  name: "bn4d_branch2a"
  type: "BatchNorm"
  bottom: "res4d_branch2a"
  top: "res4d_branch2a"
  batch_norm_param {
    use_global_stats: true
  }
}
layer {
  name: "scale4d_branch2a"
  type: "Scale"
  bottom: "res4d_branch2a"
  top: "res4d_branch2a"
  scale_param {
    bias_term: true
  }
}
layer {
  name: "res4d_branch2a_relu"
  type: "ReLU"
  bottom: "res4d_branch2a"
  top: "res4d_branch2a"
}
layer {
  name: "res4d_branch2b"
  type: "Convolution"
  bottom: "res4d_branch2a"
  top: "res4d_branch2b"
  param {
    lr_mult: 1
    decay_mult: 1
  }
  convolution_param {
    num_output: 256
    bias_term: false
    pad: 1
    kernel_size: 3
    stride: 1
  }
}
layer {
  name: "bn4d_branch2b"
  type: "BatchNorm"
  bottom: "res4d_branch2b"
  top: "res4d_branch2b"
  batch_norm_param {
    use_global_stats: true
  }
}
layer {
  name: "scale4d_branch2b"
  type: "Scale"
  bottom: "res4d_branch2b"
  top: "res4d_branch2b"
  scale_param {
    bias_term: true
  }
}
layer {
  name: "res4d_branch2b_relu"
  type: "ReLU"
  bottom: "res4d_branch2b"
  top: "res4d_branch2b"
}
layer {
  name: "res4d_branch2c"
  type: "Convolution"
  bottom: "res4d_branch2b"
  top: "res4d_branch2c"
  param {
    lr_mult: 1
    decay_mult: 1
  }
  convolution_param {
    num_output: 1024
    bias_term: false
    pad: 0
    kernel_size: 1
    stride: 1
  }
}
layer {
  name: "bn4d_branch2c"
  type: "BatchNorm"
  bottom: "res4d_branch2c"
  top: "res4d_branch2c"
  batch_norm_param {
    use_global_stats: true
  }
}
layer {
  name: "scale4d_branch2c"
  type: "Scale"
  bottom: "res4d_branch2c"
  top: "res4d_branch2c"
  scale_param {
    bias_term: true
  }
}
layer {
  name: "res4d"
  type: "Eltwise"
  bottom: "res4c"
  bottom: "res4d_branch2c"
  top: "res4d"
}
layer {
  name: "res4d_relu"
  type: "ReLU"
  bottom: "res4d"
  top: "res4d"
}
layer {
  name: "res4e_branch2a"
  type: "Convolution"
  bottom: "res4d"
  top: "res4e_branch2a"
  param {
    lr_mult: 1
    decay_mult: 1
  }
  convolution_param {
    num_output: 256
    bias_term: false
    pad: 0
    kernel_size: 1
    stride: 1
  }
}
layer {
  name: "bn4e_branch2a"
  type: "BatchNorm"
  bottom: "res4e_branch2a"
  top: "res4e_branch2a"
  batch_norm_param {
    use_global_stats: true
  }
}
layer {
  name: "scale4e_branch2a"
  type: "Scale"
  bottom: "res4e_branch2a"
  top: "res4e_branch2a"
  scale_param {
    bias_term: true
  }
}
layer {
  name: "res4e_branch2a_relu"
  type: "ReLU"
  bottom: "res4e_branch2a"
  top: "res4e_branch2a"
}
layer {
  name: "res4e_branch2b"
  type: "Convolution"
  bottom: "res4e_branch2a"
  top: "res4e_branch2b"
  param {
    lr_mult: 1
    decay_mult: 1
  }
  convolution_param {
    num_output: 256
    bias_term: false
    pad: 1
    kernel_size: 3
    stride: 1
  }
}
layer {
  name: "bn4e_branch2b"
  type: "BatchNorm"
  bottom: "res4e_branch2b"
  top: "res4e_branch2b"
  batch_norm_param {
    use_global_stats: true
  }
}
layer {
  name: "scale4e_branch2b"
  type: "Scale"
  bottom: "res4e_branch2b"
  top: "res4e_branch2b"
  scale_param {
    bias_term: true
  }
}
layer {
  name: "res4e_branch2b_relu"
  type: "ReLU"
  bottom: "res4e_branch2b"
  top: "res4e_branch2b"
}
layer {
  name: "res4e_branch2c"
  type: "Convolution"
  bottom: "res4e_branch2b"
  top: "res4e_branch2c"
  param {
    lr_mult: 1
    decay_mult: 1
  }
  convolution_param {
    num_output: 1024
    bias_term: false
    pad: 0
    kernel_size: 1
    stride: 1
  }
}
layer {
  name: "bn4e_branch2c"
  type: "BatchNorm"
  bottom: "res4e_branch2c"
  top: "res4e_branch2c"
  batch_norm_param {
    use_global_stats: true
  }
}
layer {
  name: "scale4e_branch2c"
  type: "Scale"
  bottom: "res4e_branch2c"
  top: "res4e_branch2c"
  scale_param {
    bias_term: true
  }
}
layer {
  name: "res4e"
  type: "Eltwise"
  bottom: "res4d"
  bottom: "res4e_branch2c"
  top: "res4e"
}
layer {
  name: "res4e_relu"
  type: "ReLU"
  bottom: "res4e"
  top: "res4e"
}
layer {
  name: "res4f_branch2a"
  type: "Convolution"
  bottom: "res4e"
  top: "res4f_branch2a"
  param {
    lr_mult: 1
    decay_mult: 1
  }
  convolution_param {
    num_output: 256
    bias_term: false
    pad: 0
    kernel_size: 1
    stride: 1
  }
}
layer {
  name: "bn4f_branch2a"
  type: "BatchNorm"
  bottom: "res4f_branch2a"
  top: "res4f_branch2a"
  batch_norm_param {
    use_global_stats: true
  }
}
layer {
  name: "scale4f_branch2a"
  type: "Scale"
  bottom: "res4f_branch2a"
  top: "res4f_branch2a"
  scale_param {
    bias_term: true
  }
}
layer {
  name: "res4f_branch2a_relu"
  type: "ReLU"
  bottom: "res4f_branch2a"
  top: "res4f_branch2a"
}
layer {
  name: "res4f_branch2b"
  type: "Convolution"
  bottom: "res4f_branch2a"
  top: "res4f_branch2b"
  param {
    lr_mult: 1
    decay_mult: 1
  }
  convolution_param {
    num_output: 256
    bias_term: false
    pad: 1
    kernel_size: 3
    stride: 1
  }
}
layer {
  name: "bn4f_branch2b"
  type: "BatchNorm"
  bottom: "res4f_branch2b"
  top: "res4f_branch2b"
  batch_norm_param {
    use_global_stats: true
  }
}
layer {
  name: "scale4f_branch2b"
  type: "Scale"
  bottom: "res4f_branch2b"
  top: "res4f_branch2b"
  scale_param {
    bias_term: true
  }
}
layer {
  name: "res4f_branch2b_relu"
  type: "ReLU"
  bottom: "res4f_branch2b"
  top: "res4f_branch2b"
}
layer {
  name: "res4f_branch2c"
  type: "Convolution"
  bottom: "res4f_branch2b"
  top: "res4f_branch2c"
  param {
    lr_mult: 1
    decay_mult: 1
  }
  convolution_param {
    num_output: 1024
    bias_term: false
    pad: 0
    kernel_size: 1
    stride: 1
  }
}
layer {
  name: "bn4f_branch2c"
  type: "BatchNorm"
  bottom: "res4f_branch2c"
  top: "res4f_branch2c"
  batch_norm_param {
    use_global_stats: true
  }
}
layer {
  name: "scale4f_branch2c"
  type: "Scale"
  bottom: "res4f_branch2c"
  top: "res4f_branch2c"
  scale_param {
    bias_term: true
  }
}
layer {
  name: "res4f"
  type: "Eltwise"
  bottom: "res4e"
  bottom: "res4f_branch2c"
  top: "res4f"
}
layer {
  name: "res4f_relu"
  type: "ReLU"
  bottom: "res4f"
  top: "res
I0627 17:37:07.213070  1680 layer_factory.hpp:77] Creating layer input
I0627 17:37:07.213227  1680 db_lmdb.cpp:35] Opened lmdb ../../../data_subsets/subtrain2_lmdb
I0627 17:37:07.213279  1680 net.cpp:84] Creating Layer input
I0627 17:37:07.213304  1680 net.cpp:380] input -> data
I0627 17:37:07.213351  1680 net.cpp:380] input -> label
I0627 17:37:07.213382  1680 data_transformer.cpp:25] Loading mean file from: ../../../data_subsets/subtrain2_mean.binaryproto
I0627 17:37:07.236673  1680 data_layer.cpp:45] output data size: 8,3,224,224
I0627 17:37:07.249241  1680 net.cpp:122] Setting up input
I0627 17:37:07.249287  1680 net.cpp:129] Top shape: 8 3 224 224 (1204224)
I0627 17:37:07.249295  1680 net.cpp:129] Top shape: 8 (8)
I0627 17:37:07.249300  1680 net.cpp:137] Memory required for data: 4816928
I0627 17:37:07.249312  1680 layer_factory.hpp:77] Creating layer label_input_1_split
I0627 17:37:07.249336  1680 net.cpp:84] Creating Layer label_input_1_split
I0627 17:37:07.249347  1680 net.cpp:406] label_input_1_split <- label
I0627 17:37:07.249366  1680 net.cpp:380] label_input_1_split -> label_input_1_split_0
I0627 17:37:07.249388  1680 net.cpp:380] label_input_1_split -> label_input_1_split_1
I0627 17:37:07.249397  1680 net.cpp:380] label_input_1_split -> label_input_1_split_2
I0627 17:37:07.249403  1680 net.cpp:380] label_input_1_split -> label_input_1_split_3
I0627 17:37:07.249464  1680 net.cpp:122] Setting up label_input_1_split
I0627 17:37:07.249480  1680 net.cpp:129] Top shape: 8 (8)
I0627 17:37:07.249485  1680 net.cpp:129] Top shape: 8 (8)
I0627 17:37:07.249490  1680 net.cpp:129] Top shape: 8 (8)
I0627 17:37:07.249495  1680 net.cpp:129] Top shape: 8 (8)
I0627 17:37:07.249497  1680 net.cpp:137] Memory required for data: 4817056
I0627 17:37:07.249502  1680 layer_factory.hpp:77] Creating layer conv1
I0627 17:37:07.249527  1680 net.cpp:84] Creating Layer conv1
I0627 17:37:07.249537  1680 net.cpp:406] conv1 <- data
I0627 17:37:07.249546  1680 net.cpp:380] conv1 -> conv1
I0627 17:37:07.913475  1680 net.cpp:122] Setting up conv1
I0627 17:37:07.913530  1680 net.cpp:129] Top shape: 8 64 112 112 (6422528)
I0627 17:37:07.913535  1680 net.cpp:137] Memory required for data: 30507168
I0627 17:37:07.913566  1680 layer_factory.hpp:77] Creating layer bn_conv1
I0627 17:37:07.915208  1680 net.cpp:84] Creating Layer bn_conv1
I0627 17:37:07.915225  1680 net.cpp:406] bn_conv1 <- conv1
I0627 17:37:07.915235  1680 net.cpp:367] bn_conv1 -> conv1 (in-place)
I0627 17:37:07.915424  1680 net.cpp:122] Setting up bn_conv1
I0627 17:37:07.915441  1680 net.cpp:129] Top shape: 8 64 112 112 (6422528)
I0627 17:37:07.915477  1680 net.cpp:137] Memory required for data: 56197280
I0627 17:37:07.915493  1680 layer_factory.hpp:77] Creating layer scale_conv1
I0627 17:37:07.915509  1680 net.cpp:84] Creating Layer scale_conv1
I0627 17:37:07.915521  1680 net.cpp:406] scale_conv1 <- conv1
I0627 17:37:07.915529  1680 net.cpp:367] scale_conv1 -> conv1 (in-place)
I0627 17:37:07.917027  1680 layer_factory.hpp:77] Creating layer scale_conv1
I0627 17:37:07.917168  1680 net.cpp:122] Setting up scale_conv1
I0627 17:37:07.917186  1680 net.cpp:129] Top shape: 8 64 112 112 (6422528)
I0627 17:37:07.917189  1680 net.cpp:137] Memory required for data: 81887392
I0627 17:37:07.917197  1680 layer_factory.hpp:77] Creating layer conv1_relu
I0627 17:37:07.917207  1680 net.cpp:84] Creating Layer conv1_relu
I0627 17:37:07.917210  1680 net.cpp:406] conv1_relu <- conv1
I0627 17:37:07.917217  1680 net.cpp:367] conv1_relu -> conv1 (in-place)
I0627 17:37:07.917361  1680 net.cpp:122] Setting up conv1_relu
I0627 17:37:07.917378  1680 net.cpp:129] Top shape: 8 64 112 112 (6422528)
I0627 17:37:07.917382  1680 net.cpp:137] Memory required for data: 107577504
I0627 17:37:07.917387  1680 layer_factory.hpp:77] Creating layer pool1
I0627 17:37:07.917399  1680 net.cpp:84] Creating Layer pool1
I0627 17:37:07.917404  1680 net.cpp:406] pool1 <- conv1
I0627 17:37:07.917412  1680 net.cpp:380] pool1 -> pool1
I0627 17:37:07.917469  1680 net.cpp:122] Setting up pool1
I0627 17:37:07.917484  1680 net.cpp:129] Top shape: 8 64 56 56 (1605632)
I0627 17:37:07.917488  1680 net.cpp:137] Memory required for data: 114000032
I0627 17:37:07.917492  1680 layer_factory.hpp:77] Creating layer pool1_pool1_0_split
I0627 17:37:07.917500  1680 net.cpp:84] Creating Layer pool1_pool1_0_split
I0627 17:37:07.917503  1680 net.cpp:406] pool1_pool1_0_split <- pool1
I0627 17:37:07.917510  1680 net.cpp:380] pool1_pool1_0_split -> pool1_pool1_0_split_0
I0627 17:37:07.917517  1680 net.cpp:380] pool1_pool1_0_split -> pool1_pool1_0_split_1
I0627 17:37:07.917551  1680 net.cpp:122] Setting up pool1_pool1_0_split
I0627 17:37:07.917567  1680 net.cpp:129] Top shape: 8 64 56 56 (1605632)
I0627 17:37:07.917572  1680 net.cpp:129] Top shape: 8 64 56 56 (1605632)
I0627 17:37:07.917575  1680 net.cpp:137] Memory required for data: 126845088
I0627 17:37:07.917579  1680 layer_factory.hpp:77] Creating layer res2a_branch1
I0627 17:37:07.917593  1680 net.cpp:84] Creating Layer res2a_branch1
I0627 17:37:07.917598  1680 net.cpp:406] res2a_branch1 <- pool1_pool1_0_split_0
I0627 17:37:07.917603  1680 net.cpp:380] res2a_branch1 -> res2a_branch1
I0627 17:37:07.919539  1680 net.cpp:122] Setting up res2a_branch1
I0627 17:37:07.919559  1680 net.cpp:129] Top shape: 8 256 56 56 (6422528)
I0627 17:37:07.919564  1680 net.cpp:137] Memory required for data: 152535200
I0627 17:37:07.919570  1680 layer_factory.hpp:77] Creating layer bn2a_branch1
I0627 17:37:07.919579  1680 net.cpp:84] Creating Layer bn2a_branch1
I0627 17:37:07.919584  1680 net.cpp:406] bn2a_branch1 <- res2a_branch1
I0627 17:37:07.919589  1680 net.cpp:367] bn2a_branch1 -> res2a_branch1 (in-place)
I0627 17:37:07.920342  1680 net.cpp:122] Setting up bn2a_branch1
I0627 17:37:07.920361  1680 net.cpp:129] Top shape: 8 256 56 56 (6422528)
I0627 17:37:07.920366  1680 net.cpp:137] Memory required for data: 178225312
I0627 17:37:07.920377  1680 layer_factory.hpp:77] Creating layer scale2a_branch1
I0627 17:37:07.920385  1680 net.cpp:84] Creating Layer scale2a_branch1
I0627 17:37:07.920389  1680 net.cpp:406] scale2a_branch1 <- res2a_branch1
I0627 17:37:07.920395  1680 net.cpp:367] scale2a_branch1 -> res2a_branch1 (in-place)
I0627 17:37:07.920439  1680 layer_factory.hpp:77] Creating layer scale2a_branch1
I0627 17:37:07.920544  1680 net.cpp:122] Setting up scale2a_branch1
I0627 17:37:07.920559  1680 net.cpp:129] Top shape: 8 256 56 56 (6422528)
I0627 17:37:07.920563  1680 net.cpp:137] Memory required for data: 203915424
I0627 17:37:07.920570  1680 layer_factory.hpp:77] Creating layer res2a_branch2a
I0627 17:37:07.920581  1680 net.cpp:84] Creating Layer res2a_branch2a
I0627 17:37:07.920601  1680 net.cpp:406] res2a_branch2a <- pool1_pool1_0_split_1
I0627 17:37:07.920608  1680 net.cpp:380] res2a_branch2a -> res2a_branch2a
I0627 17:37:07.922798  1680 net.cpp:122] Setting up res2a_branch2a
I0627 17:37:07.922817  1680 net.cpp:129] Top shape: 8 64 56 56 (1605632)
I0627 17:37:07.922822  1680 net.cpp:137] Memory required for data: 210337952
I0627 17:37:07.922828  1680 layer_factory.hpp:77] Creating layer bn2a_branch2a
I0627 17:37:07.922837  1680 net.cpp:84] Creating Layer bn2a_branch2a
I0627 17:37:07.922842  1680 net.cpp:406] bn2a_branch2a <- res2a_branch2a
I0627 17:37:07.922847  1680 net.cpp:367] bn2a_branch2a -> res2a_branch2a (in-place)
I0627 17:37:07.923010  1680 net.cpp:122] Setting up bn2a_branch2a
I0627 17:37:07.923027  1680 net.cpp:129] Top shape: 8 64 56 56 (1605632)
I0627 17:37:07.923030  1680 net.cpp:137] Memory required for data: 216760480
I0627 17:37:07.923043  1680 layer_factory.hpp:77] Creating layer scale2a_branch2a
I0627 17:37:07.923050  1680 net.cpp:84] Creating Layer scale2a_branch2a
I0627 17:37:07.923054  1680 net.cpp:406] scale2a_branch2a <- res2a_branch2a
I0627 17:37:07.923059  1680 net.cpp:367] scale2a_branch2a -> res2a_branch2a (in-place)
I0627 17:37:07.923101  1680 layer_factory.hpp:77] Creating layer scale2a_branch2a
I0627 17:37:07.923213  1680 net.cpp:122] Setting up scale2a_branch2a
I0627 17:37:07.923228  1680 net.cpp:129] Top shape: 8 64 56 56 (1605632)
I0627 17:37:07.923233  1680 net.cpp:137] Memory required for data: 223183008
I0627 17:37:07.923239  1680 layer_factory.hpp:77] Creating layer res2a_branch2a_relu
I0627 17:37:07.923245  1680 net.cpp:84] Creating Layer res2a_branch2a_relu
I0627 17:37:07.923249  1680 net.cpp:406] res2a_branch2a_relu <- res2a_branch2a
I0627 17:37:07.923255  1680 net.cpp:367] res2a_branch2a_relu -> res2a_branch2a (in-place)
I0627 17:37:07.923480  1680 net.cpp:122] Setting up res2a_branch2a_relu
I0627 17:37:07.923498  1680 net.cpp:129] Top shape: 8 64 56 56 (1605632)
I0627 17:37:07.923502  1680 net.cpp:137] Memory required for data: 229605536
I0627 17:37:07.923506  1680 layer_factory.hpp:77] Creating layer res2a_branch2b
I0627 17:37:07.923516  1680 net.cpp:84] Creating Layer res2a_branch2b
I0627 17:37:07.923521  1680 net.cpp:406] res2a_branch2b <- res2a_branch2a
I0627 17:37:07.923527  1680 net.cpp:380] res2a_branch2b -> res2a_branch2b
I0627 17:37:07.924854  1680 net.cpp:122] Setting up res2a_branch2b
I0627 17:37:07.924875  1680 net.cpp:129] Top shape: 8 64 56 56 (1605632)
I0627 17:37:07.924880  1680 net.cpp:137] Memory required for data: 236028064
I0627 17:37:07.924886  1680 layer_factory.hpp:77] Creating layer bn2a_branch2b
I0627 17:37:07.924896  1680 net.cpp:84] Creating Layer bn2a_branch2b
I0627 17:37:07.924901  1680 net.cpp:406] bn2a_branch2b <- res2a_branch2b
I0627 17:37:07.924907  1680 net.cpp:367] bn2a_branch2b -> res2a_branch2b (in-place)
I0627 17:37:07.925082  1680 net.cpp:122] Setting up bn2a_branch2b
I0627 17:37:07.925098  1680 net.cpp:129] Top shape: 8 64 56 56 (1605632)
I0627 17:37:07.925103  1680 net.cpp:137] Memory required for data: 242450592
I0627 17:37:07.925112  1680 layer_factory.hpp:77] Creating layer scale2a_branch2b
I0627 17:37:07.925119  1680 net.cpp:84] Creating Layer scale2a_branch2b
I0627 17:37:07.925123  1680 net.cpp:406] scale2a_branch2b <- res2a_branch2b
I0627 17:37:07.925128  1680 net.cpp:367] scale2a_branch2b -> res2a_branch2b (in-place)
I0627 17:37:07.925170  1680 layer_factory.hpp:77] Creating layer scale2a_branch2b
I0627 17:37:07.925292  1680 net.cpp:122] Setting up scale2a_branch2b
I0627 17:37:07.925307  1680 net.cpp:129] Top shape: 8 64 56 56 (1605632)
I0627 17:37:07.925312  1680 net.cpp:137] Memory required for data: 248873120
I0627 17:37:07.925318  1680 layer_factory.hpp:77] Creating layer res2a_branch2b_relu
I0627 17:37:07.925325  1680 net.cpp:84] Creating Layer res2a_branch2b_relu
I0627 17:37:07.925329  1680 net.cpp:406] res2a_branch2b_relu <- res2a_branch2b
I0627 17:37:07.925335  1680 net.cpp:367] res2a_branch2b_relu -> res2a_branch2b (in-place)
I0627 17:37:07.925580  1680 net.cpp:122] Setting up res2a_branch2b_relu
I0627 17:37:07.925611  1680 net.cpp:129] Top shape: 8 64 56 56 (1605632)
I0627 17:37:07.925616  1680 net.cpp:137] Memory required for data: 255295648
I0627 17:37:07.925619  1680 layer_factory.hpp:77] Creating layer res2a_branch2c
I0627 17:37:07.925632  1680 net.cpp:84] Creating Layer res2a_branch2c
I0627 17:37:07.925637  1680 net.cpp:406] res2a_branch2c <- res2a_branch2b
I0627 17:37:07.925647  1680 net.cpp:380] res2a_branch2c -> res2a_branch2c
I0627 17:37:07.926594  1680 net.cpp:122] Setting up res2a_branch2c
I0627 17:37:07.926614  1680 net.cpp:129] Top shape: 8 256 56 56 (6422528)
I0627 17:37:07.926617  1680 net.cpp:137] Memory required for data: 280985760
I0627 17:37:07.926625  1680 layer_factory.hpp:77] Creating layer bn2a_branch2c
I0627 17:37:07.926635  1680 net.cpp:84] Creating Layer bn2a_branch2c
I0627 17:37:07.926640  1680 net.cpp:406] bn2a_branch2c <- res2a_branch2c
I0627 17:37:07.926645  1680 net.cpp:367] bn2a_branch2c -> res2a_branch2c (in-place)
I0627 17:37:07.926836  1680 net.cpp:122] Setting up bn2a_branch2c
I0627 17:37:07.926854  1680 net.cpp:129] Top shape: 8 256 56 56 (6422528)
I0627 17:37:07.926858  1680 net.cpp:137] Memory required for data: 306675872
I0627 17:37:07.926867  1680 layer_factory.hpp:77] Creating layer scale2a_branch2c
I0627 17:37:07.926877  1680 net.cpp:84] Creating Layer scale2a_branch2c
I0627 17:37:07.926882  1680 net.cpp:406] scale2a_branch2c <- res2a_branch2c
I0627 17:37:07.926887  1680 net.cpp:367] scale2a_branch2c -> res2a_branch2c (in-place)
I0627 17:37:07.926933  1680 layer_factory.hpp:77] Creating layer scale2a_branch2c
I0627 17:37:07.927062  1680 net.cpp:122] Setting up scale2a_branch2c
I0627 17:37:07.927076  1680 net.cpp:129] Top shape: 8 256 56 56 (6422528)
I0627 17:37:07.927080  1680 net.cpp:137] Memory required for data: 332365984
I0627 17:37:07.927088  1680 layer_factory.hpp:77] Creating layer res2a
I0627 17:37:07.927101  1680 net.cpp:84] Creating Layer res2a
I0627 17:37:07.927105  1680 net.cpp:406] res2a <- res2a_branch1
I0627 17:37:07.927111  1680 net.cpp:406] res2a <- res2a_branch2c
I0627 17:37:07.927116  1680 net.cpp:380] res2a -> res2a
I0627 17:37:07.927150  1680 net.cpp:122] Setting up res2a
I0627 17:37:07.927165  1680 net.cpp:129] Top shape: 8 256 56 56 (6422528)
I0627 17:37:07.927170  1680 net.cpp:137] Memory required for data: 358056096
I0627 17:37:07.927173  1680 layer_factory.hpp:77] Creating layer res2a_relu
I0627 17:37:07.927181  1680 net.cpp:84] Creating Layer res2a_relu
I0627 17:37:07.927183  1680 net.cpp:406] res2a_relu <- res2a
I0627 17:37:07.927191  1680 net.cpp:367] res2a_relu -> res2a (in-place)
I0627 17:37:07.927340  1680 net.cpp:122] Setting up res2a_relu
I0627 17:37:07.927356  1680 net.cpp:129] Top shape: 8 256 56 56 (6422528)
I0627 17:37:07.927361  1680 net.cpp:137] Memory required for data: 383746208
I0627 17:37:07.927366  1680 layer_factory.hpp:77] Creating layer res2a_res2a_relu_0_split
I0627 17:37:07.927376  1680 net.cpp:84] Creating Layer res2a_res2a_relu_0_split
I0627 17:37:07.927379  1680 net.cpp:406] res2a_res2a_relu_0_split <- res2a
I0627 17:37:07.927386  1680 net.cpp:380] res2a_res2a_relu_0_split -> res2a_res2a_relu_0_split_0
I0627 17:37:07.927392  1680 net.cpp:380] res2a_res2a_relu_0_split -> res2a_res2a_relu_0_split_1
I0627 17:37:07.927438  1680 net.cpp:122] Setting up res2a_res2a_relu_0_split
I0627 17:37:07.927451  1680 net.cpp:129] Top shape: 8 256 56 56 (6422528)
I0627 17:37:07.927460  1680 net.cpp:129] Top shape: 8 256 56 56 (6422528)
I0627 17:37:07.927464  1680 net.cpp:137] Memory required for data: 435126432
I0627 17:37:07.927467  1680 layer_factory.hpp:77] Creating layer res2b_branch2a
I0627 17:37:07.927477  1680 net.cpp:84] Creating Layer res2b_branch2a
I0627 17:37:07.927481  1680 net.cpp:406] res2b_branch2a <- res2a_res2a_relu_0_split_0
I0627 17:37:07.927490  1680 net.cpp:380] res2b_branch2a -> res2b_branch2a
I0627 17:37:07.928325  1680 net.cpp:122] Setting up res2b_branch2a
I0627 17:37:07.928344  1680 net.cpp:129] Top shape: 8 64 56 56 (1605632)
I0627 17:37:07.928349  1680 net.cpp:137] Memory required for data: 441548960
I0627 17:37:07.928369  1680 layer_factory.hpp:77] Creating layer bn2b_branch2a
I0627 17:37:07.928380  1680 net.cpp:84] Creating Layer bn2b_branch2a
I0627 17:37:07.928385  1680 net.cpp:406] bn2b_branch2a <- res2b_branch2a
I0627 17:37:07.928390  1680 net.cpp:367] bn2b_branch2a -> res2b_branch2a (in-place)
I0627 17:37:07.928586  1680 net.cpp:122] Setting up bn2b_branch2a
I0627 17:37:07.928601  1680 net.cpp:129] Top shape: 8 64 56 56 (1605632)
I0627 17:37:07.928604  1680 net.cpp:137] Memory required for data: 447971488
I0627 17:37:07.928619  1680 layer_factory.hpp:77] Creating layer scale2b_branch2a
I0627 17:37:07.928627  1680 net.cpp:84] Creating Layer scale2b_branch2a
I0627 17:37:07.928632  1680 net.cpp:406] scale2b_branch2a <- res2b_branch2a
I0627 17:37:07.928637  1680 net.cpp:367] scale2b_branch2a -> res2b_branch2a (in-place)
I0627 17:37:07.928685  1680 layer_factory.hpp:77] Creating layer scale2b_branch2a
I0627 17:37:07.928814  1680 net.cpp:122] Setting up scale2b_branch2a
I0627 17:37:07.928830  1680 net.cpp:129] Top shape: 8 64 56 56 (1605632)
I0627 17:37:07.928834  1680 net.cpp:137] Memory required for data: 454394016
I0627 17:37:07.928841  1680 layer_factory.hpp:77] Creating layer res2b_branch2a_relu
I0627 17:37:07.928851  1680 net.cpp:84] Creating Layer res2b_branch2a_relu
I0627 17:37:07.928855  1680 net.cpp:406] res2b_branch2a_relu <- res2b_branch2a
I0627 17:37:07.928860  1680 net.cpp:367] res2b_branch2a_relu -> res2b_branch2a (in-place)
I0627 17:37:07.929111  1680 net.cpp:122] Setting up res2b_branch2a_relu
I0627 17:37:07.929132  1680 net.cpp:129] Top shape: 8 64 56 56 (1605632)
I0627 17:37:07.929137  1680 net.cpp:137] Memory required for data: 460816544
I0627 17:37:07.929141  1680 layer_factory.hpp:77] Creating layer res2b_branch2b
I0627 17:37:07.929154  1680 net.cpp:84] Creating Layer res2b_branch2b
I0627 17:37:07.929158  1680 net.cpp:406] res2b_branch2b <- res2b_branch2a
I0627 17:37:07.929165  1680 net.cpp:380] res2b_branch2b -> res2b_branch2b
I0627 17:37:07.929914  1680 net.cpp:122] Setting up res2b_branch2b
I0627 17:37:07.929934  1680 net.cpp:129] Top shape: 8 64 56 56 (1605632)
I0627 17:37:07.929939  1680 net.cpp:137] Memory required for data: 467239072
I0627 17:37:07.929945  1680 layer_factory.hpp:77] Creating layer bn2b_branch2b
I0627 17:37:07.929953  1680 net.cpp:84] Creating Layer bn2b_branch2b
I0627 17:37:07.929957  1680 net.cpp:406] bn2b_branch2b <- res2b_branch2b
I0627 17:37:07.929966  1680 net.cpp:367] bn2b_branch2b -> res2b_branch2b (in-place)
I0627 17:37:07.930169  1680 net.cpp:122] Setting up bn2b_branch2b
I0627 17:37:07.930184  1680 net.cpp:129] Top shape: 8 64 56 56 (1605632)
I0627 17:37:07.930189  1680 net.cpp:137] Memory required for data: 473661600
I0627 17:37:07.930197  1680 layer_factory.hpp:77] Creating layer scale2b_branch2b
I0627 17:37:07.930205  1680 net.cpp:84] Creating Layer scale2b_branch2b
I0627 17:37:07.930209  1680 net.cpp:406] scale2b_branch2b <- res2b_branch2b
I0627 17:37:07.930217  1680 net.cpp:367] scale2b_branch2b -> res2b_branch2b (in-place)
I0627 17:37:07.930260  1680 layer_factory.hpp:77] Creating layer scale2b_branch2b
I0627 17:37:07.930389  1680 net.cpp:122] Setting up scale2b_branch2b
I0627 17:37:07.930405  1680 net.cpp:129] Top shape: 8 64 56 56 (1605632)
I0627 17:37:07.930409  1680 net.cpp:137] Memory required for data: 480084128
I0627 17:37:07.930416  1680 layer_factory.hpp:77] Creating layer res2b_branch2b_relu
I0627 17:37:07.930428  1680 net.cpp:84] Creating Layer res2b_branch2b_relu
I0627 17:37:07.930433  1680 net.cpp:406] res2b_branch2b_relu <- res2b_branch2b
I0627 17:37:07.930439  1680 net.cpp:367] res2b_branch2b_relu -> res2b_branch2b (in-place)
I0627 17:37:07.930703  1680 net.cpp:122] Setting up res2b_branch2b_relu
I0627 17:37:07.930721  1680 net.cpp:129] Top shape: 8 64 56 56 (1605632)
I0627 17:37:07.930727  1680 net.cpp:137] Memory required for data: 486506656
I0627 17:37:07.930730  1680 layer_factory.hpp:77] Creating layer res2b_branch2c
I0627 17:37:07.930742  1680 net.cpp:84] Creating Layer res2b_branch2c
I0627 17:37:07.930747  1680 net.cpp:406] res2b_branch2c <- res2b_branch2b
I0627 17:37:07.930769  1680 net.cpp:380] res2b_branch2c -> res2b_branch2c
I0627 17:37:07.931768  1680 net.cpp:122] Setting up res2b_branch2c
I0627 17:37:07.931788  1680 net.cpp:129] Top shape: 8 256 56 56 (6422528)
I0627 17:37:07.931793  1680 net.cpp:137] Memory required for data: 512196768
I0627 17:37:07.931799  1680 layer_factory.hpp:77] Creating layer bn2b_branch2c
I0627 17:37:07.931810  1680 net.cpp:84] Creating Layer bn2b_branch2c
I0627 17:37:07.931815  1680 net.cpp:406] bn2b_branch2c <- res2b_branch2c
I0627 17:37:07.931823  1680 net.cpp:367] bn2b_branch2c -> res2b_branch2c (in-place)
I0627 17:37:07.932018  1680 net.cpp:122] Setting up bn2b_branch2c
I0627 17:37:07.932034  1680 net.cpp:129] Top shape: 8 256 56 56 (6422528)
I0627 17:37:07.932037  1680 net.cpp:137] Memory required for data: 537886880
I0627 17:37:07.932045  1680 layer_factory.hpp:77] Creating layer scale2b_branch2c
I0627 17:37:07.932056  1680 net.cpp:84] Creating Layer scale2b_branch2c
I0627 17:37:07.932060  1680 net.cpp:406] scale2b_branch2c <- res2b_branch2c
I0627 17:37:07.932066  1680 net.cpp:367] scale2b_branch2c -> res2b_branch2c (in-place)
I0627 17:37:07.932112  1680 layer_factory.hpp:77] Creating layer scale2b_branch2c
I0627 17:37:07.932245  1680 net.cpp:122] Setting up scale2b_branch2c
I0627 17:37:07.932260  1680 net.cpp:129] Top shape: 8 256 56 56 (6422528)
I0627 17:37:07.932263  1680 net.cpp:137] Memory required for data: 563576992
I0627 17:37:07.932271  1680 layer_factory.hpp:77] Creating layer res2b
I0627 17:37:07.932277  1680 net.cpp:84] Creating Layer res2b
I0627 17:37:07.932282  1680 net.cpp:406] res2b <- res2a_res2a_relu_0_split_1
I0627 17:37:07.932287  1680 net.cpp:406] res2b <- res2b_branch2c
I0627 17:37:07.932292  1680 net.cpp:380] res2b -> res2b
I0627 17:37:07.932322  1680 net.cpp:122] Setting up res2b
I0627 17:37:07.932337  1680 net.cpp:129] Top shape: 8 256 56 56 (6422528)
I0627 17:37:07.932341  1680 net.cpp:137] Memory required for data: 589267104
I0627 17:37:07.932345  1680 layer_factory.hpp:77] Creating layer res2b_relu
I0627 17:37:07.932354  1680 net.cpp:84] Creating Layer res2b_relu
I0627 17:37:07.932358  1680 net.cpp:406] res2b_relu <- res2b
I0627 17:37:07.932363  1680 net.cpp:367] res2b_relu -> res2b (in-place)
I0627 17:37:07.932607  1680 net.cpp:122] Setting up res2b_relu
I0627 17:37:07.932626  1680 net.cpp:129] Top shape: 8 256 56 56 (6422528)
I0627 17:37:07.932629  1680 net.cpp:137] Memory required for data: 614957216
I0627 17:37:07.932633  1680 layer_factory.hpp:77] Creating layer res2b_res2b_relu_0_split
I0627 17:37:07.932643  1680 net.cpp:84] Creating Layer res2b_res2b_relu_0_split
I0627 17:37:07.932647  1680 net.cpp:406] res2b_res2b_relu_0_split <- res2b
I0627 17:37:07.932653  1680 net.cpp:380] res2b_res2b_relu_0_split -> res2b_res2b_relu_0_split_0
I0627 17:37:07.932660  1680 net.cpp:380] res2b_res2b_relu_0_split -> res2b_res2b_relu_0_split_1
I0627 17:37:07.932708  1680 net.cpp:122] Setting up res2b_res2b_relu_0_split
I0627 17:37:07.932721  1680 net.cpp:129] Top shape: 8 256 56 56 (6422528)
I0627 17:37:07.932727  1680 net.cpp:129] Top shape: 8 256 56 56 (6422528)
I0627 17:37:07.932730  1680 net.cpp:137] Memory required for data: 666337440
I0627 17:37:07.932734  1680 layer_factory.hpp:77] Creating layer res2c_branch2a
I0627 17:37:07.932747  1680 net.cpp:84] Creating Layer res2c_branch2a
I0627 17:37:07.932751  1680 net.cpp:406] res2c_branch2a <- res2b_res2b_relu_0_split_0
I0627 17:37:07.932759  1680 net.cpp:380] res2c_branch2a -> res2c_branch2a
I0627 17:37:07.933624  1680 net.cpp:122] Setting up res2c_branch2a
I0627 17:37:07.933643  1680 net.cpp:129] Top shape: 8 64 56 56 (1605632)
I0627 17:37:07.933647  1680 net.cpp:137] Memory required for data: 672759968
I0627 17:37:07.933655  1680 layer_factory.hpp:77] Creating layer bn2c_branch2a
I0627 17:37:07.933665  1680 net.cpp:84] Creating Layer bn2c_branch2a
I0627 17:37:07.933670  1680 net.cpp:406] bn2c_branch2a <- res2c_branch2a
I0627 17:37:07.933675  1680 net.cpp:367] bn2c_branch2a -> res2c_branch2a (in-place)
I0627 17:37:07.933876  1680 net.cpp:122] Setting up bn2c_branch2a
I0627 17:37:07.933903  1680 net.cpp:129] Top shape: 8 64 56 56 (1605632)
I0627 17:37:07.933907  1680 net.cpp:137] Memory required for data: 679182496
I0627 17:37:07.933917  1680 layer_factory.hpp:77] Creating layer scale2c_branch2a
I0627 17:37:07.933928  1680 net.cpp:84] Creating Layer scale2c_branch2a
I0627 17:37:07.933931  1680 net.cpp:406] scale2c_branch2a <- res2c_branch2a
I0627 17:37:07.933936  1680 net.cpp:367] scale2c_branch2a -> res2c_branch2a (in-place)
I0627 17:37:07.933984  1680 layer_factory.hpp:77] Creating layer scale2c_branch2a
I0627 17:37:07.934123  1680 net.cpp:122] Setting up scale2c_branch2a
I0627 17:37:07.934139  1680 net.cpp:129] Top shape: 8 64 56 56 (1605632)
I0627 17:37:07.934142  1680 net.cpp:137] Memory required for data: 685605024
I0627 17:37:07.934149  1680 layer_factory.hpp:77] Creating layer res2c_branch2a_relu
I0627 17:37:07.934159  1680 net.cpp:84] Creating Layer res2c_branch2a_relu
I0627 17:37:07.934164  1680 net.cpp:406] res2c_branch2a_relu <- res2c_branch2a
I0627 17:37:07.934170  1680 net.cpp:367] res2c_branch2a_relu -> res2c_branch2a (in-place)
I0627 17:37:07.934422  1680 net.cpp:122] Setting up res2c_branch2a_relu
I0627 17:37:07.934440  1680 net.cpp:129] Top shape: 8 64 56 56 (1605632)
I0627 17:37:07.934444  1680 net.cpp:137] Memory required for data: 692027552
I0627 17:37:07.934448  1680 layer_factory.hpp:77] Creating layer res2c_branch2b
I0627 17:37:07.934461  1680 net.cpp:84] Creating Layer res2c_branch2b
I0627 17:37:07.934466  1680 net.cpp:406] res2c_branch2b <- res2c_branch2a
I0627 17:37:07.934475  1680 net.cpp:380] res2c_branch2b -> res2c_branch2b
I0627 17:37:07.935259  1680 net.cpp:122] Setting up res2c_branch2b
I0627 17:37:07.935278  1680 net.cpp:129] Top shape: 8 64 56 56 (1605632)
I0627 17:37:07.935282  1680 net.cpp:137] Memory required for data: 698450080
I0627 17:37:07.935292  1680 layer_factory.hpp:77] Creating layer bn2c_branch2b
I0627 17:37:07.935302  1680 net.cpp:84] Creating Layer bn2c_branch2b
I0627 17:37:07.935307  1680 net.cpp:406] bn2c_branch2b <- res2c_branch2b
I0627 17:37:07.935313  1680 net.cpp:367] bn2c_branch2b -> res2c_branch2b (in-place)
I0627 17:37:07.935524  1680 net.cpp:122] Setting up bn2c_branch2b
I0627 17:37:07.935540  1680 net.cpp:129] Top shape: 8 64 56 56 (1605632)
I0627 17:37:07.935545  1680 net.cpp:137] Memory required for data: 704872608
I0627 17:37:07.935554  1680 layer_factory.hpp:77] Creating layer scale2c_branch2b
I0627 17:37:07.935560  1680 net.cpp:84] Creating Layer scale2c_branch2b
I0627 17:37:07.935564  1680 net.cpp:406] scale2c_branch2b <- res2c_branch2b
I0627 17:37:07.935570  1680 net.cpp:367] scale2c_branch2b -> res2c_branch2b (in-place)
I0627 17:37:07.935621  1680 layer_factory.hpp:77] Creating layer scale2c_branch2b
I0627 17:37:07.935755  1680 net.cpp:122] Setting up scale2c_branch2b
I0627 17:37:07.935771  1680 net.cpp:129] Top shape: 8 64 56 56 (1605632)
I0627 17:37:07.935775  1680 net.cpp:137] Memory required for data: 711295136
I0627 17:37:07.935782  1680 layer_factory.hpp:77] Creating layer res2c_branch2b_relu
I0627 17:37:07.935791  1680 net.cpp:84] Creating Layer res2c_branch2b_relu
I0627 17:37:07.935796  1680 net.cpp:406] res2c_branch2b_relu <- res2c_branch2b
I0627 17:37:07.935801  1680 net.cpp:367] res2c_branch2b_relu -> res2c_branch2b (in-place)
I0627 17:37:07.936053  1680 net.cpp:122] Setting up res2c_branch2b_relu
I0627 17:37:07.936074  1680 net.cpp:129] Top shape: 8 64 56 56 (1605632)
I0627 17:37:07.936079  1680 net.cpp:137] Memory required for data: 717717664
I0627 17:37:07.936084  1680 layer_factory.hpp:77] Creating layer res2c_branch2c
I0627 17:37:07.936095  1680 net.cpp:84] Creating Layer res2c_branch2c
I0627 17:37:07.936100  1680 net.cpp:406] res2c_branch2c <- res2c_branch2b
I0627 17:37:07.936106  1680 net.cpp:380] res2c_branch2c -> res2c_branch2c
I0627 17:37:07.937088  1680 net.cpp:122] Setting up res2c_branch2c
I0627 17:37:07.937108  1680 net.cpp:129] Top shape: 8 256 56 56 (6422528)
I0627 17:37:07.937114  1680 net.cpp:137] Memory required for data: 743407776
I0627 17:37:07.937132  1680 layer_factory.hpp:77] Creating layer bn2c_branch2c
I0627 17:37:07.937140  1680 net.cpp:84] Creating Layer bn2c_branch2c
I0627 17:37:07.937144  1680 net.cpp:406] bn2c_branch2c <- res2c_branch2c
I0627 17:37:07.937153  1680 net.cpp:367] bn2c_branch2c -> res2c_branch2c (in-place)
I0627 17:37:07.937356  1680 net.cpp:122] Setting up bn2c_branch2c
I0627 17:37:07.937372  1680 net.cpp:129] Top shape: 8 256 56 56 (6422528)
I0627 17:37:07.937377  1680 net.cpp:137] Memory required for data: 769097888
I0627 17:37:07.937397  1680 layer_factory.hpp:77] Creating layer scale2c_branch2c
I0627 17:37:07.937412  1680 net.cpp:84] Creating Layer scale2c_branch2c
I0627 17:37:07.937417  1680 net.cpp:406] scale2c_branch2c <- res2c_branch2c
I0627 17:37:07.937422  1680 net.cpp:367] scale2c_branch2c -> res2c_branch2c (in-place)
I0627 17:37:07.937474  1680 layer_factory.hpp:77] Creating layer scale2c_branch2c
I0627 17:37:07.937610  1680 net.cpp:122] Setting up scale2c_branch2c
I0627 17:37:07.937626  1680 net.cpp:129] Top shape: 8 256 56 56 (6422528)
I0627 17:37:07.937630  1680 net.cpp:137] Memory required for data: 794788000
I0627 17:37:07.937638  1680 layer_factory.hpp:77] Creating layer res2c
I0627 17:37:07.937649  1680 net.cpp:84] Creating Layer res2c
I0627 17:37:07.937652  1680 net.cpp:406] res2c <- res2b_res2b_relu_0_split_1
I0627 17:37:07.937659  1680 net.cpp:406] res2c <- res2c_branch2c
I0627 17:37:07.937664  1680 net.cpp:380] res2c -> res2c
I0627 17:37:07.937695  1680 net.cpp:122] Setting up res2c
I0627 17:37:07.937710  1680 net.cpp:129] Top shape: 8 256 56 56 (6422528)
I0627 17:37:07.937713  1680 net.cpp:137] Memory required for data: 820478112
I0627 17:37:07.937717  1680 layer_factory.hpp:77] Creating layer res2c_relu
I0627 17:37:07.937724  1680 net.cpp:84] Creating Layer res2c_relu
I0627 17:37:07.937728  1680 net.cpp:406] res2c_relu <- res2c
I0627 17:37:07.937736  1680 net.cpp:367] res2c_relu -> res2c (in-place)
I0627 17:37:07.937891  1680 net.cpp:122] Setting up res2c_relu
I0627 17:37:07.937907  1680 net.cpp:129] Top shape: 8 256 56 56 (6422528)
I0627 17:37:07.937912  1680 net.cpp:137] Memory required for data: 846168224
I0627 17:37:07.937916  1680 layer_factory.hpp:77] Creating layer res2c_res2c_relu_0_split
I0627 17:37:07.937925  1680 net.cpp:84] Creating Layer res2c_res2c_relu_0_split
I0627 17:37:07.937929  1680 net.cpp:406] res2c_res2c_relu_0_split <- res2c
I0627 17:37:07.937935  1680 net.cpp:380] res2c_res2c_relu_0_split -> res2c_res2c_relu_0_split_0
I0627 17:37:07.937942  1680 net.cpp:380] res2c_res2c_relu_0_split -> res2c_res2c_relu_0_split_1
I0627 17:37:07.937989  1680 net.cpp:122] Setting up res2c_res2c_relu_0_split
I0627 17:37:07.938004  1680 net.cpp:129] Top shape: 8 256 56 56 (6422528)
I0627 17:37:07.938009  1680 net.cpp:129] Top shape: 8 256 56 56 (6422528)
I0627 17:37:07.938012  1680 net.cpp:137] Memory required for data: 897548448
I0627 17:37:07.938016  1680 layer_factory.hpp:77] Creating layer res3a_branch1
I0627 17:37:07.938027  1680 net.cpp:84] Creating Layer res3a_branch1
I0627 17:37:07.938031  1680 net.cpp:406] res3a_branch1 <- res2c_res2c_relu_0_split_0
I0627 17:37:07.938040  1680 net.cpp:380] res3a_branch1 -> res3a_branch1
I0627 17:37:07.939644  1680 net.cpp:122] Setting up res3a_branch1
I0627 17:37:07.939664  1680 net.cpp:129] Top shape: 8 512 28 28 (3211264)
I0627 17:37:07.939669  1680 net.cpp:137] Memory required for data: 910393504
I0627 17:37:07.939678  1680 layer_factory.hpp:77] Creating layer bn3a_branch1
I0627 17:37:07.939687  1680 net.cpp:84] Creating Layer bn3a_branch1
I0627 17:37:07.939692  1680 net.cpp:406] bn3a_branch1 <- res3a_branch1
I0627 17:37:07.939699  1680 net.cpp:367] bn3a_branch1 -> res3a_branch1 (in-place)
I0627 17:37:07.940485  1680 net.cpp:122] Setting up bn3a_branch1
I0627 17:37:07.940505  1680 net.cpp:129] Top shape: 8 512 28 28 (3211264)
I0627 17:37:07.940508  1680 net.cpp:137] Memory required for data: 923238560
I0627 17:37:07.940517  1680 layer_factory.hpp:77] Creating layer scale3a_branch1
I0627 17:37:07.940526  1680 net.cpp:84] Creating Layer scale3a_branch1
I0627 17:37:07.940546  1680 net.cpp:406] scale3a_branch1 <- res3a_branch1
I0627 17:37:07.940552  1680 net.cpp:367] scale3a_branch1 -> res3a_branch1 (in-place)
I0627 17:37:07.940608  1680 layer_factory.hpp:77] Creating layer scale3a_branch1
I0627 17:37:07.940735  1680 net.cpp:122] Setting up scale3a_branch1
I0627 17:37:07.940750  1680 net.cpp:129] Top shape: 8 512 28 28 (3211264)
I0627 17:37:07.940755  1680 net.cpp:137] Memory required for data: 936083616
I0627 17:37:07.940762  1680 layer_factory.hpp:77] Creating layer res3a_branch2a
I0627 17:37:07.940776  1680 net.cpp:84] Creating Layer res3a_branch2a
I0627 17:37:07.940781  1680 net.cpp:406] res3a_branch2a <- res2c_res2c_relu_0_split_1
I0627 17:37:07.940788  1680 net.cpp:380] res3a_branch2a -> res3a_branch2a
I0627 17:37:07.941782  1680 net.cpp:122] Setting up res3a_branch2a
I0627 17:37:07.941802  1680 net.cpp:129] Top shape: 8 128 28 28 (802816)
I0627 17:37:07.941807  1680 net.cpp:137] Memory required for data: 939294880
I0627 17:37:07.941813  1680 layer_factory.hpp:77] Creating layer bn3a_branch2a
I0627 17:37:07.941824  1680 net.cpp:84] Creating Layer bn3a_branch2a
I0627 17:37:07.941829  1680 net.cpp:406] bn3a_branch2a <- res3a_branch2a
I0627 17:37:07.941838  1680 net.cpp:367] bn3a_branch2a -> res3a_branch2a (in-place)
I0627 17:37:07.942039  1680 net.cpp:122] Setting up bn3a_branch2a
I0627 17:37:07.942055  1680 net.cpp:129] Top shape: 8 128 28 28 (802816)
I0627 17:37:07.942059  1680 net.cpp:137] Memory required for data: 942506144
I0627 17:37:07.942067  1680 layer_factory.hpp:77] Creating layer scale3a_branch2a
I0627 17:37:07.942075  1680 net.cpp:84] Creating Layer scale3a_branch2a
I0627 17:37:07.942080  1680 net.cpp:406] scale3a_branch2a <- res3a_branch2a
I0627 17:37:07.942088  1680 net.cpp:367] scale3a_branch2a -> res3a_branch2a (in-place)
I0627 17:37:07.942134  1680 layer_factory.hpp:77] Creating layer scale3a_branch2a
I0627 17:37:07.942267  1680 net.cpp:122] Setting up scale3a_branch2a
I0627 17:37:07.942283  1680 net.cpp:129] Top shape: 8 128 28 28 (802816)
I0627 17:37:07.942287  1680 net.cpp:137] Memory required for data: 945717408
I0627 17:37:07.942294  1680 layer_factory.hpp:77] Creating layer res3a_branch2a_relu
I0627 17:37:07.942301  1680 net.cpp:84] Creating Layer res3a_branch2a_relu
I0627 17:37:07.942306  1680 net.cpp:406] res3a_branch2a_relu <- res3a_branch2a
I0627 17:37:07.942311  1680 net.cpp:367] res3a_branch2a_relu -> res3a_branch2a (in-place)
I0627 17:37:07.942471  1680 net.cpp:122] Setting up res3a_branch2a_relu
I0627 17:37:07.942488  1680 net.cpp:129] Top shape: 8 128 28 28 (802816)
I0627 17:37:07.942492  1680 net.cpp:137] Memory required for data: 948928672
I0627 17:37:07.942497  1680 layer_factory.hpp:77] Creating layer res3a_branch2b
I0627 17:37:07.942520  1680 net.cpp:84] Creating Layer res3a_branch2b
I0627 17:37:07.942531  1680 net.cpp:406] res3a_branch2b <- res3a_branch2a
I0627 17:37:07.942543  1680 net.cpp:380] res3a_branch2b -> res3a_branch2b
I0627 17:37:07.944084  1680 net.cpp:122] Setting up res3a_branch2b
I0627 17:37:07.944104  1680 net.cpp:129] Top shape: 8 128 28 28 (802816)
I0627 17:37:07.944109  1680 net.cpp:137] Memory required for data: 952139936
I0627 17:37:07.944115  1680 layer_factory.hpp:77] Creating layer bn3a_branch2b
I0627 17:37:07.944125  1680 net.cpp:84] Creating Layer bn3a_branch2b
I0627 17:37:07.944130  1680 net.cpp:406] bn3a_branch2b <- res3a_branch2b
I0627 17:37:07.944136  1680 net.cpp:367] bn3a_branch2b -> res3a_branch2b (in-place)
I0627 17:37:07.944344  1680 net.cpp:122] Setting up bn3a_branch2b
I0627 17:37:07.944358  1680 net.cpp:129] Top shape: 8 128 28 28 (802816)
I0627 17:37:07.944363  1680 net.cpp:137] Memory required for data: 955351200
I0627 17:37:07.944371  1680 layer_factory.hpp:77] Creating layer scale3a_branch2b
I0627 17:37:07.944382  1680 net.cpp:84] Creating Layer scale3a_branch2b
I0627 17:37:07.944387  1680 net.cpp:406] scale3a_branch2b <- res3a_branch2b
I0627 17:37:07.944392  1680 net.cpp:367] scale3a_branch2b -> res3a_branch2b (in-place)
I0627 17:37:07.944442  1680 layer_factory.hpp:77] Creating layer scale3a_branch2b
I0627 17:37:07.944591  1680 net.cpp:122] Setting up scale3a_branch2b
I0627 17:37:07.944607  1680 net.cpp:129] Top shape: 8 128 28 28 (802816)
I0627 17:37:07.944612  1680 net.cpp:137] Memory required for data: 958562464
I0627 17:37:07.944618  1680 layer_factory.hpp:77] Creating layer res3a_branch2b_relu
I0627 17:37:07.944625  1680 net.cpp:84] Creating Layer res3a_branch2b_relu
I0627 17:37:07.944629  1680 net.cpp:406] res3a_branch2b_relu <- res3a_branch2b
I0627 17:37:07.944638  1680 net.cpp:367] res3a_branch2b_relu -> res3a_branch2b (in-place)
I0627 17:37:07.944902  1680 net.cpp:122] Setting up res3a_branch2b_relu
I0627 17:37:07.944923  1680 net.cpp:129] Top shape: 8 128 28 28 (802816)
I0627 17:37:07.944927  1680 net.cpp:137] Memory required for data: 961773728
I0627 17:37:07.944931  1680 layer_factory.hpp:77] Creating layer res3a_branch2c
I0627 17:37:07.944948  1680 net.cpp:84] Creating Layer res3a_branch2c
I0627 17:37:07.944960  1680 net.cpp:406] res3a_branch2c <- res3a_branch2b
I0627 17:37:07.944972  1680 net.cpp:380] res3a_branch2c -> res3a_branch2c
I0627 17:37:07.945768  1680 net.cpp:122] Setting up res3a_branch2c
I0627 17:37:07.945789  1680 net.cpp:129] Top shape: 8 512 28 28 (3211264)
I0627 17:37:07.945794  1680 net.cpp:137] Memory required for data: 974618784
I0627 17:37:07.945801  1680 layer_factory.hpp:77] Creating layer bn3a_branch2c
I0627 17:37:07.945811  1680 net.cpp:84] Creating Layer bn3a_branch2c
I0627 17:37:07.945816  1680 net.cpp:406] bn3a_branch2c <- res3a_branch2c
I0627 17:37:07.945823  1680 net.cpp:367] bn3a_branch2c -> res3a_branch2c (in-place)
I0627 17:37:07.946032  1680 net.cpp:122] Setting up bn3a_branch2c
I0627 17:37:07.946048  1680 net.cpp:129] Top shape: 8 512 28 28 (3211264)
I0627 17:37:07.946051  1680 net.cpp:137] Memory required for data: 987463840
I0627 17:37:07.946059  1680 layer_factory.hpp:77] Creating layer scale3a_branch2c
I0627 17:37:07.946068  1680 net.cpp:84] Creating Layer scale3a_branch2c
I0627 17:37:07.946071  1680 net.cpp:406] scale3a_branch2c <- res3a_branch2c
I0627 17:37:07.946076  1680 net.cpp:367] scale3a_branch2c -> res3a_branch2c (in-place)
I0627 17:37:07.946126  1680 layer_factory.hpp:77] Creating layer scale3a_branch2c
I0627 17:37:07.946256  1680 net.cpp:122] Setting up scale3a_branch2c
I0627 17:37:07.946272  1680 net.cpp:129] Top shape: 8 512 28 28 (3211264)
I0627 17:37:07.946275  1680 net.cpp:137] Memory required for data: 1000308896
I0627 17:37:07.946282  1680 layer_factory.hpp:77] Creating layer res3a
I0627 17:37:07.946290  1680 net.cpp:84] Creating Layer res3a
I0627 17:37:07.946293  1680 net.cpp:406] res3a <- res3a_branch1
I0627 17:37:07.946298  1680 net.cpp:406] res3a <- res3a_branch2c
I0627 17:37:07.946306  1680 net.cpp:380] res3a -> res3a
I0627 17:37:07.946336  1680 net.cpp:122] Setting up res3a
I0627 17:37:07.946349  1680 net.cpp:129] Top shape: 8 512 28 28 (3211264)
I0627 17:37:07.946353  1680 net.cpp:137] Memory required for data: 1013153952
I0627 17:37:07.946357  1680 layer_factory.hpp:77] Creating layer res3a_relu
I0627 17:37:07.946367  1680 net.cpp:84] Creating Layer res3a_relu
I0627 17:37:07.946370  1680 net.cpp:406] res3a_relu <- res3a
I0627 17:37:07.946377  1680 net.cpp:367] res3a_relu -> res3a (in-place)
I0627 17:37:07.946655  1680 net.cpp:122] Setting up res3a_relu
I0627 17:37:07.946674  1680 net.cpp:129] Top shape: 8 512 28 28 (3211264)
I0627 17:37:07.946678  1680 net.cpp:137] Memory required for data: 1025999008
I0627 17:37:07.946682  1680 layer_factory.hpp:77] Creating layer res3a_res3a_relu_0_split
I0627 17:37:07.946689  1680 net.cpp:84] Creating Layer res3a_res3a_relu_0_split
I0627 17:37:07.946693  1680 net.cpp:406] res3a_res3a_relu_0_split <- res3a
I0627 17:37:07.946699  1680 net.cpp:380] res3a_res3a_relu_0_split -> res3a_res3a_relu_0_split_0
I0627 17:37:07.946708  1680 net.cpp:380] res3a_res3a_relu_0_split -> res3a_res3a_relu_0_split_1
I0627 17:37:07.946755  1680 net.cpp:122] Setting up res3a_res3a_relu_0_split
I0627 17:37:07.946770  1680 net.cpp:129] Top shape: 8 512 28 28 (3211264)
I0627 17:37:07.946775  1680 net.cpp:129] Top shape: 8 512 28 28 (3211264)
I0627 17:37:07.946791  1680 net.cpp:137] Memory required for data: 1051689120
I0627 17:37:07.946796  1680 layer_factory.hpp:77] Creating layer res3b_branch2a
I0627 17:37:07.946808  1680 net.cpp:84] Creating Layer res3b_branch2a
I0627 17:37:07.946813  1680 net.cpp:406] res3b_branch2a <- res3a_res3a_relu_0_split_0
I0627 17:37:07.946821  1680 net.cpp:380] res3b_branch2a -> res3b_branch2a
I0627 17:37:07.948880  1680 net.cpp:122] Setting up res3b_branch2a
I0627 17:37:07.948899  1680 net.cpp:129] Top shape: 8 128 28 28 (802816)
I0627 17:37:07.948906  1680 net.cpp:137] Memory required for data: 1054900384
I0627 17:37:07.948914  1680 layer_factory.hpp:77] Creating layer bn3b_branch2a
I0627 17:37:07.948921  1680 net.cpp:84] Creating Layer bn3b_branch2a
I0627 17:37:07.948925  1680 net.cpp:406] bn3b_branch2a <- res3b_branch2a
I0627 17:37:07.948931  1680 net.cpp:367] bn3b_branch2a -> res3b_branch2a (in-place)
I0627 17:37:07.949146  1680 net.cpp:122] Setting up bn3b_branch2a
I0627 17:37:07.949162  1680 net.cpp:129] Top shape: 8 128 28 28 (802816)
I0627 17:37:07.949165  1680 net.cpp:137] Memory required for data: 1058111648
I0627 17:37:07.949173  1680 layer_factory.hpp:77] Creating layer scale3b_branch2a
I0627 17:37:07.949182  1680 net.cpp:84] Creating Layer scale3b_branch2a
I0627 17:37:07.949185  1680 net.cpp:406] scale3b_branch2a <- res3b_branch2a
I0627 17:37:07.949190  1680 net.cpp:367] scale3b_branch2a -> res3b_branch2a (in-place)
I0627 17:37:07.949241  1680 layer_factory.hpp:77] Creating layer scale3b_branch2a
I0627 17:37:07.949373  1680 net.cpp:122] Setting up scale3b_branch2a
I0627 17:37:07.949389  1680 net.cpp:129] Top shape: 8 128 28 28 (802816)
I0627 17:37:07.949393  1680 net.cpp:137] Memory required for data: 1061322912
I0627 17:37:07.949400  1680 layer_factory.hpp:77] Creating layer res3b_branch2a_relu
I0627 17:37:07.949409  1680 net.cpp:84] Creating Layer res3b_branch2a_relu
I0627 17:37:07.949414  1680 net.cpp:406] res3b_branch2a_relu <- res3b_branch2a
I0627 17:37:07.949419  1680 net.cpp:367] res3b_branch2a_relu -> res3b_branch2a (in-place)
I0627 17:37:07.949569  1680 net.cpp:122] Setting up res3b_branch2a_relu
I0627 17:37:07.949586  1680 net.cpp:129] Top shape: 8 128 28 28 (802816)
I0627 17:37:07.949590  1680 net.cpp:137] Memory required for data: 1064534176
I0627 17:37:07.949594  1680 layer_factory.hpp:77] Creating layer res3b_branch2b
I0627 17:37:07.949607  1680 net.cpp:84] Creating Layer res3b_branch2b
I0627 17:37:07.949612  1680 net.cpp:406] res3b_branch2b <- res3b_branch2a
I0627 17:37:07.949618  1680 net.cpp:380] res3b_branch2b -> res3b_branch2b
I0627 17:37:07.951149  1680 net.cpp:122] Setting up res3b_branch2b
I0627 17:37:07.951169  1680 net.cpp:129] Top shape: 8 128 28 28 (802816)
I0627 17:37:07.951174  1680 net.cpp:137] Memory required for data: 1067745440
I0627 17:37:07.951180  1680 layer_factory.hpp:77] Creating layer bn3b_branch2b
I0627 17:37:07.951190  1680 net.cpp:84] Creating Layer bn3b_branch2b
I0627 17:37:07.951195  1680 net.cpp:406] bn3b_branch2b <- res3b_branch2b
I0627 17:37:07.951201  1680 net.cpp:367] bn3b_branch2b -> res3b_branch2b (in-place)
I0627 17:37:07.951412  1680 net.cpp:122] Setting up bn3b_branch2b
I0627 17:37:07.951427  1680 net.cpp:129] Top shape: 8 128 28 28 (802816)
I0627 17:37:07.951432  1680 net.cpp:137] Memory required for data: 1070956704
I0627 17:37:07.951441  1680 layer_factory.hpp:77] Creating layer scale3b_branch2b
I0627 17:37:07.951447  1680 net.cpp:84] Creating Layer scale3b_branch2b
I0627 17:37:07.951452  1680 net.cpp:406] scale3b_branch2b <- res3b_branch2b
I0627 17:37:07.951460  1680 net.cpp:367] scale3b_branch2b -> res3b_branch2b (in-place)
I0627 17:37:07.951506  1680 layer_factory.hpp:77] Creating layer scale3b_branch2b
I0627 17:37:07.951639  1680 net.cpp:122] Setting up scale3b_branch2b
I0627 17:37:07.951656  1680 net.cpp:129] Top shape: 8 128 28 28 (802816)
I0627 17:37:07.951660  1680 net.cpp:137] Memory required for data: 1074167968
I0627 17:37:07.951668  1680 layer_factory.hpp:77] Creating layer res3b_branch2b_relu
I0627 17:37:07.951675  1680 net.cpp:84] Creating Layer res3b_branch2b_relu
I0627 17:37:07.951691  1680 net.cpp:406] res3b_branch2b_relu <- res3b_branch2b
I0627 17:37:07.951697  1680 net.cpp:367] res3b_branch2b_relu -> res3b_branch2b (in-place)
I0627 17:37:07.951962  1680 net.cpp:122] Setting up res3b_branch2b_relu
I0627 17:37:07.951980  1680 net.cpp:129] Top shape: 8 128 28 28 (802816)
I0627 17:37:07.951985  1680 net.cpp:137] Memory required for data: 1077379232
I0627 17:37:07.951989  1680 layer_factory.hpp:77] Creating layer res3b_branch2c
I0627 17:37:07.952004  1680 net.cpp:84] Creating Layer res3b_branch2c
I0627 17:37:07.952008  1680 net.cpp:406] res3b_branch2c <- res3b_branch2b
I0627 17:37:07.952015  1680 net.cpp:380] res3b_branch2c -> res3b_branch2c
I0627 17:37:07.952822  1680 net.cpp:122] Setting up res3b_branch2c
I0627 17:37:07.952841  1680 net.cpp:129] Top shape: 8 512 28 28 (3211264)
I0627 17:37:07.952846  1680 net.cpp:137] Memory required for data: 1090224288
I0627 17:37:07.952852  1680 layer_factory.hpp:77] Creating layer bn3b_branch2c
I0627 17:37:07.952859  1680 net.cpp:84] Creating Layer bn3b_branch2c
I0627 17:37:07.952864  1680 net.cpp:406] bn3b_branch2c <- res3b_branch2c
I0627 17:37:07.952875  1680 net.cpp:367] bn3b_branch2c -> res3b_branch2c (in-place)
I0627 17:37:07.953088  1680 net.cpp:122] Setting up bn3b_branch2c
I0627 17:37:07.953104  1680 net.cpp:129] Top shape: 8 512 28 28 (3211264)
I0627 17:37:07.953109  1680 net.cpp:137] Memory required for data: 1103069344
I0627 17:37:07.953117  1680 layer_factory.hpp:77] Creating layer scale3b_branch2c
I0627 17:37:07.953125  1680 net.cpp:84] Creating Layer scale3b_branch2c
I0627 17:37:07.953128  1680 net.cpp:406] scale3b_branch2c <- res3b_branch2c
I0627 17:37:07.953133  1680 net.cpp:367] scale3b_branch2c -> res3b_branch2c (in-place)
I0627 17:37:07.953183  1680 layer_factory.hpp:77] Creating layer scale3b_branch2c
I0627 17:37:07.953315  1680 net.cpp:122] Setting up scale3b_branch2c
I0627 17:37:07.953330  1680 net.cpp:129] Top shape: 8 512 28 28 (3211264)
I0627 17:37:07.953335  1680 net.cpp:137] Memory required for data: 1115914400
I0627 17:37:07.953341  1680 layer_factory.hpp:77] Creating layer res3b
I0627 17:37:07.953348  1680 net.cpp:84] Creating Layer res3b
I0627 17:37:07.953352  1680 net.cpp:406] res3b <- res3a_res3a_relu_0_split_1
I0627 17:37:07.953357  1680 net.cpp:406] res3b <- res3b_branch2c
I0627 17:37:07.953364  1680 net.cpp:380] res3b -> res3b
I0627 17:37:07.953395  1680 net.cpp:122] Setting up res3b
I0627 17:37:07.953409  1680 net.cpp:129] Top shape: 8 512 28 28 (3211264)
I0627 17:37:07.953413  1680 net.cpp:137] Memory required for data: 1128759456
I0627 17:37:07.953418  1680 layer_factory.hpp:77] Creating layer res3b_relu
I0627 17:37:07.953429  1680 net.cpp:84] Creating Layer res3b_relu
I0627 17:37:07.953433  1680 net.cpp:406] res3b_relu <- res3b
I0627 17:37:07.953438  1680 net.cpp:367] res3b_relu -> res3b (in-place)
I0627 17:37:07.953691  1680 net.cpp:122] Setting up res3b_relu
I0627 17:37:07.953709  1680 net.cpp:129] Top shape: 8 512 28 28 (3211264)
I0627 17:37:07.953714  1680 net.cpp:137] Memory required for data: 1141604512
I0627 17:37:07.953718  1680 layer_factory.hpp:77] Creating layer res3b_res3b_relu_0_split
I0627 17:37:07.953725  1680 net.cpp:84] Creating Layer res3b_res3b_relu_0_split
I0627 17:37:07.953729  1680 net.cpp:406] res3b_res3b_relu_0_split <- res3b
I0627 17:37:07.953737  1680 net.cpp:380] res3b_res3b_relu_0_split -> res3b_res3b_relu_0_split_0
I0627 17:37:07.953745  1680 net.cpp:380] res3b_res3b_relu_0_split -> res3b_res3b_relu_0_split_1
I0627 17:37:07.953794  1680 net.cpp:122] Setting up res3b_res3b_relu_0_split
I0627 17:37:07.953809  1680 net.cpp:129] Top shape: 8 512 28 28 (3211264)
I0627 17:37:07.953814  1680 net.cpp:129] Top shape: 8 512 28 28 (3211264)
I0627 17:37:07.953817  1680 net.cpp:137] Memory required for data: 1167294624
I0627 17:37:07.953821  1680 layer_factory.hpp:77] Creating layer res3c_branch2a
I0627 17:37:07.953835  1680 net.cpp:84] Creating Layer res3c_branch2a
I0627 17:37:07.953840  1680 net.cpp:406] res3c_branch2a <- res3b_res3b_relu_0_split_0
I0627 17:37:07.953865  1680 net.cpp:380] res3c_branch2a -> res3c_branch2a
I0627 17:37:07.954792  1680 net.cpp:122] Setting up res3c_branch2a
I0627 17:37:07.954813  1680 net.cpp:129] Top shape: 8 128 28 28 (802816)
I0627 17:37:07.954818  1680 net.cpp:137] Memory required for data: 1170505888
I0627 17:37:07.954823  1680 layer_factory.hpp:77] Creating layer bn3c_branch2a
I0627 17:37:07.954834  1680 net.cpp:84] Creating Layer bn3c_branch2a
I0627 17:37:07.954840  1680 net.cpp:406] bn3c_branch2a <- res3c_branch2a
I0627 17:37:07.954848  1680 net.cpp:367] bn3c_branch2a -> res3c_branch2a (in-place)
I0627 17:37:07.955063  1680 net.cpp:122] Setting up bn3c_branch2a
I0627 17:37:07.955080  1680 net.cpp:129] Top shape: 8 128 28 28 (802816)
I0627 17:37:07.955083  1680 net.cpp:137] Memory required for data: 1173717152
I0627 17:37:07.955091  1680 layer_factory.hpp:77] Creating layer scale3c_branch2a
I0627 17:37:07.955098  1680 net.cpp:84] Creating Layer scale3c_branch2a
I0627 17:37:07.955103  1680 net.cpp:406] scale3c_branch2a <- res3c_branch2a
I0627 17:37:07.955111  1680 net.cpp:367] scale3c_branch2a -> res3c_branch2a (in-place)
I0627 17:37:07.955163  1680 layer_factory.hpp:77] Creating layer scale3c_branch2a
I0627 17:37:07.955301  1680 net.cpp:122] Setting up scale3c_branch2a
I0627 17:37:07.955315  1680 net.cpp:129] Top shape: 8 128 28 28 (802816)
I0627 17:37:07.955319  1680 net.cpp:137] Memory required for data: 1176928416
I0627 17:37:07.955327  1680 layer_factory.hpp:77] Creating layer res3c_branch2a_relu
I0627 17:37:07.955333  1680 net.cpp:84] Creating Layer res3c_branch2a_relu
I0627 17:37:07.955338  1680 net.cpp:406] res3c_branch2a_relu <- res3c_branch2a
I0627 17:37:07.955343  1680 net.cpp:367] res3c_branch2a_relu -> res3c_branch2a (in-place)
I0627 17:37:07.955497  1680 net.cpp:122] Setting up res3c_branch2a_relu
I0627 17:37:07.955514  1680 net.cpp:129] Top shape: 8 128 28 28 (802816)
I0627 17:37:07.955519  1680 net.cpp:137] Memory required for data: 1180139680
I0627 17:37:07.955523  1680 layer_factory.hpp:77] Creating layer res3c_branch2b
I0627 17:37:07.955535  1680 net.cpp:84] Creating Layer res3c_branch2b
I0627 17:37:07.955539  1680 net.cpp:406] res3c_branch2b <- res3c_branch2a
I0627 17:37:07.955548  1680 net.cpp:380] res3c_branch2b -> res3c_branch2b
I0627 17:37:07.957017  1680 net.cpp:122] Setting up res3c_branch2b
I0627 17:37:07.957037  1680 net.cpp:129] Top shape: 8 128 28 28 (802816)
I0627 17:37:07.957042  1680 net.cpp:137] Memory required for data: 1183350944
I0627 17:37:07.957048  1680 layer_factory.hpp:77] Creating layer bn3c_branch2b
I0627 17:37:07.957059  1680 net.cpp:84] Creating Layer bn3c_branch2b
I0627 17:37:07.957064  1680 net.cpp:406] bn3c_branch2b <- res3c_branch2b
I0627 17:37:07.957072  1680 net.cpp:367] bn3c_branch2b -> res3c_branch2b (in-place)
I0627 17:37:07.957293  1680 net.cpp:122] Setting up bn3c_branch2b
I0627 17:37:07.957309  1680 net.cpp:129] Top shape: 8 128 28 28 (802816)
I0627 17:37:07.957312  1680 net.cpp:137] Memory required for data: 1186562208
I0627 17:37:07.957320  1680 layer_factory.hpp:77] Creating layer scale3c_branch2b
I0627 17:37:07.957331  1680 net.cpp:84] Creating Layer scale3c_branch2b
I0627 17:37:07.957335  1680 net.cpp:406] scale3c_branch2b <- res3c_branch2b
I0627 17:37:07.957341  1680 net.cpp:367] scale3c_branch2b -> res3c_branch2b (in-place)
I0627 17:37:07.957393  1680 layer_factory.hpp:77] Creating layer scale3c_branch2b
I0627 17:37:07.957531  1680 net.cpp:122] Setting up scale3c_branch2b
I0627 17:37:07.957547  1680 net.cpp:129] Top shape: 8 128 28 28 (802816)
I0627 17:37:07.957551  1680 net.cpp:137] Memory required for data: 1189773472
I0627 17:37:07.957558  1680 layer_factory.hpp:77] Creating layer res3c_branch2b_relu
I0627 17:37:07.957564  1680 net.cpp:84] Creating Layer res3c_branch2b_relu
I0627 17:37:07.957568  1680 net.cpp:406] res3c_branch2b_relu <- res3c_branch2b
I0627 17:37:07.957573  1680 net.cpp:367] res3c_branch2b_relu -> res3c_branch2b (in-place)
I0627 17:37:07.957836  1680 net.cpp:122] Setting up res3c_branch2b_relu
I0627 17:37:07.957854  1680 net.cpp:129] Top shape: 8 128 28 28 (802816)
I0627 17:37:07.957871  1680 net.cpp:137] Memory required for data: 1192984736
I0627 17:37:07.957876  1680 layer_factory.hpp:77] Creating layer res3c_branch2c
I0627 17:37:07.957890  1680 net.cpp:84] Creating Layer res3c_branch2c
I0627 17:37:07.957893  1680 net.cpp:406] res3c_branch2c <- res3c_branch2b
I0627 17:37:07.957903  1680 net.cpp:380] res3c_branch2c -> res3c_branch2c
I0627 17:37:07.958750  1680 net.cpp:122] Setting up res3c_branch2c
I0627 17:37:07.958768  1680 net.cpp:129] Top shape: 8 512 28 28 (3211264)
I0627 17:37:07.958773  1680 net.cpp:137] Memory required for data: 1205829792
I0627 17:37:07.958781  1680 layer_factory.hpp:77] Creating layer bn3c_branch2c
I0627 17:37:07.958787  1680 net.cpp:84] Creating Layer bn3c_branch2c
I0627 17:37:07.958792  1680 net.cpp:406] bn3c_branch2c <- res3c_branch2c
I0627 17:37:07.958801  1680 net.cpp:367] bn3c_branch2c -> res3c_branch2c (in-place)
I0627 17:37:07.959018  1680 net.cpp:122] Setting up bn3c_branch2c
I0627 17:37:07.959034  1680 net.cpp:129] Top shape: 8 512 28 28 (3211264)
I0627 17:37:07.959038  1680 net.cpp:137] Memory required for data: 1218674848
I0627 17:37:07.959046  1680 layer_factory.hpp:77] Creating layer scale3c_branch2c
I0627 17:37:07.959054  1680 net.cpp:84] Creating Layer scale3c_branch2c
I0627 17:37:07.959059  1680 net.cpp:406] scale3c_branch2c <- res3c_branch2c
I0627 17:37:07.959064  1680 net.cpp:367] scale3c_branch2c -> res3c_branch2c (in-place)
I0627 17:37:07.959115  1680 layer_factory.hpp:77] Creating layer scale3c_branch2c
I0627 17:37:07.959254  1680 net.cpp:122] Setting up scale3c_branch2c
I0627 17:37:07.959270  1680 net.cpp:129] Top shape: 8 512 28 28 (3211264)
I0627 17:37:07.959272  1680 net.cpp:137] Memory required for data: 1231519904
I0627 17:37:07.959280  1680 layer_factory.hpp:77] Creating layer res3c
I0627 17:37:07.959287  1680 net.cpp:84] Creating Layer res3c
I0627 17:37:07.959291  1680 net.cpp:406] res3c <- res3b_res3b_relu_0_split_1
I0627 17:37:07.959296  1680 net.cpp:406] res3c <- res3c_branch2c
I0627 17:37:07.959305  1680 net.cpp:380] res3c -> res3c
I0627 17:37:07.959336  1680 net.cpp:122] Setting up res3c
I0627 17:37:07.959352  1680 net.cpp:129] Top shape: 8 512 28 28 (3211264)
I0627 17:37:07.959357  1680 net.cpp:137] Memory required for data: 1244364960
I0627 17:37:07.959360  1680 layer_factory.hpp:77] Creating layer res3c_relu
I0627 17:37:07.959369  1680 net.cpp:84] Creating Layer res3c_relu
I0627 17:37:07.959374  1680 net.cpp:406] res3c_relu <- res3c
I0627 17:37:07.959379  1680 net.cpp:367] res3c_relu -> res3c (in-place)
I0627 17:37:07.959637  1680 net.cpp:122] Setting up res3c_relu
I0627 17:37:07.959656  1680 net.cpp:129] Top shape: 8 512 28 28 (3211264)
I0627 17:37:07.959661  1680 net.cpp:137] Memory required for data: 1257210016
I0627 17:37:07.959664  1680 layer_factory.hpp:77] Creating layer res3c_res3c_relu_0_split
I0627 17:37:07.959671  1680 net.cpp:84] Creating Layer res3c_res3c_relu_0_split
I0627 17:37:07.959676  1680 net.cpp:406] res3c_res3c_relu_0_split <- res3c
I0627 17:37:07.959684  1680 net.cpp:380] res3c_res3c_relu_0_split -> res3c_res3c_relu_0_split_0
I0627 17:37:07.959692  1680 net.cpp:380] res3c_res3c_relu_0_split -> res3c_res3c_relu_0_split_1
I0627 17:37:07.959741  1680 net.cpp:122] Setting up res3c_res3c_relu_0_split
I0627 17:37:07.959755  1680 net.cpp:129] Top shape: 8 512 28 28 (3211264)
I0627 17:37:07.959761  1680 net.cpp:129] Top shape: 8 512 28 28 (3211264)
I0627 17:37:07.959764  1680 net.cpp:137] Memory required for data: 1282900128
I0627 17:37:07.959769  1680 layer_factory.hpp:77] Creating layer res3d_branch2a
I0627 17:37:07.959782  1680 net.cpp:84] Creating Layer res3d_branch2a
I0627 17:37:07.959786  1680 net.cpp:406] res3d_branch2a <- res3c_res3c_relu_0_split_0
I0627 17:37:07.959794  1680 net.cpp:380] res3d_branch2a -> res3d_branch2a
I0627 17:37:07.961313  1680 net.cpp:122] Setting up res3d_branch2a
I0627 17:37:07.961331  1680 net.cpp:129] Top shape: 8 128 28 28 (802816)
I0627 17:37:07.961336  1680 net.cpp:137] Memory required for data: 1286111392
I0627 17:37:07.961343  1680 layer_factory.hpp:77] Creating layer bn3d_branch2a
I0627 17:37:07.961366  1680 net.cpp:84] Creating Layer bn3d_branch2a
I0627 17:37:07.961372  1680 net.cpp:406] bn3d_branch2a <- res3d_branch2a
I0627 17:37:07.961379  1680 net.cpp:367] bn3d_branch2a -> res3d_branch2a (in-place)
I0627 17:37:07.961603  1680 net.cpp:122] Setting up bn3d_branch2a
I0627 17:37:07.961621  1680 net.cpp:129] Top shape: 8 128 28 28 (802816)
I0627 17:37:07.961624  1680 net.cpp:137] Memory required for data: 1289322656
I0627 17:37:07.961654  1680 layer_factory.hpp:77] Creating layer scale3d_branch2a
I0627 17:37:07.961668  1680 net.cpp:84] Creating Layer scale3d_branch2a
I0627 17:37:07.961673  1680 net.cpp:406] scale3d_branch2a <- res3d_branch2a
I0627 17:37:07.961680  1680 net.cpp:367] scale3d_branch2a -> res3d_branch2a (in-place)
I0627 17:37:07.961735  1680 layer_factory.hpp:77] Creating layer scale3d_branch2a
I0627 17:37:07.961874  1680 net.cpp:122] Setting up scale3d_branch2a
I0627 17:37:07.961889  1680 net.cpp:129] Top shape: 8 128 28 28 (802816)
I0627 17:37:07.961894  1680 net.cpp:137] Memory required for data: 1292533920
I0627 17:37:07.961900  1680 layer_factory.hpp:77] Creating layer res3d_branch2a_relu
I0627 17:37:07.961907  1680 net.cpp:84] Creating Layer res3d_branch2a_relu
I0627 17:37:07.961911  1680 net.cpp:406] res3d_branch2a_relu <- res3d_branch2a
I0627 17:37:07.961920  1680 net.cpp:367] res3d_branch2a_relu -> res3d_branch2a (in-place)
I0627 17:37:07.962079  1680 net.cpp:122] Setting up res3d_branch2a_relu
I0627 17:37:07.962095  1680 net.cpp:129] Top shape: 8 128 28 28 (802816)
I0627 17:37:07.962100  1680 net.cpp:137] Memory required for data: 1295745184
I0627 17:37:07.962103  1680 layer_factory.hpp:77] Creating layer res3d_branch2b
I0627 17:37:07.962116  1680 net.cpp:84] Creating Layer res3d_branch2b
I0627 17:37:07.962121  1680 net.cpp:406] res3d_branch2b <- res3d_branch2a
I0627 17:37:07.962129  1680 net.cpp:380] res3d_branch2b -> res3d_branch2b
I0627 17:37:07.963701  1680 net.cpp:122] Setting up res3d_branch2b
I0627 17:37:07.963721  1680 net.cpp:129] Top shape: 8 128 28 28 (802816)
I0627 17:37:07.963726  1680 net.cpp:137] Memory required for data: 1298956448
I0627 17:37:07.963732  1680 layer_factory.hpp:77] Creating layer bn3d_branch2b
I0627 17:37:07.963743  1680 net.cpp:84] Creating Layer bn3d_branch2b
I0627 17:37:07.963748  1680 net.cpp:406] bn3d_branch2b <- res3d_branch2b
I0627 17:37:07.963754  1680 net.cpp:367] bn3d_branch2b -> res3d_branch2b (in-place)
I0627 17:37:07.963980  1680 net.cpp:122] Setting up bn3d_branch2b
I0627 17:37:07.963995  1680 net.cpp:129] Top shape: 8 128 28 28 (802816)
I0627 17:37:07.963999  1680 net.cpp:137] Memory required for data: 1302167712
I0627 17:37:07.964007  1680 layer_factory.hpp:77] Creating layer scale3d_branch2b
I0627 17:37:07.964015  1680 net.cpp:84] Creating Layer scale3d_branch2b
I0627 17:37:07.964020  1680 net.cpp:406] scale3d_branch2b <- res3d_branch2b
I0627 17:37:07.964025  1680 net.cpp:367] scale3d_branch2b -> res3d_branch2b (in-place)
I0627 17:37:07.964076  1680 layer_factory.hpp:77] Creating layer scale3d_branch2b
I0627 17:37:07.964222  1680 net.cpp:122] Setting up scale3d_branch2b
I0627 17:37:07.964238  1680 net.cpp:129] Top shape: 8 128 28 28 (802816)
I0627 17:37:07.964242  1680 net.cpp:137] Memory required for data: 1305378976
I0627 17:37:07.964248  1680 layer_factory.hpp:77] Creating layer res3d_branch2b_relu
I0627 17:37:07.964258  1680 net.cpp:84] Creating Layer res3d_branch2b_relu
I0627 17:37:07.964262  1680 net.cpp:406] res3d_branch2b_relu <- res3d_branch2b
I0627 17:37:07.964268  1680 net.cpp:367] res3d_branch2b_relu -> res3d_branch2b (in-place)
I0627 17:37:07.964532  1680 net.cpp:122] Setting up res3d_branch2b_relu
I0627 17:37:07.964550  1680 net.cpp:129] Top shape: 8 128 28 28 (802816)
I0627 17:37:07.964555  1680 net.cpp:137] Memory required for data: 1308590240
I0627 17:37:07.964560  1680 layer_factory.hpp:77] Creating layer res3d_branch2c
I0627 17:37:07.964571  1680 net.cpp:84] Creating Layer res3d_branch2c
I0627 17:37:07.964576  1680 net.cpp:406] res3d_branch2c <- res3d_branch2b
I0627 17:37:07.964606  1680 net.cpp:380] res3d_branch2c -> res3d_branch2c
I0627 17:37:07.965452  1680 net.cpp:122] Setting up res3d_branch2c
I0627 17:37:07.965472  1680 net.cpp:129] Top shape: 8 512 28 28 (3211264)
I0627 17:37:07.965477  1680 net.cpp:137] Memory required for data: 1321435296
I0627 17:37:07.965483  1680 layer_factory.hpp:77] Creating layer bn3d_branch2c
I0627 17:37:07.965497  1680 net.cpp:84] Creating Layer bn3d_branch2c
I0627 17:37:07.965502  1680 net.cpp:406] bn3d_branch2c <- res3d_branch2c
I0627 17:37:07.965507  1680 net.cpp:367] bn3d_branch2c -> res3d_branch2c (in-place)
I0627 17:37:07.965734  1680 net.cpp:122] Setting up bn3d_branch2c
I0627 17:37:07.965749  1680 net.cpp:129] Top shape: 8 512 28 28 (3211264)
I0627 17:37:07.965754  1680 net.cpp:137] Memory required for data: 1334280352
I0627 17:37:07.965761  1680 layer_factory.hpp:77] Creating layer scale3d_branch2c
I0627 17:37:07.965771  1680 net.cpp:84] Creating Layer scale3d_branch2c
I0627 17:37:07.965776  1680 net.cpp:406] scale3d_branch2c <- res3d_branch2c
I0627 17:37:07.965782  1680 net.cpp:367] scale3d_branch2c -> res3d_branch2c (in-place)
I0627 17:37:07.965834  1680 layer_factory.hpp:77] Creating layer scale3d_branch2c
I0627 17:37:07.965973  1680 net.cpp:122] Setting up scale3d_branch2c
I0627 17:37:07.965989  1680 net.cpp:129] Top shape: 8 512 28 28 (3211264)
I0627 17:37:07.965993  1680 net.cpp:137] Memory required for data: 1347125408
I0627 17:37:07.966001  1680 layer_factory.hpp:77] Creating layer res3d
I0627 17:37:07.966007  1680 net.cpp:84] Creating Layer res3d
I0627 17:37:07.966012  1680 net.cpp:406] res3d <- res3c_res3c_relu_0_split_1
I0627 17:37:07.966017  1680 net.cpp:406] res3d <- res3d_branch2c
I0627 17:37:07.966024  1680 net.cpp:380] res3d -> res3d
I0627 17:37:07.966055  1680 net.cpp:122] Setting up res3d
I0627 17:37:07.966073  1680 net.cpp:129] Top shape: 8 512 28 28 (3211264)
I0627 17:37:07.966078  1680 net.cpp:137] Memory required for data: 1359970464
I0627 17:37:07.966081  1680 layer_factory.hpp:77] Creating layer res3d_relu
I0627 17:37:07.966087  1680 net.cpp:84] Creating Layer res3d_relu
I0627 17:37:07.966091  1680 net.cpp:406] res3d_relu <- res3d
I0627 17:37:07.966096  1680 net.cpp:367] res3d_relu -> res3d (in-place)
I0627 17:37:07.966349  1680 net.cpp:122] Setting up res3d_relu
I0627 17:37:07.966367  1680 net.cpp:129] Top shape: 8 512 28 28 (3211264)
I0627 17:37:07.966372  1680 net.cpp:137] Memory required for data: 1372815520
I0627 17:37:07.966375  1680 layer_factory.hpp:77] Creating layer res3d_res3d_relu_0_split
I0627 17:37:07.966385  1680 net.cpp:84] Creating Layer res3d_res3d_relu_0_split
I0627 17:37:07.966390  1680 net.cpp:406] res3d_res3d_relu_0_split <- res3d
I0627 17:37:07.966397  1680 net.cpp:380] res3d_res3d_relu_0_split -> res3d_res3d_relu_0_split_0
I0627 17:37:07.966406  1680 net.cpp:380] res3d_res3d_relu_0_split -> res3d_res3d_relu_0_split_1
I0627 17:37:07.966454  1680 net.cpp:122] Setting up res3d_res3d_relu_0_split
I0627 17:37:07.966470  1680 net.cpp:129] Top shape: 8 512 28 28 (3211264)
I0627 17:37:07.966475  1680 net.cpp:129] Top shape: 8 512 28 28 (3211264)
I0627 17:37:07.966478  1680 net.cpp:137] Memory required for data: 1398505632
I0627 17:37:07.966482  1680 layer_factory.hpp:77] Creating layer res4a_branch1
I0627 17:37:07.966493  1680 net.cpp:84] Creating Layer res4a_branch1
I0627 17:37:07.966498  1680 net.cpp:406] res4a_branch1 <- res3d_res3d_relu_0_split_0
I0627 17:37:07.966522  1680 net.cpp:380] res4a_branch1 -> res4a_branch1
I0627 17:37:07.968842  1680 net.cpp:122] Setting up res4a_branch1
I0627 17:37:07.968863  1680 net.cpp:129] Top shape: 8 1024 14 14 (1605632)
I0627 17:37:07.968866  1680 net.cpp:137] Memory required for data: 1404928160
I0627 17:37:07.968873  1680 layer_factory.hpp:77] Creating layer bn4a_branch1
I0627 17:37:07.968883  1680 net.cpp:84] Creating Layer bn4a_branch1
I0627 17:37:07.968888  1680 net.cpp:406] bn4a_branch1 <- res4a_branch1
I0627 17:37:07.968894  1680 net.cpp:367] bn4a_branch1 -> res4a_branch1 (in-place)
I0627 17:37:07.969135  1680 net.cpp:122] Setting up bn4a_branch1
I0627 17:37:07.969164  1680 net.cpp:129] Top shape: 8 1024 14 14 (1605632)
I0627 17:37:07.969169  1680 net.cpp:137] Memory required for data: 1411350688
I0627 17:37:07.969182  1680 layer_factory.hpp:77] Creating layer scale4a_branch1
I0627 17:37:07.969189  1680 net.cpp:84] Creating Layer scale4a_branch1
I0627 17:37:07.969193  1680 net.cpp:406] scale4a_branch1 <- res4a_branch1
I0627 17:37:07.969199  1680 net.cpp:367] scale4a_branch1 -> res4a_branch1 (in-place)
I0627 17:37:07.969250  1680 layer_factory.hpp:77] Creating layer scale4a_branch1
I0627 17:37:07.969400  1680 net.cpp:122] Setting up scale4a_branch1
I0627 17:37:07.969415  1680 net.cpp:129] Top shape: 8 1024 14 14 (1605632)
I0627 17:37:07.969419  1680 net.cpp:137] Memory required for data: 1417773216
I0627 17:37:07.969426  1680 layer_factory.hpp:77] Creating layer res4a_branch2a
I0627 17:37:07.969439  1680 net.cpp:84] Creating Layer res4a_branch2a
I0627 17:37:07.969444  1680 net.cpp:406] res4a_branch2a <- res3d_res3d_relu_0_split_1
I0627 17:37:07.969452  1680 net.cpp:380] res4a_branch2a -> res4a_branch2a
I0627 17:37:07.970471  1680 net.cpp:122] Setting up res4a_branch2a
I0627 17:37:07.970491  1680 net.cpp:129] Top shape: 8 256 14 14 (401408)
I0627 17:37:07.970496  1680 net.cpp:137] Memory required for data: 1419378848
I0627 17:37:07.970513  1680 layer_factory.hpp:77] Creating layer bn4a_branch2a
I0627 17:37:07.970522  1680 net.cpp:84] Creating Layer bn4a_branch2a
I0627 17:37:07.970530  1680 net.cpp:406] bn4a_branch2a <- res4a_branch2a
I0627 17:37:07.970540  1680 net.cpp:367] bn4a_branch2a -> res4a_branch2a (in-place)
I0627 17:37:07.970773  1680 net.cpp:122] Setting up bn4a_branch2a
I0627 17:37:07.970789  1680 net.cpp:129] Top shape: 8 256 14 14 (401408)
I0627 17:37:07.970793  1680 net.cpp:137] Memory required for data: 1420984480
I0627 17:37:07.970803  1680 layer_factory.hpp:77] Creating layer scale4a_branch2a
I0627 17:37:07.970810  1680 net.cpp:84] Creating Layer scale4a_branch2a
I0627 17:37:07.970814  1680 net.cpp:406] scale4a_branch2a <- res4a_branch2a
I0627 17:37:07.970819  1680 net.cpp:367] scale4a_branch2a -> res4a_branch2a (in-place)
I0627 17:37:07.970873  1680 layer_factory.hpp:77] Creating layer scale4a_branch2a
I0627 17:37:07.971019  1680 net.cpp:122] Setting up scale4a_branch2a
I0627 17:37:07.971035  1680 net.cpp:129] Top shape: 8 256 14 14 (401408)
I0627 17:37:07.971040  1680 net.cpp:137] Memory required for data: 1422590112
I0627 17:37:07.971046  1680 layer_factory.hpp:77] Creating layer res4a_branch2a_relu
I0627 17:37:07.971052  1680 net.cpp:84] Creating Layer res4a_branch2a_relu
I0627 17:37:07.971056  1680 net.cpp:406] res4a_branch2a_relu <- res4a_branch2a
I0627 17:37:07.971065  1680 net.cpp:367] res4a_branch2a_relu -> res4a_branch2a (in-place)
I0627 17:37:07.971222  1680 net.cpp:122] Setting up res4a_branch2a_relu
I0627 17:37:07.971242  1680 net.cpp:129] Top shape: 8 256 14 14 (401408)
I0627 17:37:07.971246  1680 net.cpp:137] Memory required for data: 1424195744
I0627 17:37:07.971251  1680 layer_factory.hpp:77] Creating layer res4a_branch2b
I0627 17:37:07.971261  1680 net.cpp:84] Creating Layer res4a_branch2b
I0627 17:37:07.971266  1680 net.cpp:406] res4a_branch2b <- res4a_branch2a
I0627 17:37:07.971274  1680 net.cpp:380] res4a_branch2b -> res4a_branch2b
I0627 17:37:07.973678  1680 net.cpp:122] Setting up res4a_branch2b
I0627 17:37:07.973698  1680 net.cpp:129] Top shape: 8 256 14 14 (401408)
I0627 17:37:07.973703  1680 net.cpp:137] Memory required for data: 1425801376
I0627 17:37:07.973709  1680 layer_factory.hpp:77] Creating layer bn4a_branch2b
I0627 17:37:07.973717  1680 net.cpp:84] Creating Layer bn4a_branch2b
I0627 17:37:07.973722  1680 net.cpp:406] bn4a_branch2b <- res4a_branch2b
I0627 17:37:07.973731  1680 net.cpp:367] bn4a_branch2b -> res4a_branch2b (in-place)
I0627 17:37:07.973968  1680 net.cpp:122] Setting up bn4a_branch2b
I0627 17:37:07.973984  1680 net.cpp:129] Top shape: 8 256 14 14 (401408)
I0627 17:37:07.973989  1680 net.cpp:137] Memory required for data: 1427407008
I0627 17:37:07.973996  1680 layer_factory.hpp:77] Creating layer scale4a_branch2b
I0627 17:37:07.974020  1680 net.cpp:84] Creating Layer scale4a_branch2b
I0627 17:37:07.974026  1680 net.cpp:406] scale4a_branch2b <- res4a_branch2b
I0627 17:37:07.974032  1680 net.cpp:367] scale4a_branch2b -> res4a_branch2b (in-place)
I0627 17:37:07.974092  1680 layer_factory.hpp:77] Creating layer scale4a_branch2b
I0627 17:37:07.974239  1680 net.cpp:122] Setting up scale4a_branch2b
I0627 17:37:07.974254  1680 net.cpp:129] Top shape: 8 256 14 14 (401408)
I0627 17:37:07.974258  1680 net.cpp:137] Memory required for data: 1429012640
I0627 17:37:07.974264  1680 layer_factory.hpp:77] Creating layer res4a_branch2b_relu
I0627 17:37:07.974272  1680 net.cpp:84] Creating Layer res4a_branch2b_relu
I0627 17:37:07.974277  1680 net.cpp:406] res4a_branch2b_relu <- res4a_branch2b
I0627 17:37:07.974284  1680 net.cpp:367] res4a_branch2b_relu -> res4a_branch2b (in-place)
I0627 17:37:07.974442  1680 net.cpp:122] Setting up res4a_branch2b_relu
I0627 17:37:07.974458  1680 net.cpp:129] Top shape: 8 256 14 14 (401408)
I0627 17:37:07.974462  1680 net.cpp:137] Memory required for data: 1430618272
I0627 17:37:07.974467  1680 layer_factory.hpp:77] Creating layer res4a_branch2c
I0627 17:37:07.974479  1680 net.cpp:84] Creating Layer res4a_branch2c
I0627 17:37:07.974484  1680 net.cpp:406] res4a_branch2c <- res4a_branch2b
I0627 17:37:07.974493  1680 net.cpp:380] res4a_branch2c -> res4a_branch2c
I0627 17:37:07.976121  1680 net.cpp:122] Setting up res4a_branch2c
I0627 17:37:07.976145  1680 net.cpp:129] Top shape: 8 1024 14 14 (1605632)
I0627 17:37:07.976148  1680 net.cpp:137] Memory required for data: 1437040800
I0627 17:37:07.976155  1680 layer_factory.hpp:77] Creating layer bn4a_branch2c
I0627 17:37:07.976163  1680 net.cpp:84] Creating Layer bn4a_branch2c
I0627 17:37:07.976171  1680 net.cpp:406] bn4a_branch2c <- res4a_branch2c
I0627 17:37:07.976181  1680 net.cpp:367] bn4a_branch2c -> res4a_branch2c (in-place)
I0627 17:37:07.976418  1680 net.cpp:122] Setting up bn4a_branch2c
I0627 17:37:07.976433  1680 net.cpp:129] Top shape: 8 1024 14 14 (1605632)
I0627 17:37:07.976438  1680 net.cpp:137] Memory required for data: 1443463328
I0627 17:37:07.976445  1680 layer_factory.hpp:77] Creating layer scale4a_branch2c
I0627 17:37:07.976454  1680 net.cpp:84] Creating Layer scale4a_branch2c
I0627 17:37:07.976457  1680 net.cpp:406] scale4a_branch2c <- res4a_branch2c
I0627 17:37:07.976464  1680 net.cpp:367] scale4a_branch2c -> res4a_branch2c (in-place)
I0627 17:37:07.976514  1680 layer_factory.hpp:77] Creating layer scale4a_branch2c
I0627 17:37:07.976665  1680 net.cpp:122] Setting up scale4a_branch2c
I0627 17:37:07.976681  1680 net.cpp:129] Top shape: 8 1024 14 14 (1605632)
I0627 17:37:07.976685  1680 net.cpp:137] Memory required for data: 1449885856
I0627 17:37:07.976691  1680 layer_factory.hpp:77] Creating layer res4a
I0627 17:37:07.976701  1680 net.cpp:84] Creating Layer res4a
I0627 17:37:07.976706  1680 net.cpp:406] res4a <- res4a_branch1
I0627 17:37:07.976711  1680 net.cpp:406] res4a <- res4a_branch2c
I0627 17:37:07.976719  1680 net.cpp:380] res4a -> res4a
I0627 17:37:07.976752  1680 net.cpp:122] Setting up res4a
I0627 17:37:07.976766  1680 net.cpp:129] Top shape: 8 1024 14 14 (1605632)
I0627 17:37:07.976770  1680 net.cpp:137] Memory required for data: 1456308384
I0627 17:37:07.976774  1680 layer_factory.hpp:77] Creating layer res4a_relu
I0627 17:37:07.976784  1680 net.cpp:84] Creating Layer res4a_relu
I0627 17:37:07.976788  1680 net.cpp:406] res4a_relu <- res4a
I0627 17:37:07.976794  1680 net.cpp:367] res4a_relu -> res4a (in-place)
I0627 17:37:07.977071  1680 net.cpp:122] Setting up res4a_relu
I0627 17:37:07.977088  1680 net.cpp:129] Top shape: 8 1024 14 14 (1605632)
I0627 17:37:07.977092  1680 net.cpp:137] Memory required for data: 1462730912
I0627 17:37:07.977097  1680 layer_factory.hpp:77] Creating layer res4a_res4a_relu_0_split
I0627 17:37:07.977123  1680 net.cpp:84] Creating Layer res4a_res4a_relu_0_split
I0627 17:37:07.977133  1680 net.cpp:406] res4a_res4a_relu_0_split <- res4a
I0627 17:37:07.977140  1680 net.cpp:380] res4a_res4a_relu_0_split -> res4a_res4a_relu_0_split_0
I0627 17:37:07.977164  1680 net.cpp:380] res4a_res4a_relu_0_split -> res4a_res4a_relu_0_split_1
I0627 17:37:07.977219  1680 net.cpp:122] Setting up res4a_res4a_relu_0_split
I0627 17:37:07.977237  1680 net.cpp:129] Top shape: 8 1024 14 14 (1605632)
I0627 17:37:07.977242  1680 net.cpp:129] Top shape: 8 1024 14 14 (1605632)
I0627 17:37:07.977246  1680 net.cpp:137] Memory required for data: 1475575968
I0627 17:37:07.977250  1680 layer_factory.hpp:77] Creating layer res4b_branch2a
I0627 17:37:07.977264  1680 net.cpp:84] Creating Layer res4b_branch2a
I0627 17:37:07.977269  1680 net.cpp:406] res4b_branch2a <- res4a_res4a_relu_0_split_0
I0627 17:37:07.977275  1680 net.cpp:380] res4b_branch2a -> res4b_branch2a
I0627 17:37:07.978924  1680 net.cpp:122] Setting up res4b_branch2a
I0627 17:37:07.978945  1680 net.cpp:129] Top shape: 8 256 14 14 (401408)
I0627 17:37:07.978950  1680 net.cpp:137] Memory required for data: 1477181600
I0627 17:37:07.978956  1680 layer_factory.hpp:77] Creating layer bn4b_branch2a
I0627 17:37:07.978967  1680 net.cpp:84] Creating Layer bn4b_branch2a
I0627 17:37:07.978972  1680 net.cpp:406] bn4b_branch2a <- res4b_branch2a
I0627 17:37:07.978981  1680 net.cpp:367] bn4b_branch2a -> res4b_branch2a (in-place)
I0627 17:37:07.979218  1680 net.cpp:122] Setting up bn4b_branch2a
I0627 17:37:07.979234  1680 net.cpp:129] Top shape: 8 256 14 14 (401408)
I0627 17:37:07.979238  1680 net.cpp:137] Memory required for data: 1478787232
I0627 17:37:07.979248  1680 layer_factory.hpp:77] Creating layer scale4b_branch2a
I0627 17:37:07.979254  1680 net.cpp:84] Creating Layer scale4b_branch2a
I0627 17:37:07.979259  1680 net.cpp:406] scale4b_branch2a <- res4b_branch2a
I0627 17:37:07.979267  1680 net.cpp:367] scale4b_branch2a -> res4b_branch2a (in-place)
I0627 17:37:07.979320  1680 layer_factory.hpp:77] Creating layer scale4b_branch2a
I0627 17:37:07.979470  1680 net.cpp:122] Setting up scale4b_branch2a
I0627 17:37:07.979485  1680 net.cpp:129] Top shape: 8 256 14 14 (401408)
I0627 17:37:07.979490  1680 net.cpp:137] Memory required for data: 1480392864
I0627 17:37:07.979496  1680 layer_factory.hpp:77] Creating layer res4b_branch2a_relu
I0627 17:37:07.979503  1680 net.cpp:84] Creating Layer res4b_branch2a_relu
I0627 17:37:07.979507  1680 net.cpp:406] res4b_branch2a_relu <- res4b_branch2a
I0627 17:37:07.979512  1680 net.cpp:367] res4b_branch2a_relu -> res4b_branch2a (in-place)
I0627 17:37:07.979676  1680 net.cpp:122] Setting up res4b_branch2a_relu
I0627 17:37:07.979692  1680 net.cpp:129] Top shape: 8 256 14 14 (401408)
I0627 17:37:07.979696  1680 net.cpp:137] Memory required for data: 1481998496
I0627 17:37:07.979701  1680 layer_factory.hpp:77] Creating layer res4b_branch2b
I0627 17:37:07.979713  1680 net.cpp:84] Creating Layer res4b_branch2b
I0627 17:37:07.979717  1680 net.cpp:406] res4b_branch2b <- res4b_branch2a
I0627 17:37:07.979727  1680 net.cpp:380] res4b_branch2b -> res4b_branch2b
I0627 17:37:07.982064  1680 net.cpp:122] Setting up res4b_branch2b
I0627 17:37:07.982084  1680 net.cpp:129] Top shape: 8 256 14 14 (401408)
I0627 17:37:07.982089  1680 net.cpp:137] Memory required for data: 1483604128
I0627 17:37:07.982095  1680 layer_factory.hpp:77] Creating layer bn4b_branch2b
I0627 17:37:07.982103  1680 net.cpp:84] Creating Layer bn4b_branch2b
I0627 17:37:07.982107  1680 net.cpp:406] bn4b_branch2b <- res4b_branch2b
I0627 17:37:07.982113  1680 net.cpp:367] bn4b_branch2b -> res4b_branch2b (in-place)
I0627 17:37:07.982348  1680 net.cpp:122] Setting up bn4b_branch2b
I0627 17:37:07.982367  1680 net.cpp:129] Top shape: 8 256 14 14 (401408)
I0627 17:37:07.982372  1680 net.cpp:137] Memory required for data: 1485209760
I0627 17:37:07.982380  1680 layer_factory.hpp:77] Creating layer scale4b_branch2b
I0627 17:37:07.982388  1680 net.cpp:84] Creating Layer scale4b_branch2b
I0627 17:37:07.982393  1680 net.cpp:406] scale4b_branch2b <- res4b_branch2b
I0627 17:37:07.982398  1680 net.cpp:367] scale4b_branch2b -> res4b_branch2b (in-place)
I0627 17:37:07.982456  1680 layer_factory.hpp:77] Creating layer scale4b_branch2b
I0627 17:37:07.982616  1680 net.cpp:122] Setting up scale4b_branch2b
I0627 17:37:07.982645  1680 net.cpp:129] Top shape: 8 256 14 14 (401408)
I0627 17:37:07.982650  1680 net.cpp:137] Memory required for data: 1486815392
I0627 17:37:07.982656  1680 layer_factory.hpp:77] Creating layer res4b_branch2b_relu
I0627 17:37:07.982664  1680 net.cpp:84] Creating Layer res4b_branch2b_relu
I0627 17:37:07.982671  1680 net.cpp:406] res4b_branch2b_relu <- res4b_branch2b
I0627 17:37:07.982676  1680 net.cpp:367] res4b_branch2b_relu -> res4b_branch2b (in-place)
I0627 17:37:07.982842  1680 net.cpp:122] Setting up res4b_branch2b_relu
I0627 17:37:07.982861  1680 net.cpp:129] Top shape: 8 256 14 14 (401408)
I0627 17:37:07.982866  1680 net.cpp:137] Memory required for data: 1488421024
I0627 17:37:07.982870  1680 layer_factory.hpp:77] Creating layer res4b_branch2c
I0627 17:37:07.982879  1680 net.cpp:84] Creating Layer res4b_branch2c
I0627 17:37:07.982884  1680 net.cpp:406] res4b_branch2c <- res4b_branch2b
I0627 17:37:07.982892  1680 net.cpp:380] res4b_branch2c -> res4b_branch2c
I0627 17:37:07.984410  1680 net.cpp:122] Setting up res4b_branch2c
I0627 17:37:07.984431  1680 net.cpp:129] Top shape: 8 1024 14 14 (1605632)
I0627 17:37:07.984434  1680 net.cpp:137] Memory required for data: 1494843552
I0627 17:37:07.984441  1680 layer_factory.hpp:77] Creating layer bn4b_branch2c
I0627 17:37:07.984452  1680 net.cpp:84] Creating Layer bn4b_branch2c
I0627 17:37:07.984457  1680 net.cpp:406] bn4b_branch2c <- res4b_branch2c
I0627 17:37:07.984462  1680 net.cpp:367] bn4b_branch2c -> res4b_branch2c (in-place)
I0627 17:37:07.984707  1680 net.cpp:122] Setting up bn4b_branch2c
I0627 17:37:07.984724  1680 net.cpp:129] Top shape: 8 1024 14 14 (1605632)
I0627 17:37:07.984728  1680 net.cpp:137] Memory required for data: 1501266080
I0627 17:37:07.984736  1680 layer_factory.hpp:77] Creating layer scale4b_branch2c
I0627 17:37:07.984745  1680 net.cpp:84] Creating Layer scale4b_branch2c
I0627 17:37:07.984748  1680 net.cpp:406] scale4b_branch2c <- res4b_branch2c
I0627 17:37:07.984756  1680 net.cpp:367] scale4b_branch2c -> res4b_branch2c (in-place)
I0627 17:37:07.984807  1680 layer_factory.hpp:77] Creating layer scale4b_branch2c
I0627 17:37:07.984961  1680 net.cpp:122] Setting up scale4b_branch2c
I0627 17:37:07.984977  1680 net.cpp:129] Top shape: 8 1024 14 14 (1605632)
I0627 17:37:07.984980  1680 net.cpp:137] Memory required for data: 1507688608
I0627 17:37:07.984987  1680 layer_factory.hpp:77] Creating layer res4b
I0627 17:37:07.984997  1680 net.cpp:84] Creating Layer res4b
I0627 17:37:07.985002  1680 net.cpp:406] res4b <- res4a_res4a_relu_0_split_1
I0627 17:37:07.985007  1680 net.cpp:406] res4b <- res4b_branch2c
I0627 17:37:07.985013  1680 net.cpp:380] res4b -> res4b
I0627 17:37:07.985060  1680 net.cpp:122] Setting up res4b
I0627 17:37:07.985076  1680 net.cpp:129] Top shape: 8 1024 14 14 (1605632)
I0627 17:37:07.985080  1680 net.cpp:137] Memory required for data: 1514111136
I0627 17:37:07.985085  1680 layer_factory.hpp:77] Creating layer res4b_relu
I0627 17:37:07.985091  1680 net.cpp:84] Creating Layer res4b_relu
I0627 17:37:07.985095  1680 net.cpp:406] res4b_relu <- res4b
I0627 17:37:07.985100  1680 net.cpp:367] res4b_relu -> res4b (in-place)
I0627 17:37:07.985369  1680 net.cpp:122] Setting up res4b_relu
I0627 17:37:07.985388  1680 net.cpp:129] Top shape: 8 1024 14 14 (1605632)
I0627 17:37:07.985393  1680 net.cpp:137] Memory required for data: 1520533664
I0627 17:37:07.985396  1680 layer_factory.hpp:77] Creating layer res4b_res4b_relu_0_split
I0627 17:37:07.985405  1680 net.cpp:84] Creating Layer res4b_res4b_relu_0_split
I0627 17:37:07.985410  1680 net.cpp:406] res4b_res4b_relu_0_split <- res4b
I0627 17:37:07.985416  1680 net.cpp:380] res4b_res4b_relu_0_split -> res4b_res4b_relu_0_split_0
I0627 17:37:07.985424  1680 net.cpp:380] res4b_res4b_relu_0_split -> res4b_res4b_relu_0_split_1
I0627 17:37:07.985481  1680 net.cpp:122] Setting up res4b_res4b_relu_0_split
I0627 17:37:07.985496  1680 net.cpp:129] Top shape: 8 1024 14 14 (1605632)
I0627 17:37:07.985501  1680 net.cpp:129] Top shape: 8 1024 14 14 (1605632)
I0627 17:37:07.985517  1680 net.cpp:137] Memory required for data: 1533378720
I0627 17:37:07.985522  1680 layer_factory.hpp:77] Creating layer res4c_branch2a
I0627 17:37:07.985533  1680 net.cpp:84] Creating Layer res4c_branch2a
I0627 17:37:07.985538  1680 net.cpp:406] res4c_branch2a <- res4b_res4b_relu_0_split_0
I0627 17:37:07.985545  1680 net.cpp:380] res4c_branch2a -> res4c_branch2a
I0627 17:37:07.987082  1680 net.cpp:122] Setting up res4c_branch2a
I0627 17:37:07.987103  1680 net.cpp:129] Top shape: 8 256 14 14 (401408)
I0627 17:37:07.987107  1680 net.cpp:137] Memory required for data: 1534984352
I0627 17:37:07.987114  1680 layer_factory.hpp:77] Creating layer bn4c_branch2a
I0627 17:37:07.987124  1680 net.cpp:84] Creating Layer bn4c_branch2a
I0627 17:37:07.987129  1680 net.cpp:406] bn4c_branch2a <- res4c_branch2a
I0627 17:37:07.987138  1680 net.cpp:367] bn4c_branch2a -> res4c_branch2a (in-place)
I0627 17:37:07.987372  1680 net.cpp:122] Setting up bn4c_branch2a
I0627 17:37:07.987388  1680 net.cpp:129] Top shape: 8 256 14 14 (401408)
I0627 17:37:07.987392  1680 net.cpp:137] Memory required for data: 1536589984
I0627 17:37:07.987401  1680 layer_factory.hpp:77] Creating layer scale4c_branch2a
I0627 17:37:07.987408  1680 net.cpp:84] Creating Layer scale4c_branch2a
I0627 17:37:07.987413  1680 net.cpp:406] scale4c_branch2a <- res4c_branch2a
I0627 17:37:07.987421  1680 net.cpp:367] scale4c_branch2a -> res4c_branch2a (in-place)
I0627 17:37:07.987473  1680 layer_factory.hpp:77] Creating layer scale4c_branch2a
I0627 17:37:07.987630  1680 net.cpp:122] Setting up scale4c_branch2a
I0627 17:37:07.987645  1680 net.cpp:129] Top shape: 8 256 14 14 (401408)
I0627 17:37:07.987649  1680 net.cpp:137] Memory required for data: 1538195616
I0627 17:37:07.987656  1680 layer_factory.hpp:77] Creating layer res4c_branch2a_relu
I0627 17:37:07.987664  1680 net.cpp:84] Creating Layer res4c_branch2a_relu
I0627 17:37:07.987668  1680 net.cpp:406] res4c_branch2a_relu <- res4c_branch2a
I0627 17:37:07.987673  1680 net.cpp:367] res4c_branch2a_relu -> res4c_branch2a (in-place)
I0627 17:37:07.987845  1680 net.cpp:122] Setting up res4c_branch2a_relu
I0627 17:37:07.987861  1680 net.cpp:129] Top shape: 8 256 14 14 (401408)
I0627 17:37:07.987866  1680 net.cpp:137] Memory required for data: 1539801248
I0627 17:37:07.987870  1680 layer_factory.hpp:77] Creating layer res4c_branch2b
I0627 17:37:07.987882  1680 net.cpp:84] Creating Layer res4c_branch2b
I0627 17:37:07.987886  1680 net.cpp:406] res4c_branch2b <- res4c_branch2a
I0627 17:37:07.987895  1680 net.cpp:380] res4c_branch2b -> res4c_branch2b
I0627 17:37:07.990454  1680 net.cpp:122] Setting up res4c_branch2b
I0627 17:37:07.990475  1680 net.cpp:129] Top shape: 8 256 14 14 (401408)
I0627 17:37:07.990480  1680 net.cpp:137] Memory required for data: 1541406880
I0627 17:37:07.990487  1680 layer_factory.hpp:77] Creating layer bn4c_branch2b
I0627 17:37:07.990497  1680 net.cpp:84] Creating Layer bn4c_branch2b
I0627 17:37:07.990520  1680 net.cpp:406] bn4c_branch2b <- res4c_branch2b
I0627 17:37:07.990530  1680 net.cpp:367] bn4c_branch2b -> res4c_branch2b (in-place)
I0627 17:37:07.990779  1680 net.cpp:122] Setting up bn4c_branch2b
I0627 17:37:07.990795  1680 net.cpp:129] Top shape: 8 256 14 14 (401408)
I0627 17:37:07.990799  1680 net.cpp:137] Memory required for data: 1543012512
I0627 17:37:07.990808  1680 layer_factory.hpp:77] Creating layer scale4c_branch2b
I0627 17:37:07.990818  1680 net.cpp:84] Creating Layer scale4c_branch2b
I0627 17:37:07.990823  1680 net.cpp:406] scale4c_branch2b <- res4c_branch2b
I0627 17:37:07.990829  1680 net.cpp:367] scale4c_branch2b -> res4c_branch2b (in-place)
I0627 17:37:07.990886  1680 layer_factory.hpp:77] Creating layer scale4c_branch2b
I0627 17:37:07.991046  1680 net.cpp:122] Setting up scale4c_branch2b
I0627 17:37:07.991062  1680 net.cpp:129] Top shape: 8 256 14 14 (401408)
I0627 17:37:07.991066  1680 net.cpp:137] Memory required for data: 1544618144
I0627 17:37:07.991073  1680 layer_factory.hpp:77] Creating layer res4c_branch2b_relu
I0627 17:37:07.991080  1680 net.cpp:84] Creating Layer res4c_branch2b_relu
I0627 17:37:07.991097  1680 net.cpp:406] res4c_branch2b_relu <- res4c_branch2b
I0627 17:37:07.991103  1680 net.cpp:367] res4c_branch2b_relu -> res4c_branch2b (in-place)
I0627 17:37:07.991266  1680 net.cpp:122] Setting up res4c_branch2b_relu
I0627 17:37:07.991283  1680 net.cpp:129] Top shape: 8 256 14 14 (401408)
I0627 17:37:07.991287  1680 net.cpp:137] Memory required for data: 1546223776
I0627 17:37:07.991291  1680 layer_factory.hpp:77] Creating layer res4c_branch2c
I0627 17:37:07.991304  1680 net.cpp:84] Creating Layer res4c_branch2c
I0627 17:37:07.991309  1680 net.cpp:406] res4c_branch2c <- res4c_branch2b
I0627 17:37:07.991319  1680 net.cpp:380] res4c_branch2c -> res4c_branch2c
I0627 17:37:07.992977  1680 net.cpp:122] Setting up res4c_branch2c
I0627 17:37:07.993000  1680 net.cpp:129] Top shape: 8 1024 14 14 (1605632)
I0627 17:37:07.993005  1680 net.cpp:137] Memory required for data: 1552646304
I0627 17:37:07.993010  1680 layer_factory.hpp:77] Creating layer bn4c_branch2c
I0627 17:37:07.993021  1680 net.cpp:84] Creating Layer bn4c_branch2c
I0627 17:37:07.993026  1680 net.cpp:406] bn4c_branch2c <- res4c_branch2c
I0627 17:37:07.993032  1680 net.cpp:367] bn4c_branch2c -> res4c_branch2c (in-place)
I0627 17:37:07.993279  1680 net.cpp:122] Setting up bn4c_branch2c
I0627 17:37:07.993295  1680 net.cpp:129] Top shape: 8 1024 14 14 (1605632)
I0627 17:37:07.993299  1680 net.cpp:137] Memory required for data: 1559068832
I0627 17:37:07.993307  1680 layer_factory.hpp:77] Creating layer scale4c_branch2c
I0627 17:37:07.993317  1680 net.cpp:84] Creating Layer scale4c_branch2c
I0627 17:37:07.993322  1680 net.cpp:406] scale4c_branch2c <- res4c_branch2c
I0627 17:37:07.993327  1680 net.cpp:367] scale4c_branch2c -> res4c_branch2c (in-place)
I0627 17:37:07.993381  1680 layer_factory.hpp:77] Creating layer scale4c_branch2c
I0627 17:37:07.993542  1680 net.cpp:122] Setting up scale4c_branch2c
I0627 17:37:07.993557  1680 net.cpp:129] Top shape: 8 1024 14 14 (1605632)
I0627 17:37:07.993562  1680 net.cpp:137] Memory required for data: 1565491360
I0627 17:37:07.993569  1680 layer_factory.hpp:77] Creating layer res4c
I0627 17:37:07.993576  1680 net.cpp:84] Creating Layer res4c
I0627 17:37:07.993580  1680 net.cpp:406] res4c <- res4b_res4b_relu_0_split_1
I0627 17:37:07.993585  1680 net.cpp:406] res4c <- res4c_branch2c
I0627 17:37:07.993593  1680 net.cpp:380] res4c -> res4c
I0627 17:37:07.993629  1680 net.cpp:122] Setting up res4c
I0627 17:37:07.993644  1680 net.cpp:129] Top shape: 8 1024 14 14 (1605632)
I0627 17:37:07.993649  1680 net.cpp:137] Memory required for data: 1571913888
I0627 17:37:07.993652  1680 layer_factory.hpp:77] Creating layer res4c_relu
I0627 17:37:07.993659  1680 net.cpp:84] Creating Layer res4c_relu
I0627 17:37:07.993664  1680 net.cpp:406] res4c_relu <- res4c
I0627 17:37:07.993669  1680 net.cpp:367] res4c_relu -> res4c (in-place)
I0627 17:37:07.993940  1680 net.cpp:122] Setting up res4c_relu
I0627 17:37:07.993958  1680 net.cpp:129] Top shape: 8 1024 14 14 (1605632)
I0627 17:37:07.993963  1680 net.cpp:137] Memory required for data: 1578336416
I0627 17:37:07.993966  1680 layer_factory.hpp:77] Creating layer res4c_res4c_relu_0_split
I0627 17:37:07.993973  1680 net.cpp:84] Creating Layer res4c_res4c_relu_0_split
I0627 17:37:07.993978  1680 net.cpp:406] res4c_res4c_relu_0_split <- res4c
I0627 17:37:07.993988  1680 net.cpp:380] res4c_res4c_relu_0_split -> res4c_res4c_relu_0_split_0
I0627 17:37:07.993994  1680 net.cpp:380] res4c_res4c_relu_0_split -> res4c_res4c_relu_0_split_1
I0627 17:37:07.994053  1680 net.cpp:122] Setting up res4c_res4c_relu_0_split
I0627 17:37:07.994071  1680 net.cpp:129] Top shape: 8 1024 14 14 (1605632)
I0627 17:37:07.994076  1680 net.cpp:129] Top shape: 8 1024 14 14 (1605632)
I0627 17:37:07.994079  1680 net.cpp:137] Memory required for data: 1591181472
I0627 17:37:07.994083  1680 layer_factory.hpp:77] Creating layer res4d_branch2a
I0627 17:37:07.994092  1680 net.cpp:84] Creating Layer res4d_branch2a
I0627 17:37:07.994096  1680 net.cpp:406] res4d_branch2a <- res4c_res4c_relu_0_split_0
I0627 17:37:07.994127  1680 net.cpp:380] res4d_branch2a -> res4d_branch2a
I0627 17:37:07.995791  1680 net.cpp:122] Setting up res4d_branch2a
I0627 17:37:07.995812  1680 net.cpp:129] Top shape: 8 256 14 14 (401408)
I0627 17:37:07.995817  1680 net.cpp:137] Memory required for data: 1592787104
I0627 17:37:07.995823  1680 layer_factory.hpp:77] Creating layer bn4d_branch2a
I0627 17:37:07.995834  1680 net.cpp:84] Creating Layer bn4d_branch2a
I0627 17:37:07.995839  1680 net.cpp:406] bn4d_branch2a <- res4d_branch2a
I0627 17:37:07.995846  1680 net.cpp:367] bn4d_branch2a -> res4d_branch2a (in-place)
I0627 17:37:07.996103  1680 net.cpp:122] Setting up bn4d_branch2a
I0627 17:37:07.996119  1680 net.cpp:129] Top shape: 8 256 14 14 (401408)
I0627 17:37:07.996122  1680 net.cpp:137] Memory required for data: 1594392736
I0627 17:37:07.996131  1680 layer_factory.hpp:77] Creating layer scale4d_branch2a
I0627 17:37:07.996139  1680 net.cpp:84] Creating Layer scale4d_branch2a
I0627 17:37:07.996142  1680 net.cpp:406] scale4d_branch2a <- res4d_branch2a
I0627 17:37:07.996155  1680 net.cpp:367] scale4d_branch2a -> res4d_branch2a (in-place)
I0627 17:37:07.996212  1680 layer_factory.hpp:77] Creating layer scale4d_branch2a
I0627 17:37:07.996367  1680 net.cpp:122] Setting up scale4d_branch2a
I0627 17:37:07.996386  1680 net.cpp:129] Top shape: 8 256 14 14 (401408)
I0627 17:37:07.996389  1680 net.cpp:137] Memory required for data: 1595998368
I0627 17:37:07.996397  1680 layer_factory.hpp:77] Creating layer res4d_branch2a_relu
I0627 17:37:07.996403  1680 net.cpp:84] Creating Layer res4d_branch2a_relu
I0627 17:37:07.996407  1680 net.cpp:406] res4d_branch2a_relu <- res4d_branch2a
I0627 17:37:07.996412  1680 net.cpp:367] res4d_branch2a_relu -> res4d_branch2a (in-place)
I0627 17:37:07.996579  1680 net.cpp:122] Setting up res4d_branch2a_relu
I0627 17:37:07.996596  1680 net.cpp:129] Top shape: 8 256 14 14 (401408)
I0627 17:37:07.996600  1680 net.cpp:137] Memory required for data: 1597604000
I0627 17:37:07.996604  1680 layer_factory.hpp:77] Creating layer res4d_branch2b
I0627 17:37:07.996618  1680 net.cpp:84] Creating Layer res4d_branch2b
I0627 17:37:07.996621  1680 net.cpp:406] res4d_branch2b <- res4d_branch2a
I0627 17:37:07.996628  1680 net.cpp:380] res4d_branch2b -> res4d_branch2b
I0627 17:37:07.999027  1680 net.cpp:122] Setting up res4d_branch2b
I0627 17:37:07.999048  1680 net.cpp:129] Top shape: 8 256 14 14 (401408)
I0627 17:37:07.999053  1680 net.cpp:137] Memory required for data: 1599209632
I0627 17:37:07.999059  1680 layer_factory.hpp:77] Creating layer bn4d_branch2b
I0627 17:37:07.999068  1680 net.cpp:84] Creating Layer bn4d_branch2b
I0627 17:37:07.999071  1680 net.cpp:406] bn4d_branch2b <- res4d_branch2b
I0627 17:37:07.999080  1680 net.cpp:367] bn4d_branch2b -> res4d_branch2b (in-place)
I0627 17:37:07.999341  1680 net.cpp:122] Setting up bn4d_branch2b
I0627 17:37:07.999357  1680 net.cpp:129] Top shape: 8 256 14 14 (401408)
I0627 17:37:07.999362  1680 net.cpp:137] Memory required for data: 1600815264
I0627 17:37:07.999370  1680 layer_factory.hpp:77] Creating layer scale4d_branch2b
I0627 17:37:07.999378  1680 net.cpp:84] Creating Layer scale4d_branch2b
I0627 17:37:07.999382  1680 net.cpp:406] scale4d_branch2b <- res4d_branch2b
I0627 17:37:07.999388  1680 net.cpp:367] scale4d_branch2b -> res4d_branch2b (in-place)
I0627 17:37:07.999446  1680 layer_factory.hpp:77] Creating layer scale4d_branch2b
I0627 17:37:07.999606  1680 net.cpp:122] Setting up scale4d_branch2b
I0627 17:37:07.999621  1680 net.cpp:129] Top shape: 8 256 14 14 (401408)
I0627 17:37:07.999625  1680 net.cpp:137] Memory required for data: 1602420896
I0627 17:37:07.999634  1680 layer_factory.hpp:77] Creating layer res4d_branch2b_relu
I0627 17:37:07.999640  1680 net.cpp:84] Creating Layer res4d_branch2b_relu
I0627 17:37:07.999644  1680 net.cpp:406] res4d_branch2b_relu <- res4d_branch2b
I0627 17:37:07.999652  1680 net.cpp:367] res4d_branch2b_relu -> res4d_branch2b (in-place)
I0627 17:37:07.999816  1680 net.cpp:122] Setting up res4d_branch2b_relu
I0627 17:37:07.999832  1680 net.cpp:129] Top shape: 8 256 14 14 (401408)
I0627 17:37:07.999850  1680 net.cpp:137] Memory required for data: 1604026528
I0627 17:37:07.999855  1680 layer_factory.hpp:77] Creating layer res4d_branch2c
I0627 17:37:07.999868  1680 net.cpp:84] Creating Layer res4d_branch2c
I0627 17:37:07.999873  1680 net.cpp:406] res4d_branch2c <- res4d_branch2b
I0627 17:37:07.999882  1680 net.cpp:380] res4d_branch2c -> res4d_branch2c
I0627 17:37:08.001551  1680 net.cpp:122] Setting up res4d_branch2c
I0627 17:37:08.001571  1680 net.cpp:129] Top shape: 8 1024 14 14 (1605632)
I0627 17:37:08.001576  1680 net.cpp:137] Memory required for data: 1610449056
I0627 17:37:08.001582  1680 layer_factory.hpp:77] Creating layer bn4d_branch2c
I0627 17:37:08.001593  1680 net.cpp:84] Creating Layer bn4d_branch2c
I0627 17:37:08.001598  1680 net.cpp:406] bn4d_branch2c <- res4d_branch2c
I0627 17:37:08.001605  1680 net.cpp:367] bn4d_branch2c -> res4d_branch2c (in-place)
I0627 17:37:08.001863  1680 net.cpp:122] Setting up bn4d_branch2c
I0627 17:37:08.001878  1680 net.cpp:129] Top shape: 8 1024 14 14 (1605632)
I0627 17:37:08.001883  1680 net.cpp:137] Memory required for data: 1616871584
I0627 17:37:08.001893  1680 layer_factory.hpp:77] Creating layer scale4d_branch2c
I0627 17:37:08.001899  1680 net.cpp:84] Creating Layer scale4d_branch2c
I0627 17:37:08.001904  1680 net.cpp:406] scale4d_branch2c <- res4d_branch2c
I0627 17:37:08.001909  1680 net.cpp:367] scale4d_branch2c -> res4d_branch2c (in-place)
I0627 17:37:08.001965  1680 layer_factory.hpp:77] Creating layer scale4d_branch2c
I0627 17:37:08.002131  1680 net.cpp:122] Setting up scale4d_branch2c
I0627 17:37:08.002147  1680 net.cpp:129] Top shape: 8 1024 14 14 (1605632)
I0627 17:37:08.002151  1680 net.cpp:137] Memory required for data: 1623294112
I0627 17:37:08.002158  1680 layer_factory.hpp:77] Creating layer res4d
I0627 17:37:08.002168  1680 net.cpp:84] Creating Layer res4d
I0627 17:37:08.002173  1680 net.cpp:406] res4d <- res4c_res4c_relu_0_split_1
I0627 17:37:08.002178  1680 net.cpp:406] res4d <- res4d_branch2c
I0627 17:37:08.002184  1680 net.cpp:380] res4d -> res4d
I0627 17:37:08.002218  1680 net.cpp:122] Setting up res4d
I0627 17:37:08.002233  1680 net.cpp:129] Top shape: 8 1024 14 14 (1605632)
I0627 17:37:08.002238  1680 net.cpp:137] Memory required for data: 1629716640
I0627 17:37:08.002241  1680 layer_factory.hpp:77] Creating layer res4d_relu
I0627 17:37:08.002250  1680 net.cpp:84] Creating Layer res4d_relu
I0627 17:37:08.002255  1680 net.cpp:406] res4d_relu <- res4d
I0627 17:37:08.002260  1680 net.cpp:367] res4d_relu -> res4d (in-place)
I0627 17:37:08.002557  1680 net.cpp:122] Setting up res4d_relu
I0627 17:37:08.002574  1680 net.cpp:129] Top shape: 8 1024 14 14 (1605632)
I0627 17:37:08.002579  1680 net.cpp:137] Memory required for data: 1636139168
I0627 17:37:08.002583  1680 layer_factory.hpp:77] Creating layer res4d_res4d_relu_0_split
I0627 17:37:08.002590  1680 net.cpp:84] Creating Layer res4d_res4d_relu_0_split
I0627 17:37:08.002594  1680 net.cpp:406] res4d_res4d_relu_0_split <- res4d
I0627 17:37:08.002604  1680 net.cpp:380] res4d_res4d_relu_0_split -> res4d_res4d_relu_0_split_0
I0627 17:37:08.002611  1680 net.cpp:380] res4d_res4d_relu_0_split -> res4d_res4d_relu_0_split_1
I0627 17:37:08.002668  1680 net.cpp:122] Setting up res4d_res4d_relu_0_split
I0627 17:37:08.002683  1680 net.cpp:129] Top shape: 8 1024 14 14 (1605632)
I0627 17:37:08.002689  1680 net.cpp:129] Top shape: 8 1024 14 14 (1605632)
I0627 17:37:08.002692  1680 net.cpp:137] Memory required for data: 1648984224
I0627 17:37:08.002696  1680 layer_factory.hpp:77] Creating layer res4e_branch2a
I0627 17:37:08.002712  1680 net.cpp:84] Creating Layer res4e_branch2a
I0627 17:37:08.002717  1680 net.cpp:406] res4e_branch2a <- res4d_res4d_relu_0_split_0
I0627 17:37:08.002722  1680 net.cpp:380] res4e_branch2a -> res4e_branch2a
I0627 17:37:08.004386  1680 net.cpp:122] Setting up res4e_branch2a
I0627 17:37:08.004407  1680 net.cpp:129] Top shape: 8 256 14 14 (401408)
I0627 17:37:08.004411  1680 net.cpp:137] Memory required for data: 1650589856
I0627 17:37:08.004417  1680 layer_factory.hpp:77] Creating layer bn4e_branch2a
I0627 17:37:08.004441  1680 net.cpp:84] Creating Layer bn4e_branch2a
I0627 17:37:08.004447  1680 net.cpp:406] bn4e_branch2a <- res4e_branch2a
I0627 17:37:08.004453  1680 net.cpp:367] bn4e_branch2a -> res4e_branch2a (in-place)
I0627 17:37:08.004719  1680 net.cpp:122] Setting up bn4e_branch2a
I0627 17:37:08.004735  1680 net.cpp:129] Top shape: 8 256 14 14 (401408)
I0627 17:37:08.004739  1680 net.cpp:137] Memory required for data: 1652195488
I0627 17:37:08.004748  1680 layer_factory.hpp:77] Creating layer scale4e_branch2a
I0627 17:37:08.004758  1680 net.cpp:84] Creating Layer scale4e_branch2a
I0627 17:37:08.004763  1680 net.cpp:406] scale4e_branch2a <- res4e_branch2a
I0627 17:37:08.004768  1680 net.cpp:367] scale4e_branch2a -> res4e_branch2a (in-place)
I0627 17:37:08.004828  1680 layer_factory.hpp:77] Creating layer scale4e_branch2a
I0627 17:37:08.004992  1680 net.cpp:122] Setting up scale4e_branch2a
I0627 17:37:08.005007  1680 net.cpp:129] Top shape: 8 256 14 14 (401408)
I0627 17:37:08.005012  1680 net.cpp:137] Memory required for data: 1653801120
I0627 17:37:08.005018  1680 layer_factory.hpp:77] Creating layer res4e_branch2a_relu
I0627 17:37:08.005025  1680 net.cpp:84] Creating Layer res4e_branch2a_relu
I0627 17:37:08.005030  1680 net.cpp:406] res4e_branch2a_relu <- res4e_branch2a
I0627 17:37:08.005038  1680 net.cpp:367] res4e_branch2a_relu -> res4e_branch2a (in-place)
I0627 17:37:08.005200  1680 net.cpp:122] Setting up res4e_branch2a_relu
I0627 17:37:08.005218  1680 net.cpp:129] Top shape: 8 256 14 14 (401408)
I0627 17:37:08.005221  1680 net.cpp:137] Memory required for data: 1655406752
I0627 17:37:08.005226  1680 layer_factory.hpp:77] Creating layer res4e_branch2b
I0627 17:37:08.005240  1680 net.cpp:84] Creating Layer res4e_branch2b
I0627 17:37:08.005244  1680 net.cpp:406] res4e_branch2b <- res4e_branch2a
I0627 17:37:08.005251  1680 net.cpp:380] res4e_branch2b -> res4e_branch2b
I0627 17:37:08.007834  1680 net.cpp:122] Setting up res4e_branch2b
I0627 17:37:08.007855  1680 net.cpp:129] Top shape: 8 256 14 14 (401408)
I0627 17:37:08.007860  1680 net.cpp:137] Memory required for data: 1657012384
I0627 17:37:08.007866  1680 layer_factory.hpp:77] Creating layer bn4e_branch2b
I0627 17:37:08.007877  1680 net.cpp:84] Creating Layer bn4e_branch2b
I0627 17:37:08.007882  1680 net.cpp:406] bn4e_branch2b <- res4e_branch2b
I0627 17:37:08.007889  1680 net.cpp:367] bn4e_branch2b -> res4e_branch2b (in-place)
I0627 17:37:08.008147  1680 net.cpp:122] Setting up bn4e_branch2b
I0627 17:37:08.008162  1680 net.cpp:129] Top shape: 8 256 14 14 (401408)
I0627 17:37:08.008167  1680 net.cpp:137] Memory required for data: 1658618016
I0627 17:37:08.008174  1680 layer_factory.hpp:77] Creating layer scale4e_branch2b
I0627 17:37:08.008185  1680 net.cpp:84] Creating Layer scale4e_branch2b
I0627 17:37:08.008189  1680 net.cpp:406] scale4e_branch2b <- res4e_branch2b
I0627 17:37:08.008195  1680 net.cpp:367] scale4e_branch2b -> res4e_branch2b (in-place)
I0627 17:37:08.008255  1680 layer_factory.hpp:77] Creating layer scale4e_branch2b
I0627 17:37:08.008417  1680 net.cpp:122] Setting up scale4e_branch2b
I0627 17:37:08.008432  1680 net.cpp:129] Top shape: 8 256 14 14 (401408)
I0627 17:37:08.008436  1680 net.cpp:137] Memory required for data: 1660223648
I0627 17:37:08.008443  1680 layer_factory.hpp:77] Creating layer res4e_branch2b_relu
I0627 17:37:08.008450  1680 net.cpp:84] Creating Layer res4e_branch2b_relu
I0627 17:37:08.008455  1680 net.cpp:406] res4e_branch2b_relu <- res4e_branch2b
I0627 17:37:08.008462  1680 net.cpp:367] res4e_branch2b_relu -> res4e_branch2b (in-place)
I0627 17:37:08.008630  1680 net.cpp:122] Setting up res4e_branch2b_relu
I0627 17:37:08.008646  1680 net.cpp:129] Top shape: 8 256 14 14 (401408)
I0627 17:37:08.008651  1680 net.cpp:137] Memory required for data: 1661829280
I0627 17:37:08.008654  1680 layer_factory.hpp:77] Creating layer res4e_branch2c
I0627 17:37:08.008666  1680 net.cpp:84] Creating Layer res4e_branch2c
I0627 17:37:08.008671  1680 net.cpp:406] res4e_branch2c <- res4e_branch2b
I0627 17:37:08.008693  1680 net.cpp:380] res4e_branch2c -> res4e_branch2c
I0627 17:37:08.010319  1680 net.cpp:122] Setting up res4e_branch2c
I0627 17:37:08.010340  1680 net.cpp:129] Top shape: 8 1024 14 14 (1605632)
I0627 17:37:08.010344  1680 net.cpp:137] Memory required for data: 1668251808
I0627 17:37:08.010351  1680 layer_factory.hpp:77] Creating layer bn4e_branch2c
I0627 17:37:08.010361  1680 net.cpp:84] Creating Layer bn4e_branch2c
I0627 17:37:08.010366  1680 net.cpp:406] bn4e_branch2c <- res4e_branch2c
I0627 17:37:08.010372  1680 net.cpp:367] bn4e_branch2c -> res4e_branch2c (in-place)
I0627 17:37:08.010656  1680 net.cpp:122] Setting up bn4e_branch2c
I0627 17:37:08.010673  1680 net.cpp:129] Top shape: 8 1024 14 14 (1605632)
I0627 17:37:08.010677  1680 net.cpp:137] Memory required for data: 1674674336
I0627 17:37:08.010689  1680 layer_factory.hpp:77] Creating layer scale4e_branch2c
I0627 17:37:08.010699  1680 net.cpp:84] Creating Layer scale4e_branch2c
I0627 17:37:08.010704  1680 net.cpp:406] scale4e_branch2c <- res4e_branch2c
I0627 17:37:08.010710  1680 net.cpp:367] scale4e_branch2c -> res4e_branch2c (in-place)
I0627 17:37:08.010766  1680 layer_factory.hpp:77] Creating layer scale4e_branch2c
I0627 17:37:08.010939  1680 net.cpp:122] Setting up scale4e_branch2c
I0627 17:37:08.010956  1680 net.cpp:129] Top shape: 8 1024 14 14 (1605632)
I0627 17:37:08.010959  1680 net.cpp:137] Memory required for data: 1681096864
I0627 17:37:08.010967  1680 layer_factory.hpp:77] Creating layer res4e
I0627 17:37:08.010973  1680 net.cpp:84] Creating Layer res4e
I0627 17:37:08.010977  1680 net.cpp:406] res4e <- res4d_res4d_relu_0_split_1
I0627 17:37:08.010982  1680 net.cpp:406] res4e <- res4e_branch2c
I0627 17:37:08.010990  1680 net.cpp:380] res4e -> res4e
I0627 17:37:08.011029  1680 net.cpp:122] Setting up res4e
I0627 17:37:08.011044  1680 net.cpp:129] Top shape: 8 1024 14 14 (1605632)
I0627 17:37:08.011047  1680 net.cpp:137] Memory required for data: 1687519392
I0627 17:37:08.011051  1680 layer_factory.hpp:77] Creating layer res4e_relu
I0627 17:37:08.011057  1680 net.cpp:84] Creating Layer res4e_relu
I0627 17:37:08.011061  1680 net.cpp:406] res4e_relu <- res4e
I0627 17:37:08.011067  1680 net.cpp:367] res4e_relu -> res4e (in-place)
I0627 17:37:08.011342  1680 net.cpp:122] Setting up res4e_relu
I0627 17:37:08.011359  1680 net.cpp:129] Top shape: 8 1024 14 14 (1605632)
I0627 17:37:08.011364  1680 net.cpp:137] Memory required for data: 1693941920
I0627 17:37:08.011368  1680 layer_factory.hpp:77] Creating layer res4e_res4e_relu_0_split
I0627 17:37:08.011379  1680 net.cpp:84] Creating Layer res4e_res4e_relu_0_split
I0627 17:37:08.011384  1680 net.cpp:406] res4e_res4e_relu_0_split <- res4e
I0627 17:37:08.011390  1680 net.cpp:380] res4e_res4e_relu_0_split -> res4e_res4e_relu_0_split_0
I0627 17:37:08.011397  1680 net.cpp:380] res4e_res4e_relu_0_split -> res4e_res4e_relu_0_split_1
I0627 17:37:08.011456  1680 net.cpp:122] Setting up res4e_res4e_relu_0_split
I0627 17:37:08.011471  1680 net.cpp:129] Top shape: 8 1024 14 14 (1605632)
I0627 17:37:08.011476  1680 net.cpp:129] Top shape: 8 1024 14 14 (1605632)
I0627 17:37:08.011478  1680 net.cpp:137] Memory required for data: 1706786976
I0627 17:37:08.011482  1680 layer_factory.hpp:77] Creating layer res4f_branch2a
I0627 17:37:08.011493  1680 net.cpp:84] Creating Layer res4f_branch2a
I0627 17:37:08.011498  1680 net.cpp:406] res4f_branch2a <- res4e_res4e_relu_0_split_0
I0627 17:37:08.011504  1680 net.cpp:380] res4f_branch2a -> res4f_branch2a
I0627 17:37:08.013183  1680 net.cpp:122] Setting up res4f_branch2a
I0627 17:37:08.013203  1680 net.cpp:129] Top shape: 8 256 14 14 (401408)
I0627 17:37:08.013207  1680 net.cpp:137] Memory required for data: 1708392608
I0627 17:37:08.013214  1680 layer_factory.hpp:77] Creating layer bn4f_branch2a
I0627 17:37:08.013224  1680 net.cpp:84] Creating Layer bn4f_branch2a
I0627 17:37:08.013229  1680 net.cpp:406] bn4f_branch2a <- res4f_branch2a
I0627 17:37:08.013236  1680 net.cpp:367] bn4f_branch2a -> res4f_branch2a (in-place)
I0627 17:37:08.013497  1680 net.cpp:122] Setting up bn4f_branch2a
I0627 17:37:08.013525  1680 net.cpp:129] Top shape: 8 256 14 14 (401408)
I0627 17:37:08.013530  1680 net.cpp:137] Memory required for data: 1709998240
I0627 17:37:08.013540  1680 layer_factory.hpp:77] Creating layer scale4f_branch2a
I0627 17:37:08.013550  1680 net.cpp:84] Creating Layer scale4f_branch2a
I0627 17:37:08.013555  1680 net.cpp:406] scale4f_branch2a <- res4f_branch2a
I0627 17:37:08.013561  1680 net.cpp:367] scale4f_branch2a -> res4f_branch2a (in-place)
I0627 17:37:08.013622  1680 layer_factory.hpp:77] Creating layer scale4f_branch2a
I0627 17:37:08.013784  1680 net.cpp:122] Setting up scale4f_branch2a
I0627 17:37:08.013800  1680 net.cpp:129] Top shape: 8 256 14 14 (401408)
I0627 17:37:08.013804  1680 net.cpp:137] Memory required for data: 1711603872
I0627 17:37:08.013811  1680 layer_factory.hpp:77] Creating layer res4f_branch2a_relu
I0627 17:37:08.013818  1680 net.cpp:84] Creating Layer res4f_branch2a_relu
I0627 17:37:08.013823  1680 net.cpp:406] res4f_branch2a_relu <- res4f_branch2a
I0627 17:37:08.013830  1680 net.cpp:367] res4f_branch2a_relu -> res4f_branch2a (in-place)
I0627 17:37:08.013998  1680 net.cpp:122] Setting up res4f_branch2a_relu
I0627 17:37:08.014016  1680 net.cpp:129] Top shape: 8 256 14 14 (401408)
I0627 17:37:08.014020  1680 net.cpp:137] Memory required for data: 1713209504
I0627 17:37:08.014027  1680 layer_factory.hpp:77] Creating layer res4f_branch2b
I0627 17:37:08.014039  1680 net.cpp:84] Creating Layer res4f_branch2b
I0627 17:37:08.014045  1680 net.cpp:406] res4f_branch2b <- res4f_branch2a
I0627 17:37:08.014052  1680 net.cpp:380] res4f_branch2b -> res4f_branch2b
I0627 17:37:08.016377  1680 net.cpp:122] Setting up res4f_branch2b
I0627 17:37:08.016398  1680 net.cpp:129] Top shape: 8 256 14 14 (401408)
I0627 17:37:08.016402  1680 net.cpp:137] Memory required for data: 1714815136
I0627 17:37:08.016409  1680 layer_factory.hpp:77] Creating layer bn4f_branch2b
I0627 17:37:08.016420  1680 net.cpp:84] Creating Layer bn4f_branch2b
I0627 17:37:08.016425  1680 net.cpp:406] bn4f_branch2b <- res4f_branch2b
I0627 17:37:08.016433  1680 net.cpp:367] bn4f_branch2b -> res4f_branch2b (in-place)
I0627 17:37:08.016697  1680 net.cpp:122] Setting up bn4f_branch2b
I0627 17:37:08.016713  1680 net.cpp:129] Top shape: 8 256 14 14 (401408)
I0627 17:37:08.016717  1680 net.cpp:137] Memory required for data: 1716420768
I0627 17:37:08.016726  1680 layer_factory.hpp:77] Creating layer scale4f_branch2b
I0627 17:37:08.016737  1680 net.cpp:84] Creating Layer scale4f_branch2b
I0627 17:37:08.016742  1680 net.cpp:406] scale4f_branch2b <- res4f_branch2b
I0627 17:37:08.016747  1680 net.cpp:367] scale4f_branch2b -> res4f_branch2b (in-place)
I0627 17:37:08.016808  1680 layer_factory.hpp:77] Creating layer scale4f_branch2b
I0627 17:37:08.016978  1680 net.cpp:122] Setting up scale4f_branch2b
I0627 17:37:08.016995  1680 net.cpp:129] Top shape: 8 256 14 14 (401408)
I0627 17:37:08.016999  1680 net.cpp:137] Memory required for data: 1718026400
I0627 17:37:08.017006  1680 layer_factory.hpp:77] Creating layer res4f_branch2b_relu
I0627 17:37:08.017014  1680 net.cpp:84] Creating Layer res4f_branch2b_relu
I0627 17:37:08.017017  1680 net.cpp:406] res4f_branch2b_relu <- res4f_branch2b
I0627 17:37:08.017022  1680 net.cpp:367] res4f_branch2b_relu -> res4f_branch2b (in-place)
I0627 17:37:08.017192  1680 net.cpp:122] Setting up res4f_branch2b_relu
I0627 17:37:08.017210  1680 net.cpp:129] Top shape: 8 256 14 14 (401408)
I0627 17:37:08.017213  1680 net.cpp:137] Memory required for data: 1719632032
I0627 17:37:08.017217  1680 layer_factory.hpp:77] Creating layer res4f_branch2c
I0627 17:37:08.017230  1680 net.cpp:84] Creating Layer res4f_branch2c
I0627 17:37:08.017235  1680 net.cpp:406] res4f_branch2c <- res4f_branch2b
I0627 17:37:08.017243  1680 net.cpp:380] res4f_branch2c -> res4f_branch2c
I0627 17:37:08.018936  1680 net.cpp:122] Setting up res4f_branch2c
I0627 17:37:08.018956  1680 net.cpp:129] Top shape: 8 1024 14 14 (1605632)
I0627 17:37:08.018961  1680 net.cpp:137] Memory required for data: 1726054560
I0627 17:37:08.018967  1680 layer_factory.hpp:77] Creating layer bn4f_branch2c
I0627 17:37:08.018991  1680 net.cpp:84] Creating Layer bn4f_branch2c
I0627 17:37:08.018997  1680 net.cpp:406] bn4f_branch2c <- res4f_branch2c
I0627 17:37:08.019003  1680 net.cpp:367] bn4f_branch2c -> res4f_branch2c (in-place)
I0627 17:37:08.019274  1680 net.cpp:122] Setting up bn4f_branch2c
I0627 17:37:08.019294  1680 net.cpp:129] Top shape: 8 1024 14 14 (1605632)
I0627 17:37:08.019299  1680 net.cpp:137] Memory required for data: 1732477088
I0627 17:37:08.019361  1680 layer_factory.hpp:77] Creating layer scale4f_branch2c
I0627 17:37:08.019377  1680 net.cpp:84] Creating Layer scale4f_branch2c
I0627 17:37:08.019383  1680 net.cpp:406] scale4f_branch2c <- res4f_branch2c
I0627 17:37:08.019389  1680 net.cpp:367] scale4f_branch2c -> res4f_branch2c (in-place)
I0627 17:37:08.019449  1680 layer_factory.hpp:77] Creating layer scale4f_branch2c
I0627 17:37:08.019619  1680 net.cpp:122] Setting up scale4f_branch2c
I0627 17:37:08.019635  1680 net.cpp:129] Top shape: 8 1024 14 14 (1605632)
I0627 17:37:08.019639  1680 net.cpp:137] Memory required for data: 1738899616
I0627 17:37:08.019646  1680 layer_factory.hpp:77] Creating layer res4f
I0627 17:37:08.019654  1680 net.cpp:84] Creating Layer res4f
I0627 17:37:08.019659  1680 net.cpp:406] res4f <- res4e_res4e_relu_0_split_1
I0627 17:37:08.019667  1680 net.cpp:406] res4f <- res4f_branch2c
I0627 17:37:08.019672  1680 net.cpp:380] res4f -> res4f
I0627 17:37:08.019708  1680 net.cpp:122] Setting up res4f
I0627 17:37:08.019723  1680 net.cpp:129] Top shape: 8 1024 14 14 (1605632)
I0627 17:37:08.019727  1680 net.cpp:137] Memory required for data: 1745322144
I0627 17:37:08.019731  1680 layer_factory.hpp:77] Creating layer res4f_relu
I0627 17:37:08.019742  1680 net.cpp:84] Creating Layer res4f_relu
I0627 17:37:08.019745  1680 net.cpp:406] res4f_relu <- res4f
I0627 17:37:08.019750  1680 net.cpp:367] res4f_relu -> res4f (in-place)
I0627 17:37:08.020032  1680 net.cpp:122] Setting up res4f_relu
I0627 17:37:08.020051  1680 net.cpp:129] Top shape: 8 1024 14 14 (1605632)
I0627 17:37:08.020054  1680 net.cpp:137] Memory required for data: 1751744672
I0627 17:37:08.020058  1680 layer_factory.hpp:77] Creating layer res4f_res4f_relu_0_split
I0627 17:37:08.020066  1680 net.cpp:84] Creating Layer res4f_res4f_relu_0_split
I0627 17:37:08.020071  1680 net.cpp:406] res4f_res4f_relu_0_split <- res4f
I0627 17:37:08.020078  1680 net.cpp:380] res4f_res4f_relu_0_split -> res4f_res4f_relu_0_split_0
I0627 17:37:08.020087  1680 net.cpp:380] res4f_res4f_relu_0_split -> res4f_res4f_relu_0_split_1
I0627 17:37:08.020148  1680 net.cpp:122] Setting up res4f_res4f_relu_0_split
I0627 17:37:08.020162  1680 net.cpp:129] Top shape: 8 1024 14 14 (1605632)
I0627 17:37:08.020167  1680 net.cpp:129] Top shape: 8 1024 14 14 (1605632)
I0627 17:37:08.020170  1680 net.cpp:137] Memory required for data: 1764589728
I0627 17:37:08.020174  1680 layer_factory.hpp:77] Creating layer res5a_branch1
I0627 17:37:08.020189  1680 net.cpp:84] Creating Layer res5a_branch1
I0627 17:37:08.020193  1680 net.cpp:406] res5a_branch1 <- res4f_res4f_relu_0_split_0
I0627 17:37:08.020200  1680 net.cpp:380] res5a_branch1 -> res5a_branch1
I0627 17:37:08.025990  1680 net.cpp:122] Setting up res5a_branch1
I0627 17:37:08.026013  1680 net.cpp:129] Top shape: 8 2048 7 7 (802816)
I0627 17:37:08.026018  1680 net.cpp:137] Memory required for data: 1767800992
I0627 17:37:08.026024  1680 layer_factory.hpp:77] Creating layer bn5a_branch1
I0627 17:37:08.026036  1680 net.cpp:84] Creating Layer bn5a_branch1
I0627 17:37:08.026041  1680 net.cpp:406] bn5a_branch1 <- res5a_branch1
I0627 17:37:08.026046  1680 net.cpp:367] bn5a_branch1 -> res5a_branch1 (in-place)
I0627 17:37:08.026350  1680 net.cpp:122] Setting up bn5a_branch1
I0627 17:37:08.026367  1680 net.cpp:129] Top shape: 8 2048 7 7 (802816)
I0627 17:37:08.026371  1680 net.cpp:137] Memory required for data: 1771012256
I0627 17:37:08.026382  1680 layer_factory.hpp:77] Creating layer scale5a_branch1
I0627 17:37:08.026391  1680 net.cpp:84] Creating Layer scale5a_branch1
I0627 17:37:08.026394  1680 net.cpp:406] scale5a_branch1 <- res5a_branch1
I0627 17:37:08.026415  1680 net.cpp:367] scale5a_branch1 -> res5a_branch1 (in-place)
I0627 17:37:08.026495  1680 layer_factory.hpp:77] Creating layer scale5a_branch1
I0627 17:37:08.026681  1680 net.cpp:122] Setting up scale5a_branch1
I0627 17:37:08.026697  1680 net.cpp:129] Top shape: 8 2048 7 7 (802816)
I0627 17:37:08.026701  1680 net.cpp:137] Memory required for data: 1774223520
I0627 17:37:08.026708  1680 layer_factory.hpp:77] Creating layer res5a_branch2a
I0627 17:37:08.026721  1680 net.cpp:84] Creating Layer res5a_branch2a
I0627 17:37:08.026726  1680 net.cpp:406] res5a_branch2a <- res4f_res4f_relu_0_split_1
I0627 17:37:08.026736  1680 net.cpp:380] res5a_branch2a -> res5a_branch2a
I0627 17:37:08.028874  1680 net.cpp:122] Setting up res5a_branch2a
I0627 17:37:08.028894  1680 net.cpp:129] Top shape: 8 512 7 7 (200704)
I0627 17:37:08.028899  1680 net.cpp:137] Memory required for data: 1775026336
I0627 17:37:08.028905  1680 layer_factory.hpp:77] Creating layer bn5a_branch2a
I0627 17:37:08.028916  1680 net.cpp:84] Creating Layer bn5a_branch2a
I0627 17:37:08.028921  1680 net.cpp:406] bn5a_branch2a <- res5a_branch2a
I0627 17:37:08.028926  1680 net.cpp:367] bn5a_branch2a -> res5a_branch2a (in-place)
I0627 17:37:08.029206  1680 net.cpp:122] Setting up bn5a_branch2a
I0627 17:37:08.029222  1680 net.cpp:129] Top shape: 8 512 7 7 (200704)
I0627 17:37:08.029225  1680 net.cpp:137] Memory required for data: 1775829152
I0627 17:37:08.029233  1680 layer_factory.hpp:77] Creating layer scale5a_branch2a
I0627 17:37:08.029242  1680 net.cpp:84] Creating Layer scale5a_branch2a
I0627 17:37:08.029245  1680 net.cpp:406] scale5a_branch2a <- res5a_branch2a
I0627 17:37:08.029251  1680 net.cpp:367] scale5a_branch2a -> res5a_branch2a (in-place)
I0627 17:37:08.029309  1680 layer_factory.hpp:77] Creating layer scale5a_branch2a
I0627 17:37:08.029489  1680 net.cpp:122] Setting up scale5a_branch2a
I0627 17:37:08.029505  1680 net.cpp:129] Top shape: 8 512 7 7 (200704)
I0627 17:37:08.029508  1680 net.cpp:137] Memory required for data: 1776631968
I0627 17:37:08.029515  1680 layer_factory.hpp:77] Creating layer res5a_branch2a_relu
I0627 17:37:08.029525  1680 net.cpp:84] Creating Layer res5a_branch2a_relu
I0627 17:37:08.029528  1680 net.cpp:406] res5a_branch2a_relu <- res5a_branch2a
I0627 17:37:08.029534  1680 net.cpp:367] res5a_branch2a_relu -> res5a_branch2a (in-place)
I0627 17:37:08.029824  1680 net.cpp:122] Setting up res5a_branch2a_relu
I0627 17:37:08.029841  1680 net.cpp:129] Top shape: 8 512 7 7 (200704)
I0627 17:37:08.029846  1680 net.cpp:137] Memory required for data: 1777434784
I0627 17:37:08.029850  1680 layer_factory.hpp:77] Creating layer res5a_branch2b
I0627 17:37:08.029865  1680 net.cpp:84] Creating Layer res5a_branch2b
I0627 17:37:08.029870  1680 net.cpp:406] res5a_branch2b <- res5a_branch2a
I0627 17:37:08.029877  1680 net.cpp:380] res5a_branch2b -> res5a_branch2b
I0627 17:37:08.036128  1680 net.cpp:122] Setting up res5a_branch2b
I0627 17:37:08.036154  1680 net.cpp:129] Top shape: 8 512 7 7 (200704)
I0627 17:37:08.036159  1680 net.cpp:137] Memory required for data: 1778237600
I0627 17:37:08.036166  1680 layer_factory.hpp:77] Creating layer bn5a_branch2b
I0627 17:37:08.036178  1680 net.cpp:84] Creating Layer bn5a_branch2b
I0627 17:37:08.036185  1680 net.cpp:406] bn5a_branch2b <- res5a_branch2b
I0627 17:37:08.036190  1680 net.cpp:367] bn5a_branch2b -> res5a_branch2b (in-place)
I0627 17:37:08.036473  1680 net.cpp:122] Setting up bn5a_branch2b
I0627 17:37:08.036489  1680 net.cpp:129] Top shape: 8 512 7 7 (200704)
I0627 17:37:08.036492  1680 net.cpp:137] Memory required for data: 1779040416
I0627 17:37:08.036501  1680 layer_factory.hpp:77] Creating layer scale5a_branch2b
I0627 17:37:08.036512  1680 net.cpp:84] Creating Layer scale5a_branch2b
I0627 17:37:08.036516  1680 net.cpp:406] scale5a_branch2b <- res5a_branch2b
I0627 17:37:08.036522  1680 net.cpp:367] scale5a_branch2b -> res5a_branch2b (in-place)
I0627 17:37:08.036582  1680 layer_factory.hpp:77] Creating layer scale5a_branch2b
I0627 17:37:08.036761  1680 net.cpp:122] Setting up scale5a_branch2b
I0627 17:37:08.036790  1680 net.cpp:129] Top shape: 8 512 7 7 (200704)
I0627 17:37:08.036794  1680 net.cpp:137] Memory required for data: 1779843232
I0627 17:37:08.036801  1680 layer_factory.hpp:77] Creating layer res5a_branch2b_relu
I0627 17:37:08.036809  1680 net.cpp:84] Creating Layer res5a_branch2b_relu
I0627 17:37:08.036814  1680 net.cpp:406] res5a_branch2b_relu <- res5a_branch2b
I0627 17:37:08.036821  1680 net.cpp:367] res5a_branch2b_relu -> res5a_branch2b (in-place)
I0627 17:37:08.036995  1680 net.cpp:122] Setting up res5a_branch2b_relu
I0627 17:37:08.037012  1680 net.cpp:129] Top shape: 8 512 7 7 (200704)
I0627 17:37:08.037017  1680 net.cpp:137] Memory required for data: 1780646048
I0627 17:37:08.037021  1680 layer_factory.hpp:77] Creating layer res5a_branch2c
I0627 17:37:08.037036  1680 net.cpp:84] Creating Layer res5a_branch2c
I0627 17:37:08.037041  1680 net.cpp:406] res5a_branch2c <- res5a_branch2b
I0627 17:37:08.037047  1680 net.cpp:380] res5a_branch2c -> res5a_branch2c
I0627 17:37:08.040688  1680 net.cpp:122] Setting up res5a_branch2c
I0627 17:37:08.040709  1680 net.cpp:129] Top shape: 8 2048 7 7 (802816)
I0627 17:37:08.040714  1680 net.cpp:137] Memory required for data: 1783857312
I0627 17:37:08.040719  1680 layer_factory.hpp:77] Creating layer bn5a_branch2c
I0627 17:37:08.040730  1680 net.cpp:84] Creating Layer bn5a_branch2c
I0627 17:37:08.040735  1680 net.cpp:406] bn5a_branch2c <- res5a_branch2c
I0627 17:37:08.040741  1680 net.cpp:367] bn5a_branch2c -> res5a_branch2c (in-place)
I0627 17:37:08.041039  1680 net.cpp:122] Setting up bn5a_branch2c
I0627 17:37:08.041056  1680 net.cpp:129] Top shape: 8 2048 7 7 (802816)
I0627 17:37:08.041060  1680 net.cpp:137] Memory required for data: 1787068576
I0627 17:37:08.041071  1680 layer_factory.hpp:77] Creating layer scale5a_branch2c
I0627 17:37:08.041079  1680 net.cpp:84] Creating Layer scale5a_branch2c
I0627 17:37:08.041085  1680 net.cpp:406] scale5a_branch2c <- res5a_branch2c
I0627 17:37:08.041090  1680 net.cpp:367] scale5a_branch2c -> res5a_branch2c (in-place)
I0627 17:37:08.041152  1680 layer_factory.hpp:77] Creating layer scale5a_branch2c
I0627 17:37:08.041342  1680 net.cpp:122] Setting up scale5a_branch2c
I0627 17:37:08.041359  1680 net.cpp:129] Top shape: 8 2048 7 7 (802816)
I0627 17:37:08.041363  1680 net.cpp:137] Memory required for data: 1790279840
I0627 17:37:08.041370  1680 layer_factory.hpp:77] Creating layer res5a
I0627 17:37:08.041383  1680 net.cpp:84] Creating Layer res5a
I0627 17:37:08.041388  1680 net.cpp:406] res5a <- res5a_branch1
I0627 17:37:08.041393  1680 net.cpp:406] res5a <- res5a_branch2c
I0627 17:37:08.041398  1680 net.cpp:380] res5a -> res5a
I0627 17:37:08.041440  1680 net.cpp:122] Setting up res5a
I0627 17:37:08.041455  1680 net.cpp:129] Top shape: 8 2048 7 7 (802816)
I0627 17:37:08.041460  1680 net.cpp:137] Memory required for data: 1793491104
I0627 17:37:08.041463  1680 layer_factory.hpp:77] Creating layer res5a_relu
I0627 17:37:08.041471  1680 net.cpp:84] Creating Layer res5a_relu
I0627 17:37:08.041474  1680 net.cpp:406] res5a_relu <- res5a
I0627 17:37:08.041482  1680 net.cpp:367] res5a_relu -> res5a (in-place)
I0627 17:37:08.041764  1680 net.cpp:122] Setting up res5a_relu
I0627 17:37:08.041784  1680 net.cpp:129] Top shape: 8 2048 7 7 (802816)
I0627 17:37:08.041787  1680 net.cpp:137] Memory required for data: 1796702368
I0627 17:37:08.041792  1680 layer_factory.hpp:77] Creating layer res5a_res5a_relu_0_split
I0627 17:37:08.041802  1680 net.cpp:84] Creating Layer res5a_res5a_relu_0_split
I0627 17:37:08.041807  1680 net.cpp:406] res5a_res5a_relu_0_split <- res5a
I0627 17:37:08.041813  1680 net.cpp:380] res5a_res5a_relu_0_split -> res5a_res5a_relu_0_split_0
I0627 17:37:08.041821  1680 net.cpp:380] res5a_res5a_relu_0_split -> res5a_res5a_relu_0_split_1
I0627 17:37:08.041884  1680 net.cpp:122] Setting up res5a_res5a_relu_0_split
I0627 17:37:08.041899  1680 net.cpp:129] Top shape: 8 2048 7 7 (802816)
I0627 17:37:08.041904  1680 net.cpp:129] Top shape: 8 2048 7 7 (802816)
I0627 17:37:08.041908  1680 net.cpp:137] Memory required for data: 1803124896
I0627 17:37:08.041924  1680 layer_factory.hpp:77] Creating layer my_res5b_branch2a
I0627 17:37:08.041937  1680 net.cpp:84] Creating Layer my_res5b_branch2a
I0627 17:37:08.041942  1680 net.cpp:406] my_res5b_branch2a <- res5a_res5a_relu_0_split_0
I0627 17:37:08.041950  1680 net.cpp:380] my_res5b_branch2a -> my_res5b_branch2a
I0627 17:37:08.045308  1680 net.cpp:122] Setting up my_res5b_branch2a
I0627 17:37:08.045330  1680 net.cpp:129] Top shape: 8 512 7 7 (200704)
I0627 17:37:08.045334  1680 net.cpp:137] Memory required for data: 1803927712
I0627 17:37:08.045341  1680 layer_factory.hpp:77] Creating layer my_bn5b_branch2a
I0627 17:37:08.045351  1680 net.cpp:84] Creating Layer my_bn5b_branch2a
I0627 17:37:08.045356  1680 net.cpp:406] my_bn5b_branch2a <- my_res5b_branch2a
I0627 17:37:08.045364  1680 net.cpp:367] my_bn5b_branch2a -> my_res5b_branch2a (in-place)
I0627 17:37:08.045653  1680 net.cpp:122] Setting up my_bn5b_branch2a
I0627 17:37:08.045670  1680 net.cpp:129] Top shape: 8 512 7 7 (200704)
I0627 17:37:08.045675  1680 net.cpp:137] Memory required for data: 1804730528
I0627 17:37:08.045683  1680 layer_factory.hpp:77] Creating layer my_scale5b_branch2a
I0627 17:37:08.045693  1680 net.cpp:84] Creating Layer my_scale5b_branch2a
I0627 17:37:08.045698  1680 net.cpp:406] my_scale5b_branch2a <- my_res5b_branch2a
I0627 17:37:08.045704  1680 net.cpp:367] my_scale5b_branch2a -> my_res5b_branch2a (in-place)
I0627 17:37:08.045761  1680 layer_factory.hpp:77] Creating layer my_scale5b_branch2a
I0627 17:37:08.045943  1680 net.cpp:122] Setting up my_scale5b_branch2a
I0627 17:37:08.045959  1680 net.cpp:129] Top shape: 8 512 7 7 (200704)
I0627 17:37:08.045964  1680 net.cpp:137] Memory required for data: 1805533344
I0627 17:37:08.045970  1680 layer_factory.hpp:77] Creating layer my_res5b_branch2a_relu
I0627 17:37:08.045979  1680 net.cpp:84] Creating Layer my_res5b_branch2a_relu
I0627 17:37:08.045982  1680 net.cpp:406] my_res5b_branch2a_relu <- my_res5b_branch2a
I0627 17:37:08.045987  1680 net.cpp:367] my_res5b_branch2a_relu -> my_res5b_branch2a (in-place)
I0627 17:37:08.046273  1680 net.cpp:122] Setting up my_res5b_branch2a_relu
I0627 17:37:08.046291  1680 net.cpp:129] Top shape: 8 512 7 7 (200704)
I0627 17:37:08.046295  1680 net.cpp:137] Memory required for data: 1806336160
I0627 17:37:08.046300  1680 layer_factory.hpp:77] Creating layer my_res5b_branch2b
I0627 17:37:08.046313  1680 net.cpp:84] Creating Layer my_res5b_branch2b
I0627 17:37:08.046317  1680 net.cpp:406] my_res5b_branch2b <- my_res5b_branch2a
I0627 17:37:08.046326  1680 net.cpp:380] my_res5b_branch2b -> my_res5b_branch2b
I0627 17:37:08.052633  1680 net.cpp:122] Setting up my_res5b_branch2b
I0627 17:37:08.052656  1680 net.cpp:129] Top shape: 8 512 7 7 (200704)
I0627 17:37:08.052661  1680 net.cpp:137] Memory required for data: 1807138976
I0627 17:37:08.052667  1680 layer_factory.hpp:77] Creating layer my_bn5b_branch2b
I0627 17:37:08.052676  1680 net.cpp:84] Creating Layer my_bn5b_branch2b
I0627 17:37:08.052681  1680 net.cpp:406] my_bn5b_branch2b <- my_res5b_branch2b
I0627 17:37:08.052687  1680 net.cpp:367] my_bn5b_branch2b -> my_res5b_branch2b (in-place)
I0627 17:37:08.052994  1680 net.cpp:122] Setting up my_bn5b_branch2b
I0627 17:37:08.053010  1680 net.cpp:129] Top shape: 8 512 7 7 (200704)
I0627 17:37:08.053015  1680 net.cpp:137] Memory required for data: 1807941792
I0627 17:37:08.053025  1680 layer_factory.hpp:77] Creating layer my_scale5b_branch2b
I0627 17:37:08.053031  1680 net.cpp:84] Creating Layer my_scale5b_branch2b
I0627 17:37:08.053036  1680 net.cpp:406] my_scale5b_branch2b <- my_res5b_branch2b
I0627 17:37:08.053041  1680 net.cpp:367] my_scale5b_branch2b -> my_res5b_branch2b (in-place)
I0627 17:37:08.053103  1680 layer_factory.hpp:77] Creating layer my_scale5b_branch2b
I0627 17:37:08.053290  1680 net.cpp:122] Setting up my_scale5b_branch2b
I0627 17:37:08.053305  1680 net.cpp:129] Top shape: 8 512 7 7 (200704)
I0627 17:37:08.053310  1680 net.cpp:137] Memory required for data: 1808744608
I0627 17:37:08.053318  1680 layer_factory.hpp:77] Creating layer my_res5b_branch2b_relu
I0627 17:37:08.053344  1680 net.cpp:84] Creating Layer my_res5b_branch2b_relu
I0627 17:37:08.053352  1680 net.cpp:406] my_res5b_branch2b_relu <- my_res5b_branch2b
I0627 17:37:08.053359  1680 net.cpp:367] my_res5b_branch2b_relu -> my_res5b_branch2b (in-place)
I0627 17:37:08.053532  1680 net.cpp:122] Setting up my_res5b_branch2b_relu
I0627 17:37:08.053550  1680 net.cpp:129] Top shape: 8 512 7 7 (200704)
I0627 17:37:08.053555  1680 net.cpp:137] Memory required for data: 1809547424
I0627 17:37:08.053558  1680 layer_factory.hpp:77] Creating layer my_res5b_branch2c
I0627 17:37:08.053570  1680 net.cpp:84] Creating Layer my_res5b_branch2c
I0627 17:37:08.053575  1680 net.cpp:406] my_res5b_branch2c <- my_res5b_branch2b
I0627 17:37:08.053581  1680 net.cpp:380] my_res5b_branch2c -> my_res5b_branch2c
I0627 17:37:08.057130  1680 net.cpp:122] Setting up my_res5b_branch2c
I0627 17:37:08.057152  1680 net.cpp:129] Top shape: 8 2048 7 7 (802816)
I0627 17:37:08.057157  1680 net.cpp:137] Memory required for data: 1812758688
I0627 17:37:08.057163  1680 layer_factory.hpp:77] Creating layer my_bn5b_branch2c
I0627 17:37:08.057171  1680 net.cpp:84] Creating Layer my_bn5b_branch2c
I0627 17:37:08.057176  1680 net.cpp:406] my_bn5b_branch2c <- my_res5b_branch2c
I0627 17:37:08.057185  1680 net.cpp:367] my_bn5b_branch2c -> my_res5b_branch2c (in-place)
I0627 17:37:08.057492  1680 net.cpp:122] Setting up my_bn5b_branch2c
I0627 17:37:08.057507  1680 net.cpp:129] Top shape: 8 2048 7 7 (802816)
I0627 17:37:08.057512  1680 net.cpp:137] Memory required for data: 1815969952
I0627 17:37:08.057520  1680 layer_factory.hpp:77] Creating layer my_scale5b_branch2c
I0627 17:37:08.057528  1680 net.cpp:84] Creating Layer my_scale5b_branch2c
I0627 17:37:08.057533  1680 net.cpp:406] my_scale5b_branch2c <- my_res5b_branch2c
I0627 17:37:08.057538  1680 net.cpp:367] my_scale5b_branch2c -> my_res5b_branch2c (in-place)
I0627 17:37:08.057600  1680 layer_factory.hpp:77] Creating layer my_scale5b_branch2c
I0627 17:37:08.057792  1680 net.cpp:122] Setting up my_scale5b_branch2c
I0627 17:37:08.057808  1680 net.cpp:129] Top shape: 8 2048 7 7 (802816)
I0627 17:37:08.057812  1680 net.cpp:137] Memory required for data: 1819181216
I0627 17:37:08.057819  1680 layer_factory.hpp:77] Creating layer my_res5b
I0627 17:37:08.057827  1680 net.cpp:84] Creating Layer my_res5b
I0627 17:37:08.057832  1680 net.cpp:406] my_res5b <- res5a_res5a_relu_0_split_1
I0627 17:37:08.057837  1680 net.cpp:406] my_res5b <- my_res5b_branch2c
I0627 17:37:08.057847  1680 net.cpp:380] my_res5b -> my_res5b
I0627 17:37:08.057886  1680 net.cpp:122] Setting up my_res5b
I0627 17:37:08.057901  1680 net.cpp:129] Top shape: 8 2048 7 7 (802816)
I0627 17:37:08.057905  1680 net.cpp:137] Memory required for data: 1822392480
I0627 17:37:08.057909  1680 layer_factory.hpp:77] Creating layer my_res5b_relu
I0627 17:37:08.057921  1680 net.cpp:84] Creating Layer my_res5b_relu
I0627 17:37:08.057926  1680 net.cpp:406] my_res5b_relu <- my_res5b
I0627 17:37:08.057931  1680 net.cpp:367] my_res5b_relu -> my_res5b (in-place)
I0627 17:37:08.058224  1680 net.cpp:122] Setting up my_res5b_relu
I0627 17:37:08.058243  1680 net.cpp:129] Top shape: 8 2048 7 7 (802816)
I0627 17:37:08.058248  1680 net.cpp:137] Memory required for data: 1825603744
I0627 17:37:08.058251  1680 layer_factory.hpp:77] Creating layer my_res5b_my_res5b_relu_0_split
I0627 17:37:08.058259  1680 net.cpp:84] Creating Layer my_res5b_my_res5b_relu_0_split
I0627 17:37:08.058264  1680 net.cpp:406] my_res5b_my_res5b_relu_0_split <- my_res5b
I0627 17:37:08.058271  1680 net.cpp:380] my_res5b_my_res5b_relu_0_split -> my_res5b_my_res5b_relu_0_split_0
I0627 17:37:08.058279  1680 net.cpp:380] my_res5b_my_res5b_relu_0_split -> my_res5b_my_res5b_relu_0_split_1
I0627 17:37:08.058342  1680 net.cpp:122] Setting up my_res5b_my_res5b_relu_0_split
I0627 17:37:08.058358  1680 net.cpp:129] Top shape: 8 2048 7 7 (802816)
I0627 17:37:08.058363  1680 net.cpp:129] Top shape: 8 2048 7 7 (802816)
I0627 17:37:08.058367  1680 net.cpp:137] Memory required for data: 1832026272
I0627 17:37:08.058384  1680 layer_factory.hpp:77] Creating layer my_res5c_branch2a
I0627 17:37:08.058398  1680 net.cpp:84] Creating Layer my_res5c_branch2a
I0627 17:37:08.058403  1680 net.cpp:406] my_res5c_branch2a <- my_res5b_my_res5b_relu_0_split_0
I0627 17:37:08.058413  1680 net.cpp:380] my_res5c_branch2a -> my_res5c_branch2a
I0627 17:37:08.061506  1680 net.cpp:122] Setting up my_res5c_branch2a
I0627 17:37:08.061528  1680 net.cpp:129] Top shape: 8 512 7 7 (200704)
I0627 17:37:08.061532  1680 net.cpp:137] Memory required for data: 1832829088
I0627 17:37:08.061539  1680 layer_factory.hpp:77] Creating layer my_bn5c_branch2a
I0627 17:37:08.061550  1680 net.cpp:84] Creating Layer my_bn5c_branch2a
I0627 17:37:08.061555  1680 net.cpp:406] my_bn5c_branch2a <- my_res5c_branch2a
I0627 17:37:08.061561  1680 net.cpp:367] my_bn5c_branch2a -> my_res5c_branch2a (in-place)
I0627 17:37:08.061858  1680 net.cpp:122] Setting up my_bn5c_branch2a
I0627 17:37:08.061874  1680 net.cpp:129] Top shape: 8 512 7 7 (200704)
I0627 17:37:08.061879  1680 net.cpp:137] Memory required for data: 1833631904
I0627 17:37:08.061888  1680 layer_factory.hpp:77] Creating layer my_scale5c_branch2a
I0627 17:37:08.061897  1680 net.cpp:84] Creating Layer my_scale5c_branch2a
I0627 17:37:08.061900  1680 net.cpp:406] my_scale5c_branch2a <- my_res5c_branch2a
I0627 17:37:08.061906  1680 net.cpp:367] my_scale5c_branch2a -> my_res5c_branch2a (in-place)
I0627 17:37:08.061966  1680 layer_factory.hpp:77] Creating layer my_scale5c_branch2a
I0627 17:37:08.062153  1680 net.cpp:122] Setting up my_scale5c_branch2a
I0627 17:37:08.062170  1680 net.cpp:129] Top shape: 8 512 7 7 (200704)
I0627 17:37:08.062175  1680 net.cpp:137] Memory required for data: 1834434720
I0627 17:37:08.062181  1680 layer_factory.hpp:77] Creating layer my_res5c_branch2a_relu
I0627 17:37:08.062191  1680 net.cpp:84] Creating Layer my_res5c_branch2a_relu
I0627 17:37:08.062194  1680 net.cpp:406] my_res5c_branch2a_relu <- my_res5c_branch2a
I0627 17:37:08.062201  1680 net.cpp:367] my_res5c_branch2a_relu -> my_res5c_branch2a (in-place)
I0627 17:37:08.062549  1680 net.cpp:122] Setting up my_res5c_branch2a_relu
I0627 17:37:08.062568  1680 net.cpp:129] Top shape: 8 512 7 7 (200704)
I0627 17:37:08.062572  1680 net.cpp:137] Memory required for data: 1835237536
I0627 17:37:08.062577  1680 layer_factory.hpp:77] Creating layer my_res5c_branch2b
I0627 17:37:08.062592  1680 net.cpp:84] Creating Layer my_res5c_branch2b
I0627 17:37:08.062597  1680 net.cpp:406] my_res5c_branch2b <- my_res5c_branch2a
I0627 17:37:08.062603  1680 net.cpp:380] my_res5c_branch2b -> my_res5c_branch2b
I0627 17:37:08.069169  1680 net.cpp:122] Setting up my_res5c_branch2b
I0627 17:37:08.069193  1680 net.cpp:129] Top shape: 8 512 7 7 (200704)
I0627 17:37:08.069197  1680 net.cpp:137] Memory required for data: 1836040352
I0627 17:37:08.069205  1680 layer_factory.hpp:77] Creating layer my_bn5c_branch2b
I0627 17:37:08.069216  1680 net.cpp:84] Creating Layer my_bn5c_branch2b
I0627 17:37:08.069222  1680 net.cpp:406] my_bn5c_branch2b <- my_res5c_branch2b
I0627 17:37:08.069228  1680 net.cpp:367] my_bn5c_branch2b -> my_res5c_branch2b (in-place)
I0627 17:37:08.069532  1680 net.cpp:122] Setting up my_bn5c_branch2b
I0627 17:37:08.069550  1680 net.cpp:129] Top shape: 8 512 7 7 (200704)
I0627 17:37:08.069553  1680 net.cpp:137] Memory required for data: 1836843168
I0627 17:37:08.069562  1680 layer_factory.hpp:77] Creating layer my_scale5c_branch2b
I0627 17:37:08.069573  1680 net.cpp:84] Creating Layer my_scale5c_branch2b
I0627 17:37:08.069579  1680 net.cpp:406] my_scale5c_branch2b <- my_res5c_branch2b
I0627 17:37:08.069586  1680 net.cpp:367] my_scale5c_branch2b -> my_res5c_branch2b (in-place)
I0627 17:37:08.069650  1680 layer_factory.hpp:77] Creating layer my_scale5c_branch2b
I0627 17:37:08.069844  1680 net.cpp:122] Setting up my_scale5c_branch2b
I0627 17:37:08.069861  1680 net.cpp:129] Top shape: 8 512 7 7 (200704)
I0627 17:37:08.069865  1680 net.cpp:137] Memory required for data: 1837645984
I0627 17:37:08.069872  1680 layer_factory.hpp:77] Creating layer my_res5c_branch2b_relu
I0627 17:37:08.069895  1680 net.cpp:84] Creating Layer my_res5c_branch2b_relu
I0627 17:37:08.069900  1680 net.cpp:406] my_res5c_branch2b_relu <- my_res5c_branch2b
I0627 17:37:08.069907  1680 net.cpp:367] my_res5c_branch2b_relu -> my_res5c_branch2b (in-place)
I0627 17:37:08.070086  1680 net.cpp:122] Setting up my_res5c_branch2b_relu
I0627 17:37:08.070102  1680 net.cpp:129] Top shape: 8 512 7 7 (200704)
I0627 17:37:08.070106  1680 net.cpp:137] Memory required for data: 1838448800
I0627 17:37:08.070111  1680 layer_factory.hpp:77] Creating layer my_res5c_branch2c
I0627 17:37:08.070125  1680 net.cpp:84] Creating Layer my_res5c_branch2c
I0627 17:37:08.070130  1680 net.cpp:406] my_res5c_branch2c <- my_res5c_branch2b
I0627 17:37:08.070137  1680 net.cpp:380] my_res5c_branch2c -> my_res5c_branch2c
I0627 17:37:08.073730  1680 net.cpp:122] Setting up my_res5c_branch2c
I0627 17:37:08.073753  1680 net.cpp:129] Top shape: 8 2048 7 7 (802816)
I0627 17:37:08.073758  1680 net.cpp:137] Memory required for data: 1841660064
I0627 17:37:08.073765  1680 layer_factory.hpp:77] Creating layer my_bn5c_branch2c
I0627 17:37:08.073776  1680 net.cpp:84] Creating Layer my_bn5c_branch2c
I0627 17:37:08.073781  1680 net.cpp:406] my_bn5c_branch2c <- my_res5c_branch2c
I0627 17:37:08.073789  1680 net.cpp:367] my_bn5c_branch2c -> my_res5c_branch2c (in-place)
I0627 17:37:08.074102  1680 net.cpp:122] Setting up my_bn5c_branch2c
I0627 17:37:08.074120  1680 net.cpp:129] Top shape: 8 2048 7 7 (802816)
I0627 17:37:08.074124  1680 net.cpp:137] Memory required for data: 1844871328
I0627 17:37:08.074136  1680 layer_factory.hpp:77] Creating layer my_scale5c_branch2c
I0627 17:37:08.074143  1680 net.cpp:84] Creating Layer my_scale5c_branch2c
I0627 17:37:08.074147  1680 net.cpp:406] my_scale5c_branch2c <- my_res5c_branch2c
I0627 17:37:08.074153  1680 net.cpp:367] my_scale5c_branch2c -> my_res5c_branch2c (in-place)
I0627 17:37:08.074218  1680 layer_factory.hpp:77] Creating layer my_scale5c_branch2c
I0627 17:37:08.074414  1680 net.cpp:122] Setting up my_scale5c_branch2c
I0627 17:37:08.074430  1680 net.cpp:129] Top shape: 8 2048 7 7 (802816)
I0627 17:37:08.074434  1680 net.cpp:137] Memory required for data: 1848082592
I0627 17:37:08.074440  1680 layer_factory.hpp:77] Creating layer my_res5c
I0627 17:37:08.074451  1680 net.cpp:84] Creating Layer my_res5c
I0627 17:37:08.074456  1680 net.cpp:406] my_res5c <- my_res5b_my_res5b_relu_0_split_1
I0627 17:37:08.074461  1680 net.cpp:406] my_res5c <- my_res5c_branch2c
I0627 17:37:08.074466  1680 net.cpp:380] my_res5c -> my_res5c
I0627 17:37:08.074527  1680 net.cpp:122] Setting up my_res5c
I0627 17:37:08.074542  1680 net.cpp:129] Top shape: 8 2048 7 7 (802816)
I0627 17:37:08.074545  1680 net.cpp:137] Memory required for data: 1851293856
I0627 17:37:08.074549  1680 layer_factory.hpp:77] Creating layer my_res5c_relu
I0627 17:37:08.074556  1680 net.cpp:84] Creating Layer my_res5c_relu
I0627 17:37:08.074561  1680 net.cpp:406] my_res5c_relu <- my_res5c
I0627 17:37:08.074566  1680 net.cpp:367] my_res5c_relu -> my_res5c (in-place)
I0627 17:37:08.074865  1680 net.cpp:122] Setting up my_res5c_relu
I0627 17:37:08.074883  1680 net.cpp:129] Top shape: 8 2048 7 7 (802816)
I0627 17:37:08.074887  1680 net.cpp:137] Memory required for data: 1854505120
I0627 17:37:08.074892  1680 layer_factory.hpp:77] Creating layer my_pool5
I0627 17:37:08.074903  1680 net.cpp:84] Creating Layer my_pool5
I0627 17:37:08.074908  1680 net.cpp:406] my_pool5 <- my_res5c
I0627 17:37:08.074915  1680 net.cpp:380] my_pool5 -> my_pool5
I0627 17:37:08.075616  1680 net.cpp:122] Setting up my_pool5
I0627 17:37:08.075637  1680 net.cpp:129] Top shape: 8 2048 1 1 (16384)
I0627 17:37:08.075642  1680 net.cpp:137] Memory required for data: 1854570656
I0627 17:37:08.075646  1680 layer_factory.hpp:77] Creating layer my_fc1000
I0627 17:37:08.075659  1680 net.cpp:84] Creating Layer my_fc1000
I0627 17:37:08.075664  1680 net.cpp:406] my_fc1000 <- my_pool5
I0627 17:37:08.075670  1680 net.cpp:380] my_fc1000 -> my_fc1000
I0627 17:37:08.075891  1680 net.cpp:122] Setting up my_fc1000
I0627 17:37:08.075920  1680 net.cpp:129] Top shape: 8 50 (400)
I0627 17:37:08.075925  1680 net.cpp:137] Memory required for data: 1854572256
I0627 17:37:08.075932  1680 layer_factory.hpp:77] Creating layer my_fc1000_my_fc1000_0_split
I0627 17:37:08.075942  1680 net.cpp:84] Creating Layer my_fc1000_my_fc1000_0_split
I0627 17:37:08.075945  1680 net.cpp:406] my_fc1000_my_fc1000_0_split <- my_fc1000
I0627 17:37:08.075953  1680 net.cpp:380] my_fc1000_my_fc1000_0_split -> my_fc1000_my_fc1000_0_split_0
I0627 17:37:08.075961  1680 net.cpp:380] my_fc1000_my_fc1000_0_split -> my_fc1000_my_fc1000_0_split_1
I0627 17:37:08.075968  1680 net.cpp:380] my_fc1000_my_fc1000_0_split -> my_fc1000_my_fc1000_0_split_2
I0627 17:37:08.075974  1680 net.cpp:380] my_fc1000_my_fc1000_0_split -> my_fc1000_my_fc1000_0_split_3
I0627 17:37:08.076040  1680 net.cpp:122] Setting up my_fc1000_my_fc1000_0_split
I0627 17:37:08.076056  1680 net.cpp:129] Top shape: 8 50 (400)
I0627 17:37:08.076061  1680 net.cpp:129] Top shape: 8 50 (400)
I0627 17:37:08.076066  1680 net.cpp:129] Top shape: 8 50 (400)
I0627 17:37:08.076069  1680 net.cpp:129] Top shape: 8 50 (400)
I0627 17:37:08.076073  1680 net.cpp:137] Memory required for data: 1854578656
I0627 17:37:08.076077  1680 layer_factory.hpp:77] Creating layer loss
I0627 17:37:08.076088  1680 net.cpp:84] Creating Layer loss
I0627 17:37:08.076093  1680 net.cpp:406] loss <- my_fc1000_my_fc1000_0_split_0
I0627 17:37:08.076098  1680 net.cpp:406] loss <- label_input_1_split_0
I0627 17:37:08.076104  1680 net.cpp:380] loss -> loss
…
